checkpoints_16_tasks/16_task_groups_PUGCL_skewed_data/model_14.pth.tar (torch_old, 418685 bytes, 136 tensors)

l1.weight_mu f4 [800, 29]
00000000: 46df 393e 6d0c c23d d940 68bd f7be d6bd
00000010: 12aa 02be eeac e1bd 89fa 643d b4aa 0c3e
00000020: 7ec9 2c3d c735 d03d b3d4 39bd dd08 5d3d
00000030: ffb7 5ebd 08cc abbd 560f 62be d38d a43b
00000040: 319c 533d 2dae 76bd 1426 bebd 3fcc 77bd
00000050: d88f 91bd f2ad 9a3c 4d21 3fbe a4ca babc
00000060: e4a7 cc3c 944c eb3d 118a c4bd 6431 fdbd
00000070: b58a 1a3e fd0d 48bd ff98 eabd c908 483d
00000080: c164 14be 4ed5 8d3a 3233 243e 704b ba3d
00000090: 6858 46be 74ee e83c 7ce3 bdbc b89e 2d3e
000000a0: b581 103e 6759 793d 4334 223e b7d8 aa3c
000000b0: 6472 503d 1fda 65bd 1e8e e0bc 4579 fa3d
000000c0: 8749 003e 0e51 10be d52a 34bb 04f8 db3d
000000d0: 60a5 96bd 187d b0bd ec97 f93b 4abd 463d
000000e0: 084d ecbd 894f 28bd ba85 6ebd 5a62 103e
000000f0: dec1 17be 618e fabc dd58 dabd 59a4 ec3d
00000100: 1a7e 2a3d 98f7 b63d ab8a 033c ec42 21be
00000110: a78e f03d addc 90bd 50c6 a53d 20a1 8c3d
00000120: 534b 773d 009e 83bc a46e 44be 7159 55be
00000130: 5fe6 2c3e 2ae2 463c c0ba 72bd 280a 3abe
00000140: fbfe 323d 651c 98bd e788 143d 8f0d e43c
00000150: a138 fe3d b954 6b3e 8905 913b 7bf4 ffbc
00000160: 99ea 82be 5638 24bd 96ce 05be a924 0c3e
00000170: 435f 873a c046 f8bd 3949 6fbd 47c0 333e
00000180: d7cc 41be 46b6 e4bd ebc4 13bd 9413 76bd
00000190: a42d 22bb 470c a83d 7997 453e 1e4d d3bc
000001a0: d31d 3e3c 2b99 20bd 952f 8abd ac6e b83d
000001b0: ee06 7c3c ebbd 97bc fc4a 9e3d d356 20be
000001c0: f75f 173d 2ca9 e8bd 2c7a 8ebd 7be1 8f3c
000001d0: fc7e 60bd 4c47 b93c cd7d debb 8882 b43d
000001e0: 2d0b 0abd b27a 383b af46 e5bc ab9e a53d
000001f0: 3c23 8e3d 3096 c83d ac04 f4bd ba14 14be
00000200: ace0 553d a076 79bd 895e c93c 6abc aebd
00000210: 3b87 a3bb dead 8c3c 84cf 7b3d 949d 6fbd
00000220: 17cb 393c 7c7d 763c d5e3 143d 45c5 b6bd
00000230: c014 1e3d 73d7 16be b4e4 dfbd 612e f13d
00000240: 1be4 19bd 7a35 a2bc f063 d23c 1f53 82be
00000250: cd8e 443d 59de 82bd 726e 7cbe 3949 1cbe
00000260: 30f2 963d cfe1 1ebe 180c e8bc 9a3b 3f3e
00000270: a0bf d33d e834 5f3b fbe0 033e 01b4 803d
00000280: 26ae 85ba 974d ba3d 0eaf 48bd 6ebb 61bd
00000290: 4d27 013d 6671 2b3d 88d8 9cbd 1db3 9a3d
000002a0: 614b e1bc b9bc 3cbd 9cc2 91bd 41ac f8bd
000002b0: df19 553e d43d ad3d ec1c d43c 5289 11bd
000002c0: f27b 963b 1d00 3e3d d2d6 2e3d f247 d7bd
000002d0: 3fff 223d 75ca 23bd 3b0d 4ebc 9d18 2a3e
000002e0: 112b e1bc 2134 bf3b 0215 47bd 5b1e 1dbe
000002f0: a5c3 1b3e 7f42 4cbd 0715 f9bc 5c5f b0bd
00000300: 383d 60bd c31b caba 204f 16be f7ae 8fbd
00000310: e046 b8ba e1ec 18bd e4da c13c 7d99 803d
00000320: 001f 7f3e 9569 913d a7f3 98bd aab7 123d
00000330: eb19 0a3e fddd 8bbd 14db f33c 0ad0 3a3e
00000340: 0e9d d03d c2cc 163d de58 2cbc 7a85 d13d
00000350: d66d 203e d19b 4abe d5c3 ecbd 3d39 d0bd
00000360: 0d32 37bd a9fc e1bd d965 ab3d 219d 273e
00000370: 991c 01bd ae4d ac3d 6cd9 9dbc 1c51 91bd
00000380: 7f18 05bd 3cfb afbb 8890 d83d 4de5 acbd
00000390: f4db 863d ad55 c33c fd6e 263d 468f e1bd
000003a0: 2205 ac3d 34b3 fd3d 3205 df3d f2c1 84bc
000003b0: 3eb0 59bd 9086 13bd a583 e8bd e950 013e
000003c0: a880 1f3e 8b45 22bd b929 52bd 0822 98bc
000003d0: f166 ff3d c647 94bd b39c 2ebc 8688 523d
000003e0: 16db df3c b1dc c93d 7793 ac3d 87f7 1bbd
000003f0: bbd2 09bb 47ab 573e df72 2a3d 27a9 cc3d
0.18151578 0.09475026 -0.05670247 -0.104856424 -0.12760189 -0.11019312 0.05590299 0.13736993
0.042184345 0.10166507 -0.04536886 0.05396353 -0.05437469 -0.08388525 -0.22076163 0.0050217896
0.051662628 -0.0602247 -0.092846066 -0.06049752 -0.07107514 0.018881772 -0.18665047 -0.022801705
0.0249824 0.114892155 -0.095966466 -0.12362936 0.15091975 -0.048841465 -0.11454963 0.048836503
-0.1449156 0.0010821016 0.16035154 0.0909642 -0.19369662 0.028434016 -0.023179762 0.16955078
0.1411198 0.060876276 0.15840249 0.02085529 0.05089034 -0.05611622 -0.027411517 0.122301616
0.12528048 -0.1409342 -0.002749135 0.107406646 -0.073557615 -0.0861761 0.0076169875 0.048520364
-0.1153813 -0.041091476 -0.058233 0.14100018 -0.14820048 -0.03058547 -0.106614806 0.11554784
0.041624166 0.089339435 0.0080286665 -0.15748185 0.11745959 -0.070733406 0.08094466 0.0686667
0.06037457 -0.016066551 -0.19182831 -0.208349 0.16884755 0.012138883 -0.05926013 -0.18167937
0.0437002 -0.07427291 0.036263373 0.027838496 0.12413145 0.22981538 0.0044257087 -0.031244507
-0.2556961 -0.04009279 -0.13067088 0.1368586 0.0010328073 -0.121228695 -0.05841944 0.17553817
-0.18925796 -0.111675784 -0.036076467 -0.060077265 -0.0024746442 0.08205467 0.19296063 -0.025793608
0.01160379 -0.039208572 -0.06747357 0.09005484 0.015382512 -0.018523177 0.07729146 -0.15658121
0.036956754 -0.11360392 -0.06956896 0.017563572 -0.0548086 0.022617005 -0.006789899 0.08813959
-0.033702064 0.0028149304 -0.027987806 0.08086904 0.06940314 0.09794271 -0.119149536 -0.14461032
0.052216217 -0.060904145 0.02458121 -0.08532031 -0.004990486 0.01717275 0.0614772 -0.058499888
0.011339924 0.015044566 0.03635009 -0.08924345 0.038594007 -0.14730625 -0.109322935 0.11776424
-0.037571054 -0.01980089 0.02568242 -0.2545404 0.047987748 -0.06390066 -0.24651507 -0.15262307
0.07370412 -0.15515827 -0.02832608 0.1867508 0.10339284 0.0034058634 0.12878792 0.06284333
-0.0010198995 0.0909683 -0.04899507 -0.055110388 0.03153162 0.041856192 -0.076584876 0.075536944
-0.027501764 -0.046078417 -0.07117197 -0.1214223 0.2081065 0.084590584 0.025892697 -0.03553135
0.004592412 0.046386827 0.042685337 -0.10511769 0.039794203 -0.039988 -0.012576397 0.16610952
-0.027486356 0.0058350717 -0.04860402 -0.15343611 0.15211351 -0.049868103 -0.030405534 -0.08611938
-0.054745883 -0.0015419651 -0.14678621 -0.07015794 -0.0014059208 -0.03733528 0.023663945 0.062792756
0.2491417 0.07100216 -0.07468348 0.035819687 0.1348645 -0.0682945 0.02976755 0.18243423
0.10186206 0.036816366 -0.010519234 0.10230537 0.15666899 -0.19786002 -0.115607895 -0.10167167
-0.044725467 -0.11034519 0.08369035 0.16368534 -0.031521413 0.08413254 -0.019268714 -0.070955485
-0.032494064 -0.0053705256 0.10574442 -0.08442173 0.065849215 0.023844564 0.04063319 -0.11013655
0.083994165 0.12387696 0.10889663 -0.016205762 -0.053146593 -0.036017 -0.11353234 0.12628521
0.15576422 -0.039617103 -0.05130932 -0.018570915 0.124708064 -0.07240252 -0.010657477 0.05139973
0.027326148 0.09856547 0.08426564 -0.038077857 -0.0021030146 0.21061431 0.041613456 0.09993201

l1.weight_rho f4 [800, 29]
00000000: e4f1 2bc0 a8dd 39c0 1752 3fc0 60c3 45c0
00000010: 89db 43c0 7802 3cc0 e64c 37c0 db68 42c0
00000020: 4e6f 41c0 7a2d 3fc0 e1a5 3cc0 ec3d 3ec0
00000030: e1f0 3fc0 54cb 3fc0 9b0d 38c0 6b5f 41c0
00000040: 4d88 3bc0 b283 3ac0 d77a 45c0 9910 43c0
00000050: 8766 38c0 b849 34c0 f41e 40c0 abbc 45c0
00000060: 6a5f 3fc0 d1bb 38c0 37e1 38c0 7086 3fc0
00000070: f537 46c0 f84a 37c0 4cf5 3bc0 dd97 38c0
00000080: 595f 3ec0 c3a7 43c0 85f7 43c0 2bdf 37c0
00000090: 7a98 3fc0 6c11 3fc0 a82f 3fc0 17bd 44c0
000000a0: f119 42c0 19e5 44c0 d14e 3ac0 db70 3cc0
000000b0: 40a4 42c0 60f8 3fc0 376b 4ec0 5b8d 3dc0
000000c0: d0b4 41c0 2420 3dc0 481d 3cc0 cd1e 46c0
000000d0: 8f4e 3bc0 1a1b 39c0 88ed 48c0 6dc9 3ec0
000000e0: 3a60 41c0 36e6 3bc0 938c 44c0 389d 38c0
000000f0: 8d40 48c0 6ccd 4ac0 3523 3cc0 9658 4bc0
00000100: 3a38 43c0 d90f 41c0 b9a5 3ac0 5bfa 46c0
00000110: af57 3dc0 6e62 41c0 e60a 3fc0 905b 3ec0
00000120: 6562 40c0 1658 44c0 9501 42c0 c332 3ac0
00000130: e2ac 44c0 020a 44c0 7c98 39c0 01b4 3fc0
00000140: 4bf1 45c0 95c0 3ac0 b81c 44c0 ded0 3ac0
00000150: b864 42c0 4d8d 49c0 1065 39c0 8995 36c0
00000160: f7c8 44c0 0e4f 3ec0 dda4 45c0 ddc6 3fc0
00000170: aa8b 3cc0 1335 37c0 4d69 42c0 28ae 44c0
00000180: ba0b 3fc0 0230 3ec0 20d5 43c0 63cb 46c0
00000190: 884e 3ec0 172f 46c0 004b 44c0 4212 3ac0
000001a0: 42e2 44c0 209b 45c0 a90e 38c0 3cc8 42c0
000001b0: 73cd 3dc0 d3e3 43c0 58b1 3cc0 758e 3cc0
000001c0: ede2 42c0 97be 3ec0 2dd5 44c0 e22e 40c0
000001d0: abd3 4ec0 b068 44c0 5f4f 3dc0 fca5 44c0
000001e0: eb55 48c0 d83d 3dc0 647e 40c0 32f3 3ac0
000001f0: 6063 48c0 61d7 41c0 b10a 47c0 af32 44c0
00000200: 43bf 3fc0 d073 3cc0 67bd 39c0 7c8e 3ac0
00000210: 1c37 40c0 c676 47c0 6aa0 3ec0 7998 3cc0
00000220: 8a58 4ec0 f8ad 39c0 a3c4 3cc0 0dbe 3fc0
00000230: 6a72 3ac0 610f 3ec0 69cc 3fc0 0dcd 40c0
00000240: 5938 3fc0 ce0b 30c0 8f23 33c0 16c5 35c0
00000250: 2323 44c0 530a 3fc0 d43a 3dc0 ccc4 38c0
00000260: d85d 39c0 fa2b 46c0 2291 43c0 f45b 3ec0
00000270: ecc5 41c0 1bf9 3fc0 4b5b 44c0 ff54 3ec0
00000280: 0a1f 43c0 fb06 38c0 5031 43c0 60f4 46c0
00000290: 91fb 3ec0 a51d 3dc0 284e 49c0 805c 3ec0
000002a0: b151 4cc0 9418 45c0 ff6e 49c0 57af 40c0
000002b0: abd0 41c0 4692 40c0 43ae 42c0 354c 45c0
000002c0: 3288 3ac0 bb4e 30c0 2d35 3bc0 d2a9 48c0
000002d0: 982f 52c0 6cff 42c0 4748 3fc0 5d27 48c0
000002e0: 880b 44c0 5b3c 46c0 ce86 4ac0 a1fa 37c0
000002f0: 6aeb 3ec0 2a07 4bc0 d115 3dc0 d1d8 43c0
00000300: 902a 3fc0 94ec 3ac0 ccaf 3fc0 e035 43c0
00000310: 542c 43c0 fce7 40c0 3eb1 45c0 814a 34c0
00000320: 1b91 34c0 9cae 3cc0 8d23 36c0 a05b 34c0
00000330: c0ed 41c0 e84c 43c0 5ddb 3bc0 e237 45c0
00000340: 1246 44c0 478f 3cc0 10c6 40c0 5a75 3fc0
00000350: 229f 41c0 a19b 3fc0 4108 3fc0 63ec 43c0
00000360: 396a 46c0 d42b 3bc0 4a1c 40c0 b397 4bc0
00000370: a837 39c0 0dda 3ec0 e8fe 40c0 1bc3 40c0
00000380: 1584 3ac0 3775 41c0 7fca 39c0 d145 3ec0
00000390: 2754 4ac0 64bd 3bc0 1a54 3bc0 8c97 41c0
000003a0: 7632 36c0 01d9 3fc0 c0fd 3bc0 e3e0 44c0
000003b0: abed 48c0 bce8 44c0 3427 44c0 7853 41c0
000003c0: 86a7 3ec0 dee2 38c0 dc06 43c0 544f 3ac0
000003d0: 7498 40c0 f3a1 48c0 d686 3dc0 0cdb 40c0
000003e0: ffd8 3ac0 246b 3cc0 c1eb 36c0 d2f2 48c0
000003f0: 5d9e 34c0 8b90 3bc0 b7c3 50c0 3954 3ac0
-2.6866388 -2.9041538 -2.9893854 -3.0900497 -3.0602744 -2.9376507 -2.8640685 -3.0376499
-3.0224185 -2.9871507 -2.9476244 -2.9725294 -2.999077 -2.9967852 -2.8758304 -3.0214489
-2.9301941 -2.914288 -3.0856225 -3.047888 -2.8812578 -2.8169994 -3.0018892 -3.0896404
-2.9901986 -2.8864634 -2.888746 -2.9925804 -3.0971653 -2.8639507 -2.9368467 -2.884269
-2.9745696 -3.0571144 -3.0619824 -2.872996 -2.9936814 -2.9854383 -2.9872837 -3.0740411
-3.0328333 -3.076483 -2.9110606 -2.9443882 -3.041275 -2.9995346 -3.2252939 -2.9617527
-3.026661 -2.9550867 -2.9392872 -3.09563 -2.9266698 -2.8922791 -3.1394978 -2.981044
-3.0214982 -2.935926 -3.07108 -2.8845959 -3.1289399 -3.168788 -2.9396489 -3.1772819
-3.0503068 -3.0165923 -2.916365 -3.1090305 -2.9584768 -3.0216327 -2.9850402 -2.9743385
-3.0060055 -3.0678763 -3.0313466 -2.9093482 -3.073052 -3.0631108 -2.899932 -2.9953616
-3.0928524 -2.9180043 -3.0642529 -2.9189982 -3.0373974 -3.1492493 -2.8967934 -2.852877
-3.074766 -2.973575 -3.0881875 -2.9965127 -2.9460244 -2.8626144 -3.037677 -3.0731297
-2.9850907 -2.9716802 -3.059883 -3.1061637 -2.9735432 -3.0966241 -3.0670776 -2.9073644
-3.0763097 -3.087593 -2.8758948 -3.0434713 -2.9656646 -3.0607803 -2.9483242 -2.946195
-3.0451005 -2.9803827 -3.0755112 -3.0028615 -3.2316692 -3.0688896 -2.9579694 -3.072631
-3.130244 -2.9568996 -3.0077143 -2.9210935 -3.1310654 -3.0287707 -3.1100276 -3.0655935
-2.9960487 -2.9445686 -2.9021852 -2.9149466 -3.0033636 -3.1166244 -2.978541 -2.9468062
-3.224154 -2.9012432 -2.9495018 -2.9959748 -2.9132333 -2.9696887 -2.9968512 -3.0125153
-2.9878142 -2.7507205 -2.7990453 -2.8401542 -3.0646446 -2.9850051 -2.9567156 -2.8870115
-2.8963528 -3.096434 -3.0557332 -2.9743624 -3.0277052 -2.9995792 -3.068072 -2.9739377
-3.0487695 -2.875426 -3.0498848 -3.1086655 -2.9841044 -2.9549344 -3.1453953 -2.9743958
-3.192486 -3.0796251 -3.1473997 -3.010702 -3.028361 -3.0089278 -3.041886 -3.0827763
-2.9145627 -2.7548053 -2.9251206 -3.135365 -3.284155 -3.0468397 -2.9887865 -3.1274025
-3.0632038 -3.0974338 -3.1644778 -2.8746722 -2.9831185 -3.1723123 -2.9544566 -3.0601084
-2.9869728 -2.9206896 -2.9951048 -3.0501633 -3.0495806 -3.0141592 -3.088943 -2.8170474
-2.8213565 -2.9481573 -2.8459198 -2.8180923 -3.030136 -3.051569 -2.9352639 -3.0815358
-3.0667768 -2.946245 -3.0120888 -2.9915376 -3.0253377 -2.9938738 -2.9848788 -3.061303
-3.1002333 -2.92455 -3.0017266 -3.181134 -2.894022 -2.9820588 -3.0155582 -3.0119083
-2.9143116 -3.0227792 -2.9029844 -2.9730113 -3.1613863 -2.9334345 -2.9270082 -3.0248747
-2.84683 -2.9976199 -2.9373627 -3.076226 -3.139506 -3.076705 -3.0648928 -3.0207195
-2.9789748 -2.8888469 -3.0472937 -2.9110918 -3.009305 -3.1348846 -2.9613547 -3.0133696
-2.9194944 -2.9440393 -2.8581393 -3.1398206 -2.8221657 -2.9306972 -3.2619455 -2.9113905

l1.bias_mu f4 [800]
00000000: 8a3f 9fbd 1022 a6be 7a0a 633d d832 3e3e
00000010: 834d 123e 7c3e 31bd fb61 aabd bca6 51be
00000020: 2a99 e83d 984b 59bd 422c dcbd 5245 6a3d
00000030: aaf5 b9bc 88c4 64be 3109 bcbd 53bf 693e
00000040: f9cb f93c 647b 29be cf10 b3bd 8467 023e
00000050: 379f e8bb af9b ea3d 02fa ae3d 1b2f 773e
00000060: f463 53bd 67fb 133d 6548 1bbe b74c 2f3e
00000070: 6147 7bbd 2af6 18be 04e9 84bc 586d 1dbe
00000080: b4e5 a9bd b6f8 3c3e 3e01 ffbd adab d23d
00000090: e573 91bb ae65 38be cfdb 08be e77e d63d
000000a0: f6d8 893d 319e c63d b3f7 f83c dbc4 913e
000000b0: ea6f 8dbd 9608 4d3d 8539 6c3d 83bd 8fbd
000000c0: 7086 4dbd 2b07 25bd 38ea 01be f9a3 d13d
000000d0: 00fb 843d cad2 50be ab9d ee3c 2603 6dbe
000000e0: 6023 81ba 8499 4abe 137a 4bbd a4a2 c5bd
000000f0: 3377 60bd d209 d3bd e1de f93d bbb0 8dbd
00000100: 25bc 633d 6183 193e db0f 00be 99f8 98be
00000110: f982 1f3d dfd2 4d3e f58c 21be d31f 6c3d
00000120: eb97 c33c ecfb 8b3e fe55 053c 8c1c 25bd
00000130: 3f8d f43d e9e5 ae3d 6352 0cbe 8b71 23be
00000140: 3511 463d bf4a 16be a9b5 1b3e 6840 11bd
00000150: cad4 edbd 1806 22bd 0eb5 b33c 3d07 f9bd
00000160: 96f4 3fbd 2e48 623d d65d 833c 6b04 3b3d
00000170: 86ed ddbd 8e20 76bd 2b85 7d3e 856a e0bc
00000180: a923 103e 29df e9bd e934 813d a805 a13d
00000190: f705 32be 0e40 b03d 10fc 433e ee99 3cbe
000001a0: 9ffc 353d ee61 48bd 7de1 e23a 9d50 7c3d
000001b0: 676e f43c 1212 c13d 7f4b fd3c 8bc4 103d
000001c0: eb98 1cbd d52c 21be 7f9e 04bd 4987 9fbc
000001d0: 345a b23d 6ff4 afbd f0aa d83d 948b c23c
000001e0: e479 4bbc 476a 063d f5a0 3ebe 280b 2e3c
000001f0: 77fb f63b 3a81 ccbd 42c1 e93d 7e3d 363e
00000200: 4e45 1ebd 1249 7a3d 96c1 6cbc 194b 29bd
00000210: 82f8 a43c ff7c 193e eba4 463e d11d 88bd
00000220: 43f0 18bd f543 49be 996e 16be c733 38be
00000230: c3ab 26bd 796c 213d 92a6 1e3e fa63 af3c
00000240: 8be9 1bbd e7dc b13d d7d9 883e 3857 ffbc
00000250: cbb7 b8bc f0d0 c03d 9efb f33d 8134 2d3d
00000260: b8cf 593d cafe 533d c969 263e 8da7 adbc
00000270: de4c 23bd b77f 313b 4e91 9e3c 9e91 88bb
00000280: 31ad 1c3e e95b 1fbe 4657 86bc 9ef8 37bd
00000290: 47ec 91bd 203c 543d 89a2 34ba ff20 ef3d
000002a0: d3ed dbbd 6052 fcbd d51b 043e 88c9 3fbd
000002b0: 8bab 9d3d 1cb6 f23d 5a48 093e 7dcf 953e
000002c0: f030 fb3d 52ce ee3c 1e30 18bd 9085 433e
000002d0: 7a84 e53d e32b 343d 6426 be3d f2f0 e13c
000002e0: 9565 8f3d 8d4b e23a 3d64 263e 36c1 493d
000002f0: c799 043e e2a6 3c3d 20a5 97bd 3974 45bd
00000300: b3b6 203e 49fb 08be 4947 80bd b161 5a3b
00000310: 4608 35bc 4384 5d3d b29f c0bd ec98 05be
00000320: 035e fe3c e8e3 423e 97a9 4ebd 2cb5 2cbe
00000330: 1297 bb3d 8d08 913d f0f0 3ebe 28a1 dd3c
00000340: 70e6 a93d 564a 593d 9fd2 af3c d828 eebb
00000350: 52d1 293d 3475 043e 595b d23d 5c04 8f3d
00000360: b99b b93d dd71 a23d 86d9 353e 51d0 dfbd
00000370: c134 0e3e cd19 6e3d 2225 86be d3e1 3dbe
00000380: 2276 e9bd ba18 a73d 9bd2 513e aedb 67bd
00000390: 88b6 ccbd be3a e43d e8da 123e e176 75bd
000003a0: 9ef2 10bd ca50 42bc 3398 ef3d 5213 1ebd
000003b0: b0ce 933d 8d8e 1abc 03f8 603d f3c0 143e
000003c0: e824 523e a23d 893d 69f2 aa3d 2197 033d
000003d0: e3d5 1c3e 7799 5f3c 5607 75bd c05a 0ebe
000003e0: f44d c4bc 6798 e13d 365c c23d 37fb 39bc
000003f0: d350 a5bd 7132 843d 6fcf f93b 8741 883e
-0.07775791 -0.32447863 0.055429913 0.18574083 0.14287381 -0.04327248 -0.083194695 -0.2047376
0.11357339 -0.053050607 -0.10750629 0.057195015 -0.02270015 -0.22340596 -0.091814406 0.2282689
0.03049277 -0.16550976 -0.0874344 0.127348 -0.007099058 0.114554755 0.08543779 0.24139063
-0.051608995 0.036128428 -0.15164335 0.17119108 -0.06134737 -0.14937654 -0.016224392 -0.15373743
-0.082957655 0.1845425 -0.12451409 0.10286651 -0.0044388645 -0.18007538 -0.133651 0.104734235
0.06730835 0.09698141 0.03039155 0.284705 -0.069061115 0.050057016 0.057672042 -0.07018568
-0.050177038 -0.04029004 -0.12687004 0.102363534 0.06493187 -0.2039291 0.029127916 -0.23145732
-0.0009852462 -0.19785124 -0.049676966 -0.09650162 -0.054801177 -0.103046075 0.12200714 -0.06918474
0.05559935 0.14991523 -0.12506048 -0.29877165 0.038943265 0.20099972 -0.15776427 0.057647537
0.023876151 0.2734064 0.008138178 -0.040310428 0.11941003 0.08539946 -0.13703303 -0.15961282
0.048356254 -0.14676951 0.15206017 -0.035461813 -0.11612852 -0.039556593 0.02193692 -0.12159584
-0.046864115 0.055244617 0.016035955 0.04565851 -0.108363196 -0.06008964 0.24757831 -0.027394542
0.14076103 -0.114195175 0.0630892 0.07862407 -0.17385088 0.086059675 0.19139123 -0.18418095
0.04443037 -0.048921518 0.0017309632 0.061600316 0.0298378 0.09427275 0.030919788 0.035343688
-0.03823177 -0.15739758 -0.032377716 -0.019473689 0.08708611 -0.08591544 0.10579479 0.023748197
-0.012419198 0.032816198 -0.18616088 0.010622777 0.007537301 -0.099855855 0.11413814 0.17796895
-0.038640313 0.06110484 -0.014450451 -0.041331384 0.020138029 0.14989088 0.19398849 -0.06646312
-0.037338506 -0.1965483 -0.14690627 -0.17988501 -0.04069115 0.03941009 0.15493229 0.021409977
-0.03806452 0.08684712 0.267287 -0.031169519 -0.022548577 0.09414852 0.119132265 0.0422864
0.05317661 0.051756658 0.16251291 -0.021198059 -0.03986823 0.002708418 0.019356396 -0.0041677495
0.15300442 -0.15562405 -0.016399037 -0.044914834 -0.071251445 0.051815152 -0.00068906747 0.116762154
-0.10738721 -0.12320399 0.12901242 -0.046823055 0.07698735 0.11851141 0.13406506 0.29259863
0.122651935 0.029151116 -0.037155263 0.19093919 0.112069085 0.043987166 0.09284666 0.027580712
0.07001797 0.0017264948 0.16249175 0.049256526 0.12949286 0.04605759 -0.07404542 -0.04820654
0.15694694 -0.13377108 -0.062635966 0.0033322389 -0.011049336 0.054081213 -0.094054595 -0.13046616
0.031050688 0.19032252 -0.050454702 -0.16865987 0.09159674 0.07081709 -0.18646598 0.027054384
0.082959056 0.053049408 0.021462737 -0.0072680525 0.04145939 0.12935334 0.102713294 0.06983253
0.09062905 0.07931874 0.1775876 -0.10928405 0.13887312 0.058130074 -0.26200205 -0.18543176
-0.11399485 0.08159013 0.20490496 -0.056605987 -0.099957526 0.11144017 0.14341319 -0.059927825
-0.035387628 -0.011860082 0.116989516 -0.038592644 0.07217157 -0.009433401 0.054924022 0.1452673
0.20521891 0.06701209 0.08347017 0.03212655 0.15315966 0.013647429 -0.05982145 -0.13901806
-0.023962952 0.110153966 0.09490244 -0.011351398 -0.080720566 0.064549334 0.007623605 0.26612493

l1.bias_rho f4 [800]
00000000: e679 3ec0 6cff 35c0 f057 48c0 865d 37c0
00000010: 7c4f 3fc0 9da3 51c0 f707 3ec0 338a 44c0
00000020: 3ddd 35c0 eff3 3fc0 e325 43c0 56bd 3ec0
00000030: e41b 41c0 9e3b 3fc0 d7fc 39c0 03fa 49c0
00000040: 82a7 46c0 4d41 3dc0 d2a5 30c0 59c9 43c0
00000050: 89b9 3dc0 ec69 40c0 6be1 40c0 121c 3ac0
00000060: 78bd 49c0 5b1f 40c0 01e8 31c0 c095 4fc0
00000070: 6b1c 3ec0 5fbc 38c0 07e4 44c0 b5f6 34c0
00000080: 78a6 3dc0 9c8d 3ac0 7325 41c0 22fd 3cc0
00000090: 9357 42c0 21c5 48c0 8f95 46c0 611f 41c0
000000a0: 41a8 41c0 f532 48c0 662a 3fc0 8e45 44c0
000000b0: 5043 3fc0 1796 3fc0 8c3e 47c0 cac2 43c0
000000c0: e721 42c0 b582 3bc0 47ad 43c0 4bc7 38c0
000000d0: 8a0d 3dc0 3391 38c0 d537 3ac0 2912 36c0
000000e0: 85e8 42c0 d485 37c0 51c6 43c0 1424 44c0
000000f0: e0c1 40c0 f519 3cc0 33d8 46c0 9626 48c0
00000100: b0ee 36c0 e539 47c0 cbb0 3bc0 1efb 40c0
00000110: 6d57 42c0 1f27 3fc0 d259 4cc0 faef 3fc0
00000120: e63a 41c0 6558 35c0 a2b0 40c0 4a1d 41c0
00000130: d878 48c0 76f0 3ec0 9034 45c0 7bdc 3cc0
00000140: 9bcf 34c0 89ea 3cc0 4a13 4fc0 afd8 4ac0
00000150: 59a1 43c0 5d52 36c0 6607 3ec0 6e99 39c0
00000160: 9ec2 36c0 4f61 3fc0 dced 4ec0 ad5a 44c0
00000170: 5f60 53c0 9e0c 3dc0 db87 4ec0 6e7c 3fc0
00000180: a8d6 42c0 fa3b 34c0 5dcb 37c0 0870 48c0
00000190: a5fc 3ec0 c877 37c0 4e3c 34c0 25a8 4dc0
000001a0: d9dc 3ec0 2d2c 3ec0 75eb 40c0 f3e1 47c0
000001b0: 3d69 3fc0 a802 42c0 b76a 46c0 8e8c 40c0
000001c0: 36d1 3dc0 cee0 45c0 b9c5 46c0 ed7a 41c0
000001d0: b0e7 39c0 58cf 43c0 c567 3ec0 3a0f 43c0
000001e0: a115 3ac0 4501 3ac0 f91f 4ac0 9c97 39c0
000001f0: 26d4 45c0 4715 44c0 0f43 3cc0 0e68 45c0
00000200: 95cc 3bc0 9bf3 40c0 4b60 31c0 bbac 43c0
00000210: eabb 47c0 836f 41c0 f0bd 3cc0 2af6 3ec0
00000220: fa9a 44c0 8ef1 47c0 0bff 41c0 d0c8 3dc0
00000230: 44fb 39c0 01f2 43c0 079a 3fc0 3b2d 39c0
00000240: fb04 3ec0 d8c0 46c0 99d5 45c0 2dca 44c0
00000250: bb4a 46c0 ad0e 48c0 f6ba 45c0 fd6a 39c0
00000260: 7aa7 3ec0 e361 47c0 0765 3fc0 61f6 38c0
00000270: f7f0 4bc0 4c1f 4dc0 8bd8 3cc0 aedd 35c0
00000280: 243a 39c0 e8a1 46c0 79c0 3ec0 95fd 45c0
00000290: 1419 39c0 54a3 3fc0 3d5d 4cc0 0224 42c0
000002a0: 14fe 39c0 65b1 3bc0 474e 42c0 7f1f 48c0
000002b0: fea9 43c0 dea7 3fc0 0139 37c0 3d8b 3bc0
000002c0: 8ab8 3dc0 e75d 41c0 2aca 46c0 e234 3dc0
000002d0: 83a6 46c0 dd30 3bc0 3b4f 42c0 a38f 37c0
000002e0: 4d12 37c0 6438 39c0 4a5c 3ac0 9a6a 40c0
000002f0: 797a 40c0 8bfb 45c0 aee2 3ec0 13f8 3dc0
00000300: ea2d 3ec0 be17 39c0 2e2c 4ac0 18fa 3bc0
00000310: a13a 43c0 8cd7 39c0 3acb 34c0 b076 3bc0
00000320: ebc8 3fc0 4d34 40c0 e05f 4ac0 db0f 45c0
00000330: d1be 49c0 23a8 4dc0 ec3c 34c0 82bf 3bc0
00000340: b517 45c0 d523 3ac0 3e23 44c0 b34c 31c0
00000350: 25c3 3bc0 a875 3fc0 b936 3bc0 b7f4 3ec0
00000360: 9375 41c0 06be 2ec0 94e0 3ec0 4390 4bc0
00000370: eb92 3dc0 04d1 3fc0 f3fc 32c0 63b7 36c0
00000380: 2929 3dc0 2c2d 40c0 d5f0 3fc0 abb2 47c0
00000390: c712 31c0 6775 4bc0 12e2 30c0 d802 41c0
000003a0: 961f 41c0 4559 41c0 6276 45c0 b47b 38c0
000003b0: 7863 45c0 a0a6 3dc0 5d04 47c0 ad1f 36c0
000003c0: 7194 3fc0 aaec 3ec0 3d5e 37c0 498c 42c0
000003d0: 3efa 3ec0 315e 3fc0 7727 43c0 27f7 3ac0
000003e0: 10d8 3fc0 7e58 38c0 ae01 40c0 4cb3 3fc0
000003f0: 23f2 37c0 0078 47c0 ad95 45c0 71ba 41c0
-2.97619 -2.8437147 -3.1303673 -2.8650832 -2.9892263 -3.2756112 -2.9692361 -3.070935
-2.8416283 -2.9992635 -3.0491874 -2.9803061 -3.0173273 -2.9880137 -2.9060571 -3.1558845
-3.1039739 -2.9571106 -2.7601209 -3.0591643 -2.9644492 -3.006465 -3.0137584 -2.9079633
-3.1521893 -3.0019138 -2.7797854 -3.243515 -2.9704845 -2.8864973 -3.0764177 -2.8275578
-2.9632854 -2.9148932 -3.0179107 -2.95295 -3.036595 -3.1370318 -3.1028783 -3.0175402
-3.0258944 -3.1281102 -2.9869628 -3.0667453 -2.9884834 -2.9935358 -3.1131926 -3.058764
-3.0333192 -2.9298527 -3.057451 -2.8871639 -2.9539514 -2.8838623 -2.9096577 -2.8448584
-3.0454419 -2.8675432 -3.0589793 -3.064702 -3.0118332 -2.9390843 -3.1069458 -3.127355
-2.8583183 -3.1129086 -2.9326656 -3.015327 -3.036586 -2.9867628 -3.1929822 -2.999022
-3.0192199 -2.8335202 -3.0107808 -3.0174127 -3.1323757 -2.9834266 -3.0813332 -2.950957
-2.8251712 -2.951815 -3.2355523 -3.1694753 -3.0567229 -2.848777 -2.9692016 -2.8999896
-2.8556285 -2.9903142 -3.2332678 -3.0680344 -3.302757 -2.953895 -3.227042 -2.9919696
-3.0443516 -2.8161607 -2.8717873 -3.1318378 -2.9841702 -2.8666859 -2.8161807 -3.2133877
-2.9822295 -2.9714463 -3.0143712 -3.1231658 -2.9907982 -3.0314121 -3.1002634 -3.0085788
-2.9658942 -3.091846 -3.105818 -3.0231278 -2.904766 -3.0595303 -2.9750836 -3.0478044
-2.9075701 -2.9063275 -3.1582015 -2.8998785 -3.0910735 -3.0637987 -2.941593 -3.084476
-2.9343617 -3.0148685 -2.7715023 -3.0574176 -3.1208444 -3.0224311 -2.9490929 -2.9837747
-3.071959 -3.1241183 -3.0311916 -2.9653816 -2.905961 -3.0616457 -2.993776 -2.8933856
-2.969054 -3.1055202 -3.091162 -3.0748398 -3.0983112 -3.1258957 -3.0895362 -2.897155
-2.978972 -3.1153495 -2.9905412 -2.8900378 -3.1865823 -3.2050352 -2.9507167 -2.8416553
-2.8941736 -3.103632 -2.9804976 -3.0936024 -2.8921556 -2.9943438 -3.1931908 -3.0334477
-2.9061327 -2.9327023 -3.0360277 -3.1269224 -3.0572505 -2.9946208 -2.8628542 -2.9303734
-2.9643884 -3.0213563 -3.106089 -2.9563527 -3.103913 -2.9248574 -3.0360858 -2.868142
-2.860492 -2.8940668 -2.9118829 -3.0065064 -3.0074751 -3.093478 -2.9825854 -2.9682662
-2.9715524 -2.892074 -3.1589465 -2.9371395 -3.0504534 -2.903781 -2.824904 -2.929119
-2.996638 -3.0031922 -3.1621017 -3.0790927 -3.1522715 -3.2133873 -2.8162184 -2.9335637
-3.079572 -2.908437 -3.064651 -2.7703063 -2.9337857 -2.9915562 -2.925215 -2.9836862
-3.0228012 -2.730348 -2.9824572 -3.18068 -2.9620922 -2.9971323 -2.7966888 -2.854943
-2.9556372 -3.002757 -2.9990742 -3.12028 -2.766771 -3.1790407 -2.7637982 -3.0157986
-3.0175529 -3.0210736 -3.0853505 -2.8825502 -3.084196 -2.963295 -3.1096413 -2.8456833
-2.9934351 -2.9831948 -2.8651268 -3.0398123 -2.9840236 -2.990124 -3.0492837 -2.921335
-2.9975624 -2.8804011 -3.0001025 -2.9953184 -2.8741539 -3.1166992 -3.0872605 -3.0270045

l1.weight.mu f4 [800, 29]
00000000: 46df 393e 6d0c c23d d940 68bd f7be d6bd
00000010: 12aa 02be eeac e1bd 89fa 643d b4aa 0c3e
00000020: 7ec9 2c3d c735 d03d b3d4 39bd dd08 5d3d
00000030: ffb7 5ebd 08cc abbd 560f 62be d38d a43b
00000040: 319c 533d 2dae 76bd 1426 bebd 3fcc 77bd
00000050: d88f 91bd f2ad 9a3c 4d21 3fbe a4ca babc
00000060: e4a7 cc3c 944c eb3d 118a c4bd 6431 fdbd
00000070: b58a 1a3e fd0d 48bd ff98 eabd c908 483d
00000080: c164 14be 4ed5 8d3a 3233 243e 704b ba3d
00000090: 6858 46be 74ee e83c 7ce3 bdbc b89e 2d3e
000000a0: b581 103e 6759 793d 4334 223e b7d8 aa3c
000000b0: 6472 503d 1fda 65bd 1e8e e0bc 4579 fa3d
000000c0: 8749 003e 0e51 10be d52a 34bb 04f8 db3d
000000d0: 60a5 96bd 187d b0bd ec97 f93b 4abd 463d
000000e0: 084d ecbd 894f 28bd ba85 6ebd 5a62 103e
000000f0: dec1 17be 618e fabc dd58 dabd 59a4 ec3d
00000100: 1a7e 2a3d 98f7 b63d ab8a 033c ec42 21be
00000110: a78e f03d addc 90bd 50c6 a53d 20a1 8c3d
00000120: 534b 773d 009e 83bc a46e 44be 7159 55be
00000130: 5fe6 2c3e 2ae2 463c c0ba 72bd 280a 3abe
00000140: fbfe 323d 651c 98bd e788 143d 8f0d e43c
00000150: a138 fe3d b954 6b3e 8905 913b 7bf4 ffbc
00000160: 99ea 82be 5638 24bd 96ce 05be a924 0c3e
00000170: 435f 873a c046 f8bd 3949 6fbd 47c0 333e
00000180: d7cc 41be 46b6 e4bd ebc4 13bd 9413 76bd
00000190: a42d 22bb 470c a83d 7997 453e 1e4d d3bc
000001a0: d31d 3e3c 2b99 20bd 952f 8abd ac6e b83d
000001b0: ee06 7c3c ebbd 97bc fc4a 9e3d d356 20be
000001c0: f75f 173d 2ca9 e8bd 2c7a 8ebd 7be1 8f3c
000001d0: fc7e 60bd 4c47 b93c cd7d debb 8882 b43d
000001e0: 2d0b 0abd b27a 383b af46 e5bc ab9e a53d
000001f0: 3c23 8e3d 3096 c83d ac04 f4bd ba14 14be
00000200: ace0 553d a076 79bd 895e c93c 6abc aebd
00000210: 3b87 a3bb dead 8c3c 84cf 7b3d 949d 6fbd
00000220: 17cb 393c 7c7d 763c d5e3 143d 45c5 b6bd
00000230: c014 1e3d 73d7 16be b4e4 dfbd 612e f13d
00000240: 1be4 19bd 7a35 a2bc f063 d23c 1f53 82be
00000250: cd8e 443d 59de 82bd 726e 7cbe 3949 1cbe
00000260: 30f2 963d cfe1 1ebe 180c e8bc 9a3b 3f3e
00000270: a0bf d33d e834 5f3b fbe0 033e 01b4 803d
00000280: 26ae 85ba 974d ba3d 0eaf 48bd 6ebb 61bd
00000290: 4d27 013d 6671 2b3d 88d8 9cbd 1db3 9a3d
000002a0: 614b e1bc b9bc 3cbd 9cc2 91bd 41ac f8bd
000002b0: df19 553e d43d ad3d ec1c d43c 5289 11bd
000002c0: f27b 963b 1d00 3e3d d2d6 2e3d f247 d7bd
000002d0: 3fff 223d 75ca 23bd 3b0d 4ebc 9d18 2a3e
000002e0: 112b e1bc 2134 bf3b 0215 47bd 5b1e 1dbe
000002f0: a5c3 1b3e 7f42 4cbd 0715 f9bc 5c5f b0bd
00000300: 383d 60bd c31b caba 204f 16be f7ae 8fbd
00000310: e046 b8ba e1ec 18bd e4da c13c 7d99 803d
00000320: 001f 7f3e 9569 913d a7f3 98bd aab7 123d
00000330: eb19 0a3e fddd 8bbd 14db f33c 0ad0 3a3e
00000340: 0e9d d03d c2cc 163d de58 2cbc 7a85 d13d
00000350: d66d 203e d19b 4abe d5c3 ecbd 3d39 d0bd
00000360: 0d32 37bd a9fc e1bd d965 ab3d 219d 273e
00000370: 991c 01bd ae4d ac3d 6cd9 9dbc 1c51 91bd
00000380: 7f18 05bd 3cfb afbb 8890 d83d 4de5 acbd
00000390: f4db 863d ad55 c33c fd6e 263d 468f e1bd
000003a0: 2205 ac3d 34b3 fd3d 3205 df3d f2c1 84bc
000003b0: 3eb0 59bd 9086 13bd a583 e8bd e950 013e
000003c0: a880 1f3e 8b45 22bd b929 52bd 0822 98bc
000003d0: f166 ff3d c647 94bd b39c 2ebc 8688 523d
000003e0: 16db df3c b1dc c93d 7793 ac3d 87f7 1bbd
000003f0: bbd2 09bb 47ab 573e df72 2a3d 27a9 cc3d
0.18151578 0.09475026 -0.05670247 -0.104856424 -0.12760189 -0.11019312 0.05590299 0.13736993
0.042184345 0.10166507 -0.04536886 0.05396353 -0.05437469 -0.08388525 -0.22076163 0.0050217896
0.051662628 -0.0602247 -0.092846066 -0.06049752 -0.07107514 0.018881772 -0.18665047 -0.022801705
0.0249824 0.114892155 -0.095966466 -0.12362936 0.15091975 -0.048841465 -0.11454963 0.048836503
-0.1449156 0.0010821016 0.16035154 0.0909642 -0.19369662 0.028434016 -0.023179762 0.16955078
0.1411198 0.060876276 0.15840249 0.02085529 0.05089034 -0.05611622 -0.027411517 0.122301616
0.12528048 -0.1409342 -0.002749135 0.107406646 -0.073557615 -0.0861761 0.0076169875 0.048520364
-0.1153813 -0.041091476 -0.058233 0.14100018 -0.14820048 -0.03058547 -0.106614806 0.11554784
0.041624166 0.089339435 0.0080286665 -0.15748185 0.11745959 -0.070733406 0.08094466 0.0686667
0.06037457 -0.016066551 -0.19182831 -0.208349 0.16884755 0.012138883 -0.05926013 -0.18167937
0.0437002 -0.07427291 0.036263373 0.027838496 0.12413145 0.22981538 0.0044257087 -0.031244507
-0.2556961 -0.04009279 -0.13067088 0.1368586 0.0010328073 -0.121228695 -0.05841944 0.17553817
-0.18925796 -0.111675784 -0.036076467 -0.060077265 -0.0024746442 0.08205467 0.19296063 -0.025793608
0.01160379 -0.039208572 -0.06747357 0.09005484 0.015382512 -0.018523177 0.07729146 -0.15658121
0.036956754 -0.11360392 -0.06956896 0.017563572 -0.0548086 0.022617005 -0.006789899 0.08813959
-0.033702064 0.0028149304 -0.027987806 0.08086904 0.06940314 0.09794271 -0.119149536 -0.14461032
0.052216217 -0.060904145 0.02458121 -0.08532031 -0.004990486 0.01717275 0.0614772 -0.058499888
0.011339924 0.015044566 0.03635009 -0.08924345 0.038594007 -0.14730625 -0.109322935 0.11776424
-0.037571054 -0.01980089 0.02568242 -0.2545404 0.047987748 -0.06390066 -0.24651507 -0.15262307
0.07370412 -0.15515827 -0.02832608 0.1867508 0.10339284 0.0034058634 0.12878792 0.06284333
-0.0010198995 0.0909683 -0.04899507 -0.055110388 0.03153162 0.041856192 -0.076584876 0.075536944
-0.027501764 -0.046078417 -0.07117197 -0.1214223 0.2081065 0.084590584 0.025892697 -0.03553135
0.004592412 0.046386827 0.042685337 -0.10511769 0.039794203 -0.039988 -0.012576397 0.16610952
-0.027486356 0.0058350717 -0.04860402 -0.15343611 0.15211351 -0.049868103 -0.030405534 -0.08611938
-0.054745883 -0.0015419651 -0.14678621 -0.07015794 -0.0014059208 -0.03733528 0.023663945 0.062792756
0.2491417 0.07100216 -0.07468348 0.035819687 0.1348645 -0.0682945 0.02976755 0.18243423
0.10186206 0.036816366 -0.010519234 0.10230537 0.15666899 -0.19786002 -0.115607895 -0.10167167
-0.044725467 -0.11034519 0.08369035 0.16368534 -0.031521413 0.08413254 -0.019268714 -0.070955485
-0.032494064 -0.0053705256 0.10574442 -0.08442173 0.065849215 0.023844564 0.04063319 -0.11013655
0.083994165 0.12387696 0.10889663 -0.016205762 -0.053146593 -0.036017 -0.11353234 0.12628521
0.15576422 -0.039617103 -0.05130932 -0.018570915 0.124708064 -0.07240252 -0.010657477 0.05139973
0.027326148 0.09856547 0.08426564 -0.038077857 -0.0021030146 0.21061431 0.041613456 0.09993201

l1.weight.rho f4 [800, 29]
00000000: e4f1 2bc0 a8dd 39c0 1752 3fc0 60c3 45c0
00000010: 89db 43c0 7802 3cc0 e64c 37c0 db68 42c0
00000020: 4e6f 41c0 7a2d 3fc0 e1a5 3cc0 ec3d 3ec0
00000030: e1f0 3fc0 54cb 3fc0 9b0d 38c0 6b5f 41c0
00000040: 4d88 3bc0 b283 3ac0 d77a 45c0 9910 43c0
00000050: 8766 38c0 b849 34c0 f41e 40c0 abbc 45c0
00000060: 6a5f 3fc0 d1bb 38c0 37e1 38c0 7086 3fc0
00000070: f537 46c0 f84a 37c0 4cf5 3bc0 dd97 38c0
00000080: 595f 3ec0 c3a7 43c0 85f7 43c0 2bdf 37c0
00000090: 7a98 3fc0 6c11 3fc0 a82f 3fc0 17bd 44c0
000000a0: f119 42c0 19e5 44c0 d14e 3ac0 db70 3cc0
000000b0: 40a4 42c0 60f8 3fc0 376b 4ec0 5b8d 3dc0
000000c0: d0b4 41c0 2420 3dc0 481d 3cc0 cd1e 46c0
000000d0: 8f4e 3bc0 1a1b 39c0 88ed 48c0 6dc9 3ec0
000000e0: 3a60 41c0 36e6 3bc0 938c 44c0 389d 38c0
000000f0: 8d40 48c0 6ccd 4ac0 3523 3cc0 9658 4bc0
00000100: 3a38 43c0 d90f 41c0 b9a5 3ac0 5bfa 46c0
00000110: af57 3dc0 6e62 41c0 e60a 3fc0 905b 3ec0
00000120: 6562 40c0 1658 44c0 9501 42c0 c332 3ac0
00000130: e2ac 44c0 020a 44c0 7c98 39c0 01b4 3fc0
00000140: 4bf1 45c0 95c0 3ac0 b81c 44c0 ded0 3ac0
00000150: b864 42c0 4d8d 49c0 1065 39c0 8995 36c0
00000160: f7c8 44c0 0e4f 3ec0 dda4 45c0 ddc6 3fc0
00000170: aa8b 3cc0 1335 37c0 4d69 42c0 28ae 44c0
00000180: ba0b 3fc0 0230 3ec0 20d5 43c0 63cb 46c0
00000190: 884e 3ec0 172f 46c0 004b 44c0 4212 3ac0
000001a0: 42e2 44c0 209b 45c0 a90e 38c0 3cc8 42c0
000001b0: 73cd 3dc0 d3e3 43c0 58b1 3cc0 758e 3cc0
000001c0: ede2 42c0 97be 3ec0 2dd5 44c0 e22e 40c0
000001d0: abd3 4ec0 b068 44c0 5f4f 3dc0 fca5 44c0
000001e0: eb55 48c0 d83d 3dc0 647e 40c0 32f3 3ac0
000001f0: 6063 48c0 61d7 41c0 b10a 47c0 af32 44c0
00000200: 43bf 3fc0 d073 3cc0 67bd 39c0 7c8e 3ac0
00000210: 1c37 40c0 c676 47c0 6aa0 3ec0 7998 3cc0
00000220: 8a58 4ec0 f8ad 39c0 a3c4 3cc0 0dbe 3fc0
00000230: 6a72 3ac0 610f 3ec0 69cc 3fc0 0dcd 40c0
00000240: 5938 3fc0 ce0b 30c0 8f23 33c0 16c5 35c0
00000250: 2323 44c0 530a 3fc0 d43a 3dc0 ccc4 38c0
00000260: d85d 39c0 fa2b 46c0 2291 43c0 f45b 3ec0
00000270: ecc5 41c0 1bf9 3fc0 4b5b 44c0 ff54 3ec0
00000280: 0a1f 43c0 fb06 38c0 5031 43c0 60f4 46c0
00000290: 91fb 3ec0 a51d 3dc0 284e 49c0 805c 3ec0
000002a0: b151 4cc0 9418 45c0 ff6e 49c0 57af 40c0
000002b0: abd0 41c0 4692 40c0 43ae 42c0 354c 45c0
000002c0: 3288 3ac0 bb4e 30c0 2d35 3bc0 d2a9 48c0
000002d0: 982f 52c0 6cff 42c0 4748 3fc0 5d27 48c0
000002e0: 880b 44c0 5b3c 46c0 ce86 4ac0 a1fa 37c0
000002f0: 6aeb 3ec0 2a07 4bc0 d115 3dc0 d1d8 43c0
00000300: 902a 3fc0 94ec 3ac0 ccaf 3fc0 e035 43c0
00000310: 542c 43c0 fce7 40c0 3eb1 45c0 814a 34c0
00000320: 1b91 34c0 9cae 3cc0 8d23 36c0 a05b 34c0
00000330: c0ed 41c0 e84c 43c0 5ddb 3bc0 e237 45c0
00000340: 1246 44c0 478f 3cc0 10c6 40c0 5a75 3fc0
00000350: 229f 41c0 a19b 3fc0 4108 3fc0 63ec 43c0
00000360: 396a 46c0 d42b 3bc0 4a1c 40c0 b397 4bc0
00000370: a837 39c0 0dda 3ec0 e8fe 40c0 1bc3 40c0
00000380: 1584 3ac0 3775 41c0 7fca 39c0 d145 3ec0
00000390: 2754 4ac0 64bd 3bc0 1a54 3bc0 8c97 41c0
000003a0: 7632 36c0 01d9 3fc0 c0fd 3bc0 e3e0 44c0
000003b0: abed 48c0 bce8 44c0 3427 44c0 7853 41c0
000003c0: 86a7 3ec0 dee2 38c0 dc06 43c0 544f 3ac0
000003d0: 7498 40c0 f3a1 48c0 d686 3dc0 0cdb 40c0
000003e0: ffd8 3ac0 246b 3cc0 c1eb 36c0 d2f2 48c0
000003f0: 5d9e 34c0 8b90 3bc0 b7c3 50c0 3954 3ac0
-2.6866388 -2.9041538 -2.9893854 -3.0900497 -3.0602744 -2.9376507 -2.8640685 -3.0376499
-3.0224185 -2.9871507 -2.9476244 -2.9725294 -2.999077 -2.9967852 -2.8758304 -3.0214489
-2.9301941 -2.914288 -3.0856225 -3.047888 -2.8812578 -2.8169994 -3.0018892 -3.0896404
-2.9901986 -2.8864634 -2.888746 -2.9925804 -3.0971653 -2.8639507 -2.9368467 -2.884269
-2.9745696 -3.0571144 -3.0619824 -2.872996 -2.9936814 -2.9854383 -2.9872837 -3.0740411
-3.0328333 -3.076483 -2.9110606 -2.9443882 -3.041275 -2.9995346 -3.2252939 -2.9617527
-3.026661 -2.9550867 -2.9392872 -3.09563 -2.9266698 -2.8922791 -3.1394978 -2.981044
-3.0214982 -2.935926 -3.07108 -2.8845959 -3.1289399 -3.168788 -2.9396489 -3.1772819
-3.0503068 -3.0165923 -2.916365 -3.1090305 -2.9584768 -3.0216327 -2.9850402 -2.9743385
-3.0060055 -3.0678763 -3.0313466 -2.9093482 -3.073052 -3.0631108 -2.899932 -2.9953616
-3.0928524 -2.9180043 -3.0642529 -2.9189982 -3.0373974 -3.1492493 -2.8967934 -2.852877
-3.074766 -2.973575 -3.0881875 -2.9965127 -2.9460244 -2.8626144 -3.037677 -3.0731297
-2.9850907 -2.9716802 -3.059883 -3.1061637 -2.9735432 -3.0966241 -3.0670776 -2.9073644
-3.0763097 -3.087593 -2.8758948 -3.0434713 -2.9656646 -3.0607803 -2.9483242 -2.946195
-3.0451005 -2.9803827 -3.0755112 -3.0028615 -3.2316692 -3.0688896 -2.9579694 -3.072631
-3.130244 -2.9568996 -3.0077143 -2.9210935 -3.1310654 -3.0287707 -3.1100276 -3.0655935
-2.9960487 -2.9445686 -2.9021852 -2.9149466 -3.0033636 -3.1166244 -2.978541 -2.9468062
-3.224154 -2.9012432 -2.9495018 -2.9959748 -2.9132333 -2.9696887 -2.9968512 -3.0125153
-2.9878142 -2.7507205 -2.7990453 -2.8401542 -3.0646446 -2.9850051 -2.9567156 -2.8870115
-2.8963528 -3.096434 -3.0557332 -2.9743624 -3.0277052 -2.9995792 -3.068072 -2.9739377
-3.0487695 -2.875426 -3.0498848 -3.1086655 -2.9841044 -2.9549344 -3.1453953 -2.9743958
-3.192486 -3.0796251 -3.1473997 -3.010702 -3.028361 -3.0089278 -3.041886 -3.0827763
-2.9145627 -2.7548053 -2.9251206 -3.135365 -3.284155 -3.0468397 -2.9887865 -3.1274025
-3.0632038 -3.0974338 -3.1644778 -2.8746722 -2.9831185 -3.1723123 -2.9544566 -3.0601084
-2.9869728 -2.9206896 -2.9951048 -3.0501633 -3.0495806 -3.0141592 -3.088943 -2.8170474
-2.8213565 -2.9481573 -2.8459198 -2.8180923 -3.030136 -3.051569 -2.9352639 -3.0815358
-3.0667768 -2.946245 -3.0120888 -2.9915376 -3.0253377 -2.9938738 -2.9848788 -3.061303
-3.1002333 -2.92455 -3.0017266 -3.181134 -2.894022 -2.9820588 -3.0155582 -3.0119083
-2.9143116 -3.0227792 -2.9029844 -2.9730113 -3.1613863 -2.9334345 -2.9270082 -3.0248747
-2.84683 -2.9976199 -2.9373627 -3.076226 -3.139506 -3.076705 -3.0648928 -3.0207195
-2.9789748 -2.8888469 -3.0472937 -2.9110918 -3.009305 -3.1348846 -2.9613547 -3.0133696
-2.9194944 -2.9440393 -2.8581393 -3.1398206 -2.8221657 -2.9306972 -3.2619455 -2.9113905

l1.bias.mu f4 [800]
00000000: 8a3f 9fbd 1022 a6be 7a0a 633d d832 3e3e
00000010: 834d 123e 7c3e 31bd fb61 aabd bca6 51be
00000020: 2a99 e83d 984b 59bd 422c dcbd 5245 6a3d
00000030: aaf5 b9bc 88c4 64be 3109 bcbd 53bf 693e
00000040: f9cb f93c 647b 29be cf10 b3bd 8467 023e
00000050: 379f e8bb af9b ea3d 02fa ae3d 1b2f 773e
00000060: f463 53bd 67fb 133d 6548 1bbe b74c 2f3e
00000070: 6147 7bbd 2af6 18be 04e9 84bc 586d 1dbe
00000080: b4e5 a9bd b6f8 3c3e 3e01 ffbd adab d23d
00000090: e573 91bb ae65 38be cfdb 08be e77e d63d
000000a0: f6d8 893d 319e c63d b3f7 f83c dbc4 913e
000000b0: ea6f 8dbd 9608 4d3d 8539 6c3d 83bd 8fbd
000000c0: 7086 4dbd 2b07 25bd 38ea 01be f9a3 d13d
000000d0: 00fb 843d cad2 50be ab9d ee3c 2603 6dbe
000000e0: 6023 81ba 8499 4abe 137a 4bbd a4a2 c5bd
000000f0: 3377 60bd d209 d3bd e1de f93d bbb0 8dbd
00000100: 25bc 633d 6183 193e db0f 00be 99f8 98be
00000110: f982 1f3d dfd2 4d3e f58c 21be d31f 6c3d
00000120: eb97 c33c ecfb 8b3e fe55 053c 8c1c 25bd
00000130: 3f8d f43d e9e5 ae3d 6352 0cbe 8b71 23be
00000140: 3511 463d bf4a 16be a9b5 1b3e 6840 11bd
00000150: cad4 edbd 1806 22bd 0eb5 b33c 3d07 f9bd
00000160: 96f4 3fbd 2e48 623d d65d 833c 6b04 3b3d
00000170: 86ed ddbd 8e20 76bd 2b85 7d3e 856a e0bc
00000180: a923 103e 29df e9bd e934 813d a805 a13d
00000190: f705 32be 0e40 b03d 10fc 433e ee99 3cbe
000001a0: 9ffc 353d ee61 48bd 7de1 e23a 9d50 7c3d
000001b0: 676e f43c 1212 c13d 7f4b fd3c 8bc4 103d
000001c0: eb98 1cbd d52c 21be 7f9e 04bd 4987 9fbc
000001d0: 345a b23d 6ff4 afbd f0aa d83d 948b c23c
000001e0: e479 4bbc 476a 063d f5a0 3ebe 280b 2e3c
000001f0: 77fb f63b 3a81 ccbd 42c1 e93d 7e3d 363e
00000200: 4e45 1ebd 1249 7a3d 96c1 6cbc 194b 29bd
00000210: 82f8 a43c ff7c 193e eba4 463e d11d 88bd
00000220: 43f0 18bd f543 49be 996e 16be c733 38be
00000230: c3ab 26bd 796c 213d 92a6 1e3e fa63 af3c
00000240: 8be9 1bbd e7dc b13d d7d9 883e 3857 ffbc
00000250: cbb7 b8bc f0d0 c03d 9efb f33d 8134 2d3d
00000260: b8cf 593d cafe 533d c969 263e 8da7 adbc
00000270: de4c 23bd b77f 313b 4e91 9e3c 9e91 88bb
00000280: 31ad 1c3e e95b 1fbe 4657 86bc 9ef8 37bd
00000290: 47ec 91bd 203c 543d 89a2 34ba ff20 ef3d
000002a0: d3ed dbbd 6052 fcbd d51b 043e 88c9 3fbd
000002b0: 8bab 9d3d 1cb6 f23d 5a48 093e 7dcf 953e
000002c0: f030 fb3d 52ce ee3c 1e30 18bd 9085 433e
000002d0: 7a84 e53d e32b 343d 6426 be3d f2f0 e13c
000002e0: 9565 8f3d 8d4b e23a 3d64 263e 36c1 493d
000002f0: c799 043e e2a6 3c3d 20a5 97bd 3974 45bd
00000300: b3b6 203e 49fb 08be 4947 80bd b161 5a3b
00000310: 4608 35bc 4384 5d3d b29f c0bd ec98 05be
00000320: 035e fe3c e8e3 423e 97a9 4ebd 2cb5 2cbe
00000330: 1297 bb3d 8d08 913d f0f0 3ebe 28a1 dd3c
00000340: 70e6 a93d 564a 593d 9fd2 af3c d828 eebb
00000350: 52d1 293d 3475 043e 595b d23d 5c04 8f3d
00000360: b99b b93d dd71 a23d 86d9 353e 51d0 dfbd
00000370: c134 0e3e cd19 6e3d 2225 86be d3e1 3dbe
00000380: 2276 e9bd ba18 a73d 9bd2 513e aedb 67bd
00000390: 88b6 ccbd be3a e43d e8da 123e e176 75bd
000003a0: 9ef2 10bd ca50 42bc 3398 ef3d 5213 1ebd
000003b0: b0ce 933d 8d8e 1abc 03f8 603d f3c0 143e
000003c0: e824 523e a23d 893d 69f2 aa3d 2197 033d
000003d0: e3d5 1c3e 7799 5f3c 5607 75bd c05a 0ebe
000003e0: f44d c4bc 6798 e13d 365c c23d 37fb 39bc
000003f0: d350 a5bd 7132 843d 6fcf f93b 8741 883e
-0.07775791 -0.32447863 0.055429913 0.18574083 0.14287381 -0.04327248 -0.083194695 -0.2047376
0.11357339 -0.053050607 -0.10750629 0.057195015 -0.02270015 -0.22340596 -0.091814406 0.2282689
0.03049277 -0.16550976 -0.0874344 0.127348 -0.007099058 0.114554755 0.08543779 0.24139063
-0.051608995 0.036128428 -0.15164335 0.17119108 -0.06134737 -0.14937654 -0.016224392 -0.15373743
-0.082957655 0.1845425 -0.12451409 0.10286651 -0.0044388645 -0.18007538 -0.133651 0.104734235
0.06730835 0.09698141 0.03039155 0.284705 -0.069061115 0.050057016 0.057672042 -0.07018568
-0.050177038 -0.04029004 -0.12687004 0.102363534 0.06493187 -0.2039291 0.029127916 -0.23145732
-0.0009852462 -0.19785124 -0.049676966 -0.09650162 -0.054801177 -0.103046075 0.12200714 -0.06918474
0.05559935 0.14991523 -0.12506048 -0.29877165 0.038943265 0.20099972 -0.15776427 0.057647537
0.023876151 0.2734064 0.008138178 -0.040310428 0.11941003 0.08539946 -0.13703303 -0.15961282
0.048356254 -0.14676951 0.15206017 -0.035461813 -0.11612852 -0.039556593 0.02193692 -0.12159584
-0.046864115 0.055244617 0.016035955 0.04565851 -0.108363196 -0.06008964 0.24757831 -0.027394542
0.14076103 -0.114195175 0.0630892 0.07862407 -0.17385088 0.086059675 0.19139123 -0.18418095
0.04443037 -0.048921518 0.0017309632 0.061600316 0.0298378 0.09427275 0.030919788 0.035343688
-0.03823177 -0.15739758 -0.032377716 -0.019473689 0.08708611 -0.08591544 0.10579479 0.023748197
-0.012419198 0.032816198 -0.18616088 0.010622777 0.007537301 -0.099855855 0.11413814 0.17796895
-0.038640313 0.06110484 -0.014450451 -0.041331384 0.020138029 0.14989088 0.19398849 -0.06646312
-0.037338506 -0.1965483 -0.14690627 -0.17988501 -0.04069115 0.03941009 0.15493229 0.021409977
-0.03806452 0.08684712 0.267287 -0.031169519 -0.022548577 0.09414852 0.119132265 0.0422864
0.05317661 0.051756658 0.16251291 -0.021198059 -0.03986823 0.002708418 0.019356396 -0.0041677495
0.15300442 -0.15562405 -0.016399037 -0.044914834 -0.071251445 0.051815152 -0.00068906747 0.116762154
-0.10738721 -0.12320399 0.12901242 -0.046823055 0.07698735 0.11851141 0.13406506 0.29259863
0.122651935 0.029151116 -0.037155263 0.19093919 0.112069085 0.043987166 0.09284666 0.027580712
0.07001797 0.0017264948 0.16249175 0.049256526 0.12949286 0.04605759 -0.07404542 -0.04820654
0.15694694 -0.13377108 -0.062635966 0.0033322389 -0.011049336 0.054081213 -0.094054595 -0.13046616
0.031050688 0.19032252 -0.050454702 -0.16865987 0.09159674 0.07081709 -0.18646598 0.027054384
0.082959056 0.053049408 0.021462737 -0.0072680525 0.04145939 0.12935334 0.102713294 0.06983253
0.09062905 0.07931874 0.1775876 -0.10928405 0.13887312 0.058130074 -0.26200205 -0.18543176
-0.11399485 0.08159013 0.20490496 -0.056605987 -0.099957526 0.11144017 0.14341319 -0.059927825
-0.035387628 -0.011860082 0.116989516 -0.038592644 0.07217157 -0.009433401 0.054924022 0.1452673
0.20521891 0.06701209 0.08347017 0.03212655 0.15315966 0.013647429 -0.05982145 -0.13901806
-0.023962952 0.110153966 0.09490244 -0.011351398 -0.080720566 0.064549334 0.007623605 0.26612493

l1.bias.rho f4 [800]
00000000: e679 3ec0 6cff 35c0 f057 48c0 865d 37c0
00000010: 7c4f 3fc0 9da3 51c0 f707 3ec0 338a 44c0
00000020: 3ddd 35c0 eff3 3fc0 e325 43c0 56bd 3ec0
00000030: e41b 41c0 9e3b 3fc0 d7fc 39c0 03fa 49c0
00000040: 82a7 46c0 4d41 3dc0 d2a5 30c0 59c9 43c0
00000050: 89b9 3dc0 ec69 40c0 6be1 40c0 121c 3ac0
00000060: 78bd 49c0 5b1f 40c0 01e8 31c0 c095 4fc0
00000070: 6b1c 3ec0 5fbc 38c0 07e4 44c0 b5f6 34c0
00000080: 78a6 3dc0 9c8d 3ac0 7325 41c0 22fd 3cc0
00000090: 9357 42c0 21c5 48c0 8f95 46c0 611f 41c0
000000a0: 41a8 41c0 f532 48c0 662a 3fc0 8e45 44c0
000000b0: 5043 3fc0 1796 3fc0 8c3e 47c0 cac2 43c0
000000c0: e721 42c0 b582 3bc0 47ad 43c0 4bc7 38c0
000000d0: 8a0d 3dc0 3391 38c0 d537 3ac0 2912 36c0
000000e0: 85e8 42c0 d485 37c0 51c6 43c0 1424 44c0
000000f0: e0c1 40c0 f519 3cc0 33d8 46c0 9626 48c0
00000100: b0ee 36c0 e539 47c0 cbb0 3bc0 1efb 40c0
00000110: 6d57 42c0 1f27 3fc0 d259 4cc0 faef 3fc0
00000120: e63a 41c0 6558 35c0 a2b0 40c0 4a1d 41c0
00000130: d878 48c0 76f0 3ec0 9034 45c0 7bdc 3cc0
00000140: 9bcf 34c0 89ea 3cc0 4a13 4fc0 afd8 4ac0
00000150: 59a1 43c0 5d52 36c0 6607 3ec0 6e99 39c0
00000160: 9ec2 36c0 4f61 3fc0 dced 4ec0 ad5a 44c0
00000170: 5f60 53c0 9e0c 3dc0 db87 4ec0 6e7c 3fc0
00000180: a8d6 42c0 fa3b 34c0 5dcb 37c0 0870 48c0
00000190: a5fc 3ec0 c877 37c0 4e3c 34c0 25a8 4dc0
000001a0: d9dc 3ec0 2d2c 3ec0 75eb 40c0 f3e1 47c0
000001b0: 3d69 3fc0 a802 42c0 b76a 46c0 8e8c 40c0
000001c0: 36d1 3dc0 cee0 45c0 b9c5 46c0 ed7a 41c0
000001d0: b0e7 39c0 58cf 43c0 c567 3ec0 3a0f 43c0
000001e0: a115 3ac0 4501 3ac0 f91f 4ac0 9c97 39c0
000001f0: 26d4 45c0 4715 44c0 0f43 3cc0 0e68 45c0
00000200: 95cc 3bc0 9bf3 40c0 4b60 31c0 bbac 43c0
00000210: eabb 47c0 836f 41c0 f0bd 3cc0 2af6 3ec0
00000220: fa9a 44c0 8ef1 47c0 0bff 41c0 d0c8 3dc0
00000230: 44fb 39c0 01f2 43c0 079a 3fc0 3b2d 39c0
00000240: fb04 3ec0 d8c0 46c0 99d5 45c0 2dca 44c0
00000250: bb4a 46c0 ad0e 48c0 f6ba 45c0 fd6a 39c0
00000260: 7aa7 3ec0 e361 47c0 0765 3fc0 61f6 38c0
00000270: f7f0 4bc0 4c1f 4dc0 8bd8 3cc0 aedd 35c0
00000280: 243a 39c0 e8a1 46c0 79c0 3ec0 95fd 45c0
00000290: 1419 39c0 54a3 3fc0 3d5d 4cc0 0224 42c0
000002a0: 14fe 39c0 65b1 3bc0 474e 42c0 7f1f 48c0
000002b0: fea9 43c0 dea7 3fc0 0139 37c0 3d8b 3bc0
000002c0: 8ab8 3dc0 e75d 41c0 2aca 46c0 e234 3dc0
000002d0: 83a6 46c0 dd30 3bc0 3b4f 42c0 a38f 37c0
000002e0: 4d12 37c0 6438 39c0 4a5c 3ac0 9a6a 40c0
000002f0: 797a 40c0 8bfb 45c0 aee2 3ec0 13f8 3dc0
00000300: ea2d 3ec0 be17 39c0 2e2c 4ac0 18fa 3bc0
00000310: a13a 43c0 8cd7 39c0 3acb 34c0 b076 3bc0
00000320: ebc8 3fc0 4d34 40c0 e05f 4ac0 db0f 45c0
00000330: d1be 49c0 23a8 4dc0 ec3c 34c0 82bf 3bc0
00000340: b517 45c0 d523 3ac0 3e23 44c0 b34c 31c0
00000350: 25c3 3bc0 a875 3fc0 b936 3bc0 b7f4 3ec0
00000360: 9375 41c0 06be 2ec0 94e0 3ec0 4390 4bc0
00000370: eb92 3dc0 04d1 3fc0 f3fc 32c0 63b7 36c0
00000380: 2929 3dc0 2c2d 40c0 d5f0 3fc0 abb2 47c0
00000390: c712 31c0 6775 4bc0 12e2 30c0 d802 41c0
000003a0: 961f 41c0 4559 41c0 6276 45c0 b47b 38c0
000003b0: 7863 45c0 a0a6 3dc0 5d04 47c0 ad1f 36c0
000003c0: 7194 3fc0 aaec 3ec0 3d5e 37c0 498c 42c0
000003d0: 3efa 3ec0 315e 3fc0 7727 43c0 27f7 3ac0
000003e0: 10d8 3fc0 7e58 38c0 ae01 40c0 4cb3 3fc0
000003f0: 23f2 37c0 0078 47c0 ad95 45c0 71ba 41c0
-2.97619 -2.8437147 -3.1303673 -2.8650832 -2.9892263 -3.2756112 -2.9692361 -3.070935
-2.8416283 -2.9992635 -3.0491874 -2.9803061 -3.0173273 -2.9880137 -2.9060571 -3.1558845
-3.1039739 -2.9571106 -2.7601209 -3.0591643 -2.9644492 -3.006465 -3.0137584 -2.9079633
-3.1521893 -3.0019138 -2.7797854 -3.243515 -2.9704845 -2.8864973 -3.0764177 -2.8275578
-2.9632854 -2.9148932 -3.0179107 -2.95295 -3.036595 -3.1370318 -3.1028783 -3.0175402
-3.0258944 -3.1281102 -2.9869628 -3.0667453 -2.9884834 -2.9935358 -3.1131926 -3.058764
-3.0333192 -2.9298527 -3.057451 -2.8871639 -2.9539514 -2.8838623 -2.9096577 -2.8448584
-3.0454419 -2.8675432 -3.0589793 -3.064702 -3.0118332 -2.9390843 -3.1069458 -3.127355
-2.8583183 -3.1129086 -2.9326656 -3.015327 -3.036586 -2.9867628 -3.1929822 -2.999022
-3.0192199 -2.8335202 -3.0107808 -3.0174127 -3.1323757 -2.9834266 -3.0813332 -2.950957
-2.8251712 -2.951815 -3.2355523 -3.1694753 -3.0567229 -2.848777 -2.9692016 -2.8999896
-2.8556285 -2.9903142 -3.2332678 -3.0680344 -3.302757 -2.953895 -3.227042 -2.9919696
-3.0443516 -2.8161607 -2.8717873 -3.1318378 -2.9841702 -2.8666859 -2.8161807 -3.2133877
-2.9822295 -2.9714463 -3.0143712 -3.1231658 -2.9907982 -3.0314121 -3.1002634 -3.0085788
-2.9658942 -3.091846 -3.105818 -3.0231278 -2.904766 -3.0595303 -2.9750836 -3.0478044
-2.9075701 -2.9063275 -3.1582015 -2.8998785 -3.0910735 -3.0637987 -2.941593 -3.084476
-2.9343617 -3.0148685 -2.7715023 -3.0574176 -3.1208444 -3.0224311 -2.9490929 -2.9837747
-3.071959 -3.1241183 -3.0311916 -2.9653816 -2.905961 -3.0616457 -2.993776 -2.8933856
-2.969054 -3.1055202 -3.091162 -3.0748398 -3.0983112 -3.1258957 -3.0895362 -2.897155
-2.978972 -3.1153495 -2.9905412 -2.8900378 -3.1865823 -3.2050352 -2.9507167 -2.8416553
-2.8941736 -3.103632 -2.9804976 -3.0936024 -2.8921556 -2.9943438 -3.1931908 -3.0334477
-2.9061327 -2.9327023 -3.0360277 -3.1269224 -3.0572505 -2.9946208 -2.8628542 -2.9303734
-2.9643884 -3.0213563 -3.106089 -2.9563527 -3.103913 -2.9248574 -3.0360858 -2.868142
-2.860492 -2.8940668 -2.9118829 -3.0065064 -3.0074751 -3.093478 -2.9825854 -2.9682662
-2.9715524 -2.892074 -3.1589465 -2.9371395 -3.0504534 -2.903781 -2.824904 -2.929119
-2.996638 -3.0031922 -3.1621017 -3.0790927 -3.1522715 -3.2133873 -2.8162184 -2.9335637
-3.079572 -2.908437 -3.064651 -2.7703063 -2.9337857 -2.9915562 -2.925215 -2.9836862
-3.0228012 -2.730348 -2.9824572 -3.18068 -2.9620922 -2.9971323 -2.7966888 -2.854943
-2.9556372 -3.002757 -2.9990742 -3.12028 -2.766771 -3.1790407 -2.7637982 -3.0157986
-3.0175529 -3.0210736 -3.0853505 -2.8825502 -3.084196 -2.963295 -3.1096413 -2.8456833
-2.9934351 -2.9831948 -2.8651268 -3.0398123 -2.9840236 -2.990124 -3.0492837 -2.921335
-2.9975624 -2.8804011 -3.0001025 -2.9953184 -2.8741539 -3.1166992 -3.0872605 -3.0270045
