checkpoints_16_tasks/16_task_groups_PUGCL_epochs_:200_lr_:0.06_hidden_:240_task_order_:[ 6 14 13  1  3 12  5 11  2  9  4 15  8  7  0 10]/model_0.pth.tar (torch_old, 140785 bytes, 136 tensors)

l1.weight_mu f4 [240, 29]
000000 db 60 98 3d 42 07 07 3e e8 d8 8c 3d 00 66 34 3c
       0.07440349 0.13186362 0.06877309 0.011010647
000010 c6 54 08 bd ba c9 69 be 87 e0 43 3d f2 e5 9a bc
       -0.03328397 -0.22830859 0.047821548 -0.018908475
000020 5b ad 9c bd 9f fe ee bc 91 46 f6 3d 1b b0 8c 3d
       -0.076502524 -0.029174147 0.12025178 0.06869527
000030 e7 71 b6 bc d6 2d 44 3d 3a 3b c6 3d cb 3e fe bd
       -0.02227111 0.047895275 0.09679265 -0.124143206
000040 96 73 f0 bd 7e 8c 1e 3e 6c e6 5f be b4 d2 89 bc
       -0.11740796 0.15483281 -0.21865243 -0.016824104
000050 5a db 0f be 92 c5 4a bd 4d 8d 38 3e 94 e5 85 3d
       -0.1404852 -0.049504824 0.18022652 0.06537929
000060 88 38 66 bd ba b7 49 3e e6 f2 82 bd 99 3e f9 bd
       -0.056206256 0.19698992 -0.063939855 -0.12170143
000070 f7 63 ae 3d a2 57 19 3d 48 49 0b 3f 64 45 ab 3d
       0.085151605 0.03743709 0.54408693 0.083628446
000080 00 d8 cd 3d b8 72 da 3c 8e 69 0f 3e f7 a6 1f 3e
       0.10050964 0.02666603 0.1400511 0.15591036
000090 1b cc 29 bd 35 db df bd 48 95 42 bd d7 a9 92 bd
       -0.041454416 -0.10930482 -0.047505647 -0.07161301
0000a0 e7 84 a4 bb a9 45 0a 3e af 31 1f be c0 90 d8 bc
       -0.005020726 0.13503136 -0.15546297 -0.02643621
0000b0 e4 f6 6f 3e e8 7e b3 bd e7 ba d7 bd 94 53 73 3d
       0.23434025 -0.0876444 -0.10533696 0.05940588
0000c0 b5 b8 17 3e 0a 6a f4 3d 95 65 da 3c 40 1d 63 bb
       0.14816554 0.11934288 0.026659766 -0.0034654886
0000d0 e9 46 ae 3d 13 0a 89 3e ac ef 7c 3e 44 c3 e7 bb
       0.08509619 0.267655 0.24700803 -0.007072838
0000e0 fd 1e 59 3c b5 d9 d6 bc e3 da 51 bd 94 7d 86 3c
       0.013252017 -0.026226858 -0.051234137 0.016417302
0000f0 cb 02 5a bd e6 8a 85 3e 88 69 c2 bc 99 38 e1 bd
       -0.05322532 0.26082534 -0.023731962 -0.10997123
000100 93 d0 ac 3c 54 7a df bd 15 d9 05 3e b6 9d 39 3d
       0.02109555 -0.10912004 0.13071091 0.04531642
000110 87 67 18 3d 3b bc 56 bc 6a 6d b5 bd d6 fd 42 be
       0.037208106 -0.013106401 -0.0885876 -0.19042143
000120 16 e8 31 3d e4 2f 75 3d 0c a7 0c bd 10 83 6d 3d
       0.043434225 0.059860125 -0.034338996 0.05798632
000130 d0 d6 7f bd 91 79 0c be 0e 46 f0 3d 49 8e 87 3d
       -0.06246072 -0.13718249 0.11732112 0.066189356
000140 78 06 b1 3d 80 14 9b bd e5 eb a2 bd 70 a7 20 3d
       0.08643812 -0.075722694 -0.079551496 0.03922218
000150 12 ed 2b 3e 83 cf dd 3c bc 54 ce 3d 61 0b 8d bd
       0.16789654 0.027076488 0.100747555 -0.06886936
000160 d7 fc 3f bd c8 0e 83 bd db 09 c8 bd 9c 2c a5 bd
       -0.046871986 -0.06399304 -0.09767505 -0.08065149
000170 8a 39 b1 3c 7b 80 33 3c eb 5c 06 be 16 15 8d bc
       0.021633882 0.010955925 -0.13121383 -0.017221969
000180 2a 60 0f be 33 c8 7e 3d eb 50 7f bd 44 c9 a5 3d
       -0.14001527 0.062202644 -0.06233303 0.08095029
000190 00 e7 f6 bd 1c cc 09 3e e3 86 46 3d 95 b0 ce bd
       -0.120557785 0.13456768 0.04846848 -0.10092274
0001a0 70 f0 19 3d 0b 77 5a 3d f5 d8 47 3d b6 bd b0 bd
       0.037582815 0.053336184 0.04879089 -0.086299345
0001b0 be 0f cf bd c1 43 ba bc 4e fa 91 3d 36 9f 2a 3c
       -0.101104245 -0.022737386 0.0712782 0.010413935
0001c0 d1 e2 8f bd 49 4e 34 bd da 20 a1 bb 72 f8 04 3d
       -0.07025684 -0.04401997 -0.0049172463 0.0324635
0001d0 3a 57 51 3e 1f 02 26 be 60 b9 09 bd 0e f8 77 bd
       0.2044343 -0.16211747 -0.033624053 -0.060539298
0001e0 d8 6b 8b bd b9 56 01 3e 49 a4 0b bb 92 04 0a 3d
       -0.06807679 0.12630738 -0.0021307638 0.033695765
0001f0 bb 23 06 3d 85 bc ec 3d 37 db 80 ba 07 8b d1 bc
       0.03274892 0.11559395 -0.0009830956 -0.025578989
000200 64 8e af 3d c9 7f 09 be df 95 03 3d b2 f7 d1 3b
       0.08572081 -0.13427652 0.03212535 0.0064077014
000210 b9 fe 30 3d de ff b0 3d 16 5d c1 3d 81 8a f0 3d
       0.043211672 0.08642553 0.09441583 0.117451675
000220 2c 2f 86 bd 36 89 9c 3d 16 e5 3d 3e fa 59 11 be
       -0.06551966 0.076433584 0.1854442 -0.1419448
000230 36 af b4 3c 25 2e c5 bc 55 83 1b be 49 fc 07 bd
       0.022056203 -0.024069855 -0.15186818 -0.033199582
000240 6b ab da 3d 47 aa 31 be c9 18 7a 3e b9 02 0b 3e
       0.10677227 -0.17350112 0.24423517 0.13575257
000250 24 2b c6 3d 42 cc 97 3d c9 59 02 3e 52 a5 7a bd
       0.09676197 0.07412006 0.12729563 -0.061192818
000260 de 32 15 3d 3c c2 fe bd 80 02 0f 3e f8 0d 7e bd
       0.036425464 -0.12439391 0.13965797 -0.06202504
000270 37 f3 dd 3d 3b ab 29 3e 84 64 b2 3d 68 7b 82 bd
       0.10837405 0.16569225 0.08710578 -0.06371194
000280 68 90 bc ba 0a 6b f9 bc 7c 58 b8 bd 28 53 44 bd
       -0.0014386298 -0.030446548 -0.09001252 -0.047930866
000290 52 e1 08 3e e7 7d 23 bc 22 b8 1d 3d 90 c8 28 3e
       0.13367203 -0.009978748 0.03850568 0.16482759
0002a0 a6 10 18 3e a0 3b 10 3e 41 7d 4a 3e 83 e9 af bd
       0.14850101 0.14085245 0.19774343 -0.08589461
0002b0 50 8d 58 bc 1b 62 cc bd 69 b2 09 bc 46 83 28 3e
       -0.013217285 -0.0997965 -0.008404353 0.16456327
0002c0 f1 f1 5d 3e a0 c8 b6 3e 1e 32 10 3e ba b5 88 3d
       0.21674325 0.3569994 0.14081618 0.066752866
0002d0 9e 13 0c 3b f2 ab 94 3c c6 df a9 3d 54 ca 2d 3e
       0.0021373997 0.018148396 0.082946345 0.16971713
0002e0 c2 cd be bc 82 99 cc 3c 65 80 22 bd ee 9e 0c 3e
       -0.023291472 0.024975542 -0.039673228 0.13732502
0002f0 11 66 74 3e 49 86 88 bd a1 b3 3c 3d e8 72 0c bd
       0.2386706 -0.06666238 0.046069745 -0.03428927
000300 08 93 ba bd 2c b7 18 3e af 7d 1b be bd 77 ee bd
       -0.09110075 0.14913625 -0.15184663 -0.11643932
000310 f2 41 1f 3e 32 7f 4f 3e ef 1a a7 3d 32 f9 1b 3e
       0.155525 0.20263365 0.08159434 0.15231779
000320 33 22 68 3e 15 9f 7f bc ed e8 43 3e ec 9b 3a bd
       0.22669296 -0.015601893 0.19131823 -0.045558855
000330 ca a8 00 bd 5c 8c bf 3c 72 99 40 be 44 b3 28 bd
       -0.03141097 0.023382358 -0.18808535 -0.041186586
000340 71 85 22 3d f2 25 b1 3d b2 6f 9c 3d 5d 6b 92 3e
       0.03967804 0.086498156 0.07638492 0.28597537
000350 f9 03 20 3e 87 7e 85 3d dd e8 80 bc 73 e3 30 be
       0.15626515 0.06518274 -0.015736038 -0.17274265
000360 60 16 d1 bc 71 e6 46 bd 75 64 07 3c a5 62 8c 3d
       -0.025523365 -0.04855961 0.008263697 0.068547525
000370 52 b8 f8 3c 6d 40 f2 bd e6 1f 61 bd c1 d2 0e 3d
       0.030361328 -0.118286945 -0.05496206 0.03486896
000380 a5 d9 30 3e 39 15 98 3b 0f ca 18 3e 6a 1f f3 bc
       0.17270525 0.004641202 0.14920829 -0.029678065
000390 32 82 80 bd 9d 41 17 be bb 54 fb 3c d8 82 82 37
       -0.06274833 -0.14771123 0.030680051 1.5558137e-05
0003a0 e7 e8 42 bd 4b 28 55 3e c7 db 0d bc da 4f 12 3d
       -0.047585394 0.20816152 -0.008658356 0.035720684
0003b0 78 4b b3 3c 83 0b f3 bd 47 af ec bb ec 01 c7 3d
       0.021886572 -0.1186743 -0.007223043 0.097171634
0003c0 bb 55 1d 3c d1 21 0f bd 03 3e 1e 3b aa 65 01 be
       0.009602959 -0.03494436 0.0024145849 -0.12636438
0003d0 96 d3 d4 bd dd fa 80 3b e4 f2 b6 3d a9 40 07 bd
       -0.10391919 0.0039361552 0.089330465 -0.03302065
0003e0 0a 6a a5 bd 0c c3 60 bd 69 e5 71 be 2f f6 f2 bd
       -0.08076866 -0.05487351 -0.2362267 -0.11863362
0003f0 92 20 58 3d ff 9e 5c 3d 30 11 ba bd c7 f3 d6 3b
       0.052765436 0.053862568 -0.090853095 0.0065598222

l1.weight_rho f4 [240, 29]
000000 c7 dc 38 c0 ff 5d 32 c0 09 05 48 c0 4a 4f 36 c0
       -2.8884752 -2.786987 -3.1253073 -2.8485894
000010 fe bb 42 c0 54 0c 3e c0 c7 16 44 c0 a9 ce 4a c0
       -3.0427241 -2.9695024 -3.0638902 -3.1688635
000020 f2 13 43 c0 e4 97 3c c0 bf b5 3e c0 14 fa 4a c0
       -3.0480924 -2.9467707 -2.979843 -3.1715136
000030 19 3a 44 c0 9f d2 40 c0 1e 51 3b c0 94 c6 32 c0
       -3.066046 -3.0128553 -2.926826 -2.7933702
000040 74 36 49 c0 5b bf 48 c0 81 6e 45 c0 92 78 40 c0
       -3.1439486 -3.1366794 -3.0848696 -3.007359
000050 ca cd 3d c0 6e 9f 3a c0 4e ea 3a c0 05 88 3d c0
       -2.9656854 -2.9159808 -2.9205508 -2.961427
000060 3b 10 4d c0 c1 1f 4a c0 60 8a 43 c0 b9 98 3f c0
       -3.2041156 -3.158188 -3.0553207 -2.9936965
000070 7c cf 39 c0 27 06 45 c0 bb 21 39 c0 60 06 3d c0
       -2.9032888 -3.0785005 -2.8926837 -2.953514
000080 21 f2 36 c0 0e ea 37 c0 0d 6d 3d c0 4b 89 39 c0
       -2.8585284 -2.8736606 -2.959781 -2.8990047
000090 8f fa 48 c0 e6 33 40 c0 4a fe 34 c0 71 a3 44 c0
       -3.140293 -3.0031676 -2.8280206 -3.0724757
0000a0 d1 a4 38 c0 f3 a8 3b c0 0c c4 3f c0 1a 97 42 c0
       -2.8850596 -2.9321868 -2.9963408 -3.0404725
0000b0 87 53 38 c0 7d 0d 3b c0 2e 5f 3e c0 f2 80 45 c0
       -2.880098 -2.9226983 -2.9745593 -3.0859952
0000c0 01 2e 3d c0 61 83 3d c0 9d c8 36 c0 c1 1d 3f c0
       -2.9559329 -2.9611437 -2.8559945 -2.986191
0000d0 c6 c3 41 c0 30 d2 3f c0 60 75 40 c0 5e 28 43 c0
       -3.027574 -2.9972038 -3.007164 -3.0493388
0000e0 93 cb 4b c0 f5 20 46 c0 7b ed 41 c0 30 1e 3f c0
       -3.1843002 -3.0957615 -3.0301197 -2.9862175
0000f0 c3 ef 3c c0 d0 f4 53 c0 ec e8 43 c0 4e 1c 3d c0
       -2.952134 -3.3118172 -3.0610914 -2.9548526
000100 22 09 49 c0 30 ce 38 c0 de 2d 38 c0 eb 38 3f c0
       -3.1411824 -2.8875847 -2.8777995 -2.987849
000110 53 70 48 c0 93 f0 3d c0 7b 91 45 c0 b4 cf 42 c0
       -3.1318557 -2.9678085 -3.0870044 -3.0439272
000120 b5 fd 47 c0 7e 5e 42 c0 e4 b5 34 c0 bb a7 3f c0
       -3.12486 -3.0370173 -2.8236017 -2.9946125
000130 f5 6d 3d c0 a8 3f 3d c0 62 7a 43 c0 7c 50 41 c0
       -2.9598362 -2.9570103 -3.0543447 -3.0205374
000140 a6 f3 44 c0 6b de 48 c0 0b 01 42 c0 72 16 45 c0
       -3.0773711 -3.1385753 -3.0313137 -3.079495
000150 81 c1 46 c0 5b 8e 3a c0 cf ef 42 c0 5c 99 44 c0
       -3.1055605 -2.9149387 -3.0458868 -3.0718603
000160 c6 58 44 c0 5e 0a 3f c0 dc f7 38 c0 3c ce 47 c0
       -3.0679183 -2.9850078 -2.8901281 -3.1219625
000170 c4 a1 46 c0 5b 51 3e c0 6a fa 42 c0 b8 3a 42 c0
       -3.1036234 -2.9737155 -3.046534 -3.034834
000180 57 a5 46 c0 0d 69 43 c0 b4 74 42 c0 bd 6a 49 c0
       -3.1038415 -3.0532868 -3.038373 -3.1471398
000190 5b 2a 3d c0 e6 56 37 c0 d1 b6 3a c0 d7 de 36 c0
       -2.9557102 -2.8646789 -2.9174082 -2.857351
0001a0 23 0b 3e c0 0f db 37 c0 46 d5 43 c0 70 f7 3b c0
       -2.9694297 -2.8727453 -3.0598922 -2.9369774
0001b0 5a 19 4a c0 f1 e8 40 c0 c7 f3 44 c0 95 44 3f c0
       -3.1577973 -3.0142176 -3.077379 -2.988561
0001c0 d6 78 46 c0 ec d7 37 c0 91 54 3e c0 e3 1f 45 c0
       -3.1011252 -2.8725538 -2.9739115 -3.0800712
0001d0 82 54 45 c0 06 5a 42 c0 cc 99 4a c0 e2 61 3b c0
       -3.083283 -3.0367446 -3.165637 -2.9278493
0001e0 77 63 39 c0 3d 53 43 c0 2e 0b 3e c0 19 6c 51 c0
       -2.8966959 -3.0519555 -2.9694324 -3.2722228
0001f0 3b 60 44 c0 ed a0 48 c0 d6 de 3c c0 5a c6 44 c0
       -3.0683734 -3.1348221 -2.9511008 -3.0746064
000200 eb ac 49 c0 75 e5 42 c0 b1 68 38 c0 b4 65 31 c0
       -3.151179 -3.045255 -2.8813899 -2.7718325
000210 4f 2e 3e c0 a7 93 37 c0 73 63 45 c0 1c 72 42 c0
       -2.9715765 -2.868387 -3.084195 -3.0382147
000220 34 ab 3b c0 bb aa 3c c0 8f 5b 42 c0 1e ec 46 c0
       -2.9323244 -2.9479206 -3.0368383 -3.1081614
000230 28 f4 35 c0 a7 40 41 c0 f9 3d 45 c0 91 8d 47 c0
       -2.843027 -3.019571 -3.0819075 -3.1180155
000240 c8 1a 3d c0 0a 81 3b c0 6b 1c 44 c0 10 c9 3f c0
       -2.9547596 -2.929751 -3.0642345 -2.996647
000250 78 9c 3e c0 88 d8 40 c0 c2 94 40 c0 18 06 37 c0
       -2.9783 -3.013216 -3.0090795 -2.859747
000260 fe 26 42 c0 7a 77 49 c0 ec 04 3a c0 73 b5 3e c0
       -3.03363 -3.1479173 -2.9065504 -2.9798248
000270 c2 4e 59 c0 6e 83 47 c0 b7 9b 46 c0 5e b0 39 c0
       -3.395432 -3.1173968 -3.103254 -2.9013896
000280 19 68 3b c0 9f ae 3c c0 ce 21 3a c0 57 ae 46 c0
       -2.9282286 -2.948158 -2.9083133 -3.1043909
000290 ec 73 4b c0 1b db 47 c0 64 f0 3d c0 0d 26 36 c0
       -3.1789503 -3.1227481 -2.9677973 -2.8460724
0002a0 1a 32 44 c0 42 36 42 c0 b8 2b 42 c0 19 3f 49 c0
       -3.065558 -3.0345616 -3.0339184 -3.1444762
0002b0 7c 8c 44 c0 f2 aa 40 c0 93 ae 47 c0 19 c6 3a c0
       -3.0710745 -3.0104337 -3.1200302 -2.918341
0002c0 ba 14 47 c0 af 52 32 c0 76 98 38 c0 3a 9c 3f c0
       -3.11064 -2.7862966 -2.8843055 -2.9939103
0002d0 d0 06 3c c0 11 29 3e c0 4a 11 3d c0 1e ad 40 c0
       -2.9379158 -2.9712565 -2.9541802 -3.0105662
0002e0 72 64 46 c0 d9 02 49 c0 bb f0 41 c0 d3 ca 36 c0
       -3.0998807 -3.1407988 -3.030318 -2.8561294
0002f0 97 ab 38 c0 62 c3 48 c0 87 61 4b c0 27 1d 45 c0
       -2.885473 -3.1369252 -3.1778276 -3.0799043
000300 19 5c 4a c0 b1 f2 40 c0 50 4b 40 c0 82 c6 41 c0
       -3.1618712 -3.0148127 -3.0045967 -3.027741
000310 c2 0d 46 c0 1a c9 3a c0 d4 00 39 c0 e1 98 3e c0
       -3.0945897 -2.9185243 -2.8906755 -2.978081
000320 8f 0f 3a c0 11 bc 3f c0 11 21 3b c0 63 d4 4b c0
       -2.9071996 -2.9958537 -2.9238932 -3.184838
000330 22 80 47 c0 e7 c6 4b c0 59 de 4a c0 5d 98 45 c0
       -3.1171956 -3.184015 -3.169821 -3.0874245
000340 e4 f9 3c c0 ef 0f 44 c0 8a f6 40 c0 d4 06 3d c0
       -2.952752 -3.0634725 -3.0150476 -2.9535418
000350 b9 4e 3e c0 41 73 3a c0 b2 03 3d c0 95 bb 44 c0
       -2.9735548 -2.9132845 -2.9533505 -3.073949
000360 f9 6e 3b c0 44 9a 3a c0 23 fc 36 c0 66 bb 38 c0
       -2.9286482 -2.9156656 -2.8591392 -2.886438
000370 77 ee 3c c0 22 a2 3f c0 3b 43 3d c0 6f 04 3a c0
       -2.9520547 -2.9942708 -2.9572284 -2.9065206
000380 1f eb 45 c0 22 59 41 c0 66 83 3e c0 0b 01 4a c0
       -3.0924757 -3.0210652 -2.97677 -3.1563137
000390 3c 6f 3b c0 d9 30 31 c0 8e 60 3d c0 48 2f 41 c0
       -2.9286642 -2.7686064 -2.9590182 -3.0185108
0003a0 8b 35 47 c0 ae de 44 c0 21 9b 3c c0 0e 5b 37 c0
       -3.112643 -3.0760913 -2.9469683 -2.8649325
0003b0 08 92 3b c0 8c dc 4b c0 f6 c6 4c c0 91 2e 42 c0
       -2.930788 -3.185336 -3.1996436 -3.0340922
0003c0 73 cd 45 c0 59 c1 4c c0 33 61 40 c0 73 23 44 c0
       -3.0906646 -3.199301 -3.0059326 -3.0646636
0003d0 9a a5 3e c0 29 22 3e c0 29 be 42 c0 22 f4 40 c0
       -2.9788575 -2.970835 -3.0428565 -3.0149007
0003e0 d8 8c 39 c0 6f db 3a c0 02 10 3c c0 33 d2 3b c0
       -2.8992214 -2.9196432 -2.938477 -2.9347045
0003f0 1f 7b 36 c0 ec 67 32 c0 13 87 3b c0 53 7f 4a c0
       -2.8512647 -2.787593 -2.9301193 -3.1640213

l1.bias_mu f4 [240]
000000 bb 15 5b 3e 8a 75 8b 3e 5a ff ed bd 58 e6 7d 3d
       0.21395008 0.27238113 -0.1162097 0.06198725
000010 7e d2 4d 3d bf 67 54 3e 8d 2f 9f 3e 01 1d 42 3d
       0.05024957 0.20742701 0.31090966 0.04739094
000020 1a a4 1c 3d 56 d0 de 3e 61 4c 53 3e db ef 87 3d
       0.038242437 0.43518323 0.20634605 0.06637546
000030 01 8c 37 be 82 13 84 3d bd 0b 1d 3e 15 53 13 3f
       -0.17924501 0.06449033 0.15336509 0.5754865
000040 e0 b1 b2 3d 8d 5f 43 3e f8 11 24 be 83 07 b9 3d
       0.08725333 0.19079418 -0.1602248 0.09034636
000050 e3 f0 cc 3d 99 56 e8 bd 87 b6 53 bd 77 5c cb bd
       0.10006883 -0.11344642 -0.051687744 -0.09929746
000060 ac fe 6a bd 24 62 be bb fb 87 82 3c 26 37 7f bd
       -0.05737178 -0.005810039 0.015933981 -0.062308453
000070 df 3c 23 be 24 14 f7 bd 55 e8 5f 3d e1 5f 89 3c
       -0.15941189 -0.120643884 0.05466493 0.016769351
000080 65 10 71 bd 59 a2 5d be e0 db 95 3c 30 07 28 be
       -0.058853526 -0.21643962 0.018293321 -0.16408992
000090 f9 89 40 bb 92 ed a2 bd 65 75 14 bd 45 51 12 3e
       -0.0029379113 -0.07955469 -0.03624477 0.14288814
0000a0 cc 8f 2b 3d 81 3f 8b 3d 81 b4 74 3e 8f b2 e6 3e
       0.041885182 0.06799222 0.23896982 0.45058104
0000b0 3b 0f 85 3e 82 1e 10 be ee fc 69 3e fe 14 8b 3c
       0.25988182 -0.14074138 0.22850391 0.016977783
0000c0 64 ee 1d bd 1e ae 12 be 82 3a df bd 78 40 65 3d
       -0.038557425 -0.14324233 -0.10899831 0.055969685
0000d0 af fc 19 3e e0 8b 78 bd e3 f6 cb 3d 0b 97 0e 3e
       0.15037797 -0.06068027 0.09959199 0.13924806
0000e0 da c6 ad bd 01 7c 95 bd e6 c3 9c 3d e4 69 25 bd
       -0.084851936 -0.072990425 0.07654552 -0.04038419
0000f0 2b 03 cb bd fb 15 ff bd 27 77 b8 bd d0 b3 c8 bd
       -0.099127136 -0.12455364 -0.090071015 -0.097999215
000100 9d 47 2c be e8 4a 4e be 46 0e 57 bd ae 40 82 3c
       -0.16824193 -0.20145762 -0.052503847 0.015899982
000110 49 8a e7 3c 2f 43 4f be be 73 5a 3d 74 c1 9d bd
       0.028264182 -0.20240472 0.053333037 -0.07702914
000120 ff 58 52 3e 31 0a 48 3d 1e e5 4c 3d d7 a2 56 bd
       0.20541762 0.048837844 0.05002319 -0.05240139
000130 9a 74 99 3d 9b 10 09 ba 6b 5a 26 bd f5 3c d1 3e
       0.07492943 -0.00052286097 -0.040613573 0.4086682
000140 a6 53 d1 3d a7 c1 07 be cb 86 62 bd 1b 8e 57 3b
       0.10221033 -0.13257466 -0.05530433 0.0032891098
000150 0f e1 93 3d a8 42 67 3e da c9 bd bd 05 3a 78 bd
       0.07220661 0.22584021 -0.09267016 -0.060602207
000160 4d 67 91 3d 76 16 e0 3d 02 30 82 bd 71 93 5a 3d
       0.07099781 0.10941784 -0.06356813 0.053363267
000170 70 4d d5 bd cd 2d ec bd d6 6c 35 3e 24 98 94 3e
       -0.10415161 -0.11532173 0.17717299 0.29022324
000180 80 12 e7 bc 40 94 db 3d 30 96 95 3d 1b bd c2 3d
       -0.028207064 0.10721636 0.073040366 0.09508725
000190 f2 37 fd bc f7 f4 82 3e 47 c3 02 be 94 e8 2f bd
       -0.030910466 0.25577518 -0.12769805 -0.042946413
0001a0 49 c2 d4 bd 56 ba 6a 3d 82 38 91 3e 01 6e f9 bd
       -0.103886195 0.05730661 0.28363425 -0.12179185
0001b0 ee dd 5e 3e dd a6 8a 3e dc 61 74 3e fd d7 ef bd
       0.21764347 0.27080432 0.23865455 -0.11711118
0001c0 3a 75 d5 3d 8a 8b 73 3e 97 64 0b bd b8 01 81 bd
       0.1042275 0.23783699 -0.034031477 -0.06299156
0001d0 8b 39 55 bd 92 7d b7 3c 7c c9 83 bc 1e c5 b7 3d
       -0.05205683 0.022398744 -0.016087286 0.08973144
0001e0 07 75 c6 3d 93 89 9e bb 1d 3b 2e be 43 63 b0 3e
       0.0969029 -0.0048381775 -0.17014737 0.3445073
0001f0 2e 8a dc 3d 66 10 a4 3e 88 ea 7f 3e d5 5d e4 bd
       0.10768543 0.3204376 0.2499181 -0.111507095
000200 81 c5 98 bc 94 4f 2e bd b6 9f 04 3f 2b 88 8f 3d
       -0.018648865 -0.04255636 0.518062 0.07008394
000210 ec c4 19 be 63 65 53 3e eb 26 3e be db 09 39 3e
       -0.15016526 0.20644145 -0.18569534 0.18070166
000220 74 76 8b 3c a8 12 03 3d bf fe c4 bd af 78 1e bd
       0.017024256 0.032000214 -0.096189015 -0.03868931
000230 f8 eb aa bd 37 ce 37 3d f9 12 43 be 79 55 ca bb
       -0.08345789 0.044874396 -0.19050206 -0.00617474
000240 fc 72 22 bb 29 9b 43 bd 9c 8e e6 bd a6 77 25 be
       -0.0024787774 -0.047755394 -0.11257669 -0.16158924
000250 0a 14 67 bc 4f b8 3c 3e 55 88 06 be db dc 0b be
       -0.014103899 0.18429683 -0.13137944 -0.13658468
000260 af 5b d4 3d d4 4e 52 be f5 12 96 3d 7c 2f bb bc
       0.1036905 -0.20537883 0.073278345 -0.02284979
000270 03 82 4c 3f cd e7 e3 ba a8 00 17 3d fe 2f 90 bd
       0.7988588 -0.0017387808 0.03686586 -0.07040404
000280 15 a4 e7 bd 8f 6b df bd 43 e6 91 3d 16 50 f3 bd
       -0.11310593 -0.10909187 0.07123997 -0.118805096
000290 1e 48 03 3d e8 a4 ac 3e dc 3f 03 be 98 d3 8f 3d
       0.0320512 0.33719563 -0.12817329 0.0702278
0002a0 50 aa a5 bc 59 7a 34 3e 4f fd 83 bc 0b a6 c7 bd
       -0.020222813 0.17624797 -0.016111998 -0.09748467
0002b0 56 9d 2c be b1 b9 95 bd 35 6a 14 3f 63 f6 c5 3d
       -0.16856894 -0.073108084 0.5797456 0.09666135
0002c0 34 fd 3e 3e 4b e5 16 be a9 ee 75 bd 17 33 94 3e
       0.18651277 -0.14735906 -0.060042057 0.28945228
0002d0 4b e8 c5 3d d4 79 9b bd 15 3a ba bd 4d 90 97 3b
       0.09663447 -0.07591596 -0.090931095 0.0046253563
0002e0 f2 34 b5 bd e1 04 38 3d 4b 01 c2 bd ea 3d 69 bd
       -0.08847989 0.044926528 -0.09472903 -0.05694381
0002f0 65 87 03 bc 0b 5b bc 3e 81 10 02 3d b9 bc 99 bd
       -0.008027886 0.3678821 0.03175402 -0.07506699
000300 18 f8 a8 3a 40 ab 0f 3e 7a a4 7a 3e c0 5b a5 3d
       0.001289132 0.1403017 0.24476805 0.080741405
000310 c3 f3 91 bd 1f 70 b0 bd 75 44 9b 3d 0e a8 95 bd
       -0.07126572 -0.086151354 0.075814165 -0.073074445
000320 f0 17 a1 bc e7 32 d9 3c 64 5f cf 3b 85 f0 36 be
       -0.019664735 0.02651353 0.00632851 -0.17865188
000330 0f 51 ee 3d ed 37 39 be 79 a3 9c bd 71 8a 6f 3e
       0.116365544 -0.1808774 -0.076483674 0.23392655
000340 8d ac 06 3f e9 2d 06 3e 4b f1 01 3e 9d dd f8 3d
       0.5260704 0.13103451 0.12689702 0.121516444
000350 12 63 8f 3d 94 59 0d 3f a1 e9 73 be de bc e7 3b
       0.07001318 0.5521481 -0.23819591 0.0070720753
000360 26 fe 85 bd 36 4e d3 3c 79 4b c3 bc 58 c4 96 3e
       -0.065426156 0.02579413 -0.0238397 0.29446673
000370 ec b1 ca 3d 9d e9 27 bc a1 71 ee 3d 52 c1 23 be
       0.09897217 -0.010248569 0.11642767 -0.15991715
000380 26 81 99 bc f6 33 d2 bd 85 a8 c6 3c 43 c4 13 be
       -0.01873834 -0.10263817 0.024250278 -0.14430337
000390 1e 24 dd bc 81 a4 3d be 01 1e d2 3e 37 69 58 3e
       -0.026994761 -0.18519785 0.41038516 0.21133886
0003a0 76 96 25 3c f5 f3 0c 3e 83 51 15 3d 77 84 12 3d
       0.010106673 0.13764937 0.03645469 0.03577086
0003b0 09 99 1f bd d9 35 cc bc 69 3a 3d 3c 95 df 4d be
       -0.038964305 -0.02492802 0.011549571 -0.20104821

l1.bias_rho f4 [240]
000000 92 d2 36 c0 59 d0 48 c0 06 e0 3c c0 40 69 3d c0
       -2.8566022 -3.1377165 -2.9511733 -2.959549
000010 e1 be 3f c0 8e 99 41 c0 14 98 35 c0 54 f1 47 c0
       -2.9960253 -3.0249972 -2.837407 -3.1241045
000020 25 7b 40 c0 6b 3a 40 c0 e2 e9 41 c0 76 29 3f c0
       -3.0075161 -3.0035655 -3.0299 -2.9869056
000030 b0 50 48 c0 12 75 39 c0 19 59 3a c0 bc 04 48 c0
       -3.1299248 -2.8977704 -2.911688 -3.125289
000040 1d 16 3f c0 9f 68 36 c0 79 f6 3e c0 f6 90 46 c0
       -2.9857247 -2.8501356 -2.9837935 -3.1025977
000050 c5 89 35 c0 02 10 42 c0 3c 77 32 c0 63 97 3e c0
       -2.8365338 -3.032227 -2.7885275 -2.97799
000060 17 ff 44 c0 65 44 41 c0 d7 ed 3c c0 40 94 3f c0
       -3.0780694 -3.0197995 -2.9520166 -2.9934235
000070 9b da 38 c0 e1 bc 39 c0 74 b1 46 c0 f7 f4 49 c0
       -2.8883426 -2.9021533 -3.1045809 -3.1555765
000080 64 ee 38 c0 d9 fa 42 c0 aa e9 38 c0 d6 df 43 c0
       -2.8895502 -3.0465605 -2.8892617 -3.0605369
000090 85 b2 41 c0 99 7e 3b c0 c9 35 39 c0 c6 42 3c c0
       -3.026521 -2.929602 -2.8939078 -2.9415755
0000a0 16 78 37 c0 a9 36 3a c0 2a b9 3f c0 3a 1e 3b c0
       -2.8667045 -2.9095862 -2.9956765 -2.92372
0000b0 ad bc 41 c0 37 65 3f c0 d1 7d 47 c0 64 fd 36 c0
       -3.0271409 -2.9905527 -3.1170542 -2.8592157
0000c0 d3 dc 3d c0 aa 2d 42 c0 38 bd 3e c0 86 a4 37 c0
       -2.966603 -3.034037 -2.980299 -2.8694167
0000d0 14 e1 3a c0 36 51 3f c0 9f 2a 49 c0 61 ed 49 c0
       -2.9199877 -2.9893317 -3.1432264 -3.1551135
0000e0 52 39 44 c0 8e 73 42 c0 a5 5f 4c c0 e3 2b 3d c0
       -3.0659986 -3.038303 -3.1933377 -2.9558036
0000f0 1b bc 52 c0 29 b3 44 c0 af 62 45 c0 46 4c 49 c0
       -3.292731 -3.073435 -3.0841482 -3.1452804
000100 f3 a3 40 c0 23 fd 4a c0 59 9c 3d c0 31 d5 43 c0
       -3.0100067 -3.1717002 -2.9626677 -3.0598872
000110 48 4d 3f c0 81 a8 3f c0 88 08 3d c0 bd 38 35 c0
       -2.9890919 -2.9946597 -2.9536457 -2.831588
000120 7a 3d 44 c0 79 bb 42 c0 6e c8 48 c0 4f 44 3c c0
       -3.0662522 -3.0426924 -3.1372333 -2.9416692
000130 c4 e4 46 c0 20 1d 43 c0 3b 9a 4b c0 15 09 41 c0
       -3.1077127 -3.0486526 -3.1812885 -3.0161793
000140 bc ba 3a c0 b7 3a 4c c0 d0 10 3c c0 f8 b5 3e c0
       -2.9176474 -3.1910837 -2.9385262 -2.9798565
000150 67 cd 48 c0 68 fd 3d c0 a7 b3 40 c0 42 2f 41 c0
       -3.1375368 -2.9685917 -3.010965 -3.0185094
000160 43 b6 35 c0 7b 76 41 c0 47 83 43 c0 71 55 40 c0
       -2.8392494 -3.0228565 -3.0548875 -3.005215
000170 74 b6 46 c0 d3 e3 3b c0 fb 5b 35 c0 0a 79 3c c0
       -3.104886 -2.9357803 -2.833739 -2.9448876
000180 77 55 35 c0 30 b7 3c c0 2e fb 38 c0 1a bf 45 c0
       -2.8333414 -2.9486809 -2.8903308 -3.089789
000190 18 d3 3b c0 1a 88 3e c0 d9 f3 42 c0 03 0a 39 c0
       -2.9347591 -2.977057 -3.0461333 -2.891236
0001a0 c7 58 3f c0 f9 cf 42 c0 e3 6f 38 c0 77 d9 43 c0
       -2.9897935 -3.0439436 -2.881829 -3.060148
0001b0 fa b3 4c c0 06 80 49 c0 d1 db 45 c0 d9 34 40 c0
       -3.198485 -3.148439 -3.0915415 -3.0032256
0001c0 75 27 48 c0 80 bb 4a c0 91 ac 32 c0 02 57 42 c0
       -3.1274083 -3.167694 -2.7917826 -3.0365605
0001d0 e6 a0 41 c0 85 63 40 c0 19 31 39 c0 fe 8e 42 c0
       -3.0254455 -3.0060742 -2.8936217 -3.0399776
0001e0 29 6b 3f c0 d3 bd 4b c0 79 d8 38 c0 2f cc 33 c0
       -2.9909155 -3.183461 -2.8882124 -2.8093374
0001f0 d5 f8 43 c0 0e 25 41 c0 53 66 3d c0 ab 82 4a c0
       -3.0620625 -3.0178866 -2.9593704 -3.1642253
000200 5a 0d 3b c0 07 bc 44 c0 b7 9f 38 c0 6b 5a 3f c0
       -2.92269 -3.0739763 -2.8847482 -2.9898937
000210 a0 7b 45 c0 42 46 42 c0 1b 03 4a c0 87 35 37 c0
       -3.0856705 -3.0355382 -3.1564395 -2.862642
000220 38 aa 46 c0 a1 4d 3e c0 4d b1 3c c0 a4 f8 3d c0
       -3.1041393 -2.973488 -2.9483216 -2.9683008
000230 a1 75 43 c0 78 2f 49 c0 7a 76 3d c0 75 49 42 c0
       -3.0540545 -3.1435223 -2.9603562 -3.0357335
000240 ff 45 48 c0 f4 cb 39 c0 3d 12 3b c0 15 ef 32 c0
       -3.1292722 -2.9030733 -2.9229882 -2.7958424
000250 24 7c 4d c0 00 78 44 c0 5e 66 3d c0 d9 33 3d c0
       -3.210702 -3.0698242 -2.959373 -2.9562895
000260 f5 87 43 c0 f9 3e 3e c0 03 65 42 c0 52 e4 37 c0
       -3.0551732 -2.9725935 -3.0374153 -2.8733106
000270 27 4c 39 c0 c2 95 3c c0 39 2e 3a c0 e8 b8 42 c0
       -2.895273 -2.9466405 -2.9090712 -3.0425358
000280 74 16 39 c0 12 0b 45 c0 c8 52 35 c0 1f 51 3c c0
       -2.8919954 -3.0788007 -2.8331776 -2.9424512
000290 4b 7d 40 c0 90 69 42 c0 4c 5b 3c c0 d4 1c 49 c0
       -3.0076473 -3.037693 -2.9430723 -3.1423845
0002a0 d7 da 46 c0 3f 76 35 c0 fd c6 4b c0 7a 9a 41 c0
       -3.107107 -2.8353422 -3.1840203 -3.0250535
0002b0 3e af 3b c0 50 40 39 c0 b6 07 47 c0 2e 3e 47 c0
       -2.932571 -2.8945503 -3.1098456 -3.1131701
0002c0 6f b1 3e c0 9d 81 3e c0 52 eb 40 c0 37 79 3f c0
       -2.9795797 -2.976661 -3.0143628 -2.9917734
0002d0 49 43 3a c0 7f 89 49 c0 27 69 46 c0 aa fa 49 c0
       -2.9103568 -3.149017 -3.100168 -3.1559243
0002e0 47 22 32 c0 dd 74 3f c0 ff a9 41 c0 1f a5 3d c0
       -2.7833421 -2.9915078 -3.0260007 -2.9632032
0002f0 5a 5c 40 c0 44 89 50 c0 9e 17 3c c0 6b 68 47 c0
       -3.0056367 -3.258378 -2.9389415 -3.1157482
000300 a5 17 3d c0 f6 0d 3e c0 d8 07 3f c0 7c 58 3d c0
       -2.9545681 -2.969602 -2.9848537 -2.9585257
000310 f5 bf 45 c0 ff d1 3d c0 62 18 3f c0 0e 3f 40 c0
       -3.0898411 -2.9659421 -2.9858632 -3.0038486
000320 21 1f 41 c0 66 d3 44 c0 ca 77 46 c0 e4 30 3e c0
       -3.017525 -3.0754027 -3.1010613 -2.971734
000330 ea f1 42 c0 4b 0c 4b c0 a2 d1 35 c0 0b 05 43 c0
       -3.0460153 -3.1726253 -2.84092 -3.0471828
000340 11 f1 3a c0 6b 72 38 c0 e1 a8 3b c0 d2 a7 42 c0
       -2.9209635 -2.8819835 -2.9321826 -3.041493
000350 8b 8d 43 c0 0f e7 48 c0 44 05 41 c0 d6 62 34 c0
       -3.055514 -3.1391027 -3.0159464 -2.8185325
000360 95 ed 3e c0 7c 75 40 c0 06 03 3a c0 6e 93 43 c0
       -2.9832509 -3.0071707 -2.9064345 -3.0558734
000370 34 7d 3f c0 8c 30 3c c0 5f 63 42 c0 16 37 3e c0
       -2.9920168 -2.940463 -3.0373151 -2.9721122
000380 0b 32 3b c0 72 92 3b c0 f7 d6 37 c0 51 23 46 c0
       -2.9249294 -2.9308133 -2.8724954 -3.0959055
000390 cd a7 47 c0 ca e5 41 c0 f6 f9 52 c0 d7 b9 43 c0
       -3.1196167 -3.0296502 -3.2965064 -3.0582178
0003a0 73 78 42 c0 ca d6 3e c0 12 f6 38 c0 49 7c 40 c0
       -3.0386016 -2.9818597 -2.890019 -3.0075858
0003b0 f5 47 3a c0 3d 64 3e c0 45 af 3f c0 2a eb 46 c0
       -2.910642 -2.974868 -2.9950726 -3.1081033

l1.weight.mu f4 [240, 29]
000000 db 60 98 3d 42 07 07 3e e8 d8 8c 3d 00 66 34 3c
       0.07440349 0.13186362 0.06877309 0.011010647
000010 c6 54 08 bd ba c9 69 be 87 e0 43 3d f2 e5 9a bc
       -0.03328397 -0.22830859 0.047821548 -0.018908475
000020 5b ad 9c bd 9f fe ee bc 91 46 f6 3d 1b b0 8c 3d
       -0.076502524 -0.029174147 0.12025178 0.06869527
000030 e7 71 b6 bc d6 2d 44 3d 3a 3b c6 3d cb 3e fe bd
       -0.02227111 0.047895275 0.09679265 -0.124143206
000040 96 73 f0 bd 7e 8c 1e 3e 6c e6 5f be b4 d2 89 bc
       -0.11740796 0.15483281 -0.21865243 -0.016824104
000050 5a db 0f be 92 c5 4a bd 4d 8d 38 3e 94 e5 85 3d
       -0.1404852 -0.049504824 0.18022652 0.06537929
000060 88 38 66 bd ba b7 49 3e e6 f2 82 bd 99 3e f9 bd
       -0.056206256 0.19698992 -0.063939855 -0.12170143
000070 f7 63 ae 3d a2 57 19 3d 48 49 0b 3f 64 45 ab 3d
       0.085151605 0.03743709 0.54408693 0.083628446
000080 00 d8 cd 3d b8 72 da 3c 8e 69 0f 3e f7 a6 1f 3e
       0.10050964 0.02666603 0.1400511 0.15591036
000090 1b cc 29 bd 35 db df bd 48 95 42 bd d7 a9 92 bd
       -0.041454416 -0.10930482 -0.047505647 -0.07161301
0000a0 e7 84 a4 bb a9 45 0a 3e af 31 1f be c0 90 d8 bc
       -0.005020726 0.13503136 -0.15546297 -0.02643621
0000b0 e4 f6 6f 3e e8 7e b3 bd e7 ba d7 bd 94 53 73 3d
       0.23434025 -0.0876444 -0.10533696 0.05940588
0000c0 b5 b8 17 3e 0a 6a f4 3d 95 65 da 3c 40 1d 63 bb
       0.14816554 0.11934288 0.026659766 -0.0034654886
0000d0 e9 46 ae 3d 13 0a 89 3e ac ef 7c 3e 44 c3 e7 bb
       0.08509619 0.267655 0.24700803 -0.007072838
0000e0 fd 1e 59 3c b5 d9 d6 bc e3 da 51 bd 94 7d 86 3c
       0.013252017 -0.026226858 -0.051234137 0.016417302
0000f0 cb 02 5a bd e6 8a 85 3e 88 69 c2 bc 99 38 e1 bd
       -0.05322532 0.26082534 -0.023731962 -0.10997123
000100 93 d0 ac 3c 54 7a df bd 15 d9 05 3e b6 9d 39 3d
       0.02109555 -0.10912004 0.13071091 0.04531642
000110 87 67 18 3d 3b bc 56 bc 6a 6d b5 bd d6 fd 42 be
       0.037208106 -0.013106401 -0.0885876 -0.19042143
000120 16 e8 31 3d e4 2f 75 3d 0c a7 0c bd 10 83 6d 3d
       0.043434225 0.059860125 -0.034338996 0.05798632
000130 d0 d6 7f bd 91 79 0c be 0e 46 f0 3d 49 8e 87 3d
       -0.06246072 -0.13718249 0.11732112 0.066189356
000140 78 06 b1 3d 80 14 9b bd e5 eb a2 bd 70 a7 20 3d
       0.08643812 -0.075722694 -0.079551496 0.03922218
000150 12 ed 2b 3e 83 cf dd 3c bc 54 ce 3d 61 0b 8d bd
       0.16789654 0.027076488 0.100747555 -0.06886936
000160 d7 fc 3f bd c8 0e 83 bd db 09 c8 bd 9c 2c a5 bd
       -0.046871986 -0.06399304 -0.09767505 -0.08065149
000170 8a 39 b1 3c 7b 80 33 3c eb 5c 06 be 16 15 8d bc
       0.021633882 0.010955925 -0.13121383 -0.017221969
000180 2a 60 0f be 33 c8 7e 3d eb 50 7f bd 44 c9 a5 3d
       -0.14001527 0.062202644 -0.06233303 0.08095029
000190 00 e7 f6 bd 1c cc 09 3e e3 86 46 3d 95 b0 ce bd
       -0.120557785 0.13456768 0.04846848 -0.10092274
0001a0 70 f0 19 3d 0b 77 5a 3d f5 d8 47 3d b6 bd b0 bd
       0.037582815 0.053336184 0.04879089 -0.086299345
0001b0 be 0f cf bd c1 43 ba bc 4e fa 91 3d 36 9f 2a 3c
       -0.101104245 -0.022737386 0.0712782 0.010413935
0001c0 d1 e2 8f bd 49 4e 34 bd da 20 a1 bb 72 f8 04 3d
       -0.07025684 -0.04401997 -0.0049172463 0.0324635
0001d0 3a 57 51 3e 1f 02 26 be 60 b9 09 bd 0e f8 77 bd
       0.2044343 -0.16211747 -0.033624053 -0.060539298
0001e0 d8 6b 8b bd b9 56 01 3e 49 a4 0b bb 92 04 0a 3d
       -0.06807679 0.12630738 -0.0021307638 0.033695765
0001f0 bb 23 06 3d 85 bc ec 3d 37 db 80 ba 07 8b d1 bc
       0.03274892 0.11559395 -0.0009830956 -0.025578989
000200 64 8e af 3d c9 7f 09 be df 95 03 3d b2 f7 d1 3b
       0.08572081 -0.13427652 0.03212535 0.0064077014
000210 b9 fe 30 3d de ff b0 3d 16 5d c1 3d 81 8a f0 3d
       0.043211672 0.08642553 0.09441583 0.117451675
000220 2c 2f 86 bd 36 89 9c 3d 16 e5 3d 3e fa 59 11 be
       -0.06551966 0.076433584 0.1854442 -0.1419448
000230 36 af b4 3c 25 2e c5 bc 55 83 1b be 49 fc 07 bd
       0.022056203 -0.024069855 -0.15186818 -0.033199582
000240 6b ab da 3d 47 aa 31 be c9 18 7a 3e b9 02 0b 3e
       0.10677227 -0.17350112 0.24423517 0.13575257
000250 24 2b c6 3d 42 cc 97 3d c9 59 02 3e 52 a5 7a bd
       0.09676197 0.07412006 0.12729563 -0.061192818
000260 de 32 15 3d 3c c2 fe bd 80 02 0f 3e f8 0d 7e bd
       0.036425464 -0.12439391 0.13965797 -0.06202504
000270 37 f3 dd 3d 3b ab 29 3e 84 64 b2 3d 68 7b 82 bd
       0.10837405 0.16569225 0.08710578 -0.06371194
000280 68 90 bc ba 0a 6b f9 bc 7c 58 b8 bd 28 53 44 bd
       -0.0014386298 -0.030446548 -0.09001252 -0.047930866
000290 52 e1 08 3e e7 7d 23 bc 22 b8 1d 3d 90 c8 28 3e
       0.13367203 -0.009978748 0.03850568 0.16482759
0002a0 a6 10 18 3e a0 3b 10 3e 41 7d 4a 3e 83 e9 af bd
       0.14850101 0.14085245 0.19774343 -0.08589461
0002b0 50 8d 58 bc 1b 62 cc bd 69 b2 09 bc 46 83 28 3e
       -0.013217285 -0.0997965 -0.008404353 0.16456327
0002c0 f1 f1 5d 3e a0 c8 b6 3e 1e 32 10 3e ba b5 88 3d
       0.21674325 0.3569994 0.14081618 0.066752866
0002d0 9e 13 0c 3b f2 ab 94 3c c6 df a9 3d 54 ca 2d 3e
       0.0021373997 0.018148396 0.082946345 0.16971713
0002e0 c2 cd be bc 82 99 cc 3c 65 80 22 bd ee 9e 0c 3e
       -0.023291472 0.024975542 -0.039673228 0.13732502
0002f0 11 66 74 3e 49 86 88 bd a1 b3 3c 3d e8 72 0c bd
       0.2386706 -0.06666238 0.046069745 -0.03428927
000300 08 93 ba bd 2c b7 18 3e af 7d 1b be bd 77 ee bd
       -0.09110075 0.14913625 -0.15184663 -0.11643932
000310 f2 41 1f 3e 32 7f 4f 3e ef 1a a7 3d 32 f9 1b 3e
       0.155525 0.20263365 0.08159434 0.15231779
000320 33 22 68 3e 15 9f 7f bc ed e8 43 3e ec 9b 3a bd
       0.22669296 -0.015601893 0.19131823 -0.045558855
000330 ca a8 00 bd 5c 8c bf 3c 72 99 40 be 44 b3 28 bd
       -0.03141097 0.023382358 -0.18808535 -0.041186586
000340 71 85 22 3d f2 25 b1 3d b2 6f 9c 3d 5d 6b 92 3e
       0.03967804 0.086498156 0.07638492 0.28597537
000350 f9 03 20 3e 87 7e 85 3d dd e8 80 bc 73 e3 30 be
       0.15626515 0.06518274 -0.015736038 -0.17274265
000360 60 16 d1 bc 71 e6 46 bd 75 64 07 3c a5 62 8c 3d
       -0.025523365 -0.04855961 0.008263697 0.068547525
000370 52 b8 f8 3c 6d 40 f2 bd e6 1f 61 bd c1 d2 0e 3d
       0.030361328 -0.118286945 -0.05496206 0.03486896
000380 a5 d9 30 3e 39 15 98 3b 0f ca 18 3e 6a 1f f3 bc
       0.17270525 0.004641202 0.14920829 -0.029678065
000390 32 82 80 bd 9d 41 17 be bb 54 fb 3c d8 82 82 37
       -0.06274833 -0.14771123 0.030680051 1.5558137e-05
0003a0 e7 e8 42 bd 4b 28 55 3e c7 db 0d bc da 4f 12 3d
       -0.047585394 0.20816152 -0.008658356 0.035720684
0003b0 78 4b b3 3c 83 0b f3 bd 47 af ec bb ec 01 c7 3d
       0.021886572 -0.1186743 -0.007223043 0.097171634
0003c0 bb 55 1d 3c d1 21 0f bd 03 3e 1e 3b aa 65 01 be
       0.009602959 -0.03494436 0.0024145849 -0.12636438
0003d0 96 d3 d4 bd dd fa 80 3b e4 f2 b6 3d a9 40 07 bd
       -0.10391919 0.0039361552 0.089330465 -0.03302065
0003e0 0a 6a a5 bd 0c c3 60 bd 69 e5 71 be 2f f6 f2 bd
       -0.08076866 -0.05487351 -0.2362267 -0.11863362
0003f0 92 20 58 3d ff 9e 5c 3d 30 11 ba bd c7 f3 d6 3b
       0.052765436 0.053862568 -0.090853095 0.0065598222

l1.weight.rho f4 [240, 29]
000000 c7 dc 38 c0 ff 5d 32 c0 09 05 48 c0 4a 4f 36 c0
       -2.8884752 -2.786987 -3.1253073 -2.8485894
000010 fe bb 42 c0 54 0c 3e c0 c7 16 44 c0 a9 ce 4a c0
       -3.0427241 -2.9695024 -3.0638902 -3.1688635
000020 f2 13 43 c0 e4 97 3c c0 bf b5 3e c0 14 fa 4a c0
       -3.0480924 -2.9467707 -2.979843 -3.1715136
000030 19 3a 44 c0 9f d2 40 c0 1e 51 3b c0 94 c6 32 c0
       -3.066046 -3.0128553 -2.926826 -2.7933702
000040 74 36 49 c0 5b bf 48 c0 81 6e 45 c0 92 78 40 c0
       -3.1439486 -3.1366794 -3.0848696 -3.007359
000050 ca cd 3d c0 6e 9f 3a c0 4e ea 3a c0 05 88 3d c0
       -2.9656854 -2.9159808 -2.9205508 -2.961427
000060 3b 10 4d c0 c1 1f 4a c0 60 8a 43 c0 b9 98 3f c0
       -3.2041156 -3.158188 -3.0553207 -2.9936965
000070 7c cf 39 c0 27 06 45 c0 bb 21 39 c0 60 06 3d c0
       -2.9032888 -3.0785005 -2.8926837 -2.953514
000080 21 f2 36 c0 0e ea 37 c0 0d 6d 3d c0 4b 89 39 c0
       -2.8585284 -2.8736606 -2.959781 -2.8990047
000090 8f fa 48 c0 e6 33 40 c0 4a fe 34 c0 71 a3 44 c0
       -3.140293 -3.0031676 -2.8280206 -3.0724757
0000a0 d1 a4 38 c0 f3 a8 3b c0 0c c4 3f c0 1a 97 42 c0
       -2.8850596 -2.9321868 -2.9963408 -3.0404725
0000b0 87 53 38 c0 7d 0d 3b c0 2e 5f 3e c0 f2 80 45 c0
       -2.880098 -2.9226983 -2.9745593 -3.0859952
0000c0 01 2e 3d c0 61 83 3d c0 9d c8 36 c0 c1 1d 3f c0
       -2.9559329 -2.9611437 -2.8559945 -2.986191
0000d0 c6 c3 41 c0 30 d2 3f c0 60 75 40 c0 5e 28 43 c0
       -3.027574 -2.9972038 -3.007164 -3.0493388
0000e0 93 cb 4b c0 f5 20 46 c0 7b ed 41 c0 30 1e 3f c0
       -3.1843002 -3.0957615 -3.0301197 -2.9862175
0000f0 c3 ef 3c c0 d0 f4 53 c0 ec e8 43 c0 4e 1c 3d c0
       -2.952134 -3.3118172 -3.0610914 -2.9548526
000100 22 09 49 c0 30 ce 38 c0 de 2d 38 c0 eb 38 3f c0
       -3.1411824 -2.8875847 -2.8777995 -2.987849
000110 53 70 48 c0 93 f0 3d c0 7b 91 45 c0 b4 cf 42 c0
       -3.1318557 -2.9678085 -3.0870044 -3.0439272
000120 b5 fd 47 c0 7e 5e 42 c0 e4 b5 34 c0 bb a7 3f c0
       -3.12486 -3.0370173 -2.8236017 -2.9946125
000130 f5 6d 3d c0 a8 3f 3d c0 62 7a 43 c0 7c 50 41 c0
       -2.9598362 -2.9570103 -3.0543447 -3.0205374
000140 a6 f3 44 c0 6b de 48 c0 0b 01 42 c0 72 16 45 c0
       -3.0773711 -3.1385753 -3.0313137 -3.079495
000150 81 c1 46 c0 5b 8e 3a c0 cf ef 42 c0 5c 99 44 c0
       -3.1055605 -2.9149387 -3.0458868 -3.0718603
000160 c6 58 44 c0 5e 0a 3f c0 dc f7 38 c0 3c ce 47 c0
       -3.0679183 -2.9850078 -2.8901281 -3.1219625
000170 c4 a1 46 c0 5b 51 3e c0 6a fa 42 c0 b8 3a 42 c0
       -3.1036234 -2.9737155 -3.046534 -3.034834
000180 57 a5 46 c0 0d 69 43 c0 b4 74 42 c0 bd 6a 49 c0
       -3.1038415 -3.0532868 -3.038373 -3.1471398
000190 5b 2a 3d c0 e6 56 37 c0 d1 b6 3a c0 d7 de 36 c0
       -2.9557102 -2.8646789 -2.9174082 -2.857351
0001a0 23 0b 3e c0 0f db 37 c0 46 d5 43 c0 70 f7 3b c0
       -2.9694297 -2.8727453 -3.0598922 -2.9369774
0001b0 5a 19 4a c0 f1 e8 40 c0 c7 f3 44 c0 95 44 3f c0
       -3.1577973 -3.0142176 -3.077379 -2.988561
0001c0 d6 78 46 c0 ec d7 37 c0 91 54 3e c0 e3 1f 45 c0
       -3.1011252 -2.8725538 -2.9739115 -3.0800712
0001d0 82 54 45 c0 06 5a 42 c0 cc 99 4a c0 e2 61 3b c0
       -3.083283 -3.0367446 -3.165637 -2.9278493
0001e0 77 63 39 c0 3d 53 43 c0 2e 0b 3e c0 19 6c 51 c0
       -2.8966959 -3.0519555 -2.9694324 -3.2722228
0001f0 3b 60 44 c0 ed a0 48 c0 d6 de 3c c0 5a c6 44 c0
       -3.0683734 -3.1348221 -2.9511008 -3.0746064
000200 eb ac 49 c0 75 e5 42 c0 b1 68 38 c0 b4 65 31 c0
       -3.151179 -3.045255 -2.8813899 -2.7718325
000210 4f 2e 3e c0 a7 93 37 c0 73 63 45 c0 1c 72 42 c0
       -2.9715765 -2.868387 -3.084195 -3.0382147
000220 34 ab 3b c0 bb aa 3c c0 8f 5b 42 c0 1e ec 46 c0
       -2.9323244 -2.9479206 -3.0368383 -3.1081614
000230 28 f4 35 c0 a7 40 41 c0 f9 3d 45 c0 91 8d 47 c0
       -2.843027 -3.019571 -3.0819075 -3.1180155
000240 c8 1a 3d c0 0a 81 3b c0 6b 1c 44 c0 10 c9 3f c0
       -2.9547596 -2.929751 -3.0642345 -2.996647
000250 78 9c 3e c0 88 d8 40 c0 c2 94 40 c0 18 06 37 c0
       -2.9783 -3.013216 -3.0090795 -2.859747
000260 fe 26 42 c0 7a 77 49 c0 ec 04 3a c0 73 b5 3e c0
       -3.03363 -3.1479173 -2.9065504 -2.9798248
000270 c2 4e 59 c0 6e 83 47 c0 b7 9b 46 c0 5e b0 39 c0
       -3.395432 -3.1173968 -3.103254 -2.9013896
000280 19 68 3b c0 9f ae 3c c0 ce 21 3a c0 57 ae 46 c0
       -2.9282286 -2.948158 -2.9083133 -3.1043909
000290 ec 73 4b c0 1b db 47 c0 64 f0 3d c0 0d 26 36 c0
       -3.1789503 -3.1227481 -2.9677973 -2.8460724
0002a0 1a 32 44 c0 42 36 42 c0 b8 2b 42 c0 19 3f 49 c0
       -3.065558 -3.0345616 -3.0339184 -3.1444762
0002b0 7c 8c 44 c0 f2 aa 40 c0 93 ae 47 c0 19 c6 3a c0
       -3.0710745 -3.0104337 -3.1200302 -2.918341
0002c0 ba 14 47 c0 af 52 32 c0 76 98 38 c0 3a 9c 3f c0
       -3.11064 -2.7862966 -2.8843055 -2.9939103
0002d0 d0 06 3c c0 11 29 3e c0 4a 11 3d c0 1e ad 40 c0
       -2.9379158 -2.9712565 -2.9541802 -3.0105662
0002e0 72 64 46 c0 d9 02 49 c0 bb f0 41 c0 d3 ca 36 c0
       -3.0998807 -3.1407988 -3.030318 -2.8561294
0002f0 97 ab 38 c0 62 c3 48 c0 87 61 4b c0 27 1d 45 c0
       -2.885473 -3.1369252 -3.1778276 -3.0799043
000300 19 5c 4a c0 b1 f2 40 c0 50 4b 40 c0 82 c6 41 c0
       -3.1618712 -3.0148127 -3.0045967 -3.027741
000310 c2 0d 46 c0 1a c9 3a c0 d4 00 39 c0 e1 98 3e c0
       -3.0945897 -2.9185243 -2.8906755 -2.978081
000320 8f 0f 3a c0 11 bc 3f c0 11 21 3b c0 63 d4 4b c0
       -2.9071996 -2.9958537 -2.9238932 -3.184838
000330 22 80 47 c0 e7 c6 4b c0 59 de 4a c0 5d 98 45 c0
       -3.1171956 -3.184015 -3.169821 -3.0874245
000340 e4 f9 3c c0 ef 0f 44 c0 8a f6 40 c0 d4 06 3d c0
       -2.952752 -3.0634725 -3.0150476 -2.9535418
000350 b9 4e 3e c0 41 73 3a c0 b2 03 3d c0 95 bb 44 c0
       -2.9735548 -2.9132845 -2.9533505 -3.073949
000360 f9 6e 3b c0 44 9a 3a c0 23 fc 36 c0 66 bb 38 c0
       -2.9286482 -2.9156656 -2.8591392 -2.886438
000370 77 ee 3c c0 22 a2 3f c0 3b 43 3d c0 6f 04 3a c0
       -2.9520547 -2.9942708 -2.9572284 -2.9065206
000380 1f eb 45 c0 22 59 41 c0 66 83 3e c0 0b 01 4a c0
       -3.0924757 -3.0210652 -2.97677 -3.1563137
000390 3c 6f 3b c0 d9 30 31 c0 8e 60 3d c0 48 2f 41 c0
       -2.9286642 -2.7686064 -2.9590182 -3.0185108
0003a0 8b 35 47 c0 ae de 44 c0 21 9b 3c c0 0e 5b 37 c0
       -3.112643 -3.0760913 -2.9469683 -2.8649325
0003b0 08 92 3b c0 8c dc 4b c0 f6 c6 4c c0 91 2e 42 c0
       -2.930788 -3.185336 -3.1996436 -3.0340922
0003c0 73 cd 45 c0 59 c1 4c c0 33 61 40 c0 73 23 44 c0
       -3.0906646 -3.199301 -3.0059326 -3.0646636
0003d0 9a a5 3e c0 29 22 3e c0 29 be 42 c0 22 f4 40 c0
       -2.9788575 -2.970835 -3.0428565 -3.0149007
0003e0 d8 8c 39 c0 6f db 3a c0 02 10 3c c0 33 d2 3b c0
       -2.8992214 -2.9196432 -2.938477 -2.9347045
0003f0 1f 7b 36 c0 ec 67 32 c0 13 87 3b c0 53 7f 4a c0
       -2.8512647 -2.787593 -2.9301193 -3.1640213

l1.bias.mu f4 [240]
000000 bb 15 5b 3e 8a 75 8b 3e 5a ff ed bd 58 e6 7d 3d
       0.21395008 0.27238113 -0.1162097 0.06198725
000010 7e d2 4d 3d bf 67 54 3e 8d 2f 9f 3e 01 1d 42 3d
       0.05024957 0.20742701 0.31090966 0.04739094
000020 1a a4 1c 3d 56 d0 de 3e 61 4c 53 3e db ef 87 3d
       0.038242437 0.43518323 0.20634605 0.06637546
000030 01 8c 37 be 82 13 84 3d bd 0b 1d 3e 15 53 13 3f
       -0.17924501 0.06449033 0.15336509 0.5754865
000040 e0 b1 b2 3d 8d 5f 43 3e f8 11 24 be 83 07 b9 3d
       0.08725333 0.19079418 -0.1602248 0.09034636
000050 e3 f0 cc 3d 99 56 e8 bd 87 b6 53 bd 77 5c cb bd
       0.10006883 -0.11344642 -0.051687744 -0.09929746
000060 ac fe 6a bd 24 62 be bb fb 87 82 3c 26 37 7f bd
       -0.05737178 -0.005810039 0.015933981 -0.062308453
000070 df 3c 23 be 24 14 f7 bd 55 e8 5f 3d e1 5f 89 3c
       -0.15941189 -0.120643884 0.05466493 0.016769351
000080 65 10 71 bd 59 a2 5d be e0 db 95 3c 30 07 28 be
       -0.058853526 -0.21643962 0.018293321 -0.16408992
000090 f9 89 40 bb 92 ed a2 bd 65 75 14 bd 45 51 12 3e
       -0.0029379113 -0.07955469 -0.03624477 0.14288814
0000a0 cc 8f 2b 3d 81 3f 8b 3d 81 b4 74 3e 8f b2 e6 3e
       0.041885182 0.06799222 0.23896982 0.45058104
0000b0 3b 0f 85 3e 82 1e 10 be ee fc 69 3e fe 14 8b 3c
       0.25988182 -0.14074138 0.22850391 0.016977783
0000c0 64 ee 1d bd 1e ae 12 be 82 3a df bd 78 40 65 3d
       -0.038557425 -0.14324233 -0.10899831 0.055969685
0000d0 af fc 19 3e e0 8b 78 bd e3 f6 cb 3d 0b 97 0e 3e
       0.15037797 -0.06068027 0.09959199 0.13924806
0000e0 da c6 ad bd 01 7c 95 bd e6 c3 9c 3d e4 69 25 bd
       -0.084851936 -0.072990425 0.07654552 -0.04038419
0000f0 2b 03 cb bd fb 15 ff bd 27 77 b8 bd d0 b3 c8 bd
       -0.099127136 -0.12455364 -0.090071015 -0.097999215
000100 9d 47 2c be e8 4a 4e be 46 0e 57 bd ae 40 82 3c
       -0.16824193 -0.20145762 -0.052503847 0.015899982
000110 49 8a e7 3c 2f 43 4f be be 73 5a 3d 74 c1 9d bd
       0.028264182 -0.20240472 0.053333037 -0.07702914
000120 ff 58 52 3e 31 0a 48 3d 1e e5 4c 3d d7 a2 56 bd
       0.20541762 0.048837844 0.05002319 -0.05240139
000130 9a 74 99 3d 9b 10 09 ba 6b 5a 26 bd f5 3c d1 3e
       0.07492943 -0.00052286097 -0.040613573 0.4086682
000140 a6 53 d1 3d a7 c1 07 be cb 86 62 bd 1b 8e 57 3b
       0.10221033 -0.13257466 -0.05530433 0.0032891098
000150 0f e1 93 3d a8 42 67 3e da c9 bd bd 05 3a 78 bd
       0.07220661 0.22584021 -0.09267016 -0.060602207
000160 4d 67 91 3d 76 16 e0 3d 02 30 82 bd 71 93 5a 3d
       0.07099781 0.10941784 -0.06356813 0.053363267
000170 70 4d d5 bd cd 2d ec bd d6 6c 35 3e 24 98 94 3e
       -0.10415161 -0.11532173 0.17717299 0.29022324
000180 80 12 e7 bc 40 94 db 3d 30 96 95 3d 1b bd c2 3d
       -0.028207064 0.10721636 0.073040366 0.09508725
000190 f2 37 fd bc f7 f4 82 3e 47 c3 02 be 94 e8 2f bd
       -0.030910466 0.25577518 -0.12769805 -0.042946413
0001a0 49 c2 d4 bd 56 ba 6a 3d 82 38 91 3e 01 6e f9 bd
       -0.103886195 0.05730661 0.28363425 -0.12179185
0001b0 ee dd 5e 3e dd a6 8a 3e dc 61 74 3e fd d7 ef bd
       0.21764347 0.27080432 0.23865455 -0.11711118
0001c0 3a 75 d5 3d 8a 8b 73 3e 97 64 0b bd b8 01 81 bd
       0.1042275 0.23783699 -0.034031477 -0.06299156
0001d0 8b 39 55 bd 92 7d b7 3c 7c c9 83 bc 1e c5 b7 3d
       -0.05205683 0.022398744 -0.016087286 0.08973144
0001e0 07 75 c6 3d 93 89 9e bb 1d 3b 2e be 43 63 b0 3e
       0.0969029 -0.0048381775 -0.17014737 0.3445073
0001f0 2e 8a dc 3d 66 10 a4 3e 88 ea 7f 3e d5 5d e4 bd
       0.10768543 0.3204376 0.2499181 -0.111507095
000200 81 c5 98 bc 94 4f 2e bd b6 9f 04 3f 2b 88 8f 3d
       -0.018648865 -0.04255636 0.518062 0.07008394
000210 ec c4 19 be 63 65 53 3e eb 26 3e be db 09 39 3e
       -0.15016526 0.20644145 -0.18569534 0.18070166
000220 74 76 8b 3c a8 12 03 3d bf fe c4 bd af 78 1e bd
       0.017024256 0.032000214 -0.096189015 -0.03868931
000230 f8 eb aa bd 37 ce 37 3d f9 12 43 be 79 55 ca bb
       -0.08345789 0.044874396 -0.19050206 -0.00617474
000240 fc 72 22 bb 29 9b 43 bd 9c 8e e6 bd a6 77 25 be
       -0.0024787774 -0.047755394 -0.11257669 -0.16158924
000250 0a 14 67 bc 4f b8 3c 3e 55 88 06 be db dc 0b be
       -0.014103899 0.18429683 -0.13137944 -0.13658468
000260 af 5b d4 3d d4 4e 52 be f5 12 96 3d 7c 2f bb bc
       0.1036905 -0.20537883 0.073278345 -0.02284979
000270 03 82 4c 3f cd e7 e3 ba a8 00 17 3d fe 2f 90 bd
       0.7988588 -0.0017387808 0.03686586 -0.07040404
000280 15 a4 e7 bd 8f 6b df bd 43 e6 91 3d 16 50 f3 bd
       -0.11310593 -0.10909187 0.07123997 -0.118805096
000290 1e 48 03 3d e8 a4 ac 3e dc 3f 03 be 98 d3 8f 3d
       0.0320512 0.33719563 -0.12817329 0.0702278
0002a0 50 aa a5 bc 59 7a 34 3e 4f fd 83 bc 0b a6 c7 bd
       -0.020222813 0.17624797 -0.016111998 -0.09748467
0002b0 56 9d 2c be b1 b9 95 bd 35 6a 14 3f 63 f6 c5 3d
       -0.16856894 -0.073108084 0.5797456 0.09666135
0002c0 34 fd 3e 3e 4b e5 16 be a9 ee 75 bd 17 33 94 3e
       0.18651277 -0.14735906 -0.060042057 0.28945228
0002d0 4b e8 c5 3d d4 79 9b bd 15 3a ba bd 4d 90 97 3b
       0.09663447 -0.07591596 -0.090931095 0.0046253563
0002e0 f2 34 b5 bd e1 04 38 3d 4b 01 c2 bd ea 3d 69 bd
       -0.08847989 0.044926528 -0.09472903 -0.05694381
0002f0 65 87 03 bc 0b 5b bc 3e 81 10 02 3d b9 bc 99 bd
       -0.008027886 0.3678821 0.03175402 -0.07506699
000300 18 f8 a8 3a 40 ab 0f 3e 7a a4 7a 3e c0 5b a5 3d
       0.001289132 0.1403017 0.24476805 0.080741405
000310 c3 f3 91 bd 1f 70 b0 bd 75 44 9b 3d 0e a8 95 bd
       -0.07126572 -0.086151354 0.075814165 -0.073074445
000320 f0 17 a1 bc e7 32 d9 3c 64 5f cf 3b 85 f0 36 be
       -0.019664735 0.02651353 0.00632851 -0.17865188
000330 0f 51 ee 3d ed 37 39 be 79 a3 9c bd 71 8a 6f 3e
       0.116365544 -0.1808774 -0.076483674 0.23392655
000340 8d ac 06 3f e9 2d 06 3e 4b f1 01 3e 9d dd f8 3d
       0.5260704 0.13103451 0.12689702 0.121516444
000350 12 63 8f 3d 94 59 0d 3f a1 e9 73 be de bc e7 3b
       0.07001318 0.5521481 -0.23819591 0.0070720753
000360 26 fe 85 bd 36 4e d3 3c 79 4b c3 bc 58 c4 96 3e
       -0.065426156 0.02579413 -0.0238397 0.29446673
000370 ec b1 ca 3d 9d e9 27 bc a1 71 ee 3d 52 c1 23 be
       0.09897217 -0.010248569 0.11642767 -0.15991715
000380 26 81 99 bc f6 33 d2 bd 85 a8 c6 3c 43 c4 13 be
       -0.01873834 -0.10263817 0.024250278 -0.14430337
000390 1e 24 dd bc 81 a4 3d be 01 1e d2 3e 37 69 58 3e
       -0.026994761 -0.18519785 0.41038516 0.21133886
0003a0 76 96 25 3c f5 f3 0c 3e 83 51 15 3d 77 84 12 3d
       0.010106673 0.13764937 0.03645469 0.03577086
0003b0 09 99 1f bd d9 35 cc bc 69 3a 3d 3c 95 df 4d be
       -0.038964305 -0.02492802 0.011549571 -0.20104821
