checkpoints_16_tasks/16_task_groups_PUGCL_epochs_:100_lr_:0.1_hidden_:400_task_order_:[15  4  1  9  2 13  0  3 12  5 10 11  7  6 14  8]/model_15.pth.tar (torch_old, 220285 bytes, 136 tensors)

l1.weight_mu f4 [400, 29]
00000000: d062 a93c 6ef8 15be 5713 e9bd 68d5 5cbe
00000010: a1be 40bd 9236 a73c 3fdf 143e 2aa2 8b3d
00000020: 09f3 ab3d 3972 8bbd 6176 edbd aaf5 bc3b
00000030: ea64 773d 5c06 ea3c 9925 a73d aac5 80bc
00000040: 7a5c cfbc 5c30 e1ba 9e2c a43d 079e 5dbb
00000050: 67cf 093e 9811 00bb 1798 b6bd 971d bc3c
00000060: cd1f a9bd a041 3e3d bcf5 9bbd 3ee5 db3c
00000070: fa88 f3bd 9713 a53d eb9d e43c 5213 463d
00000080: fadb 973d 7f74 523d eb14 c6ba f1fa ba3c
00000090: 96a8 273b a109 063e 5332 4dbe 8fbc 863d
000000a0: 46a2 8fbd 8618 23bd 6a9e 8b3d c788 f0ba
000000b0: bb8d ccbc 8891 2dbc e0c4 a33c a990 903d
000000c0: be7a 683d f3f7 ebbd 22ae 11be c700 a13d
000000d0: 9507 6dbd f3e4 993d f709 493d b915 febd
000000e0: 863a d9bc 0ac7 71bd b286 b5bc 9687 923d
000000f0: 7b30 ac3d babb 0fbe 071d a9bd c25b 963d
00000100: e9f2 85bd 8afa 68bd ecf9 243e bdd7 d83d
00000110: f537 d23b 61d1 fa3c 29da 4cbe 6414 ba3c
00000120: 8190 673e 53b8 4d3c b8c6 51be d718 08bd
00000130: 3098 d43d 443e 10be 0fb3 29be a8e1 4cbd
00000140: 967b aa3b 4e0a 483d 8b17 a13d 15bb 63bd
00000150: 7fdd 86bd faa8 043e f5eb e33b ad1d 073d
00000160: 901d bfbd 1574 8e3c 3ca9 0f3e 3034 debc
00000170: e9dd 153e 338e 2c3d f468 39be 97c1 45be
00000180: a240 d1bd 1fc2 333d 0b61 1dbe 3b03 85bd
00000190: 85c1 20be 2e5c 9fbd 0f03 a73d 3518 6abd
000001a0: 187f 053c 2f7b f2bd 3044 3ebe 5132 e7bb
000001b0: ee07 aebd b30d 8ebc 75b5 1f3d 9b98 323e
000001c0: 6fda 74bd f255 7abe 064c dabd 55c1 0f3e
000001d0: 7f50 c83d cdf7 0b3e 83c9 37be 89ec b4bd
000001e0: afea 413d feff 343c 0fb0 8a3d b81e a43c
000001f0: 809c 173e 7d19 4c3e 813c 0f3d 847a 6a3a
00000200: 4815 25be 0856 4ebe ac5b 4dbd 6107 e4bd
00000210: f999 3f3e ddbf cabd 1c35 c13d f309 abbb
00000220: 529c a43d 6ef8 5ebc 60a0 983d 2bdf a03b
00000230: 2089 793d 44a2 2abd 3f7f 323e 2367 c73d
00000240: 3b56 423e 3552 5f3c f4f9 87be 6490 f43b
00000250: f5ab dd3b d4e6 323d 0383 023d cbe7 4ebd
00000260: 7077 a3bd 6a59 cfbc 8834 46bd 4d66 34bd
00000270: b417 97bd 49e5 34bd 9229 1abe 0127 1cbe
00000280: 9483 d83d c454 cdbc e9f5 39be 933c f2bd
00000290: 8a07 34bd 7050 463d d6d2 adbd aec3 5fbd
000002a0: a9fb 0bbd a1d8 0cbe e7bf e8bd 3920 d93d
000002b0: 357d afbc a2d4 db3c 1d9f 8d3d f029 b43b
000002c0: a9ec a73d 68a7 2cbe e042 383e 6245 76bd
000002d0: 97a0 3bbe 5491 313e 45a7 1ebe 803b afbd
000002e0: 4035 3dbe f765 f83d b8a4 b63d a129 10bc
000002f0: 69a0 70bd ca44 ca3c 31cf 2f3d f7d5 9a3d
00000300: 0b3d acbd bef8 fe3c 8ca3 8f3c 511d 30be
00000310: 9a11 98bd d5e1 ef3d ad05 8f3d 1dd3 ae3d
00000320: 4a88 a0bd 2bb7 c33d fda4 a1bc 473e 91bd
00000330: bc18 e23d 76b5 30be 4a3c 243e f12d a3bd
00000340: 8593 babd eaa8 bd3d f339 18bd f782 c93b
00000350: d874 173d 5722 c6bd 31fa dfba ecd3 b83c
00000360: e5d6 1d3d 3c1b 39bd 47c2 cabc 60c4 2f3d
00000370: 31ca 36bd 9eeb 3fbe ebb9 cdbd e254 0d3e
00000380: 21fc d6bd 9f23 bd3d 0155 783d c311 1e3e
00000390: 9a28 883d 8ab5 b1bd da53 2e3d 917d 933d
000003a0: 18cd 803d a74c 85bd 8502 8abd 9502 173e
000003b0: c83a ddbd 0bcb dabb dde0 cebd 7bc3 4abd
000003c0: 1adb 87bd 6349 23be f569 c33d d9f0 2fbe
000003d0: b1d0 d9bd 4b34 9b3d e2a2 6fbc 6795 e8bd
000003e0: 4f8d f43b 73e3 b83d 1466 17be 9600 913d
000003f0: 8154 98bd 91fb 853d 7869 8b3c 8090 f4bd
0.020677 -0.1464555 -0.11380642 -0.21565783 -0.047056798 0.020411763 0.14538287 0.0681804
0.08395965 -0.068088956 -0.115948446 0.00576659 0.060398974 0.028567486 0.08161468 -0.015719254
-0.025312651 -0.001718055 0.080163226 -0.0033816115 0.13458024 -0.0019541737 -0.089157276 0.022963328
-0.08258019 0.046449304 -0.076152295 0.02684271 -0.118913606 0.08060377 0.027907332 0.04835827
0.07415004 0.05138063 -0.0015112435 0.022824736 0.0025582663 0.1308961 -0.20038728 0.065789334
-0.07013373 -0.03981831 0.068173245 -0.001835131 -0.024969926 -0.010593779 0.019991338 0.07058842
0.05675768 -0.11521902 -0.14226583 0.078614764 -0.05786856 0.07514372 0.04908177 -0.12406487
-0.026517164 -0.05902771 -0.022158954 0.07154767 0.084076844 -0.14036456 -0.0825749 0.0734172
-0.06540472 -0.056879558 0.16110963 0.10588024 0.006415362 0.030617418 -0.20005096 0.022714801
0.22613718 0.012556153 -0.20485961 -0.033226814 0.1038059 -0.14086252 -0.16572212 -0.05001989
0.005202721 0.048837952 0.078658186 -0.055598337 -0.06585216 0.12955084 0.0069556185 0.032987285
-0.093318105 0.017389337 0.14029402 -0.027124494 0.14635433 0.0421278 -0.18106443 -0.1931213
-0.10217406 0.0438863 -0.1536905 -0.06494757 -0.15698822 -0.07781254 0.0815488 -0.057151992
0.008147977 -0.11839902 -0.18580699 -0.0070555587 -0.08497606 -0.017340517 0.03899141 0.17441027
-0.059778627 -0.24446848 -0.106590316 0.14038594 0.097809784 0.13668747 -0.17947964 -0.08834178
0.047342952 0.011047361 0.06771862 0.02003418 0.14805794 0.19931598 0.03496981 0.0008944648
-0.161214 -0.20150006 -0.050136253 -0.1113422 0.1871108 -0.09899876 0.09433958 -0.005219692
0.08037628 -0.013609035 0.07452464 0.004909416 0.06092179 -0.041658655 0.17431353 0.09736469
0.18978207 0.0136304395 -0.26557887 0.0074635018 0.0067648836 0.043677166 0.031863224 -0.050514024
-0.07981765 -0.02531119 -0.04838994 -0.044042874 -0.07377568 -0.044163976 -0.1505492 -0.15249254
0.105719715 -0.025064833 -0.18160214 -0.1182796 -0.043952502 0.048416555 -0.084874794 -0.054629974
-0.03417555 -0.13754512 -0.113647275 0.10601849 -0.021422008 0.02683479 0.06915114 0.0054981634
0.08199436 -0.16860735 0.17994261 -0.060124762 -0.18322979 0.17340595 -0.15493496 -0.085562706
-0.18477345 0.12128823 0.08918136 -0.008798988 -0.05874673 0.024691004 0.042922202 0.07560342
-0.084100805 0.031124469 0.01753404 -0.17198683 -0.07425232 0.11712996 0.069835044 0.085363604
-0.07838495 0.09556421 -0.019731993 -0.070919566 0.11039874 -0.17256722 0.16038623 -0.07967747
-0.09110168 0.092607334 -0.03716464 0.0061496454 0.036976665 -0.096745186 -0.0017088113 0.02256199
0.038535018 -0.04519199 -0.024750842 0.042911887 -0.04462642 -0.18742225 -0.10045227 0.13801911
-0.104973085 0.0923531 0.06062794 0.15436463 0.06648369 -0.08677204 0.042560436 0.07201684
0.062891185 -0.06508761 -0.06738762 0.14747079 -0.10802227 -0.0066770366 -0.10101483 -0.04950283
-0.06633587 -0.15945964 0.09541694 -0.1718172 -0.10635508 0.075783335 -0.014626237 -0.11356621
0.0074631344 0.090277575 -0.14785033 0.0708019 -0.07437993 0.06542123 0.017018065 -0.11941624

l1.weight_rho f4 [400, 29]
00000000: 5478 48c0 ef72 3ec0 313a 3bc0 8f3f 47c0
00000010: 4089 40c0 3517 37c0 6e7d 3bc0 77fd 3cc0
00000020: 2e64 41c0 0e2a 40c0 e4d1 40c0 e38f 41c0
00000030: c7e8 36c0 38ef 41c0 5ecd 41c0 3fab 46c0
00000040: e255 43c0 a46a 3fc0 1503 48c0 c301 41c0
00000050: ac60 44c0 a9ba 37c0 3149 3fc0 941b 44c0
00000060: 0e21 37c0 6061 3ac0 fbb3 3dc0 775c 3dc0
00000070: 8296 40c0 1590 43c0 0314 40c0 a3d9 44c0
00000080: 1f71 43c0 6e35 47c0 ce22 41c0 5f6e 47c0
00000090: f6dc 40c0 f48f 45c0 ea25 43c0 42e1 43c0
000000a0: dad8 42c0 84cb 3ac0 44a0 41c0 691c 3ec0
000000b0: 91b6 40c0 3e03 46c0 20cf 35c0 fb6d 40c0
000000c0: 3567 43c0 43b2 3dc0 02d4 39c0 a9f0 3dc0
000000d0: a059 41c0 9233 41c0 f70d 40c0 c330 3dc0
000000e0: 2b53 43c0 7fc2 49c0 c7a3 44c0 091d 40c0
000000f0: 283b 40c0 87ec 2ac0 88be 40c0 33bc 3bc0
00000100: 9644 48c0 fc5d 46c0 88c8 39c0 7735 43c0
00000110: 3f6a 4bc0 f10b 48c0 833f 3cc0 7f0e 43c0
00000120: ec78 44c0 5af3 47c0 519f 46c0 d05a 49c0
00000130: 999f 45c0 465f 3cc0 1ee4 3ec0 01bb 44c0
00000140: ff56 41c0 2097 45c0 2cec 3bc0 c802 42c0
00000150: 4b33 3dc0 3a82 3ec0 aa7f 3ec0 56b5 40c0
00000160: 802a 3ac0 6f2e 45c0 fdab 44c0 7722 4cc0
00000170: 48e7 3ec0 ccb2 3bc0 eab8 41c0 d907 3dc0
00000180: 3140 3ac0 476c 44c0 10f5 3ec0 0ada 39c0
00000190: a26f 47c0 b6ef 43c0 2194 39c0 6243 40c0
000001a0: 68a7 40c0 bb3d 3dc0 a2bf 40c0 c751 48c0
000001b0: b816 3ec0 d27e 3bc0 f689 46c0 0449 41c0
000001c0: 0f96 3fc0 5dce 4ac0 9d43 41c0 d49f 3ac0
000001d0: 8d8d 45c0 c450 40c0 e82e 3ac0 ee5d 3ec0
000001e0: 37a6 46c0 366c 48c0 ed20 47c0 6678 46c0
000001f0: c8c2 38c0 80dc 36c0 ab08 47c0 9a97 42c0
00000200: 9a0a 3dc0 8636 44c0 e3e7 44c0 146d 3fc0
00000210: ba6b 48c0 c4db 3ac0 5ef1 45c0 5da2 3ac0
00000220: c32d 42c0 b587 42c0 9db6 3bc0 ee92 41c0
00000230: d961 38c0 2219 3ec0 6e18 39c0 c5fd 43c0
00000240: e118 40c0 e665 41c0 2fa2 44c0 dd0e 39c0
00000250: e883 42c0 4677 48c0 be95 46c0 1fea 48c0
00000260: 7297 36c0 aafc 49c0 a78a 44c0 96d7 3dc0
00000270: 36fa 49c0 2dec 3fc0 870b 41c0 6791 41c0
00000280: fc49 46c0 d72e 31c0 a6d6 43c0 609a 43c0
00000290: 3057 46c0 2a75 3fc0 56fa 44c0 82e0 42c0
000002a0: 024a 41c0 7191 45c0 71a3 34c0 b100 46c0
000002b0: f829 3cc0 68c9 4dc0 0c09 45c0 353f 42c0
000002c0: 3e3e 3cc0 444c 44c0 746f 3dc0 f43c 43c0
000002d0: ac1b 43c0 c663 39c0 2fc9 3fc0 19af 4ec0
000002e0: 050c 48c0 5be3 3fc0 7eef 42c0 2213 3bc0
000002f0: c51c 3fc0 a539 50c0 2062 43c0 f09f 48c0
00000300: b5e5 3ec0 2ed1 41c0 d9f7 41c0 4194 47c0
00000310: a994 39c0 748c 47c0 d7d2 44c0 7bf8 50c0
00000320: 54bb 46c0 fac6 42c0 c621 3fc0 24b7 34c0
00000330: 1473 47c0 f4db 45c0 46a6 43c0 b0f4 44c0
00000340: 4d33 35c0 0dd0 39c0 cf8e 40c0 f660 3cc0
00000350: 4190 42c0 cf27 45c0 089d 42c0 1e7c 3ec0
00000360: cf99 3fc0 a15c 43c0 754f 47c0 b7f0 42c0
00000370: 3adf 3bc0 42e8 3dc0 480b 40c0 1bf5 37c0
00000380: 5535 47c0 33b0 3bc0 7118 40c0 efb0 42c0
00000390: 9939 49c0 a394 3cc0 38cc 39c0 f865 49c0
000003a0: 439b 43c0 9e12 42c0 626a 38c0 1f2d 41c0
000003b0: 3c62 46c0 9e80 42c0 9ee8 3ac0 c7b6 37c0
000003c0: 18f9 47c0 1bb7 47c0 7ac4 33c0 49a7 35c0
000003d0: e55f 3ac0 490b 4ec0 c82d 44c0 e82c 4fc0
000003e0: d5dc 44c0 b97f 36c0 5ced 41c0 7a71 46c0
000003f0: b6e4 38c0 d71a 43c0 6e91 42c0 4788 40c0
-3.1323442 -2.975765 -2.9254267 -3.1132543 -3.008377 -2.8607914 -2.9295306 -2.9529703
-3.0217395 -3.0025668 -3.0128107 -3.0244071 -2.8579576 -3.0302258 -3.0281596 -3.104202
-3.0521169 -2.9908838 -3.125188 -3.0157325 -3.0684004 -2.8707678 -2.9888422 -3.0641832
-2.8613925 -2.9121933 -2.9641101 -2.9587686 -3.0091863 -3.055669 -3.0012214 -3.0757835
-3.0537794 -3.112636 -3.0177493 -3.1161115 -3.0134864 -3.0869112 -3.049189 -3.0606236
-3.0444856 -2.9186716 -3.0254068 -2.970484 -3.011143 -3.093948 -2.840767 -3.0067127
-3.0531743 -2.9640052 -2.903565 -2.9678137 -3.0210953 -3.0187726 -3.0008523 -2.9561012
-3.0519512 -3.152496 -3.0724962 -3.0017722 -3.0036106 -2.6706865 -3.011629 -2.9333618
-3.1291862 -3.0994864 -2.9028645 -3.0501382 -3.1783597 -3.1257288 -2.9413764 -3.0477598
-3.0698805 -3.124228 -3.103474 -3.1461678 -3.087866 -2.943315 -2.9826732 -3.0739138
-3.0209348 -3.087349 -2.9362898 -3.0314198 -2.9562557 -2.9766984 -2.976542 -3.0110679
-2.908844 -3.080959 -3.0729973 -3.1896036 -2.9828663 -2.932788 -3.0269113 -2.953604
-2.910168 -3.0691087 -2.9837074 -2.903933 -3.1161885 -3.0615058 -2.899666 -3.0041127
-3.0102177 -2.9568927 -3.0116963 -3.1299913 -2.9701366 -2.9296155 -3.1021705 -3.0200815
-2.9935338 -3.1688454 -3.0197518 -2.9160051 -3.0867646 -3.0049295 -2.909113 -2.974483
-3.103895 -3.1316047 -3.1113846 -3.1010985 -2.8868885 -2.8572083 -3.109904 -3.040503
-2.953772 -3.0658278 -3.0766532 -2.9910326 -3.131575 -2.9196634 -3.092857 -2.9161599
-3.034043 -3.039533 -2.9330208 -3.0245929 -2.8809721 -2.970284 -2.892116 -3.0623639
-3.0015185 -3.0218444 -3.072399 -2.8915322 -3.039301 -3.1322799 -3.1028895 -3.1392896
-2.8529935 -3.1560464 -3.0709627 -2.9662833 -3.1558967 -2.99879 -3.0163286 -3.0244997
-3.0982656 -2.7684839 -3.059976 -3.0562973 -3.0990715 -2.9915261 -3.0777793 -3.0449529
-3.020142 -3.087002 -2.8224757 -3.0937922 -2.9400616 -3.2154179 -3.0786772 -3.0351079
-2.941299 -3.067155 -2.9599276 -3.0505953 -3.048564 -2.8967147 -2.9966543 -3.229437
-3.1257336 -2.9982517 -3.0458674 -2.9230428 -2.986131 -3.2535183 -3.052864 -3.1347618
-2.9827702 -3.0283923 -3.0307524 -3.1184237 -2.8996985 -3.1179476 -3.0753686 -3.265166
-3.1051836 -3.0433946 -2.9864364 -2.823678 -3.1163988 -3.0915499 -3.0570235 -3.0774345
-2.8312562 -2.9033234 -3.0087163 -2.943418 -3.0400546 -3.0805547 -3.0408344 -2.9763255
-2.9937627 -3.0525286 -3.1142247 -3.045942 -2.9354997 -2.967301 -3.0006886 -2.874335
-3.1126301 -2.9326293 -3.0014918 -3.0420492 -3.1441405 -2.946572 -2.9030895 -3.1468487
-3.0563514 -3.0323863 -2.881493 -3.018379 -3.0997458 -3.0391002 -2.9204478 -2.8705308
-3.1245785 -3.1205509 -2.808867 -2.8383353 -2.912103 -3.2194388 -3.0652943 -3.2371159
-3.0759785 -2.8515456 -3.0301123 -3.100676 -2.8889594 -3.0485132 -3.0401263 -3.0083177

l1.bias_mu f4 [400]
00000000: a8f4 8ebd 35c0 a2bd c806 4bbd 6e9d d6bd
00000010: e2c8 f63a 4faf 653c 04d0 133e 6ac0 f13c
00000020: cc92 aabd 4695 893b ca66 14bd 7c2f 893d
00000030: 4b3e 57bd ab69 0abe b281 073e 3058 973d
00000040: e7df 94bc 9545 7c3c 19ed 8f3d 51e7 1ebe
00000050: f06e dd3d 1551 1dbd 9b4e 853e f867 d3bd
00000060: 9915 e53d a9e5 1bbe 04c2 043d 519b ea3b
00000070: 67a1 85bc 6df5 65bb 9002 aa3d 13ac 1f3e
00000080: c248 d0bd 333c 053e beb1 303e c169 87bd
00000090: 7a9f b4bc fa06 1f3d 9a1d 72bd 469c 793e
000000a0: 2ed2 a1bc 2e4e afbb 6437 393c db31 e53a
000000b0: 66d3 a3bd 00bd 32bb 1d58 2f3e 1571 80bd
000000c0: 0983 823d 5b95 0dbe b8fb 7bbd 73fa 91bd
000000d0: b34c a33d a3e2 0bbe 107f 6e3d 2001 12bc
000000e0: 1ceb c23d fbe5 59bd 52fe 25be fc70 e5bc
000000f0: c537 263e 8d41 d93c 0f28 16be 720c 2bbd
00000100: 90b5 1cbd 021c b4bd 8751 b43d b886 9bbc
00000110: 7892 5bbd 2aad adbd 1faf 97be 16e0 1bbd
00000120: 8426 9ebd 0d3f aabd 690d 5abe 4783 413c
00000130: 4f8f 063e 1168 8d3c 02e2 aa3d 577f 973c
00000140: 0353 35bd 593a 323e 1856 173e 62ac ffbd
00000150: f196 123d 25bb eebb 7164 8abd c2a6 07bc
00000160: 39a0 0cbd 486d 523e 988e a33c 0225 f53b
00000170: 36bf fc3c e745 0bbd 1a6a 6c3d 1fec dc3d
00000180: af3e eebd 091b c13d d797 bfbc 76ae 073e
00000190: f5eb ac3d 2021 3abe 427d d7bd a51c 963c
000001a0: f3e2 3cbd 22b4 203e b06d 373e f508 72bd
000001b0: 6c10 63be bbbb 063c 5bba 2b3e 95d3 a33d
000001c0: 903e e03d dccb e9ba c55c 1c3c 15b2 333d
000001d0: 3b77 213d 0309 213c b9b1 3ebd c52f 45be
000001e0: 87e7 05bd 53ca 8dbc 732f 26bd af21 efbd
000001f0: b806 debd 5d0d ab3d 46fa 16bd 73a2 bfbc
00000200: e805 ea3d 27ba 603e 4423 76bd d89d 203d
00000210: 685e f73d f5c6 24bd 1933 9b3c d500 f7bc
00000220: 8443 823d b683 debd 40fe 9dbd 4ff3 433d
00000230: 29a3 8d3d 3114 113e 9b3a 81bb df7a 40bb
00000240: d256 2c3d b2d3 5dbd 5cad 0d3c 3ca3 9f3d
00000250: 1af6 f73d 358b 343e 1658 15be 494c 553e
00000260: 3d26 6e3d a877 a43a 556c 173e dc36 b4bd
00000270: 0145 db3d 7f44 babd 0859 85bb 3dd7 3f3e
00000280: de00 373e 92b2 d93d e5bd 283d ea80 303e
00000290: 76d5 d6bc aa40 1ebd 480b b7bd 37b9 d6ba
000002a0: 6c5b a9bd 152e a13d 70dc 2dbc 4bfb 25be
000002b0: f0fb 5abe df47 6cbd d09a 3dbe 1fe9 d03c
000002c0: 8ce3 b13a 8bfe 903c cc50 62bc b390 0c3e
000002d0: 6400 183d 4cdf 0bbe 47b8 fdbd 2ac6 1f3d
000002e0: 5c7e 143d 992a 47bc a26d 0cbe 7393 b03c
000002f0: 1e90 05be b0db 36be 2972 8abd 3e5b 3cbe
00000300: 23a8 183c ae97 6bbd 1349 d83c 4095 0ebd
00000310: e693 703d bd36 613d 2812 2fbe 1eef bc3b
00000320: c3a2 933d 70f6 aebd 7e99 87bd 7ed3 583d
00000330: 3ed6 f83c 1ed7 18be 5d9f 41bd 1d71 1e3e
00000340: 744f 0f3e 91de ccbd 4ac1 4d3d 8fa4 cebd
00000350: 63ac 063d 800c f73d 9aa0 fc3c 3c9a 11be
00000360: 3252 c83d 65f3 e7bc d8ad 143e fde5 7b3d
00000370: e26e 233d 7de2 2cbe 274a 9dbc 6601 5bbd
00000380: 055c 313e e672 f3bc c6cb 5b3e c77d a9ba
00000390: 43a2 853c 0ce2 4dbe fd34 b13d cf76 07be
000003a0: 9261 a43d ca19 2fbc 4583 4c3e 2185 0ebc
000003b0: 9ed2 103d 919e 973d e269 9e3d 8ea8 733d
000003c0: fba0 31be b793 38be d009 773c f83b d63c
000003d0: ca9c 04be f45f 373d 63cd cbbd e716 633d
000003e0: 0697 fa3d a645 e9bc f808 b4bc 6880 0bbd
000003f0: e7d8 833d 2076 9d3d b6c2 293e f74b 02be
-0.06980258 -0.07946817 -0.049567014 -0.10479246 0.0018828178 0.014018848 0.1443482 0.029510695
-0.083287805 0.004198703 -0.03623084 0.0669851 -0.05254964 -0.13516872 0.13233069 0.07389867
-0.018173171 0.015397449 0.07027645 -0.15517928 0.10812175 -0.038407404 0.26036534 -0.10322565
0.1118576 -0.15224327 0.03241159 0.0071596284 -0.016312314 -0.0035088912 0.0830127 0.15592985
-0.101701275 0.13011245 0.17255303 -0.06611968 -0.0220487 0.038825013 -0.05911026 0.2437602
-0.019753542 -0.005349896 0.01130471 0.0017486172 -0.079993054 -0.0027273297 0.17123456 -0.06271569
0.06372649 -0.13826506 -0.061519355 -0.071278475 0.079736136 -0.13660674 0.058226645 -0.008911401
0.095175 -0.053197842 -0.16210297 -0.028007977 0.16232212 0.026520515 -0.14663719 -0.041759916
-0.03825909 -0.087944046 0.088046126 -0.018985137 -0.05360648 -0.08480294 -0.29625794 -0.038055502
-0.0772219 -0.08312807 -0.21294178 0.011811084 0.13140605 0.017261537 0.08343889 0.018493338
-0.04426862 0.1740507 0.14778936 -0.12484051 0.03578848 -0.007285493 -0.06757439 -0.008279504
-0.034332488 0.205495 0.019965455 0.0074812183 0.030852895 -0.03400221 0.057718374 0.10787224
-0.1163305 0.09428985 -0.023387833 0.13250145 0.08443443 -0.18176699 -0.10521938 0.018324206
-0.046114873 0.15693715 0.17912936 -0.059090573 -0.22174233 0.008223469 0.16770308 0.079993404
0.10949433 -0.0017837244 0.009543602 0.043871004 0.039420348 0.009828809 -0.04655621 -0.19256504
-0.032691505 -0.01730839 -0.040572595 -0.116763465 -0.10841125 0.08352158 -0.036859773 -0.023392892
0.11426908 0.21946011 -0.060092226 0.03921303 0.120785534 -0.040228803 0.018945264 -0.030151764
0.06360534 -0.108649656 -0.0771451 0.04783946 0.06915886 0.14167859 -0.003943754 -0.0029370112
0.042074986 -0.054156967 0.008647289 0.07794806 0.12107487 0.17631228 -0.14584383 0.20829882
0.058141936 0.0012547867 0.14787419 -0.08799526 0.10706521 -0.09095096 -0.0040694512 0.1873445
0.17871425 0.10629763 0.041196723 0.17236677 -0.026224833 -0.038635887 -0.089376986 -0.0016382103
-0.082693905 0.078701176 -0.010611638 -0.16209142 -0.21385169 -0.05768573 -0.18516088 0.025501786
0.0013571843 0.0176995 -0.013813209 0.13727073 0.037109748 -0.136594 -0.12388664 0.039007343
0.03625332 -0.012156152 -0.13713697 0.021554684 -0.13043258 -0.17857242 -0.067600556 -0.18394181
0.009317431 -0.0575177 0.026402032 -0.034810305 0.058734797 0.054983843 -0.1709677 0.0057658097
0.07208779 -0.08543098 -0.06621073 0.05293607 0.030375596 -0.1492581 -0.04727112 0.15472837
0.13995153 -0.10003389 0.050233163 -0.10089981 0.032879245 0.12062931 0.0308383 -0.14218992
0.097813025 -0.028314302 0.14519441 0.06149863 0.039900668 -0.16883273 -0.019200398 -0.05346813
0.17320259 -0.029717874 0.21464452 -0.0012931161 0.016312724 -0.20105761 0.08652685 -0.13228916
0.080264226 -0.010687301 0.1997195 -0.008698733 0.03535711 0.07403291 0.07735039 0.05948692
-0.17346565 -0.18025099 0.015078023 0.026151642 -0.12950435 0.044769242 -0.09951284 0.055441763
0.12235837 -0.028475594 -0.021976933 -0.034058005 0.06437855 0.07688546 0.16578183 -0.12724291

l1.bias_rho f4 [400]
00000000: dc16 39c0 6112 47c0 e3b2 40c0 22f7 3cc0
00000010: c05b 3dc0 5ca1 3ac0 1326 40c0 426c 49c0
00000020: 8cf3 41c0 f740 3ec0 b996 3ac0 2061 42c0
00000030: 509a 41c0 ac5c 45c0 ee24 48c0 f7c3 3ac0
00000040: 4db2 3dc0 22dd 37c0 4395 4ac0 0717 40c0
00000050: ac72 42c0 516f 40c0 378b 45c0 11cc 39c0
00000060: eda6 3cc0 a40e 4cc0 a6e2 39c0 ba3c 3ec0
00000070: 90a1 3ec0 fc85 3dc0 1294 31c0 389d 3bc0
00000080: e491 3ac0 7b44 46c0 8dc7 3cc0 e611 48c0
00000090: edf2 3ec0 1eea 43c0 ab28 43c0 acce 47c0
000000a0: 01dc 45c0 76a7 43c0 a7ca 46c0 2023 4ac0
000000b0: ecf3 4dc0 a47c 3ec0 44c8 47c0 b831 3ac0
000000c0: b90f 48c0 9c22 32c0 81c0 3ec0 aae2 44c0
000000d0: ab85 40c0 28d0 40c0 a924 3ec0 8e61 4cc0
000000e0: 4629 35c0 b4b7 40c0 97d2 3fc0 dcbb 45c0
000000f0: 06ca 3bc0 0ce0 41c0 6566 41c0 2ff0 48c0
00000100: 3760 40c0 2b16 4ac0 8848 3bc0 3733 3bc0
00000110: b1e3 3fc0 324a 3ec0 7f12 3dc0 4740 39c0
00000120: 74b5 41c0 9281 3fc0 d0dc 42c0 3336 43c0
00000130: f98c 34c0 cf36 3bc0 6e52 3dc0 57ec 45c0
00000140: 1628 3cc0 bd78 3cc0 4cb4 41c0 89a6 34c0
00000150: 2928 3cc0 0b57 37c0 b341 35c0 37bf 3ac0
00000160: 5f89 56c0 770d 3fc0 4f5f 3fc0 c051 43c0
00000170: 2c5e 3dc0 7bf7 40c0 7974 49c0 9247 44c0
00000180: 431c 3fc0 c37a 44c0 041c 43c0 1fcb 4cc0
00000190: 86b6 44c0 4110 49c0 1f67 43c0 0950 42c0
000001a0: b739 45c0 7458 42c0 2d34 3cc0 fdc9 42c0
000001b0: f8c3 3cc0 691b 46c0 b33a 41c0 56b3 39c0
000001c0: 372a 45c0 22e2 41c0 932a 3fc0 4bd7 3cc0
000001d0: c57a 3bc0 ef3c 39c0 6133 3ec0 2387 45c0
000001e0: 677d 3ec0 322b 45c0 2b52 38c0 755e 42c0
000001f0: 2398 42c0 d6bb 3dc0 8f38 40c0 e3e6 42c0
00000200: f106 42c0 df66 3cc0 2b94 41c0 d753 44c0
00000210: faeb 42c0 d690 3ec0 c89d 45c0 d5a5 3cc0
00000220: 5838 41c0 3cc1 42c0 7059 4ac0 02d9 33c0
00000230: 228c 40c0 fffb 43c0 b32a 41c0 bfe4 43c0
00000240: 55a6 43c0 8c18 43c0 eae2 42c0 f7d3 3ac0
00000250: 5038 40c0 c4b6 42c0 914d 45c0 a367 43c0
00000260: 4981 44c0 0f5c 3ac0 b293 3dc0 e4d8 40c0
00000270: 3c6d 3dc0 49b2 43c0 77b9 3bc0 499d 41c0
00000280: d0d4 4dc0 37af 41c0 c3d4 41c0 fa6b 3fc0
00000290: ab2c 43c0 bc17 39c0 bd73 45c0 c551 39c0
000002a0: 6b9b 34c0 322d 3bc0 2a05 40c0 3e3b 44c0
000002b0: de61 43c0 896d 38c0 5a66 41c0 92ed 39c0
000002c0: 74eb 43c0 792a 42c0 ae9b 37c0 1003 41c0
000002d0: dd06 51c0 11bd 48c0 e1af 3ac0 e0fd 45c0
000002e0: 85cd 35c0 b50b 48c0 1160 46c0 3ab5 3ec0
000002f0: c961 42c0 e4cf 3cc0 c4bd 48c0 4668 38c0
00000300: 0b52 42c0 b59c 45c0 6b38 3bc0 0663 3cc0
00000310: 8cfe 41c0 91dc 41c0 813f 41c0 676b 38c0
00000320: 6533 44c0 56da 3ec0 60f3 42c0 d960 3ac0
00000330: 4f1f 45c0 b12c 4bc0 da8f 44c0 b7d6 39c0
00000340: 3b34 3fc0 ebaa 3dc0 6fed 4ec0 d8b8 42c0
00000350: d5ab 3ec0 b267 41c0 9187 42c0 fcff 48c0
00000360: c882 3dc0 2b09 48c0 1d9d 44c0 2af7 48c0
00000370: a1cd 38c0 eba3 37c0 b392 48c0 c703 38c0
00000380: 4045 46c0 14e6 3bc0 a863 3bc0 1ea7 44c0
00000390: 1030 3ec0 938c 40c0 b31a 47c0 db52 3ec0
000003a0: bd60 3dc0 6f3d 44c0 b898 33c0 5ddc 40c0
000003b0: 385b 44c0 8f0c 4fc0 8242 36c0 6851 43c0
000003c0: cfe2 35c0 f7f5 40c0 1c7d 38c0 fdf8 48c0
000003d0: 9664 44c0 fe2b 43c0 d0b4 44c0 ce2c 3cc0
000003e0: 3a68 3bc0 baf2 41c0 88d2 34c0 84f2 4cc0
000003f0: 8cb0 47c0 8f0e 38c0 48b3 3ac0 532d 41c0
-2.8920202 -3.1104968 -3.0109184 -2.9525838 -2.958725 -2.9160986 -3.0023239 -3.1472325
-3.03049 -2.9727151 -2.9154494 -3.037178 -3.0250435 -3.0837812 -3.127254 -2.9182107
-2.9640076 -2.8728719 -3.1653602 -3.0014055 -3.038249 -3.0067942 -3.086622 -2.9030802
-2.9476883 -3.1883936 -2.9044585 -2.9724565 -2.978611 -2.9613028 -2.7746625 -2.9314709
-2.9151545 -3.0979297 -2.9496796 -3.1260924 -2.983577 -3.0611644 -3.0493572 -3.1219893
-3.091553 -3.057096 -3.106119 -3.1583939 -3.2180128 -2.9763575 -3.1215982 -2.9092846
-3.1259596 -2.7833624 -2.9804995 -3.0763345 -3.0081584 -3.0127048 -2.9709876 -3.1934543
-2.8306441 -3.0112123 -2.9972284 -3.089591 -2.9342055 -3.0292997 -3.0218747 -3.1396596
-3.0058725 -3.157603 -2.926302 -2.925001 -2.9982722 -2.9732785 -2.954254 -2.8945482
-3.0267 -2.9922833 -3.0447273 -3.050183 -2.8211043 -2.9252203 -2.958156 -3.09255
-2.9399467 -2.9448693 -3.0266294 -2.8226645 -2.9399512 -2.8646877 -2.832135 -2.9179208
-3.3521345 -2.9851968 -2.9901922 -3.0518646 -2.9588728 -3.015105 -3.147734 -3.0668683
-2.9861 -3.0699928 -3.048585 -3.1998975 -3.0736403 -3.141617 -3.053169 -3.036135
-3.0816476 -3.0366488 -2.9406846 -3.0435784 -2.949461 -3.095423 -3.0192077 -2.9015708
-3.0807016 -3.029427 -2.9869735 -2.9506404 -2.9293683 -2.894344 -2.971886 -3.086373
-2.976404 -3.0807614 -2.8800151 -3.0370152 -3.0405357 -2.9645896 -3.003452 -3.0453422
-3.0316737 -2.9437788 -3.0246685 -3.0676172 -3.0456529 -2.97759 -3.0877552 -2.9476216
-3.019064 -3.043044 -3.1617088 -2.81012 -3.008553 -3.0622556 -3.0182312 -3.0608366
-3.057027 -3.0483732 -3.0450997 -2.9191873 -3.003437 -3.0424051 -3.0828593 -3.0532005
-3.070391 -2.9118688 -2.9621396 -3.013238 -2.9597921 -3.0577567 -2.9331949 -3.025225
-3.216114 -3.0263193 -3.028611 -2.9909654 -3.0496013 -2.8920736 -3.085189 -2.8956158
-2.821986 -2.9246335 -3.0003152 -3.0661159 -3.0528483 -2.8816855 -3.021872 -2.9051251
-3.061246 -3.0338423 -2.868877 -3.015812 -3.266044 -3.1365397 -2.9169848 -3.0936203
-2.840669 -3.1257145 -3.0996134 -2.9798112 -3.0372183 -2.9501886 -3.1365824 -2.8813643
-3.0362575 -3.0876896 -2.9253185 -2.943544 -3.0311613 -3.0290873 -3.019501 -2.8815553
-3.0656369 -2.9820762 -3.0461044 -2.912161 -3.080036 -3.1746027 -3.07128 -2.9037302
-2.987563 -2.963557 -3.2332418 -3.042532 -2.9792378 -3.021954 -3.0395243 -3.140624
-2.9611073 -3.1255596 -3.0720894 -3.1400857 -2.8875506 -2.8693798 -3.1339538 -2.8752306
-3.0979767 -2.9359179 -2.9279575 -3.0727 -2.9716835 -3.00858 -3.1110046 -2.973807
-2.9590294 -3.0662496 -2.8061962 -3.01345 -3.0680676 -3.2351415 -2.8478093 -3.0518436
-2.8419683 -3.0150125 -2.882636 -3.140197 -3.0686393 -3.04956 -3.073536 -2.9402347
-2.9282365 -3.0304399 -2.8253498 -3.202302 -3.1201506 -2.8758886 -2.9171925 -3.0183914

l1.weight.mu f4 [400, 29]
00000000: d062 a93c 6ef8 15be 5713 e9bd 68d5 5cbe
00000010: a1be 40bd 9236 a73c 3fdf 143e 2aa2 8b3d
00000020: 09f3 ab3d 3972 8bbd 6176 edbd aaf5 bc3b
00000030: ea64 773d 5c06 ea3c 9925 a73d aac5 80bc
00000040: 7a5c cfbc 5c30 e1ba 9e2c a43d 079e 5dbb
00000050: 67cf 093e 9811 00bb 1798 b6bd 971d bc3c
00000060: cd1f a9bd a041 3e3d bcf5 9bbd 3ee5 db3c
00000070: fa88 f3bd 9713 a53d eb9d e43c 5213 463d
00000080: fadb 973d 7f74 523d eb14 c6ba f1fa ba3c
00000090: 96a8 273b a109 063e 5332 4dbe 8fbc 863d
000000a0: 46a2 8fbd 8618 23bd 6a9e 8b3d c788 f0ba
000000b0: bb8d ccbc 8891 2dbc e0c4 a33c a990 903d
000000c0: be7a 683d f3f7 ebbd 22ae 11be c700 a13d
000000d0: 9507 6dbd f3e4 993d f709 493d b915 febd
000000e0: 863a d9bc 0ac7 71bd b286 b5bc 9687 923d
000000f0: 7b30 ac3d babb 0fbe 071d a9bd c25b 963d
00000100: e9f2 85bd 8afa 68bd ecf9 243e bdd7 d83d
00000110: f537 d23b 61d1 fa3c 29da 4cbe 6414 ba3c
00000120: 8190 673e 53b8 4d3c b8c6 51be d718 08bd
00000130: 3098 d43d 443e 10be 0fb3 29be a8e1 4cbd
00000140: 967b aa3b 4e0a 483d 8b17 a13d 15bb 63bd
00000150: 7fdd 86bd faa8 043e f5eb e33b ad1d 073d
00000160: 901d bfbd 1574 8e3c 3ca9 0f3e 3034 debc
00000170: e9dd 153e 338e 2c3d f468 39be 97c1 45be
00000180: a240 d1bd 1fc2 333d 0b61 1dbe 3b03 85bd
00000190: 85c1 20be 2e5c 9fbd 0f03 a73d 3518 6abd
000001a0: 187f 053c 2f7b f2bd 3044 3ebe 5132 e7bb
000001b0: ee07 aebd b30d 8ebc 75b5 1f3d 9b98 323e
000001c0: 6fda 74bd f255 7abe 064c dabd 55c1 0f3e
000001d0: 7f50 c83d cdf7 0b3e 83c9 37be 89ec b4bd
000001e0: afea 413d feff 343c 0fb0 8a3d b81e a43c
000001f0: 809c 173e 7d19 4c3e 813c 0f3d 847a 6a3a
00000200: 4815 25be 0856 4ebe ac5b 4dbd 6107 e4bd
00000210: f999 3f3e ddbf cabd 1c35 c13d f309 abbb
00000220: 529c a43d 6ef8 5ebc 60a0 983d 2bdf a03b
00000230: 2089 793d 44a2 2abd 3f7f 323e 2367 c73d
00000240: 3b56 423e 3552 5f3c f4f9 87be 6490 f43b
00000250: f5ab dd3b d4e6 323d 0383 023d cbe7 4ebd
00000260: 7077 a3bd 6a59 cfbc 8834 46bd 4d66 34bd
00000270: b417 97bd 49e5 34bd 9229 1abe 0127 1cbe
00000280: 9483 d83d c454 cdbc e9f5 39be 933c f2bd
00000290: 8a07 34bd 7050 463d d6d2 adbd aec3 5fbd
000002a0: a9fb 0bbd a1d8 0cbe e7bf e8bd 3920 d93d
000002b0: 357d afbc a2d4 db3c 1d9f 8d3d f029 b43b
000002c0: a9ec a73d 68a7 2cbe e042 383e 6245 76bd
000002d0: 97a0 3bbe 5491 313e 45a7 1ebe 803b afbd
000002e0: 4035 3dbe f765 f83d b8a4 b63d a129 10bc
000002f0: 69a0 70bd ca44 ca3c 31cf 2f3d f7d5 9a3d
00000300: 0b3d acbd bef8 fe3c 8ca3 8f3c 511d 30be
00000310: 9a11 98bd d5e1 ef3d ad05 8f3d 1dd3 ae3d
00000320: 4a88 a0bd 2bb7 c33d fda4 a1bc 473e 91bd
00000330: bc18 e23d 76b5 30be 4a3c 243e f12d a3bd
00000340: 8593 babd eaa8 bd3d f339 18bd f782 c93b
00000350: d874 173d 5722 c6bd 31fa dfba ecd3 b83c
00000360: e5d6 1d3d 3c1b 39bd 47c2 cabc 60c4 2f3d
00000370: 31ca 36bd 9eeb 3fbe ebb9 cdbd e254 0d3e
00000380: 21fc d6bd 9f23 bd3d 0155 783d c311 1e3e
00000390: 9a28 883d 8ab5 b1bd da53 2e3d 917d 933d
000003a0: 18cd 803d a74c 85bd 8502 8abd 9502 173e
000003b0: c83a ddbd 0bcb dabb dde0 cebd 7bc3 4abd
000003c0: 1adb 87bd 6349 23be f569 c33d d9f0 2fbe
000003d0: b1d0 d9bd 4b34 9b3d e2a2 6fbc 6795 e8bd
000003e0: 4f8d f43b 73e3 b83d 1466 17be 9600 913d
000003f0: 8154 98bd 91fb 853d 7869 8b3c 8090 f4bd
0.020677 -0.1464555 -0.11380642 -0.21565783 -0.047056798 0.020411763 0.14538287 0.0681804
0.08395965 -0.068088956 -0.115948446 0.00576659 0.060398974 0.028567486 0.08161468 -0.015719254
-0.025312651 -0.001718055 0.080163226 -0.0033816115 0.13458024 -0.0019541737 -0.089157276 0.022963328
-0.08258019 0.046449304 -0.076152295 0.02684271 -0.118913606 0.08060377 0.027907332 0.04835827
0.07415004 0.05138063 -0.0015112435 0.022824736 0.0025582663 0.1308961 -0.20038728 0.065789334
-0.07013373 -0.03981831 0.068173245 -0.001835131 -0.024969926 -0.010593779 0.019991338 0.07058842
0.05675768 -0.11521902 -0.14226583 0.078614764 -0.05786856 0.07514372 0.04908177 -0.12406487
-0.026517164 -0.05902771 -0.022158954 0.07154767 0.084076844 -0.14036456 -0.0825749 0.0734172
-0.06540472 -0.056879558 0.16110963 0.10588024 0.006415362 0.030617418 -0.20005096 0.022714801
0.22613718 0.012556153 -0.20485961 -0.033226814 0.1038059 -0.14086252 -0.16572212 -0.05001989
0.005202721 0.048837952 0.078658186 -0.055598337 -0.06585216 0.12955084 0.0069556185 0.032987285
-0.093318105 0.017389337 0.14029402 -0.027124494 0.14635433 0.0421278 -0.18106443 -0.1931213
-0.10217406 0.0438863 -0.1536905 -0.06494757 -0.15698822 -0.07781254 0.0815488 -0.057151992
0.008147977 -0.11839902 -0.18580699 -0.0070555587 -0.08497606 -0.017340517 0.03899141 0.17441027
-0.059778627 -0.24446848 -0.106590316 0.14038594 0.097809784 0.13668747 -0.17947964 -0.08834178
0.047342952 0.011047361 0.06771862 0.02003418 0.14805794 0.19931598 0.03496981 0.0008944648
-0.161214 -0.20150006 -0.050136253 -0.1113422 0.1871108 -0.09899876 0.09433958 -0.005219692
0.08037628 -0.013609035 0.07452464 0.004909416 0.06092179 -0.041658655 0.17431353 0.09736469
0.18978207 0.0136304395 -0.26557887 0.0074635018 0.0067648836 0.043677166 0.031863224 -0.050514024
-0.07981765 -0.02531119 -0.04838994 -0.044042874 -0.07377568 -0.044163976 -0.1505492 -0.15249254
0.105719715 -0.025064833 -0.18160214 -0.1182796 -0.043952502 0.048416555 -0.084874794 -0.054629974
-0.03417555 -0.13754512 -0.113647275 0.10601849 -0.021422008 0.02683479 0.06915114 0.0054981634
0.08199436 -0.16860735 0.17994261 -0.060124762 -0.18322979 0.17340595 -0.15493496 -0.085562706
-0.18477345 0.12128823 0.08918136 -0.008798988 -0.05874673 0.024691004 0.042922202 0.07560342
-0.084100805 0.031124469 0.01753404 -0.17198683 -0.07425232 0.11712996 0.069835044 0.085363604
-0.07838495 0.09556421 -0.019731993 -0.070919566 0.11039874 -0.17256722 0.16038623 -0.07967747
-0.09110168 0.092607334 -0.03716464 0.0061496454 0.036976665 -0.096745186 -0.0017088113 0.02256199
0.038535018 -0.04519199 -0.024750842 0.042911887 -0.04462642 -0.18742225 -0.10045227 0.13801911
-0.104973085 0.0923531 0.06062794 0.15436463 0.06648369 -0.08677204 0.042560436 0.07201684
0.062891185 -0.06508761 -0.06738762 0.14747079 -0.10802227 -0.0066770366 -0.10101483 -0.04950283
-0.06633587 -0.15945964 0.09541694 -0.1718172 -0.10635508 0.075783335 -0.014626237 -0.11356621
0.0074631344 0.090277575 -0.14785033 0.0708019 -0.07437993 0.06542123 0.017018065 -0.11941624

l1.weight.rho f4 [400, 29]
00000000: 5478 48c0 ef72 3ec0 313a 3bc0 8f3f 47c0
00000010: 4089 40c0 3517 37c0 6e7d 3bc0 77fd 3cc0
00000020: 2e64 41c0 0e2a 40c0 e4d1 40c0 e38f 41c0
00000030: c7e8 36c0 38ef 41c0 5ecd 41c0 3fab 46c0
00000040: e255 43c0 a46a 3fc0 1503 48c0 c301 41c0
00000050: ac60 44c0 a9ba 37c0 3149 3fc0 941b 44c0
00000060: 0e21 37c0 6061 3ac0 fbb3 3dc0 775c 3dc0
00000070: 8296 40c0 1590 43c0 0314 40c0 a3d9 44c0
00000080: 1f71 43c0 6e35 47c0 ce22 41c0 5f6e 47c0
00000090: f6dc 40c0 f48f 45c0 ea25 43c0 42e1 43c0
000000a0: dad8 42c0 84cb 3ac0 44a0 41c0 691c 3ec0
000000b0: 91b6 40c0 3e03 46c0 20cf 35c0 fb6d 40c0
000000c0: 3567 43c0 43b2 3dc0 02d4 39c0 a9f0 3dc0
000000d0: a059 41c0 9233 41c0 f70d 40c0 c330 3dc0
000000e0: 2b53 43c0 7fc2 49c0 c7a3 44c0 091d 40c0
000000f0: 283b 40c0 87ec 2ac0 88be 40c0 33bc 3bc0
00000100: 9644 48c0 fc5d 46c0 88c8 39c0 7735 43c0
00000110: 3f6a 4bc0 f10b 48c0 833f 3cc0 7f0e 43c0
00000120: ec78 44c0 5af3 47c0 519f 46c0 d05a 49c0
00000130: 999f 45c0 465f 3cc0 1ee4 3ec0 01bb 44c0
00000140: ff56 41c0 2097 45c0 2cec 3bc0 c802 42c0
00000150: 4b33 3dc0 3a82 3ec0 aa7f 3ec0 56b5 40c0
00000160: 802a 3ac0 6f2e 45c0 fdab 44c0 7722 4cc0
00000170: 48e7 3ec0 ccb2 3bc0 eab8 41c0 d907 3dc0
00000180: 3140 3ac0 476c 44c0 10f5 3ec0 0ada 39c0
00000190: a26f 47c0 b6ef 43c0 2194 39c0 6243 40c0
000001a0: 68a7 40c0 bb3d 3dc0 a2bf 40c0 c751 48c0
000001b0: b816 3ec0 d27e 3bc0 f689 46c0 0449 41c0
000001c0: 0f96 3fc0 5dce 4ac0 9d43 41c0 d49f 3ac0
000001d0: 8d8d 45c0 c450 40c0 e82e 3ac0 ee5d 3ec0
000001e0: 37a6 46c0 366c 48c0 ed20 47c0 6678 46c0
000001f0: c8c2 38c0 80dc 36c0 ab08 47c0 9a97 42c0
00000200: 9a0a 3dc0 8636 44c0 e3e7 44c0 146d 3fc0
00000210: ba6b 48c0 c4db 3ac0 5ef1 45c0 5da2 3ac0
00000220: c32d 42c0 b587 42c0 9db6 3bc0 ee92 41c0
00000230: d961 38c0 2219 3ec0 6e18 39c0 c5fd 43c0
00000240: e118 40c0 e665 41c0 2fa2 44c0 dd0e 39c0
00000250: e883 42c0 4677 48c0 be95 46c0 1fea 48c0
00000260: 7297 36c0 aafc 49c0 a78a 44c0 96d7 3dc0
00000270: 36fa 49c0 2dec 3fc0 870b 41c0 6791 41c0
00000280: fc49 46c0 d72e 31c0 a6d6 43c0 609a 43c0
00000290: 3057 46c0 2a75 3fc0 56fa 44c0 82e0 42c0
000002a0: 024a 41c0 7191 45c0 71a3 34c0 b100 46c0
000002b0: f829 3cc0 68c9 4dc0 0c09 45c0 353f 42c0
000002c0: 3e3e 3cc0 444c 44c0 746f 3dc0 f43c 43c0
000002d0: ac1b 43c0 c663 39c0 2fc9 3fc0 19af 4ec0
000002e0: 050c 48c0 5be3 3fc0 7eef 42c0 2213 3bc0
000002f0: c51c 3fc0 a539 50c0 2062 43c0 f09f 48c0
00000300: b5e5 3ec0 2ed1 41c0 d9f7 41c0 4194 47c0
00000310: a994 39c0 748c 47c0 d7d2 44c0 7bf8 50c0
00000320: 54bb 46c0 fac6 42c0 c621 3fc0 24b7 34c0
00000330: 1473 47c0 f4db 45c0 46a6 43c0 b0f4 44c0
00000340: 4d33 35c0 0dd0 39c0 cf8e 40c0 f660 3cc0
00000350: 4190 42c0 cf27 45c0 089d 42c0 1e7c 3ec0
00000360: cf99 3fc0 a15c 43c0 754f 47c0 b7f0 42c0
00000370: 3adf 3bc0 42e8 3dc0 480b 40c0 1bf5 37c0
00000380: 5535 47c0 33b0 3bc0 7118 40c0 efb0 42c0
00000390: 9939 49c0 a394 3cc0 38cc 39c0 f865 49c0
000003a0: 439b 43c0 9e12 42c0 626a 38c0 1f2d 41c0
000003b0: 3c62 46c0 9e80 42c0 9ee8 3ac0 c7b6 37c0
000003c0: 18f9 47c0 1bb7 47c0 7ac4 33c0 49a7 35c0
000003d0: e55f 3ac0 490b 4ec0 c82d 44c0 e82c 4fc0
000003e0: d5dc 44c0 b97f 36c0 5ced 41c0 7a71 46c0
000003f0: b6e4 38c0 d71a 43c0 6e91 42c0 4788 40c0
-3.1323442 -2.975765 -2.9254267 -3.1132543 -3.008377 -2.8607914 -2.9295306 -2.9529703
-3.0217395 -3.0025668 -3.0128107 -3.0244071 -2.8579576 -3.0302258 -3.0281596 -3.104202
-3.0521169 -2.9908838 -3.125188 -3.0157325 -3.0684004 -2.8707678 -2.9888422 -3.0641832
-2.8613925 -2.9121933 -2.9641101 -2.9587686 -3.0091863 -3.055669 -3.0012214 -3.0757835
-3.0537794 -3.112636 -3.0177493 -3.1161115 -3.0134864 -3.0869112 -3.049189 -3.0606236
-3.0444856 -2.9186716 -3.0254068 -2.970484 -3.011143 -3.093948 -2.840767 -3.0067127
-3.0531743 -2.9640052 -2.903565 -2.9678137 -3.0210953 -3.0187726 -3.0008523 -2.9561012
-3.0519512 -3.152496 -3.0724962 -3.0017722 -3.0036106 -2.6706865 -3.011629 -2.9333618
-3.1291862 -3.0994864 -2.9028645 -3.0501382 -3.1783597 -3.1257288 -2.9413764 -3.0477598
-3.0698805 -3.124228 -3.103474 -3.1461678 -3.087866 -2.943315 -2.9826732 -3.0739138
-3.0209348 -3.087349 -2.9362898 -3.0314198 -2.9562557 -2.9766984 -2.976542 -3.0110679
-2.908844 -3.080959 -3.0729973 -3.1896036 -2.9828663 -2.932788 -3.0269113 -2.953604
-2.910168 -3.0691087 -2.9837074 -2.903933 -3.1161885 -3.0615058 -2.899666 -3.0041127
-3.0102177 -2.9568927 -3.0116963 -3.1299913 -2.9701366 -2.9296155 -3.1021705 -3.0200815
-2.9935338 -3.1688454 -3.0197518 -2.9160051 -3.0867646 -3.0049295 -2.909113 -2.974483
-3.103895 -3.1316047 -3.1113846 -3.1010985 -2.8868885 -2.8572083 -3.109904 -3.040503
-2.953772 -3.0658278 -3.0766532 -2.9910326 -3.131575 -2.9196634 -3.092857 -2.9161599
-3.034043 -3.039533 -2.9330208 -3.0245929 -2.8809721 -2.970284 -2.892116 -3.0623639
-3.0015185 -3.0218444 -3.072399 -2.8915322 -3.039301 -3.1322799 -3.1028895 -3.1392896
-2.8529935 -3.1560464 -3.0709627 -2.9662833 -3.1558967 -2.99879 -3.0163286 -3.0244997
-3.0982656 -2.7684839 -3.059976 -3.0562973 -3.0990715 -2.9915261 -3.0777793 -3.0449529
-3.020142 -3.087002 -2.8224757 -3.0937922 -2.9400616 -3.2154179 -3.0786772 -3.0351079
-2.941299 -3.067155 -2.9599276 -3.0505953 -3.048564 -2.8967147 -2.9966543 -3.229437
-3.1257336 -2.9982517 -3.0458674 -2.9230428 -2.986131 -3.2535183 -3.052864 -3.1347618
-2.9827702 -3.0283923 -3.0307524 -3.1184237 -2.8996985 -3.1179476 -3.0753686 -3.265166
-3.1051836 -3.0433946 -2.9864364 -2.823678 -3.1163988 -3.0915499 -3.0570235 -3.0774345
-2.8312562 -2.9033234 -3.0087163 -2.943418 -3.0400546 -3.0805547 -3.0408344 -2.9763255
-2.9937627 -3.0525286 -3.1142247 -3.045942 -2.9354997 -2.967301 -3.0006886 -2.874335
-3.1126301 -2.9326293 -3.0014918 -3.0420492 -3.1441405 -2.946572 -2.9030895 -3.1468487
-3.0563514 -3.0323863 -2.881493 -3.018379 -3.0997458 -3.0391002 -2.9204478 -2.8705308
-3.1245785 -3.1205509 -2.808867 -2.8383353 -2.912103 -3.2194388 -3.0652943 -3.2371159
-3.0759785 -2.8515456 -3.0301123 -3.100676 -2.8889594 -3.0485132 -3.0401263 -3.0083177

l1.bias.mu f4 [400]
00000000: a8f4 8ebd 35c0 a2bd c806 4bbd 6e9d d6bd
00000010: e2c8 f63a 4faf 653c 04d0 133e 6ac0 f13c
00000020: cc92 aabd 4695 893b ca66 14bd 7c2f 893d
00000030: 4b3e 57bd ab69 0abe b281 073e 3058 973d
00000040: e7df 94bc 9545 7c3c 19ed 8f3d 51e7 1ebe
00000050: f06e dd3d 1551 1dbd 9b4e 853e f867 d3bd
00000060: 9915 e53d a9e5 1bbe 04c2 043d 519b ea3b
00000070: 67a1 85bc 6df5 65bb 9002 aa3d 13ac 1f3e
00000080: c248 d0bd 333c 053e beb1 303e c169 87bd
00000090: 7a9f b4bc fa06 1f3d 9a1d 72bd 469c 793e
000000a0: 2ed2 a1bc 2e4e afbb 6437 393c db31 e53a
000000b0: 66d3 a3bd 00bd 32bb 1d58 2f3e 1571 80bd
000000c0: 0983 823d 5b95 0dbe b8fb 7bbd 73fa 91bd
000000d0: b34c a33d a3e2 0bbe 107f 6e3d 2001 12bc
000000e0: 1ceb c23d fbe5 59bd 52fe 25be fc70 e5bc
000000f0: c537 263e 8d41 d93c 0f28 16be 720c 2bbd
00000100: 90b5 1cbd 021c b4bd 8751 b43d b886 9bbc
00000110: 7892 5bbd 2aad adbd 1faf 97be 16e0 1bbd
00000120: 8426 9ebd 0d3f aabd 690d 5abe 4783 413c
00000130: 4f8f 063e 1168 8d3c 02e2 aa3d 577f 973c
00000140: 0353 35bd 593a 323e 1856 173e 62ac ffbd
00000150: f196 123d 25bb eebb 7164 8abd c2a6 07bc
00000160: 39a0 0cbd 486d 523e 988e a33c 0225 f53b
00000170: 36bf fc3c e745 0bbd 1a6a 6c3d 1fec dc3d
00000180: af3e eebd 091b c13d d797 bfbc 76ae 073e
00000190: f5eb ac3d 2021 3abe 427d d7bd a51c 963c
000001a0: f3e2 3cbd 22b4 203e b06d 373e f508 72bd
000001b0: 6c10 63be bbbb 063c 5bba 2b3e 95d3 a33d
000001c0: 903e e03d dccb e9ba c55c 1c3c 15b2 333d
000001d0: 3b77 213d 0309 213c b9b1 3ebd c52f 45be
000001e0: 87e7 05bd 53ca 8dbc 732f 26bd af21 efbd
000001f0: b806 debd 5d0d ab3d 46fa 16bd 73a2 bfbc
00000200: e805 ea3d 27ba 603e 4423 76bd d89d 203d
00000210: 685e f73d f5c6 24bd 1933 9b3c d500 f7bc
00000220: 8443 823d b683 debd 40fe 9dbd 4ff3 433d
00000230: 29a3 8d3d 3114 113e 9b3a 81bb df7a 40bb
00000240: d256 2c3d b2d3 5dbd 5cad 0d3c 3ca3 9f3d
00000250: 1af6 f73d 358b 343e 1658 15be 494c 553e
00000260: 3d26 6e3d a877 a43a 556c 173e dc36 b4bd
00000270: 0145 db3d 7f44 babd 0859 85bb 3dd7 3f3e
00000280: de00 373e 92b2 d93d e5bd 283d ea80 303e
00000290: 76d5 d6bc aa40 1ebd 480b b7bd 37b9 d6ba
000002a0: 6c5b a9bd 152e a13d 70dc 2dbc 4bfb 25be
000002b0: f0fb 5abe df47 6cbd d09a 3dbe 1fe9 d03c
000002c0: 8ce3 b13a 8bfe 903c cc50 62bc b390 0c3e
000002d0: 6400 183d 4cdf 0bbe 47b8 fdbd 2ac6 1f3d
000002e0: 5c7e 143d 992a 47bc a26d 0cbe 7393 b03c
000002f0: 1e90 05be b0db 36be 2972 8abd 3e5b 3cbe
00000300: 23a8 183c ae97 6bbd 1349 d83c 4095 0ebd
00000310: e693 703d bd36 613d 2812 2fbe 1eef bc3b
00000320: c3a2 933d 70f6 aebd 7e99 87bd 7ed3 583d
00000330: 3ed6 f83c 1ed7 18be 5d9f 41bd 1d71 1e3e
00000340: 744f 0f3e 91de ccbd 4ac1 4d3d 8fa4 cebd
00000350: 63ac 063d 800c f73d 9aa0 fc3c 3c9a 11be
00000360: 3252 c83d 65f3 e7bc d8ad 143e fde5 7b3d
00000370: e26e 233d 7de2 2cbe 274a 9dbc 6601 5bbd
00000380: 055c 313e e672 f3bc c6cb 5b3e c77d a9ba
00000390: 43a2 853c 0ce2 4dbe fd34 b13d cf76 07be
000003a0: 9261 a43d ca19 2fbc 4583 4c3e 2185 0ebc
000003b0: 9ed2 103d 919e 973d e269 9e3d 8ea8 733d
000003c0: fba0 31be b793 38be d009 773c f83b d63c
000003d0: ca9c 04be f45f 373d 63cd cbbd e716 633d
000003e0: 0697 fa3d a645 e9bc f808 b4bc 6880 0bbd
000003f0: e7d8 833d 2076 9d3d b6c2 293e f74b 02be
-0.06980258 -0.07946817 -0.049567014 -0.10479246 0.0018828178 0.014018848 0.1443482 0.029510695
-0.083287805 0.004198703 -0.03623084 0.0669851 -0.05254964 -0.13516872 0.13233069 0.07389867
-0.018173171 0.015397449 0.07027645 -0.15517928 0.10812175 -0.038407404 0.26036534 -0.10322565
0.1118576 -0.15224327 0.03241159 0.0071596284 -0.016312314 -0.0035088912 0.0830127 0.15592985
-0.101701275 0.13011245 0.17255303 -0.06611968 -0.0220487 0.038825013 -0.05911026 0.2437602
-0.019753542 -0.005349896 0.01130471 0.0017486172 -0.079993054 -0.0027273297 0.17123456 -0.06271569
0.06372649 -0.13826506 -0.061519355 -0.071278475 0.079736136 -0.13660674 0.058226645 -0.008911401
0.095175 -0.053197842 -0.16210297 -0.028007977 0.16232212 0.026520515 -0.14663719 -0.041759916
-0.03825909 -0.087944046 0.088046126 -0.018985137 -0.05360648 -0.08480294 -0.29625794 -0.038055502
-0.0772219 -0.08312807 -0.21294178 0.011811084 0.13140605 0.017261537 0.08343889 0.018493338
-0.04426862 0.1740507 0.14778936 -0.12484051 0.03578848 -0.007285493 -0.06757439 -0.008279504
-0.034332488 0.205495 0.019965455 0.0074812183 0.030852895 -0.03400221 0.057718374 0.10787224
-0.1163305 0.09428985 -0.023387833 0.13250145 0.08443443 -0.18176699 -0.10521938 0.018324206
-0.046114873 0.15693715 0.17912936 -0.059090573 -0.22174233 0.008223469 0.16770308 0.079993404
0.10949433 -0.0017837244 0.009543602 0.043871004 0.039420348 0.009828809 -0.04655621 -0.19256504
-0.032691505 -0.01730839 -0.040572595 -0.116763465 -0.10841125 0.08352158 -0.036859773 -0.023392892
0.11426908 0.21946011 -0.060092226 0.03921303 0.120785534 -0.040228803 0.018945264 -0.030151764
0.06360534 -0.108649656 -0.0771451 0.04783946 0.06915886 0.14167859 -0.003943754 -0.0029370112
0.042074986 -0.054156967 0.008647289 0.07794806 0.12107487 0.17631228 -0.14584383 0.20829882
0.058141936 0.0012547867 0.14787419 -0.08799526 0.10706521 -0.09095096 -0.0040694512 0.1873445
0.17871425 0.10629763 0.041196723 0.17236677 -0.026224833 -0.038635887 -0.089376986 -0.0016382103
-0.082693905 0.078701176 -0.010611638 -0.16209142 -0.21385169 -0.05768573 -0.18516088 0.025501786
0.0013571843 0.0176995 -0.013813209 0.13727073 0.037109748 -0.136594 -0.12388664 0.039007343
0.03625332 -0.012156152 -0.13713697 0.021554684 -0.13043258 -0.17857242 -0.067600556 -0.18394181
0.009317431 -0.0575177 0.026402032 -0.034810305 0.058734797 0.054983843 -0.1709677 0.0057658097
0.07208779 -0.08543098 -0.06621073 0.05293607 0.030375596 -0.1492581 -0.04727112 0.15472837
0.13995153 -0.10003389 0.050233163 -0.10089981 0.032879245 0.12062931 0.0308383 -0.14218992
0.097813025 -0.028314302 0.14519441 0.06149863 0.039900668 -0.16883273 -0.019200398 -0.05346813
0.17320259 -0.029717874 0.21464452 -0.0012931161 0.016312724 -0.20105761 0.08652685 -0.13228916
0.080264226 -0.010687301 0.1997195 -0.008698733 0.03535711 0.07403291 0.07735039 0.05948692
-0.17346565 -0.18025099 0.015078023 0.026151642 -0.12950435 0.044769242 -0.09951284 0.055441763
0.12235837 -0.028475594 -0.021976933 -0.034058005 0.06437855 0.07688546 0.16578183 -0.12724291

l1.bias.rho f4 [400]
00000000: dc16 39c0 6112 47c0 e3b2 40c0 22f7 3cc0
00000010: c05b 3dc0 5ca1 3ac0 1326 40c0 426c 49c0
00000020: 8cf3 41c0 f740 3ec0 b996 3ac0 2061 42c0
00000030: 509a 41c0 ac5c 45c0 ee24 48c0 f7c3 3ac0
00000040: 4db2 3dc0 22dd 37c0 4395 4ac0 0717 40c0
00000050: ac72 42c0 516f 40c0 378b 45c0 11cc 39c0
00000060: eda6 3cc0 a40e 4cc0 a6e2 39c0 ba3c 3ec0
00000070: 90a1 3ec0 fc85 3dc0 1294 31c0 389d 3bc0
00000080: e491 3ac0 7b44 46c0 8dc7 3cc0 e611 48c0
00000090: edf2 3ec0 1eea 43c0 ab28 43c0 acce 47c0
000000a0: 01dc 45c0 76a7 43c0 a7ca 46c0 2023 4ac0
000000b0: ecf3 4dc0 a47c 3ec0 44c8 47c0 b831 3ac0
000000c0: b90f 48c0 9c22 32c0 81c0 3ec0 aae2 44c0
000000d0: ab85 40c0 28d0 40c0 a924 3ec0 8e61 4cc0
000000e0: 4629 35c0 b4b7 40c0 97d2 3fc0 dcbb 45c0
000000f0: 06ca 3bc0 0ce0 41c0 6566 41c0 2ff0 48c0
00000100: 3760 40c0 2b16 4ac0 8848 3bc0 3733 3bc0
00000110: b1e3 3fc0 324a 3ec0 7f12 3dc0 4740 39c0
00000120: 74b5 41c0 9281 3fc0 d0dc 42c0 3336 43c0
00000130: f98c 34c0 cf36 3bc0 6e52 3dc0 57ec 45c0
00000140: 1628 3cc0 bd78 3cc0 4cb4 41c0 89a6 34c0
00000150: 2928 3cc0 0b57 37c0 b341 35c0 37bf 3ac0
00000160: 5f89 56c0 770d 3fc0 4f5f 3fc0 c051 43c0
00000170: 2c5e 3dc0 7bf7 40c0 7974 49c0 9247 44c0
00000180: 431c 3fc0 c37a 44c0 041c 43c0 1fcb 4cc0
00000190: 86b6 44c0 4110 49c0 1f67 43c0 0950 42c0
000001a0: b739 45c0 7458 42c0 2d34 3cc0 fdc9 42c0
000001b0: f8c3 3cc0 691b 46c0 b33a 41c0 56b3 39c0
000001c0: 372a 45c0 22e2 41c0 932a 3fc0 4bd7 3cc0
000001d0: c57a 3bc0 ef3c 39c0 6133 3ec0 2387 45c0
000001e0: 677d 3ec0 322b 45c0 2b52 38c0 755e 42c0
000001f0: 2398 42c0 d6bb 3dc0 8f38 40c0 e3e6 42c0
00000200: f106 42c0 df66 3cc0 2b94 41c0 d753 44c0
00000210: faeb 42c0 d690 3ec0 c89d 45c0 d5a5 3cc0
00000220: 5838 41c0 3cc1 42c0 7059 4ac0 02d9 33c0
00000230: 228c 40c0 fffb 43c0 b32a 41c0 bfe4 43c0
00000240: 55a6 43c0 8c18 43c0 eae2 42c0 f7d3 3ac0
00000250: 5038 40c0 c4b6 42c0 914d 45c0 a367 43c0
00000260: 4981 44c0 0f5c 3ac0 b293 3dc0 e4d8 40c0
00000270: 3c6d 3dc0 49b2 43c0 77b9 3bc0 499d 41c0
00000280: d0d4 4dc0 37af 41c0 c3d4 41c0 fa6b 3fc0
00000290: ab2c 43c0 bc17 39c0 bd73 45c0 c551 39c0
000002a0: 6b9b 34c0 322d 3bc0 2a05 40c0 3e3b 44c0
000002b0: de61 43c0 896d 38c0 5a66 41c0 92ed 39c0
000002c0: 74eb 43c0 792a 42c0 ae9b 37c0 1003 41c0
000002d0: dd06 51c0 11bd 48c0 e1af 3ac0 e0fd 45c0
000002e0: 85cd 35c0 b50b 48c0 1160 46c0 3ab5 3ec0
000002f0: c961 42c0 e4cf 3cc0 c4bd 48c0 4668 38c0
00000300: 0b52 42c0 b59c 45c0 6b38 3bc0 0663 3cc0
00000310: 8cfe 41c0 91dc 41c0 813f 41c0 676b 38c0
00000320: 6533 44c0 56da 3ec0 60f3 42c0 d960 3ac0
00000330: 4f1f 45c0 b12c 4bc0 da8f 44c0 b7d6 39c0
00000340: 3b34 3fc0 ebaa 3dc0 6fed 4ec0 d8b8 42c0
00000350: d5ab 3ec0 b267 41c0 9187 42c0 fcff 48c0
00000360: c882 3dc0 2b09 48c0 1d9d 44c0 2af7 48c0
00000370: a1cd 38c0 eba3 37c0 b392 48c0 c703 38c0
00000380: 4045 46c0 14e6 3bc0 a863 3bc0 1ea7 44c0
00000390: 1030 3ec0 938c 40c0 b31a 47c0 db52 3ec0
000003a0: bd60 3dc0 6f3d 44c0 b898 33c0 5ddc 40c0
000003b0: 385b 44c0 8f0c 4fc0 8242 36c0 6851 43c0
000003c0: cfe2 35c0 f7f5 40c0 1c7d 38c0 fdf8 48c0
000003d0: 9664 44c0 fe2b 43c0 d0b4 44c0 ce2c 3cc0
000003e0: 3a68 3bc0 baf2 41c0 88d2 34c0 84f2 4cc0
000003f0: 8cb0 47c0 8f0e 38c0 48b3 3ac0 532d 41c0
-2.8920202 -3.1104968 -3.0109184 -2.9525838 -2.958725 -2.9160986 -3.0023239 -3.1472325
-3.03049 -2.9727151 -2.9154494 -3.037178 -3.0250435 -3.0837812 -3.127254 -2.9182107
-2.9640076 -2.8728719 -3.1653602 -3.0014055 -3.038249 -3.0067942 -3.086622 -2.9030802
-2.9476883 -3.1883936 -2.9044585 -2.9724565 -2.978611 -2.9613028 -2.7746625 -2.9314709
-2.9151545 -3.0979297 -2.9496796 -3.1260924 -2.983577 -3.0611644 -3.0493572 -3.1219893
-3.091553 -3.057096 -3.106119 -3.1583939 -3.2180128 -2.9763575 -3.1215982 -2.9092846
-3.1259596 -2.7833624 -2.9804995 -3.0763345 -3.0081584 -3.0127048 -2.9709876 -3.1934543
-2.8306441 -3.0112123 -2.9972284 -3.089591 -2.9342055 -3.0292997 -3.0218747 -3.1396596
-3.0058725 -3.157603 -2.926302 -2.925001 -2.9982722 -2.9732785 -2.954254 -2.8945482
-3.0267 -2.9922833 -3.0447273 -3.050183 -2.8211043 -2.9252203 -2.958156 -3.09255
-2.9399467 -2.9448693 -3.0266294 -2.8226645 -2.9399512 -2.8646877 -2.832135 -2.9179208
-3.3521345 -2.9851968 -2.9901922 -3.0518646 -2.9588728 -3.015105 -3.147734 -3.0668683
-2.9861 -3.0699928 -3.048585 -3.1998975 -3.0736403 -3.141617 -3.053169 -3.036135
-3.0816476 -3.0366488 -2.9406846 -3.0435784 -2.949461 -3.095423 -3.0192077 -2.9015708
-3.0807016 -3.029427 -2.9869735 -2.9506404 -2.9293683 -2.894344 -2.971886 -3.086373
-2.976404 -3.0807614 -2.8800151 -3.0370152 -3.0405357 -2.9645896 -3.003452 -3.0453422
-3.0316737 -2.9437788 -3.0246685 -3.0676172 -3.0456529 -2.97759 -3.0877552 -2.9476216
-3.019064 -3.043044 -3.1617088 -2.81012 -3.008553 -3.0622556 -3.0182312 -3.0608366
-3.057027 -3.0483732 -3.0450997 -2.9191873 -3.003437 -3.0424051 -3.0828593 -3.0532005
-3.070391 -2.9118688 -2.9621396 -3.013238 -2.9597921 -3.0577567 -2.9331949 -3.025225
-3.216114 -3.0263193 -3.028611 -2.9909654 -3.0496013 -2.8920736 -3.085189 -2.8956158
-2.821986 -2.9246335 -3.0003152 -3.0661159 -3.0528483 -2.8816855 -3.021872 -2.9051251
-3.061246 -3.0338423 -2.868877 -3.015812 -3.266044 -3.1365397 -2.9169848 -3.0936203
-2.840669 -3.1257145 -3.0996134 -2.9798112 -3.0372183 -2.9501886 -3.1365824 -2.8813643
-3.0362575 -3.0876896 -2.9253185 -2.943544 -3.0311613 -3.0290873 -3.019501 -2.8815553
-3.0656369 -2.9820762 -3.0461044 -2.912161 -3.080036 -3.1746027 -3.07128 -2.9037302
-2.987563 -2.963557 -3.2332418 -3.042532 -2.9792378 -3.021954 -3.0395243 -3.140624
-2.9611073 -3.1255596 -3.0720894 -3.1400857 -2.8875506 -2.8693798 -3.1339538 -2.8752306
-3.0979767 -2.9359179 -2.9279575 -3.0727 -2.9716835 -3.00858 -3.1110046 -2.973807
-2.9590294 -3.0662496 -2.8061962 -3.01345 -3.0680676 -3.2351415 -2.8478093 -3.0518436
-2.8419683 -3.0150125 -2.882636 -3.140197 -3.0686393 -3.04956 -3.073536 -2.9402347
-2.9282365 -3.0304399 -2.8253498 -3.202302 -3.1201506 -2.8758886 -2.9171925 -3.0183914
