checkpoints_16_tasks/16_task_groups_PUGCL_epochs_:100_lr_:0.1_hidden_:400_task_order_:[15  4  1  9  2 13  0  3 12  5 10 11  7  6 14  8]/model_1.pth.tar (torch_old, 220285 bytes, 136 tensors)

l1.weight_mu f4 [400, 29]
00000000: 2541 d13b 6ef8 15be 19a7 fabd fdd5 64be
00000010: ef8c 51bd e417 753c f495 053e 698b 663d
00000020: 9bdf 9f3d b99f 8ebd 53ed efbd e7b6 dd3b
00000030: dfbc 643d 723f ca3c 69a7 a43d 953c 94bc
00000040: 6519 b1bc 48cf b4bb 8365 8a3d 1009 77bc
00000050: e133 013e 4913 48bc b660 babd 59e2 233c
00000060: 5853 afbd d19a 013d f323 a3bd afe5 cd3c
00000070: a74e 02be 2118 923d eb9d e43c 1bf7 1c3d
00000080: ea7b 973d 8c7e 253d 3be2 4dbc f2fa 263c
00000090: 46dc 1cb9 adea fe3d ddf8 4fbe 13d1 7f3d
000000a0: 633a 8cbd bf71 36bd 8371 813d a0fa 78ba
000000b0: 5fe7 e6bc 657b bcbb 9e4d 033c 5d78 773d
000000c0: 97f8 2d3d ca87 e5bd a24a 1ebe c2cd 9d3d
000000d0: 9f7e 85bd e072 973d 5c3a 263d 57df 07be
000000e0: 5266 dbbc 709e 89bd f3c7 0fbc 9687 923d
000000f0: fa10 b33d 29a4 0fbe ec8d 8ebd 5fd7 b03d
00000100: d42c 79bd 08bc 68bd e8aa 2d3e 8d03 e03d
00000110: 0cd9 443c 3fa6 1d3d cee1 47be 32bb f13c
00000120: c469 703e ed23 923c b60e 4fbe a75c 02bd
00000130: a7a2 d63d ef8d 0dbe 24d6 28be 4ed6 4bbd
00000140: 4eff d53b f059 783d 3a63 a63d c267 37bd
00000150: 9346 85bd 54f0 053e f043 283c f3ff d33c
00000160: 901d bfbd 99fa 693c a816 0e3e b582 02bd
00000170: 0f7d 103e eee9 1a3d 10d3 39be f65c 49be
00000180: adbb d1bd 769f 313d ce00 1ebe 092d 88bd
00000190: e451 22be 6687 a2bd 3253 a43d e6ac 6abd
000001a0: a410 c73b c7fd f5bd 0530 3fbe 7d03 ebbb
000001b0: 1971 b1bd dea6 99bc ca10 0c3d 18e7 2d3e
000001c0: ab11 80bd 76c1 7abe b743 dbbd 2fd6 0b3e
000001d0: c6af 1e3d cdf7 0b3e a63e 52be 4617 e3bd
000001e0: 9d0e a13c 2bb2 8dbc 929a 2e3d a7b0 2bbb
000001f0: 7e80 ee3d a604 4a3e 8f14 033d feaa 06bc
00000200: e9b0 2fbe 981b 59be 82b5 88bd 7ed5 f6bd
00000210: 1310 323e b8e5 e4bd 5d51 9a3d b038 b0bc
00000220: 75fb 643d 9eb0 bcbc 2de5 603d d705 00bd
00000230: a96f 193d c974 a7bd a2b7 273e 241a bb3d
00000240: f2e9 243e 0e18 5d3c f4f9 87be 22b8 ef3b
00000250: 6b8b cc3b 520b 363d 5f64 053d 0729 4ebd
00000260: d47d a3bd 1510 cbbc f525 46bd f74b 34bd
00000270: 921c 97bd b80b 35bd f922 1abe 1f10 1cbe
00000280: f55a d83d 8595 c7bc 48de 39be f85d f2bd
00000290: 29b7 30bd f6c2 453d 47b9 adbd b314 62bd
000002a0: 10cd 08bd 9ffe 0cbe 3f30 e9bd a00a d93d
000002b0: 10a8 adbc 6a80 db3c 9077 fa3d f029 b43b
000002c0: 9021 dc3d f002 1cbe 3dbf 573e cb37 efbc
000002d0: 139c 25be 547e 423e 149a 03be f963 a1bd
000002e0: 889b 36be d3e7 003e 9923 d33d 378d 903b
000002f0: aad1 43bd 2ae8 173d c034 443d cf81 bc3d
00000300: 7a2a 8dbd 51fe 643d cab7 0c3d 2135 1ebe
00000310: 2304 77bd 1b8e 1c3e 7f61 ae3d cd97 fb3d
00000320: 87c1 90bd 8ca6 c83d 513c d63b b57a d5bd
00000330: bc18 e23d de6c 3cbe a75b 123e ca0e afbd
00000340: 4700 cabd 0e4a a43d bf24 46bd 25bb 16bc
00000350: b76e 133d fbf2 c8bd 11be 84bb e62d 893c
00000360: c3d2 053d 831e 53bd dcf5 edbc df04 1f3d
00000370: ae4e 4dbd 8b93 44be ffef dfbd 4e9d fa3d
00000380: 06c5 e3bd 72f6 ac3d 71c2 203d 2a67 113e
00000390: 6861 433d 50af b6bd 2e5a 243d 2305 6a3d
000003a0: 4a6f 833d a74c 85bd 22d8 87bd 3eac 173e
000003b0: 0820 ddbd 23ae d8bb 43bd cdbd 516d 48bd
000003c0: d7ba 87bd bd4a 23be 826c c33d 16ed 2fbe
000003d0: 6810 d9bd 454c 9b3d 063d 6cbc 9944 e8bd
000003e0: 2fed ed3b c816 ba3d 235e 17be 3152 913d
000003f0: 7e8e 96bd 292c 883d b8c5 903c 69f4 f3bd
0.0063859397 -0.1464555 -0.122389026 -0.22347255 -0.051159795 0.014959309 0.13045484 0.056285296
0.07806321 -0.069640584 -0.11715188 0.0067661884 0.055844184 0.024688456 0.080397435 -0.018095294
-0.021618554 -0.005517874 0.06757643 -0.015077844 0.12617446 -0.012211629 -0.091004774 0.010002696
-0.085608184 0.031641785 -0.07965841 0.025133936 -0.12725316 0.071335085 0.027907332 0.038321596
0.073966816 0.040403888 -0.012566145 0.010191666 -0.00014959378 0.124471046 -0.20309778 0.062455248
-0.06847074 -0.04454207 0.06320479 -0.0009497795 -0.028186498 -0.0057520145 0.008014111 0.06041752
0.042473402 -0.1120754 -0.15458158 0.07705261 -0.06518292 0.073949575 0.040583 -0.13268791
-0.026782189 -0.06719673 -0.008775699 0.07154767 0.087434724 -0.14027466 -0.06960663 0.08634829
-0.060833767 -0.056819946 0.16959727 0.10938177 0.012014639 0.038488623 -0.19519731 0.029508207
0.23477846 0.017839396 -0.20220456 -0.03182664 0.10480242 -0.13823675 -0.16487938 -0.049764924
0.006530679 0.060632646 0.08124395 -0.044776686 -0.065076016 0.13079959 0.010270104 0.025878882
-0.093318105 0.014280939 0.1387583 -0.031862933 0.14110206 0.03782075 -0.1814692 -0.19664368
-0.102408744 0.043364964 -0.15429994 -0.06649215 -0.15851551 -0.079359815 0.08023681 -0.057293795
0.0060749818 -0.12011295 -0.18670662 -0.0071720467 -0.0866415 -0.018756326 0.0341957 0.16982687
-0.0625337 -0.24487862 -0.10706275 0.13655923 0.03874185 0.13668747 -0.20531711 -0.110884234
0.019660288 -0.017296871 0.04262788 -0.0026197822 0.11645602 0.19728336 0.032002028 -0.008219479
-0.1715733 -0.21201932 -0.06675245 -0.12052439 0.17388944 -0.11176628 0.0753505 -0.021511406
0.05590387 -0.023033436 0.05490606 -0.03125557 0.037460003 -0.08176572 0.16378644 0.09135845
0.16104868 0.013494505 -0.26557887 0.0073156515 0.006242206 0.04444439 0.032566424 -0.050332095
-0.07982984 -0.024787942 -0.048376042 -0.04401776 -0.07378496 -0.04420063 -0.15052404 -0.15240525
0.10564224 -0.024363289 -0.181512 -0.11834329 -0.043143425 0.048281632 -0.084826045 -0.05519552
-0.033398688 -0.13769005 -0.11386155 0.1059773 -0.021198303 0.026794631 0.12229836 0.0054981634
0.10748589 -0.15235496 0.21069045 -0.029201409 -0.16172819 0.18993503 -0.12851745 -0.078803964
-0.17832768 0.12588434 0.10309524 0.0044113654 -0.047807373 0.037086643 0.04790187 0.092044465
-0.068928674 0.055906598 0.034354962 -0.15449955 -0.06030668 0.15288584 0.0851469 0.12284813
-0.070681624 0.09797391 0.006537952 -0.10423795 0.11039874 -0.18400905 0.14292775 -0.08547743
-0.09863334 0.08021937 -0.048374888 -0.009199892 0.035994258 -0.0981197 -0.004050978 0.016745519
0.0326717 -0.05154277 -0.029047899 0.038823005 -0.050123863 -0.19196908 -0.109344475 0.12237035
-0.111215636 0.08445443 0.039247934 0.1419951 0.047700316 -0.08920157 0.040125065 0.057133805
0.06417711 -0.06508761 -0.06633021 0.14811799 -0.10797125 -0.0066125556 -0.100458644 -0.048932377
-0.06627434 -0.15946479 0.095421806 -0.17180285 -0.10598832 0.07582907 -0.014418846 -0.11341209
0.0072609405 0.090863764 -0.14782004 0.07095755 -0.07351397 0.06649048 0.017672405 -0.11911852

l1.weight_rho f4 [400, 29]
00000000: b397 48c0 ef72 3ec0 9047 3bc0 2b4b 47c0
00000010: 2da9 40c0 cb37 37c0 cfa6 3bc0 2410 3dc0
00000020: 3e6f 41c0 4c2b 40c0 31d5 40c0 2695 41c0
00000030: 2ceb 36c0 27f3 41c0 f1d1 41c0 f3ad 46c0
00000040: 915b 43c0 0f7d 3fc0 1012 48c0 8f19 41c0
00000050: 4e75 44c0 f9cb 37c0 074e 3fc0 6245 44c0
00000060: 1a2e 37c0 6292 3ac0 7ebb 3dc0 b061 3dc0
00000070: e6a5 40c0 91a6 43c0 0314 40c0 50df 44c0
00000080: 6f78 43c0 ce38 47c0 9f24 41c0 3d79 47c0
00000090: 67e3 40c0 c592 45c0 ee26 43c0 a9e0 43c0
000000a0: 61db 42c0 87ce 3ac0 6ca2 41c0 b81f 3ec0
000000b0: 23b6 40c0 5307 46c0 16dc 35c0 f573 40c0
000000c0: 3570 43c0 c3bd 3dc0 d0e0 39c0 f6f5 3dc0
000000d0: 5970 41c0 7838 41c0 6f19 40c0 2a34 3dc0
000000e0: bd53 43c0 cbcd 49c0 c5a5 44c0 091d 40c0
000000f0: 9f3d 40c0 70ee 2ac0 65c0 40c0 12ba 3bc0
00000100: e344 48c0 b35e 46c0 41c7 39c0 9635 43c0
00000110: 206a 4bc0 670a 48c0 673f 3cc0 430e 43c0
00000120: f778 44c0 19f3 47c0 399f 46c0 285b 49c0
00000130: 44a1 45c0 425f 3cc0 abe4 3ec0 56bb 44c0
00000140: 1057 41c0 6e96 45c0 e3ed 3bc0 9004 42c0
00000150: 5434 3dc0 3182 3ec0 f181 3ec0 10c3 40c0
00000160: 802a 3ac0 8730 45c0 86ad 44c0 b72a 4cc0
00000170: f4f1 3ec0 b8b9 3bc0 4bba 41c0 4a0d 3dc0
00000180: 3340 3ac0 dc6c 44c0 2bf6 3ec0 bbda 39c0
00000190: a370 47c0 6bf1 43c0 9f94 39c0 5f45 40c0
000001a0: e5aa 40c0 cd40 3dc0 86c1 40c0 2254 48c0
000001b0: bb19 3ec0 8681 3bc0 1f91 46c0 c14d 41c0
000001c0: b89d 3fc0 c4ce 4ac0 4344 41c0 dfa5 3ac0
000001d0: fab6 45c0 c450 40c0 6442 3ac0 bf6f 3ec0
000001e0: a7bb 46c0 0881 48c0 8133 47c0 3880 46c0
000001f0: bcde 38c0 90df 36c0 200c 47c0 b9a2 42c0
00000200: 4c0e 3dc0 a23d 44c0 65ef 44c0 f56d 3fc0
00000210: 4672 48c0 10ec 3ac0 c4fd 45c0 1fb7 3ac0
00000220: 393d 42c0 b896 42c0 78bf 3bc0 c7b7 41c0
00000230: 626c 38c0 4854 3ec0 101d 39c0 8602 44c0
00000240: bf22 40c0 756e 41c0 2fa2 44c0 ad11 39c0
00000250: 0585 42c0 db7c 48c0 819a 46c0 0aed 48c0
00000260: f497 36c0 a9fe 49c0 a68a 44c0 99d7 3dc0
00000270: 81fa 49c0 c0ec 3fc0 e60b 41c0 2c92 41c0
00000280: 304a 46c0 cf2f 31c0 bad6 43c0 799b 43c0
00000290: 4157 46c0 db77 3fc0 1dfb 44c0 eae2 42c0
000002a0: a54f 41c0 0f93 45c0 20ad 34c0 a102 46c0
000002b0: 6e2a 3cc0 f5ca 4dc0 c60c 45c0 353f 42c0
000002c0: 4236 3cc0 0a4b 44c0 176a 3dc0 fd3f 43c0
000002d0: 260f 43c0 d359 39c0 edc1 3fc0 2fae 4ec0
000002e0: a60c 48c0 63de 3fc0 02f0 42c0 5f0f 3bc0
000002f0: a31c 3fc0 7637 50c0 c85d 43c0 079f 48c0
00000300: c2e6 3ec0 ccc9 41c0 acf6 41c0 e98f 47c0
00000310: 8292 39c0 4e90 47c0 26cd 44c0 c1f9 50c0
00000320: 72b9 46c0 88c5 42c0 9417 3fc0 1ce5 34c0
00000330: 1473 47c0 77e2 45c0 abac 43c0 cb01 45c0
00000340: e449 35c0 10e2 39c0 0f9c 40c0 966a 3cc0
00000350: f991 42c0 222b 45c0 f4a0 42c0 0880 3ec0
00000360: de9d 3fc0 1362 43c0 1353 47c0 2cf9 42c0
00000370: d4e8 3bc0 11f4 3dc0 4315 40c0 6907 38c0
00000380: e63c 47c0 59b7 3bc0 bf32 40c0 d4b6 42c0
00000390: 0f52 49c0 e498 3cc0 24cf 39c0 f06a 49c0
000003a0: 8c97 43c0 9e12 42c0 e667 38c0 462b 41c0
000003b0: ed61 46c0 5580 42c0 aae6 3ac0 d5b2 37c0
000003c0: cff8 47c0 1cb7 47c0 7ac4 33c0 4da7 35c0
000003d0: 605f 3ac0 1e0b 4ec0 9f2d 44c0 d72c 4fc0
000003e0: 47dc 44c0 e87c 36c0 7bec 41c0 4270 46c0
000003f0: 84e2 38c0 c918 43c0 c08f 42c0 8c85 40c0
-3.134259 -2.975765 -2.9262428 -3.113963 -3.0103257 -2.8627803 -2.9320562 -2.9541101
-3.0224147 -3.0026426 -3.0130122 -3.0247283 -2.8581038 -3.0304658 -3.0284388 -3.104367
-3.0524638 -2.992008 -3.1261024 -3.017185 -3.0696597 -2.8718245 -2.9891374 -3.0667348
-2.8621888 -2.9151845 -2.9645686 -2.9590874 -3.0101256 -3.0570414 -3.0012214 -3.07613
-3.0542257 -3.112842 -3.0178602 -3.1167748 -3.0138795 -3.087083 -3.049251 -3.0605872
-3.0446398 -2.9188554 -3.0255384 -2.970686 -3.0111167 -3.094197 -2.841558 -3.0070775
-3.0537236 -2.9647071 -2.9043465 -2.9681373 -3.0224822 -3.0190716 -3.0015523 -2.9563088
-3.051986 -3.1531856 -3.0726178 -3.0017722 -3.003761 -2.670803 -3.0117428 -2.9332318
-3.1292045 -3.09953 -2.9027865 -3.0501456 -3.1783524 -3.125635 -2.9413698 -3.0477455
-3.069883 -3.1242125 -3.1034682 -3.1461887 -3.0879679 -2.943314 -2.9827068 -3.073934
-3.0209389 -3.0873065 -2.9363945 -3.0315285 -2.9563189 -2.9766963 -2.976681 -3.0119057
-2.908844 -3.0810869 -3.073091 -3.190107 -2.9835176 -2.9332104 -3.0269954 -2.953936
-2.9101684 -3.0691442 -2.983775 -2.9039752 -3.1162498 -3.06161 -2.899696 -3.004234
-3.0104306 -2.9570801 -3.0118117 -3.130135 -2.9703205 -2.9297805 -3.1026075 -3.0203707
-2.9940014 -3.16887 -3.0197914 -2.916374 -3.089293 -3.0049295 -2.9103022 -2.9755704
-3.1052034 -3.1328754 -3.1125185 -3.1015759 -2.8885946 -2.8573952 -3.110115 -3.0411818
-2.9539976 -3.0662618 -3.0771115 -2.9910862 -3.1319747 -2.920658 -3.0936136 -2.9174268
-3.0349867 -3.0404491 -2.9335613 -3.0268419 -2.8816152 -2.9738941 -2.8923988 -3.062654
-3.0021207 -3.0223668 -3.072399 -2.8917038 -3.0393689 -3.1326206 -3.1031802 -3.1394677
-2.8530245 -3.1561682 -3.0709624 -2.966284 -3.1559145 -2.998825 -3.0163512 -3.0245466
-3.098278 -2.768543 -3.0599809 -3.0563643 -3.0990756 -2.9916904 -3.0778267 -3.0450997
-3.020486 -3.0871007 -2.8230667 -3.0939105 -2.9400897 -3.2155125 -3.0789046 -3.0351079
-2.9408116 -3.06708 -2.9596002 -3.0507805 -3.0477996 -2.8961074 -2.9962113 -3.2293813
-3.125772 -2.9979484 -3.045899 -2.9228132 -2.9861228 -3.253385 -3.052599 -3.1347063
-2.9828343 -3.0279417 -3.0306807 -3.1181586 -2.8995671 -3.1181827 -3.0750213 -3.2652438
-3.1050687 -3.0433064 -2.985814 -2.8264837 -3.1163988 -3.0919473 -3.0574138 -3.0782344
-2.832635 -2.9044228 -3.009525 -2.9440055 -3.0401595 -3.0807576 -3.0410738 -2.9765644
-2.9940104 -3.052861 -3.1144454 -3.0464582 -2.9360857 -2.9680216 -3.0012977 -2.8754523
-3.113092 -2.9330657 -3.0030973 -3.042409 -3.1456335 -2.9468317 -2.9032679 -3.147152
-3.0561247 -3.0323863 -2.8813415 -3.0182662 -3.099727 -3.0390828 -2.9203286 -2.87029
-3.124561 -3.120551 -2.808867 -2.8383362 -2.9120712 -3.2194285 -3.0652845 -3.2371118
-3.0759447 -2.8513737 -3.0300586 -3.1006017 -2.8888254 -3.0483878 -3.0400238 -3.008151

l1.bias_mu f4 [400]
00000000: a8a7 b3bd 4003 b5bd cf77 14bd 5488 e5bd
00000010: e1f7 76bd 3168 613c 6bdc 4a3e 9ada 36ba
00000020: cbe7 a7bd f1bf b5bb 4c47 353c ca5f fa3d
00000030: 2e1f 8cbd 0276 1abe 2424 083e 7a29 ee3c
00000040: 146e 133d 1f0f 72bd b7d2 d13d 9865 2bbe
00000050: dc67 3f3e 8211 2abd e35a 933e 009a eebd
00000060: 3ebe ae3d 336b 2fbe 619c 303e f9fc bcbc
00000070: 0bd2 c7bc 0be0 18bc 80b3 813d bcb5 e43d
00000080: 4f9b bfbd cb9b 0a3e 4e12 503e 40b7 bebd
00000090: 8106 3ebc 88b2 793d 6833 7cbd 318b 4b3e
000000a0: a8b2 d5bc 1fff 0ebd 4ee1 953d 374b 113b
000000b0: b9e7 1bbd 7c95 9b3d a3e8 093e 14ab 4fbd
000000c0: 1b93 4f3d fc1e f9bd 80d6 94bd 1e9b 95bd
000000d0: ecf8 ed3d 10ef 0bbe aeaa 563d a9a8 e7bc
000000e0: 2486 193d 1216 0dbd dd1e 08be 087c 98bd
000000f0: cb94 fc3d 3caa dd3c f3e7 1bbe 05e5 66bc
00000100: 8fa7 41bd 919c 0bbe 2a10 dd3d 66de 82bd
00000110: acff 42bd 3084 a4bd 711f 97be b8a1 66bd
00000120: 1afb 9abd c675 94bc 3091 5abe 4c40 073d
00000130: ba4a 753d 42dd 8b3c f7e9 d03d 62c7 103b
00000140: edd7 72bd 4e51 173e 928a d43d 71c4 bebd
00000150: f9ae f73c 576e b33c 4b6a 3ebc f3bd bebd
00000160: a5aa 8f3a 8170 803e 6b28 2a3d 61bf 083c
00000170: f144 d83c b711 11bd bf92 043d 60b2 d63d
00000180: 5727 36be a4db 8c3d 008b 5cbd feb2 9f3d
00000190: 2feb 0b3e b217 43be 2279 efbd 5dce ed3d
000001a0: f280 c3bd c9f9 fc3d cab7 553e 9b6f 85bd
000001b0: 8bdb 65be 6abf 4dbc ca3c 293e 888d a23d
000001c0: ddfd 9d3d b6b4 c03d cd32 b83c 2471 ad3b
000001d0: 482b 583c acc0 8a3d 91b7 2dbd f6cf 3ebe
000001e0: 05d3 7ebd ecb1 68bc ea55 49bd 9615 23be
000001f0: 58ef 14be d576 323e caec 923c 50d3 92bc
00000200: 49e9 8e3d 0285 a63e 498c 14bd 2ff6 393d
00000210: b5e8 093e 637c e8bc 9895 133d 0485 73bd
00000220: db6e dd3d 00ba d0bd 80ac 99bd 1306 b03d
00000230: 2600 933d fda9 993d 3770 a6bc e2b9 8ebb
00000240: 193a 793d 8573 87bd 7f01 3cbb 4bcf 283d
00000250: f251 1c3e 98fc 4a3e c4dc 8dbd 8c03 6b3e
00000260: 71b6 3b3d 8ede cd39 7cda 283e 68a2 8cbd
00000270: 71c5 233e 9398 e1bd 0db2 3ebd 7d96 0b3e
00000280: ab93 453e 9eb3 e43d 9760 a53d c38c 443e
00000290: f164 66bc 14ed 4ebd c458 c4bd 4ccd b33c
000002a0: bf9d 82bd ca45 b33d a6e6 173b 70fd 25be
000002b0: c795 58be c726 95bd 9df7 35be ea8e 3d3c
000002c0: ad69 13bd b0b3 8a3d 41b4 87bc 7f17 233e
000002d0: b55b 02bd f579 17be a96b 01be e18c 943d
000002e0: 2092 f43c e047 29bd acd2 21be 9e6a 1f3d
000002f0: 8fd2 cbbd 7a2a 38be a012 8bbd 0c9b 40be
00000300: 4d7d 0d3c 6f96 dabd a15f 283d 6929 35bd
00000310: 693a c83b 9350 d83d daa8 3dbe 5c6f dfbc
00000320: 6f8d 0a3e dc02 c4bd d176 90bd 1696 fc3c
00000330: 83e7 703d cc9d 0bbe 6f97 46bd 4020 263e
00000340: 243e 163e ad8e b5bd 379f 72ba 31ac e1bd
00000350: 3862 683b 576b 423e 9321 073d 0add 14be
00000360: 931a 133d 45ee 44bd ced0 e83d 3abd 143e
00000370: f070 db3b 6ad3 16be 3720 33bb 579d 89bd
00000380: 2648 1b3e c7ee f7bc 9643 683e 4cc9 0e3d
00000390: 818d ab3c be65 4ebe 872a bb3d 5f94 18be
000003a0: 2437 9e3d 226c c1bc 33ec 943e da33 e5bc
000003b0: 5513 733c d6ee 3b3d 01af de3c bee0 553d
000003c0: b803 27be 2020 3abe 646d 913d a0c3 c33c
000003d0: 20c8 14be 977e 233d 5c28 24be 37e7 1bbb
000003e0: 761c 263e 8abb abbd e5e8 ae3d 0574 84bd
000003f0: fd23 a63d c688 dd3d 74ad e33d 0201 e8bd
-0.08772212 -0.088385105 -0.03624707 -0.11207643 -0.06029499 0.013757751 0.19810645 -0.0006975323
-0.08198508 -0.005546563 0.011064362 0.122253016 -0.068418846 -0.15084079 0.13295037 0.029072512
0.03599365 -0.05909645 0.10245269 -0.16737974 0.18691963 -0.041520603 0.2878028 -0.11650467
0.085323796 -0.17130737 0.17247154 -0.023069846 -0.024392148 -0.00933076 0.06333065 0.111674756
-0.09355795 0.13535993 0.20319483 -0.09312296 -0.01159823 0.060961276 -0.061572462 0.19877316
-0.026086167 -0.03491127 0.07318364 0.0022170076 -0.038062785 0.07596871 0.1346765 -0.050700262
0.0506774 -0.12164113 -0.07267475 -0.07304977 0.11619744 -0.13665414 0.052408867 -0.028278666
0.037481442 -0.034444876 -0.13293023 -0.07445532 0.123330675 0.027058713 -0.152252 -0.014092688
-0.047278937 -0.13633944 0.10794099 -0.063900754 -0.04760711 -0.08033025 -0.29516175 -0.05630657
-0.07567425 -0.018122565 -0.21344447 0.033020303 0.059885718 0.017073277 0.10200875 0.0022091498
-0.059287954 0.14777109 0.10377993 -0.09314812 0.0302348 0.0219032 -0.011622022 -0.09313574
0.001096089 0.25085834 0.04154245 0.00834641 0.026400061 -0.035417285 0.03236651 0.10483241
-0.17788444 0.068778306 -0.0538435 0.07797812 0.13663934 -0.19052008 -0.11693026 0.11611626
-0.09546079 0.1235233 0.20870891 -0.06515428 -0.2244703 -0.012557844 0.16527095 0.07937151
0.07714436 0.09409468 0.022485161 0.0052930284 0.013193913 0.067750305 -0.04241139 -0.18634018
-0.062212963 -0.014202576 -0.0491542 -0.15926203 -0.14544427 0.17428143 0.017935175 -0.017923027
0.06978089 0.32523352 -0.0362666 0.045400795 0.13467677 -0.028379625 0.036031336 -0.059453025
0.1081216 -0.10191727 -0.07503605 0.085949086 0.07177763 0.07503126 -0.02031718 -0.004355655
0.060846422 -0.066138305 -0.0028687415 0.041213315 0.15265635 0.1982292 -0.06926873 0.22950572
0.045828287 0.00039266463 0.16489595 -0.06866914 0.15993287 -0.11015429 -0.04655652 0.13631625
0.19294612 0.11167072 0.08075064 0.19194321 -0.014062152 -0.050519064 -0.09587243 0.02194848
-0.06377744 0.087535456 0.0023178249 -0.1620996 -0.21150886 -0.07282787 -0.17770238 0.011569718
-0.035989452 0.06772554 -0.016565444 0.15926932 -0.03182574 -0.14792617 -0.12638725 0.07253433
0.029854834 -0.04132831 -0.15803021 0.038920037 -0.0995227 -0.17984954 -0.06790662 -0.18809146
0.008635831 -0.10673224 0.041106824 -0.044228945 0.0061104787 0.10562243 -0.18521443 -0.02727478
0.13530515 -0.09570858 -0.070539124 0.030833285 0.058814537 -0.13634413 -0.048484262 0.1622324
0.14672142 -0.08865104 -0.0009255292 -0.11019171 0.0035458934 0.1898626 0.032991003 -0.14537445
0.035914015 -0.048078794 0.11367951 0.14525309 0.006696813 -0.14729086 -0.0027332434 -0.06719463
0.15164241 -0.030265225 0.22682032 0.03485994 0.020941498 -0.20155999 0.09138971 -0.14900349
0.07725361 -0.023611132 0.29086456 -0.027978826 0.014836152 0.04588207 0.027183058 0.052216284
-0.16310012 -0.18176317 0.07100943 0.023896992 -0.14529467 0.039915647 -0.16031021 -0.0023788938
0.16221794 -0.083853796 0.08540515 -0.064674415 0.08112333 0.10817103 0.11117068 -0.11328317

l1.bias_rho f4 [400]
00000000: 3264 39c0 7c1f 47c0 1bb5 40c0 1905 3dc0
00000010: 1598 3dc0 c1ab 3ac0 1327 40c0 7684 49c0
00000020: c4ee 41c0 1257 3ec0 135f 3ac0 083c 42c0
00000030: dbaf 41c0 4266 45c0 f62a 48c0 12f8 3ac0
00000040: 1595 3dc0 28e0 37c0 5f86 4ac0 de15 40c0
00000050: de5c 42c0 8177 40c0 e078 45c0 3de4 39c0
00000060: 4ea9 3cc0 c91b 4cc0 7d98 39c0 0b56 3ec0
00000070: efc0 3ec0 496f 3dc0 8ea7 31c0 3ccd 3bc0
00000080: 2b7d 3ac0 b24b 46c0 aad4 3cc0 3724 48c0
00000090: 6ad5 3ec0 47da 43c0 1f2d 43c0 68d0 47c0
000000a0: 4be1 45c0 28a7 43c0 29ab 46c0 2a24 4ac0
000000b0: 4cf0 4dc0 0170 3ec0 c0bb 47c0 4808 3ac0
000000c0: ef1d 48c0 9e16 32c0 0ce6 3ec0 70ac 44c0
000000d0: 3681 40c0 64d0 40c0 9f3a 3ec0 1271 4cc0
000000e0: da4f 35c0 3fa4 40c0 04b4 3fc0 ebba 45c0
000000f0: 41e3 3bc0 a8f0 41c0 8672 41c0 57ea 48c0
00000100: 6f70 40c0 395f 4ac0 5b2b 3bc0 1359 3bc0
00000110: 73dc 3fc0 8b41 3ec0 730a 3dc0 236d 39c0
00000120: 01c0 41c0 b86e 3fc0 0cde 42c0 0c31 43c0
00000130: 4087 34c0 1838 3bc0 d546 3dc0 5af2 45c0
00000140: d266 3cc0 2980 3cc0 3dca 41c0 8a94 34c0
00000150: e81e 3cc0 bf46 37c0 1029 35c0 61b6 3ac0
00000160: e483 56c0 d204 3fc0 3f4e 3fc0 ba6b 43c0
00000170: 1a69 3dc0 76f4 40c0 5892 49c0 4460 44c0
00000180: 3941 3fc0 b4a5 44c0 e64e 43c0 bfdd 4cc0
00000190: a9ae 44c0 aa0e 49c0 f671 43c0 2e07 42c0
000001a0: de60 45c0 4c8a 42c0 c609 3cc0 ebd7 42c0
000001b0: a9c8 3cc0 f532 46c0 f02e 41c0 4fc4 39c0
000001c0: 7217 45c0 4fc8 41c0 8b1e 3fc0 58ec 3cc0
000001d0: c65a 3bc0 e610 39c0 3339 3ec0 3f8e 45c0
000001e0: 0a96 3ec0 0128 45c0 6d5c 38c0 d26f 42c0
000001f0: a07e 42c0 6e9d 3dc0 4d4e 40c0 d6e7 42c0
00000200: 5efd 41c0 a75c 3cc0 dd8e 41c0 e043 44c0
00000210: 44e4 42c0 d185 3ec0 6076 45c0 f8b4 3cc0
00000220: 1c20 41c0 2eaf 42c0 fc44 4ac0 20d5 33c0
00000230: e773 40c0 b804 44c0 9050 41c0 c2e1 43c0
00000240: 41c7 43c0 5b20 43c0 98fd 42c0 85d9 3ac0
00000250: 8a2c 40c0 16b8 42c0 1225 45c0 f97a 43c0
00000260: f873 44c0 e65a 3ac0 1a66 3dc0 1fc9 40c0
00000270: 2d42 3dc0 81d6 43c0 f9db 3bc0 069c 41c0
00000280: 67d5 4dc0 12c4 41c0 25cd 41c0 0d6c 3fc0
00000290: 7022 43c0 2a2b 39c0 376c 45c0 274d 39c0
000002a0: 6393 34c0 bb34 3bc0 6011 40c0 833b 44c0
000002b0: ab51 43c0 019a 38c0 a261 41c0 c50d 3ac0
000002c0: 7ee9 43c0 63e2 41c0 4caf 37c0 a4ec 40c0
000002d0: 0f05 51c0 99c2 48c0 9883 3ac0 8ddc 45c0
000002e0: abda 35c0 080d 48c0 148e 46c0 56b8 3ec0
000002f0: de59 42c0 14d4 3cc0 4cb2 48c0 f06f 38c0
00000300: 9c4d 42c0 8790 45c0 a82f 3bc0 ac6f 3cc0
00000310: eb0b 42c0 d0c1 41c0 6f65 41c0 cd6c 38c0
00000320: ef13 44c0 add5 3ec0 ccfa 42c0 0d8c 3ac0
00000330: fd1e 45c0 6626 4bc0 e789 44c0 56e3 39c0
00000340: 0430 3fc0 25b9 3dc0 330c 4fc0 7cc9 42c0
00000350: 22fe 3ec0 6051 41c0 de81 42c0 7e06 49c0
00000360: c1c2 3dc0 0811 48c0 359a 44c0 11eb 48c0
00000370: c0c4 38c0 9198 37c0 c784 48c0 0419 38c0
00000380: 5648 46c0 18e5 3bc0 9965 3bc0 4483 44c0
00000390: f02e 3ec0 9a89 40c0 f613 47c0 144e 3ec0
000003a0: 295a 3dc0 7551 44c0 89a7 33c0 ebec 40c0
000003b0: 2658 44c0 4a25 4fc0 3b66 36c0 934b 43c0
000003c0: 82bb 35c0 18f5 40c0 1981 38c0 a301 49c0
000003d0: ba53 44c0 4531 43c0 69c5 44c0 7074 3cc0
000003e0: 4e66 3bc0 3413 42c0 45b9 34c0 0e14 4dc0
000003f0: 7ab6 47c0 efca 37c0 3fb4 3ac0 ce3f 41c0
-2.8967404 -3.1112967 -3.0110538 -2.9534361 -2.9624074 -2.916733 -3.002385 -3.1487098
-3.030198 -2.9740644 -2.9120529 -3.034914 -3.0263584 -3.0843663 -3.1276221 -2.921391
-2.9622242 -2.8730564 -3.1644514 -3.0013347 -3.0369182 -3.007294 -3.0855026 -2.9045556
-2.9478335 -3.1891959 -2.8999321 -2.9740016 -2.9805257 -2.9599173 -2.7758517 -2.9344015
-2.9138896 -3.09837 -2.95048 -3.1272104 -2.9817758 -3.0601976 -3.049629 -3.122095
-3.0918758 -3.0570774 -3.1041968 -3.1584573 -3.2177916 -2.9755862 -3.1208344 -2.9067554
-3.126827 -2.7826304 -2.982791 -3.0730247 -3.0078864 -3.0127192 -2.972328 -3.1944013
-2.8329988 -3.0100248 -2.9953623 -3.0895336 -2.9357455 -3.0303135 -3.022615 -3.139303
-3.0068624 -3.162062 -2.9245212 -2.9273117 -2.9978302 -2.9727504 -2.9537628 -2.8972862
-3.027344 -2.9911327 -3.0448027 -3.0498686 -2.820755 -2.9252987 -2.9574482 -3.092917
-2.9437757 -2.9453223 -3.0279686 -2.821566 -2.9393864 -2.863693 -2.8306313 -2.9173815
-3.3518 -2.9846692 -2.9891508 -3.05345 -2.95954 -3.0149207 -3.149557 -3.0683756
-2.9883559 -3.0726137 -3.0516906 -3.2010343 -3.0731604 -3.14152 -3.0538306 -3.0316882
-3.0840373 -3.039691 -2.9380965 -3.0444286 -2.9497473 -3.0968602 -3.0184898 -2.9026067
-3.079556 -3.0278509 -2.9862392 -2.9519253 -2.9274154 -2.8916564 -2.9722412 -3.086807
-2.9779077 -3.0805666 -2.8806412 -3.038075 -3.0389786 -2.9627337 -3.004779 -3.0454001
-3.0310893 -2.943155 -3.0243447 -3.0666428 -3.0451822 -2.9769175 -3.08535 -2.9485455
-3.0175848 -3.0419421 -3.1604605 -2.809883 -3.007074 -3.062788 -3.0205421 -3.0606542
-3.0590365 -3.0488498 -3.0467281 -2.9195263 -3.0027184 -3.0424857 -3.0803876 -3.0543807
-3.0695782 -2.911798 -2.9593568 -3.0122755 -2.957164 -3.0599673 -2.935301 -3.025148
-3.21615 -3.0275922 -3.028146 -2.99097 -3.048977 -2.8932595 -3.08473 -2.895334
-2.8214958 -2.9250934 -3.0010605 -3.0661323 -3.0518596 -2.8843997 -3.021584 -2.9070904
-3.0611262 -3.0294425 -2.8700743 -3.0144434 -3.2659338 -3.1368773 -2.9142818 -3.0915864
-2.8414714 -3.1257954 -3.1024218 -2.980001 -3.036735 -2.9504442 -3.1358824 -2.8818321
-3.035987 -3.0869462 -2.9247837 -2.944316 -3.0319774 -3.0274544 -3.021816 -2.8816407
-3.0637167 -2.9817917 -3.0465574 -2.914798 -3.0800164 -3.1742187 -3.070917 -2.9045005
-2.9873056 -2.9644253 -3.2351196 -3.0435476 -2.984261 -3.0205917 -3.0391765 -3.1410213
-2.9650118 -3.1260395 -3.071912 -3.1393473 -2.8870087 -2.868687 -3.133104 -2.8765268
-3.098165 -2.9358578 -2.928076 -3.0705118 -2.9716148 -3.0083985 -3.1105933 -2.9735155
-2.958628 -3.0674717 -2.8071005 -3.0144603 -3.0678802 -3.236651 -2.8499897 -3.0514877
-2.8395696 -3.0149593 -2.8828795 -3.140725 -3.0676103 -3.0498822 -3.074549 -2.9446068
-2.9281192 -3.032422 -2.823808 -3.204349 -3.1205125 -2.871761 -2.9172513 -3.0195193

l1.weight.mu f4 [400, 29]
00000000: 2541 d13b 6ef8 15be 19a7 fabd fdd5 64be
00000010: ef8c 51bd e417 753c f495 053e 698b 663d
00000020: 9bdf 9f3d b99f 8ebd 53ed efbd e7b6 dd3b
00000030: dfbc 643d 723f ca3c 69a7 a43d 953c 94bc
00000040: 6519 b1bc 48cf b4bb 8365 8a3d 1009 77bc
00000050: e133 013e 4913 48bc b660 babd 59e2 233c
00000060: 5853 afbd d19a 013d f323 a3bd afe5 cd3c
00000070: a74e 02be 2118 923d eb9d e43c 1bf7 1c3d
00000080: ea7b 973d 8c7e 253d 3be2 4dbc f2fa 263c
00000090: 46dc 1cb9 adea fe3d ddf8 4fbe 13d1 7f3d
000000a0: 633a 8cbd bf71 36bd 8371 813d a0fa 78ba
000000b0: 5fe7 e6bc 657b bcbb 9e4d 033c 5d78 773d
000000c0: 97f8 2d3d ca87 e5bd a24a 1ebe c2cd 9d3d
000000d0: 9f7e 85bd e072 973d 5c3a 263d 57df 07be
000000e0: 5266 dbbc 709e 89bd f3c7 0fbc 9687 923d
000000f0: fa10 b33d 29a4 0fbe ec8d 8ebd 5fd7 b03d
00000100: d42c 79bd 08bc 68bd e8aa 2d3e 8d03 e03d
00000110: 0cd9 443c 3fa6 1d3d cee1 47be 32bb f13c
00000120: c469 703e ed23 923c b60e 4fbe a75c 02bd
00000130: a7a2 d63d ef8d 0dbe 24d6 28be 4ed6 4bbd
00000140: 4eff d53b f059 783d 3a63 a63d c267 37bd
00000150: 9346 85bd 54f0 053e f043 283c f3ff d33c
00000160: 901d bfbd 99fa 693c a816 0e3e b582 02bd
00000170: 0f7d 103e eee9 1a3d 10d3 39be f65c 49be
00000180: adbb d1bd 769f 313d ce00 1ebe 092d 88bd
00000190: e451 22be 6687 a2bd 3253 a43d e6ac 6abd
000001a0: a410 c73b c7fd f5bd 0530 3fbe 7d03 ebbb
000001b0: 1971 b1bd dea6 99bc ca10 0c3d 18e7 2d3e
000001c0: ab11 80bd 76c1 7abe b743 dbbd 2fd6 0b3e
000001d0: c6af 1e3d cdf7 0b3e a63e 52be 4617 e3bd
000001e0: 9d0e a13c 2bb2 8dbc 929a 2e3d a7b0 2bbb
000001f0: 7e80 ee3d a604 4a3e 8f14 033d feaa 06bc
00000200: e9b0 2fbe 981b 59be 82b5 88bd 7ed5 f6bd
00000210: 1310 323e b8e5 e4bd 5d51 9a3d b038 b0bc
00000220: 75fb 643d 9eb0 bcbc 2de5 603d d705 00bd
00000230: a96f 193d c974 a7bd a2b7 273e 241a bb3d
00000240: f2e9 243e 0e18 5d3c f4f9 87be 22b8 ef3b
00000250: 6b8b cc3b 520b 363d 5f64 053d 0729 4ebd
00000260: d47d a3bd 1510 cbbc f525 46bd f74b 34bd
00000270: 921c 97bd b80b 35bd f922 1abe 1f10 1cbe
00000280: f55a d83d 8595 c7bc 48de 39be f85d f2bd
00000290: 29b7 30bd f6c2 453d 47b9 adbd b314 62bd
000002a0: 10cd 08bd 9ffe 0cbe 3f30 e9bd a00a d93d
000002b0: 10a8 adbc 6a80 db3c 9077 fa3d f029 b43b
000002c0: 9021 dc3d f002 1cbe 3dbf 573e cb37 efbc
000002d0: 139c 25be 547e 423e 149a 03be f963 a1bd
000002e0: 889b 36be d3e7 003e 9923 d33d 378d 903b
000002f0: aad1 43bd 2ae8 173d c034 443d cf81 bc3d
00000300: 7a2a 8dbd 51fe 643d cab7 0c3d 2135 1ebe
00000310: 2304 77bd 1b8e 1c3e 7f61 ae3d cd97 fb3d
00000320: 87c1 90bd 8ca6 c83d 513c d63b b57a d5bd
00000330: bc18 e23d de6c 3cbe a75b 123e ca0e afbd
00000340: 4700 cabd 0e4a a43d bf24 46bd 25bb 16bc
00000350: b76e 133d fbf2 c8bd 11be 84bb e62d 893c
00000360: c3d2 053d 831e 53bd dcf5 edbc df04 1f3d
00000370: ae4e 4dbd 8b93 44be ffef dfbd 4e9d fa3d
00000380: 06c5 e3bd 72f6 ac3d 71c2 203d 2a67 113e
00000390: 6861 433d 50af b6bd 2e5a 243d 2305 6a3d
000003a0: 4a6f 833d a74c 85bd 22d8 87bd 3eac 173e
000003b0: 0820 ddbd 23ae d8bb 43bd cdbd 516d 48bd
000003c0: d7ba 87bd bd4a 23be 826c c33d 16ed 2fbe
000003d0: 6810 d9bd 454c 9b3d 063d 6cbc 9944 e8bd
000003e0: 2fed ed3b c816 ba3d 235e 17be 3152 913d
000003f0: 7e8e 96bd 292c 883d b8c5 903c 69f4 f3bd
0.0063859397 -0.1464555 -0.122389026 -0.22347255 -0.051159795 0.014959309 0.13045484 0.056285296
0.07806321 -0.069640584 -0.11715188 0.0067661884 0.055844184 0.024688456 0.080397435 -0.018095294
-0.021618554 -0.005517874 0.06757643 -0.015077844 0.12617446 -0.012211629 -0.091004774 0.010002696
-0.085608184 0.031641785 -0.07965841 0.025133936 -0.12725316 0.071335085 0.027907332 0.038321596
0.073966816 0.040403888 -0.012566145 0.010191666 -0.00014959378 0.124471046 -0.20309778 0.062455248
-0.06847074 -0.04454207 0.06320479 -0.0009497795 -0.028186498 -0.0057520145 0.008014111 0.06041752
0.042473402 -0.1120754 -0.15458158 0.07705261 -0.06518292 0.073949575 0.040583 -0.13268791
-0.026782189 -0.06719673 -0.008775699 0.07154767 0.087434724 -0.14027466 -0.06960663 0.08634829
-0.060833767 -0.056819946 0.16959727 0.10938177 0.012014639 0.038488623 -0.19519731 0.029508207
0.23477846 0.017839396 -0.20220456 -0.03182664 0.10480242 -0.13823675 -0.16487938 -0.049764924
0.006530679 0.060632646 0.08124395 -0.044776686 -0.065076016 0.13079959 0.010270104 0.025878882
-0.093318105 0.014280939 0.1387583 -0.031862933 0.14110206 0.03782075 -0.1814692 -0.19664368
-0.102408744 0.043364964 -0.15429994 -0.06649215 -0.15851551 -0.079359815 0.08023681 -0.057293795
0.0060749818 -0.12011295 -0.18670662 -0.0071720467 -0.0866415 -0.018756326 0.0341957 0.16982687
-0.0625337 -0.24487862 -0.10706275 0.13655923 0.03874185 0.13668747 -0.20531711 -0.110884234
0.019660288 -0.017296871 0.04262788 -0.0026197822 0.11645602 0.19728336 0.032002028 -0.008219479
-0.1715733 -0.21201932 -0.06675245 -0.12052439 0.17388944 -0.11176628 0.0753505 -0.021511406
0.05590387 -0.023033436 0.05490606 -0.03125557 0.037460003 -0.08176572 0.16378644 0.09135845
0.16104868 0.013494505 -0.26557887 0.0073156515 0.006242206 0.04444439 0.032566424 -0.050332095
-0.07982984 -0.024787942 -0.048376042 -0.04401776 -0.07378496 -0.04420063 -0.15052404 -0.15240525
0.10564224 -0.024363289 -0.181512 -0.11834329 -0.043143425 0.048281632 -0.084826045 -0.05519552
-0.033398688 -0.13769005 -0.11386155 0.1059773 -0.021198303 0.026794631 0.12229836 0.0054981634
0.10748589 -0.15235496 0.21069045 -0.029201409 -0.16172819 0.18993503 -0.12851745 -0.078803964
-0.17832768 0.12588434 0.10309524 0.0044113654 -0.047807373 0.037086643 0.04790187 0.092044465
-0.068928674 0.055906598 0.034354962 -0.15449955 -0.06030668 0.15288584 0.0851469 0.12284813
-0.070681624 0.09797391 0.006537952 -0.10423795 0.11039874 -0.18400905 0.14292775 -0.08547743
-0.09863334 0.08021937 -0.048374888 -0.009199892 0.035994258 -0.0981197 -0.004050978 0.016745519
0.0326717 -0.05154277 -0.029047899 0.038823005 -0.050123863 -0.19196908 -0.109344475 0.12237035
-0.111215636 0.08445443 0.039247934 0.1419951 0.047700316 -0.08920157 0.040125065 0.057133805
0.06417711 -0.06508761 -0.06633021 0.14811799 -0.10797125 -0.0066125556 -0.100458644 -0.048932377
-0.06627434 -0.15946479 0.095421806 -0.17180285 -0.10598832 0.07582907 -0.014418846 -0.11341209
0.0072609405 0.090863764 -0.14782004 0.07095755 -0.07351397 0.06649048 0.017672405 -0.11911852

l1.weight.rho f4 [400, 29]
00000000: b397 48c0 ef72 3ec0 9047 3bc0 2b4b 47c0
00000010: 2da9 40c0 cb37 37c0 cfa6 3bc0 2410 3dc0
00000020: 3e6f 41c0 4c2b 40c0 31d5 40c0 2695 41c0
00000030: 2ceb 36c0 27f3 41c0 f1d1 41c0 f3ad 46c0
00000040: 915b 43c0 0f7d 3fc0 1012 48c0 8f19 41c0
00000050: 4e75 44c0 f9cb 37c0 074e 3fc0 6245 44c0
00000060: 1a2e 37c0 6292 3ac0 7ebb 3dc0 b061 3dc0
00000070: e6a5 40c0 91a6 43c0 0314 40c0 50df 44c0
00000080: 6f78 43c0 ce38 47c0 9f24 41c0 3d79 47c0
00000090: 67e3 40c0 c592 45c0 ee26 43c0 a9e0 43c0
000000a0: 61db 42c0 87ce 3ac0 6ca2 41c0 b81f 3ec0
000000b0: 23b6 40c0 5307 46c0 16dc 35c0 f573 40c0
000000c0: 3570 43c0 c3bd 3dc0 d0e0 39c0 f6f5 3dc0
000000d0: 5970 41c0 7838 41c0 6f19 40c0 2a34 3dc0
000000e0: bd53 43c0 cbcd 49c0 c5a5 44c0 091d 40c0
000000f0: 9f3d 40c0 70ee 2ac0 65c0 40c0 12ba 3bc0
00000100: e344 48c0 b35e 46c0 41c7 39c0 9635 43c0
00000110: 206a 4bc0 670a 48c0 673f 3cc0 430e 43c0
00000120: f778 44c0 19f3 47c0 399f 46c0 285b 49c0
00000130: 44a1 45c0 425f 3cc0 abe4 3ec0 56bb 44c0
00000140: 1057 41c0 6e96 45c0 e3ed 3bc0 9004 42c0
00000150: 5434 3dc0 3182 3ec0 f181 3ec0 10c3 40c0
00000160: 802a 3ac0 8730 45c0 86ad 44c0 b72a 4cc0
00000170: f4f1 3ec0 b8b9 3bc0 4bba 41c0 4a0d 3dc0
00000180: 3340 3ac0 dc6c 44c0 2bf6 3ec0 bbda 39c0
00000190: a370 47c0 6bf1 43c0 9f94 39c0 5f45 40c0
000001a0: e5aa 40c0 cd40 3dc0 86c1 40c0 2254 48c0
000001b0: bb19 3ec0 8681 3bc0 1f91 46c0 c14d 41c0
000001c0: b89d 3fc0 c4ce 4ac0 4344 41c0 dfa5 3ac0
000001d0: fab6 45c0 c450 40c0 6442 3ac0 bf6f 3ec0
000001e0: a7bb 46c0 0881 48c0 8133 47c0 3880 46c0
000001f0: bcde 38c0 90df 36c0 200c 47c0 b9a2 42c0
00000200: 4c0e 3dc0 a23d 44c0 65ef 44c0 f56d 3fc0
00000210: 4672 48c0 10ec 3ac0 c4fd 45c0 1fb7 3ac0
00000220: 393d 42c0 b896 42c0 78bf 3bc0 c7b7 41c0
00000230: 626c 38c0 4854 3ec0 101d 39c0 8602 44c0
00000240: bf22 40c0 756e 41c0 2fa2 44c0 ad11 39c0
00000250: 0585 42c0 db7c 48c0 819a 46c0 0aed 48c0
00000260: f497 36c0 a9fe 49c0 a68a 44c0 99d7 3dc0
00000270: 81fa 49c0 c0ec 3fc0 e60b 41c0 2c92 41c0
00000280: 304a 46c0 cf2f 31c0 bad6 43c0 799b 43c0
00000290: 4157 46c0 db77 3fc0 1dfb 44c0 eae2 42c0
000002a0: a54f 41c0 0f93 45c0 20ad 34c0 a102 46c0
000002b0: 6e2a 3cc0 f5ca 4dc0 c60c 45c0 353f 42c0
000002c0: 4236 3cc0 0a4b 44c0 176a 3dc0 fd3f 43c0
000002d0: 260f 43c0 d359 39c0 edc1 3fc0 2fae 4ec0
000002e0: a60c 48c0 63de 3fc0 02f0 42c0 5f0f 3bc0
000002f0: a31c 3fc0 7637 50c0 c85d 43c0 079f 48c0
00000300: c2e6 3ec0 ccc9 41c0 acf6 41c0 e98f 47c0
00000310: 8292 39c0 4e90 47c0 26cd 44c0 c1f9 50c0
00000320: 72b9 46c0 88c5 42c0 9417 3fc0 1ce5 34c0
00000330: 1473 47c0 77e2 45c0 abac 43c0 cb01 45c0
00000340: e449 35c0 10e2 39c0 0f9c 40c0 966a 3cc0
00000350: f991 42c0 222b 45c0 f4a0 42c0 0880 3ec0
00000360: de9d 3fc0 1362 43c0 1353 47c0 2cf9 42c0
00000370: d4e8 3bc0 11f4 3dc0 4315 40c0 6907 38c0
00000380: e63c 47c0 59b7 3bc0 bf32 40c0 d4b6 42c0
00000390: 0f52 49c0 e498 3cc0 24cf 39c0 f06a 49c0
000003a0: 8c97 43c0 9e12 42c0 e667 38c0 462b 41c0
000003b0: ed61 46c0 5580 42c0 aae6 3ac0 d5b2 37c0
000003c0: cff8 47c0 1cb7 47c0 7ac4 33c0 4da7 35c0
000003d0: 605f 3ac0 1e0b 4ec0 9f2d 44c0 d72c 4fc0
000003e0: 47dc 44c0 e87c 36c0 7bec 41c0 4270 46c0
000003f0: 84e2 38c0 c918 43c0 c08f 42c0 8c85 40c0
-3.134259 -2.975765 -2.9262428 -3.113963 -3.0103257 -2.8627803 -2.9320562 -2.9541101
-3.0224147 -3.0026426 -3.0130122 -3.0247283 -2.8581038 -3.0304658 -3.0284388 -3.104367
-3.0524638 -2.992008 -3.1261024 -3.017185 -3.0696597 -2.8718245 -2.9891374 -3.0667348
-2.8621888 -2.9151845 -2.9645686 -2.9590874 -3.0101256 -3.0570414 -3.0012214 -3.07613
-3.0542257 -3.112842 -3.0178602 -3.1167748 -3.0138795 -3.087083 -3.049251 -3.0605872
-3.0446398 -2.9188554 -3.0255384 -2.970686 -3.0111167 -3.094197 -2.841558 -3.0070775
-3.0537236 -2.9647071 -2.9043465 -2.9681373 -3.0224822 -3.0190716 -3.0015523 -2.9563088
-3.051986 -3.1531856 -3.0726178 -3.0017722 -3.003761 -2.670803 -3.0117428 -2.9332318
-3.1292045 -3.09953 -2.9027865 -3.0501456 -3.1783524 -3.125635 -2.9413698 -3.0477455
-3.069883 -3.1242125 -3.1034682 -3.1461887 -3.0879679 -2.943314 -2.9827068 -3.073934
-3.0209389 -3.0873065 -2.9363945 -3.0315285 -2.9563189 -2.9766963 -2.976681 -3.0119057
-2.908844 -3.0810869 -3.073091 -3.190107 -2.9835176 -2.9332104 -3.0269954 -2.953936
-2.9101684 -3.0691442 -2.983775 -2.9039752 -3.1162498 -3.06161 -2.899696 -3.004234
-3.0104306 -2.9570801 -3.0118117 -3.130135 -2.9703205 -2.9297805 -3.1026075 -3.0203707
-2.9940014 -3.16887 -3.0197914 -2.916374 -3.089293 -3.0049295 -2.9103022 -2.9755704
-3.1052034 -3.1328754 -3.1125185 -3.1015759 -2.8885946 -2.8573952 -3.110115 -3.0411818
-2.9539976 -3.0662618 -3.0771115 -2.9910862 -3.1319747 -2.920658 -3.0936136 -2.9174268
-3.0349867 -3.0404491 -2.9335613 -3.0268419 -2.8816152 -2.9738941 -2.8923988 -3.062654
-3.0021207 -3.0223668 -3.072399 -2.8917038 -3.0393689 -3.1326206 -3.1031802 -3.1394677
-2.8530245 -3.1561682 -3.0709624 -2.966284 -3.1559145 -2.998825 -3.0163512 -3.0245466
-3.098278 -2.768543 -3.0599809 -3.0563643 -3.0990756 -2.9916904 -3.0778267 -3.0450997
-3.020486 -3.0871007 -2.8230667 -3.0939105 -2.9400897 -3.2155125 -3.0789046 -3.0351079
-2.9408116 -3.06708 -2.9596002 -3.0507805 -3.0477996 -2.8961074 -2.9962113 -3.2293813
-3.125772 -2.9979484 -3.045899 -2.9228132 -2.9861228 -3.253385 -3.052599 -3.1347063
-2.9828343 -3.0279417 -3.0306807 -3.1181586 -2.8995671 -3.1181827 -3.0750213 -3.2652438
-3.1050687 -3.0433064 -2.985814 -2.8264837 -3.1163988 -3.0919473 -3.0574138 -3.0782344
-2.832635 -2.9044228 -3.009525 -2.9440055 -3.0401595 -3.0807576 -3.0410738 -2.9765644
-2.9940104 -3.052861 -3.1144454 -3.0464582 -2.9360857 -2.9680216 -3.0012977 -2.8754523
-3.113092 -2.9330657 -3.0030973 -3.042409 -3.1456335 -2.9468317 -2.9032679 -3.147152
-3.0561247 -3.0323863 -2.8813415 -3.0182662 -3.099727 -3.0390828 -2.9203286 -2.87029
-3.124561 -3.120551 -2.808867 -2.8383362 -2.9120712 -3.2194285 -3.0652845 -3.2371118
-3.0759447 -2.8513737 -3.0300586 -3.1006017 -2.8888254 -3.0483878 -3.0400238 -3.008151

l1.bias.mu f4 [400]
00000000: a8a7 b3bd 4003 b5bd cf77 14bd 5488 e5bd
00000010: e1f7 76bd 3168 613c 6bdc 4a3e 9ada 36ba
00000020: cbe7 a7bd f1bf b5bb 4c47 353c ca5f fa3d
00000030: 2e1f 8cbd 0276 1abe 2424 083e 7a29 ee3c
00000040: 146e 133d 1f0f 72bd b7d2 d13d 9865 2bbe
00000050: dc67 3f3e 8211 2abd e35a 933e 009a eebd
00000060: 3ebe ae3d 336b 2fbe 619c 303e f9fc bcbc
00000070: 0bd2 c7bc 0be0 18bc 80b3 813d bcb5 e43d
00000080: 4f9b bfbd cb9b 0a3e 4e12 503e 40b7 bebd
00000090: 8106 3ebc 88b2 793d 6833 7cbd 318b 4b3e
000000a0: a8b2 d5bc 1fff 0ebd 4ee1 953d 374b 113b
000000b0: b9e7 1bbd 7c95 9b3d a3e8 093e 14ab 4fbd
000000c0: 1b93 4f3d fc1e f9bd 80d6 94bd 1e9b 95bd
000000d0: ecf8 ed3d 10ef 0bbe aeaa 563d a9a8 e7bc
000000e0: 2486 193d 1216 0dbd dd1e 08be 087c 98bd
000000f0: cb94 fc3d 3caa dd3c f3e7 1bbe 05e5 66bc
00000100: 8fa7 41bd 919c 0bbe 2a10 dd3d 66de 82bd
00000110: acff 42bd 3084 a4bd 711f 97be b8a1 66bd
00000120: 1afb 9abd c675 94bc 3091 5abe 4c40 073d
00000130: ba4a 753d 42dd 8b3c f7e9 d03d 62c7 103b
00000140: edd7 72bd 4e51 173e 928a d43d 71c4 bebd
00000150: f9ae f73c 576e b33c 4b6a 3ebc f3bd bebd
00000160: a5aa 8f3a 8170 803e 6b28 2a3d 61bf 083c
00000170: f144 d83c b711 11bd bf92 043d 60b2 d63d
00000180: 5727 36be a4db 8c3d 008b 5cbd feb2 9f3d
00000190: 2feb 0b3e b217 43be 2279 efbd 5dce ed3d
000001a0: f280 c3bd c9f9 fc3d cab7 553e 9b6f 85bd
000001b0: 8bdb 65be 6abf 4dbc ca3c 293e 888d a23d
000001c0: ddfd 9d3d b6b4 c03d cd32 b83c 2471 ad3b
000001d0: 482b 583c acc0 8a3d 91b7 2dbd f6cf 3ebe
000001e0: 05d3 7ebd ecb1 68bc ea55 49bd 9615 23be
000001f0: 58ef 14be d576 323e caec 923c 50d3 92bc
00000200: 49e9 8e3d 0285 a63e 498c 14bd 2ff6 393d
00000210: b5e8 093e 637c e8bc 9895 133d 0485 73bd
00000220: db6e dd3d 00ba d0bd 80ac 99bd 1306 b03d
00000230: 2600 933d fda9 993d 3770 a6bc e2b9 8ebb
00000240: 193a 793d 8573 87bd 7f01 3cbb 4bcf 283d
00000250: f251 1c3e 98fc 4a3e c4dc 8dbd 8c03 6b3e
00000260: 71b6 3b3d 8ede cd39 7cda 283e 68a2 8cbd
00000270: 71c5 233e 9398 e1bd 0db2 3ebd 7d96 0b3e
00000280: ab93 453e 9eb3 e43d 9760 a53d c38c 443e
00000290: f164 66bc 14ed 4ebd c458 c4bd 4ccd b33c
000002a0: bf9d 82bd ca45 b33d a6e6 173b 70fd 25be
000002b0: c795 58be c726 95bd 9df7 35be ea8e 3d3c
000002c0: ad69 13bd b0b3 8a3d 41b4 87bc 7f17 233e
000002d0: b55b 02bd f579 17be a96b 01be e18c 943d
000002e0: 2092 f43c e047 29bd acd2 21be 9e6a 1f3d
000002f0: 8fd2 cbbd 7a2a 38be a012 8bbd 0c9b 40be
00000300: 4d7d 0d3c 6f96 dabd a15f 283d 6929 35bd
00000310: 693a c83b 9350 d83d daa8 3dbe 5c6f dfbc
00000320: 6f8d 0a3e dc02 c4bd d176 90bd 1696 fc3c
00000330: 83e7 703d cc9d 0bbe 6f97 46bd 4020 263e
00000340: 243e 163e ad8e b5bd 379f 72ba 31ac e1bd
00000350: 3862 683b 576b 423e 9321 073d 0add 14be
00000360: 931a 133d 45ee 44bd ced0 e83d 3abd 143e
00000370: f070 db3b 6ad3 16be 3720 33bb 579d 89bd
00000380: 2648 1b3e c7ee f7bc 9643 683e 4cc9 0e3d
00000390: 818d ab3c be65 4ebe 872a bb3d 5f94 18be
000003a0: 2437 9e3d 226c c1bc 33ec 943e da33 e5bc
000003b0: 5513 733c d6ee 3b3d 01af de3c bee0 553d
000003c0: b803 27be 2020 3abe 646d 913d a0c3 c33c
000003d0: 20c8 14be 977e 233d 5c28 24be 37e7 1bbb
000003e0: 761c 263e 8abb abbd e5e8 ae3d 0574 84bd
000003f0: fd23 a63d c688 dd3d 74ad e33d 0201 e8bd
-0.08772212 -0.088385105 -0.03624707 -0.11207643 -0.06029499 0.013757751 0.19810645 -0.0006975323
-0.08198508 -0.005546563 0.011064362 0.122253016 -0.068418846 -0.15084079 0.13295037 0.029072512
0.03599365 -0.05909645 0.10245269 -0.16737974 0.18691963 -0.041520603 0.2878028 -0.11650467
0.085323796 -0.17130737 0.17247154 -0.023069846 -0.024392148 -0.00933076 0.06333065 0.111674756
-0.09355795 0.13535993 0.20319483 -0.09312296 -0.01159823 0.060961276 -0.061572462 0.19877316
-0.026086167 -0.03491127 0.07318364 0.0022170076 -0.038062785 0.07596871 0.1346765 -0.050700262
0.0506774 -0.12164113 -0.07267475 -0.07304977 0.11619744 -0.13665414 0.052408867 -0.028278666
0.037481442 -0.034444876 -0.13293023 -0.07445532 0.123330675 0.027058713 -0.152252 -0.014092688
-0.047278937 -0.13633944 0.10794099 -0.063900754 -0.04760711 -0.08033025 -0.29516175 -0.05630657
-0.07567425 -0.018122565 -0.21344447 0.033020303 0.059885718 0.017073277 0.10200875 0.0022091498
-0.059287954 0.14777109 0.10377993 -0.09314812 0.0302348 0.0219032 -0.011622022 -0.09313574
0.001096089 0.25085834 0.04154245 0.00834641 0.026400061 -0.035417285 0.03236651 0.10483241
-0.17788444 0.068778306 -0.0538435 0.07797812 0.13663934 -0.19052008 -0.11693026 0.11611626
-0.09546079 0.1235233 0.20870891 -0.06515428 -0.2244703 -0.012557844 0.16527095 0.07937151
0.07714436 0.09409468 0.022485161 0.0052930284 0.013193913 0.067750305 -0.04241139 -0.18634018
-0.062212963 -0.014202576 -0.0491542 -0.15926203 -0.14544427 0.17428143 0.017935175 -0.017923027
0.06978089 0.32523352 -0.0362666 0.045400795 0.13467677 -0.028379625 0.036031336 -0.059453025
0.1081216 -0.10191727 -0.07503605 0.085949086 0.07177763 0.07503126 -0.02031718 -0.004355655
0.060846422 -0.066138305 -0.0028687415 0.041213315 0.15265635 0.1982292 -0.06926873 0.22950572
0.045828287 0.00039266463 0.16489595 -0.06866914 0.15993287 -0.11015429 -0.04655652 0.13631625
0.19294612 0.11167072 0.08075064 0.19194321 -0.014062152 -0.050519064 -0.09587243 0.02194848
-0.06377744 0.087535456 0.0023178249 -0.1620996 -0.21150886 -0.07282787 -0.17770238 0.011569718
-0.035989452 0.06772554 -0.016565444 0.15926932 -0.03182574 -0.14792617 -0.12638725 0.07253433
0.029854834 -0.04132831 -0.15803021 0.038920037 -0.0995227 -0.17984954 -0.06790662 -0.18809146
0.008635831 -0.10673224 0.041106824 -0.044228945 0.0061104787 0.10562243 -0.18521443 -0.02727478
0.13530515 -0.09570858 -0.070539124 0.030833285 0.058814537 -0.13634413 -0.048484262 0.1622324
0.14672142 -0.08865104 -0.0009255292 -0.11019171 0.0035458934 0.1898626 0.032991003 -0.14537445
0.035914015 -0.048078794 0.11367951 0.14525309 0.006696813 -0.14729086 -0.0027332434 -0.06719463
0.15164241 -0.030265225 0.22682032 0.03485994 0.020941498 -0.20155999 0.09138971 -0.14900349
0.07725361 -0.023611132 0.29086456 -0.027978826 0.014836152 0.04588207 0.027183058 0.052216284
-0.16310012 -0.18176317 0.07100943 0.023896992 -0.14529467 0.039915647 -0.16031021 -0.0023788938
0.16221794 -0.083853796 0.08540515 -0.064674415 0.08112333 0.10817103 0.11117068 -0.11328317

l1.bias.rho f4 [400]
00000000: 3264 39c0 7c1f 47c0 1bb5 40c0 1905 3dc0
00000010: 1598 3dc0 c1ab 3ac0 1327 40c0 7684 49c0
00000020: c4ee 41c0 1257 3ec0 135f 3ac0 083c 42c0
00000030: dbaf 41c0 4266 45c0 f62a 48c0 12f8 3ac0
00000040: 1595 3dc0 28e0 37c0 5f86 4ac0 de15 40c0
00000050: de5c 42c0 8177 40c0 e078 45c0 3de4 39c0
00000060: 4ea9 3cc0 c91b 4cc0 7d98 39c0 0b56 3ec0
00000070: efc0 3ec0 496f 3dc0 8ea7 31c0 3ccd 3bc0
00000080: 2b7d 3ac0 b24b 46c0 aad4 3cc0 3724 48c0
00000090: 6ad5 3ec0 47da 43c0 1f2d 43c0 68d0 47c0
000000a0: 4be1 45c0 28a7 43c0 29ab 46c0 2a24 4ac0
000000b0: 4cf0 4dc0 0170 3ec0 c0bb 47c0 4808 3ac0
000000c0: ef1d 48c0 9e16 32c0 0ce6 3ec0 70ac 44c0
000000d0: 3681 40c0 64d0 40c0 9f3a 3ec0 1271 4cc0
000000e0: da4f 35c0 3fa4 40c0 04b4 3fc0 ebba 45c0
000000f0: 41e3 3bc0 a8f0 41c0 8672 41c0 57ea 48c0
00000100: 6f70 40c0 395f 4ac0 5b2b 3bc0 1359 3bc0
00000110: 73dc 3fc0 8b41 3ec0 730a 3dc0 236d 39c0
00000120: 01c0 41c0 b86e 3fc0 0cde 42c0 0c31 43c0
00000130: 4087 34c0 1838 3bc0 d546 3dc0 5af2 45c0
00000140: d266 3cc0 2980 3cc0 3dca 41c0 8a94 34c0
00000150: e81e 3cc0 bf46 37c0 1029 35c0 61b6 3ac0
00000160: e483 56c0 d204 3fc0 3f4e 3fc0 ba6b 43c0
00000170: 1a69 3dc0 76f4 40c0 5892 49c0 4460 44c0
00000180: 3941 3fc0 b4a5 44c0 e64e 43c0 bfdd 4cc0
00000190: a9ae 44c0 aa0e 49c0 f671 43c0 2e07 42c0
000001a0: de60 45c0 4c8a 42c0 c609 3cc0 ebd7 42c0
000001b0: a9c8 3cc0 f532 46c0 f02e 41c0 4fc4 39c0
000001c0: 7217 45c0 4fc8 41c0 8b1e 3fc0 58ec 3cc0
000001d0: c65a 3bc0 e610 39c0 3339 3ec0 3f8e 45c0
000001e0: 0a96 3ec0 0128 45c0 6d5c 38c0 d26f 42c0
000001f0: a07e 42c0 6e9d 3dc0 4d4e 40c0 d6e7 42c0
00000200: 5efd 41c0 a75c 3cc0 dd8e 41c0 e043 44c0
00000210: 44e4 42c0 d185 3ec0 6076 45c0 f8b4 3cc0
00000220: 1c20 41c0 2eaf 42c0 fc44 4ac0 20d5 33c0
00000230: e773 40c0 b804 44c0 9050 41c0 c2e1 43c0
00000240: 41c7 43c0 5b20 43c0 98fd 42c0 85d9 3ac0
00000250: 8a2c 40c0 16b8 42c0 1225 45c0 f97a 43c0
00000260: f873 44c0 e65a 3ac0 1a66 3dc0 1fc9 40c0
00000270: 2d42 3dc0 81d6 43c0 f9db 3bc0 069c 41c0
00000280: 67d5 4dc0 12c4 41c0 25cd 41c0 0d6c 3fc0
00000290: 7022 43c0 2a2b 39c0 376c 45c0 274d 39c0
000002a0: 6393 34c0 bb34 3bc0 6011 40c0 833b 44c0
000002b0: ab51 43c0 019a 38c0 a261 41c0 c50d 3ac0
000002c0: 7ee9 43c0 63e2 41c0 4caf 37c0 a4ec 40c0
000002d0: 0f05 51c0 99c2 48c0 9883 3ac0 8ddc 45c0
000002e0: abda 35c0 080d 48c0 148e 46c0 56b8 3ec0
000002f0: de59 42c0 14d4 3cc0 4cb2 48c0 f06f 38c0
00000300: 9c4d 42c0 8790 45c0 a82f 3bc0 ac6f 3cc0
00000310: eb0b 42c0 d0c1 41c0 6f65 41c0 cd6c 38c0
00000320: ef13 44c0 add5 3ec0 ccfa 42c0 0d8c 3ac0
00000330: fd1e 45c0 6626 4bc0 e789 44c0 56e3 39c0
00000340: 0430 3fc0 25b9 3dc0 330c 4fc0 7cc9 42c0
00000350: 22fe 3ec0 6051 41c0 de81 42c0 7e06 49c0
00000360: c1c2 3dc0 0811 48c0 359a 44c0 11eb 48c0
00000370: c0c4 38c0 9198 37c0 c784 48c0 0419 38c0
00000380: 5648 46c0 18e5 3bc0 9965 3bc0 4483 44c0
00000390: f02e 3ec0 9a89 40c0 f613 47c0 144e 3ec0
000003a0: 295a 3dc0 7551 44c0 89a7 33c0 ebec 40c0
000003b0: 2658 44c0 4a25 4fc0 3b66 36c0 934b 43c0
000003c0: 82bb 35c0 18f5 40c0 1981 38c0 a301 49c0
000003d0: ba53 44c0 4531 43c0 69c5 44c0 7074 3cc0
000003e0: 4e66 3bc0 3413 42c0 45b9 34c0 0e14 4dc0
000003f0: 7ab6 47c0 efca 37c0 3fb4 3ac0 ce3f 41c0
-2.8967404 -3.1112967 -3.0110538 -2.9534361 -2.9624074 -2.916733 -3.002385 -3.1487098
-3.030198 -2.9740644 -2.9120529 -3.034914 -3.0263584 -3.0843663 -3.1276221 -2.921391
-2.9622242 -2.8730564 -3.1644514 -3.0013347 -3.0369182 -3.007294 -3.0855026 -2.9045556
-2.9478335 -3.1891959 -2.8999321 -2.9740016 -2.9805257 -2.9599173 -2.7758517 -2.9344015
-2.9138896 -3.09837 -2.95048 -3.1272104 -2.9817758 -3.0601976 -3.049629 -3.122095
-3.0918758 -3.0570774 -3.1041968 -3.1584573 -3.2177916 -2.9755862 -3.1208344 -2.9067554
-3.126827 -2.7826304 -2.982791 -3.0730247 -3.0078864 -3.0127192 -2.972328 -3.1944013
-2.8329988 -3.0100248 -2.9953623 -3.0895336 -2.9357455 -3.0303135 -3.022615 -3.139303
-3.0068624 -3.162062 -2.9245212 -2.9273117 -2.9978302 -2.9727504 -2.9537628 -2.8972862
-3.027344 -2.9911327 -3.0448027 -3.0498686 -2.820755 -2.9252987 -2.9574482 -3.092917
-2.9437757 -2.9453223 -3.0279686 -2.821566 -2.9393864 -2.863693 -2.8306313 -2.9173815
-3.3518 -2.9846692 -2.9891508 -3.05345 -2.95954 -3.0149207 -3.149557 -3.0683756
-2.9883559 -3.0726137 -3.0516906 -3.2010343 -3.0731604 -3.14152 -3.0538306 -3.0316882
-3.0840373 -3.039691 -2.9380965 -3.0444286 -2.9497473 -3.0968602 -3.0184898 -2.9026067
-3.079556 -3.0278509 -2.9862392 -2.9519253 -2.9274154 -2.8916564 -2.9722412 -3.086807
-2.9779077 -3.0805666 -2.8806412 -3.038075 -3.0389786 -2.9627337 -3.004779 -3.0454001
-3.0310893 -2.943155 -3.0243447 -3.0666428 -3.0451822 -2.9769175 -3.08535 -2.9485455
-3.0175848 -3.0419421 -3.1604605 -2.809883 -3.007074 -3.062788 -3.0205421 -3.0606542
-3.0590365 -3.0488498 -3.0467281 -2.9195263 -3.0027184 -3.0424857 -3.0803876 -3.0543807
-3.0695782 -2.911798 -2.9593568 -3.0122755 -2.957164 -3.0599673 -2.935301 -3.025148
-3.21615 -3.0275922 -3.028146 -2.99097 -3.048977 -2.8932595 -3.08473 -2.895334
-2.8214958 -2.9250934 -3.0010605 -3.0661323 -3.0518596 -2.8843997 -3.021584 -2.9070904
-3.0611262 -3.0294425 -2.8700743 -3.0144434 -3.2659338 -3.1368773 -2.9142818 -3.0915864
-2.8414714 -3.1257954 -3.1024218 -2.980001 -3.036735 -2.9504442 -3.1358824 -2.8818321
-3.035987 -3.0869462 -2.9247837 -2.944316 -3.0319774 -3.0274544 -3.021816 -2.8816407
-3.0637167 -2.9817917 -3.0465574 -2.914798 -3.0800164 -3.1742187 -3.070917 -2.9045005
-2.9873056 -2.9644253 -3.2351196 -3.0435476 -2.984261 -3.0205917 -3.0391765 -3.1410213
-2.9650118 -3.1260395 -3.071912 -3.1393473 -2.8870087 -2.868687 -3.133104 -2.8765268
-3.098165 -2.9358578 -2.928076 -3.0705118 -2.9716148 -3.0083985 -3.1105933 -2.9735155
-2.958628 -3.0674717 -2.8071005 -3.0144603 -3.0678802 -3.236651 -2.8499897 -3.0514877
-2.8395696 -3.0149593 -2.8828795 -3.140725 -3.0676103 -3.0498822 -3.074549 -2.9446068
-2.9281192 -3.032422 -2.823808 -3.204349 -3.1205125 -2.871761 -2.9172513 -3.0195193
