checkpoints_16_tasks/16_task_groups_PUGCL_epochs_:50_lr_:0.1_hidden_:180_task_order_:[ 8  1  4 10 13  7  9  0  2 14 15  5 11  6 12  3]/model_4.pth.tar (torch_old, 111025 bytes, 136 tensors)

l1.weight_mu f4 [180, 29]
0.2426871 -0.08070743 -0.040621117 -0.019288631 0.19465299 0.054089837 0.031299338 -0.05842792
0.03416887 -0.08145355 -0.16096357 0.17040958 0.12925172 -0.058033668 0.27825722 0.0029956081
0.09302539 0.012240643 0.04929054 0.0829639 0.044410724 -0.04277201 0.04791477 0.16700217
0.008059207 0.22476366 -0.080326326 -0.1791047 0.046675183 0.16278002 0.06496496 0.16410607
0.051432915 0.12058084 0.15871899 0.017704936 0.041778103 -0.06649199 -0.07753623 -0.03161747
-0.10875109 0.14397684 -0.13965102 -0.0055764555 0.098938145 0.20379214 0.004305023 -0.08777302
0.054994185 0.17240265 -0.1759581 -0.105169356 0.09969793 -0.056149665 0.063271835 0.052651476
0.26023954 0.03144334 -0.029497785 0.013925532 0.11910048 0.015292687 0.1643909 -0.06416751
0.0051840805 0.09548683 0.25770077 -0.022512166 -0.02258244 0.068297304 -0.1720522 -0.069895126
-0.054271176 0.0044392827 0.003479335 -0.042836737 -0.26531374 -0.00822898 -0.04227502 0.095112875
0.15122421 0.01165324 -0.0066738958 -0.24099775 0.00044381214 -0.055916935 -0.08421521 -0.0354572
-0.11245801 -0.31560633 0.22747014 0.016947519 -0.06622401 0.05800505 -0.0074951747 0.13782838
-0.0441282 0.007580896 0.18508886 0.08518339 0.1903937 0.055473566 -0.060921565 0.20147383
0.1168352 -0.14612444 0.14035346 0.03470987 -0.09438131 0.029739574 -0.010914649 0.012273177
-0.13851109 0.053751443 0.004357116 0.00046461547 -0.07054385 -0.09541695 0.025000058 0.030797275
-0.0029205808 -0.10091786 -0.11938441 0.08159849 -0.0722631 0.08964666 0.12728487 0.090049125
0.10571303 0.03723989 -0.08034516 0.110976726 0.011955138 -0.07327607 0.014149038 -0.0136349965
0.065087825 -0.076234974 0.18712918 -0.11199197 0.07137712 -0.0030072592 -0.071545675 -0.057318512
0.03821928 -0.21222341 -0.059084557 0.11751934 0.13539353 -0.026102982 0.13940983 0.1607853
-0.11097413 0.0061706984 0.062294256 0.02775006 0.1802841 0.011851542 0.038137347 0.014301733
0.06325594 0.23067985 -0.04867826 0.060507562 -0.12844874 0.04707941 0.0039276625 -0.010017899
0.0788875 0.14330052 0.10424839 -0.04810119 -0.052840523 0.026015649 0.031026036 0.09041249
-0.01211915 -0.1307549 -0.021141753 -0.033858076 0.010118567 0.111424945 -0.07308895 -0.17774875
0.04252714 0.0066093 0.06828836 -0.11370683 -0.10798549 0.018486807 0.0668396 -0.07314809
-0.13007854 0.004317775 -0.1461164 0.0371457 0.08302288 -0.051510293 0.14755397 0.09791914
-0.069221474 0.039461963 -0.10316524 -0.13214406 -0.066683106 -0.16718143 0.0887602 -0.042977244
0.09208519 -0.062648915 -0.043008666 0.08024713 -0.07402819 -0.0652159 -0.047479328 0.069360144
0.090529345 -0.22532968 0.065399595 0.0216184 0.12011378 -0.03909334 -0.1756678 0.02406653
-0.10996301 0.07465142 0.2946524 0.17910603 -0.024959821 0.07620371 -0.10269494 0.050056025
0.004049755 0.060936544 0.014667828 0.05865322 0.011721524 -0.07018921 -0.06998695 0.13449524
0.107035555 0.03659869 0.17636201 0.097033456 0.10307093 0.16284119 0.02214348 0.14399877
-0.06682775 -0.039624695 -0.13812773 -0.05744538 -0.125953 -0.1424027 -0.20034857 0.10542145
00000000: f882 783e f049 a5bd 5462 26bd 3103 9ebc
00000010: 1d53 473e 4e8d 5d3d bc33 003d 1d52 6fbd
00000020: a8f4 0b3d 1ed1 a6bd a2d3 24be d97f 2e3e
00000030: 905a 043e b6b4 6dbd bb77 8e3e f751 443b
00000040: 1884 be3d fa8c 483c e1e4 493d fae8 a93d
00000050: 05e8 353d b431 2fbd 4742 443d 9e02 2b3e
00000060: c40a 043c 7228 663e 2182 a4bd 3967 37be
00000070: 7a2e 3f3d ceaf 263e 590c 853d 6c0b 283e
00000080: 52ab 523d 16f3 f63d 3b87 223e f109 913c
00000090: 841f 2b3d f42c 88bd 51cb 9ebd 5281 01bd
000000a0: e4b8 debd aa6e 133e ad00 0fbe b3ba b6bb
000000b0: 15a0 ca3d e3ae 503e 2611 8d3b 57c2 b3bd
000000c0: 9541 613d 528a 303e 5c2e 34be 0863 d7bd
000000d0: 6e2e cc3d 31fd 65bd aa94 813d 13a9 573d
000000e0: 1e3e 853e bbca 003d 57a5 f1bc ea27 643c
000000f0: f4ea f33d 2e8e 7a3c 1756 283e 416a 83bd
00000100: 38df a93b 998e c33d 5bf1 833e 6f6b b8bc
00000110: cffe b8bc 75df 8b3d 742e 30be 2d25 8fbd
00000120: 744b 5ebd 6777 913b 8e05 643b 9375 2fbd
00000130: 34d7 87be d8d2 06bc 9228 2dbd 8aca c23d
00000140: 85da 1a3e 3bed 3e3c b2b0 dabb 1dc8 76be
00000150: 75af e839 2809 65bd 0679 acbd 923b 11bd
00000160: 6350 e6bd 2797 a1be efed 683e 86d5 8a3c
00000170: 74a0 87bd b496 6d3d 159a f5bb e222 0d3e
00000180: c5bf 34bd 2a69 f83b ef87 3d3e a174 ae3d
00000190: 91f6 423e 4038 633d e488 79bd 284f 4e3e
000001a0: 4b47 ef3d a5a1 15be d1b8 0f3e f02b 0e3d
000001b0: fd4a c1bd 68a0 f33c 5bd3 32bc 6f15 493c
000001c0: dad5 0dbe 792a 5c3d 23c6 8e3b a297 f339
000001d0: 4b79 90bd f669 c3bd eccc cc3c 914a fc3c
000001e0: 3767 3fbb 06ae cebd d07f f4bd 1c1d a73d
000001f0: adfe 93bd ab98 b73d f756 023e ad6b b83d
00000200: 1380 d83d db88 183d 018c a4bd c447 e33d
00000210: 7cdf 433c c411 96bd 5ed1 673c 5265 5fbc
00000220: c44c 853d 1521 9cbd cb9e 3f3e 0c5c e5bd
00000230: 2b2e 923d 7015 45bb 8a86 92bd d1c6 6abd
00000240: d28b 1c3d 1851 59be a602 72bd fbad f03d
00000250: 9aa4 0a3e ecd5 d5bc 73c1 0e3e e7a4 243e
00000260: 6846 e3bd 9233 ca3b 4328 7f3d 1854 e33c
00000270: 659c 383e f82c 423c e835 1c3d d151 6a3c
00000280: 558c 813d 5737 6c3e db62 47bd c7d6 773d
00000290: 1188 03be 57d6 403d 9fb3 803b 1d22 24bc
000002a0: c58f a13d 5fbd 123e 2e80 d53d c105 45bd
000002b0: 4e6f 58bd c51e d53c 502a fe3c 2f2a b93d
000002c0: 668f 46bc 9de4 05be 7831 adbc c4ae 0abd
000002d0: 59c8 253c c332 e43d a9af 95bd c503 36be
000002e0: f030 2e3d d492 d83b c5da 8b3d 20df e8bd
000002f0: 7f27 ddbd a571 973c 33e3 883d aace 95bd
00000300: 4f33 05be 1f7c 8d3b 8a9f 15be 1726 183d
00000310: e607 aa3d 75fc 52bd 6318 173e d489 c83d
00000320: fdc3 8dbd dea2 213d 4c48 d3bd c650 07be
00000330: 2791 88bd 9c31 2bbe e8c7 b53d e808 30bd
00000340: 2997 bc3d 134e 80bd db29 30bd 9b58 a43d
00000350: 179c 97bd ea8f 85bd af79 42bd b10c 8e3d
00000360: 7367 b93d d3bc 66be 39f0 853d 1219 b13c
00000370: 37fe f53d 5720 20bd 42e2 33be 2c27 c53c
00000380: 4934 e1bd d8e2 983d aedc 963e 9267 373e
00000390: 8a78 ccbc b110 9c3d ba51 d2bd 8c07 4d3d
000003a0: cfb3 843b 9998 793d 5451 703c 5c3e 703d
000003b0: a30b 403c 5cbf 8fbd 5155 8fbd 1fb9 093e
000003c0: 7535 db3d 82e8 153d 3e98 343e 7ab9 c63d
000003d0: da16 d33d d7bf 263e 3e66 b53c 6a74 133e
000003e0: fddc 88bd 814d 22bd 5b71 0dbe d94b 6bbd
000003f0: d3f9 00be 03d2 11be 2d28 4dbe 34e7 d73d

l1.weight_rho f4 [180, 29]
-3.117959 -2.9705994 -2.936943 -2.7760575 -3.08388 -2.9676147 -3.064471 -3.1127303
-3.0474553 -2.933273 -3.1314747 -3.0075626 -2.8229985 -3.0032594 -3.02217 -3.1340313
-3.1264088 -3.0126972 -2.818566 -2.866565 -3.0070364 -3.0569644 -3.0039606 -3.0726025
-2.9133177 -3.1174228 -2.7943566 -3.0781102 -3.0292401 -3.0409622 -3.1425405 -3.068137
-3.0816429 -2.9671986 -2.97618 -2.8496552 -2.946726 -3.1555815 -3.006373 -2.8517005
-2.9682367 -3.0705411 -2.9490888 -2.9704478 -2.9623814 -3.0354984 -2.9816122 -3.2090096
-2.9517798 -3.1534166 -3.0150838 -2.9074247 -2.9811776 -2.8619435 -2.9539704 -2.9569066
-2.9835997 -2.862233 -2.8746872 -2.9918036 -2.8784583 -2.945287 -2.8831306 -2.9847262
-3.0241246 -3.1334383 -2.9619355 -2.894032 -2.9099834 -2.9434252 -2.9952557 -2.8184178
-2.9650502 -2.9635139 -2.9548433 -2.9379132 -3.0561452 -2.8403041 -2.9695852 -3.074653
-2.9809842 -2.919818 -3.080683 -2.830456 -3.003473 -3.0906909 -3.0117164 -2.9877343
-3.1885223 -3.1039672 -3.0515263 -2.9379823 -2.8392305 -3.0655544 -2.9928916 -2.9780073
-2.9216506 -3.0017295 -2.930739 -2.9762325 -2.9681308 -2.9663453 -3.0184112 -3.0626943
-3.0506675 -2.8288639 -3.0279596 -2.828213 -3.070781 -3.0420082 -2.843686 -3.1069992
-3.0369906 -2.840647 -3.071557 -2.9773314 -3.0511696 -2.877076 -3.052666 -2.9298332
-3.0037417 -2.858717 -3.0859737 -2.7774498 -2.8804338 -2.9551103 -2.9702122 -2.9922605
-3.1192653 -2.9353604 -3.0158935 -2.818367 -2.94184 -2.9402442 -2.9273357 -3.023618
-2.9005785 -3.028674 -3.139023 -3.1040995 -3.1879652 -2.991381 -3.0373235 -3.0567858
-2.990016 -3.0987809 -2.9810357 -3.0644262 -2.962684 -2.9795628 -3.1505263 -3.0291114
-3.0491078 -3.0739214 -2.896619 -3.159923 -2.8352664 -2.950368 -2.950059 -2.9742928
-3.0468757 -3.1187618 -2.9654021 -3.1659534 -3.0756547 -3.0897446 -2.9141593 -3.015566
-3.0873675 -3.079315 -2.8947513 -2.8841195 -3.1816843 -2.9835303 -2.9090476 -2.962132
-2.8038967 -3.0278766 -2.9412863 -3.072982 -3.028071 -3.1246712 -2.8909514 -2.9133403
-2.9820018 -3.0430636 -3.0863187 -2.9338975 -3.2283144 -2.9656854 -3.068331 -2.9033012
-2.8194692 -3.1490755 -3.1276312 -3.0059288 -3.0717418 -3.1658978 -2.9959164 -3.0287392
-2.8661942 -3.2505198 -2.9416544 -2.999895 -2.9302018 -2.9731011 -3.1612685 -3.0332894
-2.871864 -3.0934498 -3.154627 -3.158375 -2.9350502 -3.0635662 -2.930479 -2.8561494
-3.0117989 -2.950794 -3.0882108 -3.0056088 -3.0295749 -3.1743839 -2.9511902 -2.917976
-2.9167104 -2.8460193 -3.0901904 -3.1856146 -2.9976614 -2.9947736 -3.066267 -2.915471
-3.041512 -2.919189 -2.622075 -3.038748 -3.078109 -2.8315063 -2.9922755 -2.982716
-2.8490925 -2.9481986 -2.830166 -2.912864 -2.997097 -2.980454 -3.2210164 -3.0313547
-3.0310767 -2.8648136 -3.0380952 -3.0800426 -2.8691096 -3.095375 -2.8172123 -2.942628
00000000: a48c 47c0 4d1e 3ec0 e0f6 3bc0 edaa 31c0
00000010: 4a5e 45c0 66ed 3dc0 4b20 44c0 f936 47c0
00000020: 8209 43c0 bfba 3bc0 156a 48c0 e87b 40c0
00000030: 02ac 34c0 6735 40c0 3c6b 41c0 f893 48c0
00000040: 1517 48c0 08d0 40c0 6363 34c0 cd75 37c0
00000050: 4973 40c0 4ea5 43c0 e440 40c0 85a5 44c0
00000060: cc73 3ac0 db83 47c0 bdd6 32c0 c2ff 44c0
00000070: 12df 41c0 209f 42c0 621f 49c0 5b5c 44c0
00000080: a339 45c0 95e6 3dc0 bc79 3ec0 c060 36c0
00000090: 2997 3cc0 0cf5 49c0 6a68 40c0 4382 36c0
000000a0: 97f7 3dc0 bf83 44c0 dfbd 3cc0 d11b 3ec0
000000b0: a897 3dc0 9b45 42c0 bcd2 3ec0 6a60 4dc0
000000c0: f6e9 3cc0 94d1 49c0 22f7 40c0 3f13 3ac0
000000d0: 9dcb 3ec0 152a 37c0 da0d 3dc0 f53d 3dc0
000000e0: 4cf3 3ec0 d32e 37c0 e0fa 37c0 b679 3fc0
000000f0: a938 38c0 957f 3cc0 3685 38c0 c105 3fc0
00000100: 428b 41c0 418a 48c0 5a90 3dc0 d237 39c0
00000110: 2b3d 3ac0 1461 3cc0 45b2 3fc0 f560 34c0
00000120: 62c3 3dc0 36aa 3dc0 271c 3dc0 c506 3cc0
00000130: e297 43c0 8bc7 35c0 af0d 3ec0 1dc7 44c0
00000140: 72c8 3ec0 4cde 3ac0 e929 45c0 3126 35c0
00000150: e738 40c0 e1cd 45c0 f6bf 40c0 0a37 3fc0
00000160: c010 4cc0 66a7 46c0 354c 43c0 e707 3cc0
00000170: f4b5 35c0 0b32 44c0 898b 3fc0 ac97 3ec0
00000180: 53fc 3ac0 561c 40c0 3a91 3bc0 987a 3ec0
00000190: dbf5 3dc0 9ad8 3dc0 a62d 41c0 2f03 44c0
000001a0: 233e 43c0 1b0c 35c0 17ca 41c0 7101 35c0
000001b0: ad87 44c0 43b0 42c0 f4fe 35c0 13d9 46c0
000001c0: 0e5e 42c0 29cd 35c0 6494 44c0 998c 3ec0
000001d0: 5d46 43c0 0322 38c0 e15e 43c0 6382 3bc0
000001e0: 4e3d 40c0 38f5 36c0 9880 45c0 bdc1 31c0
000001f0: 0759 38c0 8720 3dc0 f517 3ec0 3281 3fc0
00000200: 0ba2 47c0 f2dc 3bc0 6604 41c0 2060 34c0
00000210: 1b47 3cc0 f62c 3cc0 7859 3bc0 f582 41c0
00000220: 14a3 39c0 cbd5 41c0 c1e5 48c0 91a9 46c0
00000230: 9f07 4cc0 c972 3fc0 8263 42c0 61a2 43c0
00000240: 6c5c 3fc0 6d52 46c0 4ac9 3ec0 8f1f 44c0
00000250: 9d9c 3dc0 28b1 3ec0 39a2 49c0 f6dc 41c0
00000260: 9524 43c0 21bb 44c0 3562 39c0 2e3c 4ac0
00000270: 0175 35c0 d4d2 3cc0 c4cd 3cc0 d05a 3ec0
00000280: 0300 43c0 cb99 47c0 26c9 3dc0 fb9e 4ac0
00000290: 87d7 44c0 60be 45c0 9681 3ac0 09ff 40c0
000002a0: 6e97 45c0 7f13 45c0 9b43 39c0 6a95 38c0
000002b0: b7a0 4bc0 29f2 3ec0 d62d 3ac0 9293 3dc0
000002c0: 0b73 33c0 bbc8 41c0 093e 3cc0 bdab 44c0
000002d0: eacb 41c0 9dfa 47c0 5905 39c0 2b74 3ac0
000002e0: 1ed9 3ec0 8ec1 42c0 3f86 45c0 fac4 3bc0
000002f0: b49c 4ec0 cacd 3dc0 895f 44c0 b0cf 39c0
00000300: 2f72 34c0 748a 49c0 1c2b 48c0 2361 40c0
00000310: 6b97 44c0 129e 4ac0 18bd 3fc0 ddd6 41c0
00000320: ba6f 37c0 8408 50c0 1144 3cc0 48fe 3fc0
00000330: 6d88 3bc0 4a47 3ec0 3952 4ac0 6a21 42c0
00000340: 9fcc 37c0 15fb 45c0 69e5 49c0 d122 4ac0
00000350: ddd7 3bc0 7811 44c0 f88c 3bc0 27cb 36c0
00000360: 50c1 40c0 cfd9 3cc0 3fa5 45c0 e55b 40c0
00000370: 8ee4 41c0 1b29 4bc0 4de0 3cc0 1ec0 3ac0
00000380: 62ab 3ac0 2e25 36c0 aec5 45c0 1ce1 4bc0
00000390: afd9 3fc0 5faa 3fc0 b83d 44c0 1497 3ac0
000003a0: 22a8 42c0 fed3 3ac0 14d0 27c0 d97a 42c0
000003b0: bdff 44c0 6637 35c0 7181 3fc0 d2e4 3ec0
000003c0: 8857 36c0 49af 3cc0 7121 35c0 5d6c 3ac0
000003d0: 70d0 3fc0 c2bf 3ec0 2225 4ec0 b701 42c0
000003e0: 29fd 41c0 1b59 37c0 2770 42c0 6b1f 45c0
000003f0: 7e9f 37c0 a01a 46c0 354d 34c0 0454 3cc0

l1.bias_mu f4 [180]
0.11913278 0.3506458 0.05887085 -0.021948528 -0.1493081 0.1645206 -0.0787875 -0.009022563
0.047287766 -0.05891894 -0.09735442 -0.059744053 -0.01201887 -0.015338768 0.027659813 -0.09094205
-0.01699748 -0.037894003 0.15151645 -0.005322845 0.15237956 -0.039715324 -0.20008326 0.039183117
-0.038245294 0.015227147 0.13661638 -0.07907102 0.091788076 -0.019175636 -0.0032284597 -0.07315703
0.18520288 0.17663461 0.18174408 0.1085858 0.026682667 0.0038919281 0.22614023 -0.09071444
-0.04532709 -0.14512476 -0.100519896 -0.15703826 0.12931229 -0.024569074 -0.05911606 -0.13714015
0.051831525 -0.077213794 0.030928697 0.066403136 -0.034685656 -0.11753413 -0.20592731 -0.1810816
0.021143494 0.14263035 0.043689564 0.15048413 0.026446356 0.09813987 -0.112041146 0.047509484
-0.1424226 0.031138781 -0.050352927 0.17765686 -0.25259396 -0.3230432 0.059677176 0.008087527
0.08357562 -0.023116712 -0.030322056 0.010836448 0.01217444 0.03698365 0.053478032 0.016922161
0.006043124 0.07613196 0.034334294 -0.046186272 0.28398344 0.06110072 0.056964092 -0.1629032
0.18527798 0.0012456292 0.014739421 0.14870104 -0.13487406 -0.107419185 -0.007830723 0.020929404
-0.08792111 0.12508066 0.027294392 0.19690265 -0.010391143 0.0037255452 -0.030058406 0.029941529
-0.13967057 -0.22552225 0.022711614 -0.1148521 0.0044017057 0.20718828 -0.05932733 0.01165468
0.09249936 0.05277775 0.28060853 -0.031932004 0.1845018 -0.07859818 0.055210624 0.01315045
0.19767587 -0.021395562 -0.034819774 -0.21755439 0.013986983 0.021430913 -0.063724175 -0.1609398
0.15924212 0.054544035 -0.07779955 -0.0009230357 -0.072214015 -0.18990456 -0.029096724 0.16107537
0.012878744 0.057109416 0.07228678 0.14066097 0.15328954 -0.0553604 -0.14390768 -0.060222782
-0.07728981 0.13880092 0.11773288 0.1769746 -0.00847721 0.050425593 -0.075474024 0.082660645
0.15575722 -0.008336169 0.05340902 -0.06282071 0.059642162 -0.034644563 0.17779507 -0.1834838
0.09743269 0.07600924 -0.052774433 0.044617116 -0.0035762652 -0.1565281 -0.013767336 -0.1563996
-0.14371373 0.08557708 -0.029875455 -0.041212462 0.05121566 0.011063939 -0.00456351 0.36106578
-0.038130157 -0.17174904 -0.11593513 0.08869292
00000000: e3fb f33d d987 b33e 8f22 713d 66cd b3bc
00000010: 39e4 18be 1778 283e 575b a1bd 5fd3 13bc
00000020: d1b0 413d fd54 71bd c161 c7bd 2eb6 74bd
00000030: cbea 44bc 754f 7bbc d596 e23c d33f babd
00000040: 4d3e 8bbc be36 1bbd 2127 1b3e 436b aebb
00000050: 6309 1c3e 89ac 22bd a0e2 4cbe 7a7e 203d
00000060: 19a7 1cbd 497b 793c 2ae5 0b3e fdef a1bd
00000070: 63fb bb3d 3916 9dbc 9194 53bb 5ad3 95bd
00000080: d3a5 3d3e b4df 343e 1f1b 3a3e 3b62 de3d
00000090: 9c95 da3c b80f 7f3b 4e91 673e 7ec8 b9bd
000000a0: e6a8 39bd 969b 14be 60dd cdbd a3ce 20be
000000b0: 716a 043e 1545 c9bc af23 72bd 786e 0cbe
000000c0: 4b4d 543d 4422 9ebd 2e5e fd3c 5efe 873d
000000d0: 8c12 0ebd bcb5 f0bd 9cde 52be 746d 39be
000000e0: 1f35 ad3c b10d 123e d4f3 323d 8318 1a3e
000000f0: 07a6 d83c 8efd c83d d475 e5bd 4e99 423d
00000100: 3bd7 11be c216 ff3c df3e 4ebd aeeb 353e
00000110: ff53 81be eb65 a5be 0e70 743d 8c81 043c
00000120: b229 ab3d 425f bdbc f665 f8bc 5b8b 313c
00000130: 4d77 473c 2b7c 173d c80b 5b3d 58a0 8a3c
00000140: 6605 c63b 13eb 9b3d 1ea2 0c3d d12d 3dbd
00000150: 4766 913e c044 7a3d 2e53 693d 19d0 26be
00000160: 83b9 3d3e 6144 a33a 9d7d 713c 1645 183e
00000170: 6d1c 0abe 97fe dbbd 6f4c 00bc 2474 ab3c
00000180: fc0f b4bd 2515 003e 7d98 df3c d9a0 493e
00000190: 9d3f 2abc 4728 743b 0c3d f6bc f047 f53c
000001a0: cd05 0fbe 4eef 66be b50d ba3c 9437 ebbd
000001b0: 2f3c 903b 2a29 543e 3701 73bd 45f3 3e3c
000001c0: 4e70 bd3d 7b2d 583d ecab 8f3e 22cb 02bd
000001d0: 0aee 3c3e 15f8 a0bd 8924 623d fc74 573c
000001e0: 8b6b 4a3e bf45 afbc 2e9f 0ebd 94c6 5ebe
000001f0: a929 653c e28f af3c d281 82bd 67cd 24be
00000200: 5e10 233e 9169 5f3d 5f55 9fbd e1f7 71ba
00000210: f1e4 93bd 5776 42be 415c eebc f1f0 243e
00000220: 5e01 533c 90eb 693d 170b 943d 6e09 103e
00000230: eff7 1c3e 96c1 62bd 895c 13be 2aac 76bd
00000240: 1f4a 9ebd d421 0e3e f01d f13d d438 353e
00000250: ffe3 0abc 118b 4e3d 2092 9abd fc49 a93d
00000260: d27e 1f3e 6d94 08bc 6bc3 5a3d 25a8 80bd
00000270: 574b 743d 75e7 0dbd e90f 363e 2de3 3bbe
00000280: ca8a c73d bbaa 9b3d 012a 58bd 70c0 363d
00000290: c65f 6abb e748 20be 6490 61bc 3727 20be
000002a0: b129 13be 0943 af3d 5fbd f4bc 66ce 28bd
000002b0: 83c7 513d 8645 353c 7f89 95bb 9ddd b83e
000002c0: 5e2e 1cbd fbde 2fbe 666f edbd a2a4 b53d

l1.bias_rho f4 [180]
-2.9536653 -3.0280485 -2.874127 -2.96295 -2.9881191 -3.0203383 -3.014925 -3.1603794
-2.798145 -3.0116913 -3.0835223 -3.0393004 -2.9003172 -3.1242049 -2.9041321 -2.9359083
-2.7816758 -2.9438577 -2.9145892 -3.025857 -2.9933267 -3.157846 -3.0967028 -2.9322016
-3.004438 -2.958243 -2.92277 -3.0625038 -3.1530843 -3.0606143 -2.9919994 -3.2377338
-2.887501 -3.0662339 -3.095588 -3.0851388 -3.144016 -3.1208012 -3.0306175 -3.1160815
-3.0299902 -2.8622148 -3.0273545 -3.0825772 -3.1297407 -3.235583 -2.8575747 -3.0143719
-2.8019109 -2.9839222 -2.885382 -2.8474376 -3.0005357 -2.9713762 -2.926822 -3.0804205
-2.9797049 -3.1012986 -2.941672 -3.0619035 -2.8662484 -2.986033 -3.1605763 -2.786779
-2.9351323 -3.0932705 -3.0440152 -2.9726002 -2.964259 -3.0832744 -3.0437152 -3.1617508
-2.939654 -3.055819 -2.9647915 -2.9890065 -2.8962016 -3.0740561 -3.0027454 -3.154324
-3.0816557 -2.9073522 -2.8891764 -2.9189966 -3.0801582 -2.9089599 -2.9092174 -3.2090683
-2.9779806 -3.0041995 -3.1573606 -2.8878262 -2.9468634 -2.9589324 -2.9277027 -2.9783354
-2.9296393 -2.7718952 -3.0862255 -2.911821 -3.0047762 -3.1981337 -3.0434031 -2.9794643
-3.0157456 -3.0024707 -2.980362 -3.0381606 -3.2568147 -2.9423523 -3.0335596 -2.9725358
-3.1421955 -3.009027 -3.0151563 -3.0007098 -2.9098046 -3.1508367 -3.0524874 -2.957884
-2.8953593 -3.0311635 -3.0566216 -2.967064 -3.1029575 -2.9927604 -3.0633357 -2.8987067
-2.8968894 -3.1139235 -2.9932268 -2.9693797 -2.941096 -3.2457871 -2.9763422 -2.9265382
-3.0620885 -3.0510314 -3.0013123 -3.034901 -3.08703 -3.0274608 -2.9730573 -2.9714694
-3.2723558 -3.0313787 -3.059596 -3.0845037 -3.0104067 -3.1397462 -3.003579 -2.8894484
-2.880207 -2.9873297 -3.042406 -2.9208143 -3.0759962 -3.0144796 -3.1236897 -3.192287
-2.9989889 -2.9901721 -2.9312098 -2.903637 -3.0559156 -2.915217 -2.914146 -2.95049
-2.9988325 -2.9901657 -3.011337 -3.012403 -2.8754523 -3.029031 -2.863748 -2.9962091
-2.9154336 -2.9038997 -2.973943 -3.1613557
00000000: da08 3dc0 8ccb 41c0 b2f1 37c0 f9a0 3dc0
00000010: 583d 3fc0 394d 41c0 88f4 40c0 a843 4ac0
00000020: cf14 33c0 8dbf 40c0 6e58 45c0 e683 42c0
00000030: cc9e 39c0 f9f2 47c0 4ddd 39c0 ece5 3bc0
00000040: fa06 32c0 2a68 3cc0 a188 3ac0 a4a7 41c0
00000050: aa92 3fc0 261a 4ac0 6130 46c0 31a9 3bc0
00000060: b648 40c0 da53 3dc0 aa0e 3bc0 1000 44c0
00000070: 22cc 49c0 1be1 43c0 eb7c 3fc0 0837 4fc0
00000080: d1cc 38c0 2d3d 44c0 1d1e 46c0 ea72 45c0
00000090: 8f37 49c0 35bb 47c0 a3f5 41c0 e16d 47c0
000000a0: 5ceb 41c0 872e 37c0 2dc0 41c0 f248 45c0
000000b0: ac4d 48c0 cb13 4fc0 81e2 36c0 78eb 40c0
000000c0: 8252 33c0 95f8 3ec0 19aa 38c0 6b3c 36c0
000000d0: c708 40c0 072b 3ec0 0d51 3bc0 9c25 45c0
000000e0: 7cb3 3ec0 ad7b 46c0 5b44 3cc0 3af6 43c0
000000f0: 9d70 37c0 2a1b 3fc0 e246 4ac0 965a 32c0
00000100: 35d9 3bc0 25f8 45c0 25d1 42c0 153f 3ec0
00000110: 6bb6 3dc0 5e54 45c0 3bcc 42c0 205a 4ac0
00000120: 4b23 3cc0 8a92 43c0 25bf 3dc0 e24b 3fc0
00000130: 5e5b 39c0 56bd 44c0 fb2c 40c0 72e0 49c0
00000140: d939 45c0 0f12 3ac0 44e8 38c0 d7d0 3ac0
00000150: 5021 45c0 662c 3ac0 9e30 3ac0 6061 4dc0
00000160: 3c97 3ec0 ce44 40c0 3212 4ac0 25d2 38c0
00000170: 6999 3cc0 265f 3dc0 7b5f 3bc0 0c9d 3ec0
00000180: 367f 3bc0 bb66 31c0 b884 45c0 465b 3ac0
00000190: 414e 40c0 39ae 4cc0 1ec7 42c0 8baf 3ec0
000001a0: fa01 41c0 7b28 40c0 40be 3ec0 3971 42c0
000001b0: a76f 50c0 804f 3cc0 d725 42c0 073e 3ec0
000001c0: bb19 49c0 e693 40c0 52f8 40c0 a10b 40c0
000001d0: 3d3a 3ac0 4fa7 49c0 f45b 43c0 f94d 3dc0
000001e0: 914d 39c0 95fe 41c0 b09f 43c0 60e4 3dc0
000001f0: db96 46c0 6389 3fc0 b10d 44c0 6984 39c0
00000200: a366 39c0 864a 47c0 0791 3fc0 510a 3ec0
00000210: eb3a 3cc0 faba 4fc0 647c 3ec0 674c 3bc0
00000220: 42f9 43c0 1944 43c0 8015 40c0 d13b 42c0
00000230: e691 45c0 ebc1 41c0 9246 3ec0 8e2c 3ec0
00000240: 476e 51c0 1c02 42c0 6cd0 43c0 8268 45c0
00000250: 81aa 40c0 9af1 48c0 a33a 40c0 b9ec 38c0
00000260: 5055 38c0 6930 3fc0 c8b6 42c0 9fee 3ac0
00000270: 1fdd 44c0 3ced 40c0 88ea 47c0 6e4e 4cc0
00000280: 6fef 3fc0 fb5e 3fc0 f198 3bc0 30d5 39c0
00000290: 1f94 43c0 ea92 3ac0 5e81 3ac0 d4d4 3cc0
000002a0: dfec 3fc0 e05e 3fc0 bfb9 40c0 36cb 40c0
000002b0: 6907 38c0 a5db 41c0 a647 37c0 e4c1 3fc0
000002c0: 7796 3ac0 7ed9 39c0 1555 3ec0 a753 4ac0

l1.weight.mu f4 [180, 29]
0.2426871 -0.08070743 -0.040621117 -0.019288631 0.19465299 0.054089837 0.031299338 -0.05842792
0.03416887 -0.08145355 -0.16096357 0.17040958 0.12925172 -0.058033668 0.27825722 0.0029956081
0.09302539 0.012240643 0.04929054 0.0829639 0.044410724 -0.04277201 0.04791477 0.16700217
0.008059207 0.22476366 -0.080326326 -0.1791047 0.046675183 0.16278002 0.06496496 0.16410607
0.051432915 0.12058084 0.15871899 0.017704936 0.041778103 -0.06649199 -0.07753623 -0.03161747
-0.10875109 0.14397684 -0.13965102 -0.0055764555 0.098938145 0.20379214 0.004305023 -0.08777302
0.054994185 0.17240265 -0.1759581 -0.105169356 0.09969793 -0.056149665 0.063271835 0.052651476
0.26023954 0.03144334 -0.029497785 0.013925532 0.11910048 0.015292687 0.1643909 -0.06416751
0.0051840805 0.09548683 0.25770077 -0.022512166 -0.02258244 0.068297304 -0.1720522 -0.069895126
-0.054271176 0.0044392827 0.003479335 -0.042836737 -0.26531374 -0.00822898 -0.04227502 0.095112875
0.15122421 0.01165324 -0.0066738958 -0.24099775 0.00044381214 -0.055916935 -0.08421521 -0.0354572
-0.11245801 -0.31560633 0.22747014 0.016947519 -0.06622401 0.05800505 -0.0074951747 0.13782838
-0.0441282 0.007580896 0.18508886 0.08518339 0.1903937 0.055473566 -0.060921565 0.20147383
0.1168352 -0.14612444 0.14035346 0.03470987 -0.09438131 0.029739574 -0.010914649 0.012273177
-0.13851109 0.053751443 0.004357116 0.00046461547 -0.07054385 -0.09541695 0.025000058 0.030797275
-0.0029205808 -0.10091786 -0.11938441 0.08159849 -0.0722631 0.08964666 0.12728487 0.090049125
0.10571303 0.03723989 -0.08034516 0.110976726 0.011955138 -0.07327607 0.014149038 -0.0136349965
0.065087825 -0.076234974 0.18712918 -0.11199197 0.07137712 -0.0030072592 -0.071545675 -0.057318512
0.03821928 -0.21222341 -0.059084557 0.11751934 0.13539353 -0.026102982 0.13940983 0.1607853
-0.11097413 0.0061706984 0.062294256 0.02775006 0.1802841 0.011851542 0.038137347 0.014301733
0.06325594 0.23067985 -0.04867826 0.060507562 -0.12844874 0.04707941 0.0039276625 -0.010017899
0.0788875 0.14330052 0.10424839 -0.04810119 -0.052840523 0.026015649 0.031026036 0.09041249
-0.01211915 -0.1307549 -0.021141753 -0.033858076 0.010118567 0.111424945 -0.07308895 -0.17774875
0.04252714 0.0066093 0.06828836 -0.11370683 -0.10798549 0.018486807 0.0668396 -0.07314809
-0.13007854 0.004317775 -0.1461164 0.0371457 0.08302288 -0.051510293 0.14755397 0.09791914
-0.069221474 0.039461963 -0.10316524 -0.13214406 -0.066683106 -0.16718143 0.0887602 -0.042977244
0.09208519 -0.062648915 -0.043008666 0.08024713 -0.07402819 -0.0652159 -0.047479328 0.069360144
0.090529345 -0.22532968 0.065399595 0.0216184 0.12011378 -0.03909334 -0.1756678 0.02406653
-0.10996301 0.07465142 0.2946524 0.17910603 -0.024959821 0.07620371 -0.10269494 0.050056025
0.004049755 0.060936544 0.014667828 0.05865322 0.011721524 -0.07018921 -0.06998695 0.13449524
0.107035555 0.03659869 0.17636201 0.097033456 0.10307093 0.16284119 0.02214348 0.14399877
-0.06682775 -0.039624695 -0.13812773 -0.05744538 -0.125953 -0.1424027 -0.20034857 0.10542145
00000000: f882 783e f049 a5bd 5462 26bd 3103 9ebc
00000010: 1d53 473e 4e8d 5d3d bc33 003d 1d52 6fbd
00000020: a8f4 0b3d 1ed1 a6bd a2d3 24be d97f 2e3e
00000030: 905a 043e b6b4 6dbd bb77 8e3e f751 443b
00000040: 1884 be3d fa8c 483c e1e4 493d fae8 a93d
00000050: 05e8 353d b431 2fbd 4742 443d 9e02 2b3e
00000060: c40a 043c 7228 663e 2182 a4bd 3967 37be
00000070: 7a2e 3f3d ceaf 263e 590c 853d 6c0b 283e
00000080: 52ab 523d 16f3 f63d 3b87 223e f109 913c
00000090: 841f 2b3d f42c 88bd 51cb 9ebd 5281 01bd
000000a0: e4b8 debd aa6e 133e ad00 0fbe b3ba b6bb
000000b0: 15a0 ca3d e3ae 503e 2611 8d3b 57c2 b3bd
000000c0: 9541 613d 528a 303e 5c2e 34be 0863 d7bd
000000d0: 6e2e cc3d 31fd 65bd aa94 813d 13a9 573d
000000e0: 1e3e 853e bbca 003d 57a5 f1bc ea27 643c
000000f0: f4ea f33d 2e8e 7a3c 1756 283e 416a 83bd
00000100: 38df a93b 998e c33d 5bf1 833e 6f6b b8bc
00000110: cffe b8bc 75df 8b3d 742e 30be 2d25 8fbd
00000120: 744b 5ebd 6777 913b 8e05 643b 9375 2fbd
00000130: 34d7 87be d8d2 06bc 9228 2dbd 8aca c23d
00000140: 85da 1a3e 3bed 3e3c b2b0 dabb 1dc8 76be
00000150: 75af e839 2809 65bd 0679 acbd 923b 11bd
00000160: 6350 e6bd 2797 a1be efed 683e 86d5 8a3c
00000170: 74a0 87bd b496 6d3d 159a f5bb e222 0d3e
00000180: c5bf 34bd 2a69 f83b ef87 3d3e a174 ae3d
00000190: 91f6 423e 4038 633d e488 79bd 284f 4e3e
000001a0: 4b47 ef3d a5a1 15be d1b8 0f3e f02b 0e3d
000001b0: fd4a c1bd 68a0 f33c 5bd3 32bc 6f15 493c
000001c0: dad5 0dbe 792a 5c3d 23c6 8e3b a297 f339
000001d0: 4b79 90bd f669 c3bd eccc cc3c 914a fc3c
000001e0: 3767 3fbb 06ae cebd d07f f4bd 1c1d a73d
000001f0: adfe 93bd ab98 b73d f756 023e ad6b b83d
00000200: 1380 d83d db88 183d 018c a4bd c447 e33d
00000210: 7cdf 433c c411 96bd 5ed1 673c 5265 5fbc
00000220: c44c 853d 1521 9cbd cb9e 3f3e 0c5c e5bd
00000230: 2b2e 923d 7015 45bb 8a86 92bd d1c6 6abd
00000240: d28b 1c3d 1851 59be a602 72bd fbad f03d
00000250: 9aa4 0a3e ecd5 d5bc 73c1 0e3e e7a4 243e
00000260: 6846 e3bd 9233 ca3b 4328 7f3d 1854 e33c
00000270: 659c 383e f82c 423c e835 1c3d d151 6a3c
00000280: 558c 813d 5737 6c3e db62 47bd c7d6 773d
00000290: 1188 03be 57d6 403d 9fb3 803b 1d22 24bc
000002a0: c58f a13d 5fbd 123e 2e80 d53d c105 45bd
000002b0: 4e6f 58bd c51e d53c 502a fe3c 2f2a b93d
000002c0: 668f 46bc 9de4 05be 7831 adbc c4ae 0abd
000002d0: 59c8 253c c332 e43d a9af 95bd c503 36be
000002e0: f030 2e3d d492 d83b c5da 8b3d 20df e8bd
000002f0: 7f27 ddbd a571 973c 33e3 883d aace 95bd
00000300: 4f33 05be 1f7c 8d3b 8a9f 15be 1726 183d
00000310: e607 aa3d 75fc 52bd 6318 173e d489 c83d
00000320: fdc3 8dbd dea2 213d 4c48 d3bd c650 07be
00000330: 2791 88bd 9c31 2bbe e8c7 b53d e808 30bd
00000340: 2997 bc3d 134e 80bd db29 30bd 9b58 a43d
00000350: 179c 97bd ea8f 85bd af79 42bd b10c 8e3d
00000360: 7367 b93d d3bc 66be 39f0 853d 1219 b13c
00000370: 37fe f53d 5720 20bd 42e2 33be 2c27 c53c
00000380: 4934 e1bd d8e2 983d aedc 963e 9267 373e
00000390: 8a78 ccbc b110 9c3d ba51 d2bd 8c07 4d3d
000003a0: cfb3 843b 9998 793d 5451 703c 5c3e 703d
000003b0: a30b 403c 5cbf 8fbd 5155 8fbd 1fb9 093e
000003c0: 7535 db3d 82e8 153d 3e98 343e 7ab9 c63d
000003d0: da16 d33d d7bf 263e 3e66 b53c 6a74 133e
000003e0: fddc 88bd 814d 22bd 5b71 0dbe d94b 6bbd
000003f0: d3f9 00be 03d2 11be 2d28 4dbe 34e7 d73d

l1.weight.rho f4 [180, 29]
-3.117959 -2.9705994 -2.936943 -2.7760575 -3.08388 -2.9676147 -3.064471 -3.1127303
-3.0474553 -2.933273 -3.1314747 -3.0075626 -2.8229985 -3.0032594 -3.02217 -3.1340313
-3.1264088 -3.0126972 -2.818566 -2.866565 -3.0070364 -3.0569644 -3.0039606 -3.0726025
-2.9133177 -3.1174228 -2.7943566 -3.0781102 -3.0292401 -3.0409622 -3.1425405 -3.068137
-3.0816429 -2.9671986 -2.97618 -2.8496552 -2.946726 -3.1555815 -3.006373 -2.8517005
-2.9682367 -3.0705411 -2.9490888 -2.9704478 -2.9623814 -3.0354984 -2.9816122 -3.2090096
-2.9517798 -3.1534166 -3.0150838 -2.9074247 -2.9811776 -2.8619435 -2.9539704 -2.9569066
-2.9835997 -2.862233 -2.8746872 -2.9918036 -2.8784583 -2.945287 -2.8831306 -2.9847262
-3.0241246 -3.1334383 -2.9619355 -2.894032 -2.9099834 -2.9434252 -2.9952557 -2.8184178
-2.9650502 -2.9635139 -2.9548433 -2.9379132 -3.0561452 -2.8403041 -2.9695852 -3.074653
-2.9809842 -2.919818 -3.080683 -2.830456 -3.003473 -3.0906909 -3.0117164 -2.9877343
-3.1885223 -3.1039672 -3.0515263 -2.9379823 -2.8392305 -3.0655544 -2.9928916 -2.9780073
-2.9216506 -3.0017295 -2.930739 -2.9762325 -2.9681308 -2.9663453 -3.0184112 -3.0626943
-3.0506675 -2.8288639 -3.0279596 -2.828213 -3.070781 -3.0420082 -2.843686 -3.1069992
-3.0369906 -2.840647 -3.071557 -2.9773314 -3.0511696 -2.877076 -3.052666 -2.9298332
-3.0037417 -2.858717 -3.0859737 -2.7774498 -2.8804338 -2.9551103 -2.9702122 -2.9922605
-3.1192653 -2.9353604 -3.0158935 -2.818367 -2.94184 -2.9402442 -2.9273357 -3.023618
-2.9005785 -3.028674 -3.139023 -3.1040995 -3.1879652 -2.991381 -3.0373235 -3.0567858
-2.990016 -3.0987809 -2.9810357 -3.0644262 -2.962684 -2.9795628 -3.1505263 -3.0291114
-3.0491078 -3.0739214 -2.896619 -3.159923 -2.8352664 -2.950368 -2.950059 -2.9742928
-3.0468757 -3.1187618 -2.9654021 -3.1659534 -3.0756547 -3.0897446 -2.9141593 -3.015566
-3.0873675 -3.079315 -2.8947513 -2.8841195 -3.1816843 -2.9835303 -2.9090476 -2.962132
-2.8038967 -3.0278766 -2.9412863 -3.072982 -3.028071 -3.1246712 -2.8909514 -2.9133403
-2.9820018 -3.0430636 -3.0863187 -2.9338975 -3.2283144 -2.9656854 -3.068331 -2.9033012
-2.8194692 -3.1490755 -3.1276312 -3.0059288 -3.0717418 -3.1658978 -2.9959164 -3.0287392
-2.8661942 -3.2505198 -2.9416544 -2.999895 -2.9302018 -2.9731011 -3.1612685 -3.0332894
-2.871864 -3.0934498 -3.154627 -3.158375 -2.9350502 -3.0635662 -2.930479 -2.8561494
-3.0117989 -2.950794 -3.0882108 -3.0056088 -3.0295749 -3.1743839 -2.9511902 -2.917976
-2.9167104 -2.8460193 -3.0901904 -3.1856146 -2.9976614 -2.9947736 -3.066267 -2.915471
-3.041512 -2.919189 -2.622075 -3.038748 -3.078109 -2.8315063 -2.9922755 -2.982716
-2.8490925 -2.9481986 -2.830166 -2.912864 -2.997097 -2.980454 -3.2210164 -3.0313547
-3.0310767 -2.8648136 -3.0380952 -3.0800426 -2.8691096 -3.095375 -2.8172123 -2.942628
00000000: a48c 47c0 4d1e 3ec0 e0f6 3bc0 edaa 31c0
00000010: 4a5e 45c0 66ed 3dc0 4b20 44c0 f936 47c0
00000020: 8209 43c0 bfba 3bc0 156a 48c0 e87b 40c0
00000030: 02ac 34c0 6735 40c0 3c6b 41c0 f893 48c0
00000040: 1517 48c0 08d0 40c0 6363 34c0 cd75 37c0
00000050: 4973 40c0 4ea5 43c0 e440 40c0 85a5 44c0
00000060: cc73 3ac0 db83 47c0 bdd6 32c0 c2ff 44c0
00000070: 12df 41c0 209f 42c0 621f 49c0 5b5c 44c0
00000080: a339 45c0 95e6 3dc0 bc79 3ec0 c060 36c0
00000090: 2997 3cc0 0cf5 49c0 6a68 40c0 4382 36c0
000000a0: 97f7 3dc0 bf83 44c0 dfbd 3cc0 d11b 3ec0
000000b0: a897 3dc0 9b45 42c0 bcd2 3ec0 6a60 4dc0
000000c0: f6e9 3cc0 94d1 49c0 22f7 40c0 3f13 3ac0
000000d0: 9dcb 3ec0 152a 37c0 da0d 3dc0 f53d 3dc0
000000e0: 4cf3 3ec0 d32e 37c0 e0fa 37c0 b679 3fc0
000000f0: a938 38c0 957f 3cc0 3685 38c0 c105 3fc0
00000100: 428b 41c0 418a 48c0 5a90 3dc0 d237 39c0
00000110: 2b3d 3ac0 1461 3cc0 45b2 3fc0 f560 34c0
00000120: 62c3 3dc0 36aa 3dc0 271c 3dc0 c506 3cc0
00000130: e297 43c0 8bc7 35c0 af0d 3ec0 1dc7 44c0
00000140: 72c8 3ec0 4cde 3ac0 e929 45c0 3126 35c0
00000150: e738 40c0 e1cd 45c0 f6bf 40c0 0a37 3fc0
00000160: c010 4cc0 66a7 46c0 354c 43c0 e707 3cc0
00000170: f4b5 35c0 0b32 44c0 898b 3fc0 ac97 3ec0
00000180: 53fc 3ac0 561c 40c0 3a91 3bc0 987a 3ec0
00000190: dbf5 3dc0 9ad8 3dc0 a62d 41c0 2f03 44c0
000001a0: 233e 43c0 1b0c 35c0 17ca 41c0 7101 35c0
000001b0: ad87 44c0 43b0 42c0 f4fe 35c0 13d9 46c0
000001c0: 0e5e 42c0 29cd 35c0 6494 44c0 998c 3ec0
000001d0: 5d46 43c0 0322 38c0 e15e 43c0 6382 3bc0
000001e0: 4e3d 40c0 38f5 36c0 9880 45c0 bdc1 31c0
000001f0: 0759 38c0 8720 3dc0 f517 3ec0 3281 3fc0
00000200: 0ba2 47c0 f2dc 3bc0 6604 41c0 2060 34c0
00000210: 1b47 3cc0 f62c 3cc0 7859 3bc0 f582 41c0
00000220: 14a3 39c0 cbd5 41c0 c1e5 48c0 91a9 46c0
00000230: 9f07 4cc0 c972 3fc0 8263 42c0 61a2 43c0
00000240: 6c5c 3fc0 6d52 46c0 4ac9 3ec0 8f1f 44c0
00000250: 9d9c 3dc0 28b1 3ec0 39a2 49c0 f6dc 41c0
00000260: 9524 43c0 21bb 44c0 3562 39c0 2e3c 4ac0
00000270: 0175 35c0 d4d2 3cc0 c4cd 3cc0 d05a 3ec0
00000280: 0300 43c0 cb99 47c0 26c9 3dc0 fb9e 4ac0
00000290: 87d7 44c0 60be 45c0 9681 3ac0 09ff 40c0
000002a0: 6e97 45c0 7f13 45c0 9b43 39c0 6a95 38c0
000002b0: b7a0 4bc0 29f2 3ec0 d62d 3ac0 9293 3dc0
000002c0: 0b73 33c0 bbc8 41c0 093e 3cc0 bdab 44c0
000002d0: eacb 41c0 9dfa 47c0 5905 39c0 2b74 3ac0
000002e0: 1ed9 3ec0 8ec1 42c0 3f86 45c0 fac4 3bc0
000002f0: b49c 4ec0 cacd 3dc0 895f 44c0 b0cf 39c0
00000300: 2f72 34c0 748a 49c0 1c2b 48c0 2361 40c0
00000310: 6b97 44c0 129e 4ac0 18bd 3fc0 ddd6 41c0
00000320: ba6f 37c0 8408 50c0 1144 3cc0 48fe 3fc0
00000330: 6d88 3bc0 4a47 3ec0 3952 4ac0 6a21 42c0
00000340: 9fcc 37c0 15fb 45c0 69e5 49c0 d122 4ac0
00000350: ddd7 3bc0 7811 44c0 f88c 3bc0 27cb 36c0
00000360: 50c1 40c0 cfd9 3cc0 3fa5 45c0 e55b 40c0
00000370: 8ee4 41c0 1b29 4bc0 4de0 3cc0 1ec0 3ac0
00000380: 62ab 3ac0 2e25 36c0 aec5 45c0 1ce1 4bc0
00000390: afd9 3fc0 5faa 3fc0 b83d 44c0 1497 3ac0
000003a0: 22a8 42c0 fed3 3ac0 14d0 27c0 d97a 42c0
000003b0: bdff 44c0 6637 35c0 7181 3fc0 d2e4 3ec0
000003c0: 8857 36c0 49af 3cc0 7121 35c0 5d6c 3ac0
000003d0: 70d0 3fc0 c2bf 3ec0 2225 4ec0 b701 42c0
000003e0: 29fd 41c0 1b59 37c0 2770 42c0 6b1f 45c0
000003f0: 7e9f 37c0 a01a 46c0 354d 34c0 0454 3cc0

l1.bias.mu f4 [180]
0.11913278 0.3506458 0.05887085 -0.021948528 -0.1493081 0.1645206 -0.0787875 -0.009022563
0.047287766 -0.05891894 -0.09735442 -0.059744053 -0.01201887 -0.015338768 0.027659813 -0.09094205
-0.01699748 -0.037894003 0.15151645 -0.005322845 0.15237956 -0.039715324 -0.20008326 0.039183117
-0.038245294 0.015227147 0.13661638 -0.07907102 0.091788076 -0.019175636 -0.0032284597 -0.07315703
0.18520288 0.17663461 0.18174408 0.1085858 0.026682667 0.0038919281 0.22614023 -0.09071444
-0.04532709 -0.14512476 -0.100519896 -0.15703826 0.12931229 -0.024569074 -0.05911606 -0.13714015
0.051831525 -0.077213794 0.030928697 0.066403136 -0.034685656 -0.11753413 -0.20592731 -0.1810816
0.021143494 0.14263035 0.043689564 0.15048413 0.026446356 0.09813987 -0.112041146 0.047509484
-0.1424226 0.031138781 -0.050352927 0.17765686 -0.25259396 -0.3230432 0.059677176 0.008087527
0.08357562 -0.023116712 -0.030322056 0.010836448 0.01217444 0.03698365 0.053478032 0.016922161
0.006043124 0.07613196 0.034334294 -0.046186272 0.28398344 0.06110072 0.056964092 -0.1629032
0.18527798 0.0012456292 0.014739421 0.14870104 -0.13487406 -0.107419185 -0.007830723 0.020929404
-0.08792111 0.12508066 0.027294392 0.19690265 -0.010391143 0.0037255452 -0.030058406 0.029941529
-0.13967057 -0.22552225 0.022711614 -0.1148521 0.0044017057 0.20718828 -0.05932733 0.01165468
0.09249936 0.05277775 0.28060853 -0.031932004 0.1845018 -0.07859818 0.055210624 0.01315045
0.19767587 -0.021395562 -0.034819774 -0.21755439 0.013986983 0.021430913 -0.063724175 -0.1609398
0.15924212 0.054544035 -0.07779955 -0.0009230357 -0.072214015 -0.18990456 -0.029096724 0.16107537
0.012878744 0.057109416 0.07228678 0.14066097 0.15328954 -0.0553604 -0.14390768 -0.060222782
-0.07728981 0.13880092 0.11773288 0.1769746 -0.00847721 0.050425593 -0.075474024 0.082660645
0.15575722 -0.008336169 0.05340902 -0.06282071 0.059642162 -0.034644563 0.17779507 -0.1834838
0.09743269 0.07600924 -0.052774433 0.044617116 -0.0035762652 -0.1565281 -0.013767336 -0.1563996
-0.14371373 0.08557708 -0.029875455 -0.041212462 0.05121566 0.011063939 -0.00456351 0.36106578
-0.038130157 -0.17174904 -0.11593513 0.08869292
00000000: e3fb f33d d987 b33e 8f22 713d 66cd b3bc
00000010: 39e4 18be 1778 283e 575b a1bd 5fd3 13bc
00000020: d1b0 413d fd54 71bd c161 c7bd 2eb6 74bd
00000030: cbea 44bc 754f 7bbc d596 e23c d33f babd
00000040: 4d3e 8bbc be36 1bbd 2127 1b3e 436b aebb
00000050: 6309 1c3e 89ac 22bd a0e2 4cbe 7a7e 203d
00000060: 19a7 1cbd 497b 793c 2ae5 0b3e fdef a1bd
00000070: 63fb bb3d 3916 9dbc 9194 53bb 5ad3 95bd
00000080: d3a5 3d3e b4df 343e 1f1b 3a3e 3b62 de3d
00000090: 9c95 da3c b80f 7f3b 4e91 673e 7ec8 b9bd
000000a0: e6a8 39bd 969b 14be 60dd cdbd a3ce 20be
000000b0: 716a 043e 1545 c9bc af23 72bd 786e 0cbe
000000c0: 4b4d 543d 4422 9ebd 2e5e fd3c 5efe 873d
000000d0: 8c12 0ebd bcb5 f0bd 9cde 52be 746d 39be
000000e0: 1f35 ad3c b10d 123e d4f3 323d 8318 1a3e
000000f0: 07a6 d83c 8efd c83d d475 e5bd 4e99 423d
00000100: 3bd7 11be c216 ff3c df3e 4ebd aeeb 353e
00000110: ff53 81be eb65 a5be 0e70 743d 8c81 043c
00000120: b229 ab3d 425f bdbc f665 f8bc 5b8b 313c
00000130: 4d77 473c 2b7c 173d c80b 5b3d 58a0 8a3c
00000140: 6605 c63b 13eb 9b3d 1ea2 0c3d d12d 3dbd
00000150: 4766 913e c044 7a3d 2e53 693d 19d0 26be
00000160: 83b9 3d3e 6144 a33a 9d7d 713c 1645 183e
00000170: 6d1c 0abe 97fe dbbd 6f4c 00bc 2474 ab3c
00000180: fc0f b4bd 2515 003e 7d98 df3c d9a0 493e
00000190: 9d3f 2abc 4728 743b 0c3d f6bc f047 f53c
000001a0: cd05 0fbe 4eef 66be b50d ba3c 9437 ebbd
000001b0: 2f3c 903b 2a29 543e 3701 73bd 45f3 3e3c
000001c0: 4e70 bd3d 7b2d 583d ecab 8f3e 22cb 02bd
000001d0: 0aee 3c3e 15f8 a0bd 8924 623d fc74 573c
000001e0: 8b6b 4a3e bf45 afbc 2e9f 0ebd 94c6 5ebe
000001f0: a929 653c e28f af3c d281 82bd 67cd 24be
00000200: 5e10 233e 9169 5f3d 5f55 9fbd e1f7 71ba
00000210: f1e4 93bd 5776 42be 415c eebc f1f0 243e
00000220: 5e01 533c 90eb 693d 170b 943d 6e09 103e
00000230: eff7 1c3e 96c1 62bd 895c 13be 2aac 76bd
00000240: 1f4a 9ebd d421 0e3e f01d f13d d438 353e
00000250: ffe3 0abc 118b 4e3d 2092 9abd fc49 a93d
00000260: d27e 1f3e 6d94 08bc 6bc3 5a3d 25a8 80bd
00000270: 574b 743d 75e7 0dbd e90f 363e 2de3 3bbe
00000280: ca8a c73d bbaa 9b3d 012a 58bd 70c0 363d
00000290: c65f 6abb e748 20be 6490 61bc 3727 20be
000002a0: b129 13be 0943 af3d 5fbd f4bc 66ce 28bd
000002b0: 83c7 513d 8645 353c 7f89 95bb 9ddd b83e
000002c0: 5e2e 1cbd fbde 2fbe 666f edbd a2a4 b53d

l1.bias.rho f4 [180]
-2.9536653 -3.0280485 -2.874127 -2.96295 -2.9881191 -3.0203383 -3.014925 -3.1603794
-2.798145 -3.0116913 -3.0835223 -3.0393004 -2.9003172 -3.1242049 -2.9041321 -2.9359083
-2.7816758 -2.9438577 -2.9145892 -3.025857 -2.9933267 -3.157846 -3.0967028 -2.9322016
-3.004438 -2.958243 -2.92277 -3.0625038 -3.1530843 -3.0606143 -2.9919994 -3.2377338
-2.887501 -3.0662339 -3.095588 -3.0851388 -3.144016 -3.1208012 -3.0306175 -3.1160815
-3.0299902 -2.8622148 -3.0273545 -3.0825772 -3.1297407 -3.235583 -2.8575747 -3.0143719
-2.8019109 -2.9839222 -2.885382 -2.8474376 -3.0005357 -2.9713762 -2.926822 -3.0804205
-2.9797049 -3.1012986 -2.941672 -3.0619035 -2.8662484 -2.986033 -3.1605763 -2.786779
-2.9351323 -3.0932705 -3.0440152 -2.9726002 -2.964259 -3.0832744 -3.0437152 -3.1617508
-2.939654 -3.055819 -2.9647915 -2.9890065 -2.8962016 -3.0740561 -3.0027454 -3.154324
-3.0816557 -2.9073522 -2.8891764 -2.9189966 -3.0801582 -2.9089599 -2.9092174 -3.2090683
-2.9779806 -3.0041995 -3.1573606 -2.8878262 -2.9468634 -2.9589324 -2.9277027 -2.9783354
-2.9296393 -2.7718952 -3.0862255 -2.911821 -3.0047762 -3.1981337 -3.0434031 -2.9794643
-3.0157456 -3.0024707 -2.980362 -3.0381606 -3.2568147 -2.9423523 -3.0335596 -2.9725358
-3.1421955 -3.009027 -3.0151563 -3.0007098 -2.9098046 -3.1508367 -3.0524874 -2.957884
-2.8953593 -3.0311635 -3.0566216 -2.967064 -3.1029575 -2.9927604 -3.0633357 -2.8987067
-2.8968894 -3.1139235 -2.9932268 -2.9693797 -2.941096 -3.2457871 -2.9763422 -2.9265382
-3.0620885 -3.0510314 -3.0013123 -3.034901 -3.08703 -3.0274608 -2.9730573 -2.9714694
-3.2723558 -3.0313787 -3.059596 -3.0845037 -3.0104067 -3.1397462 -3.003579 -2.8894484
-2.880207 -2.9873297 -3.042406 -2.9208143 -3.0759962 -3.0144796 -3.1236897 -3.192287
-2.9989889 -2.9901721 -2.9312098 -2.903637 -3.0559156 -2.915217 -2.914146 -2.95049
-2.9988325 -2.9901657 -3.011337 -3.012403 -2.8754523 -3.029031 -2.863748 -2.9962091
-2.9154336 -2.9038997 -2.973943 -3.1613557
00000000: da08 3dc0 8ccb 41c0 b2f1 37c0 f9a0 3dc0
00000010: 583d 3fc0 394d 41c0 88f4 40c0 a843 4ac0
00000020: cf14 33c0 8dbf 40c0 6e58 45c0 e683 42c0
00000030: cc9e 39c0 f9f2 47c0 4ddd 39c0 ece5 3bc0
00000040: fa06 32c0 2a68 3cc0 a188 3ac0 a4a7 41c0
00000050: aa92 3fc0 261a 4ac0 6130 46c0 31a9 3bc0
00000060: b648 40c0 da53 3dc0 aa0e 3bc0 1000 44c0
00000070: 22cc 49c0 1be1 43c0 eb7c 3fc0 0837 4fc0
00000080: d1cc 38c0 2d3d 44c0 1d1e 46c0 ea72 45c0
00000090: 8f37 49c0 35bb 47c0 a3f5 41c0 e16d 47c0
000000a0: 5ceb 41c0 872e 37c0 2dc0 41c0 f248 45c0
000000b0: ac4d 48c0 cb13 4fc0 81e2 36c0 78eb 40c0
000000c0: 8252 33c0 95f8 3ec0 19aa 38c0 6b3c 36c0
000000d0: c708 40c0 072b 3ec0 0d51 3bc0 9c25 45c0
000000e0: 7cb3 3ec0 ad7b 46c0 5b44 3cc0 3af6 43c0
000000f0: 9d70 37c0 2a1b 3fc0 e246 4ac0 965a 32c0
00000100: 35d9 3bc0 25f8 45c0 25d1 42c0 153f 3ec0
00000110: 6bb6 3dc0 5e54 45c0 3bcc 42c0 205a 4ac0
00000120: 4b23 3cc0 8a92 43c0 25bf 3dc0 e24b 3fc0
00000130: 5e5b 39c0 56bd 44c0 fb2c 40c0 72e0 49c0
00000140: d939 45c0 0f12 3ac0 44e8 38c0 d7d0 3ac0
00000150: 5021 45c0 662c 3ac0 9e30 3ac0 6061 4dc0
00000160: 3c97 3ec0 ce44 40c0 3212 4ac0 25d2 38c0
00000170: 6999 3cc0 265f 3dc0 7b5f 3bc0 0c9d 3ec0
00000180: 367f 3bc0 bb66 31c0 b884 45c0 465b 3ac0
00000190: 414e 40c0 39ae 4cc0 1ec7 42c0 8baf 3ec0
000001a0: fa01 41c0 7b28 40c0 40be 3ec0 3971 42c0
000001b0: a76f 50c0 804f 3cc0 d725 42c0 073e 3ec0
000001c0: bb19 49c0 e693 40c0 52f8 40c0 a10b 40c0
000001d0: 3d3a 3ac0 4fa7 49c0 f45b 43c0 f94d 3dc0
000001e0: 914d 39c0 95fe 41c0 b09f 43c0 60e4 3dc0
000001f0: db96 46c0 6389 3fc0 b10d 44c0 6984 39c0
00000200: a366 39c0 864a 47c0 0791 3fc0 510a 3ec0
00000210: eb3a 3cc0 faba 4fc0 647c 3ec0 674c 3bc0
00000220: 42f9 43c0 1944 43c0 8015 40c0 d13b 42c0
00000230: e691 45c0 ebc1 41c0 9246 3ec0 8e2c 3ec0
00000240: 476e 51c0 1c02 42c0 6cd0 43c0 8268 45c0
00000250: 81aa 40c0 9af1 48c0 a33a 40c0 b9ec 38c0
00000260: 5055 38c0 6930 3fc0 c8b6 42c0 9fee 3ac0
00000270: 1fdd 44c0 3ced 40c0 88ea 47c0 6e4e 4cc0
00000280: 6fef 3fc0 fb5e 3fc0 f198 3bc0 30d5 39c0
00000290: 1f94 43c0 ea92 3ac0 5e81 3ac0 d4d4 3cc0
000002a0: dfec 3fc0 e05e 3fc0 bfb9 40c0 36cb 40c0
000002b0: 6907 38c0 a5db 41c0 a647 37c0 e4c1 3fc0
000002c0: 7796 3ac0 7ed9 39c0 1555 3ec0 a753 4ac0

classifier.0.weight_mu f4 [2, 180]
-0.072512165 0.02950151 0.056035984 -0.020205025 -0.11746937 -0.06437235 -0.16594955 -0.021799093
0.1237843 0.10868659 0.039496016 0.15101908 -0.10093876 0.14151898 -0.12304039 0.12126564
0.23298644 0.06406147 0.05956709 -0.18526597 -0.0013621536 0.09364865 0.028607512 0.040345293
-0.091357194 0.0910178 0.010477232 -0.011076436 -0.09165817 -0.1595943 0.07266324 -0.12367218
-0.06460149 -0.1013818 -0.03902085 -0.14201488 0.2686898 0.029022578 -0.09593382 -0.11547364
-0.021766992 -0.100901954 -0.13504408 -0.13685189 0.14644907 0.04652893 0.14314961 -0.12527588
0.17790934 0.25472617 -0.02161284 -0.115361884 -0.107284345 -0.011114377 -0.062178977 -0.11761605
-0.13601284 0.16507311 0.010825961 0.15180987 -0.029813379 0.13585255 -0.005927104 0.014546302
-0.05463451 -0.030378817 -0.11496569 -0.02725448 0.09760119 0.18278341 -0.009265074 -0.2520152
-0.001775145 0.1123301 0.053778376 0.12244908 0.17849675 0.031852607 0.07435513 -0.11069349
0.118348055 0.08771718 -0.0328114 -0.07239372 -0.007872582 -0.026940344 -0.07322559 -0.0028135295
-0.121086024 0.020971825 0.0690357 -0.17310104 0.045656696 0.040274456 0.012911457 -0.13599725
-0.12025704 0.014866181 -0.032155197 -0.029677922 0.04929798 -0.012259967 -0.06307841 0.094194435
0.14536701 -0.13993828 -0.019739704 -0.08025805 0.013553445 0.06841562 -0.04044649 0.005221955
0.021896208 -0.05957483 -0.035372954 0.007014956 -0.09828978 0.06320552 -0.05706362 0.05367468
-0.06357761 -0.06106132 0.10856023 0.06058324 0.0035941117 -0.17974405 -0.14117745 0.059019398
0.07876995 -0.24317212 -0.11422636 0.029462352 -0.041489705 0.13761225 -0.12605712 0.16108176
-0.044541176 0.055205967 0.07229923 0.15506397 -0.06350123 0.14019157 -0.057447292 -0.2591412
-0.041286416 0.16822992 0.09009623 -0.04318781 -0.007366302 0.09619116 -0.0073206434 0.013090926
0.016034298 0.05602633 0.025394423 0.055771727 -0.00021054083 -0.1484013 0.07224082 0.16608088
0.08193008 0.037262503 0.11077829 0.00020016963 -0.12882565 0.12606452 0.12303626 0.019387154
0.035935476 0.016765798 -0.11947055 -0.048178874 0.053626448 0.05814714 -0.05642895 0.041542303
-0.0695272 0.0018720815 0.0716049 -0.1464343 0.07572929 -0.09672459 -0.05438381 -0.01617845
-0.10094366 0.10460118 0.081882134 -0.070641674 -0.023957452 -0.11466809 0.067281894 0.08201978
0.15810879 -0.10897415 -0.01724033 0.020447364 -0.07497146 0.19574285 -0.09812116 -0.011209204
-0.08832713 -0.011403549 0.019680915 0.027386049 0.14952146 0.059913505 0.011462297 -0.10361951
-0.0382056 0.18036461 -0.026624953 -0.07862039 -0.0104704695 -0.0076653445 -0.10735486 0.0007737816
-0.11490124 -0.13912217 -0.16176344 0.24365906 -0.24803217 0.067822255 0.011483376 0.04931792
0.14080103 -0.09179237 0.08087054 -0.055215675 0.080859475 0.05816486 -0.046003953 0.035843488
0.06908288 -0.04892258 0.16232912 0.1440742 0.0018451264 -0.082121685 0.055364516 -0.024870878
-0.012447913 0.041565888 0.1213305 0.098901205 -0.08387664 0.020227827 0.010581954 -0.006232474
0.08444817 0.05726241 -0.24705885 0.008383407 0.031893805 0.005753812 0.08496172 0.099144645
00000000: 4281 94bd 27ad f13c fd85 653d 0285 a5bc
00000010: c893 f0bd a7d5 83bd aeee 29be 0394 b2bc
00000020: a082 fd3d 1397 de3d 93c6 213d bfa4 1a3e
00000030: fbb8 cebd 5aea 103e 9afc fbbd 1f5a f83d
00000040: ff93 6e3e a932 833d 9ffc 733d 5db6 3dbe
00000050: 4a8a b2ba ddca bf3d 4d5a ea3c 1b41 253d
00000060: 7b19 bbbd 8a67 ba3d b2a8 2b3c f179 35bc
00000070: 47b7 bbbd b06c 23be 77d0 943d d747 fdbd
00000080: c94d 84bd 43a1 cfbd 54d4 1fbd 596c 11be
00000090: b691 893e c2c0 ed3c f378 c4bd 727d ecbd
000000a0: b150 b2bc afa5 cebd ff48 0abe e722 0cbe
000000b0: bff6 153e 1f95 3e3d d095 123e 5248 00be
000000c0: de2d 363e 786b 823e 690d b1bc da42 ecbd
000000d0: e5b7 dbbd 1319 36bc 62af 7ebd afe0 f0bd
000000e0: f346 0bbe ed08 293e 5f5f 313c 0c74 1b3e
000000f0: 303b f4bc ee1c 0b3e 2738 c2bb 9d53 6e3c
00000100: 70c8 5fbd ffdc f8bc 2273 ebbd ca44 dfbc
00000110: 22e3 c73d 932b 3b3e 89cc 17bc 2308 81be
00000120: fbab e8ba 530d e63d b746 5c3d 95c6 fa3d
00000130: dac7 363e e177 023d 8147 983d 45b3 e2bd
00000140: 7760 f23d 11a5 b33d 3f65 06bd 2943 94bd
00000150: 01fc 00bc ffb1 dcbc 4cf7 95bd 3163 38bb
00000160: f3fb f7bd 1bcd ab3c 9762 8d3d 6641 31be
00000170: 8402 3b3d d4f6 243d 938a 533c dd42 0bbe
00000180: 5349 f6bd 4891 733c 2bb5 03bd 1d1f f3bc
00000190: aeec 493d 07de 48bc 412f 81bd 03e9 c03d
000001a0: 17db 143e fb4b 0fbe 29b5 a1bc 555e a4bd
000001b0: 450f 5e3c 7d1d 8c3d 38ab 25bd ef1c ab3b
000001c0: ad5f b33c bd04 74bd 3be3 10bd b7dd e53b
000001d0: 274c c9bd e571 813d 8bbb 69bd fbd9 5b3d
000001e0: fa34 82bd 6f1b 7abd d354 de3d 2226 783d
000001f0: 308b 6b3b d30e 38be d290 10be 53be 713d
00000200: 2452 a13d 1d02 79be 83ef e9bd 085b f13c
00000210: 1cf1 29bd 3aea 0c3e 1e15 01be 9ef2 243e
00000220: cf70 36bd a71f 623d 9e11 943d 17c9 1e3e
00000230: ef0c 82bd 618e 0f3e da4d 6bbd 28ae 84be
00000240: f21b 29bd 7744 2c3e 5f84 b83d b3e5 30bd
00000250: 0561 f1bb dfff c43d 02e2 efbb 537b 563c
00000260: 5c5a 833c dd7b 653d f707 d03c e570 643d
00000270: a0c4 5cb9 83f6 17be fff2 933d 1b11 2a3e
00000280: f5ca a73d 91a0 183d badf e23d a0e4 5139
00000290: dfea 03be 0f17 013e 6ffa fb3d cfd1 9e3c
000002a0: 1431 133d 6d58 893c faac f4bd 3657 45bd
000002b0: 68a7 5b3d b22b 6e3d 0b22 67bd 4328 2a3d
000002c0: 4764 8ebd a260 f53a 97a5 923d e0f2 15be
000002d0: f517 9b3d 8b17 c6bd 8fc1 5ebd ab88 84bc
000002e0: 8dbb cebd 2539 d63d d2b1 a73d 95ac 90bd
000002f0: 6b42 c4bc 1bd7 eabd 17cb 893d fdf9 a73d
00000300: 45e7 213e d72d dfbd 983b 8dbc 3b81 a73c
00000310: a38a 99bd d070 483e bff3 c8bd cfa6 37bc
00000320: dbe4 b4bd f4d5 3abc df39 a13c b558 e03c
00000330: 271c 193e dd67 753d 5ccc 3b3c 7736 d4bd
00000340: 7a7d 1cbd 80b1 383e 931c dabc ba03 a1bd
00000350: 558c 2bbc 922d fbbb dddc dbbd 9bd7 4a3a
00000360: 5751 ebbd 0b76 0ebe 51a5 25be c381 793e
00000370: 25fc 7dbe 65e6 8a3d c524 3c3c 9601 4a3d
00000380: 252e 103e a3fd bbbd 749f a53d d529 62bd
00000390: a799 a53d 473e 6e3d a46e 3cbd 9fd0 123d
000003a0: 537b 8d3d 0b63 48bd 9b39 263e 3088 133e
000003b0: 2bd8 f13a 6a2f a8bd e7c5 623d 03be cbbc
000003c0: 55f2 4bbc fe40 2a3d 207c f83d b78c ca3d
000003d0: 84c7 abbd d4b4 a53c ef5f 2d3c c839 ccbb
000003e0: 2af3 ac3d fd8b 6a3d fffc 7cbe 8f5a 093c
000003f0: 14a3 023d 798a bc3b 6900 ae3d 590c cb3d
