checkpoints/16_UCB/model_6.pth.tar (torch_old, 418685 bytes, 136 tensors)

l1.weight_mu f4 [800, 29]
000000 88 89 02 3d ae f8 85 3d c3 56 88 bd ad d6 bc bb
       0.03186944 0.065415725 -0.066571735 -0.005762896
000010 a9 3a f6 bd 75 d6 06 3c d1 fe d3 bc 36 1b 45 be
       -0.12022907 0.0082298415 -0.025878342 -0.19248661
000020 2d bb 6d bd 19 54 9f bd b5 fd e3 bd 81 29 28 3e
       -0.058039833 -0.07779712 -0.11132375 0.16422082
000030 eb c0 82 3d 6f 38 a4 3d 35 64 44 3c 48 a3 07 3e
       0.063844524 0.08018576 0.011986782 0.1324588
000040 33 e1 f9 bc e4 01 c9 bd 6f 85 31 3a db 39 71 bd
       -0.030502891 -0.09814814 0.00067718973 -0.058893066
000050 92 90 ed bd e2 de fc bd 7a b4 c8 bd 33 39 00 be
       -0.1159984 -0.12347199 -0.09800048 -0.1252182
000060 12 9d 28 bd 62 42 51 3d 2b d1 0f 3d 95 a1 11 3d
       -0.04116542 0.0510887 0.035111587 0.035554487
000070 d7 2c 93 be 55 bd 12 3e db 83 09 3d f4 4e 34 bc
       -0.28745148 0.14330037 0.033573013 -0.011005152
000080 02 ab 8c bb 95 3a 05 be 35 2a 21 3e d1 bc 06 3e
       -0.0042928467 -0.13010629 0.15738757 0.13157965
000090 92 a7 b3 3d ad e9 86 3c 45 75 af bd 53 59 b5 bd
       0.08772196 0.016468847 -0.08567289 -0.08854928
0000a0 ff 6e fe bd cd 3d 61 bc 79 49 03 be af 12 68 bd
       -0.124235146 -0.013747645 -0.12820996 -0.056658443
0000b0 6c 09 20 3d be 2d ea bd f0 8f e7 bd 45 e2 91 bd
       0.039071485 -0.11434506 -0.11306751 -0.071232356
0000c0 36 a8 23 3d 18 48 88 be 62 99 46 3d 2c 6a 0d be
       0.03995534 -0.26617503 0.04848612 -0.13810033
0000d0 cd 24 99 bd a9 31 20 3d 8f 93 89 bd 44 28 84 bd
       -0.07477722 0.03910986 -0.06717598 -0.064529926
0000e0 fb 5e 61 bd 43 37 ae ba 8c 2c a2 3d f4 3b b9 bd
       -0.05502222 -0.0013291616 0.07918653 -0.09044638
0000f0 24 35 fc 3c 3d 16 82 3d e3 a4 83 3d e6 3e 79 3e
       0.030787058 0.06351898 0.06427934 0.243404
000100 9d d8 99 3d 09 e1 a5 bd c5 af 01 3e 12 47 21 3e
       0.07512019 -0.08099563 0.12664707 0.15749767
000110 3a 3f 85 3d c6 aa 72 3c 74 3a 2b 3d 54 62 ec 3d
       0.065062 0.014811223 0.041803792 0.11542192
000120 53 33 aa 3d 5e 62 3e be b8 6e 85 3d 40 e8 0a 3e
       0.083105706 -0.18592212 0.065152586 0.13565159
000130 f8 55 4e bd 1a 11 df bc 32 f2 21 3e c6 97 4b 3d
       -0.050374955 -0.027229834 0.15815046 0.04970529
000140 7e c7 f8 3c 39 a2 0f 3e 95 16 0e 3e 16 c5 3b 3e
       0.030368563 0.14026727 0.13875802 0.18336901
000150 77 43 62 bd bd 60 d5 3c f0 56 b0 bd 36 7d 8d 3d
       -0.05524012 0.026047105 -0.08610332 0.06908648
000160 2b 96 e9 3d 4b dd 19 3e 62 96 3e be c0 25 c1 3c
       0.114055954 0.15025823 -0.18612054 0.02357757
000170 25 12 97 bd 08 0a 92 bd 2a 54 d1 3a aa fc 28 3d
       -0.07376508 -0.071308196 0.0015970517 0.041256584
000180 1f a8 4b bd 01 56 80 3e 05 81 d1 bd 20 7a 77 3d
       -0.04972088 0.25065616 -0.10229687 0.0604192
000190 52 8f bf 3d 5d ae c1 bd d1 4a c6 bb 74 ee c8 3d
       0.09353508 -0.09457085 -0.0060513993 0.09811106
0001a0 15 a2 bd bc f9 28 3a 3e c6 71 df bd 8d 83 a6 bc
       -0.023148576 0.18179692 -0.109103724 -0.0203264
0001b0 f5 d0 ac bd af 4d da 3b 21 dc e7 3c 47 61 14 be
       -0.08438293 0.0066620926 0.028303208 -0.14490233
0001c0 06 4a 02 be 18 07 35 bd ce d9 e5 bc c6 fa 8e bd
       -0.1272355 -0.04419622 -0.028057959 -0.06981425
0001d0 c8 84 76 bd b3 b0 9b 3d c9 ca 99 bd 00 c7 0a bd
       -0.060185224 0.07602062 -0.07509381 -0.033881187
0001e0 df b9 24 3c 65 e5 17 3d 58 63 91 bd 8e bf 4d be
       0.010054081 0.037084002 -0.070990264 -0.20092604
0001f0 9f ba e7 3d 6a b7 00 be 87 c9 e2 3d 2b dc 83 bd
       0.11314892 -0.12569967 0.110735945 -0.06438478
000200 82 aa 81 3e e1 1d 22 3e 69 80 1a bd 16 86 a2 bd
       0.253254 0.1583171 -0.037720118 -0.07935731
000210 f2 a1 c2 bb ff d9 52 3c e6 81 a2 3d 84 a0 06 be
       -0.0059397155 0.012869357 0.079349324 -0.1314717
000220 49 4a 73 3d 98 f0 38 3d cf a6 c6 3d 97 07 45 be
       0.059397016 0.045151323 0.09699785 -0.19241177
000230 55 94 47 3d e6 2f 34 be b6 12 03 3c 4c fe d8 3d
       0.048725445 -0.17596397 0.0080000665 0.10595378
000240 04 e2 6f bd 5b 66 62 bd ca e8 8d 3d df 74 08 3e
       -0.058565155 -0.055273395 0.069291666 0.13325833
000250 7a 33 5f 3d a6 89 0d be dd af 0a 3e 57 06 22 3d
       0.05449245 -0.1382204 0.13543649 0.039556827
000260 51 85 2e 3e 1e b3 9c 3d a4 a3 5a be 9d 38 1d be
       0.17043044 0.076513514 -0.21351486 -0.15353628
000270 82 ff 05 3d 44 6b 1e 3d b1 f2 cd 3d 92 ac 18 be
       0.032714374 0.038676515 0.10056055 -0.1490958
000280 27 cd 9e bd 1f cf 70 bb 22 05 be ba 19 ac 98 bb
       -0.077539735 -0.0036744548 -0.0014497379 -0.0046591875
000290 37 e6 00 bd 06 a2 1a be 05 89 de 3d 8b b1 a3 3d
       -0.03146955 -0.1510087 0.10865978 0.07992848
0002a0 cb af a0 bd d5 3d 07 be a7 25 0a 3e ce 87 d6 3c
       -0.0784603 -0.13207181 0.13490926 0.026187804
0002b0 0c b8 42 3d 55 35 6e bd 8c 60 88 3d 1d 0f de bd
       0.047538802 -0.05815633 0.0665904 -0.108427264
0002c0 51 cc 21 3d 9e 83 5a be 14 3d ca 3c dd e2 81 3e
       0.039501492 -0.2133927 0.024687327 0.25368395
0002d0 83 68 68 3d 02 ba 01 3b 81 8b 88 3d 0d 7b 2e be
       0.056740295 0.0019794707 0.06667233 -0.17039128
0002e0 c4 a2 af 3d 67 c6 72 bd 68 3b 95 bd 3f 1d 76 3d
       0.08575967 -0.059271242 -0.072867215 0.060086485
0002f0 ea c5 06 3d 16 da d8 bd 29 d6 87 bc 71 0e 4d 3c
       0.03290359 -0.105884716 -0.016581612 0.01251565
000300 0d 4b 1a bd 9b 27 fb 3c c7 7d 82 bd 68 04 a2 bd
       -0.03766923 0.030658534 -0.063716464 -0.07910997
000310 20 e3 06 3e 22 3f a1 ba 6e b3 23 bd f5 83 0c 3e
       0.13172579 -0.001230214 -0.03996604 0.13722213
000320 6b df c9 bd 28 87 f4 bd f3 91 35 be 97 cd 56 bd
       -0.09857067 -0.119398415 -0.17731456 -0.05244216
000330 9f 13 d0 3d 60 a0 a1 3d 5d 21 1c bd 8d 50 39 3c
       0.101599924 0.07891917 -0.038117755 0.011310709
000340 58 66 ee 3c 30 ff a6 3d 6d 2b 00 be 04 32 14 3d
       0.029101536 0.08154142 -0.12516566 0.03618051
000350 bf 5b df bc 84 36 b0 bd 5d 16 96 3d dd bd 61 3c
       -0.027265428 -0.08604148 0.07328484 0.013778177
000360 05 c7 f3 bd a5 39 32 be 67 97 0b 3c d4 6f 35 3e
       -0.11903194 -0.17404802 0.008519984 0.1771844
000370 84 e9 8f 3d 97 de c4 3c 72 ee fc 3d eb 58 5f 3c
       0.070269614 0.02403192 0.12350167 0.01363204
000380 0b 5f 46 be 00 bb b8 3b 72 e5 4f be 3e 81 8b 3d
       -0.19372194 0.0056375265 -0.2030237 0.0681176
000390 76 8c 26 be f5 d7 d6 3d e0 0f da 3d 43 d1 32 bd
       -0.16264519 0.10490409 0.10647559 -0.0436566
0003a0 5f 96 a2 3e 47 15 32 3e 94 c7 58 bd e1 76 c7 bd
       0.3175535 0.17390929 -0.052924708 -0.09739471
0003b0 8a 92 5b bd f8 39 2f be c8 91 68 3d 56 07 01 3d
       -0.053606547 -0.17111957 0.056779653 0.031501137
0003c0 26 10 6b bd 36 57 af 3d 03 3c 4a bd 96 91 02 be
       -0.057388447 0.08561556 -0.049373638 -0.12750849
0003d0 40 0a 8d b9 c8 15 23 be 52 71 26 be 66 d4 d6 3d
       -0.00026901253 -0.15926278 -0.16254166 0.104897305
0003e0 38 e1 03 3d e8 df 23 3d fc 37 a8 bc 18 71 da bd
       0.032197207 0.040008456 -0.020534508 -0.10666102
0003f0 15 c2 48 bd e7 dc 5d bc 79 3e c4 bc 56 eb 80 bd
       -0.049013216 -0.013541437 -0.02395557 -0.06294887

l1.weight_rho f4 [800, 29]
000000 a8 eb 44 c0 16 c7 42 c0 b4 50 40 c0 a9 28 4a c0
       -3.0768833 -3.0434012 -3.0049257 -3.1587317
000010 23 25 45 c0 50 e0 42 c0 7c 67 45 c0 01 8f 41 c0
       -3.0803916 -3.044941 -3.0844412 -3.0243533
000020 4f d4 31 c0 5d d4 38 c0 39 0e 35 c0 bd 72 43 c0
       -2.7785833 -2.8879616 -2.828993 -3.053878
000030 44 9e 3c c0 55 fa 41 c0 29 bb 38 c0 00 2a 40 c0
       -2.9471598 -3.030904 -2.8864233 -3.0025635
000040 45 46 2f c0 47 9d 38 c0 ef 8a 40 c0 bd b3 49 c0
       -2.738664 -2.8845994 -3.0084798 -3.1515954
000050 f0 6e 3e c0 86 25 41 c0 8f c8 3c c0 12 ab 44 c0
       -2.975521 -3.0179152 -2.9497411 -3.0729413
000060 e0 f9 4e c0 bc 2b 3b c0 ae 55 3b c0 8d ea 40 c0
       -3.2340012 -2.9245443 -2.9271045 -3.0143158
000070 f8 24 43 c0 df f1 42 c0 99 e6 45 c0 cd c0 3c c0
       -3.0491314 -3.0460126 -3.0921996 -2.9492676
000080 b6 90 40 c0 11 c3 47 c0 5a 01 47 c0 a2 04 44 c0
       -3.0088325 -3.121281 -3.1094575 -3.0627828
000090 66 ac 3b c0 77 45 3f c0 9d ac 41 c0 4c 43 40 c0
       -2.9323974 -2.9886148 -3.0261605 -3.0041075
0000a0 4b ec 3f c0 36 19 33 c0 42 e1 44 c0 b4 99 3d c0
       -2.9987972 -2.7984138 -3.0762486 -2.9625063
0000b0 1d d4 3b c0 b0 ec 45 c0 74 86 3c c0 b1 00 50 c0
       -2.9348214 -3.0925713 -2.9457064 -3.2500422
0000c0 8e 6a 45 c0 5a 55 44 c0 1b be 47 c0 14 ae 3d c0
       -3.0846286 -3.0677094 -3.120978 -2.96375
0000d0 04 02 3f c0 e5 5e 48 c0 24 b3 3d c0 cb 3d 3b c0
       -2.984498 -3.130792 -2.9640589 -2.9256465
0000e0 2b 32 3c c0 3e fb 46 c0 37 60 3a c0 50 ed 3f c0
       -2.940562 -3.1090846 -2.9121225 -2.9988594
0000f0 d8 fa 3d c0 8b 6d 3c c0 36 87 43 c0 04 bf 46 c0
       -2.9684353 -2.944186 -3.0551276 -3.1054087
000100 c3 82 44 c0 61 75 47 c0 1c d6 4e c0 4b de 46 c0
       -3.070481 -3.1165392 -3.2318182 -3.1073177
000110 43 5f 38 c0 64 0e 40 c0 a1 fd 43 c0 97 d9 41 c0
       -2.8808143 -3.0008783 -3.0623553 -3.0289056
000120 87 0a 37 c0 48 1f 42 c0 a7 50 41 c0 58 87 40 c0
       -2.8600175 -3.0331593 -3.0205476 -3.0082607
000130 2a 44 4c c0 5f 51 42 c0 fe 0e 3e c0 01 fe 48 c0
       -3.1916604 -3.0362165 -2.969665 -3.1405032
000140 ea 09 38 c0 d8 c4 39 c0 70 32 45 c0 3d ad 3e c0
       -2.875605 -2.9026394 -3.0812035 -2.9793236
000150 3e cb 45 c0 c8 12 3a c0 60 24 56 c0 e7 a4 3f c0
       -3.09053 -2.9073963 -3.3459702 -2.9944398
000160 5b a4 45 c0 99 54 3c c0 71 6c 43 c0 9d 22 48 c0
       -3.0881565 -2.9426634 -3.0534937 -3.1271126
000170 ea 63 40 c0 30 43 41 c0 ab 12 3a c0 b8 2c 41 c0
       -3.0060983 -3.0197258 -2.9073894 -3.0183544
000180 23 a0 4c c0 23 d7 41 c0 05 a2 33 c0 c7 19 37 c0
       -3.197274 -3.028756 -2.806764 -2.8609483
000190 92 6e 37 c0 21 e8 3f c0 c8 aa 3d c0 68 92 48 c0
       -2.8661237 -2.998543 -2.9635487 -3.133936
0001a0 cd 0e 41 c0 97 2d 42 c0 88 4f 49 c0 0f 9b 41 c0
       -3.0165284 -3.0340326 -3.1454792 -3.025089
0001b0 67 97 44 c0 17 22 39 c0 e7 94 3c c0 10 bb 3b c0
       -3.0717409 -2.8927057 -2.9465883 -2.9332924
0001c0 af d1 3d c0 1d d9 40 c0 b6 0b 42 c0 45 86 39 c0
       -2.965923 -3.0132515 -3.0319648 -2.8988202
0001d0 24 99 31 c0 b7 d7 45 c0 71 11 41 c0 4b e4 51 c0
       -2.774972 -3.0912912 -3.0166895 -3.279559
0001e0 e2 92 47 c0 15 f1 3f c0 05 f9 37 c0 ab dd 32 c0
       -3.11834 -2.9990895 -2.874574 -2.7947795
0001f0 db 76 42 c0 3a aa 33 c0 d4 52 44 c0 0c 96 45 c0
       -3.0385044 -2.8072648 -3.0675554 -3.0872831
000200 83 ab 43 c0 e8 97 45 c0 3a 55 3d c0 64 4d 3e c0
       -3.0573432 -3.0873966 -2.9583268 -2.9734735
000210 b6 97 42 c0 3d 36 45 c0 43 70 41 c0 a3 11 45 c0
       -3.0405097 -3.0814354 -3.022477 -3.0792015
000220 86 a6 39 c0 17 45 40 c0 c8 e4 48 c0 e8 ef 37 c0
       -2.9007888 -3.004217 -3.1389637 -2.8740177
000230 26 86 3b c0 5e 0e 40 c0 21 9c 37 c0 64 78 3e c0
       -2.9300628 -3.000877 -2.8689044 -2.976098
000240 8a b2 3e c0 3a 76 37 c0 2c 5c 40 c0 4d 0f 41 c0
       -2.9796472 -2.866591 -3.0056257 -3.016559
000250 8b 7c 4c c0 9f ee 33 c0 7e 47 49 c0 3b 17 33 c0
       -3.1951015 -2.8114393 -3.1449885 -2.7982929
000260 2d c9 3b c0 16 cc 3b c0 1d 60 3e c0 a4 e7 3c c0
       -2.9341538 -2.9343314 -2.9746163 -2.9516382
000270 28 ab 3e c0 c9 1c 3d c0 b9 29 38 c0 21 55 42 c0
       -2.9791965 -2.954882 -2.8775465 -3.0364459
000280 d9 4f 42 c0 41 a0 3d c0 07 4e 4a c0 a4 c5 3d c0
       -3.0361235 -2.9629061 -3.1610124 -2.965188
000290 98 45 3f c0 31 3a 42 c0 c6 ca 3e c0 2b fd 3f c0
       -2.9886227 -3.0348017 -2.9811263 -2.9998271
0002a0 17 fb 3a c0 60 02 3b c0 61 95 3f c0 12 4d 3f c0
       -2.9215753 -2.92202 -2.9934924 -2.989079
0002b0 a6 e8 49 c0 5a 91 48 c0 5e 51 33 c0 10 1f 41 c0
       -3.1548247 -3.1338716 -2.8018413 -3.017521
0002c0 6d aa 3f c0 6d 37 46 c0 d8 01 38 c0 0d ec 3f c0
       -2.994777 -3.097133 -2.8751125 -2.9987824
0002d0 31 00 3b c0 ba de 3d c0 ce 5f 3e c0 c6 81 3e c0
       -2.9218867 -2.9667192 -2.9745975 -2.9766707
0002e0 df bc 3c c0 e3 38 3d c0 7b 31 40 c0 79 fa 45 c0
       -2.9490278 -2.956597 -3.00302 -3.0934126
0002f0 46 69 3a c0 ef 16 3e c0 3b c4 3f c0 41 b3 3c c0
       -2.9126754 -2.9701498 -2.996352 -2.9484408
000300 ec 55 3b c0 60 bf 41 c0 4f 37 33 c0 ce b2 37 c0
       -2.9271193 -3.0273056 -2.8002508 -2.8702884
000310 57 c2 43 c0 76 50 40 c0 63 67 3e c0 96 d8 42 c0
       -3.0587366 -3.004911 -2.9750602 -3.0444694
000320 f1 f0 43 c0 5f 74 41 c0 7c 93 44 c0 84 0e 3b c0
       -3.061581 -3.0227277 -3.0715017 -2.922761
000330 f4 45 44 c0 63 14 3e c0 5f 5e 49 c0 f3 e3 44 c0
       -3.0667696 -2.9699943 -3.146385 -3.076413
000340 96 5f 41 c0 1e e6 3f c0 a0 6c 35 c0 df c4 45 c0
       -3.021459 -2.9984202 -2.834755 -3.090141
000350 72 25 3a c0 57 3b 49 c0 7b 84 4b c0 a4 ac 4a c0
       -2.9085355 -3.1442468 -3.179961 -3.1667871
000360 89 36 37 c0 0a 56 3f c0 36 77 3f c0 28 bb 44 c0
       -2.8627036 -2.9896264 -2.991651 -3.073923
000370 c2 30 40 c0 81 e4 47 c0 a4 46 44 c0 71 1d 35 c0
       -3.002976 -3.1233218 -3.0668116 -2.829922
000380 5e 7d 3e c0 6c 3a 4a c0 12 9e 29 c0 66 98 43 c0
       -2.9764018 -3.1598158 -2.6502728 -3.0561767
000390 db e7 38 c0 d3 90 43 c0 3c 07 3e c0 40 c7 47 c0
       -2.8891513 -3.0557144 -2.9691916 -3.1215363
0003a0 bf 52 4b c0 85 a1 43 c0 d2 cd 40 c0 27 51 40 c0
       -3.1769254 -3.0567334 -3.0125623 -3.0049531
0003b0 af 83 3e c0 c3 a0 40 c0 ea 51 43 c0 b4 c8 3c c0
       -2.9767873 -3.009812 -3.0518746 -2.94975
0003c0 c4 2a 47 c0 b0 2a 4e c0 9e 55 3d c0 75 78 3d c0
       -3.1119852 -3.2213554 -2.9583507 -2.960477
0003d0 88 ec 42 c0 bc 63 48 c0 2c 38 40 c0 79 27 44 c0
       -3.0456867 -3.1310873 -3.0034285 -3.0649092
0003e0 42 32 43 c0 68 6d 4a c0 5f 21 46 c0 58 7d 48 c0
       -3.0499425 -3.1629276 -3.0957868 -3.1326504
0003f0 47 1d 48 c0 78 e3 42 c0 06 d5 3c c0 9e c9 35 c0
       -3.126787 -3.0451336 -2.950502 -2.8404307

l1.bias_mu f4 [800]
000000 c6 7c 65 bc 78 be 0b bd 47 5d 8d bc 91 9e 19 3d
       -0.014006799 -0.034117192 -0.017256392 0.037504736
000010 5b 5d 11 3e 02 95 10 3d ee c6 21 bd 27 69 80 3c
       0.14195769 0.035298355 -0.039496355 0.01567514
000020 05 cf 03 3e f6 79 59 bc 02 22 06 bd 00 3b 5b be
       0.1287194 -0.013273707 -0.032747276 -0.21409225
000030 c6 85 90 3d 52 83 7d 3e 94 40 f7 bc c0 45 d1 3d
       0.07056765 0.24757126 -0.03018216 0.10218382
000040 ab 49 a2 bd 34 0b 39 3d eb 73 96 bc 93 13 c1 3c
       -0.07924207 0.0451767 -0.01836582 0.023568904
000050 03 ad 89 bd 0e 33 80 3d 77 72 75 bc e3 74 3b be
       -0.067224525 0.06259738 -0.014980904 -0.18306307
000060 2d 39 0e 3d c7 82 85 3e e5 e4 dc bd ca 10 47 be
       0.034722496 0.26076338 -0.10785846 -0.19439998
000070 8d 6a d4 bd 04 1b 55 3d dc 2e 1e be b3 c0 51 3e
       -0.103718854 0.052027717 -0.15447563 0.20483665
000080 81 44 0a bd 8c f3 2a 3e b4 98 8f 3d b1 c3 53 3e
       -0.033756737 0.16694468 0.07011548 0.20680119
000090 ee 1e 97 bc df 93 a8 3c e7 41 05 3b f4 d0 0f 3e
       -0.018447366 0.020578323 0.002033347 0.14044553
0000a0 ed f9 77 3d 95 a4 d2 bd fa d3 cd bc 5b 7e 2e bc
       0.060541082 -0.10285298 -0.025125492 -0.010650243
0000b0 df af 78 bd 17 bc 30 3d 09 ad a6 3d 88 8b 8d bd
       -0.0607146 0.043148126 0.081384726 -0.06911379
0000c0 55 37 e6 bd 48 1f 10 3b 86 ba f1 3c 97 dc 20 3e
       -0.112410225 0.0021991301 0.029507887 0.15709148
0000d0 fe c5 f6 bd 58 97 1f be 59 81 2d be 52 40 88 3d
       -0.12049483 -0.15585077 -0.16943873 0.06652893
0000e0 07 fb 85 3d c0 a4 14 bd f1 0a 1a 3e 88 ba 5f 3c
       0.0654202 -0.03628993 0.15043236 0.013655312
0000f0 46 f9 20 3e 88 f4 fa bb 90 b7 59 3d de 32 86 bd
       0.1572009 -0.007658545 0.053153574 -0.06552671
000100 5f 6c 1c be 1c e7 7b bc 97 61 a5 3d 40 4c 82 3c
       -0.15275715 -0.015374925 0.080752544 0.0159055
000110 e8 17 da bd b9 25 fa 3c 70 98 0a 3e 3d 35 b2 bd
       -0.10649091 0.030535566 0.13534713 -0.08701561
000120 97 47 1d 3d ea 47 61 bd 1c b2 f5 3c b3 67 b4 bd
       0.03839835 -0.055000223 0.029992156 -0.088088416
000130 ae 26 cb bd c2 f2 d0 3d f0 8a 11 3e ad a2 cb bc
       -0.09919487 0.102025524 0.14213157 -0.024857843
000140 14 92 64 bd 45 e8 4c be 43 ec f5 bd 9d 0c 0f be
       -0.055803373 -0.20010479 -0.12007954 -0.13969655
000150 ce f1 50 bd b2 76 44 bd 5b 90 05 bc 58 25 28 3e
       -0.051011853 -0.04796476 -0.008152093 0.16420496
000160 06 85 6d 3d 80 bc 7c bd 7c 17 82 3d b3 ea 71 3d
       0.05798819 -0.061703205 0.063521355 0.059061717
000170 e2 ab 94 3c cc 7a 1f bd 70 27 aa 3b 16 35 98 bc
       0.018148366 -0.038935468 0.0051926896 -0.01858
000180 0a ed 69 bd c4 02 1a 3d f9 e1 99 3d fb d8 98 3e
       -0.057110824 0.037600294 0.07513804 0.29853043
000190 3c fb 83 3d 0c 0c 08 be d0 84 2b be de 19 c3 bd
       0.064444035 -0.13285846 -0.16749883 -0.09526418
0001a0 35 8a ad 3d 8a 7b 19 be 8a 99 6c be 78 e0 15 be
       0.084736265 -0.14988533 -0.23105446 -0.1463641
0001b0 28 72 e7 3c 5f f1 b9 bc 81 20 a9 3d 50 06 8f bd
       0.028252676 -0.022698103 0.08258153 -0.06983626
0001c0 83 3e 39 be 43 2d da 3e 19 85 ff bd da 8f 13 3e
       -0.18090253 0.42612657 -0.12476558 0.14410344
0001d0 29 2d 03 3e 04 71 d4 3d fc b7 82 bd 3d 49 35 bd
       0.12810196 0.103731185 -0.063827485 -0.0442593
0001e0 d9 6e 0e bc 05 ae 31 3e f3 7e 8e 3d 43 52 13 3d
       -0.00869342 0.1735154 0.069578074 0.035967123
0001f0 3c c8 40 bd 23 c3 d4 bc 5b 40 89 3c d1 a1 75 bd
       -0.04706596 -0.025971955 0.01675432 -0.059968773
000200 bb 83 d9 3c 56 87 e0 3d 8c e7 df bd 00 b6 38 3e
       0.026552072 0.10963313 -0.10932836 0.18038177
000210 82 d6 dd 3b 23 ed b5 3b 90 3f 88 3d 90 bf 4a bd
       0.006769956 0.0055519505 0.066527486 -0.049499094
000220 73 17 b4 bd b1 c2 1f 3e 15 bf 52 39 c0 94 06 be
       -0.08793535 0.15601613 0.00020098344 -0.13142681
000230 be 45 60 be 8f cb df 3d 50 b0 51 bd 15 49 b3 bd
       -0.21901605 0.109274976 -0.051193535 -0.08754174
000240 15 da 1b 3d e5 d2 25 3e f8 6d 76 3d 0e a7 12 3e
       0.038049776 0.16193731 0.060163468 0.14321539
000250 cc 33 92 38 ab 1f d8 3d 44 f4 9d bd ac a6 4b 3e
       6.9714704e-05 0.10552915 -0.077126056 0.19887799
000260 29 d2 23 3d 0a c9 ca bb cc e1 86 3e e4 58 35 be
       0.039995346 -0.0061885165 0.26344144 -0.1770969
000270 e3 58 b6 3c 00 e6 a5 ba e1 1d e5 3d ff 4e 4f bd
       0.022259181 -0.0012657046 0.111873396 -0.050612446
000280 11 39 d4 3b 99 28 1d 3e a9 fe d7 3c 09 5b 25 be
       0.0064765294 0.15347518 0.026366549 -0.16148008
000290 6d 24 2f be 91 93 7b 3d 8c 76 e1 3d eb ca 88 3d
       -0.17103739 0.061420027 0.11008939 0.066793285
0002a0 73 a6 4b 3d 5f cb 24 3d 5d 86 02 3d 3d f4 3c 3e
       0.049719285 0.040233012 0.03186642 0.18452545
0002b0 6c 38 5e 3c 0d da d0 bd 84 2f 24 3e 39 3d 23 bd
       0.013563257 -0.1019784 0.16033751 -0.03985331
0002c0 d7 95 27 3d fc 7c 12 3e 73 d6 c8 3d 91 74 1c 3d
       0.040914383 0.1430549 0.09806528 0.038197104
0002d0 4e 81 4c 3d 65 4f af bd 85 1c 4a bd 01 a9 52 be
       0.049928002 -0.08560065 -0.049343605 -0.20572282
0002e0 ce 5e 63 be 69 dc 81 be b7 66 90 3d b5 ac 68 be
       -0.22204134 -0.25363472 0.07050841 -0.22722133
0002f0 4b 8d ba 3d f0 74 27 bd b0 27 94 3c f6 9d 14 bd
       0.09108981 -0.040883005 0.01808533 -0.036283456
000300 3c 18 0b bd 05 cf 32 be 25 d5 c8 bd e3 d3 cd bc
       -0.03395866 -0.17461784 -0.09806279 -0.02512545
000310 a7 99 ab 3d bf 91 5e be a3 2c c8 bd 03 95 0a bd
       0.08378916 -0.21735285 -0.09774139 -0.033833515
000320 26 4e 95 3d 69 67 60 3d 1b 46 13 be 06 c9 e7 bc
       0.07290296 0.05478612 -0.14382212 -0.028294098
000330 db b3 49 be b4 4b 19 bd 3e 9a b1 bd 76 18 a0 bd
       -0.19697516 -0.03742571 -0.086719975 -0.078171656
000340 3d 6f 79 bd ca fd 8f ba aa d6 13 3d 85 51 2b 3e
       -0.0608971 -0.0010985669 0.03609339 0.16730316
000350 f1 70 bc bd cf 58 50 be cb 77 df bd 33 0d db bd
       -0.09201229 -0.20346378 -0.109115206 -0.10695877
000360 bf 08 bc 3c 2d 2b 58 3d c0 bc d0 bd 58 0f a8 3d
       0.02295339 0.05277555 -0.10192251 0.082060516
000370 ab 96 8e 3c 8a b8 2a 3b f9 5b 41 bc 0d 0a 33 3e
       0.017405828 0.0026049935 -0.011801713 0.17484303
000380 c2 f7 06 bd 85 1a 87 bc 2b 34 af bd ac 8a d0 bd
       -0.032951124 -0.016492138 -0.08554872 -0.101826996
000390 50 5a ce bd 26 d9 9f bd dd eb dd 3a ce 2e 7c 3d
       -0.100758195 -0.0780509 0.0016931255 0.061568074
0003a0 0c 32 33 be 9e b0 e3 3d 3b 7e 05 bd b4 66 a1 3d
       -0.1749956 0.111176714 -0.032591086 0.07880917
0003b0 66 29 a2 bd 5d 17 02 3c 71 39 a1 3d f9 61 ff bd
       -0.079180524 0.007940141 0.07872284 -0.12469859
0003c0 e4 7b c2 bd 5f ff 1c 3c ea cf 33 3e 9b d4 64 3c
       -0.094962865 0.00958237 0.17559782 0.013966705
0003d0 27 64 27 3e e5 8d 4b 3e b1 d7 ee 3c af c3 0a bd
       0.16346799 0.19878347 0.029155584 -0.033878025
0003e0 71 60 62 3d 10 87 b0 bd c4 fa 76 3d 7a 65 44 3c
       0.055267755 -0.08619511 0.060297742 0.0119870845
0003f0 cd 59 64 bd 5c 5e 27 be 20 ef 0c bd 96 86 51 bd
       -0.055749703 -0.16344589 -0.034407735 -0.05115374

l1.bias_rho f4 [800]
000000 bd 09 4b c0 53 9b 3d c0 40 97 3c c0 5f b0 44 c0
       -3.1724694 -2.9626052 -2.9467316 -3.0732648
000010 b9 16 3e c0 8f f5 49 c0 6a d3 3f c0 74 e6 40 c0
       -2.970137 -3.1556127 -2.9972787 -3.0140657
000020 c0 5c 41 c0 44 6b 42 c0 e7 e9 3f c0 5e 67 46 c0
       -3.021286 -3.037797 -2.9986513 -3.100059
000030 2a 4c 3f c0 bf 73 3f c0 cb 9a 33 c0 9f 23 44 c0
       -2.9890237 -2.9914396 -2.8063228 -3.0646741
000040 c8 28 41 c0 2b 98 43 c0 71 f1 4d c0 a2 dc 37 c0
       -3.018114 -3.0561626 -3.2178614 -2.8728414
000050 da 3d 34 c0 a4 b4 43 c0 38 d4 44 c0 92 0f 3b c0
       -2.8162751 -3.0579004 -3.0754528 -2.9228253
000060 a5 da 4e c0 39 80 3e c0 31 be 42 c0 ef 3d 48 c0
       -3.232095 -2.976576 -3.0428584 -3.1287801
000070 a8 2a 42 c0 b1 22 48 c0 c4 63 35 c0 e4 3e 40 c0
       -3.0338535 -3.1271174 -2.8342142 -3.0038385
000080 84 a1 42 c0 cf 08 48 c0 79 a6 39 c0 04 80 42 c0
       -3.0411081 -3.1255376 -2.9007857 -3.0390635
000090 f2 64 43 c0 de b7 47 c0 9e aa 43 c0 38 bd 4b c0
       -3.0530362 -3.1205974 -3.0572886 -3.183424
0000a0 0d eb 3b c0 fc 4f 46 c0 ea 16 30 c0 a2 98 3c c0
       -2.9362214 -3.0986319 -2.7513986 -2.946816
0000b0 af cf 46 c0 2f aa 44 c0 f9 cf 45 c0 eb a4 43 c0
       -3.106426 -3.0728872 -3.0908186 -3.0569408
0000c0 e0 03 3d c0 eb 35 45 c0 e4 c9 40 c0 3b 16 3c c0
       -2.9533615 -3.081416 -3.0123224 -2.9388568
0000d0 43 98 43 c0 8e a7 42 c0 95 20 39 c0 40 76 3c c0
       -3.0561683 -3.0414767 -2.8926136 -2.9447174
0000e0 cc 4c 3b c0 26 b4 43 c0 ca 07 46 c0 19 dc 32 c0
       -2.9265623 -3.0578704 -3.0942254 -2.7946837
0000f0 27 61 3d c0 27 ac 3a c0 da a8 47 c0 1e 55 43 c0
       -2.9590547 -2.9167573 -3.119681 -3.0520701
000100 c3 c4 3d c0 fd 0d 49 c0 23 05 3f c0 63 ab 3f c0
       -2.9651344 -3.1414788 -2.9846885 -2.9948356
000110 37 d5 3b c0 79 e8 37 c0 8b 50 43 c0 ca a0 45 c0
       -2.9348886 -2.873564 -3.051791 -3.0879388
000120 e9 69 3a c0 91 a7 40 c0 81 35 46 c0 9c 5b 37 c0
       -2.9127142 -3.0102274 -3.0970156 -2.8649664
000130 d2 8f 39 c0 da 32 3e c0 b2 20 35 c0 35 42 3c c0
       -2.899403 -2.9718537 -2.8301206 -2.941541
000140 6f 8b 4a c0 89 da 4b c0 d6 10 45 c0 af 5b 43 c0
       -3.1647604 -3.1852133 -3.0791526 -3.052471
000150 c0 0f 45 c0 99 49 3a c0 c2 80 2f c0 82 d1 3c c0
       -3.0790863 -2.910742 -2.7422338 -2.9502873
000160 b5 d5 3b c0 a2 1e 3f c0 d8 4e 46 c0 58 10 3d c0
       -2.9349186 -2.9862447 -3.0985622 -2.9541225
000170 1f 48 3f c0 98 83 3a c0 aa 5a 43 c0 4f 2f 40 c0
       -2.988777 -2.9142818 -3.0524087 -3.0028875
000180 19 ae 40 c0 32 3a 3f c0 d2 31 41 c0 df 35 3a c0
       -3.010626 -2.987927 -3.0186658 -2.909538
000190 fe fd 39 c0 00 ef 3b c0 53 ab 3e c0 52 92 46 c0
       -2.9061275 -2.9364624 -2.9792068 -3.1026807
0001a0 8e 13 3f c0 be 5c 47 c0 91 68 39 c0 e4 af 40 c0
       -2.9855685 -3.1150355 -2.8970072 -3.0107355
0001b0 e7 52 3f c0 20 4c 43 c0 c8 1f 3c c0 84 ff 3a c0
       -2.989435 -3.0515213 -2.9394398 -2.9218454
0001c0 5f ff 3a c0 53 91 3e c0 1d c1 43 c0 c2 fd 36 c0
       -2.9218366 -2.97762 -3.0586617 -2.8592381
0001d0 65 b6 44 c0 68 d3 42 c0 28 66 49 c0 65 ff 4e c0
       -3.0736325 -3.0441532 -3.1468601 -3.234338
0001e0 5c 0c 41 c0 8a 56 35 c0 d0 43 37 c0 bd 1d 43 c0
       -3.0163794 -2.833407 -2.863514 -3.04869
0001f0 03 b2 41 c0 f1 1c 3f c0 f4 d2 38 c0 c2 68 3f c0
       -3.02649 -2.9861414 -2.8878756 -2.990769
000200 16 dc 3c c0 30 63 42 c0 86 51 4c c0 4b 4e 3f c0
       -2.950933 -3.037304 -3.1924758 -2.9891536
000210 a2 e5 3c c0 ec 4c 47 c0 c8 aa 30 c0 66 f5 43 c0
       -2.9515157 -3.11407 -2.7604237 -3.061853
000220 49 f3 49 c0 f8 c1 45 c0 3c bd 35 c0 28 8f 36 c0
       -3.155474 -3.089964 -2.839675 -2.8524876
000230 59 d3 40 c0 d6 be 49 c0 8b 81 40 c0 c3 24 43 c0
       -3.0128996 -3.1522727 -3.0079067 -3.0491188
000240 1d 9e 47 c0 b8 81 3d c0 71 75 3d c0 35 86 42 c0
       -3.1190255 -2.9610424 -2.960293 -3.0394413
000250 16 3c 39 c0 a1 54 3a c0 ad 4a 4b c0 77 0a 48 c0
       -2.8942924 -2.9114153 -3.1764328 -3.1256387
000260 d3 8c 4a c0 27 b3 43 c0 48 32 3d c0 09 3a 3e c0
       -3.1648452 -3.0578096 -2.956194 -2.9722922
000270 79 ad 37 c0 31 bb 45 c0 b7 36 44 c0 e7 59 3f c0
       -2.869963 -3.0895503 -3.0658395 -2.9898622
000280 49 3a 45 c0 ea 85 3e c0 11 33 3f c0 77 9a 3d c0
       -3.0816824 -2.9769235 -2.9874918 -2.9625528
000290 01 0d 48 c0 0e f8 42 c0 8e 5a 41 c0 b4 87 44 c0
       -3.1257937 -3.04639 -3.021152 -3.0707827
0002a0 7e e1 46 c0 c4 95 39 c0 10 79 41 c0 33 b1 3b c0
       -3.107513 -2.899766 -3.023014 -2.9326904
0002b0 45 ab 4a c0 16 ed 3c c0 bb 52 44 c0 70 e0 42 c0
       -3.1667035 -2.9519706 -3.0675495 -3.0449486
0002c0 0e c2 3c c0 92 79 3f c0 a3 2f 4b c0 90 36 44 c0
       -2.9493442 -2.991795 -3.1747825 -3.0658302
0002d0 17 04 46 c0 b3 59 38 c0 d5 bd 3b c0 ac 70 46 c0
       -3.0939996 -2.8804748 -2.9334614 -3.100627
0002e0 aa e5 40 c0 7c c8 3d c0 0c bd 46 c0 9d 07 4a c0
       -3.0140176 -2.9653616 -3.1052885 -3.1567147
0002f0 01 17 39 c0 0e 03 31 c0 a8 bb 48 c0 57 8a 43 c0
       -2.892029 -2.7658114 -3.1364536 -3.0553186
000300 41 1b 38 c0 3a 3b 3d c0 40 da 3d c0 ab c7 3a c0
       -2.8766634 -2.95674 -2.966446 -2.9184368
000310 32 42 3e c0 07 2b 41 c0 90 63 41 c0 b9 3d 3e c0
       -2.9727902 -3.0182512 -3.0217018 -2.9725173
000320 32 b0 3f c0 ac 05 3d c0 8a 6f 3e c0 61 e1 40 c0
       -2.995129 -2.9534712 -2.9755578 -3.013756
000330 d1 9b 3e c0 5a ba 43 c0 e8 b1 48 c0 2c 37 3f c0
       -2.9782603 -3.058249 -3.1358585 -2.9877424
000340 53 80 40 c0 52 24 3b c0 c8 91 47 c0 69 aa 43 c0
       -3.0078323 -2.9240918 -3.1182728 -3.057276
000350 a5 9c 3a c0 c1 63 39 c0 e7 2f 3a c0 8c 00 3a c0
       -2.9158108 -2.8967135 -2.9091737 -2.9062834
000360 7e f5 4a c0 18 51 3b c0 0b 02 49 c0 a5 9b 40 c0
       -3.1712337 -2.9268246 -3.1407497 -3.0094998
000370 3c 15 3a c0 fc d0 48 c0 cc 7f 43 c0 69 af 2e c0
       -2.907546 -3.1377554 -3.054675 -2.7294562
000380 db bf 40 c0 ac 89 44 c0 77 e5 49 c0 1b 50 40 c0
       -3.01171 -3.0709028 -3.1546304 -3.0048892
000390 12 6b 4a c0 d7 2d 44 c0 d5 3f 38 c0 57 79 3b c0
       -3.162785 -3.0652978 -2.878896 -2.929281
0003a0 bc 04 39 c0 dd 42 42 c0 79 ce 46 c0 dd 42 39 c0
       -2.890914 -3.035331 -3.106352 -2.894706
0003b0 8d d9 42 c0 ed 58 41 c0 8f c8 3a c0 c6 44 3e c0
       -3.0445282 -3.0210526 -2.9184911 -2.9729476
0003c0 d4 dc 37 c0 f1 20 39 c0 f1 6d 3e c0 96 8f 3a c0
       -2.8728533 -2.8926356 -2.9754603 -2.9150138
0003d0 aa 3c 39 c0 7f 3a 40 c0 28 ee 3e c0 45 65 37 c0
       -2.8943276 -3.0035703 -2.983286 -2.865556
0003e0 f9 61 39 c0 55 9f 36 c0 db be 43 c0 87 78 42 c0
       -2.8966048 -2.8534749 -3.058524 -3.0386064
0003f0 e4 54 40 c0 0c c6 49 c0 ea 20 3c c0 3b 51 3c c0
       -3.0051813 -3.1527128 -2.939509 -2.942458

l1.weight.mu f4 [800, 29]
000000 88 89 02 3d ae f8 85 3d c3 56 88 bd ad d6 bc bb
       0.03186944 0.065415725 -0.066571735 -0.005762896
000010 a9 3a f6 bd 75 d6 06 3c d1 fe d3 bc 36 1b 45 be
       -0.12022907 0.0082298415 -0.025878342 -0.19248661
000020 2d bb 6d bd 19 54 9f bd b5 fd e3 bd 81 29 28 3e
       -0.058039833 -0.07779712 -0.11132375 0.16422082
000030 eb c0 82 3d 6f 38 a4 3d 35 64 44 3c 48 a3 07 3e
       0.063844524 0.08018576 0.011986782 0.1324588
000040 33 e1 f9 bc e4 01 c9 bd 6f 85 31 3a db 39 71 bd
       -0.030502891 -0.09814814 0.00067718973 -0.058893066
000050 92 90 ed bd e2 de fc bd 7a b4 c8 bd 33 39 00 be
       -0.1159984 -0.12347199 -0.09800048 -0.1252182
000060 12 9d 28 bd 62 42 51 3d 2b d1 0f 3d 95 a1 11 3d
       -0.04116542 0.0510887 0.035111587 0.035554487
000070 d7 2c 93 be 55 bd 12 3e db 83 09 3d f4 4e 34 bc
       -0.28745148 0.14330037 0.033573013 -0.011005152
000080 02 ab 8c bb 95 3a 05 be 35 2a 21 3e d1 bc 06 3e
       -0.0042928467 -0.13010629 0.15738757 0.13157965
000090 92 a7 b3 3d ad e9 86 3c 45 75 af bd 53 59 b5 bd
       0.08772196 0.016468847 -0.08567289 -0.08854928
0000a0 ff 6e fe bd cd 3d 61 bc 79 49 03 be af 12 68 bd
       -0.124235146 -0.013747645 -0.12820996 -0.056658443
0000b0 6c 09 20 3d be 2d ea bd f0 8f e7 bd 45 e2 91 bd
       0.039071485 -0.11434506 -0.11306751 -0.071232356
0000c0 36 a8 23 3d 18 48 88 be 62 99 46 3d 2c 6a 0d be
       0.03995534 -0.26617503 0.04848612 -0.13810033
0000d0 cd 24 99 bd a9 31 20 3d 8f 93 89 bd 44 28 84 bd
       -0.07477722 0.03910986 -0.06717598 -0.064529926
0000e0 fb 5e 61 bd 43 37 ae ba 8c 2c a2 3d f4 3b b9 bd
       -0.05502222 -0.0013291616 0.07918653 -0.09044638
0000f0 24 35 fc 3c 3d 16 82 3d e3 a4 83 3d e6 3e 79 3e
       0.030787058 0.06351898 0.06427934 0.243404
000100 9d d8 99 3d 09 e1 a5 bd c5 af 01 3e 12 47 21 3e
       0.07512019 -0.08099563 0.12664707 0.15749767
000110 3a 3f 85 3d c6 aa 72 3c 74 3a 2b 3d 54 62 ec 3d
       0.065062 0.014811223 0.041803792 0.11542192
000120 53 33 aa 3d 5e 62 3e be b8 6e 85 3d 40 e8 0a 3e
       0.083105706 -0.18592212 0.065152586 0.13565159
000130 f8 55 4e bd 1a 11 df bc 32 f2 21 3e c6 97 4b 3d
       -0.050374955 -0.027229834 0.15815046 0.04970529
000140 7e c7 f8 3c 39 a2 0f 3e 95 16 0e 3e 16 c5 3b 3e
       0.030368563 0.14026727 0.13875802 0.18336901
000150 77 43 62 bd bd 60 d5 3c f0 56 b0 bd 36 7d 8d 3d
       -0.05524012 0.026047105 -0.08610332 0.06908648
000160 2b 96 e9 3d 4b dd 19 3e 62 96 3e be c0 25 c1 3c
       0.114055954 0.15025823 -0.18612054 0.02357757
000170 25 12 97 bd 08 0a 92 bd 2a 54 d1 3a aa fc 28 3d
       -0.07376508 -0.071308196 0.0015970517 0.041256584
000180 1f a8 4b bd 01 56 80 3e 05 81 d1 bd 20 7a 77 3d
       -0.04972088 0.25065616 -0.10229687 0.0604192
000190 52 8f bf 3d 5d ae c1 bd d1 4a c6 bb 74 ee c8 3d
       0.09353508 -0.09457085 -0.0060513993 0.09811106
0001a0 15 a2 bd bc f9 28 3a 3e c6 71 df bd 8d 83 a6 bc
       -0.023148576 0.18179692 -0.109103724 -0.0203264
0001b0 f5 d0 ac bd af 4d da 3b 21 dc e7 3c 47 61 14 be
       -0.08438293 0.0066620926 0.028303208 -0.14490233
0001c0 06 4a 02 be 18 07 35 bd ce d9 e5 bc c6 fa 8e bd
       -0.1272355 -0.04419622 -0.028057959 -0.06981425
0001d0 c8 84 76 bd b3 b0 9b 3d c9 ca 99 bd 00 c7 0a bd
       -0.060185224 0.07602062 -0.07509381 -0.033881187
0001e0 df b9 24 3c 65 e5 17 3d 58 63 91 bd 8e bf 4d be
       0.010054081 0.037084002 -0.070990264 -0.20092604
0001f0 9f ba e7 3d 6a b7 00 be 87 c9 e2 3d 2b dc 83 bd
       0.11314892 -0.12569967 0.110735945 -0.06438478
000200 82 aa 81 3e e1 1d 22 3e 69 80 1a bd 16 86 a2 bd
       0.253254 0.1583171 -0.037720118 -0.07935731
000210 f2 a1 c2 bb ff d9 52 3c e6 81 a2 3d 84 a0 06 be
       -0.0059397155 0.012869357 0.079349324 -0.1314717
000220 49 4a 73 3d 98 f0 38 3d cf a6 c6 3d 97 07 45 be
       0.059397016 0.045151323 0.09699785 -0.19241177
000230 55 94 47 3d e6 2f 34 be b6 12 03 3c 4c fe d8 3d
       0.048725445 -0.17596397 0.0080000665 0.10595378
000240 04 e2 6f bd 5b 66 62 bd ca e8 8d 3d df 74 08 3e
       -0.058565155 -0.055273395 0.069291666 0.13325833
000250 7a 33 5f 3d a6 89 0d be dd af 0a 3e 57 06 22 3d
       0.05449245 -0.1382204 0.13543649 0.039556827
000260 51 85 2e 3e 1e b3 9c 3d a4 a3 5a be 9d 38 1d be
       0.17043044 0.076513514 -0.21351486 -0.15353628
000270 82 ff 05 3d 44 6b 1e 3d b1 f2 cd 3d 92 ac 18 be
       0.032714374 0.038676515 0.10056055 -0.1490958
000280 27 cd 9e bd 1f cf 70 bb 22 05 be ba 19 ac 98 bb
       -0.077539735 -0.0036744548 -0.0014497379 -0.0046591875
000290 37 e6 00 bd 06 a2 1a be 05 89 de 3d 8b b1 a3 3d
       -0.03146955 -0.1510087 0.10865978 0.07992848
0002a0 cb af a0 bd d5 3d 07 be a7 25 0a 3e ce 87 d6 3c
       -0.0784603 -0.13207181 0.13490926 0.026187804
0002b0 0c b8 42 3d 55 35 6e bd 8c 60 88 3d 1d 0f de bd
       0.047538802 -0.05815633 0.0665904 -0.108427264
0002c0 51 cc 21 3d 9e 83 5a be 14 3d ca 3c dd e2 81 3e
       0.039501492 -0.2133927 0.024687327 0.25368395
0002d0 83 68 68 3d 02 ba 01 3b 81 8b 88 3d 0d 7b 2e be
       0.056740295 0.0019794707 0.06667233 -0.17039128
0002e0 c4 a2 af 3d 67 c6 72 bd 68 3b 95 bd 3f 1d 76 3d
       0.08575967 -0.059271242 -0.072867215 0.060086485
0002f0 ea c5 06 3d 16 da d8 bd 29 d6 87 bc 71 0e 4d 3c
       0.03290359 -0.105884716 -0.016581612 0.01251565
000300 0d 4b 1a bd 9b 27 fb 3c c7 7d 82 bd 68 04 a2 bd
       -0.03766923 0.030658534 -0.063716464 -0.07910997
000310 20 e3 06 3e 22 3f a1 ba 6e b3 23 bd f5 83 0c 3e
       0.13172579 -0.001230214 -0.03996604 0.13722213
000320 6b df c9 bd 28 87 f4 bd f3 91 35 be 97 cd 56 bd
       -0.09857067 -0.119398415 -0.17731456 -0.05244216
000330 9f 13 d0 3d 60 a0 a1 3d 5d 21 1c bd 8d 50 39 3c
       0.101599924 0.07891917 -0.038117755 0.011310709
000340 58 66 ee 3c 30 ff a6 3d 6d 2b 00 be 04 32 14 3d
       0.029101536 0.08154142 -0.12516566 0.03618051
000350 bf 5b df bc 84 36 b0 bd 5d 16 96 3d dd bd 61 3c
       -0.027265428 -0.08604148 0.07328484 0.013778177
000360 05 c7 f3 bd a5 39 32 be 67 97 0b 3c d4 6f 35 3e
       -0.11903194 -0.17404802 0.008519984 0.1771844
000370 84 e9 8f 3d 97 de c4 3c 72 ee fc 3d eb 58 5f 3c
       0.070269614 0.02403192 0.12350167 0.01363204
000380 0b 5f 46 be 00 bb b8 3b 72 e5 4f be 3e 81 8b 3d
       -0.19372194 0.0056375265 -0.2030237 0.0681176
000390 76 8c 26 be f5 d7 d6 3d e0 0f da 3d 43 d1 32 bd
       -0.16264519 0.10490409 0.10647559 -0.0436566
0003a0 5f 96 a2 3e 47 15 32 3e 94 c7 58 bd e1 76 c7 bd
       0.3175535 0.17390929 -0.052924708 -0.09739471
0003b0 8a 92 5b bd f8 39 2f be c8 91 68 3d 56 07 01 3d
       -0.053606547 -0.17111957 0.056779653 0.031501137
0003c0 26 10 6b bd 36 57 af 3d 03 3c 4a bd 96 91 02 be
       -0.057388447 0.08561556 -0.049373638 -0.12750849
0003d0 40 0a 8d b9 c8 15 23 be 52 71 26 be 66 d4 d6 3d
       -0.00026901253 -0.15926278 -0.16254166 0.104897305
0003e0 38 e1 03 3d e8 df 23 3d fc 37 a8 bc 18 71 da bd
       0.032197207 0.040008456 -0.020534508 -0.10666102
0003f0 15 c2 48 bd e7 dc 5d bc 79 3e c4 bc 56 eb 80 bd
       -0.049013216 -0.013541437 -0.02395557 -0.06294887

l1.weight.rho f4 [800, 29]
000000 a8 eb 44 c0 16 c7 42 c0 b4 50 40 c0 a9 28 4a c0
       -3.0768833 -3.0434012 -3.0049257 -3.1587317
000010 23 25 45 c0 50 e0 42 c0 7c 67 45 c0 01 8f 41 c0
       -3.0803916 -3.044941 -3.0844412 -3.0243533
000020 4f d4 31 c0 5d d4 38 c0 39 0e 35 c0 bd 72 43 c0
       -2.7785833 -2.8879616 -2.828993 -3.053878
000030 44 9e 3c c0 55 fa 41 c0 29 bb 38 c0 00 2a 40 c0
       -2.9471598 -3.030904 -2.8864233 -3.0025635
000040 45 46 2f c0 47 9d 38 c0 ef 8a 40 c0 bd b3 49 c0
       -2.738664 -2.8845994 -3.0084798 -3.1515954
000050 f0 6e 3e c0 86 25 41 c0 8f c8 3c c0 12 ab 44 c0
       -2.975521 -3.0179152 -2.9497411 -3.0729413
000060 e0 f9 4e c0 bc 2b 3b c0 ae 55 3b c0 8d ea 40 c0
       -3.2340012 -2.9245443 -2.9271045 -3.0143158
000070 f8 24 43 c0 df f1 42 c0 99 e6 45 c0 cd c0 3c c0
       -3.0491314 -3.0460126 -3.0921996 -2.9492676
000080 b6 90 40 c0 11 c3 47 c0 5a 01 47 c0 a2 04 44 c0
       -3.0088325 -3.121281 -3.1094575 -3.0627828
000090 66 ac 3b c0 77 45 3f c0 9d ac 41 c0 4c 43 40 c0
       -2.9323974 -2.9886148 -3.0261605 -3.0041075
0000a0 4b ec 3f c0 36 19 33 c0 42 e1 44 c0 b4 99 3d c0
       -2.9987972 -2.7984138 -3.0762486 -2.9625063
0000b0 1d d4 3b c0 b0 ec 45 c0 74 86 3c c0 b1 00 50 c0
       -2.9348214 -3.0925713 -2.9457064 -3.2500422
0000c0 8e 6a 45 c0 5a 55 44 c0 1b be 47 c0 14 ae 3d c0
       -3.0846286 -3.0677094 -3.120978 -2.96375
0000d0 04 02 3f c0 e5 5e 48 c0 24 b3 3d c0 cb 3d 3b c0
       -2.984498 -3.130792 -2.9640589 -2.9256465
0000e0 2b 32 3c c0 3e fb 46 c0 37 60 3a c0 50 ed 3f c0
       -2.940562 -3.1090846 -2.9121225 -2.9988594
0000f0 d8 fa 3d c0 8b 6d 3c c0 36 87 43 c0 04 bf 46 c0
       -2.9684353 -2.944186 -3.0551276 -3.1054087
000100 c3 82 44 c0 61 75 47 c0 1c d6 4e c0 4b de 46 c0
       -3.070481 -3.1165392 -3.2318182 -3.1073177
000110 43 5f 38 c0 64 0e 40 c0 a1 fd 43 c0 97 d9 41 c0
       -2.8808143 -3.0008783 -3.0623553 -3.0289056
000120 87 0a 37 c0 48 1f 42 c0 a7 50 41 c0 58 87 40 c0
       -2.8600175 -3.0331593 -3.0205476 -3.0082607
000130 2a 44 4c c0 5f 51 42 c0 fe 0e 3e c0 01 fe 48 c0
       -3.1916604 -3.0362165 -2.969665 -3.1405032
000140 ea 09 38 c0 d8 c4 39 c0 70 32 45 c0 3d ad 3e c0
       -2.875605 -2.9026394 -3.0812035 -2.9793236
000150 3e cb 45 c0 c8 12 3a c0 60 24 56 c0 e7 a4 3f c0
       -3.09053 -2.9073963 -3.3459702 -2.9944398
000160 5b a4 45 c0 99 54 3c c0 71 6c 43 c0 9d 22 48 c0
       -3.0881565 -2.9426634 -3.0534937 -3.1271126
000170 ea 63 40 c0 30 43 41 c0 ab 12 3a c0 b8 2c 41 c0
       -3.0060983 -3.0197258 -2.9073894 -3.0183544
000180 23 a0 4c c0 23 d7 41 c0 05 a2 33 c0 c7 19 37 c0
       -3.197274 -3.028756 -2.806764 -2.8609483
000190 92 6e 37 c0 21 e8 3f c0 c8 aa 3d c0 68 92 48 c0
       -2.8661237 -2.998543 -2.9635487 -3.133936
0001a0 cd 0e 41 c0 97 2d 42 c0 88 4f 49 c0 0f 9b 41 c0
       -3.0165284 -3.0340326 -3.1454792 -3.025089
0001b0 67 97 44 c0 17 22 39 c0 e7 94 3c c0 10 bb 3b c0
       -3.0717409 -2.8927057 -2.9465883 -2.9332924
0001c0 af d1 3d c0 1d d9 40 c0 b6 0b 42 c0 45 86 39 c0
       -2.965923 -3.0132515 -3.0319648 -2.8988202
0001d0 24 99 31 c0 b7 d7 45 c0 71 11 41 c0 4b e4 51 c0
       -2.774972 -3.0912912 -3.0166895 -3.279559
0001e0 e2 92 47 c0 15 f1 3f c0 05 f9 37 c0 ab dd 32 c0
       -3.11834 -2.9990895 -2.874574 -2.7947795
0001f0 db 76 42 c0 3a aa 33 c0 d4 52 44 c0 0c 96 45 c0
       -3.0385044 -2.8072648 -3.0675554 -3.0872831
000200 83 ab 43 c0 e8 97 45 c0 3a 55 3d c0 64 4d 3e c0
       -3.0573432 -3.0873966 -2.9583268 -2.9734735
000210 b6 97 42 c0 3d 36 45 c0 43 70 41 c0 a3 11 45 c0
       -3.0405097 -3.0814354 -3.022477 -3.0792015
000220 86 a6 39 c0 17 45 40 c0 c8 e4 48 c0 e8 ef 37 c0
       -2.9007888 -3.004217 -3.1389637 -2.8740177
000230 26 86 3b c0 5e 0e 40 c0 21 9c 37 c0 64 78 3e c0
       -2.9300628 -3.000877 -2.8689044 -2.976098
000240 8a b2 3e c0 3a 76 37 c0 2c 5c 40 c0 4d 0f 41 c0
       -2.9796472 -2.866591 -3.0056257 -3.016559
000250 8b 7c 4c c0 9f ee 33 c0 7e 47 49 c0 3b 17 33 c0
       -3.1951015 -2.8114393 -3.1449885 -2.7982929
000260 2d c9 3b c0 16 cc 3b c0 1d 60 3e c0 a4 e7 3c c0
       -2.9341538 -2.9343314 -2.9746163 -2.9516382
000270 28 ab 3e c0 c9 1c 3d c0 b9 29 38 c0 21 55 42 c0
       -2.9791965 -2.954882 -2.8775465 -3.0364459
000280 d9 4f 42 c0 41 a0 3d c0 07 4e 4a c0 a4 c5 3d c0
       -3.0361235 -2.9629061 -3.1610124 -2.965188
000290 98 45 3f c0 31 3a 42 c0 c6 ca 3e c0 2b fd 3f c0
       -2.9886227 -3.0348017 -2.9811263 -2.9998271
0002a0 17 fb 3a c0 60 02 3b c0 61 95 3f c0 12 4d 3f c0
       -2.9215753 -2.92202 -2.9934924 -2.989079
0002b0 a6 e8 49 c0 5a 91 48 c0 5e 51 33 c0 10 1f 41 c0
       -3.1548247 -3.1338716 -2.8018413 -3.017521
0002c0 6d aa 3f c0 6d 37 46 c0 d8 01 38 c0 0d ec 3f c0
       -2.994777 -3.097133 -2.8751125 -2.9987824
0002d0 31 00 3b c0 ba de 3d c0 ce 5f 3e c0 c6 81 3e c0
       -2.9218867 -2.9667192 -2.9745975 -2.9766707
0002e0 df bc 3c c0 e3 38 3d c0 7b 31 40 c0 79 fa 45 c0
       -2.9490278 -2.956597 -3.00302 -3.0934126
0002f0 46 69 3a c0 ef 16 3e c0 3b c4 3f c0 41 b3 3c c0
       -2.9126754 -2.9701498 -2.996352 -2.9484408
000300 ec 55 3b c0 60 bf 41 c0 4f 37 33 c0 ce b2 37 c0
       -2.9271193 -3.0273056 -2.8002508 -2.8702884
000310 57 c2 43 c0 76 50 40 c0 63 67 3e c0 96 d8 42 c0
       -3.0587366 -3.004911 -2.9750602 -3.0444694
000320 f1 f0 43 c0 5f 74 41 c0 7c 93 44 c0 84 0e 3b c0
       -3.061581 -3.0227277 -3.0715017 -2.922761
000330 f4 45 44 c0 63 14 3e c0 5f 5e 49 c0 f3 e3 44 c0
       -3.0667696 -2.9699943 -3.146385 -3.076413
000340 96 5f 41 c0 1e e6 3f c0 a0 6c 35 c0 df c4 45 c0
       -3.021459 -2.9984202 -2.834755 -3.090141
000350 72 25 3a c0 57 3b 49 c0 7b 84 4b c0 a4 ac 4a c0
       -2.9085355 -3.1442468 -3.179961 -3.1667871
000360 89 36 37 c0 0a 56 3f c0 36 77 3f c0 28 bb 44 c0
       -2.8627036 -2.9896264 -2.991651 -3.073923
000370 c2 30 40 c0 81 e4 47 c0 a4 46 44 c0 71 1d 35 c0
       -3.002976 -3.1233218 -3.0668116 -2.829922
000380 5e 7d 3e c0 6c 3a 4a c0 12 9e 29 c0 66 98 43 c0
       -2.9764018 -3.1598158 -2.6502728 -3.0561767
000390 db e7 38 c0 d3 90 43 c0 3c 07 3e c0 40 c7 47 c0
       -2.8891513 -3.0557144 -2.9691916 -3.1215363
0003a0 bf 52 4b c0 85 a1 43 c0 d2 cd 40 c0 27 51 40 c0
       -3.1769254 -3.0567334 -3.0125623 -3.0049531
0003b0 af 83 3e c0 c3 a0 40 c0 ea 51 43 c0 b4 c8 3c c0
       -2.9767873 -3.009812 -3.0518746 -2.94975
0003c0 c4 2a 47 c0 b0 2a 4e c0 9e 55 3d c0 75 78 3d c0
       -3.1119852 -3.2213554 -2.9583507 -2.960477
0003d0 88 ec 42 c0 bc 63 48 c0 2c 38 40 c0 79 27 44 c0
       -3.0456867 -3.1310873 -3.0034285 -3.0649092
0003e0 42 32 43 c0 68 6d 4a c0 5f 21 46 c0 58 7d 48 c0
       -3.0499425 -3.1629276 -3.0957868 -3.1326504
0003f0 47 1d 48 c0 78 e3 42 c0 06 d5 3c c0 9e c9 35 c0
       -3.126787 -3.0451336 -2.950502 -2.8404307

l1.bias.mu f4 [800]
000000 c6 7c 65 bc 78 be 0b bd 47 5d 8d bc 91 9e 19 3d
       -0.014006799 -0.034117192 -0.017256392 0.037504736
000010 5b 5d 11 3e 02 95 10 3d ee c6 21 bd 27 69 80 3c
       0.14195769 0.035298355 -0.039496355 0.01567514
000020 05 cf 03 3e f6 79 59 bc 02 22 06 bd 00 3b 5b be
       0.1287194 -0.013273707 -0.032747276 -0.21409225
000030 c6 85 90 3d 52 83 7d 3e 94 40 f7 bc c0 45 d1 3d
       0.07056765 0.24757126 -0.03018216 0.10218382
000040 ab 49 a2 bd 34 0b 39 3d eb 73 96 bc 93 13 c1 3c
       -0.07924207 0.0451767 -0.01836582 0.023568904
000050 03 ad 89 bd 0e 33 80 3d 77 72 75 bc e3 74 3b be
       -0.067224525 0.06259738 -0.014980904 -0.18306307
000060 2d 39 0e 3d c7 82 85 3e e5 e4 dc bd ca 10 47 be
       0.034722496 0.26076338 -0.10785846 -0.19439998
000070 8d 6a d4 bd 04 1b 55 3d dc 2e 1e be b3 c0 51 3e
       -0.103718854 0.052027717 -0.15447563 0.20483665
000080 81 44 0a bd 8c f3 2a 3e b4 98 8f 3d b1 c3 53 3e
       -0.033756737 0.16694468 0.07011548 0.20680119
000090 ee 1e 97 bc df 93 a8 3c e7 41 05 3b f4 d0 0f 3e
       -0.018447366 0.020578323 0.002033347 0.14044553
0000a0 ed f9 77 3d 95 a4 d2 bd fa d3 cd bc 5b 7e 2e bc
       0.060541082 -0.10285298 -0.025125492 -0.010650243
0000b0 df af 78 bd 17 bc 30 3d 09 ad a6 3d 88 8b 8d bd
       -0.0607146 0.043148126 0.081384726 -0.06911379
0000c0 55 37 e6 bd 48 1f 10 3b 86 ba f1 3c 97 dc 20 3e
       -0.112410225 0.0021991301 0.029507887 0.15709148
0000d0 fe c5 f6 bd 58 97 1f be 59 81 2d be 52 40 88 3d
       -0.12049483 -0.15585077 -0.16943873 0.06652893
0000e0 07 fb 85 3d c0 a4 14 bd f1 0a 1a 3e 88 ba 5f 3c
       0.0654202 -0.03628993 0.15043236 0.013655312
0000f0 46 f9 20 3e 88 f4 fa bb 90 b7 59 3d de 32 86 bd
       0.1572009 -0.007658545 0.053153574 -0.06552671
000100 5f 6c 1c be 1c e7 7b bc 97 61 a5 3d 40 4c 82 3c
       -0.15275715 -0.015374925 0.080752544 0.0159055
000110 e8 17 da bd b9 25 fa 3c 70 98 0a 3e 3d 35 b2 bd
       -0.10649091 0.030535566 0.13534713 -0.08701561
000120 97 47 1d 3d ea 47 61 bd 1c b2 f5 3c b3 67 b4 bd
       0.03839835 -0.055000223 0.029992156 -0.088088416
000130 ae 26 cb bd c2 f2 d0 3d f0 8a 11 3e ad a2 cb bc
       -0.09919487 0.102025524 0.14213157 -0.024857843
000140 14 92 64 bd 45 e8 4c be 43 ec f5 bd 9d 0c 0f be
       -0.055803373 -0.20010479 -0.12007954 -0.13969655
000150 ce f1 50 bd b2 76 44 bd 5b 90 05 bc 58 25 28 3e
       -0.051011853 -0.04796476 -0.008152093 0.16420496
000160 06 85 6d 3d 80 bc 7c bd 7c 17 82 3d b3 ea 71 3d
       0.05798819 -0.061703205 0.063521355 0.059061717
000170 e2 ab 94 3c cc 7a 1f bd 70 27 aa 3b 16 35 98 bc
       0.018148366 -0.038935468 0.0051926896 -0.01858
000180 0a ed 69 bd c4 02 1a 3d f9 e1 99 3d fb d8 98 3e
       -0.057110824 0.037600294 0.07513804 0.29853043
000190 3c fb 83 3d 0c 0c 08 be d0 84 2b be de 19 c3 bd
       0.064444035 -0.13285846 -0.16749883 -0.09526418
0001a0 35 8a ad 3d 8a 7b 19 be 8a 99 6c be 78 e0 15 be
       0.084736265 -0.14988533 -0.23105446 -0.1463641
0001b0 28 72 e7 3c 5f f1 b9 bc 81 20 a9 3d 50 06 8f bd
       0.028252676 -0.022698103 0.08258153 -0.06983626
0001c0 83 3e 39 be 43 2d da 3e 19 85 ff bd da 8f 13 3e
       -0.18090253 0.42612657 -0.12476558 0.14410344
0001d0 29 2d 03 3e 04 71 d4 3d fc b7 82 bd 3d 49 35 bd
       0.12810196 0.103731185 -0.063827485 -0.0442593
0001e0 d9 6e 0e bc 05 ae 31 3e f3 7e 8e 3d 43 52 13 3d
       -0.00869342 0.1735154 0.069578074 0.035967123
0001f0 3c c8 40 bd 23 c3 d4 bc 5b 40 89 3c d1 a1 75 bd
       -0.04706596 -0.025971955 0.01675432 -0.059968773
000200 bb 83 d9 3c 56 87 e0 3d 8c e7 df bd 00 b6 38 3e
       0.026552072 0.10963313 -0.10932836 0.18038177
000210 82 d6 dd 3b 23 ed b5 3b 90 3f 88 3d 90 bf 4a bd
       0.006769956 0.0055519505 0.066527486 -0.049499094
000220 73 17 b4 bd b1 c2 1f 3e 15 bf 52 39 c0 94 06 be
       -0.08793535 0.15601613 0.00020098344 -0.13142681
000230 be 45 60 be 8f cb df 3d 50 b0 51 bd 15 49 b3 bd
       -0.21901605 0.109274976 -0.051193535 -0.08754174
000240 15 da 1b 3d e5 d2 25 3e f8 6d 76 3d 0e a7 12 3e
       0.038049776 0.16193731 0.060163468 0.14321539
000250 cc 33 92 38 ab 1f d8 3d 44 f4 9d bd ac a6 4b 3e
       6.9714704e-05 0.10552915 -0.077126056 0.19887799
000260 29 d2 23 3d 0a c9 ca bb cc e1 86 3e e4 58 35 be
       0.039995346 -0.0061885165 0.26344144 -0.1770969
000270 e3 58 b6 3c 00 e6 a5 ba e1 1d e5 3d ff 4e 4f bd
       0.022259181 -0.0012657046 0.111873396 -0.050612446
000280 11 39 d4 3b 99 28 1d 3e a9 fe d7 3c 09 5b 25 be
       0.0064765294 0.15347518 0.026366549 -0.16148008
000290 6d 24 2f be 91 93 7b 3d 8c 76 e1 3d eb ca 88 3d
       -0.17103739 0.061420027 0.11008939 0.066793285
0002a0 73 a6 4b 3d 5f cb 24 3d 5d 86 02 3d 3d f4 3c 3e
       0.049719285 0.040233012 0.03186642 0.18452545
0002b0 6c 38 5e 3c 0d da d0 bd 84 2f 24 3e 39 3d 23 bd
       0.013563257 -0.1019784 0.16033751 -0.03985331
0002c0 d7 95 27 3d fc 7c 12 3e 73 d6 c8 3d 91 74 1c 3d
       0.040914383 0.1430549 0.09806528 0.038197104
0002d0 4e 81 4c 3d 65 4f af bd 85 1c 4a bd 01 a9 52 be
       0.049928002 -0.08560065 -0.049343605 -0.20572282
0002e0 ce 5e 63 be 69 dc 81 be b7 66 90 3d b5 ac 68 be
       -0.22204134 -0.25363472 0.07050841 -0.22722133
0002f0 4b 8d ba 3d f0 74 27 bd b0 27 94 3c f6 9d 14 bd
       0.09108981 -0.040883005 0.01808533 -0.036283456
000300 3c 18 0b bd 05 cf 32 be 25 d5 c8 bd e3 d3 cd bc
       -0.03395866 -0.17461784 -0.09806279 -0.02512545
000310 a7 99 ab 3d bf 91 5e be a3 2c c8 bd 03 95 0a bd
       0.08378916 -0.21735285 -0.09774139 -0.033833515
000320 26 4e 95 3d 69 67 60 3d 1b 46 13 be 06 c9 e7 bc
       0.07290296 0.05478612 -0.14382212 -0.028294098
000330 db b3 49 be b4 4b 19 bd 3e 9a b1 bd 76 18 a0 bd
       -0.19697516 -0.03742571 -0.086719975 -0.078171656
000340 3d 6f 79 bd ca fd 8f ba aa d6 13 3d 85 51 2b 3e
       -0.0608971 -0.0010985669 0.03609339 0.16730316
000350 f1 70 bc bd cf 58 50 be cb 77 df bd 33 0d db bd
       -0.09201229 -0.20346378 -0.109115206 -0.10695877
000360 bf 08 bc 3c 2d 2b 58 3d c0 bc d0 bd 58 0f a8 3d
       0.02295339 0.05277555 -0.10192251 0.082060516
000370 ab 96 8e 3c 8a b8 2a 3b f9 5b 41 bc 0d 0a 33 3e
       0.017405828 0.0026049935 -0.011801713 0.17484303
000380 c2 f7 06 bd 85 1a 87 bc 2b 34 af bd ac 8a d0 bd
       -0.032951124 -0.016492138 -0.08554872 -0.101826996
000390 50 5a ce bd 26 d9 9f bd dd eb dd 3a ce 2e 7c 3d
       -0.100758195 -0.0780509 0.0016931255 0.061568074
0003a0 0c 32 33 be 9e b0 e3 3d 3b 7e 05 bd b4 66 a1 3d
       -0.1749956 0.111176714 -0.032591086 0.07880917
0003b0 66 29 a2 bd 5d 17 02 3c 71 39 a1 3d f9 61 ff bd
       -0.079180524 0.007940141 0.07872284 -0.12469859
0003c0 e4 7b c2 bd 5f ff 1c 3c ea cf 33 3e 9b d4 64 3c
       -0.094962865 0.00958237 0.17559782 0.013966705
0003d0 27 64 27 3e e5 8d 4b 3e b1 d7 ee 3c af c3 0a bd
       0.16346799 0.19878347 0.029155584 -0.033878025
0003e0 71 60 62 3d 10 87 b0 bd c4 fa 76 3d 7a 65 44 3c
       0.055267755 -0.08619511 0.060297742 0.0119870845
0003f0 cd 59 64 bd 5c 5e 27 be 20 ef 0c bd 96 86 51 bd
       -0.055749703 -0.16344589 -0.034407735 -0.05115374
