checkpoints_16_tasks/16_task_groups_PUGCL_epochs_:200_lr_:0.1_hidden_:600_task_order_:[15  3 14  1  9 13 12  6  0  2  8  5  7 10 11  4]/model_3.pth.tar (torch_old, 319485 bytes, 136 tensors)

l1.weight_mu f4 [600, 29]
0	0xbcf736ca	-0.030177493
1	0x3d13fa15	0.03612717
2	0xbca28359	-0.019838022
3	0xbda0fb9b	-0.0786049
4	0x3c1163fd	0.008873937
5	0xbe5f3357	-0.21796928
6	0xbbb06c99	-0.0053840396
7	0xbd2181f9	-0.039430592
8	0xbd90fe2d	-0.0707973
9	0x3e3063a3	0.17225508
10	0xbe2488c9	-0.16067804
11	0x3dc78530	0.097422004
12	0xbdeb509b	-0.11489984
13	0x3d812102	0.06305124
14	0xb9b7b4ab	-0.00035039088
15	0xbda59498	-0.08084983
16	0xbd45d3c2	-0.04829765
17	0xbd637102	-0.055527695
18	0x3d08f921	0.033440713
19	0xbb6d10a9	-0.003617326
20	0xbde284ad	-0.11060462
21	0xbd937c86	-0.07201485
22	0x3e4f15e8	0.202232
23	0xbd6fb2ea	-0.058520235
24	0x3e455513	0.19270734
25	0xbe676981	-0.2259884
26	0x3de17658	0.110089004
27	0xbd9a51cf	-0.07535135
28	0x3d4e639f	0.050387975
29	0xbe72a9c8	-0.23697579
30	0xbe10abc8	-0.1412803
31	0xbe039c7c	-0.12852663
32	0x3c215af9	0.00984835
33	0x3b97daba	0.0046342285
34	0xbe561e5a	-0.20910016
35	0xbd232841	-0.03983331
36	0xbdd407af	-0.10353028
37	0xbd2ddfed	-0.04244988
38	0xbd332267	-0.04373398
39	0xbd89ee14	-0.06734863
40	0x3db03590	0.08603966
41	0x3d84108d	0.06448469
42	0x3da1a955	0.07893626
43	0xbda5ccd4	-0.080957085
44	0x3db21cf3	0.08696928
45	0xbd7430e1	-0.059616927
46	0x3d52aa2b	0.051431816
47	0xbdbbf187	-0.09176927
48	0xbe2ea262	-0.17054132
49	0x3c39e585	0.011346226
50	0x3d36ac97	0.04459819
51	0xbde849b0	-0.1134218
52	0x3db4c074	0.0882577
53	0x3c4149de	0.0117973965
54	0xbe29d9d2	-0.16586998
55	0xbd95206e	-0.07281576
56	0xbdbbbd49	-0.09166963
57	0xbc21dcab	-0.0098792715
58	0x3db499a5	0.08818368
59	0xbe096b27	-0.13419782
60	0xbe120520	-0.14259768
61	0xbe4f3059	-0.20233287
62	0xbcdcfdf8	-0.02697657
63	0x3e162b22	0.14664891
64	0x3dcf03f5	0.101081766
65	0xbd19583a	-0.037437655
66	0xbd4fe665	-0.05075683
67	0xbd6d9beb	-0.058010023
68	0x3d5c7b30	0.05382842
69	0xbd99ef5b	-0.075163566
70	0x3c6cac6d	0.014445406
71	0x3e25bcab	0.16185252
72	0xbe06dae1	-0.13169433
73	0x3e0f1f9e	0.13976905
74	0xbdaa396f	-0.08311736
75	0xbcc274bd	-0.023737306
76	0x3e411fdf	0.18859814
77	0xbe0f4d11	-0.13994242
78	0x3d6b7c22	0.05749143
79	0xbd31f87f	-0.043449875
80	0xbdea2d19	-0.11434383
81	0xbdd4c2e1	-0.10388733
82	0xbde9f84b	-0.11424311
83	0xbda2c39e	-0.07947467
84	0x3c8cd3d8	0.017190859
85	0x3e1e9dfa	0.15489951
86	0x3d8f3347	0.06992202
87	0x3e0d8109	0.13818754
88	0x3dc2735b	0.094946586
89	0x3e2c2599	0.16811217
90	0xbd36acc2	-0.04459835
91	0x3e846d4a	0.2586463
92	0x3dd3934c	0.10330829
93	0x3c08a286	0.00833953
94	0xbc1758a1	-0.009237439
95	0xbd05e69f	-0.03269064
96	0x3da2dcc9	0.07952268
97	0x3baa4d9f	0.0051972414
98	0x3d956b7b	0.07295891
99	0xbe1d31af	-0.15350984
100	0x3d3d1fae	0.04617279
101	0xbd2d56cc	-0.042319104
102	0xbd54dff5	-0.051971395
103	0xbdd6702f	-0.10470616
104	0xbdd2427e	-0.10266589
105	0xbca01bd6	-0.019544523
106	0xbdae2864	-0.08503798
107	0xbcee7491	-0.029108318
108	0x3d9f109d	0.077668406
109	0x3b92e2f8	0.004482623
110	0x3bde1c45	0.0067782723
111	0x3d6d9708	0.058005363
112	0x3d2995b1	0.041402522
113	0xbbbde110	-0.005794652
114	0x3dd5a3fc	0.10431668
115	0xbc470b8d	-0.01214875
116	0x3b18c1bd	0.0023308836
117	0x3add453a	0.0016881593
118	0x3dd51132	0.1040367
119	0xbe4617ca	-0.19345012
120	0xbcfa5fc8	-0.03056325
121	0xbe8d1773	-0.27556953
122	0x3cc3110b	0.023811838
123	0x3e260490	0.16212678
124	0xbde9e39c	-0.11420366
125	0x3def225b	0.11676475
126	0x3c60abd1	0.013712839
127	0x3cd858df	0.026409565
128	0xbcfa5249	-0.030556815
129	0x3e0143d4	0.1262353
130	0xbc76d212	-0.015064733
131	0xbda83176	-0.08212559
132	0xbda08ab1	-0.07838953
133	0xbe0ef30f	-0.13959907
134	0x3da95375	0.08267871
135	0xbdd5ffb6	-0.104491636
136	0xbd999b47	-0.0750032
137	0x3d349e9a	0.044096567
138	0x3e0dd8e5	0.1385227
139	0x3cf6096f	0.030033795
140	0xbd7673be	-0.060168974
141	0x3dca6072	0.09881677
142	0xbe3296ed	-0.17440386
143	0xbd9d98ee	-0.07695185
144	0xbe017de3	-0.12645678
145	0xbdc1b25e	-0.09457849
146	0x3dc09839	0.09404034
147	0xbc9cc414	-0.019136466
148	0x3e34a738	0.17641914
149	0x3c86fbc9	0.016477482
150	0xbcf28450	-0.029604107
151	0x3cc4269a	0.023944188
152	0xbc7f44d3	-0.015580374
153	0xbd70f6c6	-0.05882909
154	0xbda093e2	-0.078407064
155	0xbda29fa7	-0.079406075
156	0x3d9af51d	0.07566283
157	0x3d8f4ca4	0.0699704
158	0x3d6b2499	0.05740795
159	0xbda91859	-0.08256597
160	0xbd80fc8a	-0.06298168
161	0x3da1df79	0.07903952
162	0xbd122423	-0.035678994
163	0x3ac59e32	0.0015077053
164	0x3cf02b0b	0.0293174
165	0x3d234c4d	0.039867688
166	0xbe06a666	-0.13149413
167	0xbdd172a7	-0.10226946
168	0xbda63edb	-0.081174575
169	0xbe2a78e9	-0.16647686
170	0xb8b69512	-8.706203e-05
171	0xbd619fe5	-0.055084128
172	0xbe0593b2	-0.13044623
173	0x3c1550c9	0.009113499
174	0x3d39ffcc	0.045409963
175	0xbd47af22	-0.048751004
176	0x3cce4bd9	0.025182651
177	0xbb8a5f14	-0.00422276
178	0xbe0965f7	-0.13417803
179	0x3d52fac4	0.05150868
180	0x3e6673f6	0.22505173
181	0xbd8fed04	-0.07027629
182	0x3dcd7bd4	0.10033384
183	0x3e20101b	0.15631144
184	0x3de18675	0.11011974
185	0xbd828828	-0.06373626
186	0xbd3094a8	-0.04311052
187	0x3db739a1	0.08946539
188	0x3e04b446	0.12959394
189	0x3d2803ff	0.041019436
190	0xbdb521a0	-0.08844304
191	0x3deee46f	0.11664664
192	0x3e074ef8	0.13213718
193	0xbcb78a31	-0.022404762
194	0x3dffd617	0.12492006
195	0x3c4a0389	0.012329944
196	0x3d6768a6	0.056496285
197	0xbdbb8b16	-0.09157388
198	0x3d8cf795	0.0688316
199	0x3d85fab9	0.06541962
200	0x3d9804eb	0.07422813
201	0x3e2586ae	0.16164657
202	0xbdeeb426	-0.11655454
203	0x3e2685aa	0.16261926
204	0x3d14c445	0.03631999
205	0x3cbf3ebe	0.023345347
206	0xbc3f5839	-0.011678749
207	0x3dab7508	0.08371931
208	0x3d372625	0.04471411
209	0xbda6878c	-0.08131322
210	0xbd05fa46	-0.032709382
211	0xbd10c6df	-0.03534591
212	0x3e7fd54a	0.24983707
213	0xbd0fad64	-0.035077468
214	0x3e2abd90	0.16673875
215	0x3e93f4c3	0.28897676
216	0xbd9898ae	-0.07450996
217	0x3e001edb	0.1251177
218	0xbd2b1c40	-0.04177499
219	0x3d5ab781	0.05339766
220	0xbc9298a1	-0.017895045
221	0xbc5d9b8d	-0.013525856
222	0xbccd7b8a	-0.025083322
223	0xbde9de5f	-0.11419367
224	0xbd88866f	-0.06666266
225	0xbd453634	-0.048147395
226	0xbcfe80c8	-0.031067267
227	0xbdb6c1ea	-0.08923705
228	0xbd629aa0	-0.055323243
229	0xbddadd55	-0.10686747
230	0xbcd0da77	-0.025494797
231	0xbdfbfff9	-0.12304682
232	0xbcf61e1a	-0.03004365
233	0xbde285be	-0.110606655
234	0x3e5648c5	0.20926197
235	0xbe3ceba9	-0.18449272
236	0xbe1d7e32	-0.15380171
237	0x3c06cf5a	0.008228147
238	0x3da1dd1b	0.07903501
239	0x3e648e78	0.22319973
240	0xbda0c801	-0.07850648
241	0x3d10e073	0.0353703
242	0xbd071166	-0.032975577
243	0x3db1ed8e	0.08687888
244	0x3d04357f	0.03227758
245	0x3cae99e3	0.021313613
246	0x3e7b66f2	0.2455099
247	0x3d4509fb	0.04810522
248	0xbe11707b	-0.14203064
249	0x3da6be46	0.081417605
250	0xbe4277bd	-0.18990989
251	0x3dc369e4	0.095416814
252	0x3d86aa60	0.06575465
253	0x3d4b3d13	0.04961879
254	0x3e54bb0b	0.20774476
255	0xbc9cd0d4	-0.019142546

l1.weight_rho f4 [600, 29]
0	0xc03dc65d	-2.9652321
1	0xc045e7b4	-3.092267
2	0xc0458ced	-3.0867264
3	0xc03f1735	-2.9857914
4	0xc03f5940	-2.9898224
5	0xc0400e51	-3.0008738
6	0xc03bd48a	-2.9348474
7	0xc03b04fe	-2.9221797
8	0xc041ce5f	-3.028221
9	0xc04a1aa3	-3.1578758
10	0xc03d640a	-2.959231
11	0xc047a1af	-3.1192434
12	0xc0348b8f	-2.821018
13	0xc03af610	-2.9212685
14	0xc0347359	-2.8195403
15	0xc04d4da6	-3.2078643
16	0xc0383cfe	-2.8787227
17	0xc044743a	-3.069594
18	0xc0393383	-2.893769
19	0xc03ec363	-2.9806755
20	0xc03c1769	-2.9389288
21	0xc041f45b	-3.0305393
22	0xc04ba7c1	-3.182114
23	0xc047af86	-3.120088
24	0xc039e76c	-2.9047499
25	0xc039a2a3	-2.9005516
26	0xc0420520	-3.0315628
27	0xc0463973	-3.0972564
28	0xc03bafff	-2.932617
29	0xc043ae6a	-3.0575204
30	0xc03d65ab	-2.9593303
31	0xc045cd3c	-3.0906515
32	0xc03c4b53	-2.9420974
33	0xc03eaeb8	-2.979414
34	0xc038b8f5	-2.886289
35	0xc03fb5ed	-2.9954789
36	0xc0450091	-3.0781596
37	0xc0387625	-2.882211
38	0xc0466de1	-3.1004565
39	0xc042a778	-3.0414715
40	0xc04203d7	-3.0314844
41	0xc03c53af	-2.9426076
42	0xc0464218	-3.097784
43	0xc03bdbf9	-2.935301
44	0xc0471e68	-3.1112309
45	0xc03ac321	-2.9181597
46	0xc037b7ab	-2.8705852
47	0xc036b301	-2.8546755
48	0xc03c96a5	-2.9466946
49	0xc04b32f8	-3.174986
50	0xc03daedb	-2.9637973
51	0xc0496ece	-3.147388
52	0xc040e006	-3.0136733
53	0xc0433970	-3.0503807
54	0xc03fa72d	-2.9945786
55	0xc041f2c0	-3.0304413
56	0xc03d413e	-2.957107
57	0xc03d4ebc	-2.9579306
58	0xc03ceff3	-2.9521453
59	0xc040588e	-3.005405
60	0xc03cd939	-2.9507582
61	0xc044506b	-3.0674083
62	0xc03725d4	-2.8616838
63	0xc0425b01	-3.0368044
64	0xc04103e6	-3.015863
65	0xc047a99e	-3.1197276
66	0xc03a6618	-2.9124813
67	0xc03cf960	-2.9527206
68	0xc03d6fbf	-2.9599454
69	0xc0445732	-3.067822
70	0xc0428a0b	-3.0396755
71	0xc03d2ed2	-2.9559827
72	0xc042a44d	-3.0412781
73	0xc044c459	-3.074484
74	0xc03c8b68	-2.9460087
75	0xc042408a	-3.0351892
76	0xc042bd98	-3.042822
77	0xc03e03f5	-2.9689915
78	0xc03e0549	-2.9690726
79	0xc03ca901	-2.9478152
80	0xc03c749a	-2.9446168
81	0xc044fa57	-3.0777795
82	0xc036d569	-2.8567755
83	0xc039a305	-2.900575
84	0xc03aef43	-2.9208534
85	0xc0449ef3	-3.0722015
86	0xc03c718f	-2.944431
87	0xc0450222	-3.0782552
88	0xc03bece6	-2.9363341
89	0xc0392ff5	-2.893552
90	0xc03f338d	-2.9875214
91	0xc044128b	-3.0636318
92	0xc03cb3fa	-2.948485
93	0xc04a7620	-3.1634598
94	0xc03a2a65	-2.9088376
95	0xc0331d63	-2.7986686
96	0xc0356648	-2.8343678
97	0xc0384c67	-2.8796632
98	0xc037d227	-2.8722017
99	0xc0359891	-2.837437
100	0xc043779f	-3.054176
101	0xc035610f	-2.834049
102	0xc045226b	-3.0802257
103	0xc03df83f	-2.9682767
104	0xc03ae7f5	-2.9204075
105	0xc03fcdf9	-2.9969466
106	0xc0376f82	-2.866181
107	0xc03e5f72	-2.9745755
108	0xc0426344	-3.0373087
109	0xc03ea769	-2.978968
110	0xc03c23fd	-2.9396966
111	0xc03de361	-2.967003
112	0xc046d4f6	-3.106748
113	0xc03ae6f8	-2.9203472
114	0xc03e62c5	-2.9747784
115	0xc03bcd0d	-2.9343903
116	0xc044bae9	-3.073908
117	0xc04095b3	-3.009137
118	0xc03eb1ca	-2.9796014
119	0xc0480725	-3.125436
120	0xc04419c9	-3.0640738
121	0xc03754ea	-2.8645577
122	0xc03ba40f	-2.9318883
123	0xc04020d0	-3.0020027
124	0xc045f013	-3.092778
125	0xc03e3248	-2.971819
126	0xc04538e7	-3.081598
127	0xc03d5382	-2.958222
128	0xc044f0a9	-3.0771887
129	0xc03ef02f	-2.9834096
130	0xc0456f4a	-3.0849175
131	0xc03c9e85	-2.9471753
132	0xc0357cfc	-2.8357534
133	0xc0402d2d	-3.0027573
134	0xc0315f25	-2.7714322
135	0xc04a2fdc	-3.159171
136	0xc0378f71	-2.86813
137	0xc03f73f8	-2.9914532
138	0xc040c6e5	-3.0121396
139	0xc0460fac	-3.0947065
140	0xc03296d1	-2.790455
141	0xc040eb8a	-3.0143762
142	0xc04896c6	-3.1342025
143	0xc03c01d7	-2.9376123
144	0xc042e361	-3.045128
145	0xc041d2be	-3.0284877
146	0xc0404af3	-3.0045745
147	0xc0420d70	-3.0320702
148	0xc0398e2f	-2.8993032
149	0xc0465430	-3.0988884
150	0xc04173cf	-3.0226934
151	0xc04d2d04	-3.2058725
152	0xc035cfc7	-2.8408067
153	0xc039dc26	-2.9040618
154	0xc043fc61	-3.062279
155	0xc04078e0	-3.0073776
156	0xc03a53f1	-2.9113734
157	0xc044e465	-3.07644
158	0xc0347d00	-2.8201294
159	0xc035bd69	-2.8396857
160	0xc0392b5f	-2.8932722
161	0xc0473695	-3.1127064
162	0xc045758a	-3.085299
163	0xc04697c5	-3.1030133
164	0xc03a74f9	-2.9133894
165	0xc0381f06	-2.8768935
166	0xc03b6633	-2.9281127
167	0xc03e4e52	-2.9735303
168	0xc03ff083	-2.9990547
169	0xc047745e	-3.1164775
170	0xc03b4008	-2.9257832
171	0xc037db66	-2.872766
172	0xc03f5695	-2.9896595
173	0xc045aa1f	-3.0885084
174	0xc03b6811	-2.9282267
175	0xc036c15e	-2.8555522
176	0xc03c55e2	-2.9427419
177	0xc040f83f	-3.0151517
178	0xc041b84a	-3.026873
179	0xc039f76f	-2.9057271
180	0xc03de442	-2.9670568
181	0xc03dc0ae	-2.9648852
182	0xc0391407	-2.8918474
183	0xc03f177a	-2.985808
184	0xc0421b52	-3.0329175
185	0xc03cc576	-2.949552
186	0xc04a7d2d	-3.1638901
187	0xc03ccdec	-2.9500685
188	0xc032b974	-2.7925692
189	0xc0337cfc	-2.8045034
190	0xc04770d5	-3.1162617
191	0xc03fba6a	-2.9957528
192	0xc044a907	-3.0728166
193	0xc03e8e13	-2.9774215
194	0xc0362a53	-2.8463333
195	0xc036ab0f	-2.8541906
196	0xc039a92c	-2.9009504
197	0xc03bff58	-2.93746
198	0xc043df45	-3.0605023
199	0xc049198e	-3.1421847
200	0xc04628db	-3.0962436
201	0xc03d5918	-2.9585629
202	0xc0468b31	-3.1022456
203	0xc0484149	-3.1289847
204	0xc041cf84	-3.0282907
205	0xc039c5c1	-2.902695
206	0xc03ec77d	-2.9809258
207	0xc040ab1e	-3.0104442
208	0xc035f309	-2.8429587
209	0xc049946f	-3.1496847
210	0xc03edb48	-2.9821339
211	0xc03f4cf2	-2.9890714
212	0xc04099a8	-3.0093784
213	0xc048925c	-3.133933
214	0xc03ad41d	-2.9191964
215	0xc044ec77	-3.0769327
216	0xc03fcea1	-2.9969866
217	0xc038f521	-2.8899615
218	0xc0453e51	-3.0819285
219	0xc03c95f6	-2.946653
220	0xc0441c6a	-3.0642343
221	0xc0478c2d	-3.1179307
222	0xc04ae1b0	-3.1700249
223	0xc03e645a	-2.974875
224	0xc04573a3	-3.085183
225	0xc042a4c3	-3.0413063
226	0xc042b435	-3.042249
227	0xc0593abc	-3.3942099
228	0xc045c2da	-3.0900178
229	0xc038fa71	-2.8902857
230	0xc042adc5	-3.041856
231	0xc03d2b6b	-2.955775
232	0xc0370914	-2.859929
233	0xc03fc26b	-2.9962413
234	0xc03201cf	-2.7813604
235	0xc03d150c	-2.9544096
236	0xc0416f8b	-3.022433
237	0xc044abcc	-3.0729856
238	0xc03a413a	-2.910231
239	0xc046c5b5	-3.105817
240	0xc03b96c7	-2.9310777
241	0xc03d923a	-2.96205
242	0xc0415e76	-3.0213904
243	0xc03f533e	-2.9894557
244	0xc0376d5b	-2.8660495
245	0xc041fa92	-3.0309186
246	0xc043c39a	-3.0588136
247	0xc03b31b3	-2.9249084
248	0xc049b1a7	-3.151468
249	0xc0443646	-3.0658126
250	0xc0391171	-2.8916895
251	0xc042bab8	-3.0426464
252	0xc030137a	-2.7511888
253	0xc0406ebc	-3.0067587
254	0xc0434ea3	-3.0516746
255	0xc0472b40	-3.1120148

l1.bias_mu f4 [600]
0	0x3ad63389	0.0016342263
1	0xbde5b62c	-0.11216387
2	0x3b400d8a	0.0029304945
3	0x3c8589fd	0.01630115
4	0x3de078a8	0.10960513
5	0x3e60bc51	0.21946837
6	0x3e15f126	0.14642772
7	0xbd190c0b	-0.037365
8	0xbd9cf0b9	-0.07663102
9	0xbd9ec5dc	-0.077525824
10	0x3adca8c8	0.0016834969
11	0x3d890bb0	0.06691682
12	0x3d6df15f	0.058091518
13	0xbd8e6a4b	-0.069538675
14	0xbd90fa7b	-0.07079025
15	0x3ba2a0ec	0.004963031
16	0xbd511ac9	-0.051050935
17	0x3d3485d5	0.044072945
18	0x3e305112	0.17218426
19	0xbd1fb1bb	-0.038987856
20	0xbc714e87	-0.014728195
21	0x3e3cd9a6	0.18442401
22	0x3d8efc3f	0.06981706
23	0xbc82150c	-0.015879177
24	0x3d041b43	0.03225256
25	0x3dc14ba5	0.09438256
26	0x3cb4cbc7	0.022069825
27	0x3dcbea55	0.09956805
28	0x3df2cc3c	0.11855361
29	0xbd22f8a6	-0.03978791
30	0xbc923d98	-0.017851636
31	0xbddc079f	-0.10743641
32	0x3dc5e086	0.09661965
33	0x3e4c42f5	0.19947417
34	0x3d3d6d8d	0.046247054
35	0xbe3dc665	-0.18532713
36	0x3b8c82e1	0.004288063
37	0xbc053f67	-0.008132792
38	0x3c8c475c	0.01712387
39	0x3c54ef0c	0.012996446
40	0xbdae7be4	-0.08519724
41	0xbd726096	-0.059174143
42	0xbd34d5c3	-0.04414917
43	0xbc4f0ac1	-0.012636841
44	0xbe11ca28	-0.14237273
45	0x3dcf797b	0.101305924
46	0x3c39d20d	0.011341584
47	0x3ba6304f	0.005071677
48	0x3e075272	0.13215044
49	0x3c8ed846	0.017437112
50	0x3d8b46f5	0.06800643
51	0x3a142c70	0.00056523737
52	0xbd9f9165	-0.07791404
53	0xbd2cf370	-0.042224348
54	0xbdac127b	-0.08401962
55	0x3ddff7db	0.109359466
56	0xbcbf011e	-0.023315962
57	0x3c806d0e	0.015677001
58	0xbe134a5b	-0.14383833
59	0x3dcfd314	0.10147682
60	0x3db82eda	0.08993311
61	0xbd79e6ca	-0.061011113
62	0xbb336f49	-0.0027379564
63	0x3c31fbdb	0.01086327
64	0x3e32b9c8	0.17453682
65	0xbd9af20f	-0.075657
66	0xbdd3ce75	-0.10342113
67	0x3c8b419a	0.016999055
68	0x3d9c85af	0.076426856
69	0x3c9853af	0.018594591
70	0xbd4d1d67	-0.05007687
71	0x3d4d6b71	0.050151292
72	0x3d772584	0.060338512
73	0xbd0629a2	-0.032754548
74	0xbd677d2e	-0.056515865
75	0xbe3e64d7	-0.18593155
76	0x3d0af22c	0.03392236
77	0xbe13c869	-0.14431919
78	0x3c5669c2	0.013086738
79	0x3d838e05	0.064235725
80	0xbd8cd5b4	-0.06876698
81	0x3cb4e24e	0.022080567
82	0xbc5edb3e	-0.013602076
83	0xbdb41229	-0.08792526
84	0x3dbcf42c	0.092262596
85	0x3cc83d72	0.024443362
86	0x3cc44b4f	0.023961691
87	0xbdbbc85b	-0.09169074
88	0x3cbe9bf9	0.023267733
89	0xbe032962	-0.12808755
90	0xbe2e5de2	-0.17028001
91	0xbdae9463	-0.08524396
92	0x3e805034	0.2506119
93	0xbc6a14cc	-0.014287185
94	0xbda02c04	-0.07820895
95	0xbca56493	-0.02018956
96	0xbdc65b5e	-0.09685396
97	0xbde510fa	-0.11184879
98	0xbd16a17e	-0.036775105
99	0x3dbfa108	0.09356886
100	0x3ccef06c	0.025261126
101	0x3db0d100	0.086336136
102	0x3cbddf42	0.023177747
103	0xbce45aef	-0.027875392
104	0xbd9852de	-0.07437681
105	0x3e0e98db	0.13925497
106	0x3d2e1050	0.042496026
107	0x3cf220b6	0.029556613
108	0x3deca0d9	0.11554117
109	0xbd7a1c22	-0.061061986
110	0xbd7ee2ee	-0.062228136
111	0xbd7bc95a	-0.06147132
112	0x3df53305	0.11972622
113	0xbdfdeb05	-0.12398342
114	0xbe053ac1	-0.13010694
115	0xbd8659b3	-0.065600775
116	0xbb030545	-0.0019992155
117	0x3da6000a	0.08105476
118	0xbd06b1ee	-0.03288453
119	0xbcc18e4f	-0.023627428
120	0x3c9b155b	0.018931082
121	0xbe2e22cd	-0.17005463
122	0x3ba360b7	0.0049858945
123	0x3dbb114b	0.09134158
124	0xbd047b08	-0.032343894
125	0xbe44382b	-0.19162051
126	0xbdd80121	-0.1054709
127	0xbe489f83	-0.19592099
128	0xbe162d0e	-0.14665624
129	0xbd2d5a1c	-0.042322263
130	0x3d9cdcf2	0.076593295
131	0xbd2efc8d	-0.04272132
132	0x3dabed36	0.08394854
133	0x3d6f6541	0.058446173
134	0x3d10a360	0.035312057
135	0x3d922acc	0.07137069
136	0x3d2f6806	0.042823814
137	0xbe10f1ca	-0.14154735
138	0xbbd5b38e	-0.0065216487
139	0xbdef5359	-0.11685819
140	0x3c500882	0.012697341
141	0xbe5cf1a1	-0.21576549
142	0xbe387f6b	-0.18017356
143	0x3d13f320	0.036120534
144	0x3d735a3b	0.059412222
145	0x3dab4040	0.08361864
146	0xbdcf40b1	-0.10119761
147	0xbba64e93	-0.0050752847
148	0x3e39569b	0.18099444
149	0x3c86f91b	0.016476205
150	0x3adcde38	0.0016850894
151	0x3ddc37db	0.10752841
152	0xbd6c0645	-0.057623167
153	0xbb8a62f4	-0.004223222
154	0xbe0bddee	-0.13658878
155	0x3daaa1f7	0.083316736
156	0xbe0790aa	-0.13238779
157	0xbbc08a76	-0.005875881
158	0xbca57804	-0.02019883
159	0xbde34d60	-0.110987425
160	0x3d904a12	0.07045378
161	0xbd24d8cd	-0.04024582
162	0xbe1f3947	-0.15549193
163	0xbe0d2cbf	-0.137866
164	0xbd96d7da	-0.07365389
165	0xbd448766	-0.04798069
166	0x3d15b8f0	0.036553323
167	0xbe0304d4	-0.1279481
168	0xbd9f905b	-0.077912055
169	0xbd7a8572	-0.06116242
170	0x3bceab59	0.0063070473
171	0x3e335429	0.17512573
172	0x3d90ab96	0.070639774
173	0x3b3d36d0	0.0028871782
174	0x3cb1330e	0.02163079
175	0xbd865546	-0.06559233
176	0x3e287284	0.16449934
177	0x3d900d89	0.070338316
178	0xbe04a264	-0.12952572
179	0xbdcc7476	-0.09983151
180	0x3ddbbdb4	0.107295424
181	0x3dedb0e6	0.11606006
182	0xbe050767	-0.12991105
183	0xbd573089	-0.05253652
184	0x3d8b7092	0.068085805
185	0x3d2aa7bf	0.04166388
186	0x3ca9383f	0.020656703
187	0xbd053128	-0.032517582
188	0xbba333fb	-0.004980562
189	0x3d109c4b	0.035305303
190	0x3deacd1f	0.11464905
191	0x3c92028c	0.01782348
192	0x3d8ca33d	0.06867073
193	0xbd02c0fa	-0.031922318
194	0xbdfe5a66	-0.12419586
195	0x3c867d3b	0.016417136
196	0x3c6eaafa	0.014567131
197	0x3e73c634	0.23806077
198	0x3dbf043f	0.09326982
199	0xbda9e279	-0.08295149
200	0x3da0cd6f	0.07851683
201	0xbd7febb6	-0.06248065
202	0xbd1aaeae	-0.037764244
203	0xbd82e77b	-0.06391808
204	0x3e210b8e	0.15727064
205	0xbd56fa1d	-0.05248462
206	0xbd87287d	-0.065995194
207	0x3cb1fda6	0.021727394
208	0x3de39f13	0.111143254
209	0x3bbde6a2	0.005795316
210	0x3e988240	0.29786873
211	0x3ccc20db	0.02491801
212	0xbd9f7fed	-0.07788072
213	0xbde0b895	-0.10972706
214	0xbda3d3a6	-0.07999353
215	0xbe110dc5	-0.14165409
216	0x3cb45b96	0.022016328
217	0x3e1da332	0.15394285
218	0x3de584a7	0.11206942
219	0xbd652cba	-0.055950858
220	0x3c106bdb	0.008814777
221	0x3e17ce1c	0.14824718
222	0x3ccd3fba	0.025054801
223	0xbdc525a6	-0.096263215
224	0x3e011b69	0.12608112
225	0x3e4ccb3b	0.19999401
226	0x3c908853	0.01764313
227	0x3c36833f	0.01113969
228	0x3db11471	0.08646477
229	0x3dd2b3f9	0.10288233
230	0x3d3af57a	0.04564426
231	0x3d2a70d1	0.041611496
232	0x3da5f227	0.081028275
233	0xbc5bd36d	-0.013417107
234	0xbd5a8e94	-0.05335863
235	0x3dc8694b	0.09785708
236	0x3d9472e6	0.07248478
237	0x3dc8e9e8	0.09810239
238	0xbcb77a1f	-0.022397099
239	0x3db1775b	0.086653434
240	0x3b0cbb56	0.0021473966
241	0x3db86ee8	0.09005529
242	0x3d883ff0	0.0665282
243	0x3bcf1439	0.0063195494
244	0x3e056db4	0.1303013
245	0x3dbfadc2	0.093593135
246	0x3cf25b4e	0.029584553
247	0xbd3592a2	-0.044329293
248	0x3ccd099f	0.025029002
249	0xbde9c170	-0.114138484
250	0x3d282b09	0.041056667
251	0xbdb98f5b	-0.09060546
252	0x3df68254	0.12036577
253	0x3d032ff4	0.032028154
254	0x3e04a8e0	0.12955046
255	0x3d2ce460	0.042209983

l1.bias_rho f4 [600]
0	0xc043a37c	-3.0568533
1	0xc0464d22	-3.0984578
2	0xc03c49d3	-2.9420059
3	0xc03de304	-2.966981
4	0xc03d121b	-2.95423
5	0xc03d4b1e	-2.9577098
6	0xc0471ddf	-3.1111982
7	0xc03dd2c2	-2.9659886
8	0xc037e596	-2.8733878
9	0xc0338747	-2.8051317
10	0xc04718ee	-3.1108966
11	0xc0408559	-3.008139
12	0xc040f150	-3.0147285
13	0xc045c4a9	-3.0901282
14	0xc03eee6f	-2.9833028
15	0xc04512dd	-3.0792763
16	0xc0447769	-3.0697882
17	0xc040401d	-3.0039132
18	0xc0435964	-3.052331
19	0xc0426bcb	-3.0378292
20	0xc042ae6d	-3.041896
21	0xc0408e7a	-3.008696
22	0xc0420282	-3.031403
23	0xc03959a9	-2.8960974
24	0xc0423fca	-3.0351434
25	0xc03fb6e1	-2.995537
26	0xc0467832	-3.1010861
27	0xc039c3eb	-2.902583
28	0xc044c13b	-3.0742939
29	0xc03da421	-2.9631426
30	0xc0465f5f	-3.099571
31	0xc040f141	-3.014725
32	0xc03979cd	-2.8980591
33	0xc04844f1	-3.1292078
34	0xc03eb8d2	-2.9800305
35	0xc041ea2b	-3.0299175
36	0xc0481b75	-3.1266758
37	0xc0420310	-3.031437
38	0xc0353757	-2.8315027
39	0xc03fc5fa	-2.9964585
40	0xc03c6ec4	-2.9442606
41	0xc03943c0	-2.8947601
42	0xc0375515	-2.864568
43	0xc04234f1	-3.0344813
44	0xc03d38d0	-2.9565926
45	0xc0411850	-3.017109
46	0xc03b0d4a	-2.922686
47	0xc03b4c32	-2.9265256
48	0xc04347e5	-3.051263
49	0xc0348d07	-2.8211076
50	0xc03422a4	-2.8146143
51	0xc03ac55e	-2.9182963
52	0xc03bce76	-2.9344764
53	0xc03be416	-2.9357963
54	0xc03be57b	-2.9358814
55	0xc03cf2d6	-2.9523215
56	0xc0423e4d	-3.0350525
57	0xc03e8d83	-2.9773872
58	0xc04c2a77	-3.1900918
59	0xc03b4b92	-2.9264874
60	0xc0468677	-3.101957
61	0xc0455f31	-3.083935
62	0xc044ae88	-3.0731525
63	0xc03f87c8	-2.9926624
64	0xc0402eec	-3.002864
65	0xc04396c8	-3.056078
66	0xc0356e68	-2.8348637
67	0xc03a9d4a	-2.9158502
68	0xc043ad50	-3.0574532
69	0xc03e7428	-2.9758396
70	0xc0463047	-3.0966966
71	0xc03eb7e2	-2.9799733
72	0xc0472e56	-3.1122031
73	0xc0394f56	-2.8954673
74	0xc042e4d2	-3.045216
75	0xc044d6e5	-3.0756161
76	0xc03bc7e6	-2.9340758
77	0xc0450029	-3.0781348
78	0xc03c987a	-2.9468064
79	0xc0469780	-3.1029968
80	0xc03a8141	-2.914139
81	0xc0426d72	-3.03793
82	0xc033e4b0	-2.810833
83	0xc0388e68	-2.8836918
84	0xc038c75e	-2.8871684
85	0xc048513c	-3.1299582
86	0xc03bdbc6	-2.935289
87	0xc0388571	-2.8831446
88	0xc03e4f13	-2.9735763
89	0xc02ebe16	-2.730352
90	0xc0440b90	-3.0632057
91	0xc03f209f	-2.986366
92	0xc04804d9	-3.1252959
93	0xc03f1082	-2.9853826
94	0xc0392601	-2.8929446
95	0xc03b41f0	-2.9258995
96	0xc04bf53e	-3.1868434
97	0xc04003e9	-3.0002387
98	0xc03e6b8d	-2.9753144
99	0xc0414df0	-3.020382
100	0xc041ca2c	-3.0279646
101	0xc039e929	-2.904856
102	0xc04046dd	-3.0043252
103	0xc03b06f4	-2.9222994
104	0xc0450815	-3.0786183
105	0xc03dba25	-2.9644864
106	0xc04d0deb	-3.2039745
107	0xc03731a6	-2.8624053
108	0xc0483e4e	-3.1288028
109	0xc0364769	-2.8481085
110	0xc03db843	-2.9643714
111	0xc03f9f8c	-2.994113
112	0xc03ba72b	-2.9320781
113	0xc04a6a33	-3.162732
114	0xc0466bb1	-3.100323
115	0xc0347585	-2.8196728
116	0xc03c9973	-2.9468658
117	0xc03e5a82	-2.9742742
118	0xc03866b3	-2.8812683
119	0xc04456d0	-3.0677986
120	0xc045088b	-3.0786464
121	0xc0498a75	-3.1490757
122	0xc03c3a1a	-2.9410462
123	0xc04413a4	-3.0636988
124	0xc03cc605	-2.9495862
125	0xc04770e1	-3.1162646
126	0xc042cc03	-3.043702
127	0xc03e7044	-2.9756021
128	0xc044bcfd	-3.074035
129	0xc0412d50	-3.0183907
130	0xc03ae5ca	-2.9202752
131	0xc04bd51f	-3.1848829
132	0xc0405ed7	-3.0057886
133	0xc0463611	-3.09705
134	0xc04e829b	-3.2267215
135	0xc041828c	-3.023593
136	0xc047125e	-3.110496
137	0xc0479298	-3.1183224
138	0xc03c2f68	-2.9403934
139	0xc041852e	-3.0237536
140	0xc0383425	-2.8781826
141	0xc043fcf2	-3.0623136
142	0xc03b6275	-2.9278843
143	0xc03995cc	-2.8997679
144	0xc041053c	-3.0159445
145	0xc039b28f	-2.9015234
146	0xc044c3cc	-3.0744505
147	0xc044d70c	-3.0756254
148	0xc031456f	-2.769863
149	0xc036ae2f	-2.8543813
150	0xc041608c	-3.0215178
151	0xc04189f4	-3.024045
152	0xc03386e2	-2.8051076
153	0xc038c17f	-2.88681
154	0xc0435bf5	-3.0524876
155	0xc03e6e6c	-2.9754896
156	0xc0396b76	-2.897184
157	0xc0405373	-3.0050933
158	0xc044578e	-3.067844
159	0xc03aab34	-2.9166994
160	0xc03bfe27	-2.9373872
161	0xc03f9594	-2.9935045
162	0xc043c7b2	-3.0590634
163	0xc0487dab	-3.1326702
164	0xc041387a	-3.019072
165	0xc03ad386	-2.9191604
166	0xc03e6f5b	-2.9755466
167	0xc040d730	-3.013134
168	0xc041d479	-3.0285933
169	0xc040b88e	-3.0112643
170	0xc04276e6	-3.038507
171	0xc041a38e	-3.0256076
172	0xc043a349	-3.0568411
173	0xc03e42f8	-2.9728374
174	0xc03e13d1	-2.9699595
175	0xc0343bb6	-2.8161445
176	0xc0410431	-3.0158808
177	0xc031d8e9	-2.7788641
178	0xc0385d2f	-2.8806875
179	0xc03c0e86	-2.9383864
180	0xc049ed08	-3.1550922
181	0xc042ad7a	-3.0418382
182	0xc03b1aca	-2.92351
183	0xc02de235	-2.7169316
184	0xc037c38b	-2.87131
185	0xc041c37d	-3.0275567
186	0xc040800d	-3.0078156
187	0xc04720c4	-3.1113749
188	0xc03de67c	-2.9671926
189	0xc0376fcf	-2.8661993
190	0xc03b26ea	-2.9242501
191	0xc03d6ecd	-2.9598877
192	0xc03d3c92	-2.956822
193	0xc041b370	-3.026577
194	0xc040e4ab	-3.0139568
195	0xc03b092f	-2.9224355
196	0xc03df0e7	-2.9678285
197	0xc03f5bc8	-2.989977
198	0xc044ea66	-3.0768065
199	0xc03699a4	-2.8531275
200	0xc04d9ec0	-3.2128143
201	0xc03c7600	-2.9447021
202	0xc03ac0fc	-2.9180288
203	0xc0422f11	-3.0341227
204	0xc0436945	-3.0533001
205	0xc039b34a	-2.901568
206	0xc035a48a	-2.8381677
207	0xc038ff00	-2.890564
208	0xc044cbb1	-3.0749323
209	0xc0432845	-3.0493329
210	0xc0371c94	-2.8611193
211	0xc046210a	-3.0957665
212	0xc03b5adf	-2.9274213
213	0xc03db412	-2.9641156
214	0xc03fd4c2	-2.9973607
215	0xc0369c9a	-2.8533082
216	0xc03f22f2	-2.986508
217	0xc033ec05	-2.8112805
218	0xc0425047	-3.0361497
219	0xc03d0d95	-2.953954
220	0xc04397a9	-3.0561316
221	0xc04840a1	-3.1289446
222	0xc03f7d02	-2.9920049
223	0xc04b209d	-3.1738656
224	0xc035e083	-2.841828
225	0xc04c0117	-3.1875665
226	0xc0505941	-3.2554476
227	0xc044a409	-3.072512
228	0xc049012a	-3.140696
229	0xc04396b0	-3.0560722
230	0xc03ecaa2	-2.9811177
231	0xc03d98af	-2.962444
232	0xc03b5a47	-2.927385
233	0xc04e9b90	-3.2282448
234	0xc03704aa	-2.8596597
235	0xc03fc2d8	-2.9962673
236	0xc0368db4	-2.8523989
237	0xc034d320	-2.825386
238	0xc036a4c0	-2.8538055
239	0xc03b3bc5	-2.925523
240	0xc0475952	-3.1148267
241	0xc0437785	-3.05417
242	0xc036826d	-2.8517106
243	0xc03ef3bf	-2.983627
244	0xc03f366e	-2.9876971
245	0xc041802f	-3.0234487
246	0xc0383eb2	-2.8788266
247	0xc04bcf7c	-3.1845388
248	0xc03ced6d	-2.9519913
249	0xc04e3089	-3.2217124
250	0xc03db57d	-2.9642022
251	0xc0438fbe	-3.0556483
252	0xc03e685d	-2.9751198
253	0xc03e562b	-2.9740093
254	0xc03f296f	-2.986904
255	0xc04bd9fc	-3.1851797

l1.weight.mu f4 [600, 29]
0	0xbcf736ca	-0.030177493
1	0x3d13fa15	0.03612717
2	0xbca28359	-0.019838022
3	0xbda0fb9b	-0.0786049
4	0x3c1163fd	0.008873937
5	0xbe5f3357	-0.21796928
6	0xbbb06c99	-0.0053840396
7	0xbd2181f9	-0.039430592
8	0xbd90fe2d	-0.0707973
9	0x3e3063a3	0.17225508
10	0xbe2488c9	-0.16067804
11	0x3dc78530	0.097422004
12	0xbdeb509b	-0.11489984
13	0x3d812102	0.06305124
14	0xb9b7b4ab	-0.00035039088
15	0xbda59498	-0.08084983
16	0xbd45d3c2	-0.04829765
17	0xbd637102	-0.055527695
18	0x3d08f921	0.033440713
19	0xbb6d10a9	-0.003617326
20	0xbde284ad	-0.11060462
21	0xbd937c86	-0.07201485
22	0x3e4f15e8	0.202232
23	0xbd6fb2ea	-0.058520235
24	0x3e455513	0.19270734
25	0xbe676981	-0.2259884
26	0x3de17658	0.110089004
27	0xbd9a51cf	-0.07535135
28	0x3d4e639f	0.050387975
29	0xbe72a9c8	-0.23697579
30	0xbe10abc8	-0.1412803
31	0xbe039c7c	-0.12852663
32	0x3c215af9	0.00984835
33	0x3b97daba	0.0046342285
34	0xbe561e5a	-0.20910016
35	0xbd232841	-0.03983331
36	0xbdd407af	-0.10353028
37	0xbd2ddfed	-0.04244988
38	0xbd332267	-0.04373398
39	0xbd89ee14	-0.06734863
40	0x3db03590	0.08603966
41	0x3d84108d	0.06448469
42	0x3da1a955	0.07893626
43	0xbda5ccd4	-0.080957085
44	0x3db21cf3	0.08696928
45	0xbd7430e1	-0.059616927
46	0x3d52aa2b	0.051431816
47	0xbdbbf187	-0.09176927
48	0xbe2ea262	-0.17054132
49	0x3c39e585	0.011346226
50	0x3d36ac97	0.04459819
51	0xbde849b0	-0.1134218
52	0x3db4c074	0.0882577
53	0x3c4149de	0.0117973965
54	0xbe29d9d2	-0.16586998
55	0xbd95206e	-0.07281576
56	0xbdbbbd49	-0.09166963
57	0xbc21dcab	-0.0098792715
58	0x3db499a5	0.08818368
59	0xbe096b27	-0.13419782
60	0xbe120520	-0.14259768
61	0xbe4f3059	-0.20233287
62	0xbcdcfdf8	-0.02697657
63	0x3e162b22	0.14664891
64	0x3dcf03f5	0.101081766
65	0xbd19583a	-0.037437655
66	0xbd4fe665	-0.05075683
67	0xbd6d9beb	-0.058010023
68	0x3d5c7b30	0.05382842
69	0xbd99ef5b	-0.075163566
70	0x3c6cac6d	0.014445406
71	0x3e25bcab	0.16185252
72	0xbe06dae1	-0.13169433
73	0x3e0f1f9e	0.13976905
74	0xbdaa396f	-0.08311736
75	0xbcc274bd	-0.023737306
76	0x3e411fdf	0.18859814
77	0xbe0f4d11	-0.13994242
78	0x3d6b7c22	0.05749143
79	0xbd31f87f	-0.043449875
80	0xbdea2d19	-0.11434383
81	0xbdd4c2e1	-0.10388733
82	0xbde9f84b	-0.11424311
83	0xbda2c39e	-0.07947467
84	0x3c8cd3d8	0.017190859
85	0x3e1e9dfa	0.15489951
86	0x3d8f3347	0.06992202
87	0x3e0d8109	0.13818754
88	0x3dc2735b	0.094946586
89	0x3e2c2599	0.16811217
90	0xbd36acc2	-0.04459835
91	0x3e846d4a	0.2586463
92	0x3dd3934c	0.10330829
93	0x3c08a286	0.00833953
94	0xbc1758a1	-0.009237439
95	0xbd05e69f	-0.03269064
96	0x3da2dcc9	0.07952268
97	0x3baa4d9f	0.0051972414
98	0x3d956b7b	0.07295891
99	0xbe1d31af	-0.15350984
100	0x3d3d1fae	0.04617279
101	0xbd2d56cc	-0.042319104
102	0xbd54dff5	-0.051971395
103	0xbdd6702f	-0.10470616
104	0xbdd2427e	-0.10266589
105	0xbca01bd6	-0.019544523
106	0xbdae2864	-0.08503798
107	0xbcee7491	-0.029108318
108	0x3d9f109d	0.077668406
109	0x3b92e2f8	0.004482623
110	0x3bde1c45	0.0067782723
111	0x3d6d9708	0.058005363
112	0x3d2995b1	0.041402522
113	0xbbbde110	-0.005794652
114	0x3dd5a3fc	0.10431668
115	0xbc470b8d	-0.01214875
116	0x3b18c1bd	0.0023308836
117	0x3add453a	0.0016881593
118	0x3dd51132	0.1040367
119	0xbe4617ca	-0.19345012
120	0xbcfa5fc8	-0.03056325
121	0xbe8d1773	-0.27556953
122	0x3cc3110b	0.023811838
123	0x3e260490	0.16212678
124	0xbde9e39c	-0.11420366
125	0x3def225b	0.11676475
126	0x3c60abd1	0.013712839
127	0x3cd858df	0.026409565
128	0xbcfa5249	-0.030556815
129	0x3e0143d4	0.1262353
130	0xbc76d212	-0.015064733
131	0xbda83176	-0.08212559
132	0xbda08ab1	-0.07838953
133	0xbe0ef30f	-0.13959907
134	0x3da95375	0.08267871
135	0xbdd5ffb6	-0.104491636
136	0xbd999b47	-0.0750032
137	0x3d349e9a	0.044096567
138	0x3e0dd8e5	0.1385227
139	0x3cf6096f	0.030033795
140	0xbd7673be	-0.060168974
141	0x3dca6072	0.09881677
142	0xbe3296ed	-0.17440386
143	0xbd9d98ee	-0.07695185
144	0xbe017de3	-0.12645678
145	0xbdc1b25e	-0.09457849
146	0x3dc09839	0.09404034
147	0xbc9cc414	-0.019136466
148	0x3e34a738	0.17641914
149	0x3c86fbc9	0.016477482
150	0xbcf28450	-0.029604107
151	0x3cc4269a	0.023944188
152	0xbc7f44d3	-0.015580374
153	0xbd70f6c6	-0.05882909
154	0xbda093e2	-0.078407064
155	0xbda29fa7	-0.079406075
156	0x3d9af51d	0.07566283
157	0x3d8f4ca4	0.0699704
158	0x3d6b2499	0.05740795
159	0xbda91859	-0.08256597
160	0xbd80fc8a	-0.06298168
161	0x3da1df79	0.07903952
162	0xbd122423	-0.035678994
163	0x3ac59e32	0.0015077053
164	0x3cf02b0b	0.0293174
165	0x3d234c4d	0.039867688
166	0xbe06a666	-0.13149413
167	0xbdd172a7	-0.10226946
168	0xbda63edb	-0.081174575
169	0xbe2a78e9	-0.16647686
170	0xb8b69512	-8.706203e-05
171	0xbd619fe5	-0.055084128
172	0xbe0593b2	-0.13044623
173	0x3c1550c9	0.009113499
174	0x3d39ffcc	0.045409963
175	0xbd47af22	-0.048751004
176	0x3cce4bd9	0.025182651
177	0xbb8a5f14	-0.00422276
178	0xbe0965f7	-0.13417803
179	0x3d52fac4	0.05150868
180	0x3e6673f6	0.22505173
181	0xbd8fed04	-0.07027629
182	0x3dcd7bd4	0.10033384
183	0x3e20101b	0.15631144
184	0x3de18675	0.11011974
185	0xbd828828	-0.06373626
186	0xbd3094a8	-0.04311052
187	0x3db739a1	0.08946539
188	0x3e04b446	0.12959394
189	0x3d2803ff	0.041019436
190	0xbdb521a0	-0.08844304
191	0x3deee46f	0.11664664
192	0x3e074ef8	0.13213718
193	0xbcb78a31	-0.022404762
194	0x3dffd617	0.12492006
195	0x3c4a0389	0.012329944
196	0x3d6768a6	0.056496285
197	0xbdbb8b16	-0.09157388
198	0x3d8cf795	0.0688316
199	0x3d85fab9	0.06541962
200	0x3d9804eb	0.07422813
201	0x3e2586ae	0.16164657
202	0xbdeeb426	-0.11655454
203	0x3e2685aa	0.16261926
204	0x3d14c445	0.03631999
205	0x3cbf3ebe	0.023345347
206	0xbc3f5839	-0.011678749
207	0x3dab7508	0.08371931
208	0x3d372625	0.04471411
209	0xbda6878c	-0.08131322
210	0xbd05fa46	-0.032709382
211	0xbd10c6df	-0.03534591
212	0x3e7fd54a	0.24983707
213	0xbd0fad64	-0.035077468
214	0x3e2abd90	0.16673875
215	0x3e93f4c3	0.28897676
216	0xbd9898ae	-0.07450996
217	0x3e001edb	0.1251177
218	0xbd2b1c40	-0.04177499
219	0x3d5ab781	0.05339766
220	0xbc9298a1	-0.017895045
221	0xbc5d9b8d	-0.013525856
222	0xbccd7b8a	-0.025083322
223	0xbde9de5f	-0.11419367
224	0xbd88866f	-0.06666266
225	0xbd453634	-0.048147395
226	0xbcfe80c8	-0.031067267
227	0xbdb6c1ea	-0.08923705
228	0xbd629aa0	-0.055323243
229	0xbddadd55	-0.10686747
230	0xbcd0da77	-0.025494797
231	0xbdfbfff9	-0.12304682
232	0xbcf61e1a	-0.03004365
233	0xbde285be	-0.110606655
234	0x3e5648c5	0.20926197
235	0xbe3ceba9	-0.18449272
236	0xbe1d7e32	-0.15380171
237	0x3c06cf5a	0.008228147
238	0x3da1dd1b	0.07903501
239	0x3e648e78	0.22319973
240	0xbda0c801	-0.07850648
241	0x3d10e073	0.0353703
242	0xbd071166	-0.032975577
243	0x3db1ed8e	0.08687888
244	0x3d04357f	0.03227758
245	0x3cae99e3	0.021313613
246	0x3e7b66f2	0.2455099
247	0x3d4509fb	0.04810522
248	0xbe11707b	-0.14203064
249	0x3da6be46	0.081417605
250	0xbe4277bd	-0.18990989
251	0x3dc369e4	0.095416814
252	0x3d86aa60	0.06575465
253	0x3d4b3d13	0.04961879
254	0x3e54bb0b	0.20774476
255	0xbc9cd0d4	-0.019142546

l1.weight.rho f4 [600, 29]
0	0xc03dc65d	-2.9652321
1	0xc045e7b4	-3.092267
2	0xc0458ced	-3.0867264
3	0xc03f1735	-2.9857914
4	0xc03f5940	-2.9898224
5	0xc0400e51	-3.0008738
6	0xc03bd48a	-2.9348474
7	0xc03b04fe	-2.9221797
8	0xc041ce5f	-3.028221
9	0xc04a1aa3	-3.1578758
10	0xc03d640a	-2.959231
11	0xc047a1af	-3.1192434
12	0xc0348b8f	-2.821018
13	0xc03af610	-2.9212685
14	0xc0347359	-2.8195403
15	0xc04d4da6	-3.2078643
16	0xc0383cfe	-2.8787227
17	0xc044743a	-3.069594
18	0xc0393383	-2.893769
19	0xc03ec363	-2.9806755
20	0xc03c1769	-2.9389288
21	0xc041f45b	-3.0305393
22	0xc04ba7c1	-3.182114
23	0xc047af86	-3.120088
24	0xc039e76c	-2.9047499
25	0xc039a2a3	-2.9005516
26	0xc0420520	-3.0315628
27	0xc0463973	-3.0972564
28	0xc03bafff	-2.932617
29	0xc043ae6a	-3.0575204
30	0xc03d65ab	-2.9593303
31	0xc045cd3c	-3.0906515
32	0xc03c4b53	-2.9420974
33	0xc03eaeb8	-2.979414
34	0xc038b8f5	-2.886289
35	0xc03fb5ed	-2.9954789
36	0xc0450091	-3.0781596
37	0xc0387625	-2.882211
38	0xc0466de1	-3.1004565
39	0xc042a778	-3.0414715
40	0xc04203d7	-3.0314844
41	0xc03c53af	-2.9426076
42	0xc0464218	-3.097784
43	0xc03bdbf9	-2.935301
44	0xc0471e68	-3.1112309
45	0xc03ac321	-2.9181597
46	0xc037b7ab	-2.8705852
47	0xc036b301	-2.8546755
48	0xc03c96a5	-2.9466946
49	0xc04b32f8	-3.174986
50	0xc03daedb	-2.9637973
51	0xc0496ece	-3.147388
52	0xc040e006	-3.0136733
53	0xc0433970	-3.0503807
54	0xc03fa72d	-2.9945786
55	0xc041f2c0	-3.0304413
56	0xc03d413e	-2.957107
57	0xc03d4ebc	-2.9579306
58	0xc03ceff3	-2.9521453
59	0xc040588e	-3.005405
60	0xc03cd939	-2.9507582
61	0xc044506b	-3.0674083
62	0xc03725d4	-2.8616838
63	0xc0425b01	-3.0368044
64	0xc04103e6	-3.015863
65	0xc047a99e	-3.1197276
66	0xc03a6618	-2.9124813
67	0xc03cf960	-2.9527206
68	0xc03d6fbf	-2.9599454
69	0xc0445732	-3.067822
70	0xc0428a0b	-3.0396755
71	0xc03d2ed2	-2.9559827
72	0xc042a44d	-3.0412781
73	0xc044c459	-3.074484
74	0xc03c8b68	-2.9460087
75	0xc042408a	-3.0351892
76	0xc042bd98	-3.042822
77	0xc03e03f5	-2.9689915
78	0xc03e0549	-2.9690726
79	0xc03ca901	-2.9478152
80	0xc03c749a	-2.9446168
81	0xc044fa57	-3.0777795
82	0xc036d569	-2.8567755
83	0xc039a305	-2.900575
84	0xc03aef43	-2.9208534
85	0xc0449ef3	-3.0722015
86	0xc03c718f	-2.944431
87	0xc0450222	-3.0782552
88	0xc03bece6	-2.9363341
89	0xc0392ff5	-2.893552
90	0xc03f338d	-2.9875214
91	0xc044128b	-3.0636318
92	0xc03cb3fa	-2.948485
93	0xc04a7620	-3.1634598
94	0xc03a2a65	-2.9088376
95	0xc0331d63	-2.7986686
96	0xc0356648	-2.8343678
97	0xc0384c67	-2.8796632
98	0xc037d227	-2.8722017
99	0xc0359891	-2.837437
100	0xc043779f	-3.054176
101	0xc035610f	-2.834049
102	0xc045226b	-3.0802257
103	0xc03df83f	-2.9682767
104	0xc03ae7f5	-2.9204075
105	0xc03fcdf9	-2.9969466
106	0xc0376f82	-2.866181
107	0xc03e5f72	-2.9745755
108	0xc0426344	-3.0373087
109	0xc03ea769	-2.978968
110	0xc03c23fd	-2.9396966
111	0xc03de361	-2.967003
112	0xc046d4f6	-3.106748
113	0xc03ae6f8	-2.9203472
114	0xc03e62c5	-2.9747784
115	0xc03bcd0d	-2.9343903
116	0xc044bae9	-3.073908
117	0xc04095b3	-3.009137
118	0xc03eb1ca	-2.9796014
119	0xc0480725	-3.125436
120	0xc04419c9	-3.0640738
121	0xc03754ea	-2.8645577
122	0xc03ba40f	-2.9318883
123	0xc04020d0	-3.0020027
124	0xc045f013	-3.092778
125	0xc03e3248	-2.971819
126	0xc04538e7	-3.081598
127	0xc03d5382	-2.958222
128	0xc044f0a9	-3.0771887
129	0xc03ef02f	-2.9834096
130	0xc0456f4a	-3.0849175
131	0xc03c9e85	-2.9471753
132	0xc0357cfc	-2.8357534
133	0xc0402d2d	-3.0027573
134	0xc0315f25	-2.7714322
135	0xc04a2fdc	-3.159171
136	0xc0378f71	-2.86813
137	0xc03f73f8	-2.9914532
138	0xc040c6e5	-3.0121396
139	0xc0460fac	-3.0947065
140	0xc03296d1	-2.790455
141	0xc040eb8a	-3.0143762
142	0xc04896c6	-3.1342025
143	0xc03c01d7	-2.9376123
144	0xc042e361	-3.045128
145	0xc041d2be	-3.0284877
146	0xc0404af3	-3.0045745
147	0xc0420d70	-3.0320702
148	0xc0398e2f	-2.8993032
149	0xc0465430	-3.0988884
150	0xc04173cf	-3.0226934
151	0xc04d2d04	-3.2058725
152	0xc035cfc7	-2.8408067
153	0xc039dc26	-2.9040618
154	0xc043fc61	-3.062279
155	0xc04078e0	-3.0073776
156	0xc03a53f1	-2.9113734
157	0xc044e465	-3.07644
158	0xc0347d00	-2.8201294
159	0xc035bd69	-2.8396857
160	0xc0392b5f	-2.8932722
161	0xc0473695	-3.1127064
162	0xc045758a	-3.085299
163	0xc04697c5	-3.1030133
164	0xc03a74f9	-2.9133894
165	0xc0381f06	-2.8768935
166	0xc03b6633	-2.9281127
167	0xc03e4e52	-2.9735303
168	0xc03ff083	-2.9990547
169	0xc047745e	-3.1164775
170	0xc03b4008	-2.9257832
171	0xc037db66	-2.872766
172	0xc03f5695	-2.9896595
173	0xc045aa1f	-3.0885084
174	0xc03b6811	-2.9282267
175	0xc036c15e	-2.8555522
176	0xc03c55e2	-2.9427419
177	0xc040f83f	-3.0151517
178	0xc041b84a	-3.026873
179	0xc039f76f	-2.9057271
180	0xc03de442	-2.9670568
181	0xc03dc0ae	-2.9648852
182	0xc0391407	-2.8918474
183	0xc03f177a	-2.985808
184	0xc0421b52	-3.0329175
185	0xc03cc576	-2.949552
186	0xc04a7d2d	-3.1638901
187	0xc03ccdec	-2.9500685
188	0xc032b974	-2.7925692
189	0xc0337cfc	-2.8045034
190	0xc04770d5	-3.1162617
191	0xc03fba6a	-2.9957528
192	0xc044a907	-3.0728166
193	0xc03e8e13	-2.9774215
194	0xc0362a53	-2.8463333
195	0xc036ab0f	-2.8541906
196	0xc039a92c	-2.9009504
197	0xc03bff58	-2.93746
198	0xc043df45	-3.0605023
199	0xc049198e	-3.1421847
200	0xc04628db	-3.0962436
201	0xc03d5918	-2.9585629
202	0xc0468b31	-3.1022456
203	0xc0484149	-3.1289847
204	0xc041cf84	-3.0282907
205	0xc039c5c1	-2.902695
206	0xc03ec77d	-2.9809258
207	0xc040ab1e	-3.0104442
208	0xc035f309	-2.8429587
209	0xc049946f	-3.1496847
210	0xc03edb48	-2.9821339
211	0xc03f4cf2	-2.9890714
212	0xc04099a8	-3.0093784
213	0xc048925c	-3.133933
214	0xc03ad41d	-2.9191964
215	0xc044ec77	-3.0769327
216	0xc03fcea1	-2.9969866
217	0xc038f521	-2.8899615
218	0xc0453e51	-3.0819285
219	0xc03c95f6	-2.946653
220	0xc0441c6a	-3.0642343
221	0xc0478c2d	-3.1179307
222	0xc04ae1b0	-3.1700249
223	0xc03e645a	-2.974875
224	0xc04573a3	-3.085183
225	0xc042a4c3	-3.0413063
226	0xc042b435	-3.042249
227	0xc0593abc	-3.3942099
228	0xc045c2da	-3.0900178
229	0xc038fa71	-2.8902857
230	0xc042adc5	-3.041856
231	0xc03d2b6b	-2.955775
232	0xc0370914	-2.859929
233	0xc03fc26b	-2.9962413
234	0xc03201cf	-2.7813604
235	0xc03d150c	-2.9544096
236	0xc0416f8b	-3.022433
237	0xc044abcc	-3.0729856
238	0xc03a413a	-2.910231
239	0xc046c5b5	-3.105817
240	0xc03b96c7	-2.9310777
241	0xc03d923a	-2.96205
242	0xc0415e76	-3.0213904
243	0xc03f533e	-2.9894557
244	0xc0376d5b	-2.8660495
245	0xc041fa92	-3.0309186
246	0xc043c39a	-3.0588136
247	0xc03b31b3	-2.9249084
248	0xc049b1a7	-3.151468
249	0xc0443646	-3.0658126
250	0xc0391171	-2.8916895
251	0xc042bab8	-3.0426464
252	0xc030137a	-2.7511888
253	0xc0406ebc	-3.0067587
254	0xc0434ea3	-3.0516746
255	0xc0472b40	-3.1120148

l1.bias.mu f4 [600]
0	0x3ad63389	0.0016342263
1	0xbde5b62c	-0.11216387
2	0x3b400d8a	0.0029304945
3	0x3c8589fd	0.01630115
4	0x3de078a8	0.10960513
5	0x3e60bc51	0.21946837
6	0x3e15f126	0.14642772
7	0xbd190c0b	-0.037365
8	0xbd9cf0b9	-0.07663102
9	0xbd9ec5dc	-0.077525824
10	0x3adca8c8	0.0016834969
11	0x3d890bb0	0.06691682
12	0x3d6df15f	0.058091518
13	0xbd8e6a4b	-0.069538675
14	0xbd90fa7b	-0.07079025
15	0x3ba2a0ec	0.004963031
16	0xbd511ac9	-0.051050935
17	0x3d3485d5	0.044072945
18	0x3e305112	0.17218426
19	0xbd1fb1bb	-0.038987856
20	0xbc714e87	-0.014728195
21	0x3e3cd9a6	0.18442401
22	0x3d8efc3f	0.06981706
23	0xbc82150c	-0.015879177
24	0x3d041b43	0.03225256
25	0x3dc14ba5	0.09438256
26	0x3cb4cbc7	0.022069825
27	0x3dcbea55	0.09956805
28	0x3df2cc3c	0.11855361
29	0xbd22f8a6	-0.03978791
30	0xbc923d98	-0.017851636
31	0xbddc079f	-0.10743641
32	0x3dc5e086	0.09661965
33	0x3e4c42f5	0.19947417
34	0x3d3d6d8d	0.046247054
35	0xbe3dc665	-0.18532713
36	0x3b8c82e1	0.004288063
37	0xbc053f67	-0.008132792
38	0x3c8c475c	0.01712387
39	0x3c54ef0c	0.012996446
40	0xbdae7be4	-0.08519724
41	0xbd726096	-0.059174143
42	0xbd34d5c3	-0.04414917
43	0xbc4f0ac1	-0.012636841
44	0xbe11ca28	-0.14237273
45	0x3dcf797b	0.101305924
46	0x3c39d20d	0.011341584
47	0x3ba6304f	0.005071677
48	0x3e075272	0.13215044
49	0x3c8ed846	0.017437112
50	0x3d8b46f5	0.06800643
51	0x3a142c70	0.00056523737
52	0xbd9f9165	-0.07791404
53	0xbd2cf370	-0.042224348
54	0xbdac127b	-0.08401962
55	0x3ddff7db	0.109359466
56	0xbcbf011e	-0.023315962
57	0x3c806d0e	0.015677001
58	0xbe134a5b	-0.14383833
59	0x3dcfd314	0.10147682
60	0x3db82eda	0.08993311
61	0xbd79e6ca	-0.061011113
62	0xbb336f49	-0.0027379564
63	0x3c31fbdb	0.01086327
64	0x3e32b9c8	0.17453682
65	0xbd9af20f	-0.075657
66	0xbdd3ce75	-0.10342113
67	0x3c8b419a	0.016999055
68	0x3d9c85af	0.076426856
69	0x3c9853af	0.018594591
70	0xbd4d1d67	-0.05007687
71	0x3d4d6b71	0.050151292
72	0x3d772584	0.060338512
73	0xbd0629a2	-0.032754548
74	0xbd677d2e	-0.056515865
75	0xbe3e64d7	-0.18593155
76	0x3d0af22c	0.03392236
77	0xbe13c869	-0.14431919
78	0x3c5669c2	0.013086738
79	0x3d838e05	0.064235725
80	0xbd8cd5b4	-0.06876698
81	0x3cb4e24e	0.022080567
82	0xbc5edb3e	-0.013602076
83	0xbdb41229	-0.08792526
84	0x3dbcf42c	0.092262596
85	0x3cc83d72	0.024443362
86	0x3cc44b4f	0.023961691
87	0xbdbbc85b	-0.09169074
88	0x3cbe9bf9	0.023267733
89	0xbe032962	-0.12808755
90	0xbe2e5de2	-0.17028001
91	0xbdae9463	-0.08524396
92	0x3e805034	0.2506119
93	0xbc6a14cc	-0.014287185
94	0xbda02c04	-0.07820895
95	0xbca56493	-0.02018956
96	0xbdc65b5e	-0.09685396
97	0xbde510fa	-0.11184879
98	0xbd16a17e	-0.036775105
99	0x3dbfa108	0.09356886
100	0x3ccef06c	0.025261126
101	0x3db0d100	0.086336136
102	0x3cbddf42	0.023177747
103	0xbce45aef	-0.027875392
104	0xbd9852de	-0.07437681
105	0x3e0e98db	0.13925497
106	0x3d2e1050	0.042496026
107	0x3cf220b6	0.029556613
108	0x3deca0d9	0.11554117
109	0xbd7a1c22	-0.061061986
110	0xbd7ee2ee	-0.062228136
111	0xbd7bc95a	-0.06147132
112	0x3df53305	0.11972622
113	0xbdfdeb05	-0.12398342
114	0xbe053ac1	-0.13010694
115	0xbd8659b3	-0.065600775
116	0xbb030545	-0.0019992155
117	0x3da6000a	0.08105476
118	0xbd06b1ee	-0.03288453
119	0xbcc18e4f	-0.023627428
120	0x3c9b155b	0.018931082
121	0xbe2e22cd	-0.17005463
122	0x3ba360b7	0.0049858945
123	0x3dbb114b	0.09134158
124	0xbd047b08	-0.032343894
125	0xbe44382b	-0.19162051
126	0xbdd80121	-0.1054709
127	0xbe489f83	-0.19592099
128	0xbe162d0e	-0.14665624
129	0xbd2d5a1c	-0.042322263
130	0x3d9cdcf2	0.076593295
131	0xbd2efc8d	-0.04272132
132	0x3dabed36	0.08394854
133	0x3d6f6541	0.058446173
134	0x3d10a360	0.035312057
135	0x3d922acc	0.07137069
136	0x3d2f6806	0.042823814
137	0xbe10f1ca	-0.14154735
138	0xbbd5b38e	-0.0065216487
139	0xbdef5359	-0.11685819
140	0x3c500882	0.012697341
141	0xbe5cf1a1	-0.21576549
142	0xbe387f6b	-0.18017356
143	0x3d13f320	0.036120534
144	0x3d735a3b	0.059412222
145	0x3dab4040	0.08361864
146	0xbdcf40b1	-0.10119761
147	0xbba64e93	-0.0050752847
148	0x3e39569b	0.18099444
149	0x3c86f91b	0.016476205
150	0x3adcde38	0.0016850894
151	0x3ddc37db	0.10752841
152	0xbd6c0645	-0.057623167
153	0xbb8a62f4	-0.004223222
154	0xbe0bddee	-0.13658878
155	0x3daaa1f7	0.083316736
156	0xbe0790aa	-0.13238779
157	0xbbc08a76	-0.005875881
158	0xbca57804	-0.02019883
159	0xbde34d60	-0.110987425
160	0x3d904a12	0.07045378
161	0xbd24d8cd	-0.04024582
162	0xbe1f3947	-0.15549193
163	0xbe0d2cbf	-0.137866
164	0xbd96d7da	-0.07365389
165	0xbd448766	-0.04798069
166	0x3d15b8f0	0.036553323
167	0xbe0304d4	-0.1279481
168	0xbd9f905b	-0.077912055
169	0xbd7a8572	-0.06116242
170	0x3bceab59	0.0063070473
171	0x3e335429	0.17512573
172	0x3d90ab96	0.070639774
173	0x3b3d36d0	0.0028871782
174	0x3cb1330e	0.02163079
175	0xbd865546	-0.06559233
176	0x3e287284	0.16449934
177	0x3d900d89	0.070338316
178	0xbe04a264	-0.12952572
179	0xbdcc7476	-0.09983151
180	0x3ddbbdb4	0.107295424
181	0x3dedb0e6	0.11606006
182	0xbe050767	-0.12991105
183	0xbd573089	-0.05253652
184	0x3d8b7092	0.068085805
185	0x3d2aa7bf	0.04166388
186	0x3ca9383f	0.020656703
187	0xbd053128	-0.032517582
188	0xbba333fb	-0.004980562
189	0x3d109c4b	0.035305303
190	0x3deacd1f	0.11464905
191	0x3c92028c	0.01782348
192	0x3d8ca33d	0.06867073
193	0xbd02c0fa	-0.031922318
194	0xbdfe5a66	-0.12419586
195	0x3c867d3b	0.016417136
196	0x3c6eaafa	0.014567131
197	0x3e73c634	0.23806077
198	0x3dbf043f	0.09326982
199	0xbda9e279	-0.08295149
200	0x3da0cd6f	0.07851683
201	0xbd7febb6	-0.06248065
202	0xbd1aaeae	-0.037764244
203	0xbd82e77b	-0.06391808
204	0x3e210b8e	0.15727064
205	0xbd56fa1d	-0.05248462
206	0xbd87287d	-0.065995194
207	0x3cb1fda6	0.021727394
208	0x3de39f13	0.111143254
209	0x3bbde6a2	0.005795316
210	0x3e988240	0.29786873
211	0x3ccc20db	0.02491801
212	0xbd9f7fed	-0.07788072
213	0xbde0b895	-0.10972706
214	0xbda3d3a6	-0.07999353
215	0xbe110dc5	-0.14165409
216	0x3cb45b96	0.022016328
217	0x3e1da332	0.15394285
218	0x3de584a7	0.11206942
219	0xbd652cba	-0.055950858
220	0x3c106bdb	0.008814777
221	0x3e17ce1c	0.14824718
222	0x3ccd3fba	0.025054801
223	0xbdc525a6	-0.096263215
224	0x3e011b69	0.12608112
225	0x3e4ccb3b	0.19999401
226	0x3c908853	0.01764313
227	0x3c36833f	0.01113969
228	0x3db11471	0.08646477
229	0x3dd2b3f9	0.10288233
230	0x3d3af57a	0.04564426
231	0x3d2a70d1	0.041611496
232	0x3da5f227	0.081028275
233	0xbc5bd36d	-0.013417107
234	0xbd5a8e94	-0.05335863
235	0x3dc8694b	0.09785708
236	0x3d9472e6	0.07248478
237	0x3dc8e9e8	0.09810239
238	0xbcb77a1f	-0.022397099
239	0x3db1775b	0.086653434
240	0x3b0cbb56	0.0021473966
241	0x3db86ee8	0.09005529
242	0x3d883ff0	0.0665282
243	0x3bcf1439	0.0063195494
244	0x3e056db4	0.1303013
245	0x3dbfadc2	0.093593135
246	0x3cf25b4e	0.029584553
247	0xbd3592a2	-0.044329293
248	0x3ccd099f	0.025029002
249	0xbde9c170	-0.114138484
250	0x3d282b09	0.041056667
251	0xbdb98f5b	-0.09060546
252	0x3df68254	0.12036577
253	0x3d032ff4	0.032028154
254	0x3e04a8e0	0.12955046
255	0x3d2ce460	0.042209983
