checkpoints_16_tasks/16_task_groups_PUGCL_epochs_:50_lr_:0.1_hidden_:120_task_order_:[ 1  8  2  3 12  4  0  5  9 14 10  6  7 11 15 13]/model_9.pth.tar (torch_old, 81201 bytes, 136 tensors)

l1.weight_mu f4 [120, 29]
000000 a9 b9 ac bd 4a 70 5f be 03 8c 8b 3d 49 37 ce 3d
       -0.08433849 -0.21820179 0.068138145 0.100691386
000010 1a 25 47 3e cb 95 17 bd 00 6b 30 3d 1b f7 48 bd
       0.19447747 -0.037008088 0.043070793 -0.049063783
000020 e2 87 c5 3d 02 6a 93 bd 9e 7b a8 3d 92 6b ed bc
       0.09645058 -0.07197954 0.08226703 -0.028981958
000030 a5 66 a6 bd d7 67 b0 3e a9 50 6d 3b be 15 cb 3d
       -0.08125047 0.34454224 0.0036211407 0.09916256
000040 8c 16 5f 3d d5 9b 4d bd df 00 52 be 4b 49 68 bd
       0.05446486 -0.05019744 -0.20508145 -0.056710523
000050 e3 eb 4a bd 7e 25 c7 3b 1c f1 5f 3e 31 0f 85 be
       -0.049541365 0.0060774675 0.2186932 -0.25988153
000060 3b bb 08 be 51 d4 61 3d 00 b1 01 3e 7b 33 ea bd
       -0.13352673 0.05513412 0.12665176 -0.114356
000070 de d5 18 3e 97 36 a4 3e 35 95 ab 3e ab 5d 89 3e
       0.14925334 0.320729 0.33512273 0.26829275
000080 ac d9 8a 3e fb b4 c7 3e 0d ca 02 3f 89 1d 05 3e
       0.27119195 0.39005265 0.51089555 0.12999548
000090 f3 97 3e 3e c6 72 3f 3e f1 7e 2f 3d 31 75 84 bc
       0.18612652 0.18696126 0.04284567 -0.016169162
0000a0 d0 a9 8d 3e f6 02 da 3c b4 80 2d 3e 2c 99 4f 3e
       0.2766862 0.02661274 0.16943628 0.20273274
0000b0 4f f4 c1 3d cd 9d 92 3d f7 55 18 3e 0d b9 16 bd
       0.09470426 0.07159004 0.14876543 -0.036797572
0000c0 14 54 43 3e 40 6a 70 3e 96 6d 28 3d 9e ae b1 3b
       0.19075042 0.23478031 0.041120134 0.0054224273
0000d0 b3 62 e0 3e 2f 51 08 3e 26 9b 13 3f 5a c3 2c 3e
       0.43825302 0.13312219 0.5765861 0.16871396
0000e0 e9 0c 6f 3c 48 7a 5d 3e e2 28 2d bd ef de 78 3d
       0.01459048 0.21628678 -0.042275317 0.06075948
0000f0 9f 5f 1a bb b7 27 2b bc d2 4a 4d 3c d0 5b 07 3e
       -0.002355553 -0.0104464805 0.012530046 0.13218617
000100 79 67 69 3b 71 58 ca bd 22 9c d7 3b 20 45 01 3e
       0.0035614653 -0.0988015 0.006579892 0.12624025
000110 1e 5a 96 3c c1 25 48 bd b3 aa 13 bd b4 f7 d0 bb
       0.018353518 -0.04886413 -0.036051463 -0.0063771848
000120 68 c4 27 3d 29 d7 63 be 84 ed 71 bd eb 87 0e 3e
       0.040958792 -0.22250046 -0.059064403 0.13919036
000130 2e ee 5e 3d f7 41 b7 3d 08 1f 96 bd 4b 27 44 3c
       0.054426365 0.08948129 -0.073301375 0.011972259
000140 74 0a 9c 3c e3 f4 bc bc fc d1 3e be 4d 8e 3c be
       0.019047953 -0.02306599 -0.1863479 -0.18413658
000150 9c 6e 20 3c a3 93 9d 3c 5e c0 b6 bd 15 6b 93 bc
       0.009791996 0.019235438 -0.0892341 -0.017995397
000160 f1 8f 0f be d9 f2 6d bd ec 0a 33 3c c5 89 e8 bd
       -0.14019753 -0.058092926 0.010927897 -0.113544025
000170 b1 b0 4b 3e 4a 16 04 3d 1c 6d b5 bb 2a 9a 20 3d
       0.19891621 0.03224782 -0.0055366885 0.039209522
000180 22 81 3b bc d3 a4 68 bd 49 75 4b 3e 2e a2 1f 3d
       -0.011444362 -0.056797814 0.1986896 0.038973026
000190 91 58 0a 3e 78 4f e4 3d aa d2 48 be 47 ba 58 3b
       0.13510348 0.1114797 -0.19611612 0.0033070014
0001a0 56 9b 24 be ec fa 7e 3e 6d 5f 72 3e e7 4f a0 bd
       -0.16074881 0.24900407 0.23669215 -0.0782774
0001b0 f4 42 54 be c0 24 61 bc 43 cb 89 bc 6c 51 06 bd
       -0.20728666 -0.013741672 -0.016820556 -0.032792494
0001c0 43 a7 80 be 43 b1 72 3d 38 e5 0e be bb 5f 91 bc
       -0.2512761 0.05925108 -0.13954628 -0.017745843
0001d0 40 84 16 3e 3c 3a 59 3e b4 4d 31 3c 77 93 65 3e
       0.14698887 0.21213621 0.0108217485 0.22419535
0001e0 52 e6 84 3e 3f 61 c1 3d 49 1a 65 3d 90 f0 e8 3c
       0.2595697 0.09442376 0.05593327 0.028435022
0001f0 82 42 af bb ae 5c 1e 3d 8f 33 c4 3d 67 33 20 3e
       -0.0053485045 0.038662605 0.095801465 0.15644608
000200 13 2e 1b bb d1 af 82 3d 9a 65 23 3d 72 dd ca 3d
       -0.0023678585 0.063811906 0.039891817 0.099055186
000210 5c 82 66 3e c1 28 ba 3d e7 c1 7c bc cf ae a7 3e
       0.22510666 0.090898044 -0.015427089 0.32750556
000220 c6 5e 76 bb e9 cd 7b 3e 62 7d 32 3e 20 14 53 3e
       -0.003759311 0.24590267 0.17430642 0.20613146
000230 35 69 35 3e 26 83 be 3e 8b 40 71 3d 5a 59 89 3d
       0.17715915 0.37209433 0.058899444 0.067064956
000240 c2 e8 89 3e fc 28 c7 bc 5c 8f 03 be 5c 41 11 3e
       0.26935393 -0.024311535 -0.12847656 0.14185089
000250 a3 5f d5 bd 44 45 79 bd bd 25 1f 3d 84 79 a4 bd
       -0.10418632 -0.060857072 0.03885435 -0.0803099
000260 56 3e 44 3e 1b d6 c8 bd 4a 2a b3 bd 54 fb 94 3d
       0.19164404 -0.098064624 -0.087483004 0.072744995
000270 26 7f 1f be 46 a4 a4 bd 22 83 e1 3d 54 70 c7 3c
       -0.15575847 -0.08039145 0.1101134 0.024345554
000280 c8 d2 6f bd be c3 16 3d 5a 3e 53 3e 8d d8 85 bb
       -0.058550626 0.036807768 0.20629254 -0.0040846528
000290 b9 77 f9 3c d4 9a 19 be 19 eb b0 bd a1 99 61 bd
       0.030452596 -0.15000468 -0.08638591 -0.055078153
0002a0 27 99 f4 3d e0 62 9b bd c4 8f bf bd 54 31 16 3d
       0.11943274 -0.07587218 -0.09353593 0.036668137
0002b0 59 6c 67 be eb ff 36 3d 53 66 e7 bb 29 5f 7d 3e
       -0.22599925 0.044677656 -0.0070617585 0.24743332
0002c0 60 66 94 3c cb 17 42 bd 80 d6 2c 3e 9d 81 b4 3d
       0.018115222 -0.047385972 0.168787 0.08813784
0002d0 d2 cc 83 3d 13 ad 0f bd f7 e5 b8 bb 4d 0f 78 3d
       0.06435551 -0.035077166 -0.0056426483 0.060561467
0002e0 de 32 10 be c4 23 b5 3d bc 60 8d 3d f3 62 bf 3d
       -0.14081904 0.088447124 0.06903216 0.09345045
0002f0 e6 5d 2d 3d 56 c4 07 3d 03 2a b2 bd 02 ff 1e 3c
       0.042325877 0.033146225 -0.08699419 0.009704353
000300 b7 67 40 3e b8 b4 06 3d d4 55 13 3d 30 d6 a7 bc
       0.18789564 0.03288719 0.035970524 -0.020487875
000310 4a 61 11 3e 34 9f 90 bc 2f 42 85 bc 60 fa 43 3d
       0.14197269 -0.017654039 -0.01626691 0.047846198
000320 26 37 ab bd fc 06 14 3d 8f 9b ed 3d 3b a6 7a bd
       -0.08360128 0.036139473 0.11601936 -0.061193686
000330 17 c4 03 bd c0 ee 68 3d a3 76 25 3e 88 c6 cf bc
       -0.032169428 0.056868315 0.16158538 -0.025363222
000340 a7 f7 21 bd 03 66 9d bd a7 fc c2 bc e7 91 0d 3d
       -0.03954282 -0.07685473 -0.023802115 0.03456297
000350 a9 b9 96 3e 60 d8 91 3d fe 94 bd 3c c2 0f 25 be
       0.29438522 0.071213484 0.023142334 -0.16119292
000360 d3 60 04 bd 4d 69 bc 3c 73 74 41 3d 56 b9 24 bd
       -0.0323189 0.02299943 0.047230195 -0.040215813
000370 1c ee 7b bd f7 22 65 bc 05 cd 11 3e 3d d8 15 3d
       -0.061506376 -0.013985387 0.14238365 0.036583174
000380 f8 4c d2 bd c0 15 ac bd 83 03 5d be 7d 20 9e 3d
       -0.10268587 -0.08402586 -0.21583371 0.077210404
000390 25 61 1a 3d b9 36 0f 3d 62 f0 6c 3c 68 b5 06 be
       0.0376903 0.034964297 0.014461609 -0.13155138
0003a0 2f 06 0d 3e 24 62 7c 3d 2f 75 3c 3d dd 9f 98 3e
       0.1377189 0.06161703 0.046010192 0.29809466
0003b0 38 55 2b 3e 95 48 85 3e 7f c9 73 3c e7 63 07 3e
       0.16731727 0.26031938 0.014879583 0.13221703
0003c0 4d 6f 36 3d 0a 32 ee 3b 52 14 2d 3d 89 12 14 3d
       0.04453974 0.0072691487 0.042255707 0.03615049
0003d0 b5 0c 37 be a3 66 8b 3d ab bb 63 3e c1 f3 0f 3d
       -0.17875941 0.06806686 0.22239558 0.03514457
0003e0 4f e9 02 3e 99 80 df bc de 93 93 bc e4 55 21 3d
       0.12784313 -0.027283 -0.018014845 0.039388552
0003f0 8a c8 ce 3c 41 eb f3 3d f3 7c 08 3e 31 14 30 3e
       0.025242109 0.119101055 0.13328914 0.17195202

l1.weight_rho f4 [120, 29]
000000 f2 bf 36 c0 1d 50 52 c0 12 5e 43 c0 42 24 38 c0
       -2.8554654 -3.2861397 -3.0526166 -2.877213
000010 c3 af 42 c0 7e 92 3f c0 46 27 41 c0 6b c3 3f c0
       -3.0419776 -2.9933162 -3.018022 -2.9963024
000020 1e 05 42 c0 d1 b4 3d c0 be d1 3a c0 ee dc 37 c0
       -3.0315623 -2.9641612 -2.9190516 -2.8728595
000030 1f 77 3f c0 1a 1e 45 c0 6d a6 46 c0 15 c7 39 c0
       -2.9916456 -3.0799623 -3.1039078 -2.902776
000040 e8 40 39 c0 61 8a 42 c0 0a 8f 44 c0 7f e3 49 c0
       -2.8945866 -3.039696 -3.0712304 -3.1545103
000050 67 4f 4a c0 8c 6f 4e c0 76 d1 3f c0 3d c0 4b c0
       -3.1610963 -3.2255583 -2.9971595 -3.1836083
000060 a5 c8 41 c0 13 b2 3f c0 b4 86 36 c0 c5 76 42 c0
       -3.0278714 -2.9952438 -2.8519716 -3.038499
000070 18 ad 4b c0 2f d2 41 c0 7c 68 37 c0 0d dc 44 c0
       -3.1824398 -3.0284536 -2.8657522 -3.0759308
000080 19 8b 49 c0 0e d6 3d c0 4f ea 46 c0 66 76 43 c0
       -3.1491148 -2.9661899 -3.108051 -3.0541015
000090 1d 98 3c c0 36 3c 44 c0 0d 87 3f c0 b6 36 46 c0
       -2.9467843 -3.066175 -2.9926178 -3.0970893
0000a0 c9 d9 3f c0 d9 0f 39 c0 a0 cd 39 c0 c2 84 3f c0
       -2.9976676 -2.8915923 -2.9031754 -2.992478
0000b0 19 e7 42 c0 f6 92 42 c0 ea c2 4a c0 1c 36 39 c0
       -3.045355 -3.0402198 -3.1681466 -2.8939276
0000c0 b9 dc 3c c0 6a 6a 3d c0 19 0c 39 c0 84 15 34 c0
       -2.9509718 -2.95962 -2.8913634 -2.8138132
0000d0 67 32 42 c0 94 08 3f c0 15 05 3e c0 de e9 34 c0
       -3.0343263 -2.9848986 -2.9690602 -2.8267741
0000e0 c2 b4 41 c0 5e c3 3b c0 2f f6 3d c0 11 a4 4b c0
       -3.0266576 -2.9337993 -2.9681509 -3.1818888
0000f0 38 96 3f c0 52 61 49 c0 50 36 3b c0 b5 bd 47 c0
       -2.9935436 -3.146565 -2.92519 -3.1209538
000100 16 f9 44 c0 bf 66 3f c0 f7 5c 3f c0 1c f2 41 c0
       -3.077703 -2.9906461 -2.9900491 -3.0304022
000110 39 1e 39 c0 d9 65 3b c0 03 49 41 c0 08 44 3a c0
       -2.8924696 -2.9280913 -3.0200813 -2.9104023
000120 ae 17 43 c0 ab 48 46 c0 ab 65 3f c0 74 5a 3b c0
       -3.0483203 -3.0981853 -2.9905803 -2.9273958
000130 24 a1 3f c0 0c a7 3c c0 d8 8e 45 c0 19 65 3b c0
       -2.9942102 -2.9476957 -3.0868435 -2.9280455
000140 75 4f 3c c0 83 df 38 c0 56 d3 39 c0 97 df 4c c0
       -2.9423497 -2.888642 -2.903524 -3.2011468
000150 1d b3 42 c0 8f 3e 46 c0 04 19 44 c0 a5 d1 42 c0
       -3.0421822 -3.0975683 -3.0640268 -3.0440457
000160 5c fc 45 c0 cb 2f 45 c0 d9 5b 41 c0 ee 36 43 c0
       -3.0935278 -3.081042 -3.021231 -3.0502276
000170 9a dc 3d c0 e1 67 3e c0 98 5f 3b c0 9d 10 44 c0
       -2.9665895 -2.9750903 -2.9277096 -3.063514
000180 73 99 40 c0 78 03 39 c0 ae cb 31 c0 bb 74 32 c0
       -3.0093658 -2.8908367 -2.7780566 -2.7883747
000190 02 dc 44 c0 44 41 42 c0 16 b8 40 c0 a1 fe 40 c0
       -3.0759282 -3.0352335 -3.0112357 -3.0155413
0001a0 af 0f 3d c0 3b 57 31 c0 cb fa 3a c0 ed 68 3b c0
       -2.9540823 -2.7709491 -2.9215572 -2.9282792
0001b0 89 d6 3f c0 5c b8 3d c0 4f 9c 3e c0 3c 4d 40 c0
       -2.9974692 -2.9643774 -2.9782903 -3.004714
0001c0 a4 27 41 c0 cc d9 40 c0 f2 f6 3c c0 56 e3 42 c0
       -3.0180445 -3.0132933 -2.9525723 -3.0451255
0001d0 3c cb 48 c0 ae 9e 46 c0 37 2b 3e c0 3d 0d 36 c0
       -3.1374044 -3.103435 -2.9713876 -2.844558
0001e0 53 ed 38 c0 42 f5 41 c0 4c 5d 37 c0 98 3e 3c c0
       -2.8894851 -3.0305943 -2.8650694 -2.9413204
0001f0 00 e2 47 c0 6e be 3e c0 f6 f1 45 c0 1e 74 45 c0
       -3.123169 -2.980373 -3.0928931 -3.0852122
000200 25 fc 44 c0 b9 33 3c c0 b2 45 44 c0 3b f0 3a c0
       -3.0778897 -2.940657 -3.0667539 -2.9209125
000210 b5 1a 4a c0 25 0b 46 c0 5f 26 45 c0 dc 50 44 c0
       -3.15788 -3.0944302 -3.080467 -3.0674353
000220 f3 b2 57 c0 16 ac 41 c0 65 c3 3e c0 fa 56 42 c0
       -3.3702972 -3.0261283 -2.980676 -3.0365586
000230 27 54 3e c0 06 b7 42 c0 32 e7 35 c0 85 46 3e c0
       -2.9738863 -3.0424209 -2.842236 -2.9730542
000240 a5 23 43 c0 2e 5f 3d c0 57 b7 3a c0 93 e4 3f c0
       -3.0490506 -2.9589343 -2.9174402 -2.998326
000250 f2 19 39 c0 31 e4 3f c0 38 98 36 c0 6d ea 3a c0
       -2.8922086 -2.9983027 -2.8530407 -2.9205582
000260 f1 60 3a c0 7d 61 51 c0 b1 bc 41 c0 c0 fe 3e c0
       -2.9121668 -3.2715752 -3.0271418 -2.9842987
000270 99 96 38 c0 b8 0e 4b c0 3d 6a 3a c0 55 21 3e c0
       -2.8841918 -3.1727734 -2.9127343 -2.9707844
000280 8b 1c 38 c0 c0 df 40 c0 5e 94 3e c0 15 73 3f c0
       -2.8767421 -3.0136566 -2.9778056 -2.991399
000290 1d 1b 43 c0 7f 7a 41 c0 44 b6 3f c0 e8 b4 45 c0
       -3.0485299 -3.0231016 -2.9954996 -3.0891666
0002a0 27 07 45 c0 11 62 34 c0 d3 ee 3a c0 3b 0f 3e c0
       -3.0785615 -2.8184855 -2.9208267 -2.9696796
0002b0 80 1b 40 c0 b4 03 48 c0 b2 4f 38 c0 5c fd 48 c0
       -3.0016785 -3.125226 -2.8798642 -3.1404638
0002c0 b7 4e 3b c0 2b 38 3d c0 32 a6 4c c0 4a 94 36 c0
       -2.9266794 -2.9565532 -3.1976438 -2.8528008
0002d0 de 67 3b c0 20 5f 35 c0 62 f1 3d c0 33 4b 42 c0
       -2.9282146 -2.833931 -2.9678578 -3.0358398
0002e0 8c f6 41 c0 83 86 3e c0 99 aa 4a c0 28 eb 34 c0
       -3.030673 -2.97696 -3.1666625 -2.8268528
0002f0 9d 11 3b c0 33 85 39 c0 5a f9 49 c0 75 bc 3b c0
       -2.92295 -2.8987548 -3.1558442 -2.9333775
000300 5a 7c 43 c0 72 9f 42 c0 ce 72 3c c0 56 9d 3b c0
       -3.0544648 -3.0409818 -2.9445071 -2.931478
000310 6c df 3a c0 7f 50 3b c0 09 a1 48 c0 87 c0 3a c0
       -2.9198866 -2.926788 -3.1348288 -2.918001
000320 73 2e 42 c0 04 77 4c c0 63 66 3c c0 ac fb 3a c0
       -3.034085 -3.1947641 -2.9437492 -2.9216108
000330 f7 fa 3f c0 27 45 48 c0 e9 ee 3d c0 ff 78 46 c0
       -2.9996927 -3.1292207 -2.967707 -3.101135
000340 23 5b 3e c0 e8 c1 42 c0 c5 5f 3d c0 25 af 40 c0
       -2.9743125 -3.043085 -2.9589703 -3.01069
000350 1a f2 44 c0 07 52 43 c0 e2 b4 3c c0 41 d0 4c c0
       -3.0772767 -3.0518816 -2.9485402 -3.2002108
000360 f3 22 4d c0 f0 4e 49 c0 94 a2 2d c0 c8 b7 43 c0
       -3.2052581 -3.145443 -2.713048 -3.058092
000370 5c 38 3b c0 cf 1a 43 c0 2e 9f 48 c0 0a e7 40 c0
       -2.925315 -3.0485113 -3.1347156 -3.0141015
000380 aa ae 42 c0 67 11 37 c0 74 5e 44 c0 d6 70 3f c0
       -3.0419106 -2.8604372 -3.068265 -2.991262
000390 dd ef 47 c0 53 df 45 c0 97 44 40 c0 bc 65 39 c0
       -3.124015 -3.0917556 -3.0041864 -2.8968344
0003a0 15 29 3f c0 2e 71 30 c0 93 c3 3a c0 cd 61 3e c0
       -2.9868824 -2.756908 -2.918187 -2.9747193
0003b0 b7 04 3c c0 b1 08 44 c0 72 dc 3c c0 c8 b4 3e c0
       -2.9377878 -3.0630305 -2.950955 -2.979784
0003c0 b6 fa 44 c0 74 52 3c c0 15 02 3f c0 67 60 41 c0
       -3.0778022 -2.9425325 -2.984502 -3.021509
0003d0 e8 ff 3a c0 9c d6 44 c0 17 ef 37 c0 62 0d 3c c0
       -2.9218693 -3.0755987 -2.873968 -2.9383168
0003e0 50 5f 3a c0 c8 17 41 c0 25 a1 33 c0 b9 81 45 c0
       -2.9120674 -3.0170765 -2.8067105 -3.0860426
0003f0 22 6f 3a c0 73 ae 37 c0 f3 45 47 c0 89 cd 34 c0
       -2.913033 -2.8700225 -3.1136444 -2.8250449

l1.bias_mu f4 [120]
000000 44 65 46 3c 42 ef 29 3f 37 83 c1 bd b6 b3 21 be
       0.012109105 0.66380703 -0.09448855 -0.1579121
000010 30 c3 a8 3e 99 ec 1c bd 5e 9b 08 3e 38 70 20 bc
       0.32961416 -0.038311575 0.13340518 -0.00979238
000020 df 63 b4 3e d7 c1 ce 3d 49 8d 86 bc a6 10 83 3d
       0.35232446 0.10095566 -0.016424792 0.0639966
000030 f8 66 51 3e 26 80 2b 3c 0d 0e 49 be 1e e3 37 3e
       0.20449436 0.010467565 -0.19634266 0.17957732
000040 dc 88 03 be 70 d6 92 be 5b 6c 97 3d 4f f5 f5 3c
       -0.12845176 -0.28679228 0.07393714 0.030024199
000050 1b 41 6a be db 89 f7 bd 5f e4 05 3e 63 4b f1 3d
       -0.22876398 -0.12086841 0.13075398 0.11781957
000060 3d 9d 07 3e b1 17 9d bc 7c 00 18 be 62 34 95 3d
       0.13243575 -0.019176336 -0.14843935 0.07285382
000070 4f a8 57 be 64 c9 b6 3d 82 c7 92 3e 9e 03 44 3d
       -0.21060298 0.08925131 0.28667837 0.047855012
000080 18 2e 6c 3c 36 52 09 be 83 71 1f 3e 61 1f 07 be
       0.0144152865 -0.13410267 0.15570645 -0.13195564
000090 16 76 14 3e 8e b2 52 3e ec c0 97 3d 60 a7 08 3e
       0.14498171 0.20575926 0.07409844 0.13345098
0000a0 b5 99 99 3d 81 60 e0 bd 38 06 10 be 39 fa 36 bd
       0.075000204 -0.10955907 -0.14064872 -0.044672225
0000b0 e1 aa 65 3d 89 cc 3d 3d 2f da cc 3d 7d b6 bf 3e
       0.056071166 0.046337638 0.10002553 0.37443915
0000c0 39 6a 8f 3c d7 c3 c2 3d 93 f5 04 be bf 02 a6 3d
       0.017506706 0.0951001 -0.12984304 0.081059925
0000d0 a2 19 b0 bc 54 8b 8f bd d5 e0 b9 bd 0a 77 73 3e
       -0.021496598 -0.070089966 -0.090760864 0.23775879
0000e0 c2 4e ef bd 70 57 51 3e aa bb 34 3e e8 b1 95 bd
       -0.11684944 0.20443511 0.17649713 -0.073093235
0000f0 55 86 9c bd 98 ff 89 3d b3 8d a2 3c 5b 9d 7e 3e
       -0.07642809 0.06738204 0.019842958 0.24864714
000100 1d d4 70 bc 86 42 ce bd e9 b5 92 3c f2 6d 12 be
       -0.014699009 -0.10071282 0.017909007 -0.14299753
000110 82 12 4f 3e 82 f4 15 bd f2 09 ba 3d ae 1f 8d 3d
       0.20221904 -0.036610134 0.09083928 0.06890808
000120 bf ea e2 bb 52 e8 8d bc 4c 62 31 bc 86 34 13 be
       -0.0069249566 -0.017322693 -0.010826658 -0.14375505
000130 95 fa 10 be f7 7b de bd 83 57 67 3c 7f 4d 8b 3c
       -0.1415809 -0.10863488 0.0141199855 0.017004726
000140 84 0a b4 bd 58 b8 5d 3d a0 18 9f 3c ba 22 74 3e
       -0.08791068 0.054130882 0.019420922 0.23841372
000150 41 c8 28 be b9 7c c0 3d 3f cf 66 be b6 78 eb bb
       -0.16482641 0.09398789 -0.22539996 -0.0071860207
000160 15 40 dd bd 3b b3 8a 38 ec 64 3e be f3 96 aa bd
       -0.10803238 6.613737e-05 -0.18593186 -0.083295725
000170 0b 38 23 bd f0 e1 18 bd 29 74 3e 3e d8 63 5a bd
       -0.03984837 -0.037324846 0.18598999 -0.053317875
000180 d7 58 9b 3c f6 a8 8b 3c 76 90 1c be a4 c8 00 be
       0.01896326 0.01704834 -0.15289482 -0.12576538
000190 f1 73 58 3e de 2a 09 3e ce 75 5d bd d0 78 69 be
       0.21137978 0.13395259 -0.054067425 -0.22799993
0001a0 6e 63 07 3c 37 33 8f 3e ff a6 d1 3d c3 66 07 3d
       0.008263452 0.2796876 0.1023693 0.033056986
0001b0 5e f5 df 3c ec cf b4 3c 0f 09 38 bd 0f 85 42 3d
       0.02733868 0.022071801 -0.044930514 0.047490176
0001c0 52 3d e0 3c 3f 9a b7 3e 58 3c 68 bd 68 25 87 3d
       0.02737299 0.35859868 -0.056698173 0.065989316
0001d0 bd 54 28 be f4 b0 50 3d 7d 83 3c 3d d3 09 34 be
       -0.16438575 0.050950006 0.046023834 -0.17581873

l1.bias_rho f4 [120]
000000 a9 1d 50 c0 42 c1 41 c0 75 ca 37 c0 22 d0 3f c0
       -3.2518103 -3.0274205 -2.871732 -2.9970784
000010 2c ab 40 c0 13 91 38 c0 65 af 40 c0 03 42 40 c0
       -3.0104475 -2.8838546 -3.0107052 -3.004029
000020 e7 73 36 c0 00 d3 3a c0 f2 60 47 c0 3f 0a 4a c0
       -2.850824 -2.9191284 -3.115292 -3.1568754
000030 53 52 42 c0 2d 09 45 c0 d7 e1 3c c0 95 46 3f c0
       -3.0362747 -3.078685 -2.9512842 -2.988683
000040 1d 02 3f c0 5d ec 42 c0 50 43 3a c0 d7 86 3a c0
       -2.984504 -3.0456765 -2.9103584 -2.91448
000050 47 f6 41 c0 21 b9 3d c0 e6 9a 36 c0 46 09 3c c0
       -3.0306566 -2.9644244 -2.8532043 -2.938066
000060 1d 57 43 c0 33 b3 39 c0 69 25 37 c0 9e 22 42 c0
       -3.052192 -2.9015625 -2.8616583 -3.0333629
000070 fa 04 3c c0 e1 b8 3a c0 9d 75 4c c0 40 9b 46 c0
       -2.9378037 -2.917534 -3.1946785 -3.1032257
000080 d6 64 48 c0 6f f3 39 c0 00 54 40 c0 ee 7f 3e c0
       -3.1311545 -2.905483 -3.005127 -2.9765582
000090 8e 93 3b c0 d8 77 41 c0 e9 d9 3b c0 c4 88 4a c0
       -2.930881 -3.0229397 -2.9351752 -3.1645975
0000a0 da 4c 37 c0 ad 71 3f c0 1b 5f 45 c0 64 3b 37 c0
       -2.8640656 -2.9913132 -3.0839298 -2.863
0000b0 f6 28 43 c0 8a cc 40 c0 6b 59 47 c0 55 87 37 c0
       -3.049375 -3.012484 -3.1148326 -2.867635
0000c0 8e e7 34 c0 1c e8 39 c0 91 53 45 c0 e3 bc 34 c0
       -2.826633 -2.9047918 -3.0832255 -2.8240287
0000d0 e0 7f 4d c0 e6 8d 4b c0 ec f3 45 c0 21 6f 41 c0
       -3.2109299 -3.1805358 -3.0930128 -3.0224078
0000e0 ff fe 3f c0 ed 27 48 c0 62 45 46 c0 9d 78 3e c0
       -2.9999387 -3.1274369 -3.0979848 -2.9761117
0000f0 38 c2 40 c0 c8 9f 49 c0 d2 b0 36 c0 f9 a3 3a c0
       -3.0118542 -3.1503773 -2.8545423 -2.916258
000100 43 ba 3b c0 2e 5c 35 c0 a2 59 37 c0 b4 95 36 c0
       -2.9332435 -2.8337512 -2.8648458 -2.8528872
000110 83 d9 40 c0 c8 8a 43 c0 81 7e 43 c0 b2 dc 49 c0
       -3.0132759 -3.0553455 -3.0545962 -3.1540952
000120 f6 05 49 c0 11 81 4e c0 f7 c5 41 c0 23 14 48 c0
       -3.1409888 -3.2266276 -3.0277078 -3.126229
000130 84 15 3d c0 c5 16 3e c0 cb f7 3c c0 f2 a7 3c c0
       -2.9544382 -2.9701397 -2.952624 -2.9477506
000140 87 92 3c c0 95 23 47 c0 2f f7 44 c0 d6 68 43 c0
       -2.9464433 -3.1115468 -3.077587 -3.0532737
000150 77 32 3d c0 a0 ea 3e c0 1e 09 43 c0 f8 d2 44 c0
       -2.9562051 -2.9830704 -3.0474315 -3.0753765
000160 ec 0f 3a c0 01 ae 36 c0 89 ca 40 c0 b7 a6 32 c0
       -2.9072218 -2.8543704 -3.0123618 -2.7914255
000170 87 8e 48 c0 b7 8d 3d c0 7a 57 3a c0 76 0d 49 c0
       -3.1336992 -2.9617746 -2.9115891 -3.1414466
000180 e8 a9 38 c0 e0 99 3d c0 a1 7f 3f c0 f2 7d 43 c0
       -2.8853703 -2.9625168 -2.9921649 -3.054562
000190 73 14 44 c0 dd 97 3e c0 eb 21 3c c0 97 be 3f c0
       -3.0637481 -2.978019 -2.9395702 -2.9960077
0001a0 c0 28 43 c0 d1 44 46 c0 37 1f 31 c0 5c cc 38 c0
       -3.0493622 -3.0979502 -2.7675302 -2.887473
0001b0 b0 4c 46 c0 fd 8a 3a c0 d7 71 3e c0 44 6f 3c c0
       -3.0984306 -2.9147332 -2.9756982 -2.944291
0001c0 7b 0e 3d c0 72 b5 3e c0 5c db 47 c0 2a 7b 42 c0
       -2.9540088 -2.9798245 -3.1227636 -3.0387673
0001d0 2a 05 3e c0 0d 6a 47 c0 18 90 3f c0 1e f3 43 c0
       -2.9690652 -3.1158478 -2.9931698 -3.0617137

l1.weight.mu f4 [120, 29]
000000 a9 b9 ac bd 4a 70 5f be 03 8c 8b 3d 49 37 ce 3d
       -0.08433849 -0.21820179 0.068138145 0.100691386
000010 1a 25 47 3e cb 95 17 bd 00 6b 30 3d 1b f7 48 bd
       0.19447747 -0.037008088 0.043070793 -0.049063783
000020 e2 87 c5 3d 02 6a 93 bd 9e 7b a8 3d 92 6b ed bc
       0.09645058 -0.07197954 0.08226703 -0.028981958
000030 a5 66 a6 bd d7 67 b0 3e a9 50 6d 3b be 15 cb 3d
       -0.08125047 0.34454224 0.0036211407 0.09916256
000040 8c 16 5f 3d d5 9b 4d bd df 00 52 be 4b 49 68 bd
       0.05446486 -0.05019744 -0.20508145 -0.056710523
000050 e3 eb 4a bd 7e 25 c7 3b 1c f1 5f 3e 31 0f 85 be
       -0.049541365 0.0060774675 0.2186932 -0.25988153
000060 3b bb 08 be 51 d4 61 3d 00 b1 01 3e 7b 33 ea bd
       -0.13352673 0.05513412 0.12665176 -0.114356
000070 de d5 18 3e 97 36 a4 3e 35 95 ab 3e ab 5d 89 3e
       0.14925334 0.320729 0.33512273 0.26829275
000080 ac d9 8a 3e fb b4 c7 3e 0d ca 02 3f 89 1d 05 3e
       0.27119195 0.39005265 0.51089555 0.12999548
000090 f3 97 3e 3e c6 72 3f 3e f1 7e 2f 3d 31 75 84 bc
       0.18612652 0.18696126 0.04284567 -0.016169162
0000a0 d0 a9 8d 3e f6 02 da 3c b4 80 2d 3e 2c 99 4f 3e
       0.2766862 0.02661274 0.16943628 0.20273274
0000b0 4f f4 c1 3d cd 9d 92 3d f7 55 18 3e 0d b9 16 bd
       0.09470426 0.07159004 0.14876543 -0.036797572
0000c0 14 54 43 3e 40 6a 70 3e 96 6d 28 3d 9e ae b1 3b
       0.19075042 0.23478031 0.041120134 0.0054224273
0000d0 b3 62 e0 3e 2f 51 08 3e 26 9b 13 3f 5a c3 2c 3e
       0.43825302 0.13312219 0.5765861 0.16871396
0000e0 e9 0c 6f 3c 48 7a 5d 3e e2 28 2d bd ef de 78 3d
       0.01459048 0.21628678 -0.042275317 0.06075948
0000f0 9f 5f 1a bb b7 27 2b bc d2 4a 4d 3c d0 5b 07 3e
       -0.002355553 -0.0104464805 0.012530046 0.13218617
000100 79 67 69 3b 71 58 ca bd 22 9c d7 3b 20 45 01 3e
       0.0035614653 -0.0988015 0.006579892 0.12624025
000110 1e 5a 96 3c c1 25 48 bd b3 aa 13 bd b4 f7 d0 bb
       0.018353518 -0.04886413 -0.036051463 -0.0063771848
000120 68 c4 27 3d 29 d7 63 be 84 ed 71 bd eb 87 0e 3e
       0.040958792 -0.22250046 -0.059064403 0.13919036
000130 2e ee 5e 3d f7 41 b7 3d 08 1f 96 bd 4b 27 44 3c
       0.054426365 0.08948129 -0.073301375 0.011972259
000140 74 0a 9c 3c e3 f4 bc bc fc d1 3e be 4d 8e 3c be
       0.019047953 -0.02306599 -0.1863479 -0.18413658
000150 9c 6e 20 3c a3 93 9d 3c 5e c0 b6 bd 15 6b 93 bc
       0.009791996 0.019235438 -0.0892341 -0.017995397
000160 f1 8f 0f be d9 f2 6d bd ec 0a 33 3c c5 89 e8 bd
       -0.14019753 -0.058092926 0.010927897 -0.113544025
000170 b1 b0 4b 3e 4a 16 04 3d 1c 6d b5 bb 2a 9a 20 3d
       0.19891621 0.03224782 -0.0055366885 0.039209522
000180 22 81 3b bc d3 a4 68 bd 49 75 4b 3e 2e a2 1f 3d
       -0.011444362 -0.056797814 0.1986896 0.038973026
000190 91 58 0a 3e 78 4f e4 3d aa d2 48 be 47 ba 58 3b
       0.13510348 0.1114797 -0.19611612 0.0033070014
0001a0 56 9b 24 be ec fa 7e 3e 6d 5f 72 3e e7 4f a0 bd
       -0.16074881 0.24900407 0.23669215 -0.0782774
0001b0 f4 42 54 be c0 24 61 bc 43 cb 89 bc 6c 51 06 bd
       -0.20728666 -0.013741672 -0.016820556 -0.032792494
0001c0 43 a7 80 be 43 b1 72 3d 38 e5 0e be bb 5f 91 bc
       -0.2512761 0.05925108 -0.13954628 -0.017745843
0001d0 40 84 16 3e 3c 3a 59 3e b4 4d 31 3c 77 93 65 3e
       0.14698887 0.21213621 0.0108217485 0.22419535
0001e0 52 e6 84 3e 3f 61 c1 3d 49 1a 65 3d 90 f0 e8 3c
       0.2595697 0.09442376 0.05593327 0.028435022
0001f0 82 42 af bb ae 5c 1e 3d 8f 33 c4 3d 67 33 20 3e
       -0.0053485045 0.038662605 0.095801465 0.15644608
000200 13 2e 1b bb d1 af 82 3d 9a 65 23 3d 72 dd ca 3d
       -0.0023678585 0.063811906 0.039891817 0.099055186
000210 5c 82 66 3e c1 28 ba 3d e7 c1 7c bc cf ae a7 3e
       0.22510666 0.090898044 -0.015427089 0.32750556
000220 c6 5e 76 bb e9 cd 7b 3e 62 7d 32 3e 20 14 53 3e
       -0.003759311 0.24590267 0.17430642 0.20613146
000230 35 69 35 3e 26 83 be 3e 8b 40 71 3d 5a 59 89 3d
       0.17715915 0.37209433 0.058899444 0.067064956
000240 c2 e8 89 3e fc 28 c7 bc 5c 8f 03 be 5c 41 11 3e
       0.26935393 -0.024311535 -0.12847656 0.14185089
000250 a3 5f d5 bd 44 45 79 bd bd 25 1f 3d 84 79 a4 bd
       -0.10418632 -0.060857072 0.03885435 -0.0803099
000260 56 3e 44 3e 1b d6 c8 bd 4a 2a b3 bd 54 fb 94 3d
       0.19164404 -0.098064624 -0.087483004 0.072744995
000270 26 7f 1f be 46 a4 a4 bd 22 83 e1 3d 54 70 c7 3c
       -0.15575847 -0.08039145 0.1101134 0.024345554
000280 c8 d2 6f bd be c3 16 3d 5a 3e 53 3e 8d d8 85 bb
       -0.058550626 0.036807768 0.20629254 -0.0040846528
000290 b9 77 f9 3c d4 9a 19 be 19 eb b0 bd a1 99 61 bd
       0.030452596 -0.15000468 -0.08638591 -0.055078153
0002a0 27 99 f4 3d e0 62 9b bd c4 8f bf bd 54 31 16 3d
       0.11943274 -0.07587218 -0.09353593 0.036668137
0002b0 59 6c 67 be eb ff 36 3d 53 66 e7 bb 29 5f 7d 3e
       -0.22599925 0.044677656 -0.0070617585 0.24743332
0002c0 60 66 94 3c cb 17 42 bd 80 d6 2c 3e 9d 81 b4 3d
       0.018115222 -0.047385972 0.168787 0.08813784
0002d0 d2 cc 83 3d 13 ad 0f bd f7 e5 b8 bb 4d 0f 78 3d
       0.06435551 -0.035077166 -0.0056426483 0.060561467
0002e0 de 32 10 be c4 23 b5 3d bc 60 8d 3d f3 62 bf 3d
       -0.14081904 0.088447124 0.06903216 0.09345045
0002f0 e6 5d 2d 3d 56 c4 07 3d 03 2a b2 bd 02 ff 1e 3c
       0.042325877 0.033146225 -0.08699419 0.009704353
000300 b7 67 40 3e b8 b4 06 3d d4 55 13 3d 30 d6 a7 bc
       0.18789564 0.03288719 0.035970524 -0.020487875
000310 4a 61 11 3e 34 9f 90 bc 2f 42 85 bc 60 fa 43 3d
       0.14197269 -0.017654039 -0.01626691 0.047846198
000320 26 37 ab bd fc 06 14 3d 8f 9b ed 3d 3b a6 7a bd
       -0.08360128 0.036139473 0.11601936 -0.061193686
000330 17 c4 03 bd c0 ee 68 3d a3 76 25 3e 88 c6 cf bc
       -0.032169428 0.056868315 0.16158538 -0.025363222
000340 a7 f7 21 bd 03 66 9d bd a7 fc c2 bc e7 91 0d 3d
       -0.03954282 -0.07685473 -0.023802115 0.03456297
000350 a9 b9 96 3e 60 d8 91 3d fe 94 bd 3c c2 0f 25 be
       0.29438522 0.071213484 0.023142334 -0.16119292
000360 d3 60 04 bd 4d 69 bc 3c 73 74 41 3d 56 b9 24 bd
       -0.0323189 0.02299943 0.047230195 -0.040215813
000370 1c ee 7b bd f7 22 65 bc 05 cd 11 3e 3d d8 15 3d
       -0.061506376 -0.013985387 0.14238365 0.036583174
000380 f8 4c d2 bd c0 15 ac bd 83 03 5d be 7d 20 9e 3d
       -0.10268587 -0.08402586 -0.21583371 0.077210404
000390 25 61 1a 3d b9 36 0f 3d 62 f0 6c 3c 68 b5 06 be
       0.0376903 0.034964297 0.014461609 -0.13155138
0003a0 2f 06 0d 3e 24 62 7c 3d 2f 75 3c 3d dd 9f 98 3e
       0.1377189 0.06161703 0.046010192 0.29809466
0003b0 38 55 2b 3e 95 48 85 3e 7f c9 73 3c e7 63 07 3e
       0.16731727 0.26031938 0.014879583 0.13221703
0003c0 4d 6f 36 3d 0a 32 ee 3b 52 14 2d 3d 89 12 14 3d
       0.04453974 0.0072691487 0.042255707 0.03615049
0003d0 b5 0c 37 be a3 66 8b 3d ab bb 63 3e c1 f3 0f 3d
       -0.17875941 0.06806686 0.22239558 0.03514457
0003e0 4f e9 02 3e 99 80 df bc de 93 93 bc e4 55 21 3d
       0.12784313 -0.027283 -0.018014845 0.039388552
0003f0 8a c8 ce 3c 41 eb f3 3d f3 7c 08 3e 31 14 30 3e
       0.025242109 0.119101055 0.13328914 0.17195202

l1.weight.rho f4 [120, 29]
000000 f2 bf 36 c0 1d 50 52 c0 12 5e 43 c0 42 24 38 c0
       -2.8554654 -3.2861397 -3.0526166 -2.877213
000010 c3 af 42 c0 7e 92 3f c0 46 27 41 c0 6b c3 3f c0
       -3.0419776 -2.9933162 -3.018022 -2.9963024
000020 1e 05 42 c0 d1 b4 3d c0 be d1 3a c0 ee dc 37 c0
       -3.0315623 -2.9641612 -2.9190516 -2.8728595
000030 1f 77 3f c0 1a 1e 45 c0 6d a6 46 c0 15 c7 39 c0
       -2.9916456 -3.0799623 -3.1039078 -2.902776
000040 e8 40 39 c0 61 8a 42 c0 0a 8f 44 c0 7f e3 49 c0
       -2.8945866 -3.039696 -3.0712304 -3.1545103
000050 67 4f 4a c0 8c 6f 4e c0 76 d1 3f c0 3d c0 4b c0
       -3.1610963 -3.2255583 -2.9971595 -3.1836083
000060 a5 c8 41 c0 13 b2 3f c0 b4 86 36 c0 c5 76 42 c0
       -3.0278714 -2.9952438 -2.8519716 -3.038499
000070 18 ad 4b c0 2f d2 41 c0 7c 68 37 c0 0d dc 44 c0
       -3.1824398 -3.0284536 -2.8657522 -3.0759308
000080 19 8b 49 c0 0e d6 3d c0 4f ea 46 c0 66 76 43 c0
       -3.1491148 -2.9661899 -3.108051 -3.0541015
000090 1d 98 3c c0 36 3c 44 c0 0d 87 3f c0 b6 36 46 c0
       -2.9467843 -3.066175 -2.9926178 -3.0970893
0000a0 c9 d9 3f c0 d9 0f 39 c0 a0 cd 39 c0 c2 84 3f c0
       -2.9976676 -2.8915923 -2.9031754 -2.992478
0000b0 19 e7 42 c0 f6 92 42 c0 ea c2 4a c0 1c 36 39 c0
       -3.045355 -3.0402198 -3.1681466 -2.8939276
0000c0 b9 dc 3c c0 6a 6a 3d c0 19 0c 39 c0 84 15 34 c0
       -2.9509718 -2.95962 -2.8913634 -2.8138132
0000d0 67 32 42 c0 94 08 3f c0 15 05 3e c0 de e9 34 c0
       -3.0343263 -2.9848986 -2.9690602 -2.8267741
0000e0 c2 b4 41 c0 5e c3 3b c0 2f f6 3d c0 11 a4 4b c0
       -3.0266576 -2.9337993 -2.9681509 -3.1818888
0000f0 38 96 3f c0 52 61 49 c0 50 36 3b c0 b5 bd 47 c0
       -2.9935436 -3.146565 -2.92519 -3.1209538
000100 16 f9 44 c0 bf 66 3f c0 f7 5c 3f c0 1c f2 41 c0
       -3.077703 -2.9906461 -2.9900491 -3.0304022
000110 39 1e 39 c0 d9 65 3b c0 03 49 41 c0 08 44 3a c0
       -2.8924696 -2.9280913 -3.0200813 -2.9104023
000120 ae 17 43 c0 ab 48 46 c0 ab 65 3f c0 74 5a 3b c0
       -3.0483203 -3.0981853 -2.9905803 -2.9273958
000130 24 a1 3f c0 0c a7 3c c0 d8 8e 45 c0 19 65 3b c0
       -2.9942102 -2.9476957 -3.0868435 -2.9280455
000140 75 4f 3c c0 83 df 38 c0 56 d3 39 c0 97 df 4c c0
       -2.9423497 -2.888642 -2.903524 -3.2011468
000150 1d b3 42 c0 8f 3e 46 c0 04 19 44 c0 a5 d1 42 c0
       -3.0421822 -3.0975683 -3.0640268 -3.0440457
000160 5c fc 45 c0 cb 2f 45 c0 d9 5b 41 c0 ee 36 43 c0
       -3.0935278 -3.081042 -3.021231 -3.0502276
000170 9a dc 3d c0 e1 67 3e c0 98 5f 3b c0 9d 10 44 c0
       -2.9665895 -2.9750903 -2.9277096 -3.063514
000180 73 99 40 c0 78 03 39 c0 ae cb 31 c0 bb 74 32 c0
       -3.0093658 -2.8908367 -2.7780566 -2.7883747
000190 02 dc 44 c0 44 41 42 c0 16 b8 40 c0 a1 fe 40 c0
       -3.0759282 -3.0352335 -3.0112357 -3.0155413
0001a0 af 0f 3d c0 3b 57 31 c0 cb fa 3a c0 ed 68 3b c0
       -2.9540823 -2.7709491 -2.9215572 -2.9282792
0001b0 89 d6 3f c0 5c b8 3d c0 4f 9c 3e c0 3c 4d 40 c0
       -2.9974692 -2.9643774 -2.9782903 -3.004714
0001c0 a4 27 41 c0 cc d9 40 c0 f2 f6 3c c0 56 e3 42 c0
       -3.0180445 -3.0132933 -2.9525723 -3.0451255
0001d0 3c cb 48 c0 ae 9e 46 c0 37 2b 3e c0 3d 0d 36 c0
       -3.1374044 -3.103435 -2.9713876 -2.844558
0001e0 53 ed 38 c0 42 f5 41 c0 4c 5d 37 c0 98 3e 3c c0
       -2.8894851 -3.0305943 -2.8650694 -2.9413204
0001f0 00 e2 47 c0 6e be 3e c0 f6 f1 45 c0 1e 74 45 c0
       -3.123169 -2.980373 -3.0928931 -3.0852122
000200 25 fc 44 c0 b9 33 3c c0 b2 45 44 c0 3b f0 3a c0
       -3.0778897 -2.940657 -3.0667539 -2.9209125
000210 b5 1a 4a c0 25 0b 46 c0 5f 26 45 c0 dc 50 44 c0
       -3.15788 -3.0944302 -3.080467 -3.0674353
000220 f3 b2 57 c0 16 ac 41 c0 65 c3 3e c0 fa 56 42 c0
       -3.3702972 -3.0261283 -2.980676 -3.0365586
000230 27 54 3e c0 06 b7 42 c0 32 e7 35 c0 85 46 3e c0
       -2.9738863 -3.0424209 -2.842236 -2.9730542
000240 a5 23 43 c0 2e 5f 3d c0 57 b7 3a c0 93 e4 3f c0
       -3.0490506 -2.9589343 -2.9174402 -2.998326
000250 f2 19 39 c0 31 e4 3f c0 38 98 36 c0 6d ea 3a c0
       -2.8922086 -2.9983027 -2.8530407 -2.9205582
000260 f1 60 3a c0 7d 61 51 c0 b1 bc 41 c0 c0 fe 3e c0
       -2.9121668 -3.2715752 -3.0271418 -2.9842987
000270 99 96 38 c0 b8 0e 4b c0 3d 6a 3a c0 55 21 3e c0
       -2.8841918 -3.1727734 -2.9127343 -2.9707844
000280 8b 1c 38 c0 c0 df 40 c0 5e 94 3e c0 15 73 3f c0
       -2.8767421 -3.0136566 -2.9778056 -2.991399
000290 1d 1b 43 c0 7f 7a 41 c0 44 b6 3f c0 e8 b4 45 c0
       -3.0485299 -3.0231016 -2.9954996 -3.0891666
0002a0 27 07 45 c0 11 62 34 c0 d3 ee 3a c0 3b 0f 3e c0
       -3.0785615 -2.8184855 -2.9208267 -2.9696796
0002b0 80 1b 40 c0 b4 03 48 c0 b2 4f 38 c0 5c fd 48 c0
       -3.0016785 -3.125226 -2.8798642 -3.1404638
0002c0 b7 4e 3b c0 2b 38 3d c0 32 a6 4c c0 4a 94 36 c0
       -2.9266794 -2.9565532 -3.1976438 -2.8528008
0002d0 de 67 3b c0 20 5f 35 c0 62 f1 3d c0 33 4b 42 c0
       -2.9282146 -2.833931 -2.9678578 -3.0358398
0002e0 8c f6 41 c0 83 86 3e c0 99 aa 4a c0 28 eb 34 c0
       -3.030673 -2.97696 -3.1666625 -2.8268528
0002f0 9d 11 3b c0 33 85 39 c0 5a f9 49 c0 75 bc 3b c0
       -2.92295 -2.8987548 -3.1558442 -2.9333775
000300 5a 7c 43 c0 72 9f 42 c0 ce 72 3c c0 56 9d 3b c0
       -3.0544648 -3.0409818 -2.9445071 -2.931478
000310 6c df 3a c0 7f 50 3b c0 09 a1 48 c0 87 c0 3a c0
       -2.9198866 -2.926788 -3.1348288 -2.918001
000320 73 2e 42 c0 04 77 4c c0 63 66 3c c0 ac fb 3a c0
       -3.034085 -3.1947641 -2.9437492 -2.9216108
000330 f7 fa 3f c0 27 45 48 c0 e9 ee 3d c0 ff 78 46 c0
       -2.9996927 -3.1292207 -2.967707 -3.101135
000340 23 5b 3e c0 e8 c1 42 c0 c5 5f 3d c0 25 af 40 c0
       -2.9743125 -3.043085 -2.9589703 -3.01069
000350 1a f2 44 c0 07 52 43 c0 e2 b4 3c c0 41 d0 4c c0
       -3.0772767 -3.0518816 -2.9485402 -3.2002108
000360 f3 22 4d c0 f0 4e 49 c0 94 a2 2d c0 c8 b7 43 c0
       -3.2052581 -3.145443 -2.713048 -3.058092
000370 5c 38 3b c0 cf 1a 43 c0 2e 9f 48 c0 0a e7 40 c0
       -2.925315 -3.0485113 -3.1347156 -3.0141015
000380 aa ae 42 c0 67 11 37 c0 74 5e 44 c0 d6 70 3f c0
       -3.0419106 -2.8604372 -3.068265 -2.991262
000390 dd ef 47 c0 53 df 45 c0 97 44 40 c0 bc 65 39 c0
       -3.124015 -3.0917556 -3.0041864 -2.8968344
0003a0 15 29 3f c0 2e 71 30 c0 93 c3 3a c0 cd 61 3e c0
       -2.9868824 -2.756908 -2.918187 -2.9747193
0003b0 b7 04 3c c0 b1 08 44 c0 72 dc 3c c0 c8 b4 3e c0
       -2.9377878 -3.0630305 -2.950955 -2.979784
0003c0 b6 fa 44 c0 74 52 3c c0 15 02 3f c0 67 60 41 c0
       -3.0778022 -2.9425325 -2.984502 -3.021509
0003d0 e8 ff 3a c0 9c d6 44 c0 17 ef 37 c0 62 0d 3c c0
       -2.9218693 -3.0755987 -2.873968 -2.9383168
0003e0 50 5f 3a c0 c8 17 41 c0 25 a1 33 c0 b9 81 45 c0
       -2.9120674 -3.0170765 -2.8067105 -3.0860426
0003f0 22 6f 3a c0 73 ae 37 c0 f3 45 47 c0 89 cd 34 c0
       -2.913033 -2.8700225 -3.1136444 -2.8250449

l1.bias.mu f4 [120]
000000 44 65 46 3c 42 ef 29 3f 37 83 c1 bd b6 b3 21 be
       0.012109105 0.66380703 -0.09448855 -0.1579121
000010 30 c3 a8 3e 99 ec 1c bd 5e 9b 08 3e 38 70 20 bc
       0.32961416 -0.038311575 0.13340518 -0.00979238
000020 df 63 b4 3e d7 c1 ce 3d 49 8d 86 bc a6 10 83 3d
       0.35232446 0.10095566 -0.016424792 0.0639966
000030 f8 66 51 3e 26 80 2b 3c 0d 0e 49 be 1e e3 37 3e
       0.20449436 0.010467565 -0.19634266 0.17957732
000040 dc 88 03 be 70 d6 92 be 5b 6c 97 3d 4f f5 f5 3c
       -0.12845176 -0.28679228 0.07393714 0.030024199
000050 1b 41 6a be db 89 f7 bd 5f e4 05 3e 63 4b f1 3d
       -0.22876398 -0.12086841 0.13075398 0.11781957
000060 3d 9d 07 3e b1 17 9d bc 7c 00 18 be 62 34 95 3d
       0.13243575 -0.019176336 -0.14843935 0.07285382
000070 4f a8 57 be 64 c9 b6 3d 82 c7 92 3e 9e 03 44 3d
       -0.21060298 0.08925131 0.28667837 0.047855012
000080 18 2e 6c 3c 36 52 09 be 83 71 1f 3e 61 1f 07 be
       0.0144152865 -0.13410267 0.15570645 -0.13195564
000090 16 76 14 3e 8e b2 52 3e ec c0 97 3d 60 a7 08 3e
       0.14498171 0.20575926 0.07409844 0.13345098
0000a0 b5 99 99 3d 81 60 e0 bd 38 06 10 be 39 fa 36 bd
       0.075000204 -0.10955907 -0.14064872 -0.044672225
0000b0 e1 aa 65 3d 89 cc 3d 3d 2f da cc 3d 7d b6 bf 3e
       0.056071166 0.046337638 0.10002553 0.37443915
0000c0 39 6a 8f 3c d7 c3 c2 3d 93 f5 04 be bf 02 a6 3d
       0.017506706 0.0951001 -0.12984304 0.081059925
0000d0 a2 19 b0 bc 54 8b 8f bd d5 e0 b9 bd 0a 77 73 3e
       -0.021496598 -0.070089966 -0.090760864 0.23775879
0000e0 c2 4e ef bd 70 57 51 3e aa bb 34 3e e8 b1 95 bd
       -0.11684944 0.20443511 0.17649713 -0.073093235
0000f0 55 86 9c bd 98 ff 89 3d b3 8d a2 3c 5b 9d 7e 3e
       -0.07642809 0.06738204 0.019842958 0.24864714
000100 1d d4 70 bc 86 42 ce bd e9 b5 92 3c f2 6d 12 be
       -0.014699009 -0.10071282 0.017909007 -0.14299753
000110 82 12 4f 3e 82 f4 15 bd f2 09 ba 3d ae 1f 8d 3d
       0.20221904 -0.036610134 0.09083928 0.06890808
000120 bf ea e2 bb 52 e8 8d bc 4c 62 31 bc 86 34 13 be
       -0.0069249566 -0.017322693 -0.010826658 -0.14375505
000130 95 fa 10 be f7 7b de bd 83 57 67 3c 7f 4d 8b 3c
       -0.1415809 -0.10863488 0.0141199855 0.017004726
000140 84 0a b4 bd 58 b8 5d 3d a0 18 9f 3c ba 22 74 3e
       -0.08791068 0.054130882 0.019420922 0.23841372
000150 41 c8 28 be b9 7c c0 3d 3f cf 66 be b6 78 eb bb
       -0.16482641 0.09398789 -0.22539996 -0.0071860207
000160 15 40 dd bd 3b b3 8a 38 ec 64 3e be f3 96 aa bd
       -0.10803238 6.613737e-05 -0.18593186 -0.083295725
000170 0b 38 23 bd f0 e1 18 bd 29 74 3e 3e d8 63 5a bd
       -0.03984837 -0.037324846 0.18598999 -0.053317875
000180 d7 58 9b 3c f6 a8 8b 3c 76 90 1c be a4 c8 00 be
       0.01896326 0.01704834 -0.15289482 -0.12576538
000190 f1 73 58 3e de 2a 09 3e ce 75 5d bd d0 78 69 be
       0.21137978 0.13395259 -0.054067425 -0.22799993
0001a0 6e 63 07 3c 37 33 8f 3e ff a6 d1 3d c3 66 07 3d
       0.008263452 0.2796876 0.1023693 0.033056986
0001b0 5e f5 df 3c ec cf b4 3c 0f 09 38 bd 0f 85 42 3d
       0.02733868 0.022071801 -0.044930514 0.047490176
0001c0 52 3d e0 3c 3f 9a b7 3e 58 3c 68 bd 68 25 87 3d
       0.02737299 0.35859868 -0.056698173 0.065989316
0001d0 bd 54 28 be f4 b0 50 3d 7d 83 3c 3d d3 09 34 be
       -0.16438575 0.050950006 0.046023834 -0.17581873

l1.bias.rho f4 [120]
000000 a9 1d 50 c0 42 c1 41 c0 75 ca 37 c0 22 d0 3f c0
       -3.2518103 -3.0274205 -2.871732 -2.9970784
000010 2c ab 40 c0 13 91 38 c0 65 af 40 c0 03 42 40 c0
       -3.0104475 -2.8838546 -3.0107052 -3.004029
000020 e7 73 36 c0 00 d3 3a c0 f2 60 47 c0 3f 0a 4a c0
       -2.850824 -2.9191284 -3.115292 -3.1568754
000030 53 52 42 c0 2d 09 45 c0 d7 e1 3c c0 95 46 3f c0
       -3.0362747 -3.078685 -2.9512842 -2.988683
000040 1d 02 3f c0 5d ec 42 c0 50 43 3a c0 d7 86 3a c0
       -2.984504 -3.0456765 -2.9103584 -2.91448
000050 47 f6 41 c0 21 b9 3d c0 e6 9a 36 c0 46 09 3c c0
       -3.0306566 -2.9644244 -2.8532043 -2.938066
000060 1d 57 43 c0 33 b3 39 c0 69 25 37 c0 9e 22 42 c0
       -3.052192 -2.9015625 -2.8616583 -3.0333629
000070 fa 04 3c c0 e1 b8 3a c0 9d 75 4c c0 40 9b 46 c0
       -2.9378037 -2.917534 -3.1946785 -3.1032257
000080 d6 64 48 c0 6f f3 39 c0 00 54 40 c0 ee 7f 3e c0
       -3.1311545 -2.905483 -3.005127 -2.9765582
000090 8e 93 3b c0 d8 77 41 c0 e9 d9 3b c0 c4 88 4a c0
       -2.930881 -3.0229397 -2.9351752 -3.1645975
0000a0 da 4c 37 c0 ad 71 3f c0 1b 5f 45 c0 64 3b 37 c0
       -2.8640656 -2.9913132 -3.0839298 -2.863
0000b0 f6 28 43 c0 8a cc 40 c0 6b 59 47 c0 55 87 37 c0
       -3.049375 -3.012484 -3.1148326 -2.867635
0000c0 8e e7 34 c0 1c e8 39 c0 91 53 45 c0 e3 bc 34 c0
       -2.826633 -2.9047918 -3.0832255 -2.8240287
0000d0 e0 7f 4d c0 e6 8d 4b c0 ec f3 45 c0 21 6f 41 c0
       -3.2109299 -3.1805358 -3.0930128 -3.0224078
0000e0 ff fe 3f c0 ed 27 48 c0 62 45 46 c0 9d 78 3e c0
       -2.9999387 -3.1274369 -3.0979848 -2.9761117
0000f0 38 c2 40 c0 c8 9f 49 c0 d2 b0 36 c0 f9 a3 3a c0
       -3.0118542 -3.1503773 -2.8545423 -2.916258
000100 43 ba 3b c0 2e 5c 35 c0 a2 59 37 c0 b4 95 36 c0
       -2.9332435 -2.8337512 -2.8648458 -2.8528872
000110 83 d9 40 c0 c8 8a 43 c0 81 7e 43 c0 b2 dc 49 c0
       -3.0132759 -3.0553455 -3.0545962 -3.1540952
000120 f6 05 49 c0 11 81 4e c0 f7 c5 41 c0 23 14 48 c0
       -3.1409888 -3.2266276 -3.0277078 -3.126229
000130 84 15 3d c0 c5 16 3e c0 cb f7 3c c0 f2 a7 3c c0
       -2.9544382 -2.9701397 -2.952624 -2.9477506
000140 87 92 3c c0 95 23 47 c0 2f f7 44 c0 d6 68 43 c0
       -2.9464433 -3.1115468 -3.077587 -3.0532737
000150 77 32 3d c0 a0 ea 3e c0 1e 09 43 c0 f8 d2 44 c0
       -2.9562051 -2.9830704 -3.0474315 -3.0753765
000160 ec 0f 3a c0 01 ae 36 c0 89 ca 40 c0 b7 a6 32 c0
       -2.9072218 -2.8543704 -3.0123618 -2.7914255
000170 87 8e 48 c0 b7 8d 3d c0 7a 57 3a c0 76 0d 49 c0
       -3.1336992 -2.9617746 -2.9115891 -3.1414466
000180 e8 a9 38 c0 e0 99 3d c0 a1 7f 3f c0 f2 7d 43 c0
       -2.8853703 -2.9625168 -2.9921649 -3.054562
000190 73 14 44 c0 dd 97 3e c0 eb 21 3c c0 97 be 3f c0
       -3.0637481 -2.978019 -2.9395702 -2.9960077
0001a0 c0 28 43 c0 d1 44 46 c0 37 1f 31 c0 5c cc 38 c0
       -3.0493622 -3.0979502 -2.7675302 -2.887473
0001b0 b0 4c 46 c0 fd 8a 3a c0 d7 71 3e c0 44 6f 3c c0
       -3.0984306 -2.9147332 -2.9756982 -2.944291
0001c0 7b 0e 3d c0 72 b5 3e c0 5c db 47 c0 2a 7b 42 c0
       -2.9540088 -2.9798245 -3.1227636 -3.0387673
0001d0 2a 05 3e c0 0d 6a 47 c0 18 90 3f c0 1e f3 43 c0
       -2.9690652 -3.1158478 -2.9931698 -3.0617137

classifier.0.weight_mu f4 [2, 120]
000000 6d 03 a4 3c 59 9d 92 3d 15 ed b5 bc e7 b0 8b 3c
       0.020021165 0.07158918 -0.022207776 0.017052127
000010 62 de b2 3d 0d d1 eb 3d fc e2 40 be bc 64 17 bd
       0.087338224 0.11514483 -0.18836588 -0.036961302
000020 89 45 52 3e 23 13 cc 3d 9c 0f cb 3c 96 af 31 bd
       0.20534338 0.099645875 0.024787717 -0.043380342
000030 e5 72 31 3e 7e fc 12 be 8f f6 31 3e 8b 1f ef bc
       0.17328985 -0.1435413 0.17379211 -0.029189846
000040 1f dd b2 3d 96 d2 33 3e 4e fd 8c bd fb 03 78 bc
       0.08733582 0.17560801 -0.068842515 -0.015137668
000050 eb 74 7b 3c 67 db cb bd 2f 1e e8 bd 1e e8 42 bd
       0.0153477 -0.09953957 -0.11333882 -0.047584645
000060 44 fb a8 bd 33 e4 3d 3e d8 6d d0 bd c4 92 fc bc
       -0.0825105 0.18544082 -0.10177201 -0.030831702
000070 f0 4b 9d bd b6 4b 75 3d 41 2d db bd db 92 1f 3d
       -0.076804996 0.059886657 -0.10701991 0.03895841
000080 4e 18 1d 3c 2b 13 a7 bd da be 12 3e 3a 1a 55 bc
       0.009588314 -0.08157953 0.14330617 -0.013006741
000090 de 26 2d 3d 7e 70 ec 3c bf e6 64 bd 8a 90 4c 3d
       0.042273395 0.028862234 -0.05588412 0.04994253
0000a0 09 cb 49 3d 9b 11 04 3e d3 78 d6 3d 90 27 c3 3b
       0.049265895 0.12897341 0.10472264 0.005955644
0000b0 be 70 d1 3d 0e 6d c9 3d c0 c2 d8 bd 65 6f 5d bd
       0.10226582 0.09835254 -0.105840206 -0.054061312
0000c0 20 1c c5 3d bd 99 10 3e ec 6b 22 3e 33 72 20 bd
       0.09624505 0.14121147 0.15861481 -0.03917141
0000d0 c6 4e 0d 3d 5c 9f 1b be b4 a7 0d be 3c 88 aa bd
       0.034498952 -0.1519751 -0.13833505 -0.08326766
0000e0 c1 ac be bd af 67 94 3d 5e 84 7d 3e 3c 33 12 bc
       -0.09310294 0.072463386 0.24757525 -0.008923348
0000f0 79 d7 65 bd 3a 52 6e be ba 46 7a be 28 bf 58 3e
       -0.056113694 -0.23273554 -0.24441043 0.2116667
000100 d6 82 50 bd 5e d4 d6 bd e9 ca 31 3e 6c 32 bc bd
       -0.050906025 -0.104897246 0.1736256 -0.09189305
000110 94 0c 7b bd cb 58 67 bd cc b6 36 bd f4 bc 31 3d
       -0.061291292 -0.056481164 -0.044607922 0.04339309
000120 b8 e1 4a 3d 13 02 0a 3c 95 51 aa 3d c2 52 ad 3c
       0.04953167 0.008423346 0.08316342 0.021157626
000130 14 41 c3 3d 97 85 6d 3d 85 3b 96 bc bf 01 aa bc
       0.09533897 0.05798873 -0.018338928 -0.020752786
000140 cb 86 18 3d b4 99 ab 3c a5 74 02 3d b0 e4 45 bc
       0.037237924 0.020947315 0.031849522 -0.012078449
000150 e3 b6 d6 bb 74 78 4d 3e 72 ac f2 3d 7e 9f 70 bd
       -0.0065525635 0.2006548 0.118492976 -0.058745854
000160 d6 60 31 be 9e e6 b8 3c f5 58 08 bd 4a 59 95 3d
       -0.17322096 0.022570904 -0.03328796 0.07292421
000170 cb 05 9a bd 56 81 6b b9 6d 57 a8 3d 91 1e bc bc
       -0.07520636 -0.00022459528 0.082198 -0.022963794
000180 91 70 04 3e 20 75 f6 bd 78 e6 70 bd f8 6e d1 ba
       0.12933566 -0.120340586 -0.058813542 -0.0015978506
000190 a2 af 1e 3e 1e 28 6e 3d ef 44 3d 3d bc 64 e9 3c
       0.15496686 0.058143727 0.04620832 0.028490417
0001a0 77 23 25 be 6f 10 9d 3e 2c ae 1b 3e b7 60 b0 3c
       -0.1612681 0.306766 0.1520316 0.021530492
0001b0 78 6b 26 be 0d e1 0c be 77 8d ef 3c 5b a5 1a 3e
       -0.16251934 -0.13757725 0.02924226 0.1510214
0001c0 c5 e5 1b 3c 5b 3b 00 be b0 ad 89 3d 32 3f cf 3c
       0.009515231 -0.12522642 0.067225814 0.025298689
0001d0 9a 30 5b 3d 6d 3d 24 3e 8c d9 3e 3e 72 07 ba bb
       0.053513147 0.16039057 0.18637675 -0.005677157
0001e0 9b 98 3d 3d d2 c0 fb 3d a5 ec bf bd 8e 1f d0 3c
       0.046288114 0.12292637 -0.09371308 0.025405671
0001f0 ae 12 bf bd c9 e4 7c bb 94 f0 3d 3e 5c cc 2c bd
       -0.09329735 -0.0038588515 0.18548805 -0.04218708
000200 a4 93 8c bd 70 a0 a4 3d db 01 7a 3c 3c 59 35 3d
       -0.06864098 0.080384135 0.015259231 0.044274554
000210 28 12 7a bd eb 76 5b 3e 8e fa 04 be 0e 6f ef 3c
       -0.06105247 0.21432082 -0.12986204 0.02922776
000220 e5 af a0 bd 1d 9a 58 bc 20 62 5e bc e5 2a 1d be
       -0.07846049 -0.013220337 -0.0135731995 -0.15348394
000230 4f 96 d8 bc b8 ca f9 bd 83 28 63 bd 76 3b 8a 3b
       -0.02643886 -0.12196869 -0.055458557 0.004218514
000240 4d 0b 96 bd ca cd 06 3d 32 3b e0 3c 81 a1 22 3b
       -0.07326374 0.0329111 0.027371977 0.0024815502
000250 78 22 4a bd 04 6d ae 3c f1 c7 fe 3d aa e0 19 3e
       -0.04934928 0.021292217 0.124404795 0.15027109
000260 b5 4a ff bd 11 5d 8a 3d 61 92 b4 bc de 26 9b 3d
       -0.12465421 0.06756032 -0.022042455 0.07575773
000270 a5 6d ff 3d 04 91 73 bc 58 f2 48 3d 09 3d 74 3c
       0.12472085 -0.014866117 0.049059242 0.01490713
000280 55 11 8e 3d e6 2d 31 bd 50 a7 02 be d7 eb c1 bd
       0.069368996 -0.043256663 -0.12759137 -0.09468811
000290 c4 7e d9 3d c5 53 02 3e de fa 54 bd 7d fa 5a 3e
       0.10619882 0.12727268 -0.051997058 0.21384616
0002a0 c7 15 4c 3d f4 99 93 bd b7 1a 84 bd 05 2e 9b bd
       0.049825456 -0.072070986 -0.06450408 -0.07577137
0002b0 e7 11 1a 3e 90 30 17 3d 0b c4 09 3e 36 06 3c be
       0.15045892 0.036911547 0.1345369 -0.18361744
0002c0 f8 9d 1c 3e fb 19 5c bd 41 44 45 bd 60 a3 87 3d
       0.15294635 -0.053735714 -0.048160795 0.06622958
0002d0 33 6e 47 3e 88 b1 5d 3d 32 76 92 bc c0 d6 10 3e
       0.19475631 0.054124385 -0.017878626 0.1414442
0002e0 09 29 14 be 67 72 a7 3c 19 64 b8 bd 3d f9 09 bd
       -0.14468779 0.020440293 -0.09003467 -0.033684958
0002f0 62 a9 47 bd 00 58 ac 3c 36 b1 d6 39 c7 3f ba 3d
       -0.04874552 0.021038055 0.00040949293 0.09094196
000300 c7 3f bf bd 06 cd 0c be 2c ce ce 3d 70 29 0c 3d
       -0.093383364 -0.13750085 0.10097918 0.034219205
000310 06 66 cb 3d 93 7f 29 be 6b 81 03 3e 3b c3 24 3c
       0.09931569 -0.16552572 0.12842338 0.010056312
000320 52 3d 81 bd 57 82 1b 3e f2 39 f7 3c f8 2f 46 bd
       -0.06310524 0.1518644 0.030178998 -0.04838559
000330 08 ff 62 bd be 20 bd 3d 29 18 fa bd ae f4 aa 3d
       -0.055418998 0.09234761 -0.122116394 0.0834745
000340 30 6d ab bd 65 07 af bb f3 4a 20 3e 66 8d 8f 3b
       -0.08370435 -0.0053414577 0.15653591 0.0043808697
000350 43 b0 9c 3d 45 b7 97 3d 1b 9a cc 3d 65 ed 9c 3d
       0.07650807 0.07408003 0.09990331 0.07662467
000360 56 7a db 3a 9c be 35 be b9 b0 51 3d 36 5c cc bd
       0.0016744833 -0.17748493 0.051193926 -0.09978525
000370 08 36 b3 bd 9f 72 4c bd b9 40 2a bd f1 42 5c bc
       -0.0875054 -0.049914 -0.04156563 -0.013443694
000380 ad 15 ad 3d b6 3b 89 bb 1a 95 0a 3e 6a e9 28 3e
       0.084514 -0.0041880263 0.1353344 0.1649529
000390 eb 01 d4 bd f8 2c db bb ba 4c ae bc 36 3c b4 3a
       -0.10351928 -0.0066887103 -0.02127682 0.0013750854
0003a0 dd 9f ef b9 a5 66 07 bd 98 24 83 bd 32 8b a4 bc
       -0.0004570474 -0.033056874 -0.06403464 -0.020085905
0003b0 55 3b 04 3d 28 6b 0c 3c 47 f6 c0 3b 3d b5 28 bc
       0.032283146 0.00857047 0.0058887335 -0.010297117
