checkpoints_16_tasks/16_task_groups_PUGCL_epochs_:50_lr_:0.1_hidden_:120_task_order_:[ 1  8  2  3 12  4  0  5  9 14 10  6  7 11 15 13]/model_5.pth.tar (torch_old, 81201 bytes, 136 tensors)

l1.weight_mu f4 [120, 29]
-0.08433849 -0.2458521 0.056075525 0.097590975 0.17000611 -0.061775837 0.027971232 -0.05149285
0.09645058 -0.074752994 0.07497276 -0.039170958 -0.08825065 0.3341742 -0.0089283185 0.09112977
0.05072632 -0.053417698 -0.20826033 -0.06414476 -0.05418096 0.0037493513 0.20439783 -0.27083257
-0.13699435 0.02952267 0.122451745 -0.11632397 0.13792358 0.320729 0.17886817 0.20682612
0.24534255 0.27165946 0.39351654 0.057260312 0.15791756 0.18696126 0.030040652 -0.040939793
0.23479222 -0.009074757 0.12461285 0.14607038 0.059941355 0.042514153 0.115725785 -0.06973276
0.13625081 0.20243779 0.01877387 -0.020931954 0.31861085 0.09583258 0.45792085 0.14678939
-0.001121128 0.15231699 -0.042275317 0.083542496 0.007004982 -0.009867443 0.034865092 0.15429507
0.014385517 -0.098081365 0.006579892 0.12780787 0.022111516 -0.04177229 -0.031019688 0.00026610855
0.05025801 -0.21756513 -0.055062395 0.14773221 0.060474474 0.10152776 -0.07092 0.013781041
0.02393746 -0.006314953 -0.18174133 -0.16567425 0.013208199 0.021935835 -0.08032053 -0.017995397
-0.1375226 -0.05737387 0.010995446 -0.11099204 0.20144157 0.033092447 -0.0054340945 0.039209522
-0.011181489 -0.05573124 0.20026328 0.039557926 0.13647737 0.113279216 -0.19535984 0.0042613423
-0.16037358 0.24974063 0.23866197 -0.07812046 -0.20727722 -0.013326966 -0.014760699 -0.03153571
-0.24983107 0.059655074 -0.1394744 -0.016969899 0.14698887 0.26381466 0.03167852 0.22925936
0.30363944 0.13916779 0.07866483 0.03400149 -0.0053485045 0.043303795 0.10558362 0.17217614
0.0097215865 0.07947716 0.060638994 0.11172096 0.23647106 0.10269871 -0.0037920997 0.34872875
0.006983669 0.25108987 0.18131125 0.24809785 0.18882445 0.41234082 0.06620765 0.0729635
0.2900284 -0.024311535 -0.1497185 0.13296331 -0.11196619 -0.07087177 0.027971577 -0.08639873
0.18070766 -0.098064624 -0.08822791 0.07071844 -0.15866096 -0.08378299 0.10484883 0.019471034
-0.06254333 0.029709492 0.19218831 -0.014968329 0.023877127 -0.15311909 -0.09152339 -0.056260955
0.10025219 -0.083251186 -0.107945316 0.032583922 -0.22612506 0.03516042 -0.0070617585 0.24847862
0.0188389 -0.04560212 0.16733365 0.088004485 0.06588585 -0.03305852 -0.0056426483 0.060543675
-0.14111787 0.08827907 0.06912559 0.093809165 0.04237335 0.033222243 -0.08743667 0.01001436
0.18787752 0.03220052 0.036503 -0.019244628 0.14293419 -0.016690912 -0.01566733 0.04919547
-0.08347488 0.03590835 0.117072016 -0.061193686 -0.027792152 0.05828233 0.16297494 -0.0229585
-0.036975943 -0.07503039 -0.02236492 0.03456297 0.2952807 0.07238982 0.024898013 -0.15984844
-0.03074007 0.025020834 0.048810933 -0.0397195 -0.060735885 -0.013247884 0.1446458 0.03799295
-0.102112345 -0.082498096 -0.21336101 0.07863546 0.040606692 0.03540919 0.0148408115 -0.12979136
0.1377189 -0.031329334 0.010677986 0.2786997 0.106711105 0.20132557 -0.02866478 0.11158734
0.04453974 0.00046618978 0.02990579 0.014990307 -0.19854505 0.045167286 0.19168709 0.016583115
0.1131214 -0.045439918 -0.03630527 0.013737233 0.006369137 0.103186116 0.11738743 0.10294379
00000000: a9b9 acbd a7c0 7bbe 73af 653d c7dd c73d
00000010: 1516 2e3e a908 7dbd ed23 e53c 2bea 52bd
00000020: e287 c53d 1918 99bd 528b 993d ba71 20bd
00000030: c2bc b4bd e118 ab3e 1548 12bc 3fa2 ba3d
00000040: 67c6 4f3d 84cc 5abd 3242 55be 545e 83bd
00000050: dbec 5dbd adb7 753b aa4d 513e 91aa 8abe
00000060: 3f48 0cbe 87d9 f13c fbc7 fa3d 433b eebd
00000070: d73b 0d3e 9736 a43e 3829 373e 3aca 533e
00000080: 143b 7b3e f316 8b3e 007b c93e ca89 6a3d
00000090: 24b5 213e c672 3f3e d017 f63c 7cb0 27bd
000000a0: 5f6d 703e 4aae 14bc 0635 ff3d 7993 153e
000000b0: 1185 753d 5223 2e3d a401 ed3d 0dd0 8ebd
000000c0: 5585 0b3e da4b 4f3e a9cb 993c 7d79 abbc
000000d0: f620 a33e df43 c43d 9a74 ea3e f54f 163e
000000e0: d0f2 92ba fcf8 1b3e e228 2dbd 5418 ab3d
000000f0: 0c8a e53b 0eab 21bc b3ce 0e3d 87ff 1d3e
00000100: 3bb1 6b3c e2de c8bd 229c d73b 11e0 023e
00000110: 3623 b53c 6c19 2bbd 001d febc 7c84 8b39
00000120: 58db 4d3d 65c9 5ebe 1b89 61bd 1d47 173e
00000130: 15b4 773d c9ed cf3d 813e 91bd e0c9 613c
00000140: 7e18 c43c aaed cebb 661a 3abe 83a6 29be
00000150: 3467 583c c8b2 b33c 177f a4bd 156b 93bc
00000160: b9d2 0cbe dd00 6bbd 3e26 343c cb4f e3bd
00000170: b346 4e3e f28b 073d 7d10 b2bb 2a9a 203d
00000180: 9032 37bc 7146 64bd d111 4d3e 7e07 223d
00000190: b9c0 0b3e effe e73d 690c 48be bba2 8b3b
000001a0: f938 24be 02bc 7f3e ce63 743e 9ffd 9fbd
000001b0: 7b40 54be 5959 5abc dcd6 71bc 972b 01bd
000001c0: b7d3 7fbe e158 743d 61d2 0ebe 7504 8bbc
000001d0: 4084 163e b712 873e 56c1 013d f7c2 6a3e
000001e0: a176 9b3e 0082 0e3e 071b a13d 2545 0b3d
000001f0: 8242 afbb 525f 313d 3a3c d83d f14e 303e
00000200: 4a47 1f3c ecc4 a23d 9860 783d f5cd e43d
00000210: 7825 723e b453 d23d e084 78bb 938c b23e
00000220: 43d7 e43b da8e 803e a8a9 393e 5d0d 7e3e
00000230: 325b 413e 561e d33e e097 873d e36d 953d
00000240: 9a7e 943e fc28 c7bc ce4f 19be 8927 083e
00000250: 884e e5bd 3825 91bd a624 e53c d1f1 b0bd
00000260: 6e0b 393e 1bd6 c8bd d6b0 b4bd d4d4 903d
00000270: 0578 22be 6b96 abbd fcba d63d b881 9f3c
00000280: b816 80bd 5261 f33c 03cd 443e b93d 75bc
00000290: f799 c33c 40cb 1cbe 9d70 bbbd e371 66bd
000002a0: 0551 cd3d 997f aabd 6f12 ddbd b876 053d
000002b0: 548d 67be 5f04 103d 5366 e7bb 2e71 7e3e
000002c0: 0954 9a3c 4ac9 3abd 8359 2b3e b23b b43d
000002d0: 29ef 863d 5f68 07bd f7e5 b8bb a5fc 773d
000002e0: 3481 10be a8cb b43d b891 8d3d 051f c03d
000002f0: ae8f 2d3d 0c14 083d ff11 b3bd 4513 243c
00000300: f762 403e b1e4 033d 2b84 153d e9a6 9dbc
00000310: 575d 123e 61bb 88bc c658 80bc 3081 493d
00000320: e1f4 aabd a214 133d 74c3 ef3d 3ba6 7abd
00000330: 5eac e3bc 74b9 6e3d e7e2 263e 7713 bcbc
00000340: 1674 17bd 88a9 99bd a336 b7bc e791 0d3d
00000350: 082f 973e 1d41 943d ebf6 cb3c 4faf 23be
00000360: 99d2 fbbc 7ef8 cc3c f9ed 473d eab0 22bd
00000370: 31c6 78bd a70d 59bc 071e 143e 7f9e 1b3d
00000380: 4720 d1bd c3f4 a8bd 4f7b 5abe a10b a13d
00000390: 3453 263d 3a09 113d e026 733c 07e8 04be
000003a0: 2f06 0d3e 3053 00bd b8f2 2e3c bab1 8e3e
000003b0: 5a8b da3d 4a28 4e3e 67d2 eabc e787 e43d
000003c0: 4d6f 363d ef6a f439 fdfc f43c e899 753c
000003d0: 654f 4bbe 5501 393d 9f49 443e 50d9 873c
000003e0: 31ac e73d 351f 3abd d6b4 14bd 2212 613c
000003f0: 32b4 d03b 3e53 d33d d268 f03d 32d4 d23d

l1.weight_rho f4 [120, 29]
-2.8554654 -3.2871025 -3.0528958 -2.8773272 -3.0432854 -2.9945006 -3.0186741 -2.9964259
-3.0315623 -2.9643033 -2.9194927 -2.8735032 -2.9918604 -3.0802763 -3.1042957 -2.9030492
-2.8948338 -3.0399067 -3.071405 -3.1547983 -3.161228 -3.225631 -2.9975007 -3.1841862
-3.028061 -2.9961693 -2.8522465 -3.0386128 -3.1825743 -3.0284536 -2.8645058 -3.0759237
-3.1491635 -2.9658973 -3.1078537 -3.05394 -2.9468396 -3.066175 -2.9925714 -3.0971503
-2.9977455 -2.8914082 -2.90315 -2.9928937 -3.0452924 -3.0403948 -3.168242 -2.8939621
-2.950891 -2.9596283 -2.8913753 -2.8137705 -3.034597 -2.984961 -2.9689472 -2.8267634
-3.0266142 -2.9339347 -2.9681509 -3.1815739 -2.993425 -3.146553 -2.9244487 -3.1205323
-3.0774395 -2.9906158 -2.9900491 -3.0303624 -2.8923848 -2.9280057 -3.0200105 -2.9103405
-3.048191 -3.0981555 -2.9904766 -2.9272697 -2.9941335 -2.9474463 -3.0867836 -2.928007
-2.9422503 -2.8881094 -2.903351 -3.2007866 -3.0421407 -3.097493 -3.0639052 -3.0440457
-3.0936003 -3.081042 -3.0212402 -3.050289 -2.9665985 -2.9751318 -2.927723 -3.063514
-3.0093844 -2.8908637 -2.77813 -2.7884057 -3.07594 -3.0352917 -3.0112329 -3.015553
-2.9540918 -2.770987 -2.9215941 -2.928293 -2.997473 -2.9643886 -2.9783685 -3.0047247
-3.018057 -3.0133047 -2.9525793 -3.045122 -3.1374044 -3.103405 -2.971423 -2.844595
-2.8895276 -3.030415 -2.8651009 -2.9413614 -3.123169 -2.9803662 -3.0929246 -3.0851393
-3.0779214 -2.9407 -3.0666716 -2.9208958 -3.157843 -3.0944252 -3.080488 -3.067417
-3.3702602 -3.026062 -2.9807093 -3.036334 -2.97388 -3.0423086 -2.8421662 -2.9729948
-3.0490224 -2.9589343 -2.918868 -2.99862 -2.8924453 -2.9992056 -2.8542864 -2.9211993
-2.9127135 -3.2715752 -3.0271492 -2.9844286 -2.8844151 -3.1727974 -2.9129238 -2.9710305
-2.876825 -3.0140502 -2.9784057 -2.9918253 -3.049043 -3.0233424 -2.9956572 -3.0892599
-3.0796034 -2.819021 -2.9219537 -2.9699118 -3.001693 -3.1255555 -2.8798642 -3.1403084
-2.926861 -2.9565806 -3.1978269 -2.8526938 -2.9282765 -2.8339653 -2.9678578 -3.035843
-3.0306833 -2.9769504 -3.166645 -2.8268445 -2.9229276 -2.8987925 -3.1558597 -2.9333525
-3.0544229 -3.04094 -2.9445407 -2.9314919 -2.919896 -2.927084 -3.134811 -2.9180427
-3.0341163 -3.1947873 -2.9436684 -2.9216108 -2.998958 -3.129137 -2.967595 -3.1008482
-2.9737911 -3.0428472 -2.9588058 -3.01069 -3.077192 -3.0517676 -2.9483116 -3.2001379
-3.2051585 -3.1453204 -2.7128563 -3.0579965 -2.9251676 -3.0483963 -3.1344743 -3.01392
-3.0418391 -2.860245 -3.0678148 -2.991095 -3.123594 -3.0917192 -3.0041273 -2.8966804
-2.9868824 -2.7570012 -2.9182832 -2.9747524 -2.9379704 -3.063196 -2.9507723 -2.97961
-3.0778022 -2.9426367 -2.9845068 -3.0215318 -2.9218428 -3.0756652 -2.8736143 -2.9384663
-2.9120245 -3.0172725 -2.8066673 -3.0860562 -2.9131312 -2.870088 -3.1137943 -2.8238916
00000000: f2bf 36c0 e35f 52c0 a562 43c0 2126 38c0
00000010: 30c5 42c0 e6a5 3fc0 f531 41c0 71c5 3fc0
00000020: 1e05 42c0 25b7 3dc0 f8d8 3ac0 7ae7 37c0
00000030: a47a 3fc0 3f23 45c0 c8ac 46c0 8fcb 39c0
00000040: f544 39c0 d58d 42c0 e691 44c0 37e8 49c0
00000050: 8f51 4ac0 bd70 4ec0 0dd7 3fc0 b5c9 4bc0
00000060: c0cb 41c0 3dc1 3fc0 358b 36c0 a278 42c0
00000070: 4caf 4bc0 2fd2 41c0 1054 37c0 efdb 44c0
00000080: e58b 49c0 43d1 3dc0 13e7 46c0 c173 43c0
00000090: 0599 3cc0 363c 44c0 4a86 3fc0 b637 46c0
000000a0: 10db 3fc0 d50c 39c0 36cd 39c0 928b 3fc0
000000b0: 12e6 42c0 d495 42c0 7ac4 4ac0 ad36 39c0
000000c0: 66db 3cc0 8d6a 3dc0 4b0c 39c0 d114 34c0
000000d0: d636 42c0 9a09 3fc0 3b03 3ec0 b1e9 34c0
000000e0: 0cb4 41c0 96c5 3bc0 2ff6 3dc0 e89e 4bc0
000000f0: 4694 3fc0 2061 49c0 2b2a 3bc0 cdb6 47c0
00000100: c5f4 44c0 4066 3fc0 f75c 3fc0 75f1 41c0
00000110: d51c 39c0 7264 3bc0 da47 41c0 0543 3ac0
00000120: 9015 43c0 2e48 46c0 f863 3fc0 6358 3bc0
00000130: e29f 3fc0 f6a2 3cc0 dd8d 45c0 7764 3bc0
00000140: d44d 3cc0 c9d6 38c0 81d0 39c0 b0d9 4cc0
00000150: 6fb2 42c0 533d 46c0 0617 44c0 a5d1 42c0
00000160: 8cfd 45c0 cb2f 45c0 005c 41c0 ef37 43c0
00000170: c0dc 3dc0 8f68 3ec0 d05f 3bc0 9d10 44c0
00000180: c199 40c0 e903 39c0 e2cc 31c0 3d75 32c0
00000190: 33dc 44c0 3842 42c0 0ab8 40c0 d2fe 40c0
000001a0: d70f 3dc0 da57 31c0 66fb 3ac0 2769 3bc0
000001b0: 99d6 3fc0 8bb8 3dc0 979d 3ec0 694d 40c0
000001c0: d927 41c0 fcd9 40c0 0ff7 3cc0 47e3 42c0
000001d0: 3ccb 48c0 309e 46c0 cb2b 3ec0 d80d 36c0
000001e0: 05ee 38c0 52f2 41c0 d05d 37c0 443f 3cc0
000001f0: 00e2 47c0 52be 3ec0 7af2 45c0 ec72 45c0
00000200: aafc 44c0 6e34 3cc0 5944 44c0 f5ef 3ac0
00000210: 1a1a 4ac0 100b 46c0 b726 45c0 8f50 44c0
00000220: 58b2 57c0 00ab 41c0 f1c3 3ec0 4c53 42c0
00000230: 0d54 3ec0 2fb5 42c0 0de6 35c0 8c45 3ec0
00000240: 2f23 43c0 2e5f 3dc0 bcce 3ac0 64e9 3fc0
00000250: d31d 39c0 fcf2 3fc0 a1ac 36c0 eef4 3ac0
00000260: e669 3ac0 7d61 51c0 d0bc 41c0 e100 3fc0
00000270: 429a 38c0 1d0f 4bc0 586d 3ac0 5d25 3ec0
00000280: e71d 38c0 33e6 40c0 339e 3ec0 117a 3fc0
00000290: 8523 43c0 717e 41c0 d9b8 3fc0 6fb6 45c0
000002a0: 3918 45c0 d76a 34c0 4a01 3bc0 0913 3ec0
000002b0: bd1b 40c0 1a09 48c0 b24f 38c0 d0fa 48c0
000002c0: b151 3bc0 9e38 3dc0 32a9 4cc0 8992 36c0
000002d0: e268 3bc0 b05f 35c0 62f1 3dc0 404b 42c0
000002e0: b7f6 41c0 5b86 3ec0 50aa 4ac0 05eb 34c0
000002f0: 3f11 3bc0 d185 39c0 9bf9 49c0 0cbc 3bc0
00000300: aa7b 43c0 c39e 42c0 5b73 3cc0 909d 3bc0
00000310: 93df 3ac0 5855 3bc0 bea0 48c0 36c1 3ac0
00000320: f62e 42c0 6577 4cc0 1065 3cc0 acfb 3ac0
00000330: eeee 3fc0 c843 48c0 14ed 3dc0 4c74 46c0
00000340: 9852 3ec0 02be 42c0 135d 3dc0 25af 40c0
00000350: b7f0 44c0 2950 43c0 23b1 3cc0 0fcf 4cc0
00000360: 5121 4dc0 ee4c 49c0 709f 2dc0 37b6 43c0
00000370: f235 3bc0 ed18 43c0 3a9b 48c0 11e4 40c0
00000380: 7ead 42c0 410e 37c0 1457 44c0 1a6e 3fc0
00000390: f7e8 47c0 bade 45c0 9f43 40c0 3663 39c0
000003a0: 1529 3fc0 b572 30c0 27c5 3ac0 5862 3ec0
000003b0: b507 3cc0 670b 44c0 74d9 3cc0 eeb1 3ec0
000003c0: b6fa 44c0 2954 3cc0 2902 3fc0 c760 41c0
000003d0: 79ff 3ac0 b3d7 44c0 4ce9 37c0 d50f 3cc0
000003e0: 9c5e 3ac0 fe1a 41c0 70a0 33c0 f281 45c0
000003f0: be70 3ac0 86af 37c0 6848 47c0 a4ba 34c0

l1.bias_mu f4 [120]
-0.015674455 0.5109121 -0.07129414 -0.15527388 0.38087064 -0.059683643 0.13505016 -0.005421749
0.2622817 0.0948266 -0.041526377 0.0025707511 0.16624303 0.009972712 -0.19955026 0.15426493
-0.12951623 -0.2867484 0.0101477895 0.036146626 -0.2281191 -0.13222802 0.07715463 0.17063889
0.07780894 -0.025647866 -0.13912654 0.053124104 -0.17345227 0.10519723 0.23047309 0.055931166
0.03998054 -0.13055626 0.10308657 -0.11993222 0.22487478 0.29023156 0.19916995 0.15866804
0.09795783 -0.1096555 -0.15529948 -0.04465559 0.04158674 0.05118795 0.13573027 0.37131324
0.022843722 0.034263793 -0.12027348 0.10974795 -0.041511662 -0.056299064 -0.08892631 0.085332096
-0.09073258 0.18516816 0.20191379 -0.11321795 -0.05706658 0.066260025 0.019891344 0.33217782
-0.02587562 -0.098453544 0.06324066 -0.14719652 0.19684692 -0.03786567 0.027633613 0.11358129
0.0030087004 -0.0057994076 -0.006544381 -0.13649233 -0.14518051 -0.09207239 -0.075037636 0.07558769
-0.08949922 0.05438142 0.03254514 0.11866224 -0.16382174 0.10031488 -0.22335601 0.01097708
-0.108074166 -0.004074409 -0.17071377 -0.090037026 -0.06276537 -0.030373748 0.08115656 -0.00044962263
-0.015307652 0.0034750565 -0.15799057 -0.122250006 0.22222748 0.17626289 -0.053007804 -0.2273333
0.02346224 0.3537556 0.10207663 0.04618049 0.018455029 0.022081405 -0.10153407 0.04409858
0.09770517 0.2927513 -0.059908364 0.08391419 -0.18851428 0.062896766 0.096186966 -0.1760433
00000000: b767 80bc 23cb 023f a902 92bd 1e00 1fbe
00000010: 7a01 c33e d676 74bd 974a 0a3e eda8 b1bb
00000020: c949 863e 7334 c23d 9017 2abd 0c7a 283b
00000030: 9d3b 2a3e 9664 233c e756 4cbe a0f7 1d3e
00000040: e79f 04be b0d0 92be ea42 263c 7c0e 143d
00000050: 0e98 69be c866 07be 3f03 9e3d f6bb 2e3e
00000060: 4b5a 9f3d 791b d2bc 3077 0ebe a998 593d
00000070: 799d 31be a571 d73d 2301 6c3e 1418 653d
00000080: a2c2 233d 8ab0 05be 0d1f d33d 069f f5bd
00000090: 9345 663e 3b99 943e 35f3 4b3e e079 223e
000000a0: 1d9e c83d 1093 e0bd d406 1fbe c8e8 36bd
000000b0: dc56 2a3d 75aa 513d e0fc 0a3e c51c be3e
000000c0: c222 bb3c 3158 0c3d f151 f6bd 89c3 e03d
000000d0: 2208 2abd d999 66bd ff1e b6bd 98c2 ae3d
000000e0: 01d2 b9bd b99c 3d3e 7dc2 4e3e d0de e7bd
000000f0: a5be 69bd 56b3 873d 2cf3 a23c 3613 aa3e
00000100: 1cf9 d3bc 03a2 c9bd 5284 813d afba 16be
00000110: 3d92 493e 0819 1bbd e35f e23c 4f9d e83d
00000120: 9e2d 453b f508 bebb 3f72 d6bb a5c4 0bbe
00000130: 33aa 14be 7390 bcbd 55ad 99bd b8cd 9a3d
00000140: 5e4b b7bd 0dbf 5e3d 0d4e 053d 3005 f33d
00000150: e3c0 27be e371 cd3d 70b7 64be 36d9 333c
00000160: fd55 ddbd 9f82 85bb 97cf 2ebe 5565 b8bd
00000170: 218b 80bd 5ed2 f8bc 6935 a63d 54bb ebb9
00000180: f2cc 7abc c6bd 633b 48c8 21be 365e fabd
00000190: 9a8f 633e 427e 343e b61e 59bd 10ca 68be
000001a0: e233 c03c 741f b53e 8d0d d13d c127 3d3d
000001b0: 002f 973c 10e4 b43c 18f1 cfbd b6a0 343d
000001c0: a619 c83d 80e3 953e 7962 75bd 34db ab3d
000001d0: e309 41be 05d0 803d acfd c43d b244 34be

l1.bias_rho f4 [120]
-3.2524486 -3.027206 -2.8706915 -2.9971495 -3.0105712 -2.8856084 -3.0106957 -3.003315
-2.8506923 -2.9201798 -3.1172106 -3.156448 -3.0360878 -3.0787165 -2.9515247 -2.9887848
-2.983875 -3.0457075 -2.9102862 -2.914086 -3.0300825 -2.965092 -2.853491 -2.9381871
-3.053534 -2.9025598 -2.8603187 -3.0334806 -2.9352539 -2.916383 -3.1944394 -3.102821
-3.1300614 -2.904821 -3.0049849 -2.975391 -2.9303374 -3.022687 -2.9347796 -3.1642382
-2.8638048 -2.9913821 -3.0859735 -2.8641975 -3.049069 -3.0122817 -3.114844 -2.8674834
-2.8257198 -2.9048662 -3.0816813 -2.8234725 -3.2125578 -3.180226 -3.0928397 -3.0245554
-2.9992807 -3.1275005 -3.0978546 -2.9777544 -3.0113783 -3.15041 -2.854563 -2.9168906
-2.934756 -2.8329058 -2.8622859 -2.8522513 -3.0133207 -3.0554965 -3.0581594 -3.1520245
-3.1396804 -3.226619 -3.0275846 -3.124948 -2.954729 -2.9698434 -2.9551706 -2.9456909
-2.9466274 -3.1114237 -3.075998 -3.0536406 -2.9563308 -2.983245 -3.0471668 -3.07249
-2.9072254 -2.8540003 -3.0117657 -2.7923884 -3.1343212 -2.9609983 -2.911537 -3.1414688
-2.8856325 -2.9628172 -2.9935336 -3.0539086 -3.064007 -2.9782944 -2.9400067 -2.9959044
-3.0491388 -3.0981884 -2.7677994 -2.8873875 -3.0998664 -2.9147346 -2.9812655 -2.9447806
-2.953804 -2.9792743 -3.1231458 -3.0363438 -2.9708524 -3.1135767 -2.992843 -3.0616872
00000000: 1e28 50c0 bebd 41c0 69b9 37c0 4cd1 3fc0
00000010: 33ad 40c0 cfad 38c0 3daf 40c0 5036 40c0
00000020: be71 36c0 3ae4 3ac0 6180 47c0 3e03 4ac0
00000030: 434f 42c0 b109 45c0 c8e5 3cc0 4048 3fc0
00000040: cff7 3ec0 dfec 42c0 2142 3ac0 6380 3ac0
00000050: dfec 41c0 11c4 3dc0 999f 36c0 420b 3cc0
00000060: 1a6d 43c0 8ac3 39c0 760f 37c0 8c24 42c0
00000070: 33db 3bc0 05a6 3ac0 b271 4cc0 9f94 46c0
00000080: ed52 48c0 96e8 39c0 ac51 40c0 ce6c 3ec0
00000090: a68a 3bc0 b473 41c0 6ed3 3bc0 e182 4ac0
000000a0: 9448 37c0 ce72 3fc0 9780 45c0 034f 37c0
000000b0: f223 43c0 39c9 40c0 9b59 47c0 d984 37c0
000000c0: 98d8 34c0 54e9 39c0 443a 45c0 c6b3 34c0
000000d0: 8c9a 4dc0 d388 4bc0 16f1 45c0 5192 41c0
000000e0: 37f4 3fc0 f828 48c0 4043 46c0 8793 3ec0
000000f0: 6cba 40c0 51a0 49c0 29b1 36c0 56ae 3ac0
00000100: 0bd3 3bc0 544e 35c0 b12f 37c0 498b 36c0
00000110: 3fda 40c0 418d 43c0 e2b8 43c0 c5ba 49c0
00000120: 86f0 48c0 ed80 4ec0 f2c3 41c0 26ff 47c0
00000130: 481a 3dc0 ea11 3ec0 8421 3dc0 3386 3cc0
00000140: 8b95 3cc0 9121 47c0 27dd 44c0 d96e 43c0
00000150: 8634 3dc0 7ced 3ec0 c804 43c0 ada3 44c0
00000160: fb0f 3ac0 f1a7 36c0 c5c0 40c0 7eb6 32c0
00000170: b898 48c0 ff80 3dc0 9f56 3ac0 d30d 49c0
00000180: 34ae 38c0 cc9e 3dc0 0e96 3fc0 3d73 43c0
00000190: b118 44c0 609c 3ec0 1229 3cc0 e6bc 3fc0
000001a0: 1725 43c0 b848 46c0 a023 31c0 f5ca 38c0
000001b0: 3664 46c0 038b 3ac0 0ecd 3ec0 4977 3cc0
000001c0: 200b 3dc0 6eac 3ec0 9fe1 47c0 7553 42c0
000001d0: 7222 3ec0 d744 47c0 bd8a 3fc0 aff2 43c0

l1.weight.mu f4 [120, 29]
-0.08433849 -0.2458521 0.056075525 0.097590975 0.17000611 -0.061775837 0.027971232 -0.05149285
0.09645058 -0.074752994 0.07497276 -0.039170958 -0.08825065 0.3341742 -0.0089283185 0.09112977
0.05072632 -0.053417698 -0.20826033 -0.06414476 -0.05418096 0.0037493513 0.20439783 -0.27083257
-0.13699435 0.02952267 0.122451745 -0.11632397 0.13792358 0.320729 0.17886817 0.20682612
0.24534255 0.27165946 0.39351654 0.057260312 0.15791756 0.18696126 0.030040652 -0.040939793
0.23479222 -0.009074757 0.12461285 0.14607038 0.059941355 0.042514153 0.115725785 -0.06973276
0.13625081 0.20243779 0.01877387 -0.020931954 0.31861085 0.09583258 0.45792085 0.14678939
-0.001121128 0.15231699 -0.042275317 0.083542496 0.007004982 -0.009867443 0.034865092 0.15429507
0.014385517 -0.098081365 0.006579892 0.12780787 0.022111516 -0.04177229 -0.031019688 0.00026610855
0.05025801 -0.21756513 -0.055062395 0.14773221 0.060474474 0.10152776 -0.07092 0.013781041
0.02393746 -0.006314953 -0.18174133 -0.16567425 0.013208199 0.021935835 -0.08032053 -0.017995397
-0.1375226 -0.05737387 0.010995446 -0.11099204 0.20144157 0.033092447 -0.0054340945 0.039209522
-0.011181489 -0.05573124 0.20026328 0.039557926 0.13647737 0.113279216 -0.19535984 0.0042613423
-0.16037358 0.24974063 0.23866197 -0.07812046 -0.20727722 -0.013326966 -0.014760699 -0.03153571
-0.24983107 0.059655074 -0.1394744 -0.016969899 0.14698887 0.26381466 0.03167852 0.22925936
0.30363944 0.13916779 0.07866483 0.03400149 -0.0053485045 0.043303795 0.10558362 0.17217614
0.0097215865 0.07947716 0.060638994 0.11172096 0.23647106 0.10269871 -0.0037920997 0.34872875
0.006983669 0.25108987 0.18131125 0.24809785 0.18882445 0.41234082 0.06620765 0.0729635
0.2900284 -0.024311535 -0.1497185 0.13296331 -0.11196619 -0.07087177 0.027971577 -0.08639873
0.18070766 -0.098064624 -0.08822791 0.07071844 -0.15866096 -0.08378299 0.10484883 0.019471034
-0.06254333 0.029709492 0.19218831 -0.014968329 0.023877127 -0.15311909 -0.09152339 -0.056260955
0.10025219 -0.083251186 -0.107945316 0.032583922 -0.22612506 0.03516042 -0.0070617585 0.24847862
0.0188389 -0.04560212 0.16733365 0.088004485 0.06588585 -0.03305852 -0.0056426483 0.060543675
-0.14111787 0.08827907 0.06912559 0.093809165 0.04237335 0.033222243 -0.08743667 0.01001436
0.18787752 0.03220052 0.036503 -0.019244628 0.14293419 -0.016690912 -0.01566733 0.04919547
-0.08347488 0.03590835 0.117072016 -0.061193686 -0.027792152 0.05828233 0.16297494 -0.0229585
-0.036975943 -0.07503039 -0.02236492 0.03456297 0.2952807 0.07238982 0.024898013 -0.15984844
-0.03074007 0.025020834 0.048810933 -0.0397195 -0.060735885 -0.013247884 0.1446458 0.03799295
-0.102112345 -0.082498096 -0.21336101 0.07863546 0.040606692 0.03540919 0.0148408115 -0.12979136
0.1377189 -0.031329334 0.010677986 0.2786997 0.106711105 0.20132557 -0.02866478 0.11158734
0.04453974 0.00046618978 0.02990579 0.014990307 -0.19854505 0.045167286 0.19168709 0.016583115
0.1131214 -0.045439918 -0.03630527 0.013737233 0.006369137 0.103186116 0.11738743 0.10294379
00000000: a9b9 acbd a7c0 7bbe 73af 653d c7dd c73d
00000010: 1516 2e3e a908 7dbd ed23 e53c 2bea 52bd
00000020: e287 c53d 1918 99bd 528b 993d ba71 20bd
00000030: c2bc b4bd e118 ab3e 1548 12bc 3fa2 ba3d
00000040: 67c6 4f3d 84cc 5abd 3242 55be 545e 83bd
00000050: dbec 5dbd adb7 753b aa4d 513e 91aa 8abe
00000060: 3f48 0cbe 87d9 f13c fbc7 fa3d 433b eebd
00000070: d73b 0d3e 9736 a43e 3829 373e 3aca 533e
00000080: 143b 7b3e f316 8b3e 007b c93e ca89 6a3d
00000090: 24b5 213e c672 3f3e d017 f63c 7cb0 27bd
000000a0: 5f6d 703e 4aae 14bc 0635 ff3d 7993 153e
000000b0: 1185 753d 5223 2e3d a401 ed3d 0dd0 8ebd
000000c0: 5585 0b3e da4b 4f3e a9cb 993c 7d79 abbc
000000d0: f620 a33e df43 c43d 9a74 ea3e f54f 163e
000000e0: d0f2 92ba fcf8 1b3e e228 2dbd 5418 ab3d
000000f0: 0c8a e53b 0eab 21bc b3ce 0e3d 87ff 1d3e
00000100: 3bb1 6b3c e2de c8bd 229c d73b 11e0 023e
00000110: 3623 b53c 6c19 2bbd 001d febc 7c84 8b39
00000120: 58db 4d3d 65c9 5ebe 1b89 61bd 1d47 173e
00000130: 15b4 773d c9ed cf3d 813e 91bd e0c9 613c
00000140: 7e18 c43c aaed cebb 661a 3abe 83a6 29be
00000150: 3467 583c c8b2 b33c 177f a4bd 156b 93bc
00000160: b9d2 0cbe dd00 6bbd 3e26 343c cb4f e3bd
00000170: b346 4e3e f28b 073d 7d10 b2bb 2a9a 203d
00000180: 9032 37bc 7146 64bd d111 4d3e 7e07 223d
00000190: b9c0 0b3e effe e73d 690c 48be bba2 8b3b
000001a0: f938 24be 02bc 7f3e ce63 743e 9ffd 9fbd
000001b0: 7b40 54be 5959 5abc dcd6 71bc 972b 01bd
000001c0: b7d3 7fbe e158 743d 61d2 0ebe 7504 8bbc
000001d0: 4084 163e b712 873e 56c1 013d f7c2 6a3e
000001e0: a176 9b3e 0082 0e3e 071b a13d 2545 0b3d
000001f0: 8242 afbb 525f 313d 3a3c d83d f14e 303e
00000200: 4a47 1f3c ecc4 a23d 9860 783d f5cd e43d
00000210: 7825 723e b453 d23d e084 78bb 938c b23e
00000220: 43d7 e43b da8e 803e a8a9 393e 5d0d 7e3e
00000230: 325b 413e 561e d33e e097 873d e36d 953d
00000240: 9a7e 943e fc28 c7bc ce4f 19be 8927 083e
00000250: 884e e5bd 3825 91bd a624 e53c d1f1 b0bd
00000260: 6e0b 393e 1bd6 c8bd d6b0 b4bd d4d4 903d
00000270: 0578 22be 6b96 abbd fcba d63d b881 9f3c
00000280: b816 80bd 5261 f33c 03cd 443e b93d 75bc
00000290: f799 c33c 40cb 1cbe 9d70 bbbd e371 66bd
000002a0: 0551 cd3d 997f aabd 6f12 ddbd b876 053d
000002b0: 548d 67be 5f04 103d 5366 e7bb 2e71 7e3e
000002c0: 0954 9a3c 4ac9 3abd 8359 2b3e b23b b43d
000002d0: 29ef 863d 5f68 07bd f7e5 b8bb a5fc 773d
000002e0: 3481 10be a8cb b43d b891 8d3d 051f c03d
000002f0: ae8f 2d3d 0c14 083d ff11 b3bd 4513 243c
00000300: f762 403e b1e4 033d 2b84 153d e9a6 9dbc
00000310: 575d 123e 61bb 88bc c658 80bc 3081 493d
00000320: e1f4 aabd a214 133d 74c3 ef3d 3ba6 7abd
00000330: 5eac e3bc 74b9 6e3d e7e2 263e 7713 bcbc
00000340: 1674 17bd 88a9 99bd a336 b7bc e791 0d3d
00000350: 082f 973e 1d41 943d ebf6 cb3c 4faf 23be
00000360: 99d2 fbbc 7ef8 cc3c f9ed 473d eab0 22bd
00000370: 31c6 78bd a70d 59bc 071e 143e 7f9e 1b3d
00000380: 4720 d1bd c3f4 a8bd 4f7b 5abe a10b a13d
00000390: 3453 263d 3a09 113d e026 733c 07e8 04be
000003a0: 2f06 0d3e 3053 00bd b8f2 2e3c bab1 8e3e
000003b0: 5a8b da3d 4a28 4e3e 67d2 eabc e787 e43d
000003c0: 4d6f 363d ef6a f439 fdfc f43c e899 753c
000003d0: 654f 4bbe 5501 393d 9f49 443e 50d9 873c
000003e0: 31ac e73d 351f 3abd d6b4 14bd 2212 613c
000003f0: 32b4 d03b 3e53 d33d d268 f03d 32d4 d23d

l1.weight.rho f4 [120, 29]
-2.8554654 -3.2871025 -3.0528958 -2.8773272 -3.0432854 -2.9945006 -3.0186741 -2.9964259
-3.0315623 -2.9643033 -2.9194927 -2.8735032 -2.9918604 -3.0802763 -3.1042957 -2.9030492
-2.8948338 -3.0399067 -3.071405 -3.1547983 -3.161228 -3.225631 -2.9975007 -3.1841862
-3.028061 -2.9961693 -2.8522465 -3.0386128 -3.1825743 -3.0284536 -2.8645058 -3.0759237
-3.1491635 -2.9658973 -3.1078537 -3.05394 -2.9468396 -3.066175 -2.9925714 -3.0971503
-2.9977455 -2.8914082 -2.90315 -2.9928937 -3.0452924 -3.0403948 -3.168242 -2.8939621
-2.950891 -2.9596283 -2.8913753 -2.8137705 -3.034597 -2.984961 -2.9689472 -2.8267634
-3.0266142 -2.9339347 -2.9681509 -3.1815739 -2.993425 -3.146553 -2.9244487 -3.1205323
-3.0774395 -2.9906158 -2.9900491 -3.0303624 -2.8923848 -2.9280057 -3.0200105 -2.9103405
-3.048191 -3.0981555 -2.9904766 -2.9272697 -2.9941335 -2.9474463 -3.0867836 -2.928007
-2.9422503 -2.8881094 -2.903351 -3.2007866 -3.0421407 -3.097493 -3.0639052 -3.0440457
-3.0936003 -3.081042 -3.0212402 -3.050289 -2.9665985 -2.9751318 -2.927723 -3.063514
-3.0093844 -2.8908637 -2.77813 -2.7884057 -3.07594 -3.0352917 -3.0112329 -3.015553
-2.9540918 -2.770987 -2.9215941 -2.928293 -2.997473 -2.9643886 -2.9783685 -3.0047247
-3.018057 -3.0133047 -2.9525793 -3.045122 -3.1374044 -3.103405 -2.971423 -2.844595
-2.8895276 -3.030415 -2.8651009 -2.9413614 -3.123169 -2.9803662 -3.0929246 -3.0851393
-3.0779214 -2.9407 -3.0666716 -2.9208958 -3.157843 -3.0944252 -3.080488 -3.067417
-3.3702602 -3.026062 -2.9807093 -3.036334 -2.97388 -3.0423086 -2.8421662 -2.9729948
-3.0490224 -2.9589343 -2.918868 -2.99862 -2.8924453 -2.9992056 -2.8542864 -2.9211993
-2.9127135 -3.2715752 -3.0271492 -2.9844286 -2.8844151 -3.1727974 -2.9129238 -2.9710305
-2.876825 -3.0140502 -2.9784057 -2.9918253 -3.049043 -3.0233424 -2.9956572 -3.0892599
-3.0796034 -2.819021 -2.9219537 -2.9699118 -3.001693 -3.1255555 -2.8798642 -3.1403084
-2.926861 -2.9565806 -3.1978269 -2.8526938 -2.9282765 -2.8339653 -2.9678578 -3.035843
-3.0306833 -2.9769504 -3.166645 -2.8268445 -2.9229276 -2.8987925 -3.1558597 -2.9333525
-3.0544229 -3.04094 -2.9445407 -2.9314919 -2.919896 -2.927084 -3.134811 -2.9180427
-3.0341163 -3.1947873 -2.9436684 -2.9216108 -2.998958 -3.129137 -2.967595 -3.1008482
-2.9737911 -3.0428472 -2.9588058 -3.01069 -3.077192 -3.0517676 -2.9483116 -3.2001379
-3.2051585 -3.1453204 -2.7128563 -3.0579965 -2.9251676 -3.0483963 -3.1344743 -3.01392
-3.0418391 -2.860245 -3.0678148 -2.991095 -3.123594 -3.0917192 -3.0041273 -2.8966804
-2.9868824 -2.7570012 -2.9182832 -2.9747524 -2.9379704 -3.063196 -2.9507723 -2.97961
-3.0778022 -2.9426367 -2.9845068 -3.0215318 -2.9218428 -3.0756652 -2.8736143 -2.9384663
-2.9120245 -3.0172725 -2.8066673 -3.0860562 -2.9131312 -2.870088 -3.1137943 -2.8238916
00000000: f2bf 36c0 e35f 52c0 a562 43c0 2126 38c0
00000010: 30c5 42c0 e6a5 3fc0 f531 41c0 71c5 3fc0
00000020: 1e05 42c0 25b7 3dc0 f8d8 3ac0 7ae7 37c0
00000030: a47a 3fc0 3f23 45c0 c8ac 46c0 8fcb 39c0
00000040: f544 39c0 d58d 42c0 e691 44c0 37e8 49c0
00000050: 8f51 4ac0 bd70 4ec0 0dd7 3fc0 b5c9 4bc0
00000060: c0cb 41c0 3dc1 3fc0 358b 36c0 a278 42c0
00000070: 4caf 4bc0 2fd2 41c0 1054 37c0 efdb 44c0
00000080: e58b 49c0 43d1 3dc0 13e7 46c0 c173 43c0
00000090: 0599 3cc0 363c 44c0 4a86 3fc0 b637 46c0
000000a0: 10db 3fc0 d50c 39c0 36cd 39c0 928b 3fc0
000000b0: 12e6 42c0 d495 42c0 7ac4 4ac0 ad36 39c0
000000c0: 66db 3cc0 8d6a 3dc0 4b0c 39c0 d114 34c0
000000d0: d636 42c0 9a09 3fc0 3b03 3ec0 b1e9 34c0
000000e0: 0cb4 41c0 96c5 3bc0 2ff6 3dc0 e89e 4bc0
000000f0: 4694 3fc0 2061 49c0 2b2a 3bc0 cdb6 47c0
00000100: c5f4 44c0 4066 3fc0 f75c 3fc0 75f1 41c0
00000110: d51c 39c0 7264 3bc0 da47 41c0 0543 3ac0
00000120: 9015 43c0 2e48 46c0 f863 3fc0 6358 3bc0
00000130: e29f 3fc0 f6a2 3cc0 dd8d 45c0 7764 3bc0
00000140: d44d 3cc0 c9d6 38c0 81d0 39c0 b0d9 4cc0
00000150: 6fb2 42c0 533d 46c0 0617 44c0 a5d1 42c0
00000160: 8cfd 45c0 cb2f 45c0 005c 41c0 ef37 43c0
00000170: c0dc 3dc0 8f68 3ec0 d05f 3bc0 9d10 44c0
00000180: c199 40c0 e903 39c0 e2cc 31c0 3d75 32c0
00000190: 33dc 44c0 3842 42c0 0ab8 40c0 d2fe 40c0
000001a0: d70f 3dc0 da57 31c0 66fb 3ac0 2769 3bc0
000001b0: 99d6 3fc0 8bb8 3dc0 979d 3ec0 694d 40c0
000001c0: d927 41c0 fcd9 40c0 0ff7 3cc0 47e3 42c0
000001d0: 3ccb 48c0 309e 46c0 cb2b 3ec0 d80d 36c0
000001e0: 05ee 38c0 52f2 41c0 d05d 37c0 443f 3cc0
000001f0: 00e2 47c0 52be 3ec0 7af2 45c0 ec72 45c0
00000200: aafc 44c0 6e34 3cc0 5944 44c0 f5ef 3ac0
00000210: 1a1a 4ac0 100b 46c0 b726 45c0 8f50 44c0
00000220: 58b2 57c0 00ab 41c0 f1c3 3ec0 4c53 42c0
00000230: 0d54 3ec0 2fb5 42c0 0de6 35c0 8c45 3ec0
00000240: 2f23 43c0 2e5f 3dc0 bcce 3ac0 64e9 3fc0
00000250: d31d 39c0 fcf2 3fc0 a1ac 36c0 eef4 3ac0
00000260: e669 3ac0 7d61 51c0 d0bc 41c0 e100 3fc0
00000270: 429a 38c0 1d0f 4bc0 586d 3ac0 5d25 3ec0
00000280: e71d 38c0 33e6 40c0 339e 3ec0 117a 3fc0
00000290: 8523 43c0 717e 41c0 d9b8 3fc0 6fb6 45c0
000002a0: 3918 45c0 d76a 34c0 4a01 3bc0 0913 3ec0
000002b0: bd1b 40c0 1a09 48c0 b24f 38c0 d0fa 48c0
000002c0: b151 3bc0 9e38 3dc0 32a9 4cc0 8992 36c0
000002d0: e268 3bc0 b05f 35c0 62f1 3dc0 404b 42c0
000002e0: b7f6 41c0 5b86 3ec0 50aa 4ac0 05eb 34c0
000002f0: 3f11 3bc0 d185 39c0 9bf9 49c0 0cbc 3bc0
00000300: aa7b 43c0 c39e 42c0 5b73 3cc0 909d 3bc0
00000310: 93df 3ac0 5855 3bc0 bea0 48c0 36c1 3ac0
00000320: f62e 42c0 6577 4cc0 1065 3cc0 acfb 3ac0
00000330: eeee 3fc0 c843 48c0 14ed 3dc0 4c74 46c0
00000340: 9852 3ec0 02be 42c0 135d 3dc0 25af 40c0
00000350: b7f0 44c0 2950 43c0 23b1 3cc0 0fcf 4cc0
00000360: 5121 4dc0 ee4c 49c0 709f 2dc0 37b6 43c0
00000370: f235 3bc0 ed18 43c0 3a9b 48c0 11e4 40c0
00000380: 7ead 42c0 410e 37c0 1457 44c0 1a6e 3fc0
00000390: f7e8 47c0 bade 45c0 9f43 40c0 3663 39c0
000003a0: 1529 3fc0 b572 30c0 27c5 3ac0 5862 3ec0
000003b0: b507 3cc0 670b 44c0 74d9 3cc0 eeb1 3ec0
000003c0: b6fa 44c0 2954 3cc0 2902 3fc0 c760 41c0
000003d0: 79ff 3ac0 b3d7 44c0 4ce9 37c0 d50f 3cc0
000003e0: 9c5e 3ac0 fe1a 41c0 70a0 33c0 f281 45c0
000003f0: be70 3ac0 86af 37c0 6848 47c0 a4ba 34c0

l1.bias.mu f4 [120]
-0.015674455 0.5109121 -0.07129414 -0.15527388 0.38087064 -0.059683643 0.13505016 -0.005421749
0.2622817 0.0948266 -0.041526377 0.0025707511 0.16624303 0.009972712 -0.19955026 0.15426493
-0.12951623 -0.2867484 0.0101477895 0.036146626 -0.2281191 -0.13222802 0.07715463 0.17063889
0.07780894 -0.025647866 -0.13912654 0.053124104 -0.17345227 0.10519723 0.23047309 0.055931166
0.03998054 -0.13055626 0.10308657 -0.11993222 0.22487478 0.29023156 0.19916995 0.15866804
0.09795783 -0.1096555 -0.15529948 -0.04465559 0.04158674 0.05118795 0.13573027 0.37131324
0.022843722 0.034263793 -0.12027348 0.10974795 -0.041511662 -0.056299064 -0.08892631 0.085332096
-0.09073258 0.18516816 0.20191379 -0.11321795 -0.05706658 0.066260025 0.019891344 0.33217782
-0.02587562 -0.098453544 0.06324066 -0.14719652 0.19684692 -0.03786567 0.027633613 0.11358129
0.0030087004 -0.0057994076 -0.006544381 -0.13649233 -0.14518051 -0.09207239 -0.075037636 0.07558769
-0.08949922 0.05438142 0.03254514 0.11866224 -0.16382174 0.10031488 -0.22335601 0.01097708
-0.108074166 -0.004074409 -0.17071377 -0.090037026 -0.06276537 -0.030373748 0.08115656 -0.00044962263
-0.015307652 0.0034750565 -0.15799057 -0.122250006 0.22222748 0.17626289 -0.053007804 -0.2273333
0.02346224 0.3537556 0.10207663 0.04618049 0.018455029 0.022081405 -0.10153407 0.04409858
0.09770517 0.2927513 -0.059908364 0.08391419 -0.18851428 0.062896766 0.096186966 -0.1760433
00000000: b767 80bc 23cb 023f a902 92bd 1e00 1fbe
00000010: 7a01 c33e d676 74bd 974a 0a3e eda8 b1bb
00000020: c949 863e 7334 c23d 9017 2abd 0c7a 283b
00000030: 9d3b 2a3e 9664 233c e756 4cbe a0f7 1d3e
00000040: e79f 04be b0d0 92be ea42 263c 7c0e 143d
00000050: 0e98 69be c866 07be 3f03 9e3d f6bb 2e3e
00000060: 4b5a 9f3d 791b d2bc 3077 0ebe a998 593d
00000070: 799d 31be a571 d73d 2301 6c3e 1418 653d
00000080: a2c2 233d 8ab0 05be 0d1f d33d 069f f5bd
00000090: 9345 663e 3b99 943e 35f3 4b3e e079 223e
000000a0: 1d9e c83d 1093 e0bd d406 1fbe c8e8 36bd
000000b0: dc56 2a3d 75aa 513d e0fc 0a3e c51c be3e
000000c0: c222 bb3c 3158 0c3d f151 f6bd 89c3 e03d
000000d0: 2208 2abd d999 66bd ff1e b6bd 98c2 ae3d
000000e0: 01d2 b9bd b99c 3d3e 7dc2 4e3e d0de e7bd
000000f0: a5be 69bd 56b3 873d 2cf3 a23c 3613 aa3e
00000100: 1cf9 d3bc 03a2 c9bd 5284 813d afba 16be
00000110: 3d92 493e 0819 1bbd e35f e23c 4f9d e83d
00000120: 9e2d 453b f508 bebb 3f72 d6bb a5c4 0bbe
00000130: 33aa 14be 7390 bcbd 55ad 99bd b8cd 9a3d
00000140: 5e4b b7bd 0dbf 5e3d 0d4e 053d 3005 f33d
00000150: e3c0 27be e371 cd3d 70b7 64be 36d9 333c
00000160: fd55 ddbd 9f82 85bb 97cf 2ebe 5565 b8bd
00000170: 218b 80bd 5ed2 f8bc 6935 a63d 54bb ebb9
00000180: f2cc 7abc c6bd 633b 48c8 21be 365e fabd
00000190: 9a8f 633e 427e 343e b61e 59bd 10ca 68be
000001a0: e233 c03c 741f b53e 8d0d d13d c127 3d3d
000001b0: 002f 973c 10e4 b43c 18f1 cfbd b6a0 343d
000001c0: a619 c83d 80e3 953e 7962 75bd 34db ab3d
000001d0: e309 41be 05d0 803d acfd c43d b244 34be

l1.bias.rho f4 [120]
-3.2524486 -3.027206 -2.8706915 -2.9971495 -3.0105712 -2.8856084 -3.0106957 -3.003315
-2.8506923 -2.9201798 -3.1172106 -3.156448 -3.0360878 -3.0787165 -2.9515247 -2.9887848
-2.983875 -3.0457075 -2.9102862 -2.914086 -3.0300825 -2.965092 -2.853491 -2.9381871
-3.053534 -2.9025598 -2.8603187 -3.0334806 -2.9352539 -2.916383 -3.1944394 -3.102821
-3.1300614 -2.904821 -3.0049849 -2.975391 -2.9303374 -3.022687 -2.9347796 -3.1642382
-2.8638048 -2.9913821 -3.0859735 -2.8641975 -3.049069 -3.0122817 -3.114844 -2.8674834
-2.8257198 -2.9048662 -3.0816813 -2.8234725 -3.2125578 -3.180226 -3.0928397 -3.0245554
-2.9992807 -3.1275005 -3.0978546 -2.9777544 -3.0113783 -3.15041 -2.854563 -2.9168906
-2.934756 -2.8329058 -2.8622859 -2.8522513 -3.0133207 -3.0554965 -3.0581594 -3.1520245
-3.1396804 -3.226619 -3.0275846 -3.124948 -2.954729 -2.9698434 -2.9551706 -2.9456909
-2.9466274 -3.1114237 -3.075998 -3.0536406 -2.9563308 -2.983245 -3.0471668 -3.07249
-2.9072254 -2.8540003 -3.0117657 -2.7923884 -3.1343212 -2.9609983 -2.911537 -3.1414688
-2.8856325 -2.9628172 -2.9935336 -3.0539086 -3.064007 -2.9782944 -2.9400067 -2.9959044
-3.0491388 -3.0981884 -2.7677994 -2.8873875 -3.0998664 -2.9147346 -2.9812655 -2.9447806
-2.953804 -2.9792743 -3.1231458 -3.0363438 -2.9708524 -3.1135767 -2.992843 -3.0616872
00000000: 1e28 50c0 bebd 41c0 69b9 37c0 4cd1 3fc0
00000010: 33ad 40c0 cfad 38c0 3daf 40c0 5036 40c0
00000020: be71 36c0 3ae4 3ac0 6180 47c0 3e03 4ac0
00000030: 434f 42c0 b109 45c0 c8e5 3cc0 4048 3fc0
00000040: cff7 3ec0 dfec 42c0 2142 3ac0 6380 3ac0
00000050: dfec 41c0 11c4 3dc0 999f 36c0 420b 3cc0
00000060: 1a6d 43c0 8ac3 39c0 760f 37c0 8c24 42c0
00000070: 33db 3bc0 05a6 3ac0 b271 4cc0 9f94 46c0
00000080: ed52 48c0 96e8 39c0 ac51 40c0 ce6c 3ec0
00000090: a68a 3bc0 b473 41c0 6ed3 3bc0 e182 4ac0
000000a0: 9448 37c0 ce72 3fc0 9780 45c0 034f 37c0
000000b0: f223 43c0 39c9 40c0 9b59 47c0 d984 37c0
000000c0: 98d8 34c0 54e9 39c0 443a 45c0 c6b3 34c0
000000d0: 8c9a 4dc0 d388 4bc0 16f1 45c0 5192 41c0
000000e0: 37f4 3fc0 f828 48c0 4043 46c0 8793 3ec0
000000f0: 6cba 40c0 51a0 49c0 29b1 36c0 56ae 3ac0
00000100: 0bd3 3bc0 544e 35c0 b12f 37c0 498b 36c0
00000110: 3fda 40c0 418d 43c0 e2b8 43c0 c5ba 49c0
00000120: 86f0 48c0 ed80 4ec0 f2c3 41c0 26ff 47c0
00000130: 481a 3dc0 ea11 3ec0 8421 3dc0 3386 3cc0
00000140: 8b95 3cc0 9121 47c0 27dd 44c0 d96e 43c0
00000150: 8634 3dc0 7ced 3ec0 c804 43c0 ada3 44c0
00000160: fb0f 3ac0 f1a7 36c0 c5c0 40c0 7eb6 32c0
00000170: b898 48c0 ff80 3dc0 9f56 3ac0 d30d 49c0
00000180: 34ae 38c0 cc9e 3dc0 0e96 3fc0 3d73 43c0
00000190: b118 44c0 609c 3ec0 1229 3cc0 e6bc 3fc0
000001a0: 1725 43c0 b848 46c0 a023 31c0 f5ca 38c0
000001b0: 3664 46c0 038b 3ac0 0ecd 3ec0 4977 3cc0
000001c0: 200b 3dc0 6eac 3ec0 9fe1 47c0 7553 42c0
000001d0: 7222 3ec0 d744 47c0 bd8a 3fc0 aff2 43c0

classifier.0.weight_mu f4 [2, 120]
0.020021165 0.07158918 -0.022207776 0.017052127 0.087338224 0.11514483 -0.18836588 -0.036961302
0.20534338 0.099645875 0.024787717 -0.043380342 0.17328985 -0.1435413 0.17379211 -0.029189846
0.08733582 0.17560801 -0.068842515 -0.015137668 0.0153477 -0.09953957 -0.11333882 -0.047584645
-0.0825105 0.18544082 -0.10177201 -0.030831702 -0.076804996 0.059886657 -0.10701991 0.03895841
0.009588314 -0.08157953 0.14330617 -0.013006741 0.042273395 0.028862234 -0.05588412 0.04994253
0.049265895 0.12897341 0.10472264 0.005955644 0.10226582 0.09835254 -0.105840206 -0.054061312
0.09624505 0.14121147 0.15861481 -0.03917141 0.034498952 -0.1519751 -0.13833505 -0.08326766
-0.09310294 0.072463386 0.24757525 -0.008923348 -0.056113694 -0.23273554 -0.24441043 0.2116667
-0.050906025 -0.104897246 0.1736256 -0.09189305 -0.061291292 -0.056481164 -0.044607922 0.04339309
0.04953167 0.008423346 0.08316342 0.021157626 0.09533897 0.05798873 -0.018338928 -0.020752786
0.037237924 0.020947315 0.031849522 -0.012078449 -0.0065525635 0.2006548 0.118492976 -0.058745854
-0.17322096 0.022570904 -0.03328796 0.07292421 -0.07520636 -0.00022459528 0.082198 -0.022963794
0.12933566 -0.120340586 -0.058813542 -0.0015978506 0.15496686 0.058143727 0.04620832 0.028490417
-0.1612681 0.306766 0.1520316 0.021530492 -0.16251934 -0.13757725 0.02924226 0.1510214
0.009515231 -0.12522642 0.067225814 0.025298689 0.053513147 0.16039057 0.18637675 -0.005677157
0.046288114 0.12292637 -0.09371308 0.025405671 -0.09329735 -0.0038588515 0.18548805 -0.04218708
-0.06864098 0.080384135 0.015259231 0.044274554 -0.06105247 0.21432082 -0.12986204 0.02922776
-0.07846049 -0.013220337 -0.0135731995 -0.15348394 -0.02643886 -0.12196869 -0.055458557 0.004218514
-0.07326374 0.0329111 0.027371977 0.0024815502 -0.04934928 0.021292217 0.124404795 0.15027109
-0.12465421 0.06756032 -0.022042455 0.07575773 0.12472085 -0.014866117 0.049059242 0.01490713
0.069368996 -0.043256663 -0.12759137 -0.09468811 0.10619882 0.12727268 -0.051997058 0.21384616
0.049825456 -0.072070986 -0.06450408 -0.07577137 0.15045892 0.036911547 0.1345369 -0.18361744
0.15294635 -0.053735714 -0.048160795 0.06622958 0.19475631 0.054124385 -0.017878626 0.1414442
-0.14468779 0.020440293 -0.09003467 -0.033684958 -0.04874552 0.021038055 0.00040949293 0.09094196
-0.093383364 -0.13750085 0.10097918 0.034219205 0.09931569 -0.16552572 0.12842338 0.010056312
-0.06310524 0.1518644 0.030178998 -0.04838559 -0.055418998 0.09234761 -0.122116394 0.0834745
-0.08370435 -0.0053414577 0.15653591 0.0043808697 0.07650807 0.07408003 0.09990331 0.07662467
0.0016744833 -0.17748493 0.051193926 -0.09978525 -0.0875054 -0.049914 -0.04156563 -0.013443694
0.084514 -0.0041880263 0.1353344 0.1649529 -0.10351928 -0.0066887103 -0.02127682 0.0013750854
-0.0004570474 -0.033056874 -0.06403464 -0.020085905 0.032283146 0.00857047 0.0058887335 -0.010297117
00000000: 6d03 a43c 599d 923d 15ed b5bc e7b0 8b3c
00000010: 62de b23d 0dd1 eb3d fce2 40be bc64 17bd
00000020: 8945 523e 2313 cc3d 9c0f cb3c 96af 31bd
00000030: e572 313e 7efc 12be 8ff6 313e 8b1f efbc
00000040: 1fdd b23d 96d2 333e 4efd 8cbd fb03 78bc
00000050: eb74 7b3c 67db cbbd 2f1e e8bd 1ee8 42bd
00000060: 44fb a8bd 33e4 3d3e d86d d0bd c492 fcbc
00000070: f04b 9dbd b64b 753d 412d dbbd db92 1f3d
00000080: 4e18 1d3c 2b13 a7bd dabe 123e 3a1a 55bc
00000090: de26 2d3d 7e70 ec3c bfe6 64bd 8a90 4c3d
000000a0: 09cb 493d 9b11 043e d378 d63d 9027 c33b
000000b0: be70 d13d 0e6d c93d c0c2 d8bd 656f 5dbd
000000c0: 201c c53d bd99 103e ec6b 223e 3372 20bd
000000d0: c64e 0d3d 5c9f 1bbe b4a7 0dbe 3c88 aabd
000000e0: c1ac bebd af67 943d 5e84 7d3e 3c33 12bc
000000f0: 79d7 65bd 3a52 6ebe ba46 7abe 28bf 583e
00000100: d682 50bd 5ed4 d6bd e9ca 313e 6c32 bcbd
00000110: 940c 7bbd cb58 67bd ccb6 36bd f4bc 313d
00000120: b8e1 4a3d 1302 0a3c 9551 aa3d c252 ad3c
00000130: 1441 c33d 9785 6d3d 853b 96bc bf01 aabc
00000140: cb86 183d b499 ab3c a574 023d b0e4 45bc
00000150: e3b6 d6bb 7478 4d3e 72ac f23d 7e9f 70bd
00000160: d660 31be 9ee6 b83c f558 08bd 4a59 953d
00000170: cb05 9abd 5681 6bb9 6d57 a83d 911e bcbc
00000180: 9170 043e 2075 f6bd 78e6 70bd f86e d1ba
00000190: a2af 1e3e 1e28 6e3d ef44 3d3d bc64 e93c
000001a0: 7723 25be 6f10 9d3e 2cae 1b3e b760 b03c
000001b0: 786b 26be 0de1 0cbe 778d ef3c 5ba5 1a3e
000001c0: c5e5 1b3c 5b3b 00be b0ad 893d 323f cf3c
000001d0: 9a30 5b3d 6d3d 243e 8cd9 3e3e 7207 babb
000001e0: 9b98 3d3d d2c0 fb3d a5ec bfbd 8e1f d03c
000001f0: ae12 bfbd c9e4 7cbb 94f0 3d3e 5ccc 2cbd
00000200: a493 8cbd 70a0 a43d db01 7a3c 3c59 353d
00000210: 2812 7abd eb76 5b3e 8efa 04be 0e6f ef3c
00000220: e5af a0bd 1d9a 58bc 2062 5ebc e52a 1dbe
00000230: 4f96 d8bc b8ca f9bd 8328 63bd 763b 8a3b
00000240: 4d0b 96bd cacd 063d 323b e03c 81a1 223b
00000250: 7822 4abd 046d ae3c f1c7 fe3d aae0 193e
00000260: b54a ffbd 115d 8a3d 6192 b4bc de26 9b3d
00000270: a56d ff3d 0491 73bc 58f2 483d 093d 743c
00000280: 5511 8e3d e62d 31bd 50a7 02be d7eb c1bd
00000290: c47e d93d c553 023e defa 54bd 7dfa 5a3e
000002a0: c715 4c3d f499 93bd b71a 84bd 052e 9bbd
000002b0: e711 1a3e 9030 173d 0bc4 093e 3606 3cbe
000002c0: f89d 1c3e fb19 5cbd 4144 45bd 60a3 873d
000002d0: 336e 473e 88b1 5d3d 3276 92bc c0d6 103e
000002e0: 0929 14be 6772 a73c 1964 b8bd 3df9 09bd
000002f0: 62a9 47bd 0058 ac3c 36b1 d639 c73f ba3d
00000300: c73f bfbd 06cd 0cbe 2cce ce3d 7029 0c3d
00000310: 0666 cb3d 937f 29be 6b81 033e 3bc3 243c
00000320: 523d 81bd 5782 1b3e f239 f73c f82f 46bd
00000330: 08ff 62bd be20 bd3d 2918 fabd aef4 aa3d
00000340: 306d abbd 6507 afbb f34a 203e 668d 8f3b
00000350: 43b0 9c3d 45b7 973d 1b9a cc3d 65ed 9c3d
00000360: 567a db3a 9cbe 35be b9b0 513d 365c ccbd
00000370: 0836 b3bd 9f72 4cbd b940 2abd f142 5cbc
00000380: ad15 ad3d b63b 89bb 1a95 0a3e 6ae9 283e
00000390: eb01 d4bd f82c dbbb ba4c aebc 363c b43a
000003a0: dd9f efb9 a566 07bd 9824 83bd 328b a4bc
000003b0: 553b 043d 286b 0c3c 47f6 c03b 3db5 28bc

classifier.0.weight_rho f4 [2, 120]
-2.9845338 -2.9692667 -3.1004696 -2.967335 -2.8271666 -3.1611454 -3.0201225 -3.103433
-2.9315777 -2.8645213 -3.0389616 -3.025671 -3.2119775 -3.1945922 -2.9216235 -3.0050962
-3.053145 -3.0510945 -3.1830978 -3.0006719 -3.0153778 -3.0595353 -3.0115411 -2.995346
-2.9452598 -3.0585494 -3.0000951 -3.025448 -2.7720335 -3.0840597 -3.1149416 -3.1770034
-3.0925658 -2.7567198 -2.9632456 -3.08582 -3.0588272 -3.1316838 -3.0215821 -2.9393399
-2.9021776 -2.9101217 -2.9444172 -2.972198 -3.2184787 -2.937966 -2.9185593 -3.059744
-2.9749749 -2.9502358 -3.0198197 -2.927073 -3.1023517 -2.9729645 -2.857711 -2.9558358
-3.0917683 -3.1002886 -3.0720284 -2.8012154 -2.973093 -2.9313424 -3.1638458 -3.0560098
-3.0516052 -3.0913334 -3.134028 -3.135325 -2.8471725 -3.0475695 -3.024423 -3.0316818
-3.0548482 -3.1159391 -2.9773147 -2.909135 -3.2030842 -3.1872482 -2.9965117 -2.9084055
-3.0840333 -3.0504818 -3.0625837 -2.9941142 -2.8137786 -3.0802548 -2.9484136 -3.129616
-3.0250447 -2.930199 -3.0932298 -3.1077347 -3.1491928 -2.9312468 -3.0916321 -3.0282593
-3.0556908 -2.979039 -3.05429 -2.9686522 -2.993011 -2.9522254 -2.973312 -3.1401184
-3.0325446 -2.8985894 -2.7437818 -2.8825812 -3.0452864 -2.9369614 -3.0525181 -3.1448925
-3.052944 -2.7688336 -2.955086 -3.0161173 -3.1180904 -2.9655266 -3.008485 -3.042411
-2.9995344 -2.9138274 -3.071664 -3.256073 -3.0667171 -3.0342095 -2.9322538 -2.925846
-3.070331 -3.1052403 -3.0828369 -2.8647869 -3.0734997 -3.0201142 -3.0581264 -2.9028852
-3.000247 -2.9059358 -3.0640266 -3.0561454 -2.8148644 -2.8602188 -2.9956043 -3.0775995
-2.914071 -2.9878976 -3.103669 -2.9253397 -2.9691176 -2.7874494 -3.0657492 -2.8969967
-2.9084873 -2.9911022 -2.9222775 -3.1059449 -2.8819275 -2.642779 -3.1343877 -2.9650636
-2.911508 -2.7919326 -3.0569777 -2.935779 -2.9555078 -3.0523136 -2.906109 -3.0219572
-3.151218 -2.9841561 -3.1524615 -3.01078 -2.891401 -2.9786158 -3.077369 -3.1209009
-2.9978704 -3.0668685 -3.0896692 -3.1326194 -3.0889633 -2.93293 -2.7888105 -2.912281
-2.9312282 -3.057718 -3.2441964 -3.0690336 -2.9456015 -3.0149786 -2.9170187 -3.1175618
-2.8822608 -3.006826 -3.2645292 -3.015185 -3.2098987 -3.0253353 -2.9980078 -3.0097706
-2.9063983 -2.9270616 -3.049699 -2.923429 -3.0257328 -3.0447373 -2.9470239 -2.9592505
-3.0266697 -2.9923596 -3.059303 -3.006247 -2.9495838 -2.9487853 -2.9334242 -2.799562
-2.903463 -2.9257798 -3.081294 -3.1290152 -2.917085 -2.958614 -3.011869 -3.0105078
-2.937023 -3.164569 -2.9887934 -3.1028285 -2.922509 -2.9903076 -3.0452845 -2.9173648
-2.9048207 -3.05026 -2.9616587 -3.054444 -3.0004995 -3.082663 -3.1620686 -2.9774435
00000000: 9a02 3fc0 7708 3ec0 186e 46c0 d1e8 3dc0
00000010: 4cf0 34c0 3550 4ac0 b049 41c0 a59e 46c0
00000020: f89e 3bc0 5154 37c0 597e 42c0 98a4 41c0
00000030: 0a91 4dc0 3374 4cc0 e1fb 3ac0 7f53 40c0
00000040: ba66 43c0 2245 43c0 e0b7 4bc0 020b 40c0
00000050: f3fb 40c0 6dcf 43c0 17bd 40c0 c0b3 3fc0
00000060: 237f 3cc0 46bf 43c0 8f01 40c0 f1a0 41c0
00000070: ff68 31c0 3c61 45c0 345b 47c0 0654 4bc0
00000080: 99ec 45c0 196e 30c0 d1a5 3dc0 137e 45c0
00000090: d3c3 43c0 826d 48c0 9a61 41c0 251e 3cc0
000000a0: 47bd 39c0 6f3f 3ac0 5571 3cc0 7e38 3ec0
000000b0: 8efb 4dc0 a307 3cc0 adc9 3ac0 d8d2 43c0
000000c0: fd65 3ec0 aad0 3cc0 ba44 41c0 2a55 3bc0
000000d0: ee8c 46c0 0d45 3ec0 bde4 36c0 6a2c 3dc0
000000e0: 88df 45c0 216b 46c0 1d9c 44c0 1d47 33c0
000000f0: 2847 3ec0 1d9b 3bc0 737c 4ac0 aa95 43c0
00000100: 804d 43c0 68d8 45c0 ea93 48c0 2aa9 48c0
00000110: 1338 36c0 610b 43c0 2590 41c0 1307 42c0
00000120: a282 43c0 8c6b 47c0 538c 3ec0 452f 3ac0
00000130: 55ff 4cc0 e0fb 4bc0 d9c6 3fc0 5123 3ac0
00000140: cd60 45c0 183b 43c0 5f01 44c0 919f 3fc0
00000150: f314 34c0 e522 45c0 cfb2 3cc0 a14b 48c0
00000160: 559a 41c0 6188 3bc0 7af7 45c0 20e5 46c0
00000170: 608c 49c0 8c99 3bc0 4ddd 45c0 00cf 41c0
00000180: 7090 43c0 93a8 3ec0 7d79 43c0 66fe 3dc0
00000190: 7e8d 3fc0 43f1 3cc0 be4a 3ec0 b3f7 48c0
000001a0: 3615 42c0 7d82 39c0 1f9a 2fc0 367c 38c0
000001b0: f9e5 42c0 2df7 3bc0 755c 43c0 eb45 49c0
000001c0: 6f63 43c0 9234 31c0 2120 3dc0 1108 41c0
000001d0: cb8e 47c0 30cb 3dc0 058b 40c0 ddb6 42c0
000001e0: 5ff8 3fc0 267c 3ac0 2596 44c0 8063 50c0
000001f0: 1845 44c0 7d30 42c0 0caa 3bc0 1041 3bc0
00000200: 4e80 44c0 42bc 46c0 334d 45c0 ab58 37c0
00000210: 38b4 44c0 8d49 41c0 58b8 43c0 dfc8 39c0
00000220: 0c04 40c0 dafa 39c0 0319 44c0 e397 43c0
00000230: bd26 34c0 d30d 37c0 fbb7 3fc0 64f7 44c0
00000240: 2480 3ac0 b739 3fc0 83a2 46c0 c438 3bc0
00000250: 0606 3ec0 9265 32c0 3c35 44c0 6568 39c0
00000260: a824 3ac0 386e 3fc0 9806 3bc0 cdc7 46c0
00000270: 8071 38c0 4b23 29c0 cf99 48c0 9ac3 3dc0
00000280: 2656 3ac0 06af 32c0 86a5 43c0 cee3 3bc0
00000290: 0a27 3dc0 1b59 43c0 b1fd 39c0 bf67 41c0
000002a0: 8ead 49c0 6afc 3ec0 eec1 49c0 9fb0 40c0
000002b0: b70c 39c0 a4a1 3ec0 9df3 44c0 d7bc 47c0
000002c0: 1cdd 3fc0 9347 44c0 24bd 45c0 d67c 48c0
000002d0: 93b1 45c0 20b5 3bc0 df7b 32c0 d062 3ac0
000002e0: 3e99 3bc0 a7b1 43c0 eaa0 4fc0 0c6b 44c0
000002f0: bc84 3cc0 69f5 40c0 6fb0 3ac0 2286 47c0
00000300: f676 38c0 d66f 40c0 0cee 50c0 cbf8 40c0
00000310: fb6e 4dc0 189f 41c0 5cdf 3fc0 15a0 40c0
00000320: 6e02 3ac0 fa54 3bc0 452e 43c0 7619 3bc0
00000330: 9ba5 41c0 fadc 42c0 0a9c 3cc0 5c64 3dc0
00000340: f5b4 41c0 d282 3fc0 9fcb 43c0 5a66 40c0
00000350: fbc5 3cc0 e6b8 3cc0 39bd 3bc0 062c 33c0
00000360: 56d2 39c0 fa3f 3bc0 ec33 45c0 c941 48c0
00000370: 85b1 3ac0 ef59 3dc0 76c2 40c0 29ac 40c0
00000380: 2ff8 3bc0 4c88 4ac0 6448 3fc0 be94 46c0
00000390: 630a 3bc0 3361 3fc0 f1e5 42c0 1bb6 3ac0
000003a0: 95e8 39c0 7637 43c0 d18b 3dc0 037c 43c0
000003b0: 2f08 40c0 5a4a 45c0 555f 4ac0 6f8e 3ec0

classifier.0.bias_mu f4 [2]
-0.12539946 -0.01353864
00000000: b768 00be 2cd1 5dbc

classifier.0.bias_rho f4 [2]
-2.9697306 -2.9859102
00000000: 1110 3ec0 2719 3fc0
