checkpoints_16_tasks/16_task_groups_PUGCL_epochs_:50_lr_:0.03_hidden_:180_task_order_:[ 4  1  6  8 11  3  7  2 12  5 15 14  0  9 10 13]/model_6.pth.tar (torch_old, 111025 bytes, 136 tensors)

l1.weight_mu f4 [180, 29]
0.05464484 0.04162719 -0.18783382 -0.04926845 -0.046660125 -0.0034148502 0.029871766 -0.04965255
-0.08837269 0.12070031 0.07340645 -0.024569485 -0.102977864 -0.11571534 0.005624868 0.1616793
0.013398881 -0.12942524 0.16219214 0.22279184 0.12581865 0.063232616 -0.0884873 -0.04284603
0.17422901 -0.10255925 0.015503487 0.12713563 -0.21528786 0.16835208 -0.2260515 -0.028946811
0.257024 0.12953565 0.18751125 0.11268378 0.06127952 0.005827209 0.0495731 -0.059318736
-0.13399671 -0.064139634 -0.08228422 -0.01802685 -0.10878561 -0.03013486 -0.23324102 -0.04233622
0.08770374 -0.10164801 -0.083502494 -0.005300105 0.34490615 0.043811034 -0.024372624 0.06299256
-0.025782716 0.10481369 -0.004435762 -0.018505026 -0.05311233 0.15417577 -0.15943848 -0.062408123
0.0140060065 -0.0011602424 -0.10170178 -0.0313252 -0.052513145 -0.029690567 0.024081988 0.087502696
0.27561077 -0.16251491 -0.04600597 -0.023090836 -0.04540946 -0.09988382 -0.0037598636 0.087079346
-0.082600586 -0.044917304 0.053077564 -0.1429229 -0.0038884133 -0.1623246 0.13469945 0.05254289
0.07360531 -0.229114 -0.055305917 -0.09461579 -0.09168523 -0.109610446 0.021526594 -0.18794484
-0.086971015 0.02760057 0.088423066 0.046628747 -0.05012541 0.048725903 -0.005946632 -0.24394846
-0.20073213 0.21200398 0.0070681064 -0.029712938 -0.0012900308 -0.07968424 -0.029546535 -0.04377566
-0.019699594 0.047163583 -0.027161682 -0.074236035 -0.058632806 -0.06512375 0.005389764 -0.03540753
-0.054477133 0.0031072868 0.02290617 0.13919024 0.068605505 -0.11578863 -0.06809175 -0.0196169
-0.12694465 0.059722338 0.10065962 -0.033218108 0.07167377 0.0798225 -0.1381517 0.062205024
-0.24850677 -0.03491668 -0.044047978 -0.14871943 -0.0055932538 0.019485638 -0.061872628 0.09009179
0.012494093 -0.061403163 0.04292671 0.08108774 -0.029509237 0.11400642 -0.021192502 0.08860947
-0.11161921 0.03800092 0.007045807 0.097345315 0.18685962 0.082869984 -0.1659196 0.09949186
-0.042893894 0.035672117 -0.028766083 0.080651015 0.056691676 -0.06952244 -0.1416067 0.14653511
-0.043243326 -0.055436015 0.023723228 0.08898595 -0.035058387 -0.023636067 0.037651524 -0.014072917
0.1645847 -0.13453044 0.065458804 -0.017339543 -0.017543891 -0.082308576 -0.11277421 0.08099005
-0.20407328 0.00029585315 0.040304385 0.099671945 0.03020842 -0.020310452 0.011709861 0.10670747
0.11143482 -0.14562552 0.1339096 -0.018080896 0.14400898 -0.032194693 0.07983524 -0.15942506
-0.004041767 -0.06704021 -0.20578535 0.08764898 -0.05916257 -0.070841014 0.14974537 0.056516342
0.17063919 0.26903945 0.06873692 -0.082518496 -0.072608076 0.009347126 -0.18710163 0.003150099
0.13997594 0.018737644 0.13983466 0.0352643 -0.0038253663 -0.05032924 -0.0050247717 0.14431886
-0.16019563 -0.013383322 -0.0046135867 -0.04593873 0.06463957 0.25399005 0.050193783 -0.075702466
0.20840324 -0.18028449 0.1231386 0.07590207 0.16654967 0.2504471 -0.061476592 0.09436285
0.12479626 0.060153976 0.105175704 0.17504697 0.04214899 -0.18640912 0.07749608 -0.13859981
0.16566099 0.024533195 0.2533653 0.09082483 0.19371587 0.026499392 -0.07623098 0.28697053
00000000: 45d3 5f3d 4681 2a3d 8257 40be b7cd 49bd
00000010: b01e 3fbd aecb 5fbb a2b5 f43c 7960 4bbd
00000020: befc b4bd b931 f73d 1f56 963d f245 c9bc
00000030: 0fe6 d2bd 2afc ecbd d050 b83b 428f 253e
00000040: fb86 5b3c 0d88 04be b215 263e 8b23 643e
00000050: 9bd6 003e 1a80 813d d438 b5bd 527f 2fbd
00000060: 1769 323e 960a d2bd 5602 7e3c d82f 023e
00000070: 6c74 5cbe 7d64 2c3e 0b7a 67be dd21 edbc
00000080: a698 833e fea4 043e f302 403e c1c6 e63d
00000090: 3c00 7b3d 2cf2 be3b 2a0d 4b3d 34f8 72bd
000000a0: 6f36 09be a45b 83bd a184 a8bd 0bad 93bc
000000b0: fdca debd 62dd f6bc bcd6 6ebe bf68 2dbd
000000c0: 059e b33d d52c d0bd 5b03 abbd 81ac adbb
000000d0: 8a97 b03e 3373 333d 19a9 c7bc 3e02 813d
000000e0: 4636 d3bc 8fa8 d63d de59 91bb da97 97bc
000000f0: 518c 59bd 41e0 1d3e d743 23be a99f 7fbd
00000100: 7379 653c 4613 98ba 0649 d0bd da4e 00bd
00000110: 0618 57bd a239 f3bc 9747 c53c 9d34 b33d
00000120: db1c 8d3e 4f6a 26be c270 3cbd fe28 bdbc
00000130: 45ff 39bd e38f ccbd 0b68 76bb a856 b23d
00000140: 7f2a a9bd 35fb 37bd dc67 593d 615a 12be
00000150: c0d4 7ebb 6c38 26be a7ee 093e 3737 573d
00000160: 61be 963d dc9c 6abe 7588 62bd ecc5 c1bd
00000170: 77c5 bbbd 717b e0bd 8a58 b03c 9d74 40be
00000180: dc1d b2bd 971a e23c 2717 b53d c9fd 3e3d
00000190: 4d50 4dbd d094 473d f7db c2bb a0cd 79be
000001a0: b98c 4dbe 9217 593e 939b e73b 8c68 f3bc
000001b0: 4016 a9ba 7e31 a3bd 930b f2bc 1b4e 33bd
000001c0: 0b61 a1bc 9a2e 413d 2d82 debc 1009 98bd
000001d0: f428 70bd 9a5f 85bd 9e9c b03b 7c07 11bd
000001e0: 6a23 5fbd 9fa3 4b3b b8a5 bb3c e387 0e3e
000001f0: 0b81 8c3d 9722 edbd b073 8bbd 9fb3 a0bc
00000200: c7fd 01be 699f 743d a126 ce3d b60f 08bd
00000210: b3c9 923d fb79 a33d a477 0dbe b2ca 7e3d
00000220: 8f78 7ebe cb04 0fbd a76b 34bd e849 18be
00000230: 9d47 b7bb 58a0 9f3c 276e 7dbd 0b82 b83d
00000240: 06b4 4c3c e281 7bbd ebd3 2f3d 5411 a63d
00000250: 5bbd f1bc 337c e93d e69b adbc e278 b53d
00000260: 9d98 e4bd daa6 1b3d 83e0 e63b fb5c c73d
00000270: 2158 3f3e bdb7 a93d d4e6 29be 63c2 cb3d
00000280: 82b1 2fbd ed1c 123d d9a6 ebbc 5c2c a53d
00000290: 8835 683d c861 8ebd 5901 11be 4d0d 163e
000002a0: ea1f 31bd e010 63bd 3757 c23c 443e b63d
000002b0: 6299 0fbd 6da0 c1bc 7c38 1a3d 1892 66bc
000002c0: e488 283e 59c2 09be 440f 863d a80b 8ebc
000002d0: 35b8 8fbc 6691 a8bd 2af6 e6bd 1dde a53d
000002e0: 96f8 50be bd1c 9b39 3616 253d ce20 cc3d
000002f0: a677 f73c 1b62 a6bc b8da 3f3c 7289 da3d
00000300: f037 e43d db1e 15be 991f 093e 631e 94bc
00000310: 1777 133e 95de 03bd a980 a33d 5340 23be
00000320: cd70 84bb 614c 89bd 65b9 52be 4f81 b33d
00000330: 7354 72bd 1815 91bd da56 193e ae7d 673d
00000340: 0abc 2e3e 8abf 893e f1c5 8c3d 75ff a8bd
00000350: 8bb3 94bd b024 193c 9297 3fbe e471 4e3b
00000360: da55 0f3e b07f 993c d130 0f3e 4c71 103d
00000370: ffb2 7abb 0826 4ebd d7a6 a4bb 53c8 133e
00000380: 530a 24be b945 5bbc 922d 97bb 402a 3cbd
00000390: c061 843d fc0a 823e ff97 4d3d e509 9bbd
000003a0: a967 553e 7f9c 38be 1730 fc3d 8b72 9b3d
000003b0: ff8b 2a3e 9a3a 803e e1ce 7bbd 4f41 c13d
000003c0: 2e95 ff3d 0464 763d 5c66 d73d 833f 333e
000003d0: 6ba4 2c3d 08e2 3ebe 44b6 9e3d 1ced 0dbe
000003e0: 09a3 293e d7f9 c83c 19b9 813e 5e02 ba3d
000003f0: 745d 463e 4115 d93c fd1e 9cbd cded 923e

l1.weight_rho f4 [180, 29]
-2.795439 -2.8939178 -2.972362 -3.1207192 -3.1165168 -3.0027318 -3.0866303 -3.2189415
-3.077457 -2.8043776 -3.0729928 -3.0004647 -3.1908112 -3.0747662 -2.9215796 -3.1184256
-2.8807328 -2.8725972 -2.8479693 -2.923222 -2.7994711 -3.0175548 -3.0161636 -3.0512438
-2.9123468 -2.837629 -2.9875133 -2.9399846 -2.9310966 -3.001367 -2.908179 -2.9711208
-2.826435 -3.250425 -2.8872795 -2.8031106 -2.8450823 -3.007618 -3.1497269 -3.0194182
-3.0155854 -3.0520604 -3.0534165 -2.8914351 -2.924372 -2.9463084 -3.0198267 -3.047221
-2.8147917 -2.7921116 -2.9146004 -2.9961157 -2.9686685 -2.8694227 -2.9675193 -2.9932973
-2.9064748 -3.1543083 -2.8429205 -3.0350814 -2.933622 -2.9708893 -2.8088195 -3.1186717
-3.1026347 -3.0819182 -2.991445 -2.923681 -2.9541857 -3.073081 -2.9492633 -2.9040575
-2.9938204 -3.0672274 -2.9845145 -2.9265294 -3.0418024 -3.156141 -2.929475 -2.9393647
-2.9552367 -2.994682 -2.9583845 -2.9947329 -3.0339317 -3.0050933 -3.0222301 -3.0092416
-3.1237385 -2.9825613 -3.1117444 -2.868392 -2.9933693 -2.8965952 -3.1118054 -2.9249723
-2.9755824 -2.887089 -2.9680746 -2.9525924 -3.0098894 -3.052023 -2.8913858 -3.148471
-2.9872186 -3.0200658 -2.863918 -2.9330058 -2.9808695 -3.0889935 -3.0335898 -3.0234892
-3.0160692 -2.961994 -2.985971 -2.854407 -3.1203883 -3.0814996 -2.975237 -2.9357457
-3.1733365 -3.0732112 -2.9376702 -2.980608 -3.0083323 -2.9608862 -3.0755105 -2.9331682
-2.9069736 -2.9451413 -3.0062606 -3.0493479 -3.03924 -2.8889008 -3.0488906 -3.0094728
-3.005551 -3.053729 -2.9892535 -3.027791 -3.074657 -2.949678 -3.0061414 -2.9481943
-3.0047672 -2.9954414 -2.9924743 -3.0152717 -3.084019 -2.9333584 -3.038977 -2.8687031
-3.1047044 -3.233165 -2.9139428 -3.0105937 -2.9562495 -2.870299 -3.0134118 -2.8154116
-2.9856167 -3.0942793 -2.9377453 -3.1009886 -3.0411086 -3.0162928 -3.0590637 -3.0299366
-2.9288723 -2.9754474 -2.8929029 -3.0122912 -3.0625162 -2.9708674 -3.1010041 -2.9742079
-3.053396 -3.0690649 -3.0014012 -3.1000257 -2.9861975 -2.9843705 -3.013774 -3.016629
-3.0545557 -3.037472 -3.043632 -3.0748296 -3.0227044 -2.8734663 -2.9389915 -2.9454129
-3.029449 -3.0074823 -3.1183574 -3.0878496 -3.0246878 -3.12093 -2.9678297 -3.0565972
-3.0993462 -2.9842973 -2.8724613 -2.864869 -2.9739714 -3.133892 -2.9515257 -2.7461665
-3.0049584 -3.0121026 -3.0504546 -3.0243945 -2.8809657 -2.9327343 -2.8392446 -2.885533
-2.781832 -3.1644902 -3.1398473 -2.903639 -3.0125916 -3.2022693 -2.9316852 -2.9677489
-2.976475 -2.9583285 -2.9362898 -3.0638297 -3.0778413 -2.9455564 -3.1012712 -2.9521916
-3.069454 -3.011443 -3.1112082 -2.9812214 -3.0717785 -3.0078673 -2.9972434 -3.0282652
-3.028497 -3.203296 -2.9079251 -2.9055276 -2.8078415 -2.8233647 -2.813638 -3.057347
-2.91526 -3.0428696 -2.8903325 -3.0079975 -3.0142305 -3.0236053 -3.0250425 -2.8513765
00000000: 79e8 32c0 f335 39c0 2e3b 3ec0 ddb9 47c0
00000010: 0375 47c0 c22c 40c0 5a8b 45c0 2303 4ec0
00000020: 0ef5 44c0 ec7a 33c0 eaab 44c0 9d07 40c0
00000030: 4036 4cc0 f8c8 44c0 29fb 3ac0 4994 47c0
00000040: ed5d 38c0 a2d8 37c0 2145 36c0 1216 3bc0
00000050: 892a 33c0 9e1f 41c0 d308 41c0 9447 43c0
00000060: e463 3ac0 b79b 35c0 6b33 3fc0 b528 3cc0
00000070: 1697 3bc0 6616 40c0 9b1f 3ac0 d826 3ec0
00000080: 50e4 34c0 f706 50c0 30c9 38c0 2a66 33c0
00000090: d415 36c0 d07c 40c0 2095 49c0 263e 41c0
000000a0: 5aff 40c0 f554 43c0 2d6b 43c0 460d 39c0
000000b0: e928 3bc0 5190 3cc0 d744 41c0 ab05 43c0
000000c0: 8c25 34c0 f5b1 32c0 d088 3ac0 5cc0 3fc0
000000d0: aafe 3dc0 9fa4 37c0 d6eb 3dc0 2f92 3fc0
000000e0: af03 3ac0 30e0 49c0 69f2 35c0 c63e 42c0
000000f0: 76c0 3bc0 0d23 3ec0 b3c3 33c0 5198 47c0
00000100: 9191 46c0 263e 45c0 d673 3fc0 971d 3bc0
00000110: 6111 3dc0 5cad 44c0 bbc0 3cc0 14dc 39c0
00000120: c19a 3fc0 744d 44c0 4902 3fc0 424c 3bc0
00000130: e4ac 42c0 37fe 49c0 857c 3bc0 8d1e 3cc0
00000140: 9922 3dc0 dfa8 3fc0 2c56 3dc0 b4a9 3fc0
00000150: f02b 42c0 7353 40c0 386c 41c0 6a97 40c0
00000160: 55eb 47c0 49e2 3ec0 d226 47c0 bc93 37c0
00000170: 5d93 3fc0 d161 39c0 d227 47c0 bf32 3bc0
00000180: f16f 3ec0 11c6 38c0 eff4 3dc0 46f7 3cc0
00000190: 07a2 40c0 5854 43c0 770c 39c0 8d80 49c0
000001a0: 972e 3fc0 c248 41c0 6f4a 37c0 5eb6 3bc0
000001b0: 91c6 3ec0 12b2 45c0 5626 42c0 d980 41c0
000001c0: 4707 41c0 4f91 3dc0 261a 3fc0 9bae 36c0
000001d0: 71b4 47c0 4a37 45c0 486a 3ec0 42e3 3bc0
000001e0: f217 4bc0 7eaf 44c0 ca02 3cc0 48c2 3ec0
000001f0: 8488 40c0 297f 3dc0 2ad5 44c0 07b9 3bc0
00000200: db0b 3ac0 327d 3cc0 9366 40c0 8428 43c0
00000210: e882 42c0 c0e3 38c0 0621 43c0 349b 40c0
00000220: f35a 40c0 4c70 43c0 ee4f 3fc0 54c7 41c0
00000230: 2ec7 44c0 86c7 3cc0 9f64 40c0 37af 3cc0
00000240: 1b4e 40c0 50b5 3fc0 b384 3fc0 36fa 40c0
00000250: 9160 45c0 25bc 3bc0 997e 42c0 d598 37c0
00000260: 7ab3 46c0 2dec 4ec0 0a7e 3ac0 91ad 40c0
00000270: 3133 3dc0 fbb2 37c0 bddb 40c0 b42f 34c0
00000280: 5814 3fc0 ac08 46c0 0504 3cc0 9976 46c0
00000290: 86a1 42c0 f10a 41c0 b3c7 43c0 7bea 41c0
000002a0: a572 3bc0 bb6d 3ec0 5225 39c0 61c9 40c0
000002b0: 4400 44c0 b122 3ec0 da76 46c0 6c59 3ec0
000002c0: d76a 43c0 8f6b 44c0 f516 40c0 d266 46c0
000002d0: dc1d 3fc0 edff 3ec0 ace1 40c0 7310 41c0
000002e0: d77d 43c0 f165 42c0 deca 42c0 02ca 44c0
000002f0: fd73 41c0 dfe6 37c0 7018 3cc0 a581 3cc0
00000300: 7ee2 41c0 977a 40c0 2b93 47c0 549f 45c0
00000310: 7c94 41c0 51bd 47c0 ecf0 3dc0 4a9f 43c0
00000320: b05b 46c0 bafe 3ec0 68d6 37c0 045a 37c0
00000330: 8c55 3ec0 b091 48c0 cce5 3cc0 31c1 2fc0
00000340: 3d51 40c0 4ac6 40c0 a63a 43c0 ae8f 41c0
00000350: be61 38c0 ebb1 3bc0 2fb6 35c0 93ac 38c0
00000360: 8909 32c0 0287 4ac0 42f3 48c0 39d5 39c0
00000370: 4dce 40c0 fbf1 4cc0 bba0 3bc0 99ef 3dc0
00000380: 917e 3ec0 4155 3dc0 2cec 3bc0 c915 44c0
00000390: 5afb 44c0 ff83 3cc0 3a7b 46c0 b5f0 3cc0
000003a0: ef71 44c0 7bbb 40c0 091e 47c0 55cc 3ec0
000003b0: 0598 44c0 e680 40c0 d6d2 3fc0 19cf 41c0
000003c0: e5d2 41c0 cd02 4dc0 721b 3ac0 2af4 39c0
000003d0: adb3 33c0 02b2 34c0 a512 34c0 93ab 43c0
000003e0: 9f93 3ac0 60be 42c0 35fb 38c0 0883 40c0
000003f0: 27e9 40c0 c082 41c0 4c9a 41c0 f47c 36c0

l1.bias_mu f4 [180]
-0.070305325 0.11415941 0.014343598 0.18844615 -0.06930318 0.04976481 -0.018743856 0.04622974
0.17511855 0.07586687 -0.072876394 -0.17787828 0.1012779 0.26381135 -0.08197495 -0.033477772
-0.1509734 -0.013408573 -0.025272094 -0.005677951 0.048417773 -0.14517389 -0.15411893 -0.17985636
0.09596929 0.04044622 -0.106165595 0.07063439 0.035035763 -0.027030027 -0.090131626 -0.03716254
0.05903896 -0.09206818 0.006554229 -0.0080635585 -0.0060797636 -0.01685451 -0.12023844 0.15285936
0.112412706 -0.026246779 -0.014118915 0.009259685 -0.008745651 0.040084008 -0.023846637 -0.054488383
0.1146796 -0.055804208 -0.16241188 -0.013094536 0.021575304 -0.0948375 -0.04849251 -0.22468495
-0.019809958 0.12865289 0.041952424 0.035906047 0.06025294 0.015162152 0.35258928 -0.05466674
-0.08315995 -0.056817092 0.10542881 -0.15376054 0.013256629 0.08716336 0.18851171 0.0949544
0.087711655 -0.15922497 -0.2622048 -0.2233731 0.014603695 -0.12465353 0.03396366 0.2712801
0.15280406 -0.15922223 -0.029480588 0.06280463 0.1863956 0.10692855 -0.11899849 -0.01124468
0.03562918 0.041065 -0.043284625 0.073828295 -0.12973735 -0.15708163 -0.0016563054 0.06409801
-0.05990528 -0.026703246 0.27190408 0.11764535 -0.05653831 0.0074411742 0.07700104 -0.08031399
-0.07375153 0.06342182 0.031979967 0.14489773 -0.07252532 0.24244195 0.19315329 -0.06765975
-0.10156999 -0.044054907 -0.002558009 0.06465181 -0.1863201 0.00487725 0.042645905 -0.038938116
-0.01924527 0.06652899 0.023334052 0.040988203 0.08814288 -0.057544366 0.042789295 -0.015575709
-0.0046495083 0.23298527 0.14859289 -0.014847917 -0.17635308 -0.09553894 0.0412198 -0.09807735
0.123012535 0.000331871 0.01991982 0.034419917 0.1945705 0.1994879 -0.08602114 -0.10383026
0.17408685 -0.08050389 -0.18417278 -0.08480051 -0.05804341 -0.09237546 0.006879872 0.048740476
0.18522474 0.01931243 0.09535994 -0.096845746 0.06143747 -0.038402237 0.022129351 0.1011379
0.015996829 0.22452955 0.11492371 -0.0029610961 0.08368 0.03144346 0.009006431 -0.01208305
-0.1429842 -0.15102531 0.026291417 0.07470125 0.21664391 -0.10754072 -0.042760815 -0.017647283
0.004298384 -0.07301378 -0.0637674 0.12201214
00000000: 3dfc 8fbd 69cc e93d 6901 6b3c 07f8 403e
00000010: d3ee 8dbd 2fd6 4b3d b78c 99bc 655b 3d3d
00000020: 4752 333e 1760 9b3d 3840 95bd b925 36be
00000030: ca6a cf3d 4812 873e 7ce2 a7bd fd1f 09bd
00000040: c598 1abe a2af 5bbc 6c07 cfbc 1b0e babb
00000050: b751 463d 77a8 14be 5ad1 1dbe 442c 38be
00000060: 8c8b c43d f0aa 253d 596d d9bd c3a8 903d
00000070: a981 0f3d 136e ddbc ee96 b8bd bf37 18bd
00000080: d6d2 713d 3e8e bcbd dcc4 d63b 041d 04bc
00000090: c138 c7bb 7812 8abc 923f f6bd 2a87 1c3e
000000a0: a238 e63d 7c03 d7bc 0653 67bc efb5 173c
000000b0: eb49 0fbc 212f 243d 065a c3bc 362f 5fbd
000000c0: 23dd ea3d f492 64bd 4d4f 26be 778a 56bc
000000d0: b1be b03c 2a3a c2bd 15a0 46bd d013 66be
000000e0: 7e48 a2bc 95bd 033e 4ed6 2b3d 3812 133d
000000f0: c9cb 763d ad6a 783c 9586 b43e 3bea 5fbd
00000100: c44f aabd 0ab9 68bd 0feb d73d 6773 1dbe
00000110: 5532 593c b482 b23d 3709 413e 7477 c23d
00000120: 2ba2 b33d df0b 23be b53f 86be ebbb 64be
00000130: 5644 6f3c 5a4a ffbd 7b1d 0b3d 3ae5 8a3e
00000140: ab78 1c3e 270b 23be 4681 f1bc b79f 803d
00000150: 7dde 3e3e 5bfd da3d 7bb5 f3bd 9b3b 38bc
00000160: e7ef 113d c633 283d 384b 31bd 4a33 973d
00000170: ded9 04be 02da 20be 6318 d9ba d145 833d
00000180: 3d5f 75bd c4c0 dabc 0337 8b3e 0cf0 f03d
00000190: b794 67bd 18d5 f33b b9b2 9d3d a97b a4bd
000001a0: 0b0b 97bd 4de3 813d 6dfd 023d 1260 143e
000001b0: 2888 94bd b442 783e fac9 453e 3291 8abd
000001c0: ed03 d0bd eb72 34bd 45a4 27bb 2b68 843d
000001d0: b2ca 3ebe 57d1 9f3b 79ad 2e3d 937d 1fbd
000001e0: 42a8 9dbc 5a40 883d 0e27 bf3c 3fe3 273d
000001f0: 4184 b43d a4b3 6bbd d443 2f3d 4231 7fbc
00000200: e75a 98bb b193 6e3e bc28 183e ad44 73bc
00000210: e795 34be eba9 c3bd 18d6 283d c7dc c8bd
00000220: ffed fb3d f9fe ad39 e42e a33c e6fb 0c3d
00000230: 7d3d 473e 8e46 4c3e da2b b0bd f6a4 d4bd
00000240: d343 323e 39df a4bd ca97 3cbe e4ab adbd
00000250: edbe 6dbd 582f bdbd 8d70 e13b 18a4 473d
00000260: 8eab 3d3e 1a35 9e3c 124c c33d 1057 c6bd
00000270: dba5 7b3d aa4b 1dbd 9d48 b53c 6321 cf3d
00000280: c80b 833c 13eb 653e 1f5d eb3d f30e 42bb
00000290: 6b60 ab3d dcca 003d b68f 133c fcf7 45bc
000002a0: 736a 12be 61a6 1abe 1961 d73c f8fc 983d
000002b0: e7d7 5d3e 4f3e dcbd f725 2fbd 0991 90bc
000002c0: 75d9 8c3b 4088 95bd 7c98 82bd 80e1 f93d

l1.bias_rho f4 [180]
-2.9348748 -3.2339408 -3.166557 -3.0417483 -2.84928 -2.9556942 -3.027728 -2.8794353
-2.9628654 -3.0149114 -2.9358137 -2.9806283 -3.0409012 -2.9231775 -3.102073 -3.166579
-2.8083258 -2.9225721 -3.006181 -3.0966575 -2.9340637 -2.8624132 -2.9134908 -2.890492
-3.1311862 -2.9176152 -3.001035 -3.0287852 -2.8768423 -2.8792195 -3.032773 -3.099272
-3.1348689 -2.907181 -3.1303215 -3.0454106 -2.9668765 -3.2157059 -3.042224 -2.998415
-3.1342404 -2.9603314 -3.06222 -2.8873436 -3.0342422 -3.0278525 -3.0763125 -2.9410517
-2.8930051 -2.951585 -3.0314443 -2.8975923 -2.8589418 -3.2338836 -3.0623837 -2.9479067
-2.9537604 -2.9904518 -2.9708364 -3.117999 -2.9926693 -2.967777 -2.9488654 -3.059683
-3.141614 -3.0815775 -3.0003445 -2.9951794 -3.1712067 -3.0272055 -2.9673595 -3.067257
-2.9600062 -2.7992673 -3.052982 -3.0917785 -3.1978223 -3.0783777 -3.1122081 -2.923571
-2.9154139 -3.0846803 -2.8809803 -3.0038905 -2.9138134 -2.920472 -3.15746 -2.9873428
-2.9729621 -2.9900305 -3.2007525 -3.1159396 -3.207508 -2.899505 -2.9897738 -2.922398
-3.261419 -2.9953573 -2.8900788 -2.845464 -2.970698 -2.9016857 -2.9680994 -2.9646108
-2.919435 -3.0601099 -2.8639314 -3.05419 -3.0525331 -2.9464874 -3.1054957 -2.9134994
-2.894753 -3.0530274 -3.0980012 -2.8505774 -3.1077971 -2.8722355 -3.0195653 -3.0046961
-3.065041 -2.962676 -3.1753526 -2.961614 -3.0436287 -2.9994628 -2.832482 -2.883766
-2.977009 -3.0855255 -2.8844147 -2.995679 -3.020982 -2.8224568 -3.0079157 -3.0786443
-3.0958862 -2.935865 -2.8769166 -3.0066586 -2.9379842 -2.9634733 -2.910469 -3.065299
-2.9320347 -2.8973556 -3.1240532 -3.0473857 -3.0420964 -2.9461625 -3.0073342 -2.9730682
-2.89874 -2.9805808 -3.0561953 -3.1216083 -3.0032754 -3.1076157 -2.7660618 -2.843173
-2.968133 -2.973943 -2.9337432 -2.9212418 -3.054467 -3.1239643 -2.853325 -3.060842
-3.022248 -3.196839 -2.9754055 -3.2183545 -2.8818395 -3.1370027 -3.0905724 -2.9048147
-3.01075 -2.812989 -2.91624 -3.0770726
00000000: fdd4 3bc0 e3f8 4ec0 dfa8 4ac0 01ac 42c0
00000010: 9b5a 36c0 182a 3dc0 4cc6 41c0 ab48 38c0
00000020: 969f 3dc0 4ff4 40c0 5fe4 3bc0 9dc2 3ec0
00000030: 209e 42c0 5715 3bc0 5d88 46c0 3ba9 4ac0
00000040: 9cbb 33c0 6c0b 3bc0 4565 40c0 a32f 46c0
00000050: b3c7 3bc0 c731 37c0 a276 3ac0 d2fd 38c0
00000060: 5b65 48c0 35ba 3ac0 f510 40c0 9ed7 41c0
00000070: 2f1e 38c0 2245 38c0 f418 42c0 795a 46c0
00000080: b1a1 48c0 410f 3ac0 3057 48c0 02e8 42c0
00000090: 4ee1 3dc0 20ce 4dc0 ccb3 42c0 08e6 3fc0
000000a0: 6597 48c0 1276 3dc0 6afb 43c0 3dca 38c0
000000b0: 0631 42c0 56c8 41c0 4ee2 44c0 313a 3cc0
000000c0: ff26 39c0 c5e6 3cc0 2f03 42c0 2772 39c0
000000d0: e7f8 36c0 f3f7 4ec0 18fe 43c0 81aa 3cc0
000000e0: 690a 3dc0 9063 3fc0 2f22 3ec0 4c8d 47c0
000000f0: e587 3fc0 0ff0 3dc0 36ba 3cc0 d9d1 43c0
00000100: 3410 49c0 9138 45c0 a505 40c0 05b1 3fc0
00000110: 0df5 4ac0 bcbd 41c0 38e9 3dc0 f04d 44c0
00000120: be70 3dc0 3227 33c0 0f64 43c0 b3df 45c0
00000130: 1fa9 4cc0 2404 45c0 6b2e 47c0 ca1b 3bc0
00000140: 2496 3ac0 676b 45c0 fb61 38c0 be3f 40c0
00000150: eb7b 3ac0 03e9 3ac0 d313 4ac0 a030 3fc0
00000160: 0345 3ec0 a95c 3fc0 21d9 4cc0 8e6b 47c0
00000170: d047 4dc0 7d91 39c0 7458 3fc0 9208 3bc0
00000180: 17bb 50c0 efb3 3fc0 0df7 38c0 151c 36c0
00000190: eb1f 3ec0 38b5 39c0 57f5 3dc0 2fbc 3dc0
000001a0: 06d8 3ac0 d7d8 43c0 a74a 37c0 d977 43c0
000001b0: b45c 43c0 4093 3cc0 71c0 46c0 c676 3ac0
000001c0: a243 39c0 cd64 43c0 a745 46c0 dc6f 36c0
000001d0: 26e6 46c0 b5d2 37c0 8f40 41c0 f14c 40c0
000001e0: a229 44c0 7c9c 3dc0 fa38 4bc0 158b 3dc0
000001f0: d0ca 42c0 33f7 3fc0 6347 35c0 9f8f 38c0
00000200: 5187 3ec0 4079 45c0 409a 38c0 34b9 3fc0
00000210: c557 41c0 22a3 34c0 b181 40c0 8208 45c0
00000220: 0023 46c0 36e5 3bc0 671f 38c0 186d 40c0
00000230: ef07 3cc0 8ca9 3dc0 2045 3ac0 dc2d 44c0
00000240: 75a6 3bc0 466e 39c0 7df0 47c0 5e08 43c0
00000250: b5b1 42c0 ed8d 3cc0 2a78 40c0 c046 3ec0
00000260: f584 39c0 d6c1 3ec0 b498 43c0 6ec8 47c0
00000270: aa35 40c0 2de3 46c0 2807 31c0 8cf6 35c0
00000280: e4f5 3dc0 1555 3ec0 73c2 3bc0 a0f5 3ac0
00000290: 637c 43c0 08ef 47c0 e09c 36c0 d6e4 43c0
000002a0: 836c 41c0 0399 4cc0 0b6d 3ec0 85f9 4dc0
000002b0: 0f70 38c0 a7c4 48c0 f0cb 45c0 7ce8 39c0
000002c0: 21b0 40c0 0308 34c0 ada3 3ac0 c2ee 44c0

l1.weight.mu f4 [180, 29]
0.05464484 0.04162719 -0.18783382 -0.04926845 -0.046660125 -0.0034148502 0.029871766 -0.04965255
-0.08837269 0.12070031 0.07340645 -0.024569485 -0.102977864 -0.11571534 0.005624868 0.1616793
0.013398881 -0.12942524 0.16219214 0.22279184 0.12581865 0.063232616 -0.0884873 -0.04284603
0.17422901 -0.10255925 0.015503487 0.12713563 -0.21528786 0.16835208 -0.2260515 -0.028946811
0.257024 0.12953565 0.18751125 0.11268378 0.06127952 0.005827209 0.0495731 -0.059318736
-0.13399671 -0.064139634 -0.08228422 -0.01802685 -0.10878561 -0.03013486 -0.23324102 -0.04233622
0.08770374 -0.10164801 -0.083502494 -0.005300105 0.34490615 0.043811034 -0.024372624 0.06299256
-0.025782716 0.10481369 -0.004435762 -0.018505026 -0.05311233 0.15417577 -0.15943848 -0.062408123
0.0140060065 -0.0011602424 -0.10170178 -0.0313252 -0.052513145 -0.029690567 0.024081988 0.087502696
0.27561077 -0.16251491 -0.04600597 -0.023090836 -0.04540946 -0.09988382 -0.0037598636 0.087079346
-0.082600586 -0.044917304 0.053077564 -0.1429229 -0.0038884133 -0.1623246 0.13469945 0.05254289
0.07360531 -0.229114 -0.055305917 -0.09461579 -0.09168523 -0.109610446 0.021526594 -0.18794484
-0.086971015 0.02760057 0.088423066 0.046628747 -0.05012541 0.048725903 -0.005946632 -0.24394846
-0.20073213 0.21200398 0.0070681064 -0.029712938 -0.0012900308 -0.07968424 -0.029546535 -0.04377566
-0.019699594 0.047163583 -0.027161682 -0.074236035 -0.058632806 -0.06512375 0.005389764 -0.03540753
-0.054477133 0.0031072868 0.02290617 0.13919024 0.068605505 -0.11578863 -0.06809175 -0.0196169
-0.12694465 0.059722338 0.10065962 -0.033218108 0.07167377 0.0798225 -0.1381517 0.062205024
-0.24850677 -0.03491668 -0.044047978 -0.14871943 -0.0055932538 0.019485638 -0.061872628 0.09009179
0.012494093 -0.061403163 0.04292671 0.08108774 -0.029509237 0.11400642 -0.021192502 0.08860947
-0.11161921 0.03800092 0.007045807 0.097345315 0.18685962 0.082869984 -0.1659196 0.09949186
-0.042893894 0.035672117 -0.028766083 0.080651015 0.056691676 -0.06952244 -0.1416067 0.14653511
-0.043243326 -0.055436015 0.023723228 0.08898595 -0.035058387 -0.023636067 0.037651524 -0.014072917
0.1645847 -0.13453044 0.065458804 -0.017339543 -0.017543891 -0.082308576 -0.11277421 0.08099005
-0.20407328 0.00029585315 0.040304385 0.099671945 0.03020842 -0.020310452 0.011709861 0.10670747
0.11143482 -0.14562552 0.1339096 -0.018080896 0.14400898 -0.032194693 0.07983524 -0.15942506
-0.004041767 -0.06704021 -0.20578535 0.08764898 -0.05916257 -0.070841014 0.14974537 0.056516342
0.17063919 0.26903945 0.06873692 -0.082518496 -0.072608076 0.009347126 -0.18710163 0.003150099
0.13997594 0.018737644 0.13983466 0.0352643 -0.0038253663 -0.05032924 -0.0050247717 0.14431886
-0.16019563 -0.013383322 -0.0046135867 -0.04593873 0.06463957 0.25399005 0.050193783 -0.075702466
0.20840324 -0.18028449 0.1231386 0.07590207 0.16654967 0.2504471 -0.061476592 0.09436285
0.12479626 0.060153976 0.105175704 0.17504697 0.04214899 -0.18640912 0.07749608 -0.13859981
0.16566099 0.024533195 0.2533653 0.09082483 0.19371587 0.026499392 -0.07623098 0.28697053
00000000: 45d3 5f3d 4681 2a3d 8257 40be b7cd 49bd
00000010: b01e 3fbd aecb 5fbb a2b5 f43c 7960 4bbd
00000020: befc b4bd b931 f73d 1f56 963d f245 c9bc
00000030: 0fe6 d2bd 2afc ecbd d050 b83b 428f 253e
00000040: fb86 5b3c 0d88 04be b215 263e 8b23 643e
00000050: 9bd6 003e 1a80 813d d438 b5bd 527f 2fbd
00000060: 1769 323e 960a d2bd 5602 7e3c d82f 023e
00000070: 6c74 5cbe 7d64 2c3e 0b7a 67be dd21 edbc
00000080: a698 833e fea4 043e f302 403e c1c6 e63d
00000090: 3c00 7b3d 2cf2 be3b 2a0d 4b3d 34f8 72bd
000000a0: 6f36 09be a45b 83bd a184 a8bd 0bad 93bc
000000b0: fdca debd 62dd f6bc bcd6 6ebe bf68 2dbd
000000c0: 059e b33d d52c d0bd 5b03 abbd 81ac adbb
000000d0: 8a97 b03e 3373 333d 19a9 c7bc 3e02 813d
000000e0: 4636 d3bc 8fa8 d63d de59 91bb da97 97bc
000000f0: 518c 59bd 41e0 1d3e d743 23be a99f 7fbd
00000100: 7379 653c 4613 98ba 0649 d0bd da4e 00bd
00000110: 0618 57bd a239 f3bc 9747 c53c 9d34 b33d
00000120: db1c 8d3e 4f6a 26be c270 3cbd fe28 bdbc
00000130: 45ff 39bd e38f ccbd 0b68 76bb a856 b23d
00000140: 7f2a a9bd 35fb 37bd dc67 593d 615a 12be
00000150: c0d4 7ebb 6c38 26be a7ee 093e 3737 573d
00000160: 61be 963d dc9c 6abe 7588 62bd ecc5 c1bd
00000170: 77c5 bbbd 717b e0bd 8a58 b03c 9d74 40be
00000180: dc1d b2bd 971a e23c 2717 b53d c9fd 3e3d
00000190: 4d50 4dbd d094 473d f7db c2bb a0cd 79be
000001a0: b98c 4dbe 9217 593e 939b e73b 8c68 f3bc
000001b0: 4016 a9ba 7e31 a3bd 930b f2bc 1b4e 33bd
000001c0: 0b61 a1bc 9a2e 413d 2d82 debc 1009 98bd
000001d0: f428 70bd 9a5f 85bd 9e9c b03b 7c07 11bd
000001e0: 6a23 5fbd 9fa3 4b3b b8a5 bb3c e387 0e3e
000001f0: 0b81 8c3d 9722 edbd b073 8bbd 9fb3 a0bc
00000200: c7fd 01be 699f 743d a126 ce3d b60f 08bd
00000210: b3c9 923d fb79 a33d a477 0dbe b2ca 7e3d
00000220: 8f78 7ebe cb04 0fbd a76b 34bd e849 18be
00000230: 9d47 b7bb 58a0 9f3c 276e 7dbd 0b82 b83d
00000240: 06b4 4c3c e281 7bbd ebd3 2f3d 5411 a63d
00000250: 5bbd f1bc 337c e93d e69b adbc e278 b53d
00000260: 9d98 e4bd daa6 1b3d 83e0 e63b fb5c c73d
00000270: 2158 3f3e bdb7 a93d d4e6 29be 63c2 cb3d
00000280: 82b1 2fbd ed1c 123d d9a6 ebbc 5c2c a53d
00000290: 8835 683d c861 8ebd 5901 11be 4d0d 163e
000002a0: ea1f 31bd e010 63bd 3757 c23c 443e b63d
000002b0: 6299 0fbd 6da0 c1bc 7c38 1a3d 1892 66bc
000002c0: e488 283e 59c2 09be 440f 863d a80b 8ebc
000002d0: 35b8 8fbc 6691 a8bd 2af6 e6bd 1dde a53d
000002e0: 96f8 50be bd1c 9b39 3616 253d ce20 cc3d
000002f0: a677 f73c 1b62 a6bc b8da 3f3c 7289 da3d
00000300: f037 e43d db1e 15be 991f 093e 631e 94bc
00000310: 1777 133e 95de 03bd a980 a33d 5340 23be
00000320: cd70 84bb 614c 89bd 65b9 52be 4f81 b33d
00000330: 7354 72bd 1815 91bd da56 193e ae7d 673d
00000340: 0abc 2e3e 8abf 893e f1c5 8c3d 75ff a8bd
00000350: 8bb3 94bd b024 193c 9297 3fbe e471 4e3b
00000360: da55 0f3e b07f 993c d130 0f3e 4c71 103d
00000370: ffb2 7abb 0826 4ebd d7a6 a4bb 53c8 133e
00000380: 530a 24be b945 5bbc 922d 97bb 402a 3cbd
00000390: c061 843d fc0a 823e ff97 4d3d e509 9bbd
000003a0: a967 553e 7f9c 38be 1730 fc3d 8b72 9b3d
000003b0: ff8b 2a3e 9a3a 803e e1ce 7bbd 4f41 c13d
000003c0: 2e95 ff3d 0464 763d 5c66 d73d 833f 333e
000003d0: 6ba4 2c3d 08e2 3ebe 44b6 9e3d 1ced 0dbe
000003e0: 09a3 293e d7f9 c83c 19b9 813e 5e02 ba3d
000003f0: 745d 463e 4115 d93c fd1e 9cbd cded 923e

l1.weight.rho f4 [180, 29]
-2.795439 -2.8939178 -2.972362 -3.1207192 -3.1165168 -3.0027318 -3.0866303 -3.2189415
-3.077457 -2.8043776 -3.0729928 -3.0004647 -3.1908112 -3.0747662 -2.9215796 -3.1184256
-2.8807328 -2.8725972 -2.8479693 -2.923222 -2.7994711 -3.0175548 -3.0161636 -3.0512438
-2.9123468 -2.837629 -2.9875133 -2.9399846 -2.9310966 -3.001367 -2.908179 -2.9711208
-2.826435 -3.250425 -2.8872795 -2.8031106 -2.8450823 -3.007618 -3.1497269 -3.0194182
-3.0155854 -3.0520604 -3.0534165 -2.8914351 -2.924372 -2.9463084 -3.0198267 -3.047221
-2.8147917 -2.7921116 -2.9146004 -2.9961157 -2.9686685 -2.8694227 -2.9675193 -2.9932973
-2.9064748 -3.1543083 -2.8429205 -3.0350814 -2.933622 -2.9708893 -2.8088195 -3.1186717
-3.1026347 -3.0819182 -2.991445 -2.923681 -2.9541857 -3.073081 -2.9492633 -2.9040575
-2.9938204 -3.0672274 -2.9845145 -2.9265294 -3.0418024 -3.156141 -2.929475 -2.9393647
-2.9552367 -2.994682 -2.9583845 -2.9947329 -3.0339317 -3.0050933 -3.0222301 -3.0092416
-3.1237385 -2.9825613 -3.1117444 -2.868392 -2.9933693 -2.8965952 -3.1118054 -2.9249723
-2.9755824 -2.887089 -2.9680746 -2.9525924 -3.0098894 -3.052023 -2.8913858 -3.148471
-2.9872186 -3.0200658 -2.863918 -2.9330058 -2.9808695 -3.0889935 -3.0335898 -3.0234892
-3.0160692 -2.961994 -2.985971 -2.854407 -3.1203883 -3.0814996 -2.975237 -2.9357457
-3.1733365 -3.0732112 -2.9376702 -2.980608 -3.0083323 -2.9608862 -3.0755105 -2.9331682
-2.9069736 -2.9451413 -3.0062606 -3.0493479 -3.03924 -2.8889008 -3.0488906 -3.0094728
-3.005551 -3.053729 -2.9892535 -3.027791 -3.074657 -2.949678 -3.0061414 -2.9481943
-3.0047672 -2.9954414 -2.9924743 -3.0152717 -3.084019 -2.9333584 -3.038977 -2.8687031
-3.1047044 -3.233165 -2.9139428 -3.0105937 -2.9562495 -2.870299 -3.0134118 -2.8154116
-2.9856167 -3.0942793 -2.9377453 -3.1009886 -3.0411086 -3.0162928 -3.0590637 -3.0299366
-2.9288723 -2.9754474 -2.8929029 -3.0122912 -3.0625162 -2.9708674 -3.1010041 -2.9742079
-3.053396 -3.0690649 -3.0014012 -3.1000257 -2.9861975 -2.9843705 -3.013774 -3.016629
-3.0545557 -3.037472 -3.043632 -3.0748296 -3.0227044 -2.8734663 -2.9389915 -2.9454129
-3.029449 -3.0074823 -3.1183574 -3.0878496 -3.0246878 -3.12093 -2.9678297 -3.0565972
-3.0993462 -2.9842973 -2.8724613 -2.864869 -2.9739714 -3.133892 -2.9515257 -2.7461665
-3.0049584 -3.0121026 -3.0504546 -3.0243945 -2.8809657 -2.9327343 -2.8392446 -2.885533
-2.781832 -3.1644902 -3.1398473 -2.903639 -3.0125916 -3.2022693 -2.9316852 -2.9677489
-2.976475 -2.9583285 -2.9362898 -3.0638297 -3.0778413 -2.9455564 -3.1012712 -2.9521916
-3.069454 -3.011443 -3.1112082 -2.9812214 -3.0717785 -3.0078673 -2.9972434 -3.0282652
-3.028497 -3.203296 -2.9079251 -2.9055276 -2.8078415 -2.8233647 -2.813638 -3.057347
-2.91526 -3.0428696 -2.8903325 -3.0079975 -3.0142305 -3.0236053 -3.0250425 -2.8513765
00000000: 79e8 32c0 f335 39c0 2e3b 3ec0 ddb9 47c0
00000010: 0375 47c0 c22c 40c0 5a8b 45c0 2303 4ec0
00000020: 0ef5 44c0 ec7a 33c0 eaab 44c0 9d07 40c0
00000030: 4036 4cc0 f8c8 44c0 29fb 3ac0 4994 47c0
00000040: ed5d 38c0 a2d8 37c0 2145 36c0 1216 3bc0
00000050: 892a 33c0 9e1f 41c0 d308 41c0 9447 43c0
00000060: e463 3ac0 b79b 35c0 6b33 3fc0 b528 3cc0
00000070: 1697 3bc0 6616 40c0 9b1f 3ac0 d826 3ec0
00000080: 50e4 34c0 f706 50c0 30c9 38c0 2a66 33c0
00000090: d415 36c0 d07c 40c0 2095 49c0 263e 41c0
000000a0: 5aff 40c0 f554 43c0 2d6b 43c0 460d 39c0
000000b0: e928 3bc0 5190 3cc0 d744 41c0 ab05 43c0
000000c0: 8c25 34c0 f5b1 32c0 d088 3ac0 5cc0 3fc0
000000d0: aafe 3dc0 9fa4 37c0 d6eb 3dc0 2f92 3fc0
000000e0: af03 3ac0 30e0 49c0 69f2 35c0 c63e 42c0
000000f0: 76c0 3bc0 0d23 3ec0 b3c3 33c0 5198 47c0
00000100: 9191 46c0 263e 45c0 d673 3fc0 971d 3bc0
00000110: 6111 3dc0 5cad 44c0 bbc0 3cc0 14dc 39c0
00000120: c19a 3fc0 744d 44c0 4902 3fc0 424c 3bc0
00000130: e4ac 42c0 37fe 49c0 857c 3bc0 8d1e 3cc0
00000140: 9922 3dc0 dfa8 3fc0 2c56 3dc0 b4a9 3fc0
00000150: f02b 42c0 7353 40c0 386c 41c0 6a97 40c0
00000160: 55eb 47c0 49e2 3ec0 d226 47c0 bc93 37c0
00000170: 5d93 3fc0 d161 39c0 d227 47c0 bf32 3bc0
00000180: f16f 3ec0 11c6 38c0 eff4 3dc0 46f7 3cc0
00000190: 07a2 40c0 5854 43c0 770c 39c0 8d80 49c0
000001a0: 972e 3fc0 c248 41c0 6f4a 37c0 5eb6 3bc0
000001b0: 91c6 3ec0 12b2 45c0 5626 42c0 d980 41c0
000001c0: 4707 41c0 4f91 3dc0 261a 3fc0 9bae 36c0
000001d0: 71b4 47c0 4a37 45c0 486a 3ec0 42e3 3bc0
000001e0: f217 4bc0 7eaf 44c0 ca02 3cc0 48c2 3ec0
000001f0: 8488 40c0 297f 3dc0 2ad5 44c0 07b9 3bc0
00000200: db0b 3ac0 327d 3cc0 9366 40c0 8428 43c0
00000210: e882 42c0 c0e3 38c0 0621 43c0 349b 40c0
00000220: f35a 40c0 4c70 43c0 ee4f 3fc0 54c7 41c0
00000230: 2ec7 44c0 86c7 3cc0 9f64 40c0 37af 3cc0
00000240: 1b4e 40c0 50b5 3fc0 b384 3fc0 36fa 40c0
00000250: 9160 45c0 25bc 3bc0 997e 42c0 d598 37c0
00000260: 7ab3 46c0 2dec 4ec0 0a7e 3ac0 91ad 40c0
00000270: 3133 3dc0 fbb2 37c0 bddb 40c0 b42f 34c0
00000280: 5814 3fc0 ac08 46c0 0504 3cc0 9976 46c0
00000290: 86a1 42c0 f10a 41c0 b3c7 43c0 7bea 41c0
000002a0: a572 3bc0 bb6d 3ec0 5225 39c0 61c9 40c0
000002b0: 4400 44c0 b122 3ec0 da76 46c0 6c59 3ec0
000002c0: d76a 43c0 8f6b 44c0 f516 40c0 d266 46c0
000002d0: dc1d 3fc0 edff 3ec0 ace1 40c0 7310 41c0
000002e0: d77d 43c0 f165 42c0 deca 42c0 02ca 44c0
000002f0: fd73 41c0 dfe6 37c0 7018 3cc0 a581 3cc0
00000300: 7ee2 41c0 977a 40c0 2b93 47c0 549f 45c0
00000310: 7c94 41c0 51bd 47c0 ecf0 3dc0 4a9f 43c0
00000320: b05b 46c0 bafe 3ec0 68d6 37c0 045a 37c0
00000330: 8c55 3ec0 b091 48c0 cce5 3cc0 31c1 2fc0
00000340: 3d51 40c0 4ac6 40c0 a63a 43c0 ae8f 41c0
00000350: be61 38c0 ebb1 3bc0 2fb6 35c0 93ac 38c0
00000360: 8909 32c0 0287 4ac0 42f3 48c0 39d5 39c0
00000370: 4dce 40c0 fbf1 4cc0 bba0 3bc0 99ef 3dc0
00000380: 917e 3ec0 4155 3dc0 2cec 3bc0 c915 44c0
00000390: 5afb 44c0 ff83 3cc0 3a7b 46c0 b5f0 3cc0
000003a0: ef71 44c0 7bbb 40c0 091e 47c0 55cc 3ec0
000003b0: 0598 44c0 e680 40c0 d6d2 3fc0 19cf 41c0
000003c0: e5d2 41c0 cd02 4dc0 721b 3ac0 2af4 39c0
000003d0: adb3 33c0 02b2 34c0 a512 34c0 93ab 43c0
000003e0: 9f93 3ac0 60be 42c0 35fb 38c0 0883 40c0
000003f0: 27e9 40c0 c082 41c0 4c9a 41c0 f47c 36c0

l1.bias.mu f4 [180]
-0.070305325 0.11415941 0.014343598 0.18844615 -0.06930318 0.04976481 -0.018743856 0.04622974
0.17511855 0.07586687 -0.072876394 -0.17787828 0.1012779 0.26381135 -0.08197495 -0.033477772
-0.1509734 -0.013408573 -0.025272094 -0.005677951 0.048417773 -0.14517389 -0.15411893 -0.17985636
0.09596929 0.04044622 -0.106165595 0.07063439 0.035035763 -0.027030027 -0.090131626 -0.03716254
0.05903896 -0.09206818 0.006554229 -0.0080635585 -0.0060797636 -0.01685451 -0.12023844 0.15285936
0.112412706 -0.026246779 -0.014118915 0.009259685 -0.008745651 0.040084008 -0.023846637 -0.054488383
0.1146796 -0.055804208 -0.16241188 -0.013094536 0.021575304 -0.0948375 -0.04849251 -0.22468495
-0.019809958 0.12865289 0.041952424 0.035906047 0.06025294 0.015162152 0.35258928 -0.05466674
-0.08315995 -0.056817092 0.10542881 -0.15376054 0.013256629 0.08716336 0.18851171 0.0949544
0.087711655 -0.15922497 -0.2622048 -0.2233731 0.014603695 -0.12465353 0.03396366 0.2712801
0.15280406 -0.15922223 -0.029480588 0.06280463 0.1863956 0.10692855 -0.11899849 -0.01124468
0.03562918 0.041065 -0.043284625 0.073828295 -0.12973735 -0.15708163 -0.0016563054 0.06409801
-0.05990528 -0.026703246 0.27190408 0.11764535 -0.05653831 0.0074411742 0.07700104 -0.08031399
-0.07375153 0.06342182 0.031979967 0.14489773 -0.07252532 0.24244195 0.19315329 -0.06765975
-0.10156999 -0.044054907 -0.002558009 0.06465181 -0.1863201 0.00487725 0.042645905 -0.038938116
-0.01924527 0.06652899 0.023334052 0.040988203 0.08814288 -0.057544366 0.042789295 -0.015575709
-0.0046495083 0.23298527 0.14859289 -0.014847917 -0.17635308 -0.09553894 0.0412198 -0.09807735
0.123012535 0.000331871 0.01991982 0.034419917 0.1945705 0.1994879 -0.08602114 -0.10383026
0.17408685 -0.08050389 -0.18417278 -0.08480051 -0.05804341 -0.09237546 0.006879872 0.048740476
0.18522474 0.01931243 0.09535994 -0.096845746 0.06143747 -0.038402237 0.022129351 0.1011379
0.015996829 0.22452955 0.11492371 -0.0029610961 0.08368 0.03144346 0.009006431 -0.01208305
-0.1429842 -0.15102531 0.026291417 0.07470125 0.21664391 -0.10754072 -0.042760815 -0.017647283
0.004298384 -0.07301378 -0.0637674 0.12201214
00000000: 3dfc 8fbd 69cc e93d 6901 6b3c 07f8 403e
00000010: d3ee 8dbd 2fd6 4b3d b78c 99bc 655b 3d3d
00000020: 4752 333e 1760 9b3d 3840 95bd b925 36be
00000030: ca6a cf3d 4812 873e 7ce2 a7bd fd1f 09bd
00000040: c598 1abe a2af 5bbc 6c07 cfbc 1b0e babb
00000050: b751 463d 77a8 14be 5ad1 1dbe 442c 38be
00000060: 8c8b c43d f0aa 253d 596d d9bd c3a8 903d
00000070: a981 0f3d 136e ddbc ee96 b8bd bf37 18bd
00000080: d6d2 713d 3e8e bcbd dcc4 d63b 041d 04bc
00000090: c138 c7bb 7812 8abc 923f f6bd 2a87 1c3e
000000a0: a238 e63d 7c03 d7bc 0653 67bc efb5 173c
000000b0: eb49 0fbc 212f 243d 065a c3bc 362f 5fbd
000000c0: 23dd ea3d f492 64bd 4d4f 26be 778a 56bc
000000d0: b1be b03c 2a3a c2bd 15a0 46bd d013 66be
000000e0: 7e48 a2bc 95bd 033e 4ed6 2b3d 3812 133d
000000f0: c9cb 763d ad6a 783c 9586 b43e 3bea 5fbd
00000100: c44f aabd 0ab9 68bd 0feb d73d 6773 1dbe
00000110: 5532 593c b482 b23d 3709 413e 7477 c23d
00000120: 2ba2 b33d df0b 23be b53f 86be ebbb 64be
00000130: 5644 6f3c 5a4a ffbd 7b1d 0b3d 3ae5 8a3e
00000140: ab78 1c3e 270b 23be 4681 f1bc b79f 803d
00000150: 7dde 3e3e 5bfd da3d 7bb5 f3bd 9b3b 38bc
00000160: e7ef 113d c633 283d 384b 31bd 4a33 973d
00000170: ded9 04be 02da 20be 6318 d9ba d145 833d
00000180: 3d5f 75bd c4c0 dabc 0337 8b3e 0cf0 f03d
00000190: b794 67bd 18d5 f33b b9b2 9d3d a97b a4bd
000001a0: 0b0b 97bd 4de3 813d 6dfd 023d 1260 143e
000001b0: 2888 94bd b442 783e fac9 453e 3291 8abd
000001c0: ed03 d0bd eb72 34bd 45a4 27bb 2b68 843d
000001d0: b2ca 3ebe 57d1 9f3b 79ad 2e3d 937d 1fbd
000001e0: 42a8 9dbc 5a40 883d 0e27 bf3c 3fe3 273d
000001f0: 4184 b43d a4b3 6bbd d443 2f3d 4231 7fbc
00000200: e75a 98bb b193 6e3e bc28 183e ad44 73bc
00000210: e795 34be eba9 c3bd 18d6 283d c7dc c8bd
00000220: ffed fb3d f9fe ad39 e42e a33c e6fb 0c3d
00000230: 7d3d 473e 8e46 4c3e da2b b0bd f6a4 d4bd
00000240: d343 323e 39df a4bd ca97 3cbe e4ab adbd
00000250: edbe 6dbd 582f bdbd 8d70 e13b 18a4 473d
00000260: 8eab 3d3e 1a35 9e3c 124c c33d 1057 c6bd
00000270: dba5 7b3d aa4b 1dbd 9d48 b53c 6321 cf3d
00000280: c80b 833c 13eb 653e 1f5d eb3d f30e 42bb
00000290: 6b60 ab3d dcca 003d b68f 133c fcf7 45bc
000002a0: 736a 12be 61a6 1abe 1961 d73c f8fc 983d
000002b0: e7d7 5d3e 4f3e dcbd f725 2fbd 0991 90bc
000002c0: 75d9 8c3b 4088 95bd 7c98 82bd 80e1 f93d

l1.bias.rho f4 [180]
-2.9348748 -3.2339408 -3.166557 -3.0417483 -2.84928 -2.9556942 -3.027728 -2.8794353
-2.9628654 -3.0149114 -2.9358137 -2.9806283 -3.0409012 -2.9231775 -3.102073 -3.166579
-2.8083258 -2.9225721 -3.006181 -3.0966575 -2.9340637 -2.8624132 -2.9134908 -2.890492
-3.1311862 -2.9176152 -3.001035 -3.0287852 -2.8768423 -2.8792195 -3.032773 -3.099272
-3.1348689 -2.907181 -3.1303215 -3.0454106 -2.9668765 -3.2157059 -3.042224 -2.998415
-3.1342404 -2.9603314 -3.06222 -2.8873436 -3.0342422 -3.0278525 -3.0763125 -2.9410517
-2.8930051 -2.951585 -3.0314443 -2.8975923 -2.8589418 -3.2338836 -3.0623837 -2.9479067
-2.9537604 -2.9904518 -2.9708364 -3.117999 -2.9926693 -2.967777 -2.9488654 -3.059683
-3.141614 -3.0815775 -3.0003445 -2.9951794 -3.1712067 -3.0272055 -2.9673595 -3.067257
-2.9600062 -2.7992673 -3.052982 -3.0917785 -3.1978223 -3.0783777 -3.1122081 -2.923571
-2.9154139 -3.0846803 -2.8809803 -3.0038905 -2.9138134 -2.920472 -3.15746 -2.9873428
-2.9729621 -2.9900305 -3.2007525 -3.1159396 -3.207508 -2.899505 -2.9897738 -2.922398
-3.261419 -2.9953573 -2.8900788 -2.845464 -2.970698 -2.9016857 -2.9680994 -2.9646108
-2.919435 -3.0601099 -2.8639314 -3.05419 -3.0525331 -2.9464874 -3.1054957 -2.9134994
-2.894753 -3.0530274 -3.0980012 -2.8505774 -3.1077971 -2.8722355 -3.0195653 -3.0046961
-3.065041 -2.962676 -3.1753526 -2.961614 -3.0436287 -2.9994628 -2.832482 -2.883766
-2.977009 -3.0855255 -2.8844147 -2.995679 -3.020982 -2.8224568 -3.0079157 -3.0786443
-3.0958862 -2.935865 -2.8769166 -3.0066586 -2.9379842 -2.9634733 -2.910469 -3.065299
-2.9320347 -2.8973556 -3.1240532 -3.0473857 -3.0420964 -2.9461625 -3.0073342 -2.9730682
-2.89874 -2.9805808 -3.0561953 -3.1216083 -3.0032754 -3.1076157 -2.7660618 -2.843173
-2.968133 -2.973943 -2.9337432 -2.9212418 -3.054467 -3.1239643 -2.853325 -3.060842
-3.022248 -3.196839 -2.9754055 -3.2183545 -2.8818395 -3.1370027 -3.0905724 -2.9048147
-3.01075 -2.812989 -2.91624 -3.0770726
00000000: fdd4 3bc0 e3f8 4ec0 dfa8 4ac0 01ac 42c0
00000010: 9b5a 36c0 182a 3dc0 4cc6 41c0 ab48 38c0
00000020: 969f 3dc0 4ff4 40c0 5fe4 3bc0 9dc2 3ec0
00000030: 209e 42c0 5715 3bc0 5d88 46c0 3ba9 4ac0
00000040: 9cbb 33c0 6c0b 3bc0 4565 40c0 a32f 46c0
00000050: b3c7 3bc0 c731 37c0 a276 3ac0 d2fd 38c0
00000060: 5b65 48c0 35ba 3ac0 f510 40c0 9ed7 41c0
00000070: 2f1e 38c0 2245 38c0 f418 42c0 795a 46c0
00000080: b1a1 48c0 410f 3ac0 3057 48c0 02e8 42c0
00000090: 4ee1 3dc0 20ce 4dc0 ccb3 42c0 08e6 3fc0
000000a0: 6597 48c0 1276 3dc0 6afb 43c0 3dca 38c0
000000b0: 0631 42c0 56c8 41c0 4ee2 44c0 313a 3cc0
000000c0: ff26 39c0 c5e6 3cc0 2f03 42c0 2772 39c0
000000d0: e7f8 36c0 f3f7 4ec0 18fe 43c0 81aa 3cc0
000000e0: 690a 3dc0 9063 3fc0 2f22 3ec0 4c8d 47c0
000000f0: e587 3fc0 0ff0 3dc0 36ba 3cc0 d9d1 43c0
00000100: 3410 49c0 9138 45c0 a505 40c0 05b1 3fc0
00000110: 0df5 4ac0 bcbd 41c0 38e9 3dc0 f04d 44c0
00000120: be70 3dc0 3227 33c0 0f64 43c0 b3df 45c0
00000130: 1fa9 4cc0 2404 45c0 6b2e 47c0 ca1b 3bc0
00000140: 2496 3ac0 676b 45c0 fb61 38c0 be3f 40c0
00000150: eb7b 3ac0 03e9 3ac0 d313 4ac0 a030 3fc0
00000160: 0345 3ec0 a95c 3fc0 21d9 4cc0 8e6b 47c0
00000170: d047 4dc0 7d91 39c0 7458 3fc0 9208 3bc0
00000180: 17bb 50c0 efb3 3fc0 0df7 38c0 151c 36c0
00000190: eb1f 3ec0 38b5 39c0 57f5 3dc0 2fbc 3dc0
000001a0: 06d8 3ac0 d7d8 43c0 a74a 37c0 d977 43c0
000001b0: b45c 43c0 4093 3cc0 71c0 46c0 c676 3ac0
000001c0: a243 39c0 cd64 43c0 a745 46c0 dc6f 36c0
000001d0: 26e6 46c0 b5d2 37c0 8f40 41c0 f14c 40c0
000001e0: a229 44c0 7c9c 3dc0 fa38 4bc0 158b 3dc0
000001f0: d0ca 42c0 33f7 3fc0 6347 35c0 9f8f 38c0
00000200: 5187 3ec0 4079 45c0 409a 38c0 34b9 3fc0
00000210: c557 41c0 22a3 34c0 b181 40c0 8208 45c0
00000220: 0023 46c0 36e5 3bc0 671f 38c0 186d 40c0
00000230: ef07 3cc0 8ca9 3dc0 2045 3ac0 dc2d 44c0
00000240: 75a6 3bc0 466e 39c0 7df0 47c0 5e08 43c0
00000250: b5b1 42c0 ed8d 3cc0 2a78 40c0 c046 3ec0
00000260: f584 39c0 d6c1 3ec0 b498 43c0 6ec8 47c0
00000270: aa35 40c0 2de3 46c0 2807 31c0 8cf6 35c0
00000280: e4f5 3dc0 1555 3ec0 73c2 3bc0 a0f5 3ac0
00000290: 637c 43c0 08ef 47c0 e09c 36c0 d6e4 43c0
000002a0: 836c 41c0 0399 4cc0 0b6d 3ec0 85f9 4dc0
000002b0: 0f70 38c0 a7c4 48c0 f0cb 45c0 7ce8 39c0
000002c0: 21b0 40c0 0308 34c0 ada3 3ac0 c2ee 44c0

classifier.0.weight_mu f4 [2, 180]
0.047944676 -0.09506666 0.15325986 -0.06685147 -0.24637143 -0.22143142 -0.040882014 -0.057260495
-0.068412036 0.14611569 0.13336866 -0.15584646 -0.043149475 -0.018094145 0.08157788 0.14495198
0.097371474 0.1880251 -0.13263643 -0.12094134 0.07775725 -0.038116474 -0.115971945 0.061694514
0.13053325 -0.0424376 -0.051195372 -0.024090236 0.032968 0.067765206 0.17903505 -0.09742122
-0.032889437 0.08733991 -0.019501409 0.028958842 -0.16519363 -0.03986006 0.21301122 -0.073345244
0.0054002134 0.11169205 0.03381322 -0.09547537 -0.19870925 -0.051442694 -0.054494854 -0.040003758
-0.07508698 -0.04854914 -0.0034474519 0.004387366 -0.19299816 0.09944511 0.06808639 0.015916912
0.05027407 0.080027945 -0.16111825 -0.08280524 0.06266888 0.105500214 -0.1823646 -0.017078314
-0.18200609 -0.01711105 -0.0032192264 -0.002846903 -0.01630752 0.07454922 0.015330778 0.123262
0.03727233 0.0683082 -0.36419275 -0.03817238 -0.07601186 0.049351882 -0.16855346 0.062862165
-0.08646825 0.107993126 -0.040011898 0.017636219 -0.113413684 -0.12563576 -0.020547686 0.1732168
-0.056483496 0.06423318 -0.05138848 0.2714724 0.1584192 0.17008232 0.04580389 -0.05420805
-0.05112117 0.16380039 -0.10884725 -0.041899264 -0.10529011 0.1296202 -0.01922418 -0.059167087
-0.037648845 0.09531652 -0.020428168 -0.013102546 -0.08667315 0.10641678 0.15614755 -0.22401312
-0.00772374 0.10519918 -0.10956996 -0.070558414 -0.019466883 0.05226174 -0.058105033 -0.096502736
-0.073679544 0.080476664 0.02864863 -0.102407694 -0.07194547 0.024473678 -0.029035125 0.13704321
-0.0011695185 -0.1139117 0.05501439 0.13316846 -0.018536698 -0.11625997 -0.011112345 0.035207253
-0.13108478 0.16318189 -0.13289295 -0.04368532 -0.030292585 -0.100513816 0.14166108 0.064264804
0.048507404 -0.045000937 -0.027121155 0.13423945 0.03497145 0.0027627386 0.1827092 0.101757005
0.02689512 0.110333286 -0.1412753 -0.029970912 -0.0043777204 -0.091544665 0.097153075 -0.23000598
0.09208603 -0.14833473 -0.12467668 0.110130765 -0.008879717 -0.12961663 0.11265093 0.12598152
0.1436774 -0.06987512 -0.050111648 -0.00397174 -0.13708612 0.003991725 0.057827707 -0.06949772
-0.08664273 0.106984995 -0.031959143 -0.088498704 0.01299423 0.020486018 0.11229556 -0.19686413
0.075291984 0.19860762 -0.00071658357 0.061097175 0.20372032 -0.11573048 0.1760927 -0.10245925
0.002129121 0.018113801 0.06751438 0.023532065 0.040591594 0.08269672 -0.06936055 -0.13493341
-0.33468416 -0.077514015 0.122163594 -0.0043333923 -0.06593966 0.0076424964 -0.05363484 0.1456784
0.09273194 -0.14534175 -0.05855571 -0.036640495 -0.016605338 -0.05440998 -0.010037555 -0.13184786
0.15804334 0.055825185 -0.16847116 0.037365776 0.004314872 0.10375952 0.16532136 0.008703173
0.02188053 0.07380049 0.073092386 0.13886139 0.07937448 0.060286086 0.077764384 -0.036656342
0.027276698 -0.08606485 0.14158557 -0.07078578 0.068756066 -0.09547644 0.06684966 0.016769076
-0.032962006 0.20791815 0.055443972 0.034632508 -0.12862799 -0.038485963 0.15156126 -0.11369107
-0.14817588 -0.0033392906 0.02504296 -0.11294999 -0.11772388 -0.0994005 0.004139399 0.089028575
00000000: a361 443d 4fb2 c2bd 27f0 1c3e 6ce9 88bd
00000010: cb48 7cbe ebbe 62be e673 27bd fb89 6abd
00000020: 9c1b 8cbd 5a9f 153e cb91 083e 3796 1fbe
00000030: 81bd 30bd 2c3a 94bc 4e12 a73d 4b6e 143e
00000040: b26a c73d a789 403e d8d1 07be 18b0 f7bd
00000050: 313f 9f3d 0520 1cbd b382 edbd 63b3 7c3d
00000060: 82aa 053e 0dd3 2dbd 3db2 51bd e358 c5bc
00000070: 7409 073d 7cc8 8a3d f754 373e c784 c7bd
00000080: 13b7 06bd 44df b23d 6bc1 9fbc 183b ed3c
00000090: 8528 29be 4d44 23bd 9d1f 5a3e 0836 96bd
000000a0: 46f4 b03b cdbe e43d bb7f 0a3d 9788 c3bd
000000b0: 707a 4bbe 93b5 52bd ff35 5fbd fbda 23bd
000000c0: 34c7 99bd 77db 46bd a5ee 61bb e5c3 8f3b
000000d0: 4fa1 45be e1a9 cb3d e170 8b3d 2f64 823c
000000e0: 2fec 4d3d b1e5 a33d 2ffc 24be cb95 a9bd
000000f0: 8b58 803d 7f10 d83d c9bd 3abe d2e7 8bbc
00000100: ce5f 3abe 792c 8cbc a8f9 52bb 1b93 3abb
00000110: 5997 85bc 43ad 983d f22d 7b3c ca70 fc3d
00000120: dfaa 183d 2be5 8b3d 7977 babe a45a 1cbd
00000130: 1bac 9bbd 3325 4a3d 4799 2cbe e1bd 803d
00000140: 4416 b1bd 802b dd3d 84e3 23bd d579 903c
00000150: 6f45 e8bd a9a6 00be 9f53 a8bc bf5f 313e
00000160: 3d5b 67bd af8c 833d ba7c 52bd 6efe 8a3e
00000170: a538 223e 0f2a 2e3e dc9c 3b3d 4309 5ebd
00000180: 6f64 51bd 4abb 273e 4feb debd 909e 2bbd
00000190: 57a2 d7bd 28bb 043e 077c 9dbc 3059 72bd
000001a0: ad35 1abd 4f35 c33d f958 a7bc 10ac 56bc
000001b0: b181 b1bd 0af1 d93d 25e5 1f3e b263 65be
000001c0: 6d17 fdbb ab72 d73d 3766 e0bd ee80 90bd
000001d0: 0379 9fbc 6810 563d 8bff 6dbd 3aa3 c5bd
000001e0: 4de5 96bd f3d0 a43d 88b0 ea3c 20bb d1bd
000001f0: 2658 93bd 067d c83c 12db edbc 0e55 0c3e
00000200: 874a 99ba 8a4a e9bd c556 613d 505d 083e
00000210: 46da 97bc b519 eebd 8e10 36bc 7b35 103d
00000220: 173b 06be 2719 273e 1715 08be 61ef 32bd
00000230: 2828 f8bc 30da cdbd 9a0f 113e 449d 833d
00000240: b3af 463d e752 38bd 2f2d debc 1176 093e
00000250: 393e 0f3d 100f 353b 1f18 3b3e fa65 d03d
00000260: 2853 dc3c 6bf6 e13d 79aa 10be 8f85 f5bc
00000270: fb72 8fbb c57b bbbd 31f8 c63d b086 6bbe
00000280: 9a97 bc3d 0fe5 17be 7d56 ffbd 3d8c e13d
00000290: 3c7c 11bc 39ba 04be 88b5 e63d 4d01 013e
000002a0: 2b20 133e b01a 8fbd df41 4dbd 5f25 82bb
000002b0: 4e60 0cbe 04cd 823b bfdc 6c3d d254 8ebd
000002c0: be71 b1bd f31a db3d 97e7 02bd cf3e b5bd
000002d0: c0e5 543c 4bd2 a73c 37fb e53d c096 49be
000002e0: af32 9a3d cc5f 4b3e 1cd9 3bba 0841 7a3d
000002f0: 0f9c 503e 1a04 edbd a551 343e 28d6 d1bd
00000300: b988 0b3b 6563 943c fb44 8a3d 51c6 c03c
00000310: 5f43 263d e65c a93d e70c 8ebd fc2b 0abe
00000320: b95b abbe abbf 9ebd e830 fa3d 21ff 8dbb
00000330: 5f0b 87bd e86d fa3b 35b0 5bbd b82c 153e
00000340: 3eea bd3d 78d4 14be 1dd8 6fbd 5814 16bd
00000350: eb07 88bc 00dd 5ebd 8f74 24bc 2003 07be
00000360: 1dd6 213e f3a8 643d b483 2cbe db0c 193d
00000370: c563 8d3b df7f d43d 014a 293e c197 0e3c
00000380: cc3e b33c b624 973d 76b1 953d ae31 0e3e
00000390: 168f a23d 8bee 763d ef42 9f3d f624 16bd
000003a0: 6273 df3c c542 b0bd cffb 103e 23f8 90bd
000003b0: fbcf 8c3d 2789 c3bd 79e8 883d 4d5f 893c
000003c0: 2b03 07bd 7fe8 543e 3819 633d d1da 0d3d
000003d0: 0eb7 03be 75a3 1dbd e032 1b3e ddd6 e8bd
000003e0: 6bbb 17be 00d8 5abb e526 cd3c 5352 e7bd
000003f0: 3819 f1bd 7d92 cbbd cca3 873b 9d54 b63d
