checkpoints_16_tasks/16_task_groups_PUGCL_epochs_:100_lr_:0.03_hidden_:400_task_order_:[ 4 15 13  3  6  2  1  8 11 10  5  0 12 14  9  7]/model_6.pth.tar (torch_old, 220285 bytes, 136 tensors)

l1.weight_mu f4 [400, 29]
0.03237235 -0.15720423 -0.10424409 0.010615003 -0.0021265028 0.009293367 -0.033397224 0.10327746
-0.054917313 0.014833915 -0.06024989 -0.058289528 -0.19550647 0.0029324337 -0.031012466 -0.0016710891
-0.022826156 0.036964916 -0.021806039 0.01799467 -0.20721819 0.090247884 -0.16185065 -0.06506368
0.08082434 0.00045202143 0.07228785 0.022759277 -0.028201034 0.06713803 -0.016848335 0.040187612
-0.04976375 -0.08248027 0.091407694 0.29303402 -0.1246171 0.050835013 0.17337465 -0.31809235
0.2993988 -0.0368719 0.100840054 0.058772635 0.10510115 -0.1287228 -0.10623408 -0.028275896
0.020569237 0.038325816 0.022054777 -0.022765482 0.019974409 0.022424355 -0.05635026 0.06615006
0.017746428 0.13010797 -0.05893654 0.089922465 0.08897892 0.124025315 -0.07983228 -0.039503768
-0.10990265 -0.06407658 -0.09908763 -0.0266342 0.008300927 0.040085685 -0.09468187 0.15146963
-0.1804761 -0.0987303 0.013209865 0.008888403 -0.020966617 -0.060678065 0.20484456 0.0022863941
0.061340667 0.12713344 0.18824336 -0.0861742 0.111079305 -0.10759212 -0.029945815 -0.09555592
-0.080287345 -0.042358622 0.085087776 0.086893566 0.10105847 0.08136741 -0.20881088 0.0015097045
-0.11360713 -0.04720942 0.014832489 -0.001341996 0.15932573 -0.16000944 0.005575938 -0.0032883517
0.048086543 0.008475447 -0.06415272 0.055178415 -0.041464366 0.030203406 -0.038996402 0.14985639
0.002056285 -0.00695023 -0.0073014298 0.022375092 -0.050274003 -0.040673062 -0.00013186033 0.21754692
-0.15811011 -0.13548164 0.01997163 0.13914858 0.16605954 0.022462836 0.039066914 -0.13426027
-0.08576741 -0.19431573 0.006675835 0.028974893 -0.026924044 -0.20895879 -0.14299487 0.00088830176
-0.06417583 0.030078929 -0.072109975 0.004749293 -0.004001434 -0.015099405 -0.13779163 0.21983543
0.19597727 0.072913766 -0.062705606 -0.054791547 -0.033883367 -0.0077420836 -0.03658656 0.00057120423
0.12679753 -0.058785647 0.12270453 -0.12150453 0.124611184 0.21950506 0.117163405 0.14599945
-0.0013592371 0.08650522 -0.059120163 -0.15577622 0.05060058 0.02153824 -0.05194779 0.083919436
0.01703165 0.0048716324 0.10030593 0.051683303 -0.048793156 -0.1826728 0.012820558 -0.15133327
0.09635112 -0.016585099 0.09400798 -0.03890515 -0.12202201 0.0850763 0.07965129 -0.07657765
0.014826661 -0.11952412 0.05214382 0.056340024 0.029350465 -0.025169639 -0.10131469 -0.20483282
-0.23744085 0.05438338 -0.06929654 0.15806618 0.17863198 -0.12073729 -0.028115436 0.10693135
-0.029608484 0.20112634 0.07773373 -0.004742999 0.31320465 -0.041998133 0.15883383 0.12293833
0.17130546 0.11785522 0.044900436 -0.01940019 -0.0048700296 0.0387445 0.09255438 -0.101457186
0.14380996 0.16011083 0.32232624 0.13241726 0.09776527 0.035387274 0.09441478 0.10983362
-0.19293128 0.029641867 0.06443388 0.058510948 0.07294734 0.058281127 -0.032419905 -0.037603214
-0.07477813 -0.19944419 -0.010666769 -0.10342554 -0.011727917 0.037942614 -0.14721224 -0.1336812
-0.059014544 -0.06544487 0.049302142 0.1123896 -0.107961826 -0.051729064 -0.093359694 -0.026135806
-0.10073107 0.03650295 0.15460062 -0.017271759 0.051413853 -0.0027069997 -0.0007016859 0.002728679
00000000: df98 043d 25fa 20be ed7d d5bd 8dea 2d3c
00000010: cc5c 0bbb 3543 183c 87cb 08bd 2283 d33d
00000020: faf0 60bd f309 733c 97c8 76bd 00c1 6ebd
00000030: d932 48be 132e 403b db0d febc 7208 dbba
00000040: ebfd babc 8668 173d 94a2 b2bc 8f69 933c
00000050: 0131 54be e2d3 b83d 2dbc 25be 1b40 85bd
00000060: 3b87 a53d 4afd ec39 a70b 943d aa71 ba3c
00000070: db05 e7bc aa7f 893d 8505 8abc c49b 243d
00000080: 13d5 4bbd 6aeb a8bd f533 bb3d 8e08 963e
00000090: 4037 ffbd 6038 503d 2089 313e 00dd a2be
000000a0: cd4a 993e fd06 17bd 3b85 ce3d 93bb 703d
000000b0: 463f d73d e9cf 03be 4191 d9bd daa2 e7bc
000000c0: d180 a83c 88fb 1c3d 38ac b43c ad7e babc
000000d0: 5fa1 a33c 48b3 b73c 88cf 66bd af79 873d
000000e0: f560 913c 063b 053e 7167 71bd 4529 b83d
000000f0: 943a b63d fc00 fe3d 1b7f a3bd b4ce 21bd
00000100: a414 e1bd 953a 83bd 75ee cabd f72f dabc
00000110: 9c00 083c e330 243d 91e8 c1bd db1a 1b3e
00000120: bace 38be 1d33 cabd 316e 583c aaa0 113c
00000130: 2fc2 abbc 9089 78bd c6c2 513e 54d7 153b
00000140: 5a40 7b3d 452f 023e dec2 403e 197c b0bd
00000150: 8c7d e33d 4259 dcbd ed50 f5bc d2b2 c3bd
00000160: b16d a4bd 3c80 2dbd 8042 ae3d 41f5 b13d
00000170: bef7 ce3d f5a3 a63d 85d2 55be 47e1 c53a
00000180: dbaa e8bd aa5e 41bd f803 733c eae5 afba
00000190: 4926 233e 84d9 23be 5cb6 b63b 6381 57bb
000001a0: 65f6 443d 9adc 0a3c 8062 83bd c302 623d
000001b0: 8ad6 29bd 226d f73c b1ba 1fbd f473 193e
000001c0: bdc2 063b c1be e3bb d540 efbb f84b b73c
000001d0: 1dec 4dbd cc98 26bd fd43 0ab9 9fc4 5e3e
000001e0: 9ee7 21be b3bb 0abe 8b9b a33c f77c 0e3e
000001f0: 830b 2a3e fb03 b83c a104 203d 867b 09be
00000200: d3a6 afbd b4fa 46be f6c0 da3b c15c ed3c
00000210: d08f dcbc 4bf9 55be 3f6d 12be ecdc 683a
00000220: 9e6e 83bd 1668 f63c 65ae 93bd f59f 9b3b
00000230: 761e 83bb 7f63 77bc 4019 0dbe 8a1c 613e
00000240: 44ae 483e d053 953d cc6b 80bd 1a6d 60bd
00000250: 49c9 0abd 4eb1 fdbb cadb 15bd debc 153a
00000260: 36d7 013e 38c9 70bd 834c fb3d 5ed7 f8bd
00000270: 2634 ff3d efc5 603e 5ef3 ef3d e180 153e
00000280: 6e28 b2ba a629 b13d fc27 72bd cd83 1fbe
00000290: 8e42 4f3d f770 b03c 35c7 54bd f4dd ab3d
000002a0: f585 8b3c 37a2 9f3b 326d cd3d dfb1 533d
000002b0: 55db 47bd 940e 3bbe 510d 523c 1cf7 1abe
000002c0: bc53 c53d 79dd 87bc 4187 c03d 025b 1fbd
000002d0: ade6 f9bd 7c3c ae3d 3720 a33d bed4 9cbd
000002e0: 86eb 723c 10c9 f4bd c294 553d ccc4 663d
000002f0: 6370 f03c 8f30 cebc 147e cfbd b2bf 51be
00000300: b223 73be 1bc1 5e3d 58eb 8dbd 1adc 213e
00000310: 4deb 363e 1d45 f7bd 5852 e6bc d3fe da3d
00000320: 7e8d f2bc 10f4 4d3e dd32 9f3d 296b 9bbb
00000330: 5c5c a03e 3c06 2cbd 56a5 223e 17c7 fb3d
00000340: b36a 2f3e 145e f13d 85e9 373d 26ed 9ebc
00000350: c594 9fbb 8eb2 1e3d 278d bd3d c9c8 cfbd
00000360: eb42 133e 18f4 233e f207 a53e 6498 073e
00000370: 2839 c83d 3ff2 103d 895c c13d 73f0 e03d
00000380: c78f 45be 80d3 f23c e9f5 833d 2da9 6f3d
00000390: 6a65 953d 31b8 6e3d bcca 04bd d405 1abd
000003a0: 4725 99bd 193b 4cbe acc3 2ebc c5d0 d3bd
000003b0: 7326 40bc b769 1b3d cebe 16be b9e3 08be
000003c0: 3cb9 71bd f607 86bd 0bf1 493d 852c e63d
000003d0: 171b ddbd dbe1 53bd 5e33 bfbd c21a d6bc
000003e0: 174c cebd 1e84 153d a04f 1e3e 817d 8dbc
000003f0: 5597 523d eb67 31bb 58f1 37ba a3d3 323b

l1.weight_rho f4 [400, 29]
-3.0902407 -3.0169187 -2.9533641 -2.8644826 -3.068558 -2.9677722 -2.937819 -2.935297
-3.0350108 -3.07558 -3.0546722 -3.0312178 -3.0926726 -2.9752214 -2.8340805 -2.9085455
-2.9314315 -3.039549 -2.9357305 -3.082355 -2.9784796 -2.9471908 -2.9542174 -2.94501
-3.0928683 -3.199145 -3.0729547 -2.855975 -3.0764961 -2.8304627 -3.0966733 -2.9586937
-3.008288 -3.0179935 -2.9294252 -3.0652082 -2.7805612 -2.978244 -2.9115796 -3.04722
-2.9773388 -2.9173248 -2.9911804 -3.019621 -2.9978197 -3.0114207 -2.947126 -3.018828
-3.0523558 -3.0030203 -2.8432457 -3.0003517 -3.088765 -3.0548418 -2.9245427 -2.8148026
-3.1065574 -3.1441693 -3.0469472 -2.929659 -2.7350433 -2.8767796 -3.0139692 -2.8509142
-3.1377792 -2.8692474 -3.0987895 -2.8508244 -2.8443594 -2.9891114 -3.0625453 -3.010706
-2.9935613 -2.875313 -3.0579402 -3.0585828 -3.003688 -2.9969797 -3.158927 -3.1034417
-2.9431777 -3.0734663 -3.0322452 -3.0068786 -3.034432 -3.0597298 -3.0406592 -3.0803719
-2.9367042 -2.916567 -3.0078564 -3.149722 -3.015761 -3.207737 -3.190023 -2.968017
-2.8054183 -2.9802458 -3.03503 -3.0094461 -2.941615 -2.9134014 -3.1277602 -2.9575622
-2.8930266 -3.112229 -3.1017401 -3.0901349 -3.0472095 -3.1538234 -2.8726075 -3.0512342
-2.927078 -2.926937 -3.0182562 -3.0802867 -3.03574 -2.9258323 -3.06759 -3.0405614
-2.996799 -3.0513375 -3.0371704 -3.011957 -3.012757 -3.0608206 -3.12492 -3.2163465
-3.0125525 -3.0382533 -3.2316468 -2.9094963 -3.0698369 -2.9221277 -2.8277042 -3.1468525
-3.018091 -2.9501534 -2.9664125 -3.0346887 -3.1983633 -3.003 -3.0892801 -2.8524513
-3.0290258 -2.932588 -2.857082 -2.9899452 -3.0164545 -3.0235267 -3.0349998 -3.1293817
-3.113703 -2.9805765 -3.0348153 -3.0418706 -3.060527 -2.9407036 -2.8889503 -2.924244
-2.8830755 -3.0824392 -2.9834683 -2.9514828 -3.0548503 -2.9249423 -2.927098 -2.8259273
-2.9304643 -2.9928405 -3.0909946 -3.085263 -2.988518 -3.0478442 -3.0173268 -2.9757838
-3.062838 -2.9909265 -3.0998988 -3.1374724 -2.8701954 -3.130252 -2.9703548 -3.089756
-2.8775027 -2.847752 -2.993379 -3.053121 -3.0301635 -3.1247902 -2.9558377 -3.0577307
-3.0368779 -3.0570848 -2.8475678 -3.0708048 -2.989976 -3.1652455 -2.9712365 -2.9727657
-3.0071316 -3.0181699 -2.8514972 -3.0508351 -3.086261 -3.0745819 -2.973757 -3.0719085
-3.0606453 -3.067027 -2.9367056 -3.0041049 -2.973305 -3.1475987 -3.111477 -2.9206214
-2.9744098 -3.0315 -2.9107513 -3.1192 -3.0723774 -3.1736193 -2.922705 -2.883414
-2.8527348 -2.9547112 -2.9821079 -3.0200622 -2.864417 -2.910427 -3.1424172 -2.962096
-2.9716847 -2.9476893 -2.954975 -2.9077156 -3.1053498 -3.0426264 -2.9271 -2.880679
-3.0546856 -2.9165525 -3.1965003 -3.1210337 -2.876668 -3.0523496 -2.8838916 -3.0529158
-2.9585109 -3.1455905 -2.9451952 -3.119453 -3.0515692 -3.0287032 -2.9274142 -3.0125766
00000000: 81c6 45c0 3215 41c0 eb03 3dc0 af53 37c0
00000010: 4163 44c0 fbef 3dc0 3a05 3cc0 e8db 3bc0
00000020: 9e3d 42c0 4dd6 44c0 c07f 43c0 79ff 41c0
00000030: 59ee 45c0 076a 3ec0 9361 35c0 9c25 3ac0
00000040: 939c 3bc0 f987 42c0 02e3 3bc0 4e45 45c0
00000050: 699f 3ec0 c69e 3cc0 e611 3dc0 0b7b 3cc0
00000060: 8ef1 45c0 cbbe 4cc0 4aab 44c0 4bc8 36c0
00000070: 50e5 44c0 4d26 35c0 e52f 46c0 3d5b 3dc0
00000080: ca87 40c0 ce26 41c0 b47b 3bc0 5f2c 44c0
00000090: b7f4 31c0 8d9b 3ec0 5257 3ac0 a705 43c0
000000a0: b88c 3ec0 73b5 3ac0 806f 3fc0 7841 41c0
000000b0: 47dc 3fc0 1ebb 40c0 b69d 3cc0 7a34 41c0
000000c0: cc59 43c0 7c31 40c0 bdf7 35c0 c305 40c0
000000d0: 53ae 45c0 8782 43c0 b52b 3bc0 ba25 34c0
000000e0: d6d1 46c0 123a 49c0 2f01 43c0 887f 3bc0
000000f0: f30a 2fc0 281d 38c0 dfe4 40c0 6175 36c0
00000100: 60d1 48c0 c0a1 37c0 9152 46c0 e873 36c0
00000110: fc09 36c0 9a4d 3fc0 be00 44c0 68af 40c0
00000120: 8296 3fc0 2105 38c0 4bb5 43c0 d2bf 43c0
00000130: 6d3c 40c0 84ce 3fc0 dc2b 4ac0 ca9e 46c0
00000140: 065d 3cc0 acb3 44c0 4e10 42c0 b370 40c0
00000150: 2234 42c0 9dd2 43c0 299a 42c0 d024 45c0
00000160: f6f2 3bc0 09a9 3ac0 b880 40c0 0c95 49c0
00000170: 3a02 41c0 904b 4dc0 5629 4cc0 fef3 3dc0
00000180: f98b 33c0 59bc 3ec0 ee3d 42c0 c49a 40c0
00000190: 6c43 3cc0 2b75 3ac0 392d 48c0 b348 3dc0
000001a0: 5927 39c0 c32e 47c0 e982 46c0 c5c4 45c0
000001b0: 7b05 43c0 3ed8 49c0 cdd8 37c0 6c47 43c0
000001c0: 3f55 3bc0 f052 3bc0 1c2b 41c0 6b23 45c0
000001d0: 9049 42c0 d640 3bc0 6553 44c0 8f98 42c0
000001e0: 8ecb 3fc0 1d49 43c0 0061 42c0 e7c3 40c0
000001f0: 03d1 40c0 7ce4 43c0 b0fe 47c0 9fd8 4dc0
00000200: a9cd 40c0 be72 42c0 4dd3 4ec0 3035 3ac0
00000210: 3578 44c0 2404 3bc0 1bf9 34c0 0866 49c0
00000220: 6728 41c0 50cf 3cc0 b4d9 3dc0 5738 42c0
00000230: fcb1 4cc0 2731 40c0 c4b6 45c0 908e 36c0
00000240: 8fdb 41c0 86af 3bc0 6eda 36c0 435b 3fc0
00000250: 970d 41c0 7681 41c0 703d 42c0 ca47 48c0
00000260: e946 47c0 c4c1 3ec0 6a3a 42c0 02ae 42c0
00000270: addf 43c0 7d34 3cc0 90e4 38c0 d026 3bc0
00000280: 4f84 38c0 af46 45c0 25f1 3ec0 18e5 3cc0
00000290: ab82 43c0 4132 3bc0 9355 3bc0 fedb 34c0
000002a0: ba8c 3bc0 b38a 3fc0 dbd2 45c0 f374 45c0
000002b0: e143 3fc0 e10f 43c0 e21b 41c0 3e73 3ec0
000002c0: 8a05 44c0 576b 3fc0 be64 46c0 59cc 48c0
000002d0: 48b1 37c0 0c56 48c0 4b1a 3ec0 90be 45c0
000002e0: 0129 38c0 9241 36c0 8693 3fc0 5666 43c0
000002f0: 33ee 41c0 90fc 47c0 722c 3dc0 dcb1 43c0
00000300: 355c 42c0 47a7 43c0 8d3e 36c0 1188 44c0
00000310: c45b 3fc0 6293 4ac0 bd28 3ec0 cb41 3ec0
00000320: d874 40c0 b229 41c0 ee7e 36c0 e240 43c0
00000330: 4d85 45c0 f3c5 44c0 0952 3ec0 269a 44c0
00000340: 9de1 43c0 2c4a 44c0 fcf2 3bc0 4143 40c0
00000350: a14a 3ec0 4272 49c0 7022 47c0 76eb 3ac0
00000360: bb5c 3ec0 1904 42c0 c049 3ac0 f9a0 47c0
00000370: d5a1 44c0 941c 4bc0 990d 3bc0 db89 38c0
00000380: 3593 36c0 fd19 3dc0 dbda 3ec0 b348 41c0
00000390: 9c52 37c0 7044 3ac0 5d1d 49c0 fb92 3dc0
000003a0: 1530 3ec0 f1a6 3cc0 4f1e 3dc0 0318 3ac0
000003b0: 0dbe 46c0 64ba 42c0 9b55 3bc0 0b5d 38c0
000003c0: f87f 43c0 cca8 3ac0 7693 4cc0 04bf 47c0
000003d0: 541b 38c0 b259 43c0 ae91 38c0 f962 43c0
000003e0: 3e58 3dc0 5b51 49c0 147e 3cc0 1ea5 47c0
000003f0: e94c 43c0 46d6 41c0 c15a 3bc0 0ece 40c0

l1.bias_mu f4 [400]
-0.14526765 0.04042046 0.07064566 -0.22634622 -0.11855 -0.14859942 -0.059580017 0.12905198
-0.082646206 -0.25705218 -0.06875698 -0.06754909 0.10896661 -0.07922885 0.06392517 0.17274624
0.1284385 0.11684153 -0.041141015 -0.012867152 -0.045931883 0.02086728 0.11810187 -0.11432682
0.06841341 -0.019655209 -0.014643429 -0.05550101 0.07723333 0.3856288 0.011719401 0.03992829
-0.1107061 0.0011036171 -0.08580468 0.04064422 0.07469898 -0.001963609 0.058800254 -0.09026217
-0.07557723 -0.108982705 -0.059244525 -0.15454857 -0.041729387 -0.01630655 -0.11435829 0.13718568
-0.038200106 0.07862341 -0.021196317 -0.018033905 -0.15001874 -0.020895174 0.03951548 0.021177089
0.082096964 -0.15870656 -0.16817443 -0.08877104 -0.16125964 -0.029194387 0.13531083 -0.20275348
-0.019710993 -0.14606968 -0.18591534 -0.14170335 0.10855839 -0.12025798 -0.09602823 0.04443526
0.10215548 0.017636467 0.1738064 -0.15011236 0.04042853 0.14474027 0.13132614 0.14848204
0.25336352 -0.049333315 -0.09607335 0.06375373 0.062413786 0.17556038 0.082149856 -0.15375908
0.20930524 -0.051144056 0.047118895 0.062927514 -0.22072366 0.0140322 0.049597986 -0.021063207
-0.004492416 0.012567867 0.14501116 -0.051969048 -0.14329726 0.066721424 -0.18388012 -0.15130864
-0.09770767 -0.09763094 -0.010829409 0.021697152 0.1752941 -0.11330969 -0.015424004 0.07906036
-0.01649592 -0.14113598 0.037259933 -0.03864745 0.18638198 -0.19874956 0.07461795 0.004087136
0.15597536 -0.016287306 -0.069465846 0.27916443 -0.06891389 -0.0016675374 0.23505767 -0.02546435
0.049820017 -0.105874844 0.025255375 0.026299102 -0.22707593 -0.082608745 0.0024110558 -0.023822831
0.026746968 -0.14314474 0.13615029 0.019626824 0.10372094 -0.029675184 -0.23319438 0.048159827
-0.23709863 0.067651406 -0.031728458 0.042242974 -0.015292721 -0.15030822 0.18472047 0.02088051
-0.12289562 -0.07851351 -0.15834536 -0.056722015 -0.10142255 0.053500425 -0.17436744 0.114521764
-0.14181091 -0.12088942 -0.031555116 0.11543879 0.04997547 -0.16829066 0.022544447 0.03295729
0.06227402 -0.06403963 0.026420522 0.03367464 0.17669171 0.13402417 0.042723265 0.1013906
0.17304239 0.0856687 0.2798291 0.107181296 -0.16044125 -0.0013231045 -0.06365059 0.15359092
-0.17957328 0.1718191 -0.06589539 0.065174446 -0.15760826 0.09344738 0.047436893 0.0035666453
0.038067102 -0.11800252 0.25765827 0.059531454 -0.061162665 -0.11772614 0.14488713 -0.01561563
0.11478123 -0.113458276 0.055989023 0.07255034 -0.11657095 0.047632474 0.041245114 -0.08306524
0.053366482 0.07017536 0.15219848 -0.13542102 -0.05827573 -0.061628755 0.12321565 0.08094058
-0.12582932 -0.07628557 0.09127894 -0.04448974 0.033072773 -0.023430537 0.01098839 0.045760203
-0.09516604 -0.05432896 -0.019047743 0.05450961 -0.0046091704 0.036517683 -0.09245873 -0.077563144
-0.011093196 0.051414274 -0.1546276 0.09698136 0.048753813 -0.04201301 0.04170474 0.10319724
-0.04135994 -0.1031203 -0.22039837 0.13062237 0.292619 -0.07483122 -0.032448944 0.20439407
0.037167158 -0.019238453 -0.10773745 0.19748212 0.023300251 0.019725865 0.14027159 0.11549379
00000000: 0bc1 14be ed8f 253d acae 903d 4ec7 67be
00000010: 58ca f2bd 722a 18be 2d0a 74bd 3426 043e
00000020: 6a42 a9bd 589c 83be 76d0 8cbd 2d57 8abd
00000030: e329 df3d bc42 a2bd 33eb 823d 64e4 303e
00000040: 6285 033e 9d4a ef3d 7b83 28bd bfd0 52bc
00000050: 1223 3cbd dcf1 aa3c 65df f13d 2e24 eabd
00000060: 541c 8c3d f603 a1bc feea 6fbc 0755 63bd
00000070: 822c 9e3d 2371 c53e bb02 403c d98b 233d
00000080: e1b9 e2bd 3fa7 903a 5dba afbd 8e7a 263d
00000090: c7fb 983d e4af 00bb 89d8 703d 5fdb b8bd
000000a0: 3cc8 9abd 5332 dfbd 63aa 72bd fb41 1ebe
000000b0: 6fec 2abd 5095 85bc ae34 eabd 677a 0c3e
000000c0: b777 1cbd 4f05 a13d e6a3 adbc d7bb 93bc
000000d0: 839e 19be 5b2c abbc fcda 213d 937b ad3c
000000e0: 7422 a83d f983 22be eb35 2cbe 97cd b5bd
000000f0: 3f21 25be 1129 efbc ec8e 0a3e 9c9e 4fbe
00000100: f378 a1bc 4a93 15be 9760 3ebe af1a 11be
00000110: dc53 de3d d149 f6bd 73aa c4bd bf01 363d
00000120: e436 d13d 5a7a 903c 4efa 313e 0eb7 19be
00000130: 6398 253d cb36 143e 5c7a 063e ad0b 183e
00000140: ddb8 813e bb11 4abd 1bc2 c4bd 5191 823d
00000150: 99a5 7f3d 1ac6 333e 2f3e a83d 0573 1dbe
00000160: 1d54 563e 6e7c 51bd beff 403d 24e0 803d
00000170: 6205 62be 50e7 653c 4227 4b3d bf8c acbc
00000180: 1e35 93bb 74e9 4d3c ce7d 143e 7fdd 54bd
00000190: 84bc 12be 3ea5 883d 124b 3cbe a7f0 1abe
000001a0: f51a c8bd bbf2 c7bd d56d 31bc 3abe b13c
000001b0: 4c80 333e e90e e8bd f6b4 7cbc 66ea a13d
000001c0: 7422 87bc f385 10be df9d 183d ca4c 1ebd
000001d0: ebda 3e3e 0185 4bbe 4cd1 983d 62ed 853b
000001e0: 01b8 1f3e f56c 85bc 1c44 8ebd a4ee 8e3e
000001f0: ba22 8dbd 4591 daba f5b2 703e 9d9a d0bc
00000200: 1310 4c3d e9d4 d8bd 5ce4 ce3c 3771 d73c
00000210: 9886 68be c62e a9bd ce02 1e3b 1928 c3bc
00000220: 751c db3c 8994 12be fb6a 0b3e 6fc8 a03c
00000230: a56b d43d 5f19 f3bc 82ca 6ebe 3d43 453d
00000240: fcc9 72be d28c 8a3d b3f5 01bd f806 2d3d
00000250: 528e 7abc 66ea 19be 5d27 3d3e 9a0d ab3c
00000260: b3b0 fbbd b1cb a0bd 4925 22be 5855 68bd
00000270: a0b6 cfbd 4323 5b3d 618d 32be 638a ea3d
00000280: e136 11be df94 f7bd f03f 01bd 2c6b ec3d
00000290: 14b3 4c3d 6354 2cbe 22af b83c 39fe 063d
000002a0: 0b13 7f3d 3627 83bd da6f d83c 6bee 093d
000002b0: acee 343e a23d 093e 97fe 2e3d e0a5 cf3d
000002c0: 0632 313e 1273 af3d c345 8f3e de81 db3d
000002d0: b64a 24be 056c adba 3e5b 82bd f046 1d3e
000002e0: 0fe2 37be 59f1 2f3e 2af4 86bd 2e7a 853d
000002f0: 0f64 21be 5761 bf3d 304d 423d 61be 693b
00000300: 40ec 1b3d 4eab f1bd c9eb 833e 41d7 733d
00000310: b485 7abd 671a f1bd 4b5d 143e b3d8 7fbc
00000320: 6c12 eb3d d05c e8bd bf54 653d 4695 943d
00000330: c0bc eebd 451a 433d a3f0 283d 1c1e aabd
00000340: d096 5a3d 19b8 8f3d ebd9 1b3e cfab 0abe
00000350: 88b2 6ebd 6f6e 7cbd 7d58 fc3d 2dc4 a53d
00000360: 67d9 00be 9c3b 9cbd 74f0 ba3d e03a 36bd
00000370: 5177 073d 66f1 bfbc a608 343c 0d6f 3b3d
00000380: 6ae6 c2bd 0b88 5ebd 030a 9cbc 7845 5f3d
00000390: 8608 97bb 9193 153d 015b bdbd 6dd9 9ebd
000003a0: 3dc0 35bc c697 523d b356 1ebe 2a9e c63d
000003b0: 14b2 473d d515 2cbd 97d2 2a3d 1359 d33d
000003c0: 0a69 29bd bc30 d3bd 1cb0 61be dfc1 053e
000003d0: 28d2 953e 1c41 99bd 2fe9 04bd ae4c 513e
000003e0: 973c 183d f699 9dbc 74a5 dcbd c138 4a3e
000003f0: 2be0 be3c 2398 a13c 5ba3 0f3e 0288 ec3d

l1.bias_rho f4 [400]
-3.0339856 -2.9116178 -3.0970137 -2.962184 -2.9041402 -3.0514355 -3.0813887 -3.1873515
-3.069711 -2.9456408 -3.0315776 -3.095149 -3.0983052 -2.889157 -3.0458686 -3.0342145
-3.1682413 -2.9862726 -2.9596994 -3.172305 -2.957878 -3.0019667 -3.1369095 -3.2839935
-3.1563816 -2.8266788 -3.0863712 -2.936598 -2.8249109 -3.1374006 -2.8615217 -3.0914817
-3.058505 -2.9654198 -2.997605 -2.7722278 -2.8957782 -3.0270014 -2.8483837 -2.9582124
-3.033939 -3.1622348 -3.0208726 -2.959219 -2.9649482 -3.0148542 -3.0306833 -2.9572427
-2.9973767 -3.0377793 -2.8589625 -3.0453014 -2.9713418 -3.0101876 -3.0304437 -2.9581268
-2.9617348 -2.9619231 -2.9308178 -3.0757906 -2.7732267 -2.9009871 -3.0904884 -3.2336574
-3.026382 -3.0562034 -3.0732808 -2.9606516 -3.1814573 -3.1168053 -2.9784758 -3.0286143
-2.9967892 -3.02095 -2.9733253 -2.9307945 -2.83498 -2.9362113 -2.8745863 -3.0449162
-2.9978666 -3.2163413 -2.9071765 -3.0090375 -2.9577157 -3.0926268 -3.0513349 -3.0560422
-3.084386 -2.92579 -3.031693 -3.0844355 -2.9939451 -2.95933 -2.8448563 -3.1584866
-2.9451072 -2.9297054 -2.9550467 -2.7989635 -2.926157 -3.148741 -2.9665248 -2.972348
-2.9931943 -2.9654148 -2.8198683 -3.1144996 -3.142345 -2.8536336 -3.0105693 -2.975057
-2.9236665 -3.014126 -2.7537491 -2.9987597 -3.1107452 -2.8831246 -3.238799 -3.0084841
-3.1593702 -3.1846783 -3.0915015 -3.019575 -2.8291702 -2.9486315 -3.0714474 -3.041419
-3.0009253 -3.0385926 -3.0669625 -2.9973571 -3.0921037 -2.7585 -3.1683726 -3.0494583
-2.9025998 -3.0873108 -3.0240188 -2.9707747 -2.9783516 -3.133778 -3.118723 -3.0703046
-3.0030365 -3.138456 -2.9676692 -2.9003115 -2.8603137 -3.060412 -2.961971 -2.9994586
-3.1059391 -3.1595159 -3.0814257 -3.06233 -2.8114552 -2.8200161 -2.961812 -2.9491
-2.964352 -2.8475873 -2.940851 -2.9930036 -2.878257 -2.9844916 -3.2964647 -3.2562175
-3.219647 -2.9501083 -2.9088917 -3.0052345 -2.7827873 -2.912342 -3.0105343 -2.8909671
-3.068019 -2.9501104 -2.7412405 -2.9432583 -3.0695481 -3.0465875 -3.0395603 -2.9883199
-2.7996516 -3.22056 -2.9384556 -2.9215767 -3.0867705 -2.9307826 -2.8868055 -3.0130708
-3.0746715 -3.0573545 -2.9172854 -3.0627894 -2.87991 -2.8832872 -2.85065 -2.8619287
-3.0525184 -3.1371996 -2.8336997 -2.9086614 -2.9220192 -3.1348855 -2.9455864 -2.7942717
-2.9738586 -3.079199 -2.9300375 -2.9996297 -3.0584881 -3.1405246 -2.9791174 -2.9002419
-3.0138593 -2.9788673 -3.1172516 -3.007844 -2.979124 -3.0091038 -3.0506134 -2.7293851
-3.0967476 -2.9895995 -2.8387167 -2.9745355 -3.007287 -2.9803271 -3.0135381 -3.1022158
-2.9544492 -2.9989965 -3.02728 -2.856923 -3.1118433 -3.0459416 -3.007322 -3.0970995
-2.8885756 -3.0292566 -3.0623193 -3.171645 -2.918708 -2.940967 -2.964705 -3.1646912
-2.931706 -2.9593291 -3.0976753 -3.022001 -3.117583 -2.9306939 -2.9338748 -3.0168397
00000000: d22c 42c0 f257 3ac0 7935 46c0 6c94 3dc0
00000010: 6fdd 39c0 b84a 43c0 7935 45c0 91fd 4bc0
00000020: 2576 44c0 6185 3cc0 5e05 42c0 ec16 46c0
00000030: a24a 46c0 f3e7 38c0 83ef 42c0 9230 42c0
00000040: 77c4 4ac0 171f 3fc0 b76b 3dc0 0c07 4bc0
00000050: e04d 3dc0 3920 40c0 20c3 48c0 f32c 52c0
00000060: 2802 4ac0 4ee8 34c0 1b87 45c0 39f1 3bc0
00000070: 57cb 34c0 2ccb 48c0 2c23 37c0 d6da 45c0
00000080: 8cbe 43c0 70c9 3dc0 c3d8 3fc0 2e6c 31c0
00000090: 6e54 39c0 64ba 41c0 eb4b 36c0 5a53 3dc0
000000a0: 0e2c 42c0 0e62 4ac0 fa55 41c0 d863 3dc0
000000b0: b6c1 3dc0 5ff3 40c0 b7f6 41c0 7743 3dc0
000000c0: 05d5 3fc0 fa6a 42c0 3ef9 36c0 38e6 42c0
000000d0: 772a 3ec0 eaa6 40c0 caf2 41c0 f351 3dc0
000000e0: 108d 3dc0 2690 3dc0 8592 3bc0 c1d9 44c0
000000f0: 8c7c 31c0 c6a9 39c0 90ca 45c0 3ef4 4ec0
00000100: 3eb0 41c0 d698 43c0 a2b0 44c0 517b 3dc0
00000110: ff9c 4bc0 bd79 47c0 599f 3ec0 d1d4 41c0
00000120: 65cb 3fc0 3f57 41c0 f64a 3ec0 2392 3bc0
00000130: 5070 35c0 e3ea 3bc0 39f9 37c0 e8df 42c0
00000140: 0cdd 3fc0 89d8 4dc0 2e0f 3ac0 1294 40c0
00000150: 374b 3dc0 99ed 45c0 1249 43c0 3296 43c0
00000160: 9566 45c0 2540 3bc0 4207 42c0 6467 45c0
00000170: cc9c 3fc0 aa65 3dc0 2012 36c0 a524 4ac0
00000180: a37c 3cc0 4b80 3bc0 7c1f 3dc0 3822 33c0
00000190: 2846 3bc0 f984 49c0 8bdb 3dc0 f33a 3ec0
000001a0: 7f90 3fc0 5bc9 3dc0 b978 34c0 f653 47c0
000001b0: 2e1c 49c0 efa1 36c0 2bad 40c0 5567 3ec0
000001c0: 5a1d 3bc0 71e7 40c0 6d3d 30c0 aeeb 3fc0
000001d0: 7316 47c0 1d85 38c0 7c48 4fc0 018b 40c0
000001e0: 1f33 4ac0 c5d1 4bc0 29db 45c0 b840 41c0
000001f0: 2011 35c0 61b6 3cc0 9892 44c0 9ca6 42c0
00000200: 290f 40c0 4d78 42c0 1d49 44c0 b3d4 3fc0
00000210: 07e5 45c0 448b 30c0 9ec6 4ac0 532a 43c0
00000220: 32c4 39c0 8096 45c0 8689 41c0 2c21 3ec0
00000230: 509d 3ec0 d28f 48c0 2899 47c0 df7f 44c0
00000240: c031 40c0 77dc 48c0 4bee 3dc0 b49e 39c0
00000250: 610f 37c0 cadd 43c0 ef90 3dc0 21f7 3fc0
00000260: b5c7 46c0 8235 4ac0 1436 45c0 37fd 43c0
00000270: e2ee 33c0 257b 34c0 548e 3dc0 0ebe 3cc0
00000280: f1b7 3dc0 df3e 36c0 e736 3cc0 5f8d 3fc0
00000290: 5d35 38c0 e901 3fc0 47f9 52c0 de65 50c0
000002a0: b20e 4ec0 93ce 3cc0 482b 3ac0 c355 40c0
000002b0: 3019 32c0 d063 3ac0 98ac 40c0 9b05 39c0
000002c0: 6c5a 44c0 9cce 3cc0 7c70 2fc0 585e 3cc0
000002d0: 7a73 44c0 4afb 42c0 2888 42c0 a240 3fc0
000002e0: 7e2d 33c0 a81d 4ec0 a80f 3cc0 1dfb 3ac0
000002f0: a68d 45c0 f191 3bc0 6cc1 38c0 27d6 40c0
00000300: 6bc7 44c0 b2ab 43c0 ceb4 3ac0 be04 44c0
00000310: 7250 38c0 c787 38c0 0d71 36c0 d729 37c0
00000320: 765c 43c0 e1c7 48c0 565b 35c0 8227 3ac0
00000330: 5d02 3bc0 f7a1 48c0 7d84 3cc0 59d5 32c0
00000340: b353 3ec0 9911 45c0 bc85 3bc0 eff9 3fc0
00000350: 45be 43c0 5bfe 48c0 dca9 3ec0 909d 39c0
00000360: 12e3 40c0 c3a5 3ec0 0d81 47c0 8480 40c0
00000370: f8a9 3ec0 2895 40c0 403d 43c0 3fae 2ec0
00000380: 1d31 46c0 9955 3fc0 89ad 35c0 ca5e 3ec0
00000390: 6477 40c0 aebd 3ec0 cfdd 40c0 b48a 46c0
000003a0: b215 3dc0 8fef 3fc0 f5be 41c0 d4d7 36c0
000003b0: 7128 47c0 b5f0 42c0 f777 40c0 e136 46c0
000003c0: 6cde 38c0 57df 41c0 0afd 43c0 3bfc 4ac0
000003d0: 1dcc 3ac0 ce38 3cc0 babd 3dc0 4d8a 4ac0
000003e0: 12a1 3bc0 a665 3dc0 5040 46c0 7768 41c0
000003f0: 7b86 47c0 7d90 3bc0 9bc4 3bc0 e713 41c0

l1.weight.mu f4 [400, 29]
0.03237235 -0.15720423 -0.10424409 0.010615003 -0.0021265028 0.009293367 -0.033397224 0.10327746
-0.054917313 0.014833915 -0.06024989 -0.058289528 -0.19550647 0.0029324337 -0.031012466 -0.0016710891
-0.022826156 0.036964916 -0.021806039 0.01799467 -0.20721819 0.090247884 -0.16185065 -0.06506368
0.08082434 0.00045202143 0.07228785 0.022759277 -0.028201034 0.06713803 -0.016848335 0.040187612
-0.04976375 -0.08248027 0.091407694 0.29303402 -0.1246171 0.050835013 0.17337465 -0.31809235
0.2993988 -0.0368719 0.100840054 0.058772635 0.10510115 -0.1287228 -0.10623408 -0.028275896
0.020569237 0.038325816 0.022054777 -0.022765482 0.019974409 0.022424355 -0.05635026 0.06615006
0.017746428 0.13010797 -0.05893654 0.089922465 0.08897892 0.124025315 -0.07983228 -0.039503768
-0.10990265 -0.06407658 -0.09908763 -0.0266342 0.008300927 0.040085685 -0.09468187 0.15146963
-0.1804761 -0.0987303 0.013209865 0.008888403 -0.020966617 -0.060678065 0.20484456 0.0022863941
0.061340667 0.12713344 0.18824336 -0.0861742 0.111079305 -0.10759212 -0.029945815 -0.09555592
-0.080287345 -0.042358622 0.085087776 0.086893566 0.10105847 0.08136741 -0.20881088 0.0015097045
-0.11360713 -0.04720942 0.014832489 -0.001341996 0.15932573 -0.16000944 0.005575938 -0.0032883517
0.048086543 0.008475447 -0.06415272 0.055178415 -0.041464366 0.030203406 -0.038996402 0.14985639
0.002056285 -0.00695023 -0.0073014298 0.022375092 -0.050274003 -0.040673062 -0.00013186033 0.21754692
-0.15811011 -0.13548164 0.01997163 0.13914858 0.16605954 0.022462836 0.039066914 -0.13426027
-0.08576741 -0.19431573 0.006675835 0.028974893 -0.026924044 -0.20895879 -0.14299487 0.00088830176
-0.06417583 0.030078929 -0.072109975 0.004749293 -0.004001434 -0.015099405 -0.13779163 0.21983543
0.19597727 0.072913766 -0.062705606 -0.054791547 -0.033883367 -0.0077420836 -0.03658656 0.00057120423
0.12679753 -0.058785647 0.12270453 -0.12150453 0.124611184 0.21950506 0.117163405 0.14599945
-0.0013592371 0.08650522 -0.059120163 -0.15577622 0.05060058 0.02153824 -0.05194779 0.083919436
0.01703165 0.0048716324 0.10030593 0.051683303 -0.048793156 -0.1826728 0.012820558 -0.15133327
0.09635112 -0.016585099 0.09400798 -0.03890515 -0.12202201 0.0850763 0.07965129 -0.07657765
0.014826661 -0.11952412 0.05214382 0.056340024 0.029350465 -0.025169639 -0.10131469 -0.20483282
-0.23744085 0.05438338 -0.06929654 0.15806618 0.17863198 -0.12073729 -0.028115436 0.10693135
-0.029608484 0.20112634 0.07773373 -0.004742999 0.31320465 -0.041998133 0.15883383 0.12293833
0.17130546 0.11785522 0.044900436 -0.01940019 -0.0048700296 0.0387445 0.09255438 -0.101457186
0.14380996 0.16011083 0.32232624 0.13241726 0.09776527 0.035387274 0.09441478 0.10983362
-0.19293128 0.029641867 0.06443388 0.058510948 0.07294734 0.058281127 -0.032419905 -0.037603214
-0.07477813 -0.19944419 -0.010666769 -0.10342554 -0.011727917 0.037942614 -0.14721224 -0.1336812
-0.059014544 -0.06544487 0.049302142 0.1123896 -0.107961826 -0.051729064 -0.093359694 -0.026135806
-0.10073107 0.03650295 0.15460062 -0.017271759 0.051413853 -0.0027069997 -0.0007016859 0.002728679
00000000: df98 043d 25fa 20be ed7d d5bd 8dea 2d3c
00000010: cc5c 0bbb 3543 183c 87cb 08bd 2283 d33d
00000020: faf0 60bd f309 733c 97c8 76bd 00c1 6ebd
00000030: d932 48be 132e 403b db0d febc 7208 dbba
00000040: ebfd babc 8668 173d 94a2 b2bc 8f69 933c
00000050: 0131 54be e2d3 b83d 2dbc 25be 1b40 85bd
00000060: 3b87 a53d 4afd ec39 a70b 943d aa71 ba3c
00000070: db05 e7bc aa7f 893d 8505 8abc c49b 243d
00000080: 13d5 4bbd 6aeb a8bd f533 bb3d 8e08 963e
00000090: 4037 ffbd 6038 503d 2089 313e 00dd a2be
000000a0: cd4a 993e fd06 17bd 3b85 ce3d 93bb 703d
000000b0: 463f d73d e9cf 03be 4191 d9bd daa2 e7bc
000000c0: d180 a83c 88fb 1c3d 38ac b43c ad7e babc
000000d0: 5fa1 a33c 48b3 b73c 88cf 66bd af79 873d
000000e0: f560 913c 063b 053e 7167 71bd 4529 b83d
000000f0: 943a b63d fc00 fe3d 1b7f a3bd b4ce 21bd
00000100: a414 e1bd 953a 83bd 75ee cabd f72f dabc
00000110: 9c00 083c e330 243d 91e8 c1bd db1a 1b3e
00000120: bace 38be 1d33 cabd 316e 583c aaa0 113c
00000130: 2fc2 abbc 9089 78bd c6c2 513e 54d7 153b
00000140: 5a40 7b3d 452f 023e dec2 403e 197c b0bd
00000150: 8c7d e33d 4259 dcbd ed50 f5bc d2b2 c3bd
00000160: b16d a4bd 3c80 2dbd 8042 ae3d 41f5 b13d
00000170: bef7 ce3d f5a3 a63d 85d2 55be 47e1 c53a
00000180: dbaa e8bd aa5e 41bd f803 733c eae5 afba
00000190: 4926 233e 84d9 23be 5cb6 b63b 6381 57bb
000001a0: 65f6 443d 9adc 0a3c 8062 83bd c302 623d
000001b0: 8ad6 29bd 226d f73c b1ba 1fbd f473 193e
000001c0: bdc2 063b c1be e3bb d540 efbb f84b b73c
000001d0: 1dec 4dbd cc98 26bd fd43 0ab9 9fc4 5e3e
000001e0: 9ee7 21be b3bb 0abe 8b9b a33c f77c 0e3e
000001f0: 830b 2a3e fb03 b83c a104 203d 867b 09be
00000200: d3a6 afbd b4fa 46be f6c0 da3b c15c ed3c
00000210: d08f dcbc 4bf9 55be 3f6d 12be ecdc 683a
00000220: 9e6e 83bd 1668 f63c 65ae 93bd f59f 9b3b
00000230: 761e 83bb 7f63 77bc 4019 0dbe 8a1c 613e
00000240: 44ae 483e d053 953d cc6b 80bd 1a6d 60bd
00000250: 49c9 0abd 4eb1 fdbb cadb 15bd debc 153a
00000260: 36d7 013e 38c9 70bd 834c fb3d 5ed7 f8bd
00000270: 2634 ff3d efc5 603e 5ef3 ef3d e180 153e
00000280: 6e28 b2ba a629 b13d fc27 72bd cd83 1fbe
00000290: 8e42 4f3d f770 b03c 35c7 54bd f4dd ab3d
000002a0: f585 8b3c 37a2 9f3b 326d cd3d dfb1 533d
000002b0: 55db 47bd 940e 3bbe 510d 523c 1cf7 1abe
000002c0: bc53 c53d 79dd 87bc 4187 c03d 025b 1fbd
000002d0: ade6 f9bd 7c3c ae3d 3720 a33d bed4 9cbd
000002e0: 86eb 723c 10c9 f4bd c294 553d ccc4 663d
000002f0: 6370 f03c 8f30 cebc 147e cfbd b2bf 51be
00000300: b223 73be 1bc1 5e3d 58eb 8dbd 1adc 213e
00000310: 4deb 363e 1d45 f7bd 5852 e6bc d3fe da3d
00000320: 7e8d f2bc 10f4 4d3e dd32 9f3d 296b 9bbb
00000330: 5c5c a03e 3c06 2cbd 56a5 223e 17c7 fb3d
00000340: b36a 2f3e 145e f13d 85e9 373d 26ed 9ebc
00000350: c594 9fbb 8eb2 1e3d 278d bd3d c9c8 cfbd
00000360: eb42 133e 18f4 233e f207 a53e 6498 073e
00000370: 2839 c83d 3ff2 103d 895c c13d 73f0 e03d
00000380: c78f 45be 80d3 f23c e9f5 833d 2da9 6f3d
00000390: 6a65 953d 31b8 6e3d bcca 04bd d405 1abd
000003a0: 4725 99bd 193b 4cbe acc3 2ebc c5d0 d3bd
000003b0: 7326 40bc b769 1b3d cebe 16be b9e3 08be
000003c0: 3cb9 71bd f607 86bd 0bf1 493d 852c e63d
000003d0: 171b ddbd dbe1 53bd 5e33 bfbd c21a d6bc
000003e0: 174c cebd 1e84 153d a04f 1e3e 817d 8dbc
000003f0: 5597 523d eb67 31bb 58f1 37ba a3d3 323b

l1.weight.rho f4 [400, 29]
-3.0902407 -3.0169187 -2.9533641 -2.8644826 -3.068558 -2.9677722 -2.937819 -2.935297
-3.0350108 -3.07558 -3.0546722 -3.0312178 -3.0926726 -2.9752214 -2.8340805 -2.9085455
-2.9314315 -3.039549 -2.9357305 -3.082355 -2.9784796 -2.9471908 -2.9542174 -2.94501
-3.0928683 -3.199145 -3.0729547 -2.855975 -3.0764961 -2.8304627 -3.0966733 -2.9586937
-3.008288 -3.0179935 -2.9294252 -3.0652082 -2.7805612 -2.978244 -2.9115796 -3.04722
-2.9773388 -2.9173248 -2.9911804 -3.019621 -2.9978197 -3.0114207 -2.947126 -3.018828
-3.0523558 -3.0030203 -2.8432457 -3.0003517 -3.088765 -3.0548418 -2.9245427 -2.8148026
-3.1065574 -3.1441693 -3.0469472 -2.929659 -2.7350433 -2.8767796 -3.0139692 -2.8509142
-3.1377792 -2.8692474 -3.0987895 -2.8508244 -2.8443594 -2.9891114 -3.0625453 -3.010706
-2.9935613 -2.875313 -3.0579402 -3.0585828 -3.003688 -2.9969797 -3.158927 -3.1034417
-2.9431777 -3.0734663 -3.0322452 -3.0068786 -3.034432 -3.0597298 -3.0406592 -3.0803719
-2.9367042 -2.916567 -3.0078564 -3.149722 -3.015761 -3.207737 -3.190023 -2.968017
-2.8054183 -2.9802458 -3.03503 -3.0094461 -2.941615 -2.9134014 -3.1277602 -2.9575622
-2.8930266 -3.112229 -3.1017401 -3.0901349 -3.0472095 -3.1538234 -2.8726075 -3.0512342
-2.927078 -2.926937 -3.0182562 -3.0802867 -3.03574 -2.9258323 -3.06759 -3.0405614
-2.996799 -3.0513375 -3.0371704 -3.011957 -3.012757 -3.0608206 -3.12492 -3.2163465
-3.0125525 -3.0382533 -3.2316468 -2.9094963 -3.0698369 -2.9221277 -2.8277042 -3.1468525
-3.018091 -2.9501534 -2.9664125 -3.0346887 -3.1983633 -3.003 -3.0892801 -2.8524513
-3.0290258 -2.932588 -2.857082 -2.9899452 -3.0164545 -3.0235267 -3.0349998 -3.1293817
-3.113703 -2.9805765 -3.0348153 -3.0418706 -3.060527 -2.9407036 -2.8889503 -2.924244
-2.8830755 -3.0824392 -2.9834683 -2.9514828 -3.0548503 -2.9249423 -2.927098 -2.8259273
-2.9304643 -2.9928405 -3.0909946 -3.085263 -2.988518 -3.0478442 -3.0173268 -2.9757838
-3.062838 -2.9909265 -3.0998988 -3.1374724 -2.8701954 -3.130252 -2.9703548 -3.089756
-2.8775027 -2.847752 -2.993379 -3.053121 -3.0301635 -3.1247902 -2.9558377 -3.0577307
-3.0368779 -3.0570848 -2.8475678 -3.0708048 -2.989976 -3.1652455 -2.9712365 -2.9727657
-3.0071316 -3.0181699 -2.8514972 -3.0508351 -3.086261 -3.0745819 -2.973757 -3.0719085
-3.0606453 -3.067027 -2.9367056 -3.0041049 -2.973305 -3.1475987 -3.111477 -2.9206214
-2.9744098 -3.0315 -2.9107513 -3.1192 -3.0723774 -3.1736193 -2.922705 -2.883414
-2.8527348 -2.9547112 -2.9821079 -3.0200622 -2.864417 -2.910427 -3.1424172 -2.962096
-2.9716847 -2.9476893 -2.954975 -2.9077156 -3.1053498 -3.0426264 -2.9271 -2.880679
-3.0546856 -2.9165525 -3.1965003 -3.1210337 -2.876668 -3.0523496 -2.8838916 -3.0529158
-2.9585109 -3.1455905 -2.9451952 -3.119453 -3.0515692 -3.0287032 -2.9274142 -3.0125766
00000000: 81c6 45c0 3215 41c0 eb03 3dc0 af53 37c0
00000010: 4163 44c0 fbef 3dc0 3a05 3cc0 e8db 3bc0
00000020: 9e3d 42c0 4dd6 44c0 c07f 43c0 79ff 41c0
00000030: 59ee 45c0 076a 3ec0 9361 35c0 9c25 3ac0
00000040: 939c 3bc0 f987 42c0 02e3 3bc0 4e45 45c0
00000050: 699f 3ec0 c69e 3cc0 e611 3dc0 0b7b 3cc0
00000060: 8ef1 45c0 cbbe 4cc0 4aab 44c0 4bc8 36c0
00000070: 50e5 44c0 4d26 35c0 e52f 46c0 3d5b 3dc0
00000080: ca87 40c0 ce26 41c0 b47b 3bc0 5f2c 44c0
00000090: b7f4 31c0 8d9b 3ec0 5257 3ac0 a705 43c0
000000a0: b88c 3ec0 73b5 3ac0 806f 3fc0 7841 41c0
000000b0: 47dc 3fc0 1ebb 40c0 b69d 3cc0 7a34 41c0
000000c0: cc59 43c0 7c31 40c0 bdf7 35c0 c305 40c0
000000d0: 53ae 45c0 8782 43c0 b52b 3bc0 ba25 34c0
000000e0: d6d1 46c0 123a 49c0 2f01 43c0 887f 3bc0
000000f0: f30a 2fc0 281d 38c0 dfe4 40c0 6175 36c0
00000100: 60d1 48c0 c0a1 37c0 9152 46c0 e873 36c0
00000110: fc09 36c0 9a4d 3fc0 be00 44c0 68af 40c0
00000120: 8296 3fc0 2105 38c0 4bb5 43c0 d2bf 43c0
00000130: 6d3c 40c0 84ce 3fc0 dc2b 4ac0 ca9e 46c0
00000140: 065d 3cc0 acb3 44c0 4e10 42c0 b370 40c0
00000150: 2234 42c0 9dd2 43c0 299a 42c0 d024 45c0
00000160: f6f2 3bc0 09a9 3ac0 b880 40c0 0c95 49c0
00000170: 3a02 41c0 904b 4dc0 5629 4cc0 fef3 3dc0
00000180: f98b 33c0 59bc 3ec0 ee3d 42c0 c49a 40c0
00000190: 6c43 3cc0 2b75 3ac0 392d 48c0 b348 3dc0
000001a0: 5927 39c0 c32e 47c0 e982 46c0 c5c4 45c0
000001b0: 7b05 43c0 3ed8 49c0 cdd8 37c0 6c47 43c0
000001c0: 3f55 3bc0 f052 3bc0 1c2b 41c0 6b23 45c0
000001d0: 9049 42c0 d640 3bc0 6553 44c0 8f98 42c0
000001e0: 8ecb 3fc0 1d49 43c0 0061 42c0 e7c3 40c0
000001f0: 03d1 40c0 7ce4 43c0 b0fe 47c0 9fd8 4dc0
00000200: a9cd 40c0 be72 42c0 4dd3 4ec0 3035 3ac0
00000210: 3578 44c0 2404 3bc0 1bf9 34c0 0866 49c0
00000220: 6728 41c0 50cf 3cc0 b4d9 3dc0 5738 42c0
00000230: fcb1 4cc0 2731 40c0 c4b6 45c0 908e 36c0
00000240: 8fdb 41c0 86af 3bc0 6eda 36c0 435b 3fc0
00000250: 970d 41c0 7681 41c0 703d 42c0 ca47 48c0
00000260: e946 47c0 c4c1 3ec0 6a3a 42c0 02ae 42c0
00000270: addf 43c0 7d34 3cc0 90e4 38c0 d026 3bc0
00000280: 4f84 38c0 af46 45c0 25f1 3ec0 18e5 3cc0
00000290: ab82 43c0 4132 3bc0 9355 3bc0 fedb 34c0
000002a0: ba8c 3bc0 b38a 3fc0 dbd2 45c0 f374 45c0
000002b0: e143 3fc0 e10f 43c0 e21b 41c0 3e73 3ec0
000002c0: 8a05 44c0 576b 3fc0 be64 46c0 59cc 48c0
000002d0: 48b1 37c0 0c56 48c0 4b1a 3ec0 90be 45c0
000002e0: 0129 38c0 9241 36c0 8693 3fc0 5666 43c0
000002f0: 33ee 41c0 90fc 47c0 722c 3dc0 dcb1 43c0
00000300: 355c 42c0 47a7 43c0 8d3e 36c0 1188 44c0
00000310: c45b 3fc0 6293 4ac0 bd28 3ec0 cb41 3ec0
00000320: d874 40c0 b229 41c0 ee7e 36c0 e240 43c0
00000330: 4d85 45c0 f3c5 44c0 0952 3ec0 269a 44c0
00000340: 9de1 43c0 2c4a 44c0 fcf2 3bc0 4143 40c0
00000350: a14a 3ec0 4272 49c0 7022 47c0 76eb 3ac0
00000360: bb5c 3ec0 1904 42c0 c049 3ac0 f9a0 47c0
00000370: d5a1 44c0 941c 4bc0 990d 3bc0 db89 38c0
00000380: 3593 36c0 fd19 3dc0 dbda 3ec0 b348 41c0
00000390: 9c52 37c0 7044 3ac0 5d1d 49c0 fb92 3dc0
000003a0: 1530 3ec0 f1a6 3cc0 4f1e 3dc0 0318 3ac0
000003b0: 0dbe 46c0 64ba 42c0 9b55 3bc0 0b5d 38c0
000003c0: f87f 43c0 cca8 3ac0 7693 4cc0 04bf 47c0
000003d0: 541b 38c0 b259 43c0 ae91 38c0 f962 43c0
000003e0: 3e58 3dc0 5b51 49c0 147e 3cc0 1ea5 47c0
000003f0: e94c 43c0 46d6 41c0 c15a 3bc0 0ece 40c0

l1.bias.mu f4 [400]
-0.14526765 0.04042046 0.07064566 -0.22634622 -0.11855 -0.14859942 -0.059580017 0.12905198
-0.082646206 -0.25705218 -0.06875698 -0.06754909 0.10896661 -0.07922885 0.06392517 0.17274624
0.1284385 0.11684153 -0.041141015 -0.012867152 -0.045931883 0.02086728 0.11810187 -0.11432682
0.06841341 -0.019655209 -0.014643429 -0.05550101 0.07723333 0.3856288 0.011719401 0.03992829
-0.1107061 0.0011036171 -0.08580468 0.04064422 0.07469898 -0.001963609 0.058800254 -0.09026217
-0.07557723 -0.108982705 -0.059244525 -0.15454857 -0.041729387 -0.01630655 -0.11435829 0.13718568
-0.038200106 0.07862341 -0.021196317 -0.018033905 -0.15001874 -0.020895174 0.03951548 0.021177089
0.082096964 -0.15870656 -0.16817443 -0.08877104 -0.16125964 -0.029194387 0.13531083 -0.20275348
-0.019710993 -0.14606968 -0.18591534 -0.14170335 0.10855839 -0.12025798 -0.09602823 0.04443526
0.10215548 0.017636467 0.1738064 -0.15011236 0.04042853 0.14474027 0.13132614 0.14848204
0.25336352 -0.049333315 -0.09607335 0.06375373 0.062413786 0.17556038 0.082149856 -0.15375908
0.20930524 -0.051144056 0.047118895 0.062927514 -0.22072366 0.0140322 0.049597986 -0.021063207
-0.004492416 0.012567867 0.14501116 -0.051969048 -0.14329726 0.066721424 -0.18388012 -0.15130864
-0.09770767 -0.09763094 -0.010829409 0.021697152 0.1752941 -0.11330969 -0.015424004 0.07906036
-0.01649592 -0.14113598 0.037259933 -0.03864745 0.18638198 -0.19874956 0.07461795 0.004087136
0.15597536 -0.016287306 -0.069465846 0.27916443 -0.06891389 -0.0016675374 0.23505767 -0.02546435
0.049820017 -0.105874844 0.025255375 0.026299102 -0.22707593 -0.082608745 0.0024110558 -0.023822831
0.026746968 -0.14314474 0.13615029 0.019626824 0.10372094 -0.029675184 -0.23319438 0.048159827
-0.23709863 0.067651406 -0.031728458 0.042242974 -0.015292721 -0.15030822 0.18472047 0.02088051
-0.12289562 -0.07851351 -0.15834536 -0.056722015 -0.10142255 0.053500425 -0.17436744 0.114521764
-0.14181091 -0.12088942 -0.031555116 0.11543879 0.04997547 -0.16829066 0.022544447 0.03295729
0.06227402 -0.06403963 0.026420522 0.03367464 0.17669171 0.13402417 0.042723265 0.1013906
0.17304239 0.0856687 0.2798291 0.107181296 -0.16044125 -0.0013231045 -0.06365059 0.15359092
-0.17957328 0.1718191 -0.06589539 0.065174446 -0.15760826 0.09344738 0.047436893 0.0035666453
0.038067102 -0.11800252 0.25765827 0.059531454 -0.061162665 -0.11772614 0.14488713 -0.01561563
0.11478123 -0.113458276 0.055989023 0.07255034 -0.11657095 0.047632474 0.041245114 -0.08306524
0.053366482 0.07017536 0.15219848 -0.13542102 -0.05827573 -0.061628755 0.12321565 0.08094058
-0.12582932 -0.07628557 0.09127894 -0.04448974 0.033072773 -0.023430537 0.01098839 0.045760203
-0.09516604 -0.05432896 -0.019047743 0.05450961 -0.0046091704 0.036517683 -0.09245873 -0.077563144
-0.011093196 0.051414274 -0.1546276 0.09698136 0.048753813 -0.04201301 0.04170474 0.10319724
-0.04135994 -0.1031203 -0.22039837 0.13062237 0.292619 -0.07483122 -0.032448944 0.20439407
0.037167158 -0.019238453 -0.10773745 0.19748212 0.023300251 0.019725865 0.14027159 0.11549379
00000000: 0bc1 14be ed8f 253d acae 903d 4ec7 67be
00000010: 58ca f2bd 722a 18be 2d0a 74bd 3426 043e
00000020: 6a42 a9bd 589c 83be 76d0 8cbd 2d57 8abd
00000030: e329 df3d bc42 a2bd 33eb 823d 64e4 303e
00000040: 6285 033e 9d4a ef3d 7b83 28bd bfd0 52bc
00000050: 1223 3cbd dcf1 aa3c 65df f13d 2e24 eabd
00000060: 541c 8c3d f603 a1bc feea 6fbc 0755 63bd
00000070: 822c 9e3d 2371 c53e bb02 403c d98b 233d
00000080: e1b9 e2bd 3fa7 903a 5dba afbd 8e7a 263d
00000090: c7fb 983d e4af 00bb 89d8 703d 5fdb b8bd
000000a0: 3cc8 9abd 5332 dfbd 63aa 72bd fb41 1ebe
000000b0: 6fec 2abd 5095 85bc ae34 eabd 677a 0c3e
000000c0: b777 1cbd 4f05 a13d e6a3 adbc d7bb 93bc
000000d0: 839e 19be 5b2c abbc fcda 213d 937b ad3c
000000e0: 7422 a83d f983 22be eb35 2cbe 97cd b5bd
000000f0: 3f21 25be 1129 efbc ec8e 0a3e 9c9e 4fbe
00000100: f378 a1bc 4a93 15be 9760 3ebe af1a 11be
00000110: dc53 de3d d149 f6bd 73aa c4bd bf01 363d
00000120: e436 d13d 5a7a 903c 4efa 313e 0eb7 19be
00000130: 6398 253d cb36 143e 5c7a 063e ad0b 183e
00000140: ddb8 813e bb11 4abd 1bc2 c4bd 5191 823d
00000150: 99a5 7f3d 1ac6 333e 2f3e a83d 0573 1dbe
00000160: 1d54 563e 6e7c 51bd beff 403d 24e0 803d
00000170: 6205 62be 50e7 653c 4227 4b3d bf8c acbc
00000180: 1e35 93bb 74e9 4d3c ce7d 143e 7fdd 54bd
00000190: 84bc 12be 3ea5 883d 124b 3cbe a7f0 1abe
000001a0: f51a c8bd bbf2 c7bd d56d 31bc 3abe b13c
000001b0: 4c80 333e e90e e8bd f6b4 7cbc 66ea a13d
000001c0: 7422 87bc f385 10be df9d 183d ca4c 1ebd
000001d0: ebda 3e3e 0185 4bbe 4cd1 983d 62ed 853b
000001e0: 01b8 1f3e f56c 85bc 1c44 8ebd a4ee 8e3e
000001f0: ba22 8dbd 4591 daba f5b2 703e 9d9a d0bc
00000200: 1310 4c3d e9d4 d8bd 5ce4 ce3c 3771 d73c
00000210: 9886 68be c62e a9bd ce02 1e3b 1928 c3bc
00000220: 751c db3c 8994 12be fb6a 0b3e 6fc8 a03c
00000230: a56b d43d 5f19 f3bc 82ca 6ebe 3d43 453d
00000240: fcc9 72be d28c 8a3d b3f5 01bd f806 2d3d
00000250: 528e 7abc 66ea 19be 5d27 3d3e 9a0d ab3c
00000260: b3b0 fbbd b1cb a0bd 4925 22be 5855 68bd
00000270: a0b6 cfbd 4323 5b3d 618d 32be 638a ea3d
00000280: e136 11be df94 f7bd f03f 01bd 2c6b ec3d
00000290: 14b3 4c3d 6354 2cbe 22af b83c 39fe 063d
000002a0: 0b13 7f3d 3627 83bd da6f d83c 6bee 093d
000002b0: acee 343e a23d 093e 97fe 2e3d e0a5 cf3d
000002c0: 0632 313e 1273 af3d c345 8f3e de81 db3d
000002d0: b64a 24be 056c adba 3e5b 82bd f046 1d3e
000002e0: 0fe2 37be 59f1 2f3e 2af4 86bd 2e7a 853d
000002f0: 0f64 21be 5761 bf3d 304d 423d 61be 693b
00000300: 40ec 1b3d 4eab f1bd c9eb 833e 41d7 733d
00000310: b485 7abd 671a f1bd 4b5d 143e b3d8 7fbc
00000320: 6c12 eb3d d05c e8bd bf54 653d 4695 943d
00000330: c0bc eebd 451a 433d a3f0 283d 1c1e aabd
00000340: d096 5a3d 19b8 8f3d ebd9 1b3e cfab 0abe
00000350: 88b2 6ebd 6f6e 7cbd 7d58 fc3d 2dc4 a53d
00000360: 67d9 00be 9c3b 9cbd 74f0 ba3d e03a 36bd
00000370: 5177 073d 66f1 bfbc a608 343c 0d6f 3b3d
00000380: 6ae6 c2bd 0b88 5ebd 030a 9cbc 7845 5f3d
00000390: 8608 97bb 9193 153d 015b bdbd 6dd9 9ebd
000003a0: 3dc0 35bc c697 523d b356 1ebe 2a9e c63d
000003b0: 14b2 473d d515 2cbd 97d2 2a3d 1359 d33d
000003c0: 0a69 29bd bc30 d3bd 1cb0 61be dfc1 053e
000003d0: 28d2 953e 1c41 99bd 2fe9 04bd ae4c 513e
000003e0: 973c 183d f699 9dbc 74a5 dcbd c138 4a3e
000003f0: 2be0 be3c 2398 a13c 5ba3 0f3e 0288 ec3d

l1.bias.rho f4 [400]
-3.0339856 -2.9116178 -3.0970137 -2.962184 -2.9041402 -3.0514355 -3.0813887 -3.1873515
-3.069711 -2.9456408 -3.0315776 -3.095149 -3.0983052 -2.889157 -3.0458686 -3.0342145
-3.1682413 -2.9862726 -2.9596994 -3.172305 -2.957878 -3.0019667 -3.1369095 -3.2839935
-3.1563816 -2.8266788 -3.0863712 -2.936598 -2.8249109 -3.1374006 -2.8615217 -3.0914817
-3.058505 -2.9654198 -2.997605 -2.7722278 -2.8957782 -3.0270014 -2.8483837 -2.9582124
-3.033939 -3.1622348 -3.0208726 -2.959219 -2.9649482 -3.0148542 -3.0306833 -2.9572427
-2.9973767 -3.0377793 -2.8589625 -3.0453014 -2.9713418 -3.0101876 -3.0304437 -2.9581268
-2.9617348 -2.9619231 -2.9308178 -3.0757906 -2.7732267 -2.9009871 -3.0904884 -3.2336574
-3.026382 -3.0562034 -3.0732808 -2.9606516 -3.1814573 -3.1168053 -2.9784758 -3.0286143
-2.9967892 -3.02095 -2.9733253 -2.9307945 -2.83498 -2.9362113 -2.8745863 -3.0449162
-2.9978666 -3.2163413 -2.9071765 -3.0090375 -2.9577157 -3.0926268 -3.0513349 -3.0560422
-3.084386 -2.92579 -3.031693 -3.0844355 -2.9939451 -2.95933 -2.8448563 -3.1584866
-2.9451072 -2.9297054 -2.9550467 -2.7989635 -2.926157 -3.148741 -2.9665248 -2.972348
-2.9931943 -2.9654148 -2.8198683 -3.1144996 -3.142345 -2.8536336 -3.0105693 -2.975057
-2.9236665 -3.014126 -2.7537491 -2.9987597 -3.1107452 -2.8831246 -3.238799 -3.0084841
-3.1593702 -3.1846783 -3.0915015 -3.019575 -2.8291702 -2.9486315 -3.0714474 -3.041419
-3.0009253 -3.0385926 -3.0669625 -2.9973571 -3.0921037 -2.7585 -3.1683726 -3.0494583
-2.9025998 -3.0873108 -3.0240188 -2.9707747 -2.9783516 -3.133778 -3.118723 -3.0703046
-3.0030365 -3.138456 -2.9676692 -2.9003115 -2.8603137 -3.060412 -2.961971 -2.9994586
-3.1059391 -3.1595159 -3.0814257 -3.06233 -2.8114552 -2.8200161 -2.961812 -2.9491
-2.964352 -2.8475873 -2.940851 -2.9930036 -2.878257 -2.9844916 -3.2964647 -3.2562175
-3.219647 -2.9501083 -2.9088917 -3.0052345 -2.7827873 -2.912342 -3.0105343 -2.8909671
-3.068019 -2.9501104 -2.7412405 -2.9432583 -3.0695481 -3.0465875 -3.0395603 -2.9883199
-2.7996516 -3.22056 -2.9384556 -2.9215767 -3.0867705 -2.9307826 -2.8868055 -3.0130708
-3.0746715 -3.0573545 -2.9172854 -3.0627894 -2.87991 -2.8832872 -2.85065 -2.8619287
-3.0525184 -3.1371996 -2.8336997 -2.9086614 -2.9220192 -3.1348855 -2.9455864 -2.7942717
-2.9738586 -3.079199 -2.9300375 -2.9996297 -3.0584881 -3.1405246 -2.9791174 -2.9002419
-3.0138593 -2.9788673 -3.1172516 -3.007844 -2.979124 -3.0091038 -3.0506134 -2.7293851
-3.0967476 -2.9895995 -2.8387167 -2.9745355 -3.007287 -2.9803271 -3.0135381 -3.1022158
-2.9544492 -2.9989965 -3.02728 -2.856923 -3.1118433 -3.0459416 -3.007322 -3.0970995
-2.8885756 -3.0292566 -3.0623193 -3.171645 -2.918708 -2.940967 -2.964705 -3.1646912
-2.931706 -2.9593291 -3.0976753 -3.022001 -3.117583 -2.9306939 -2.9338748 -3.0168397
00000000: d22c 42c0 f257 3ac0 7935 46c0 6c94 3dc0
00000010: 6fdd 39c0 b84a 43c0 7935 45c0 91fd 4bc0
00000020: 2576 44c0 6185 3cc0 5e05 42c0 ec16 46c0
00000030: a24a 46c0 f3e7 38c0 83ef 42c0 9230 42c0
00000040: 77c4 4ac0 171f 3fc0 b76b 3dc0 0c07 4bc0
00000050: e04d 3dc0 3920 40c0 20c3 48c0 f32c 52c0
00000060: 2802 4ac0 4ee8 34c0 1b87 45c0 39f1 3bc0
00000070: 57cb 34c0 2ccb 48c0 2c23 37c0 d6da 45c0
00000080: 8cbe 43c0 70c9 3dc0 c3d8 3fc0 2e6c 31c0
00000090: 6e54 39c0 64ba 41c0 eb4b 36c0 5a53 3dc0
000000a0: 0e2c 42c0 0e62 4ac0 fa55 41c0 d863 3dc0
000000b0: b6c1 3dc0 5ff3 40c0 b7f6 41c0 7743 3dc0
000000c0: 05d5 3fc0 fa6a 42c0 3ef9 36c0 38e6 42c0
000000d0: 772a 3ec0 eaa6 40c0 caf2 41c0 f351 3dc0
000000e0: 108d 3dc0 2690 3dc0 8592 3bc0 c1d9 44c0
000000f0: 8c7c 31c0 c6a9 39c0 90ca 45c0 3ef4 4ec0
00000100: 3eb0 41c0 d698 43c0 a2b0 44c0 517b 3dc0
00000110: ff9c 4bc0 bd79 47c0 599f 3ec0 d1d4 41c0
00000120: 65cb 3fc0 3f57 41c0 f64a 3ec0 2392 3bc0
00000130: 5070 35c0 e3ea 3bc0 39f9 37c0 e8df 42c0
00000140: 0cdd 3fc0 89d8 4dc0 2e0f 3ac0 1294 40c0
00000150: 374b 3dc0 99ed 45c0 1249 43c0 3296 43c0
00000160: 9566 45c0 2540 3bc0 4207 42c0 6467 45c0
00000170: cc9c 3fc0 aa65 3dc0 2012 36c0 a524 4ac0
00000180: a37c 3cc0 4b80 3bc0 7c1f 3dc0 3822 33c0
00000190: 2846 3bc0 f984 49c0 8bdb 3dc0 f33a 3ec0
000001a0: 7f90 3fc0 5bc9 3dc0 b978 34c0 f653 47c0
000001b0: 2e1c 49c0 efa1 36c0 2bad 40c0 5567 3ec0
000001c0: 5a1d 3bc0 71e7 40c0 6d3d 30c0 aeeb 3fc0
000001d0: 7316 47c0 1d85 38c0 7c48 4fc0 018b 40c0
000001e0: 1f33 4ac0 c5d1 4bc0 29db 45c0 b840 41c0
000001f0: 2011 35c0 61b6 3cc0 9892 44c0 9ca6 42c0
00000200: 290f 40c0 4d78 42c0 1d49 44c0 b3d4 3fc0
00000210: 07e5 45c0 448b 30c0 9ec6 4ac0 532a 43c0
00000220: 32c4 39c0 8096 45c0 8689 41c0 2c21 3ec0
00000230: 509d 3ec0 d28f 48c0 2899 47c0 df7f 44c0
00000240: c031 40c0 77dc 48c0 4bee 3dc0 b49e 39c0
00000250: 610f 37c0 cadd 43c0 ef90 3dc0 21f7 3fc0
00000260: b5c7 46c0 8235 4ac0 1436 45c0 37fd 43c0
00000270: e2ee 33c0 257b 34c0 548e 3dc0 0ebe 3cc0
00000280: f1b7 3dc0 df3e 36c0 e736 3cc0 5f8d 3fc0
00000290: 5d35 38c0 e901 3fc0 47f9 52c0 de65 50c0
000002a0: b20e 4ec0 93ce 3cc0 482b 3ac0 c355 40c0
000002b0: 3019 32c0 d063 3ac0 98ac 40c0 9b05 39c0
000002c0: 6c5a 44c0 9cce 3cc0 7c70 2fc0 585e 3cc0
000002d0: 7a73 44c0 4afb 42c0 2888 42c0 a240 3fc0
000002e0: 7e2d 33c0 a81d 4ec0 a80f 3cc0 1dfb 3ac0
000002f0: a68d 45c0 f191 3bc0 6cc1 38c0 27d6 40c0
00000300: 6bc7 44c0 b2ab 43c0 ceb4 3ac0 be04 44c0
00000310: 7250 38c0 c787 38c0 0d71 36c0 d729 37c0
00000320: 765c 43c0 e1c7 48c0 565b 35c0 8227 3ac0
00000330: 5d02 3bc0 f7a1 48c0 7d84 3cc0 59d5 32c0
00000340: b353 3ec0 9911 45c0 bc85 3bc0 eff9 3fc0
00000350: 45be 43c0 5bfe 48c0 dca9 3ec0 909d 39c0
00000360: 12e3 40c0 c3a5 3ec0 0d81 47c0 8480 40c0
00000370: f8a9 3ec0 2895 40c0 403d 43c0 3fae 2ec0
00000380: 1d31 46c0 9955 3fc0 89ad 35c0 ca5e 3ec0
00000390: 6477 40c0 aebd 3ec0 cfdd 40c0 b48a 46c0
000003a0: b215 3dc0 8fef 3fc0 f5be 41c0 d4d7 36c0
000003b0: 7128 47c0 b5f0 42c0 f777 40c0 e136 46c0
000003c0: 6cde 38c0 57df 41c0 0afd 43c0 3bfc 4ac0
000003d0: 1dcc 3ac0 ce38 3cc0 babd 3dc0 4d8a 4ac0
000003e0: 12a1 3bc0 a665 3dc0 5040 46c0 7768 41c0
000003f0: 7b86 47c0 7d90 3bc0 9bc4 3bc0 e713 41c0
