checkpoints_16_tasks/16_task_groups_PUGCL_epochs_:100_lr_:0.03_hidden_:400_task_order_:[ 4 15 13  3  6  2  1  8 11 10  5  0 12 14  9  7]/model_0.pth.tar (torch_old, 220285 bytes, 136 tensors)

l1.weight_mu f4 [400, 29]
0	0x3d085ce6	0.03329172
1	0xbe1f254c	-0.15541571
2	0xbdd43a9d	-0.10362742
3	0x3c4c2b4e	0.0124614965
4	0xbb0c7af4	-0.002143559
5	0x3c198d39	0.009372049
6	0xbd0675e7	-0.032827284
7	0x3dd8bdeb	0.10583099
8	0xbd5ee4b0	-0.054417312
9	0x3c74472d	0.014909548
10	0xbd76682d	-0.060157944
11	0xbd6e8d35	-0.058240134
12	0xbe4807c2	-0.1953421
13	0x3b62bb5a	0.0034596534
14	0xbcfadc9a	-0.03062277
15	0xbaa38d48	-0.0012478018
16	0xbcadff2d	-0.021239841
17	0x3d22edc3	0.03977753
18	0xbca23f9f	-0.019805728
19	0x3c9936b7	0.018702848
20	0xbe53d497	-0.20686565
21	0x3dbc89cb	0.092059694
22	0xbe255f00	-0.16149521
23	0xbd80f034	-0.06295815
24	0x3da9cd79	0.08291144
25	0x3a9830d6	0.0011611234
26	0x3d94ee90	0.07272065
27	0x3cbb4376	0.022859316
28	0xbcdbed1c	-0.026846461
29	0x3cbc2845	0.02296842
30	0x3dd1ca2f	0.102436416
31	0x3d9a38b7	0.07530349
32	0xbca24599	-0.019808577
33	0xbd22ad3a	-0.039715983
34	0x3e09d56b	0.13460319
35	0x3e9b7021	0.30358985
36	0xbdca07d9	-0.09864778
37	0x3ce33b8d	0.027738357
38	0x3e2b5ea6	0.16735324
39	0xbea41a0f	-0.3205113
40	0x3e99e23e	0.30055422
41	0xbcf54191	-0.029938491
42	0x3de10e0e	0.10989009
43	0x3d94b198	0.07260436
44	0x3de677a8	0.11253291
45	0xbdcb0a49	-0.09914071
46	0xbdb7dd7b	-0.08977791
47	0xbb890917	-0.004181992
48	0x3d302fda	0.043014385
49	0x3d4d7404	0.05015947
50	0x3d270828	0.040779263
51	0xbb0de641	-0.0021652135
52	0x3d9c3dd3	0.076289795
53	0x3cfdb1a9	0.030968504
54	0x3c8e30bd	0.017357225
55	0x3d8d94af	0.06913125
56	0x3cb8fdf9	0.022582041
57	0x3e2e6dd8	0.1703409
58	0xbdde3f84	-0.108519584
59	0x3da9dba8	0.08293849
60	0x3d795221	0.06086934
61	0x3dc454ee	0.095865116
62	0xbdc9dfbb	-0.09857126
63	0xbd73e38d	-0.05954318
64	0xbe03129d	-0.12800069
65	0xbdb049f7	-0.08607858
66	0xbdffcf5f	-0.12490725
67	0xbcf18eb5	-0.029486993
68	0x3c0038b8	0.007826023
69	0x3d0f5c22	0.034999974
70	0xbdd9c20a	-0.10632713
71	0x3e106fc3	0.14105134
72	0xbe4530a6	-0.19256839
73	0xbddaa0f9	-0.10675234
74	0x3c3b5063	0.01143274
75	0xbbdb3c03	-0.0066905036
76	0xbd13ea51	-0.036112133
77	0xbda1cd4e	-0.07900487
78	0x3e35774b	0.17721288
79	0xbc65b8bf	-0.014021098
80	0x3d4af148	0.04954651
81	0x3dac0874	0.0840005
82	0x3e0f83a3	0.14015059
83	0xbdc931b7	-0.098239355
84	0x3dcb9bbd	0.09941814
85	0xbde1bf2d	-0.11022792
86	0xbd81c659	-0.0633666
87	0xbdcf2009	-0.10113532
88	0xbda85405	-0.082191505
89	0xbd356834	-0.04428883
90	0x3daeb672	0.085308924
91	0x3da7707b	0.08175751
92	0x3dc0ff39	0.0942368
93	0x3da237c3	0.07920792
94	0xbe55e021	-0.2088628
95	0xbaccb3db	-0.0015617566
96	0xbdeb12a6	-0.11478166
97	0xbd494006	-0.049133323
98	0x3c644165	0.013931607
99	0xbb1c0319	-0.0023805557
100	0x3e1f65e2	0.15566209
101	0xbe25c7f5	-0.16189559
102	0x3b7cee0d	0.0038594038
103	0xbbe9b2a2	-0.0071318904
104	0x3d2732b6	0.040819846
105	0x3c0ee5e5	0.008721803
106	0xbd830a1b	-0.06398412
107	0x3d4c8f20	0.049941182
108	0xbd33aaba	-0.04386399
109	0x3cf0513a	0.029335607
110	0xbd345a3d	-0.04403137
111	0x3e1672ce	0.14692232
112	0xbb06554b	-0.0020497616
113	0xbbfe5496	-0.0077615483
114	0xbc15401e	-0.009109525
115	0x3caf4e4b	0.021399638
116	0xbda88ccb	-0.08229979
117	0xbd15c76b	-0.036567133
118	0xbc19c8a1	-0.009386213
119	0x3e4a3ca6	0.19749698
120	0xbe22a7d5	-0.15884335
121	0xbe0cebd6	-0.1376184
122	0x3c6e688f	0.014551296
123	0x3e047eb3	0.12938957
124	0x3e150105	0.1455117
125	0x3cb11d27	0.021620346
126	0x3d1b89fe	0.037973396
127	0xbe0ae0d5	-0.13562329
128	0xbdb8930b	-0.09012421
129	0xbe4c0290	-0.19922853
130	0x3adbb427	0.0016762064
131	0x3ccd91cf	0.025093941
132	0xbcffeabf	-0.031239865
133	0xbe5aea31	-0.213784
134	0xbe15cb5d	-0.14628358
135	0xbbb503ce	-0.005524135
136	0xbd9968eb	-0.07490715
137	0x3cc2b3bc	0.023767345
138	0xbd9e26d9	-0.07722253
139	0xbc792a05	-0.015207772
140	0xbc89506f	-0.016761987
141	0xbcfdde8e	-0.030989911
142	0xbe0cb421	-0.13740589
143	0x3e5be777	0.21475016
144	0x3e3a12ee	0.18171284
145	0x3e2a4312	0.16627148
146	0xbce5f937	-0.028072936
147	0xbb1c0f03	-0.0023812659
148	0x3cc377fd	0.023860926
149	0x3d36ca1c	0.04462634
150	0x3ca327ee	0.0199165
151	0x3c1c10f2	0.009525524
152	0x3e2f3067	0.17108308
153	0xbc5a44fd	-0.013322112
154	0x3e00c988	0.12576878
155	0xbdd52401	-0.10407258
156	0x3e15c4af	0.1462581
157	0x3e761cdd	0.24034448
158	0x3e17b105	0.14813621
159	0x3e3b929f	0.1831765
160	0x3c9498f3	0.018139338
161	0x3ddbd644	0.10734227
162	0xbcc4a649	-0.024005072
163	0xbdffd6ae	-0.12492119
164	0x3d8fb02a	0.070160225
165	0x3d4405ff	0.04785728
166	0xbce58d19	-0.028021382
167	0x3df16cca	0.11788328
168	0x3dcff432	0.101539984
169	0x3d552d1f	0.052044984
170	0x3e41b22c	0.18915623
171	0x3d8b020c	0.067875
172	0xbd1073e6	-0.03526678
173	0xbdf5e6d2	-0.12006916
174	0xbd24c091	-0.040222708
175	0xbe0ef299	-0.13959731
176	0x3da01070	0.07815635
177	0xbd024a76	-0.031809293
178	0x3d99951e	0.07499145
179	0xbd6f5902	-0.058434494
180	0xbe0889db	-0.13333838
181	0x3da25dc0	0.07928038
182	0x3d43afc2	0.047775038
183	0xbda324d6	-0.0796601
184	0x3c1a033e	0.009400187
185	0xbe01036f	-0.12598966
186	0x3d3511ae	0.044206314
187	0x3d3a3fa3	0.045470845
188	0x3c9c4618	0.019076392
189	0xbd061750	-0.032737076
190	0xbdd5025d	-0.104008414
191	0xbe58336a	-0.21113363
192	0xbe73e3cc	-0.23817366
193	0x3d42ea13	0.04758651
194	0xbda47216	-0.08029573
195	0x3e14b1cd	0.1452095
196	0x3e241f33	0.16027527
197	0xbe0b8181	-0.1362362
198	0xbd3333fb	-0.043750744
199	0x3da38b8c	0.07985601
200	0xbd1f5ce8	-0.03890696
201	0x3e47e90f	0.19522499
202	0x3d62b138	0.05534479
203	0xbda5ca14	-0.08095184
204	0x3e1cabef	0.15299962
205	0xbe045b02	-0.12925342
206	0x3db6c10d	0.0892354
207	0xbc9c0ff8	-0.019050583
208	0x3ccff0a2	0.025383297
209	0x3d66c5ed	0.0563411
210	0xbc7e32ec	-0.01551507
211	0xbd7d3156	-0.06181463
212	0xbcbda500	-0.023149967
213	0x3be5f002	0.0070171366
214	0x3d22429c	0.039614305
215	0xbe1c05b7	-0.15236555
216	0x3da9aada	0.082845405
217	0x3da66deb	0.08126434
218	0x3e8b1f14	0.27172148
219	0x3db7a0f2	0.08966245
220	0x3d0b7d69	0.034055147
221	0xbc33c599	-0.010972404
222	0x3d1e24b8	0.038609236
223	0x3d5e386d	0.05425303
224	0xbe5f4596	-0.21803889
225	0xbce672c7	-0.028130902
226	0xbdcef428	-0.10105163
227	0xbce5c09e	-0.028045949
228	0xbdad5de6	-0.08465175
229	0x3d26da7f	0.040735718
230	0xbd50cf9c	-0.05097924
231	0xbe0de44a	-0.13856617
232	0xbd9660eb	-0.073427044
233	0xbe4cd255	-0.2000211
234	0xbc2da17e	-0.010597585
235	0xbdd39a15	-0.10332123
236	0xbc330f98	-0.010929011
237	0x3d1e698d	0.03867488
238	0xbe16e656	-0.14736304
239	0xbe08c1aa	-0.13355127
240	0xbd6e9452	-0.058246918
241	0xbd85d17a	-0.06534095
242	0x3d4d3d60	0.05010736
243	0x3de82574	0.113352686
244	0xbddcae11	-0.10775388
245	0xbd50fb86	-0.05102112
246	0xbdbd72bc	-0.092503995
247	0xbcd332e8	-0.02578111
248	0xbdce0911	-0.10060323
249	0x3d1447b7	0.036201205
250	0x3e1e22df	0.1544299
251	0xbc8b3005	-0.016990671
252	0x3d52c153	0.0514539
253	0xbb33edca	-0.0027454966
254	0xba8cbce3	-0.0010737445
255	0x3b856049	0.004070316

l1.weight_rho f4 [400, 29]
0	0xc045c8e4	-3.0903864
1	0xc041130a	-3.016787
2	0xc03d04b6	-2.9534125
3	0xc0375348	-2.864458
4	0xc04464ed	-3.06866
5	0xc03df220	-2.9679031
6	0xc03c0646	-2.937883
7	0xc03bdae5	-2.9352353
8	0xc0423e5a	-3.0350556
9	0xc044d648	-3.0755787
10	0xc0437fe2	-3.0546803
11	0xc042002a	-3.03126
12	0xc045ee68	-3.0926762
13	0xc03e69ff	-2.9752195
14	0xc035625b	-2.8341281
15	0xc03a257d	-2.908538
16	0xc03b9acf	-2.9313238
17	0xc042863e	-3.0394435
18	0xc03be25d	-2.935691
19	0xc045460a	-3.0823998
20	0xc03e9f7c	-2.9784842
21	0xc03c9eb2	-2.947186
22	0xc03d11e4	-2.954217
23	0xc03c7ccf	-2.9451177
24	0xc045f1e3	-3.0928886
25	0xc04cbfab	-3.1991985
26	0xc044abea	-3.0729928
27	0xc036c916	-2.8560233
28	0xc044e566	-3.0765014
29	0xc0351ced	-2.8298905
30	0xc04614da	-3.0950227
31	0xc03d54fe	-2.9583125
32	0xc0407ab9	-3.0074904
33	0xc0411f0d	-3.0175202
34	0xc03b6939	-2.9282973
35	0xc0442d0b	-3.0652492
36	0xc031e671	-2.77969
37	0xc03e9383	-2.9777534
38	0xc03a5793	-2.911595
39	0xc04303f1	-3.0471156
40	0xc03e8883	-2.977082
41	0xc03ab16e	-2.9170794
42	0xc03f663d	-2.9906151
43	0xc04134e6	-3.0188537
44	0xc03fd485	-2.9973462
45	0xc040b6ec	-3.0111647
46	0xc03c99cb	-2.9468868
47	0xc0412eee	-3.0184894
48	0xc0434e3d	-3.0516503
49	0xc0402dbe	-3.002792
50	0xc035eb36	-2.8424811
51	0xc040043b	-3.0002582
52	0xc04588ab	-3.0864666
53	0xc0437fce	-3.0546756
54	0xc03b1730	-2.9232903
55	0xc03426ca	-2.8148675
56	0xc046d13e	-3.1065211
57	0xc0492ef1	-3.14349
58	0xc0432ab9	-3.0494826
59	0xc03b6f9f	-2.9286878
60	0xc02f1e41	-2.7362216
61	0xc03825fe	-2.8773189
62	0xc040e51c	-3.0139837
63	0xc0367b68	-2.8512821
64	0xc048d932	-3.1382565
65	0xc037a515	-2.8694508
66	0xc0465ba6	-3.0993438
67	0xc036712a	-2.850657
68	0xc03607c9	-2.8442252
69	0xc03f4b9e	-2.9889903
70	0xc04401fe	-3.0626216
71	0xc040ac6b	-3.0105236
72	0xc03f9360	-2.99337
73	0xc0380382	-2.875214
74	0xc043be4e	-3.0584903
75	0xc043c034	-3.0586061
76	0xc040460d	-3.0042756
77	0xc03fce63	-2.9969718
78	0xc04a3658	-3.1595669
79	0xc046a888	-3.1040363
80	0xc03c6014	-2.9433641
81	0xc044bc6d	-3.0740006
82	0xc04217d2	-3.0327039
83	0xc0407cec	-3.0076246
84	0xc042387b	-3.0346973
85	0xc043d3a2	-3.059792
86	0xc042a0b5	-3.0410588
87	0xc0452b91	-3.080784
88	0xc03c3ccd	-2.941211
89	0xc03abc27	-2.917734
90	0xc0408285	-3.0079663
91	0xc049d3b9	-3.1535475
92	0xc04150b9	-3.020552
93	0xc04d664c	-3.2093687
94	0xc04c2aa2	-3.190102
95	0xc03df7ff	-2.9682615
96	0xc0339245	-2.8058026
97	0xc03ec617	-2.9808404
98	0xc0424a34	-3.035779
99	0xc040a1b3	-3.0098693
100	0xc03c54df	-2.9426801
101	0xc03a8d76	-2.914884
102	0xc048316b	-3.1280162
103	0xc03d5a4e	-2.9586368
104	0xc0394140	-2.8946075
105	0xc0473731	-3.1127436
106	0xc0468f05	-3.1024792
107	0xc045d1d1	-3.0909312
108	0xc0430ac0	-3.0475311
109	0xc049e316	-3.1544852
110	0xc03817e7	-2.876459
111	0xc0436004	-3.0527353
112	0xc03b8373	-2.929898
113	0xc03b5d48	-2.9275684
114	0xc0413327	-3.018747
115	0xc04532ab	-3.0812175
116	0xc0425d7d	-3.036956
117	0xc03b3d2c	-2.9256086
118	0xc044559d	-3.0677254
119	0xc0429ff4	-3.0410128
120	0xc03fcd31	-2.996899
121	0xc0434a83	-3.0514228
122	0xc0426468	-3.0373783
123	0xc040cda0	-3.0125504
124	0xc040d8f4	-3.0132418
125	0xc043e491	-3.0608256
126	0xc047feac	-3.124919
127	0xc04dd8bc	-3.2163534
128	0xc040cdca	-3.0125604
129	0xc0427381	-3.0382998
130	0xc04ed3fa	-3.231688
131	0xc03a3540	-2.9095001
132	0xc04479f8	-3.0699444
133	0xc03b09ab	-2.922465
134	0xc034ff84	-2.8280954
135	0xc04968fd	-3.147033
136	0xc0412ee4	-3.018487
137	0xc03cd368	-2.9504032
138	0xc03ddc0d	-2.9665558
139	0xc0424743	-3.0355995
140	0xc04cb647	-3.1986253
141	0xc0403887	-3.0034502
142	0xc045b767	-3.089319
143	0xc03692c5	-2.852708
144	0xc041dfcf	-3.0292852
145	0xc03bbac3	-2.933274
146	0xc036eb47	-2.8581102
147	0xc03f6170	-2.990322
148	0xc0410c53	-3.0163772
149	0xc041830d	-3.0236237
150	0xc0423fd0	-3.0351448
151	0xc0484b58	-3.1295986
152	0xc047453d	-3.113601
153	0xc03ec115	-2.9805348
154	0xc0423bf7	-3.03491
155	0xc042ab90	-3.0417213
156	0xc043df4b	-3.0605037
157	0xc03c38c1	-2.940964
158	0xc038ea55	-2.8893025
159	0xc03b24de	-2.9241252
160	0xc0388384	-2.883027
161	0xc04542c3	-3.0821998
162	0xc03ef3bb	-2.9836261
163	0xc03ce53b	-2.951491
164	0xc043810c	-3.0547514
165	0xc03b31fa	-2.9249253
166	0xc03b57a4	-2.9272242
167	0xc034d965	-2.8257687
168	0xc03b959d	-2.9310067
169	0xc03f8798	-2.992651
170	0xc045e527	-3.0921113
171	0xc0457290	-3.0851173
172	0xc03f43a5	-2.9885037
173	0xc04311af	-3.0479543
174	0xc0414598	-3.0198727
175	0xc03e800e	-2.9765658
176	0xc0441148	-3.0635548
177	0xc03f7670	-2.9916039
178	0xc04683c4	-3.1017923
179	0xc048f0a1	-3.1396868
180	0xc037cf51	-2.8720286
181	0xc0486057	-3.13088
182	0xc03e3222	-2.9718099
183	0xc045c2db	-3.090018
184	0xc03833b1	-2.878155
185	0xc036506c	-2.8486586
186	0xc03f984d	-2.9936707
187	0xc0437062	-3.0537343
188	0xc041fd00	-3.031067
189	0xc04801b2	-3.1251035
190	0xc03d3381	-2.9562685
191	0xc043ba45	-3.058244
192	0xc0426129	-3.0371802
193	0xc043b615	-3.0579884
194	0xc03654a9	-2.8489172
195	0xc044938c	-3.0715055
196	0xc03f67b9	-2.9907057
197	0xc04ab4f8	-3.1672955
198	0xc03e396c	-2.9722548
199	0xc03e701b	-2.9755924
200	0xc0407e85	-3.0077221
201	0xc041340f	-3.0188024
202	0xc0368d52	-2.8523755
203	0xc0434d8c	-3.051608
204	0xc045772f	-3.0853994
205	0xc044c51b	-3.0745304
206	0xc03e5467	-2.9739015
207	0xc044a2b6	-3.072431
208	0xc043f331	-3.0617182
209	0xc044496c	-3.0669813
210	0xc03bf26e	-2.9366717
211	0xc0404a95	-3.0045521
212	0xc03e4fda	-2.9736238
213	0xc0497987	-3.1480424
214	0xc04732c3	-3.1124732
215	0xc03aef5a	-2.9208589
216	0xc03e63c2	-2.9748387
217	0xc04210c6	-3.0322738
218	0xc03a5568	-2.9114628
219	0xc047a0ec	-3.119197
220	0xc044a321	-3.0724566
221	0xc04b1c69	-3.173609
222	0xc03b0f4f	-2.9228094
223	0xc0388c3b	-2.883559
224	0xc036964e	-2.8529239
225	0xc03d1d50	-2.954914
226	0xc03ee146	-2.9824996
227	0xc0414c61	-3.0202868
228	0xc03765bf	-2.865585
229	0xc03a41d4	-2.9102678
230	0xc0491f2d	-3.1425278
231	0xc03d93c6	-2.9621444
232	0xc03e34e0	-2.9719772
233	0xc03cadda	-2.948111
234	0xc03d2252	-2.9552197
235	0xc03a184c	-2.907733
236	0xc046c62f	-3.1058462
237	0xc042c388	-3.0431843
238	0xc03b5729	-2.9271948
239	0xc0385d71	-2.8807032
240	0xc0438265	-3.0548337
241	0xc03aa970	-2.9165916
242	0xc04c9445	-3.1965497
243	0xc047c10b	-3.1211574
244	0xc0381c13	-2.8767135
245	0xc0435b36	-3.052442
246	0xc038955c	-2.8841162
247	0xc0436465	-3.0530026
248	0xc03d594b	-2.958575
249	0xc0495475	-3.1457798
250	0xc03c8444	-2.9455729
251	0xc047a72f	-3.119579
252	0xc0434f0f	-3.0517004
253	0xc041d733	-3.0287597
254	0xc03b5c87	-2.9275224
255	0xc040d482	-3.0129704

l1.bias_mu f4 [400]
0	0xbe12025b	-0.14258711
1	0x3df8df01	0.121519096
2	0x3c4a51bd	0.0123485895
3	0xbe6f458f	-0.23366378
4	0xbe16ab62	-0.14713815
5	0xbc7965db	-0.015222038
6	0xbdcc1a5a	-0.09965964
7	0xbdd7df36	-0.10540621
8	0xbda75e15	-0.081722416
9	0xbe80a476	-0.25125474
10	0xbd9bbf1c	-0.076048106
11	0xbd966ea3	-0.07345321
12	0x3de3a6a1	0.11115766
13	0xbd9d9476	-0.07694332
14	0x3d9cd058	0.07656926
15	0x3e50a479	0.20375241
16	0x3d529477	0.05141112
17	0x3e8ffb89	0.28121594
18	0xbd878a3f	-0.06618165
19	0x3d6f86eb	0.058478277
20	0xbc05c9b8	-0.008165769
21	0xbd363c70	-0.04449123
22	0xbd0337f3	-0.03203578
23	0xbe0a4afb	-0.13505165
24	0xbc487ee9	-0.012237289
25	0x3ca96d27	0.02068193
26	0x3b0951ed	0.0020953373
27	0xbd7267dd	-0.059181083
28	0xbd5cdaf8	-0.053919762
29	0x3ed07419	0.40713575
30	0xbaa4bf31	-0.0012569187
31	0x3d2c5eb6	0.04208251
32	0xbdb1642e	-0.08661686
33	0x3b24f5ee	0.0025171
34	0xbddf954b	-0.10917147
35	0x3cfe1623	0.031016415
36	0x3df37a78	0.118885934
37	0xbb8022b0	-0.003910385
38	0x3bd65840	0.006541282
39	0x3cf4d794	0.029887952
40	0xbdcef987	-0.10106187
41	0xbddd29df	-0.10799002
42	0xbd36045d	-0.044437755
43	0x3cbd04dc	0.023073606
44	0xbd7882f3	-0.060671758
45	0x3b549250	0.0032435842
46	0xbdf851eb	-0.121249996
47	0x3e7260dc	0.23669761
48	0xbd7ac0c6	-0.061219
49	0x3e1b7203	0.15180211
50	0xbd14298f	-0.036172446
51	0xbd258d88	-0.040418178
52	0xbe48277a	-0.19546309
53	0xba26e2b9	-0.0006366182
54	0x3c394de1	0.011310072
55	0xbd087390	-0.033313334
56	0xbc2c1bca	-0.010504672
57	0xbe0db12c	-0.13837117
58	0xbe3ab0ee	-0.18231556
59	0xbd6108ce	-0.054940037
60	0xbc375c23	-0.011191401
61	0xbda50ea8	-0.08059436
62	0xbcdd1f63	-0.026992505
63	0xbe4f0ca4	-0.20219666
64	0xbb06afe5	-0.0020551619
65	0xbe2680fd	-0.16260143
66	0xbe30e538	-0.1727494
67	0xbe12c36a	-0.14332357
68	0x3e9940fd	0.29932395
69	0xbe17634f	-0.14783977
70	0xbdfcc082	-0.123414055
71	0xbcc1f461	-0.0236761
72	0x3d91e671	0.07124031
73	0x3db8b238	0.090183675
74	0x3e0d8be3	0.13822894
75	0xbe1afec7	-0.15136252
76	0xbc93937c	-0.018014662
77	0x3ce06891	0.027393611
78	0x3a8aa39a	0.0010577322
79	0x3e10ebb1	0.14152409
80	0x3e8b022a	0.2715009
81	0xbda33925	-0.07969884
82	0xbdb18408	-0.08667761
83	0x3e3aa405	0.18226631
84	0x3d7face0	0.062420726
85	0x3e0b3bc9	0.13597025
86	0x3e02ea91	0.12784792
87	0xbdf773d7	-0.120826416
88	0x3e389c7f	0.18028449
89	0xbd82ebc5	-0.06392626
90	0x3d580b92	0.05274541
91	0x3eb202ae	0.3476767
92	0xbe1b12e2	-0.15143922
93	0x3b108e1e	0.0022057365
94	0x3d9488ca	0.07252653
95	0x3c685b2e	0.014181895
96	0x3dca70d7	0.09884804
97	0xbc71451b	-0.014725949
98	0x3ea30c9b	0.31845555
99	0xbd29fcab	-0.04150073
100	0xbdf8bd6a	-0.12145503
101	0x3d94cae7	0.07265263
102	0xbe320edb	-0.1738848
103	0xbe281b75	-0.16416724
104	0xbdca8c37	-0.09890025
105	0xbd0ad237	-0.033891883
106	0x3bb61416	0.0055565936
107	0xbcef7676	-0.029231291
108	0x3e908036	0.28222817
109	0xbe120161	-0.14258339
110	0x3cc95435	0.024576286
111	0x3d813a39	0.06309933
112	0x3d6af90f	0.057366427
113	0xbe0aa793	-0.13540487
114	0xbd591a36	-0.053003512
115	0x3cbc40b7	0.022980077
116	0x3e6f9001	0.23394777
117	0xbe366d40	-0.17815113
118	0x3d8eac66	0.06966476
119	0x3dd4fae7	0.10399418
120	0x3e3573e8	0.17719996
121	0xbc93b63d	-0.018031234
122	0xbda8f3db	-0.08249637
123	0x3e1a5f8c	0.1507551
124	0x3ddc9c85	0.10772041
125	0x3c0f769a	0.008756304
126	0x3c926c28	0.017873839
127	0xbc7e8307	-0.015534169
128	0x3ceee41e	0.02916151
129	0xbdcb8a4a	-0.09938486
130	0x3c94f315	0.018182317
131	0xbd55373c	-0.05205463
132	0xbe6b879b	-0.23000948
133	0xbdb69d63	-0.08916738
134	0x3de46326	0.111517236
135	0xbcf97381	-0.030450584
136	0x3d0414b4	0.032246307
137	0xbe46c53f	-0.19411181
138	0x3dde8b2a	0.10866387
139	0x3d75695b	0.059914928
140	0x3cbaf7fa	0.022823323
141	0x3e4211f1	0.18952157
142	0xbe8b7be6	-0.27242965
143	0x3d0e203e	0.034698717
144	0xbe765ce7	-0.24058877
145	0x3db387c0	0.08766127
146	0xbc8be36e	-0.01707622
147	0x3cc5a562	0.024126712
148	0xbd0aba0e	-0.03386884
149	0xbdd5167c	-0.10404679
150	0x3cdde700	0.027087688
151	0xbc827b52	-0.015927944
152	0xbe586c2b	-0.21135013
153	0xbdfef93f	-0.12449884
154	0xbe047ecf	-0.12938999
155	0xbdcc0f12	-0.09963812
156	0xbddbd8fa	-0.10734744
157	0x3d7b22dd	0.061312545
158	0xbe372980	-0.17886925
159	0x3ae197fd	0.0017211434
160	0xbe2b46bb	-0.167262
161	0xbde834a5	-0.11338166
162	0xbda21550	-0.07914221
163	0x3dd3d573	0.103434466
164	0x3e136a5c	0.14396042
165	0xbe33bdc3	-0.17552857
166	0x3d498c01	0.049205784
167	0x3c8cdf23	0.017196244
168	0x3ced4821	0.028965058
169	0x3dcd585b	0.10026618
170	0x3cb97086	0.022636663
171	0x3e5f81ad	0.21826811
172	0x3e285d58	0.16441858
173	0x3debc5c4	0.1151233
174	0x3d232a74	0.03983541
175	0x3e0b18b3	0.13583641
176	0x3e3d7392	0.18501118
177	0x3de2de47	0.11077552
178	0x3e652239	0.22376336
179	0xbcbe4140	-0.023224473
180	0xbd490ff0	-0.049087465
181	0x3ccf376d	0.025294984
182	0xbd235c06	-0.039882682
183	0x3de48aef	0.11159312
184	0xbe3c8939	-0.18411721
185	0x3da19e7e	0.07891558
186	0xbcdc4400	-0.026887894
187	0x3d423c8b	0.04742102
188	0xbe1ba98a	-0.15201393
189	0x3ccee0ec	0.025253735
190	0x3dcf67af	0.10127198
191	0x3c35c24e	0.011093689
192	0x3ca02726	0.019549917
193	0xbd192d07	-0.037396457
194	0x3dfd3ef0	0.1236552
195	0x3ce6bdbe	0.028166648
196	0xbd60cffe	-0.054885857
197	0xbe21df3b	-0.15807812
198	0x3ddebdd3	0.1087605
199	0xbd4bbd23	-0.04974092
200	0x3d8a6e78	0.067593515
201	0xbb04d7f6	-0.0020270324
202	0x3dd666dd	0.10468838
203	0x3e480a15	0.19535096
204	0xbdbbf7a0	-0.0917809
205	0x3c0a23fa	0.008431429
206	0x3e59e2f9	0.2127799
207	0xbda5d21d	-0.080967166
208	0xbd6a8808	-0.057258636
209	0x3e61b368	0.22041094
210	0x3df00f4e	0.11721669
211	0x3bcc40fe	0.0062333336
212	0xbdf82f42	-0.12118389
213	0xbd97004b	-0.07373103
214	0xbd097886	-0.033562206
215	0x3d538e52	0.0516494
216	0xbdd19f11	-0.10235418
217	0xbdae478a	-0.08509739
218	0x3d9caf33	0.07650604
219	0xbd2efd4f	-0.042722043
220	0x3cdd91a1	0.02704698
221	0xbca5f574	-0.020258643
222	0xbd05fc0b	-0.03271107
223	0x3deceff1	0.11569203
224	0xbdbef17d	-0.09323404
225	0xbda8145d	-0.08207009
226	0xbde36349	-0.111029215
227	0x3c4bc913	0.012438077
228	0xbc368c2d	-0.011141819
229	0x3dd8b7b4	0.105819136
230	0xbdb353bf	-0.08756208
231	0xbbfb9d96	-0.007678698
232	0x3ca0c71e	0.019626196
233	0x3d8d7d81	0.069087036
234	0xbe1dae82	-0.153986
235	0x3dc12d2d	0.09432445
236	0x3d006f65	0.031356234
237	0xbd914154	-0.070925385
238	0x3db0d65d	0.086346366
239	0x3d78a391	0.060702864
240	0xbc99d332	-0.018777464
241	0xbe0169b3	-0.12637977
242	0xbe6142fa	-0.21998206
243	0x3e640d68	0.22270739
244	0x3e3b688f	0.18301605
245	0xbda5e3d0	-0.081000924
246	0xbd4ef9ea	-0.050531305
247	0x3e465beb	0.19371001
248	0x3d4d24d4	0.05008395
249	0xbc48d78c	-0.012258422
250	0xbdfe435b	-0.12415191
251	0x3e7eda37	0.2488793
252	0x3d283879	0.04106948
253	0x3c980d7a	0.018561114
254	0xbbdbd725	-0.006708997
255	0x3dc078c0	0.09398031

l1.bias_rho f4 [400]
0	0xc0422c5f	-3.0339582
1	0xc03a5a47	-2.91176
2	0xc04643a3	-3.0978782
3	0xc03deb33	-2.9674804
4	0xc039f258	-2.9054165
5	0xc0434d91	-3.0516093
6	0xc0456fe6	-3.0849547
7	0xc04c0952	-3.1880689
8	0xc0447f70	-3.0702782
9	0xc03ca8ec	-2.9478102
10	0xc0422943	-3.0337684
11	0xc0461aea	-3.0953927
12	0xc04655de	-3.098991
13	0xc038e8e5	-2.8892148
14	0xc043072d	-3.047313
15	0xc0422cf3	-3.0339935
16	0xc04abfef	-3.1679647
17	0xc03f2446	-2.986589
18	0xc03dc744	-2.9652872
19	0xc04ae88f	-3.1704443
20	0xc03cf669	-2.9525397
21	0xc040985d	-3.0092995
22	0xc048e1de	-3.1387858
23	0xc0523347	-3.2843797
24	0xc04a029f	-3.15641
25	0xc0348d52	-2.8211255
26	0xc0459b8c	-3.0876188
27	0xc03bfdf3	-2.9373748
28	0xc03596e9	-2.8373358
29	0xc048c85e	-3.1372294
30	0xc037312b	-2.862376
31	0xc045cfb9	-3.0908034
32	0xc043a603	-3.0570076
33	0xc03d8dd8	-2.9617825
34	0xc03fe73f	-2.9984891
35	0xc0316252	-2.771626
36	0xc03957cb	-2.8959835
37	0xc041c451	-3.0276072
38	0xc036799a	-2.851172
39	0xc03d4baa	-2.9577432
40	0xc042262f	-3.0335805
41	0xc04a6226	-3.1622405
42	0xc04151cd	-3.0206177
43	0xc03d40cc	-2.95708
44	0xc03dd904	-2.9663706
45	0xc040cfcd	-3.0126832
46	0xc0421049	-3.032244
47	0xc03d3483	-2.95633
48	0xc03fd3d6	-2.9973044
49	0xc0426d5c	-3.0379248
50	0xc0372e45	-2.862199
51	0xc042c7a4	-3.043435
52	0xc03e432d	-2.97285
53	0xc040873a	-3.0082536
54	0xc0422e59	-3.0340788
55	0xc03d87f2	-2.9614224
56	0xc03dad32	-2.963696
57	0xc03dd5ba	-2.9661698
58	0xc03bafeb	-2.9326122
59	0xc044cd03	-3.075013
60	0xc0314697	-2.7699335
61	0xc039d3a6	-2.903543
62	0xc0461881	-3.0952456
63	0xc04ef59c	-3.2337408
64	0xc0417379	-3.022673
65	0xc043abe8	-3.0573673
66	0xc044ba94	-3.0738878
67	0xc03d7e41	-2.960831
68	0xc04b7b5d	-3.1794045
69	0xc047a981	-3.1197207
70	0xc03eae0b	-2.9793727
71	0xc041f128	-3.030344
72	0xc03fe22c	-2.9981794
73	0xc04121c2	-3.0176854
74	0xc03e56bc	-2.9740438
75	0xc03b95a5	-2.9310086
76	0xc0355ba9	-2.8337195
77	0xc03c7edd	-2.9452431
78	0xc03801da	-2.875113
79	0xc042acd5	-3.0417988
80	0xc03ffaec	-2.99969
81	0xc04dea15	-3.2174122
82	0xc03a0268	-2.9063969
83	0xc040642b	-3.0061138
84	0xc03d4a9c	-2.9576788
85	0xc045c7b2	-3.0903134
86	0xc0434b74	-3.0514803
87	0xc04392fd	-3.0558465
88	0xc045969d	-3.0873177
89	0xc03b6408	-2.9279804
90	0xc04217a9	-3.032694
91	0xc0454599	-3.082373
92	0xc03f9ac8	-2.993822
93	0xc03d7e5f	-2.960838
94	0xc0363095	-2.8467152
95	0xc04a001e	-3.1562572
96	0xc03c894a	-2.9458795
97	0xc03b88a4	-2.930215
98	0xc03d1956	-2.9546714
99	0xc0334bba	-2.801497
100	0xc03b3d51	-2.9256175
101	0xc0497c28	-3.148203
102	0xc03dd223	-2.9659507
103	0xc03e3989	-2.9722617
104	0xc03f8ed0	-2.9930916
105	0xc03d6d84	-2.9598093
106	0xc0345cd0	-2.8181648
107	0xc047717a	-3.116301
108	0xc0492b5f	-3.1432722
109	0xc036e75b	-2.8578708
110	0xc040a73d	-3.0102074
111	0xc03e7471	-2.975857
112	0xc03b1d23	-2.9236534
113	0xc040f469	-3.0149176
114	0xc030c034	-2.7617311
115	0xc03fe839	-2.9985487
116	0xc0471162	-3.110436
117	0xc0387b57	-2.882528
118	0xc04f496b	-3.238856
119	0xc0406ff8	-3.006834
120	0xc04a2008	-3.158205
121	0xc04bd30b	-3.184756
122	0xc045e144	-3.0918741
123	0xc0414e4f	-3.0204046
124	0xc034cdb4	-2.8250551
125	0xc03cdb0e	-2.95087
126	0xc044bd5e	-3.074058
127	0xc04289bd	-3.0396569
128	0xc040182c	-3.0014753
129	0xc042968a	-3.0404382
130	0xc0444ef0	-3.067318
131	0xc03fd849	-2.997576
132	0xc045df60	-3.0917587
133	0xc030b043	-2.7607582
134	0xc04adaf1	-3.1696131
135	0xc043451f	-3.0510938
136	0xc039ad40	-2.9011993
137	0xc045ca50	-3.0904732
138	0xc0417723	-3.0228965
139	0xc03e2577	-2.9710367
140	0xc03ea59b	-2.9788578
141	0xc048920b	-3.1339138
142	0xc047a1fe	-3.1192622
143	0xc0448d82	-3.071137
144	0xc04030f5	-3.002988
145	0xc048f8b0	-3.1401787
146	0xc03de0bb	-2.9668415
147	0xc039d68d	-2.9037201
148	0xc0371ffe	-2.8613276
149	0xc043fa91	-3.0621684
150	0xc03dcac5	-2.965501
151	0xc0403ac3	-3.0035865
152	0xc046c88b	-3.1059902
153	0xc04a4ae1	-3.1608202
154	0xc045474b	-3.0824764
155	0xc043c97a	-3.0591722
156	0xc033f8ac	-2.8120527
157	0xc0345b87	-2.8180864
158	0xc03d9f68	-2.9628544
159	0xc03cf316	-2.9523368
160	0xc03ded25	-2.9675992
161	0xc03637a7	-2.8471467
162	0xc03c7e97	-2.9452264
163	0xc03f55b1	-2.9896052
164	0xc0383551	-2.8782542
165	0xc03efb84	-2.9841013
166	0xc052da4d	-3.294574
167	0xc0507ebe	-3.2577357
168	0xc04e0521	-3.219063
169	0xc03c4518	-2.9417171
170	0xc03a3020	-2.9091873
171	0xc04026cb	-3.0023677
172	0xc031c60f	-2.7777135
173	0xc03a83f9	-2.914305
174	0xc040eb15	-3.0143483
175	0xc038dc3f	-2.8884428
176	0xc0446824	-3.0688562
177	0xc03ca78a	-2.9477258
178	0xc02f65b4	-2.7405825
179	0xc03c8abf	-2.9459684
180	0xc0446b3b	-3.0690448
181	0xc043143e	-3.0481105
182	0xc04281ca	-3.0391717
183	0xc03f4fd2	-2.9892468
184	0xc0333e15	-2.8006642
185	0xc04e3158	-3.2217617
186	0xc03be851	-2.9360545
187	0xc03afa6a	-2.921534
188	0xc045771d	-3.085395
189	0xc03bbe1a	-2.9334779
190	0xc0386b0b	-2.8815334
191	0xc040b2b4	-3.0109072
192	0xc044edba	-3.0770097
193	0xc043856c	-3.0550184
194	0xc03ad920	-2.9195023
195	0xc0441b4b	-3.0641658
196	0xc0384ea8	-2.8798008
197	0xc0389671	-2.8841822
198	0xc0367763	-2.8510368
199	0xc0379bec	-2.8688917
200	0xc0437e8d	-3.054599
201	0xc04880a7	-3.1328523
202	0xc0354f65	-2.8329709
203	0xc03a27a4	-2.9086695
204	0xc03ade23	-2.9198081
205	0xc04899ab	-3.1343791
206	0xc03c7d69	-2.9451544
207	0xc03295a7	-2.790384
208	0xc03e7632	-2.975964
209	0xc044caa5	-3.0748684
210	0xc03b8841	-2.9301913
211	0xc03fa73e	-2.9945827
212	0xc043ba13	-3.058232
213	0xc048ea26	-3.1392913
214	0xc03edec4	-2.9823465
215	0xc039985a	-2.8999238
216	0xc040bf47	-3.0116746
217	0xc03ef24a	-2.9835382
218	0xc0478b79	-3.1178877
219	0xc0405dee	-3.005733
220	0xc03e966e	-2.9779315
221	0xc0409000	-3.008789
222	0xc0435b07	-3.0524309
223	0xc02e86b1	-2.726971
224	0xc0462d30	-3.096508
225	0xc03f8240	-2.9923248
226	0xc0361139	-2.8448012
227	0xc03e6613	-2.97498
228	0xc040a84d	-3.0102723
229	0xc03e8450	-2.9768257
230	0xc040e310	-3.0138588
231	0xc0468408	-3.1018085
232	0xc03d4135	-2.957105
233	0xc0400337	-3.0001962
234	0xc041bf01	-3.027283
235	0xc036d339	-2.856642
236	0xc0471d19	-3.111151
237	0xc042f6a6	-3.0463042
238	0xc04063b6	-3.0060859
239	0xc0463e8d	-3.0975678
240	0xc038db94	-2.888402
241	0xc0420f61	-3.0321887
242	0xc043fd8c	-3.0623503
243	0xc04b0745	-3.1723187
244	0xc03a9bd1	-2.9157603
245	0xc03c28b7	-2.939985
246	0xc03ddcaa	-2.9665933
247	0xc04a9848	-3.1655445
248	0xc03b65de	-2.9280925
249	0xc03d30a5	-2.956094
250	0xc0464d5f	-3.0984724
251	0xc04168f5	-3.022031
252	0xc0475b70	-3.114956
253	0xc03b9a57	-2.9312952
254	0xc03c1784	-2.9389353
255	0xc041029a	-3.0157838

l1.weight.mu f4 [400, 29]
0	0x3d085ce6	0.03329172
1	0xbe1f254c	-0.15541571
2	0xbdd43a9d	-0.10362742
3	0x3c4c2b4e	0.0124614965
4	0xbb0c7af4	-0.002143559
5	0x3c198d39	0.009372049
6	0xbd0675e7	-0.032827284
7	0x3dd8bdeb	0.10583099
8	0xbd5ee4b0	-0.054417312
9	0x3c74472d	0.014909548
10	0xbd76682d	-0.060157944
11	0xbd6e8d35	-0.058240134
12	0xbe4807c2	-0.1953421
13	0x3b62bb5a	0.0034596534
14	0xbcfadc9a	-0.03062277
15	0xbaa38d48	-0.0012478018
16	0xbcadff2d	-0.021239841
17	0x3d22edc3	0.03977753
18	0xbca23f9f	-0.019805728
19	0x3c9936b7	0.018702848
20	0xbe53d497	-0.20686565
21	0x3dbc89cb	0.092059694
22	0xbe255f00	-0.16149521
23	0xbd80f034	-0.06295815
24	0x3da9cd79	0.08291144
25	0x3a9830d6	0.0011611234
26	0x3d94ee90	0.07272065
27	0x3cbb4376	0.022859316
28	0xbcdbed1c	-0.026846461
29	0x3cbc2845	0.02296842
30	0x3dd1ca2f	0.102436416
31	0x3d9a38b7	0.07530349
32	0xbca24599	-0.019808577
33	0xbd22ad3a	-0.039715983
34	0x3e09d56b	0.13460319
35	0x3e9b7021	0.30358985
36	0xbdca07d9	-0.09864778
37	0x3ce33b8d	0.027738357
38	0x3e2b5ea6	0.16735324
39	0xbea41a0f	-0.3205113
40	0x3e99e23e	0.30055422
41	0xbcf54191	-0.029938491
42	0x3de10e0e	0.10989009
43	0x3d94b198	0.07260436
44	0x3de677a8	0.11253291
45	0xbdcb0a49	-0.09914071
46	0xbdb7dd7b	-0.08977791
47	0xbb890917	-0.004181992
48	0x3d302fda	0.043014385
49	0x3d4d7404	0.05015947
50	0x3d270828	0.040779263
51	0xbb0de641	-0.0021652135
52	0x3d9c3dd3	0.076289795
53	0x3cfdb1a9	0.030968504
54	0x3c8e30bd	0.017357225
55	0x3d8d94af	0.06913125
56	0x3cb8fdf9	0.022582041
57	0x3e2e6dd8	0.1703409
58	0xbdde3f84	-0.108519584
59	0x3da9dba8	0.08293849
60	0x3d795221	0.06086934
61	0x3dc454ee	0.095865116
62	0xbdc9dfbb	-0.09857126
63	0xbd73e38d	-0.05954318
64	0xbe03129d	-0.12800069
65	0xbdb049f7	-0.08607858
66	0xbdffcf5f	-0.12490725
67	0xbcf18eb5	-0.029486993
68	0x3c0038b8	0.007826023
69	0x3d0f5c22	0.034999974
70	0xbdd9c20a	-0.10632713
71	0x3e106fc3	0.14105134
72	0xbe4530a6	-0.19256839
73	0xbddaa0f9	-0.10675234
74	0x3c3b5063	0.01143274
75	0xbbdb3c03	-0.0066905036
76	0xbd13ea51	-0.036112133
77	0xbda1cd4e	-0.07900487
78	0x3e35774b	0.17721288
79	0xbc65b8bf	-0.014021098
80	0x3d4af148	0.04954651
81	0x3dac0874	0.0840005
82	0x3e0f83a3	0.14015059
83	0xbdc931b7	-0.098239355
84	0x3dcb9bbd	0.09941814
85	0xbde1bf2d	-0.11022792
86	0xbd81c659	-0.0633666
87	0xbdcf2009	-0.10113532
88	0xbda85405	-0.082191505
89	0xbd356834	-0.04428883
90	0x3daeb672	0.085308924
91	0x3da7707b	0.08175751
92	0x3dc0ff39	0.0942368
93	0x3da237c3	0.07920792
94	0xbe55e021	-0.2088628
95	0xbaccb3db	-0.0015617566
96	0xbdeb12a6	-0.11478166
97	0xbd494006	-0.049133323
98	0x3c644165	0.013931607
99	0xbb1c0319	-0.0023805557
100	0x3e1f65e2	0.15566209
101	0xbe25c7f5	-0.16189559
102	0x3b7cee0d	0.0038594038
103	0xbbe9b2a2	-0.0071318904
104	0x3d2732b6	0.040819846
105	0x3c0ee5e5	0.008721803
106	0xbd830a1b	-0.06398412
107	0x3d4c8f20	0.049941182
108	0xbd33aaba	-0.04386399
109	0x3cf0513a	0.029335607
110	0xbd345a3d	-0.04403137
111	0x3e1672ce	0.14692232
112	0xbb06554b	-0.0020497616
113	0xbbfe5496	-0.0077615483
114	0xbc15401e	-0.009109525
115	0x3caf4e4b	0.021399638
116	0xbda88ccb	-0.08229979
117	0xbd15c76b	-0.036567133
118	0xbc19c8a1	-0.009386213
119	0x3e4a3ca6	0.19749698
120	0xbe22a7d5	-0.15884335
121	0xbe0cebd6	-0.1376184
122	0x3c6e688f	0.014551296
123	0x3e047eb3	0.12938957
124	0x3e150105	0.1455117
125	0x3cb11d27	0.021620346
126	0x3d1b89fe	0.037973396
127	0xbe0ae0d5	-0.13562329
128	0xbdb8930b	-0.09012421
129	0xbe4c0290	-0.19922853
130	0x3adbb427	0.0016762064
131	0x3ccd91cf	0.025093941
132	0xbcffeabf	-0.031239865
133	0xbe5aea31	-0.213784
134	0xbe15cb5d	-0.14628358
135	0xbbb503ce	-0.005524135
136	0xbd9968eb	-0.07490715
137	0x3cc2b3bc	0.023767345
138	0xbd9e26d9	-0.07722253
139	0xbc792a05	-0.015207772
140	0xbc89506f	-0.016761987
141	0xbcfdde8e	-0.030989911
142	0xbe0cb421	-0.13740589
143	0x3e5be777	0.21475016
144	0x3e3a12ee	0.18171284
145	0x3e2a4312	0.16627148
146	0xbce5f937	-0.028072936
147	0xbb1c0f03	-0.0023812659
148	0x3cc377fd	0.023860926
149	0x3d36ca1c	0.04462634
150	0x3ca327ee	0.0199165
151	0x3c1c10f2	0.009525524
152	0x3e2f3067	0.17108308
153	0xbc5a44fd	-0.013322112
154	0x3e00c988	0.12576878
155	0xbdd52401	-0.10407258
156	0x3e15c4af	0.1462581
157	0x3e761cdd	0.24034448
158	0x3e17b105	0.14813621
159	0x3e3b929f	0.1831765
160	0x3c9498f3	0.018139338
161	0x3ddbd644	0.10734227
162	0xbcc4a649	-0.024005072
163	0xbdffd6ae	-0.12492119
164	0x3d8fb02a	0.070160225
165	0x3d4405ff	0.04785728
166	0xbce58d19	-0.028021382
167	0x3df16cca	0.11788328
168	0x3dcff432	0.101539984
169	0x3d552d1f	0.052044984
170	0x3e41b22c	0.18915623
171	0x3d8b020c	0.067875
172	0xbd1073e6	-0.03526678
173	0xbdf5e6d2	-0.12006916
174	0xbd24c091	-0.040222708
175	0xbe0ef299	-0.13959731
176	0x3da01070	0.07815635
177	0xbd024a76	-0.031809293
178	0x3d99951e	0.07499145
179	0xbd6f5902	-0.058434494
180	0xbe0889db	-0.13333838
181	0x3da25dc0	0.07928038
182	0x3d43afc2	0.047775038
183	0xbda324d6	-0.0796601
184	0x3c1a033e	0.009400187
185	0xbe01036f	-0.12598966
186	0x3d3511ae	0.044206314
187	0x3d3a3fa3	0.045470845
188	0x3c9c4618	0.019076392
189	0xbd061750	-0.032737076
190	0xbdd5025d	-0.104008414
191	0xbe58336a	-0.21113363
192	0xbe73e3cc	-0.23817366
193	0x3d42ea13	0.04758651
194	0xbda47216	-0.08029573
195	0x3e14b1cd	0.1452095
196	0x3e241f33	0.16027527
197	0xbe0b8181	-0.1362362
198	0xbd3333fb	-0.043750744
199	0x3da38b8c	0.07985601
200	0xbd1f5ce8	-0.03890696
201	0x3e47e90f	0.19522499
202	0x3d62b138	0.05534479
203	0xbda5ca14	-0.08095184
204	0x3e1cabef	0.15299962
205	0xbe045b02	-0.12925342
206	0x3db6c10d	0.0892354
207	0xbc9c0ff8	-0.019050583
208	0x3ccff0a2	0.025383297
209	0x3d66c5ed	0.0563411
210	0xbc7e32ec	-0.01551507
211	0xbd7d3156	-0.06181463
212	0xbcbda500	-0.023149967
213	0x3be5f002	0.0070171366
214	0x3d22429c	0.039614305
215	0xbe1c05b7	-0.15236555
216	0x3da9aada	0.082845405
217	0x3da66deb	0.08126434
218	0x3e8b1f14	0.27172148
219	0x3db7a0f2	0.08966245
220	0x3d0b7d69	0.034055147
221	0xbc33c599	-0.010972404
222	0x3d1e24b8	0.038609236
223	0x3d5e386d	0.05425303
224	0xbe5f4596	-0.21803889
225	0xbce672c7	-0.028130902
226	0xbdcef428	-0.10105163
227	0xbce5c09e	-0.028045949
228	0xbdad5de6	-0.08465175
229	0x3d26da7f	0.040735718
230	0xbd50cf9c	-0.05097924
231	0xbe0de44a	-0.13856617
232	0xbd9660eb	-0.073427044
233	0xbe4cd255	-0.2000211
234	0xbc2da17e	-0.010597585
235	0xbdd39a15	-0.10332123
236	0xbc330f98	-0.010929011
237	0x3d1e698d	0.03867488
238	0xbe16e656	-0.14736304
239	0xbe08c1aa	-0.13355127
240	0xbd6e9452	-0.058246918
241	0xbd85d17a	-0.06534095
242	0x3d4d3d60	0.05010736
243	0x3de82574	0.113352686
244	0xbddcae11	-0.10775388
245	0xbd50fb86	-0.05102112
246	0xbdbd72bc	-0.092503995
247	0xbcd332e8	-0.02578111
248	0xbdce0911	-0.10060323
249	0x3d1447b7	0.036201205
250	0x3e1e22df	0.1544299
251	0xbc8b3005	-0.016990671
252	0x3d52c153	0.0514539
253	0xbb33edca	-0.0027454966
254	0xba8cbce3	-0.0010737445
255	0x3b856049	0.004070316

l1.weight.rho f4 [400, 29]
0	0xc045c8e4	-3.0903864
1	0xc041130a	-3.016787
2	0xc03d04b6	-2.9534125
3	0xc0375348	-2.864458
4	0xc04464ed	-3.06866
5	0xc03df220	-2.9679031
6	0xc03c0646	-2.937883
7	0xc03bdae5	-2.9352353
8	0xc0423e5a	-3.0350556
9	0xc044d648	-3.0755787
10	0xc0437fe2	-3.0546803
11	0xc042002a	-3.03126
12	0xc045ee68	-3.0926762
13	0xc03e69ff	-2.9752195
14	0xc035625b	-2.8341281
15	0xc03a257d	-2.908538
16	0xc03b9acf	-2.9313238
17	0xc042863e	-3.0394435
18	0xc03be25d	-2.935691
19	0xc045460a	-3.0823998
20	0xc03e9f7c	-2.9784842
21	0xc03c9eb2	-2.947186
22	0xc03d11e4	-2.954217
23	0xc03c7ccf	-2.9451177
24	0xc045f1e3	-3.0928886
25	0xc04cbfab	-3.1991985
26	0xc044abea	-3.0729928
27	0xc036c916	-2.8560233
28	0xc044e566	-3.0765014
29	0xc0351ced	-2.8298905
30	0xc04614da	-3.0950227
31	0xc03d54fe	-2.9583125
32	0xc0407ab9	-3.0074904
33	0xc0411f0d	-3.0175202
34	0xc03b6939	-2.9282973
35	0xc0442d0b	-3.0652492
36	0xc031e671	-2.77969
37	0xc03e9383	-2.9777534
38	0xc03a5793	-2.911595
39	0xc04303f1	-3.0471156
40	0xc03e8883	-2.977082
41	0xc03ab16e	-2.9170794
42	0xc03f663d	-2.9906151
43	0xc04134e6	-3.0188537
44	0xc03fd485	-2.9973462
45	0xc040b6ec	-3.0111647
46	0xc03c99cb	-2.9468868
47	0xc0412eee	-3.0184894
48	0xc0434e3d	-3.0516503
49	0xc0402dbe	-3.002792
50	0xc035eb36	-2.8424811
51	0xc040043b	-3.0002582
52	0xc04588ab	-3.0864666
53	0xc0437fce	-3.0546756
54	0xc03b1730	-2.9232903
55	0xc03426ca	-2.8148675
56	0xc046d13e	-3.1065211
57	0xc0492ef1	-3.14349
58	0xc0432ab9	-3.0494826
59	0xc03b6f9f	-2.9286878
60	0xc02f1e41	-2.7362216
61	0xc03825fe	-2.8773189
62	0xc040e51c	-3.0139837
63	0xc0367b68	-2.8512821
64	0xc048d932	-3.1382565
65	0xc037a515	-2.8694508
66	0xc0465ba6	-3.0993438
67	0xc036712a	-2.850657
68	0xc03607c9	-2.8442252
69	0xc03f4b9e	-2.9889903
70	0xc04401fe	-3.0626216
71	0xc040ac6b	-3.0105236
72	0xc03f9360	-2.99337
73	0xc0380382	-2.875214
74	0xc043be4e	-3.0584903
75	0xc043c034	-3.0586061
76	0xc040460d	-3.0042756
77	0xc03fce63	-2.9969718
78	0xc04a3658	-3.1595669
79	0xc046a888	-3.1040363
80	0xc03c6014	-2.9433641
81	0xc044bc6d	-3.0740006
82	0xc04217d2	-3.0327039
83	0xc0407cec	-3.0076246
84	0xc042387b	-3.0346973
85	0xc043d3a2	-3.059792
86	0xc042a0b5	-3.0410588
87	0xc0452b91	-3.080784
88	0xc03c3ccd	-2.941211
89	0xc03abc27	-2.917734
90	0xc0408285	-3.0079663
91	0xc049d3b9	-3.1535475
92	0xc04150b9	-3.020552
93	0xc04d664c	-3.2093687
94	0xc04c2aa2	-3.190102
95	0xc03df7ff	-2.9682615
96	0xc0339245	-2.8058026
97	0xc03ec617	-2.9808404
98	0xc0424a34	-3.035779
99	0xc040a1b3	-3.0098693
100	0xc03c54df	-2.9426801
101	0xc03a8d76	-2.914884
102	0xc048316b	-3.1280162
103	0xc03d5a4e	-2.9586368
104	0xc0394140	-2.8946075
105	0xc0473731	-3.1127436
106	0xc0468f05	-3.1024792
107	0xc045d1d1	-3.0909312
108	0xc0430ac0	-3.0475311
109	0xc049e316	-3.1544852
110	0xc03817e7	-2.876459
111	0xc0436004	-3.0527353
112	0xc03b8373	-2.929898
113	0xc03b5d48	-2.9275684
114	0xc0413327	-3.018747
115	0xc04532ab	-3.0812175
116	0xc0425d7d	-3.036956
117	0xc03b3d2c	-2.9256086
118	0xc044559d	-3.0677254
119	0xc0429ff4	-3.0410128
120	0xc03fcd31	-2.996899
121	0xc0434a83	-3.0514228
122	0xc0426468	-3.0373783
123	0xc040cda0	-3.0125504
124	0xc040d8f4	-3.0132418
125	0xc043e491	-3.0608256
126	0xc047feac	-3.124919
127	0xc04dd8bc	-3.2163534
128	0xc040cdca	-3.0125604
129	0xc0427381	-3.0382998
130	0xc04ed3fa	-3.231688
131	0xc03a3540	-2.9095001
132	0xc04479f8	-3.0699444
133	0xc03b09ab	-2.922465
134	0xc034ff84	-2.8280954
135	0xc04968fd	-3.147033
136	0xc0412ee4	-3.018487
137	0xc03cd368	-2.9504032
138	0xc03ddc0d	-2.9665558
139	0xc0424743	-3.0355995
140	0xc04cb647	-3.1986253
141	0xc0403887	-3.0034502
142	0xc045b767	-3.089319
143	0xc03692c5	-2.852708
144	0xc041dfcf	-3.0292852
145	0xc03bbac3	-2.933274
146	0xc036eb47	-2.8581102
147	0xc03f6170	-2.990322
148	0xc0410c53	-3.0163772
149	0xc041830d	-3.0236237
150	0xc0423fd0	-3.0351448
151	0xc0484b58	-3.1295986
152	0xc047453d	-3.113601
153	0xc03ec115	-2.9805348
154	0xc0423bf7	-3.03491
155	0xc042ab90	-3.0417213
156	0xc043df4b	-3.0605037
157	0xc03c38c1	-2.940964
158	0xc038ea55	-2.8893025
159	0xc03b24de	-2.9241252
160	0xc0388384	-2.883027
161	0xc04542c3	-3.0821998
162	0xc03ef3bb	-2.9836261
163	0xc03ce53b	-2.951491
164	0xc043810c	-3.0547514
165	0xc03b31fa	-2.9249253
166	0xc03b57a4	-2.9272242
167	0xc034d965	-2.8257687
168	0xc03b959d	-2.9310067
169	0xc03f8798	-2.992651
170	0xc045e527	-3.0921113
171	0xc0457290	-3.0851173
172	0xc03f43a5	-2.9885037
173	0xc04311af	-3.0479543
174	0xc0414598	-3.0198727
175	0xc03e800e	-2.9765658
176	0xc0441148	-3.0635548
177	0xc03f7670	-2.9916039
178	0xc04683c4	-3.1017923
179	0xc048f0a1	-3.1396868
180	0xc037cf51	-2.8720286
181	0xc0486057	-3.13088
182	0xc03e3222	-2.9718099
183	0xc045c2db	-3.090018
184	0xc03833b1	-2.878155
185	0xc036506c	-2.8486586
186	0xc03f984d	-2.9936707
187	0xc0437062	-3.0537343
188	0xc041fd00	-3.031067
189	0xc04801b2	-3.1251035
190	0xc03d3381	-2.9562685
191	0xc043ba45	-3.058244
192	0xc0426129	-3.0371802
193	0xc043b615	-3.0579884
194	0xc03654a9	-2.8489172
195	0xc044938c	-3.0715055
196	0xc03f67b9	-2.9907057
197	0xc04ab4f8	-3.1672955
198	0xc03e396c	-2.9722548
199	0xc03e701b	-2.9755924
200	0xc0407e85	-3.0077221
201	0xc041340f	-3.0188024
202	0xc0368d52	-2.8523755
203	0xc0434d8c	-3.051608
204	0xc045772f	-3.0853994
205	0xc044c51b	-3.0745304
206	0xc03e5467	-2.9739015
207	0xc044a2b6	-3.072431
208	0xc043f331	-3.0617182
209	0xc044496c	-3.0669813
210	0xc03bf26e	-2.9366717
211	0xc0404a95	-3.0045521
212	0xc03e4fda	-2.9736238
213	0xc0497987	-3.1480424
214	0xc04732c3	-3.1124732
215	0xc03aef5a	-2.9208589
216	0xc03e63c2	-2.9748387
217	0xc04210c6	-3.0322738
218	0xc03a5568	-2.9114628
219	0xc047a0ec	-3.119197
220	0xc044a321	-3.0724566
221	0xc04b1c69	-3.173609
222	0xc03b0f4f	-2.9228094
223	0xc0388c3b	-2.883559
224	0xc036964e	-2.8529239
225	0xc03d1d50	-2.954914
226	0xc03ee146	-2.9824996
227	0xc0414c61	-3.0202868
228	0xc03765bf	-2.865585
229	0xc03a41d4	-2.9102678
230	0xc0491f2d	-3.1425278
231	0xc03d93c6	-2.9621444
232	0xc03e34e0	-2.9719772
233	0xc03cadda	-2.948111
234	0xc03d2252	-2.9552197
235	0xc03a184c	-2.907733
236	0xc046c62f	-3.1058462
237	0xc042c388	-3.0431843
238	0xc03b5729	-2.9271948
239	0xc0385d71	-2.8807032
240	0xc0438265	-3.0548337
241	0xc03aa970	-2.9165916
242	0xc04c9445	-3.1965497
243	0xc047c10b	-3.1211574
244	0xc0381c13	-2.8767135
245	0xc0435b36	-3.052442
246	0xc038955c	-2.8841162
247	0xc0436465	-3.0530026
248	0xc03d594b	-2.958575
249	0xc0495475	-3.1457798
250	0xc03c8444	-2.9455729
251	0xc047a72f	-3.119579
252	0xc0434f0f	-3.0517004
253	0xc041d733	-3.0287597
254	0xc03b5c87	-2.9275224
255	0xc040d482	-3.0129704

l1.bias.mu f4 [400]
0	0xbe12025b	-0.14258711
1	0x3df8df01	0.121519096
2	0x3c4a51bd	0.0123485895
3	0xbe6f458f	-0.23366378
4	0xbe16ab62	-0.14713815
5	0xbc7965db	-0.015222038
6	0xbdcc1a5a	-0.09965964
7	0xbdd7df36	-0.10540621
8	0xbda75e15	-0.081722416
9	0xbe80a476	-0.25125474
10	0xbd9bbf1c	-0.076048106
11	0xbd966ea3	-0.07345321
12	0x3de3a6a1	0.11115766
13	0xbd9d9476	-0.07694332
14	0x3d9cd058	0.07656926
15	0x3e50a479	0.20375241
16	0x3d529477	0.05141112
17	0x3e8ffb89	0.28121594
18	0xbd878a3f	-0.06618165
19	0x3d6f86eb	0.058478277
20	0xbc05c9b8	-0.008165769
21	0xbd363c70	-0.04449123
22	0xbd0337f3	-0.03203578
23	0xbe0a4afb	-0.13505165
24	0xbc487ee9	-0.012237289
25	0x3ca96d27	0.02068193
26	0x3b0951ed	0.0020953373
27	0xbd7267dd	-0.059181083
28	0xbd5cdaf8	-0.053919762
29	0x3ed07419	0.40713575
30	0xbaa4bf31	-0.0012569187
31	0x3d2c5eb6	0.04208251
32	0xbdb1642e	-0.08661686
33	0x3b24f5ee	0.0025171
34	0xbddf954b	-0.10917147
35	0x3cfe1623	0.031016415
36	0x3df37a78	0.118885934
37	0xbb8022b0	-0.003910385
38	0x3bd65840	0.006541282
39	0x3cf4d794	0.029887952
40	0xbdcef987	-0.10106187
41	0xbddd29df	-0.10799002
42	0xbd36045d	-0.044437755
43	0x3cbd04dc	0.023073606
44	0xbd7882f3	-0.060671758
45	0x3b549250	0.0032435842
46	0xbdf851eb	-0.121249996
47	0x3e7260dc	0.23669761
48	0xbd7ac0c6	-0.061219
49	0x3e1b7203	0.15180211
50	0xbd14298f	-0.036172446
51	0xbd258d88	-0.040418178
52	0xbe48277a	-0.19546309
53	0xba26e2b9	-0.0006366182
54	0x3c394de1	0.011310072
55	0xbd087390	-0.033313334
56	0xbc2c1bca	-0.010504672
57	0xbe0db12c	-0.13837117
58	0xbe3ab0ee	-0.18231556
59	0xbd6108ce	-0.054940037
60	0xbc375c23	-0.011191401
61	0xbda50ea8	-0.08059436
62	0xbcdd1f63	-0.026992505
63	0xbe4f0ca4	-0.20219666
64	0xbb06afe5	-0.0020551619
65	0xbe2680fd	-0.16260143
66	0xbe30e538	-0.1727494
67	0xbe12c36a	-0.14332357
68	0x3e9940fd	0.29932395
69	0xbe17634f	-0.14783977
70	0xbdfcc082	-0.123414055
71	0xbcc1f461	-0.0236761
72	0x3d91e671	0.07124031
73	0x3db8b238	0.090183675
74	0x3e0d8be3	0.13822894
75	0xbe1afec7	-0.15136252
76	0xbc93937c	-0.018014662
77	0x3ce06891	0.027393611
78	0x3a8aa39a	0.0010577322
79	0x3e10ebb1	0.14152409
80	0x3e8b022a	0.2715009
81	0xbda33925	-0.07969884
82	0xbdb18408	-0.08667761
83	0x3e3aa405	0.18226631
84	0x3d7face0	0.062420726
85	0x3e0b3bc9	0.13597025
86	0x3e02ea91	0.12784792
87	0xbdf773d7	-0.120826416
88	0x3e389c7f	0.18028449
89	0xbd82ebc5	-0.06392626
90	0x3d580b92	0.05274541
91	0x3eb202ae	0.3476767
92	0xbe1b12e2	-0.15143922
93	0x3b108e1e	0.0022057365
94	0x3d9488ca	0.07252653
95	0x3c685b2e	0.014181895
96	0x3dca70d7	0.09884804
97	0xbc71451b	-0.014725949
98	0x3ea30c9b	0.31845555
99	0xbd29fcab	-0.04150073
100	0xbdf8bd6a	-0.12145503
101	0x3d94cae7	0.07265263
102	0xbe320edb	-0.1738848
103	0xbe281b75	-0.16416724
104	0xbdca8c37	-0.09890025
105	0xbd0ad237	-0.033891883
106	0x3bb61416	0.0055565936
107	0xbcef7676	-0.029231291
108	0x3e908036	0.28222817
109	0xbe120161	-0.14258339
110	0x3cc95435	0.024576286
111	0x3d813a39	0.06309933
112	0x3d6af90f	0.057366427
113	0xbe0aa793	-0.13540487
114	0xbd591a36	-0.053003512
115	0x3cbc40b7	0.022980077
116	0x3e6f9001	0.23394777
117	0xbe366d40	-0.17815113
118	0x3d8eac66	0.06966476
119	0x3dd4fae7	0.10399418
120	0x3e3573e8	0.17719996
121	0xbc93b63d	-0.018031234
122	0xbda8f3db	-0.08249637
123	0x3e1a5f8c	0.1507551
124	0x3ddc9c85	0.10772041
125	0x3c0f769a	0.008756304
126	0x3c926c28	0.017873839
127	0xbc7e8307	-0.015534169
128	0x3ceee41e	0.02916151
129	0xbdcb8a4a	-0.09938486
130	0x3c94f315	0.018182317
131	0xbd55373c	-0.05205463
132	0xbe6b879b	-0.23000948
133	0xbdb69d63	-0.08916738
134	0x3de46326	0.111517236
135	0xbcf97381	-0.030450584
136	0x3d0414b4	0.032246307
137	0xbe46c53f	-0.19411181
138	0x3dde8b2a	0.10866387
139	0x3d75695b	0.059914928
140	0x3cbaf7fa	0.022823323
141	0x3e4211f1	0.18952157
142	0xbe8b7be6	-0.27242965
143	0x3d0e203e	0.034698717
144	0xbe765ce7	-0.24058877
145	0x3db387c0	0.08766127
146	0xbc8be36e	-0.01707622
147	0x3cc5a562	0.024126712
148	0xbd0aba0e	-0.03386884
149	0xbdd5167c	-0.10404679
150	0x3cdde700	0.027087688
151	0xbc827b52	-0.015927944
152	0xbe586c2b	-0.21135013
153	0xbdfef93f	-0.12449884
154	0xbe047ecf	-0.12938999
155	0xbdcc0f12	-0.09963812
156	0xbddbd8fa	-0.10734744
157	0x3d7b22dd	0.061312545
158	0xbe372980	-0.17886925
159	0x3ae197fd	0.0017211434
160	0xbe2b46bb	-0.167262
161	0xbde834a5	-0.11338166
162	0xbda21550	-0.07914221
163	0x3dd3d573	0.103434466
164	0x3e136a5c	0.14396042
165	0xbe33bdc3	-0.17552857
166	0x3d498c01	0.049205784
167	0x3c8cdf23	0.017196244
168	0x3ced4821	0.028965058
169	0x3dcd585b	0.10026618
170	0x3cb97086	0.022636663
171	0x3e5f81ad	0.21826811
172	0x3e285d58	0.16441858
173	0x3debc5c4	0.1151233
174	0x3d232a74	0.03983541
175	0x3e0b18b3	0.13583641
176	0x3e3d7392	0.18501118
177	0x3de2de47	0.11077552
178	0x3e652239	0.22376336
179	0xbcbe4140	-0.023224473
180	0xbd490ff0	-0.049087465
181	0x3ccf376d	0.025294984
182	0xbd235c06	-0.039882682
183	0x3de48aef	0.11159312
184	0xbe3c8939	-0.18411721
185	0x3da19e7e	0.07891558
186	0xbcdc4400	-0.026887894
187	0x3d423c8b	0.04742102
188	0xbe1ba98a	-0.15201393
189	0x3ccee0ec	0.025253735
190	0x3dcf67af	0.10127198
191	0x3c35c24e	0.011093689
192	0x3ca02726	0.019549917
193	0xbd192d07	-0.037396457
194	0x3dfd3ef0	0.1236552
195	0x3ce6bdbe	0.028166648
196	0xbd60cffe	-0.054885857
197	0xbe21df3b	-0.15807812
198	0x3ddebdd3	0.1087605
199	0xbd4bbd23	-0.04974092
200	0x3d8a6e78	0.067593515
201	0xbb04d7f6	-0.0020270324
202	0x3dd666dd	0.10468838
203	0x3e480a15	0.19535096
204	0xbdbbf7a0	-0.0917809
205	0x3c0a23fa	0.008431429
206	0x3e59e2f9	0.2127799
207	0xbda5d21d	-0.080967166
208	0xbd6a8808	-0.057258636
209	0x3e61b368	0.22041094
210	0x3df00f4e	0.11721669
211	0x3bcc40fe	0.0062333336
212	0xbdf82f42	-0.12118389
213	0xbd97004b	-0.07373103
214	0xbd097886	-0.033562206
215	0x3d538e52	0.0516494
216	0xbdd19f11	-0.10235418
217	0xbdae478a	-0.08509739
218	0x3d9caf33	0.07650604
219	0xbd2efd4f	-0.042722043
220	0x3cdd91a1	0.02704698
221	0xbca5f574	-0.020258643
222	0xbd05fc0b	-0.03271107
223	0x3deceff1	0.11569203
224	0xbdbef17d	-0.09323404
225	0xbda8145d	-0.08207009
226	0xbde36349	-0.111029215
227	0x3c4bc913	0.012438077
228	0xbc368c2d	-0.011141819
229	0x3dd8b7b4	0.105819136
230	0xbdb353bf	-0.08756208
231	0xbbfb9d96	-0.007678698
232	0x3ca0c71e	0.019626196
233	0x3d8d7d81	0.069087036
234	0xbe1dae82	-0.153986
235	0x3dc12d2d	0.09432445
236	0x3d006f65	0.031356234
237	0xbd914154	-0.070925385
238	0x3db0d65d	0.086346366
239	0x3d78a391	0.060702864
240	0xbc99d332	-0.018777464
241	0xbe0169b3	-0.12637977
242	0xbe6142fa	-0.21998206
243	0x3e640d68	0.22270739
244	0x3e3b688f	0.18301605
245	0xbda5e3d0	-0.081000924
246	0xbd4ef9ea	-0.050531305
247	0x3e465beb	0.19371001
248	0x3d4d24d4	0.05008395
249	0xbc48d78c	-0.012258422
250	0xbdfe435b	-0.12415191
251	0x3e7eda37	0.2488793
252	0x3d283879	0.04106948
253	0x3c980d7a	0.018561114
254	0xbbdbd725	-0.006708997
255	0x3dc078c0	0.09398031
