checkpoints/16_tasks_test_UCB/model_7.pth.tar (torch_old, 418685 bytes, 136 tensors)

l1.weight_mu f4 [800, 29]
00000000: 84c2 963c c0c3 543d 976f e7bd 53e6 3d3d
00000010: 818d 9d3d 992d 903e 2f60 7c3d c2d6 613d
00000020: d925 583d 1946 c3bb 6ff2 fcbd 33c2 dc3d
00000030: dfdf cd3d 549a 663d 54c8 8fbd 36cc cd3d
00000040: f709 24be f29b 7e3d 5e3f d03d 90d5 bf3d
00000050: edf2 8a3d ba7a 7bbb f6a5 41bd ee86 ce3c
00000060: 5412 af3d 9b20 89bd 39dd 8ebd 4461 33be
00000070: 9205 0c3d e904 5b3b a24c 033c ed58 263d
00000080: 9b08 7e3d b894 86bc 4281 a73e 33b7 e53d
00000090: beb7 febb 8db8 1dbe 97f0 93bd 37b5 d43d
000000a0: 2594 c8bd 6e6e 12be c396 96bc 072b 10be
000000b0: 7eee c83d 8817 2dbe fcf4 cc3d 2fd3 b0bb
000000c0: 384d d63c f4a6 1f3d 0b03 45be 7f91 343e
000000d0: eeca f43d 0347 9b3e 1503 49be 3f36 f23c
000000e0: 0ffa 5f3d 7503 a7bd 14f5 043e c81f 433d
000000f0: 6038 8e3d 8fff 063e b1f5 9f3d 06ed f73d
00000100: b148 8bbd 0355 233e a3c9 2dbe e2e2 7dbe
00000110: 74ca a53d ca63 ea3d d416 04bd 2e8e f4bc
00000120: f85e 8bbd 439c c93d 930b 933d 47e0 dbbd
00000130: 7403 573e 6674 bebd ce8f 47bd 2e90 08be
00000140: a15a ce3d ef5a 2fbe cc03 953a a8ba aebd
00000150: 31a8 febd 0c6e c53d 55f7 693c 0d54 bbbc
00000160: 329e f4bd ade4 c1bd 4915 b83c 7584 68be
00000170: 240f 223e 7440 5a3e 05cd 3ebd 0ffa f3bd
00000180: 3461 963d bb05 c13d ae06 9bbe 5537 e83c
00000190: 96c7 0cbd 4bde c0bb 63c1 64bd 05f6 0a3d
000001a0: d265 b83c 7075 50ba 6987 753d f4e6 b73c
000001b0: 501e b2bd b268 843d 261c d83d bbd3 e1bd
000001c0: 9d73 e8bd 3f4a 03be c8a1 b73d 79a3 943c
000001d0: dc59 07be 5062 2ebd ebd2 d03d c4d7 81bc
000001e0: b2bf 11be cd20 fabb 06c4 bfbd 9dc6 ac3c
000001f0: 5f0a 46bc df3b 833d cca5 3d3d 72a4 703d
00000200: 8e0d d03c c4cb 593c e60f 74be c657 1cbe
00000210: e793 7e3d 0aae 51be d6a8 2cbe 7e74 373e
00000220: 9186 823d 5716 313e 0ad2 503e efca 64bd
00000230: 2acb 2ebd 5602 93bd dc6b d1bd 94cd d13c
00000240: 4cca d33d 7e0b 43bd 653c f6bd 1ca9 a23c
00000250: a11a 0d3e 0106 9abd aa56 973c e27e 14be
00000260: 5960 823d b568 e83d ccc0 7f3d 8478 85bc
00000270: c7e2 ec3d 4ac0 c93d 9bed 093d e575 d8bc
00000280: b5dd 2abe b3b3 12be 4ec8 68bd f844 f13d
00000290: 13f0 773d 1491 e03b 00a9 1b3d e49b b03d
000002a0: 0e54 39be ade1 2b3e e79a cdbd ee41 083e
000002b0: 64bd 3cbe 752b ea3d 95a4 1fbe c36f b8bd
000002c0: fbe3 95bd 163c 8f3d 9c19 243e 580d c13d
000002d0: d512 6bbc f8cc 143e 8a8b 50be a8f1 0bbd
000002e0: 27b4 ecbc ce07 d33d 41dc 613e b827 f83c
000002f0: 20f5 3cbe 888d 96bc 9ece de3b 9dd7 cabd
00000300: 880b a43c 2c43 483c af2b 42bd 96f5 823c
00000310: ae21 fb3a ff89 41be 23af d5bd ee90 18be
00000320: 2276 213e a537 a33b 967c b4bd 89df 6abe
00000330: 9fae 54bd 3b1f ea3d 4fd7 dbbd a5ad 56bc
00000340: ef67 87bd 8d87 623e bec5 3dbe 2122 103e
00000350: d1f2 383d c033 923d 9bbd 063e f1fa 843d
00000360: bc8d 36bd e707 543d 0200 233e 2b33 a3bc
00000370: 290a a4bd 1286 4cbd 16fc 91bd 4962 823d
00000380: 25e8 0a3e 7431 543d 7b62 37be b497 703d
00000390: 873a 173d 46f6 26be d7fe a0bd ca91 153e
000003a0: c935 3e3d 0c21 253e 5025 1d3e 253d 903e
000003b0: 7672 2bbe 3a5e bc3d 973e 823b 0f61 f93d
000003c0: 5b7a dfbc 3d53 e1bc 67d3 f93c bb70 08be
000003d0: 3e51 8b3d f0a1 4a3d d774 d83d 2eb6 ccbd
000003e0: 46cb cebc b058 083e 147e 4f3d f022 0ebe
000003f0: 0b81 b0bd 236f 1cbc a9af 35bc 78d6 e63a
0.0184033 0.051944494 -0.11300581 0.046362232 0.07693005 0.28159788 0.061615165 0.05513645
0.05277047 -0.005959284 -0.12350928 0.10779228 0.10052466 0.056299523 -0.070206314 0.10048716
-0.16019426 0.06216044 0.10168336 0.09366906 0.06784616 -0.0038372711 -0.047277413 0.025210824
0.08548418 -0.06695672 -0.069757886 -0.17517573 0.034185 0.0033419675 0.008013876 0.04061215
0.062019926 -0.016428337 0.32715803 0.11216583 -0.0077733686 -0.15402432 -0.07223623 0.103861265
-0.09793881 -0.14299938 -0.018382436 -0.14078914 0.09811114 -0.16903508 0.100076646 -0.005396269
0.026159868 0.03897758 -0.19239442 0.17633627 0.11952768 0.30327615 -0.19630082 0.029566882
0.054681834 -0.08154956 0.12984115 0.04763773 0.069443464 0.13183425 0.07810534 0.121057555
-0.06800974 0.15950398 -0.1697145 -0.2479358 0.080952555 0.114448145 -0.032248333 -0.029852953
-0.06805223 0.09844258 0.07179942 -0.10736137 0.20997411 -0.09299545 -0.048721127 -0.1333625
0.1007588 -0.17124532 0.0011368929 -0.085316956 -0.12434424 0.096401304 0.01428016 -0.022867227
-0.11944236 -0.094674446 0.022471087 -0.22706778 0.15826088 0.2131365 -0.04658224 -0.11912929
0.07342759 0.09424921 -0.30278534 0.028346697 -0.034370027 -0.0058858744 -0.05584849 0.03392603
0.02250949 -0.000795207 0.05994359 0.022448994 -0.08697188 0.064652815 0.10552244 -0.110267125
-0.113501765 -0.12821291 0.08966404 0.018144356 -0.13217872 -0.042574227 0.101964794 -0.015849955
-0.14233282 -0.0076333047 -0.093635604 0.0210908 -0.012087434 0.06407904 0.046300694 0.058750577
0.025397088 0.01329321 -0.2383419 -0.15267858 0.06215277 -0.20476547 -0.16861281 0.17915532
0.06373323 0.17293678 0.20392624 -0.055857595 -0.04267422 -0.0717818 -0.10225651 0.025610723
0.103413194 -0.04761838 -0.12023238 0.019856028 0.1377969 -0.075206764 0.018473942 -0.14501527
0.06366033 0.11348096 0.062439725 -0.016292818 0.11566692 0.09851129 0.033673864 -0.026423404
-0.16686137 -0.14326362 -0.05683165 0.11780733 0.060531687 0.006853232 0.038002968 0.08623484
-0.1809847 0.16785307 -0.10039311 0.133064 -0.18431622 0.1143407 -0.15590127 -0.09005692
-0.073188744 0.06993882 0.16025394 0.09426373 -0.014347752 0.14531314 -0.2036573 -0.03416601
-0.028894497 0.10304223 0.22056676 0.030292377 -0.18452883 -0.018378034 0.006799533 -0.09904406
0.02002503 0.012223046 -0.04740494 0.015986245 0.0019159818 -0.18900298 -0.10433795 -0.14899036
0.1576772 0.0049809986 -0.088128254 -0.22936834 -0.051924344 0.11431738 -0.10734426 -0.0131029235
-0.06611621 0.22122021 -0.18532464 0.14075519 0.045153443 0.07138777 0.13158266 0.06493176
-0.044568762 0.05176535 0.15917972 -0.01992186 -0.080097504 -0.049932547 -0.0712816 0.06366403
0.13565119 0.051804975 -0.17908661 0.058738425 0.03692105 -0.16304883 -0.07861107 0.14606395
0.046438012 0.16125888 0.15346265 0.2817165 -0.16742882 0.0919766 0.0039747464 0.121767156
-0.027280023 -0.027505511 0.030496312 -0.13324253 0.06802605 0.049470842 0.105691604 -0.099956855
-0.025243413 0.13315082 0.050657347 -0.13880515 -0.08618363 -0.009547981 -0.011089244 0.0017611524

l1.weight_rho f4 [800, 29]
00000000: 0bd6 47c0 b933 3fc0 1193 45c0 2000 3ec0
00000010: 2dc4 40c0 43bb 44c0 a743 4dc0 11fe 3cc0
00000020: 2b88 3ac0 2cff 3ec0 cc3b 45c0 e9f1 48c0
00000030: 8538 37c0 beb0 39c0 0894 42c0 acfa 40c0
00000040: 4bc6 3ec0 dd8d 37c0 d93b 4cc0 66dc 44c0
00000050: 0cca 3cc0 f34c 49c0 2a22 3ac0 aaea 3ec0
00000060: 4602 35c0 0702 40c0 0b0a 45c0 12af 3ac0
00000070: d70c 4fc0 40b1 42c0 1910 3ec0 a43e 3fc0
00000080: 9ea8 3fc0 70d4 43c0 d69b 3ec0 bf9f 40c0
00000090: bea3 40c0 ac52 40c0 d1aa 48c0 fa64 49c0
000000a0: 3978 42c0 5b46 3ac0 d785 3ec0 963e 3cc0
000000b0: 35bc 3ac0 bd5a 40c0 08e3 3ec0 f41c 41c0
000000c0: 2e46 41c0 69cc 44c0 a275 3ac0 8f4a 46c0
000000d0: 0bf2 48c0 5edf 3ac0 0396 3ec0 418d 3dc0
000000e0: 90c2 42c0 5bcd 3cc0 d6c9 40c0 1d63 42c0
000000f0: 70ac 41c0 7adb 35c0 9c2e 46c0 0ce5 3cc0
00000100: 8779 49c0 3446 3cc0 5115 3ac0 22ef 3ac0
00000110: 48f4 46c0 5ee6 37c0 33f8 3fc0 cf86 4ec0
00000120: 339b 47c0 4c8c 3ec0 0f8e 42c0 38d4 40c0
00000130: cd74 39c0 f4f6 3ec0 c7a0 49c0 d7ed 43c0
00000140: c76f 39c0 132d 45c0 3556 40c0 f93a 41c0
00000150: 9375 45c0 8955 44c0 2166 40c0 92d1 3ec0
00000160: 51bc 39c0 32de 42c0 d76d 36c0 f41f 39c0
00000170: 8561 42c0 eeca 45c0 08d3 3ac0 5adb 43c0
00000180: 4027 49c0 7391 4cc0 5971 3ec0 018f 40c0
00000190: f6c6 39c0 dd70 43c0 fb81 42c0 02ed 48c0
000001a0: 6467 3ec0 8e05 3ec0 7d91 38c0 5ea5 39c0
000001b0: 3ff1 36c0 bdb8 48c0 ec64 41c0 c023 43c0
000001c0: f014 3ec0 191b 39c0 c931 41c0 35ef 42c0
000001d0: 707f 32c0 9941 3dc0 996e 43c0 4592 3cc0
000001e0: 4cf2 4ac0 555c 39c0 1e45 3cc0 a26f 4bc0
000001f0: 5135 47c0 a110 45c0 aa6d 40c0 2371 3ec0
00000200: 5e3e 42c0 e686 3cc0 4fac 46c0 4481 31c0
00000210: 5fc4 41c0 6c91 40c0 5320 2ec0 3974 48c0
00000220: eff7 3ec0 090a 4bc0 fe22 3ac0 fd82 3ac0
00000230: 9266 40c0 7fe5 3ec0 2faa 43c0 febc 45c0
00000240: a2c0 44c0 567f 3bc0 560c 48c0 72f5 3ec0
00000250: fb01 40c0 060e 45c0 ea50 3ec0 5e5b 41c0
00000260: 1a31 33c0 2d55 3cc0 6408 42c0 8697 45c0
00000270: 9791 38c0 fc43 41c0 ddbf 43c0 d497 3fc0
00000280: f396 3cc0 601a 41c0 89ae 3ac0 d925 3bc0
00000290: 33f4 3ec0 1333 4bc0 e26a 3bc0 2485 48c0
000002a0: 35e5 3ac0 2828 48c0 ddcd 39c0 68d8 41c0
000002b0: e213 43c0 366a 44c0 104a 40c0 014a 41c0
000002c0: d178 48c0 8f24 3cc0 0f61 37c0 f2a7 3fc0
000002d0: 0c64 51c0 e96c 3bc0 10e8 36c0 4820 3ec0
000002e0: 45e1 41c0 04d3 39c0 67aa 34c0 1bf2 3dc0
000002f0: bcda 46c0 dce8 35c0 f49d 40c0 077e 3cc0
00000300: 09e8 3fc0 7596 40c0 6e13 36c0 42c3 43c0
00000310: 72f7 48c0 d33c 35c0 accd 3fc0 f8bb 39c0
00000320: 2471 3fc0 a294 3cc0 60bd 45c0 2d90 48c0
00000330: 8909 4ec0 d81d 3ec0 261f 46c0 2a5f 3bc0
00000340: e18a 30c0 6a89 49c0 400b 3dc0 5484 42c0
00000350: 83e6 3ec0 ae9f 43c0 3e88 46c0 d81f 44c0
00000360: a719 4ac0 be10 37c0 5154 3ac0 434f 3cc0
00000370: cda5 3fc0 94cc 40c0 f251 43c0 6ab8 3cc0
00000380: d353 3fc0 0841 3fc0 3636 3ac0 efd5 3ac0
00000390: 5c54 39c0 86ba 3ac0 a1a2 3cc0 a935 47c0
000003a0: fa3c 37c0 86d3 4bc0 3902 3fc0 d8a9 3bc0
000003b0: 45fe 41c0 4bb6 3ec0 30d6 3ac0 0f5b 49c0
000003c0: 2fe6 43c0 afd0 38c0 12a8 3fc0 c698 45c0
000003d0: feee 39c0 27a3 4cc0 2fcf 3ac0 4027 44c0
000003e0: 5c00 41c0 8937 43c0 5e28 42c0 a18e 3bc0
000003f0: 69a1 41c0 f80f 40c0 c722 47c0 802f 49c0
-3.1224391 -2.987532 -3.0871012 -2.9687576 -3.0119736 -3.0739295 -3.2072542 -2.953007
-2.914561 -2.9843245 -3.0817747 -3.139765 -2.8628247 -2.9014125 -3.040285 -3.0152998
-2.9808528 -2.8680336 -3.1911528 -3.075952 -2.949832 -3.1453216 -2.9083352 -2.9830728
-2.8282638 -3.0001237 -3.078738 -2.9169354 -3.2351587 -3.0420685 -2.9697325 -2.9881983
-2.9946666 -3.0598412 -2.9782615 -3.0097501 -3.009994 -3.005046 -3.1354258 -3.1467881
-3.0385878 -2.9105442 -2.976919 -2.94132 -2.9177372 -3.0055382 -2.982607 -3.0173922
-3.0199084 -3.0749762 -2.9134297 -3.0983007 -3.1397731 -2.9198833 -2.977906 -2.9617465
-3.0431252 -2.950034 -3.012319 -3.0372994 -3.0261497 -2.8415208 -3.0965948 -2.95148
-3.1480424 -2.9417849 -2.907551 -2.9208455 -3.1086597 -2.8734355 -2.9995239 -3.226978
-3.1188476 -2.977313 -3.0399206 -3.0129528 -2.897754 -2.9838228 -3.150438 -3.0613916
-2.8974473 -3.080876 -3.0052617 -3.0192244 -3.0853012 -3.0677207 -3.0062335 -2.9815412
-2.902119 -3.0448117 -2.850454 -2.8925753 -3.0372021 -3.0905108 -2.9191303 -3.0602632
-3.1430206 -3.1963775 -2.9756682 -3.0087283 -2.9027686 -3.0537636 -3.0391834 -3.1394658
-2.9750605 -2.969089 -2.88388 -2.9007182 -2.8584745 -3.1362755 -3.0217848 -3.049057
-2.970028 -2.892279 -3.0186636 -3.04585 -2.7890282 -2.9571288 -3.0536253 -2.9464276
-3.1710386 -2.8962605 -2.9417186 -3.1786885 -3.1126292 -3.07914 -3.0066934 -2.9756553
-3.0350566 -2.9457335 -3.104267 -2.7735147 -3.0276105 -3.0088758 -2.720723 -3.1320937
-2.9838827 -3.1724875 -2.9083858 -2.914245 -3.0062604 -2.9827573 -3.0572622 -3.0896602
-3.0742574 -2.929647 -3.125753 -2.9837308 -3.0001209 -3.078981 -2.9736886 -3.0212016
-2.799872 -2.9426987 -3.0317621 -3.0873733 -2.883886 -3.0197744 -3.0585854 -2.9936419
-2.9467132 -3.0172348 -2.9169028 -2.924185 -2.9836547 -3.1749923 -2.9283986 -3.1331263
-2.9202397 -3.127451 -2.90319 -3.0288334 -3.0480886 -3.0689826 -3.0045204 -3.0201418
-3.132374 -2.9397314 -2.865299 -2.9946256 -3.2717314 -2.9285223 -2.857914 -2.9707203
-3.0293744 -2.9035044 -2.8229005 -2.967902 -3.1071005 -2.8423376 -3.0096407 -2.945192
-2.9985373 -3.0091832 -2.844936 -3.0587926 -3.1401029 -2.8318374 -2.9969282 -2.9020977
-2.9912806 -2.9465718 -3.0896835 -3.1337998 -3.219332 -2.9705715 -3.0956511 -2.9276834
-2.7584765 -3.149012 -2.9538116 -3.0393267 -2.9828193 -3.056621 -3.1020656 -3.0644436
-3.1578157 -2.8603969 -2.9113963 -2.9423378 -2.9944947 -3.0124865 -3.0518765 -2.9487557
-2.9894912 -2.9883442 -2.9095588 -2.9193075 -2.895774 -2.9176345 -2.947426 -3.1126502
-2.8630967 -3.1847854 -2.9845107 -2.9322414 -3.0311444 -2.9798763 -2.919323 -3.1461828
-3.0609243 -2.887737 -2.9946332 -3.0874496 -2.905212 -3.197458 -2.9188955 -3.0648956
-3.015647 -3.0502646 -3.0337138 -2.9305804 -3.0254767 -3.0009747 -3.1114976 -3.1435242

l1.bias_mu f4 [800]
00000000: 1ef0 1c3d f713 083e 7572 ee3d 5927 b83d
00000010: b95a 6a3d 9c06 863c 3cb4 f7bc 2ce6 3abd
00000020: fd80 9abc 6cfb 543d 2bb0 133d 998b 2e3d
00000030: 7d53 10be d75a dfbc 0ef4 d9bd af96 343e
00000040: 642e 81bd b483 8d3c 3371 383e e35f debd
00000050: d009 183e 9ed1 2c3d 3bdb 223d 363d 91bd
00000060: 0dc6 83bd da03 c5bd 01b3 84bd 6418 7b3d
00000070: cda8 a23e c22e 053d 881f 13bd 5f55 9fbd
00000080: a7ac cc3d 0519 903d 5de8 02be e8ad 7e3d
00000090: cb9a 323e ce96 b0bd 7785 8ebd 0153 5dbb
000000a0: da39 493b 146c 9cbc 0811 2c3e 82fc 223d
000000b0: d790 2dbe 7930 123e c2be 74bd 9797 d4bd
000000c0: abbd c4bd 2c71 cbbd f381 b83b 75b8 aebd
000000d0: 310c c6bb 0cfb c13d 42d0 d8bd adde 8a3b
000000e0: 20e6 c53d 9d4b 963d 4615 88bd 9544 823d
000000f0: 6c4c ae3d c34d 7cbd d2c8 0b3c 6406 28b9
00000100: 9be4 45bd 435f 3a3e fec7 acbd 8ea3 ae3d
00000110: 0db8 033e 22d3 2dbc ebad 3cbd 8fe6 553e
00000120: d77b b83c 08f4 f23d def1 c6bd edbb a5bb
00000130: 3555 41be 302a c8bd d640 a8bc 22ed 3e3d
00000140: 7947 dcbd f0f5 72bb 177c 8abe 015d 7ebe
00000150: 6910 47be c4ce 80ba 3e91 f63d eae0 a6bd
00000160: 7565 e13d e1ed 51be 3792 a13b a191 fc3c
00000170: dad4 273c d3d4 6f3e 7c7e 51bd 1139 5cbc
00000180: b616 10be 3e7b 943d fc78 753c eac5 4dbd
00000190: 09c9 be3a e850 243d 5536 9ebd 7bbb d23d
000001a0: 0648 02bd 16e2 6f3c 8412 9e3c bae6 91bd
000001b0: 8275 cd3b 0f11 a43d f4c5 bcbd a9c2 cdbc
000001c0: 1b6b a03d ec67 83be 0950 b4ba b3d1 a8bd
000001d0: ac54 55bd 52c0 1b3b bc40 8aba 2826 18be
000001e0: 1870 c1bd 9a39 1a3e 076d 38bd 3878 673e
000001f0: 4e6f 3a3c ff07 d0bd b5b9 ec3c 9a6f 9a3d
00000200: b70f a63c f2bb c6bd 628a 9cbc 7353 553e
00000210: 428f d7bc dd68 f43d 2f3b a43d 6049 b7bd
00000220: 4346 c3bd 8af9 23bd 4121 90bc d040 a3bd
00000230: 3bf1 c3bd f2ba aa3d a9fa 91bd 901d f4bd
00000240: 698b 77bd 5193 793e f46e dc3d f5da 823d
00000250: dc58 30bd fa7f 00be 7e07 45bc 9991 9c3d
00000260: 5deb 82bd d921 893d 491f 28be 8fb7 67bd
00000270: d743 963d e9ea 9bbd 8e37 dabd ff8f ebbd
00000280: 5342 033c b5ea 85bd 1649 293d 59c1 babd
00000290: 9ffa 60bd d30a f8bd dedc 773d 54ef fb3c
000002a0: 35fb 74bd 0786 2c3d d60a efbd a335 8f3d
000002b0: f861 333e 2584 ab3c 73ad 813d e9ed 823e
000002c0: 3ceb 8d3d 93c6 af3d 1c8d 4ebe ccd3 a73c
000002d0: cea1 213d ed0a 33be c9df 883d 1c0f 5cbe
000002e0: ff37 cbbd a4bd de3d a0d5 f7bd 2c4f 433e
000002f0: 6f20 c03d 83bf d33c 4378 a93d c17f 7abd
00000300: 7181 f2bd 53b0 ddbc ab4f fdbc 6ee2 a53d
00000310: e716 8abe 1a9f a5bd f765 78bd ba30 143e
00000320: cdf9 3fbe 6bba 8a3d fb94 edbc 1c35 eebd
00000330: c478 20bd 0f57 05bd 6ecf 2e3d 50fb 963d
00000340: 058f 19bc fdcd 533d 4805 c23a 51a8 863d
00000350: 86ea b1bd 6422 813d b091 593b 40e2 c5bd
00000360: bcfe 45bd 0361 0d3e 4e66 e4bc 940e 83bd
00000370: 24fe d73d 51c4 69be 3c2c 81bd 56c1 1bbd
00000380: 11d8 0a3e c604 e0bc 9034 b63d 9acc f1ba
00000390: 98d6 1cbe 5064 c7bd babe 52bd 9fd2 6a3d
000003a0: 463e 96bd af7d ee3d 1320 a93b a172 84bd
000003b0: e05a 13bc b639 1a3e ae79 75be f981 3d3e
000003c0: 7b17 f5bd 6e6d e03d 97ae b0bd 16f3 5e3e
000003d0: 5e2b 913d 4033 fc3d e3c2 1ebe ebf8 7b3c
000003e0: c220 cc3c 88dc 1e3c 6e7c 93bd 0351 70bb
000003f0: dff8 cdbc 97f1 e8bd 17b6 62bd 02c5 353c
0.03831493 0.13288866 0.11642925 0.0899188 0.057215426 0.016360573 -0.03023731 -0.045629665
-0.018860335 0.051997587 0.03605668 0.0426136 -0.14094348 -0.027264996 -0.10642253 0.17635606
-0.063076764 0.017274715 0.18011932 -0.10858133 0.14847493 0.042192094 0.039759856 -0.07091753
-0.064342596 -0.09619875 -0.06479455 0.061302558 0.3176941 0.032515295 -0.035918742 -0.07779955
0.09993868 0.07036022 -0.12783952 0.06217757 0.17441861 -0.08622514 -0.0695905 -0.0033771398
0.0030704648 -0.019094504 0.16803372 0.03979159 -0.16949783 0.14276303 -0.059752233 -0.10380476
-0.09606489 -0.09933695 0.0056307255 -0.08531276 -0.006043934 0.094717115 -0.10586597 0.004237971
0.096630335 0.07338641 -0.066446826 0.06360737 0.0851067 -0.061597597 0.008531766 -0.00016024109
-0.04831372 0.18200402 -0.08436583 0.08527289 0.12863179 -0.01060942 -0.0460643 0.20888732
0.022519989 0.118629515 -0.09714101 -0.005057803 -0.1888016 -0.097736716 -0.020538729 0.046612866
-0.1075582 -0.003707286 -0.27047798 -0.24840166 -0.19439854 -0.0009827246 0.120394215 -0.08148368
0.110056795 -0.205009 0.0049307602 0.03083116 0.010243619 0.2342103 -0.051146016 -0.01344134
-0.14071164 0.07250069 0.014982458 -0.050237574 0.0014555763 0.04011622 -0.07725207 0.10289665
-0.03180697 0.014641305 0.019295938 -0.07124086 0.0062701115 0.08011066 -0.09217444 -0.025117235
0.07832929 -0.25665224 -0.0013756762 -0.08243122 -0.052082703 0.0023765755 -0.0010547857 -0.14858305
-0.09445208 0.15061036 -0.04502585 0.22604454 0.011379076 -0.10157775 0.028897146 0.075408176
0.020271165 -0.097038165 -0.019108955 0.20832615 -0.026313428 0.119340636 0.08019101 -0.08949542
-0.09534886 -0.0400329 -0.017593982 -0.079713464 -0.095674954 0.08336438 -0.07127888 -0.11919701
-0.060435686 0.24372603 0.1076335 0.06389419 -0.043053493 -0.12548819 -0.012025712 0.07644958
-0.06392548 0.06695909 -0.16418184 -0.05657154 0.07337158 -0.07613165 -0.106551275 -0.115020745
0.008011418 -0.065389074 0.041329466 -0.091189094 -0.05492651 -0.121114396 0.06051337 0.030753769
-0.059809882 0.042120006 -0.11671989 0.06992652 0.17517841 0.020937035 0.06331911 0.25572136
0.06929633 0.08582797 -0.20171016 0.020486735 0.03946095 -0.17484637 0.06683309 -0.21490139
-0.0992279 0.10876015 -0.121012926 0.1907317 0.09381186 0.025848156 0.08274891 -0.061156992
-0.11841095 -0.027061617 -0.030921778 0.08099829 -0.26970598 -0.08086987 -0.060644116 0.14471713
-0.18747635 0.06773838 -0.029001703 -0.116312236 -0.03917767 -0.03255373 0.04267829 0.07372153
-0.009372477 0.051710118 0.0014802599 0.065750726 -0.0868731 0.063053876 0.0033198409 -0.096622944
-0.048338637 0.13806538 -0.027880814 -0.06399265 0.1054652 -0.22828795 -0.06307265 -0.038026176
0.13558985 -0.027346026 0.08896744 -0.0018447817 -0.15316236 -0.0973593 -0.051451422 0.05732977
-0.073360965 0.11645066 0.0051612942 -0.06467176 -0.008993834 0.15061077 -0.23972198 0.18506612
-0.11967369 0.10958372 -0.0862705 0.21772417 0.0708835 0.12314463 -0.15504031 0.015379171
0.024917964 0.009696133 -0.072014675 -0.003666938 -0.025143085 -0.113742046 -0.055349436 0.011094334

l1.bias_rho f4 [800]
00000000: 5213 3bc0 7c00 42c0 a88e 45c0 051d 43c0
00000010: 31a9 42c0 1be6 45c0 783a 3fc0 294a 43c0
00000020: 889d 40c0 c7b9 39c0 29a3 34c0 8b94 40c0
00000030: 6f00 3bc0 9cee 49c0 249a 39c0 c337 3ac0
00000040: e473 41c0 96c7 3dc0 fca2 40c0 a3f1 44c0
00000050: 05c4 41c0 ac7b 3ec0 f17c 41c0 6f7a 49c0
00000060: 061d 3ec0 8ff7 39c0 8b84 35c0 7264 3ac0
00000070: a50c 47c0 f9f5 3cc0 fd46 3fc0 9161 4dc0
00000080: 966f 39c0 fcbb 35c0 139f 3ac0 5c6f 46c0
00000090: 12bf 48c0 cbc1 37c0 9c8f 3ac0 7cc1 43c0
000000a0: be1e 3fc0 1fd5 44c0 b3af 3dc0 cecf 47c0
000000b0: 3ae1 43c0 4838 43c0 c797 45c0 8359 34c0
000000c0: 08d9 4cc0 4469 40c0 fc0a 45c0 01b9 3ec0
000000d0: 5077 3cc0 dfd2 3ac0 cb7a 3bc0 85d9 31c0
000000e0: 7ce8 49c0 2a88 45c0 37ed 38c0 6c27 3bc0
000000f0: 82fd 3dc0 567f 35c0 c1ca 3fc0 1e30 43c0
00000100: 8c45 42c0 4e07 3fc0 a100 40c0 6ba1 35c0
00000110: 600f 41c0 0bb3 3cc0 3859 3fc0 df64 42c0
00000120: ed3d 36c0 46b7 43c0 d36b 39c0 8d20 43c0
00000130: 114c 35c0 a386 48c0 851f 3ac0 84fb 44c0
00000140: bb75 4bc0 c649 39c0 1aa0 46c0 219b 46c0
00000150: f524 3dc0 863f 44c0 7545 3dc0 c62c 3fc0
00000160: 0ba1 45c0 f9da 44c0 f945 44c0 65b1 41c0
00000170: a98c 3ec0 f3d8 3ac0 eab1 4bc0 6d35 3ec0
00000180: 9bf9 49c0 8831 3ac0 0f7a 3dc0 7977 3bc0
00000190: 9dce 4cc0 7092 49c0 790c 43c0 13a6 35c0
000001a0: 9a78 3ec0 dba1 37c0 2989 44c0 6c8a 3bc0
000001b0: e835 3ec0 6a4b 45c0 c1bb 36c0 f88e 3ac0
000001c0: 6c26 3fc0 572c 3ec0 324e 3fc0 c896 42c0
000001d0: 8b37 35c0 4169 3ec0 fec3 31c0 2754 3ec0
000001e0: 8d1b 40c0 a719 3fc0 4b2f 3cc0 cf92 3cc0
000001f0: 061b 47c0 0e03 3cc0 ecb8 4cc0 907f 45c0
00000200: 1256 35c0 6245 39c0 418f 3ac0 9b43 38c0
00000210: 7566 3dc0 7927 3fc0 fd5e 3dc0 b650 45c0
00000220: 4f26 37c0 5324 3dc0 9021 46c0 a2f6 3ac0
00000230: 3c06 3ec0 773d 37c0 ac97 47c0 5d8d 47c0
00000240: 772b 41c0 f0c6 3dc0 42ca 3ec0 c7a5 39c0
00000250: 3590 42c0 6cda 45c0 9a8a 44c0 656c 3bc0
00000260: fcf7 4ac0 fd19 3ec0 04bf 3fc0 6299 4bc0
00000270: 4290 35c0 f178 3ac0 589b 4dc0 3f98 41c0
00000280: 9a68 3ac0 4ec9 40c0 f9aa 3cc0 2e1f 37c0
00000290: 8690 3dc0 cfa7 37c0 41af 36c0 cd38 3dc0
000002a0: 205a 3fc0 c68d 4fc0 7397 3bc0 12aa 3dc0
000002b0: ca26 3dc0 ff90 3fc0 4319 45c0 01bd 3dc0
000002c0: 7c73 3ac0 39fc 3cc0 bc17 46c0 0b01 41c0
000002d0: 7607 3ac0 4794 2fc0 2a68 36c0 c913 45c0
000002e0: fc89 2fc0 279f 3dc0 b1bb 40c0 428a 44c0
000002f0: 25b7 41c0 9154 46c0 faeb 3ec0 034e 34c0
00000300: 6779 41c0 f361 35c0 40ca 47c0 2969 46c0
00000310: 4fa6 41c0 839d 42c0 d187 40c0 4dd7 49c0
00000320: a327 31c0 4478 3fc0 27ca 3ec0 d535 32c0
00000330: 949f 36c0 25c7 42c0 8fa7 45c0 b00d 42c0
00000340: a449 3dc0 d0a9 42c0 2e3a 40c0 d7b0 3ac0
00000350: d70a 36c0 de7e 3ec0 d1df 3cc0 d445 4ac0
00000360: 837c 3ac0 cc2d 47c0 b4ed 46c0 2ecc 41c0
00000370: 64f1 46c0 87b1 32c0 85a9 3fc0 7500 3dc0
00000380: f69d 39c0 3962 44c0 57ba 38c0 9e30 3ec0
00000390: d0f7 42c0 731a 43c0 a8b0 44c0 a7b6 3ac0
000003a0: ec64 43c0 d1f4 3dc0 06b8 3cc0 30de 3cc0
000003b0: 1d33 38c0 c325 4cc0 023a 39c0 eade 3fc0
000003c0: 55ec 40c0 a505 3fc0 0ad8 3bc0 a8db 38c0
000003d0: 3fe6 3dc0 8947 39c0 b78b 3bc0 492c 4cc0
000003e0: bd3a 45c0 6abf 36c0 c51f 46c0 cc14 43c0
000003f0: cb87 41c0 2b44 3bc0 b8e1 3fc0 e82b 41c0
-2.9230542 -3.0312796 -3.086832 -3.0486462 -3.0415766 -3.0921695 -2.9879436 -3.0514014
-3.009615 -2.901964 -2.8224585 -3.0090663 -2.9219015 -3.1551886 -2.900033 -2.9096534
-3.0226984 -2.9653068 -3.0099478 -3.0772483 -3.027589 -2.9762983 -3.0232508 -3.1480978
-2.9705215 -2.9057348 -2.8362148 -2.9123807 -3.1101468 -2.952513 -2.9887078 -3.20908
-2.8974357 -2.8395987 -2.9159591 -3.1005468 -3.136662 -2.8712032 -2.9150152 -3.0586843
-2.9862514 -3.0755079 -2.9638488 -3.1220584 -3.0606217 -3.0503101 -3.0873888 -2.8179634
-3.2007465 -3.006425 -3.0787954 -2.9800417 -2.9447823 -2.9191206 -2.9293697 -2.7789013
-3.1548147 -3.0864358 -2.8894784 -2.9242811 -2.968598 -2.835897 -2.99675 -3.0498118
-3.0354948 -2.9848208 -3.0000384 -2.8379772 -3.0165634 -2.948428 -2.9898205 -3.0374067
-2.8475296 -3.0580611 -2.897206 -3.0488617 -2.8327677 -3.1332176 -2.9081738 -3.0778513
-3.1790607 -2.8951278 -3.1035218 -3.1032183 -2.9553807 -3.0663772 -2.9573643 -2.9871078
-3.0879543 -3.075865 -3.0667708 -3.0264523 -2.9773352 -2.9194915 -3.182734 -2.9720109
-3.1558597 -2.9092731 -2.9605749 -2.929167 -3.2001107 -3.1495628 -3.0476363 -2.8382614
-2.976111 -2.8692539 -3.0708716 -2.9303236 -2.9720402 -3.082728 -2.8552096 -2.9149761
-2.98672 -2.9714563 -2.9891477 -3.040453 -2.831515 -2.9751742 -2.7775874 -2.9738863
-3.0016816 -2.9859407 -2.9403865 -2.9464605 -3.1110244 -2.9376864 -3.1987867 -3.0859108
-2.8333783 -2.8948598 -2.9149935 -2.8791263 -2.9593785 -2.9867842 -2.9589226 -3.0830512
-2.8617132 -2.955342 -3.0957985 -2.9213033 -2.9691305 -2.8631265 -3.1186323 -3.1180031
-3.018278 -2.9652672 -2.9810948 -2.9007432 -3.0400517 -3.0914564 -3.0709596 -2.9284909
-3.1713858 -2.9703362 -2.9960337 -3.1812367 -2.8369298 -2.9136317 -3.2126064 -3.0249174
-2.9126344 -3.0122867 -2.9479353 -2.861278 -2.961946 -2.8696172 -2.8544466 -2.9565918
-2.9898758 -3.2430282 -2.9311187 -2.9635053 -2.9554925 -2.9932249 -3.0796669 -2.964661
-2.9132986 -2.9528944 -3.0951986 -3.0156887 -2.9067054 -2.7434251 -2.8501077 -3.0793326
-2.742797 -2.962839 -3.0114558 -3.0709386 -3.0268033 -3.0989115 -2.9831529 -2.8172615
-3.0230348 -2.8341033 -3.1217194 -3.1001685 -3.0257757 -3.0408638 -3.0082896 -3.153766
-2.7680442 -2.9917154 -2.9810884 -2.7845356 -2.8534899 -3.0434048 -3.088352 -3.0320854
-2.9576197 -3.0416145 -3.003551 -2.9170434 -2.8444116 -2.9764934 -2.9511607 -3.160512
-2.9138496 -3.1121702 -3.1082582 -3.0280871 -3.1084833 -2.7920854 -2.9947217 -2.953153
-2.9002662 -3.068495 -2.8863733 -2.9717174 -3.0463753 -3.0484893 -3.0732822 -2.9173982
-3.0530348 -2.9680674 -2.948732 -2.9510612 -2.8781197 -3.1898048 -2.8941655 -2.9979806
-3.0144246 -2.9847195 -2.935061 -2.8884068 -2.967178 -2.8949912 -2.9304025 -3.190203
-3.08171 -2.855433 -3.095689 -3.0481443 -3.0239131 -2.9260356 -2.9981518 -3.0183048

l1.weight.mu f4 [800, 29]
00000000: 84c2 963c c0c3 543d 976f e7bd 53e6 3d3d
00000010: 818d 9d3d 992d 903e 2f60 7c3d c2d6 613d
00000020: d925 583d 1946 c3bb 6ff2 fcbd 33c2 dc3d
00000030: dfdf cd3d 549a 663d 54c8 8fbd 36cc cd3d
00000040: f709 24be f29b 7e3d 5e3f d03d 90d5 bf3d
00000050: edf2 8a3d ba7a 7bbb f6a5 41bd ee86 ce3c
00000060: 5412 af3d 9b20 89bd 39dd 8ebd 4461 33be
00000070: 9205 0c3d e904 5b3b a24c 033c ed58 263d
00000080: 9b08 7e3d b894 86bc 4281 a73e 33b7 e53d
00000090: beb7 febb 8db8 1dbe 97f0 93bd 37b5 d43d
000000a0: 2594 c8bd 6e6e 12be c396 96bc 072b 10be
000000b0: 7eee c83d 8817 2dbe fcf4 cc3d 2fd3 b0bb
000000c0: 384d d63c f4a6 1f3d 0b03 45be 7f91 343e
000000d0: eeca f43d 0347 9b3e 1503 49be 3f36 f23c
000000e0: 0ffa 5f3d 7503 a7bd 14f5 043e c81f 433d
000000f0: 6038 8e3d 8fff 063e b1f5 9f3d 06ed f73d
00000100: b148 8bbd 0355 233e a3c9 2dbe e2e2 7dbe
00000110: 74ca a53d ca63 ea3d d416 04bd 2e8e f4bc
00000120: f85e 8bbd 439c c93d 930b 933d 47e0 dbbd
00000130: 7403 573e 6674 bebd ce8f 47bd 2e90 08be
00000140: a15a ce3d ef5a 2fbe cc03 953a a8ba aebd
00000150: 31a8 febd 0c6e c53d 55f7 693c 0d54 bbbc
00000160: 329e f4bd ade4 c1bd 4915 b83c 7584 68be
00000170: 240f 223e 7440 5a3e 05cd 3ebd 0ffa f3bd
00000180: 3461 963d bb05 c13d ae06 9bbe 5537 e83c
00000190: 96c7 0cbd 4bde c0bb 63c1 64bd 05f6 0a3d
000001a0: d265 b83c 7075 50ba 6987 753d f4e6 b73c
000001b0: 501e b2bd b268 843d 261c d83d bbd3 e1bd
000001c0: 9d73 e8bd 3f4a 03be c8a1 b73d 79a3 943c
000001d0: dc59 07be 5062 2ebd ebd2 d03d c4d7 81bc
000001e0: b2bf 11be cd20 fabb 06c4 bfbd 9dc6 ac3c
000001f0: 5f0a 46bc df3b 833d cca5 3d3d 72a4 703d
00000200: 8e0d d03c c4cb 593c e60f 74be c657 1cbe
00000210: e793 7e3d 0aae 51be d6a8 2cbe 7e74 373e
00000220: 9186 823d 5716 313e 0ad2 503e efca 64bd
00000230: 2acb 2ebd 5602 93bd dc6b d1bd 94cd d13c
00000240: 4cca d33d 7e0b 43bd 653c f6bd 1ca9 a23c
00000250: a11a 0d3e 0106 9abd aa56 973c e27e 14be
00000260: 5960 823d b568 e83d ccc0 7f3d 8478 85bc
00000270: c7e2 ec3d 4ac0 c93d 9bed 093d e575 d8bc
00000280: b5dd 2abe b3b3 12be 4ec8 68bd f844 f13d
00000290: 13f0 773d 1491 e03b 00a9 1b3d e49b b03d
000002a0: 0e54 39be ade1 2b3e e79a cdbd ee41 083e
000002b0: 64bd 3cbe 752b ea3d 95a4 1fbe c36f b8bd
000002c0: fbe3 95bd 163c 8f3d 9c19 243e 580d c13d
000002d0: d512 6bbc f8cc 143e 8a8b 50be a8f1 0bbd
000002e0: 27b4 ecbc ce07 d33d 41dc 613e b827 f83c
000002f0: 20f5 3cbe 888d 96bc 9ece de3b 9dd7 cabd
00000300: 880b a43c 2c43 483c af2b 42bd 96f5 823c
00000310: ae21 fb3a ff89 41be 23af d5bd ee90 18be
00000320: 2276 213e a537 a33b 967c b4bd 89df 6abe
00000330: 9fae 54bd 3b1f ea3d 4fd7 dbbd a5ad 56bc
00000340: ef67 87bd 8d87 623e bec5 3dbe 2122 103e
00000350: d1f2 383d c033 923d 9bbd 063e f1fa 843d
00000360: bc8d 36bd e707 543d 0200 233e 2b33 a3bc
00000370: 290a a4bd 1286 4cbd 16fc 91bd 4962 823d
00000380: 25e8 0a3e 7431 543d 7b62 37be b497 703d
00000390: 873a 173d 46f6 26be d7fe a0bd ca91 153e
000003a0: c935 3e3d 0c21 253e 5025 1d3e 253d 903e
000003b0: 7672 2bbe 3a5e bc3d 973e 823b 0f61 f93d
000003c0: 5b7a dfbc 3d53 e1bc 67d3 f93c bb70 08be
000003d0: 3e51 8b3d f0a1 4a3d d774 d83d 2eb6 ccbd
000003e0: 46cb cebc b058 083e 147e 4f3d f022 0ebe
000003f0: 0b81 b0bd 236f 1cbc a9af 35bc 78d6 e63a
0.0184033 0.051944494 -0.11300581 0.046362232 0.07693005 0.28159788 0.061615165 0.05513645
0.05277047 -0.005959284 -0.12350928 0.10779228 0.10052466 0.056299523 -0.070206314 0.10048716
-0.16019426 0.06216044 0.10168336 0.09366906 0.06784616 -0.0038372711 -0.047277413 0.025210824
0.08548418 -0.06695672 -0.069757886 -0.17517573 0.034185 0.0033419675 0.008013876 0.04061215
0.062019926 -0.016428337 0.32715803 0.11216583 -0.0077733686 -0.15402432 -0.07223623 0.103861265
-0.09793881 -0.14299938 -0.018382436 -0.14078914 0.09811114 -0.16903508 0.100076646 -0.005396269
0.026159868 0.03897758 -0.19239442 0.17633627 0.11952768 0.30327615 -0.19630082 0.029566882
0.054681834 -0.08154956 0.12984115 0.04763773 0.069443464 0.13183425 0.07810534 0.121057555
-0.06800974 0.15950398 -0.1697145 -0.2479358 0.080952555 0.114448145 -0.032248333 -0.029852953
-0.06805223 0.09844258 0.07179942 -0.10736137 0.20997411 -0.09299545 -0.048721127 -0.1333625
0.1007588 -0.17124532 0.0011368929 -0.085316956 -0.12434424 0.096401304 0.01428016 -0.022867227
-0.11944236 -0.094674446 0.022471087 -0.22706778 0.15826088 0.2131365 -0.04658224 -0.11912929
0.07342759 0.09424921 -0.30278534 0.028346697 -0.034370027 -0.0058858744 -0.05584849 0.03392603
0.02250949 -0.000795207 0.05994359 0.022448994 -0.08697188 0.064652815 0.10552244 -0.110267125
-0.113501765 -0.12821291 0.08966404 0.018144356 -0.13217872 -0.042574227 0.101964794 -0.015849955
-0.14233282 -0.0076333047 -0.093635604 0.0210908 -0.012087434 0.06407904 0.046300694 0.058750577
0.025397088 0.01329321 -0.2383419 -0.15267858 0.06215277 -0.20476547 -0.16861281 0.17915532
0.06373323 0.17293678 0.20392624 -0.055857595 -0.04267422 -0.0717818 -0.10225651 0.025610723
0.103413194 -0.04761838 -0.12023238 0.019856028 0.1377969 -0.075206764 0.018473942 -0.14501527
0.06366033 0.11348096 0.062439725 -0.016292818 0.11566692 0.09851129 0.033673864 -0.026423404
-0.16686137 -0.14326362 -0.05683165 0.11780733 0.060531687 0.006853232 0.038002968 0.08623484
-0.1809847 0.16785307 -0.10039311 0.133064 -0.18431622 0.1143407 -0.15590127 -0.09005692
-0.073188744 0.06993882 0.16025394 0.09426373 -0.014347752 0.14531314 -0.2036573 -0.03416601
-0.028894497 0.10304223 0.22056676 0.030292377 -0.18452883 -0.018378034 0.006799533 -0.09904406
0.02002503 0.012223046 -0.04740494 0.015986245 0.0019159818 -0.18900298 -0.10433795 -0.14899036
0.1576772 0.0049809986 -0.088128254 -0.22936834 -0.051924344 0.11431738 -0.10734426 -0.0131029235
-0.06611621 0.22122021 -0.18532464 0.14075519 0.045153443 0.07138777 0.13158266 0.06493176
-0.044568762 0.05176535 0.15917972 -0.01992186 -0.080097504 -0.049932547 -0.0712816 0.06366403
0.13565119 0.051804975 -0.17908661 0.058738425 0.03692105 -0.16304883 -0.07861107 0.14606395
0.046438012 0.16125888 0.15346265 0.2817165 -0.16742882 0.0919766 0.0039747464 0.121767156
-0.027280023 -0.027505511 0.030496312 -0.13324253 0.06802605 0.049470842 0.105691604 -0.099956855
-0.025243413 0.13315082 0.050657347 -0.13880515 -0.08618363 -0.009547981 -0.011089244 0.0017611524

l1.weight.rho f4 [800, 29]
00000000: 0bd6 47c0 b933 3fc0 1193 45c0 2000 3ec0
00000010: 2dc4 40c0 43bb 44c0 a743 4dc0 11fe 3cc0
00000020: 2b88 3ac0 2cff 3ec0 cc3b 45c0 e9f1 48c0
00000030: 8538 37c0 beb0 39c0 0894 42c0 acfa 40c0
00000040: 4bc6 3ec0 dd8d 37c0 d93b 4cc0 66dc 44c0
00000050: 0cca 3cc0 f34c 49c0 2a22 3ac0 aaea 3ec0
00000060: 4602 35c0 0702 40c0 0b0a 45c0 12af 3ac0
00000070: d70c 4fc0 40b1 42c0 1910 3ec0 a43e 3fc0
00000080: 9ea8 3fc0 70d4 43c0 d69b 3ec0 bf9f 40c0
00000090: bea3 40c0 ac52 40c0 d1aa 48c0 fa64 49c0
000000a0: 3978 42c0 5b46 3ac0 d785 3ec0 963e 3cc0
000000b0: 35bc 3ac0 bd5a 40c0 08e3 3ec0 f41c 41c0
000000c0: 2e46 41c0 69cc 44c0 a275 3ac0 8f4a 46c0
000000d0: 0bf2 48c0 5edf 3ac0 0396 3ec0 418d 3dc0
000000e0: 90c2 42c0 5bcd 3cc0 d6c9 40c0 1d63 42c0
000000f0: 70ac 41c0 7adb 35c0 9c2e 46c0 0ce5 3cc0
00000100: 8779 49c0 3446 3cc0 5115 3ac0 22ef 3ac0
00000110: 48f4 46c0 5ee6 37c0 33f8 3fc0 cf86 4ec0
00000120: 339b 47c0 4c8c 3ec0 0f8e 42c0 38d4 40c0
00000130: cd74 39c0 f4f6 3ec0 c7a0 49c0 d7ed 43c0
00000140: c76f 39c0 132d 45c0 3556 40c0 f93a 41c0
00000150: 9375 45c0 8955 44c0 2166 40c0 92d1 3ec0
00000160: 51bc 39c0 32de 42c0 d76d 36c0 f41f 39c0
00000170: 8561 42c0 eeca 45c0 08d3 3ac0 5adb 43c0
00000180: 4027 49c0 7391 4cc0 5971 3ec0 018f 40c0
00000190: f6c6 39c0 dd70 43c0 fb81 42c0 02ed 48c0
000001a0: 6467 3ec0 8e05 3ec0 7d91 38c0 5ea5 39c0
000001b0: 3ff1 36c0 bdb8 48c0 ec64 41c0 c023 43c0
000001c0: f014 3ec0 191b 39c0 c931 41c0 35ef 42c0
000001d0: 707f 32c0 9941 3dc0 996e 43c0 4592 3cc0
000001e0: 4cf2 4ac0 555c 39c0 1e45 3cc0 a26f 4bc0
000001f0: 5135 47c0 a110 45c0 aa6d 40c0 2371 3ec0
00000200: 5e3e 42c0 e686 3cc0 4fac 46c0 4481 31c0
00000210: 5fc4 41c0 6c91 40c0 5320 2ec0 3974 48c0
00000220: eff7 3ec0 090a 4bc0 fe22 3ac0 fd82 3ac0
00000230: 9266 40c0 7fe5 3ec0 2faa 43c0 febc 45c0
00000240: a2c0 44c0 567f 3bc0 560c 48c0 72f5 3ec0
00000250: fb01 40c0 060e 45c0 ea50 3ec0 5e5b 41c0
00000260: 1a31 33c0 2d55 3cc0 6408 42c0 8697 45c0
00000270: 9791 38c0 fc43 41c0 ddbf 43c0 d497 3fc0
00000280: f396 3cc0 601a 41c0 89ae 3ac0 d925 3bc0
00000290: 33f4 3ec0 1333 4bc0 e26a 3bc0 2485 48c0
000002a0: 35e5 3ac0 2828 48c0 ddcd 39c0 68d8 41c0
000002b0: e213 43c0 366a 44c0 104a 40c0 014a 41c0
000002c0: d178 48c0 8f24 3cc0 0f61 37c0 f2a7 3fc0
000002d0: 0c64 51c0 e96c 3bc0 10e8 36c0 4820 3ec0
000002e0: 45e1 41c0 04d3 39c0 67aa 34c0 1bf2 3dc0
000002f0: bcda 46c0 dce8 35c0 f49d 40c0 077e 3cc0
00000300: 09e8 3fc0 7596 40c0 6e13 36c0 42c3 43c0
00000310: 72f7 48c0 d33c 35c0 accd 3fc0 f8bb 39c0
00000320: 2471 3fc0 a294 3cc0 60bd 45c0 2d90 48c0
00000330: 8909 4ec0 d81d 3ec0 261f 46c0 2a5f 3bc0
00000340: e18a 30c0 6a89 49c0 400b 3dc0 5484 42c0
00000350: 83e6 3ec0 ae9f 43c0 3e88 46c0 d81f 44c0
00000360: a719 4ac0 be10 37c0 5154 3ac0 434f 3cc0
00000370: cda5 3fc0 94cc 40c0 f251 43c0 6ab8 3cc0
00000380: d353 3fc0 0841 3fc0 3636 3ac0 efd5 3ac0
00000390: 5c54 39c0 86ba 3ac0 a1a2 3cc0 a935 47c0
000003a0: fa3c 37c0 86d3 4bc0 3902 3fc0 d8a9 3bc0
000003b0: 45fe 41c0 4bb6 3ec0 30d6 3ac0 0f5b 49c0
000003c0: 2fe6 43c0 afd0 38c0 12a8 3fc0 c698 45c0
000003d0: feee 39c0 27a3 4cc0 2fcf 3ac0 4027 44c0
000003e0: 5c00 41c0 8937 43c0 5e28 42c0 a18e 3bc0
000003f0: 69a1 41c0 f80f 40c0 c722 47c0 802f 49c0
-3.1224391 -2.987532 -3.0871012 -2.9687576 -3.0119736 -3.0739295 -3.2072542 -2.953007
-2.914561 -2.9843245 -3.0817747 -3.139765 -2.8628247 -2.9014125 -3.040285 -3.0152998
-2.9808528 -2.8680336 -3.1911528 -3.075952 -2.949832 -3.1453216 -2.9083352 -2.9830728
-2.8282638 -3.0001237 -3.078738 -2.9169354 -3.2351587 -3.0420685 -2.9697325 -2.9881983
-2.9946666 -3.0598412 -2.9782615 -3.0097501 -3.009994 -3.005046 -3.1354258 -3.1467881
-3.0385878 -2.9105442 -2.976919 -2.94132 -2.9177372 -3.0055382 -2.982607 -3.0173922
-3.0199084 -3.0749762 -2.9134297 -3.0983007 -3.1397731 -2.9198833 -2.977906 -2.9617465
-3.0431252 -2.950034 -3.012319 -3.0372994 -3.0261497 -2.8415208 -3.0965948 -2.95148
-3.1480424 -2.9417849 -2.907551 -2.9208455 -3.1086597 -2.8734355 -2.9995239 -3.226978
-3.1188476 -2.977313 -3.0399206 -3.0129528 -2.897754 -2.9838228 -3.150438 -3.0613916
-2.8974473 -3.080876 -3.0052617 -3.0192244 -3.0853012 -3.0677207 -3.0062335 -2.9815412
-2.902119 -3.0448117 -2.850454 -2.8925753 -3.0372021 -3.0905108 -2.9191303 -3.0602632
-3.1430206 -3.1963775 -2.9756682 -3.0087283 -2.9027686 -3.0537636 -3.0391834 -3.1394658
-2.9750605 -2.969089 -2.88388 -2.9007182 -2.8584745 -3.1362755 -3.0217848 -3.049057
-2.970028 -2.892279 -3.0186636 -3.04585 -2.7890282 -2.9571288 -3.0536253 -2.9464276
-3.1710386 -2.8962605 -2.9417186 -3.1786885 -3.1126292 -3.07914 -3.0066934 -2.9756553
-3.0350566 -2.9457335 -3.104267 -2.7735147 -3.0276105 -3.0088758 -2.720723 -3.1320937
-2.9838827 -3.1724875 -2.9083858 -2.914245 -3.0062604 -2.9827573 -3.0572622 -3.0896602
-3.0742574 -2.929647 -3.125753 -2.9837308 -3.0001209 -3.078981 -2.9736886 -3.0212016
-2.799872 -2.9426987 -3.0317621 -3.0873733 -2.883886 -3.0197744 -3.0585854 -2.9936419
-2.9467132 -3.0172348 -2.9169028 -2.924185 -2.9836547 -3.1749923 -2.9283986 -3.1331263
-2.9202397 -3.127451 -2.90319 -3.0288334 -3.0480886 -3.0689826 -3.0045204 -3.0201418
-3.132374 -2.9397314 -2.865299 -2.9946256 -3.2717314 -2.9285223 -2.857914 -2.9707203
-3.0293744 -2.9035044 -2.8229005 -2.967902 -3.1071005 -2.8423376 -3.0096407 -2.945192
-2.9985373 -3.0091832 -2.844936 -3.0587926 -3.1401029 -2.8318374 -2.9969282 -2.9020977
-2.9912806 -2.9465718 -3.0896835 -3.1337998 -3.219332 -2.9705715 -3.0956511 -2.9276834
-2.7584765 -3.149012 -2.9538116 -3.0393267 -2.9828193 -3.056621 -3.1020656 -3.0644436
-3.1578157 -2.8603969 -2.9113963 -2.9423378 -2.9944947 -3.0124865 -3.0518765 -2.9487557
-2.9894912 -2.9883442 -2.9095588 -2.9193075 -2.895774 -2.9176345 -2.947426 -3.1126502
-2.8630967 -3.1847854 -2.9845107 -2.9322414 -3.0311444 -2.9798763 -2.919323 -3.1461828
-3.0609243 -2.887737 -2.9946332 -3.0874496 -2.905212 -3.197458 -2.9188955 -3.0648956
-3.015647 -3.0502646 -3.0337138 -2.9305804 -3.0254767 -3.0009747 -3.1114976 -3.1435242

l1.bias.mu f4 [800]
00000000: 1ef0 1c3d f713 083e 7572 ee3d 5927 b83d
00000010: b95a 6a3d 9c06 863c 3cb4 f7bc 2ce6 3abd
00000020: fd80 9abc 6cfb 543d 2bb0 133d 998b 2e3d
00000030: 7d53 10be d75a dfbc 0ef4 d9bd af96 343e
00000040: 642e 81bd b483 8d3c 3371 383e e35f debd
00000050: d009 183e 9ed1 2c3d 3bdb 223d 363d 91bd
00000060: 0dc6 83bd da03 c5bd 01b3 84bd 6418 7b3d
00000070: cda8 a23e c22e 053d 881f 13bd 5f55 9fbd
00000080: a7ac cc3d 0519 903d 5de8 02be e8ad 7e3d
00000090: cb9a 323e ce96 b0bd 7785 8ebd 0153 5dbb
000000a0: da39 493b 146c 9cbc 0811 2c3e 82fc 223d
000000b0: d790 2dbe 7930 123e c2be 74bd 9797 d4bd
000000c0: abbd c4bd 2c71 cbbd f381 b83b 75b8 aebd
000000d0: 310c c6bb 0cfb c13d 42d0 d8bd adde 8a3b
000000e0: 20e6 c53d 9d4b 963d 4615 88bd 9544 823d
000000f0: 6c4c ae3d c34d 7cbd d2c8 0b3c 6406 28b9
00000100: 9be4 45bd 435f 3a3e fec7 acbd 8ea3 ae3d
00000110: 0db8 033e 22d3 2dbc ebad 3cbd 8fe6 553e
00000120: d77b b83c 08f4 f23d def1 c6bd edbb a5bb
00000130: 3555 41be 302a c8bd d640 a8bc 22ed 3e3d
00000140: 7947 dcbd f0f5 72bb 177c 8abe 015d 7ebe
00000150: 6910 47be c4ce 80ba 3e91 f63d eae0 a6bd
00000160: 7565 e13d e1ed 51be 3792 a13b a191 fc3c
00000170: dad4 273c d3d4 6f3e 7c7e 51bd 1139 5cbc
00000180: b616 10be 3e7b 943d fc78 753c eac5 4dbd
00000190: 09c9 be3a e850 243d 5536 9ebd 7bbb d23d
000001a0: 0648 02bd 16e2 6f3c 8412 9e3c bae6 91bd
000001b0: 8275 cd3b 0f11 a43d f4c5 bcbd a9c2 cdbc
000001c0: 1b6b a03d ec67 83be 0950 b4ba b3d1 a8bd
000001d0: ac54 55bd 52c0 1b3b bc40 8aba 2826 18be
000001e0: 1870 c1bd 9a39 1a3e 076d 38bd 3878 673e
000001f0: 4e6f 3a3c ff07 d0bd b5b9 ec3c 9a6f 9a3d
00000200: b70f a63c f2bb c6bd 628a 9cbc 7353 553e
00000210: 428f d7bc dd68 f43d 2f3b a43d 6049 b7bd
00000220: 4346 c3bd 8af9 23bd 4121 90bc d040 a3bd
00000230: 3bf1 c3bd f2ba aa3d a9fa 91bd 901d f4bd
00000240: 698b 77bd 5193 793e f46e dc3d f5da 823d
00000250: dc58 30bd fa7f 00be 7e07 45bc 9991 9c3d
00000260: 5deb 82bd d921 893d 491f 28be 8fb7 67bd
00000270: d743 963d e9ea 9bbd 8e37 dabd ff8f ebbd
00000280: 5342 033c b5ea 85bd 1649 293d 59c1 babd
00000290: 9ffa 60bd d30a f8bd dedc 773d 54ef fb3c
000002a0: 35fb 74bd 0786 2c3d d60a efbd a335 8f3d
000002b0: f861 333e 2584 ab3c 73ad 813d e9ed 823e
000002c0: 3ceb 8d3d 93c6 af3d 1c8d 4ebe ccd3 a73c
000002d0: cea1 213d ed0a 33be c9df 883d 1c0f 5cbe
000002e0: ff37 cbbd a4bd de3d a0d5 f7bd 2c4f 433e
000002f0: 6f20 c03d 83bf d33c 4378 a93d c17f 7abd
00000300: 7181 f2bd 53b0 ddbc ab4f fdbc 6ee2 a53d
00000310: e716 8abe 1a9f a5bd f765 78bd ba30 143e
00000320: cdf9 3fbe 6bba 8a3d fb94 edbc 1c35 eebd
00000330: c478 20bd 0f57 05bd 6ecf 2e3d 50fb 963d
00000340: 058f 19bc fdcd 533d 4805 c23a 51a8 863d
00000350: 86ea b1bd 6422 813d b091 593b 40e2 c5bd
00000360: bcfe 45bd 0361 0d3e 4e66 e4bc 940e 83bd
00000370: 24fe d73d 51c4 69be 3c2c 81bd 56c1 1bbd
00000380: 11d8 0a3e c604 e0bc 9034 b63d 9acc f1ba
00000390: 98d6 1cbe 5064 c7bd babe 52bd 9fd2 6a3d
000003a0: 463e 96bd af7d ee3d 1320 a93b a172 84bd
000003b0: e05a 13bc b639 1a3e ae79 75be f981 3d3e
000003c0: 7b17 f5bd 6e6d e03d 97ae b0bd 16f3 5e3e
000003d0: 5e2b 913d 4033 fc3d e3c2 1ebe ebf8 7b3c
000003e0: c220 cc3c 88dc 1e3c 6e7c 93bd 0351 70bb
000003f0: dff8 cdbc 97f1 e8bd 17b6 62bd 02c5 353c
0.03831493 0.13288866 0.11642925 0.0899188 0.057215426 0.016360573 -0.03023731 -0.045629665
-0.018860335 0.051997587 0.03605668 0.0426136 -0.14094348 -0.027264996 -0.10642253 0.17635606
-0.063076764 0.017274715 0.18011932 -0.10858133 0.14847493 0.042192094 0.039759856 -0.07091753
-0.064342596 -0.09619875 -0.06479455 0.061302558 0.3176941 0.032515295 -0.035918742 -0.07779955
0.09993868 0.07036022 -0.12783952 0.06217757 0.17441861 -0.08622514 -0.0695905 -0.0033771398
0.0030704648 -0.019094504 0.16803372 0.03979159 -0.16949783 0.14276303 -0.059752233 -0.10380476
-0.09606489 -0.09933695 0.0056307255 -0.08531276 -0.006043934 0.094717115 -0.10586597 0.004237971
0.096630335 0.07338641 -0.066446826 0.06360737 0.0851067 -0.061597597 0.008531766 -0.00016024109
-0.04831372 0.18200402 -0.08436583 0.08527289 0.12863179 -0.01060942 -0.0460643 0.20888732
0.022519989 0.118629515 -0.09714101 -0.005057803 -0.1888016 -0.097736716 -0.020538729 0.046612866
-0.1075582 -0.003707286 -0.27047798 -0.24840166 -0.19439854 -0.0009827246 0.120394215 -0.08148368
0.110056795 -0.205009 0.0049307602 0.03083116 0.010243619 0.2342103 -0.051146016 -0.01344134
-0.14071164 0.07250069 0.014982458 -0.050237574 0.0014555763 0.04011622 -0.07725207 0.10289665
-0.03180697 0.014641305 0.019295938 -0.07124086 0.0062701115 0.08011066 -0.09217444 -0.025117235
0.07832929 -0.25665224 -0.0013756762 -0.08243122 -0.052082703 0.0023765755 -0.0010547857 -0.14858305
-0.09445208 0.15061036 -0.04502585 0.22604454 0.011379076 -0.10157775 0.028897146 0.075408176
0.020271165 -0.097038165 -0.019108955 0.20832615 -0.026313428 0.119340636 0.08019101 -0.08949542
-0.09534886 -0.0400329 -0.017593982 -0.079713464 -0.095674954 0.08336438 -0.07127888 -0.11919701
-0.060435686 0.24372603 0.1076335 0.06389419 -0.043053493 -0.12548819 -0.012025712 0.07644958
-0.06392548 0.06695909 -0.16418184 -0.05657154 0.07337158 -0.07613165 -0.106551275 -0.115020745
0.008011418 -0.065389074 0.041329466 -0.091189094 -0.05492651 -0.121114396 0.06051337 0.030753769
-0.059809882 0.042120006 -0.11671989 0.06992652 0.17517841 0.020937035 0.06331911 0.25572136
0.06929633 0.08582797 -0.20171016 0.020486735 0.03946095 -0.17484637 0.06683309 -0.21490139
-0.0992279 0.10876015 -0.121012926 0.1907317 0.09381186 0.025848156 0.08274891 -0.061156992
-0.11841095 -0.027061617 -0.030921778 0.08099829 -0.26970598 -0.08086987 -0.060644116 0.14471713
-0.18747635 0.06773838 -0.029001703 -0.116312236 -0.03917767 -0.03255373 0.04267829 0.07372153
-0.009372477 0.051710118 0.0014802599 0.065750726 -0.0868731 0.063053876 0.0033198409 -0.096622944
-0.048338637 0.13806538 -0.027880814 -0.06399265 0.1054652 -0.22828795 -0.06307265 -0.038026176
0.13558985 -0.027346026 0.08896744 -0.0018447817 -0.15316236 -0.0973593 -0.051451422 0.05732977
-0.073360965 0.11645066 0.0051612942 -0.06467176 -0.008993834 0.15061077 -0.23972198 0.18506612
-0.11967369 0.10958372 -0.0862705 0.21772417 0.0708835 0.12314463 -0.15504031 0.015379171
0.024917964 0.009696133 -0.072014675 -0.003666938 -0.025143085 -0.113742046 -0.055349436 0.011094334

l1.bias.rho f4 [800]
00000000: 5213 3bc0 7c00 42c0 a88e 45c0 051d 43c0
00000010: 31a9 42c0 1be6 45c0 783a 3fc0 294a 43c0
00000020: 889d 40c0 c7b9 39c0 29a3 34c0 8b94 40c0
00000030: 6f00 3bc0 9cee 49c0 249a 39c0 c337 3ac0
00000040: e473 41c0 96c7 3dc0 fca2 40c0 a3f1 44c0
00000050: 05c4 41c0 ac7b 3ec0 f17c 41c0 6f7a 49c0
00000060: 061d 3ec0 8ff7 39c0 8b84 35c0 7264 3ac0
00000070: a50c 47c0 f9f5 3cc0 fd46 3fc0 9161 4dc0
00000080: 966f 39c0 fcbb 35c0 139f 3ac0 5c6f 46c0
00000090: 12bf 48c0 cbc1 37c0 9c8f 3ac0 7cc1 43c0
000000a0: be1e 3fc0 1fd5 44c0 b3af 3dc0 cecf 47c0
000000b0: 3ae1 43c0 4838 43c0 c797 45c0 8359 34c0
000000c0: 08d9 4cc0 4469 40c0 fc0a 45c0 01b9 3ec0
000000d0: 5077 3cc0 dfd2 3ac0 cb7a 3bc0 85d9 31c0
000000e0: 7ce8 49c0 2a88 45c0 37ed 38c0 6c27 3bc0
000000f0: 82fd 3dc0 567f 35c0 c1ca 3fc0 1e30 43c0
00000100: 8c45 42c0 4e07 3fc0 a100 40c0 6ba1 35c0
00000110: 600f 41c0 0bb3 3cc0 3859 3fc0 df64 42c0
00000120: ed3d 36c0 46b7 43c0 d36b 39c0 8d20 43c0
00000130: 114c 35c0 a386 48c0 851f 3ac0 84fb 44c0
00000140: bb75 4bc0 c649 39c0 1aa0 46c0 219b 46c0
00000150: f524 3dc0 863f 44c0 7545 3dc0 c62c 3fc0
00000160: 0ba1 45c0 f9da 44c0 f945 44c0 65b1 41c0
00000170: a98c 3ec0 f3d8 3ac0 eab1 4bc0 6d35 3ec0
00000180: 9bf9 49c0 8831 3ac0 0f7a 3dc0 7977 3bc0
00000190: 9dce 4cc0 7092 49c0 790c 43c0 13a6 35c0
000001a0: 9a78 3ec0 dba1 37c0 2989 44c0 6c8a 3bc0
000001b0: e835 3ec0 6a4b 45c0 c1bb 36c0 f88e 3ac0
000001c0: 6c26 3fc0 572c 3ec0 324e 3fc0 c896 42c0
000001d0: 8b37 35c0 4169 3ec0 fec3 31c0 2754 3ec0
000001e0: 8d1b 40c0 a719 3fc0 4b2f 3cc0 cf92 3cc0
000001f0: 061b 47c0 0e03 3cc0 ecb8 4cc0 907f 45c0
00000200: 1256 35c0 6245 39c0 418f 3ac0 9b43 38c0
00000210: 7566 3dc0 7927 3fc0 fd5e 3dc0 b650 45c0
00000220: 4f26 37c0 5324 3dc0 9021 46c0 a2f6 3ac0
00000230: 3c06 3ec0 773d 37c0 ac97 47c0 5d8d 47c0
00000240: 772b 41c0 f0c6 3dc0 42ca 3ec0 c7a5 39c0
00000250: 3590 42c0 6cda 45c0 9a8a 44c0 656c 3bc0
00000260: fcf7 4ac0 fd19 3ec0 04bf 3fc0 6299 4bc0
00000270: 4290 35c0 f178 3ac0 589b 4dc0 3f98 41c0
00000280: 9a68 3ac0 4ec9 40c0 f9aa 3cc0 2e1f 37c0
00000290: 8690 3dc0 cfa7 37c0 41af 36c0 cd38 3dc0
000002a0: 205a 3fc0 c68d 4fc0 7397 3bc0 12aa 3dc0
000002b0: ca26 3dc0 ff90 3fc0 4319 45c0 01bd 3dc0
000002c0: 7c73 3ac0 39fc 3cc0 bc17 46c0 0b01 41c0
000002d0: 7607 3ac0 4794 2fc0 2a68 36c0 c913 45c0
000002e0: fc89 2fc0 279f 3dc0 b1bb 40c0 428a 44c0
000002f0: 25b7 41c0 9154 46c0 faeb 3ec0 034e 34c0
00000300: 6779 41c0 f361 35c0 40ca 47c0 2969 46c0
00000310: 4fa6 41c0 839d 42c0 d187 40c0 4dd7 49c0
00000320: a327 31c0 4478 3fc0 27ca 3ec0 d535 32c0
00000330: 949f 36c0 25c7 42c0 8fa7 45c0 b00d 42c0
00000340: a449 3dc0 d0a9 42c0 2e3a 40c0 d7b0 3ac0
00000350: d70a 36c0 de7e 3ec0 d1df 3cc0 d445 4ac0
00000360: 837c 3ac0 cc2d 47c0 b4ed 46c0 2ecc 41c0
00000370: 64f1 46c0 87b1 32c0 85a9 3fc0 7500 3dc0
00000380: f69d 39c0 3962 44c0 57ba 38c0 9e30 3ec0
00000390: d0f7 42c0 731a 43c0 a8b0 44c0 a7b6 3ac0
000003a0: ec64 43c0 d1f4 3dc0 06b8 3cc0 30de 3cc0
000003b0: 1d33 38c0 c325 4cc0 023a 39c0 eade 3fc0
000003c0: 55ec 40c0 a505 3fc0 0ad8 3bc0 a8db 38c0
000003d0: 3fe6 3dc0 8947 39c0 b78b 3bc0 492c 4cc0
000003e0: bd3a 45c0 6abf 36c0 c51f 46c0 cc14 43c0
000003f0: cb87 41c0 2b44 3bc0 b8e1 3fc0 e82b 41c0
-2.9230542 -3.0312796 -3.086832 -3.0486462 -3.0415766 -3.0921695 -2.9879436 -3.0514014
-3.009615 -2.901964 -2.8224585 -3.0090663 -2.9219015 -3.1551886 -2.900033 -2.9096534
-3.0226984 -2.9653068 -3.0099478 -3.0772483 -3.027589 -2.9762983 -3.0232508 -3.1480978
-2.9705215 -2.9057348 -2.8362148 -2.9123807 -3.1101468 -2.952513 -2.9887078 -3.20908
-2.8974357 -2.8395987 -2.9159591 -3.1005468 -3.136662 -2.8712032 -2.9150152 -3.0586843
-2.9862514 -3.0755079 -2.9638488 -3.1220584 -3.0606217 -3.0503101 -3.0873888 -2.8179634
-3.2007465 -3.006425 -3.0787954 -2.9800417 -2.9447823 -2.9191206 -2.9293697 -2.7789013
-3.1548147 -3.0864358 -2.8894784 -2.9242811 -2.968598 -2.835897 -2.99675 -3.0498118
-3.0354948 -2.9848208 -3.0000384 -2.8379772 -3.0165634 -2.948428 -2.9898205 -3.0374067
-2.8475296 -3.0580611 -2.897206 -3.0488617 -2.8327677 -3.1332176 -2.9081738 -3.0778513
-3.1790607 -2.8951278 -3.1035218 -3.1032183 -2.9553807 -3.0663772 -2.9573643 -2.9871078
-3.0879543 -3.075865 -3.0667708 -3.0264523 -2.9773352 -2.9194915 -3.182734 -2.9720109
-3.1558597 -2.9092731 -2.9605749 -2.929167 -3.2001107 -3.1495628 -3.0476363 -2.8382614
-2.976111 -2.8692539 -3.0708716 -2.9303236 -2.9720402 -3.082728 -2.8552096 -2.9149761
-2.98672 -2.9714563 -2.9891477 -3.040453 -2.831515 -2.9751742 -2.7775874 -2.9738863
-3.0016816 -2.9859407 -2.9403865 -2.9464605 -3.1110244 -2.9376864 -3.1987867 -3.0859108
-2.8333783 -2.8948598 -2.9149935 -2.8791263 -2.9593785 -2.9867842 -2.9589226 -3.0830512
-2.8617132 -2.955342 -3.0957985 -2.9213033 -2.9691305 -2.8631265 -3.1186323 -3.1180031
-3.018278 -2.9652672 -2.9810948 -2.9007432 -3.0400517 -3.0914564 -3.0709596 -2.9284909
-3.1713858 -2.9703362 -2.9960337 -3.1812367 -2.8369298 -2.9136317 -3.2126064 -3.0249174
-2.9126344 -3.0122867 -2.9479353 -2.861278 -2.961946 -2.8696172 -2.8544466 -2.9565918
-2.9898758 -3.2430282 -2.9311187 -2.9635053 -2.9554925 -2.9932249 -3.0796669 -2.964661
-2.9132986 -2.9528944 -3.0951986 -3.0156887 -2.9067054 -2.7434251 -2.8501077 -3.0793326
-2.742797 -2.962839 -3.0114558 -3.0709386 -3.0268033 -3.0989115 -2.9831529 -2.8172615
-3.0230348 -2.8341033 -3.1217194 -3.1001685 -3.0257757 -3.0408638 -3.0082896 -3.153766
-2.7680442 -2.9917154 -2.9810884 -2.7845356 -2.8534899 -3.0434048 -3.088352 -3.0320854
-2.9576197 -3.0416145 -3.003551 -2.9170434 -2.8444116 -2.9764934 -2.9511607 -3.160512
-2.9138496 -3.1121702 -3.1082582 -3.0280871 -3.1084833 -2.7920854 -2.9947217 -2.953153
-2.9002662 -3.068495 -2.8863733 -2.9717174 -3.0463753 -3.0484893 -3.0732822 -2.9173982
-3.0530348 -2.9680674 -2.948732 -2.9510612 -2.8781197 -3.1898048 -2.8941655 -2.9979806
-3.0144246 -2.9847195 -2.935061 -2.8884068 -2.967178 -2.8949912 -2.9304025 -3.190203
-3.08171 -2.855433 -3.095689 -3.0481443 -3.0239131 -2.9260356 -2.9981518 -3.0183048
