checkpoints_2_tasks/2_task_groups_PUGCL_epochs_:150_lr_:0.1_hidden_:240_task_order_:[1 0]/model_0.pth.tar (torch_old, 122681 bytes, 24 tensors)

l1.weight_mu f4 [240, 29]
0	0x3cad20b0	0.02113375
1	0x3d1a1fd0	0.037627995
2	0x3c7d0246	0.015442437
3	0x3c45dc06	0.012076383
4	0xbe72f338	-0.23725593
5	0xbe4efc1c	-0.2021336
6	0xbdc9aa39	-0.098469205
7	0xbde74445	-0.11292318
8	0xbe092e3b	-0.13396542
9	0xbcea0e27	-0.028571201
10	0xbdfd6bae	-0.12374054
11	0xbd0d382a	-0.03447739
12	0x3c71efb8	0.014766626
13	0xbddad59f	-0.10685276
14	0x3df7c85a	0.12098761
15	0xbe0f61c6	-0.14002141
16	0x3e2a4aae	0.1663005
17	0xbdc65bd5	-0.09685484
18	0x3e374a6c	0.17899483
19	0xbe4a56b1	-0.19759633
20	0x3d54800c	0.051879928
21	0xbd7d5b40	-0.0618546
22	0xbcbed1b9	-0.023293363
23	0xbe235a9b	-0.15952532
24	0x3e114e58	0.14190042
25	0x3d854ac8	0.06508404
26	0x3e037e9c	0.12841266
27	0x3cf21d9a	0.02955513
28	0xbdf0558c	-0.11735067
29	0x3e376fec	0.17913789
30	0xbc8e863c	-0.017397992
31	0xbd89883c	-0.06715438
32	0x3bb78b08	0.0056012906
33	0xbaf9d7aa	-0.0019061465
34	0xbdf93e78	-0.12170118
35	0xbd4a83ce	-0.049442105
36	0x3d31548e	0.04329353
37	0xbdc4c0c0	-0.09607077
38	0x3dd1fe6c	0.10253605
39	0x3dba1d0b	0.09087571
40	0xbc6c6d60	-0.014430374
41	0xbd973bf4	-0.07384482
42	0xbcee2086	-0.029068243
43	0xbd3dca57	-0.046335544
44	0x3dd57f55	0.10424677
45	0xbb6e4849	-0.0036359003
46	0xbe27be6b	-0.16381232
47	0x3cd0cea9	0.025489168
48	0x3d43fdae	0.04784935
49	0xbc4e5f0b	-0.012595902
50	0xbd621394	-0.055194452
51	0x3d8ae53f	0.067820065
52	0xbd8befea	-0.06832869
53	0xbcce0367	-0.025148107
54	0x3d98f62d	0.07468829
55	0x3e03df1e	0.12878081
56	0xbdb5b801	-0.088729866
57	0xbdcf52a3	-0.101231836
58	0x3d0d70e8	0.034531504
59	0x3e7af300	0.2450676
60	0x3d866992	0.06563105
61	0x3e4bbcce	0.19896242
62	0x3df323a1	0.1187203
63	0xbdaaecbc	-0.08345935
64	0x3ce52a3e	0.027974244
65	0x3c496905	0.012293105
66	0x3e02d825	0.12777765
67	0x3cb8d6e8	0.022563413
68	0x3d9f8338	0.077887
69	0x3b56ea95	0.003279363
70	0x3e4cd286	0.20002183
71	0xbbfe7f09	-0.0077666086
72	0x3c3303d3	0.010926205
73	0xbca63cbf	-0.020292638
74	0xbcc00023	-0.023437565
75	0x3dbea98e	0.09309684
76	0xbdedc509	-0.11609847
77	0x3c462d0b	0.0120957
78	0xbd8ad0ee	-0.067781314
79	0xbc8c5f8d	-0.017135406
80	0x3e2c82ff	0.16846846
81	0x3e198ab6	0.1499432
82	0x3b9ff3e5	0.0048813694
83	0x3e95f6e2	0.2928992
84	0xbc8f6165	-0.017502496
85	0x3d67eef4	0.056624368
86	0xbe063156	-0.13104758
87	0x3e1aed1a	0.1512951
88	0xbd0ed704	-0.034873024
89	0x3c1b7490	0.00948824
90	0xbdc1f2fa	-0.09470172
91	0xbd3306b3	-0.04370756
92	0xbdb26fbc	-0.08712718
93	0xbb313523	-0.0027039729
94	0xbd8c9d39	-0.06865925
95	0xbd6f5a31	-0.058435623
96	0x3da1afd8	0.07894868
97	0xbe099e84	-0.13439375
98	0x3c5d1640	0.013494074
99	0xbd201965	-0.039086718
100	0x3e5c527f	0.21515845
101	0xbd25c189	-0.040467773
102	0xbd3d2559	-0.046178196
103	0x3c0a2d31	0.008433626
104	0x3e1b093d	0.15140243
105	0xbe38b777	-0.18038736
106	0xbce46c2a	-0.027883608
107	0xbdc49fce	-0.09600793
108	0xbdf4d36a	-0.119543865
109	0xbdb32ece	-0.08749162
110	0xbc27c727	-0.010240353
111	0x3deb1a75	0.11479656
112	0xbddc4551	-0.107554086
113	0x3db27058	0.08712834
114	0x3dc98c99	0.0984127
115	0xbcfeef17	-0.031119866
116	0xbcd2d2d1	-0.02573529
117	0x3dc2468a	0.094861105
118	0x3e203cf8	0.15648258
119	0x3d821e52	0.063534394
120	0x3e1798eb	0.14804427
121	0xbde4233a	-0.111395314
122	0x3df413f0	0.11917865
123	0x3de0bbb4	0.109733015
124	0xbe283c70	-0.16429305
125	0xbce3ab2e	-0.027791586
126	0x3e138591	0.1440642
127	0xbcd253c0	-0.0256747
128	0xbc905591	-0.017618926
129	0xbdead84d	-0.11467037
130	0x3c091c23	0.008368525
131	0xbc8be2ea	-0.017075974
132	0x3d7247f5	0.059150655
133	0xbe78454c	-0.24245185
134	0x3db31ece	0.0874611
135	0xbcae326c	-0.021264277
136	0x3e38f733	0.18063049
137	0x3dd68607	0.104747824
138	0xbd8166b8	-0.0631842
139	0xbc745576	-0.014912954
140	0x3d6ea33b	0.058261137
141	0xbcd6b07d	-0.026207203
142	0x3d28cd0b	0.04121117
143	0x3deea351	0.11652244
144	0x3dab9805	0.08378605
145	0xbd586c91	-0.052837912
146	0xbddd2ac2	-0.10799171
147	0x3c752bdf	0.014964073
148	0x3e2a7fce	0.16650316
149	0x3c95ab8d	0.018270278
150	0xbded25b6	-0.115794584
151	0xbd540c9b	-0.051769834
152	0xbe0da1c1	-0.13831235
153	0xbdd7b5ba	-0.105327085
154	0xbd265a71	-0.040613595
155	0xbd6cbf8b	-0.057799857
156	0x3ddbdc16	0.107353374
157	0x3cd5a024	0.026077338
158	0xbd975534	-0.07389298
159	0xbde501a9	-0.11181957
160	0x3dc9cc34	0.09853402
161	0x3da5406e	0.080689296
162	0xbe19a585	-0.15004547
163	0x3d967cc6	0.073480174
164	0x3d11fd34	0.035641864
165	0xbdd65cdd	-0.10466931
166	0x3ddc4603	0.10755541
167	0x3b632aa5	0.003466287
168	0xbc646a1f	-0.013941317
169	0xbe9d8592	-0.3076597
170	0x3e13101b	0.14361612
171	0xbe696447	-0.22792159
172	0x3e820923	0.25397596
173	0xbc274751	-0.010209874
174	0xbd6796e2	-0.056540377
175	0x3e6bf2a7	0.23041783
176	0xbdde7009	-0.10861213
177	0x3bb51438	0.005526092
178	0xbd03687e	-0.032082073
179	0x3d34ec09	0.044170413
180	0xbda887f9	-0.0822906
181	0x3e3511e8	0.17682612
182	0xbd4608e5	-0.048348326
183	0x3ca38367	0.019960118
184	0x3d848b96	0.064719364
185	0x3e1c866d	0.15285654
186	0xbc9ff30c	-0.019525073
187	0x3d823bb5	0.063590445
188	0x3c6c10bf	0.014408289
189	0xbdfb4d97	-0.122706585
190	0x3de80bb9	0.11330361
191	0xbb7dd6ed	-0.0038732842
192	0x3cdbaaaf	0.026814787
193	0x3cc46d17	0.0239778
194	0xbd746842	-0.05966974
195	0x3d74bbaa	0.059749283
196	0x3e0d4f81	0.1379986
197	0xbcbada50	-0.022809178
198	0x3c04c1f7	0.008102885
199	0xbb859e5b	-0.0040777153
200	0x3dcc5c35	0.099785246
201	0x3d0536c3	0.032522928
202	0x3dac8e36	0.08425562
203	0xbe15ce45	-0.14629467
204	0xbdc93bd8	-0.098258674
205	0x3d0d5747	0.034507062
206	0xbd632af7	-0.055460896
207	0x3d81b051	0.06332458
208	0xbd881e14	-0.06646362
209	0x3d45bc18	0.048275083
210	0xbdee64e7	-0.11640339
211	0x3e06157d	0.13094135
212	0x3d7f9da9	0.062406216
213	0x3bfa46ff	0.007637858
214	0x3cb1a474	0.021684863
215	0xbddd0bd4	-0.10793272
216	0xbd0a03cf	-0.03369504
217	0xbc0db855	-0.008649905
218	0xbd528ef6	-0.05140587
219	0xbe0a62df	-0.13514279
220	0x3d9e0991	0.077166684
221	0x3d8e85b9	0.06959099
222	0x3e4e5cad	0.2015254
223	0x3e2cdba9	0.16880669
224	0x3d514835	0.051094253
225	0x3d8dfec3	0.069333576
226	0x3e0cb216	0.1373981
227	0xbd959cce	-0.07305299
228	0xbe937a11	-0.28804067
229	0xbdfb42ae	-0.122685775
230	0x3a7f0946	0.000972886
231	0xbe1fda43	-0.15610604
232	0xbd57e7d3	-0.05271132
233	0xbc8ba657	-0.01704709
234	0xbd860064	-0.06543043
235	0x3d9e25be	0.077220425
236	0xbdc7d2ac	-0.09756979
237	0x3db230c6	0.08700709
238	0x3ba6dde8	0.0050923713
239	0xbd2e5025	-0.0425569
240	0xbd774c07	-0.06037524
241	0x3c7bc348	0.015366383
242	0x3dab3dda	0.083614066
243	0x3e05f005	0.13079841
244	0x3d6c484b	0.05768613
245	0xbd0037b2	-0.031303115
246	0x3a1637e8	0.00057303766
247	0xbdaa93bf	-0.083289616
248	0x3e17dc72	0.14830187
249	0xbde2c0a3	-0.11071899
250	0xbce3c173	-0.027802205
251	0x3c8d4892	0.017246518
252	0xbd938af3	-0.07204237
253	0xbe8de80c	-0.277161
254	0x3c866147	0.016403807
255	0xbc91d8bd	-0.017803544

l1.weight_rho f4 [240, 29]
0	0xc03db12d	-2.963939
1	0xc044b6e3	-3.0736625
2	0xc044045e	-3.0627666
3	0xc0453a45	-3.0816815
4	0xc041b9ca	-3.0269647
5	0xc03e2c15	-2.9714406
6	0xc04498ef	-3.0718343
7	0xc03f7bd8	-2.9919338
8	0xc03bd506	-2.934877
9	0xc03f1b60	-2.9860458
10	0xc03a6c28	-2.9128513
11	0xc042d2ed	-3.044124
12	0xc0434dd8	-3.0516262
13	0xc0496e23	-3.1473472
14	0xc03e724c	-2.9757261
15	0xc03f0637	-2.9847543
16	0xc0418db8	-3.0242748
17	0xc039f50f	-2.9055822
18	0xc04561a5	-3.0840847
19	0xc039df61	-2.904259
20	0xc045d541	-3.091141
21	0xc0425cc4	-3.036912
22	0xc047f975	-3.1246006
23	0xc048df3a	-3.1386247
24	0xc03d908d	-2.9619477
25	0xc046a34b	-3.1037166
26	0xc03a1088	-2.907259
27	0xc043a9f1	-3.0572474
28	0xc03ad85a	-2.919455
29	0xc03d44f7	-2.9573343
30	0xc03fb826	-2.9956145
31	0xc050e044	-3.263688
32	0xc04b9821	-3.1811602
33	0xc04249ba	-3.03575
34	0xc0389277	-2.8839395
35	0xc03cc663	-2.9496086
36	0xc043d99b	-3.0601566
37	0xc043ef82	-3.0614934
38	0xc04a7b9b	-3.1637943
39	0xc03dbe9d	-2.964759
40	0xc0471879	-3.1108687
41	0xc04c902e	-3.1963
42	0xc04277bd	-3.0385582
43	0xc04133b0	-3.0187798
44	0xc04b79c4	-3.179307
45	0xc04ad867	-3.1694582
46	0xc042a313	-3.0412033
47	0xc041a750	-3.025837
48	0xc044aa57	-3.0728967
49	0xc041e081	-3.0293276
50	0xc03a3186	-2.9092727
51	0xc04507ba	-3.0785966
52	0xc040a49f	-3.0100477
53	0xc0444ace	-3.0670657
54	0xc03aac2e	-2.916759
55	0xc0490ff5	-3.141599
56	0xc03ce6a5	-2.9515774
57	0xc03c4685	-2.9418042
58	0xc040b3ba	-3.0109696
59	0xc03c6cd0	-2.9441414
60	0xc0401c52	-3.0017285
61	0xc03b2c10	-2.9245644
62	0xc03e1571	-2.9700587
63	0xc042a61a	-3.041388
64	0xc035890a	-2.8364892
65	0xc035b938	-2.8394299
66	0xc03e7513	-2.9758956
67	0xc0354d18	-2.8328304
68	0xc044e0ef	-3.0762289
69	0xc0429f7b	-3.040984
70	0xc0455252	-3.0831494
71	0xc0471a6b	-3.1109874
72	0xc045a107	-3.0879533
73	0xc03d0acd	-2.9537842
74	0xc044ba96	-3.0738883
75	0xc048251d	-3.1272652
76	0xc0497197	-3.147558
77	0xc044ff56	-3.0780845
78	0xc03da763	-2.9633415
79	0xc0405210	-3.0050087
80	0xc044297a	-3.0650315
81	0xc03e8461	-2.9768298
82	0xc04484d6	-3.0706077
83	0xc03a2954	-2.9087725
84	0xc03e50ea	-2.9736886
85	0xc0426be1	-3.0378344
86	0xc03c9904	-2.9468393
87	0xc0405f76	-3.0058265
88	0xc041af84	-3.0263376
89	0xc04282e9	-3.0392401
90	0xc040185a	-3.0014863
91	0xc043edc9	-3.0613883
92	0xc038de3b	-2.8885639
93	0xc03da06a	-2.962916
94	0xc049b3c6	-3.1515975
95	0xc03e376a	-2.9721322
96	0xc03fb149	-2.9951956
97	0xc03b09ed	-2.9224808
98	0xc038b5a0	-2.8860855
99	0xc0372ba7	-2.8620393
100	0xc03bd9be	-2.935165
101	0xc0391803	-2.8920906
102	0xc03a5da4	-2.9119654
103	0xc0428b47	-3.0397508
104	0xc042d447	-3.0442064
105	0xc04253b7	-3.0363595
106	0xc041c914	-3.0278978
107	0xc03e31d5	-2.9717915
108	0xc039e12a	-2.904368
109	0xc041e68d	-3.0296967
110	0xc03fcf24	-2.9970179
111	0xc03cd8f5	-2.950742
112	0xc045cd5c	-3.0906591
113	0xc0375c1b	-2.8649967
114	0xc03d3ef0	-2.9569664
115	0xc0395dec	-2.8963575
116	0xc03c813d	-2.945388
117	0xc0361a9e	-2.8453746
118	0xc03d0478	-2.9533978
119	0xc038ead9	-2.889334
120	0xc042549a	-3.0364137
121	0xc03d3124	-2.9561243
122	0xc038c508	-2.8870258
123	0xc03f6be6	-2.9909606
124	0xc03aa87e	-2.916534
125	0xc043aa60	-3.0572739
126	0xc03cae8b	-2.9481533
127	0xc049b873	-3.151883
128	0xc03e41c9	-2.9727652
129	0xc0454da9	-3.082865
130	0xc032a252	-2.7911572
131	0xc0413958	-3.019125
132	0xc0469f60	-3.1034775
133	0xc04138bb	-3.0190876
134	0xc0416abc	-3.0221395
135	0xc035c208	-2.8399677
136	0xc03d6cab	-2.9597576
137	0xc040a41b	-3.0100162
138	0xc03c140b	-2.9387233
139	0xc03ec7d0	-2.9809456
140	0xc046fa22	-3.109017
141	0xc0455712	-3.0834394
142	0xc043d1ee	-3.059688
143	0xc03fe716	-2.9984794
144	0xc04978e6	-3.148004
145	0xc03705ae	-2.8597217
146	0xc02bccaf	-2.684368
147	0xc043115e	-3.047935
148	0xc047ac38	-3.1198864
149	0xc0474614	-3.1136522
150	0xc0461152	-3.0948071
151	0xc0480409	-3.1252463
152	0xc03711fe	-2.8604732
153	0xc03d51dd	-2.9581215
154	0xc04100f1	-3.0156825
155	0xc03e4596	-2.9729972
156	0xc03cb781	-2.9487002
157	0xc044b2a5	-3.0734036
158	0xc0497549	-3.1477835
159	0xc034e3b3	-2.8263977
160	0xc03cbf3f	-2.9491727
161	0xc0397fc0	-2.8984222
162	0xc04ab07c	-3.1670218
163	0xc03a8367	-2.9142702
164	0xc03cdc40	-2.950943
165	0xc03ea8ed	-2.9790604
166	0xc03e2d03	-2.9714973
167	0xc041ca09	-3.0279562
168	0xc03d3f41	-2.9569857
169	0xc03922c4	-2.892747
170	0xc03bd3fa	-2.934813
171	0xc0426b6c	-3.0378065
172	0xc0431990	-3.0484352
173	0xc0335679	-2.8021529
174	0xc04bf9e1	-3.1871264
175	0xc03e6544	-2.9749308
176	0xc047d8f6	-3.1226172
177	0xc03abe21	-2.9178545
178	0xc047b997	-3.1207025
179	0xc0365662	-2.8490224
180	0xc046429a	-3.097815
181	0xc048d896	-3.1382194
182	0xc03dc783	-2.9653022
183	0xc03ff654	-2.9994097
184	0xc042ca42	-3.0435948
185	0xc0433b21	-3.050484
186	0xc0415d5c	-3.0213232
187	0xc044b204	-3.0733652
188	0xc047a0b6	-3.119184
189	0xc0446fe8	-3.0693302
190	0xc047b21c	-3.120246
191	0xc03c0a64	-2.9381342
192	0xc044c37b	-3.0744312
193	0xc03b099a	-2.922461
194	0xc03f2144	-2.9864054
195	0xc0421372	-3.0324368
196	0xc0407e46	-3.007707
197	0xc0489602	-3.1341558
198	0xc04922d6	-3.1427512
199	0xc041c43b	-3.027602
200	0xc0469bdf	-3.1032636
201	0xc04020e5	-3.0020077
202	0xc0393fa5	-2.8945096
203	0xc0461b41	-3.0954134
204	0xc048f106	-3.139711
205	0xc038d765	-2.8881466
206	0xc03dee4c	-2.9676695
207	0xc034a568	-2.8225956
208	0xc03aed5e	-2.9207377
209	0xc045b9c4	-3.0894632
210	0xc044b58a	-3.0735803
211	0xc0461810	-3.0952187
212	0xc039de24	-2.9041834
213	0xc043c550	-3.058918
214	0xc0430b8e	-3.0475802
215	0xc04590ff	-3.0869749
216	0xc03a8508	-2.9143696
217	0xc0412786	-3.0180373
218	0xc03f7e44	-2.9920816
219	0xc048f97f	-3.140228
220	0xc036efc5	-2.8583844
221	0xc0438748	-3.055132
222	0xc03d473c	-2.9574728
223	0xc03d93ea	-2.962153
224	0xc0458ddd	-3.0867836
225	0xc0411db9	-3.0174391
226	0xc03cd14c	-2.9502745
227	0xc049cf0f	-3.1532629
228	0xc042cb9f	-3.043678
229	0xc0404700	-3.0043335
230	0xc03e98ac	-2.9780684
231	0xc0494d0a	-3.145327
232	0xc0471520	-3.1106644
233	0xc040a042	-3.0097814
234	0xc044f59d	-3.077491
235	0xc043a813	-3.0571334
236	0xc033241f	-2.7990797
237	0xc04422cb	-3.0646236
238	0xc03ba4e9	-2.9319403
239	0xc042f62a	-3.0462747
240	0xc038354d	-2.8782532
241	0xc04a67eb	-3.1625926
242	0xc0438329	-3.0548804
243	0xc0379d91	-2.868992
244	0xc03ed963	-2.9820182
245	0xc04b4429	-3.1760352
246	0xc030c72e	-2.762157
247	0xc040ed41	-3.0144808
248	0xc03fa4cf	-2.994434
249	0xc0345a2e	-2.8180041
250	0xc033f7a7	-2.8119905
251	0xc0477ef0	-3.1171227
252	0xc045dd15	-3.0916188
253	0xc03d5d8e	-2.9588351
254	0xc03e0b26	-2.9694304
255	0xc03d079a	-2.953589

l1.bias_mu f4 [240]
0	0xbe23db30	-0.16001582
1	0xbcda35ff	-0.026637075
2	0x3d806ecd	0.062711336
3	0xbdfcc262	-0.12341763
4	0x3d0edd7e	0.0348792
5	0xbda9f486	-0.08298592
6	0xbdb40d33	-0.0879158
7	0xbdf96c4a	-0.121788576
8	0x3e035bb2	0.12827948
9	0x3b8104e5	0.003937351
10	0xbe6ae4bf	-0.22938822
11	0x3ea1bd9b	0.3158997
12	0xbd5b9b77	-0.05361506
13	0x3e3a44ff	0.18190382
14	0x3e9694e5	0.29410473
15	0x3c50be06	0.012740618
16	0xbd35be8c	-0.044371173
17	0xbd2021a5	-0.039094586
18	0xbd6fdd47	-0.058560636
19	0xbe3eedeb	-0.18645446
20	0xbe5602ab	-0.20899455
21	0x3d032cfc	0.032025322
22	0xbc5b95b9	-0.013402396
23	0x3d91b4a2	0.07114531
24	0xbdbd6c9c	-0.09249231
25	0xbe52cf96	-0.20587
26	0x3d725a25	0.059168
27	0xbdee84e4	-0.116464406
28	0xbd1bfbf5	-0.03808208
29	0x3bb6a317	0.005573641
30	0x3c885cb8	0.016645774
31	0xbdc58a2a	-0.09645493
32	0x3d368348	0.044558793
33	0x3e0ce40b	0.13758866
34	0x3e6267a2	0.22109845
35	0x3ebddc8e	0.37082332
36	0xbd2943f2	-0.041324563
37	0x3e0fc8f1	0.14041497
38	0xbdc20289	-0.0947314
39	0x39899b64	0.0002624645
40	0xbe0589ed	-0.13040896
41	0x3ecbd26d	0.3980898
42	0x3d758d12	0.05994899
43	0x3dbc6fc4	0.09201005
44	0x3e3e9bc8	0.18614113
45	0xbdf086d8	-0.117444694
46	0x3ecb53c8	0.39712358
47	0x3ddc8a2f	0.10768544
48	0x3e75df95	0.24011071
49	0xbc953dab	-0.018217882
50	0xbb1714f5	-0.0023053263
51	0x3ecd4eea	0.4009927
52	0x3eb04efc	0.3443526
53	0xbd8dc78b	-0.069228254
54	0x3e304c94	0.17216712
55	0xbc81fe34	-0.015868284
56	0xbd51e0d9	-0.051239822
57	0xbe19f57f	-0.15035056
58	0x3cff7f7f	0.031188725
59	0xbd35e3b0	-0.044406593
60	0xbe106f58	-0.14104974
61	0x3d35cb29	0.0443832
62	0xbe9680f6	-0.29395264
63	0x3c1842c0	0.009293258
64	0x3c447e74	0.011993039
65	0xbc4065a4	-0.011742983
66	0x3dfc22f3	0.123113535
67	0xbafadef1	-0.0019139928
68	0xbc52c8e7	-0.012865282
69	0xbd8fdb0d	-0.070242025
70	0x3e92bf34	0.286615
71	0x3da377d9	0.079818435
72	0x3d8cc2b7	0.068730764
73	0x3e46e204	0.19422156
74	0xbdedbdb2	-0.11608447
75	0x3dabb5f3	0.083843134
76	0x3d14318b	0.03618006
77	0xbdcc0b68	-0.09963113
78	0xbce9cbb0	-0.028539509
79	0xbdd2fa72	-0.10301675
80	0x3dadcec5	0.08486704
81	0xbe03417e	-0.12817952
82	0x3ecca516	0.399697
83	0x3dd6dc9a	0.10491295
84	0x3e4ff9e4	0.2031017
85	0x3df7058c	0.12061605
86	0xb8786c62	-5.9228747e-05
87	0xbc85f773	-0.016353345
88	0xbd4e2dea	-0.050336756
89	0xbd9e0945	-0.07716612
90	0xbe279314	-0.163647
91	0xbdc31dff	-0.09527206
92	0x3c10e0c2	0.008842649
93	0x3dcbbaa5	0.09947709
94	0x3d46d76c	0.048545286
95	0xbd2a966d	-0.041647363
96	0x3e875f28	0.26439786
97	0x3f009744	0.50230813
98	0x3e2ed8b3	0.17074852
99	0x3ec03d42	0.37546736
100	0x3e4583d2	0.19288567
101	0xbe6c8136	-0.23096165
102	0x3c800591	0.015627654
103	0xbdb01918	-0.08598536
104	0xbdd2f127	-0.102999024
105	0xbe8f596c	-0.2799791
106	0xbdd7caa3	-0.10536697
107	0x3e0fe991	0.14053942
108	0x3e38e733	0.18056946
109	0x3e1cb76a	0.15304342
110	0xbd764916	-0.060128294
111	0xbd86ced3	-0.06582417
112	0xbbdd8793	-0.0067605465
113	0x3d9b6b85	0.07588867
114	0x3e9b6fd0	0.30358744
115	0x3e0322d3	0.12806253
116	0xbdae110d	-0.08499346
117	0x3d0edbae	0.03487747
118	0xbda8bb15	-0.08238808
119	0xbd61f629	-0.055166397
120	0x3d3b6da8	0.045758873
121	0x3d01a522	0.031651624
122	0xbe74018a	-0.23828712
123	0x3e909ea5	0.28246036
124	0xbd9f2eeb	-0.07772621
125	0xbd47e0dd	-0.04879843
126	0xbcd0ddfb	-0.025496474
127	0xbe291b3c	-0.16514295
128	0xbdedfc6b	-0.116204105
129	0x3e09f851	0.13473631
130	0xbc9032a5	-0.017602274
131	0x3e6a1274	0.22858602
132	0xbe815e59	-0.25267294
133	0x3e9b44ef	0.3032603
134	0x3c36e45c	0.011162844
135	0x3d888598	0.06666106
136	0x3ee82b1d	0.45345393
137	0x3dae1559	0.085001655
138	0xbe33d091	-0.1756003
139	0xbd8c2ad8	-0.06844109
140	0xbd76d807	-0.060264613
141	0xbe338347	-0.17530547
142	0xbd883f77	-0.0665273
143	0xbe5f0fd3	-0.2178338
144	0x3e793ad8	0.24338853
145	0xbdf1faa4	-0.11815384
146	0xbe4b3c72	-0.19847277
147	0xbe051fb0	-0.13000369
148	0xbd3301d8	-0.04370293
149	0x3e3dbbbe	0.18528649
150	0x3e018c90	0.12651277
151	0xbbfad0de	-0.0076542934
152	0x3cc09dee	0.023512807
153	0x3e26839b	0.16261141
154	0x3afc4e21	0.0019249358
155	0xbe525788	-0.20541203
156	0xbda0ad6f	-0.0784558
157	0xbe309235	-0.17243274
158	0x3f199acb	0.6000182
159	0x3e048700	0.12942123
160	0x3d9c7d02	0.07641031
161	0x3dca211e	0.09869598
162	0x3e3ff788	0.1874677
163	0xbe19a59b	-0.1500458
164	0x3ea70b92	0.32626015
165	0xbdbd368e	-0.09238921
166	0x3e8544f1	0.2602916
167	0xbe54cc8a	-0.2078115
168	0x3ebecc00	0.37265015
169	0xbccf5654	-0.02530972
170	0xbc9d8bba	-0.019231666
171	0x3ca1baf2	0.019742463
172	0xbdc55916	-0.096361324
173	0x3dead6ac	0.11466727
174	0x3e326678	0.17421901
175	0xbd49affc	-0.049240097
176	0x3dfdcd1e	0.123926386
177	0x3e83674c	0.25664747
178	0x3d44546d	0.047932077
179	0xbe91a4f3	-0.2844616
180	0xbdcfa386	-0.101386115
181	0xbccf3593	-0.0252941
182	0xbe190af9	-0.14945592
183	0xbdb4fd7f	-0.08837413
184	0xbd75b290	-0.059984744
185	0xbc82c629	-0.01596363
186	0xbca2abee	-0.019857373
187	0x3e8afd4b	0.27146372
188	0xbe5a1877	-0.21298395
189	0xbe5f0f2f	-0.21783136
190	0xbdbd4d72	-0.09243287
191	0x3d5c2995	0.053750593
192	0x3e570446	0.20997724
193	0x3de4cbd7	0.11171692
194	0x3d37f684	0.04491283
195	0x3b344e05	0.0027512324
196	0xbcc3feb2	-0.02392516
197	0xbb3d4744	-0.002888159
198	0xbe426d90	-0.18987107
199	0x3c98b87b	0.018642655
200	0xbd8753ce	-0.06607781
201	0xbd32882b	-0.04358689
202	0x3de33097	0.11093252
203	0x3e895dd2	0.26829392
204	0xbcc2d992	-0.023785386
205	0xbe0e54b2	-0.13899496
206	0xbd82a8f5	-0.06379882
207	0x3ed0c978	0.40778708
208	0x3e1e5b24	0.15464455
209	0xbdb3867c	-0.08765885
210	0xbd413e0f	-0.047178324
211	0xbdb357f7	-0.08757012
212	0xbe1aa8f4	-0.15103513
213	0x3ecce3ea	0.40017635
214	0xbe702c30	-0.23454356
215	0xbde47ca3	-0.11156585
216	0x3e83e1b6	0.2575814
217	0x3dfabd49	0.122431345
218	0xbd47715e	-0.0486921
219	0x3e6f83cb	0.23390119
220	0x3c8756c3	0.016520863
221	0xbd8966a3	-0.067090295
222	0x3dc31e9b	0.09527322
223	0x3ca7c645	0.020480284
224	0x3ccd59fd	0.025067324
225	0xbdbd8879	-0.09254546
226	0xbd57a730	-0.052649677
227	0xbd4e6f2b	-0.050398987
228	0xbda4a107	-0.08038526
229	0xbe42102d	-0.18951483
230	0xbddc26ab	-0.10749563
231	0x3e96acd0	0.2942872
232	0x3c6a363c	0.014295157
233	0x3e9106d7	0.2832553
234	0xbd4db9f5	-0.05022617
235	0x3dffdca0	0.12493253
236	0x3e068214	0.13135558
237	0xbe0af3e1	-0.13569595
238	0x3d2665ae	0.040624313
239	0x3e67ad83	0.22624783

l1.bias_rho f4 [240]
0	0xc03ce4d0	-2.9514656
1	0xc0492c96	-3.1433463
2	0xc049e937	-3.1548593
3	0xc03bab65	-2.932336
4	0xc03eecee	-2.983211
5	0xc0352cc0	-2.8308563
6	0xc0442ab0	-3.0651054
7	0xc03e0a34	-2.9693727
8	0xc0402bfa	-3.002684
9	0xc0459fef	-3.0878866
10	0xc04411bb	-3.0635822
11	0xc03b8515	-2.9299977
12	0xc03b82c2	-2.9298558
13	0xc03fe961	-2.9986193
14	0xc040ead3	-3.0143325
15	0xc040aa0f	-3.0103796
16	0xc03feacf	-2.9987066
17	0xc03e0478	-2.9690228
18	0xc0366be2	-2.8503346
19	0xc0484afc	-3.1295767
20	0xc043a594	-3.056981
21	0xc0413cb5	-3.0193303
22	0xc03c270a	-2.9398828
23	0xc043d5c8	-3.0599232
24	0xc03baad4	-2.9323015
25	0xc0372be7	-2.8620546
26	0xc0434512	-3.0510907
27	0xc0481765	-3.126428
28	0xc03b3703	-2.9252326
29	0xc03cbd7a	-2.9490647
30	0xc03675d9	-2.8509429
31	0xc04106a5	-3.0160306
32	0xc03ef4c8	-2.9836903
33	0xc045392b	-3.0816143
34	0xc04a1fbc	-3.158187
35	0xc048fbbc	-3.1403646
36	0xc04785a2	-3.1175313
37	0xc03633bd	-2.8469079
38	0xc042523d	-3.0362694
39	0xc03edbfb	-2.9821765
40	0xc041e73a	-3.029738
41	0xc03b33b8	-2.9250317
42	0xc03e1f3e	-2.9706569
43	0xc0403505	-3.003236
44	0xc03ac377	-2.9181802
45	0xc03fee57	-2.998922
46	0xc042fbb7	-3.0466135
47	0xc03c1db7	-2.9393137
48	0xc035eb67	-2.8424928
49	0xc042e232	-3.0450559
50	0xc035e1d2	-2.841908
51	0xc0407ba0	-3.0075455
52	0xc031dc82	-2.7790837
53	0xc03f6742	-2.9906774
54	0xc04201a3	-3.03135
55	0xc03a9e3d	-2.915908
56	0xc04bfad9	-3.1871855
57	0xc03c49ea	-2.9420114
58	0xc035fa80	-2.8434143
59	0xc0473e1d	-3.113166
60	0xc03f2cfb	-2.9871204
61	0xc039abfa	-2.9011216
62	0xc033e9f5	-2.8111546
63	0xc039f105	-2.9053357
64	0xc0443c00	-3.066162
65	0xc03d82af	-2.9611013
66	0xc04b523b	-3.176894
67	0xc03ff6e0	-2.999443
68	0xc04db8a0	-3.2143936
69	0xc0417d56	-3.023275
70	0xc03d8a79	-2.9615767
71	0xc040ff58	-3.015585
72	0xc043d588	-3.059908
73	0xc03e60df	-2.9746625
74	0xc0465087	-3.098665
75	0xc02cc5a4	-2.699563
76	0xc040b91e	-3.0112987
77	0xc04433cf	-3.0656621
78	0xc042fece	-3.046802
79	0xc0358096	-2.8359733
80	0xc0426623	-3.037484
81	0xc048ec68	-3.139429
82	0xc0396d9b	-2.8973148
83	0xc03d8475	-2.9612095
84	0xc0410816	-3.0161185
85	0xc042daaf	-3.0445974
86	0xc03d9e92	-2.9628034
87	0xc040e36b	-3.0138805
88	0xc0446ca4	-3.069131
89	0xc044eabc	-3.076827
90	0xc040e9ed	-3.0142777
91	0xc03da9d8	-2.9634914
92	0xc041773c	-3.0229025
93	0xc040a8bc	-3.0102987
94	0xc03febc9	-2.9987662
95	0xc03c8947	-2.9458787
96	0xc03e4692	-2.9730573
97	0xc03a958b	-2.9153774
98	0xc04c71f6	-3.1944556
99	0xc0464470	-3.097927
100	0xc036fe98	-2.8592892
101	0xc03e27c7	-2.9711778
102	0xc0409abc	-3.0094442
103	0xc044aea3	-3.073159
104	0xc0419e63	-3.0252922
105	0xc0441095	-3.063512
106	0xc0449b2e	-3.0719714
107	0xc03b6f5c	-2.9286718
108	0xc0389812	-2.8842816
109	0xc04170e5	-3.0225155
110	0xc03f2bf2	-2.9870572
111	0xc0472024	-3.1113367
112	0xc03e2b93	-2.9714096
113	0xc043765e	-3.0540996
114	0xc02b5365	-2.676965
115	0xc03acf79	-2.9189131
116	0xc0495b64	-3.146203
117	0xc0411e0a	-3.0174584
118	0xc046e7ab	-3.10789
119	0xc0440c7b	-3.0632617
120	0xc0427edc	-3.038993
121	0xc03bd37c	-2.934783
122	0xc03b6e61	-2.928612
123	0xc0453df2	-3.0819058
124	0xc036f2e3	-2.8585746
125	0xc0395b7f	-2.8962095
126	0xc04443d0	-3.066639
127	0xc03ba206	-2.9317641
128	0xc03b7acc	-2.92937
129	0xc04ac4f8	-3.168272
130	0xc04029c1	-3.0025485
131	0xc03a038f	-2.9064672
132	0xc04175e2	-3.02282
133	0xc037ce23	-2.8719566
134	0xc044f587	-3.0774858
135	0xc0387529	-2.882151
136	0xc0310b1b	-2.7663028
137	0xc03e1508	-2.9700336
138	0xc04a5f8d	-3.162082
139	0xc049f9d7	-3.155874
140	0xc03a9621	-2.9154131
141	0xc0443eb3	-3.0663269
142	0xc045492a	-3.0825906
143	0xc0457ef1	-3.085873
144	0xc04070fc	-3.006896
145	0xc03e5876	-2.9741492
146	0xc03f8f14	-2.9931078
147	0xc045fe62	-3.0936513
148	0xc03f08d4	-2.9849138
149	0xc03dd120	-2.965889
150	0xc042af07	-3.0419328
151	0xc03e8459	-2.9768279
152	0xc0411b64	-3.0172968
153	0xc0446527	-3.0686738
154	0xc03d6127	-2.9590547
155	0xc03f32e6	-2.9874816
156	0xc03419d8	-2.8140774
157	0xc03abecb	-2.917895
158	0xc03c71a0	-2.9444351
159	0xc0434a5c	-3.0514135
160	0xc0393f94	-2.8945055
161	0xc0420c78	-3.032011
162	0xc03ceabe	-2.9518275
163	0xc04838f6	-3.1284766
164	0xc03612f7	-2.8449075
165	0xc04a0ec2	-3.1571507
166	0xc04a02a5	-3.1564114
167	0xc03b886d	-2.9302018
168	0xc04549b3	-3.0826232
169	0xc03ba57c	-2.9319754
170	0xc03d03c1	-2.9533541
171	0xc03f4acb	-2.98894
172	0xc03af0e4	-2.9209528
173	0xc042e9eb	-3.0455272
174	0xc037b4b2	-2.8704038
175	0xc03b85d9	-2.9300444
176	0xc03f198d	-2.9859345
177	0xc035d057	-2.840841
178	0xc03edcc2	-2.982224
179	0xc03fcbee	-2.9968219
180	0xc03275fb	-2.788451
181	0xc04356dd	-3.0521767
182	0xc042ce58	-3.0438442
183	0xc048e681	-3.1390688
184	0xc045b717	-3.0893
185	0xc03cbe67	-2.9491212
186	0xc0407eaa	-3.007731
187	0xc03d33a2	-2.9562764
188	0xc0376995	-2.8658192
189	0xc0467850	-3.1010933
190	0xc047a2a4	-3.1193018
191	0xc03be55b	-2.9358737
192	0xc049178e	-3.1420627
193	0xc0411bce	-3.017322
194	0xc05020a7	-3.251993
195	0xc039b0b3	-2.9014099
196	0xc035862c	-2.8363142
197	0xc0430a65	-3.0475094
198	0xc04b0f2a	-3.1728005
199	0xc0420b7b	-3.0319507
200	0xc038be23	-2.886605
201	0xc03a2c1f	-2.908943
202	0xc048388d	-3.1284516
203	0xc03b0b32	-2.9225583
204	0xc044a074	-3.0722933
205	0xc03f3934	-2.9878664
206	0xc044e921	-3.076729
207	0xc043ed21	-3.0613482
208	0xc03f3e05	-2.9881604
209	0xc03a1edb	-2.9081333
210	0xc041c50f	-3.0276525
211	0xc03aaa33	-2.9166381
212	0xc046b77c	-3.104949
213	0xc039117e	-2.8916926
214	0xc043d4ba	-3.0598588
215	0xc03e519b	-2.9737308
216	0xc0478767	-3.1176393
217	0xc03f502a	-2.9892678
218	0xc0436901	-3.053284
219	0xc0405aaf	-3.005535
220	0xc041eef9	-3.0302107
221	0xc048ea22	-3.1392903
222	0xc044a50f	-3.0725744
223	0xc03812fa	-2.8761582
224	0xc03b8164	-2.9297724
225	0xc03ca7f8	-2.947752
226	0xc041ea68	-3.029932
227	0xc04790a6	-3.1182036
228	0xc03e97b0	-2.9780083
229	0xc045425e	-3.0821757
230	0xc040d33e	-3.0128932
231	0xc03fa351	-2.994343
232	0xc0458e25	-3.0868008
233	0xc03eff44	-2.9843302
234	0xc0462263	-3.0958488
235	0xc0462ad5	-3.0963643
236	0xc03cd40e	-2.9504428
237	0xc0485392	-3.1301007
238	0xc0454544	-3.0823526
239	0xc039244c	-2.8928404

l1.weight.mu f4 [240, 29]
0	0x3cad20b0	0.02113375
1	0x3d1a1fd0	0.037627995
2	0x3c7d0246	0.015442437
3	0x3c45dc06	0.012076383
4	0xbe72f338	-0.23725593
5	0xbe4efc1c	-0.2021336
6	0xbdc9aa39	-0.098469205
7	0xbde74445	-0.11292318
8	0xbe092e3b	-0.13396542
9	0xbcea0e27	-0.028571201
10	0xbdfd6bae	-0.12374054
11	0xbd0d382a	-0.03447739
12	0x3c71efb8	0.014766626
13	0xbddad59f	-0.10685276
14	0x3df7c85a	0.12098761
15	0xbe0f61c6	-0.14002141
16	0x3e2a4aae	0.1663005
17	0xbdc65bd5	-0.09685484
18	0x3e374a6c	0.17899483
19	0xbe4a56b1	-0.19759633
20	0x3d54800c	0.051879928
21	0xbd7d5b40	-0.0618546
22	0xbcbed1b9	-0.023293363
23	0xbe235a9b	-0.15952532
24	0x3e114e58	0.14190042
25	0x3d854ac8	0.06508404
26	0x3e037e9c	0.12841266
27	0x3cf21d9a	0.02955513
28	0xbdf0558c	-0.11735067
29	0x3e376fec	0.17913789
30	0xbc8e863c	-0.017397992
31	0xbd89883c	-0.06715438
32	0x3bb78b08	0.0056012906
33	0xbaf9d7aa	-0.0019061465
34	0xbdf93e78	-0.12170118
35	0xbd4a83ce	-0.049442105
36	0x3d31548e	0.04329353
37	0xbdc4c0c0	-0.09607077
38	0x3dd1fe6c	0.10253605
39	0x3dba1d0b	0.09087571
40	0xbc6c6d60	-0.014430374
41	0xbd973bf4	-0.07384482
42	0xbcee2086	-0.029068243
43	0xbd3dca57	-0.046335544
44	0x3dd57f55	0.10424677
45	0xbb6e4849	-0.0036359003
46	0xbe27be6b	-0.16381232
47	0x3cd0cea9	0.025489168
48	0x3d43fdae	0.04784935
49	0xbc4e5f0b	-0.012595902
50	0xbd621394	-0.055194452
51	0x3d8ae53f	0.067820065
52	0xbd8befea	-0.06832869
53	0xbcce0367	-0.025148107
54	0x3d98f62d	0.07468829
55	0x3e03df1e	0.12878081
56	0xbdb5b801	-0.088729866
57	0xbdcf52a3	-0.101231836
58	0x3d0d70e8	0.034531504
59	0x3e7af300	0.2450676
60	0x3d866992	0.06563105
61	0x3e4bbcce	0.19896242
62	0x3df323a1	0.1187203
63	0xbdaaecbc	-0.08345935
64	0x3ce52a3e	0.027974244
65	0x3c496905	0.012293105
66	0x3e02d825	0.12777765
67	0x3cb8d6e8	0.022563413
68	0x3d9f8338	0.077887
69	0x3b56ea95	0.003279363
70	0x3e4cd286	0.20002183
71	0xbbfe7f09	-0.0077666086
72	0x3c3303d3	0.010926205
73	0xbca63cbf	-0.020292638
74	0xbcc00023	-0.023437565
75	0x3dbea98e	0.09309684
76	0xbdedc509	-0.11609847
77	0x3c462d0b	0.0120957
78	0xbd8ad0ee	-0.067781314
79	0xbc8c5f8d	-0.017135406
80	0x3e2c82ff	0.16846846
81	0x3e198ab6	0.1499432
82	0x3b9ff3e5	0.0048813694
83	0x3e95f6e2	0.2928992
84	0xbc8f6165	-0.017502496
85	0x3d67eef4	0.056624368
86	0xbe063156	-0.13104758
87	0x3e1aed1a	0.1512951
88	0xbd0ed704	-0.034873024
89	0x3c1b7490	0.00948824
90	0xbdc1f2fa	-0.09470172
91	0xbd3306b3	-0.04370756
92	0xbdb26fbc	-0.08712718
93	0xbb313523	-0.0027039729
94	0xbd8c9d39	-0.06865925
95	0xbd6f5a31	-0.058435623
96	0x3da1afd8	0.07894868
97	0xbe099e84	-0.13439375
98	0x3c5d1640	0.013494074
99	0xbd201965	-0.039086718
100	0x3e5c527f	0.21515845
101	0xbd25c189	-0.040467773
102	0xbd3d2559	-0.046178196
103	0x3c0a2d31	0.008433626
104	0x3e1b093d	0.15140243
105	0xbe38b777	-0.18038736
106	0xbce46c2a	-0.027883608
107	0xbdc49fce	-0.09600793
108	0xbdf4d36a	-0.119543865
109	0xbdb32ece	-0.08749162
110	0xbc27c727	-0.010240353
111	0x3deb1a75	0.11479656
112	0xbddc4551	-0.107554086
113	0x3db27058	0.08712834
114	0x3dc98c99	0.0984127
115	0xbcfeef17	-0.031119866
116	0xbcd2d2d1	-0.02573529
117	0x3dc2468a	0.094861105
118	0x3e203cf8	0.15648258
119	0x3d821e52	0.063534394
120	0x3e1798eb	0.14804427
121	0xbde4233a	-0.111395314
122	0x3df413f0	0.11917865
123	0x3de0bbb4	0.109733015
124	0xbe283c70	-0.16429305
125	0xbce3ab2e	-0.027791586
126	0x3e138591	0.1440642
127	0xbcd253c0	-0.0256747
128	0xbc905591	-0.017618926
129	0xbdead84d	-0.11467037
130	0x3c091c23	0.008368525
131	0xbc8be2ea	-0.017075974
132	0x3d7247f5	0.059150655
133	0xbe78454c	-0.24245185
134	0x3db31ece	0.0874611
135	0xbcae326c	-0.021264277
136	0x3e38f733	0.18063049
137	0x3dd68607	0.104747824
138	0xbd8166b8	-0.0631842
139	0xbc745576	-0.014912954
140	0x3d6ea33b	0.058261137
141	0xbcd6b07d	-0.026207203
142	0x3d28cd0b	0.04121117
143	0x3deea351	0.11652244
144	0x3dab9805	0.08378605
145	0xbd586c91	-0.052837912
146	0xbddd2ac2	-0.10799171
147	0x3c752bdf	0.014964073
148	0x3e2a7fce	0.16650316
149	0x3c95ab8d	0.018270278
150	0xbded25b6	-0.115794584
151	0xbd540c9b	-0.051769834
152	0xbe0da1c1	-0.13831235
153	0xbdd7b5ba	-0.105327085
154	0xbd265a71	-0.040613595
155	0xbd6cbf8b	-0.057799857
156	0x3ddbdc16	0.107353374
157	0x3cd5a024	0.026077338
158	0xbd975534	-0.07389298
159	0xbde501a9	-0.11181957
160	0x3dc9cc34	0.09853402
161	0x3da5406e	0.080689296
162	0xbe19a585	-0.15004547
163	0x3d967cc6	0.073480174
164	0x3d11fd34	0.035641864
165	0xbdd65cdd	-0.10466931
166	0x3ddc4603	0.10755541
167	0x3b632aa5	0.003466287
168	0xbc646a1f	-0.013941317
169	0xbe9d8592	-0.3076597
170	0x3e13101b	0.14361612
171	0xbe696447	-0.22792159
172	0x3e820923	0.25397596
173	0xbc274751	-0.010209874
174	0xbd6796e2	-0.056540377
175	0x3e6bf2a7	0.23041783
176	0xbdde7009	-0.10861213
177	0x3bb51438	0.005526092
178	0xbd03687e	-0.032082073
179	0x3d34ec09	0.044170413
180	0xbda887f9	-0.0822906
181	0x3e3511e8	0.17682612
182	0xbd4608e5	-0.048348326
183	0x3ca38367	0.019960118
184	0x3d848b96	0.064719364
185	0x3e1c866d	0.15285654
186	0xbc9ff30c	-0.019525073
187	0x3d823bb5	0.063590445
188	0x3c6c10bf	0.014408289
189	0xbdfb4d97	-0.122706585
190	0x3de80bb9	0.11330361
191	0xbb7dd6ed	-0.0038732842
192	0x3cdbaaaf	0.026814787
193	0x3cc46d17	0.0239778
194	0xbd746842	-0.05966974
195	0x3d74bbaa	0.059749283
196	0x3e0d4f81	0.1379986
197	0xbcbada50	-0.022809178
198	0x3c04c1f7	0.008102885
199	0xbb859e5b	-0.0040777153
200	0x3dcc5c35	0.099785246
201	0x3d0536c3	0.032522928
202	0x3dac8e36	0.08425562
203	0xbe15ce45	-0.14629467
204	0xbdc93bd8	-0.098258674
205	0x3d0d5747	0.034507062
206	0xbd632af7	-0.055460896
207	0x3d81b051	0.06332458
208	0xbd881e14	-0.06646362
209	0x3d45bc18	0.048275083
210	0xbdee64e7	-0.11640339
211	0x3e06157d	0.13094135
212	0x3d7f9da9	0.062406216
213	0x3bfa46ff	0.007637858
214	0x3cb1a474	0.021684863
215	0xbddd0bd4	-0.10793272
216	0xbd0a03cf	-0.03369504
217	0xbc0db855	-0.008649905
218	0xbd528ef6	-0.05140587
219	0xbe0a62df	-0.13514279
220	0x3d9e0991	0.077166684
221	0x3d8e85b9	0.06959099
222	0x3e4e5cad	0.2015254
223	0x3e2cdba9	0.16880669
224	0x3d514835	0.051094253
225	0x3d8dfec3	0.069333576
226	0x3e0cb216	0.1373981
227	0xbd959cce	-0.07305299
228	0xbe937a11	-0.28804067
229	0xbdfb42ae	-0.122685775
230	0x3a7f0946	0.000972886
231	0xbe1fda43	-0.15610604
232	0xbd57e7d3	-0.05271132
233	0xbc8ba657	-0.01704709
234	0xbd860064	-0.06543043
235	0x3d9e25be	0.077220425
236	0xbdc7d2ac	-0.09756979
237	0x3db230c6	0.08700709
238	0x3ba6dde8	0.0050923713
239	0xbd2e5025	-0.0425569
240	0xbd774c07	-0.06037524
241	0x3c7bc348	0.015366383
242	0x3dab3dda	0.083614066
243	0x3e05f005	0.13079841
244	0x3d6c484b	0.05768613
245	0xbd0037b2	-0.031303115
246	0x3a1637e8	0.00057303766
247	0xbdaa93bf	-0.083289616
248	0x3e17dc72	0.14830187
249	0xbde2c0a3	-0.11071899
250	0xbce3c173	-0.027802205
251	0x3c8d4892	0.017246518
252	0xbd938af3	-0.07204237
253	0xbe8de80c	-0.277161
254	0x3c866147	0.016403807
255	0xbc91d8bd	-0.017803544

l1.weight.rho f4 [240, 29]
0	0xc03db12d	-2.963939
1	0xc044b6e3	-3.0736625
2	0xc044045e	-3.0627666
3	0xc0453a45	-3.0816815
4	0xc041b9ca	-3.0269647
5	0xc03e2c15	-2.9714406
6	0xc04498ef	-3.0718343
7	0xc03f7bd8	-2.9919338
8	0xc03bd506	-2.934877
9	0xc03f1b60	-2.9860458
10	0xc03a6c28	-2.9128513
11	0xc042d2ed	-3.044124
12	0xc0434dd8	-3.0516262
13	0xc0496e23	-3.1473472
14	0xc03e724c	-2.9757261
15	0xc03f0637	-2.9847543
16	0xc0418db8	-3.0242748
17	0xc039f50f	-2.9055822
18	0xc04561a5	-3.0840847
19	0xc039df61	-2.904259
20	0xc045d541	-3.091141
21	0xc0425cc4	-3.036912
22	0xc047f975	-3.1246006
23	0xc048df3a	-3.1386247
24	0xc03d908d	-2.9619477
25	0xc046a34b	-3.1037166
26	0xc03a1088	-2.907259
27	0xc043a9f1	-3.0572474
28	0xc03ad85a	-2.919455
29	0xc03d44f7	-2.9573343
30	0xc03fb826	-2.9956145
31	0xc050e044	-3.263688
32	0xc04b9821	-3.1811602
33	0xc04249ba	-3.03575
34	0xc0389277	-2.8839395
35	0xc03cc663	-2.9496086
36	0xc043d99b	-3.0601566
37	0xc043ef82	-3.0614934
38	0xc04a7b9b	-3.1637943
39	0xc03dbe9d	-2.964759
40	0xc0471879	-3.1108687
41	0xc04c902e	-3.1963
42	0xc04277bd	-3.0385582
43	0xc04133b0	-3.0187798
44	0xc04b79c4	-3.179307
45	0xc04ad867	-3.1694582
46	0xc042a313	-3.0412033
47	0xc041a750	-3.025837
48	0xc044aa57	-3.0728967
49	0xc041e081	-3.0293276
50	0xc03a3186	-2.9092727
51	0xc04507ba	-3.0785966
52	0xc040a49f	-3.0100477
53	0xc0444ace	-3.0670657
54	0xc03aac2e	-2.916759
55	0xc0490ff5	-3.141599
56	0xc03ce6a5	-2.9515774
57	0xc03c4685	-2.9418042
58	0xc040b3ba	-3.0109696
59	0xc03c6cd0	-2.9441414
60	0xc0401c52	-3.0017285
61	0xc03b2c10	-2.9245644
62	0xc03e1571	-2.9700587
63	0xc042a61a	-3.041388
64	0xc035890a	-2.8364892
65	0xc035b938	-2.8394299
66	0xc03e7513	-2.9758956
67	0xc0354d18	-2.8328304
68	0xc044e0ef	-3.0762289
69	0xc0429f7b	-3.040984
70	0xc0455252	-3.0831494
71	0xc0471a6b	-3.1109874
72	0xc045a107	-3.0879533
73	0xc03d0acd	-2.9537842
74	0xc044ba96	-3.0738883
75	0xc048251d	-3.1272652
76	0xc0497197	-3.147558
77	0xc044ff56	-3.0780845
78	0xc03da763	-2.9633415
79	0xc0405210	-3.0050087
80	0xc044297a	-3.0650315
81	0xc03e8461	-2.9768298
82	0xc04484d6	-3.0706077
83	0xc03a2954	-2.9087725
84	0xc03e50ea	-2.9736886
85	0xc0426be1	-3.0378344
86	0xc03c9904	-2.9468393
87	0xc0405f76	-3.0058265
88	0xc041af84	-3.0263376
89	0xc04282e9	-3.0392401
90	0xc040185a	-3.0014863
91	0xc043edc9	-3.0613883
92	0xc038de3b	-2.8885639
93	0xc03da06a	-2.962916
94	0xc049b3c6	-3.1515975
95	0xc03e376a	-2.9721322
96	0xc03fb149	-2.9951956
97	0xc03b09ed	-2.9224808
98	0xc038b5a0	-2.8860855
99	0xc0372ba7	-2.8620393
100	0xc03bd9be	-2.935165
101	0xc0391803	-2.8920906
102	0xc03a5da4	-2.9119654
103	0xc0428b47	-3.0397508
104	0xc042d447	-3.0442064
105	0xc04253b7	-3.0363595
106	0xc041c914	-3.0278978
107	0xc03e31d5	-2.9717915
108	0xc039e12a	-2.904368
109	0xc041e68d	-3.0296967
110	0xc03fcf24	-2.9970179
111	0xc03cd8f5	-2.950742
112	0xc045cd5c	-3.0906591
113	0xc0375c1b	-2.8649967
114	0xc03d3ef0	-2.9569664
115	0xc0395dec	-2.8963575
116	0xc03c813d	-2.945388
117	0xc0361a9e	-2.8453746
118	0xc03d0478	-2.9533978
119	0xc038ead9	-2.889334
120	0xc042549a	-3.0364137
121	0xc03d3124	-2.9561243
122	0xc038c508	-2.8870258
123	0xc03f6be6	-2.9909606
124	0xc03aa87e	-2.916534
125	0xc043aa60	-3.0572739
126	0xc03cae8b	-2.9481533
127	0xc049b873	-3.151883
128	0xc03e41c9	-2.9727652
129	0xc0454da9	-3.082865
130	0xc032a252	-2.7911572
131	0xc0413958	-3.019125
132	0xc0469f60	-3.1034775
133	0xc04138bb	-3.0190876
134	0xc0416abc	-3.0221395
135	0xc035c208	-2.8399677
136	0xc03d6cab	-2.9597576
137	0xc040a41b	-3.0100162
138	0xc03c140b	-2.9387233
139	0xc03ec7d0	-2.9809456
140	0xc046fa22	-3.109017
141	0xc0455712	-3.0834394
142	0xc043d1ee	-3.059688
143	0xc03fe716	-2.9984794
144	0xc04978e6	-3.148004
145	0xc03705ae	-2.8597217
146	0xc02bccaf	-2.684368
147	0xc043115e	-3.047935
148	0xc047ac38	-3.1198864
149	0xc0474614	-3.1136522
150	0xc0461152	-3.0948071
151	0xc0480409	-3.1252463
152	0xc03711fe	-2.8604732
153	0xc03d51dd	-2.9581215
154	0xc04100f1	-3.0156825
155	0xc03e4596	-2.9729972
156	0xc03cb781	-2.9487002
157	0xc044b2a5	-3.0734036
158	0xc0497549	-3.1477835
159	0xc034e3b3	-2.8263977
160	0xc03cbf3f	-2.9491727
161	0xc0397fc0	-2.8984222
162	0xc04ab07c	-3.1670218
163	0xc03a8367	-2.9142702
164	0xc03cdc40	-2.950943
165	0xc03ea8ed	-2.9790604
166	0xc03e2d03	-2.9714973
167	0xc041ca09	-3.0279562
168	0xc03d3f41	-2.9569857
169	0xc03922c4	-2.892747
170	0xc03bd3fa	-2.934813
171	0xc0426b6c	-3.0378065
172	0xc0431990	-3.0484352
173	0xc0335679	-2.8021529
174	0xc04bf9e1	-3.1871264
175	0xc03e6544	-2.9749308
176	0xc047d8f6	-3.1226172
177	0xc03abe21	-2.9178545
178	0xc047b997	-3.1207025
179	0xc0365662	-2.8490224
180	0xc046429a	-3.097815
181	0xc048d896	-3.1382194
182	0xc03dc783	-2.9653022
183	0xc03ff654	-2.9994097
184	0xc042ca42	-3.0435948
185	0xc0433b21	-3.050484
186	0xc0415d5c	-3.0213232
187	0xc044b204	-3.0733652
188	0xc047a0b6	-3.119184
189	0xc0446fe8	-3.0693302
190	0xc047b21c	-3.120246
191	0xc03c0a64	-2.9381342
192	0xc044c37b	-3.0744312
193	0xc03b099a	-2.922461
194	0xc03f2144	-2.9864054
195	0xc0421372	-3.0324368
196	0xc0407e46	-3.007707
197	0xc0489602	-3.1341558
198	0xc04922d6	-3.1427512
199	0xc041c43b	-3.027602
200	0xc0469bdf	-3.1032636
201	0xc04020e5	-3.0020077
202	0xc0393fa5	-2.8945096
203	0xc0461b41	-3.0954134
204	0xc048f106	-3.139711
205	0xc038d765	-2.8881466
206	0xc03dee4c	-2.9676695
207	0xc034a568	-2.8225956
208	0xc03aed5e	-2.9207377
209	0xc045b9c4	-3.0894632
210	0xc044b58a	-3.0735803
211	0xc0461810	-3.0952187
212	0xc039de24	-2.9041834
213	0xc043c550	-3.058918
214	0xc0430b8e	-3.0475802
215	0xc04590ff	-3.0869749
216	0xc03a8508	-2.9143696
217	0xc0412786	-3.0180373
218	0xc03f7e44	-2.9920816
219	0xc048f97f	-3.140228
220	0xc036efc5	-2.8583844
221	0xc0438748	-3.055132
222	0xc03d473c	-2.9574728
223	0xc03d93ea	-2.962153
224	0xc0458ddd	-3.0867836
225	0xc0411db9	-3.0174391
226	0xc03cd14c	-2.9502745
227	0xc049cf0f	-3.1532629
228	0xc042cb9f	-3.043678
229	0xc0404700	-3.0043335
230	0xc03e98ac	-2.9780684
231	0xc0494d0a	-3.145327
232	0xc0471520	-3.1106644
233	0xc040a042	-3.0097814
234	0xc044f59d	-3.077491
235	0xc043a813	-3.0571334
236	0xc033241f	-2.7990797
237	0xc04422cb	-3.0646236
238	0xc03ba4e9	-2.9319403
239	0xc042f62a	-3.0462747
240	0xc038354d	-2.8782532
241	0xc04a67eb	-3.1625926
242	0xc0438329	-3.0548804
243	0xc0379d91	-2.868992
244	0xc03ed963	-2.9820182
245	0xc04b4429	-3.1760352
246	0xc030c72e	-2.762157
247	0xc040ed41	-3.0144808
248	0xc03fa4cf	-2.994434
249	0xc0345a2e	-2.8180041
250	0xc033f7a7	-2.8119905
251	0xc0477ef0	-3.1171227
252	0xc045dd15	-3.0916188
253	0xc03d5d8e	-2.9588351
254	0xc03e0b26	-2.9694304
255	0xc03d079a	-2.953589

l1.bias.mu f4 [240]
0	0xbe23db30	-0.16001582
1	0xbcda35ff	-0.026637075
2	0x3d806ecd	0.062711336
3	0xbdfcc262	-0.12341763
4	0x3d0edd7e	0.0348792
5	0xbda9f486	-0.08298592
6	0xbdb40d33	-0.0879158
7	0xbdf96c4a	-0.121788576
8	0x3e035bb2	0.12827948
9	0x3b8104e5	0.003937351
10	0xbe6ae4bf	-0.22938822
11	0x3ea1bd9b	0.3158997
12	0xbd5b9b77	-0.05361506
13	0x3e3a44ff	0.18190382
14	0x3e9694e5	0.29410473
15	0x3c50be06	0.012740618
16	0xbd35be8c	-0.044371173
17	0xbd2021a5	-0.039094586
18	0xbd6fdd47	-0.058560636
19	0xbe3eedeb	-0.18645446
20	0xbe5602ab	-0.20899455
21	0x3d032cfc	0.032025322
22	0xbc5b95b9	-0.013402396
23	0x3d91b4a2	0.07114531
24	0xbdbd6c9c	-0.09249231
25	0xbe52cf96	-0.20587
26	0x3d725a25	0.059168
27	0xbdee84e4	-0.116464406
28	0xbd1bfbf5	-0.03808208
29	0x3bb6a317	0.005573641
30	0x3c885cb8	0.016645774
31	0xbdc58a2a	-0.09645493
32	0x3d368348	0.044558793
33	0x3e0ce40b	0.13758866
34	0x3e6267a2	0.22109845
35	0x3ebddc8e	0.37082332
36	0xbd2943f2	-0.041324563
37	0x3e0fc8f1	0.14041497
38	0xbdc20289	-0.0947314
39	0x39899b64	0.0002624645
40	0xbe0589ed	-0.13040896
41	0x3ecbd26d	0.3980898
42	0x3d758d12	0.05994899
43	0x3dbc6fc4	0.09201005
44	0x3e3e9bc8	0.18614113
45	0xbdf086d8	-0.117444694
46	0x3ecb53c8	0.39712358
47	0x3ddc8a2f	0.10768544
48	0x3e75df95	0.24011071
49	0xbc953dab	-0.018217882
50	0xbb1714f5	-0.0023053263
51	0x3ecd4eea	0.4009927
52	0x3eb04efc	0.3443526
53	0xbd8dc78b	-0.069228254
54	0x3e304c94	0.17216712
55	0xbc81fe34	-0.015868284
56	0xbd51e0d9	-0.051239822
57	0xbe19f57f	-0.15035056
58	0x3cff7f7f	0.031188725
59	0xbd35e3b0	-0.044406593
60	0xbe106f58	-0.14104974
61	0x3d35cb29	0.0443832
62	0xbe9680f6	-0.29395264
63	0x3c1842c0	0.009293258
64	0x3c447e74	0.011993039
65	0xbc4065a4	-0.011742983
66	0x3dfc22f3	0.123113535
67	0xbafadef1	-0.0019139928
68	0xbc52c8e7	-0.012865282
69	0xbd8fdb0d	-0.070242025
70	0x3e92bf34	0.286615
71	0x3da377d9	0.079818435
72	0x3d8cc2b7	0.068730764
73	0x3e46e204	0.19422156
74	0xbdedbdb2	-0.11608447
75	0x3dabb5f3	0.083843134
76	0x3d14318b	0.03618006
77	0xbdcc0b68	-0.09963113
78	0xbce9cbb0	-0.028539509
79	0xbdd2fa72	-0.10301675
80	0x3dadcec5	0.08486704
81	0xbe03417e	-0.12817952
82	0x3ecca516	0.399697
83	0x3dd6dc9a	0.10491295
84	0x3e4ff9e4	0.2031017
85	0x3df7058c	0.12061605
86	0xb8786c62	-5.9228747e-05
87	0xbc85f773	-0.016353345
88	0xbd4e2dea	-0.050336756
89	0xbd9e0945	-0.07716612
90	0xbe279314	-0.163647
91	0xbdc31dff	-0.09527206
92	0x3c10e0c2	0.008842649
93	0x3dcbbaa5	0.09947709
94	0x3d46d76c	0.048545286
95	0xbd2a966d	-0.041647363
96	0x3e875f28	0.26439786
97	0x3f009744	0.50230813
98	0x3e2ed8b3	0.17074852
99	0x3ec03d42	0.37546736
100	0x3e4583d2	0.19288567
101	0xbe6c8136	-0.23096165
102	0x3c800591	0.015627654
103	0xbdb01918	-0.08598536
104	0xbdd2f127	-0.102999024
105	0xbe8f596c	-0.2799791
106	0xbdd7caa3	-0.10536697
107	0x3e0fe991	0.14053942
108	0x3e38e733	0.18056946
109	0x3e1cb76a	0.15304342
110	0xbd764916	-0.060128294
111	0xbd86ced3	-0.06582417
112	0xbbdd8793	-0.0067605465
113	0x3d9b6b85	0.07588867
114	0x3e9b6fd0	0.30358744
115	0x3e0322d3	0.12806253
116	0xbdae110d	-0.08499346
117	0x3d0edbae	0.03487747
118	0xbda8bb15	-0.08238808
119	0xbd61f629	-0.055166397
120	0x3d3b6da8	0.045758873
121	0x3d01a522	0.031651624
122	0xbe74018a	-0.23828712
123	0x3e909ea5	0.28246036
124	0xbd9f2eeb	-0.07772621
125	0xbd47e0dd	-0.04879843
126	0xbcd0ddfb	-0.025496474
127	0xbe291b3c	-0.16514295
128	0xbdedfc6b	-0.116204105
129	0x3e09f851	0.13473631
130	0xbc9032a5	-0.017602274
131	0x3e6a1274	0.22858602
132	0xbe815e59	-0.25267294
133	0x3e9b44ef	0.3032603
134	0x3c36e45c	0.011162844
135	0x3d888598	0.06666106
136	0x3ee82b1d	0.45345393
137	0x3dae1559	0.085001655
138	0xbe33d091	-0.1756003
139	0xbd8c2ad8	-0.06844109
140	0xbd76d807	-0.060264613
141	0xbe338347	-0.17530547
142	0xbd883f77	-0.0665273
143	0xbe5f0fd3	-0.2178338
144	0x3e793ad8	0.24338853
145	0xbdf1faa4	-0.11815384
146	0xbe4b3c72	-0.19847277
147	0xbe051fb0	-0.13000369
148	0xbd3301d8	-0.04370293
149	0x3e3dbbbe	0.18528649
150	0x3e018c90	0.12651277
151	0xbbfad0de	-0.0076542934
152	0x3cc09dee	0.023512807
153	0x3e26839b	0.16261141
154	0x3afc4e21	0.0019249358
155	0xbe525788	-0.20541203
156	0xbda0ad6f	-0.0784558
157	0xbe309235	-0.17243274
158	0x3f199acb	0.6000182
159	0x3e048700	0.12942123
160	0x3d9c7d02	0.07641031
161	0x3dca211e	0.09869598
162	0x3e3ff788	0.1874677
163	0xbe19a59b	-0.1500458
164	0x3ea70b92	0.32626015
165	0xbdbd368e	-0.09238921
166	0x3e8544f1	0.2602916
167	0xbe54cc8a	-0.2078115
168	0x3ebecc00	0.37265015
169	0xbccf5654	-0.02530972
170	0xbc9d8bba	-0.019231666
171	0x3ca1baf2	0.019742463
172	0xbdc55916	-0.096361324
173	0x3dead6ac	0.11466727
174	0x3e326678	0.17421901
175	0xbd49affc	-0.049240097
176	0x3dfdcd1e	0.123926386
177	0x3e83674c	0.25664747
178	0x3d44546d	0.047932077
179	0xbe91a4f3	-0.2844616
180	0xbdcfa386	-0.101386115
181	0xbccf3593	-0.0252941
182	0xbe190af9	-0.14945592
183	0xbdb4fd7f	-0.08837413
184	0xbd75b290	-0.059984744
185	0xbc82c629	-0.01596363
186	0xbca2abee	-0.019857373
187	0x3e8afd4b	0.27146372
188	0xbe5a1877	-0.21298395
189	0xbe5f0f2f	-0.21783136
190	0xbdbd4d72	-0.09243287
191	0x3d5c2995	0.053750593
192	0x3e570446	0.20997724
193	0x3de4cbd7	0.11171692
194	0x3d37f684	0.04491283
195	0x3b344e05	0.0027512324
196	0xbcc3feb2	-0.02392516
197	0xbb3d4744	-0.002888159
198	0xbe426d90	-0.18987107
199	0x3c98b87b	0.018642655
200	0xbd8753ce	-0.06607781
201	0xbd32882b	-0.04358689
202	0x3de33097	0.11093252
203	0x3e895dd2	0.26829392
204	0xbcc2d992	-0.023785386
205	0xbe0e54b2	-0.13899496
206	0xbd82a8f5	-0.06379882
207	0x3ed0c978	0.40778708
208	0x3e1e5b24	0.15464455
209	0xbdb3867c	-0.08765885
210	0xbd413e0f	-0.047178324
211	0xbdb357f7	-0.08757012
212	0xbe1aa8f4	-0.15103513
213	0x3ecce3ea	0.40017635
214	0xbe702c30	-0.23454356
215	0xbde47ca3	-0.11156585
216	0x3e83e1b6	0.2575814
217	0x3dfabd49	0.122431345
218	0xbd47715e	-0.0486921
219	0x3e6f83cb	0.23390119
220	0x3c8756c3	0.016520863
221	0xbd8966a3	-0.067090295
222	0x3dc31e9b	0.09527322
223	0x3ca7c645	0.020480284
224	0x3ccd59fd	0.025067324
225	0xbdbd8879	-0.09254546
226	0xbd57a730	-0.052649677
227	0xbd4e6f2b	-0.050398987
228	0xbda4a107	-0.08038526
229	0xbe42102d	-0.18951483
230	0xbddc26ab	-0.10749563
231	0x3e96acd0	0.2942872
232	0x3c6a363c	0.014295157
233	0x3e9106d7	0.2832553
234	0xbd4db9f5	-0.05022617
235	0x3dffdca0	0.12493253
236	0x3e068214	0.13135558
237	0xbe0af3e1	-0.13569595
238	0x3d2665ae	0.040624313
239	0x3e67ad83	0.22624783
