checkpoints_16_tasks/16_task_groups_PUGCL_epochs_:75_lr_:0.005_hidden_:120_task_order_:[ 3 14  1 12  7  6  0 10  9 13  4  8  2 11 15  5]/model_4.pth.tar (torch_old, 81201 bytes, 136 tensors)

l1.weight_mu f4 [120, 29]
-0.10906023 -0.120021425 0.12487738 0.00060022983 -0.055159714 0.03499147 -0.11085412 0.06655758
-0.033636928 -0.021704286 0.068388775 -0.0537959 -0.12599911 -0.21496926 -0.09373859 0.18193467
-0.009910183 -0.10615922 0.08984062 0.0024279638 -0.037284866 0.10753927 -0.08789593 -0.014446084
0.0032251875 0.04014219 0.0442489 -0.14074722 -0.026737979 -0.08422168 0.19915463 -0.014010958
-0.20991932 -0.02435095 -0.14363007 0.037253182 -0.0840706 -0.08664188 0.037088078 -0.07269903
-0.07084267 -0.07308906 -0.07161781 -0.06841307 0.025384473 -0.02958935 -0.03966977 -0.17294097
-0.036484063 0.050140526 0.12824906 -0.16745424 0.09794156 -0.032329652 -0.061808553 -0.10517778
-0.11732026 -0.11436263 0.0053016795 0.16608453 0.12325429 -0.10696165 0.20841116 0.18729532
-0.045299824 0.1334827 0.002208554 0.18063606 0.13511425 -0.1682751 0.040069997 0.0990804
-0.059521843 0.047461916 0.03515543 -0.004615084 0.118342705 0.086055405 0.23457155 -0.06452857
-0.04150652 0.013530574 -0.058606252 0.13515942 0.124102704 -7.536206e-06 -0.0760307 0.20258267
0.026577262 0.021883998 0.02932797 0.10889738 0.062187843 -0.0092069665 -0.019139942 0.102409974
-0.084329166 -0.06560695 0.08758313 0.07336566 -0.099131286 0.0032710277 -0.08791318 -0.15479217
0.04248038 -0.05097181 0.01995434 0.18597397 -0.014903942 -0.077299215 0.059346594 0.017825468
-0.14743008 -0.032999996 0.103377566 0.118620224 0.10374641 0.027201695 0.14353812 -0.15870157
-0.019704226 -0.07880016 0.06739512 -0.13022555 -0.054352246 0.008430804 -0.10589808 -0.122126065
0.339472 -0.092598 -0.06601392 -0.08860629 -0.14443937 0.041371454 0.05622506 0.03377748
-0.14935945 -0.052001715 -0.12802276 -0.05972632 0.030282602 -0.030530905 -0.2132576 0.0493518
0.111646436 -0.11776842 0.25170788 0.049841054 -0.083339676 0.09157035 0.13110709 0.043903816
0.08446115 -0.02477702 -0.14563172 0.027022013 -0.1049555 0.18764696 0.10020098 0.11070384
0.024552919 0.023123682 0.107900396 0.09977853 0.13730448 0.06587369 -0.13267867 0.037067983
-0.0787976 0.15008685 0.061144095 0.07830836 0.0033810863 -0.04950433 0.11390624 -0.23123012
-0.03446143 -0.104521975 -0.09689484 0.022238152 -0.059105705 0.08577883 0.040454224 0.039507933
-0.04055957 0.107266635 -0.025027901 0.028090417 -0.09089491 0.056312863 -0.082518294 -0.1741383
-0.14232086 -0.1206093 -0.03892167 0.063975416 0.15475163 -0.036163155 -0.14807515 -0.15669657
-0.11241869 0.21861207 -0.0056306156 0.32987374 0.009148396 0.24552377 0.020409435 -0.02236552
0.33507836 0.050810937 0.13895671 -0.032180008 0.020603357 0.00919854 0.27231085 0.111164905
-0.08951614 0.068299025 0.08444734 0.052338608 0.11214897 0.04961807 -0.014920176 0.15021263
0.14910011 0.114866726 0.17086442 0.17233127 0.34257728 -0.038921904 0.14364175 0.15412018
-0.16272444 0.06900081 0.065454185 0.03441694 -0.09986217 0.115551844 -0.17659326 -0.11381537
-0.10358586 -0.10817271 -0.021629127 -0.2149108 0.040748186 -0.26394498 -0.09984673 0.050196104
0.08901254 0.05257166 -0.047286 0.007997657 0.0011487772 0.10236537 -0.06607553 -0.0037265278
00000000: f85a dfbd cbcd f5bd b6bf ff3d be58 1d3a
00000010: 27ef 61bd 3753 0f3d 7c07 e3bd 574f 883d
00000020: e0c6 09bd 30cd b1bc 6a0f 8c3d 1759 5cbd
00000030: e905 01be e720 5cbe 05fa bfbd 154d 3a3e
00000040: 525e 22bc 016a d9bd 5cfe b73d 791e 1f3b
00000050: 04b8 18bd 8c3d dc3d c802 b4bd 45af 6cbc
00000060: ab5d 533b 236c 243d 563e 353d 0a20 10be
00000070: 9b09 dbbc 6b7c acbd 31ef 4b3e 388e 65bc
00000080: 17f5 56be a57b c7bc c313 13be cb96 183d
00000090: 352d acbd 4c71 b1bd abe9 173d 3be3 94bd
000000a0: f615 91bd b8af 95bd 5cac 92bd 271c 8cbd
000000b0: 19f3 cf3c 5d65 f2bc c57c 22bd 7017 31be
000000c0: 5070 15bd 2760 4d3d b953 033e 2079 2bbe
000000d0: 9695 c83d 196c 04bd f72a 7dbd 7367 d7bd
000000e0: 9b45 f0bd f436 eabd b6b9 ad3b 1012 2a3e
000000f0: bf6c fc3d b60e dbbd bc69 553e 58ca 3f3e
00000100: 4f8c 39bd b0af 083e 63bd 103b a9f8 383e
00000110: 645b 0a3e 4f50 2cbe 7020 243d aaea ca3d
00000120: 2dcd 73bd 6d67 423d 24ff 0f3d 213a 97bb
00000130: a95d f23d d13d b03d 8633 703e 8e27 84bd
00000140: be02 2abd 57af 5d3c 1c0d 70bd 3b67 0a3e
00000150: 8f29 fe3d 84df fcb6 fcb5 9bbd d571 4f3e
00000160: 8fb8 d93c 1246 b33c 3641 f03c 9705 df3d
00000170: aeb8 7e3d d1d8 16bc 5ecb 9cbc 52bc d13d
00000180: c5b4 acbd f05c 86bd c95e b33d bc40 963d
00000190: 5805 cbbd bd5e 563b d30b b4bd d781 1ebe
000001a0: e8ff 2d3d d1c7 50bd 4977 a33c f66f 3e3e
000001b0: aa2f 74bc 0d4f 9ebd 6a15 733d b706 923c
000001c0: e9f7 16be 012b 07bd 9eb7 d33d 29ef f23d
000001d0: ff78 d43d 17d6 de3c a8fb 123e aa82 22be
000001e0: c26a a1bc fa61 a1bd 7406 8a3d d959 05be
000001f0: 76a0 5ebd 5b21 0a3c 18e1 d8bd 3b1d fabd
00000200: 46cf ad3e 05a4 bdbd 4e32 87bd 3777 b5bd
00000210: eae7 13be 1d75 293d 404c 663d 415a 0a3d
00000220: aff1 18be c0ff 54bd 6618 03be 96a3 74bd
00000230: 3813 f83c f31b fabc 3360 5abe 1d25 4a3d
00000240: e3a6 e43d 9230 f1bd dbdf 803e 2226 4c3d
00000250: fead aabd 3c89 bb3d f040 063e 7dd4 333d
00000260: f8f9 ac3d 2df9 cabc 7b20 15be 455d dd3c
00000270: e9f2 d6bd 8626 403e 2c36 cd3d b2b8 e23d
00000280: 3423 c93c e06d bd3c e2fa dc3d b058 cc3d
00000290: 8c99 0c3e c9e8 863d ebdc 07be 99d4 173d
000002a0: a360 a1bd 5eb0 193e 3b72 7a3d 2260 a03d
000002b0: 3795 5d3b 0dc5 4abd ad47 e93d 97c7 6cbe
000002c0: 6e27 0dbd 9e0f d6bd cd70 c6bd c92c b63c
000002d0: d318 72bd d0ac af3d 54b3 253d 12d3 213d
000002e0: cb21 26bd 9cae db3d 5007 cdbc e01d e63c
000002f0: 1c27 babd 51a8 663d 5aff a8bd 4f51 32be
00000300: 8fbc 11be 0202 f7bd 546c 1fbd 8b05 833d
00000310: 3677 1e3e d11f 14bd 03a1 17be 1175 20be
00000320: c53b e6bd d8db 5f3e 0781 b8bb 36e5 a83e
00000330: 27e3 153c 956a 7b3e b031 a73c e537 b7bc
00000340: 648f ab3e 211f 503d ab4a 0e3e 2fcf 03bd
00000350: 5fc8 a83c 79b5 163c 546c 8b3e 6daa e33d
00000360: 3d54 b7bd 5ce0 8b3d baf2 ac3d 0261 563d
00000370: 5cae e53d 513c 4b3d c173 74bc 57d1 193e
00000380: b3ad 183e 3f3f eb3d 15f7 2e3e 9c77 303e
00000390: 4a66 af3e 936c 1fbd d316 133e aed1 1d3e
000003a0: 3ca1 26be 4c50 8d3d d80c 863d c7f8 0c3d
000003b0: 8a84 ccbd 72a6 ec3d ddd4 34be 0818 e9bd
000003c0: d324 d4bd a789 ddbd 912f b1bc 9411 5cbe
000003d0: 92e7 263d cc23 87be 717c ccbd 6e9a 4d3d
000003e0: 354c b63d 6255 573d f7ae 41bd 9b08 033c
000003f0: 9192 963a efa4 d13d 9c52 87bd c338 74bb

l1.weight_rho f4 [120, 29]
-3.1581585 -3.0318067 -2.8704638 -3.1368093 -2.9975064 -2.9902241 -3.061273 -3.1436205
-3.0737603 -2.915283 -3.0356283 -2.888045 -2.926566 -2.9622567 -2.9800658 -2.92348
-3.0054433 -2.949879 -3.0835242 -3.0533617 -2.8643665 -2.792988 -2.9390578 -3.0377648
-2.95734 -3.0353656 -3.1791363 -2.9838505 -3.024308 -2.8518476 -2.9408865 -2.9952114
-3.1059926 -2.9087722 -3.1207392 -2.7600458 -2.9286764 -3.0851219 -2.9897232 -2.8813868
-3.019054 -2.8860252 -3.0298588 -2.889095 -3.004663 -2.8947237 -2.949547 -2.8351693
-3.1098657 -2.9210453 -3.1238656 -3.0509303 -3.126655 -2.9942932 -2.9987555 -3.047774
-2.833975 -2.9594147 -2.9483514 -3.0190897 -2.9468544 -2.997761 -3.046386 -2.919516
-2.9286082 -3.007087 -2.9692552 -2.7889385 -2.9172194 -2.8771293 -2.7957802 -2.8169332
-2.992718 -2.9598682 -3.1619384 -3.2307122 -3.0941083 -3.0030963 -3.03601 -2.9947536
-2.9843733 -2.9354439 -2.9281785 -2.850125 -2.8587015 -2.9923458 -3.0967255 -3.001501
-2.9678168 -2.942818 -2.767217 -3.0063078 -2.8909397 -2.9655244 -3.0749376 -2.9911022
-2.8826396 -2.8326685 -3.0717592 -2.8988867 -2.933597 -3.0196939 -2.908651 -2.8879845
-3.1697407 -2.8932927 -3.0641623 -2.9890487 -2.9887424 -3.2006078 -2.8954139 -3.0385933
-2.9717627 -2.9897454 -3.0868783 -3.088248 -2.9536867 -2.9436429 -3.048649 -3.1015186
-3.080754 -2.9914255 -3.0816145 -2.871229 -3.1473224 -3.0467916 -2.8740327 -3.0588024
-2.8449254 -3.1271336 -2.9245744 -3.1327202 -2.8905113 -3.0164597 -2.7968597 -2.92847
-3.0072484 -2.960613 -2.9857702 -2.9437532 -3.061708 -3.1011848 -2.9502966 -3.0571077
-2.986023 -2.8627434 -3.1323702 -2.976032 -3.0733166 -3.0175962 -3.03442 -3.100725
-3.0065877 -2.9802375 -2.9342449 -3.0586913 -2.9678807 -3.0601172 -3.0156646 -3.0696638
-3.0959702 -2.9588568 -3.0056455 -3.0009801 -2.972332 -3.0153463 -2.868489 -3.0275
-2.978447 -3.021382 -2.97543 -2.8215191 -2.9191484 -2.9420505 -2.799673 -2.9953504
-3.0240169 -2.974554 -2.8820822 -2.9405549 -2.9743001 -2.9893608 -2.8760078 -2.9835024
-2.7476568 -3.0479624 -2.9345603 -3.0232053 -2.923961 -3.0208445 -2.8491714 -3.0062706
-2.9821837 -2.9682097 -2.9402099 -3.0700736 -3.0465772 -2.8684082 -3.0355878 -2.7616427
-2.9519389 -2.872903 -3.0116985 -3.0357733 -2.897202 -2.9162703 -2.9460688 -3.0643132
-3.0192506 -2.9847302 -2.9469366 -2.884766 -2.989325 -3.0272527 -2.872716 -3.0468981
-2.8780253 -2.970015 -3.1310542 -2.9663873 -2.8860369 -3.047851 -3.1684363 -2.9976606
-2.8164625 -2.9286451 -2.980278 -3.2521725 -2.9152572 -2.7719572 -2.9461062 -2.9625092
-2.9674907 -2.9184737 -3.1362758 -3.0535536 -2.9406204 -2.9842956 -2.874382 -3.1072497
-2.8481658 -2.9910495 -2.9295347 -3.2637863 -2.836046 -3.175965 -2.7432194 -2.9329379
-3.141674 -3.1052816 -3.1111562 -3.0949247 -2.7383497 -3.045735 -2.9193225 -3.1183846
00000000: 451f 4ac0 1f09 42c0 aeb5 37c0 7cc1 48c0
00000010: 25d7 3fc0 d55f 3fc0 e6eb 43c0 1431 49c0
00000020: 7db8 44c0 ff93 3ac0 bc47 42c0 bbd5 38c0
00000030: db4c 3bc0 9d95 3dc0 66b9 3ec0 4c1a 3bc0
00000040: 2f59 40c0 d1ca 3cc0 7658 45c0 476a 43c0
00000050: c851 37c0 51c0 32c0 8619 3cc0 bd6a 42c0
00000060: 0f45 3dc0 6e43 42c0 f876 4bc0 68f7 3ec0
00000070: 438e 41c0 ac84 36c0 7c37 3cc0 8bb1 3fc0
00000080: 95c8 46c0 5329 3ac0 31ba 47c0 97a4 30c0
00000090: 6f6f 3bc0 a372 45c0 a057 3fc0 a468 38c0
000000a0: 2e38 41c0 a3b4 38c0 35e9 41c0 efe6 38c0
000000b0: 664c 40c0 2743 39c0 61c5 3cc0 6a73 35c0
000000c0: 0a08 47c0 68f2 3ac0 6aed 47c0 7142 43c0
000000d0: 1e1b 48c0 80a2 3fc0 9ceb 3fc0 bb0e 43c0
000000e0: d95f 35c0 0d67 3dc0 cab1 3cc0 c438 41c0
000000f0: 4399 3cc0 51db 3fc0 fdf7 42c0 5ad9 3ac0
00000100: 516e 3bc0 1d74 40c0 4708 3ec0 f87d 32c0
00000110: b9b3 3ac0 e322 38c0 10ee 32c0 a248 34c0
00000120: b188 3fc0 7b6e 3dc0 335d 4ac0 fdc3 4ec0
00000130: df05 46c0 bb32 40c0 fd4d 42c0 0baa 3fc0
00000140: f9ff 3ec0 50de 3bc0 4767 3bc0 7368 36c0
00000150: f7f4 36c0 9882 3fc0 c030 46c0 9818 40c0
00000160: b6f0 3dc0 2157 3cc0 151a 31c0 5967 40c0
00000170: 2805 39c0 27cb 3dc0 c7cb 44c0 386e 3fc0
00000180: 2b7d 38c0 714a 35c0 b497 44c0 5c87 39c0
00000190: 0ec0 3bc0 aa42 41c0 5727 3ac0 bdd4 38c0
000001a0: 08dd 4ac0 b52b 39c0 3c1b 44c0 934c 3fc0
000001b0: 8e47 3fc0 c2d6 4cc0 764e 39c0 5078 42c0
000001c0: 5c31 3ec0 fd57 3fc0 6a8f 45c0 dba5 45c0
000001d0: 3409 3dc0 a564 3cc0 111d 43c0 487f 46c0
000001e0: 132b 45c0 8473 3fc0 2c39 45c0 37c2 37c0
000001f0: bb6d 49c0 a2fe 42c0 27f0 37c0 6bc3 43c0
00000200: 4213 36c0 f522 48c0 3a2c 3bc0 7d7e 48c0
00000210: 23fe 38c0 ad0d 41c0 c0ff 32c0 0d6c 3bc0
00000220: c276 40c0 af7a 3dc0 dc16 3fc0 7466 3cc0
00000230: 06f3 43c0 d079 46c0 a9d1 3cc0 a7a7 43c0
00000240: 001b 3fc0 3037 37c0 c178 48c0 4f77 3ec0
00000250: 38b1 44c0 4c20 41c0 f033 42c0 4772 46c0
00000260: ef6b 40c0 36bc 3ec0 abca 3bc0 99c1 43c0
00000270: c2f1 3dc0 f6d8 43c0 a600 41c0 5f75 44c0
00000280: 6024 46c0 e95d 3dc0 7f5c 40c0 0f10 40c0
00000290: b03a 3ec0 6ffb 40c0 5395 37c0 8fc2 41c0
000002a0: e09e 3ec0 535e 41c0 726d 3ec0 c593 34c0
000002b0: 54d3 3ac0 8e4a 3cc0 d82d 33c0 d2b3 3fc0
000002c0: 7e89 41c0 185f 3ec0 0974 38c0 0d32 3cc0
000002d0: ef5a 3ec0 b051 3fc0 8310 38c0 b4f1 3ec0
000002e0: 9cd9 2fc0 d111 43c0 d6cf 3bc0 327c 41c0
000002f0: 2d22 3bc0 8455 41c0 d358 36c0 bd66 40c0
00000300: 19dc 3ec0 26f7 3dc0 662c 3cc0 167c 44c0
00000310: 1ffb 42c0 0094 37c0 1247 42c0 c1be 30c0
00000320: 91ec 3cc0 a5dd 37c0 abbf 40c0 1c4a 42c0
00000330: c26b 39c0 2ca4 3ac0 648c 3cc0 b51d 44c0
00000340: 673b 41c0 d205 3fc0 9c9a 3cc0 02a0 38c0
00000350: 1a51 3fc0 82be 41c0 94da 37c0 6100 43c0
00000360: 9131 38c0 ba14 3ec0 3163 48c0 4ad9 3dc0
00000370: d4b4 38c0 fe0f 43c0 a9c7 4ac0 acd9 3fc0
00000380: ec40 34c0 ec6e 3bc0 e0bc 3ec0 9823 50c0
00000390: 9393 3ac0 bf67 31c0 018d 3cc0 c099 3dc0
000003a0: 5eeb 3dc0 46c8 3ac0 beb8 48c0 6c6d 43c0
000003b0: 2033 3cc0 b3fe 3ec0 e0f5 37c0 2edd 46c0
000003c0: 5948 36c0 5b6d 3fc0 7f7d 3bc0 e0e1 50c0
000003d0: c781 35c0 0343 4bc0 e890 2fc0 41b5 3bc0
000003e0: 3011 49c0 efbc 46c0 2f1d 47c0 3f13 46c0
000003f0: 1f41 2fc0 52ed 42c0 2ed6 3ac0 9d93 47c0

l1.bias_mu f4 [120]
-0.09681866 -0.0027422772 0.2561016 0.14200458 -0.053871986 0.06060595 -0.029091856 0.4248903
0.04090725 0.41302767 -0.14911942 0.006826 0.27202538 0.41267723 0.13978092 0.09831748
-0.033136092 -0.21121316 0.5165396 -0.028595533 -0.012859236 -0.06468032 0.29577738 -0.14022781
0.28960732 -0.10679182 -0.06796514 -0.04126355 0.12730637 0.09976061 -0.07605289 -0.13254869
-0.012068835 0.14791517 0.09088985 0.31966698 0.30927917 0.018062036 0.018745715 -0.14943339
-0.1654422 -0.017182155 -0.041916274 0.20664935 -0.036971305 -0.079246156 0.20881544 0.16401644
-0.17423593 0.088047236 0.056035485 -0.047464434 0.052473817 0.067902 0.13164581 -0.09885271
0.008789512 -0.027238434 0.026043197 -0.034337964 0.12716469 -0.009319637 -0.21770003 0.13386157
-0.009981495 -0.05003871 -0.013528741 0.025708074 0.14573584 0.047898047 0.65187365 0.06731561
0.09748543 -0.118090495 -0.0007613571 -0.013221282 -0.17398827 0.51430875 0.05221675 -0.06665132
-0.14239624 0.3265892 -0.09462033 -0.35847992 -0.02731147 -0.077146225 0.14663523 0.20308194
0.0864154 0.08722293 -0.058108833 -0.05967531 0.48498288 0.029129315 0.2607253 0.5277659
0.25349474 0.17723413 -0.057897646 -0.042530842 0.052534077 0.027114516 -0.14943431 -0.013243203
0.0018728755 -0.016482374 -0.018028095 0.16988172 0.07184321 0.18646264 0.06651781 0.32367188
-0.050561726 0.024414957 -0.017521981 -0.17994466 -0.027456913 -0.06232844 -0.039306827 -0.029865274
00000000: dd48 c6bd c7b7 33bb c01f 833e a669 113e
00000010: dfa8 5cbd f23d 783d 0b52 eebc 398b d93e
00000020: 5c8e 273d 5d78 d33e c3b2 18be a3ac df3b
00000030: e946 8b3e 6e4a d33e bb22 0f3e ad5a c93d
00000040: b6b9 07bd 4348 58be f03b 043f 2e41 eabc
00000050: 8caf 52bc 1e77 84bd 2270 973e e197 0fbe
00000060: 6947 943e abb5 dabd 4f31 8bbd f803 29bd
00000070: 9a5c 023e 4a4f cc3d 9ec1 9bbd d8ba 07be
00000080: 5dbc 45bc 1377 173e 7524 ba3d 64ab a33e
00000090: d759 9e3e d6f6 933c 9d90 993c 1105 19be
000000a0: ae69 29be 97c1 8cbc 66b0 2bbd e39b 533e
000000b0: 396f 17bd cf4b a2bd b7d3 553e edf3 273e
000000c0: e76a 32be 1c52 b43d 7785 653d 116a 42bd
000000d0: c9ee 563d 3410 8b3d 29ce 063e 4a73 cabd
000000e0: e301 103c 2323 dfbc 8b58 d53c f7a5 0cbd
000000f0: 7637 023e 64b1 18bc c2ec 5ebe 0213 093e
00000100: 6d89 23bc 64f5 4cbd a7a7 5dbc bd99 d23c
00000110: c73b 153e be30 443d 31e1 263f c4dc 893d
00000120: 71a6 c73d 6ed9 f1bd cf95 47ba 139e 58bc
00000130: fb29 32be bda9 033f 3be1 553d 7d80 88bd
00000140: 52d0 11be b336 a73e 4ec8 c1bd ae8a b7be
00000150: 4ebc dfbc d7fe 9dbd 8c27 163e b6f4 4f3e
00000160: 8ffa b03d efa1 b23d 8703 6ebd 196e 74bd
00000170: ad4f f83e 9aa0 ee3c c97d 853e ab1b 073f
00000180: 10ca 813e dd7c 353e 1526 6dbd d234 2ebd
00000190: f92d 573d 431f de3c 4f05 19be 05fa 58bc
000001a0: 467b f53a 0b06 87bc a8af 93bc 79f5 2d3e
000001b0: 8822 933d 10f0 3e3e 7d3a 883d 52b8 a53e
000001c0: d019 4fbd e001 c83c 428a 8fbc 6a43 38be
000001d0: 52ed e0bc 1b4c 7fbd 3200 21bd 05a8 f4bc

l1.bias_rho f4 [120]
-3.1490636 -3.1059897 -3.068609 -3.1379054 -2.7771697 -2.8759522 -3.0363927 -2.9662187
-2.738491 -3.1989393 -3.013612 -3.017956 -2.8470974 -3.0784223 -2.8984513 -2.998966
-3.0080993 -2.8385255 -2.9938354 -2.934547 -3.0522473 -3.0863607 -3.150855 -3.0075018
-2.993266 -3.1181939 -3.150192 -3.042873 -2.8678522 -2.9119644 -2.956174 -3.0128798
-2.9471776 -3.03559 -2.860311 -3.0438225 -3.13636 -3.0071504 -3.0902917 -2.9721184
-3.025738 -3.020209 -3.183718 -2.9332867 -3.0317166 -2.9846754 -3.1316404 -2.9688606
-2.8821483 -2.9582717 -3.112804 -3.0034297 -3.031435 -3.1000495 -3.1224434 -2.9108431
-2.959449 -2.8887591 -3.0714607 -3.172198 -3.06928 -2.961171 -2.9207606 -2.97811
-2.9209843 -2.9918883 -3.094483 -3.0584939 -3.1139238 -2.937859 -3.110123 -2.963113
-2.9739277 -2.980168 -3.0278215 -2.9030952 -2.9460998 -2.9585454 -3.0179777 -3.0588944
-3.0233266 -3.0489733 -2.9983103 -2.8129199 -2.90113 -2.8658893 -2.9683096 -3.0381258
-3.0747705 -2.9588423 -3.12937 -3.007296 -3.2881656 -2.9049938 -3.1731858 -2.9478383
-2.9152555 -2.850946 -2.9501276 -2.9338062 -3.1673317 -3.097662 -3.0266547 -3.0553787
-2.9522727 -3.1321166 -2.9310312 -3.078079 -3.2545855 -3.0737643 -2.8792145 -3.0826962
-2.8738546 -3.0843334 -3.0707986 -3.1298814 -2.797125 -3.1299415 -3.1837826 -2.9887655
00000000: 428a 49c0 89c8 46c0 1764 44c0 71d3 48c0
00000010: 26bd 31c0 9a0f 38c0 4254 42c0 87d6 3dc0
00000020: 7043 2fc0 6cbb 4cc0 05df 40c0 3126 41c0
00000030: d836 36c0 df04 45c0 3a80 39c0 0fef 3fc0
00000040: b384 40c0 67aa 35c0 009b 3fc0 9ecf 3bc0
00000050: 0558 43c0 ef86 45c0 9ca7 49c0 e97a 40c0
00000060: ac91 3fc0 7d90 47c0 bf9c 49c0 6ebe 42c0
00000070: e48a 37c0 a05d 3ac0 f431 3dc0 06d3 40c0
00000080: 8f9e 3cc0 1b47 42c0 560f 37c0 fdcd 42c0
00000090: 1fba 48c0 2775 40c0 57c7 45c0 3037 3ec0
000000a0: b1a5 41c0 1b4b 41c0 09c2 4bc0 f8ba 3bc0
000000b0: a507 42c0 ec04 3fc0 cc6c 48c0 d001 3ec0
000000c0: 1e75 38c0 5354 3dc0 2e38 47c0 3138 40c0
000000d0: 0803 42c0 3667 46c0 1dd6 47c0 414b 3ac0
000000e0: 9d67 3dc0 6ee1 38c0 d092 44c0 4b05 4bc0
000000f0: 156f 44c0 d383 3dc0 beed 3ac0 5b99 3ec0
00000100: 68f1 3ac0 197b 3fc0 020c 46c0 5dbe 43c0
00000110: 874a 47c0 e205 3cc0 410c 47c0 a5a3 3dc0
00000120: d554 3ec0 13bb 3ec0 d4c7 41c0 50cc 39c0
00000130: e68c 3cc0 cf58 3dc0 8c26 41c0 edc4 43c0
00000140: 2f7e 41c0 6122 43c0 51e4 3fc0 e106 34c0
00000150: 1dac 39c0 bb6a 37c0 c9f8 3dc0 a770 42c0
00000160: 0ac9 44c0 ac5d 3dc0 9947 48c0 8a77 40c0
00000170: 4e71 52c0 6beb 39c0 7a15 4bc0 62a9 3cc0
00000180: 8c93 3ac0 e675 36c0 e4ce 3cc0 7bc3 3bc0
00000190: 90b5 4ac0 1840 46c0 b6b4 41c0 538b 43c0
000001a0: 09f2 3cc0 9974 48c0 0496 3bc0 3fff 44c0
000001b0: 214b 50c0 8eb8 44c0 0d45 38c0 e54a 45c0
000001c0: 3ced 37c0 b865 45c0 f787 44c0 fa4f 48c0
000001d0: 1904 33c0 f650 48c0 18c3 4bc0 ef47 3fc0

l1.weight.mu f4 [120, 29]
-0.10906023 -0.120021425 0.12487738 0.00060022983 -0.055159714 0.03499147 -0.11085412 0.06655758
-0.033636928 -0.021704286 0.068388775 -0.0537959 -0.12599911 -0.21496926 -0.09373859 0.18193467
-0.009910183 -0.10615922 0.08984062 0.0024279638 -0.037284866 0.10753927 -0.08789593 -0.014446084
0.0032251875 0.04014219 0.0442489 -0.14074722 -0.026737979 -0.08422168 0.19915463 -0.014010958
-0.20991932 -0.02435095 -0.14363007 0.037253182 -0.0840706 -0.08664188 0.037088078 -0.07269903
-0.07084267 -0.07308906 -0.07161781 -0.06841307 0.025384473 -0.02958935 -0.03966977 -0.17294097
-0.036484063 0.050140526 0.12824906 -0.16745424 0.09794156 -0.032329652 -0.061808553 -0.10517778
-0.11732026 -0.11436263 0.0053016795 0.16608453 0.12325429 -0.10696165 0.20841116 0.18729532
-0.045299824 0.1334827 0.002208554 0.18063606 0.13511425 -0.1682751 0.040069997 0.0990804
-0.059521843 0.047461916 0.03515543 -0.004615084 0.118342705 0.086055405 0.23457155 -0.06452857
-0.04150652 0.013530574 -0.058606252 0.13515942 0.124102704 -7.536206e-06 -0.0760307 0.20258267
0.026577262 0.021883998 0.02932797 0.10889738 0.062187843 -0.0092069665 -0.019139942 0.102409974
-0.084329166 -0.06560695 0.08758313 0.07336566 -0.099131286 0.0032710277 -0.08791318 -0.15479217
0.04248038 -0.05097181 0.01995434 0.18597397 -0.014903942 -0.077299215 0.059346594 0.017825468
-0.14743008 -0.032999996 0.103377566 0.118620224 0.10374641 0.027201695 0.14353812 -0.15870157
-0.019704226 -0.07880016 0.06739512 -0.13022555 -0.054352246 0.008430804 -0.10589808 -0.122126065
0.339472 -0.092598 -0.06601392 -0.08860629 -0.14443937 0.041371454 0.05622506 0.03377748
-0.14935945 -0.052001715 -0.12802276 -0.05972632 0.030282602 -0.030530905 -0.2132576 0.0493518
0.111646436 -0.11776842 0.25170788 0.049841054 -0.083339676 0.09157035 0.13110709 0.043903816
0.08446115 -0.02477702 -0.14563172 0.027022013 -0.1049555 0.18764696 0.10020098 0.11070384
0.024552919 0.023123682 0.107900396 0.09977853 0.13730448 0.06587369 -0.13267867 0.037067983
-0.0787976 0.15008685 0.061144095 0.07830836 0.0033810863 -0.04950433 0.11390624 -0.23123012
-0.03446143 -0.104521975 -0.09689484 0.022238152 -0.059105705 0.08577883 0.040454224 0.039507933
-0.04055957 0.107266635 -0.025027901 0.028090417 -0.09089491 0.056312863 -0.082518294 -0.1741383
-0.14232086 -0.1206093 -0.03892167 0.063975416 0.15475163 -0.036163155 -0.14807515 -0.15669657
-0.11241869 0.21861207 -0.0056306156 0.32987374 0.009148396 0.24552377 0.020409435 -0.02236552
0.33507836 0.050810937 0.13895671 -0.032180008 0.020603357 0.00919854 0.27231085 0.111164905
-0.08951614 0.068299025 0.08444734 0.052338608 0.11214897 0.04961807 -0.014920176 0.15021263
0.14910011 0.114866726 0.17086442 0.17233127 0.34257728 -0.038921904 0.14364175 0.15412018
-0.16272444 0.06900081 0.065454185 0.03441694 -0.09986217 0.115551844 -0.17659326 -0.11381537
-0.10358586 -0.10817271 -0.021629127 -0.2149108 0.040748186 -0.26394498 -0.09984673 0.050196104
0.08901254 0.05257166 -0.047286 0.007997657 0.0011487772 0.10236537 -0.06607553 -0.0037265278
00000000: f85a dfbd cbcd f5bd b6bf ff3d be58 1d3a
00000010: 27ef 61bd 3753 0f3d 7c07 e3bd 574f 883d
00000020: e0c6 09bd 30cd b1bc 6a0f 8c3d 1759 5cbd
00000030: e905 01be e720 5cbe 05fa bfbd 154d 3a3e
00000040: 525e 22bc 016a d9bd 5cfe b73d 791e 1f3b
00000050: 04b8 18bd 8c3d dc3d c802 b4bd 45af 6cbc
00000060: ab5d 533b 236c 243d 563e 353d 0a20 10be
00000070: 9b09 dbbc 6b7c acbd 31ef 4b3e 388e 65bc
00000080: 17f5 56be a57b c7bc c313 13be cb96 183d
00000090: 352d acbd 4c71 b1bd abe9 173d 3be3 94bd
000000a0: f615 91bd b8af 95bd 5cac 92bd 271c 8cbd
000000b0: 19f3 cf3c 5d65 f2bc c57c 22bd 7017 31be
000000c0: 5070 15bd 2760 4d3d b953 033e 2079 2bbe
000000d0: 9695 c83d 196c 04bd f72a 7dbd 7367 d7bd
000000e0: 9b45 f0bd f436 eabd b6b9 ad3b 1012 2a3e
000000f0: bf6c fc3d b60e dbbd bc69 553e 58ca 3f3e
00000100: 4f8c 39bd b0af 083e 63bd 103b a9f8 383e
00000110: 645b 0a3e 4f50 2cbe 7020 243d aaea ca3d
00000120: 2dcd 73bd 6d67 423d 24ff 0f3d 213a 97bb
00000130: a95d f23d d13d b03d 8633 703e 8e27 84bd
00000140: be02 2abd 57af 5d3c 1c0d 70bd 3b67 0a3e
00000150: 8f29 fe3d 84df fcb6 fcb5 9bbd d571 4f3e
00000160: 8fb8 d93c 1246 b33c 3641 f03c 9705 df3d
00000170: aeb8 7e3d d1d8 16bc 5ecb 9cbc 52bc d13d
00000180: c5b4 acbd f05c 86bd c95e b33d bc40 963d
00000190: 5805 cbbd bd5e 563b d30b b4bd d781 1ebe
000001a0: e8ff 2d3d d1c7 50bd 4977 a33c f66f 3e3e
000001b0: aa2f 74bc 0d4f 9ebd 6a15 733d b706 923c
000001c0: e9f7 16be 012b 07bd 9eb7 d33d 29ef f23d
000001d0: ff78 d43d 17d6 de3c a8fb 123e aa82 22be
000001e0: c26a a1bc fa61 a1bd 7406 8a3d d959 05be
000001f0: 76a0 5ebd 5b21 0a3c 18e1 d8bd 3b1d fabd
00000200: 46cf ad3e 05a4 bdbd 4e32 87bd 3777 b5bd
00000210: eae7 13be 1d75 293d 404c 663d 415a 0a3d
00000220: aff1 18be c0ff 54bd 6618 03be 96a3 74bd
00000230: 3813 f83c f31b fabc 3360 5abe 1d25 4a3d
00000240: e3a6 e43d 9230 f1bd dbdf 803e 2226 4c3d
00000250: fead aabd 3c89 bb3d f040 063e 7dd4 333d
00000260: f8f9 ac3d 2df9 cabc 7b20 15be 455d dd3c
00000270: e9f2 d6bd 8626 403e 2c36 cd3d b2b8 e23d
00000280: 3423 c93c e06d bd3c e2fa dc3d b058 cc3d
00000290: 8c99 0c3e c9e8 863d ebdc 07be 99d4 173d
000002a0: a360 a1bd 5eb0 193e 3b72 7a3d 2260 a03d
000002b0: 3795 5d3b 0dc5 4abd ad47 e93d 97c7 6cbe
000002c0: 6e27 0dbd 9e0f d6bd cd70 c6bd c92c b63c
000002d0: d318 72bd d0ac af3d 54b3 253d 12d3 213d
000002e0: cb21 26bd 9cae db3d 5007 cdbc e01d e63c
000002f0: 1c27 babd 51a8 663d 5aff a8bd 4f51 32be
00000300: 8fbc 11be 0202 f7bd 546c 1fbd 8b05 833d
00000310: 3677 1e3e d11f 14bd 03a1 17be 1175 20be
00000320: c53b e6bd d8db 5f3e 0781 b8bb 36e5 a83e
00000330: 27e3 153c 956a 7b3e b031 a73c e537 b7bc
00000340: 648f ab3e 211f 503d ab4a 0e3e 2fcf 03bd
00000350: 5fc8 a83c 79b5 163c 546c 8b3e 6daa e33d
00000360: 3d54 b7bd 5ce0 8b3d baf2 ac3d 0261 563d
00000370: 5cae e53d 513c 4b3d c173 74bc 57d1 193e
00000380: b3ad 183e 3f3f eb3d 15f7 2e3e 9c77 303e
00000390: 4a66 af3e 936c 1fbd d316 133e aed1 1d3e
000003a0: 3ca1 26be 4c50 8d3d d80c 863d c7f8 0c3d
000003b0: 8a84 ccbd 72a6 ec3d ddd4 34be 0818 e9bd
000003c0: d324 d4bd a789 ddbd 912f b1bc 9411 5cbe
000003d0: 92e7 263d cc23 87be 717c ccbd 6e9a 4d3d
000003e0: 354c b63d 6255 573d f7ae 41bd 9b08 033c
000003f0: 9192 963a efa4 d13d 9c52 87bd c338 74bb

l1.weight.rho f4 [120, 29]
-3.1581585 -3.0318067 -2.8704638 -3.1368093 -2.9975064 -2.9902241 -3.061273 -3.1436205
-3.0737603 -2.915283 -3.0356283 -2.888045 -2.926566 -2.9622567 -2.9800658 -2.92348
-3.0054433 -2.949879 -3.0835242 -3.0533617 -2.8643665 -2.792988 -2.9390578 -3.0377648
-2.95734 -3.0353656 -3.1791363 -2.9838505 -3.024308 -2.8518476 -2.9408865 -2.9952114
-3.1059926 -2.9087722 -3.1207392 -2.7600458 -2.9286764 -3.0851219 -2.9897232 -2.8813868
-3.019054 -2.8860252 -3.0298588 -2.889095 -3.004663 -2.8947237 -2.949547 -2.8351693
-3.1098657 -2.9210453 -3.1238656 -3.0509303 -3.126655 -2.9942932 -2.9987555 -3.047774
-2.833975 -2.9594147 -2.9483514 -3.0190897 -2.9468544 -2.997761 -3.046386 -2.919516
-2.9286082 -3.007087 -2.9692552 -2.7889385 -2.9172194 -2.8771293 -2.7957802 -2.8169332
-2.992718 -2.9598682 -3.1619384 -3.2307122 -3.0941083 -3.0030963 -3.03601 -2.9947536
-2.9843733 -2.9354439 -2.9281785 -2.850125 -2.8587015 -2.9923458 -3.0967255 -3.001501
-2.9678168 -2.942818 -2.767217 -3.0063078 -2.8909397 -2.9655244 -3.0749376 -2.9911022
-2.8826396 -2.8326685 -3.0717592 -2.8988867 -2.933597 -3.0196939 -2.908651 -2.8879845
-3.1697407 -2.8932927 -3.0641623 -2.9890487 -2.9887424 -3.2006078 -2.8954139 -3.0385933
-2.9717627 -2.9897454 -3.0868783 -3.088248 -2.9536867 -2.9436429 -3.048649 -3.1015186
-3.080754 -2.9914255 -3.0816145 -2.871229 -3.1473224 -3.0467916 -2.8740327 -3.0588024
-2.8449254 -3.1271336 -2.9245744 -3.1327202 -2.8905113 -3.0164597 -2.7968597 -2.92847
-3.0072484 -2.960613 -2.9857702 -2.9437532 -3.061708 -3.1011848 -2.9502966 -3.0571077
-2.986023 -2.8627434 -3.1323702 -2.976032 -3.0733166 -3.0175962 -3.03442 -3.100725
-3.0065877 -2.9802375 -2.9342449 -3.0586913 -2.9678807 -3.0601172 -3.0156646 -3.0696638
-3.0959702 -2.9588568 -3.0056455 -3.0009801 -2.972332 -3.0153463 -2.868489 -3.0275
-2.978447 -3.021382 -2.97543 -2.8215191 -2.9191484 -2.9420505 -2.799673 -2.9953504
-3.0240169 -2.974554 -2.8820822 -2.9405549 -2.9743001 -2.9893608 -2.8760078 -2.9835024
-2.7476568 -3.0479624 -2.9345603 -3.0232053 -2.923961 -3.0208445 -2.8491714 -3.0062706
-2.9821837 -2.9682097 -2.9402099 -3.0700736 -3.0465772 -2.8684082 -3.0355878 -2.7616427
-2.9519389 -2.872903 -3.0116985 -3.0357733 -2.897202 -2.9162703 -2.9460688 -3.0643132
-3.0192506 -2.9847302 -2.9469366 -2.884766 -2.989325 -3.0272527 -2.872716 -3.0468981
-2.8780253 -2.970015 -3.1310542 -2.9663873 -2.8860369 -3.047851 -3.1684363 -2.9976606
-2.8164625 -2.9286451 -2.980278 -3.2521725 -2.9152572 -2.7719572 -2.9461062 -2.9625092
-2.9674907 -2.9184737 -3.1362758 -3.0535536 -2.9406204 -2.9842956 -2.874382 -3.1072497
-2.8481658 -2.9910495 -2.9295347 -3.2637863 -2.836046 -3.175965 -2.7432194 -2.9329379
-3.141674 -3.1052816 -3.1111562 -3.0949247 -2.7383497 -3.045735 -2.9193225 -3.1183846
00000000: 451f 4ac0 1f09 42c0 aeb5 37c0 7cc1 48c0
00000010: 25d7 3fc0 d55f 3fc0 e6eb 43c0 1431 49c0
00000020: 7db8 44c0 ff93 3ac0 bc47 42c0 bbd5 38c0
00000030: db4c 3bc0 9d95 3dc0 66b9 3ec0 4c1a 3bc0
00000040: 2f59 40c0 d1ca 3cc0 7658 45c0 476a 43c0
00000050: c851 37c0 51c0 32c0 8619 3cc0 bd6a 42c0
00000060: 0f45 3dc0 6e43 42c0 f876 4bc0 68f7 3ec0
00000070: 438e 41c0 ac84 36c0 7c37 3cc0 8bb1 3fc0
00000080: 95c8 46c0 5329 3ac0 31ba 47c0 97a4 30c0
00000090: 6f6f 3bc0 a372 45c0 a057 3fc0 a468 38c0
000000a0: 2e38 41c0 a3b4 38c0 35e9 41c0 efe6 38c0
000000b0: 664c 40c0 2743 39c0 61c5 3cc0 6a73 35c0
000000c0: 0a08 47c0 68f2 3ac0 6aed 47c0 7142 43c0
000000d0: 1e1b 48c0 80a2 3fc0 9ceb 3fc0 bb0e 43c0
000000e0: d95f 35c0 0d67 3dc0 cab1 3cc0 c438 41c0
000000f0: 4399 3cc0 51db 3fc0 fdf7 42c0 5ad9 3ac0
00000100: 516e 3bc0 1d74 40c0 4708 3ec0 f87d 32c0
00000110: b9b3 3ac0 e322 38c0 10ee 32c0 a248 34c0
00000120: b188 3fc0 7b6e 3dc0 335d 4ac0 fdc3 4ec0
00000130: df05 46c0 bb32 40c0 fd4d 42c0 0baa 3fc0
00000140: f9ff 3ec0 50de 3bc0 4767 3bc0 7368 36c0
00000150: f7f4 36c0 9882 3fc0 c030 46c0 9818 40c0
00000160: b6f0 3dc0 2157 3cc0 151a 31c0 5967 40c0
00000170: 2805 39c0 27cb 3dc0 c7cb 44c0 386e 3fc0
00000180: 2b7d 38c0 714a 35c0 b497 44c0 5c87 39c0
00000190: 0ec0 3bc0 aa42 41c0 5727 3ac0 bdd4 38c0
000001a0: 08dd 4ac0 b52b 39c0 3c1b 44c0 934c 3fc0
000001b0: 8e47 3fc0 c2d6 4cc0 764e 39c0 5078 42c0
000001c0: 5c31 3ec0 fd57 3fc0 6a8f 45c0 dba5 45c0
000001d0: 3409 3dc0 a564 3cc0 111d 43c0 487f 46c0
000001e0: 132b 45c0 8473 3fc0 2c39 45c0 37c2 37c0
000001f0: bb6d 49c0 a2fe 42c0 27f0 37c0 6bc3 43c0
00000200: 4213 36c0 f522 48c0 3a2c 3bc0 7d7e 48c0
00000210: 23fe 38c0 ad0d 41c0 c0ff 32c0 0d6c 3bc0
00000220: c276 40c0 af7a 3dc0 dc16 3fc0 7466 3cc0
00000230: 06f3 43c0 d079 46c0 a9d1 3cc0 a7a7 43c0
00000240: 001b 3fc0 3037 37c0 c178 48c0 4f77 3ec0
00000250: 38b1 44c0 4c20 41c0 f033 42c0 4772 46c0
00000260: ef6b 40c0 36bc 3ec0 abca 3bc0 99c1 43c0
00000270: c2f1 3dc0 f6d8 43c0 a600 41c0 5f75 44c0
00000280: 6024 46c0 e95d 3dc0 7f5c 40c0 0f10 40c0
00000290: b03a 3ec0 6ffb 40c0 5395 37c0 8fc2 41c0
000002a0: e09e 3ec0 535e 41c0 726d 3ec0 c593 34c0
000002b0: 54d3 3ac0 8e4a 3cc0 d82d 33c0 d2b3 3fc0
000002c0: 7e89 41c0 185f 3ec0 0974 38c0 0d32 3cc0
000002d0: ef5a 3ec0 b051 3fc0 8310 38c0 b4f1 3ec0
000002e0: 9cd9 2fc0 d111 43c0 d6cf 3bc0 327c 41c0
000002f0: 2d22 3bc0 8455 41c0 d358 36c0 bd66 40c0
00000300: 19dc 3ec0 26f7 3dc0 662c 3cc0 167c 44c0
00000310: 1ffb 42c0 0094 37c0 1247 42c0 c1be 30c0
00000320: 91ec 3cc0 a5dd 37c0 abbf 40c0 1c4a 42c0
00000330: c26b 39c0 2ca4 3ac0 648c 3cc0 b51d 44c0
00000340: 673b 41c0 d205 3fc0 9c9a 3cc0 02a0 38c0
00000350: 1a51 3fc0 82be 41c0 94da 37c0 6100 43c0
00000360: 9131 38c0 ba14 3ec0 3163 48c0 4ad9 3dc0
00000370: d4b4 38c0 fe0f 43c0 a9c7 4ac0 acd9 3fc0
00000380: ec40 34c0 ec6e 3bc0 e0bc 3ec0 9823 50c0
00000390: 9393 3ac0 bf67 31c0 018d 3cc0 c099 3dc0
000003a0: 5eeb 3dc0 46c8 3ac0 beb8 48c0 6c6d 43c0
000003b0: 2033 3cc0 b3fe 3ec0 e0f5 37c0 2edd 46c0
000003c0: 5948 36c0 5b6d 3fc0 7f7d 3bc0 e0e1 50c0
000003d0: c781 35c0 0343 4bc0 e890 2fc0 41b5 3bc0
000003e0: 3011 49c0 efbc 46c0 2f1d 47c0 3f13 46c0
000003f0: 1f41 2fc0 52ed 42c0 2ed6 3ac0 9d93 47c0

l1.bias.mu f4 [120]
-0.09681866 -0.0027422772 0.2561016 0.14200458 -0.053871986 0.06060595 -0.029091856 0.4248903
0.04090725 0.41302767 -0.14911942 0.006826 0.27202538 0.41267723 0.13978092 0.09831748
-0.033136092 -0.21121316 0.5165396 -0.028595533 -0.012859236 -0.06468032 0.29577738 -0.14022781
0.28960732 -0.10679182 -0.06796514 -0.04126355 0.12730637 0.09976061 -0.07605289 -0.13254869
-0.012068835 0.14791517 0.09088985 0.31966698 0.30927917 0.018062036 0.018745715 -0.14943339
-0.1654422 -0.017182155 -0.041916274 0.20664935 -0.036971305 -0.079246156 0.20881544 0.16401644
-0.17423593 0.088047236 0.056035485 -0.047464434 0.052473817 0.067902 0.13164581 -0.09885271
0.008789512 -0.027238434 0.026043197 -0.034337964 0.12716469 -0.009319637 -0.21770003 0.13386157
-0.009981495 -0.05003871 -0.013528741 0.025708074 0.14573584 0.047898047 0.65187365 0.06731561
0.09748543 -0.118090495 -0.0007613571 -0.013221282 -0.17398827 0.51430875 0.05221675 -0.06665132
-0.14239624 0.3265892 -0.09462033 -0.35847992 -0.02731147 -0.077146225 0.14663523 0.20308194
0.0864154 0.08722293 -0.058108833 -0.05967531 0.48498288 0.029129315 0.2607253 0.5277659
0.25349474 0.17723413 -0.057897646 -0.042530842 0.052534077 0.027114516 -0.14943431 -0.013243203
0.0018728755 -0.016482374 -0.018028095 0.16988172 0.07184321 0.18646264 0.06651781 0.32367188
-0.050561726 0.024414957 -0.017521981 -0.17994466 -0.027456913 -0.06232844 -0.039306827 -0.029865274
00000000: dd48 c6bd c7b7 33bb c01f 833e a669 113e
00000010: dfa8 5cbd f23d 783d 0b52 eebc 398b d93e
00000020: 5c8e 273d 5d78 d33e c3b2 18be a3ac df3b
00000030: e946 8b3e 6e4a d33e bb22 0f3e ad5a c93d
00000040: b6b9 07bd 4348 58be f03b 043f 2e41 eabc
00000050: 8caf 52bc 1e77 84bd 2270 973e e197 0fbe
00000060: 6947 943e abb5 dabd 4f31 8bbd f803 29bd
00000070: 9a5c 023e 4a4f cc3d 9ec1 9bbd d8ba 07be
00000080: 5dbc 45bc 1377 173e 7524 ba3d 64ab a33e
00000090: d759 9e3e d6f6 933c 9d90 993c 1105 19be
000000a0: ae69 29be 97c1 8cbc 66b0 2bbd e39b 533e
000000b0: 396f 17bd cf4b a2bd b7d3 553e edf3 273e
000000c0: e76a 32be 1c52 b43d 7785 653d 116a 42bd
000000d0: c9ee 563d 3410 8b3d 29ce 063e 4a73 cabd
000000e0: e301 103c 2323 dfbc 8b58 d53c f7a5 0cbd
000000f0: 7637 023e 64b1 18bc c2ec 5ebe 0213 093e
00000100: 6d89 23bc 64f5 4cbd a7a7 5dbc bd99 d23c
00000110: c73b 153e be30 443d 31e1 263f c4dc 893d
00000120: 71a6 c73d 6ed9 f1bd cf95 47ba 139e 58bc
00000130: fb29 32be bda9 033f 3be1 553d 7d80 88bd
00000140: 52d0 11be b336 a73e 4ec8 c1bd ae8a b7be
00000150: 4ebc dfbc d7fe 9dbd 8c27 163e b6f4 4f3e
00000160: 8ffa b03d efa1 b23d 8703 6ebd 196e 74bd
00000170: ad4f f83e 9aa0 ee3c c97d 853e ab1b 073f
00000180: 10ca 813e dd7c 353e 1526 6dbd d234 2ebd
00000190: f92d 573d 431f de3c 4f05 19be 05fa 58bc
000001a0: 467b f53a 0b06 87bc a8af 93bc 79f5 2d3e
000001b0: 8822 933d 10f0 3e3e 7d3a 883d 52b8 a53e
000001c0: d019 4fbd e001 c83c 428a 8fbc 6a43 38be
000001d0: 52ed e0bc 1b4c 7fbd 3200 21bd 05a8 f4bc

l1.bias.rho f4 [120]
-3.1490636 -3.1059897 -3.068609 -3.1379054 -2.7771697 -2.8759522 -3.0363927 -2.9662187
-2.738491 -3.1989393 -3.013612 -3.017956 -2.8470974 -3.0784223 -2.8984513 -2.998966
-3.0080993 -2.8385255 -2.9938354 -2.934547 -3.0522473 -3.0863607 -3.150855 -3.0075018
-2.993266 -3.1181939 -3.150192 -3.042873 -2.8678522 -2.9119644 -2.956174 -3.0128798
-2.9471776 -3.03559 -2.860311 -3.0438225 -3.13636 -3.0071504 -3.0902917 -2.9721184
-3.025738 -3.020209 -3.183718 -2.9332867 -3.0317166 -2.9846754 -3.1316404 -2.9688606
-2.8821483 -2.9582717 -3.112804 -3.0034297 -3.031435 -3.1000495 -3.1224434 -2.9108431
-2.959449 -2.8887591 -3.0714607 -3.172198 -3.06928 -2.961171 -2.9207606 -2.97811
-2.9209843 -2.9918883 -3.094483 -3.0584939 -3.1139238 -2.937859 -3.110123 -2.963113
-2.9739277 -2.980168 -3.0278215 -2.9030952 -2.9460998 -2.9585454 -3.0179777 -3.0588944
-3.0233266 -3.0489733 -2.9983103 -2.8129199 -2.90113 -2.8658893 -2.9683096 -3.0381258
-3.0747705 -2.9588423 -3.12937 -3.007296 -3.2881656 -2.9049938 -3.1731858 -2.9478383
-2.9152555 -2.850946 -2.9501276 -2.9338062 -3.1673317 -3.097662 -3.0266547 -3.0553787
-2.9522727 -3.1321166 -2.9310312 -3.078079 -3.2545855 -3.0737643 -2.8792145 -3.0826962
-2.8738546 -3.0843334 -3.0707986 -3.1298814 -2.797125 -3.1299415 -3.1837826 -2.9887655
00000000: 428a 49c0 89c8 46c0 1764 44c0 71d3 48c0
00000010: 26bd 31c0 9a0f 38c0 4254 42c0 87d6 3dc0
00000020: 7043 2fc0 6cbb 4cc0 05df 40c0 3126 41c0
00000030: d836 36c0 df04 45c0 3a80 39c0 0fef 3fc0
00000040: b384 40c0 67aa 35c0 009b 3fc0 9ecf 3bc0
00000050: 0558 43c0 ef86 45c0 9ca7 49c0 e97a 40c0
00000060: ac91 3fc0 7d90 47c0 bf9c 49c0 6ebe 42c0
00000070: e48a 37c0 a05d 3ac0 f431 3dc0 06d3 40c0
00000080: 8f9e 3cc0 1b47 42c0 560f 37c0 fdcd 42c0
00000090: 1fba 48c0 2775 40c0 57c7 45c0 3037 3ec0
000000a0: b1a5 41c0 1b4b 41c0 09c2 4bc0 f8ba 3bc0
000000b0: a507 42c0 ec04 3fc0 cc6c 48c0 d001 3ec0
000000c0: 1e75 38c0 5354 3dc0 2e38 47c0 3138 40c0
000000d0: 0803 42c0 3667 46c0 1dd6 47c0 414b 3ac0
000000e0: 9d67 3dc0 6ee1 38c0 d092 44c0 4b05 4bc0
000000f0: 156f 44c0 d383 3dc0 beed 3ac0 5b99 3ec0
00000100: 68f1 3ac0 197b 3fc0 020c 46c0 5dbe 43c0
00000110: 874a 47c0 e205 3cc0 410c 47c0 a5a3 3dc0
00000120: d554 3ec0 13bb 3ec0 d4c7 41c0 50cc 39c0
00000130: e68c 3cc0 cf58 3dc0 8c26 41c0 edc4 43c0
00000140: 2f7e 41c0 6122 43c0 51e4 3fc0 e106 34c0
00000150: 1dac 39c0 bb6a 37c0 c9f8 3dc0 a770 42c0
00000160: 0ac9 44c0 ac5d 3dc0 9947 48c0 8a77 40c0
00000170: 4e71 52c0 6beb 39c0 7a15 4bc0 62a9 3cc0
00000180: 8c93 3ac0 e675 36c0 e4ce 3cc0 7bc3 3bc0
00000190: 90b5 4ac0 1840 46c0 b6b4 41c0 538b 43c0
000001a0: 09f2 3cc0 9974 48c0 0496 3bc0 3fff 44c0
000001b0: 214b 50c0 8eb8 44c0 0d45 38c0 e54a 45c0
000001c0: 3ced 37c0 b865 45c0 f787 44c0 fa4f 48c0
000001d0: 1904 33c0 f650 48c0 18c3 4bc0 ef47 3fc0

classifier.0.weight_mu f4 [2, 120]
-0.07211276 -0.0051922533 0.14937302 -0.031814937 -0.17315221 -0.14561091 0.0022010917 0.13602479
-0.13430443 0.21335207 -0.11325043 -0.15600319 -0.083903834 0.013788037 -0.027176678 0.01692586
0.08652866 -0.06127723 0.16910258 0.10633914 -0.17848244 0.039625157 -0.006062764 -0.03687298
0.018146537 -0.01004521 -0.087124 0.056847733 0.048620563 0.032961983 0.08206079 0.0645268
0.09954445 0.06328576 -0.044854317 0.25849628 0.03338937 0.18611641 0.16969356 0.025210602
0.09895495 -0.03404915 0.110385574 0.029870367 0.048162717 -0.00056294637 -0.021133333 0.14273395
0.09641954 -0.20243219 0.09660321 0.08955648 0.10186852 0.10586663 -0.107185476 -0.060314048
-0.025758596 -0.03848051 -0.17399123 -0.10800831 0.09398081 0.21919982 0.0042797597 0.026865084
0.095386975 0.115255326 -0.11775262 -0.0064026215 0.13265157 -0.03033238 0.016737474 -0.030902157
0.026166651 0.092345215 0.120178044 -0.03907108 0.05804006 0.032452233 -0.033968467 0.04301384
-0.029481374 -0.065123364 0.10837908 0.023698993 0.06343189 0.05320407 0.15611097 0.14279512
-0.034086715 0.0035776084 -0.017601943 0.021156656 0.11025984 -0.07485348 -0.097944856 -0.059342593
-0.036432974 -0.045193125 -0.06957982 0.06417933 -0.03932655 -0.096325964 -0.054357078 -0.06719984
0.1450466 0.08704961 -0.22592822 -0.049985394 -0.009193911 0.16210407 0.005378898 0.08546603
0.07123112 0.14272928 -0.07771939 -0.15875879 -0.042816114 -0.051531583 -0.18494178 0.019511173
-0.10702552 -0.08395289 -0.075118504 -0.009928335 -0.013839129 -0.11424753 -0.09616135 0.13598785
-0.07009505 0.113563724 0.012092862 -0.07195663 -0.1921405 0.05005964 -0.06838177 -0.08439149
0.0655669 0.018428672 0.022453466 -0.0094345 -0.11885082 -0.24921389 -0.016382383 0.14277795
-0.082626686 -0.046693332 0.08461489 -0.25412753 0.00775907 0.020967565 -0.015075018 -0.1026441
0.09155097 0.04729262 0.03584391 0.050327163 -0.10400065 0.035803463 0.12091466 0.07917146
0.061735168 0.086842574 0.15122382 0.003093489 0.12926872 -0.12929663 -0.09687553 -0.03760994
0.056339506 0.048826925 0.13428672 -0.24414876 0.07783795 -0.105045296 0.054364316 0.084420525
0.06812643 -0.08822932 0.14546947 -0.077074684 0.22042318 0.059313755 0.09277314 -0.09159306
0.26466438 -0.06208875 -0.07924427 0.08055555 0.03808948 -0.13625975 -0.19448149 0.027001021
0.03253298 0.11045753 -0.23506953 0.1431385 0.040914256 0.112521954 0.19059978 0.023146441
0.16650872 -0.013480837 -0.038743302 0.022110173 -0.07484551 0.015925145 0.0031582906 0.10115399
-0.07514866 0.006493323 -0.0071678255 -0.036255848 0.085342534 0.010155361 0.033705153 -0.36315736
0.09137182 -0.015338958 -0.12177903 -0.020492708 0.0695696 -0.04061588 -0.20706712 0.015626308
0.022346923 0.015472093 0.07280562 0.17006217 -0.15004395 -0.015847474 -0.0044949497 0.014105244
-0.083042234 0.042120684 0.053829927 0.011113403 0.057504617 0.14949037 0.096563 -0.11191041
00000000: dbaf 93bd c723 aabb 3ef5 183e 6150 02bd
00000010: d04e 31be 071b 15be 3140 103b 154a 0b3e
00000020: 1a87 09be f778 5a3e d7ef e7bd 4dbf 1fbe
00000030: c6d5 abbd 38e7 613c a0a1 debc 1aa8 8a3c
00000040: f035 b13d d5fd 7abd 3a29 2d3e 56c8 d93d
00000050: 1ac4 36be fd4d 223d 27aa c6bb 1f08 17bd
00000060: 0ca8 943c aa94 24bc 116e b2bd 2bd9 683d
00000070: 5b26 473d 2503 073d 7d0f a83d a026 843d
00000080: f6dd cb3d f79b 813d 29b9 37bd a059 843e
00000090: 4bc3 083d 4d95 3e3e 26c4 2d3e 7786 ce3c
000000a0: e5a8 ca3d 1f77 0bbd d511 e23d b3b2 f43c
000000b0: 4546 453d b192 13ba d01f adbc d928 123e
000000c0: 9c77 c53d 624a 4fbe e7d7 c53d 6369 b73d
000000d0: 71a0 d03d 9bd0 d83d 0f84 dbbd dd0b 77bd
000000e0: b103 d3bc bd9d 1dbd c22a 32be 7633 ddbd
000000f0: 0379 c03d eb75 603e 3a3d 8c3b 2a14 dc3c
00000100: 3f5a c33d fc0a ec3d 4928 f1bd 15cd d1bb
00000110: d0d5 073e 9d7b f8bc 071d 893c 8526 fdbc
00000120: 725b d63c 7d1f bd3d e81f f63d ff08 20bd
00000130: 6abb 6d3d a2ec 043d 8522 0bbd 482f 303d
00000140: ec82 f1bc 665f 85bd daf5 dd3d 6424 c23c
00000150: 94e8 813d 83ec 593d 8edb 1f3e e238 123e
00000160: 839e 0bbd 4f76 6a3b f331 90bc b950 ad3c
00000170: e9cf e13d c84c 99bd 5097 c8bd 3811 73bd
00000180: be3a 15bd 6d1c 39bd dd7f 8ebd 7470 833d
00000190: e014 21bd 8c46 c5bd 87a5 5ebd 12a0 89bd
000001a0: 1987 143e 1147 b23d ba59 67be 7cbd 4cbd
000001b0: 0fa2 16bc 9cfe 253e 7741 b03b d008 af3d
000001c0: 9fe1 913d a027 123e 582b 9fbd aa91 22be
000001d0: f35f 2fbd c812 53bd 6161 3dbe e5d5 9f3c
000001e0: 3230 dbbd 7eef abbd bbd7 99bd 75aa 22bc
000001f0: 84bd 62bc 9cfa e9bd 3ef0 c4bd 6640 0b3e
00000200: fe8d 8fbd 1994 e83d 2421 463c ff5d 93bd
00000210: 7bc0 44be 560b 4d3d be0b 8cbd 72d5 acbd
00000220: f047 863d baf7 963c 55f0 b73c 2993 1abc
00000230: 0f68 f3bd ed31 7fbe 5934 86bc 6234 123e
00000240: 2e38 a9bd 8241 3fbd 924a ad3d 011d 82be
00000250: cc3f fe3b 2cc4 ab3c 35fd 76bc 1237 d2bd
00000260: 137f bb3d e8b5 413d 10d1 123d db23 4e3d
00000270: 4bfe d4bd a7a6 123d 1ba2 f73d a524 a23d
00000280: 04de 7c3d 85da b13d 6bda 1a3e 22bc 4a3b
00000290: 055f 043e 5666 04be ae66 c6bd e10c 1abd
000002a0: 41c4 663d befe 473d 7582 093e 2202 7abe
000002b0: 8169 9f3d fd21 d7bd 1ead 5e3d abe4 ac3d
000002c0: df85 8b3d 93b1 b4bd f3f5 143e 55d9 9dbd
000002d0: 9db6 613e fbf2 723d d8ff bd3d 2495 bbbd
000002e0: 1782 873e c650 7ebd d24a a2bd 4ffa a43d
000002f0: b703 1c3d ad87 0bbe 2826 47be 3f31 dd3c
00000300: 4d41 053d 8f37 e23d 11b6 70be e692 123e
00000310: b595 273d e971 e63d 972c 433e 9b9d bd3c
00000320: 4381 2a3e bbde 5cbc 4cb1 1ebd 6520 b53c
00000330: 9a48 99bd 7375 823c 53fb 4e3b d329 cf3d
00000340: 8ae7 99bd f1c5 d43b 14e0 eabb 0381 14bd
00000350: 11c8 ae3d ac62 263c 6a0e 0a3d c3ef b9be
00000360: 2621 bb3d 4150 7bbc 4967 f9bd 53e0 a7bc
00000370: 827a 8e3d d65c 26bd 6709 54be be02 803c
00000380: e510 b73c a97e 7d3c 1d1b 953d c724 2e3e
00000390: 1fa5 19be 90d2 81bc 5f4a 93bb ae19 673c
000003a0: 0c12 aabd bd86 2c3d c57c 5c3d fe14 363c
000003b0: f689 6b3d 0114 193e d2c2 c53d 4931 e5bd

classifier.0.weight_rho f4 [2, 120]
-3.0917277 -2.960015 -2.963495 -3.0744846 -3.1619341 -2.9865885 -3.0342085 -2.9891257
-3.020175 -3.0324452 -2.9855144 -3.047623 -2.8400652 -2.968482 -2.9474025 -3.0988917
-3.0457373 -2.9053855 -2.9635274 -3.0208814 -3.0932734 -3.0130785 -2.9470255 -3.017381
-2.9358473 -3.035896 -3.0080853 -2.9446418 -3.0976307 -3.031864 -3.0733104 -2.8770294
-2.910469 -3.0051022 -3.0489528 -3.066319 -2.8659794 -3.005532 -3.1025102 -2.7944927
-2.9800653 -3.0522475 -3.0633452 -2.890612 -2.9719255 -3.0427513 -3.144996 -3.083554
-3.087235 -3.031074 -3.0581362 -3.0343754 -2.9971054 -3.0178874 -2.9089284 -2.9216228
-3.032294 -2.8865888 -3.2314427 -3.0532591 -3.1162105 -3.0596004 -2.8965478 -2.9815238
-3.061941 -2.9384003 -3.0711844 -2.9796157 -3.076016 -3.0240936 -2.99491 -3.03407
-2.9420185 -3.0351644 -2.9244013 -2.965988 -2.8399372 -3.0163512 -2.924309 -3.1246214
-2.9654958 -3.039138 -3.0686946 -2.985617 -3.1374524 -2.8568008 -2.880625 -2.9271505
-2.8106515 -3.1182888 -2.8277295 -2.918953 -2.9913142 -2.8532174 -2.9603772 -3.0431826
-3.1332934 -2.9853334 -3.076392 -2.8906806 -2.9472444 -3.1659477 -2.992796 -2.8831549
-2.9717143 -3.126905 -2.8058648 -3.1341515 -3.0839586 -3.2630715 -2.8793561 -3.0942373
-2.984525 -2.8847551 -3.3612487 -3.0058835 -2.9942477 -3.0125759 -2.985089 -2.9333398
-2.8590136 -2.982335 -2.9548614 -3.0715575 -2.8940182 -2.9464655 -2.9327824 -2.8462925
-3.0589745 -3.0026166 -3.0012355 -2.9952707 -3.0704136 -2.9525137 -3.1152394 -2.9405072
-2.8481424 -3.0880547 -3.2276871 -2.8377059 -3.0545828 -3.207869 -2.9764748 -2.9999692
-2.9306166 -2.7762368 -3.099248 -2.9478881 -2.9708388 -3.109535 -3.0597749 -3.1704087
-2.9153156 -3.0747085 -3.1263156 -3.1693792 -2.9809842 -2.8023982 -3.11587 -2.895798
-3.2033796 -3.050994 -2.9533088 -2.985475 -2.9217365 -3.1193018 -3.0428731 -3.0851872
-2.961575 -3.0675566 -3.0121958 -2.970609 -2.9372947 -3.081793 -2.9328353 -2.978037
-3.0021262 -3.0566237 -3.041532 -3.0415099 -2.8135476 -2.8764396 -3.2102036 -3.0240242
-3.0021138 -3.0389473 -3.0001655 -2.9412196 -3.1079247 -3.0238273 -2.9046166 -2.9786007
-3.181722 -3.063056 -3.1567838 -3.0175354 -3.094344 -2.9539943 -3.0609004 -2.7754622
-2.9411933 -2.9731905 -2.9217694 -3.0084157 -2.763969 -3.1139526 -3.184434 -2.9919193
-2.9501073 -2.8492782 -3.003671 -2.9705434 -3.2572703 -3.0499382 -2.9212918 -3.0757873
-3.0222998 -2.9238718 -3.00056 -3.132724 -2.8831778 -2.895625 -3.0836344 -3.0900433
-3.092747 -2.9598265 -2.9924562 -3.1807995 -3.0700192 -2.9677207 -2.8684897 -2.8148606
-2.9582748 -3.0336046 -3.1454566 -3.0108845 -3.1200502 -2.986418 -3.0367 -2.8256023
00000000: dede 45c0 e370 3dc0 e7a9 3dc0 5bc4 44c0
00000010: 215d 4ac0 4424 3fc0 7930 42c0 d64d 3fc0
00000020: 8c4a 41c0 9513 42c0 ab12 3fc0 410c 43c0
00000030: a1c3 35c0 9cfb 3dc0 3ea2 3cc0 3e54 46c0
00000040: 5ced 42c0 d6f1 39c0 6faa 3dc0 1f56 41c0
00000050: 31f8 45c0 47d6 40c0 119c 3cc0 c51c 41c0
00000060: ece4 3bc0 1f4c 42c0 7884 40c0 0375 3cc0
00000070: 953f 46c0 0f0a 42c0 1eb1 44c0 4021 38c0
00000080: 2045 3ac0 9853 40c0 0b22 43c0 923e 44c0
00000090: 356c 37c0 a35a 40c0 878f 46c0 f8d8 32c0
000000a0: 64b9 3ec0 0658 43c0 d90d 44c0 c9ff 38c0
000000b0: 0734 3ec0 70bc 42c0 9d47 49c0 f358 45c0
000000c0: 4295 45c0 1efd 41c0 81b8 43c0 3533 42c0
000000d0: 93d0 3fc0 1125 41c0 e22b 3ac0 defb 3ac0
000000e0: 1b11 42c0 dfbd 38c0 f5cf 4ec0 9968 43c0
000000f0: fe6f 47c0 7ed0 43c0 0a61 39c0 49d1 3ec0
00000100: d7f6 43c0 c00e 3cc0 498e 44c0 06b2 3ec0
00000110: 72dd 44c0 c08a 41c0 9bac 3fc0 342e 42c0
00000120: 084a 3cc0 2240 42c0 6429 3bc0 bfd2 3dc0
00000130: 88c1 35c0 e60b 41c0 e127 3bc0 ccf9 47c0
00000140: afca 3dc0 3d81 42c0 7e65 44c0 5914 3fc0
00000150: 05cc 48c0 d3d5 36c0 295c 38c0 6f56 3bc0
00000160: b7e1 33c0 0b92 47c0 85f9 34c0 20d0 3ac0
00000170: b171 3fc0 1d9b 36c0 d276 3dc0 81c3 42c0
00000180: e187 48c0 b40f 3fc0 9be3 44c0 e900 39c0
00000190: a79f 3cc0 e39e 4ac0 f889 3fc0 9c85 38c0
000001a0: 9130 3ec0 361f 48c0 4a93 33c0 f095 48c0
000001b0: 945f 45c0 2ad6 50c0 5f47 38c0 fc07 46c0
000001c0: 7502 3fc0 d49f 38c0 b31e 57c0 6560 40c0
000001d0: c1a1 3fc0 0bce 40c0 b30b 3fc0 d7bb 3bc0
000001e0: 14fa 36c0 94de 3ec0 731c 3dc0 6694 44c0
000001f0: 9837 39c0 e492 3cc0 b5b2 3bc0 a829 36c0
00000200: 3dc6 43c0 df2a 40c0 3e14 40c0 84b2 3fc0
00000210: a881 44c0 fcf5 3cc0 1560 47c0 4531 3cc0
00000220: f747 36c0 b0a2 45c0 6d92 4ec0 f99c 35c0
00000230: 497e 43c0 ba4d 4dc0 907e 3ec0 7fff 3fc0
00000240: 398f 3bc0 ddad 31c0 145a 46c0 33aa 3cc0
00000250: 3922 3ec0 9f02 47c0 5ad3 43c0 fae7 4ac0
00000260: 8894 3ac0 06c8 44c0 8e15 48c0 1cd7 4ac0
00000270: 72c8 3ec0 7e5a 33c0 6a6a 47c0 c154 39c0
00000280: 2c04 4dc0 7c43 43c0 0303 3dc0 0612 3fc0
00000290: bbfd 3ac0 a4a2 47c0 6fbe 42c0 b573 45c0
000002a0: 728a 3dc0 d952 44c0 d1c7 40c0 751e 3ec0
000002b0: a3fc 3bc0 193c 45c0 93b3 3bc0 2998 3ec0
000002c0: d622 40c0 b99f 43c0 76a8 42c0 19a8 42c0
000002d0: 2a11 34c0 9617 38c0 fa73 4dc0 9d89 41c0
000002e0: a222 40c0 1d7e 42c0 b602 40c0 f13c 3cc0
000002f0: 3de8 46c0 6386 41c0 3de5 39c0 65a1 3ec0
00000300: 55a1 4bc0 1c09 44c0 bf08 4ac0 4d1f 41c0
00000310: bb09 46c0 3e0e 3dc0 cbe5 43c0 2ca1 31c0
00000320: 833c 3cc0 c148 3ec0 45fe 3ac0 e289 40c0
00000330: dee4 30c0 004b 47c0 c4cd 4bc0 9b7b 3fc0
00000340: 8fce 3cc0 935a 36c0 253c 40c0 621d 3ec0
00000350: 1e77 50c0 3032 43c0 72f6 3ac0 b3d9 44c0
00000360: 5c6d 41c0 b720 3bc0 2d09 40c0 8d7e 48c0
00000370: fc85 38c0 ec51 39c0 445a 45c0 45c3 45c0
00000380: 91ef 45c0 cc6d 3dc0 6784 3fc0 3892 4bc0
00000390: 327b 44c0 23ef 3dc0 5695 37c0 ad26 34c0
000003a0: 6054 3dc0 9426 42c0 294f 49c0 55b2 40c0
000003b0: e7ae 47c0 7921 3fc0 4b59 42c0 abd6 34c0

classifier.0.bias_mu f4 [2]
0.032315638 0.03757032
00000000: 675d 043d 56e3 193d

classifier.0.bias_rho f4 [2]
-2.931717 -2.9929745
00000000: 40a1 3bc0 e58c 3fc0
