checkpoints/2_tasks_test_UCB/model_0.pth.tar (torch_old, 400469 bytes, 24 tensors)

l1.weight_mu f4 [800, 29]
00000000: 3e38 08be 0f30 5ebe a36d 25bd 59e7 75bd
00000010: 37e0 063d 15dc 56be 5636 4a3d 2010 01be
00000020: bcc7 f1bd 4775 e33c 2e49 8cbd dfe7 f03d
00000030: 8cf9 9fbd 3dd8 22be 0b63 fbbd 82a7 90bd
00000040: 1d27 8bbd b2f0 88bd 67fa bbbd 7ea3 b6bc
00000050: ce8d 88bc 0f6b 5a3e 95d4 813c b695 25be
00000060: b302 643c 80ef 83bd 5cb5 2a3d e837 a03d
00000070: 4a4b 003d f188 0abc 9318 2b3c 790e 063e
00000080: 80af 58bd 2ca0 773c dc93 21bd 2862 293d
00000090: fa3a 8a3d aa3c 8cbe 6053 86bc 51f8 a03d
000000a0: cfa2 c63c 5b4d 8cbd 20af 9c3c 0528 4e3e
000000b0: 6842 68bd 8ed2 b23c 63ea da3d fbdb d4bd
000000c0: 84de 7abc bc09 b53d d38a 4fbe b74f 513d
000000d0: 2507 e33b 20ea 193d d197 ebbb 4676 bdbe
000000e0: 0965 ecbd f9c9 3fbc 35a0 99bc a339 6abd
000000f0: 3238 47be 9de9 16be 4c74 8cbd d35e e2bd
00000100: b79a f23c e0a1 883c 00dd 96bd 5bb8 7e3c
00000110: 4565 6bbe 4207 e73d 6aed f4bd bebc b13d
00000120: 16e9 953c e251 563d 8273 c63b 3557 32bc
00000130: 08ed 563e 0ba7 c03c 4a3b 243d b603 cc3d
00000140: 85df f13d aa80 5fbe 4431 34be b755 64bd
00000150: f6f4 adbc 0eac 0f3e 3408 0a3d 7f6c 5a3c
00000160: cf04 78be 1d6c b83d 9aac ff3d fdfe ab3d
00000170: 558d 313e d981 3e3e ce38 22be 953f 1a3e
00000180: f58d 113e ea24 02be 6746 f83d 7a61 c6bd
00000190: ae2f 10bd 832c 163e 1f1f 813e d4b3 433e
000001a0: 55b5 033d b72e d43c a294 4ebb 9e1c 003e
000001b0: 5fc7 9bbd f70f b4bd 773b 6dbd bd5a 1c3d
000001c0: 9f77 3bbc 473b 24be 165b e93c c564 823d
000001d0: 9c9a 9fbc 07a2 14be 446e 46bc 780a 3c3d
000001e0: 399a 2c3d 8dfb 90bd 21d5 08bd ef76 59bc
000001f0: 9c3f 2d3d 653b 0ebd bfc6 96bd ae1d bcbc
00000200: fd0c f1bd e98c d53d 5450 0abe bd3f 5c3d
00000210: eb53 833c b8d6 3bbe 8453 03be 1235 113e
00000220: e3cf aabd bfc2 21be 143b 8abd 7196 0ebd
00000230: 6e15 0f3e cd37 343d 5027 94bd 2252 8a3d
00000240: 9f03 2b3e 4824 1d3e eb6a 2abe c678 1fbd
00000250: 00a3 713d 9a09 343d 5e30 fcbd 5aa2 ef3d
00000260: 4d09 cd3d 3b04 b3bd 9e1a b83c 879a 6abe
00000270: ef98 1bbc c053 bf3d f88c 193d ec6e d6bd
00000280: 4471 fdbd bc28 93bd 1a9e 49bd 3607 2c3d
00000290: 3a5a ae3c 8b04 40bd 05ec dcbc e141 d23d
000002a0: 1dd5 143c e7e3 aabc 41b6 783e 52ad 263e
000002b0: 0909 01bd 8727 e33d dc6c 4ebb d3af a63c
000002c0: 37b4 60bd 814c 8c3c 3f44 4f3e be8c 27bd
000002d0: 19f1 06be d5b5 81bc fd84 23bd 22b5 0bbe
000002e0: ed34 76bd bada 213d 3c9d a23c 4293 283d
000002f0: 1c7a 073e 812c 643e 5782 bb3d bdd1 ff3c
00000300: ca76 4e3c de86 6a3d 2b47 55be 1e59 a83d
00000310: 7c44 973c f97c 36be dce1 1d3c 4982 b83c
00000320: 4095 76bd f711 9b3d 9511 3cbe 0c50 b13c
00000330: 04b5 37bb 16e3 19bd f97c 85bd 30bc 123e
00000340: 15a4 983b 0374 10bc 61ea 30bb ff62 c93d
00000350: f69e d43b 842b d33d 788b 2abd 58c3 71bd
00000360: f00a c4bc b915 953d e993 21be 539b 763d
00000370: fc85 003d 1020 84bc d719 adbd 9881 08be
00000380: 3b8b 2e3d b58a 39bd d2b0 c93d fcdf 3fbd
00000390: ce37 0bbd d044 eb3c 908e 3fbd c0ed 0abe
000003a0: 2fa1 163e 47a1 e23d c6e3 8bbd 784b f43d
000003b0: c7ea 89bd ab3f 23bd bca7 3a3e 1c2b d53d
000003c0: 8543 0fbd 7634 19be de0d 3ebd 46f5 cd3d
000003d0: 2615 303e 208e e13d 2e9e 8cbd 454e 36bd
000003e0: 6c77 313e 96d3 483e 78b8 67bb cb21 ebbc
000003f0: e36b f43c a90c 4b3a 6678 03be 55db 823e
-0.13302705 -0.2169802 -0.04038776 -0.060035083 0.03292867 -0.20982392 0.049368225 -0.12603807
-0.118056744 0.027765883 -0.068498954 0.11762976 -0.07811269 -0.15902801 -0.1227475 -0.070631996
-0.0679457 -0.06686534 -0.0917862 -0.022294756 -0.01666918 0.21329902 0.015848437 -0.16170391
0.013916659 -0.064421654 0.041676864 0.07823163 0.0313218 -0.008455501 0.010442871 0.13091458
-0.052901745 0.015113872 -0.03944765 0.041353375 0.0674953 -0.27390033 -0.016397178 0.078598626
0.024247555 -0.06850692 0.019126475 0.20132454 -0.056703955 0.021828916 0.10689237 -0.103935204
-0.015311841 0.08839747 -0.20267801 0.051101413 0.006928342 0.037576795 -0.007189729 -0.37004298
-0.115427084 -0.011705869 -0.01875315 -0.057183873 -0.1945503 -0.14737554 -0.06858119 -0.110532425
0.02961479 0.01667875 -0.07366371 0.015546883 -0.2298785 0.11280681 -0.11959346 0.08678578
0.01829962 0.052324183 0.00605625 -0.01088505 0.20988858 0.023517152 0.040095605 0.09961645
0.11810211 -0.21826425 -0.17596918 -0.055745807 -0.02123497 0.14030477 0.03369923 0.013331532
-0.24220584 0.09004996 0.12484093 0.083982445 0.1733907 0.1860422 -0.15841982 0.15063317
0.14214309 -0.12709394 0.12122803 -0.09686561 -0.03520172 0.14665417 0.25219056 0.19111568
0.032155354 0.025901182 -0.0031521698 0.12510917 -0.076063864 -0.087921076 -0.05791804 0.038172472
-0.011442094 -0.16038238 0.028485816 0.063668765 -0.019482903 -0.14514934 -0.01211125 0.04590842
0.042139266 -0.070792295 -0.03340638 -0.013272985 0.04229699 -0.03472461 -0.073621266 -0.022963371
-0.117700554 0.10427267 -0.13507205 0.053771723 0.016031226 -0.18343627 -0.12824827 0.14180401
-0.083404325 -0.15796946 -0.067495495 -0.03481144 0.13973019 0.04399853 -0.07234061 0.06753947
0.167006 0.15345871 -0.16642348 -0.038933538 0.05899334 0.04395447 -0.12313913 0.11700888
0.100115396 -0.08741041 0.02247363 -0.2291051 -0.009496911 0.09342146 0.037487954 -0.104703754
-0.12375119 -0.07185504 -0.049223043 0.041999064 0.021283258 -0.046879333 -0.026968012 0.10266472
0.009084013 -0.020860625 0.24288274 0.16277054 -0.031502757 0.110915236 -0.003149799 0.020347511
-0.054859366 0.017126324 0.20240878 -0.040905707 -0.13177909 -0.015833775 -0.03992175 -0.13643315
-0.060109068 0.039515235 0.019850366 0.04115606 0.13230175 0.22282602 0.0915572 0.03122794
0.012601564 0.057257526 -0.2082793 0.08220123 0.018465273 -0.17821111 0.009636369 0.022523062
-0.06020093 0.07571786 -0.18366082 0.021644615 -0.0028031478 -0.03757008 -0.06517977 0.143296
0.004658232 -0.008816722 -0.002699517 0.09833335 0.006488676 0.10311034 -0.041636914 -0.059024185
-0.023930997 0.07279534 -0.1577908 0.060206722 0.031377777 -0.01612857 -0.08452194 -0.13330686
0.04261325 -0.045298297 0.09848179 -0.046844468 -0.033988766 0.028719336 -0.046766818 -0.13567257
0.14709924 0.110659175 -0.06830554 0.11928457 -0.06734233 -0.03985564 0.18228048 0.10408613
-0.0349765 -0.14961419 -0.046399944 0.10056548 0.17195567 0.11013436 -0.06866108 -0.044508237
0.17330712 0.19611964 -0.0035357755 -0.028702637 0.0298366 0.0007745722 -0.12838897 0.25557962

l1.weight_rho f4 [800, 29]
00000000: d823 40c0 1e8c 46c0 67cb 3fc0 a3e2 42c0
00000010: 603c 48c0 31da 3cc0 e17e 41c0 28f4 46c0
00000020: 45b2 3bc0 bc89 49c0 deb6 46c0 9a34 3cc0
00000030: 0a60 42c0 7486 37c0 e02f 42c0 5ca1 3bc0
00000040: 5c17 31c0 ae6f 35c0 f987 47c0 63ab 42c0
00000050: cd2b 43c0 0ef7 44c0 fd13 4cc0 6bfc 3ec0
00000060: d420 4fc0 6664 49c0 6801 3bc0 b4c8 41c0
00000070: 29c8 42c0 54ad 37c0 eda4 3cc0 a658 47c0
00000080: 3557 3ec0 1e9d 31c0 58c8 3bc0 e430 35c0
00000090: 34a4 34c0 d6b6 43c0 ad4a 34c0 47c5 3bc0
000000a0: 1ef0 3bc0 7c86 3ac0 7931 49c0 a8f1 3fc0
000000b0: 420d 33c0 1f4d 41c0 dffb 37c0 c6f0 42c0
000000c0: bceb 3ac0 85d0 3ec0 73b6 45c0 e928 4ac0
000000d0: e27b 38c0 2f0f 3bc0 b160 4bc0 737c 33c0
000000e0: 0f23 45c0 097d 3bc0 e614 40c0 e52c 44c0
000000f0: ab7a 42c0 3bbd 48c0 d79f 3bc0 a26f 43c0
00000100: d7e4 44c0 2847 4ac0 2b6f 3bc0 67ff 43c0
00000110: a534 3fc0 b6ba 3ac0 ecee 3bc0 cafe 45c0
00000120: cc69 3fc0 e51a 3bc0 da07 3fc0 ae14 46c0
00000130: 2fba 40c0 9937 3bc0 6dc7 3bc0 551c 45c0
00000140: 2832 32c0 be37 3ac0 313f 46c0 c583 3ec0
00000150: e56d 41c0 4872 47c0 ef28 3bc0 7f74 3ec0
00000160: ce54 47c0 0986 37c0 a9a5 43c0 fef6 48c0
00000170: abdb 43c0 075d 3fc0 0a91 3cc0 f6fe 40c0
00000180: 7691 44c0 4b50 3ec0 4bf2 38c0 66d5 47c0
00000190: 79c7 33c0 b223 44c0 89ba 43c0 7d74 41c0
000001a0: 1ee0 3fc0 80be 42c0 b194 3ec0 d499 42c0
000001b0: ff2a 4cc0 f63d 45c0 a346 42c0 2d6f 46c0
000001c0: 46b4 47c0 0d80 3cc0 8e09 39c0 16f4 48c0
000001d0: df2d 38c0 d589 3ec0 8c9b 38c0 d69b 3fc0
000001e0: 0549 46c0 8039 4cc0 aa06 47c0 1440 44c0
000001f0: e49b 42c0 0c7a 52c0 9005 3cc0 4359 39c0
00000200: 7d76 39c0 814b 41c0 045a 43c0 6c30 41c0
00000210: 9043 41c0 c5bd 43c0 cff5 3dc0 1a04 39c0
00000220: 385d 3dc0 b182 46c0 a8fd 40c0 c99c 42c0
00000230: 717b 3dc0 8746 38c0 18e3 40c0 376d 49c0
00000240: 61b5 4cc0 7fa0 3fc0 6167 3fc0 4c55 40c0
00000250: 1c54 36c0 ccd8 37c0 8ccc 44c0 1a9f 42c0
00000260: 8f80 43c0 32b8 3fc0 0878 4bc0 5864 48c0
00000270: 929d 38c0 e5b2 3fc0 7a5e 45c0 54b8 47c0
00000280: 170d 36c0 45da 3fc0 2637 3ac0 b81b 40c0
00000290: 3285 36c0 3298 42c0 f0c6 3fc0 4d52 3dc0
000002a0: d125 3fc0 ce44 3ec0 1563 3cc0 b234 37c0
000002b0: a4ba 42c0 b527 3fc0 bb3e 40c0 9f8a 37c0
000002c0: 5085 43c0 1f2a 3ac0 e860 3fc0 ee0f 49c0
000002d0: fa3a 35c0 8c85 4bc0 9f3e 42c0 e80a 4ac0
000002e0: ad4d 32c0 fee3 35c0 ad24 3cc0 7114 44c0
000002f0: 7503 4cc0 b5ed 40c0 7cea 44c0 7670 4bc0
00000300: a592 3bc0 a7c0 36c0 9de8 35c0 f38a 45c0
00000310: 5663 3dc0 d353 46c0 3cb0 46c0 b9ca 4ec0
00000320: 9fbc 3ec0 e001 45c0 080f 3ec0 d346 34c0
00000330: 1f18 3bc0 fe70 37c0 9756 37c0 e7ad 42c0
00000340: 3ad8 40c0 ebb1 36c0 d7be 36c0 4cf9 3bc0
00000350: 6b21 43c0 b564 30c0 fff9 41c0 22ca 34c0
00000360: 2063 41c0 30f6 43c0 7164 43c0 ff70 45c0
00000370: 02e3 3ac0 6cea 46c0 a5fb 43c0 05dc 38c0
00000380: ace3 3dc0 fecc 42c0 e217 4fc0 39e6 46c0
00000390: 7ec4 3fc0 c4db 42c0 3509 43c0 cda3 40c0
000003a0: 56d1 3cc0 45eb 3fc0 3366 37c0 195c 3dc0
000003b0: ab4f 38c0 6fee 40c0 9073 3cc0 bbe5 44c0
000003c0: 2bc5 37c0 0ec0 38c0 27cf 45c0 4be7 46c0
000003d0: 0ec6 40c0 dc07 48c0 4756 40c0 b6ec 4ac0
000003e0: 4640 44c0 1682 40c0 c08c 3ac0 c5e5 55c0
000003f0: ea08 3dc0 bfae 37c0 3b02 33c0 3a4f 35c0
-3.0021877 -3.102302 -2.9967897 -3.0450828 -3.128685 -2.9508173 -3.023369 -3.108652
-2.9327557 -3.1490316 -3.1049113 -2.9407105 -3.0371118 -2.8675814 -3.034172 -2.9317236
-2.7670507 -2.8349414 -3.117674 -3.0417106 -3.0495484 -3.077579 -3.18872 -2.9841564
-3.2363787 -3.1467528 -2.9219608 -3.027875 -3.0434668 -2.869954 -2.9475663 -3.1147857
-2.9740727 -2.7752147 -2.934103 -2.831109 -2.8225222 -3.0580344 -2.8170578 -2.9339159
-2.9365306 -2.9144583 -3.1436446 -2.9991245 -2.7976842 -3.020332 -2.874748 -3.0459456
-2.920638 -2.981477 -3.0892608 -3.158747 -2.8825612 -2.9228017 -3.1777766 -2.8044708
-3.0802648 -2.9295065 -3.0012755 -3.0652401 -3.038737 -3.1365497 -2.9316308 -3.0536885
-3.0764673 -3.160593 -2.9286602 -3.0624635 -2.9875882 -2.917646 -2.9364576 -3.093676
-2.9908323 -2.9235165 -2.9848542 -3.0950122 -3.0113637 -2.9252684 -2.934047 -3.0798542
-2.7843113 -2.9096522 -3.097607 -2.9767926 -3.0223324 -3.1163502 -2.9243734 -2.9758604
-3.114551 -2.8675559 -3.056986 -3.1400752 -3.0602825 -2.990053 -2.9463525 -3.0155616
-3.0713782 -2.9736507 -2.8897884 -3.1223998 -2.8090498 -3.0646787 -3.0582602 -3.0227349
-2.998054 -3.0428772 -2.9778254 -3.040639 -3.1901243 -3.0819068 -3.0355613 -3.1005356
-3.120378 -2.9453156 -2.8912082 -3.1398978 -2.8777997 -2.9771626 -2.8844938 -2.9938865
-3.0982068 -3.1910095 -3.1097817 -3.066411 -3.0407648 -3.2886992 -2.9378395 -2.896073
-2.897857 -3.0202334 -3.052369 -3.0185804 -3.0197487 -3.0584576 -2.968128 -2.8908753
-2.9588146 -3.1017268 -3.015482 -3.0408194 -2.9606593 -2.8793046 -3.0138607 -3.147291
-3.1985705 -2.994171 -2.9906847 -3.005206 -2.8488836 -2.8726072 -3.0749846 -3.0409608
-3.0547216 -2.9956174 -3.1792011 -3.1311245 -2.8846173 -2.9952939 -3.0838914 -3.1206255
-2.844549 -2.997697 -2.909616 -3.0016918 -2.8518796 -3.0405393 -2.9965172 -2.9581482
-2.9866831 -2.9729495 -2.9435475 -2.8625913 -3.0426416 -2.9867985 -3.0038288 -2.8678358
-3.0550117 -2.9088209 -2.9902897 -3.1415973 -2.8317246 -3.180026 -3.035072 -3.1569157
-2.785991 -2.8420405 -2.9397385 -3.0637476 -3.187711 -3.0145085 -3.0768118 -3.178739
-2.9308255 -2.8555086 -2.8423226 -3.0866058 -2.959188 -3.0988662 -3.1045065 -3.2311232
-2.9802625 -3.0782394 -2.9696674 -2.8168228 -2.9233472 -2.8662715 -2.86466 -3.0418642
-3.0131974 -2.8546093 -2.855398 -2.9370909 -3.0489147 -2.7561467 -3.0308836 -2.8248372
-3.021675 -3.061901 -3.0530055 -3.0850217 -2.9201055 -3.108058 -3.0622342 -2.888429
-2.967021 -3.0437617 -3.2358327 -3.1078017 -2.996368 -3.0446634 -3.047437 -3.0099976
-2.9502769 -2.9987347 -2.8656127 -2.9587462 -2.8798625 -3.0145528 -2.9445534 -3.0765216
-2.8714092 -2.886722 -3.0907686 -3.107867 -3.0120883 -3.1254797 -3.005266 -3.1706977
-3.066423 -3.0079398 -2.9148407 -3.342149 -2.953669 -2.8700407 -2.7970111 -2.8329606

l1.bias_mu f4 [800]
00000000: 9566 77bd c5b7 91bb fdaf 0abd f477 fabb
00000010: 5c50 8c3d b2cb ebbb e668 023e ec4c 7bbb
00000020: c964 f33d 2b38 1f3d 016f a7bd b425 cfbd
00000030: bb64 babc 05dc 873c 3acb 7bbd 2cad e73d
00000040: 5418 033c 499d 723c ac1e 123c 08fc 6f3b
00000050: 8a14 e53d 8314 e5bd 6b4c 76bc 3fb6 cf3b
00000060: 6011 b43d 9016 e53d 5a4f 153e 6508 18be
00000070: fbaf 37be 8be5 333e de10 90bd ad64 083e
00000080: a0d6 523c 72b9 85bc 4497 00bb caa1 4cbe
00000090: a136 993d d9be a63d a864 c9bd 0b36 193c
000000a0: 0389 13bc 54ac 6a3e 1111 373d 64e0 8e3c
000000b0: c15d 863d e33d 143d 306d 043d ffa1 8ebd
000000c0: 2f9f 9dbe 254c 283d 20a5 64bd f067 f0bc
000000d0: b9a3 083c 358d dcbd 8107 5cbd 438b f53d
000000e0: 0127 43bc dac3 063e bc6d 23bc f7a8 e33c
000000f0: baa2 70bd 2bf2 ef3d 3c33 c73d aa11 d8bd
00000100: 554d 32be 6b45 95bc 12c7 843d 138f 983d
00000110: e9ae aabd c6c4 27be 3d6b a83c 323e 203e
00000120: b5b5 4bbe aaae 0e3c c929 4e3e c2aa 30bd
00000130: 6df5 8c3d 13f5 bb3c 5c8e 8d3d 8aeb 41bc
00000140: f4b6 09be 0464 fa3b 3a8d f7bc 378d c9bd
00000150: c8bf 60bd 968d 8c3d 04ee 53bd efb5 793d
00000160: e73f 1fbe 38a6 c0bc 1556 d6ba aa4b 2a3c
00000170: b8c0 ac3d 4fde 3cbd 560e 81bd d980 03bd
00000180: c4e2 9b3c 948f dc3a eec0 3dbd 7d7e 563d
00000190: 51b6 bcbd e2c2 b93d 5da7 68bd efb1 66bc
000001a0: e483 13be b53f c7bb 9b72 d13d e8c0 053e
000001b0: b688 c2bc 9acf 16bd 9e7d 1cbe 2555 46bd
000001c0: f26d a3bd 5ae1 de3d d94f 783d 8059 553e
000001d0: 48f5 27be ebb6 7abc c117 b83d a520 883d
000001e0: aeaa 17bc f5d5 243e 75f7 b7bd 6d21 853c
000001f0: 9887 6c3d 8c3b 89bd b137 373e bf98 07bd
00000200: db5d 69bd b93f c4bd a01b 5d3e 4d41 6d3e
00000210: a424 63bb f6cd 37bd 222a ee3d 2d82 f8bd
00000220: 4917 26bc 0438 293e 652b babc 7912 cf3c
00000230: 8f0c f5bd a0a6 0b3e 23e2 06be 144b 3fbd
00000240: cf79 a53c 8439 003d 9183 4e3b 9fd2 0e3e
00000250: db87 e7bc 41cf 6abe 08f2 98b9 646f 6e3e
00000260: 83a6 edbc eb60 753e 369e 59be 0686 193e
00000270: dbc9 9abd c12e afbd 99a1 f33d 896a 9f3d
00000280: 6543 583e 939d 04bb 86be f9bd 4d74 333d
00000290: 7a24 083e 55d5 8f3d 8b7a f33d 5294 4bbd
000002a0: ab6a d0bb c6cc 693d 601c 033a 8a46 ccbd
000002b0: f96a 673d 7ab2 323e 2644 e43d a3b4 aebd
000002c0: 2e2e 39be 19e4 463e cb3b 9b3b e44a 5e3d
000002d0: aa36 2abe 8c3a 15be 6014 80bc 3d31 0ebe
000002e0: a85c efbc 8e98 95bd d4a1 dabc e583 6b3c
000002f0: 747b 04be 4457 1ebc 49fd c33d 19bb cf3c
00000300: 1230 593c ffeb 58bd 474e e7bd 26e5 313d
00000310: 4661 19bc a3b4 b73d 543c ac3c 0b6a 7cbc
00000320: b58a d0bd 7c34 213e ef6d b03d 146a cb3b
00000330: 08fb 17be 67e2 093d 22df d23d 16ba fabd
00000340: 30bf 453d fb9f ec3c f859 29bd 116e b7bd
00000350: 941e 1dbe 6428 103d f7ff 54bd 3a51 ebbb
00000360: 8e87 4c3e 4a9b 00be bb91 db3d 0d47 81be
00000370: 2164 723c 9ddc d33b a1f4 0abe 2070 08bd
00000380: cd7b 0dbd 7dfa 5cbd 40fc ee3d cb17 c2bc
00000390: 546c e1bd 581c 8e3d eecd a6bd 3860 26be
000003a0: 1b43 8b3d 279f a63c 0ae3 3bbd fe41 943d
000003b0: 590e a7bd 69de 3fbd 8e92 bd3d 6a0d ee3c
000003c0: 5233 8c39 30a1 a7bc cdb6 37bd 5f1a 2d3e
000003d0: 4bc2 cebd f095 9c3d e78c e73d 472b 323e
000003e0: dd6c aabc d6c3 24bd cdef 133c 9275 b7bd
000003f0: 4c80 b3bb b1cd 233d b665 e3ba ba6d e6bc
-0.060400564 -0.004446956 -0.03385924 -0.007643694 0.06851265 -0.0071959132 0.12735328 -0.003834541
0.118844576 0.038871925 -0.08175469 -0.10114613 -0.02275311 0.016584406 -0.06147311 0.11312327
0.008001406 0.0148080075 0.008918446 0.0036618728 0.11185558 -0.11185553 -0.015032868 0.006338864
0.087923765 0.11185944 0.14581051 -0.14846952 -0.17938225 0.17568032 -0.07034467 0.13319655
0.012868553 -0.016323779 -0.0019621411 -0.19983593 0.07481123 0.0814187 -0.09833652 0.009351264
-0.009004834 0.229173 0.04469401 0.017440982 0.06560851 0.036191832 0.03233069 -0.06964492
-0.3078551 0.041088242 -0.055821538 -0.029346436 0.008339816 -0.107691206 -0.053718094 0.11989453
-0.011911155 0.13160649 -0.009974893 0.02779053 -0.05874894 0.11716112 0.09726569 -0.10550244
-0.17412312 -0.018221578 0.06483282 0.07449164 -0.08334143 -0.16383657 0.020558948 0.15648726
-0.19893534 0.008708635 0.20133127 -0.043131597 0.06882749 0.022944009 0.069119185 -0.011835942
-0.13448697 0.0076413173 -0.03021871 -0.09841388 -0.054870397 0.06862943 -0.05174066 0.06096452
-0.1555172 -0.02351676 -0.0016352559 0.010394016 0.08435196 -0.046110447 -0.063015625 -0.0321053
0.019029029 0.0016827458 -0.04632657 0.052366722 -0.092144616 0.09070374 -0.056800235 -0.014080509
-0.14405781 -0.0060805925 0.102269374 0.13061869 -0.02374683 -0.036819078 -0.15282294 -0.048421044
-0.07979955 0.10882826 0.060623024 0.20834923 -0.16402161 -0.0153024 0.08988906 0.066468515
-0.009257002 0.16097243 -0.089827456 0.01625129 0.0577465 -0.06700811 0.17892338 -0.033104654
-0.056974273 -0.09582467 0.2159257 0.23169442 -0.003465929 -0.044874154 0.1162913 -0.12134204
-0.010137388 0.16525275 -0.02272577 0.025277363 -0.11965286 0.13637781 -0.13172202 -0.04670246
0.020199684 0.03130485 0.0031511525 0.13947533 -0.028263023 -0.22930624 -0.00029172027 0.2328468
-0.029010063 0.23962753 -0.21251759 0.14992532 -0.07558032 -0.085538395 0.11896057 0.07783992
0.21119459 -0.0020235523 -0.121945426 0.043812085 0.13295165 0.07023112 0.118886076 -0.049701996
-0.006360372 0.057080053 0.00050014816 -0.09974392 0.0564985 0.17450896 0.11145811 -0.085305475
-0.18084022 0.1942295 0.0047373525 0.05427064 -0.16622415 -0.14573115 -0.015634716 -0.1388597
-0.029218987 -0.07304488 -0.026688494 0.014374708 -0.12937719 -0.00966436 0.09569795 0.02535777
0.01325609 -0.05295944 -0.11294227 0.043431424 -0.009361571 0.089700006 0.02102486 -0.015406142
-0.10182706 0.15742677 0.08614718 0.006207714 -0.14841855 0.03366318 0.102964655 -0.12242524
0.048278034 0.028884878 -0.041345567 -0.089565404 -0.15343696 0.03519477 -0.05200192 -0.007181314
0.19973585 -0.12559238 0.10721155 -0.2524952 0.01479438 0.006465508 -0.13569881 -0.033310056
-0.034541894 -0.05394982 0.116692066 -0.023692986 -0.1100699 0.06939 -0.08144747 -0.16247642
0.06799909 0.020339562 -0.04587082 0.072391495 -0.081570335 -0.046842966 0.09256469 0.02905913
0.00026741117 -0.020462602 -0.044852067 0.16904591 -0.10095652 0.07645786 0.11306172 0.17399321
-0.020803863 -0.040225826 0.009029341 -0.08957972 -0.0054779407 0.039991084 -0.0017349038 -0.028128494

l1.bias_rho f4 [800]
00000000: 4e68 3cc0 6e4c 38c0 db5b 4ac0 5345 3ac0
00000010: 9b8e 47c0 1c83 3ac0 30bc 34c0 6652 38c0
00000020: 726c 49c0 1564 42c0 8741 41c0 39d9 43c0
00000030: 561a 49c0 c98d 37c0 dd17 41c0 a57d 43c0
00000040: e25d 47c0 605a 3fc0 f7b0 55c0 15da 4dc0
00000050: 6104 36c0 91d8 37c0 6b66 37c0 9da8 46c0
00000060: 8845 3bc0 ff55 42c0 4dcd 3ac0 e4c3 43c0
00000070: 0631 44c0 0557 3ac0 3fc6 35c0 72e1 47c0
00000080: 89df 43c0 4008 3cc0 d85e 44c0 4548 48c0
00000090: 06b6 2dc0 4487 52c0 b8b9 35c0 7c80 39c0
000000a0: 9890 43c0 8d68 44c0 67fb 46c0 7871 4cc0
000000b0: ff86 45c0 a6b4 43c0 5c6f 42c0 fe6b 3fc0
000000c0: e55f 39c0 bf25 46c0 3528 43c0 4272 40c0
000000d0: f3f2 3fc0 5409 3dc0 cd3a 47c0 dcc5 41c0
000000e0: a735 39c0 d927 40c0 ffa3 4bc0 a075 45c0
000000f0: aa91 3fc0 0a07 48c0 b4f9 4dc0 e6df 35c0
00000100: aa18 44c0 9b16 42c0 30f5 39c0 73a4 43c0
00000110: d3e7 3cc0 c01b 40c0 1617 44c0 3818 3dc0
00000120: 6e70 48c0 498f 39c0 e59c 36c0 f7ba 41c0
00000130: 6f52 42c0 771f 49c0 a261 3fc0 026e 44c0
00000140: 416a 3cc0 8bda 3ac0 a853 46c0 9162 3fc0
00000150: b77c 37c0 fba4 38c0 9160 3cc0 8329 35c0
00000160: 13f0 43c0 9b45 3dc0 c34d 42c0 a51e 3dc0
00000170: f75a 3ec0 d247 36c0 619b 3fc0 7386 3bc0
00000180: 2d8f 41c0 c269 32c0 5b0a 44c0 22d9 48c0
00000190: 1b76 41c0 21ef 44c0 aab9 43c0 07ac 35c0
000001a0: 6394 46c0 eab3 36c0 e24a 39c0 bfcf 4bc0
000001b0: ebdf 44c0 da1b 42c0 53bf 42c0 1166 3bc0
000001c0: e970 45c0 11ba 45c0 00ce 3ec0 198f 34c0
000001d0: 3f4f 36c0 373e 41c0 21f5 42c0 a4e2 3bc0
000001e0: 9212 4bc0 8ccd 47c0 260c 49c0 826a 3dc0
000001f0: 2598 32c0 2040 3dc0 065f 3cc0 af27 34c0
00000200: 67f4 3ec0 257c 49c0 406f 41c0 dbf8 3cc0
00000210: 1fb3 41c0 b21a 49c0 414d 43c0 6a73 48c0
00000220: 237c 46c0 fac0 42c0 9a4d 40c0 d4d2 3dc0
00000230: f117 4bc0 33f6 40c0 ec43 38c0 d9b3 42c0
00000240: 0150 41c0 5cd8 3ec0 9fc6 3ac0 d19a 44c0
00000250: 0457 33c0 39fd 40c0 053c 3ec0 d4ab 3dc0
00000260: 8e74 43c0 b56e 40c0 d676 46c0 c7a0 3dc0
00000270: 720c 46c0 db5f 3fc0 1503 3cc0 bcfd 32c0
00000280: d394 3ec0 353e 3cc0 676f 36c0 570a 32c0
00000290: d643 49c0 a1ba 35c0 f7d1 3cc0 303a 4ac0
000002a0: fe99 38c0 6903 46c0 8e1a 42c0 72b8 3fc0
000002b0: 215e 3cc0 5299 42c0 bc7a 3cc0 7558 3bc0
000002c0: 2a9d 3bc0 4e11 4ec0 4cc9 37c0 7ee1 45c0
000002d0: 2f9d 37c0 0d9b 43c0 43da 3ac0 50ee 47c0
000002e0: 7956 47c0 e7d3 41c0 af46 32c0 ee4f 3bc0
000002f0: 9be9 3cc0 89e4 46c0 2b7a 3fc0 c73e 3dc0
00000300: a28e 40c0 b0c9 41c0 2d98 34c0 4769 40c0
00000310: 96c6 46c0 a768 40c0 63cf 42c0 9638 34c0
00000320: 4953 33c0 d481 4dc0 8842 42c0 f6e3 44c0
00000330: 6666 36c0 af4f 3ec0 4ff2 42c0 4a92 50c0
00000340: 372a 3cc0 4d2c 3bc0 b372 44c0 83a1 4cc0
00000350: f9f1 41c0 1030 42c0 ad74 45c0 5f27 49c0
00000360: eac1 44c0 e2d4 3cc0 a3d1 41c0 1342 3dc0
00000370: a72d 32c0 7864 3dc0 cd43 3dc0 10f2 3bc0
00000380: d6df 45c0 9d23 49c0 f204 3ec0 ae41 43c0
00000390: 40fb 3fc0 e743 38c0 957f 3fc0 f040 4ac0
000003a0: 181c 37c0 27e6 3dc0 e4dc 47c0 3999 48c0
000003b0: b92a 3dc0 9d2b 44c0 7482 3bc0 2f56 3ec0
000003c0: 7711 3ec0 1ef6 42c0 c335 44c0 3ba8 40c0
000003d0: 3dc0 3ec0 40c4 36c0 470a 34c0 b87b 45c0
000003e0: 4c6f 42c0 b017 3fc0 addc 3bc0 f910 43c0
000003f0: 66dc 44c0 d535 42c0 09d2 3cc0 02f2 31c0
-2.9438663 -2.879665 -3.1618564 -2.9104812 -3.118079 -2.9142523 -2.823986 -2.8800292
-3.147244 -3.0373585 -3.0196245 -3.0601332 -3.1422324 -2.8680289 -3.0170815 -3.0545437
-3.1151052 -2.989891 -3.338926 -3.2164357 -2.8440173 -2.8725932 -2.865626 -3.1040413
-2.9261189 -3.0364988 -2.9187806 -3.0588312 -3.0654922 -2.9115613 -2.840225 -3.123135
-3.0605185 -2.9380035 -3.0682888 -3.129411 -2.7142348 -3.289506 -2.8394604 -2.898467
-3.0557003 -3.0688813 -3.1090944 -3.1944256 -3.0863645 -3.057901 -3.0380468 -2.9909663
-2.896478 -3.0960538 -3.049329 -3.0069737 -2.9992034 -2.9536943 -3.112964 -3.0277014
-2.8938997 -3.002432 -3.1818845 -3.0853043 -2.9932656 -3.1254296 -3.2183657 -2.8417907
-3.0640054 -3.0326297 -2.90559 -3.0569122 -2.9516494 -3.0016937 -3.063909 -2.9546032
-3.1318622 -2.8993704 -2.853326 -3.0270364 -3.0362813 -3.1425455 -2.990334 -3.0692143
-2.9439852 -2.9195888 -3.098856 -2.990391 -2.866987 -2.8850696 -2.943394 -2.8306587
-3.061528 -2.9573734 -3.0359962 -2.9549954 -2.974302 -2.8481336 -2.9938586 -2.9300811
-3.0243638 -2.787705 -3.063132 -3.1382527 -3.0228336 -3.0770953 -3.058207 -2.8386247
-3.1028068 -2.854731 -2.8951955 -3.1845548 -3.0761669 -3.03295 -3.0429275 -2.9281046
-3.0850165 -3.0894816 -2.9813232 -2.821234 -2.8485868 -3.0194223 -3.0462115 -2.935708
-3.1730084 -3.1219206 -3.1413665 -2.9596257 -2.7905362 -2.9570389 -2.9432998 -2.814922
-2.9836671 -3.1482022 -3.0224152 -2.952689 -3.0265577 -3.1422544 -3.0515902 -3.1320443
-3.1013267 -3.0430284 -3.0047364 -2.965993 -3.1733363 -3.0150268 -2.8791456 -3.042227
-3.020508 -2.9819555 -2.9183729 -3.0719492 -2.802186 -3.0154555 -2.9724133 -2.9636126
-3.053989 -3.006757 -3.1010032 -2.962938 -3.0945096 -2.9902256 -2.937688 -2.7967367
-2.9778335 -2.9412968 -2.8505495 -2.781881 -3.1447654 -2.839516 -2.9503152 -3.1598015
-2.884399 -3.0939581 -3.0328708 -2.9956326 -2.9432452 -3.040608 -2.944991 -2.927274
-2.9314675 -3.2198062 -2.8716612 -3.091888 -2.8689687 -3.0563385 -2.9195716 -3.1239204
-3.1146529 -3.0285585 -2.7855642 -2.9267535 -2.9517581 -3.1076987 -2.9918315 -2.9569566
-3.0087056 -3.027935 -2.821788 -3.0064256 -3.1058707 -3.0063875 -3.0439079 -2.8159537
-2.8019583 -3.211049 -3.0353107 -3.0764136 -2.85 -2.9736135 -3.0460393 -3.2589288
-2.9400766 -2.924579 -3.0695007 -3.197358 -3.0303938 -3.0341835 -3.0852463 -3.143028
-3.0743356 -2.9504933 -3.0284202 -2.9571579 -2.7840364 -2.9592571 -2.9572632 -2.9366493
-3.0917869 -3.1427987 -2.9690518 -3.0508838 -2.99971 -2.8791444 -2.992162 -3.1602135
-2.8610897 -2.9671724 -3.122857 -3.134352 -2.9557326 -3.065162 -2.9298372 -2.9740102
-2.969816 -3.0462718 -3.0657814 -3.010268 -2.9804833 -2.8557281 -2.8131273 -3.0856762
-3.038043 -2.9858208 -2.935344 -3.047911 -3.075952 -3.0345356 -2.9503195 -2.780396

l1.weight.mu f4 [800, 29]
00000000: 3e38 08be 0f30 5ebe a36d 25bd 59e7 75bd
00000010: 37e0 063d 15dc 56be 5636 4a3d 2010 01be
00000020: bcc7 f1bd 4775 e33c 2e49 8cbd dfe7 f03d
00000030: 8cf9 9fbd 3dd8 22be 0b63 fbbd 82a7 90bd
00000040: 1d27 8bbd b2f0 88bd 67fa bbbd 7ea3 b6bc
00000050: ce8d 88bc 0f6b 5a3e 95d4 813c b695 25be
00000060: b302 643c 80ef 83bd 5cb5 2a3d e837 a03d
00000070: 4a4b 003d f188 0abc 9318 2b3c 790e 063e
00000080: 80af 58bd 2ca0 773c dc93 21bd 2862 293d
00000090: fa3a 8a3d aa3c 8cbe 6053 86bc 51f8 a03d
000000a0: cfa2 c63c 5b4d 8cbd 20af 9c3c 0528 4e3e
000000b0: 6842 68bd 8ed2 b23c 63ea da3d fbdb d4bd
000000c0: 84de 7abc bc09 b53d d38a 4fbe b74f 513d
000000d0: 2507 e33b 20ea 193d d197 ebbb 4676 bdbe
000000e0: 0965 ecbd f9c9 3fbc 35a0 99bc a339 6abd
000000f0: 3238 47be 9de9 16be 4c74 8cbd d35e e2bd
00000100: b79a f23c e0a1 883c 00dd 96bd 5bb8 7e3c
00000110: 4565 6bbe 4207 e73d 6aed f4bd bebc b13d
00000120: 16e9 953c e251 563d 8273 c63b 3557 32bc
00000130: 08ed 563e 0ba7 c03c 4a3b 243d b603 cc3d
00000140: 85df f13d aa80 5fbe 4431 34be b755 64bd
00000150: f6f4 adbc 0eac 0f3e 3408 0a3d 7f6c 5a3c
00000160: cf04 78be 1d6c b83d 9aac ff3d fdfe ab3d
00000170: 558d 313e d981 3e3e ce38 22be 953f 1a3e
00000180: f58d 113e ea24 02be 6746 f83d 7a61 c6bd
00000190: ae2f 10bd 832c 163e 1f1f 813e d4b3 433e
000001a0: 55b5 033d b72e d43c a294 4ebb 9e1c 003e
000001b0: 5fc7 9bbd f70f b4bd 773b 6dbd bd5a 1c3d
000001c0: 9f77 3bbc 473b 24be 165b e93c c564 823d
000001d0: 9c9a 9fbc 07a2 14be 446e 46bc 780a 3c3d
000001e0: 399a 2c3d 8dfb 90bd 21d5 08bd ef76 59bc
000001f0: 9c3f 2d3d 653b 0ebd bfc6 96bd ae1d bcbc
00000200: fd0c f1bd e98c d53d 5450 0abe bd3f 5c3d
00000210: eb53 833c b8d6 3bbe 8453 03be 1235 113e
00000220: e3cf aabd bfc2 21be 143b 8abd 7196 0ebd
00000230: 6e15 0f3e cd37 343d 5027 94bd 2252 8a3d
00000240: 9f03 2b3e 4824 1d3e eb6a 2abe c678 1fbd
00000250: 00a3 713d 9a09 343d 5e30 fcbd 5aa2 ef3d
00000260: 4d09 cd3d 3b04 b3bd 9e1a b83c 879a 6abe
00000270: ef98 1bbc c053 bf3d f88c 193d ec6e d6bd
00000280: 4471 fdbd bc28 93bd 1a9e 49bd 3607 2c3d
00000290: 3a5a ae3c 8b04 40bd 05ec dcbc e141 d23d
000002a0: 1dd5 143c e7e3 aabc 41b6 783e 52ad 263e
000002b0: 0909 01bd 8727 e33d dc6c 4ebb d3af a63c
000002c0: 37b4 60bd 814c 8c3c 3f44 4f3e be8c 27bd
000002d0: 19f1 06be d5b5 81bc fd84 23bd 22b5 0bbe
000002e0: ed34 76bd bada 213d 3c9d a23c 4293 283d
000002f0: 1c7a 073e 812c 643e 5782 bb3d bdd1 ff3c
00000300: ca76 4e3c de86 6a3d 2b47 55be 1e59 a83d
00000310: 7c44 973c f97c 36be dce1 1d3c 4982 b83c
00000320: 4095 76bd f711 9b3d 9511 3cbe 0c50 b13c
00000330: 04b5 37bb 16e3 19bd f97c 85bd 30bc 123e
00000340: 15a4 983b 0374 10bc 61ea 30bb ff62 c93d
00000350: f69e d43b 842b d33d 788b 2abd 58c3 71bd
00000360: f00a c4bc b915 953d e993 21be 539b 763d
00000370: fc85 003d 1020 84bc d719 adbd 9881 08be
00000380: 3b8b 2e3d b58a 39bd d2b0 c93d fcdf 3fbd
00000390: ce37 0bbd d044 eb3c 908e 3fbd c0ed 0abe
000003a0: 2fa1 163e 47a1 e23d c6e3 8bbd 784b f43d
000003b0: c7ea 89bd ab3f 23bd bca7 3a3e 1c2b d53d
000003c0: 8543 0fbd 7634 19be de0d 3ebd 46f5 cd3d
000003d0: 2615 303e 208e e13d 2e9e 8cbd 454e 36bd
000003e0: 6c77 313e 96d3 483e 78b8 67bb cb21 ebbc
000003f0: e36b f43c a90c 4b3a 6678 03be 55db 823e
-0.13302705 -0.2169802 -0.04038776 -0.060035083 0.03292867 -0.20982392 0.049368225 -0.12603807
-0.118056744 0.027765883 -0.068498954 0.11762976 -0.07811269 -0.15902801 -0.1227475 -0.070631996
-0.0679457 -0.06686534 -0.0917862 -0.022294756 -0.01666918 0.21329902 0.015848437 -0.16170391
0.013916659 -0.064421654 0.041676864 0.07823163 0.0313218 -0.008455501 0.010442871 0.13091458
-0.052901745 0.015113872 -0.03944765 0.041353375 0.0674953 -0.27390033 -0.016397178 0.078598626
0.024247555 -0.06850692 0.019126475 0.20132454 -0.056703955 0.021828916 0.10689237 -0.103935204
-0.015311841 0.08839747 -0.20267801 0.051101413 0.006928342 0.037576795 -0.007189729 -0.37004298
-0.115427084 -0.011705869 -0.01875315 -0.057183873 -0.1945503 -0.14737554 -0.06858119 -0.110532425
0.02961479 0.01667875 -0.07366371 0.015546883 -0.2298785 0.11280681 -0.11959346 0.08678578
0.01829962 0.052324183 0.00605625 -0.01088505 0.20988858 0.023517152 0.040095605 0.09961645
0.11810211 -0.21826425 -0.17596918 -0.055745807 -0.02123497 0.14030477 0.03369923 0.013331532
-0.24220584 0.09004996 0.12484093 0.083982445 0.1733907 0.1860422 -0.15841982 0.15063317
0.14214309 -0.12709394 0.12122803 -0.09686561 -0.03520172 0.14665417 0.25219056 0.19111568
0.032155354 0.025901182 -0.0031521698 0.12510917 -0.076063864 -0.087921076 -0.05791804 0.038172472
-0.011442094 -0.16038238 0.028485816 0.063668765 -0.019482903 -0.14514934 -0.01211125 0.04590842
0.042139266 -0.070792295 -0.03340638 -0.013272985 0.04229699 -0.03472461 -0.073621266 -0.022963371
-0.117700554 0.10427267 -0.13507205 0.053771723 0.016031226 -0.18343627 -0.12824827 0.14180401
-0.083404325 -0.15796946 -0.067495495 -0.03481144 0.13973019 0.04399853 -0.07234061 0.06753947
0.167006 0.15345871 -0.16642348 -0.038933538 0.05899334 0.04395447 -0.12313913 0.11700888
0.100115396 -0.08741041 0.02247363 -0.2291051 -0.009496911 0.09342146 0.037487954 -0.104703754
-0.12375119 -0.07185504 -0.049223043 0.041999064 0.021283258 -0.046879333 -0.026968012 0.10266472
0.009084013 -0.020860625 0.24288274 0.16277054 -0.031502757 0.110915236 -0.003149799 0.020347511
-0.054859366 0.017126324 0.20240878 -0.040905707 -0.13177909 -0.015833775 -0.03992175 -0.13643315
-0.060109068 0.039515235 0.019850366 0.04115606 0.13230175 0.22282602 0.0915572 0.03122794
0.012601564 0.057257526 -0.2082793 0.08220123 0.018465273 -0.17821111 0.009636369 0.022523062
-0.06020093 0.07571786 -0.18366082 0.021644615 -0.0028031478 -0.03757008 -0.06517977 0.143296
0.004658232 -0.008816722 -0.002699517 0.09833335 0.006488676 0.10311034 -0.041636914 -0.059024185
-0.023930997 0.07279534 -0.1577908 0.060206722 0.031377777 -0.01612857 -0.08452194 -0.13330686
0.04261325 -0.045298297 0.09848179 -0.046844468 -0.033988766 0.028719336 -0.046766818 -0.13567257
0.14709924 0.110659175 -0.06830554 0.11928457 -0.06734233 -0.03985564 0.18228048 0.10408613
-0.0349765 -0.14961419 -0.046399944 0.10056548 0.17195567 0.11013436 -0.06866108 -0.044508237
0.17330712 0.19611964 -0.0035357755 -0.028702637 0.0298366 0.0007745722 -0.12838897 0.25557962

l1.weight.rho f4 [800, 29]
00000000: d823 40c0 1e8c 46c0 67cb 3fc0 a3e2 42c0
00000010: 603c 48c0 31da 3cc0 e17e 41c0 28f4 46c0
00000020: 45b2 3bc0 bc89 49c0 deb6 46c0 9a34 3cc0
00000030: 0a60 42c0 7486 37c0 e02f 42c0 5ca1 3bc0
00000040: 5c17 31c0 ae6f 35c0 f987 47c0 63ab 42c0
00000050: cd2b 43c0 0ef7 44c0 fd13 4cc0 6bfc 3ec0
00000060: d420 4fc0 6664 49c0 6801 3bc0 b4c8 41c0
00000070: 29c8 42c0 54ad 37c0 eda4 3cc0 a658 47c0
00000080: 3557 3ec0 1e9d 31c0 58c8 3bc0 e430 35c0
00000090: 34a4 34c0 d6b6 43c0 ad4a 34c0 47c5 3bc0
000000a0: 1ef0 3bc0 7c86 3ac0 7931 49c0 a8f1 3fc0
000000b0: 420d 33c0 1f4d 41c0 dffb 37c0 c6f0 42c0
000000c0: bceb 3ac0 85d0 3ec0 73b6 45c0 e928 4ac0
000000d0: e27b 38c0 2f0f 3bc0 b160 4bc0 737c 33c0
000000e0: 0f23 45c0 097d 3bc0 e614 40c0 e52c 44c0
000000f0: ab7a 42c0 3bbd 48c0 d79f 3bc0 a26f 43c0
00000100: d7e4 44c0 2847 4ac0 2b6f 3bc0 67ff 43c0
00000110: a534 3fc0 b6ba 3ac0 ecee 3bc0 cafe 45c0
00000120: cc69 3fc0 e51a 3bc0 da07 3fc0 ae14 46c0
00000130: 2fba 40c0 9937 3bc0 6dc7 3bc0 551c 45c0
00000140: 2832 32c0 be37 3ac0 313f 46c0 c583 3ec0
00000150: e56d 41c0 4872 47c0 ef28 3bc0 7f74 3ec0
00000160: ce54 47c0 0986 37c0 a9a5 43c0 fef6 48c0
00000170: abdb 43c0 075d 3fc0 0a91 3cc0 f6fe 40c0
00000180: 7691 44c0 4b50 3ec0 4bf2 38c0 66d5 47c0
00000190: 79c7 33c0 b223 44c0 89ba 43c0 7d74 41c0
000001a0: 1ee0 3fc0 80be 42c0 b194 3ec0 d499 42c0
000001b0: ff2a 4cc0 f63d 45c0 a346 42c0 2d6f 46c0
000001c0: 46b4 47c0 0d80 3cc0 8e09 39c0 16f4 48c0
000001d0: df2d 38c0 d589 3ec0 8c9b 38c0 d69b 3fc0
000001e0: 0549 46c0 8039 4cc0 aa06 47c0 1440 44c0
000001f0: e49b 42c0 0c7a 52c0 9005 3cc0 4359 39c0
00000200: 7d76 39c0 814b 41c0 045a 43c0 6c30 41c0
00000210: 9043 41c0 c5bd 43c0 cff5 3dc0 1a04 39c0
00000220: 385d 3dc0 b182 46c0 a8fd 40c0 c99c 42c0
00000230: 717b 3dc0 8746 38c0 18e3 40c0 376d 49c0
00000240: 61b5 4cc0 7fa0 3fc0 6167 3fc0 4c55 40c0
00000250: 1c54 36c0 ccd8 37c0 8ccc 44c0 1a9f 42c0
00000260: 8f80 43c0 32b8 3fc0 0878 4bc0 5864 48c0
00000270: 929d 38c0 e5b2 3fc0 7a5e 45c0 54b8 47c0
00000280: 170d 36c0 45da 3fc0 2637 3ac0 b81b 40c0
00000290: 3285 36c0 3298 42c0 f0c6 3fc0 4d52 3dc0
000002a0: d125 3fc0 ce44 3ec0 1563 3cc0 b234 37c0
000002b0: a4ba 42c0 b527 3fc0 bb3e 40c0 9f8a 37c0
000002c0: 5085 43c0 1f2a 3ac0 e860 3fc0 ee0f 49c0
000002d0: fa3a 35c0 8c85 4bc0 9f3e 42c0 e80a 4ac0
000002e0: ad4d 32c0 fee3 35c0 ad24 3cc0 7114 44c0
000002f0: 7503 4cc0 b5ed 40c0 7cea 44c0 7670 4bc0
00000300: a592 3bc0 a7c0 36c0 9de8 35c0 f38a 45c0
00000310: 5663 3dc0 d353 46c0 3cb0 46c0 b9ca 4ec0
00000320: 9fbc 3ec0 e001 45c0 080f 3ec0 d346 34c0
00000330: 1f18 3bc0 fe70 37c0 9756 37c0 e7ad 42c0
00000340: 3ad8 40c0 ebb1 36c0 d7be 36c0 4cf9 3bc0
00000350: 6b21 43c0 b564 30c0 fff9 41c0 22ca 34c0
00000360: 2063 41c0 30f6 43c0 7164 43c0 ff70 45c0
00000370: 02e3 3ac0 6cea 46c0 a5fb 43c0 05dc 38c0
00000380: ace3 3dc0 fecc 42c0 e217 4fc0 39e6 46c0
00000390: 7ec4 3fc0 c4db 42c0 3509 43c0 cda3 40c0
000003a0: 56d1 3cc0 45eb 3fc0 3366 37c0 195c 3dc0
000003b0: ab4f 38c0 6fee 40c0 9073 3cc0 bbe5 44c0
000003c0: 2bc5 37c0 0ec0 38c0 27cf 45c0 4be7 46c0
000003d0: 0ec6 40c0 dc07 48c0 4756 40c0 b6ec 4ac0
000003e0: 4640 44c0 1682 40c0 c08c 3ac0 c5e5 55c0
000003f0: ea08 3dc0 bfae 37c0 3b02 33c0 3a4f 35c0
-3.0021877 -3.102302 -2.9967897 -3.0450828 -3.128685 -2.9508173 -3.023369 -3.108652
-2.9327557 -3.1490316 -3.1049113 -2.9407105 -3.0371118 -2.8675814 -3.034172 -2.9317236
-2.7670507 -2.8349414 -3.117674 -3.0417106 -3.0495484 -3.077579 -3.18872 -2.9841564
-3.2363787 -3.1467528 -2.9219608 -3.027875 -3.0434668 -2.869954 -2.9475663 -3.1147857
-2.9740727 -2.7752147 -2.934103 -2.831109 -2.8225222 -3.0580344 -2.8170578 -2.9339159
-2.9365306 -2.9144583 -3.1436446 -2.9991245 -2.7976842 -3.020332 -2.874748 -3.0459456
-2.920638 -2.981477 -3.0892608 -3.158747 -2.8825612 -2.9228017 -3.1777766 -2.8044708
-3.0802648 -2.9295065 -3.0012755 -3.0652401 -3.038737 -3.1365497 -2.9316308 -3.0536885
-3.0764673 -3.160593 -2.9286602 -3.0624635 -2.9875882 -2.917646 -2.9364576 -3.093676
-2.9908323 -2.9235165 -2.9848542 -3.0950122 -3.0113637 -2.9252684 -2.934047 -3.0798542
-2.7843113 -2.9096522 -3.097607 -2.9767926 -3.0223324 -3.1163502 -2.9243734 -2.9758604
-3.114551 -2.8675559 -3.056986 -3.1400752 -3.0602825 -2.990053 -2.9463525 -3.0155616
-3.0713782 -2.9736507 -2.8897884 -3.1223998 -2.8090498 -3.0646787 -3.0582602 -3.0227349
-2.998054 -3.0428772 -2.9778254 -3.040639 -3.1901243 -3.0819068 -3.0355613 -3.1005356
-3.120378 -2.9453156 -2.8912082 -3.1398978 -2.8777997 -2.9771626 -2.8844938 -2.9938865
-3.0982068 -3.1910095 -3.1097817 -3.066411 -3.0407648 -3.2886992 -2.9378395 -2.896073
-2.897857 -3.0202334 -3.052369 -3.0185804 -3.0197487 -3.0584576 -2.968128 -2.8908753
-2.9588146 -3.1017268 -3.015482 -3.0408194 -2.9606593 -2.8793046 -3.0138607 -3.147291
-3.1985705 -2.994171 -2.9906847 -3.005206 -2.8488836 -2.8726072 -3.0749846 -3.0409608
-3.0547216 -2.9956174 -3.1792011 -3.1311245 -2.8846173 -2.9952939 -3.0838914 -3.1206255
-2.844549 -2.997697 -2.909616 -3.0016918 -2.8518796 -3.0405393 -2.9965172 -2.9581482
-2.9866831 -2.9729495 -2.9435475 -2.8625913 -3.0426416 -2.9867985 -3.0038288 -2.8678358
-3.0550117 -2.9088209 -2.9902897 -3.1415973 -2.8317246 -3.180026 -3.035072 -3.1569157
-2.785991 -2.8420405 -2.9397385 -3.0637476 -3.187711 -3.0145085 -3.0768118 -3.178739
-2.9308255 -2.8555086 -2.8423226 -3.0866058 -2.959188 -3.0988662 -3.1045065 -3.2311232
-2.9802625 -3.0782394 -2.9696674 -2.8168228 -2.9233472 -2.8662715 -2.86466 -3.0418642
-3.0131974 -2.8546093 -2.855398 -2.9370909 -3.0489147 -2.7561467 -3.0308836 -2.8248372
-3.021675 -3.061901 -3.0530055 -3.0850217 -2.9201055 -3.108058 -3.0622342 -2.888429
-2.967021 -3.0437617 -3.2358327 -3.1078017 -2.996368 -3.0446634 -3.047437 -3.0099976
-2.9502769 -2.9987347 -2.8656127 -2.9587462 -2.8798625 -3.0145528 -2.9445534 -3.0765216
-2.8714092 -2.886722 -3.0907686 -3.107867 -3.0120883 -3.1254797 -3.005266 -3.1706977
-3.066423 -3.0079398 -2.9148407 -3.342149 -2.953669 -2.8700407 -2.7970111 -2.8329606

l1.bias.mu f4 [800]
00000000: 9566 77bd c5b7 91bb fdaf 0abd f477 fabb
00000010: 5c50 8c3d b2cb ebbb e668 023e ec4c 7bbb
00000020: c964 f33d 2b38 1f3d 016f a7bd b425 cfbd
00000030: bb64 babc 05dc 873c 3acb 7bbd 2cad e73d
00000040: 5418 033c 499d 723c ac1e 123c 08fc 6f3b
00000050: 8a14 e53d 8314 e5bd 6b4c 76bc 3fb6 cf3b
00000060: 6011 b43d 9016 e53d 5a4f 153e 6508 18be
00000070: fbaf 37be 8be5 333e de10 90bd ad64 083e
00000080: a0d6 523c 72b9 85bc 4497 00bb caa1 4cbe
00000090: a136 993d d9be a63d a864 c9bd 0b36 193c
000000a0: 0389 13bc 54ac 6a3e 1111 373d 64e0 8e3c
000000b0: c15d 863d e33d 143d 306d 043d ffa1 8ebd
000000c0: 2f9f 9dbe 254c 283d 20a5 64bd f067 f0bc
000000d0: b9a3 083c 358d dcbd 8107 5cbd 438b f53d
000000e0: 0127 43bc dac3 063e bc6d 23bc f7a8 e33c
000000f0: baa2 70bd 2bf2 ef3d 3c33 c73d aa11 d8bd
00000100: 554d 32be 6b45 95bc 12c7 843d 138f 983d
00000110: e9ae aabd c6c4 27be 3d6b a83c 323e 203e
00000120: b5b5 4bbe aaae 0e3c c929 4e3e c2aa 30bd
00000130: 6df5 8c3d 13f5 bb3c 5c8e 8d3d 8aeb 41bc
00000140: f4b6 09be 0464 fa3b 3a8d f7bc 378d c9bd
00000150: c8bf 60bd 968d 8c3d 04ee 53bd efb5 793d
00000160: e73f 1fbe 38a6 c0bc 1556 d6ba aa4b 2a3c
00000170: b8c0 ac3d 4fde 3cbd 560e 81bd d980 03bd
00000180: c4e2 9b3c 948f dc3a eec0 3dbd 7d7e 563d
00000190: 51b6 bcbd e2c2 b93d 5da7 68bd efb1 66bc
000001a0: e483 13be b53f c7bb 9b72 d13d e8c0 053e
000001b0: b688 c2bc 9acf 16bd 9e7d 1cbe 2555 46bd
000001c0: f26d a3bd 5ae1 de3d d94f 783d 8059 553e
000001d0: 48f5 27be ebb6 7abc c117 b83d a520 883d
000001e0: aeaa 17bc f5d5 243e 75f7 b7bd 6d21 853c
000001f0: 9887 6c3d 8c3b 89bd b137 373e bf98 07bd
00000200: db5d 69bd b93f c4bd a01b 5d3e 4d41 6d3e
00000210: a424 63bb f6cd 37bd 222a ee3d 2d82 f8bd
00000220: 4917 26bc 0438 293e 652b babc 7912 cf3c
00000230: 8f0c f5bd a0a6 0b3e 23e2 06be 144b 3fbd
00000240: cf79 a53c 8439 003d 9183 4e3b 9fd2 0e3e
00000250: db87 e7bc 41cf 6abe 08f2 98b9 646f 6e3e
00000260: 83a6 edbc eb60 753e 369e 59be 0686 193e
00000270: dbc9 9abd c12e afbd 99a1 f33d 896a 9f3d
00000280: 6543 583e 939d 04bb 86be f9bd 4d74 333d
00000290: 7a24 083e 55d5 8f3d 8b7a f33d 5294 4bbd
000002a0: ab6a d0bb c6cc 693d 601c 033a 8a46 ccbd
000002b0: f96a 673d 7ab2 323e 2644 e43d a3b4 aebd
000002c0: 2e2e 39be 19e4 463e cb3b 9b3b e44a 5e3d
000002d0: aa36 2abe 8c3a 15be 6014 80bc 3d31 0ebe
000002e0: a85c efbc 8e98 95bd d4a1 dabc e583 6b3c
000002f0: 747b 04be 4457 1ebc 49fd c33d 19bb cf3c
00000300: 1230 593c ffeb 58bd 474e e7bd 26e5 313d
00000310: 4661 19bc a3b4 b73d 543c ac3c 0b6a 7cbc
00000320: b58a d0bd 7c34 213e ef6d b03d 146a cb3b
00000330: 08fb 17be 67e2 093d 22df d23d 16ba fabd
00000340: 30bf 453d fb9f ec3c f859 29bd 116e b7bd
00000350: 941e 1dbe 6428 103d f7ff 54bd 3a51 ebbb
00000360: 8e87 4c3e 4a9b 00be bb91 db3d 0d47 81be
00000370: 2164 723c 9ddc d33b a1f4 0abe 2070 08bd
00000380: cd7b 0dbd 7dfa 5cbd 40fc ee3d cb17 c2bc
00000390: 546c e1bd 581c 8e3d eecd a6bd 3860 26be
000003a0: 1b43 8b3d 279f a63c 0ae3 3bbd fe41 943d
000003b0: 590e a7bd 69de 3fbd 8e92 bd3d 6a0d ee3c
000003c0: 5233 8c39 30a1 a7bc cdb6 37bd 5f1a 2d3e
000003d0: 4bc2 cebd f095 9c3d e78c e73d 472b 323e
000003e0: dd6c aabc d6c3 24bd cdef 133c 9275 b7bd
000003f0: 4c80 b3bb b1cd 233d b665 e3ba ba6d e6bc
-0.060400564 -0.004446956 -0.03385924 -0.007643694 0.06851265 -0.0071959132 0.12735328 -0.003834541
0.118844576 0.038871925 -0.08175469 -0.10114613 -0.02275311 0.016584406 -0.06147311 0.11312327
0.008001406 0.0148080075 0.008918446 0.0036618728 0.11185558 -0.11185553 -0.015032868 0.006338864
0.087923765 0.11185944 0.14581051 -0.14846952 -0.17938225 0.17568032 -0.07034467 0.13319655
0.012868553 -0.016323779 -0.0019621411 -0.19983593 0.07481123 0.0814187 -0.09833652 0.009351264
-0.009004834 0.229173 0.04469401 0.017440982 0.06560851 0.036191832 0.03233069 -0.06964492
-0.3078551 0.041088242 -0.055821538 -0.029346436 0.008339816 -0.107691206 -0.053718094 0.11989453
-0.011911155 0.13160649 -0.009974893 0.02779053 -0.05874894 0.11716112 0.09726569 -0.10550244
-0.17412312 -0.018221578 0.06483282 0.07449164 -0.08334143 -0.16383657 0.020558948 0.15648726
-0.19893534 0.008708635 0.20133127 -0.043131597 0.06882749 0.022944009 0.069119185 -0.011835942
-0.13448697 0.0076413173 -0.03021871 -0.09841388 -0.054870397 0.06862943 -0.05174066 0.06096452
-0.1555172 -0.02351676 -0.0016352559 0.010394016 0.08435196 -0.046110447 -0.063015625 -0.0321053
0.019029029 0.0016827458 -0.04632657 0.052366722 -0.092144616 0.09070374 -0.056800235 -0.014080509
-0.14405781 -0.0060805925 0.102269374 0.13061869 -0.02374683 -0.036819078 -0.15282294 -0.048421044
-0.07979955 0.10882826 0.060623024 0.20834923 -0.16402161 -0.0153024 0.08988906 0.066468515
-0.009257002 0.16097243 -0.089827456 0.01625129 0.0577465 -0.06700811 0.17892338 -0.033104654
-0.056974273 -0.09582467 0.2159257 0.23169442 -0.003465929 -0.044874154 0.1162913 -0.12134204
-0.010137388 0.16525275 -0.02272577 0.025277363 -0.11965286 0.13637781 -0.13172202 -0.04670246
0.020199684 0.03130485 0.0031511525 0.13947533 -0.028263023 -0.22930624 -0.00029172027 0.2328468
-0.029010063 0.23962753 -0.21251759 0.14992532 -0.07558032 -0.085538395 0.11896057 0.07783992
0.21119459 -0.0020235523 -0.121945426 0.043812085 0.13295165 0.07023112 0.118886076 -0.049701996
-0.006360372 0.057080053 0.00050014816 -0.09974392 0.0564985 0.17450896 0.11145811 -0.085305475
-0.18084022 0.1942295 0.0047373525 0.05427064 -0.16622415 -0.14573115 -0.015634716 -0.1388597
-0.029218987 -0.07304488 -0.026688494 0.014374708 -0.12937719 -0.00966436 0.09569795 0.02535777
0.01325609 -0.05295944 -0.11294227 0.043431424 -0.009361571 0.089700006 0.02102486 -0.015406142
-0.10182706 0.15742677 0.08614718 0.006207714 -0.14841855 0.03366318 0.102964655 -0.12242524
0.048278034 0.028884878 -0.041345567 -0.089565404 -0.15343696 0.03519477 -0.05200192 -0.007181314
0.19973585 -0.12559238 0.10721155 -0.2524952 0.01479438 0.006465508 -0.13569881 -0.033310056
-0.034541894 -0.05394982 0.116692066 -0.023692986 -0.1100699 0.06939 -0.08144747 -0.16247642
0.06799909 0.020339562 -0.04587082 0.072391495 -0.081570335 -0.046842966 0.09256469 0.02905913
0.00026741117 -0.020462602 -0.044852067 0.16904591 -0.10095652 0.07645786 0.11306172 0.17399321
-0.020803863 -0.040225826 0.009029341 -0.08957972 -0.0054779407 0.039991084 -0.0017349038 -0.028128494

l1.bias.rho f4 [800]
00000000: 4e68 3cc0 6e4c 38c0 db5b 4ac0 5345 3ac0
00000010: 9b8e 47c0 1c83 3ac0 30bc 34c0 6652 38c0
00000020: 726c 49c0 1564 42c0 8741 41c0 39d9 43c0
00000030: 561a 49c0 c98d 37c0 dd17 41c0 a57d 43c0
00000040: e25d 47c0 605a 3fc0 f7b0 55c0 15da 4dc0
00000050: 6104 36c0 91d8 37c0 6b66 37c0 9da8 46c0
00000060: 8845 3bc0 ff55 42c0 4dcd 3ac0 e4c3 43c0
00000070: 0631 44c0 0557 3ac0 3fc6 35c0 72e1 47c0
00000080: 89df 43c0 4008 3cc0 d85e 44c0 4548 48c0
00000090: 06b6 2dc0 4487 52c0 b8b9 35c0 7c80 39c0
000000a0: 9890 43c0 8d68 44c0 67fb 46c0 7871 4cc0
000000b0: ff86 45c0 a6b4 43c0 5c6f 42c0 fe6b 3fc0
000000c0: e55f 39c0 bf25 46c0 3528 43c0 4272 40c0
000000d0: f3f2 3fc0 5409 3dc0 cd3a 47c0 dcc5 41c0
000000e0: a735 39c0 d927 40c0 ffa3 4bc0 a075 45c0
000000f0: aa91 3fc0 0a07 48c0 b4f9 4dc0 e6df 35c0
00000100: aa18 44c0 9b16 42c0 30f5 39c0 73a4 43c0
00000110: d3e7 3cc0 c01b 40c0 1617 44c0 3818 3dc0
00000120: 6e70 48c0 498f 39c0 e59c 36c0 f7ba 41c0
00000130: 6f52 42c0 771f 49c0 a261 3fc0 026e 44c0
00000140: 416a 3cc0 8bda 3ac0 a853 46c0 9162 3fc0
00000150: b77c 37c0 fba4 38c0 9160 3cc0 8329 35c0
00000160: 13f0 43c0 9b45 3dc0 c34d 42c0 a51e 3dc0
00000170: f75a 3ec0 d247 36c0 619b 3fc0 7386 3bc0
00000180: 2d8f 41c0 c269 32c0 5b0a 44c0 22d9 48c0
00000190: 1b76 41c0 21ef 44c0 aab9 43c0 07ac 35c0
000001a0: 6394 46c0 eab3 36c0 e24a 39c0 bfcf 4bc0
000001b0: ebdf 44c0 da1b 42c0 53bf 42c0 1166 3bc0
000001c0: e970 45c0 11ba 45c0 00ce 3ec0 198f 34c0
000001d0: 3f4f 36c0 373e 41c0 21f5 42c0 a4e2 3bc0
000001e0: 9212 4bc0 8ccd 47c0 260c 49c0 826a 3dc0
000001f0: 2598 32c0 2040 3dc0 065f 3cc0 af27 34c0
00000200: 67f4 3ec0 257c 49c0 406f 41c0 dbf8 3cc0
00000210: 1fb3 41c0 b21a 49c0 414d 43c0 6a73 48c0
00000220: 237c 46c0 fac0 42c0 9a4d 40c0 d4d2 3dc0
00000230: f117 4bc0 33f6 40c0 ec43 38c0 d9b3 42c0
00000240: 0150 41c0 5cd8 3ec0 9fc6 3ac0 d19a 44c0
00000250: 0457 33c0 39fd 40c0 053c 3ec0 d4ab 3dc0
00000260: 8e74 43c0 b56e 40c0 d676 46c0 c7a0 3dc0
00000270: 720c 46c0 db5f 3fc0 1503 3cc0 bcfd 32c0
00000280: d394 3ec0 353e 3cc0 676f 36c0 570a 32c0
00000290: d643 49c0 a1ba 35c0 f7d1 3cc0 303a 4ac0
000002a0: fe99 38c0 6903 46c0 8e1a 42c0 72b8 3fc0
000002b0: 215e 3cc0 5299 42c0 bc7a 3cc0 7558 3bc0
000002c0: 2a9d 3bc0 4e11 4ec0 4cc9 37c0 7ee1 45c0
000002d0: 2f9d 37c0 0d9b 43c0 43da 3ac0 50ee 47c0
000002e0: 7956 47c0 e7d3 41c0 af46 32c0 ee4f 3bc0
000002f0: 9be9 3cc0 89e4 46c0 2b7a 3fc0 c73e 3dc0
00000300: a28e 40c0 b0c9 41c0 2d98 34c0 4769 40c0
00000310: 96c6 46c0 a768 40c0 63cf 42c0 9638 34c0
00000320: 4953 33c0 d481 4dc0 8842 42c0 f6e3 44c0
00000330: 6666 36c0 af4f 3ec0 4ff2 42c0 4a92 50c0
00000340: 372a 3cc0 4d2c 3bc0 b372 44c0 83a1 4cc0
00000350: f9f1 41c0 1030 42c0 ad74 45c0 5f27 49c0
00000360: eac1 44c0 e2d4 3cc0 a3d1 41c0 1342 3dc0
00000370: a72d 32c0 7864 3dc0 cd43 3dc0 10f2 3bc0
00000380: d6df 45c0 9d23 49c0 f204 3ec0 ae41 43c0
00000390: 40fb 3fc0 e743 38c0 957f 3fc0 f040 4ac0
000003a0: 181c 37c0 27e6 3dc0 e4dc 47c0 3999 48c0
000003b0: b92a 3dc0 9d2b 44c0 7482 3bc0 2f56 3ec0
000003c0: 7711 3ec0 1ef6 42c0 c335 44c0 3ba8 40c0
000003d0: 3dc0 3ec0 40c4 36c0 470a 34c0 b87b 45c0
000003e0: 4c6f 42c0 b017 3fc0 addc 3bc0 f910 43c0
000003f0: 66dc 44c0 d535 42c0 09d2 3cc0 02f2 31c0
-2.9438663 -2.879665 -3.1618564 -2.9104812 -3.118079 -2.9142523 -2.823986 -2.8800292
-3.147244 -3.0373585 -3.0196245 -3.0601332 -3.1422324 -2.8680289 -3.0170815 -3.0545437
-3.1151052 -2.989891 -3.338926 -3.2164357 -2.8440173 -2.8725932 -2.865626 -3.1040413
-2.9261189 -3.0364988 -2.9187806 -3.0588312 -3.0654922 -2.9115613 -2.840225 -3.123135
-3.0605185 -2.9380035 -3.0682888 -3.129411 -2.7142348 -3.289506 -2.8394604 -2.898467
-3.0557003 -3.0688813 -3.1090944 -3.1944256 -3.0863645 -3.057901 -3.0380468 -2.9909663
-2.896478 -3.0960538 -3.049329 -3.0069737 -2.9992034 -2.9536943 -3.112964 -3.0277014
-2.8938997 -3.002432 -3.1818845 -3.0853043 -2.9932656 -3.1254296 -3.2183657 -2.8417907
-3.0640054 -3.0326297 -2.90559 -3.0569122 -2.9516494 -3.0016937 -3.063909 -2.9546032
-3.1318622 -2.8993704 -2.853326 -3.0270364 -3.0362813 -3.1425455 -2.990334 -3.0692143
-2.9439852 -2.9195888 -3.098856 -2.990391 -2.866987 -2.8850696 -2.943394 -2.8306587
-3.061528 -2.9573734 -3.0359962 -2.9549954 -2.974302 -2.8481336 -2.9938586 -2.9300811
-3.0243638 -2.787705 -3.063132 -3.1382527 -3.0228336 -3.0770953 -3.058207 -2.8386247
-3.1028068 -2.854731 -2.8951955 -3.1845548 -3.0761669 -3.03295 -3.0429275 -2.9281046
-3.0850165 -3.0894816 -2.9813232 -2.821234 -2.8485868 -3.0194223 -3.0462115 -2.935708
-3.1730084 -3.1219206 -3.1413665 -2.9596257 -2.7905362 -2.9570389 -2.9432998 -2.814922
-2.9836671 -3.1482022 -3.0224152 -2.952689 -3.0265577 -3.1422544 -3.0515902 -3.1320443
-3.1013267 -3.0430284 -3.0047364 -2.965993 -3.1733363 -3.0150268 -2.8791456 -3.042227
-3.020508 -2.9819555 -2.9183729 -3.0719492 -2.802186 -3.0154555 -2.9724133 -2.9636126
-3.053989 -3.006757 -3.1010032 -2.962938 -3.0945096 -2.9902256 -2.937688 -2.7967367
-2.9778335 -2.9412968 -2.8505495 -2.781881 -3.1447654 -2.839516 -2.9503152 -3.1598015
-2.884399 -3.0939581 -3.0328708 -2.9956326 -2.9432452 -3.040608 -2.944991 -2.927274
-2.9314675 -3.2198062 -2.8716612 -3.091888 -2.8689687 -3.0563385 -2.9195716 -3.1239204
-3.1146529 -3.0285585 -2.7855642 -2.9267535 -2.9517581 -3.1076987 -2.9918315 -2.9569566
-3.0087056 -3.027935 -2.821788 -3.0064256 -3.1058707 -3.0063875 -3.0439079 -2.8159537
-2.8019583 -3.211049 -3.0353107 -3.0764136 -2.85 -2.9736135 -3.0460393 -3.2589288
-2.9400766 -2.924579 -3.0695007 -3.197358 -3.0303938 -3.0341835 -3.0852463 -3.143028
-3.0743356 -2.9504933 -3.0284202 -2.9571579 -2.7840364 -2.9592571 -2.9572632 -2.9366493
-3.0917869 -3.1427987 -2.9690518 -3.0508838 -2.99971 -2.8791444 -2.992162 -3.1602135
-2.8610897 -2.9671724 -3.122857 -3.134352 -2.9557326 -3.065162 -2.9298372 -2.9740102
-2.969816 -3.0462718 -3.0657814 -3.010268 -2.9804833 -2.8557281 -2.8131273 -3.0856762
-3.038043 -2.9858208 -2.935344 -3.047911 -3.075952 -3.0345356 -2.9503195 -2.780396
