checkpoints_16_tasks/16_task_groups_PUGCL_epochs_:50_lr_:0.005_hidden_:400_task_order_:[15 10  7  5  3 14 13  6  8  0  2 11  9  4  1 12]/model_9.pth.tar (torch_old, 220285 bytes, 136 tensors)

l1.weight_mu f4 [400, 29]
0	0x3d8146a7	0.06312304
1	0x3e132ad1	0.14371802
2	0x3cc8c13a	0.0245062
3	0x3b6f6d6d	0.0036533729
4	0xbc428583	-0.011872652
5	0x3e45fdaa	0.19335046
6	0xbc35edfa	-0.011104101
7	0x39594225	0.00020719373
8	0x3e205b47	0.1565982
9	0xbddffbbf	-0.10936689
10	0xbe1a9f96	-0.1509994
11	0x3e48a35e	0.1959357
12	0x3b61b48c	0.003443989
13	0x3e0440b3	0.12915306
14	0x3da56241	0.08075381
15	0xbd2f7b90	-0.042842448
16	0x3da11dd5	0.07867018
17	0x3d98d037	0.07461589
18	0x3d5d74b7	0.054066386
19	0x3c20924f	0.009800508
20	0xbc5a9c09	-0.013342866
21	0x3e2b2129	0.16711868
22	0x3e2cfc67	0.16893159
23	0xbdd5cb6b	-0.104391895
24	0xbc863653	-0.016383326
25	0x3c11ce1b	0.008899237
26	0xbd61b63e	-0.05510544
27	0xbe69f799	-0.22848357
28	0x3d896277	0.06708234
29	0xbd5f23be	-0.054477446
30	0x3da1aded	0.07894502
31	0xbd7ddef3	-0.0619802
32	0xbdb52dab	-0.08846601
33	0xbc9ed1cb	-0.019387146
34	0x3d3c632b	0.04599301
35	0xbcafb26b	-0.021447381
36	0x3e000a21	0.12503864
37	0xbe1c3b22	-0.15256932
38	0x3dd1303b	0.10214277
39	0xbe42e2da	-0.1903185
40	0xbc9d8b92	-0.019231591
41	0xbd056199	-0.03256378
42	0x3d97f532	0.07419814
43	0xbcb73b14	-0.022367038
44	0x3db4a805	0.0882111
45	0xbcfcc61a	-0.030856181
46	0xbd96cd76	-0.07363407
47	0x3d4cf417	0.05003747
48	0xbdb1a257	-0.08673542
49	0x3d969400	0.073524475
50	0x3dff3633	0.124615096
51	0xbd9e5b68	-0.07732278
52	0x3d5ee158	0.054414123
53	0x3c5454e6	0.0129596945
54	0xbc113b06	-0.00886417
55	0xbd8f2487	-0.06989389
56	0x3da9f817	0.082992725
57	0xbdbf4b88	-0.09340578
58	0xbdf804a6	-0.121102616
59	0x3e4e032d	0.20118399
60	0xbe1ec973	-0.15506534
61	0xbd9ca655	-0.07648913
62	0xbd891376	-0.06693165
63	0xbd84a61f	-0.064769976
64	0xbe623651	-0.22091033
65	0xbd184ef0	-0.037184656
66	0xbccea7f7	-0.025226576
67	0xbcd64288	-0.026154771
68	0xbd85be32	-0.065304175
69	0x3e62cb46	0.22147855
70	0x3d30e072	0.043182798
71	0x3e08152a	0.13289323
72	0xbd97cc75	-0.07412044
73	0x3d62d919	0.05538282
74	0x3e081ab3	0.13291435
75	0xbca34908	-0.019932285
76	0x3dc7af0b	0.09750184
77	0x3cb5a79b	0.022174647
78	0x3d1c3042	0.03813196
79	0x3e2b6619	0.16738166
80	0x3e06c286	0.13160142
81	0xbe1c1bfa	-0.15245047
82	0xbda639eb	-0.08116516
83	0xbde22a66	-0.11043243
84	0xbb705ea5	-0.0036677506
85	0x3a110458	0.00055319583
86	0xbcc4da55	-0.02402989
87	0xbb183f18	-0.0023230966
88	0x3d6bbdc2	0.057554014
89	0xbdc072ca	-0.09396894
90	0xbe286811	-0.16445948
91	0x3e0f90f0	0.14020133
92	0xba8f26a3	-0.0010921549
93	0x3c7d3191	0.015453712
94	0xbcd7d892	-0.026348386
95	0x3c8c2150	0.017105728
96	0xbe54b4be	-0.20772073
97	0x3cc789f5	0.024357775
98	0xbd8250b4	-0.06363049
99	0xbd353a33	-0.044244956
100	0xbe0d1748	-0.13778412
101	0x3d392928	0.045205265
102	0xbc52c47f	-0.012864231
103	0xbd1063f4	-0.035251573
104	0x3d0b3487	0.03398564
105	0x3d443833	0.04790516
106	0xbc6e4895	-0.014543672
107	0x3e3914d5	0.18074353
108	0xbd444ee9	-0.047926817
109	0x3d846877	0.064652376
110	0xbce02779	-0.027362572
111	0x3cc24361	0.02371377
112	0xbe1418ff	-0.1446266
113	0xbd9d3842	-0.07676746
114	0x3d5a8ee8	0.053358942
115	0x3e3720e2	0.17883638
116	0xbd532beb	-0.051555555
117	0xbdb92512	-0.09040274
118	0xbd908416	-0.070564434
119	0x3d2ca0be	0.042145483
120	0xbd7b33d2	-0.061328717
121	0xbdd48352	-0.1037661
122	0xbc72165b	-0.014775838
123	0x3ce77121	0.028252186
124	0xbe0ef728	-0.1396147
125	0xbc802075	-0.015640477
126	0x3d111231	0.03541774
127	0x3e325204	0.17414099
128	0x3d0fcc7a	0.035107113
129	0xbdfc93fb	-0.123329125
130	0x3ba24469	0.004952003
131	0x3d6f9641	0.058492903
132	0x3e3bb1e0	0.18329573
133	0x3d62fcf4	0.055417016
134	0x3d25cd4a	0.040478982
135	0xbd9d0876	-0.076676294
136	0x3e5b2a8c	0.21402949
137	0x3c18f308	0.009335287
138	0x3e1a6210	0.1507647
139	0x3de39a57	0.11113422
140	0x3db33473	0.08750238
141	0xbcbe484b	-0.023227831
142	0x3da8e492	0.08246721
143	0x3c536eb3	0.012904811
144	0x3db0ef79	0.08639426
145	0x3c71fed4	0.014770228
146	0xbd77dfe0	-0.06051624
147	0xbe3a1c6c	-0.18174905
148	0xbda421b7	-0.08014243
149	0x3c836497	0.016039176
150	0xbda22768	-0.079176724
151	0xbe0eeda5	-0.13957842
152	0xbd4dbaa9	-0.05022684
153	0x3b6e52e3	0.0036365322
154	0xbd2d5dad	-0.042325664
155	0x3d383c57	0.04497942
156	0xbc02417d	-0.007950184
157	0xbc224bdb	-0.009905781
158	0xbbf57e9a	-0.0074918987
159	0x3e39f418	0.1815952
160	0xbaf70d81	-0.0018848629
161	0xbe24c5e1	-0.1609111
162	0x3d16727f	0.036730286
163	0xbc87e45f	-0.016588388
164	0xbc3993a9	-0.011326709
165	0xbc0b9175	-0.008518566
166	0x3d9a9335	0.07547609
167	0x3b81e70d	0.003964311
168	0xbd657738	-0.0560219
169	0x3d9bbc92	0.07604326
170	0xbc71799e	-0.014738468
171	0xbd8eb51c	-0.069681376
172	0xbbe81b9e	-0.0070833704
173	0x3e0daeb7	0.1383618
174	0x3d442825	0.047889847
175	0xba07b599	-0.00051769015
176	0x3dfd2131	0.123598464
177	0xbcb87af6	-0.02251957
178	0xbd11256b	-0.035436075
179	0xbd0169bf	-0.031594988
180	0x3d08a0d5	0.033356506
181	0xbdcd245a	-0.10016699
182	0xbd93ec8c	-0.07222852
183	0xbe06f8cd	-0.13180847
184	0x3c361611	0.0111136595
185	0xbe2ca5c2	-0.16860107
186	0x3e414518	0.18874013
187	0x3d878ef3	0.06619062
188	0xbe01424e	-0.1262295
189	0xbd784f21	-0.06062234
190	0x3da3fa77	0.08006757
191	0xbe3fd561	-0.18733741
192	0xbc389a14	-0.011267204
193	0xbe10c479	-0.14137448
194	0x3d1deafb	0.038554173
195	0xbd1b5114	-0.03791912
196	0xbc4145cf	-0.011796429
197	0x3a9b3899	0.0011842429
198	0x3d8d72f6	0.06906693
199	0x3dffe836	0.124954626
200	0x3dc71239	0.097202726
201	0x3e1871f9	0.14887227
202	0xbca9073a	-0.020633329
203	0xbe1bef17	-0.15227924
204	0x3e672e54	0.22576267
205	0xbd32a6da	-0.043616153
206	0x3d0c73ea	0.03429023
207	0x3c2cbbbe	0.010542808
208	0xbcad621a	-0.021164943
209	0x3d54cfc0	0.05195594
210	0x3dd4e426	0.10395078
211	0xbd60c8a6	-0.054878853
212	0x3b706fa3	0.0036687634
213	0x3db4bd66	0.088251874
214	0xbd1031fb	-0.035203915
215	0xbd700b38	-0.05860445
216	0xbd9bd078	-0.07608122
217	0xbc048f12	-0.008090751
218	0x3e004275	0.12525351
219	0x3d832a83	0.06404593
220	0xbdaf41b0	-0.08557451
221	0x3dbc07a1	0.091811426
222	0x3dc325d7	0.09528702
223	0x3cadbf4c	0.021209382
224	0x3ce3270d	0.027728582
225	0xbd25f6c1	-0.040518526
226	0xbe16004b	-0.1464855
227	0xbd162e93	-0.03666551
228	0x3d9a6d40	0.07540369
229	0x3ddfe925	0.10933141
230	0x3e0aa06f	0.13537763
231	0xbd7f8fdb	-0.06239305
232	0xbda47825	-0.08030728
233	0x3dec98bc	0.11552569
234	0xbe87a6fb	-0.26494583
235	0x3cd8dd4e	0.026472714
236	0xbbc1f8ee	-0.0059195673
237	0xbd1b7e33	-0.03796215
238	0xbc0e2285	-0.008675222
239	0x3d23b905	0.03997137
240	0x3e093a0e	0.13401052
241	0xbdbd9acc	-0.09258041
242	0xbc26cc03	-0.010180476
243	0xbe484d0b	-0.1956064
244	0x3d57cb40	0.05268407
245	0x3d8c3423	0.06845882
246	0x3d770a08	0.0603123
247	0xbd6f4662	-0.05841673
248	0xbdad2844	-0.08454946
249	0x3cff1462	0.031137649
250	0xbd0e9885	-0.034813423
251	0x3c89b695	0.016810695
252	0x3e0fa33e	0.14027116
253	0xbe757fb4	-0.23974496
254	0x3e1a0279	0.15040006
255	0xbaa9a267	-0.0012942076

l1.weight_rho f4 [400, 29]
0	0xc04966f4	-3.1469088
1	0xc039900b	-2.8994167
2	0xc0471e35	-3.1112187
3	0xc047f179	-3.1241133
4	0xc03ab989	-2.9175742
5	0xc03c05b7	-2.9378488
6	0xc03f1143	-2.9854286
7	0xc04722c7	-3.1114976
8	0xc03b9fb6	-2.931623
9	0xc03e8c91	-2.9773295
10	0xc039ef04	-2.9052134
11	0xc040a371	-3.0099757
12	0xc03e0628	-2.9691257
13	0xc032324a	-2.7843194
14	0xc0495b43	-3.1461952
15	0xc039ca25	-2.902963
16	0xc033be97	-2.8085077
17	0xc03d621f	-2.9591138
18	0xc04033d5	-3.0031636
19	0xc03cb5d4	-2.948598
20	0xc03c429d	-2.9415658
21	0xc0363634	-2.8470583
22	0xc03f4ed0	-2.9891853
23	0xc04323fb	-3.049071
24	0xc03452eb	-2.817561
25	0xc03b9d8a	-2.9314904
26	0xc03bd9d9	-2.9351714
27	0xc0401a6c	-3.0016127
28	0xc0457302	-3.0851445
29	0xc044b0c1	-3.0732882
30	0xc04541f4	-3.0821505
31	0xc03db2be	-2.9640346
32	0xc039a38c	-2.900607
33	0xc03cfa15	-2.9527638
34	0xc0415a01	-3.0211184
35	0xc0474280	-3.1134338
36	0xc040306e	-3.002956
37	0xc0475c3b	-3.1150043
38	0xc03b1323	-2.923043
39	0xc0331868	-2.7983646
40	0xc041a6d4	-3.0258074
41	0xc03b4e7f	-2.926666
42	0xc0393c97	-2.894323
43	0xc038f97c	-2.8902273
44	0xc03a7b0c	-2.9137602
45	0xc03c1408	-2.9387226
46	0xc0431214	-3.0479784
47	0xc041caa0	-3.0279922
48	0xc0478d56	-3.1180015
49	0xc031993b	-2.7749774
50	0xc046b3c6	-3.1047225
51	0xc0452ac8	-3.0807362
52	0xc0382d50	-2.8777657
53	0xc044eb9d	-3.0768807
54	0xc04bd9aa	-3.1851602
55	0xc03f6200	-2.9903564
56	0xc048f647	-3.1400316
57	0xc03c558a	-2.942721
58	0xc0377b5c	-2.8669043
59	0xc04bace8	-3.1824284
60	0xc03a3a83	-2.9098213
61	0xc040900a	-3.0087914
62	0xc04a4db4	-3.1609926
63	0xc04aa989	-3.1665976
64	0xc04da106	-3.212953
65	0xc03fd979	-2.9976485
66	0xc04219d1	-3.0328257
67	0xc031d931	-2.7788813
68	0xc0408e41	-3.0086825
69	0xc032a364	-2.7912226
70	0xc0371a0c	-2.8609648
71	0xc046764f	-3.100971
72	0xc038d80d	-2.8881867
73	0xc03b3c11	-2.9255412
74	0xc03e008b	-2.9687831
75	0xc040db6b	-3.0133922
76	0xc0412f8f	-3.0185277
77	0xc04628d6	-3.0962424
78	0xc03bcdef	-2.9344442
79	0xc03b574b	-2.927203
80	0xc037d38a	-2.8722863
81	0xc0428386	-3.0392776
82	0xc0384658	-2.8792934
83	0xc03e07d2	-2.9692273
84	0xc0387d7f	-2.8826597
85	0xc041db64	-3.0290155
86	0xc035e67e	-2.8421931
87	0xc0340022	-2.812508
88	0xc04a80d6	-3.1641135
89	0xc04474de	-3.069633
90	0xc0445e01	-3.0682375
91	0xc040b024	-3.0107508
92	0xc03b4f3d	-2.9267113
93	0xc0421484	-3.0325022
94	0xc03ea5fd	-2.9788811
95	0xc04572e2	-3.085137
96	0xc03e0a37	-2.9693735
97	0xc03ef884	-2.9839182
98	0xc03f611d	-2.9903023
99	0xc047c73f	-3.121536
100	0xc03ff407	-2.9992692
101	0xc03f851a	-2.9924989
102	0xc0460d18	-3.0945492
103	0xc049d5fe	-3.153686
104	0xc045dfb7	-3.0917795
105	0xc0479fb1	-3.1191218
106	0xc0365aa3	-2.849282
107	0xc04142ae	-3.0196948
108	0xc048efa9	-3.1396277
109	0xc040cf82	-3.0126653
110	0xc0394042	-2.894547
111	0xc04ae37c	-3.1701345
112	0xc0360426	-2.8440032
113	0xc044fdb1	-3.077984
114	0xc0458204	-3.0860605
115	0xc0451db4	-3.079938
116	0xc0480be9	-3.125727
117	0xc040b553	-3.0110672
118	0xc03f3839	-2.9878066
119	0xc0361d72	-2.8455472
120	0xc0460c1d	-3.0944893
121	0xc0431d16	-3.0486503
122	0xc0498567	-3.1487672
123	0xc046ede9	-3.108271
124	0xc045b317	-3.0890558
125	0xc0483681	-3.1283267
126	0xc03a8a4f	-2.9146917
127	0xc046c3a2	-3.1056905
128	0xc03f249f	-2.9866102
129	0xc03a2f55	-2.909139
130	0xc044e4ce	-3.0764651
131	0xc03ed1fc	-2.9815664
132	0xc04f1cc5	-3.236131
133	0xc041e8e0	-3.0298386
134	0xc047116c	-3.1104383
135	0xc04494b8	-3.071577
136	0xc04243d0	-3.035389
137	0xc03959af	-2.8960989
138	0xc03f51cc	-2.9893675
139	0xc041bb1e	-3.0270457
140	0xc046c595	-3.1058095
141	0xc04e406b	-3.2226818
142	0xc02f1f91	-2.7363017
143	0xc0443259	-3.065573
144	0xc03ea5a8	-2.9788609
145	0xc03c0081	-2.9375308
146	0xc03dcb24	-2.9655237
147	0xc03e800c	-2.9765654
148	0xc036f72b	-2.858836
149	0xc0414771	-3.0199854
150	0xc03f7570	-2.9915428
151	0xc0443de2	-3.066277
152	0xc03efbf6	-2.9841285
153	0xc03a4ff8	-2.911131
154	0xc0384cb7	-2.8796823
155	0xc04b9e04	-3.1815195
156	0xc0487dbc	-3.1326742
157	0xc03a5d81	-2.911957
158	0xc04abcdc	-3.167777
159	0xc0358f0c	-2.836856
160	0xc0453c6c	-3.0818129
161	0xc03b0720	-2.9223099
162	0xc046435a	-3.0978608
163	0xc0485a79	-3.130522
164	0xc03bdb33	-2.9352539
165	0xc03928cc	-2.893115
166	0xc03b10de	-2.9229045
167	0xc03cef82	-2.9521184
168	0xc03aca22	-2.9185872
169	0xc03e4596	-2.9729972
170	0xc041fac6	-3.030931
171	0xc044967f	-3.0716856
172	0xc03dbfc0	-2.9648285
173	0xc03f81a1	-2.992287
174	0xc03be947	-2.936113
175	0xc03a1bda	-2.90795
176	0xc03cb1ec	-2.9483595
177	0xc03e9e6b	-2.978419
178	0xc04441b0	-3.0665092
179	0xc03c385f	-2.9409406
180	0xc03f47a4	-2.9887476
181	0xc0410188	-3.0157185
182	0xc03b08e9	-2.9224188
183	0xc03f2212	-2.9864545
184	0xc049e70c	-3.154727
185	0xc042488b	-3.0356777
186	0xc0435794	-3.0522203
187	0xc0388584	-2.8831491
188	0xc0386b5a	-2.8815522
189	0xc03fd550	-2.9973946
190	0xc040652b	-3.0061748
191	0xc037ffbf	-2.8749845
192	0xc036b143	-2.8545692
193	0xc04623b2	-3.0959287
194	0xc03a43f2	-2.910397
195	0xc03eccdb	-2.9812534
196	0xc0381263	-2.8761222
197	0xc04c722f	-3.1944692
198	0xc0444b86	-3.0671096
199	0xc03f49fd	-2.988891
200	0xc03dc349	-2.9650443
201	0xc043d952	-3.0601392
202	0xc03cff1c	-2.9530706
203	0xc03af2d6	-2.9210715
204	0xc03f932d	-2.993358
205	0xc03f3650	-2.98769
206	0xc035188c	-2.8296232
207	0xc03f06de	-2.9847941
208	0xc0313e64	-2.769433
209	0xc03f2e69	-2.9872077
210	0xc048b337	-3.1359384
211	0xc03ececd	-2.981372
212	0xc0451f73	-3.0800445
213	0xc0467056	-3.1006064
214	0xc046dc69	-3.1072028
215	0xc03859ba	-2.8804765
216	0xc0421271	-3.0323756
217	0xc0417964	-3.023034
218	0xc0443d81	-3.066254
219	0xc0413678	-3.0189495
220	0xc037ff7e	-2.874969
221	0xc03cf15e	-2.952232
222	0xc038600b	-2.880862
223	0xc04199a0	-3.0250015
224	0xc040bfe8	-3.011713
225	0xc03eb713	-2.979924
226	0xc04bee7c	-3.186431
227	0xc0383f0f	-2.8788488
228	0xc03fed88	-2.9988728
229	0xc03cfad0	-2.9528084
230	0xc0485a60	-3.130516
231	0xc04057a2	-3.0053487
232	0xc0368393	-2.8517807
233	0xc047c184	-3.1211863
234	0xc047ed9f	-3.1238782
235	0xc033cd69	-2.8094122
236	0xc03d2a47	-2.9557054
237	0xc040cac6	-3.0123763
238	0xc044857a	-3.0706468
239	0xc0411c8e	-3.0173678
240	0xc04360a4	-3.0527735
241	0xc045d5eb	-3.0911815
242	0xc03bfe57	-2.9373987
243	0xc03b26cc	-2.924243
244	0xc033a658	-2.8070278
245	0xc03f6f8e	-2.9911838
246	0xc03c0024	-2.9375086
247	0xc0386cf5	-2.8816502
248	0xc03a1776	-2.907682
249	0xc04061a6	-3.00596
250	0xc0418883	-3.023957
251	0xc03c2066	-2.9394774
252	0xc03f8076	-2.9922156
253	0xc03f034d	-2.9845765
254	0xc0445c00	-3.0681152
255	0xc03c3af0	-2.9410973

l1.bias_mu f4 [400]
0	0x3dd0fc75	0.10204402
1	0xbcde2e60	-0.027121723
2	0xbe29ad8d	-0.1657011
3	0x3cffcded	0.031226123
4	0x3e056596	0.13027033
5	0xbd1b8dd6	-0.037977062
6	0xbc83ba4a	-0.01608004
7	0xbd3903cc	-0.045169637
8	0x3d45ea22	0.04831899
9	0x3d579f4d	0.052642155
10	0x3d87018d	0.06592093
11	0xbdc160be	-0.0944228
12	0x3c1edfd3	0.009696919
13	0x3e179aeb	0.1480519
14	0x3e082b27	0.13297711
15	0x3e089268	0.133371
16	0xbe050058	-0.12988412
17	0xbde7aaaf	-0.11311852
18	0xbd91d7d0	-0.07121241
19	0xbdec4af1	-0.115377314
20	0x3dd26297	0.10272711
21	0x3d583fa4	0.052795067
22	0xbdec6623	-0.115429185
23	0xbd6f09e5	-0.058359046
24	0x3e34eabf	0.17667674
25	0xbe2e36ad	-0.17013045
26	0x3d5d585d	0.054039348
27	0xbdaa0afb	-0.083028756
28	0x3d8a869e	0.067639574
29	0x3d69f362	0.057116874
30	0x3db1a686	0.0867434
31	0x3e9d01cf	0.30665442
32	0xbd875e5e	-0.06609796
33	0xbda33cae	-0.07970558
34	0x3d520f9d	0.05128442
35	0xbe822dcc	-0.25425565
36	0xbd78634f	-0.060641583
37	0xbe87de57	-0.2653682
38	0xbe3545d7	-0.17702423
39	0xbdf9161a	-0.12162419
40	0x3e014a26	0.12625942
41	0x3e4ea40d	0.20179768
42	0xbdf6b6b1	-0.12046564
43	0xbd6615fb	-0.056173306
44	0x3e3b006d	0.18261881
45	0x3d124d0a	0.035718
46	0x3e884d34	0.266214
47	0xbda8b9c0	-0.08238554
48	0x3d87d6cb	0.066327654
49	0x3da03b56	0.078238174
50	0x3e420649	0.1894771
51	0x3c399438	0.011326842
52	0xbde60716	-0.1123182
53	0x3d73f02c	0.059555218
54	0x3d3deeeb	0.046370428
55	0x3d2ac4a8	0.041691452
56	0x3e0abacc	0.1354782
57	0x3ca2d772	0.019878123
58	0xbe1b1aa0	-0.15146875
59	0x3c362ab9	0.011118584
60	0x3d9329e7	0.071857266
61	0x3c613c2d	0.013747257
62	0x3db09e8e	0.08623992
63	0xbc8d9fd3	-0.017288124
64	0x3d8a9d38	0.06768268
65	0x3d45a9a9	0.048257504
66	0x3d2e6e57	0.042585697
67	0xbddbab9e	-0.10726093
68	0x3cb51b32	0.022107694
69	0xbcb27c67	-0.021787835
70	0xbd0b1012	-0.033950873
71	0x3e00bcf8	0.12572086
72	0x3ddc3f5f	0.107542746
73	0xbd80bb82	-0.06285764
74	0xbe495513	-0.1966136
75	0x3dd0e91c	0.10200712
76	0xbdce7f79	-0.10082907
77	0xbd3d861f	-0.046270486
78	0x3e191c05	0.14952095
79	0xbe3e1bd1	-0.18565299
80	0xbe183968	-0.14865649
81	0xbc5632b3	-0.013073611
82	0xbe8c5b15	-0.2741324
83	0xbbc78b40	-0.006089598
84	0xbe02e5ab	-0.12782924
85	0xbdcf752a	-0.10129769
86	0x3da8d5cd	0.08243904
87	0x3dae818b	0.08520802
88	0x3e74651b	0.23866694
89	0x3de76364	0.11298254
90	0xbbc08978	-0.0058757626
91	0xbd9e7f96	-0.07739179
92	0x3e0c6220	0.13709307
93	0xbd539aae	-0.051661186
94	0x3d3e5c0d	0.046474505
95	0xbdabd88b	-0.08390912
96	0x3e79bd52	0.24388626
97	0xbc1b0fda	-0.0094642285
98	0xbd17c455	-0.03705247
99	0x3d6dbc3b	0.05804084
100	0xbe15e502	-0.14638141
101	0x3dd06312	0.10175146
102	0xbd8d0477	-0.06885617
103	0x3d8b0fa8	0.067900956
104	0xbd1ed603	-0.038778316
105	0x3e5066fd	0.20351787
106	0xbd8fc5e5	-0.07020167
107	0x3d46b1d9	0.048509452
108	0xbbc17321	-0.005903617
109	0xbcf1711b	-0.029472878
110	0xbe297877	-0.1654986
111	0xbd162c5e	-0.036663406
112	0x3d335d50	0.04379016
113	0xbe093cd2	-0.13402107
114	0xbd7138da	-0.05889211
115	0xbd1a1e63	-0.037626635
116	0xbc4cdc65	-0.012503718
117	0xbdfe5345	-0.12418226
118	0x3e3f692b	0.18692462
119	0xbdac8625	-0.084240235
120	0x3dcdfb64	0.100577146
121	0x3e0864b0	0.13319659
122	0x3dcf9e67	0.10137635
123	0xbd3c6f8c	-0.046004817
124	0xbd9897ec	-0.07450852
125	0xbd9199c0	-0.071094036
126	0x3c8cc799	0.01718502
127	0xbe5e08ea	-0.21683088
128	0xbe087154	-0.13324481
129	0xbbdb9601	-0.0067012315
130	0x3d3f2d7b	0.046674233
131	0xbcef8c7f	-0.029241798
132	0x3d9dc7d5	0.077041306
133	0xbd704b37	-0.05866548
134	0xbba91ada	-0.0051606717
135	0xbccf8162	-0.02533025
136	0xbd86d763	-0.065840505
137	0xbd980dd7	-0.07424515
138	0x3d561664	0.052267447
139	0xbbde5efc	-0.0067862254
140	0x3d89416f	0.067019336
141	0x3dfd790e	0.12376605
142	0xbde4db07	-0.11174589
143	0x3d9a8d97	0.07546537
144	0x3dee91b3	0.11648884
145	0xbd057c77	-0.032589402
146	0xbd2db232	-0.04240627
147	0x3dd3e35f	0.10346102
148	0xbd8dfb57	-0.06932705
149	0xbcce1d65	-0.0251605
150	0x3de61839	0.11235089
151	0xbe0fa39b	-0.14027254
152	0x3d82ba32	0.0638317
153	0xbe2ab789	-0.16671576
154	0xbdd28237	-0.10278743
155	0xbd8fbcf5	-0.070184626
156	0x3db06a3b	0.08614012
157	0x3dcdbbca	0.100455835
158	0xbc705814	-0.014669437
159	0x3db2fa30	0.08739126
160	0xbcb7d74a	-0.022441525
161	0x3db29fbc	0.08721873
162	0x3e232751	0.15932967
163	0x3e541132	0.20709684
164	0xbd12bb88	-0.035823375
165	0x3e4ccb3c	0.19999403
166	0xbc831870	-0.016002864
167	0x3e9b33ba	0.30312902
168	0x3e3771d5	0.17914517
169	0xbd4154e0	-0.047200084
170	0x3e034f39	0.1282319
171	0x3e653a06	0.22385415
172	0x3eb3e5b4	0.35136187
173	0x3dea6d26	0.114466
174	0xbdb7f9c2	-0.089831844
175	0xbe775d6f	-0.24156736
176	0xbda892a2	-0.08231093
177	0x3da336d8	0.07969445
178	0x3da6ed39	0.081507154
179	0x3e114ce7	0.14189492
180	0x3e948c5b	0.29013333
181	0x3ddcd6a1	0.10783125
182	0x3ced6925	0.0289808
183	0x3ce12a54	0.027486004
184	0xbd33b1dc	-0.04387079
185	0xba4b77c7	-0.00077616837
186	0x3d1fd14a	0.039017953
187	0xbe949bc1	-0.2902508
188	0x3eabac18	0.33529735
189	0x3db1419e	0.086550936
190	0xbd9a2a86	-0.07527642
191	0xbc1572bd	-0.009121594
192	0xbe0d7405	-0.13813789
193	0x3e8abe1c	0.27098167
194	0x3d979d0b	0.074030004
195	0x3c4bd35a	0.012440527
196	0x3de6a935	0.112627424
197	0xbe187ee9	-0.14892162
198	0xbcc4a37f	-0.024003742
199	0xbe183dc0	-0.14867306
200	0xbdd539f4	-0.10411444
201	0x3e66eb09	0.22550596
202	0x3e19f160	0.15033484
203	0x3e93600c	0.28784215
204	0x3edace9b	0.42735752
205	0xbc05d021	-0.008167298
206	0x3df4516c	0.119295925
207	0x3e152de0	0.14568281
208	0x3d83d16b	0.06436428
209	0x3e52ba83	0.20578961
210	0xbd7b212a	-0.061310925
211	0x3d44e1e1	0.048066977
212	0xbc75754b	-0.014981578
213	0x3d102709	0.035193477
214	0xbd9e47a1	-0.07728506
215	0xba543b74	-0.00080960174
216	0xbd886ace	-0.066609964
217	0xbd059b1f	-0.032618638
218	0x3e242cf9	0.1603278
219	0xbd57c6de	-0.05267989
220	0xbe14aa50	-0.14518094
221	0xbbb64710	-0.0055626705
222	0xbd39e92d	-0.04538839
223	0x3d998a48	0.07497078
224	0xbd541695	-0.05177935
225	0x3e6d1f5e	0.23156497
226	0x3e68f7a6	0.2275072
227	0xbd32cfa2	-0.043655045
228	0x3e48631e	0.1956906
229	0xbcbf493c	-0.02335035
230	0xbd2c5747	-0.04207542
231	0x3d8ed5a0	0.069743395
232	0xbdf7d99a	-0.12102051
233	0x3e688a5d	0.22709031
234	0x3d747717	0.059683885
235	0x3df91336	0.12161867
236	0xbe278a40	-0.16361332
237	0xbcb75466	-0.022379111
238	0xbd0356ac	-0.03206508
239	0x3e6deb48	0.23234284
240	0xbce102d9	-0.027467178
241	0x3e9c8660	0.3057127
242	0xbcc60ff9	-0.024177538
243	0xbcb5c316	-0.02218775
244	0xbdd29a1f	-0.102833025
245	0xbd5b73b1	-0.05357713
246	0x3ea4bb67	0.32174227
247	0x3deccab4	0.115621
248	0xba8f2631	-0.0010921416
249	0xbd913654	-0.070904404
250	0x3d4167c2	0.04721809
251	0xbb8314d7	-0.004000287
252	0x3dd9337d	0.10605524
253	0x3bb4548b	0.0055032424
254	0x3cfa8f24	0.030585833
255	0x3da2255f	0.07917284

l1.bias_rho f4 [400]
0	0xc0443465	-3.065698
1	0xc03d2b7f	-2.9557798
2	0xc047b80f	-3.120609
3	0xc03801b6	-2.8751044
4	0xc041741c	-3.0227118
5	0xc045d7a2	-3.0912862
6	0xc03f37ae	-2.9877734
7	0xc0432244	-3.0489664
8	0xc041d1f7	-3.0284402
9	0xc041c5b9	-3.027693
10	0xc03d4c82	-2.9577947
11	0xc039f1b8	-2.9053783
12	0xc04868f0	-3.1314049
13	0xc03d31ab	-2.9561565
14	0xc041ed56	-3.0301108
15	0xc042b938	-3.0425549
16	0xc03f9a07	-2.993776
17	0xc0461fa7	-3.095682
18	0xc041033e	-3.015823
19	0xc03ed264	-2.9815912
20	0xc04959c0	-3.146103
21	0xc051ccf1	-3.2781336
22	0xc048d591	-3.138035
23	0xc0476224	-3.115365
24	0xc03e48d6	-2.9731956
25	0xc03d7729	-2.960398
26	0xc0466ce0	-3.1003952
27	0xc043c6d0	-3.0590096
28	0xc04e2a4c	-3.2213316
29	0xc0353ad1	-2.8317149
30	0xc04584b9	-3.0862257
31	0xc0467a42	-3.101212
32	0xc03a862d	-2.9144394
33	0xc041aa4b	-3.0260189
34	0xc033d82e	-2.8100696
35	0xc0385c44	-2.8806314
36	0xc046ed0c	-3.1082182
37	0xc0455773	-3.0834625
38	0xc0511033	-3.2666137
39	0xc03c8ec0	-2.9462128
40	0xc03b651c	-2.9280462
41	0xc0410388	-3.0158405
42	0xc03d8119	-2.9610045
43	0xc03d8849	-2.9614432
44	0xc03cad20	-2.9480667
45	0xc0448324	-3.0705042
46	0xc03eeab9	-2.9830763
47	0xc043502c	-3.0517683
48	0xc0389af6	-2.884458
49	0xc0425cc6	-3.0369124
50	0xc040a8d9	-3.0103056
51	0xc032edee	-2.795772
52	0xc042911e	-3.0401073
53	0xc03c4351	-2.9416087
54	0xc03df86a	-2.968287
55	0xc048a417	-3.1350152
56	0xc046521b	-3.0987613
57	0xc038b1c0	-2.885849
58	0xc03d795a	-2.9605317
59	0xc03e2b9b	-2.9714115
60	0xc0384450	-2.8791695
61	0xc04542fb	-3.0822132
62	0xc03aa399	-2.9162352
63	0xc04b9b00	-3.1813354
64	0xc03e85f1	-2.9769251
65	0xc0435377	-3.0519693
66	0xc0401295	-3.0011342
67	0xc044664d	-3.068744
68	0xc050c924	-3.2622766
69	0xc045b2ca	-3.0890374
70	0xc03715aa	-2.8606973
71	0xc03da94b	-2.9634578
72	0xc04095f3	-3.0091522
73	0xc03ac5ee	-2.9183307
74	0xc043d2a2	-3.059731
75	0xc03ce5e4	-2.9515314
76	0xc04a55a7	-3.1614778
77	0xc03c1e6c	-2.9393568
78	0xc04e6405	-3.2248547
79	0xc044126f	-3.063625
80	0xc03b4d0e	-2.926578
81	0xc04a238a	-3.1584191
82	0xc03b9d4a	-2.9314752
83	0xc032e716	-2.7953544
84	0xc041a0a7	-3.0254304
85	0xc0331c02	-2.7985845
86	0xc043bc03	-3.0583503
87	0xc0463044	-3.096696
88	0xc04559d7	-3.0836084
89	0xc03e7b09	-2.9762595
90	0xc03ceb1a	-2.9518495
91	0xc03b324a	-2.9249444
92	0xc044f8c7	-3.0776842
93	0xc03f1911	-2.985905
94	0xc040003c	-3.0000143
95	0xc03f3dcf	-2.9881475
96	0xc0413953	-3.0191238
97	0xc03b900d	-2.9306672
98	0xc043fe6f	-3.0624044
99	0xc039d22a	-2.9034524
100	0xc03fced4	-2.9969988
101	0xc0492fca	-3.1435418
102	0xc03acba4	-2.9186792
103	0xc0496886	-3.1470046
104	0xc0398b75	-2.8991368
105	0xc03e2d88	-2.971529
106	0xc0458d9b	-3.086768
107	0xc041507c	-3.0205374
108	0xc0361471	-2.8449976
109	0xc03d9647	-2.9622972
110	0xc0410e15	-3.0164845
111	0xc034ad1e	-2.8230662
112	0xc034f7ee	-2.8276324
113	0xc0456989	-3.0845664
114	0xc03df166	-2.9678588
115	0xc040438d	-3.004123
116	0xc0388f2a	-2.883738
117	0xc04caf96	-3.198217
118	0xc03884a7	-2.8830965
119	0xc039d242	-2.903458
120	0xc0411c67	-3.0173585
121	0xc038dbd5	-2.8884175
122	0xc03eb936	-2.9800544
123	0xc040db36	-3.0133796
124	0xc03dd44d	-2.9660828
125	0xc039651f	-2.896797
126	0xc0414d3b	-3.0203388
127	0xc042d947	-3.0445116
128	0xc03923f6	-2.89282
129	0xc046b302	-3.1046758
130	0xc0421076	-3.0322547
131	0xc038a44d	-2.8850281
132	0xc03b20b3	-2.9238708
133	0xc03a908e	-2.915073
134	0xc03a076e	-2.9067035
135	0xc03e222d	-2.970836
136	0xc04df7f5	-3.218259
137	0xc03d223f	-2.9552152
138	0xc041e27c	-3.0294485
139	0xc03ea12e	-2.9785876
140	0xc0440468	-3.062769
141	0xc03abe96	-2.9178824
142	0xc0358ed5	-2.8368428
143	0xc0404c0a	-3.004641
144	0xc0339e07	-2.8065202
145	0xc0419fdc	-3.025382
146	0xc0481a13	-3.1265914
147	0xc0378e34	-2.8680544
148	0xc037df08	-2.8729877
149	0xc0483c4a	-3.1286798
150	0xc04aa275	-3.1661656
151	0xc037f72d	-2.8744614
152	0xc03ede24	-2.9823084
153	0xc02cea5f	-2.7018049
154	0xc04673c1	-3.100815
155	0xc03f9bdd	-2.9938881
156	0xc03c1dfa	-2.9393296
157	0xc038ff93	-2.890599
158	0xc0419c7d	-3.0251763
159	0xc03d89fc	-2.961547
160	0xc04953e4	-3.1457453
161	0xc0414276	-3.0196815
162	0xc0465ddf	-3.0994794
163	0xc042e738	-3.0453625
164	0xc0410584	-3.0159616
165	0xc032aa37	-2.791639
166	0xc03f604c	-2.9902525
167	0xc03da402	-2.9631352
168	0xc0462676	-3.0960975
169	0xc0444e79	-3.0672896
170	0xc03dd541	-2.966141
171	0xc04a33ab	-3.1594036
172	0xc04228cb	-3.0337398
173	0xc03dffc5	-2.968736
174	0xc03ff1d7	-2.9991357
175	0xc03f7ea2	-2.992104
176	0xc03a9646	-2.915422
177	0xc037b7d8	-2.870596
178	0xc043f2b6	-3.061689
179	0xc04508a8	-3.0786533
180	0xc04071c8	-3.0069447
181	0xc0456591	-3.0843241
182	0xc0362858	-2.8462124
183	0xc044e4d1	-3.0764658
184	0xc0421493	-3.0325058
185	0xc0413136	-3.0186286
186	0xc04600b8	-3.0937939
187	0xc047d9a8	-3.1226597
188	0xc0463bbd	-3.0973961
189	0xc03cab5d	-2.9479592
190	0xc03bae4e	-2.9325137
191	0xc038db8b	-2.8883998
192	0xc03622d1	-2.845875
193	0xc03dbb0d	-2.9645417
194	0xc03e72d6	-2.975759
195	0xc0443088	-3.065462
196	0xc039d8d9	-2.9038603
197	0xc047f330	-3.124218
198	0xc0420a3c	-3.0318747
199	0xc03d73eb	-2.9602
200	0xc03e0381	-2.9689639
201	0xc0337e93	-2.8046005
202	0xc04071b2	-3.0069394
203	0xc03c3a28	-2.9410496
204	0xc03fdc79	-2.9978316
205	0xc0403472	-3.003201
206	0xc03de0d4	-2.9668474
207	0xc03bbd10	-2.9334145
208	0xc03ea49a	-2.9787965
209	0xc044dc08	-3.0759296
210	0xc040ef0e	-3.0145907
211	0xc03d5311	-2.958195
212	0xc03d664d	-2.959369
213	0xc044afda	-3.0732331
214	0xc03eabb5	-2.9792302
215	0xc03a02f6	-2.9064307
216	0xc02e7cb8	-2.7263622
217	0xc0481eae	-3.1268725
218	0xc03fabfd	-2.9948723
219	0xc03cfa96	-2.9527946
220	0xc03fc01b	-2.9961002
221	0xc047583b	-3.1147602
222	0xc0375209	-2.864382
223	0xc04501bd	-3.078231
224	0xc03a7cf8	-2.9138775
225	0xc03d770f	-2.9603918
226	0xc04d61ab	-3.2090862
227	0xc038920e	-2.8839145
228	0xc03c9fbe	-2.94725
229	0xc04448ad	-3.0669358
230	0xc03d8626	-2.9613128
231	0xc039d931	-2.9038813
232	0xc0359fc4	-2.8378763
233	0xc046f03a	-3.1084123
234	0xc046134b	-3.0949275
235	0xc040b887	-3.0112627
236	0xc0433275	-3.0499547
237	0xc04276c5	-3.038499
238	0xc043265a	-3.0492158
239	0xc04e7057	-3.2256067
240	0xc0432bf7	-3.0495584
241	0xc042bedc	-3.0428991
242	0xc040be9a	-3.0116334
243	0xc02f31b9	-2.7374098
244	0xc04b90fd	-3.1807244
245	0xc042701a	-3.0380921
246	0xc03a5fec	-2.9121046
247	0xc046b38b	-3.1047084
248	0xc03a32d1	-2.9093516
249	0xc046a973	-3.1040924
250	0xc0417e8b	-3.0233486
251	0xc0382f88	-2.877901
252	0xc0364114	-2.847722
253	0xc03eb617	-2.979864
254	0xc0465c1c	-3.099372
255	0xc0353f7f	-2.8320005

l1.weight.mu f4 [400, 29]
0	0x3d8146a7	0.06312304
1	0x3e132ad1	0.14371802
2	0x3cc8c13a	0.0245062
3	0x3b6f6d6d	0.0036533729
4	0xbc428583	-0.011872652
5	0x3e45fdaa	0.19335046
6	0xbc35edfa	-0.011104101
7	0x39594225	0.00020719373
8	0x3e205b47	0.1565982
9	0xbddffbbf	-0.10936689
10	0xbe1a9f96	-0.1509994
11	0x3e48a35e	0.1959357
12	0x3b61b48c	0.003443989
13	0x3e0440b3	0.12915306
14	0x3da56241	0.08075381
15	0xbd2f7b90	-0.042842448
16	0x3da11dd5	0.07867018
17	0x3d98d037	0.07461589
18	0x3d5d74b7	0.054066386
19	0x3c20924f	0.009800508
20	0xbc5a9c09	-0.013342866
21	0x3e2b2129	0.16711868
22	0x3e2cfc67	0.16893159
23	0xbdd5cb6b	-0.104391895
24	0xbc863653	-0.016383326
25	0x3c11ce1b	0.008899237
26	0xbd61b63e	-0.05510544
27	0xbe69f799	-0.22848357
28	0x3d896277	0.06708234
29	0xbd5f23be	-0.054477446
30	0x3da1aded	0.07894502
31	0xbd7ddef3	-0.0619802
32	0xbdb52dab	-0.08846601
33	0xbc9ed1cb	-0.019387146
34	0x3d3c632b	0.04599301
35	0xbcafb26b	-0.021447381
36	0x3e000a21	0.12503864
37	0xbe1c3b22	-0.15256932
38	0x3dd1303b	0.10214277
39	0xbe42e2da	-0.1903185
40	0xbc9d8b92	-0.019231591
41	0xbd056199	-0.03256378
42	0x3d97f532	0.07419814
43	0xbcb73b14	-0.022367038
44	0x3db4a805	0.0882111
45	0xbcfcc61a	-0.030856181
46	0xbd96cd76	-0.07363407
47	0x3d4cf417	0.05003747
48	0xbdb1a257	-0.08673542
49	0x3d969400	0.073524475
50	0x3dff3633	0.124615096
51	0xbd9e5b68	-0.07732278
52	0x3d5ee158	0.054414123
53	0x3c5454e6	0.0129596945
54	0xbc113b06	-0.00886417
55	0xbd8f2487	-0.06989389
56	0x3da9f817	0.082992725
57	0xbdbf4b88	-0.09340578
58	0xbdf804a6	-0.121102616
59	0x3e4e032d	0.20118399
60	0xbe1ec973	-0.15506534
61	0xbd9ca655	-0.07648913
62	0xbd891376	-0.06693165
63	0xbd84a61f	-0.064769976
64	0xbe623651	-0.22091033
65	0xbd184ef0	-0.037184656
66	0xbccea7f7	-0.025226576
67	0xbcd64288	-0.026154771
68	0xbd85be32	-0.065304175
69	0x3e62cb46	0.22147855
70	0x3d30e072	0.043182798
71	0x3e08152a	0.13289323
72	0xbd97cc75	-0.07412044
73	0x3d62d919	0.05538282
74	0x3e081ab3	0.13291435
75	0xbca34908	-0.019932285
76	0x3dc7af0b	0.09750184
77	0x3cb5a79b	0.022174647
78	0x3d1c3042	0.03813196
79	0x3e2b6619	0.16738166
80	0x3e06c286	0.13160142
81	0xbe1c1bfa	-0.15245047
82	0xbda639eb	-0.08116516
83	0xbde22a66	-0.11043243
84	0xbb705ea5	-0.0036677506
85	0x3a110458	0.00055319583
86	0xbcc4da55	-0.02402989
87	0xbb183f18	-0.0023230966
88	0x3d6bbdc2	0.057554014
89	0xbdc072ca	-0.09396894
90	0xbe286811	-0.16445948
91	0x3e0f90f0	0.14020133
92	0xba8f26a3	-0.0010921549
93	0x3c7d3191	0.015453712
94	0xbcd7d892	-0.026348386
95	0x3c8c2150	0.017105728
96	0xbe54b4be	-0.20772073
97	0x3cc789f5	0.024357775
98	0xbd8250b4	-0.06363049
99	0xbd353a33	-0.044244956
100	0xbe0d1748	-0.13778412
101	0x3d392928	0.045205265
102	0xbc52c47f	-0.012864231
103	0xbd1063f4	-0.035251573
104	0x3d0b3487	0.03398564
105	0x3d443833	0.04790516
106	0xbc6e4895	-0.014543672
107	0x3e3914d5	0.18074353
108	0xbd444ee9	-0.047926817
109	0x3d846877	0.064652376
110	0xbce02779	-0.027362572
111	0x3cc24361	0.02371377
112	0xbe1418ff	-0.1446266
113	0xbd9d3842	-0.07676746
114	0x3d5a8ee8	0.053358942
115	0x3e3720e2	0.17883638
116	0xbd532beb	-0.051555555
117	0xbdb92512	-0.09040274
118	0xbd908416	-0.070564434
119	0x3d2ca0be	0.042145483
120	0xbd7b33d2	-0.061328717
121	0xbdd48352	-0.1037661
122	0xbc72165b	-0.014775838
123	0x3ce77121	0.028252186
124	0xbe0ef728	-0.1396147
125	0xbc802075	-0.015640477
126	0x3d111231	0.03541774
127	0x3e325204	0.17414099
128	0x3d0fcc7a	0.035107113
129	0xbdfc93fb	-0.123329125
130	0x3ba24469	0.004952003
131	0x3d6f9641	0.058492903
132	0x3e3bb1e0	0.18329573
133	0x3d62fcf4	0.055417016
134	0x3d25cd4a	0.040478982
135	0xbd9d0876	-0.076676294
136	0x3e5b2a8c	0.21402949
137	0x3c18f308	0.009335287
138	0x3e1a6210	0.1507647
139	0x3de39a57	0.11113422
140	0x3db33473	0.08750238
141	0xbcbe484b	-0.023227831
142	0x3da8e492	0.08246721
143	0x3c536eb3	0.012904811
144	0x3db0ef79	0.08639426
145	0x3c71fed4	0.014770228
146	0xbd77dfe0	-0.06051624
147	0xbe3a1c6c	-0.18174905
148	0xbda421b7	-0.08014243
149	0x3c836497	0.016039176
150	0xbda22768	-0.079176724
151	0xbe0eeda5	-0.13957842
152	0xbd4dbaa9	-0.05022684
153	0x3b6e52e3	0.0036365322
154	0xbd2d5dad	-0.042325664
155	0x3d383c57	0.04497942
156	0xbc02417d	-0.007950184
157	0xbc224bdb	-0.009905781
158	0xbbf57e9a	-0.0074918987
159	0x3e39f418	0.1815952
160	0xbaf70d81	-0.0018848629
161	0xbe24c5e1	-0.1609111
162	0x3d16727f	0.036730286
163	0xbc87e45f	-0.016588388
164	0xbc3993a9	-0.011326709
165	0xbc0b9175	-0.008518566
166	0x3d9a9335	0.07547609
167	0x3b81e70d	0.003964311
168	0xbd657738	-0.0560219
169	0x3d9bbc92	0.07604326
170	0xbc71799e	-0.014738468
171	0xbd8eb51c	-0.069681376
172	0xbbe81b9e	-0.0070833704
173	0x3e0daeb7	0.1383618
174	0x3d442825	0.047889847
175	0xba07b599	-0.00051769015
176	0x3dfd2131	0.123598464
177	0xbcb87af6	-0.02251957
178	0xbd11256b	-0.035436075
179	0xbd0169bf	-0.031594988
180	0x3d08a0d5	0.033356506
181	0xbdcd245a	-0.10016699
182	0xbd93ec8c	-0.07222852
183	0xbe06f8cd	-0.13180847
184	0x3c361611	0.0111136595
185	0xbe2ca5c2	-0.16860107
186	0x3e414518	0.18874013
187	0x3d878ef3	0.06619062
188	0xbe01424e	-0.1262295
189	0xbd784f21	-0.06062234
190	0x3da3fa77	0.08006757
191	0xbe3fd561	-0.18733741
192	0xbc389a14	-0.011267204
193	0xbe10c479	-0.14137448
194	0x3d1deafb	0.038554173
195	0xbd1b5114	-0.03791912
196	0xbc4145cf	-0.011796429
197	0x3a9b3899	0.0011842429
198	0x3d8d72f6	0.06906693
199	0x3dffe836	0.124954626
200	0x3dc71239	0.097202726
201	0x3e1871f9	0.14887227
202	0xbca9073a	-0.020633329
203	0xbe1bef17	-0.15227924
204	0x3e672e54	0.22576267
205	0xbd32a6da	-0.043616153
206	0x3d0c73ea	0.03429023
207	0x3c2cbbbe	0.010542808
208	0xbcad621a	-0.021164943
209	0x3d54cfc0	0.05195594
210	0x3dd4e426	0.10395078
211	0xbd60c8a6	-0.054878853
212	0x3b706fa3	0.0036687634
213	0x3db4bd66	0.088251874
214	0xbd1031fb	-0.035203915
215	0xbd700b38	-0.05860445
216	0xbd9bd078	-0.07608122
217	0xbc048f12	-0.008090751
218	0x3e004275	0.12525351
219	0x3d832a83	0.06404593
220	0xbdaf41b0	-0.08557451
221	0x3dbc07a1	0.091811426
222	0x3dc325d7	0.09528702
223	0x3cadbf4c	0.021209382
224	0x3ce3270d	0.027728582
225	0xbd25f6c1	-0.040518526
226	0xbe16004b	-0.1464855
227	0xbd162e93	-0.03666551
228	0x3d9a6d40	0.07540369
229	0x3ddfe925	0.10933141
230	0x3e0aa06f	0.13537763
231	0xbd7f8fdb	-0.06239305
232	0xbda47825	-0.08030728
233	0x3dec98bc	0.11552569
234	0xbe87a6fb	-0.26494583
235	0x3cd8dd4e	0.026472714
236	0xbbc1f8ee	-0.0059195673
237	0xbd1b7e33	-0.03796215
238	0xbc0e2285	-0.008675222
239	0x3d23b905	0.03997137
240	0x3e093a0e	0.13401052
241	0xbdbd9acc	-0.09258041
242	0xbc26cc03	-0.010180476
243	0xbe484d0b	-0.1956064
244	0x3d57cb40	0.05268407
245	0x3d8c3423	0.06845882
246	0x3d770a08	0.0603123
247	0xbd6f4662	-0.05841673
248	0xbdad2844	-0.08454946
249	0x3cff1462	0.031137649
250	0xbd0e9885	-0.034813423
251	0x3c89b695	0.016810695
252	0x3e0fa33e	0.14027116
253	0xbe757fb4	-0.23974496
254	0x3e1a0279	0.15040006
255	0xbaa9a267	-0.0012942076

l1.weight.rho f4 [400, 29]
0	0xc04966f4	-3.1469088
1	0xc039900b	-2.8994167
2	0xc0471e35	-3.1112187
3	0xc047f179	-3.1241133
4	0xc03ab989	-2.9175742
5	0xc03c05b7	-2.9378488
6	0xc03f1143	-2.9854286
7	0xc04722c7	-3.1114976
8	0xc03b9fb6	-2.931623
9	0xc03e8c91	-2.9773295
10	0xc039ef04	-2.9052134
11	0xc040a371	-3.0099757
12	0xc03e0628	-2.9691257
13	0xc032324a	-2.7843194
14	0xc0495b43	-3.1461952
15	0xc039ca25	-2.902963
16	0xc033be97	-2.8085077
17	0xc03d621f	-2.9591138
18	0xc04033d5	-3.0031636
19	0xc03cb5d4	-2.948598
20	0xc03c429d	-2.9415658
21	0xc0363634	-2.8470583
22	0xc03f4ed0	-2.9891853
23	0xc04323fb	-3.049071
24	0xc03452eb	-2.817561
25	0xc03b9d8a	-2.9314904
26	0xc03bd9d9	-2.9351714
27	0xc0401a6c	-3.0016127
28	0xc0457302	-3.0851445
29	0xc044b0c1	-3.0732882
30	0xc04541f4	-3.0821505
31	0xc03db2be	-2.9640346
32	0xc039a38c	-2.900607
33	0xc03cfa15	-2.9527638
34	0xc0415a01	-3.0211184
35	0xc0474280	-3.1134338
36	0xc040306e	-3.002956
37	0xc0475c3b	-3.1150043
38	0xc03b1323	-2.923043
39	0xc0331868	-2.7983646
40	0xc041a6d4	-3.0258074
41	0xc03b4e7f	-2.926666
42	0xc0393c97	-2.894323
43	0xc038f97c	-2.8902273
44	0xc03a7b0c	-2.9137602
45	0xc03c1408	-2.9387226
46	0xc0431214	-3.0479784
47	0xc041caa0	-3.0279922
48	0xc0478d56	-3.1180015
49	0xc031993b	-2.7749774
50	0xc046b3c6	-3.1047225
51	0xc0452ac8	-3.0807362
52	0xc0382d50	-2.8777657
53	0xc044eb9d	-3.0768807
54	0xc04bd9aa	-3.1851602
55	0xc03f6200	-2.9903564
56	0xc048f647	-3.1400316
57	0xc03c558a	-2.942721
58	0xc0377b5c	-2.8669043
59	0xc04bace8	-3.1824284
60	0xc03a3a83	-2.9098213
61	0xc040900a	-3.0087914
62	0xc04a4db4	-3.1609926
63	0xc04aa989	-3.1665976
64	0xc04da106	-3.212953
65	0xc03fd979	-2.9976485
66	0xc04219d1	-3.0328257
67	0xc031d931	-2.7788813
68	0xc0408e41	-3.0086825
69	0xc032a364	-2.7912226
70	0xc0371a0c	-2.8609648
71	0xc046764f	-3.100971
72	0xc038d80d	-2.8881867
73	0xc03b3c11	-2.9255412
74	0xc03e008b	-2.9687831
75	0xc040db6b	-3.0133922
76	0xc0412f8f	-3.0185277
77	0xc04628d6	-3.0962424
78	0xc03bcdef	-2.9344442
79	0xc03b574b	-2.927203
80	0xc037d38a	-2.8722863
81	0xc0428386	-3.0392776
82	0xc0384658	-2.8792934
83	0xc03e07d2	-2.9692273
84	0xc0387d7f	-2.8826597
85	0xc041db64	-3.0290155
86	0xc035e67e	-2.8421931
87	0xc0340022	-2.812508
88	0xc04a80d6	-3.1641135
89	0xc04474de	-3.069633
90	0xc0445e01	-3.0682375
91	0xc040b024	-3.0107508
92	0xc03b4f3d	-2.9267113
93	0xc0421484	-3.0325022
94	0xc03ea5fd	-2.9788811
95	0xc04572e2	-3.085137
96	0xc03e0a37	-2.9693735
97	0xc03ef884	-2.9839182
98	0xc03f611d	-2.9903023
99	0xc047c73f	-3.121536
100	0xc03ff407	-2.9992692
101	0xc03f851a	-2.9924989
102	0xc0460d18	-3.0945492
103	0xc049d5fe	-3.153686
104	0xc045dfb7	-3.0917795
105	0xc0479fb1	-3.1191218
106	0xc0365aa3	-2.849282
107	0xc04142ae	-3.0196948
108	0xc048efa9	-3.1396277
109	0xc040cf82	-3.0126653
110	0xc0394042	-2.894547
111	0xc04ae37c	-3.1701345
112	0xc0360426	-2.8440032
113	0xc044fdb1	-3.077984
114	0xc0458204	-3.0860605
115	0xc0451db4	-3.079938
116	0xc0480be9	-3.125727
117	0xc040b553	-3.0110672
118	0xc03f3839	-2.9878066
119	0xc0361d72	-2.8455472
120	0xc0460c1d	-3.0944893
121	0xc0431d16	-3.0486503
122	0xc0498567	-3.1487672
123	0xc046ede9	-3.108271
124	0xc045b317	-3.0890558
125	0xc0483681	-3.1283267
126	0xc03a8a4f	-2.9146917
127	0xc046c3a2	-3.1056905
128	0xc03f249f	-2.9866102
129	0xc03a2f55	-2.909139
130	0xc044e4ce	-3.0764651
131	0xc03ed1fc	-2.9815664
132	0xc04f1cc5	-3.236131
133	0xc041e8e0	-3.0298386
134	0xc047116c	-3.1104383
135	0xc04494b8	-3.071577
136	0xc04243d0	-3.035389
137	0xc03959af	-2.8960989
138	0xc03f51cc	-2.9893675
139	0xc041bb1e	-3.0270457
140	0xc046c595	-3.1058095
141	0xc04e406b	-3.2226818
142	0xc02f1f91	-2.7363017
143	0xc0443259	-3.065573
144	0xc03ea5a8	-2.9788609
145	0xc03c0081	-2.9375308
146	0xc03dcb24	-2.9655237
147	0xc03e800c	-2.9765654
148	0xc036f72b	-2.858836
149	0xc0414771	-3.0199854
150	0xc03f7570	-2.9915428
151	0xc0443de2	-3.066277
152	0xc03efbf6	-2.9841285
153	0xc03a4ff8	-2.911131
154	0xc0384cb7	-2.8796823
155	0xc04b9e04	-3.1815195
156	0xc0487dbc	-3.1326742
157	0xc03a5d81	-2.911957
158	0xc04abcdc	-3.167777
159	0xc0358f0c	-2.836856
160	0xc0453c6c	-3.0818129
161	0xc03b0720	-2.9223099
162	0xc046435a	-3.0978608
163	0xc0485a79	-3.130522
164	0xc03bdb33	-2.9352539
165	0xc03928cc	-2.893115
166	0xc03b10de	-2.9229045
167	0xc03cef82	-2.9521184
168	0xc03aca22	-2.9185872
169	0xc03e4596	-2.9729972
170	0xc041fac6	-3.030931
171	0xc044967f	-3.0716856
172	0xc03dbfc0	-2.9648285
173	0xc03f81a1	-2.992287
174	0xc03be947	-2.936113
175	0xc03a1bda	-2.90795
176	0xc03cb1ec	-2.9483595
177	0xc03e9e6b	-2.978419
178	0xc04441b0	-3.0665092
179	0xc03c385f	-2.9409406
180	0xc03f47a4	-2.9887476
181	0xc0410188	-3.0157185
182	0xc03b08e9	-2.9224188
183	0xc03f2212	-2.9864545
184	0xc049e70c	-3.154727
185	0xc042488b	-3.0356777
186	0xc0435794	-3.0522203
187	0xc0388584	-2.8831491
188	0xc0386b5a	-2.8815522
189	0xc03fd550	-2.9973946
190	0xc040652b	-3.0061748
191	0xc037ffbf	-2.8749845
192	0xc036b143	-2.8545692
193	0xc04623b2	-3.0959287
194	0xc03a43f2	-2.910397
195	0xc03eccdb	-2.9812534
196	0xc0381263	-2.8761222
197	0xc04c722f	-3.1944692
198	0xc0444b86	-3.0671096
199	0xc03f49fd	-2.988891
200	0xc03dc349	-2.9650443
201	0xc043d952	-3.0601392
202	0xc03cff1c	-2.9530706
203	0xc03af2d6	-2.9210715
204	0xc03f932d	-2.993358
205	0xc03f3650	-2.98769
206	0xc035188c	-2.8296232
207	0xc03f06de	-2.9847941
208	0xc0313e64	-2.769433
209	0xc03f2e69	-2.9872077
210	0xc048b337	-3.1359384
211	0xc03ececd	-2.981372
212	0xc0451f73	-3.0800445
213	0xc0467056	-3.1006064
214	0xc046dc69	-3.1072028
215	0xc03859ba	-2.8804765
216	0xc0421271	-3.0323756
217	0xc0417964	-3.023034
218	0xc0443d81	-3.066254
219	0xc0413678	-3.0189495
220	0xc037ff7e	-2.874969
221	0xc03cf15e	-2.952232
222	0xc038600b	-2.880862
223	0xc04199a0	-3.0250015
224	0xc040bfe8	-3.011713
225	0xc03eb713	-2.979924
226	0xc04bee7c	-3.186431
227	0xc0383f0f	-2.8788488
228	0xc03fed88	-2.9988728
229	0xc03cfad0	-2.9528084
230	0xc0485a60	-3.130516
231	0xc04057a2	-3.0053487
232	0xc0368393	-2.8517807
233	0xc047c184	-3.1211863
234	0xc047ed9f	-3.1238782
235	0xc033cd69	-2.8094122
236	0xc03d2a47	-2.9557054
237	0xc040cac6	-3.0123763
238	0xc044857a	-3.0706468
239	0xc0411c8e	-3.0173678
240	0xc04360a4	-3.0527735
241	0xc045d5eb	-3.0911815
242	0xc03bfe57	-2.9373987
243	0xc03b26cc	-2.924243
244	0xc033a658	-2.8070278
245	0xc03f6f8e	-2.9911838
246	0xc03c0024	-2.9375086
247	0xc0386cf5	-2.8816502
248	0xc03a1776	-2.907682
249	0xc04061a6	-3.00596
250	0xc0418883	-3.023957
251	0xc03c2066	-2.9394774
252	0xc03f8076	-2.9922156
253	0xc03f034d	-2.9845765
254	0xc0445c00	-3.0681152
255	0xc03c3af0	-2.9410973

l1.bias.mu f4 [400]
0	0x3dd0fc75	0.10204402
1	0xbcde2e60	-0.027121723
2	0xbe29ad8d	-0.1657011
3	0x3cffcded	0.031226123
4	0x3e056596	0.13027033
5	0xbd1b8dd6	-0.037977062
6	0xbc83ba4a	-0.01608004
7	0xbd3903cc	-0.045169637
8	0x3d45ea22	0.04831899
9	0x3d579f4d	0.052642155
10	0x3d87018d	0.06592093
11	0xbdc160be	-0.0944228
12	0x3c1edfd3	0.009696919
13	0x3e179aeb	0.1480519
14	0x3e082b27	0.13297711
15	0x3e089268	0.133371
16	0xbe050058	-0.12988412
17	0xbde7aaaf	-0.11311852
18	0xbd91d7d0	-0.07121241
19	0xbdec4af1	-0.115377314
20	0x3dd26297	0.10272711
21	0x3d583fa4	0.052795067
22	0xbdec6623	-0.115429185
23	0xbd6f09e5	-0.058359046
24	0x3e34eabf	0.17667674
25	0xbe2e36ad	-0.17013045
26	0x3d5d585d	0.054039348
27	0xbdaa0afb	-0.083028756
28	0x3d8a869e	0.067639574
29	0x3d69f362	0.057116874
30	0x3db1a686	0.0867434
31	0x3e9d01cf	0.30665442
32	0xbd875e5e	-0.06609796
33	0xbda33cae	-0.07970558
34	0x3d520f9d	0.05128442
35	0xbe822dcc	-0.25425565
36	0xbd78634f	-0.060641583
37	0xbe87de57	-0.2653682
38	0xbe3545d7	-0.17702423
39	0xbdf9161a	-0.12162419
40	0x3e014a26	0.12625942
41	0x3e4ea40d	0.20179768
42	0xbdf6b6b1	-0.12046564
43	0xbd6615fb	-0.056173306
44	0x3e3b006d	0.18261881
45	0x3d124d0a	0.035718
46	0x3e884d34	0.266214
47	0xbda8b9c0	-0.08238554
48	0x3d87d6cb	0.066327654
49	0x3da03b56	0.078238174
50	0x3e420649	0.1894771
51	0x3c399438	0.011326842
52	0xbde60716	-0.1123182
53	0x3d73f02c	0.059555218
54	0x3d3deeeb	0.046370428
55	0x3d2ac4a8	0.041691452
56	0x3e0abacc	0.1354782
57	0x3ca2d772	0.019878123
58	0xbe1b1aa0	-0.15146875
59	0x3c362ab9	0.011118584
60	0x3d9329e7	0.071857266
61	0x3c613c2d	0.013747257
62	0x3db09e8e	0.08623992
63	0xbc8d9fd3	-0.017288124
64	0x3d8a9d38	0.06768268
65	0x3d45a9a9	0.048257504
66	0x3d2e6e57	0.042585697
67	0xbddbab9e	-0.10726093
68	0x3cb51b32	0.022107694
69	0xbcb27c67	-0.021787835
70	0xbd0b1012	-0.033950873
71	0x3e00bcf8	0.12572086
72	0x3ddc3f5f	0.107542746
73	0xbd80bb82	-0.06285764
74	0xbe495513	-0.1966136
75	0x3dd0e91c	0.10200712
76	0xbdce7f79	-0.10082907
77	0xbd3d861f	-0.046270486
78	0x3e191c05	0.14952095
79	0xbe3e1bd1	-0.18565299
80	0xbe183968	-0.14865649
81	0xbc5632b3	-0.013073611
82	0xbe8c5b15	-0.2741324
83	0xbbc78b40	-0.006089598
84	0xbe02e5ab	-0.12782924
85	0xbdcf752a	-0.10129769
86	0x3da8d5cd	0.08243904
87	0x3dae818b	0.08520802
88	0x3e74651b	0.23866694
89	0x3de76364	0.11298254
90	0xbbc08978	-0.0058757626
91	0xbd9e7f96	-0.07739179
92	0x3e0c6220	0.13709307
93	0xbd539aae	-0.051661186
94	0x3d3e5c0d	0.046474505
95	0xbdabd88b	-0.08390912
96	0x3e79bd52	0.24388626
97	0xbc1b0fda	-0.0094642285
98	0xbd17c455	-0.03705247
99	0x3d6dbc3b	0.05804084
100	0xbe15e502	-0.14638141
101	0x3dd06312	0.10175146
102	0xbd8d0477	-0.06885617
103	0x3d8b0fa8	0.067900956
104	0xbd1ed603	-0.038778316
105	0x3e5066fd	0.20351787
106	0xbd8fc5e5	-0.07020167
107	0x3d46b1d9	0.048509452
108	0xbbc17321	-0.005903617
109	0xbcf1711b	-0.029472878
110	0xbe297877	-0.1654986
111	0xbd162c5e	-0.036663406
112	0x3d335d50	0.04379016
113	0xbe093cd2	-0.13402107
114	0xbd7138da	-0.05889211
115	0xbd1a1e63	-0.037626635
116	0xbc4cdc65	-0.012503718
117	0xbdfe5345	-0.12418226
118	0x3e3f692b	0.18692462
119	0xbdac8625	-0.084240235
120	0x3dcdfb64	0.100577146
121	0x3e0864b0	0.13319659
122	0x3dcf9e67	0.10137635
123	0xbd3c6f8c	-0.046004817
124	0xbd9897ec	-0.07450852
125	0xbd9199c0	-0.071094036
126	0x3c8cc799	0.01718502
127	0xbe5e08ea	-0.21683088
128	0xbe087154	-0.13324481
129	0xbbdb9601	-0.0067012315
130	0x3d3f2d7b	0.046674233
131	0xbcef8c7f	-0.029241798
132	0x3d9dc7d5	0.077041306
133	0xbd704b37	-0.05866548
134	0xbba91ada	-0.0051606717
135	0xbccf8162	-0.02533025
136	0xbd86d763	-0.065840505
137	0xbd980dd7	-0.07424515
138	0x3d561664	0.052267447
139	0xbbde5efc	-0.0067862254
140	0x3d89416f	0.067019336
141	0x3dfd790e	0.12376605
142	0xbde4db07	-0.11174589
143	0x3d9a8d97	0.07546537
144	0x3dee91b3	0.11648884
145	0xbd057c77	-0.032589402
146	0xbd2db232	-0.04240627
147	0x3dd3e35f	0.10346102
148	0xbd8dfb57	-0.06932705
149	0xbcce1d65	-0.0251605
150	0x3de61839	0.11235089
151	0xbe0fa39b	-0.14027254
152	0x3d82ba32	0.0638317
153	0xbe2ab789	-0.16671576
154	0xbdd28237	-0.10278743
155	0xbd8fbcf5	-0.070184626
156	0x3db06a3b	0.08614012
157	0x3dcdbbca	0.100455835
158	0xbc705814	-0.014669437
159	0x3db2fa30	0.08739126
160	0xbcb7d74a	-0.022441525
161	0x3db29fbc	0.08721873
162	0x3e232751	0.15932967
163	0x3e541132	0.20709684
164	0xbd12bb88	-0.035823375
165	0x3e4ccb3c	0.19999403
166	0xbc831870	-0.016002864
167	0x3e9b33ba	0.30312902
168	0x3e3771d5	0.17914517
169	0xbd4154e0	-0.047200084
170	0x3e034f39	0.1282319
171	0x3e653a06	0.22385415
172	0x3eb3e5b4	0.35136187
173	0x3dea6d26	0.114466
174	0xbdb7f9c2	-0.089831844
175	0xbe775d6f	-0.24156736
176	0xbda892a2	-0.08231093
177	0x3da336d8	0.07969445
178	0x3da6ed39	0.081507154
179	0x3e114ce7	0.14189492
180	0x3e948c5b	0.29013333
181	0x3ddcd6a1	0.10783125
182	0x3ced6925	0.0289808
183	0x3ce12a54	0.027486004
184	0xbd33b1dc	-0.04387079
185	0xba4b77c7	-0.00077616837
186	0x3d1fd14a	0.039017953
187	0xbe949bc1	-0.2902508
188	0x3eabac18	0.33529735
189	0x3db1419e	0.086550936
190	0xbd9a2a86	-0.07527642
191	0xbc1572bd	-0.009121594
192	0xbe0d7405	-0.13813789
193	0x3e8abe1c	0.27098167
194	0x3d979d0b	0.074030004
195	0x3c4bd35a	0.012440527
196	0x3de6a935	0.112627424
197	0xbe187ee9	-0.14892162
198	0xbcc4a37f	-0.024003742
199	0xbe183dc0	-0.14867306
200	0xbdd539f4	-0.10411444
201	0x3e66eb09	0.22550596
202	0x3e19f160	0.15033484
203	0x3e93600c	0.28784215
204	0x3edace9b	0.42735752
205	0xbc05d021	-0.008167298
206	0x3df4516c	0.119295925
207	0x3e152de0	0.14568281
208	0x3d83d16b	0.06436428
209	0x3e52ba83	0.20578961
210	0xbd7b212a	-0.061310925
211	0x3d44e1e1	0.048066977
212	0xbc75754b	-0.014981578
213	0x3d102709	0.035193477
214	0xbd9e47a1	-0.07728506
215	0xba543b74	-0.00080960174
216	0xbd886ace	-0.066609964
217	0xbd059b1f	-0.032618638
218	0x3e242cf9	0.1603278
219	0xbd57c6de	-0.05267989
220	0xbe14aa50	-0.14518094
221	0xbbb64710	-0.0055626705
222	0xbd39e92d	-0.04538839
223	0x3d998a48	0.07497078
224	0xbd541695	-0.05177935
225	0x3e6d1f5e	0.23156497
226	0x3e68f7a6	0.2275072
227	0xbd32cfa2	-0.043655045
228	0x3e48631e	0.1956906
229	0xbcbf493c	-0.02335035
230	0xbd2c5747	-0.04207542
231	0x3d8ed5a0	0.069743395
232	0xbdf7d99a	-0.12102051
233	0x3e688a5d	0.22709031
234	0x3d747717	0.059683885
235	0x3df91336	0.12161867
236	0xbe278a40	-0.16361332
237	0xbcb75466	-0.022379111
238	0xbd0356ac	-0.03206508
239	0x3e6deb48	0.23234284
240	0xbce102d9	-0.027467178
241	0x3e9c8660	0.3057127
242	0xbcc60ff9	-0.024177538
243	0xbcb5c316	-0.02218775
244	0xbdd29a1f	-0.102833025
245	0xbd5b73b1	-0.05357713
246	0x3ea4bb67	0.32174227
247	0x3deccab4	0.115621
248	0xba8f2631	-0.0010921416
249	0xbd913654	-0.070904404
250	0x3d4167c2	0.04721809
251	0xbb8314d7	-0.004000287
252	0x3dd9337d	0.10605524
253	0x3bb4548b	0.0055032424
254	0x3cfa8f24	0.030585833
255	0x3da2255f	0.07917284
