checkpoints_16_tasks/16_task_groups_PUGCL_epochs_:25_lr_:0.06_hidden_:120_task_order_:[10  2  1  6 15 11  9 13  8  3 14  0  7  4  5 12]/model_7.pth.tar (torch_old, 81201 bytes, 136 tensors)

l1.weight_mu f4 [120, 29]
000000 ea 1f a2 3e da 93 13 3e a4 6b e9 3d 23 4c ce 3c
       0.31664973 0.1441187 0.11397484 0.02518279
000010 4b f4 18 bb 57 41 41 3e 02 2d 42 3c 36 e0 d5 bd
       -0.002333897 0.18872581 0.011851551 -0.104431555
000020 83 f8 84 3c dd cd 1c 3e 4d bd 38 3d 93 b3 28 3e
       0.01623178 0.15312906 0.045102406 0.16474752
000030 82 fc bb bd 15 94 97 3d 62 95 18 3e 4f 67 25 bd
       -0.091790214 0.07401291 0.14900735 -0.040381726
000040 04 d2 3b 3e 08 2a e3 bd 05 f5 20 bb b1 2f 7a bb
       0.18341833 -0.11092001 -0.0024560106 -0.00381754
000050 d4 60 32 3d e6 ba 58 3e c7 98 43 3e 27 29 9d bb
       0.043549374 0.21165046 0.19101249 -0.0047961655
000060 8b 32 a6 3d 79 52 a4 3d 9a 99 09 bc 5a 0e ed bd
       0.08115109 0.08023543 -0.008398438 -0.11575003
000070 43 8f 6a 3e 8d ec 7d 3c ec 3d 2d 3e 2c 65 45 3d
       0.22906213 0.015498293 0.16918153 0.04819219
000080 e7 9c 74 3d 90 64 85 bd 36 a7 ee 3d 80 7a 11 bd
       0.059719946 -0.065133214 0.11652987 -0.035517216
000090 f0 db 9a 3d b0 d5 e0 bd c8 14 be bd ba 82 db bd
       0.07561481 -0.10978258 -0.092813075 -0.107182935
0000a0 b2 86 fb 3b 0a 66 b0 bb d1 0a a7 3c 3a 7c 36 3e
       0.007675969 -0.0053832578 0.0203909 0.17820826
0000b0 0e ff 88 3d 44 b5 98 3d 65 85 a5 bd 47 05 a6 bd
       0.06689273 0.07456449 -0.080820836 -0.08106475
0000c0 e7 34 b9 3d da 57 06 be 41 4b ab 3a 16 5f 2f 3d
       0.090432934 -0.1311945 0.0013068692 0.04281529
0000d0 4f e2 49 bd d1 a3 2f bb f0 b3 64 3c 40 8d 37 3e
       -0.04928809 -0.0026800523 0.013958916 0.17924976
0000e0 90 ff af bd 06 02 fc bd f5 ba 2a 3d cd f5 25 be
       -0.085936666 -0.123050734 0.041682202 -0.16207047
0000f0 01 d7 71 3d 33 11 61 bd 86 db 84 bd b1 0d 98 3d
       0.059042934 -0.054948043 -0.06487183 0.074244864
000100 e5 b3 dd bc 17 98 d6 3c 73 52 10 3e 4a e6 a7 bc
       -0.02706332 0.026195569 0.14093952 -0.020495553
000110 fb 8e 47 bd 9c de f7 bd dd eb b0 bc cf 38 f2 3d
       -0.04872034 -0.12103006 -0.021596843 0.11827242
000120 28 83 0f 3e 9f 73 2b be 5b fe de bd 72 d2 a7 3c
       0.14014876 -0.16743325 -0.10888358 0.02048609
000130 05 d8 5d 3d 26 95 89 3d b5 5e bf bd 59 b1 7a 3c
       0.05416109 0.06717901 -0.09344236 0.015301072
000140 74 d4 2b 3e 93 1a 8f bd 78 75 bb bc 11 33 f6 bd
       0.16780263 -0.069874905 -0.022883162 -0.12021459
000150 0f 58 3e be 89 f2 b2 bd d9 0e f7 bb a2 ae e5 bd
       -0.18588279 -0.08737666 -0.007539612 -0.11214949
000160 f7 c8 4f be f7 c7 6b 3d 46 87 02 3e c6 e5 92 bd
       -0.20291506 0.05756375 0.12746915 -0.07172732
000170 ac cd 52 3d 10 8b 78 3a ed 03 06 be 59 ff 4a 3e
       0.051465675 0.0009481171 -0.13087435 0.1982397
000180 a6 b4 88 3d 50 37 bd bd b6 68 92 3d df 19 a5 bc
       0.06675081 -0.09239066 0.07148878 -0.020153938
000190 6d ee 5e 3d 24 30 ad 3c d8 d3 08 bd 01 55 c8 3d
       0.0544266 0.02114112 -0.033405155 0.09781838
0001a0 a2 2e 0d be b1 60 73 bb 9b a4 9d bd 81 9e 2e 3d
       -0.1378732 -0.003713649 -0.076974116 0.04263163
0001b0 05 a6 f8 bd 82 37 3a 3c 1f 72 97 ba 6f 6f b1 3d
       -0.12141041 0.011365773 -0.0011554396 0.086638324
0001c0 a8 a1 0e 3e 3b f4 ba bd dc f1 c6 bd be c0 cc bd
       0.13928854 -0.091286145 -0.097141 -0.099977
0001d0 31 42 15 3e 8a c3 b5 3c 79 44 02 3e 0e 08 13 3e
       0.14576031 0.022187967 0.12721433 0.14358541
0001e0 41 32 1f 3d 48 67 2a bd 3d 5a 14 3e 8e be 72 3c
       0.038866285 -0.041602403 0.14487548 0.01481594
0001f0 d3 35 85 bb 30 e4 0e 3e f3 67 e8 3d ee dd 02 3e
       -0.0040652542 0.13954234 0.11347952 0.12779972
000200 f7 74 28 be 2d ee 86 3e 60 ac 2e bd 89 7e 69 bd
       -0.16450869 0.2635359 -0.04264486 -0.05700544
000210 5d 48 4e 3c 7f a4 a6 bd e0 d2 71 3d 96 6b 0c 3e
       0.012590495 -0.08136844 0.059038997 0.13712916
000220 d9 79 eb 3c b6 73 48 bd 45 77 ec b9 fc f5 b4 3c
       0.028744625 -0.048938476 -0.0004510229 0.02208995
000230 73 7f 00 be 9f 22 87 3e 85 b0 ce bc 42 96 72 bc
       -0.12548618 0.263936 -0.025230655 -0.014806332
000240 76 bb c0 bd e5 7c 25 3d 7c 23 6c bd 72 c4 44 3c
       -0.09410755 0.04040231 -0.057651028 0.012009727
000250 b1 7a 3c 3e 6b 89 bf 3c fb 27 2f 3d 8d bf 4b be
       0.18406178 0.023380956 0.042762738 -0.1989729
000260 5b ca 20 3e ce 57 43 3d 5a 53 08 3d 41 0b 3c be
       0.15702192 0.04769116 0.033282615 -0.18363668
000270 8c e9 9a 3c 81 32 76 3c d7 74 17 3d 63 c9 d1 3b
       0.018910192 0.0150266895 0.03697666 0.006402181
000280 f5 fa f4 3c 96 69 40 3d f4 99 99 bd a1 68 34 bd
       0.029904822 0.046975695 -0.07500067 -0.044045094
000290 1a 85 99 3b f7 97 9e 3d 01 e7 f0 bc 6a 78 a8 3d
       0.0046850564 0.07743829 -0.029407026 0.08226092
0002a0 20 91 b6 be bd 42 49 bd 02 ea b7 bc 35 d6 1a be
       -0.35657597 -0.049135912 -0.02245045 -0.15120776
0002b0 bb 0d 8d bd a2 14 1f 3d 58 40 ac bc b1 a5 27 3d
       -0.068873845 0.038838036 -0.021026775 0.0409295
0002c0 58 c2 1f be 4e 51 20 3d bb 01 22 3d b6 7a 16 be
       -0.1560148 0.03914004 0.03955243 -0.14695248
0002d0 e9 c2 a3 3d 5d f2 17 be 5b 84 06 3e fe 7a f8 3d
       0.079961605 -0.14838548 0.13136427 0.12132834
0002e0 a3 73 db bc 8d 4b 9b bb d4 a2 47 3e 82 d4 c2 3c
       -0.026788538 -0.004739231 0.19495708 0.023782972
0002f0 d3 3d 80 be 84 65 eb 3d 78 82 2f be 35 2c 89 bd
       -0.25047168 0.11493972 -0.17139614 -0.06697885
000300 bf 20 9e bc ae 7a ca 3d 73 35 84 3d 59 d6 7b bd
       -0.019302724 0.098866805 0.06455507 -0.061483715
000310 17 d0 a3 bd 3a ef 88 bd df 57 12 be 86 8d f1 3c
       -0.07998674 -0.06686254 -0.14291333 0.029486429
000320 e2 a9 b8 3d cb c0 22 3d 31 c6 e4 3d 87 68 b8 3d
       0.090167776 0.039734643 0.111706145 0.09004312
000330 4d 46 00 3d a0 e9 f7 bd eb 22 6d 3d 36 76 96 be
       0.031317044 -0.12105107 0.05789463 -0.29387063
000340 7d 80 af 3d dc af b9 3d 7e 71 d7 3c 16 78 16 bc
       0.08569429 0.09066746 0.026299234 -0.009183904
000350 ff 27 ed bd fd 25 36 3d a5 3e 1b be 9e d5 3c be
       -0.11579894 0.044469822 -0.15160616 -0.18440863
000360 29 6a e7 bc d2 31 30 3d bc de a1 bd a9 5f 26 be
       -0.028248863 0.043016262 -0.07903811 -0.16247429
000370 75 d9 b3 bd 52 a1 8e bd 84 75 cc bd f7 2c db 3c
       -0.08781711 -0.06964363 -0.09983352 0.02675484
000380 16 f2 42 3e eb f7 b1 bd 5d ed 10 3e 01 d8 d6 3d
       0.19037661 -0.08689865 0.14153047 0.10490418
000390 04 57 8e 3d 44 6e 16 be 81 69 1a 3d b2 3b ad bd
       0.06950191 -0.146905 0.037698273 -0.084586516
0003a0 8e ec b0 bd 80 d3 ab 3d 1f f1 de ba 09 63 36 3e
       -0.08638869 0.0838995 -0.0017009116 0.17811216
0003b0 78 24 33 3d 04 d7 c7 3c 50 bf 58 3d 9b 72 16 3d
       0.04373595 0.02439452 0.052916825 0.03673039
0003c0 41 2b 8c bd 46 40 a9 bd 7a 2a 9e bd fc 29 8f 3c
       -0.068441875 -0.08264212 -0.077229455 0.017476074
0003d0 a7 ff d7 3d 10 e1 4b bd 7a ae 36 3e 6e 35 f1 bd
       0.10546809 -0.049775183 0.17839995 -0.11777769
0003e0 50 eb bd 3d 51 4d f7 bd 46 24 1b be 3e 14 9a 3d
       0.09273398 -0.12075294 -0.15150556 0.07523392
0003f0 07 05 e4 3d 01 08 8c bd 2c 31 8e bc c1 98 22 be
       0.111337714 -0.06837464 -0.017357431 -0.15878583

l1.weight_rho f4 [120, 29]
000000 91 ef 38 c0 71 e1 34 c0 54 b8 42 c0 cc 81 40 c0
       -2.889622 -2.8262599 -3.0425005 -3.0079222
000010 74 3d 43 c0 15 5a 3d c0 ed d2 40 c0 96 3d 35 c0
       -3.0506258 -2.9586232 -3.012874 -2.831884
000020 b9 80 42 c0 de 55 3e c0 27 73 3a c0 4f 4f 40 c0
       -3.0391066 -2.973991 -2.9132783 -3.0048406
000030 bb 28 3a c0 3f 7a 3e c0 db 98 41 c0 fd 6d 37 c0
       -2.908736 -2.9762113 -3.0249546 -2.8660882
000040 14 59 3c c0 af 2f 34 c0 90 a7 44 c0 f8 9b 35 c0
       -2.942937 -2.8154104 -3.0727272 -2.8376446
000050 f3 b3 3a c0 4f 6c 38 c0 38 d7 3a c0 c2 f8 34 c0
       -2.9172332 -2.8816106 -2.919386 -2.827683
000060 01 dc 3e c0 18 8b 37 c0 73 b0 42 c0 bf dc 36 c0
       -2.982178 -2.8678646 -3.0420196 -2.8572233
000070 2f 49 45 c0 e8 fa 30 c0 16 f4 40 c0 27 04 41 c0
       -3.0825918 -2.765314 -3.0148978 -3.0158784
000080 ec 11 41 c0 7a c2 40 c0 a6 f3 3f c0 a7 b9 3f c0
       -3.0167189 -3.01187 -2.9992461 -2.9957063
000090 e2 3e 38 c0 8e 31 3f c0 fa 2a 38 c0 b2 87 3d c0
       -2.878838 -2.9873996 -2.877623 -2.9614072
0000a0 e3 e3 3d c0 57 a8 3c c0 f6 e9 43 c0 8d 09 3a c0
       -2.967034 -2.9477746 -3.0611548 -2.906833
0000b0 62 cf 37 c0 f3 5b 39 c0 da f5 3c c0 39 13 3f c0
       -2.8720326 -2.8962371 -2.9525056 -2.9855483
0000c0 54 bb 39 c0 f2 9c 42 c0 9d e8 4b c0 bc 99 44 c0
       -2.9020586 -3.0408292 -3.1860726 -3.0718832
0000d0 30 6c 45 c0 a6 e7 3a c0 43 4c 4b c0 12 dd 3e c0
       -3.0847282 -2.9203887 -3.1765296 -2.982243
0000e0 fc 1b 47 c0 fb 0e 36 c0 eb 2f 47 c0 4c fa 42 c0
       -3.111083 -2.8446643 -3.1122997 -3.046527
0000f0 0d 20 3e c0 cf 30 3f c0 b9 c6 38 c0 4b 64 47 c0
       -2.9707062 -2.987354 -2.887129 -3.1154964
000100 fb ff 3a c0 de 00 44 c0 5e 85 46 c0 46 be 3f c0
       -2.9218738 -3.062553 -3.10189 -2.9959884
000110 2b f8 3b c0 21 16 40 c0 fa 08 47 c0 72 13 37 c0
       -2.937022 -3.0013506 -3.109923 -2.8605618
000120 44 e0 3a c0 b9 61 47 c0 3f 8d 42 c0 6e 8c 42 c0
       -2.919938 -3.1153395 -3.039871 -3.0398211
000130 bb e0 33 c0 1b af 3c c0 46 25 3b c0 6d fb 3a c0
       -2.8105915 -2.9481876 -2.92415 -2.9215958
000140 f8 1b 3f c0 0b ba 37 c0 a9 c9 4b c0 bb 0d 3d c0
       -2.986082 -2.8707302 -3.1841834 -2.953963
000150 66 f6 45 c0 ee df 3c c0 2f a3 43 c0 e1 a5 39 c0
       -3.093164 -2.9511676 -3.056835 -2.9007494
000160 6a e3 41 c0 5a 98 4b c0 c7 03 34 c0 06 c7 38 c0
       -3.0295053 -3.1811738 -2.8127306 -2.8871474
000170 25 b2 40 c0 7e a7 3b c0 f8 cf 3f c0 7a c5 3f c0
       -3.010873 -2.932098 -2.9970684 -2.996428
000180 61 e0 42 c0 47 4a 3c c0 d8 8a 4a c0 28 61 3c c0
       -3.044945 -2.9420335 -3.1647243 -2.94343
000190 01 2f 43 c0 90 9b 37 c0 53 4a 43 c0 3a 0d 44 c0
       -3.049744 -2.8688698 -3.0514114 -3.0633073
0001a0 83 7f 3c c0 31 14 42 c0 2e 38 43 c0 c6 b0 4a c0
       -2.9452827 -3.0324824 -3.050304 -3.1670394
0001b0 12 c4 3a c0 a5 06 42 c0 fc 20 3c c0 57 92 3e c0
       -2.9182172 -3.0316556 -2.9395132 -2.9776819
0001c0 04 c6 4c c0 35 e4 3e c0 a6 c4 46 c0 fc d9 44 c0
       -3.199586 -2.9826787 -3.1057525 -3.0758047
0001d0 43 dd 3e c0 79 61 3b c0 89 7e 3e c0 b9 6d 40 c0
       -2.9822547 -2.9278243 -2.976473 -3.006697
0001e0 20 ef 39 c0 0b 7c 3c c0 09 25 3e c0 68 17 3d c0
       -2.90522 -2.945071 -2.9710104 -2.9545536
0001f0 03 aa 44 c0 61 78 37 c0 2f b6 44 c0 98 40 34 c0
       -3.0728767 -2.8667223 -3.0736196 -2.8164425
000200 e1 8b 42 c0 59 41 35 c0 8a 60 41 c0 63 44 48 c0
       -3.0397875 -2.8321135 -3.0215173 -3.129174
000210 cf 95 3a c0 71 be 38 c0 ea 18 34 c0 3d 2d 3d c0
       -2.9153936 -2.8866236 -2.8140206 -2.9558861
000220 bb b1 30 c0 ab a7 3f c0 ab d4 43 c0 69 e6 45 c0
       -2.7608478 -2.9946086 -3.0598552 -3.0921881
000230 3b 9f 3c c0 17 1b 44 c0 25 5c 49 c0 e4 d0 49 c0
       -2.9472187 -3.0641534 -3.146249 -3.1533747
000240 ef 48 3c c0 6f d4 38 c0 00 22 4d c0 75 e1 3d c0
       -2.9419515 -2.887966 -3.2052002 -2.9668858
000250 69 ac 3d c0 4d 2f 41 c0 bc d5 3f c0 21 05 3b c0
       -2.963648 -3.018512 -2.9974203 -2.922188
000260 5f 33 45 c0 ae 9a 3b c0 30 3a 3e c0 f1 79 41 c0
       -3.0812604 -2.931316 -2.9723015 -3.0230677
000270 01 91 3a c0 4b 9a 42 c0 df a6 44 c0 d1 73 3c c0
       -2.9151003 -3.0406673 -3.072685 -2.9445689
000280 8c d2 4a c0 c4 b8 3e c0 60 9e 3e c0 cf 95 40 c0
       -3.1691008 -2.9800272 -2.9784164 -3.0091436
000290 b3 83 3e c0 b4 dd 36 c0 57 bd 41 c0 91 30 3e c0
       -2.9767883 -2.8572817 -3.0271814 -2.9717143
0002a0 db 8b 44 c0 a8 2b 3d c0 4d c9 36 c0 3d 46 48 c0
       -3.071036 -2.9557896 -2.8560364 -3.129287
0002b0 15 87 45 c0 fc 79 41 c0 d2 90 41 c0 df 70 3c c0
       -3.0863698 -3.0230703 -3.0244641 -2.944389
0002c0 c8 fa 42 c0 bc ef 40 c0 18 0a 39 c0 08 1e 3a c0
       -3.0465565 -3.0146322 -2.891241 -2.908083
0002d0 fa a5 3e c0 1f e5 38 c0 e3 6d 46 c0 34 fb 3f c0
       -2.9788804 -2.8889844 -3.100457 -2.9997072
0002e0 c3 00 36 c0 7c 64 39 c0 cc ef 51 c0 91 56 47 c0
       -2.8437965 -2.896758 -3.280261 -3.1146586
0002f0 b9 9e 3a c0 44 ba 48 c0 2a 4d 3e c0 42 6e 32 c0
       -2.9159377 -3.1363688 -2.9734597 -2.7879796
000300 18 f4 3c c0 a1 dc 43 c0 3c 8f 40 c0 79 df 4a c0
       -2.9523983 -3.0603411 -3.0087423 -3.1698897
000310 21 bb 3c c0 e0 2f 3e c0 83 29 42 c0 57 e3 4a c0
       -2.9489214 -2.971672 -3.0337837 -3.1701257
000320 0b b8 47 c0 ea 55 3f c0 28 11 43 c0 ef 42 3a c0
       -3.120608 -2.9896188 -3.0479221 -2.9103353
000330 12 b1 40 c0 87 6f 3a c0 eb 4b 4c c0 3d 47 2f c0
       -3.0108075 -2.913057 -3.1921337 -2.738723
000340 3d 39 3b c0 7a 14 4a c0 21 b0 41 c0 69 6a 4b c0
       -2.9253685 -3.1574998 -3.026375 -3.1783698
000350 ba cc 3e c0 4f 16 3e c0 2a 1b 41 c0 63 77 35 c0
       -2.9812455 -2.9701116 -3.017283 -2.8354118
000360 67 10 3a c0 0f 1c 39 c0 7d 10 3f c0 ea 0f 38 c0
       -2.9072511 -2.8923376 -2.9853814 -2.8759713
000370 18 43 38 c0 2a d1 3b c0 80 72 3d c0 17 d6 41 c0
       -2.879095 -2.9346414 -2.9601135 -3.028692
000380 8d c8 34 c0 ac 4e 3c c0 ee f8 41 c0 ba c1 45 c0
       -2.8247406 -2.9423018 -3.0308185 -3.0899491
000390 cd d2 42 c0 91 72 3b c0 ef 7d 43 c0 2b ef 45 c0
       -3.0441163 -2.9288676 -3.0545614 -3.0927227
0003a0 80 a5 3d c0 f5 d3 48 c0 ac f7 3c c0 57 d5 46 c0
       -2.9632263 -3.1379368 -2.9526167 -3.1067712
0003b0 bb 5b 40 c0 d1 73 4e c0 b3 cd 34 c0 55 73 3b c0
       -3.0055988 -3.2258189 -2.825055 -2.9289143
0003c0 cf a6 34 c0 e2 12 43 c0 b9 44 41 c0 e1 19 48 c0
       -2.8226812 -3.0480275 -3.0198195 -3.1265795
0003d0 09 44 42 c0 3b 69 3f c0 97 8d 41 c0 90 c3 3a c0
       -3.0354025 -2.9907978 -3.024267 -2.9181862
0003e0 bb 7c 3c c0 5f 95 37 c0 f6 fa 39 c0 52 9a 45 c0
       -2.945113 -2.868492 -2.9059424 -3.087544
0003f0 ba 61 3d c0 36 53 39 c0 c8 df 3a c0 42 c2 3d c0
       -2.9590898 -2.8957038 -2.9199085 -2.9649816

l1.bias_mu f4 [120]
000000 a2 38 b5 3d 0f dd c8 bd c9 1c 8e 3d dc b4 35 be
       0.088486925 -0.098077886 0.06939084 -0.17744774
000010 5a 91 8e bd 45 1a 7b 3d 49 88 12 be b8 67 18 be
       -0.06961317 0.06130435 -0.14309801 -0.14883316
000020 59 b6 c5 bd 0f 19 da bd 27 8e df 3c 24 43 b4 bd
       -0.09653921 -0.10649311 0.027289463 -0.088018686
000030 7a 24 18 bb 84 36 8a bc 22 3c 11 be 4f b2 c9 3d
       -0.00232151 -0.016871698 -0.14183095 0.09848463
000040 39 5f 0b bd a9 b1 73 bd 70 18 a2 bc 68 c9 cf bd
       -0.03402636 -0.0594956 -0.019787043 -0.10145837
000050 0a 66 06 3e a8 b1 0f be e9 58 4f be 7a 99 e4 bc
       0.13124862 -0.14032614 -0.2024876 -0.027905215
000060 fb e2 30 3e 2e b2 b5 3c 75 ac 90 3d 0b ce 74 bc
       0.17274086 0.02217969 0.070641436 -0.014941703
000070 a8 63 7f bd 4e 9d f9 bc a9 63 7c bb de 8e 3f bd
       -0.0623509 -0.030470517 -0.003851155 -0.04676711
000080 0e 99 87 be 83 d5 51 be f0 80 d9 3c aa a2 0e 3d
       -0.2648396 -0.20491605 0.02655074 0.034823097
000090 76 44 72 bd 68 85 da bd e7 50 ed bd 74 88 c2 3c
       -0.05914732 -0.106699765 -0.115876965 0.023746707
0000a0 21 ee 68 3c 8a 69 87 3d d3 6c c4 3d 46 50 1d bd
       0.014216931 0.06611927 0.09591069 -0.038406633
0000b0 1d 12 8d bd 02 bd 6f 3e 09 80 94 3d 54 55 9e bd
       -0.068882205 0.23411945 0.07250983 -0.07731119
0000c0 d3 9f dd 3d 91 30 86 bc e5 00 a2 3b ae cb 82 bc
       0.108215 -0.01638058 0.0049439543 -0.015966263
0000d0 a5 06 06 3e dd fc 7d 3d 56 46 e5 bc 5b 82 ad 3c
       0.13088472 0.062008727 -0.02798764 0.021180322
0000e0 b4 2a 0d 3d 3e 02 48 bc b7 d9 8a 3d 38 46 e1 bd
       0.034464553 -0.012207566 0.06779807 -0.10999721
0000f0 3c 30 ad bc 2b 1a 8b bd 04 b8 1c 3e ff fa 92 3d
       -0.021141164 -0.067921005 0.15304571 0.0717678
000100 db d6 a2 bc 0b 6f 97 bd 70 c5 13 bc f7 e3 dd bd
       -0.019877842 -0.07394227 -0.009019241 -0.108344965
000110 c5 47 15 3d 20 c2 50 3d 9c a0 d7 bd 6d 41 ec bd
       0.036445398 0.050966382 -0.10528681 -0.115359165
000120 b5 fb c0 bc fd ed 9e bd 01 6a f8 3d 06 2b f0 bd
       -0.023557523 -0.077602364 0.12129594 -0.11726956
000130 13 ce 37 3e 4d a6 28 3e 00 f2 05 3e ef 31 43 be
       0.17949705 0.16469689 0.13080597 -0.19062017
000140 49 c5 ce bc cd f3 96 bd 9e ed 11 3e 28 07 d3 bc
       -0.025240557 -0.0737072 0.142508 -0.025760248
000150 07 97 4c 3e 77 3a c0 bd cb 58 91 bd 0b 81 7f 3d
       0.19979487 -0.09386151 -0.07097014 0.062378924
000160 41 cc da bd 3b 81 80 bc ba de df bd 3a 0c eb bd
       -0.106834896 -0.015686622 -0.109311536 -0.114769414
000170 81 54 22 3e 8a 3c fc bb bc 41 4f 3d e0 ec 90 3d
       0.15852548 -0.0076976465 0.0505998 0.0707643
000180 e6 0f 87 bd ee 9e 0d be 78 e1 87 3d 42 f4 d0 3d
       -0.06594829 -0.13830158 0.066348016 0.102028385
000190 dc 0f a4 bd 7c 0d 27 bd 62 eb 3d 3e 67 d2 9e bd
       -0.080108374 -0.040784344 0.18546823 -0.07754975
0001a0 5f 90 f2 3d 30 e6 34 3e 30 a7 ba 3c f6 35 5a 3d
       0.11843943 0.17665935 0.0227848 0.053274117
0001b0 d6 3c 42 3c 8f 50 d0 3c a2 c9 ce 3d 26 d3 e9 bd
       0.011855325 0.025429038 0.10097052 -0.114172265
0001c0 c4 40 c3 3d ef b5 b4 bd 1a d7 86 3c d1 9f e5 3c
       0.095338374 -0.088237636 0.01645999 0.028030308
0001d0 98 66 7c 3c 12 6a 8b 3b f9 69 51 3e ff 98 d7 3c
       0.01540532 0.004254588 0.20450582 0.026318071

l1.bias_rho f4 [120]
000000 fa 94 3d c0 2b f2 39 c0 b9 50 41 c0 f4 1a 3f c0
       -2.9622178 -2.9054058 -3.020552 -2.98602
000010 27 b7 43 c0 f4 7e 41 c0 9a a2 41 c0 ac bb 40 c0
       -3.0580537 -3.0233736 -3.0255494 -3.0114546
000020 f2 4e 47 c0 f1 23 3a c0 cd 18 42 c0 7c 21 4b c0
       -3.1141934 -2.9084437 -3.0327637 -3.1739187
000030 1b a9 44 c0 1b f2 3c c0 e7 97 40 c0 20 ac 44 c0
       -3.0728214 -2.952277 -3.0092714 -3.0730057
000040 7c 88 42 c0 69 27 3f c0 69 8b 4c c0 9b 3e 3f c0
       -3.0395803 -2.9867804 -3.196009 -2.9881961
000050 0d fa 46 c0 ac 12 44 c0 f2 ea 34 c0 bc 09 41 c0
       -3.109012 -3.0636396 -2.82684 -3.0162191
000060 5d 68 37 c0 ca b4 43 c0 17 8f 4b c0 79 7e 40 c0
       -2.8657448 -3.0579095 -3.1806085 -3.0077193
000070 0f 32 42 c0 29 a5 3c c0 02 4c 41 c0 37 44 45 c0
       -3.0343053 -2.9475806 -3.0202641 -3.0822885
000080 62 ac 4f c0 b1 52 45 c0 ec 72 37 c0 64 8f 43 c0
       -3.2448964 -3.083172 -2.8663893 -3.0556269
000090 8a 69 3f c0 bf e3 3a c0 19 84 35 c0 15 3f 45 c0
       -2.9908166 -2.9201505 -2.8361876 -3.0819752
0000a0 88 6c 44 c0 f8 d9 39 c0 5b 27 46 c0 5e 23 43 c0
       -3.0691242 -2.9039288 -3.096152 -3.0490336
0000b0 73 17 4b c0 41 e3 3b c0 8f 47 50 c0 29 36 3e c0
       -3.1733062 -2.9357455 -3.2543676 -2.9720557
0000c0 76 86 4d c0 0f 52 3e c0 c6 3d 37 c0 36 11 43 c0
       -3.2113318 -2.9737585 -2.8631454 -3.0479255
0000d0 78 a3 41 c0 72 0e 47 c0 e1 d1 4d c0 1b 5c 37 c0
       -3.0256023 -3.1102567 -3.215935 -2.8649967
0000e0 e6 ec 4c c0 f8 b6 38 c0 c3 53 47 c0 2f 8b 38 c0
       -3.2019591 -2.8861675 -3.1144874 -2.883495
0000f0 5b 8c 44 c0 b1 da 45 c0 3c 0f 38 c0 d4 57 39 c0
       -3.0710666 -3.0914729 -2.8759298 -2.8959856
000100 84 cc 41 c0 b2 8d 3d c0 3c bf 37 c0 42 a7 3f c0
       -3.0281076 -2.9617734 -2.871047 -2.9945836
000110 e4 b4 33 c0 87 7a 37 c0 19 1f 3e c0 c6 79 44 c0
       -2.8079157 -2.8668535 -2.970648 -3.0699325
000120 90 11 25 c0 82 5e 3a c0 96 b3 40 c0 d4 b1 43 c0
       -2.579197 -2.9120183 -3.010961 -3.0577288
000130 44 0d 38 c0 93 e8 39 c0 3c 67 47 c0 e1 04 41 c0
       -2.8758097 -2.9048202 -3.115676 -3.0159228
000140 90 20 4c c0 29 54 3e c0 23 3e 4a c0 99 cc 38 c0
       -3.1894875 -2.9738867 -3.1600425 -2.8874876
000150 0f 9b 3b c0 73 dd 43 c0 6c 6a 42 c0 5f dd 3b c0
       -2.931339 -3.0603912 -3.0377455 -2.9353864
000160 1a 1c 3f c0 73 68 38 c0 0b 10 42 c0 a1 b0 3b c0
       -2.9860902 -2.881375 -3.0322292 -2.9326556
000170 a1 15 35 c0 a3 af 43 c0 f3 50 44 c0 35 85 41 c0
       -2.8294451 -3.057595 -3.0674407 -3.0237553
000180 b1 46 3c c0 ea 15 3f c0 97 ab 3b c0 0b 1a 3f c0
       -2.9418147 -2.9857125 -2.932348 -2.9859645
000190 0b 84 3a c0 74 d9 3e c0 6e 59 46 c0 e4 81 3f c0
       -2.9143093 -2.9820223 -3.0992084 -2.992303
0001a0 b8 1d 37 c0 f4 ee 34 c0 b4 cb 48 c0 53 42 41 c0
       -2.861189 -2.8270845 -3.137433 -3.019673
0001b0 c8 26 3d c0 0f 31 32 c0 5f 9e 39 c0 d7 d9 43 c0
       -2.955492 -2.7842443 -2.9002912 -3.060171
0001c0 11 b5 40 c0 9f dc 3f c0 9d 04 48 c0 9f c2 43 c0
       -3.0110514 -2.9978406 -3.1252816 -3.0587537
0001d0 75 de 4c c0 bf e4 43 c0 b8 e9 46 c0 c4 1d 44 c0
       -3.2010777 -3.0608366 -3.108015 -3.0643167

l1.weight.mu f4 [120, 29]
000000 ea 1f a2 3e da 93 13 3e a4 6b e9 3d 23 4c ce 3c
       0.31664973 0.1441187 0.11397484 0.02518279
000010 4b f4 18 bb 57 41 41 3e 02 2d 42 3c 36 e0 d5 bd
       -0.002333897 0.18872581 0.011851551 -0.104431555
000020 83 f8 84 3c dd cd 1c 3e 4d bd 38 3d 93 b3 28 3e
       0.01623178 0.15312906 0.045102406 0.16474752
000030 82 fc bb bd 15 94 97 3d 62 95 18 3e 4f 67 25 bd
       -0.091790214 0.07401291 0.14900735 -0.040381726
000040 04 d2 3b 3e 08 2a e3 bd 05 f5 20 bb b1 2f 7a bb
       0.18341833 -0.11092001 -0.0024560106 -0.00381754
000050 d4 60 32 3d e6 ba 58 3e c7 98 43 3e 27 29 9d bb
       0.043549374 0.21165046 0.19101249 -0.0047961655
000060 8b 32 a6 3d 79 52 a4 3d 9a 99 09 bc 5a 0e ed bd
       0.08115109 0.08023543 -0.008398438 -0.11575003
000070 43 8f 6a 3e 8d ec 7d 3c ec 3d 2d 3e 2c 65 45 3d
       0.22906213 0.015498293 0.16918153 0.04819219
000080 e7 9c 74 3d 90 64 85 bd 36 a7 ee 3d 80 7a 11 bd
       0.059719946 -0.065133214 0.11652987 -0.035517216
000090 f0 db 9a 3d b0 d5 e0 bd c8 14 be bd ba 82 db bd
       0.07561481 -0.10978258 -0.092813075 -0.107182935
0000a0 b2 86 fb 3b 0a 66 b0 bb d1 0a a7 3c 3a 7c 36 3e
       0.007675969 -0.0053832578 0.0203909 0.17820826
0000b0 0e ff 88 3d 44 b5 98 3d 65 85 a5 bd 47 05 a6 bd
       0.06689273 0.07456449 -0.080820836 -0.08106475
0000c0 e7 34 b9 3d da 57 06 be 41 4b ab 3a 16 5f 2f 3d
       0.090432934 -0.1311945 0.0013068692 0.04281529
0000d0 4f e2 49 bd d1 a3 2f bb f0 b3 64 3c 40 8d 37 3e
       -0.04928809 -0.0026800523 0.013958916 0.17924976
0000e0 90 ff af bd 06 02 fc bd f5 ba 2a 3d cd f5 25 be
       -0.085936666 -0.123050734 0.041682202 -0.16207047
0000f0 01 d7 71 3d 33 11 61 bd 86 db 84 bd b1 0d 98 3d
       0.059042934 -0.054948043 -0.06487183 0.074244864
000100 e5 b3 dd bc 17 98 d6 3c 73 52 10 3e 4a e6 a7 bc
       -0.02706332 0.026195569 0.14093952 -0.020495553
000110 fb 8e 47 bd 9c de f7 bd dd eb b0 bc cf 38 f2 3d
       -0.04872034 -0.12103006 -0.021596843 0.11827242
000120 28 83 0f 3e 9f 73 2b be 5b fe de bd 72 d2 a7 3c
       0.14014876 -0.16743325 -0.10888358 0.02048609
000130 05 d8 5d 3d 26 95 89 3d b5 5e bf bd 59 b1 7a 3c
       0.05416109 0.06717901 -0.09344236 0.015301072
000140 74 d4 2b 3e 93 1a 8f bd 78 75 bb bc 11 33 f6 bd
       0.16780263 -0.069874905 -0.022883162 -0.12021459
000150 0f 58 3e be 89 f2 b2 bd d9 0e f7 bb a2 ae e5 bd
       -0.18588279 -0.08737666 -0.007539612 -0.11214949
000160 f7 c8 4f be f7 c7 6b 3d 46 87 02 3e c6 e5 92 bd
       -0.20291506 0.05756375 0.12746915 -0.07172732
000170 ac cd 52 3d 10 8b 78 3a ed 03 06 be 59 ff 4a 3e
       0.051465675 0.0009481171 -0.13087435 0.1982397
000180 a6 b4 88 3d 50 37 bd bd b6 68 92 3d df 19 a5 bc
       0.06675081 -0.09239066 0.07148878 -0.020153938
000190 6d ee 5e 3d 24 30 ad 3c d8 d3 08 bd 01 55 c8 3d
       0.0544266 0.02114112 -0.033405155 0.09781838
0001a0 a2 2e 0d be b1 60 73 bb 9b a4 9d bd 81 9e 2e 3d
       -0.1378732 -0.003713649 -0.076974116 0.04263163
0001b0 05 a6 f8 bd 82 37 3a 3c 1f 72 97 ba 6f 6f b1 3d
       -0.12141041 0.011365773 -0.0011554396 0.086638324
0001c0 a8 a1 0e 3e 3b f4 ba bd dc f1 c6 bd be c0 cc bd
       0.13928854 -0.091286145 -0.097141 -0.099977
0001d0 31 42 15 3e 8a c3 b5 3c 79 44 02 3e 0e 08 13 3e
       0.14576031 0.022187967 0.12721433 0.14358541
0001e0 41 32 1f 3d 48 67 2a bd 3d 5a 14 3e 8e be 72 3c
       0.038866285 -0.041602403 0.14487548 0.01481594
0001f0 d3 35 85 bb 30 e4 0e 3e f3 67 e8 3d ee dd 02 3e
       -0.0040652542 0.13954234 0.11347952 0.12779972
000200 f7 74 28 be 2d ee 86 3e 60 ac 2e bd 89 7e 69 bd
       -0.16450869 0.2635359 -0.04264486 -0.05700544
000210 5d 48 4e 3c 7f a4 a6 bd e0 d2 71 3d 96 6b 0c 3e
       0.012590495 -0.08136844 0.059038997 0.13712916
000220 d9 79 eb 3c b6 73 48 bd 45 77 ec b9 fc f5 b4 3c
       0.028744625 -0.048938476 -0.0004510229 0.02208995
000230 73 7f 00 be 9f 22 87 3e 85 b0 ce bc 42 96 72 bc
       -0.12548618 0.263936 -0.025230655 -0.014806332
000240 76 bb c0 bd e5 7c 25 3d 7c 23 6c bd 72 c4 44 3c
       -0.09410755 0.04040231 -0.057651028 0.012009727
000250 b1 7a 3c 3e 6b 89 bf 3c fb 27 2f 3d 8d bf 4b be
       0.18406178 0.023380956 0.042762738 -0.1989729
000260 5b ca 20 3e ce 57 43 3d 5a 53 08 3d 41 0b 3c be
       0.15702192 0.04769116 0.033282615 -0.18363668
000270 8c e9 9a 3c 81 32 76 3c d7 74 17 3d 63 c9 d1 3b
       0.018910192 0.0150266895 0.03697666 0.006402181
000280 f5 fa f4 3c 96 69 40 3d f4 99 99 bd a1 68 34 bd
       0.029904822 0.046975695 -0.07500067 -0.044045094
000290 1a 85 99 3b f7 97 9e 3d 01 e7 f0 bc 6a 78 a8 3d
       0.0046850564 0.07743829 -0.029407026 0.08226092
0002a0 20 91 b6 be bd 42 49 bd 02 ea b7 bc 35 d6 1a be
       -0.35657597 -0.049135912 -0.02245045 -0.15120776
0002b0 bb 0d 8d bd a2 14 1f 3d 58 40 ac bc b1 a5 27 3d
       -0.068873845 0.038838036 -0.021026775 0.0409295
0002c0 58 c2 1f be 4e 51 20 3d bb 01 22 3d b6 7a 16 be
       -0.1560148 0.03914004 0.03955243 -0.14695248
0002d0 e9 c2 a3 3d 5d f2 17 be 5b 84 06 3e fe 7a f8 3d
       0.079961605 -0.14838548 0.13136427 0.12132834
0002e0 a3 73 db bc 8d 4b 9b bb d4 a2 47 3e 82 d4 c2 3c
       -0.026788538 -0.004739231 0.19495708 0.023782972
0002f0 d3 3d 80 be 84 65 eb 3d 78 82 2f be 35 2c 89 bd
       -0.25047168 0.11493972 -0.17139614 -0.06697885
000300 bf 20 9e bc ae 7a ca 3d 73 35 84 3d 59 d6 7b bd
       -0.019302724 0.098866805 0.06455507 -0.061483715
000310 17 d0 a3 bd 3a ef 88 bd df 57 12 be 86 8d f1 3c
       -0.07998674 -0.06686254 -0.14291333 0.029486429
000320 e2 a9 b8 3d cb c0 22 3d 31 c6 e4 3d 87 68 b8 3d
       0.090167776 0.039734643 0.111706145 0.09004312
000330 4d 46 00 3d a0 e9 f7 bd eb 22 6d 3d 36 76 96 be
       0.031317044 -0.12105107 0.05789463 -0.29387063
000340 7d 80 af 3d dc af b9 3d 7e 71 d7 3c 16 78 16 bc
       0.08569429 0.09066746 0.026299234 -0.009183904
000350 ff 27 ed bd fd 25 36 3d a5 3e 1b be 9e d5 3c be
       -0.11579894 0.044469822 -0.15160616 -0.18440863
000360 29 6a e7 bc d2 31 30 3d bc de a1 bd a9 5f 26 be
       -0.028248863 0.043016262 -0.07903811 -0.16247429
000370 75 d9 b3 bd 52 a1 8e bd 84 75 cc bd f7 2c db 3c
       -0.08781711 -0.06964363 -0.09983352 0.02675484
000380 16 f2 42 3e eb f7 b1 bd 5d ed 10 3e 01 d8 d6 3d
       0.19037661 -0.08689865 0.14153047 0.10490418
000390 04 57 8e 3d 44 6e 16 be 81 69 1a 3d b2 3b ad bd
       0.06950191 -0.146905 0.037698273 -0.084586516
0003a0 8e ec b0 bd 80 d3 ab 3d 1f f1 de ba 09 63 36 3e
       -0.08638869 0.0838995 -0.0017009116 0.17811216
0003b0 78 24 33 3d 04 d7 c7 3c 50 bf 58 3d 9b 72 16 3d
       0.04373595 0.02439452 0.052916825 0.03673039
0003c0 41 2b 8c bd 46 40 a9 bd 7a 2a 9e bd fc 29 8f 3c
       -0.068441875 -0.08264212 -0.077229455 0.017476074
0003d0 a7 ff d7 3d 10 e1 4b bd 7a ae 36 3e 6e 35 f1 bd
       0.10546809 -0.049775183 0.17839995 -0.11777769
0003e0 50 eb bd 3d 51 4d f7 bd 46 24 1b be 3e 14 9a 3d
       0.09273398 -0.12075294 -0.15150556 0.07523392
0003f0 07 05 e4 3d 01 08 8c bd 2c 31 8e bc c1 98 22 be
       0.111337714 -0.06837464 -0.017357431 -0.15878583

l1.weight.rho f4 [120, 29]
000000 91 ef 38 c0 71 e1 34 c0 54 b8 42 c0 cc 81 40 c0
       -2.889622 -2.8262599 -3.0425005 -3.0079222
000010 74 3d 43 c0 15 5a 3d c0 ed d2 40 c0 96 3d 35 c0
       -3.0506258 -2.9586232 -3.012874 -2.831884
000020 b9 80 42 c0 de 55 3e c0 27 73 3a c0 4f 4f 40 c0
       -3.0391066 -2.973991 -2.9132783 -3.0048406
000030 bb 28 3a c0 3f 7a 3e c0 db 98 41 c0 fd 6d 37 c0
       -2.908736 -2.9762113 -3.0249546 -2.8660882
000040 14 59 3c c0 af 2f 34 c0 90 a7 44 c0 f8 9b 35 c0
       -2.942937 -2.8154104 -3.0727272 -2.8376446
000050 f3 b3 3a c0 4f 6c 38 c0 38 d7 3a c0 c2 f8 34 c0
       -2.9172332 -2.8816106 -2.919386 -2.827683
000060 01 dc 3e c0 18 8b 37 c0 73 b0 42 c0 bf dc 36 c0
       -2.982178 -2.8678646 -3.0420196 -2.8572233
000070 2f 49 45 c0 e8 fa 30 c0 16 f4 40 c0 27 04 41 c0
       -3.0825918 -2.765314 -3.0148978 -3.0158784
000080 ec 11 41 c0 7a c2 40 c0 a6 f3 3f c0 a7 b9 3f c0
       -3.0167189 -3.01187 -2.9992461 -2.9957063
000090 e2 3e 38 c0 8e 31 3f c0 fa 2a 38 c0 b2 87 3d c0
       -2.878838 -2.9873996 -2.877623 -2.9614072
0000a0 e3 e3 3d c0 57 a8 3c c0 f6 e9 43 c0 8d 09 3a c0
       -2.967034 -2.9477746 -3.0611548 -2.906833
0000b0 62 cf 37 c0 f3 5b 39 c0 da f5 3c c0 39 13 3f c0
       -2.8720326 -2.8962371 -2.9525056 -2.9855483
0000c0 54 bb 39 c0 f2 9c 42 c0 9d e8 4b c0 bc 99 44 c0
       -2.9020586 -3.0408292 -3.1860726 -3.0718832
0000d0 30 6c 45 c0 a6 e7 3a c0 43 4c 4b c0 12 dd 3e c0
       -3.0847282 -2.9203887 -3.1765296 -2.982243
0000e0 fc 1b 47 c0 fb 0e 36 c0 eb 2f 47 c0 4c fa 42 c0
       -3.111083 -2.8446643 -3.1122997 -3.046527
0000f0 0d 20 3e c0 cf 30 3f c0 b9 c6 38 c0 4b 64 47 c0
       -2.9707062 -2.987354 -2.887129 -3.1154964
000100 fb ff 3a c0 de 00 44 c0 5e 85 46 c0 46 be 3f c0
       -2.9218738 -3.062553 -3.10189 -2.9959884
000110 2b f8 3b c0 21 16 40 c0 fa 08 47 c0 72 13 37 c0
       -2.937022 -3.0013506 -3.109923 -2.8605618
000120 44 e0 3a c0 b9 61 47 c0 3f 8d 42 c0 6e 8c 42 c0
       -2.919938 -3.1153395 -3.039871 -3.0398211
000130 bb e0 33 c0 1b af 3c c0 46 25 3b c0 6d fb 3a c0
       -2.8105915 -2.9481876 -2.92415 -2.9215958
000140 f8 1b 3f c0 0b ba 37 c0 a9 c9 4b c0 bb 0d 3d c0
       -2.986082 -2.8707302 -3.1841834 -2.953963
000150 66 f6 45 c0 ee df 3c c0 2f a3 43 c0 e1 a5 39 c0
       -3.093164 -2.9511676 -3.056835 -2.9007494
000160 6a e3 41 c0 5a 98 4b c0 c7 03 34 c0 06 c7 38 c0
       -3.0295053 -3.1811738 -2.8127306 -2.8871474
000170 25 b2 40 c0 7e a7 3b c0 f8 cf 3f c0 7a c5 3f c0
       -3.010873 -2.932098 -2.9970684 -2.996428
000180 61 e0 42 c0 47 4a 3c c0 d8 8a 4a c0 28 61 3c c0
       -3.044945 -2.9420335 -3.1647243 -2.94343
000190 01 2f 43 c0 90 9b 37 c0 53 4a 43 c0 3a 0d 44 c0
       -3.049744 -2.8688698 -3.0514114 -3.0633073
0001a0 83 7f 3c c0 31 14 42 c0 2e 38 43 c0 c6 b0 4a c0
       -2.9452827 -3.0324824 -3.050304 -3.1670394
0001b0 12 c4 3a c0 a5 06 42 c0 fc 20 3c c0 57 92 3e c0
       -2.9182172 -3.0316556 -2.9395132 -2.9776819
0001c0 04 c6 4c c0 35 e4 3e c0 a6 c4 46 c0 fc d9 44 c0
       -3.199586 -2.9826787 -3.1057525 -3.0758047
0001d0 43 dd 3e c0 79 61 3b c0 89 7e 3e c0 b9 6d 40 c0
       -2.9822547 -2.9278243 -2.976473 -3.006697
0001e0 20 ef 39 c0 0b 7c 3c c0 09 25 3e c0 68 17 3d c0
       -2.90522 -2.945071 -2.9710104 -2.9545536
0001f0 03 aa 44 c0 61 78 37 c0 2f b6 44 c0 98 40 34 c0
       -3.0728767 -2.8667223 -3.0736196 -2.8164425
000200 e1 8b 42 c0 59 41 35 c0 8a 60 41 c0 63 44 48 c0
       -3.0397875 -2.8321135 -3.0215173 -3.129174
000210 cf 95 3a c0 71 be 38 c0 ea 18 34 c0 3d 2d 3d c0
       -2.9153936 -2.8866236 -2.8140206 -2.9558861
000220 bb b1 30 c0 ab a7 3f c0 ab d4 43 c0 69 e6 45 c0
       -2.7608478 -2.9946086 -3.0598552 -3.0921881
000230 3b 9f 3c c0 17 1b 44 c0 25 5c 49 c0 e4 d0 49 c0
       -2.9472187 -3.0641534 -3.146249 -3.1533747
000240 ef 48 3c c0 6f d4 38 c0 00 22 4d c0 75 e1 3d c0
       -2.9419515 -2.887966 -3.2052002 -2.9668858
000250 69 ac 3d c0 4d 2f 41 c0 bc d5 3f c0 21 05 3b c0
       -2.963648 -3.018512 -2.9974203 -2.922188
000260 5f 33 45 c0 ae 9a 3b c0 30 3a 3e c0 f1 79 41 c0
       -3.0812604 -2.931316 -2.9723015 -3.0230677
000270 01 91 3a c0 4b 9a 42 c0 df a6 44 c0 d1 73 3c c0
       -2.9151003 -3.0406673 -3.072685 -2.9445689
000280 8c d2 4a c0 c4 b8 3e c0 60 9e 3e c0 cf 95 40 c0
       -3.1691008 -2.9800272 -2.9784164 -3.0091436
000290 b3 83 3e c0 b4 dd 36 c0 57 bd 41 c0 91 30 3e c0
       -2.9767883 -2.8572817 -3.0271814 -2.9717143
0002a0 db 8b 44 c0 a8 2b 3d c0 4d c9 36 c0 3d 46 48 c0
       -3.071036 -2.9557896 -2.8560364 -3.129287
0002b0 15 87 45 c0 fc 79 41 c0 d2 90 41 c0 df 70 3c c0
       -3.0863698 -3.0230703 -3.0244641 -2.944389
0002c0 c8 fa 42 c0 bc ef 40 c0 18 0a 39 c0 08 1e 3a c0
       -3.0465565 -3.0146322 -2.891241 -2.908083
0002d0 fa a5 3e c0 1f e5 38 c0 e3 6d 46 c0 34 fb 3f c0
       -2.9788804 -2.8889844 -3.100457 -2.9997072
0002e0 c3 00 36 c0 7c 64 39 c0 cc ef 51 c0 91 56 47 c0
       -2.8437965 -2.896758 -3.280261 -3.1146586
0002f0 b9 9e 3a c0 44 ba 48 c0 2a 4d 3e c0 42 6e 32 c0
       -2.9159377 -3.1363688 -2.9734597 -2.7879796
000300 18 f4 3c c0 a1 dc 43 c0 3c 8f 40 c0 79 df 4a c0
       -2.9523983 -3.0603411 -3.0087423 -3.1698897
000310 21 bb 3c c0 e0 2f 3e c0 83 29 42 c0 57 e3 4a c0
       -2.9489214 -2.971672 -3.0337837 -3.1701257
000320 0b b8 47 c0 ea 55 3f c0 28 11 43 c0 ef 42 3a c0
       -3.120608 -2.9896188 -3.0479221 -2.9103353
000330 12 b1 40 c0 87 6f 3a c0 eb 4b 4c c0 3d 47 2f c0
       -3.0108075 -2.913057 -3.1921337 -2.738723
000340 3d 39 3b c0 7a 14 4a c0 21 b0 41 c0 69 6a 4b c0
       -2.9253685 -3.1574998 -3.026375 -3.1783698
000350 ba cc 3e c0 4f 16 3e c0 2a 1b 41 c0 63 77 35 c0
       -2.9812455 -2.9701116 -3.017283 -2.8354118
000360 67 10 3a c0 0f 1c 39 c0 7d 10 3f c0 ea 0f 38 c0
       -2.9072511 -2.8923376 -2.9853814 -2.8759713
000370 18 43 38 c0 2a d1 3b c0 80 72 3d c0 17 d6 41 c0
       -2.879095 -2.9346414 -2.9601135 -3.028692
000380 8d c8 34 c0 ac 4e 3c c0 ee f8 41 c0 ba c1 45 c0
       -2.8247406 -2.9423018 -3.0308185 -3.0899491
000390 cd d2 42 c0 91 72 3b c0 ef 7d 43 c0 2b ef 45 c0
       -3.0441163 -2.9288676 -3.0545614 -3.0927227
0003a0 80 a5 3d c0 f5 d3 48 c0 ac f7 3c c0 57 d5 46 c0
       -2.9632263 -3.1379368 -2.9526167 -3.1067712
0003b0 bb 5b 40 c0 d1 73 4e c0 b3 cd 34 c0 55 73 3b c0
       -3.0055988 -3.2258189 -2.825055 -2.9289143
0003c0 cf a6 34 c0 e2 12 43 c0 b9 44 41 c0 e1 19 48 c0
       -2.8226812 -3.0480275 -3.0198195 -3.1265795
0003d0 09 44 42 c0 3b 69 3f c0 97 8d 41 c0 90 c3 3a c0
       -3.0354025 -2.9907978 -3.024267 -2.9181862
0003e0 bb 7c 3c c0 5f 95 37 c0 f6 fa 39 c0 52 9a 45 c0
       -2.945113 -2.868492 -2.9059424 -3.087544
0003f0 ba 61 3d c0 36 53 39 c0 c8 df 3a c0 42 c2 3d c0
       -2.9590898 -2.8957038 -2.9199085 -2.9649816

l1.bias.mu f4 [120]
000000 a2 38 b5 3d 0f dd c8 bd c9 1c 8e 3d dc b4 35 be
       0.088486925 -0.098077886 0.06939084 -0.17744774
000010 5a 91 8e bd 45 1a 7b 3d 49 88 12 be b8 67 18 be
       -0.06961317 0.06130435 -0.14309801 -0.14883316
000020 59 b6 c5 bd 0f 19 da bd 27 8e df 3c 24 43 b4 bd
       -0.09653921 -0.10649311 0.027289463 -0.088018686
000030 7a 24 18 bb 84 36 8a bc 22 3c 11 be 4f b2 c9 3d
       -0.00232151 -0.016871698 -0.14183095 0.09848463
000040 39 5f 0b bd a9 b1 73 bd 70 18 a2 bc 68 c9 cf bd
       -0.03402636 -0.0594956 -0.019787043 -0.10145837
000050 0a 66 06 3e a8 b1 0f be e9 58 4f be 7a 99 e4 bc
       0.13124862 -0.14032614 -0.2024876 -0.027905215
000060 fb e2 30 3e 2e b2 b5 3c 75 ac 90 3d 0b ce 74 bc
       0.17274086 0.02217969 0.070641436 -0.014941703
000070 a8 63 7f bd 4e 9d f9 bc a9 63 7c bb de 8e 3f bd
       -0.0623509 -0.030470517 -0.003851155 -0.04676711
000080 0e 99 87 be 83 d5 51 be f0 80 d9 3c aa a2 0e 3d
       -0.2648396 -0.20491605 0.02655074 0.034823097
000090 76 44 72 bd 68 85 da bd e7 50 ed bd 74 88 c2 3c
       -0.05914732 -0.106699765 -0.115876965 0.023746707
0000a0 21 ee 68 3c 8a 69 87 3d d3 6c c4 3d 46 50 1d bd
       0.014216931 0.06611927 0.09591069 -0.038406633
0000b0 1d 12 8d bd 02 bd 6f 3e 09 80 94 3d 54 55 9e bd
       -0.068882205 0.23411945 0.07250983 -0.07731119
0000c0 d3 9f dd 3d 91 30 86 bc e5 00 a2 3b ae cb 82 bc
       0.108215 -0.01638058 0.0049439543 -0.015966263
0000d0 a5 06 06 3e dd fc 7d 3d 56 46 e5 bc 5b 82 ad 3c
       0.13088472 0.062008727 -0.02798764 0.021180322
0000e0 b4 2a 0d 3d 3e 02 48 bc b7 d9 8a 3d 38 46 e1 bd
       0.034464553 -0.012207566 0.06779807 -0.10999721
0000f0 3c 30 ad bc 2b 1a 8b bd 04 b8 1c 3e ff fa 92 3d
       -0.021141164 -0.067921005 0.15304571 0.0717678
000100 db d6 a2 bc 0b 6f 97 bd 70 c5 13 bc f7 e3 dd bd
       -0.019877842 -0.07394227 -0.009019241 -0.108344965
000110 c5 47 15 3d 20 c2 50 3d 9c a0 d7 bd 6d 41 ec bd
       0.036445398 0.050966382 -0.10528681 -0.115359165
000120 b5 fb c0 bc fd ed 9e bd 01 6a f8 3d 06 2b f0 bd
       -0.023557523 -0.077602364 0.12129594 -0.11726956
000130 13 ce 37 3e 4d a6 28 3e 00 f2 05 3e ef 31 43 be
       0.17949705 0.16469689 0.13080597 -0.19062017
000140 49 c5 ce bc cd f3 96 bd 9e ed 11 3e 28 07 d3 bc
       -0.025240557 -0.0737072 0.142508 -0.025760248
000150 07 97 4c 3e 77 3a c0 bd cb 58 91 bd 0b 81 7f 3d
       0.19979487 -0.09386151 -0.07097014 0.062378924
000160 41 cc da bd 3b 81 80 bc ba de df bd 3a 0c eb bd
       -0.106834896 -0.015686622 -0.109311536 -0.114769414
000170 81 54 22 3e 8a 3c fc bb bc 41 4f 3d e0 ec 90 3d
       0.15852548 -0.0076976465 0.0505998 0.0707643
000180 e6 0f 87 bd ee 9e 0d be 78 e1 87 3d 42 f4 d0 3d
       -0.06594829 -0.13830158 0.066348016 0.102028385
000190 dc 0f a4 bd 7c 0d 27 bd 62 eb 3d 3e 67 d2 9e bd
       -0.080108374 -0.040784344 0.18546823 -0.07754975
0001a0 5f 90 f2 3d 30 e6 34 3e 30 a7 ba 3c f6 35 5a 3d
       0.11843943 0.17665935 0.0227848 0.053274117
0001b0 d6 3c 42 3c 8f 50 d0 3c a2 c9 ce 3d 26 d3 e9 bd
       0.011855325 0.025429038 0.10097052 -0.114172265
0001c0 c4 40 c3 3d ef b5 b4 bd 1a d7 86 3c d1 9f e5 3c
       0.095338374 -0.088237636 0.01645999 0.028030308
0001d0 98 66 7c 3c 12 6a 8b 3b f9 69 51 3e ff 98 d7 3c
       0.01540532 0.004254588 0.20450582 0.026318071

l1.bias.rho f4 [120]
000000 fa 94 3d c0 2b f2 39 c0 b9 50 41 c0 f4 1a 3f c0
       -2.9622178 -2.9054058 -3.020552 -2.98602
000010 27 b7 43 c0 f4 7e 41 c0 9a a2 41 c0 ac bb 40 c0
       -3.0580537 -3.0233736 -3.0255494 -3.0114546
000020 f2 4e 47 c0 f1 23 3a c0 cd 18 42 c0 7c 21 4b c0
       -3.1141934 -2.9084437 -3.0327637 -3.1739187
000030 1b a9 44 c0 1b f2 3c c0 e7 97 40 c0 20 ac 44 c0
       -3.0728214 -2.952277 -3.0092714 -3.0730057
000040 7c 88 42 c0 69 27 3f c0 69 8b 4c c0 9b 3e 3f c0
       -3.0395803 -2.9867804 -3.196009 -2.9881961
000050 0d fa 46 c0 ac 12 44 c0 f2 ea 34 c0 bc 09 41 c0
       -3.109012 -3.0636396 -2.82684 -3.0162191
000060 5d 68 37 c0 ca b4 43 c0 17 8f 4b c0 79 7e 40 c0
       -2.8657448 -3.0579095 -3.1806085 -3.0077193
000070 0f 32 42 c0 29 a5 3c c0 02 4c 41 c0 37 44 45 c0
       -3.0343053 -2.9475806 -3.0202641 -3.0822885
000080 62 ac 4f c0 b1 52 45 c0 ec 72 37 c0 64 8f 43 c0
       -3.2448964 -3.083172 -2.8663893 -3.0556269
000090 8a 69 3f c0 bf e3 3a c0 19 84 35 c0 15 3f 45 c0
       -2.9908166 -2.9201505 -2.8361876 -3.0819752
0000a0 88 6c 44 c0 f8 d9 39 c0 5b 27 46 c0 5e 23 43 c0
       -3.0691242 -2.9039288 -3.096152 -3.0490336
0000b0 73 17 4b c0 41 e3 3b c0 8f 47 50 c0 29 36 3e c0
       -3.1733062 -2.9357455 -3.2543676 -2.9720557
0000c0 76 86 4d c0 0f 52 3e c0 c6 3d 37 c0 36 11 43 c0
       -3.2113318 -2.9737585 -2.8631454 -3.0479255
0000d0 78 a3 41 c0 72 0e 47 c0 e1 d1 4d c0 1b 5c 37 c0
       -3.0256023 -3.1102567 -3.215935 -2.8649967
0000e0 e6 ec 4c c0 f8 b6 38 c0 c3 53 47 c0 2f 8b 38 c0
       -3.2019591 -2.8861675 -3.1144874 -2.883495
0000f0 5b 8c 44 c0 b1 da 45 c0 3c 0f 38 c0 d4 57 39 c0
       -3.0710666 -3.0914729 -2.8759298 -2.8959856
000100 84 cc 41 c0 b2 8d 3d c0 3c bf 37 c0 42 a7 3f c0
       -3.0281076 -2.9617734 -2.871047 -2.9945836
000110 e4 b4 33 c0 87 7a 37 c0 19 1f 3e c0 c6 79 44 c0
       -2.8079157 -2.8668535 -2.970648 -3.0699325
000120 90 11 25 c0 82 5e 3a c0 96 b3 40 c0 d4 b1 43 c0
       -2.579197 -2.9120183 -3.010961 -3.0577288
000130 44 0d 38 c0 93 e8 39 c0 3c 67 47 c0 e1 04 41 c0
       -2.8758097 -2.9048202 -3.115676 -3.0159228
000140 90 20 4c c0 29 54 3e c0 23 3e 4a c0 99 cc 38 c0
       -3.1894875 -2.9738867 -3.1600425 -2.8874876
000150 0f 9b 3b c0 73 dd 43 c0 6c 6a 42 c0 5f dd 3b c0
       -2.931339 -3.0603912 -3.0377455 -2.9353864
000160 1a 1c 3f c0 73 68 38 c0 0b 10 42 c0 a1 b0 3b c0
       -2.9860902 -2.881375 -3.0322292 -2.9326556
000170 a1 15 35 c0 a3 af 43 c0 f3 50 44 c0 35 85 41 c0
       -2.8294451 -3.057595 -3.0674407 -3.0237553
000180 b1 46 3c c0 ea 15 3f c0 97 ab 3b c0 0b 1a 3f c0
       -2.9418147 -2.9857125 -2.932348 -2.9859645
000190 0b 84 3a c0 74 d9 3e c0 6e 59 46 c0 e4 81 3f c0
       -2.9143093 -2.9820223 -3.0992084 -2.992303
0001a0 b8 1d 37 c0 f4 ee 34 c0 b4 cb 48 c0 53 42 41 c0
       -2.861189 -2.8270845 -3.137433 -3.019673
0001b0 c8 26 3d c0 0f 31 32 c0 5f 9e 39 c0 d7 d9 43 c0
       -2.955492 -2.7842443 -2.9002912 -3.060171
0001c0 11 b5 40 c0 9f dc 3f c0 9d 04 48 c0 9f c2 43 c0
       -3.0110514 -2.9978406 -3.1252816 -3.0587537
0001d0 75 de 4c c0 bf e4 43 c0 b8 e9 46 c0 c4 1d 44 c0
       -3.2010777 -3.0608366 -3.108015 -3.0643167

classifier.0.weight_mu f4 [2, 120]
000000 aa 06 81 3e 2b df 00 3d d6 ea 17 3d 75 8f 2a be
       0.25200397 0.03146283 0.03708919 -0.16656287
000010 96 56 4a 3e 23 d0 95 bc 04 0a 09 3e c1 29 60 be
       0.19759592 -0.018287724 0.13382727 -0.21890928
000020 d9 8e 24 be 4c 1a 4b be 40 7f 9e ba a8 f3 35 3d
       -0.16070117 -0.1983425 -0.0012092367 0.04442182
000030 e8 fe 45 be da c0 91 bc e3 3c d1 bb 7f 3e 63 be
       -0.1933552 -0.017792154 -0.006385432 -0.22191809
000040 77 8b 65 3e 71 d0 9f 3c df a6 31 3e 0a 57 0b 3e
       0.22416483 0.019508572 0.17348813 0.13607422
000050 47 7c 40 3e d2 67 2a bd 77 aa 7b 3c 11 12 f8 bd
       0.18797408 -0.041602917 0.015360466 -0.12112821
000060 98 73 94 bb 7b ba 05 3d e6 ca 67 3c 26 81 c5 3c
       -0.0045303814 0.032648545 0.014147496 0.024109434
000070 2f a1 00 be 68 76 d7 bd 12 3b 88 bd 35 cd 28 bd
       -0.12561487 -0.10520631 -0.06651892 -0.041211326
000080 59 d3 13 3d 78 05 82 bd c0 f2 2f 3d 6a a9 a2 bd
       0.03609023 -0.06348699 0.042956114 -0.079424694
000090 3c b3 d3 bd f3 e0 14 3e 8e 40 a7 bd ab ab 8b bd
       -0.103369206 0.14538936 -0.0816661 -0.068198524
0000a0 0a 3a d4 3c 97 59 66 3e 2d 20 de 3d 79 3c 05 be
       0.025906581 0.22495113 0.10845981 -0.1301135
0000b0 23 6c a0 bd 92 a4 81 3c 5c 62 02 bd 1b 1a db 3b
       -0.078331254 0.015825544 -0.031832084 0.0066864616
0000c0 cf 9a 1d bd d1 72 25 bd 23 29 a4 3d de 90 54 3e
       -0.038477715 -0.0403927 0.08015659 0.20758387
0000d0 f3 2b c4 bd dc bf 81 3d cb f4 fc 3d 33 70 15 be
       -0.09578695 0.063354224 0.12351378 -0.14593582
0000e0 1d 67 f1 3d d2 49 da 3a e0 e0 4e 3e 9c 93 3e 3c
       0.117872454 0.001665408 0.2020297 0.0116318725
0000f0 c2 31 f4 3c b7 9c 73 3d c6 72 46 3e 56 23 2e bd
       0.029808883 0.059475627 0.1937972 -0.042514168
000100 00 df 82 3d a6 39 cf bb b9 8a 13 bd 06 00 2c 3c
       0.0639019 -0.006324011 -0.036020968 0.010498052
000110 52 1d 16 3e d9 6a ff bc c7 25 65 3d f2 73 0f 3e
       0.14659622 -0.031178879 0.05594423 0.14009073
000120 6d 6f cf 3d 0f cf a1 3a e3 f4 69 be c9 e1 63 bb
       0.10128675 0.0012345033 -0.22847323 -0.003477203
000130 d1 bf b3 3e f8 67 db bc 20 fb 1e be 4e a3 3a 3e
       0.35107282 -0.026782975 -0.15525484 0.18226358
000140 bc a3 03 3e 3e 47 27 bd 37 12 66 3e 9f 4b 0e 3e
       0.12855428 -0.040839426 0.22467886 0.13896035
000150 7f d9 9e 3e 47 cf 0a 3b 14 48 09 be 5e 00 58 bd
       0.3102531 0.0021180676 -0.13406402 -0.052734725
000160 e2 b4 ab bd 6a fe 90 3d 77 10 1c 3c 46 69 64 bd
       -0.0838411 0.07079776 0.00952541 -0.05576446
000170 35 cf 82 bd f7 9a 97 bc 20 1d e5 bd 56 27 37 3e
       -0.06387178 -0.01850651 -0.11187196 0.17886099
000180 84 6a fc 3d 1e 15 27 bd 0e f9 07 3e c2 37 ad 3d
       0.12325004 -0.040791623 0.132786 0.084579006
000190 a6 71 52 3c 97 dc d6 bc aa 3a 1a 3e 00 4d 0d 3d
       0.012844479 -0.026228232 0.15061441 0.03449726
0001a0 09 24 ea 3d 27 03 5d 3e 6b 95 19 3e 63 19 3d 3d
       0.114326544 0.21583234 0.14998405 0.04616679
0001b0 e5 2a 56 3e ce 03 86 3e 8f 0b e1 3d 8d 4f 93 bd
       0.209148 0.26174778 0.10988533 -0.071929075
0001c0 e3 0e 4b 3d c8 21 92 bd 38 02 d9 3d ad 78 7c 3d
       0.049574744 -0.071353495 0.10596126 0.061638523
0001d0 8b a2 33 3d db 23 56 be c3 e1 22 3e 15 c5 8c 3c
       0.043856185 -0.20912115 0.15906434 0.01718382
0001e0 03 e1 14 3e 80 d1 9c 3d e1 a9 91 bd a4 f5 cd bd
       0.1453896 0.076571465 -0.0711248 -0.10056618
0001f0 c3 a8 a1 3d f8 74 8c 3d 56 f7 a1 bd fa d1 94 3d
       0.07893517 0.068582475 -0.07908504 0.07266612
000200 fc c4 91 bd 20 05 63 3e 32 87 93 3c 5f 1c 1f be
       -0.0711765 0.22169924 0.018008802 -0.15538166
000210 88 99 2a bd ae 41 15 be b7 76 85 3d da 96 d6 bd
       -0.041650325 -0.14575836 0.06516784 -0.104779914
000220 ad 1e 9d bd ba c2 bd 3d 6e 2b 4e be 81 6a 91 ba
       -0.076718666 0.09265657 -0.20133755 -0.0011094363
000230 25 8e e3 bc 68 5e 22 bd 78 28 11 3e 48 4f 9b bc
       -0.02777774 -0.039640814 0.14175594 -0.018958703
000240 a4 46 07 be ad df 29 bd d4 56 8e 3c 47 a4 54 3e
       -0.13210541 -0.04147308 0.017375387 0.20765792
000250 97 cd 5f bd b6 d8 46 3d 2b f9 02 3e d8 9a fe bd
       -0.054639425 0.048546515 0.12790363 -0.12431878
000260 c6 16 35 bd f5 fd bc bc 31 12 95 3b 33 15 ae 3d
       -0.04421117 -0.023070315 0.0045492877 0.08500137
000270 1d ff 18 3c 60 04 a7 bd 36 7d 18 3e 84 e2 25 bd
       0.0093381675 -0.08155131 0.14891514 -0.040499225
000280 c1 6d 0a be c0 00 fe bd 7c c5 25 bd ad c0 37 bd
       -0.1351843 -0.12402487 -0.04047154 -0.044861484
000290 78 e3 44 3d 7b 9c 70 bb 7e 2b 9f 3d 24 06 44 be
       0.048068494 -0.0036714363 0.07771967 -0.19142967
0002a0 0b b8 83 3d 71 6f 68 3c 1d a5 05 3e 22 73 b3 3c
       0.06431588 0.014186726 0.13051267 0.021905486
0002b0 57 36 b6 bd bc ee a6 bb 4c eb 0a 3c 90 22 a6 3d
       -0.08897083 -0.0050943773 0.008478951 0.08112061
0002c0 5c 0d c7 3d 14 32 a9 3c bc b3 04 3e 6e 35 73 be
       0.09719345 0.020653762 0.12959188 -0.2375085
0002d0 00 5f 5e 3d 4a 24 c4 3d 78 db 8b 3d e2 0b b6 bc
       0.054289818 0.09577234 0.0682897 -0.022222463
0002e0 68 ac e8 3d 08 5b f4 bd 57 de 70 3b 3c 40 9b bc
       0.11361009 -0.11931425 0.0036753619 -0.018951528
0002f0 78 db 86 3d 0f 46 ec 3d 54 1e 28 3d c7 2e 2a 3d
       0.06584829 0.115368 0.04104455 0.041548517
000300 c5 8d 5d bd 62 90 26 3e 78 19 e5 3c 51 bb c8 bc
       -0.05409028 0.16266015 0.027966246 -0.024503382
000310 5e 9f ad bc 03 11 fe bd 1e 34 a3 bd 63 ea b2 3d
       -0.021194156 -0.124055885 -0.07968925 0.08736112
000320 ac 91 b6 bd ad 59 c5 39 d5 1e bf 3d 93 5a c3 3d
       -0.089145035 0.00037641582 0.093320526 0.0953876
000330 c0 73 41 be d4 d9 f3 bb 17 7e 0c 3e 13 37 0a 3e
       -0.18891811 -0.0074417386 0.13719974 0.13497572
000340 29 77 dd bd b6 ed 4c bd 4b 52 08 3d 00 86 2a 3c
       -0.108137436 -0.050031386 0.033281606 0.010407925
000350 8e 40 49 be 85 f7 d4 bc 2f 46 ae bb cb 85 7e bd
       -0.19653532 -0.025996933 -0.005318425 -0.062139314
000360 bc b3 75 be b5 d7 36 3c 8b 16 7e bc 63 dd b3 bb
       -0.23994344 0.011159827 -0.015508304 -0.005489038
000370 16 b8 80 3d f2 31 52 3a aa cf 1b be 3d 1a b6 3b
       0.062851116 0.00080183067 -0.15215936 0.005557327
000380 f4 38 16 bd 85 db 20 be 61 bc 9f 3e 16 3a 1c be
       -0.03667541 -0.1570874 0.3119841 -0.15256533
000390 25 66 cb 3d 42 f3 0e 3c e3 70 da bd 7a ef d5 bc
       0.09931592 0.008724989 -0.10666063 -0.026115168
0003a0 54 5f ab 3d d2 f9 82 be 17 80 ae bd c5 be d0 3d
       0.08367792 -0.25581223 -0.08520525 0.101926364
0003b0 b0 17 b2 bd 91 b2 cc 3d a2 95 2c 3e 22 6b a5 3c
       -0.08695924 0.09994996 0.16853955 0.020192686
