checkpoints_2_tasks/2_task_groups_PUGCL_epochs_:150_lr_:0.001_hidden_:800_task_order_:[1 0]/model_0.pth.tar (torch_old, 400469 bytes, 24 tensors)

l1.weight_mu f4 [800, 29]
000000 e5 a8 01 3c 9f e6 65 bc 95 10 21 be 00 c1 86 bd
       0.007913803 -0.014032035 -0.15728982 -0.065797806
000010 29 e1 e1 bd 1c d4 32 3e 87 15 56 bc 0a 0b 84 bd
       -0.11029274 0.17463726 -0.013066656 -0.06447418
000020 21 2f 37 3e 36 6b a5 bd 99 fe e3 bd ee 36 3e be
       0.17889072 -0.080770895 -0.11132545 -0.18575642
000030 01 c2 04 be e8 49 82 bc 78 fe 26 bd 73 9d b9 bd
       -0.12964632 -0.015904382 -0.040770024 -0.09063234
000040 25 22 2d be da 97 9f bd 49 73 c6 3d 6d 0f af bd
       -0.16907556 -0.07792635 0.09689958 -0.08547864
000050 dd bb 00 be 88 7a 5b 3d 62 77 21 3d 7d 4f 93 3d
       -0.12571664 0.05358365 0.039420493 0.071928956
000060 d5 84 ad 3d b2 e4 dd bd 6f 56 2b 3e b4 19 aa 3d
       0.08472601 -0.10834636 0.1673219 0.08305684
000070 26 bf 6a be 24 09 bb bd 13 77 24 3d b6 7f 1a 3d
       -0.2292448 -0.09132603 0.04015262 0.03771945
000080 4c 6e 30 bd 83 3b 5b bb 4c 12 01 3c a7 b1 e7 bc
       -0.043073937 -0.003345222 0.0078778975 -0.028282953
000090 ea 7c 7a be e0 ef 66 3d cb a5 f2 bb 49 a1 30 be
       -0.24461713 0.056381106 -0.007405018 -0.17249025
0000a0 56 e5 cf bd 08 da c5 bd aa a8 04 3d 25 bf bb 3d
       -0.10151164 -0.09660727 0.032387413 0.09167317
0000b0 ae 91 dd 3c d0 0e 48 be 59 ef 0b 3e 1c 70 86 3d
       0.027047005 -0.195369 0.13665523 0.06564352
0000c0 80 50 86 3c cb 28 0a bc 7d e5 5e 3d ac 79 00 be
       0.016395807 -0.008432577 0.054418076 -0.12546414
0000d0 8e 42 98 3d d1 fc 4d be 59 29 c5 3b 40 3d c0 3d
       0.07434569 -0.20115973 0.006016892 0.093866825
0000e0 0e 45 aa 3b 35 b2 70 bd 60 ab 05 3e b4 56 c1 bc
       0.0051962202 -0.0587637 0.13053656 -0.023600914
0000f0 2e 4e ab 3d c1 c7 e9 3d 6d 40 d0 3d 13 a3 97 bd
       0.08364521 0.11415053 0.10168538 -0.07404151
000100 c6 66 f7 3d 35 76 bf bd 12 5d c8 3d c3 24 85 be
       0.12080149 -0.09348718 0.09783377 -0.2600461
000110 b8 50 97 3d 4c c3 b1 3d 89 bd 0c be ee 52 23 3d
       0.07388443 0.08679828 -0.13744177 0.03987401
000120 fa d6 9a bd 0f 56 17 3e de be 47 3e d1 29 10 bd
       -0.07560535 0.14778922 0.19506404 -0.03519613
000130 5c 90 1e 3e 58 34 3b bc fb 13 11 3d 10 94 20 3e
       0.15484756 -0.011426054 0.035419445 0.15681481
000140 10 21 0a 3e 7e e8 d7 3d 78 09 10 bd 59 5f 39 3e
       0.13489175 0.10542391 -0.03516528 0.18102778
000150 1e cd 17 be 93 e8 fa bd 74 12 96 3b 6f c8 c5 bd
       -0.1482434 -0.12251391 0.0045798365 -0.0965737
000160 f4 62 21 be b0 55 89 bd 4d 4d 49 bd 13 92 57 bd
       -0.15760404 -0.06705797 -0.049145985 -0.05262954
000170 3d 9a 2d be 51 36 cc 3d 25 97 9e bc a1 c6 10 3d
       -0.16953368 0.099712975 -0.01935918 0.035345677
000180 31 cc 5c bd d1 57 37 bd 37 6b f6 bd 10 65 93 3d
       -0.05390567 -0.044761483 -0.12032168 0.071970105
000190 b7 3d d1 3d 52 b3 3f 3e bc f8 f9 3c b9 77 b2 bd
       0.10216849 0.18720749 0.030514114 -0.087142415
0001a0 be 54 fc 3c 7b 89 05 be a1 d9 20 3b fd 96 fe bc
       0.030802127 -0.13040726 0.002454378 -0.031077856
0001b0 44 27 20 bb 9b b5 3c bd e6 a2 98 bd ae 06 ee bd
       -0.0024437467 -0.04607163 -0.074529454 -0.11622368
0001c0 b2 17 34 3d 97 bb 8a bc 36 91 e3 bd 20 77 82 3e
       0.04396791 -0.016935153 -0.11111681 0.2548151
0001d0 c8 c9 91 bd 95 f6 55 be 64 91 cc 3d fe 5a 3d bd
       -0.07118565 -0.20894845 0.099886686 -0.046229355
0001e0 b8 9a c2 bd be 3b 29 3d 55 e0 c8 bd d4 c7 fb 3d
       -0.095021665 0.04131674 -0.09808413 0.122939736
0001f0 52 a6 46 be 06 2c 02 be 25 8d 48 3e 08 5e 16 bd
       -0.19399384 -0.12712106 0.19585092 -0.03671077
000200 d5 be 46 3d 52 5a 07 be 64 2b f9 bc 53 7c 4c 3d
       0.048521835 -0.13218048 -0.030416198 0.049923252
000210 03 7c ce 3c 96 7d 12 bc 62 07 20 3e b3 2f 8a bd
       0.025205618 -0.008941075 0.15627816 -0.06747379
000220 fb a3 62 3e 39 3e e5 3c e5 e7 9d bd b6 92 00 bd
       0.22132866 0.027983772 -0.07710246 -0.031389914
000230 5a 79 5b bd e3 8c 90 bd 61 bd 49 3d ea c2 3e be
       -0.053582527 -0.07058122 0.04925287 -0.18629041
000240 c8 04 22 bc 58 71 a3 bd 75 46 8f 3d b5 4c 81 3d
       -0.009888835 -0.07980603 0.069958605 0.06313459
000250 c9 28 9f bd 66 29 88 3d b5 0b 76 bc 34 47 ae 3d
       -0.07771451 0.06648521 -0.01501744 0.08509675
000260 db 4c 14 be 94 10 16 bd 4f ac 03 be 38 6c 1f be
       -0.14482443 -0.036636904 -0.128587 -0.15568626
000270 db 56 7c bd 37 c6 2a 3e da 72 76 3c 73 1c 4a bc
       -0.06160627 0.16677175 0.015042031 -0.012335884
000280 7a 20 e2 3d db df 8c 3e 61 5f a1 bd 48 62 82 be
       0.11041351 0.27514538 -0.0787952 -0.25465608
000290 fb 11 0d bd 3e 37 4d be 04 38 ac 3d 28 23 7c bd
       -0.034440976 -0.20040604 0.08409122 -0.061556965
0002a0 bb b3 36 bb 6a 4b f5 bc 6d dd 3f 3b c3 ca d1 bc
       -0.0027878124 -0.029943187 0.0029276267 -0.02560938
0002b0 92 6d e4 bc 73 a7 39 3e d5 f5 8c 3c cb e7 79 bd
       -0.027884278 0.18130283 0.017207066 -0.06101207
0002c0 18 b3 92 bd f4 e5 60 3e 9d ad 54 3d 66 fa 15 be
       -0.07163066 0.2196272 0.051923383 -0.146463
0002d0 93 3d 72 bd ec f2 a8 be 85 35 53 bc bc f8 65 bd
       -0.059140753 -0.32997835 -0.012891178 -0.056145415
0002e0 fa f3 5a bd 65 a4 b8 bc 60 d9 9c 3d 79 5f 03 be
       -0.05345533 -0.022539327 0.076586485 -0.12829389
0002f0 a6 08 e8 3d 89 62 7b 3e 4c 28 8b bd 93 ec ac bd
       0.113297746 0.24549307 -0.067947954 -0.084435605
000300 f1 10 f4 3d 26 7a 78 3b 30 1d 76 bd b4 b6 48 bc
       0.11917294 0.0037914603 -0.06008643 -0.012250591
000310 d5 7e 0f be b2 22 b1 bc 85 1f 80 3b 48 fa 2d 3a
       -0.14013226 -0.02162299 0.0039100074 0.0006636721
000320 64 b7 f3 3c a7 e2 4e bd 2d 9d 1c 3d b6 21 40 3e
       0.029750533 -0.05050912 0.038235832 0.1876286
000330 ea fd a0 3d a7 09 5a be ee 2b 9d bb 9d 88 7e 3e
       0.0786093 -0.21292745 -0.0047964966 0.24856801
000340 75 84 3f bd fa 17 b2 bd 93 6a 20 be 9f ec 29 3d
       -0.04675718 -0.086959794 -0.15665655 0.041485425
000350 c5 04 ac bd 09 2f 35 be 51 04 23 bd 4e 60 0f bd
       -0.08399347 -0.17693724 -0.03979904 -0.035003953
000360 b8 85 1d 3d e6 f5 98 be 14 b5 c5 3c 90 75 f8 3d
       0.038457602 -0.29875106 0.024134196 0.12131798
000370 fb d1 14 3c fa 3d a3 bc af 92 58 3d ee 30 2c be
       0.009083266 -0.019927014 0.052874263 -0.1681554
000380 3a 7f 28 bd c2 99 16 3e 58 04 ad bd 2c fe 12 be
       -0.041136958 0.14707091 -0.08448094 -0.14354771
000390 0f 57 3f 3e cc 86 3a be 3c 61 1d 3d a4 b0 64 bd
       0.18685554 -0.18215483 0.038422808 -0.05583252
0003a0 f6 b0 e7 3d 5e 7b 4b bd 24 af 85 bd 62 c4 87 3d
       0.113130495 -0.0496782 -0.06527546 0.06629254
0003b0 04 83 14 be fe 07 c6 3c 5b b0 de bc bc ce 72 bd
       -0.14503103 0.024173733 -0.027183702 -0.05927919
0003c0 22 3f 0a be 4c 61 15 3d fe 9e 01 bc 26 8f 66 3d
       -0.13500646 0.036469743 -0.007911442 0.05628886
0003d0 8b 48 19 3e b8 52 cb bc 11 e1 a3 bd a4 66 ca 3d
       0.14969079 -0.024819717 -0.080019124 0.098828584
0003e0 30 87 9e ba 04 f5 33 3d 17 58 57 bd 80 bb bf 3c
       -0.0012094732 0.043934837 -0.052574243 0.023404837
0003f0 e3 87 19 be f1 dd 40 bc d0 da 90 3c ac 38 dc 3c
       -0.14993243 -0.011771665 0.017682463 0.026882492

l1.weight_rho f4 [800, 29]
000000 ca 61 45 c0 3b 87 38 c0 45 a5 41 c0 ea d6 36 c0
       -3.0840936 -2.8832538 -3.0257123 -2.8568673
000010 38 62 3a c0 b1 cd 40 c0 3b df 45 c0 6d a4 43 c0
       -2.9122448 -3.0125544 -3.09175 -3.0569108
000020 a9 c1 41 c0 c5 b8 4f c0 18 3f 39 c0 79 d6 40 c0
       -3.027445 -3.2456524 -2.894476 -3.0130904
000030 22 c8 3c c0 9b 04 4c c0 ac 64 42 c0 36 81 3a c0
       -2.9497151 -3.187781 -3.0373945 -2.9141364
000040 d3 27 41 c0 25 02 46 c0 b7 a6 3a c0 7e 75 3c c0
       -3.0180557 -3.093881 -2.9164255 -2.9446712
000050 d5 77 40 c0 99 49 3f c0 1d 71 4a c0 c2 f7 3e c0
       -3.007314 -2.988867 -3.163154 -2.983872
000060 4e 56 3c c0 fd b2 3b c0 5c 2d 44 c0 74 d9 41 c0
       -2.9427676 -2.9327996 -3.0652685 -3.0288973
000070 42 f1 43 c0 fe f0 40 c0 c8 70 38 c0 14 ad 35 c0
       -3.0616002 -3.014709 -2.8818836 -2.8386889
000080 d5 f2 41 c0 f8 cf 3a c0 76 49 3e c0 57 88 2e c0
       -3.0304463 -2.9189434 -2.9732337 -2.7270715
000090 74 fb 3c c0 a6 91 48 c0 dd ea 3a c0 30 d8 45 c0
       -2.9528475 -3.1338897 -2.920585 -3.09132
0000a0 33 7b 39 c0 f2 0e 40 c0 62 0f 4b c0 3f c0 4a c0
       -2.8981445 -3.0009122 -3.172814 -3.1679838
0000b0 3e 2b 36 c0 91 f4 3b c0 08 b6 35 c0 b4 d6 38 c0
       -2.8463893 -2.9368021 -2.8392353 -2.8881044
0000c0 e9 07 3d c0 9f e7 41 c0 06 fb 37 c0 65 93 3b c0
       -2.9536078 -3.029762 -2.8746963 -2.9308712
0000d0 00 2f 41 c0 db 85 40 c0 1f 71 41 c0 5a 77 3b c0
       -3.0184937 -3.00817 -3.0225294 -2.9291596
0000e0 d4 1d 3c c0 da d6 31 c0 ba c1 3f c0 50 6f 4a c0
       -2.9393206 -2.7787385 -2.9961991 -3.163044
0000f0 06 db 40 c0 3b 4d 41 c0 14 93 36 c0 1c fd 44 c0
       -3.0133681 -3.0203388 -2.852727 -3.0779486
000100 d0 de 3d c0 76 77 3e c0 03 8a 45 c0 dd ca 41 c0
       -2.9667244 -2.9760413 -3.0865486 -3.0280068
000110 15 04 3e c0 49 39 45 c0 b9 c0 34 c0 a9 c4 43 c0
       -2.9689991 -3.0816214 -2.8242629 -3.0588782
000120 3f 13 41 c0 1a c0 45 c0 24 05 4a c0 1a bf 32 c0
       -3.0167997 -3.08985 -3.1565638 -2.792914
000130 ea cd 4c c0 e5 e7 43 c0 b6 cd 3d c0 62 14 45 c0
       -3.200068 -3.0610287 -2.9656806 -3.079369
000140 71 a5 40 c0 0f c7 46 c0 50 b8 45 c0 74 28 49 c0
       -3.0100977 -3.1058996 -3.0893745 -3.143094
000150 ab a1 3d c0 29 c2 39 c0 eb ee 45 c0 6d c1 43 c0
       -2.9629924 -2.9024756 -3.0927074 -3.0586808
000160 34 4b 45 c0 da c5 41 c0 70 f2 40 c0 53 6a 43 c0
       -3.082715 -3.027701 -3.0147972 -3.0533645
000170 7d d4 3c c0 f8 2d 46 c0 ff 71 3d c0 bf b7 43 c0
       -2.9504693 -3.0965557 -2.9600828 -3.05809
000180 b5 fa 45 c0 b7 10 3c c0 da 22 3e c0 57 c4 37 c0
       -3.093427 -2.9385202 -2.9708772 -2.8713586
000190 bd ba 42 c0 22 cb 39 c0 30 5c 41 c0 bf 3e 3e c0
       -3.0426476 -2.9030232 -3.0212517 -2.9725797
0001a0 a7 4e 4b c0 61 4a 3a c0 7f 7f 38 c0 ab 70 41 c0
       -3.1766756 -2.9107897 -2.8827817 -3.0225017
0001b0 53 aa 3f c0 48 ad 44 c0 39 19 36 c0 cd 9c 42 c0
       -2.9947708 -3.0730762 -2.8452895 -3.0408204
0001c0 67 cc 3b c0 c8 aa 42 c0 31 60 48 c0 84 d2 47 c0
       -2.9343507 -3.0416737 -3.130871 -3.1222239
0001d0 c6 ac 47 c0 68 ae 4a c0 11 17 42 c0 60 c2 44 c0
       -3.1199203 -3.166895 -3.0326579 -3.0743637
0001e0 a7 d7 38 c0 7c 0f 4b c0 42 ff 40 c0 bd 2a 44 c0
       -2.8881624 -3.17282 -3.0155797 -3.0651085
0001f0 e2 70 3d c0 0b 44 44 c0 82 ac 45 c0 59 06 53 c0
       -2.9600148 -3.066653 -3.088654 -3.2972624
000200 cf 89 3b c0 1f 76 3c c0 81 bb 3c c0 f3 b8 3b c0
       -2.9302862 -2.9447095 -2.9489443 -2.9331634
000210 66 46 31 c0 09 bf 42 c0 8f a8 3e c0 77 20 41 c0
       -2.7699218 -3.0429099 -2.979038 -3.0176065
000220 64 67 35 c0 e5 4c 3d c0 f1 3c 40 c0 8e 44 48 c0
       -2.8344355 -2.9578183 -3.0037196 -3.1291842
000230 ed 76 41 c0 86 ad 38 c0 34 e3 45 c0 9b 12 4a c0
       -3.0228837 -2.885591 -3.0919924 -3.1573856
000240 51 41 3b c0 7d 54 32 c0 b8 e8 46 c0 56 30 3b c0
       -2.9258616 -2.7864068 -3.107954 -2.9248252
000250 47 29 44 c0 8f 7f 45 c0 d8 a5 3d c0 30 94 42 c0
       -3.0650194 -3.0859106 -2.9632473 -3.0402946
000260 52 6d 3e c0 31 1b 41 c0 74 2a 48 c0 ad 05 40 c0
       -2.9754224 -3.0172846 -3.1275911 -3.0003464
000270 43 26 3d c0 59 72 3e c0 a5 66 46 c0 26 0c 3d c0
       -2.9554603 -2.9757292 -3.100015 -2.9538665
000280 2f 7c 3f c0 d5 a8 37 c0 2e 28 37 c0 03 7a 41 c0
       -2.9919546 -2.8696797 -2.8618274 -3.023072
000290 d1 be 37 c0 79 2c 48 c0 df 5d 47 c0 a1 26 43 c0
       -2.8710215 -3.1277144 -3.1151044 -3.0492327
0002a0 60 0b 3f c0 16 a9 40 c0 da 0f 3d c0 9b e9 3f c0
       -2.9850693 -3.0103202 -2.9540925 -2.9986331
0002b0 8e a0 38 c0 6f 2f 44 c0 87 70 49 c0 f2 e2 36 c0
       -2.8847995 -3.065395 -3.1474931 -2.8576016
0002c0 7c d9 44 c0 dd 9e 43 c0 b7 45 3c c0 ca 6e 3b c0
       -3.0757742 -3.0565712 -2.941755 -2.928637
0002d0 3f c3 44 c0 3d 3b 44 c0 76 53 3d c0 e1 67 3d c0
       -3.0744169 -3.0661156 -2.958219 -2.9594653
0002e0 52 bb 42 c0 9e 4e 3f c0 3e 8f 3f c0 8b 99 41 c0
       -3.0426831 -2.9891734 -2.9931178 -3.0249965
0002f0 03 81 4e c0 78 5b 3c c0 81 61 38 c0 26 9c 3c c0
       -3.2266243 -2.9430828 -2.8809512 -2.9470305
000300 ab 6c 31 c0 5d 50 3e c0 bb 24 3b c0 93 e6 39 c0
       -2.7722576 -2.973655 -2.9241168 -2.9046981
000310 40 11 3f c0 7a 45 40 c0 be 3d 3e c0 f1 46 3c c0
       -2.9854279 -3.0042405 -2.9725184 -2.94183
000320 e1 99 37 c0 a1 a2 42 c0 aa c3 43 c0 53 a6 3f c0
       -2.868767 -3.041176 -3.0588174 -2.9945266
000330 d6 8f 35 c0 a2 92 3c c0 2d e9 3f c0 85 c4 3a c0
       -2.836904 -2.9464498 -2.998607 -2.9182446
000340 35 a9 40 c0 b0 2c 35 c0 61 c6 40 c0 3f f3 3c c0
       -3.0103276 -2.8308525 -3.012108 -2.9523466
000350 9a da 41 c0 aa ed 42 c0 b5 76 3f c0 4b f5 41 c0
       -3.0289674 -3.0457559 -2.9916203 -3.0305965
000360 ec 57 48 c0 9f fd 3b c0 a7 96 3e c0 fc 41 41 c0
       -3.1303663 -2.9373548 -2.977945 -3.0196524
000370 75 5d 3e c0 6d 97 44 c0 37 fb 3b c0 71 7f 42 c0
       -2.9744542 -3.0717423 -2.937208 -3.0390284
000380 22 c6 41 c0 8d c2 37 c0 6b 68 3a c0 3e ca 49 c0
       -3.027718 -2.8712494 -2.9126232 -3.152969
000390 c1 e3 38 c0 3a a9 55 c0 45 3b 41 c0 e4 41 47 c0
       -2.888901 -3.3384538 -3.0192425 -3.1133966
0003a0 05 c7 3a c0 9e df 43 c0 5d 90 3f c0 40 7a 45 c0
       -2.9183972 -3.0605235 -2.9931862 -3.0855865
0003b0 c1 18 45 c0 3c cd 3c c0 04 ae 41 c0 b3 ae 39 c0
       -3.0796359 -2.9500265 -3.026246 -2.9012878
0003c0 30 92 3c c0 d6 e5 47 c0 06 ec 4a c0 b7 c2 38 c0
       -2.9464226 -3.123403 -3.1706557 -2.8868845
0003d0 c7 5b 3c c0 94 10 47 c0 a8 70 3b c0 62 e3 3e c0
       -2.9431016 -3.1103868 -2.928751 -2.9826283
0003e0 4d 80 3a c0 3f 40 42 c0 8d 17 40 c0 c0 58 36 c0
       -2.9140809 -3.0351713 -3.0014374 -2.8491669
0003f0 eb 0b 3f c0 6f 71 43 c0 bb 06 37 c0 f7 c6 3c c0
       -2.9851024 -3.0537984 -2.8597858 -2.9496439

l1.bias_mu f4 [800]
000000 5c 49 08 bd dc aa 1d 3d 7f 1c 77 3d 82 3b 4a 3d
       -0.033273086 0.038493022 0.06032991 0.049373157
000010 e6 f2 59 3d 78 c1 2b be 34 2c 5e bb df d1 9c 3d
       0.05321016 -0.16773021 -0.0033900859 0.07657217
000020 48 af d8 3d 62 5d 11 be 23 d6 c7 3c 34 ae fb 3c
       0.10580307 -0.14195779 0.0243941 0.030722715
000030 e4 40 95 3e 0b 50 56 3e e0 a3 a5 bd 59 bd 1a 3e
       0.2915107 0.20928971 -0.08087897 0.15111293
000040 3c 14 20 3e f2 e9 5b 3e df fe 5b bd 5a e0 a6 bb
       0.15632719 0.21475962 -0.05370986 -0.0050926628
000050 c9 b9 40 bd 56 1e 8f 3d aa 92 30 3d 21 ee 99 bd
       -0.04705218 0.06988208 0.04310862 -0.075161226
000060 bc 0c eb bc 63 b5 01 bd 07 74 29 bd ac 17 7c bd
       -0.028692596 -0.031667124 -0.041370418 -0.061546013
000070 22 fc 2a bd 68 0d b3 3d 4a 0a ca bd 61 c2 36 be
       -0.04174436 0.087427914 -0.09865244 -0.17847587
000080 e9 9b 33 be 65 0c d0 3d 57 7a 16 be 75 72 e7 3c
       -0.17539944 0.10158614 -0.14695106 0.02825282
000090 a7 7f a4 bc 78 98 9b 3d ea 35 67 bb 2e 6c 63 bd
       -0.0200804 0.075974405 -0.0035279938 -0.05552309
0000a0 d4 f5 93 3d 14 5e 0a 3e e6 e3 d0 3c 6e 81 c4 3d
       0.07224622 0.1351245 0.025499295 0.09594999
0000b0 4b 2b 22 3e a4 f9 98 be ad 79 3d 3c 41 9c ed 3d
       0.15836827 -0.2987796 0.011564654 0.11602069
0000c0 af a9 e7 bd d8 dd 31 3c 19 0b 12 3e c7 e1 63 3c
       -0.113116615 0.010856114 0.14262046 0.01390881
0000d0 44 37 73 bd 99 1a a2 bc 05 df 8f be 3d 78 01 3e
       -0.059378877 -0.019788073 -0.28099838 0.12643524
0000e0 c0 51 ea 3d b2 8b ff 3d 46 59 64 3e b3 e9 0e bb
       0.11441374 0.12477817 0.2229968 -0.0021806776
0000f0 5d b2 0d 3e b3 05 1e bd 08 33 66 bc 3e d2 5e 3e
       0.13837571 -0.038579654 -0.014050253 0.21759889
000100 0e f9 f9 3c d6 62 e5 3c a8 38 0d 3d f2 38 dc ba
       0.030514266 0.02800123 0.03447786 -0.0016801639
000110 a7 4f b4 3d 2d c6 12 3e fc e5 71 be 4e 64 0c bd
       0.08804255 0.1433341 -0.23622888 -0.034275346
000120 f5 ee 3b 3c f2 6c 21 3e 8a 47 11 3c 8d fa ef 3c
       0.011470546 0.15764216 0.008867154 0.029294277
000130 3a f0 7f 3e 49 59 55 bd 78 2b b1 bd 26 24 09 bd
       0.24993983 -0.052087102 -0.08650869 -0.03348174
000140 1f a0 9a bd 9c 7a 2c be 50 24 b7 bc f8 9e c6 bd
       -0.07550072 -0.16843647 -0.022356182 -0.0969829
000150 b6 e3 00 3d e1 36 03 bd 82 86 5c 3d e1 4b 13 be
       0.031467162 -0.03203476 0.053839214 -0.14384414
000160 16 b2 a1 bd 1e e1 14 3e c5 03 f4 bd 52 7d 2f 3c
       -0.07895295 0.14539 -0.119147815 0.010711031
000170 67 12 5d be ed d8 b9 3c 0f 1a 14 3e 82 2e 4e bd
       -0.21589051 0.022686446 0.14463066 -0.050337322
000180 05 5f bc 3d 29 38 94 3d dc bd f7 bd 08 88 88 3d
       0.09197811 0.07237274 -0.1209676 0.06666571
000190 2b fa 75 bd 65 ad 43 be 25 cc ff 3d 1f 8e 2b 3d
       -0.060053032 -0.19109114 0.12490109 0.041883584
0001a0 4e 2c ea 3d cd 5b fa bd 6d ec ad 3d 91 8a b6 bb
       0.11434232 -0.12224541 0.0849236 -0.0055707176
0001b0 ce 63 10 3d 2b 19 51 be ad 4d d3 3c e0 c1 db bc
       0.03525143 -0.20419757 0.025793875 -0.026825845
0001c0 c8 33 ee bd cb ed 12 3e 76 b5 40 3e 56 f5 35 be
       -0.1163097 0.14348523 0.18819222 -0.1776937
0001d0 3d 1d 4a 3e ed 1b 05 3e 46 90 1c be 6e 56 33 bd
       0.19737716 0.12998934 -0.15289411 -0.043783598
0001e0 11 92 6c 3d d7 d5 cd bd 25 47 56 3d eb f6 0b 3d
       0.057756487 -0.10050552 0.052313942 0.034171026
0001f0 2d 3c 04 3e 5c 66 04 3e 73 03 0b bd 91 17 e4 bd
       0.1291358 0.12929672 -0.033938836 -0.111373074
000200 dd 20 9e ba 53 5b c9 bd b4 4c 0f 3e bb d7 c5 3d
       -0.0012064237 -0.09831872 0.13994104 0.09660288
000210 ac 55 2d 3e ba 9a b7 bc 4b e7 dd 3d da a3 c5 bd
       0.16927212 -0.022412647 0.10835131 -0.09650393
000220 33 90 8f 3b 35 58 37 bd a2 af 93 3a 43 ed 06 3e
       0.0043812036 -0.044761855 0.0011267553 0.13176446
000230 5e 68 dc 3d 00 3f eb bd 5b cc d2 bd 81 f5 84 bd
       0.10762094 -0.11486626 -0.10292884 -0.06492139
000240 f0 5a e3 bd af 30 a8 3d 76 e7 3c 3e a8 68 ed 3d
       -0.11101329 0.08212411 0.1844767 0.11592227
000250 3f ee 3b bd c8 3c be bc 36 a8 0d bb d7 9f 96 3e
       -0.045881506 -0.023222342 -0.0021615154 0.29418823
000260 bc 56 bf bb bc ef 6b 3c 56 3e 55 3e 82 60 3e 3d
       -0.005839197 0.014400419 0.2082456 0.046478756
000270 cc 52 b8 3d 7d b7 65 3c 5f b4 a2 3c 48 e8 3a bd
       0.09000167 0.014020798 0.019861398 -0.045631677
000280 9c 8e 0f 3e ea 31 0e bc c2 04 6b 3e 61 27 f1 bd
       0.14019245 -0.008678893 0.22951034 -0.11775089
000290 a4 fb 1e bd a6 f0 ef 3d 4e 77 3c 3e 46 27 db bd
       -0.038814202 0.11715822 0.18404886 -0.1070085
0002a0 5f cc 21 bd ae dc ba 3c 3c 77 32 3d e5 22 15 bd
       -0.039501544 0.022810306 0.043570742 -0.03641023
0002b0 4c 7a 73 be 01 75 0d be cf fd 48 3e c6 ae 49 be
       -0.23777121 -0.13814165 0.1962807 -0.19695577
0002c0 50 b7 95 bd 99 2d 92 3e ed 81 28 3e a4 38 5b 3c
       -0.07310355 0.28550413 0.16455813 0.013380203
0002d0 39 d8 61 bd 09 c6 01 3e 68 28 68 3e 7a 96 04 bd
       -0.055137847 0.126732 0.22671664 -0.032370068
0002e0 44 97 cf 3b 5e 58 7b 3c 26 8b b2 3d 61 83 04 3b
       0.006335171 0.015340893 0.08717947 0.002021991
0002f0 71 3c 65 bc 8a a0 1b 3d 69 87 b5 bd cc c2 86 3e
       -0.013991461 0.0379949 -0.08863718 0.26320493
000300 46 04 a4 3c ef 1e 07 3d 2d bc d9 3c a7 ba 86 bd
       0.020021569 0.032988485 0.026578987 -0.0657857
000310 53 29 48 3d 40 77 87 3d 08 c8 3f 3e 1a e7 1d 3a
       0.048867535 0.06614542 0.1872865 0.00060235115
000320 6c 6d a5 3c a4 60 86 bd 4c 89 8b 3d 44 0c c8 bd
       0.020193778 -0.065614015 0.06813297 -0.097679645
000330 e3 1b cb ba 96 64 ed bd a1 60 be 3a 38 ca a5 bd
       -0.0015495982 -0.11591451 0.0014524647 -0.08095211
000340 84 63 e3 3b 91 ae 65 be b5 8d c6 3d 37 e8 b1 3d
       0.0069393534 -0.22429873 0.09694997 0.086868696
000350 9e 79 68 be b5 17 f8 3d d4 af 17 be e0 fa 8d 3d
       -0.22702643 0.12113897 -0.14813167 0.06932616
000360 c3 b5 14 bd a1 2c 96 3d af 68 35 bd 04 b1 0a 3e
       -0.036306154 0.07332731 -0.044289287 0.13544089
000370 7a 08 09 bd 62 fb 6d 3c 84 1d 82 3d 81 d6 09 be
       -0.03345535 0.014525266 0.06353286 -0.13460733
000380 ff 3c a3 3d fa 2a a4 bd 64 8c 66 be 8a ec d6 3d
       0.079706185 -0.0801601 -0.22514492 0.10494335
000390 a9 21 82 3c fe 71 a8 bd 84 4c 8d be f2 64 4a 3b
       0.015885191 -0.08224867 -0.2759744 0.0030882922
0003a0 1c 65 56 3c 93 9a 8c 39 52 8a 6f be 55 f7 81 bd
       0.01308563 0.00026818048 -0.23392609 -0.06346003
0003b0 80 c4 e5 3d 20 75 11 be b0 73 90 3e a5 4e b7 3d
       0.1121912 -0.14204836 0.28213263 0.08950547
0003c0 d5 5e 91 bd bf 08 08 be b7 fe 0e 3e 9d 05 80 bd
       -0.07098166 -0.13284586 0.13964354 -0.06251071
0003d0 86 8a cd 3c 6c ab 98 bd ef 7a 80 bd c4 c9 90 bd
       0.025090467 -0.07454571 -0.06273448 -0.07069734
0003e0 d7 01 4c be 81 63 24 3e a0 0a df bc 7e eb 82 bd
       -0.19922577 0.16053583 -0.027226746 -0.06392573
0003f0 3c d3 5c be 8d fe a1 bd a8 f3 60 3d 1a 43 20 be
       -0.21564955 -0.0790988 0.05491987 -0.15650597

l1.bias_rho f4 [800]
000000 52 f5 3e c0 c0 17 49 c0 9c c3 2f c0 76 4a 54 c0
       -2.9837232 -3.1420746 -2.746314 -3.3170447
000010 15 36 47 c0 05 04 3b c0 40 52 3b c0 58 25 40 c0
       -3.112676 -2.9221203 -2.9268951 -3.0022793
000020 1d 51 35 c0 6c f4 2d c0 7a 1a 4a c0 03 6d 42 c0
       -2.8330758 -2.7180433 -3.157866 -3.0379035
000030 7a c6 42 c0 ec 66 43 c0 ff a7 39 c0 b6 63 39 c0
       -3.043364 -3.0531569 -2.9008787 -2.8967109
000040 7c da 44 c0 33 52 4a c0 72 5e 48 c0 6a 07 41 c0
       -3.0758352 -3.161267 -3.1307645 -3.0160775
000050 6c 40 3d c0 90 45 41 c0 3d d4 45 c0 86 ef 3f c0
       -2.957057 -3.0198708 -3.091079 -2.9989944
000060 48 e6 43 c0 df e7 3a c0 0e ae 39 c0 3a 57 3c c0
       -3.0609303 -2.9204023 -2.9012485 -2.942824
000070 52 8d 38 c0 26 17 3d c0 f0 6c 39 c0 f1 49 3e c0
       -2.8836255 -2.9545379 -2.897274 -2.973263
000080 8e f7 45 c0 e8 8c 4b c0 1b fb 47 c0 d1 4e 44 c0
       -3.0932345 -3.1804752 -3.1247013 -3.0673106
000090 5b e8 40 c0 e9 2c 3a c0 bb a2 39 c0 d6 08 40 c0
       -3.0141819 -2.908991 -2.9005573 -3.0005393
0000a0 32 5e 4a c0 6a 96 3b c0 69 dd 43 c0 4a 0d 34 c0
       -3.1619992 -2.9310555 -3.0603888 -2.813311
0000b0 f9 91 37 c0 f1 0c 4c c0 d0 2d 46 c0 f4 57 37 c0
       -2.8682845 -3.1882899 -3.0965462 -2.8647432
0000c0 03 7e 39 c0 fb 43 34 c0 b4 e8 3c c0 3a d1 42 c0
       -2.8983161 -2.8166492 -2.951703 -3.0440202
0000d0 f2 41 3b c0 d8 2d 43 c0 5a f6 3d c0 b4 c8 45 c0
       -2.9259 -3.049673 -2.968161 -3.090375
0000e0 aa 12 3a c0 81 43 3b c0 34 65 42 c0 2a 3c 3b c0
       -2.9073892 -2.925995 -3.037427 -2.9255471
0000f0 fd be 3f c0 9f 41 40 c0 63 2c 47 c0 7c e5 42 c0
       -2.996032 -3.0040052 -3.1120842 -3.0452566
000100 f7 5d 40 c0 01 61 33 c0 b5 84 41 c0 f3 69 3d c0
       -3.0057352 -2.8027956 -3.0237248 -2.9595916
000110 14 eb 36 c0 71 aa 3d c0 c1 ee 34 c0 26 8c 42 c0
       -2.858098 -2.963528 -2.8270724 -3.039804
000120 d0 fa 3e c0 1a 91 3f c0 fa eb 3f c0 0a 93 38 c0
       -2.9840584 -2.9932313 -2.9987779 -2.8839746
000130 a8 b5 3f c0 4b 8b 3c c0 57 e9 49 c0 f7 d3 43 c0
       -2.9954624 -2.9460018 -3.154867 -3.0598123
000140 16 04 47 c0 c6 0b 40 c0 0a 85 3f c0 f5 56 3f c0
       -3.1096244 -3.0007186 -2.992495 -2.9896824
000150 e9 50 43 c0 4b cf 38 c0 7b 33 49 c0 9a 6f 44 c0
       -3.0518134 -2.8876522 -3.143767 -3.0693116
000160 0c 19 49 c0 55 5d 45 c0 49 9b 40 c0 dd 1c 47 c0
       -3.1421537 -3.0838215 -3.0094779 -3.1111367
000170 90 61 42 c0 0c 53 34 c0 82 d3 44 c0 70 4e 3c c0
       -3.0372047 -2.8175688 -3.0754094 -2.9422874
000180 36 6c 3e c0 3f c0 39 c0 5e 25 41 c0 0c 19 4d c0
       -2.9753547 -2.9023588 -3.0179057 -3.2046537
000190 53 94 47 c0 9f ce 48 c0 eb 6a 41 c0 dc df 3a c0
       -3.118428 -3.1376112 -3.0221508 -2.9199133
0001a0 08 28 40 c0 4d 40 3c c0 ca b3 38 c0 f1 84 3e c0
       -3.0024433 -2.9414246 -2.8859735 -2.976864
0001b0 67 8f 44 c0 62 31 3f c0 b1 9b 3f c0 3c 28 3e c0
       -3.0712526 -2.987389 -2.9938776 -2.9712057
0001c0 08 66 40 c0 af 11 3c c0 64 a5 35 c0 44 79 42 c0
       -3.0062275 -2.9385793 -2.8382196 -3.0386515
0001d0 b3 8d 40 c0 ec 35 46 c0 3c 9e 3f c0 4a 74 3d c0
       -3.0086486 -3.0970411 -2.9940329 -2.9602227
0001e0 77 92 41 c0 9d 3a 3b c0 06 59 43 c0 66 39 43 c0
       -3.0245645 -2.9254525 -3.0523086 -3.0503783
0001f0 fd 64 3d c0 fc 21 48 c0 7a 2d 3c c0 fb f1 45 c0
       -2.9592888 -3.1270742 -2.9402757 -3.0928943
000200 f8 7b 3c c0 ef 72 47 c0 ed 09 43 c0 60 f3 3d c0
       -2.9450665 -3.11639 -3.0474808 -2.9679794
000210 d3 e3 3f c0 f6 77 3e c0 52 9a 4a c0 7a 97 46 c0
       -2.9982803 -2.9760718 -3.165669 -3.1029954
000220 63 32 48 c0 cf ef 3d c0 c8 05 3d c0 78 5e 4d c0
       -3.1280754 -2.9677618 -2.9534779 -3.208891
000230 b4 15 3b c0 2f ad 41 c0 6e 46 36 c0 17 cf 3e c0
       -2.9231997 -3.0261953 -2.8480487 -2.9813898
000240 d0 9e 39 c0 6c ed 3f c0 09 4d 42 c0 e5 2d 3e c0
       -2.9003181 -2.998866 -3.0359519 -2.9715512
000250 21 e0 3b c0 78 38 39 c0 aa a8 35 c0 aa f7 44 c0
       -2.9355547 -2.8940716 -2.8384194 -3.0776162
000260 3e e8 3f c0 5e 7b 41 c0 82 2a 45 c0 39 c2 42 c0
       -2.99855 -3.0231547 -3.0807195 -3.0431044
000270 79 4f 3c c0 38 18 41 c0 38 36 34 c0 75 0f 40 c0
       -2.9423506 -3.0171032 -2.8158092 -3.0009434
000280 5d c6 34 c0 f1 a0 3d c0 47 84 38 c0 0d 7b 44 c0
       -2.8246071 -2.962948 -2.8830736 -3.0700104
000290 d0 ec 3b c0 16 b5 3e c0 3f e8 3a c0 9e 77 40 c0
       -2.936329 -2.9798026 -2.9204252 -3.0073009
0002a0 bc 6b 48 c0 3c 72 41 c0 67 29 45 c0 93 e6 41 c0
       -3.1315756 -3.0225973 -3.080652 -3.0296981
0002b0 64 71 42 c0 7b b6 3b c0 dd ef 3e c0 ff 24 45 c0
       -3.0381708 -2.9330127 -2.98339 -3.080383
0002c0 df d0 40 c0 a8 cc 3e c0 4c 47 40 c0 c0 f0 3f c0
       -3.0127485 -2.9812412 -3.0043516 -2.9990692
0002d0 5b 4d 4e c0 1b e6 45 c0 39 55 3c c0 a9 b9 31 c0
       -3.2234714 -3.0921695 -2.9427016 -2.7769568
0002e0 aa 31 3f c0 97 c2 3b c0 4e 47 34 c0 e0 e2 46 c0
       -2.9874063 -2.9337518 -2.816852 -3.1075974
0002f0 f0 12 3a c0 f6 17 40 c0 20 07 40 c0 59 4f 43 c0
       -2.9074059 -3.0014625 -3.0004349 -3.051718
000300 43 15 3a c0 ac ee 46 c0 5f bd 37 c0 43 7a 47 c0
       -2.9075477 -3.1083174 -2.8709333 -3.1168373
000310 18 00 3b c0 c6 18 34 c0 91 dd 32 c0 23 a6 36 c0
       -2.9218807 -2.814012 -2.7947733 -2.8538902
000320 10 5c 32 c0 5a 0f 34 c0 2c f9 3b c0 58 21 42 c0
       -2.786869 -2.813437 -2.9370832 -3.0332851
000330 43 d8 4c c0 5a 02 3b c0 81 31 47 c0 3b b2 43 c0
       -3.2006996 -2.9220185 -3.1123965 -3.0577533
000340 ee 02 46 c0 67 1c 3c c0 6f 57 3b c0 e2 0e 38 c0
       -3.0939288 -2.9392335 -2.9272115 -2.8759084
000350 04 29 38 c0 0f 33 39 c0 67 72 3b c0 bc 6b 42 c0
       -2.8775034 -2.8937414 -2.9288576 -3.0378256
000360 d8 67 40 c0 83 6d 3a c0 18 42 3d c0 fd ea 4a c0
       -3.0063381 -2.912934 -2.957159 -3.1705925
000370 72 20 42 c0 1f 96 3b c0 ac c6 3b c0 b9 57 3b c0
       -3.0332303 -2.9310377 -2.934001 -2.9272292
000380 0f b4 3b c0 c8 73 3f c0 da ae 3e c0 26 84 46 c0
       -2.932865 -2.9914417 -2.979422 -3.1018157
000390 f8 be 37 c0 cb ea 43 c0 60 e4 47 c0 75 07 40 c0
       -2.8710308 -3.0612056 -3.123314 -3.0004551
0003a0 97 37 43 c0 4b 93 33 c0 86 8d 4b c0 eb fb 3c c0
       -3.050268 -2.805865 -3.180513 -2.9528759
0003b0 ae 0a 3b c0 77 28 3f c0 e5 64 3f c0 31 95 38 c0
       -2.9225268 -2.9868448 -2.990533 -2.884106
0003c0 bb 30 40 c0 65 80 46 c0 85 4b 3d c0 8a 7b 41 c0
       -3.0029743 -3.1015866 -2.9577343 -3.0231652
0003d0 8c 57 43 c0 a6 58 37 c0 c8 f7 40 c0 8c c8 30 c0
       -3.0522184 -2.8647857 -3.0151234 -2.7622404
0003e0 73 a9 46 c0 b3 6d 48 c0 fe 17 3e c0 d5 2a 3e c0
       -3.1040924 -3.1316955 -2.9702144 -2.9713643
0003f0 72 fd 40 c0 de 17 39 c0 5e af 4d c0 29 02 39 c0
       -3.015469 -2.8920817 -3.2138286 -2.8907568

l1.weight.mu f4 [800, 29]
000000 e5 a8 01 3c 9f e6 65 bc 95 10 21 be 00 c1 86 bd
       0.007913803 -0.014032035 -0.15728982 -0.065797806
000010 29 e1 e1 bd 1c d4 32 3e 87 15 56 bc 0a 0b 84 bd
       -0.11029274 0.17463726 -0.013066656 -0.06447418
000020 21 2f 37 3e 36 6b a5 bd 99 fe e3 bd ee 36 3e be
       0.17889072 -0.080770895 -0.11132545 -0.18575642
000030 01 c2 04 be e8 49 82 bc 78 fe 26 bd 73 9d b9 bd
       -0.12964632 -0.015904382 -0.040770024 -0.09063234
000040 25 22 2d be da 97 9f bd 49 73 c6 3d 6d 0f af bd
       -0.16907556 -0.07792635 0.09689958 -0.08547864
000050 dd bb 00 be 88 7a 5b 3d 62 77 21 3d 7d 4f 93 3d
       -0.12571664 0.05358365 0.039420493 0.071928956
000060 d5 84 ad 3d b2 e4 dd bd 6f 56 2b 3e b4 19 aa 3d
       0.08472601 -0.10834636 0.1673219 0.08305684
000070 26 bf 6a be 24 09 bb bd 13 77 24 3d b6 7f 1a 3d
       -0.2292448 -0.09132603 0.04015262 0.03771945
000080 4c 6e 30 bd 83 3b 5b bb 4c 12 01 3c a7 b1 e7 bc
       -0.043073937 -0.003345222 0.0078778975 -0.028282953
000090 ea 7c 7a be e0 ef 66 3d cb a5 f2 bb 49 a1 30 be
       -0.24461713 0.056381106 -0.007405018 -0.17249025
0000a0 56 e5 cf bd 08 da c5 bd aa a8 04 3d 25 bf bb 3d
       -0.10151164 -0.09660727 0.032387413 0.09167317
0000b0 ae 91 dd 3c d0 0e 48 be 59 ef 0b 3e 1c 70 86 3d
       0.027047005 -0.195369 0.13665523 0.06564352
0000c0 80 50 86 3c cb 28 0a bc 7d e5 5e 3d ac 79 00 be
       0.016395807 -0.008432577 0.054418076 -0.12546414
0000d0 8e 42 98 3d d1 fc 4d be 59 29 c5 3b 40 3d c0 3d
       0.07434569 -0.20115973 0.006016892 0.093866825
0000e0 0e 45 aa 3b 35 b2 70 bd 60 ab 05 3e b4 56 c1 bc
       0.0051962202 -0.0587637 0.13053656 -0.023600914
0000f0 2e 4e ab 3d c1 c7 e9 3d 6d 40 d0 3d 13 a3 97 bd
       0.08364521 0.11415053 0.10168538 -0.07404151
000100 c6 66 f7 3d 35 76 bf bd 12 5d c8 3d c3 24 85 be
       0.12080149 -0.09348718 0.09783377 -0.2600461
000110 b8 50 97 3d 4c c3 b1 3d 89 bd 0c be ee 52 23 3d
       0.07388443 0.08679828 -0.13744177 0.03987401
000120 fa d6 9a bd 0f 56 17 3e de be 47 3e d1 29 10 bd
       -0.07560535 0.14778922 0.19506404 -0.03519613
000130 5c 90 1e 3e 58 34 3b bc fb 13 11 3d 10 94 20 3e
       0.15484756 -0.011426054 0.035419445 0.15681481
000140 10 21 0a 3e 7e e8 d7 3d 78 09 10 bd 59 5f 39 3e
       0.13489175 0.10542391 -0.03516528 0.18102778
000150 1e cd 17 be 93 e8 fa bd 74 12 96 3b 6f c8 c5 bd
       -0.1482434 -0.12251391 0.0045798365 -0.0965737
000160 f4 62 21 be b0 55 89 bd 4d 4d 49 bd 13 92 57 bd
       -0.15760404 -0.06705797 -0.049145985 -0.05262954
000170 3d 9a 2d be 51 36 cc 3d 25 97 9e bc a1 c6 10 3d
       -0.16953368 0.099712975 -0.01935918 0.035345677
000180 31 cc 5c bd d1 57 37 bd 37 6b f6 bd 10 65 93 3d
       -0.05390567 -0.044761483 -0.12032168 0.071970105
000190 b7 3d d1 3d 52 b3 3f 3e bc f8 f9 3c b9 77 b2 bd
       0.10216849 0.18720749 0.030514114 -0.087142415
0001a0 be 54 fc 3c 7b 89 05 be a1 d9 20 3b fd 96 fe bc
       0.030802127 -0.13040726 0.002454378 -0.031077856
0001b0 44 27 20 bb 9b b5 3c bd e6 a2 98 bd ae 06 ee bd
       -0.0024437467 -0.04607163 -0.074529454 -0.11622368
0001c0 b2 17 34 3d 97 bb 8a bc 36 91 e3 bd 20 77 82 3e
       0.04396791 -0.016935153 -0.11111681 0.2548151
0001d0 c8 c9 91 bd 95 f6 55 be 64 91 cc 3d fe 5a 3d bd
       -0.07118565 -0.20894845 0.099886686 -0.046229355
0001e0 b8 9a c2 bd be 3b 29 3d 55 e0 c8 bd d4 c7 fb 3d
       -0.095021665 0.04131674 -0.09808413 0.122939736
0001f0 52 a6 46 be 06 2c 02 be 25 8d 48 3e 08 5e 16 bd
       -0.19399384 -0.12712106 0.19585092 -0.03671077
000200 d5 be 46 3d 52 5a 07 be 64 2b f9 bc 53 7c 4c 3d
       0.048521835 -0.13218048 -0.030416198 0.049923252
000210 03 7c ce 3c 96 7d 12 bc 62 07 20 3e b3 2f 8a bd
       0.025205618 -0.008941075 0.15627816 -0.06747379
000220 fb a3 62 3e 39 3e e5 3c e5 e7 9d bd b6 92 00 bd
       0.22132866 0.027983772 -0.07710246 -0.031389914
000230 5a 79 5b bd e3 8c 90 bd 61 bd 49 3d ea c2 3e be
       -0.053582527 -0.07058122 0.04925287 -0.18629041
000240 c8 04 22 bc 58 71 a3 bd 75 46 8f 3d b5 4c 81 3d
       -0.009888835 -0.07980603 0.069958605 0.06313459
000250 c9 28 9f bd 66 29 88 3d b5 0b 76 bc 34 47 ae 3d
       -0.07771451 0.06648521 -0.01501744 0.08509675
000260 db 4c 14 be 94 10 16 bd 4f ac 03 be 38 6c 1f be
       -0.14482443 -0.036636904 -0.128587 -0.15568626
000270 db 56 7c bd 37 c6 2a 3e da 72 76 3c 73 1c 4a bc
       -0.06160627 0.16677175 0.015042031 -0.012335884
000280 7a 20 e2 3d db df 8c 3e 61 5f a1 bd 48 62 82 be
       0.11041351 0.27514538 -0.0787952 -0.25465608
000290 fb 11 0d bd 3e 37 4d be 04 38 ac 3d 28 23 7c bd
       -0.034440976 -0.20040604 0.08409122 -0.061556965
0002a0 bb b3 36 bb 6a 4b f5 bc 6d dd 3f 3b c3 ca d1 bc
       -0.0027878124 -0.029943187 0.0029276267 -0.02560938
0002b0 92 6d e4 bc 73 a7 39 3e d5 f5 8c 3c cb e7 79 bd
       -0.027884278 0.18130283 0.017207066 -0.06101207
0002c0 18 b3 92 bd f4 e5 60 3e 9d ad 54 3d 66 fa 15 be
       -0.07163066 0.2196272 0.051923383 -0.146463
0002d0 93 3d 72 bd ec f2 a8 be 85 35 53 bc bc f8 65 bd
       -0.059140753 -0.32997835 -0.012891178 -0.056145415
0002e0 fa f3 5a bd 65 a4 b8 bc 60 d9 9c 3d 79 5f 03 be
       -0.05345533 -0.022539327 0.076586485 -0.12829389
0002f0 a6 08 e8 3d 89 62 7b 3e 4c 28 8b bd 93 ec ac bd
       0.113297746 0.24549307 -0.067947954 -0.084435605
000300 f1 10 f4 3d 26 7a 78 3b 30 1d 76 bd b4 b6 48 bc
       0.11917294 0.0037914603 -0.06008643 -0.012250591
000310 d5 7e 0f be b2 22 b1 bc 85 1f 80 3b 48 fa 2d 3a
       -0.14013226 -0.02162299 0.0039100074 0.0006636721
000320 64 b7 f3 3c a7 e2 4e bd 2d 9d 1c 3d b6 21 40 3e
       0.029750533 -0.05050912 0.038235832 0.1876286
000330 ea fd a0 3d a7 09 5a be ee 2b 9d bb 9d 88 7e 3e
       0.0786093 -0.21292745 -0.0047964966 0.24856801
000340 75 84 3f bd fa 17 b2 bd 93 6a 20 be 9f ec 29 3d
       -0.04675718 -0.086959794 -0.15665655 0.041485425
000350 c5 04 ac bd 09 2f 35 be 51 04 23 bd 4e 60 0f bd
       -0.08399347 -0.17693724 -0.03979904 -0.035003953
000360 b8 85 1d 3d e6 f5 98 be 14 b5 c5 3c 90 75 f8 3d
       0.038457602 -0.29875106 0.024134196 0.12131798
000370 fb d1 14 3c fa 3d a3 bc af 92 58 3d ee 30 2c be
       0.009083266 -0.019927014 0.052874263 -0.1681554
000380 3a 7f 28 bd c2 99 16 3e 58 04 ad bd 2c fe 12 be
       -0.041136958 0.14707091 -0.08448094 -0.14354771
000390 0f 57 3f 3e cc 86 3a be 3c 61 1d 3d a4 b0 64 bd
       0.18685554 -0.18215483 0.038422808 -0.05583252
0003a0 f6 b0 e7 3d 5e 7b 4b bd 24 af 85 bd 62 c4 87 3d
       0.113130495 -0.0496782 -0.06527546 0.06629254
0003b0 04 83 14 be fe 07 c6 3c 5b b0 de bc bc ce 72 bd
       -0.14503103 0.024173733 -0.027183702 -0.05927919
0003c0 22 3f 0a be 4c 61 15 3d fe 9e 01 bc 26 8f 66 3d
       -0.13500646 0.036469743 -0.007911442 0.05628886
0003d0 8b 48 19 3e b8 52 cb bc 11 e1 a3 bd a4 66 ca 3d
       0.14969079 -0.024819717 -0.080019124 0.098828584
0003e0 30 87 9e ba 04 f5 33 3d 17 58 57 bd 80 bb bf 3c
       -0.0012094732 0.043934837 -0.052574243 0.023404837
0003f0 e3 87 19 be f1 dd 40 bc d0 da 90 3c ac 38 dc 3c
       -0.14993243 -0.011771665 0.017682463 0.026882492

l1.weight.rho f4 [800, 29]
000000 ca 61 45 c0 3b 87 38 c0 45 a5 41 c0 ea d6 36 c0
       -3.0840936 -2.8832538 -3.0257123 -2.8568673
000010 38 62 3a c0 b1 cd 40 c0 3b df 45 c0 6d a4 43 c0
       -2.9122448 -3.0125544 -3.09175 -3.0569108
000020 a9 c1 41 c0 c5 b8 4f c0 18 3f 39 c0 79 d6 40 c0
       -3.027445 -3.2456524 -2.894476 -3.0130904
000030 22 c8 3c c0 9b 04 4c c0 ac 64 42 c0 36 81 3a c0
       -2.9497151 -3.187781 -3.0373945 -2.9141364
000040 d3 27 41 c0 25 02 46 c0 b7 a6 3a c0 7e 75 3c c0
       -3.0180557 -3.093881 -2.9164255 -2.9446712
000050 d5 77 40 c0 99 49 3f c0 1d 71 4a c0 c2 f7 3e c0
       -3.007314 -2.988867 -3.163154 -2.983872
000060 4e 56 3c c0 fd b2 3b c0 5c 2d 44 c0 74 d9 41 c0
       -2.9427676 -2.9327996 -3.0652685 -3.0288973
000070 42 f1 43 c0 fe f0 40 c0 c8 70 38 c0 14 ad 35 c0
       -3.0616002 -3.014709 -2.8818836 -2.8386889
000080 d5 f2 41 c0 f8 cf 3a c0 76 49 3e c0 57 88 2e c0
       -3.0304463 -2.9189434 -2.9732337 -2.7270715
000090 74 fb 3c c0 a6 91 48 c0 dd ea 3a c0 30 d8 45 c0
       -2.9528475 -3.1338897 -2.920585 -3.09132
0000a0 33 7b 39 c0 f2 0e 40 c0 62 0f 4b c0 3f c0 4a c0
       -2.8981445 -3.0009122 -3.172814 -3.1679838
0000b0 3e 2b 36 c0 91 f4 3b c0 08 b6 35 c0 b4 d6 38 c0
       -2.8463893 -2.9368021 -2.8392353 -2.8881044
0000c0 e9 07 3d c0 9f e7 41 c0 06 fb 37 c0 65 93 3b c0
       -2.9536078 -3.029762 -2.8746963 -2.9308712
0000d0 00 2f 41 c0 db 85 40 c0 1f 71 41 c0 5a 77 3b c0
       -3.0184937 -3.00817 -3.0225294 -2.9291596
0000e0 d4 1d 3c c0 da d6 31 c0 ba c1 3f c0 50 6f 4a c0
       -2.9393206 -2.7787385 -2.9961991 -3.163044
0000f0 06 db 40 c0 3b 4d 41 c0 14 93 36 c0 1c fd 44 c0
       -3.0133681 -3.0203388 -2.852727 -3.0779486
000100 d0 de 3d c0 76 77 3e c0 03 8a 45 c0 dd ca 41 c0
       -2.9667244 -2.9760413 -3.0865486 -3.0280068
000110 15 04 3e c0 49 39 45 c0 b9 c0 34 c0 a9 c4 43 c0
       -2.9689991 -3.0816214 -2.8242629 -3.0588782
000120 3f 13 41 c0 1a c0 45 c0 24 05 4a c0 1a bf 32 c0
       -3.0167997 -3.08985 -3.1565638 -2.792914
000130 ea cd 4c c0 e5 e7 43 c0 b6 cd 3d c0 62 14 45 c0
       -3.200068 -3.0610287 -2.9656806 -3.079369
000140 71 a5 40 c0 0f c7 46 c0 50 b8 45 c0 74 28 49 c0
       -3.0100977 -3.1058996 -3.0893745 -3.143094
000150 ab a1 3d c0 29 c2 39 c0 eb ee 45 c0 6d c1 43 c0
       -2.9629924 -2.9024756 -3.0927074 -3.0586808
000160 34 4b 45 c0 da c5 41 c0 70 f2 40 c0 53 6a 43 c0
       -3.082715 -3.027701 -3.0147972 -3.0533645
000170 7d d4 3c c0 f8 2d 46 c0 ff 71 3d c0 bf b7 43 c0
       -2.9504693 -3.0965557 -2.9600828 -3.05809
000180 b5 fa 45 c0 b7 10 3c c0 da 22 3e c0 57 c4 37 c0
       -3.093427 -2.9385202 -2.9708772 -2.8713586
000190 bd ba 42 c0 22 cb 39 c0 30 5c 41 c0 bf 3e 3e c0
       -3.0426476 -2.9030232 -3.0212517 -2.9725797
0001a0 a7 4e 4b c0 61 4a 3a c0 7f 7f 38 c0 ab 70 41 c0
       -3.1766756 -2.9107897 -2.8827817 -3.0225017
0001b0 53 aa 3f c0 48 ad 44 c0 39 19 36 c0 cd 9c 42 c0
       -2.9947708 -3.0730762 -2.8452895 -3.0408204
0001c0 67 cc 3b c0 c8 aa 42 c0 31 60 48 c0 84 d2 47 c0
       -2.9343507 -3.0416737 -3.130871 -3.1222239
0001d0 c6 ac 47 c0 68 ae 4a c0 11 17 42 c0 60 c2 44 c0
       -3.1199203 -3.166895 -3.0326579 -3.0743637
0001e0 a7 d7 38 c0 7c 0f 4b c0 42 ff 40 c0 bd 2a 44 c0
       -2.8881624 -3.17282 -3.0155797 -3.0651085
0001f0 e2 70 3d c0 0b 44 44 c0 82 ac 45 c0 59 06 53 c0
       -2.9600148 -3.066653 -3.088654 -3.2972624
000200 cf 89 3b c0 1f 76 3c c0 81 bb 3c c0 f3 b8 3b c0
       -2.9302862 -2.9447095 -2.9489443 -2.9331634
000210 66 46 31 c0 09 bf 42 c0 8f a8 3e c0 77 20 41 c0
       -2.7699218 -3.0429099 -2.979038 -3.0176065
000220 64 67 35 c0 e5 4c 3d c0 f1 3c 40 c0 8e 44 48 c0
       -2.8344355 -2.9578183 -3.0037196 -3.1291842
000230 ed 76 41 c0 86 ad 38 c0 34 e3 45 c0 9b 12 4a c0
       -3.0228837 -2.885591 -3.0919924 -3.1573856
000240 51 41 3b c0 7d 54 32 c0 b8 e8 46 c0 56 30 3b c0
       -2.9258616 -2.7864068 -3.107954 -2.9248252
000250 47 29 44 c0 8f 7f 45 c0 d8 a5 3d c0 30 94 42 c0
       -3.0650194 -3.0859106 -2.9632473 -3.0402946
000260 52 6d 3e c0 31 1b 41 c0 74 2a 48 c0 ad 05 40 c0
       -2.9754224 -3.0172846 -3.1275911 -3.0003464
000270 43 26 3d c0 59 72 3e c0 a5 66 46 c0 26 0c 3d c0
       -2.9554603 -2.9757292 -3.100015 -2.9538665
000280 2f 7c 3f c0 d5 a8 37 c0 2e 28 37 c0 03 7a 41 c0
       -2.9919546 -2.8696797 -2.8618274 -3.023072
000290 d1 be 37 c0 79 2c 48 c0 df 5d 47 c0 a1 26 43 c0
       -2.8710215 -3.1277144 -3.1151044 -3.0492327
0002a0 60 0b 3f c0 16 a9 40 c0 da 0f 3d c0 9b e9 3f c0
       -2.9850693 -3.0103202 -2.9540925 -2.9986331
0002b0 8e a0 38 c0 6f 2f 44 c0 87 70 49 c0 f2 e2 36 c0
       -2.8847995 -3.065395 -3.1474931 -2.8576016
0002c0 7c d9 44 c0 dd 9e 43 c0 b7 45 3c c0 ca 6e 3b c0
       -3.0757742 -3.0565712 -2.941755 -2.928637
0002d0 3f c3 44 c0 3d 3b 44 c0 76 53 3d c0 e1 67 3d c0
       -3.0744169 -3.0661156 -2.958219 -2.9594653
0002e0 52 bb 42 c0 9e 4e 3f c0 3e 8f 3f c0 8b 99 41 c0
       -3.0426831 -2.9891734 -2.9931178 -3.0249965
0002f0 03 81 4e c0 78 5b 3c c0 81 61 38 c0 26 9c 3c c0
       -3.2266243 -2.9430828 -2.8809512 -2.9470305
000300 ab 6c 31 c0 5d 50 3e c0 bb 24 3b c0 93 e6 39 c0
       -2.7722576 -2.973655 -2.9241168 -2.9046981
000310 40 11 3f c0 7a 45 40 c0 be 3d 3e c0 f1 46 3c c0
       -2.9854279 -3.0042405 -2.9725184 -2.94183
000320 e1 99 37 c0 a1 a2 42 c0 aa c3 43 c0 53 a6 3f c0
       -2.868767 -3.041176 -3.0588174 -2.9945266
000330 d6 8f 35 c0 a2 92 3c c0 2d e9 3f c0 85 c4 3a c0
       -2.836904 -2.9464498 -2.998607 -2.9182446
000340 35 a9 40 c0 b0 2c 35 c0 61 c6 40 c0 3f f3 3c c0
       -3.0103276 -2.8308525 -3.012108 -2.9523466
000350 9a da 41 c0 aa ed 42 c0 b5 76 3f c0 4b f5 41 c0
       -3.0289674 -3.0457559 -2.9916203 -3.0305965
000360 ec 57 48 c0 9f fd 3b c0 a7 96 3e c0 fc 41 41 c0
       -3.1303663 -2.9373548 -2.977945 -3.0196524
000370 75 5d 3e c0 6d 97 44 c0 37 fb 3b c0 71 7f 42 c0
       -2.9744542 -3.0717423 -2.937208 -3.0390284
000380 22 c6 41 c0 8d c2 37 c0 6b 68 3a c0 3e ca 49 c0
       -3.027718 -2.8712494 -2.9126232 -3.152969
000390 c1 e3 38 c0 3a a9 55 c0 45 3b 41 c0 e4 41 47 c0
       -2.888901 -3.3384538 -3.0192425 -3.1133966
0003a0 05 c7 3a c0 9e df 43 c0 5d 90 3f c0 40 7a 45 c0
       -2.9183972 -3.0605235 -2.9931862 -3.0855865
0003b0 c1 18 45 c0 3c cd 3c c0 04 ae 41 c0 b3 ae 39 c0
       -3.0796359 -2.9500265 -3.026246 -2.9012878
0003c0 30 92 3c c0 d6 e5 47 c0 06 ec 4a c0 b7 c2 38 c0
       -2.9464226 -3.123403 -3.1706557 -2.8868845
0003d0 c7 5b 3c c0 94 10 47 c0 a8 70 3b c0 62 e3 3e c0
       -2.9431016 -3.1103868 -2.928751 -2.9826283
0003e0 4d 80 3a c0 3f 40 42 c0 8d 17 40 c0 c0 58 36 c0
       -2.9140809 -3.0351713 -3.0014374 -2.8491669
0003f0 eb 0b 3f c0 6f 71 43 c0 bb 06 37 c0 f7 c6 3c c0
       -2.9851024 -3.0537984 -2.8597858 -2.9496439

l1.bias.mu f4 [800]
000000 5c 49 08 bd dc aa 1d 3d 7f 1c 77 3d 82 3b 4a 3d
       -0.033273086 0.038493022 0.06032991 0.049373157
000010 e6 f2 59 3d 78 c1 2b be 34 2c 5e bb df d1 9c 3d
       0.05321016 -0.16773021 -0.0033900859 0.07657217
000020 48 af d8 3d 62 5d 11 be 23 d6 c7 3c 34 ae fb 3c
       0.10580307 -0.14195779 0.0243941 0.030722715
000030 e4 40 95 3e 0b 50 56 3e e0 a3 a5 bd 59 bd 1a 3e
       0.2915107 0.20928971 -0.08087897 0.15111293
000040 3c 14 20 3e f2 e9 5b 3e df fe 5b bd 5a e0 a6 bb
       0.15632719 0.21475962 -0.05370986 -0.0050926628
000050 c9 b9 40 bd 56 1e 8f 3d aa 92 30 3d 21 ee 99 bd
       -0.04705218 0.06988208 0.04310862 -0.075161226
000060 bc 0c eb bc 63 b5 01 bd 07 74 29 bd ac 17 7c bd
       -0.028692596 -0.031667124 -0.041370418 -0.061546013
000070 22 fc 2a bd 68 0d b3 3d 4a 0a ca bd 61 c2 36 be
       -0.04174436 0.087427914 -0.09865244 -0.17847587
000080 e9 9b 33 be 65 0c d0 3d 57 7a 16 be 75 72 e7 3c
       -0.17539944 0.10158614 -0.14695106 0.02825282
000090 a7 7f a4 bc 78 98 9b 3d ea 35 67 bb 2e 6c 63 bd
       -0.0200804 0.075974405 -0.0035279938 -0.05552309
0000a0 d4 f5 93 3d 14 5e 0a 3e e6 e3 d0 3c 6e 81 c4 3d
       0.07224622 0.1351245 0.025499295 0.09594999
0000b0 4b 2b 22 3e a4 f9 98 be ad 79 3d 3c 41 9c ed 3d
       0.15836827 -0.2987796 0.011564654 0.11602069
0000c0 af a9 e7 bd d8 dd 31 3c 19 0b 12 3e c7 e1 63 3c
       -0.113116615 0.010856114 0.14262046 0.01390881
0000d0 44 37 73 bd 99 1a a2 bc 05 df 8f be 3d 78 01 3e
       -0.059378877 -0.019788073 -0.28099838 0.12643524
0000e0 c0 51 ea 3d b2 8b ff 3d 46 59 64 3e b3 e9 0e bb
       0.11441374 0.12477817 0.2229968 -0.0021806776
0000f0 5d b2 0d 3e b3 05 1e bd 08 33 66 bc 3e d2 5e 3e
       0.13837571 -0.038579654 -0.014050253 0.21759889
000100 0e f9 f9 3c d6 62 e5 3c a8 38 0d 3d f2 38 dc ba
       0.030514266 0.02800123 0.03447786 -0.0016801639
000110 a7 4f b4 3d 2d c6 12 3e fc e5 71 be 4e 64 0c bd
       0.08804255 0.1433341 -0.23622888 -0.034275346
000120 f5 ee 3b 3c f2 6c 21 3e 8a 47 11 3c 8d fa ef 3c
       0.011470546 0.15764216 0.008867154 0.029294277
000130 3a f0 7f 3e 49 59 55 bd 78 2b b1 bd 26 24 09 bd
       0.24993983 -0.052087102 -0.08650869 -0.03348174
000140 1f a0 9a bd 9c 7a 2c be 50 24 b7 bc f8 9e c6 bd
       -0.07550072 -0.16843647 -0.022356182 -0.0969829
000150 b6 e3 00 3d e1 36 03 bd 82 86 5c 3d e1 4b 13 be
       0.031467162 -0.03203476 0.053839214 -0.14384414
000160 16 b2 a1 bd 1e e1 14 3e c5 03 f4 bd 52 7d 2f 3c
       -0.07895295 0.14539 -0.119147815 0.010711031
000170 67 12 5d be ed d8 b9 3c 0f 1a 14 3e 82 2e 4e bd
       -0.21589051 0.022686446 0.14463066 -0.050337322
000180 05 5f bc 3d 29 38 94 3d dc bd f7 bd 08 88 88 3d
       0.09197811 0.07237274 -0.1209676 0.06666571
000190 2b fa 75 bd 65 ad 43 be 25 cc ff 3d 1f 8e 2b 3d
       -0.060053032 -0.19109114 0.12490109 0.041883584
0001a0 4e 2c ea 3d cd 5b fa bd 6d ec ad 3d 91 8a b6 bb
       0.11434232 -0.12224541 0.0849236 -0.0055707176
0001b0 ce 63 10 3d 2b 19 51 be ad 4d d3 3c e0 c1 db bc
       0.03525143 -0.20419757 0.025793875 -0.026825845
0001c0 c8 33 ee bd cb ed 12 3e 76 b5 40 3e 56 f5 35 be
       -0.1163097 0.14348523 0.18819222 -0.1776937
0001d0 3d 1d 4a 3e ed 1b 05 3e 46 90 1c be 6e 56 33 bd
       0.19737716 0.12998934 -0.15289411 -0.043783598
0001e0 11 92 6c 3d d7 d5 cd bd 25 47 56 3d eb f6 0b 3d
       0.057756487 -0.10050552 0.052313942 0.034171026
0001f0 2d 3c 04 3e 5c 66 04 3e 73 03 0b bd 91 17 e4 bd
       0.1291358 0.12929672 -0.033938836 -0.111373074
000200 dd 20 9e ba 53 5b c9 bd b4 4c 0f 3e bb d7 c5 3d
       -0.0012064237 -0.09831872 0.13994104 0.09660288
000210 ac 55 2d 3e ba 9a b7 bc 4b e7 dd 3d da a3 c5 bd
       0.16927212 -0.022412647 0.10835131 -0.09650393
000220 33 90 8f 3b 35 58 37 bd a2 af 93 3a 43 ed 06 3e
       0.0043812036 -0.044761855 0.0011267553 0.13176446
000230 5e 68 dc 3d 00 3f eb bd 5b cc d2 bd 81 f5 84 bd
       0.10762094 -0.11486626 -0.10292884 -0.06492139
000240 f0 5a e3 bd af 30 a8 3d 76 e7 3c 3e a8 68 ed 3d
       -0.11101329 0.08212411 0.1844767 0.11592227
000250 3f ee 3b bd c8 3c be bc 36 a8 0d bb d7 9f 96 3e
       -0.045881506 -0.023222342 -0.0021615154 0.29418823
000260 bc 56 bf bb bc ef 6b 3c 56 3e 55 3e 82 60 3e 3d
       -0.005839197 0.014400419 0.2082456 0.046478756
000270 cc 52 b8 3d 7d b7 65 3c 5f b4 a2 3c 48 e8 3a bd
       0.09000167 0.014020798 0.019861398 -0.045631677
000280 9c 8e 0f 3e ea 31 0e bc c2 04 6b 3e 61 27 f1 bd
       0.14019245 -0.008678893 0.22951034 -0.11775089
000290 a4 fb 1e bd a6 f0 ef 3d 4e 77 3c 3e 46 27 db bd
       -0.038814202 0.11715822 0.18404886 -0.1070085
0002a0 5f cc 21 bd ae dc ba 3c 3c 77 32 3d e5 22 15 bd
       -0.039501544 0.022810306 0.043570742 -0.03641023
0002b0 4c 7a 73 be 01 75 0d be cf fd 48 3e c6 ae 49 be
       -0.23777121 -0.13814165 0.1962807 -0.19695577
0002c0 50 b7 95 bd 99 2d 92 3e ed 81 28 3e a4 38 5b 3c
       -0.07310355 0.28550413 0.16455813 0.013380203
0002d0 39 d8 61 bd 09 c6 01 3e 68 28 68 3e 7a 96 04 bd
       -0.055137847 0.126732 0.22671664 -0.032370068
0002e0 44 97 cf 3b 5e 58 7b 3c 26 8b b2 3d 61 83 04 3b
       0.006335171 0.015340893 0.08717947 0.002021991
0002f0 71 3c 65 bc 8a a0 1b 3d 69 87 b5 bd cc c2 86 3e
       -0.013991461 0.0379949 -0.08863718 0.26320493
000300 46 04 a4 3c ef 1e 07 3d 2d bc d9 3c a7 ba 86 bd
       0.020021569 0.032988485 0.026578987 -0.0657857
000310 53 29 48 3d 40 77 87 3d 08 c8 3f 3e 1a e7 1d 3a
       0.048867535 0.06614542 0.1872865 0.00060235115
000320 6c 6d a5 3c a4 60 86 bd 4c 89 8b 3d 44 0c c8 bd
       0.020193778 -0.065614015 0.06813297 -0.097679645
000330 e3 1b cb ba 96 64 ed bd a1 60 be 3a 38 ca a5 bd
       -0.0015495982 -0.11591451 0.0014524647 -0.08095211
000340 84 63 e3 3b 91 ae 65 be b5 8d c6 3d 37 e8 b1 3d
       0.0069393534 -0.22429873 0.09694997 0.086868696
000350 9e 79 68 be b5 17 f8 3d d4 af 17 be e0 fa 8d 3d
       -0.22702643 0.12113897 -0.14813167 0.06932616
000360 c3 b5 14 bd a1 2c 96 3d af 68 35 bd 04 b1 0a 3e
       -0.036306154 0.07332731 -0.044289287 0.13544089
000370 7a 08 09 bd 62 fb 6d 3c 84 1d 82 3d 81 d6 09 be
       -0.03345535 0.014525266 0.06353286 -0.13460733
000380 ff 3c a3 3d fa 2a a4 bd 64 8c 66 be 8a ec d6 3d
       0.079706185 -0.0801601 -0.22514492 0.10494335
000390 a9 21 82 3c fe 71 a8 bd 84 4c 8d be f2 64 4a 3b
       0.015885191 -0.08224867 -0.2759744 0.0030882922
0003a0 1c 65 56 3c 93 9a 8c 39 52 8a 6f be 55 f7 81 bd
       0.01308563 0.00026818048 -0.23392609 -0.06346003
0003b0 80 c4 e5 3d 20 75 11 be b0 73 90 3e a5 4e b7 3d
       0.1121912 -0.14204836 0.28213263 0.08950547
0003c0 d5 5e 91 bd bf 08 08 be b7 fe 0e 3e 9d 05 80 bd
       -0.07098166 -0.13284586 0.13964354 -0.06251071
0003d0 86 8a cd 3c 6c ab 98 bd ef 7a 80 bd c4 c9 90 bd
       0.025090467 -0.07454571 -0.06273448 -0.07069734
0003e0 d7 01 4c be 81 63 24 3e a0 0a df bc 7e eb 82 bd
       -0.19922577 0.16053583 -0.027226746 -0.06392573
0003f0 3c d3 5c be 8d fe a1 bd a8 f3 60 3d 1a 43 20 be
       -0.21564955 -0.0790988 0.05491987 -0.15650597
