checkpoints_2_tasks/2_task_groups_PUGCL_epochs_:150_lr_:0.06_hidden_:800_task_order_:[0 1]/model_0.pth.tar (torch_old, 400469 bytes, 24 tensors)

l1.weight_mu f4 [800, 29]
-0.17642866 0.06923144 -0.07321181 -0.012874602 0.012999719 -0.0035580776 0.03177655 0.036355525
-0.0018672968 -0.03561502 -0.028309425 0.100722186 -0.050252948 0.13887314 -0.09241777 0.028394997
0.16506855 0.061215628 0.083622985 0.20429829 0.10239489 0.035748903 -0.26602748 0.059934728
0.0861967 -0.012328111 0.045739133 -0.09147222 0.15434197 -0.23278263 0.002863284 -0.09853157
-0.028677631 -0.15889491 0.11058816 0.040017296 0.1609373 -0.17547081 0.04300082 0.009842812
0.091505036 0.058726426 -0.03396375 -0.011256158 -0.073457636 0.09328097 0.13025336 -0.115353376
-0.07893736 -0.11177533 0.0072600176 -0.008132135 -0.12496706 -0.09990783 -0.009086028 -0.049392574
0.05923638 0.0041873236 0.178657 -0.087489694 0.109180704 0.15086584 -0.2035464 0.0071179685
-0.07699513 -0.024785496 -0.08178396 0.019932099 0.09059167 -0.0105239125 0.03699624 0.09535594
0.059154432 0.23796058 -0.066761255 0.17058107 -0.011437609 0.010933043 0.10360331 -0.13493945
-0.1247676 -0.049999546 -0.008795509 -0.048001997 0.011747474 0.0059450585 -0.04819655 0.12135127
-0.029813025 0.082379445 -0.032581672 0.0056869565 -0.048297286 -0.033370752 0.040276743 -0.046343856
-0.00797593 -0.12594877 0.027545244 0.025539078 0.02806606 -0.07931389 0.13671207 0.016744595
0.18840773 0.17825072 -0.042122878 0.05405239 0.1337258 -0.04263451 -0.0633837 -0.063176386
-0.0020978686 -0.08869489 -0.03207305 -0.071174614 0.080753066 0.0066941367 0.16752121 -0.008824565
-0.014904158 -0.14342993 0.14544241 -0.13802664 -0.07285055 -0.05032519 0.035461348 0.07244661
-0.14121608 0.012407112 -0.03763547 -0.17142983 0.0979567 0.021548301 0.14646313 0.046936423
0.119414695 -0.022306545 -0.05100133 -0.11154122 -0.12495021 -0.16596808 0.040891167 0.086683586
-0.13453625 0.056930866 -0.03632802 0.14081137 -0.04602917 -0.06242325 -3.0905954e-05 0.07522751
0.021617815 0.07178936 0.0307655 0.10157071 0.0024625806 0.05232202 -0.123977505 0.036491986
-0.11292453 0.00093734846 0.103834085 0.05691505 -0.19616051 -0.010530971 -0.060823668 0.1429253
-0.09194741 0.17097872 0.097640425 0.034748442 0.06500422 0.07132041 0.007612988 0.058259953
-0.01686541 0.03038418 0.03405209 -0.104365155 -0.09764371 0.035072207 0.30648917 -0.03234723
0.0003937033 -0.11447733 0.17789349 0.05353561 -0.08376325 0.08339287 -0.09290887 -0.013290046
-0.081086226 0.063141555 -0.2448337 0.010681304 -0.1127072 0.013129632 -0.21335576 -0.18128927
-0.39943045 -0.049785867 0.04862425 0.12771326 0.026801616 -0.13981296 0.15780102 -0.11831416
0.06765505 -0.07788663 0.032117423 -0.03152841 -0.03703913 -0.0064754863 -0.049176104 -0.102919795
0.15930906 -0.016554251 0.0011815563 0.071486816 -0.072252005 -0.060558625 0.19339842 0.05406788
0.08655552 -0.0021587429 -0.0025867692 0.045525122 0.122721076 -0.06227837 0.08612281 -0.1531677
0.083982825 0.08129856 0.10007969 0.03515827 -0.22258624 0.00547129 -0.08212489 0.025485834
0.060141485 -0.09368329 0.016214015 -0.025826724 -0.0138501 -0.08138549 0.00557538 0.026392555
-0.03672696 0.12007523 0.14194094 -0.0051729293 0.04035799 -0.038461898 0.104126915 0.0619876
00000000: b7a9 34be 37c9 8d3d 13f0 95bd ffef 52bc
00000010: c6fc 543c a32e 69bb 2128 023d 88e9 143d
00000020: 15c0 f4ba 0ee1 11bd 2be9 e7bc 6f47 ce3d
00000030: 09d6 4dbd c334 0e3e 8745 bdbd a09c e83c
00000040: bb07 293e 3dbd 7a3d 8742 ab3d 9233 513e
00000050: 69b4 d13d 716d 123d c134 88be 1e7e 753d
00000060: e587 b03d d8fb 49bc f558 3b3d ca55 bbbd
00000070: d20b 1e3e 925e 6ebe efa5 3b3b ebca c9bd
00000080: 5aed eabc 59b5 22be 0c7c e23d 2de9 233d
00000090: bfcc 243e 9fae 33be a121 303d bf43 213c
000000a0: fe66 bb3d 1f8b 703d 931d 0bbd c06b 38bc
000000b0: f570 96bd 180a bf3d 2361 053e 643e ecbd
000000c0: e9a9 a1bd 77ea e4bd 71e5 ed3b a53c 05bc
000000d0: bbee ffbd 7a9c ccbd 90dd 14bc de4f 4abd
000000e0: d9a1 723d d135 893b dcf1 363e cc2d b3bd
000000f0: 229a df3d 937c 1a3e 786e 50be d93d e93b
00000100: 9faf 9dbd f40a cbbc 597e a7bd a448 a33c
00000110: 2088 b93d 7d6c 2cbc 5f89 173d fa49 c33d
00000120: eb4b 723d f0ab 733e 20ba 88bd ceac 2e3e
00000130: cf64 3bbc 8220 333c f92d d43d 912d 0abe
00000140: 2886 ffbd 53cc 4cbd 0a1b 10bc be9d 44bd
00000150: 7a78 403c c4ce c23b bf69 45bd 0487 f83d
00000160: 723a f4bc 8eb6 a83d 5c74 05bd a659 ba3b
00000170: 60d3 45bd c5af 08bd 3af9 243d 0ed3 3dbd
00000180: 7aad 02bc b7f8 00be 90a6 e13c 5437 d13c
00000190: cbea e53c 526f a2bd 40fe 0b3e f62b 893c
000001a0: f5ed 403e 5b87 363e 0a89 2cbd 0a66 5d3d
000001b0: 6bef 083e 86a1 2ebd 50cf 81bd 9f62 81bd
000001c0: 657c 09bb aba5 b5bd 085f 03bd ffc3 91bd
000001d0: dd61 a53d 7d5a db3b ae8a 2b3e e994 10bc
000001e0: 9230 74bc 4cdf 12be dbee 143e db56 0dbe
000001f0: ab32 95bd c921 4ebd eb3f 113d e35e 943d
00000200: f39a 10be 3347 4b3c a727 1abd 4d8b 2fbe
00000210: 869d c83d 1086 b03c 6efa 153e 6840 403d
00000220: b18f f43d 37bc b6bc c5e6 50bd b96f e4bd
00000230: e5e5 ffbd 89f3 29be 7f7d 273d 2a87 b13d
00000240: dfc3 09be 5730 693d b1cc 14bd db30 103e
00000250: 1589 3cbd 86af 7fbd 04a1 01b8 e110 9a3d
00000260: d817 b13c 4d06 933d ee07 fc3c 4e04 d03d
00000270: 3f63 213b 9d4f 563d ebe7 fdbd 9f78 153d
00000280: fa44 e7bd 64b8 753a f7a6 d43d c11f 693d
00000290: 4dde 48be 188a 2cbc 3d22 79bd 035b 123e
000002a0: ec4e bcbd 0c15 2f3e b4f7 c73d 6254 0e3d
000002b0: ef20 853d 6f10 923d 5f76 f93b fda1 6e3d
000002c0: 5429 8abc 3ee8 f83c 347a 0b3d 66bd d5bd
000002d0: 6df9 c7bd e0a7 0f3d 26ec 9c3e 877e 04bd
000002e0: f669 ce39 1773 eabd b629 363e 2848 5b3d
000002f0: 118c abbd e2c9 aa3d 0147 bebd 7ebe 59bc
00000300: 8910 a6bd 5c50 813d afb5 7abe a300 2f3c
00000310: 08d3 e6bd ab1d 573c ef79 5abe e5a3 39be
00000320: 2682 ccbe 44ec 4bbd 392a 473d 44c7 023e
00000330: 108f db3c 212b 0fbe 9796 213e b24e f2bd
00000340: bb8e 8a3d 0783 9fbd 8f8d 033d ef23 01bd
00000350: 58b6 17bd 5130 d4bb e26c 49bd 9dc7 d2bd
00000360: ea21 233e c89c 87bc 73de 9a3a ae67 923d
00000370: dcf8 93bd 520c 78bd 3c0a 463e 4876 5d3d
00000380: 0544 b13d b279 0dbb c986 29bb 8d78 3a3d
00000390: 3055 fb3d 9b17 7fbd 2861 b03d fed7 1cbe
000003a0: 30ff ab3d dc7f a63d 95f6 cc3d 1e02 103d
000003b0: a6ed 63be 8248 b33b 1831 a8bd abc7 d03c
000003c0: eb56 763d 06dd bfbd 41d3 843c 9192 d3bc
000003d0: 88eb 62bc 70ad a6bd adb1 b63b 3335 d83c
000003e0: 026f 16bd 01ea f53d f758 113e ad81 a9bb
000003f0: 6b4e 253d 398a 1dbd 7e40 d53d b6e6 7d3d

l1.weight_rho f4 [800, 29]
-2.8602118 -2.9041617 -3.094234 -2.987708 -2.9898589 -2.8639421 -2.866167 -2.8442504
-2.8802938 -3.040005 -2.773223 -3.0576859 -3.0909278 -2.8691406 -2.8143535 -2.7710695
-2.8829587 -2.9943354 -3.0168192 -2.954378 -2.9831204 -2.9751358 -3.1233785 -2.8536344
-3.1853888 -3.1319282 -3.0430422 -3.045796 -3.0234752 -2.8021412 -3.0548806 -3.005353
-3.140513 -2.9988463 -3.1803045 -3.0800443 -3.0076728 -2.9816198 -3.0254755 -3.1921167
-2.9988804 -3.059976 -3.0779247 -2.848441 -2.9317412 -3.133823 -3.0845947 -2.874189
-3.0134754 -3.0509784 -2.9885528 -2.8120773 -2.8150704 -3.0188026 -3.0175683 -2.8691232
-3.0579605 -2.9434748 -3.0141883 -3.0434453 -3.1591122 -2.9585476 -3.0222797 -3.1440222
-3.037505 -3.2641234 -3.0542872 -2.778941 -2.9543326 -2.9512782 -2.8412576 -2.9088745
-3.0579484 -2.8628404 -2.8571982 -3.124212 -3.032338 -2.9324405 -3.0348132 -3.1364396
-3.002698 -2.9307241 -2.9733896 -3.0933573 -3.004196 -3.1381223 -2.8036578 -2.8398075
-2.9377666 -2.8946404 -3.040945 -3.1607935 -3.1047173 -3.0723126 -3.1653628 -2.9915495
-3.036221 -3.1509964 -2.834573 -2.9820697 -3.0883744 -2.9710507 -2.9685633 -2.9824643
-2.8412092 -2.862044 -2.9125793 -2.9406805 -3.0490243 -2.8621032 -3.0334928 -2.9314258
-3.0396745 -3.080514 -2.9793978 -3.0684185 -3.1076555 -2.961959 -2.977723 -3.08653
-2.8848944 -3.0113175 -3.1264942 -3.0689657 -2.9837947 -2.9214785 -2.8446255 -2.9346943
-2.9925256 -2.993216 -3.1366541 -3.0771394 -2.8743653 -3.0811906 -3.0474725 -3.1325548
-3.04649 -2.9762535 -3.0104966 -3.0147843 -2.9758976 -2.9313617 -2.9921923 -2.8965416
-3.0137434 -2.9687495 -2.9243784 -2.7522488 -2.9487095 -2.9156706 -3.067556 -3.186333
-2.9466856 -3.1277099 -2.9532166 -3.1067328 -2.9964385 -2.95187 -3.004495 -2.9183993
-2.9780798 -2.962509 -2.9525242 -3.06249 -2.8951166 -3.1459327 -3.060058 -2.9629884
-3.2130313 -2.8852017 -3.080474 -2.8457797 -2.9724338 -3.0797317 -3.0821984 -3.1206028
-3.0578961 -3.0972812 -3.0128586 -3.0171406 -2.9408658 -2.8952408 -2.9497375 -2.9889362
-2.792178 -2.940818 -2.8871272 -3.1056933 -2.9132197 -3.0167642 -3.046026 -2.9799094
-3.0635297 -3.0588999 -2.9940112 -2.9687676 -2.9120736 -2.9756935 -3.0777042 -2.9626904
-3.043128 -2.814072 -3.1872475 -2.94757 -2.9849553 -3.0320985 -3.0885103 -2.9572623
-3.1036565 -3.0504405 -3.1254156 -2.9119613 -2.9782584 -2.9992385 -3.0659454 -2.9538374
-2.9815617 -2.9560366 -3.0642433 -2.8039048 -3.177324 -2.977378 -2.9911318 -3.1931934
-2.9097846 -3.0619621 -2.9412935 -2.9836507 -2.9145048 -3.0663285 -2.9152284 -2.733965
-3.0379038 -2.962757 -2.9397888 -2.9707658 -2.938959 -2.9445984 -3.1266057 -2.846934
-2.9284298 -2.8297696 -2.853488 -2.8957899 -2.9357631 -3.1022737 -2.9840243 -3.2367277
-2.9372084 -2.9307835 -3.0077589 -3.0823934 -3.145672 -3.0715754 -3.1157176 -2.9560628
00000000: b60d 37c0 c9dd 39c0 ee07 46c0 9c36 3fc0
00000010: d959 3fc0 d44a 37c0 486f 37c0 3308 36c0
00000020: bc56 38c0 718f 42c0 7c7c 31c0 20b1 43c0
00000030: c3d1 45c0 00a0 37c0 5e1e 34c0 3459 31c0
00000040: 6582 38c0 31a3 3fc0 9113 41c0 8714 3dc0
00000050: 72eb 3ec0 a068 3ec0 6fe5 47c0 f2a1 36c0
00000060: 69dd 4bc0 8371 48c0 34c1 42c0 52ee 42c0
00000070: 9e80 41c0 4856 33c0 2a83 43c0 b457 40c0
00000080: 2afe 48c0 19ed 3fc0 1c8a 4bc0 721f 45c0
00000090: b67d 40c0 dcd2 3ec0 64a1 41c0 a44b 4cc0
000000a0: a8ed 3fc0 a6d6 43c0 b8fc 44c0 db4c 36c0
000000b0: a6a1 3bc0 8e90 48c0 006a 45c0 b6f2 37c0
000000c0: c8dc 40c0 3b43 43c0 7344 3fc0 13f9 33c0
000000d0: 1d2a 34c0 1034 41c0 d71f 41c0 b79f 37c0
000000e0: a0b5 43c0 e461 3cc0 76e8 40c0 cfc7 42c0
000000f0: e52e 4ac0 d858 3dc0 086d 41c0 a937 49c0
00000100: 7b66 42c0 66e7 50c0 7179 43c0 2bda 31c0
00000110: c913 3dc0 bee1 3cc0 2ad7 35c0 002b 3ac0
00000120: 6db5 43c0 c738 37c0 56dc 36c0 17f3 47c0
00000130: d311 42c0 1bad 3bc0 613a 42c0 6dbb 48c0
00000140: 342c 40c0 fc90 3bc0 044c 3ec0 91f9 45c0
00000150: bf44 40c0 ffd6 48c0 216f 33c0 68bf 35c0
00000160: 5e04 3cc0 ca41 39c0 d89e 42c0 714a 4ac0
00000170: b0b3 46c0 c5a0 44c0 4e95 4ac0 8c75 3fc0
00000180: 7251 42c0 eda9 49c0 a569 35c0 3bda 3ec0
00000190: eda7 45c0 b225 3ec0 f1fc 3dc0 b2e0 3ec0
000001a0: 5fd6 35c0 bb2b 37c0 b367 3ac0 1c34 3cc0
000001b0: 3723 43c0 b32c 37c0 bf24 42c0 7b9c 3bc0
000001c0: 078a 42c0 2427 45c0 74ae 3ec0 f860 44c0
000001d0: d4e3 46c0 bc90 3dc0 0393 3ec0 b589 45c0
000001e0: 1ca2 38c0 6db9 40c0 7b18 48c0 ef69 44c0
000001f0: 7ef6 3ec0 81f9 3ac0 580e 36c0 08d2 3bc0
00000200: 8a85 3fc0 da90 3fc0 f1be 48c0 daef 44c0
00000210: 9af5 37c0 3a32 45c0 ca09 43c0 c77b 48c0
00000220: b1f9 42c0 f07a 3ec0 faab 40c0 3af2 40c0
00000230: 1b75 3ec0 6e9b 3bc0 1480 3fc0 f060 39c0
00000240: 2ce1 40c0 feff 3dc0 0429 3bc0 d824 30c0
00000250: a8b7 3cc0 599a 3ac0 d652 44c0 e1ec 4bc0
00000260: 7f96 3cc0 662c 48c0 8001 3dc0 b6d4 46c0
00000270: a6c5 3fc0 70eb 3cc0 a549 40c0 0ec7 3ac0
00000280: dc98 3ec0 bf99 3dc0 28f6 3cc0 d6ff 43c0
00000290: 9749 39c0 f656 49c0 fed7 43c0 9aa1 3dc0
000002a0: 4ea2 4dc0 25a7 38c0 7c26 45c0 4121 36c0
000002b0: 5b3c 3ec0 531a 45c0 bd42 45c0 f5b7 47c0
000002c0: 92b4 43c0 db39 46c0 add2 40c0 d518 41c0
000002d0: 2537 3cc0 a04b 39c0 80c8 3cc0 bb4a 3fc0
000002e0: 0bb3 32c0 5d36 3cc0 b1c6 38c0 aec3 46c0
000002f0: 3172 3ac0 aa12 41c0 17f2 42c0 d6b6 3ec0
00000300: df10 44c0 04c5 43c0 e19d 3fc0 4a00 3ec0
00000310: 6a5f 3ac0 c371 3ec0 1bf9 44c0 b89c 3dc0
00000320: 9cc2 42c0 c119 34c0 ddfb 4bc0 fda4 3cc0
00000330: 8209 3fc0 e70d 42c0 27aa 45c0 c943 3dc0
00000340: 4fa2 46c0 6b3a 43c0 cf06 48c0 935d 3ac0
00000350: c99b 3ec0 86f3 3fc0 7338 44c0 ac0b 3dc0
00000360: e8d1 3ec0 b42f 3dc0 901c 44c0 2d73 33c0
00000370: 4759 4bc0 5c8d 3ec0 b46e 3fc0 485d 4cc0
00000380: e939 3ac0 30f7 43c0 273e 3cc0 22f4 3ec0
00000390: 3f87 3ac0 ba3e 44c0 1a93 3ac0 48f9 2ec0
000003a0: 046d 42c0 d09d 3dc0 8025 3cc0 0721 3ec0
000003b0: e717 3cc0 4d74 3cc0 4f1a 48c0 2b34 36c0
000003c0: 656b 3bc0 f21a 35c0 8c9f 36c0 9f54 39c0
000003d0: 8be3 3bc0 a78b 46c0 41fa 3ec0 8c26 4fc0
000003e0: 39fb 3bc0 f591 3bc0 1f7f 40c0 ef45 45c0
000003f0: b152 49c0 b194 44c0 eb67 47c0 2230 3dc0

l1.bias_mu f4 [800]
-0.029001556 -0.116678104 -0.028695961 -0.06291326 0.011456337 0.24465872 0.05660889 -0.06668308
0.15908512 -0.034050077 0.118403 -0.1796602 -0.22922675 0.011498072 0.029618405 0.067423746
-0.058357015 0.03680878 -0.102861196 -0.062474594 -0.08035822 0.08304555 -0.0627414 0.10695546
-0.00883081 0.032002024 0.15552293 0.05981077 0.105373375 0.05229538 -0.08672087 0.15034823
-0.043190353 0.06899387 -0.12889813 0.011295401 -0.08022508 0.035263404 -0.25706795 -0.040235892
-0.048331473 -0.027695764 -0.14558315 0.044535596 -0.05529315 -0.1590202 -0.09248095 0.056995355
-0.038910724 -0.08402948 -0.14591481 -0.00965997 -0.02381007 0.013728249 0.069919474 0.17548846
0.1013484 -0.09032736 0.00061937206 -0.07553327 0.17312364 -0.11208592 0.08222778 -0.14110503
-0.0902652 0.09342036 -0.1313003 -0.10904595 -0.07110523 -0.10576332 -0.057279807 -0.11769547
-0.07188487 0.13121423 0.040877923 -0.033746976 -0.09763601 0.057301868 -0.05197467 -0.027207583
-0.09388546 -0.13884954 0.08032125 0.11620148 0.03563935 0.165926 -0.027700735 -0.05260639
0.02601529 -0.11714628 -0.04284984 -0.07309423 0.14690354 -0.023251506 0.039990757 0.08230238
0.028529633 0.17046623 0.18435933 0.111859426 0.029540472 -0.1044027 0.020249793 -0.024387104
-0.046862412 0.1622083 -0.25791273 0.054265317 0.1164342 -0.15089133 -0.0003987223 0.08133385
-0.042239632 -0.032149658 -0.009106487 0.08252101 0.09433364 0.12730698 -0.029134156 -0.1433567
0.050855845 -0.14871965 0.0039477763 -0.08030399 0.0006957051 -0.0893512 0.09750938 0.26353872
-0.11731396 -0.059828904 0.01771871 -0.050277866 -0.018421892 0.14240003 0.004937982 0.14066726
-0.027961144 0.091853656 0.007182823 -0.13439836 0.032823127 -0.018672446 0.15755282 0.15646777
0.18371 -0.13956563 -0.10252985 -0.13775139 0.15192407 0.053585183 0.02258956 0.0060759694
0.014319518 0.025778519 0.11287996 -0.022610122 -0.0709937 -0.015804512 0.0017535489 0.111571595
0.11816525 0.13090198 -0.023473324 -0.3056689 0.07766714 0.044569954 -0.038449004 -0.00015907155
-0.19496554 0.1039249 0.021719903 -0.0055566765 -0.098441765 -0.015800662 -0.04843871 -0.032749422
-0.03915786 -0.11644945 0.027892761 -0.2255407 -0.049210943 -0.025181321 -0.19178754 -0.039167937
0.043666307 0.021090643 -0.011162414 0.19567749 0.039950058 -0.026846046 0.14686751 0.11285699
0.10605364 -0.18868016 0.03582269 0.009502204 0.03728504 0.00012988236 -0.19644028 0.097328864
-0.00073479116 0.0798213 0.0140129505 0.03574334 0.06687351 0.09566828 0.029269531 0.2017818
0.065347865 -0.15677252 -0.027173959 0.12222371 -0.113075 -0.049431983 -0.11546512 0.058963656
-0.086420245 0.012509652 -0.056503575 -0.11807499 0.11439517 -0.04018907 -0.15941778 -0.12541163
-0.13833326 0.025159836 0.0045618606 0.0298189 0.0152968485 0.084584355 0.010848987 -0.053432386
0.09547688 -0.2555272 0.15228601 0.093978606 -0.05661575 0.23005798 0.17927574 0.09176955
-0.04409544 -0.08363403 0.08389646 0.09807074 0.043369938 -0.08869887 0.027218463 -0.104887486
-0.099185295 -0.014421481 0.026099667 -0.06880869 0.041709784 -0.066858985 0.06221558 0.06800523
00000000: ac94 edbc eef4 eebd cb13 ebbc abd8 80bd
00000010: 5cb3 3b3c d187 7a3e b9de 673d 2391 88bd
00000020: 36e7 223e 1878 0bbd 467d f23d d8f8 37be
00000030: 6bba 6abe 6962 3c3c 4ca2 f23c 7615 8a3d
00000040: c407 6fbd cec4 163d e4a8 d2bd 5ce5 7fbd
00000050: da92 a4bd c913 aa3d 907e 80bd 770b db3d
00000060: 1aaf 10bc 8e14 033d 6741 1f3e 23fc 743d
00000070: ffcd d73d ae33 563d b69a b1bd e3f4 193e
00000080: 5ee8 30bd a84c 8d3d dffd 03be 5810 393c
00000090: 0c4d a4bd 5c70 103d 699e 83be 64ce 24bd
000000a0: 39f7 45bd 3ae2 e2bc c013 15be f56a 363d
000000b0: 127b 62bd 31d6 22be a766 bdbd f673 693d
000000c0: da60 1fbd a617 acbd b16a 15be da44 1ebc
000000d0: 560d c3bc 73ec 603c f131 8f3d 3fb3 333e
000000e0: c08f cf3d 8dfd b8bd 5b5d 223a 30b1 9abd
000000f0: 5347 313e 4e8d e5bd 0a67 a83d d67d 10be
00000100: f6dc b8bd 2c53 bf3d 9673 06be 7c53 dfbd
00000110: 9e9f 91bd 719a d8bd 3b9e 6abd 530a f1bd
00000120: 6038 93bd 065d 063e 9c6f 273d 453a 0abd
00000130: 63f5 c7bd 5db5 6a3d 64e3 54bd 70e2 debc
00000140: 0547 c0bd 932e 0ebe 787f a43d 0bfb ed3d
00000150: 91fa 113d 81e8 293e a7ec e2bc cc79 57bd
00000160: 041e d53c 64ea efbd 5083 2fbd 6db2 95bd
00000170: e26d 163e f179 bebc 59cd 233d 268e a83d
00000180: fab6 e93c b38e 2e3e b1c8 3c3e 8e16 e53d
00000190: dcfe f13c 15d1 d5bd e5e2 a53c 77c7 c7bc
000001a0: cdf2 3fbd ef19 263e 230d 84be 4f45 5e3d
000001b0: 0e75 ee3d 4283 1abe 9a0b d1b9 5d92 a63d
000001c0: 7703 2dbd 5caf 03bd 6033 15bc c600 a93d
000001d0: ff31 c13d c35c 023e c1aa eebc 19cc 12be
000001e0: 384e 503d f749 18be 595c 813b 6b76 a4bd
000001f0: fb5f 363a c3fd b6bd ffb2 c73d 8cee 863e
00000200: 4d42 f0bd 270f 75bd d426 913c 2af0 4dbd
00000210: 82e9 96bc 50d1 113e ccce a13b 140b 103e
00000220: c50e e5bc c51d bc3d e35d eb3b b99f 09be
00000230: 8b71 063d f5f6 98bc 8755 213e 1639 203e
00000240: 791e 3c3e 4bea 0ebe 2cfb d1bd b30e 0dbe
00000250: fc91 1b3e 237c 5b3d be0d b93c ed18 c73b
00000260: 699c 6a3c 792d d33c 9c2d e73d dd38 b9bc
00000270: 2565 91bd 7778 81bc 56d7 e53a a67f e43d
00000280: 9f00 f23d 2b0b 063e 214b c0bc a280 9cbe
00000290: f30f 9f3d fc8e 363d b47c 1dbd 72cc 26b9
000002a0: 0ca5 47be 94d6 d43d f0ed b13c c814 b6bb
000002b0: d69b c9bd 6470 81bc ab67 46bd 4224 06bd
000002c0: fe63 20bd 0d7d eebd 5c7f e43c 24f4 66be
000002d0: 6a91 49bd 0f49 cebc f463 44be 8f6e 20bd
000002e0: 71db 323d 49c6 ac3c 8fe2 36bc ae5f 483e
000002f0: aca2 233d 3dec dbbc 7064 163e 9121 e73d
00000300: a732 d93d 5f35 41be d0ba 123d 22af 1b3c
00000310: 33b8 183d 0831 0839 a427 49be 5b54 c73d
00000320: 009f 40ba 5a79 a33d 9396 653c 9c67 123d
00000330: fbf4 883d bbed c33d a8c6 ef3c e39f 4e3e
00000340: 1ad5 853d fa88 20be ec9b debc 6d50 fa3d
00000350: de93 e7bd 3179 4abd fa78 ecbd e083 713d
00000360: 19fd b0bd 49f5 4c3c 4b70 67bd 4dd1 f1bd
00000370: 0448 ea3d 4b9d 24bd 6a3e 23be e86b 00be
00000380: 3ca7 0dbe 001c ce3c a97b 953b c446 f43c
00000390: a29f 7a3c 903a ad3d f3bf 313c ebdb 5abd
000003a0: 6289 c33d 76d4 82be ddf0 1b3e db77 c03d
000003b0: ebe5 67bd 5294 6b3e 0f94 373e adf1 bb3d
000003c0: 6c9d 34bd 5148 abbd e8d1 ab3d 50d9 c83d
000003d0: ada4 313d c1a7 b5bd 41f9 de3c 40cf d6bd
000003e0: a921 cbbd 1348 6cbc f8ce d53c 92eb 8cbd
000003f0: e1d7 2a3d 5ded 88bd c4d5 7e3d 5346 8b3d

l1.bias_rho f4 [800]
-3.0722818 -2.8514593 -2.89748 -3.0136933 -3.0070238 -2.9310224 -2.7867422 -2.9855273
-3.024203 -3.0643268 -2.9469764 -2.9139454 -3.0907173 -2.9206033 -3.188245 -3.0568163
-2.88087 -2.8291988 -3.032242 -2.6979785 -3.0392168 -2.986123 -3.0905683 -3.164979
-2.9567094 -3.0251563 -3.0119188 -3.15227 -2.905863 -2.974703 -3.1520984 -3.0328515
-2.941286 -3.0190904 -3.0515988 -3.072396 -2.9799218 -2.8795047 -2.8489058 -3.0968027
-2.8487098 -2.9065986 -3.1293705 -3.0947874 -2.9341748 -2.9908829 -2.884691 -2.9784894
-2.7458355 -3.099302 -2.925341 -3.1274724 -2.7269278 -3.100229 -3.125793 -2.9939053
-3.1629362 -2.8825321 -3.0586123 -2.9037845 -2.9418066 -2.9768298 -2.957923 -2.8860965
-2.9816449 -2.9496582 -3.1559327 -2.9809237 -2.8556583 -2.888374 -2.9019103 -3.0254948
-3.0123405 -3.156805 -2.8488557 -3.0831895 -2.9623418 -2.8570924 -2.9929872 -2.868717
-2.9844818 -3.015032 -2.965593 -2.9170055 -2.8448873 -2.9517748 -2.8147993 -2.8677115
-2.98405 -2.9876559 -3.1549833 -2.9238338 -3.0492404 -3.079453 -2.8420446 -2.9688337
-2.7674146 -3.00651 -3.0115376 -2.9728353 -2.8340898 -3.1559458 -2.8463008 -3.146395
-2.9022236 -2.9720047 -2.9854279 -2.8896751 -3.023739 -2.9766576 -3.0715768 -3.0573044
-3.0878968 -2.9727972 -2.91952 -2.9647129 -2.8482764 -2.999005 -2.9457102 -3.06959
-3.1615388 -2.9666934 -2.8434436 -2.8548896 -2.7958822 -3.0973127 -3.0579934 -3.0374606
-3.1381743 -3.2369282 -2.9989684 -2.9636602 -3.2041128 -3.1113205 -2.8782084 -3.0655475
-2.8769956 -2.962026 -3.0817153 -2.8510523 -2.9146395 -2.9212592 -3.0183358 -2.9437418
-2.910521 -3.0786657 -3.0656183 -2.9646788 -2.9396744 -2.9764073 -2.938249 -3.018004
-2.9569185 -2.8902905 -3.0018048 -2.8955517 -2.9090533 -3.1367133 -2.9612525 -3.0775442
-3.04752 -3.098726 -3.2132673 -3.007971 -3.0261803 -2.98185 -2.9492726 -3.057755
-3.054449 -2.924681 -3.0323374 -3.0672688 -3.0668426 -3.0906134 -2.931787 -2.875219
-2.7865932 -3.045931 -2.9277089 -2.766072 -3.0829349 -2.8149614 -3.004524 -2.8487768
-3.0828528 -3.0073469 -3.0761402 -2.9674833 -2.9722667 -2.9843252 -3.1311812 -2.9138863
-2.9618335 -3.0299046 -2.9565063 -2.9289186 -2.9219139 -3.2026856 -3.0717287 -3.128806
-2.9912019 -3.1305726 -2.8675895 -2.8384163 -2.959773 -3.1374004 -2.9177952 -2.9733458
-2.966878 -2.9411736 -3.0442176 -2.8739226 -3.1697853 -2.877443 -3.0441759 -3.0021048
-3.1185508 -3.1548076 -3.1140237 -3.2106874 -2.9193683 -2.8904674 -2.9083521 -2.9936554
-3.0783718 -2.9321203 -3.032657 -2.9674644 -2.9166455 -2.8535075 -2.8484488 -3.0599334
-3.0049784 -3.122272 -3.0620449 -2.996506 -3.0346103 -3.0557623 -3.0328174 -3.0267222
-3.1008158 -2.7727711 -2.8383904 -3.0260043 -2.8965886 -3.1004295 -2.9947138 -3.0158045
-2.836518 -2.8707569 -2.9855738 -2.9111853 -3.072753 -2.847591 -2.8030157 -2.891399
00000000: 44a0 44c0 4f7e 36c0 5070 39c0 5ae0 40c0
00000010: 1473 40c0 df95 3bc0 fc59 32c0 e112 3fc0
00000020: 8b8c 41c0 ee1d 44c0 439b 3cc0 157e 3ac0
00000030: 50ce 45c0 2aeb 3ac0 350c 4cc0 e1a2 43c0
00000040: 2d60 38c0 9811 35c0 4110 42c0 aeab 2cc0
00000050: 8782 42c0 a41c 3fc0 dfcb 45c0 048f 4ac0
00000060: ba3a 3dc0 299c 41c0 47c3 40c0 cbbe 49c0
00000070: a9f9 39c0 8961 3ec0 fbbb 49c0 3d1a 42c0
00000080: 083e 3cc0 c738 41c0 654d 43c0 23a2 44c0
00000090: 0ab7 3ec0 ce49 38c0 7954 36c0 0432 46c0
000000a0: 4351 36c0 b605 3ac0 9b47 48c0 ff10 46c0
000000b0: 85c9 3bc0 a06a 3fc0 c79e 38c0 929f 3ec0
000000c0: c5bb 2fc0 f75a 46c0 c938 3bc0 8228 48c0
000000d0: fc85 2ec0 276a 46c0 fe0c 48c0 259c 3fc0
000000e0: 8c6d 4ac0 687b 38c0 4ec0 43c0 9bd7 39c0
000000f0: 8f46 3cc0 6184 3ec0 9c4e 3dc0 ceb5 38c0
00000100: 45d3 3ec0 33c7 3cc0 cdfa 49c0 74c7 3ec0
00000110: 1bc3 36c0 1fdb 38c0 e6b8 39c0 b5a1 41c0
00000120: 30ca 40c0 1809 4ac0 a753 36c0 fa52 45c0
00000130: 0297 3dc0 9ada 36c0 1a8d 3fc0 0f99 37c0
00000140: c001 3fc0 49f6 40c0 47cc 3dc0 38b0 3ac0
00000150: a212 36c0 e1e9 3cc0 ac25 34c0 9688 37c0
00000160: adfa 3ec0 c135 3fc0 3feb 49c0 1820 3bc0
00000170: c126 43c0 c215 45c0 0fe4 35c0 5f01 3ec0
00000180: 521d 31c0 a96a 40c0 08bd 40c0 ef42 3ec0
00000190: ba61 35c0 04fb 49c0 cb29 36c0 895e 49c0
000001a0: 08be 39c0 5335 3ec0 4011 3fc0 70f0 38c0
000001b0: f184 41c0 8f81 3ec0 b794 44c0 e0aa 43c0
000001c0: 1aa0 45c0 4f42 3ec0 6ad9 3ac0 dbbd 3dc0
000001d0: 294a 36c0 b3ef 3fc0 8486 3cc0 2a74 44c0
000001e0: a756 4ac0 4ede 3dc0 fbfa 35c0 83b6 36c0
000001f0: bcef 32c0 5f3a 46c0 2ab6 43c0 c165 42c0
00000200: d9d7 48c0 d529 4fc0 19ef 3fc0 9cac 3dc0
00000210: 2f10 4dc0 e01f 47c0 9134 38c0 ee31 44c0
00000220: b220 38c0 d591 3dc0 d33a 45c0 a477 36c0
00000230: 7489 3ac0 e9f5 3ac0 6a2c 41c0 4466 3cc0
00000240: fa45 3ac0 dc08 45c0 1733 44c0 4cbd 3dc0
00000250: a023 3cc0 757d 3ec0 460c 3cc0 fa26 41c0
00000260: 273e 3dc0 85fa 38c0 921d 40c0 b850 39c0
00000270: ee2d 3ac0 e9bf 48c0 2985 3dc0 7cf6 44c0
00000280: 910a 43c0 8751 46c0 2ca6 4dc0 9982 40c0
00000290: f0ac 41c0 a1d6 3ec0 e2c0 3cc0 42b2 43c0
000002a0: 187c 43c0 f92d 3bc0 d111 42c0 224e 44c0
000002b0: 2647 44c0 9ccc 45c0 66a2 3bc0 9703 38c0
000002c0: 8b57 32c0 89f0 42c0 955f 3bc0 5307 31c0
000002d0: ce4e 45c0 5428 34c0 1f4a 40c0 5c52 36c0
000002e0: 764d 45c0 5f78 40c0 7bdf 44c0 3feb 3dc0
000002f0: 9e39 3ec0 2fff 3ec0 4665 48c0 1d7d 3ac0
00000300: ae8e 3dc0 f5e9 41c0 6637 3dc0 6773 3bc0
00000310: a300 3bc0 cdf8 4cc0 3497 44c0 5c3e 48c0
00000320: da6f 3fc0 4d5b 48c0 9686 37c0 9da8 35c0
00000330: ec6c 3dc0 2bcb 48c0 28bd 3ac0 4c4b 3ec0
00000340: 54e1 3dc0 303c 3cc0 76d4 42c0 59ee 37c0
00000350: c3dd 4ac0 0728 38c0 c7d3 42c0 7c22 40c0
00000360: 5696 47c0 5ee8 49c0 2a4c 47c0 e77b 4dc0
00000370: eed6 3ac0 6bfd 38c0 7122 3ac0 0d98 3fc0
00000380: 0b04 45c0 dca7 3bc0 0d17 42c0 f0ea 3dc0
00000390: 52aa 3ac0 de9f 36c0 fc4c 36c0 f3d5 43c0
000003a0: 9151 40c0 4ed3 47c0 8bf8 43c0 c1c6 3fc0
000003b0: 0e37 42c0 9c91 43c0 ae19 42c0 d1b5 41c0
000003c0: c473 46c0 1575 31c0 30a8 35c0 0eaa 41c0
000003d0: b561 39c0 706d 46c0 64a9 3fc0 f102 41c0
000003e0: 8389 35c0 7bba 37c0 a413 3fc0 dc50 3ac0
000003f0: fca7 44c0 ee3e 36c0 9c64 33c0 ae0c 39c0

l1.weight.mu f4 [800, 29]
-0.17642866 0.06923144 -0.07321181 -0.012874602 0.012999719 -0.0035580776 0.03177655 0.036355525
-0.0018672968 -0.03561502 -0.028309425 0.100722186 -0.050252948 0.13887314 -0.09241777 0.028394997
0.16506855 0.061215628 0.083622985 0.20429829 0.10239489 0.035748903 -0.26602748 0.059934728
0.0861967 -0.012328111 0.045739133 -0.09147222 0.15434197 -0.23278263 0.002863284 -0.09853157
-0.028677631 -0.15889491 0.11058816 0.040017296 0.1609373 -0.17547081 0.04300082 0.009842812
0.091505036 0.058726426 -0.03396375 -0.011256158 -0.073457636 0.09328097 0.13025336 -0.115353376
-0.07893736 -0.11177533 0.0072600176 -0.008132135 -0.12496706 -0.09990783 -0.009086028 -0.049392574
0.05923638 0.0041873236 0.178657 -0.087489694 0.109180704 0.15086584 -0.2035464 0.0071179685
-0.07699513 -0.024785496 -0.08178396 0.019932099 0.09059167 -0.0105239125 0.03699624 0.09535594
0.059154432 0.23796058 -0.066761255 0.17058107 -0.011437609 0.010933043 0.10360331 -0.13493945
-0.1247676 -0.049999546 -0.008795509 -0.048001997 0.011747474 0.0059450585 -0.04819655 0.12135127
-0.029813025 0.082379445 -0.032581672 0.0056869565 -0.048297286 -0.033370752 0.040276743 -0.046343856
-0.00797593 -0.12594877 0.027545244 0.025539078 0.02806606 -0.07931389 0.13671207 0.016744595
0.18840773 0.17825072 -0.042122878 0.05405239 0.1337258 -0.04263451 -0.0633837 -0.063176386
-0.0020978686 -0.08869489 -0.03207305 -0.071174614 0.080753066 0.0066941367 0.16752121 -0.008824565
-0.014904158 -0.14342993 0.14544241 -0.13802664 -0.07285055 -0.05032519 0.035461348 0.07244661
-0.14121608 0.012407112 -0.03763547 -0.17142983 0.0979567 0.021548301 0.14646313 0.046936423
0.119414695 -0.022306545 -0.05100133 -0.11154122 -0.12495021 -0.16596808 0.040891167 0.086683586
-0.13453625 0.056930866 -0.03632802 0.14081137 -0.04602917 -0.06242325 -3.0905954e-05 0.07522751
0.021617815 0.07178936 0.0307655 0.10157071 0.0024625806 0.05232202 -0.123977505 0.036491986
-0.11292453 0.00093734846 0.103834085 0.05691505 -0.19616051 -0.010530971 -0.060823668 0.1429253
-0.09194741 0.17097872 0.097640425 0.034748442 0.06500422 0.07132041 0.007612988 0.058259953
-0.01686541 0.03038418 0.03405209 -0.104365155 -0.09764371 0.035072207 0.30648917 -0.03234723
0.0003937033 -0.11447733 0.17789349 0.05353561 -0.08376325 0.08339287 -0.09290887 -0.013290046
-0.081086226 0.063141555 -0.2448337 0.010681304 -0.1127072 0.013129632 -0.21335576 -0.18128927
-0.39943045 -0.049785867 0.04862425 0.12771326 0.026801616 -0.13981296 0.15780102 -0.11831416
0.06765505 -0.07788663 0.032117423 -0.03152841 -0.03703913 -0.0064754863 -0.049176104 -0.102919795
0.15930906 -0.016554251 0.0011815563 0.071486816 -0.072252005 -0.060558625 0.19339842 0.05406788
0.08655552 -0.0021587429 -0.0025867692 0.045525122 0.122721076 -0.06227837 0.08612281 -0.1531677
0.083982825 0.08129856 0.10007969 0.03515827 -0.22258624 0.00547129 -0.08212489 0.025485834
0.060141485 -0.09368329 0.016214015 -0.025826724 -0.0138501 -0.08138549 0.00557538 0.026392555
-0.03672696 0.12007523 0.14194094 -0.0051729293 0.04035799 -0.038461898 0.104126915 0.0619876
00000000: b7a9 34be 37c9 8d3d 13f0 95bd ffef 52bc
00000010: c6fc 543c a32e 69bb 2128 023d 88e9 143d
00000020: 15c0 f4ba 0ee1 11bd 2be9 e7bc 6f47 ce3d
00000030: 09d6 4dbd c334 0e3e 8745 bdbd a09c e83c
00000040: bb07 293e 3dbd 7a3d 8742 ab3d 9233 513e
00000050: 69b4 d13d 716d 123d c134 88be 1e7e 753d
00000060: e587 b03d d8fb 49bc f558 3b3d ca55 bbbd
00000070: d20b 1e3e 925e 6ebe efa5 3b3b ebca c9bd
00000080: 5aed eabc 59b5 22be 0c7c e23d 2de9 233d
00000090: bfcc 243e 9fae 33be a121 303d bf43 213c
000000a0: fe66 bb3d 1f8b 703d 931d 0bbd c06b 38bc
000000b0: f570 96bd 180a bf3d 2361 053e 643e ecbd
000000c0: e9a9 a1bd 77ea e4bd 71e5 ed3b a53c 05bc
000000d0: bbee ffbd 7a9c ccbd 90dd 14bc de4f 4abd
000000e0: d9a1 723d d135 893b dcf1 363e cc2d b3bd
000000f0: 229a df3d 937c 1a3e 786e 50be d93d e93b
00000100: 9faf 9dbd f40a cbbc 597e a7bd a448 a33c
00000110: 2088 b93d 7d6c 2cbc 5f89 173d fa49 c33d
00000120: eb4b 723d f0ab 733e 20ba 88bd ceac 2e3e
00000130: cf64 3bbc 8220 333c f92d d43d 912d 0abe
00000140: 2886 ffbd 53cc 4cbd 0a1b 10bc be9d 44bd
00000150: 7a78 403c c4ce c23b bf69 45bd 0487 f83d
00000160: 723a f4bc 8eb6 a83d 5c74 05bd a659 ba3b
00000170: 60d3 45bd c5af 08bd 3af9 243d 0ed3 3dbd
00000180: 7aad 02bc b7f8 00be 90a6 e13c 5437 d13c
00000190: cbea e53c 526f a2bd 40fe 0b3e f62b 893c
000001a0: f5ed 403e 5b87 363e 0a89 2cbd 0a66 5d3d
000001b0: 6bef 083e 86a1 2ebd 50cf 81bd 9f62 81bd
000001c0: 657c 09bb aba5 b5bd 085f 03bd ffc3 91bd
000001d0: dd61 a53d 7d5a db3b ae8a 2b3e e994 10bc
000001e0: 9230 74bc 4cdf 12be dbee 143e db56 0dbe
000001f0: ab32 95bd c921 4ebd eb3f 113d e35e 943d
00000200: f39a 10be 3347 4b3c a727 1abd 4d8b 2fbe
00000210: 869d c83d 1086 b03c 6efa 153e 6840 403d
00000220: b18f f43d 37bc b6bc c5e6 50bd b96f e4bd
00000230: e5e5 ffbd 89f3 29be 7f7d 273d 2a87 b13d
00000240: dfc3 09be 5730 693d b1cc 14bd db30 103e
00000250: 1589 3cbd 86af 7fbd 04a1 01b8 e110 9a3d
00000260: d817 b13c 4d06 933d ee07 fc3c 4e04 d03d
00000270: 3f63 213b 9d4f 563d ebe7 fdbd 9f78 153d
00000280: fa44 e7bd 64b8 753a f7a6 d43d c11f 693d
00000290: 4dde 48be 188a 2cbc 3d22 79bd 035b 123e
000002a0: ec4e bcbd 0c15 2f3e b4f7 c73d 6254 0e3d
000002b0: ef20 853d 6f10 923d 5f76 f93b fda1 6e3d
000002c0: 5429 8abc 3ee8 f83c 347a 0b3d 66bd d5bd
000002d0: 6df9 c7bd e0a7 0f3d 26ec 9c3e 877e 04bd
000002e0: f669 ce39 1773 eabd b629 363e 2848 5b3d
000002f0: 118c abbd e2c9 aa3d 0147 bebd 7ebe 59bc
00000300: 8910 a6bd 5c50 813d afb5 7abe a300 2f3c
00000310: 08d3 e6bd ab1d 573c ef79 5abe e5a3 39be
00000320: 2682 ccbe 44ec 4bbd 392a 473d 44c7 023e
00000330: 108f db3c 212b 0fbe 9796 213e b24e f2bd
00000340: bb8e 8a3d 0783 9fbd 8f8d 033d ef23 01bd
00000350: 58b6 17bd 5130 d4bb e26c 49bd 9dc7 d2bd
00000360: ea21 233e c89c 87bc 73de 9a3a ae67 923d
00000370: dcf8 93bd 520c 78bd 3c0a 463e 4876 5d3d
00000380: 0544 b13d b279 0dbb c986 29bb 8d78 3a3d
00000390: 3055 fb3d 9b17 7fbd 2861 b03d fed7 1cbe
000003a0: 30ff ab3d dc7f a63d 95f6 cc3d 1e02 103d
000003b0: a6ed 63be 8248 b33b 1831 a8bd abc7 d03c
000003c0: eb56 763d 06dd bfbd 41d3 843c 9192 d3bc
000003d0: 88eb 62bc 70ad a6bd adb1 b63b 3335 d83c
000003e0: 026f 16bd 01ea f53d f758 113e ad81 a9bb
000003f0: 6b4e 253d 398a 1dbd 7e40 d53d b6e6 7d3d

l1.weight.rho f4 [800, 29]
-2.8602118 -2.9041617 -3.094234 -2.987708 -2.9898589 -2.8639421 -2.866167 -2.8442504
-2.8802938 -3.040005 -2.773223 -3.0576859 -3.0909278 -2.8691406 -2.8143535 -2.7710695
-2.8829587 -2.9943354 -3.0168192 -2.954378 -2.9831204 -2.9751358 -3.1233785 -2.8536344
-3.1853888 -3.1319282 -3.0430422 -3.045796 -3.0234752 -2.8021412 -3.0548806 -3.005353
-3.140513 -2.9988463 -3.1803045 -3.0800443 -3.0076728 -2.9816198 -3.0254755 -3.1921167
-2.9988804 -3.059976 -3.0779247 -2.848441 -2.9317412 -3.133823 -3.0845947 -2.874189
-3.0134754 -3.0509784 -2.9885528 -2.8120773 -2.8150704 -3.0188026 -3.0175683 -2.8691232
-3.0579605 -2.9434748 -3.0141883 -3.0434453 -3.1591122 -2.9585476 -3.0222797 -3.1440222
-3.037505 -3.2641234 -3.0542872 -2.778941 -2.9543326 -2.9512782 -2.8412576 -2.9088745
-3.0579484 -2.8628404 -2.8571982 -3.124212 -3.032338 -2.9324405 -3.0348132 -3.1364396
-3.002698 -2.9307241 -2.9733896 -3.0933573 -3.004196 -3.1381223 -2.8036578 -2.8398075
-2.9377666 -2.8946404 -3.040945 -3.1607935 -3.1047173 -3.0723126 -3.1653628 -2.9915495
-3.036221 -3.1509964 -2.834573 -2.9820697 -3.0883744 -2.9710507 -2.9685633 -2.9824643
-2.8412092 -2.862044 -2.9125793 -2.9406805 -3.0490243 -2.8621032 -3.0334928 -2.9314258
-3.0396745 -3.080514 -2.9793978 -3.0684185 -3.1076555 -2.961959 -2.977723 -3.08653
-2.8848944 -3.0113175 -3.1264942 -3.0689657 -2.9837947 -2.9214785 -2.8446255 -2.9346943
-2.9925256 -2.993216 -3.1366541 -3.0771394 -2.8743653 -3.0811906 -3.0474725 -3.1325548
-3.04649 -2.9762535 -3.0104966 -3.0147843 -2.9758976 -2.9313617 -2.9921923 -2.8965416
-3.0137434 -2.9687495 -2.9243784 -2.7522488 -2.9487095 -2.9156706 -3.067556 -3.186333
-2.9466856 -3.1277099 -2.9532166 -3.1067328 -2.9964385 -2.95187 -3.004495 -2.9183993
-2.9780798 -2.962509 -2.9525242 -3.06249 -2.8951166 -3.1459327 -3.060058 -2.9629884
-3.2130313 -2.8852017 -3.080474 -2.8457797 -2.9724338 -3.0797317 -3.0821984 -3.1206028
-3.0578961 -3.0972812 -3.0128586 -3.0171406 -2.9408658 -2.8952408 -2.9497375 -2.9889362
-2.792178 -2.940818 -2.8871272 -3.1056933 -2.9132197 -3.0167642 -3.046026 -2.9799094
-3.0635297 -3.0588999 -2.9940112 -2.9687676 -2.9120736 -2.9756935 -3.0777042 -2.9626904
-3.043128 -2.814072 -3.1872475 -2.94757 -2.9849553 -3.0320985 -3.0885103 -2.9572623
-3.1036565 -3.0504405 -3.1254156 -2.9119613 -2.9782584 -2.9992385 -3.0659454 -2.9538374
-2.9815617 -2.9560366 -3.0642433 -2.8039048 -3.177324 -2.977378 -2.9911318 -3.1931934
-2.9097846 -3.0619621 -2.9412935 -2.9836507 -2.9145048 -3.0663285 -2.9152284 -2.733965
-3.0379038 -2.962757 -2.9397888 -2.9707658 -2.938959 -2.9445984 -3.1266057 -2.846934
-2.9284298 -2.8297696 -2.853488 -2.8957899 -2.9357631 -3.1022737 -2.9840243 -3.2367277
-2.9372084 -2.9307835 -3.0077589 -3.0823934 -3.145672 -3.0715754 -3.1157176 -2.9560628
00000000: b60d 37c0 c9dd 39c0 ee07 46c0 9c36 3fc0
00000010: d959 3fc0 d44a 37c0 486f 37c0 3308 36c0
00000020: bc56 38c0 718f 42c0 7c7c 31c0 20b1 43c0
00000030: c3d1 45c0 00a0 37c0 5e1e 34c0 3459 31c0
00000040: 6582 38c0 31a3 3fc0 9113 41c0 8714 3dc0
00000050: 72eb 3ec0 a068 3ec0 6fe5 47c0 f2a1 36c0
00000060: 69dd 4bc0 8371 48c0 34c1 42c0 52ee 42c0
00000070: 9e80 41c0 4856 33c0 2a83 43c0 b457 40c0
00000080: 2afe 48c0 19ed 3fc0 1c8a 4bc0 721f 45c0
00000090: b67d 40c0 dcd2 3ec0 64a1 41c0 a44b 4cc0
000000a0: a8ed 3fc0 a6d6 43c0 b8fc 44c0 db4c 36c0
000000b0: a6a1 3bc0 8e90 48c0 006a 45c0 b6f2 37c0
000000c0: c8dc 40c0 3b43 43c0 7344 3fc0 13f9 33c0
000000d0: 1d2a 34c0 1034 41c0 d71f 41c0 b79f 37c0
000000e0: a0b5 43c0 e461 3cc0 76e8 40c0 cfc7 42c0
000000f0: e52e 4ac0 d858 3dc0 086d 41c0 a937 49c0
00000100: 7b66 42c0 66e7 50c0 7179 43c0 2bda 31c0
00000110: c913 3dc0 bee1 3cc0 2ad7 35c0 002b 3ac0
00000120: 6db5 43c0 c738 37c0 56dc 36c0 17f3 47c0
00000130: d311 42c0 1bad 3bc0 613a 42c0 6dbb 48c0
00000140: 342c 40c0 fc90 3bc0 044c 3ec0 91f9 45c0
00000150: bf44 40c0 ffd6 48c0 216f 33c0 68bf 35c0
00000160: 5e04 3cc0 ca41 39c0 d89e 42c0 714a 4ac0
00000170: b0b3 46c0 c5a0 44c0 4e95 4ac0 8c75 3fc0
00000180: 7251 42c0 eda9 49c0 a569 35c0 3bda 3ec0
00000190: eda7 45c0 b225 3ec0 f1fc 3dc0 b2e0 3ec0
000001a0: 5fd6 35c0 bb2b 37c0 b367 3ac0 1c34 3cc0
000001b0: 3723 43c0 b32c 37c0 bf24 42c0 7b9c 3bc0
000001c0: 078a 42c0 2427 45c0 74ae 3ec0 f860 44c0
000001d0: d4e3 46c0 bc90 3dc0 0393 3ec0 b589 45c0
000001e0: 1ca2 38c0 6db9 40c0 7b18 48c0 ef69 44c0
000001f0: 7ef6 3ec0 81f9 3ac0 580e 36c0 08d2 3bc0
00000200: 8a85 3fc0 da90 3fc0 f1be 48c0 daef 44c0
00000210: 9af5 37c0 3a32 45c0 ca09 43c0 c77b 48c0
00000220: b1f9 42c0 f07a 3ec0 faab 40c0 3af2 40c0
00000230: 1b75 3ec0 6e9b 3bc0 1480 3fc0 f060 39c0
00000240: 2ce1 40c0 feff 3dc0 0429 3bc0 d824 30c0
00000250: a8b7 3cc0 599a 3ac0 d652 44c0 e1ec 4bc0
00000260: 7f96 3cc0 662c 48c0 8001 3dc0 b6d4 46c0
00000270: a6c5 3fc0 70eb 3cc0 a549 40c0 0ec7 3ac0
00000280: dc98 3ec0 bf99 3dc0 28f6 3cc0 d6ff 43c0
00000290: 9749 39c0 f656 49c0 fed7 43c0 9aa1 3dc0
000002a0: 4ea2 4dc0 25a7 38c0 7c26 45c0 4121 36c0
000002b0: 5b3c 3ec0 531a 45c0 bd42 45c0 f5b7 47c0
000002c0: 92b4 43c0 db39 46c0 add2 40c0 d518 41c0
000002d0: 2537 3cc0 a04b 39c0 80c8 3cc0 bb4a 3fc0
000002e0: 0bb3 32c0 5d36 3cc0 b1c6 38c0 aec3 46c0
000002f0: 3172 3ac0 aa12 41c0 17f2 42c0 d6b6 3ec0
00000300: df10 44c0 04c5 43c0 e19d 3fc0 4a00 3ec0
00000310: 6a5f 3ac0 c371 3ec0 1bf9 44c0 b89c 3dc0
00000320: 9cc2 42c0 c119 34c0 ddfb 4bc0 fda4 3cc0
00000330: 8209 3fc0 e70d 42c0 27aa 45c0 c943 3dc0
00000340: 4fa2 46c0 6b3a 43c0 cf06 48c0 935d 3ac0
00000350: c99b 3ec0 86f3 3fc0 7338 44c0 ac0b 3dc0
00000360: e8d1 3ec0 b42f 3dc0 901c 44c0 2d73 33c0
00000370: 4759 4bc0 5c8d 3ec0 b46e 3fc0 485d 4cc0
00000380: e939 3ac0 30f7 43c0 273e 3cc0 22f4 3ec0
00000390: 3f87 3ac0 ba3e 44c0 1a93 3ac0 48f9 2ec0
000003a0: 046d 42c0 d09d 3dc0 8025 3cc0 0721 3ec0
000003b0: e717 3cc0 4d74 3cc0 4f1a 48c0 2b34 36c0
000003c0: 656b 3bc0 f21a 35c0 8c9f 36c0 9f54 39c0
000003d0: 8be3 3bc0 a78b 46c0 41fa 3ec0 8c26 4fc0
000003e0: 39fb 3bc0 f591 3bc0 1f7f 40c0 ef45 45c0
000003f0: b152 49c0 b194 44c0 eb67 47c0 2230 3dc0

l1.bias.mu f4 [800]
-0.029001556 -0.116678104 -0.028695961 -0.06291326 0.011456337 0.24465872 0.05660889 -0.06668308
0.15908512 -0.034050077 0.118403 -0.1796602 -0.22922675 0.011498072 0.029618405 0.067423746
-0.058357015 0.03680878 -0.102861196 -0.062474594 -0.08035822 0.08304555 -0.0627414 0.10695546
-0.00883081 0.032002024 0.15552293 0.05981077 0.105373375 0.05229538 -0.08672087 0.15034823
-0.043190353 0.06899387 -0.12889813 0.011295401 -0.08022508 0.035263404 -0.25706795 -0.040235892
-0.048331473 -0.027695764 -0.14558315 0.044535596 -0.05529315 -0.1590202 -0.09248095 0.056995355
-0.038910724 -0.08402948 -0.14591481 -0.00965997 -0.02381007 0.013728249 0.069919474 0.17548846
0.1013484 -0.09032736 0.00061937206 -0.07553327 0.17312364 -0.11208592 0.08222778 -0.14110503
-0.0902652 0.09342036 -0.1313003 -0.10904595 -0.07110523 -0.10576332 -0.057279807 -0.11769547
-0.07188487 0.13121423 0.040877923 -0.033746976 -0.09763601 0.057301868 -0.05197467 -0.027207583
-0.09388546 -0.13884954 0.08032125 0.11620148 0.03563935 0.165926 -0.027700735 -0.05260639
0.02601529 -0.11714628 -0.04284984 -0.07309423 0.14690354 -0.023251506 0.039990757 0.08230238
0.028529633 0.17046623 0.18435933 0.111859426 0.029540472 -0.1044027 0.020249793 -0.024387104
-0.046862412 0.1622083 -0.25791273 0.054265317 0.1164342 -0.15089133 -0.0003987223 0.08133385
-0.042239632 -0.032149658 -0.009106487 0.08252101 0.09433364 0.12730698 -0.029134156 -0.1433567
0.050855845 -0.14871965 0.0039477763 -0.08030399 0.0006957051 -0.0893512 0.09750938 0.26353872
-0.11731396 -0.059828904 0.01771871 -0.050277866 -0.018421892 0.14240003 0.004937982 0.14066726
-0.027961144 0.091853656 0.007182823 -0.13439836 0.032823127 -0.018672446 0.15755282 0.15646777
0.18371 -0.13956563 -0.10252985 -0.13775139 0.15192407 0.053585183 0.02258956 0.0060759694
0.014319518 0.025778519 0.11287996 -0.022610122 -0.0709937 -0.015804512 0.0017535489 0.111571595
0.11816525 0.13090198 -0.023473324 -0.3056689 0.07766714 0.044569954 -0.038449004 -0.00015907155
-0.19496554 0.1039249 0.021719903 -0.0055566765 -0.098441765 -0.015800662 -0.04843871 -0.032749422
-0.03915786 -0.11644945 0.027892761 -0.2255407 -0.049210943 -0.025181321 -0.19178754 -0.039167937
0.043666307 0.021090643 -0.011162414 0.19567749 0.039950058 -0.026846046 0.14686751 0.11285699
0.10605364 -0.18868016 0.03582269 0.009502204 0.03728504 0.00012988236 -0.19644028 0.097328864
-0.00073479116 0.0798213 0.0140129505 0.03574334 0.06687351 0.09566828 0.029269531 0.2017818
0.065347865 -0.15677252 -0.027173959 0.12222371 -0.113075 -0.049431983 -0.11546512 0.058963656
-0.086420245 0.012509652 -0.056503575 -0.11807499 0.11439517 -0.04018907 -0.15941778 -0.12541163
-0.13833326 0.025159836 0.0045618606 0.0298189 0.0152968485 0.084584355 0.010848987 -0.053432386
0.09547688 -0.2555272 0.15228601 0.093978606 -0.05661575 0.23005798 0.17927574 0.09176955
-0.04409544 -0.08363403 0.08389646 0.09807074 0.043369938 -0.08869887 0.027218463 -0.104887486
-0.099185295 -0.014421481 0.026099667 -0.06880869 0.041709784 -0.066858985 0.06221558 0.06800523
00000000: ac94 edbc eef4 eebd cb13 ebbc abd8 80bd
00000010: 5cb3 3b3c d187 7a3e b9de 673d 2391 88bd
00000020: 36e7 223e 1878 0bbd 467d f23d d8f8 37be
00000030: 6bba 6abe 6962 3c3c 4ca2 f23c 7615 8a3d
00000040: c407 6fbd cec4 163d e4a8 d2bd 5ce5 7fbd
00000050: da92 a4bd c913 aa3d 907e 80bd 770b db3d
00000060: 1aaf 10bc 8e14 033d 6741 1f3e 23fc 743d
00000070: ffcd d73d ae33 563d b69a b1bd e3f4 193e
00000080: 5ee8 30bd a84c 8d3d dffd 03be 5810 393c
00000090: 0c4d a4bd 5c70 103d 699e 83be 64ce 24bd
000000a0: 39f7 45bd 3ae2 e2bc c013 15be f56a 363d
000000b0: 127b 62bd 31d6 22be a766 bdbd f673 693d
000000c0: da60 1fbd a617 acbd b16a 15be da44 1ebc
000000d0: 560d c3bc 73ec 603c f131 8f3d 3fb3 333e
000000e0: c08f cf3d 8dfd b8bd 5b5d 223a 30b1 9abd
000000f0: 5347 313e 4e8d e5bd 0a67 a83d d67d 10be
00000100: f6dc b8bd 2c53 bf3d 9673 06be 7c53 dfbd
00000110: 9e9f 91bd 719a d8bd 3b9e 6abd 530a f1bd
00000120: 6038 93bd 065d 063e 9c6f 273d 453a 0abd
00000130: 63f5 c7bd 5db5 6a3d 64e3 54bd 70e2 debc
00000140: 0547 c0bd 932e 0ebe 787f a43d 0bfb ed3d
00000150: 91fa 113d 81e8 293e a7ec e2bc cc79 57bd
00000160: 041e d53c 64ea efbd 5083 2fbd 6db2 95bd
00000170: e26d 163e f179 bebc 59cd 233d 268e a83d
00000180: fab6 e93c b38e 2e3e b1c8 3c3e 8e16 e53d
00000190: dcfe f13c 15d1 d5bd e5e2 a53c 77c7 c7bc
000001a0: cdf2 3fbd ef19 263e 230d 84be 4f45 5e3d
000001b0: 0e75 ee3d 4283 1abe 9a0b d1b9 5d92 a63d
000001c0: 7703 2dbd 5caf 03bd 6033 15bc c600 a93d
000001d0: ff31 c13d c35c 023e c1aa eebc 19cc 12be
000001e0: 384e 503d f749 18be 595c 813b 6b76 a4bd
000001f0: fb5f 363a c3fd b6bd ffb2 c73d 8cee 863e
00000200: 4d42 f0bd 270f 75bd d426 913c 2af0 4dbd
00000210: 82e9 96bc 50d1 113e ccce a13b 140b 103e
00000220: c50e e5bc c51d bc3d e35d eb3b b99f 09be
00000230: 8b71 063d f5f6 98bc 8755 213e 1639 203e
00000240: 791e 3c3e 4bea 0ebe 2cfb d1bd b30e 0dbe
00000250: fc91 1b3e 237c 5b3d be0d b93c ed18 c73b
00000260: 699c 6a3c 792d d33c 9c2d e73d dd38 b9bc
00000270: 2565 91bd 7778 81bc 56d7 e53a a67f e43d
00000280: 9f00 f23d 2b0b 063e 214b c0bc a280 9cbe
00000290: f30f 9f3d fc8e 363d b47c 1dbd 72cc 26b9
000002a0: 0ca5 47be 94d6 d43d f0ed b13c c814 b6bb
000002b0: d69b c9bd 6470 81bc ab67 46bd 4224 06bd
000002c0: fe63 20bd 0d7d eebd 5c7f e43c 24f4 66be
000002d0: 6a91 49bd 0f49 cebc f463 44be 8f6e 20bd
000002e0: 71db 323d 49c6 ac3c 8fe2 36bc ae5f 483e
000002f0: aca2 233d 3dec dbbc 7064 163e 9121 e73d
00000300: a732 d93d 5f35 41be d0ba 123d 22af 1b3c
00000310: 33b8 183d 0831 0839 a427 49be 5b54 c73d
00000320: 009f 40ba 5a79 a33d 9396 653c 9c67 123d
00000330: fbf4 883d bbed c33d a8c6 ef3c e39f 4e3e
00000340: 1ad5 853d fa88 20be ec9b debc 6d50 fa3d
00000350: de93 e7bd 3179 4abd fa78 ecbd e083 713d
00000360: 19fd b0bd 49f5 4c3c 4b70 67bd 4dd1 f1bd
00000370: 0448 ea3d 4b9d 24bd 6a3e 23be e86b 00be
00000380: 3ca7 0dbe 001c ce3c a97b 953b c446 f43c
00000390: a29f 7a3c 903a ad3d f3bf 313c ebdb 5abd
000003a0: 6289 c33d 76d4 82be ddf0 1b3e db77 c03d
000003b0: ebe5 67bd 5294 6b3e 0f94 373e adf1 bb3d
000003c0: 6c9d 34bd 5148 abbd e8d1 ab3d 50d9 c83d
000003d0: ada4 313d c1a7 b5bd 41f9 de3c 40cf d6bd
000003e0: a921 cbbd 1348 6cbc f8ce d53c 92eb 8cbd
000003f0: e1d7 2a3d 5ded 88bd c4d5 7e3d 5346 8b3d

l1.bias.rho f4 [800]
-3.0722818 -2.8514593 -2.89748 -3.0136933 -3.0070238 -2.9310224 -2.7867422 -2.9855273
-3.024203 -3.0643268 -2.9469764 -2.9139454 -3.0907173 -2.9206033 -3.188245 -3.0568163
-2.88087 -2.8291988 -3.032242 -2.6979785 -3.0392168 -2.986123 -3.0905683 -3.164979
-2.9567094 -3.0251563 -3.0119188 -3.15227 -2.905863 -2.974703 -3.1520984 -3.0328515
-2.941286 -3.0190904 -3.0515988 -3.072396 -2.9799218 -2.8795047 -2.8489058 -3.0968027
-2.8487098 -2.9065986 -3.1293705 -3.0947874 -2.9341748 -2.9908829 -2.884691 -2.9784894
-2.7458355 -3.099302 -2.925341 -3.1274724 -2.7269278 -3.100229 -3.125793 -2.9939053
-3.1629362 -2.8825321 -3.0586123 -2.9037845 -2.9418066 -2.9768298 -2.957923 -2.8860965
-2.9816449 -2.9496582 -3.1559327 -2.9809237 -2.8556583 -2.888374 -2.9019103 -3.0254948
-3.0123405 -3.156805 -2.8488557 -3.0831895 -2.9623418 -2.8570924 -2.9929872 -2.868717
-2.9844818 -3.015032 -2.965593 -2.9170055 -2.8448873 -2.9517748 -2.8147993 -2.8677115
-2.98405 -2.9876559 -3.1549833 -2.9238338 -3.0492404 -3.079453 -2.8420446 -2.9688337
-2.7674146 -3.00651 -3.0115376 -2.9728353 -2.8340898 -3.1559458 -2.8463008 -3.146395
-2.9022236 -2.9720047 -2.9854279 -2.8896751 -3.023739 -2.9766576 -3.0715768 -3.0573044
-3.0878968 -2.9727972 -2.91952 -2.9647129 -2.8482764 -2.999005 -2.9457102 -3.06959
-3.1615388 -2.9666934 -2.8434436 -2.8548896 -2.7958822 -3.0973127 -3.0579934 -3.0374606
-3.1381743 -3.2369282 -2.9989684 -2.9636602 -3.2041128 -3.1113205 -2.8782084 -3.0655475
-2.8769956 -2.962026 -3.0817153 -2.8510523 -2.9146395 -2.9212592 -3.0183358 -2.9437418
-2.910521 -3.0786657 -3.0656183 -2.9646788 -2.9396744 -2.9764073 -2.938249 -3.018004
-2.9569185 -2.8902905 -3.0018048 -2.8955517 -2.9090533 -3.1367133 -2.9612525 -3.0775442
-3.04752 -3.098726 -3.2132673 -3.007971 -3.0261803 -2.98185 -2.9492726 -3.057755
-3.054449 -2.924681 -3.0323374 -3.0672688 -3.0668426 -3.0906134 -2.931787 -2.875219
-2.7865932 -3.045931 -2.9277089 -2.766072 -3.0829349 -2.8149614 -3.004524 -2.8487768
-3.0828528 -3.0073469 -3.0761402 -2.9674833 -2.9722667 -2.9843252 -3.1311812 -2.9138863
-2.9618335 -3.0299046 -2.9565063 -2.9289186 -2.9219139 -3.2026856 -3.0717287 -3.128806
-2.9912019 -3.1305726 -2.8675895 -2.8384163 -2.959773 -3.1374004 -2.9177952 -2.9733458
-2.966878 -2.9411736 -3.0442176 -2.8739226 -3.1697853 -2.877443 -3.0441759 -3.0021048
-3.1185508 -3.1548076 -3.1140237 -3.2106874 -2.9193683 -2.8904674 -2.9083521 -2.9936554
-3.0783718 -2.9321203 -3.032657 -2.9674644 -2.9166455 -2.8535075 -2.8484488 -3.0599334
-3.0049784 -3.122272 -3.0620449 -2.996506 -3.0346103 -3.0557623 -3.0328174 -3.0267222
-3.1008158 -2.7727711 -2.8383904 -3.0260043 -2.8965886 -3.1004295 -2.9947138 -3.0158045
-2.836518 -2.8707569 -2.9855738 -2.9111853 -3.072753 -2.847591 -2.8030157 -2.891399
00000000: 44a0 44c0 4f7e 36c0 5070 39c0 5ae0 40c0
00000010: 1473 40c0 df95 3bc0 fc59 32c0 e112 3fc0
00000020: 8b8c 41c0 ee1d 44c0 439b 3cc0 157e 3ac0
00000030: 50ce 45c0 2aeb 3ac0 350c 4cc0 e1a2 43c0
00000040: 2d60 38c0 9811 35c0 4110 42c0 aeab 2cc0
00000050: 8782 42c0 a41c 3fc0 dfcb 45c0 048f 4ac0
00000060: ba3a 3dc0 299c 41c0 47c3 40c0 cbbe 49c0
00000070: a9f9 39c0 8961 3ec0 fbbb 49c0 3d1a 42c0
00000080: 083e 3cc0 c738 41c0 654d 43c0 23a2 44c0
00000090: 0ab7 3ec0 ce49 38c0 7954 36c0 0432 46c0
000000a0: 4351 36c0 b605 3ac0 9b47 48c0 ff10 46c0
000000b0: 85c9 3bc0 a06a 3fc0 c79e 38c0 929f 3ec0
000000c0: c5bb 2fc0 f75a 46c0 c938 3bc0 8228 48c0
000000d0: fc85 2ec0 276a 46c0 fe0c 48c0 259c 3fc0
000000e0: 8c6d 4ac0 687b 38c0 4ec0 43c0 9bd7 39c0
000000f0: 8f46 3cc0 6184 3ec0 9c4e 3dc0 ceb5 38c0
00000100: 45d3 3ec0 33c7 3cc0 cdfa 49c0 74c7 3ec0
00000110: 1bc3 36c0 1fdb 38c0 e6b8 39c0 b5a1 41c0
00000120: 30ca 40c0 1809 4ac0 a753 36c0 fa52 45c0
00000130: 0297 3dc0 9ada 36c0 1a8d 3fc0 0f99 37c0
00000140: c001 3fc0 49f6 40c0 47cc 3dc0 38b0 3ac0
00000150: a212 36c0 e1e9 3cc0 ac25 34c0 9688 37c0
00000160: adfa 3ec0 c135 3fc0 3feb 49c0 1820 3bc0
00000170: c126 43c0 c215 45c0 0fe4 35c0 5f01 3ec0
00000180: 521d 31c0 a96a 40c0 08bd 40c0 ef42 3ec0
00000190: ba61 35c0 04fb 49c0 cb29 36c0 895e 49c0
000001a0: 08be 39c0 5335 3ec0 4011 3fc0 70f0 38c0
000001b0: f184 41c0 8f81 3ec0 b794 44c0 e0aa 43c0
000001c0: 1aa0 45c0 4f42 3ec0 6ad9 3ac0 dbbd 3dc0
000001d0: 294a 36c0 b3ef 3fc0 8486 3cc0 2a74 44c0
000001e0: a756 4ac0 4ede 3dc0 fbfa 35c0 83b6 36c0
000001f0: bcef 32c0 5f3a 46c0 2ab6 43c0 c165 42c0
00000200: d9d7 48c0 d529 4fc0 19ef 3fc0 9cac 3dc0
00000210: 2f10 4dc0 e01f 47c0 9134 38c0 ee31 44c0
00000220: b220 38c0 d591 3dc0 d33a 45c0 a477 36c0
00000230: 7489 3ac0 e9f5 3ac0 6a2c 41c0 4466 3cc0
00000240: fa45 3ac0 dc08 45c0 1733 44c0 4cbd 3dc0
00000250: a023 3cc0 757d 3ec0 460c 3cc0 fa26 41c0
00000260: 273e 3dc0 85fa 38c0 921d 40c0 b850 39c0
00000270: ee2d 3ac0 e9bf 48c0 2985 3dc0 7cf6 44c0
00000280: 910a 43c0 8751 46c0 2ca6 4dc0 9982 40c0
00000290: f0ac 41c0 a1d6 3ec0 e2c0 3cc0 42b2 43c0
000002a0: 187c 43c0 f92d 3bc0 d111 42c0 224e 44c0
000002b0: 2647 44c0 9ccc 45c0 66a2 3bc0 9703 38c0
000002c0: 8b57 32c0 89f0 42c0 955f 3bc0 5307 31c0
000002d0: ce4e 45c0 5428 34c0 1f4a 40c0 5c52 36c0
000002e0: 764d 45c0 5f78 40c0 7bdf 44c0 3feb 3dc0
000002f0: 9e39 3ec0 2fff 3ec0 4665 48c0 1d7d 3ac0
00000300: ae8e 3dc0 f5e9 41c0 6637 3dc0 6773 3bc0
00000310: a300 3bc0 cdf8 4cc0 3497 44c0 5c3e 48c0
00000320: da6f 3fc0 4d5b 48c0 9686 37c0 9da8 35c0
00000330: ec6c 3dc0 2bcb 48c0 28bd 3ac0 4c4b 3ec0
00000340: 54e1 3dc0 303c 3cc0 76d4 42c0 59ee 37c0
00000350: c3dd 4ac0 0728 38c0 c7d3 42c0 7c22 40c0
00000360: 5696 47c0 5ee8 49c0 2a4c 47c0 e77b 4dc0
00000370: eed6 3ac0 6bfd 38c0 7122 3ac0 0d98 3fc0
00000380: 0b04 45c0 dca7 3bc0 0d17 42c0 f0ea 3dc0
00000390: 52aa 3ac0 de9f 36c0 fc4c 36c0 f3d5 43c0
000003a0: 9151 40c0 4ed3 47c0 8bf8 43c0 c1c6 3fc0
000003b0: 0e37 42c0 9c91 43c0 ae19 42c0 d1b5 41c0
000003c0: c473 46c0 1575 31c0 30a8 35c0 0eaa 41c0
000003d0: b561 39c0 706d 46c0 64a9 3fc0 f102 41c0
000003e0: 8389 35c0 7bba 37c0 a413 3fc0 dc50 3ac0
000003f0: fca7 44c0 ee3e 36c0 9c64 33c0 ae0c 39c0
