checkpoints_16_tasks/16_task_groups_PUGCL_epochs_:25_lr_:0.1_hidden_:120_task_order_:[ 8  9 15  3  4  6 12  2  0  1  5 14 10 11  7 13]/model_9.pth.tar (torch_old, 81201 bytes, 136 tensors)

l1.weight_mu f4 [120, 29]
0	0xbd24507e	-0.040115826
1	0x3df0945f	0.117470495
2	0x3dc99da2	0.09844519
3	0xbe4e6dce	-0.20159075
4	0x3e078bee	0.13236973
5	0xbd06f86e	-0.032951765
6	0xbd2390a9	-0.03993288
7	0x3d3fcc72	0.046825834
8	0xbdda0c93	-0.106469296
9	0xbcf0d9ae	-0.029400673
10	0x3da15b37	0.07878726
11	0x3d151337	0.036395278
12	0xbca34aac	-0.019933067
13	0xbda56057	-0.08075016
14	0x3e705ba4	0.23472458
15	0xbc72a3ae	-0.014809532
16	0x3da367a7	0.079787545
17	0xbc0ad345	-0.008473222
18	0x3e1a5122	0.15070012
19	0x3d4d6449	0.050144468
20	0x3d6ada83	0.057337295
21	0xbbfc7421	-0.0077042733
22	0x3d8dc823	0.06922939
23	0x3df3b3ad	0.11899505
24	0x3cf45a2d	0.029828155
25	0x3e595e31	0.21227337
26	0x3e2f0238	0.1709069
27	0x3da0eded	0.07857881
28	0x3da17127	0.0788291
29	0xbdd2b272	-0.10287942
30	0x3e2cb6fc	0.16866678
31	0xbbff376f	-0.0077885906
32	0xbdb35a5b	-0.08757468
33	0x3c786b20	0.015162259
34	0x3e0d8d6f	0.13823484
35	0xbc96ccd6	-0.01840822
36	0xbd819767	-0.06327706
37	0xbc980ed9	-0.018561767
38	0x3b01e088	0.001981767
39	0x3deb73c8	0.11496693
40	0xbd4f77c2	-0.05065132
41	0x3cc56e69	0.0241005
42	0x3c49d2e9	0.012318351
43	0xbe346655	-0.17617162
44	0xbe294fb9	-0.16534318
45	0xbd8ca72f	-0.06867825
46	0x3ca2434c	0.01980748
47	0xbe16af2d	-0.14715262
48	0x3dadb4a2	0.084817186
49	0xbd23f59a	-0.040029146
50	0xbdcd0092	-0.100098744
51	0xbd35ee22	-0.044416554
52	0xbda41e0c	-0.080135435
53	0x3dcae11f	0.0990622
54	0xbe11b834	-0.14230424
55	0xbe23ef2c	-0.16009206
56	0x3c20d73a	0.009816939
57	0xbd1658a5	-0.03670563
58	0x3e02e986	0.12784395
59	0x3c47e2ec	0.0122000985
60	0x3e139a51	0.14414336
61	0xbda38df4	-0.0798606
62	0x3d5bc6c5	0.05365636
63	0x3dc4243c	0.09577224
64	0x3c5324f8	0.012887232
65	0x3d0d0242	0.03442598
66	0x3e0b0930	0.13577724
67	0x3def7898	0.11692923
68	0xbc3a577f	-0.0113734
69	0x3e114560	0.1418662
70	0x3df117b1	0.11772097
71	0x3d85e02a	0.065368965
72	0x3c60047c	0.013672944
73	0xbe27845d	-0.16359086
74	0xbd2b39ea	-0.041803278
75	0xbd1900bf	-0.037354227
76	0x3d5d4f49	0.05403069
77	0xbcb68740	-0.02228129
78	0xbe3a417e	-0.18189046
79	0xbdf06100	-0.11737251
80	0xbcefb52a	-0.02926119
81	0x3d9d6788	0.07685763
82	0x3cbdd167	0.02317114
83	0xbcb863a5	-0.022508452
84	0x3df8c282	0.121464744
85	0xbc8631ef	-0.016381232
86	0x3d38c772	0.04511208
87	0xbc9b0e52	-0.018927727
88	0xbe5f451f	-0.21803711
89	0xbe06fbca	-0.13181987
90	0x3e1c785b	0.15280287
91	0x3ddd2bf2	0.107993975
92	0xbe1c64b4	-0.1527279
93	0xbd7144eb	-0.058903616
94	0xbd972c39	-0.07381482
95	0xbe8316a4	-0.2560321
96	0xbd0ac60d	-0.033880282
97	0x3ba6a030	0.005085014
98	0x3e4101ca	0.18848339
99	0x3e05f753	0.13082628
100	0xbd60ccc8	-0.054882795
101	0x3d00bedb	0.031432014
102	0xbdee2ad4	-0.116292626
103	0xbdf0548a	-0.117348745
104	0x3d55422f	0.05206507
105	0xbe07fc4c	-0.13279837
106	0xbc9c9a1c	-0.019116454
107	0x3d470b03	0.048594486
108	0x3e31f68e	0.1737921
109	0xbdc4c607	-0.09608083
110	0xbaf52d6e	-0.0018705556
111	0xbd5f3d5c	-0.054501876
112	0xbdde65a2	-0.10859229
113	0x3db02c23	0.086021684
114	0xbd4240fc	-0.047425255
115	0x3da37f45	0.07983259
116	0x3e1b6cab	0.15178172
117	0x3ce28fa7	0.02765639
118	0x3dbb7ff2	0.09155263
119	0x3dcaee69	0.099087544
120	0x3c955256	0.018227737
121	0xbd81bd44	-0.06334928
122	0xbd047cf8	-0.032345742
123	0x3cf407cc	0.029788874
124	0x3e35766a	0.17720953
125	0xbb82845d	-0.003983064
126	0xbe81f5b2	-0.25382763
127	0xbd8ed371	-0.06973923
128	0x3c683bdd	0.014174429
129	0x3e33600b	0.17517106
130	0xbc4400ee	-0.011963112
131	0xbdeafb7a	-0.114737466
132	0x3a85596d	0.0010173746
133	0x3c6b72f3	0.014370668
134	0xbd51c303	-0.05121137
135	0xbdc38c87	-0.09548288
136	0xbddb4dff	-0.10708236
137	0x3c00c875	0.007860293
138	0xbdd2dbd1	-0.10295833
139	0x3e2c214b	0.16809575
140	0xbe086afb	-0.1332206
141	0xbc92859c	-0.017885976
142	0xbd5aa479	-0.05337951
143	0x3da32e56	0.07967822
144	0xbe98db93	-0.29855022
145	0xbca9cba0	-0.020726979
146	0x3e18b68b	0.14913385
147	0x3d306cd2	0.04307253
148	0x3a22779f	0.00061976345
149	0x3dcc6d09	0.09981734
150	0xbe07e06b	-0.13269202
151	0x3ca90d60	0.02063626
152	0x3b8e61f4	0.004345173
153	0xbe5cbad8	-0.2155565
154	0xbdcce2a4	-0.10004166
155	0xbd5ece7a	-0.05439613
156	0xbce5d1b2	-0.028054092
157	0x3d7d42da	0.061831333
158	0xbd71cd7b	-0.059033852
159	0xbdd64554	-0.10462442
160	0x3d287980	0.041131496
161	0xbe6c2474	-0.23060781
162	0x3e30c7df	0.17263745
163	0x3dc908a7	0.098161034
164	0xbe26545e	-0.16243121
165	0x3df4325a	0.11923666
166	0xbd021284	-0.03175594
167	0x3d908e4c	0.07058391
168	0xbe5c5b90	-0.21519303
169	0xbe4fda38	-0.20298088
170	0xbd081a5a	-0.033228256
171	0x3df5f6af	0.12009942
172	0xbcf741f1	-0.03018281
173	0x3c96c1ed	0.018403018
174	0x3cee68aa	0.029102642
175	0xbe1383a4	-0.14405686
176	0xbdb826ff	-0.08991813
177	0xbda8e953	-0.08247628
178	0xbdb9fe8c	-0.09081754
179	0x3cd572d9	0.02605574
180	0xbceecaed	-0.029149497
181	0x3e0b073d	0.1357698
182	0xbdae818f	-0.08520805
183	0xbc4dec7f	-0.012568592
184	0x3dbec049	0.09314019
185	0xbd625afc	-0.05526255
186	0xbe5077f1	-0.20358254
187	0x3e4149b5	0.18875773
188	0xbcefdb3e	-0.029279348
189	0xbd5903ec	-0.052982256
190	0xbdd85849	-0.10563714
191	0xbe34fe64	-0.17675167
192	0xbd5218f0	-0.051293314
193	0xbb54ad80	-0.0032452047
194	0xbc99ddee	-0.018782582
195	0x3d3001f1	0.0429706
196	0x3dbc22cc	0.091863245
197	0x3e843268	0.25819707
198	0x3cd8e41b	0.026475957
199	0xbdabb024	-0.083832055
200	0x3cafc765	0.021457383
201	0xbda1b1d8	-0.07895249
202	0xbd36d650	-0.044637978
203	0x3e191db3	0.14952736
204	0xbdc91a60	-0.09819484
205	0xbe1feadd	-0.15616937
206	0x3daab2e5	0.08334903
207	0x3d23a71c	0.03995429
208	0xbdadf23c	-0.08493468
209	0xbb865271	-0.0040991833
210	0xbd6afed3	-0.057371926
211	0x3e0a7037	0.13519369
212	0xbd8824e3	-0.066476606
213	0x3cf37adc	0.02972167
214	0x3bfdf21a	0.007749808
215	0xbc7c8113	-0.015411633
216	0x3dd219ef	0.10258853
217	0x3ccb2bbf	0.024801133
218	0xbdf78298	-0.12085456
219	0xbdbc6fe8	-0.09201032
220	0x3db7bd97	0.08971708
221	0x3d64db5d	0.055873264
222	0xbc944175	-0.018097619
223	0xbd0cfb46	-0.03441932
224	0xbd1267e3	-0.035743605
225	0xbd2f29ef	-0.0427646
226	0xbe01e5fd	-0.1268539
227	0x3e31f5eb	0.17378967
228	0xbe031cce	-0.12803957
229	0x3cef5fb4	0.02922044
230	0xbcdd2071	-0.026993008
231	0xbd27a040	-0.04092431
232	0x3b84dc78	0.0040546022
233	0xbcee4cee	-0.029089417
234	0x3e80f3a5	0.25185886
235	0xbdce7770	-0.10081375
236	0xbd647210	-0.05577284
237	0x3dc08a2a	0.09401353
238	0x3e981743	0.29705247
239	0xbac6a3f2	-0.0015155061
240	0xbdb37acd	-0.08763657
241	0xbce7e54e	-0.028307583
242	0x3d26814d	0.040650655
243	0xbc7cac6c	-0.015421968
244	0xbd821332	-0.063513175
245	0xbdd33124	-0.10312107
246	0xbe314fc0	-0.17315578
247	0xbbc420a2	-0.0059853354
248	0xbe56f0bb	-0.20990269
249	0x3c1ee76b	0.009698729
250	0xbde9da6d	-0.114186145
251	0xbe883b47	-0.26607725
252	0x3dc7dcf6	0.09758942
253	0x3948843d	0.00019122749
254	0xbdc72b48	-0.09725052
255	0x3df483d9	0.119392104

l1.weight_rho f4 [120, 29]
0	0xc04029b0	-3.0025444
1	0xc03c7c9a	-2.945105
2	0xc03affe4	-2.9218683
3	0xc039a915	-2.900945
4	0xc043e6ea	-3.0609689
5	0xc03acf9c	-2.9189215
6	0xc0461108	-3.0947895
7	0xc0331722	-2.798287
8	0xc037a253	-2.8692825
9	0xc03fca57	-2.9967248
10	0xc040db66	-3.013391
11	0xc03b5114	-2.9268236
12	0xc02ff541	-2.749344
13	0xc03f830f	-2.9923742
14	0xc0402888	-3.0024738
15	0xc040236a	-3.0021615
16	0xc0421208	-3.0323505
17	0xc03be3ea	-2.9357858
18	0xc0425590	-3.0364723
19	0xc033d10a	-2.8096337
20	0xc0356b62	-2.8346791
21	0xc0371c88	-2.8611164
22	0xc03ba20e	-2.931766
23	0xc0413f4f	-3.019489
24	0xc03cb79b	-2.9487064
25	0xc04de23c	-3.2169333
26	0xc03f0d67	-2.985193
27	0xc0362231	-2.8458369
28	0xc03c51d7	-2.942495
29	0xc039c155	-2.902425
30	0xc04cdde8	-3.201044
31	0xc041138f	-3.0168188
32	0xc03ad968	-2.9195194
33	0xc0398d1e	-2.899238
34	0xc0341c82	-2.81424
35	0xc03465a2	-2.8187032
36	0xc038344b	-2.8781917
37	0xc0421604	-3.0325937
38	0xc03f0d4a	-2.985186
39	0xc0473025	-3.1123135
40	0xc0412895	-3.018102
41	0xc03edb95	-2.9821522
42	0xc04ee56b	-3.2327526
43	0xc0434bdc	-3.051505
44	0xc037ee99	-2.8739378
45	0xc0346ec6	-2.819261
46	0xc03eee21	-2.9832842
47	0xc03ca171	-2.9473536
48	0xc03d6c87	-2.959749
49	0xc0479578	-3.1184978
50	0xc04def2d	-3.2177231
51	0xc0403f02	-3.0038457
52	0xc03c599a	-2.9429688
53	0xc03af6e8	-2.92132
54	0xc03e946e	-2.9778094
55	0xc03d4fe3	-2.958001
56	0xc04aa089	-3.1660483
57	0xc037800f	-2.867191
58	0xc0479299	-3.1183226
59	0xc03caf4e	-2.9481997
60	0xc03951a8	-2.895609
61	0xc04af9e4	-3.171502
62	0xc03ab0c8	-2.9170399
63	0xc0405ad2	-3.0055432
64	0xc04423e7	-3.0646913
65	0xc0431d63	-3.0486686
66	0xc0429a23	-3.0406578
67	0xc045f4d2	-3.0930676
68	0xc03cbf42	-2.9491735
69	0xc037c21e	-2.871223
70	0xc03c3226	-2.9405608
71	0xc03e01ed	-2.9688675
72	0xc03b672f	-2.9281728
73	0xc03e9eca	-2.9784417
74	0xc044da52	-3.0758252
75	0xc04248a8	-3.0356846
76	0xc0482ba3	-3.1276634
77	0xc03f898a	-2.9927697
78	0xc03b9598	-2.9310055
79	0xc0452bf8	-3.0808086
80	0xc043836b	-3.054896
81	0xc03f4e96	-2.9891715
82	0xc042b9cc	-3.0425901
83	0xc039e97b	-2.9048755
84	0xc0353559	-2.831381
85	0xc03bcee4	-2.9345026
86	0xc02e006a	-2.7187753
87	0xc02fcd6b	-2.7469127
88	0xc0469acc	-3.103198
89	0xc040959d	-3.0091317
90	0xc0414fca	-3.020495
91	0xc042bb27	-3.0426729
92	0xc040407f	-3.0039365
93	0xc042004c	-3.0312681
94	0xc03cf1c1	-2.9522555
95	0xc03831a8	-2.8780308
96	0xc0360195	-2.8438466
97	0xc04225bf	-3.0335538
98	0xc0422892	-3.0337262
99	0xc034ddff	-2.8260496
100	0xc03c03f3	-2.937741
101	0xc044a262	-3.072411
102	0xc03dbf83	-2.964814
103	0xc03e89fb	-2.9771717
104	0xc038ac0d	-2.8855011
105	0xc041b49f	-3.0266492
106	0xc037471e	-2.8637156
107	0xc036e1f1	-2.8575404
108	0xc03e4385	-2.972871
109	0xc0447524	-3.0696497
110	0xc04492ce	-3.0714602
111	0xc041a9ba	-3.0259843
112	0xc04407c2	-3.0629735
113	0xc0395ffa	-2.896483
114	0xc03a79f9	-2.9136946
115	0xc0385910	-2.880436
116	0xc03d02c4	-2.9532938
117	0xc0486c7d	-3.1316216
118	0xc044abe5	-3.0729916
119	0xc03ab5a9	-2.9173377
120	0xc0389434	-2.8840456
121	0xc0493ef3	-3.144467
122	0xc03b0081	-2.9219058
123	0xc03b3bf0	-2.9255333
124	0xc0401d3f	-3.001785
125	0xc03b7648	-2.9290943
126	0xc03fc92a	-2.996653
127	0xc0369061	-2.8525622
128	0xc03eddd9	-2.9822905
129	0xc0429765	-3.0404904
130	0xc03ebcdb	-2.9802768
131	0xc0441618	-3.0638485
132	0xc048a479	-3.1350386
133	0xc03d85c1	-2.9612887
134	0xc0415e9c	-3.0213995
135	0xc0387196	-2.8819327
136	0xc039819e	-2.8985362
137	0xc03dd11b	-2.9658878
138	0xc03a39f9	-2.9097884
139	0xc04a3b90	-3.1598854
140	0xc044a3ef	-3.0725057
141	0xc04eb2b6	-3.2296576
142	0xc0332526	-2.7991424
143	0xc043dd57	-3.0603845
144	0xc0451539	-3.0794203
145	0xc0322fd9	-2.7841704
146	0xc0464197	-3.0977533
147	0xc03f7a01	-2.9918215
148	0xc030172a	-2.7514138
149	0xc039edad	-2.9051316
150	0xc05288d0	-3.2896004
151	0xc03c5c91	-2.9431498
152	0xc0373c65	-2.8630612
153	0xc03b6ef1	-2.9286463
154	0xc046d5ae	-3.106792
155	0xc03ad7b0	-2.9194145
156	0xc0377ec0	-2.8671112
157	0xc041576f	-3.0209615
158	0xc048eae4	-3.1393366
159	0xc046ede4	-3.1082697
160	0xc0459f0c	-3.0878325
161	0xc03d913b	-2.9619892
162	0xc048ef42	-3.1396031
163	0xc03f6141	-2.990311
164	0xc0380e15	-2.8758595
165	0xc03827a1	-2.8774188
166	0xc03ccdd0	-2.9500618
167	0xc0493110	-3.1436195
168	0xc03cac82	-2.948029
169	0xc036b90a	-2.855044
170	0xc0412ed7	-3.0184839
171	0xc0462da8	-3.0965366
172	0xc03ca9db	-2.9478672
173	0xc03f4060	-2.9883041
174	0xc03d2310	-2.955265
175	0xc0438ecc	-3.0555906
176	0xc03f69df	-2.9908369
177	0xc04968f5	-3.147031
178	0xc03e00f7	-2.968809
179	0xc03d7243	-2.960099
180	0xc03cfe8f	-2.953037
181	0xc0457a3b	-3.0855854
182	0xc02fec55	-2.7487996
183	0xc04199fe	-3.025024
184	0xc040b09a	-3.010779
185	0xc03ab5ae	-2.9173388
186	0xc038ba69	-2.8863776
187	0xc0429b4f	-3.0407293
188	0xc0341ee9	-2.8143866
189	0xc04429d8	-3.065054
190	0xc03de5c7	-2.9671495
191	0xc04d1261	-3.2042468
192	0xc04bfd61	-3.18734
193	0xc041e5a0	-3.0296402
194	0xc041fb49	-3.0309622
195	0xc0439292	-3.055821
196	0xc040bfd4	-3.0117083
197	0xc03f7b1a	-2.9918885
198	0xc042c3e9	-3.0432074
199	0xc0408c3e	-3.0085597
200	0xc036da9f	-2.8570936
201	0xc0453e6a	-3.0819345
202	0xc0448656	-3.0706992
203	0xc0371004	-2.8603525
204	0xc041e934	-3.0298586
205	0xc03a0632	-2.9066281
206	0xc04f9094	-3.2431993
207	0xc0480efc	-3.1259146
208	0xc04f3459	-3.23757
209	0xc03bd285	-2.934724
210	0xc0472b13	-3.112004
211	0xc03e6825	-2.9751065
212	0xc04bb646	-3.183
213	0xc03d761f	-2.9603345
214	0xc0380642	-2.875382
215	0xc04d85d8	-3.2112942
216	0xc03f1ee3	-2.9862602
217	0xc035efcd	-2.8427613
218	0xc03b59b4	-2.92735
219	0xc042d085	-3.043977
220	0xc03dcde0	-2.9656906
221	0xc03dd1dd	-2.965934
222	0xc03b4880	-2.9263
223	0xc03d4e9a	-2.9579225
224	0xc03aed12	-2.9207196
225	0xc045533e	-3.0832057
226	0xc03f7c31	-2.991955
227	0xc044c859	-3.0747283
228	0xc0415dcb	-3.0213497
229	0xc0479e90	-3.119053
230	0xc0438aea	-3.0553536
231	0xc040c5f6	-3.0120826
232	0xc03ff1f6	-2.9991431
233	0xc03e5d95	-2.9744618
234	0xc03f7abb	-2.9918659
235	0xc041e0f3	-3.0293548
236	0xc03bfe87	-2.93741
237	0xc04378fb	-3.054259
238	0xc047d193	-3.1221664
239	0xc04d5e28	-3.2088718
240	0xc03f343d	-2.9875634
241	0xc045c88c	-3.0903654
242	0xc047b536	-3.1204352
243	0xc035a2d1	-2.8380625
244	0xc03eaceb	-2.979304
245	0xc041eeb0	-3.0301933
246	0xc03970c6	-2.8975081
247	0xc0452cac	-3.0808516
248	0xc048ae6b	-3.1356456
249	0xc046f3f8	-3.1086407
250	0xc03c07bd	-2.9379723
251	0xc04578b2	-3.0854917
252	0xc04e0951	-3.2193186
253	0xc033ac62	-2.8073964
254	0xc0496c79	-3.1472456
255	0xc0498639	-3.1488173

l1.bias_mu f4 [120]
0	0x3d75b834	0.059990123
1	0x3c41cae5	0.011828159
2	0x3dae560e	0.085125074
3	0xbde00c50	-0.109398484
4	0x3db4e057	0.08831852
5	0xbd069e6a	-0.03286592
6	0x3d62d13f	0.055375334
7	0xbc75b6ab	-0.014997165
8	0x3d864b5b	0.06557342
9	0xbe36e70d	-0.17861576
10	0xbd2e8b36	-0.04261323
11	0x3dd9b80e	0.10630809
12	0xbe7d424b	-0.2473232
13	0x3d2d8208	0.042360336
14	0x3dde97aa	0.108687714
15	0xbe003a44	-0.12522227
16	0xbd5f7dc5	-0.054563303
17	0x3e1fee9c	0.15618366
18	0x3d09bbb6	0.03362628
19	0x3be4108c	0.0069599804
20	0xbcd3b776	-0.025844317
21	0x3d2e814e	0.042603783
22	0xbddb9092	-0.10720934
23	0x3d1c0d07	0.03809836
24	0xbd875b1d	-0.06609175
25	0xbdaa014c	-0.083010286
26	0x3dde864c	0.10865459
27	0x3cc7bb1f	0.024381218
28	0x3de23750	0.11045706
29	0xbe1c7a7f	-0.15281104
30	0xbd346c7e	-0.04404878
31	0xbe13fad8	-0.14451158
32	0xbe47dca8	-0.19517767
33	0x3cb9bb7d	0.02267241
34	0xbe057c5e	-0.13035724
35	0x3de5f888	0.11229044
36	0x3dc6684a	0.0968786
37	0xbd6120b5	-0.054962832
38	0xbe143f3b	-0.14477246
39	0xbda4b9b9	-0.08043236
40	0x3cbbaf29	0.022910671
41	0x3dce34dc	0.10068676
42	0x3cc39d4a	0.023878712
43	0x3e16d619	0.1473011
44	0xbd5268e9	-0.05136958
45	0xbc29889e	-0.0103475135
46	0xbe0a32df	-0.13495968
47	0xbe1325ad	-0.14369841
48	0xbe796c0c	-0.24357623
49	0x3db857c8	0.09001118
50	0xbd4c96c3	-0.049948465
51	0x3df1ee85	0.11813072
52	0x3d160e16	0.036634527
53	0xbe461f0e	-0.19347784
54	0x3ab7d2af	0.0014024581
55	0x3e426875	0.1898516
56	0xbd896907	-0.067094855
57	0xbd98346b	-0.07431873
58	0xbdb5cce1	-0.08876968
59	0x3e7eee88	0.2489568
60	0x3d73089d	0.059334386
61	0xbdb5c578	-0.08875555
62	0xbc3014f0	-0.010747179
63	0x3d44272a	0.047888912
64	0xbe2be9eb	-0.16788451
65	0x3d92ac91	0.07161821
66	0x3d0cb576	0.034352742
67	0x3dc42a9b	0.09578439
68	0x3dbc1948	0.091845095
69	0x3e5cb436	0.2155312
70	0x3e094e09	0.13408674
71	0xbc066624	-0.008203063
72	0x3d9d6212	0.07684721
73	0x3cbb0447	0.022829188
74	0xbd519c4a	-0.05117444
75	0x3dc0f7fc	0.09422299
76	0x3ce566c4	0.028003104
77	0x3ca8d12d	0.020607555
78	0x3e198f40	0.14996052
79	0x3dc0506a	0.09390338
80	0x3d8284ec	0.06373009
81	0xbc26e946	-0.010187453
82	0xbc699a84	-0.014258031
83	0x3d475cc5	0.048672456
84	0xbd97df42	-0.0741563
85	0x3d253a04	0.04033853
86	0xbe03ffb9	-0.12890519
87	0xbdec8936	-0.115496084
88	0xbe161305	-0.14655693
89	0xbd8e7c93	-0.069573544
90	0x3cb8a841	0.022541167
91	0xbd67fa04	-0.056634918
92	0xb8e9d2fa	-0.00011149603
93	0x3bf3d12d	0.007440707
94	0x3e098f86	0.13433656
95	0xbd8921c8	-0.066958964
96	0xbe37c079	-0.17944516
97	0x3e80bff5	0.25146452
98	0x3dd15c8e	0.102227315
99	0xbd45b59c	-0.0482689
100	0x3e118cc5	0.14213856
101	0xbc1babc2	-0.0095013995
102	0xbe36155a	-0.17781582
103	0xbb833fd7	-0.004005413
104	0xbe329990	-0.17441392
105	0xbe2ef3ae	-0.17085144
106	0x3d8316a9	0.064008065
107	0x3cef88fc	0.029240124
108	0x3dac5661	0.08414913
109	0xbb9cc3fe	-0.0047841063
110	0x3c9f8430	0.019472212
111	0xbe49f346	-0.19721708
112	0x3ceb33d0	0.02871123
113	0x3cceb867	0.025234414
114	0xbccb073f	-0.024783729
115	0xbc504364	-0.01271138
116	0x3e0ea6ac	0.13930768
117	0xbe0691c7	-0.13141547
118	0x3e04c831	0.12966992
119	0xbd03b8d8	-0.032158703

l1.bias_rho f4 [120]
0	0xc043363d	-3.0501854
1	0xc0446b07	-3.0690324
2	0xc0445a46	-3.0680099
3	0xc03ffeff	-2.9999387
4	0xc042b8da	-3.0425324
5	0xc0481991	-3.1265604
6	0xc0445369	-3.067591
7	0xc036c691	-2.8558695
8	0xc03b9ebf	-2.931564
9	0xc0430b26	-3.0475554
10	0xc0436ba9	-3.053446
11	0xc03ca244	-2.947404
12	0xc0427d0b	-3.038882
13	0xc03d75a6	-2.9603057
14	0xc047e3de	-3.123283
15	0xc041e9f1	-3.0299037
16	0xc03c5959	-2.9429533
17	0xc043bc6c	-3.0583754
18	0xc032daa1	-2.794594
19	0xc0434b0a	-3.051455
20	0xc03c5a92	-2.943028
21	0xc03f8767	-2.9926393
22	0xc03af6c5	-2.9213116
23	0xc0341873	-2.8139923
24	0xc042328d	-3.0343354
25	0xc044a53a	-3.0725846
26	0xc03d34a1	-2.9563372
27	0xc03dea46	-2.967424
28	0xc0468542	-3.1018834
29	0xc040d91a	-3.0132508
30	0xc0365b43	-2.8493202
31	0xc03a8807	-2.9145525
32	0xc0395e9a	-2.896399
33	0xc03a0fb2	-2.907208
34	0xc04394de	-3.0559611
35	0xc0414a72	-3.0201688
36	0xc048acf9	-3.1355574
37	0xc03a5e0a	-2.9119897
38	0xc046caf3	-3.106137
39	0xc03f802b	-2.9921978
40	0xc0440513	-3.0628097
41	0xc03b0884	-2.9223948
42	0xc0363dab	-2.847514
43	0xc0387931	-2.882397
44	0xc03fbdd9	-2.9959624
45	0xc03c12bc	-2.9386435
46	0xc040cb7c	-3.0124197
47	0xc040ff44	-3.0155802
48	0xc03bcd10	-2.934391
49	0xc03b81df	-2.9298017
50	0xc033c28b	-2.808749
51	0xc03f1800	-2.9858398
52	0xc03b5b5d	-2.9274514
53	0xc035bf8a	-2.8398156
54	0xc0350ccb	-2.8289058
55	0xc03fe94f	-2.998615
56	0xc03c977e	-2.9467463
57	0xc049dfc0	-3.1542816
58	0xc0444c79	-3.0671675
59	0xc04b13ff	-3.1730955
60	0xc044dcb2	-3.0759702
61	0xc040bda3	-3.0115745
62	0xc03f0a45	-2.9850018
63	0xc0391359	-2.891806
64	0xc03d8e0c	-2.9617949
65	0xc049e2ae	-3.1544604
66	0xc0407438	-3.0070934
67	0xc039e97e	-2.9048762
68	0xc04872ca	-3.1320062
69	0xc0454256	-3.0821738
70	0xc041c851	-3.0278513
71	0xc03136bd	-2.768966
72	0xc046c430	-3.1057243
73	0xc032f82b	-2.796397
74	0xc03faa36	-2.9947639
75	0xc039a42d	-2.9006455
76	0xc0405481	-3.0051577
77	0xc03cf914	-2.9527025
78	0xc04a08d7	-3.1567895
79	0xc0418267	-3.0235841
80	0xc039e26a	-2.9044442
81	0xc041c6fd	-3.0277703
82	0xc03d7fd1	-2.9609263
83	0xc03eed5e	-2.9832377
84	0xc0385914	-2.880437
85	0xc0464120	-3.097725
86	0xc040d849	-3.013201
87	0xc038213b	-2.8770282
88	0xc03fae2e	-2.995006
89	0xc0426c5a	-3.0378633
90	0xc03c7cfc	-2.9451284
91	0xc039add5	-2.9012349
92	0xc0412bdb	-3.0183017
93	0xc0442894	-3.0649767
94	0xc03eedc3	-2.9832618
95	0xc039fd68	-2.9060917
96	0xc037b92c	-2.870677
97	0xc03dbbd3	-2.9645889
98	0xc03defa0	-2.9677505
99	0xc03b0058	-2.921896
100	0xc03e89a5	-2.9771512
101	0xc039ece4	-2.9050837
102	0xc03e0c3a	-2.9694963
103	0xc03c965a	-2.9466767
104	0xc04025b0	-3.0023003
105	0xc0434a2c	-3.051402
106	0xc04b68e4	-3.178277
107	0xc04a57c3	-3.1616066
108	0xc03afcb3	-2.9216735
109	0xc03fa9e3	-2.994744
110	0xc0475b71	-3.1149561
111	0xc03986cc	-2.8988523
112	0xc04791d1	-3.118275
113	0xc03b1587	-2.923189
114	0xc043b3ac	-3.0578413
115	0xc03a3cce	-2.9099612
116	0xc03e68a7	-2.9751375
117	0xc04392ba	-3.0558305
118	0xc03c2215	-2.9395802
119	0xc03c760c	-2.944705

l1.weight.mu f4 [120, 29]
0	0xbd24507e	-0.040115826
1	0x3df0945f	0.117470495
2	0x3dc99da2	0.09844519
3	0xbe4e6dce	-0.20159075
4	0x3e078bee	0.13236973
5	0xbd06f86e	-0.032951765
6	0xbd2390a9	-0.03993288
7	0x3d3fcc72	0.046825834
8	0xbdda0c93	-0.106469296
9	0xbcf0d9ae	-0.029400673
10	0x3da15b37	0.07878726
11	0x3d151337	0.036395278
12	0xbca34aac	-0.019933067
13	0xbda56057	-0.08075016
14	0x3e705ba4	0.23472458
15	0xbc72a3ae	-0.014809532
16	0x3da367a7	0.079787545
17	0xbc0ad345	-0.008473222
18	0x3e1a5122	0.15070012
19	0x3d4d6449	0.050144468
20	0x3d6ada83	0.057337295
21	0xbbfc7421	-0.0077042733
22	0x3d8dc823	0.06922939
23	0x3df3b3ad	0.11899505
24	0x3cf45a2d	0.029828155
25	0x3e595e31	0.21227337
26	0x3e2f0238	0.1709069
27	0x3da0eded	0.07857881
28	0x3da17127	0.0788291
29	0xbdd2b272	-0.10287942
30	0x3e2cb6fc	0.16866678
31	0xbbff376f	-0.0077885906
32	0xbdb35a5b	-0.08757468
33	0x3c786b20	0.015162259
34	0x3e0d8d6f	0.13823484
35	0xbc96ccd6	-0.01840822
36	0xbd819767	-0.06327706
37	0xbc980ed9	-0.018561767
38	0x3b01e088	0.001981767
39	0x3deb73c8	0.11496693
40	0xbd4f77c2	-0.05065132
41	0x3cc56e69	0.0241005
42	0x3c49d2e9	0.012318351
43	0xbe346655	-0.17617162
44	0xbe294fb9	-0.16534318
45	0xbd8ca72f	-0.06867825
46	0x3ca2434c	0.01980748
47	0xbe16af2d	-0.14715262
48	0x3dadb4a2	0.084817186
49	0xbd23f59a	-0.040029146
50	0xbdcd0092	-0.100098744
51	0xbd35ee22	-0.044416554
52	0xbda41e0c	-0.080135435
53	0x3dcae11f	0.0990622
54	0xbe11b834	-0.14230424
55	0xbe23ef2c	-0.16009206
56	0x3c20d73a	0.009816939
57	0xbd1658a5	-0.03670563
58	0x3e02e986	0.12784395
59	0x3c47e2ec	0.0122000985
60	0x3e139a51	0.14414336
61	0xbda38df4	-0.0798606
62	0x3d5bc6c5	0.05365636
63	0x3dc4243c	0.09577224
64	0x3c5324f8	0.012887232
65	0x3d0d0242	0.03442598
66	0x3e0b0930	0.13577724
67	0x3def7898	0.11692923
68	0xbc3a577f	-0.0113734
69	0x3e114560	0.1418662
70	0x3df117b1	0.11772097
71	0x3d85e02a	0.065368965
72	0x3c60047c	0.013672944
73	0xbe27845d	-0.16359086
74	0xbd2b39ea	-0.041803278
75	0xbd1900bf	-0.037354227
76	0x3d5d4f49	0.05403069
77	0xbcb68740	-0.02228129
78	0xbe3a417e	-0.18189046
79	0xbdf06100	-0.11737251
80	0xbcefb52a	-0.02926119
81	0x3d9d6788	0.07685763
82	0x3cbdd167	0.02317114
83	0xbcb863a5	-0.022508452
84	0x3df8c282	0.121464744
85	0xbc8631ef	-0.016381232
86	0x3d38c772	0.04511208
87	0xbc9b0e52	-0.018927727
88	0xbe5f451f	-0.21803711
89	0xbe06fbca	-0.13181987
90	0x3e1c785b	0.15280287
91	0x3ddd2bf2	0.107993975
92	0xbe1c64b4	-0.1527279
93	0xbd7144eb	-0.058903616
94	0xbd972c39	-0.07381482
95	0xbe8316a4	-0.2560321
96	0xbd0ac60d	-0.033880282
97	0x3ba6a030	0.005085014
98	0x3e4101ca	0.18848339
99	0x3e05f753	0.13082628
100	0xbd60ccc8	-0.054882795
101	0x3d00bedb	0.031432014
102	0xbdee2ad4	-0.116292626
103	0xbdf0548a	-0.117348745
104	0x3d55422f	0.05206507
105	0xbe07fc4c	-0.13279837
106	0xbc9c9a1c	-0.019116454
107	0x3d470b03	0.048594486
108	0x3e31f68e	0.1737921
109	0xbdc4c607	-0.09608083
110	0xbaf52d6e	-0.0018705556
111	0xbd5f3d5c	-0.054501876
112	0xbdde65a2	-0.10859229
113	0x3db02c23	0.086021684
114	0xbd4240fc	-0.047425255
115	0x3da37f45	0.07983259
116	0x3e1b6cab	0.15178172
117	0x3ce28fa7	0.02765639
118	0x3dbb7ff2	0.09155263
119	0x3dcaee69	0.099087544
120	0x3c955256	0.018227737
121	0xbd81bd44	-0.06334928
122	0xbd047cf8	-0.032345742
123	0x3cf407cc	0.029788874
124	0x3e35766a	0.17720953
125	0xbb82845d	-0.003983064
126	0xbe81f5b2	-0.25382763
127	0xbd8ed371	-0.06973923
128	0x3c683bdd	0.014174429
129	0x3e33600b	0.17517106
130	0xbc4400ee	-0.011963112
131	0xbdeafb7a	-0.114737466
132	0x3a85596d	0.0010173746
133	0x3c6b72f3	0.014370668
134	0xbd51c303	-0.05121137
135	0xbdc38c87	-0.09548288
136	0xbddb4dff	-0.10708236
137	0x3c00c875	0.007860293
138	0xbdd2dbd1	-0.10295833
139	0x3e2c214b	0.16809575
140	0xbe086afb	-0.1332206
141	0xbc92859c	-0.017885976
142	0xbd5aa479	-0.05337951
143	0x3da32e56	0.07967822
144	0xbe98db93	-0.29855022
145	0xbca9cba0	-0.020726979
146	0x3e18b68b	0.14913385
147	0x3d306cd2	0.04307253
148	0x3a22779f	0.00061976345
149	0x3dcc6d09	0.09981734
150	0xbe07e06b	-0.13269202
151	0x3ca90d60	0.02063626
152	0x3b8e61f4	0.004345173
153	0xbe5cbad8	-0.2155565
154	0xbdcce2a4	-0.10004166
155	0xbd5ece7a	-0.05439613
156	0xbce5d1b2	-0.028054092
157	0x3d7d42da	0.061831333
158	0xbd71cd7b	-0.059033852
159	0xbdd64554	-0.10462442
160	0x3d287980	0.041131496
161	0xbe6c2474	-0.23060781
162	0x3e30c7df	0.17263745
163	0x3dc908a7	0.098161034
164	0xbe26545e	-0.16243121
165	0x3df4325a	0.11923666
166	0xbd021284	-0.03175594
167	0x3d908e4c	0.07058391
168	0xbe5c5b90	-0.21519303
169	0xbe4fda38	-0.20298088
170	0xbd081a5a	-0.033228256
171	0x3df5f6af	0.12009942
172	0xbcf741f1	-0.03018281
173	0x3c96c1ed	0.018403018
174	0x3cee68aa	0.029102642
175	0xbe1383a4	-0.14405686
176	0xbdb826ff	-0.08991813
177	0xbda8e953	-0.08247628
178	0xbdb9fe8c	-0.09081754
179	0x3cd572d9	0.02605574
180	0xbceecaed	-0.029149497
181	0x3e0b073d	0.1357698
182	0xbdae818f	-0.08520805
183	0xbc4dec7f	-0.012568592
184	0x3dbec049	0.09314019
185	0xbd625afc	-0.05526255
186	0xbe5077f1	-0.20358254
187	0x3e4149b5	0.18875773
188	0xbcefdb3e	-0.029279348
189	0xbd5903ec	-0.052982256
190	0xbdd85849	-0.10563714
191	0xbe34fe64	-0.17675167
192	0xbd5218f0	-0.051293314
193	0xbb54ad80	-0.0032452047
194	0xbc99ddee	-0.018782582
195	0x3d3001f1	0.0429706
196	0x3dbc22cc	0.091863245
197	0x3e843268	0.25819707
198	0x3cd8e41b	0.026475957
199	0xbdabb024	-0.083832055
200	0x3cafc765	0.021457383
201	0xbda1b1d8	-0.07895249
202	0xbd36d650	-0.044637978
203	0x3e191db3	0.14952736
204	0xbdc91a60	-0.09819484
205	0xbe1feadd	-0.15616937
206	0x3daab2e5	0.08334903
207	0x3d23a71c	0.03995429
208	0xbdadf23c	-0.08493468
209	0xbb865271	-0.0040991833
210	0xbd6afed3	-0.057371926
211	0x3e0a7037	0.13519369
212	0xbd8824e3	-0.066476606
213	0x3cf37adc	0.02972167
214	0x3bfdf21a	0.007749808
215	0xbc7c8113	-0.015411633
216	0x3dd219ef	0.10258853
217	0x3ccb2bbf	0.024801133
218	0xbdf78298	-0.12085456
219	0xbdbc6fe8	-0.09201032
220	0x3db7bd97	0.08971708
221	0x3d64db5d	0.055873264
222	0xbc944175	-0.018097619
223	0xbd0cfb46	-0.03441932
224	0xbd1267e3	-0.035743605
225	0xbd2f29ef	-0.0427646
226	0xbe01e5fd	-0.1268539
227	0x3e31f5eb	0.17378967
228	0xbe031cce	-0.12803957
229	0x3cef5fb4	0.02922044
230	0xbcdd2071	-0.026993008
231	0xbd27a040	-0.04092431
232	0x3b84dc78	0.0040546022
233	0xbcee4cee	-0.029089417
234	0x3e80f3a5	0.25185886
235	0xbdce7770	-0.10081375
236	0xbd647210	-0.05577284
237	0x3dc08a2a	0.09401353
238	0x3e981743	0.29705247
239	0xbac6a3f2	-0.0015155061
240	0xbdb37acd	-0.08763657
241	0xbce7e54e	-0.028307583
242	0x3d26814d	0.040650655
243	0xbc7cac6c	-0.015421968
244	0xbd821332	-0.063513175
245	0xbdd33124	-0.10312107
246	0xbe314fc0	-0.17315578
247	0xbbc420a2	-0.0059853354
248	0xbe56f0bb	-0.20990269
249	0x3c1ee76b	0.009698729
250	0xbde9da6d	-0.114186145
251	0xbe883b47	-0.26607725
252	0x3dc7dcf6	0.09758942
253	0x3948843d	0.00019122749
254	0xbdc72b48	-0.09725052
255	0x3df483d9	0.119392104

l1.weight.rho f4 [120, 29]
0	0xc04029b0	-3.0025444
1	0xc03c7c9a	-2.945105
2	0xc03affe4	-2.9218683
3	0xc039a915	-2.900945
4	0xc043e6ea	-3.0609689
5	0xc03acf9c	-2.9189215
6	0xc0461108	-3.0947895
7	0xc0331722	-2.798287
8	0xc037a253	-2.8692825
9	0xc03fca57	-2.9967248
10	0xc040db66	-3.013391
11	0xc03b5114	-2.9268236
12	0xc02ff541	-2.749344
13	0xc03f830f	-2.9923742
14	0xc0402888	-3.0024738
15	0xc040236a	-3.0021615
16	0xc0421208	-3.0323505
17	0xc03be3ea	-2.9357858
18	0xc0425590	-3.0364723
19	0xc033d10a	-2.8096337
20	0xc0356b62	-2.8346791
21	0xc0371c88	-2.8611164
22	0xc03ba20e	-2.931766
23	0xc0413f4f	-3.019489
24	0xc03cb79b	-2.9487064
25	0xc04de23c	-3.2169333
26	0xc03f0d67	-2.985193
27	0xc0362231	-2.8458369
28	0xc03c51d7	-2.942495
29	0xc039c155	-2.902425
30	0xc04cdde8	-3.201044
31	0xc041138f	-3.0168188
32	0xc03ad968	-2.9195194
33	0xc0398d1e	-2.899238
34	0xc0341c82	-2.81424
35	0xc03465a2	-2.8187032
36	0xc038344b	-2.8781917
37	0xc0421604	-3.0325937
38	0xc03f0d4a	-2.985186
39	0xc0473025	-3.1123135
40	0xc0412895	-3.018102
41	0xc03edb95	-2.9821522
42	0xc04ee56b	-3.2327526
43	0xc0434bdc	-3.051505
44	0xc037ee99	-2.8739378
45	0xc0346ec6	-2.819261
46	0xc03eee21	-2.9832842
47	0xc03ca171	-2.9473536
48	0xc03d6c87	-2.959749
49	0xc0479578	-3.1184978
50	0xc04def2d	-3.2177231
51	0xc0403f02	-3.0038457
52	0xc03c599a	-2.9429688
53	0xc03af6e8	-2.92132
54	0xc03e946e	-2.9778094
55	0xc03d4fe3	-2.958001
56	0xc04aa089	-3.1660483
57	0xc037800f	-2.867191
58	0xc0479299	-3.1183226
59	0xc03caf4e	-2.9481997
60	0xc03951a8	-2.895609
61	0xc04af9e4	-3.171502
62	0xc03ab0c8	-2.9170399
63	0xc0405ad2	-3.0055432
64	0xc04423e7	-3.0646913
65	0xc0431d63	-3.0486686
66	0xc0429a23	-3.0406578
67	0xc045f4d2	-3.0930676
68	0xc03cbf42	-2.9491735
69	0xc037c21e	-2.871223
70	0xc03c3226	-2.9405608
71	0xc03e01ed	-2.9688675
72	0xc03b672f	-2.9281728
73	0xc03e9eca	-2.9784417
74	0xc044da52	-3.0758252
75	0xc04248a8	-3.0356846
76	0xc0482ba3	-3.1276634
77	0xc03f898a	-2.9927697
78	0xc03b9598	-2.9310055
79	0xc0452bf8	-3.0808086
80	0xc043836b	-3.054896
81	0xc03f4e96	-2.9891715
82	0xc042b9cc	-3.0425901
83	0xc039e97b	-2.9048755
84	0xc0353559	-2.831381
85	0xc03bcee4	-2.9345026
86	0xc02e006a	-2.7187753
87	0xc02fcd6b	-2.7469127
88	0xc0469acc	-3.103198
89	0xc040959d	-3.0091317
90	0xc0414fca	-3.020495
91	0xc042bb27	-3.0426729
92	0xc040407f	-3.0039365
93	0xc042004c	-3.0312681
94	0xc03cf1c1	-2.9522555
95	0xc03831a8	-2.8780308
96	0xc0360195	-2.8438466
97	0xc04225bf	-3.0335538
98	0xc0422892	-3.0337262
99	0xc034ddff	-2.8260496
100	0xc03c03f3	-2.937741
101	0xc044a262	-3.072411
102	0xc03dbf83	-2.964814
103	0xc03e89fb	-2.9771717
104	0xc038ac0d	-2.8855011
105	0xc041b49f	-3.0266492
106	0xc037471e	-2.8637156
107	0xc036e1f1	-2.8575404
108	0xc03e4385	-2.972871
109	0xc0447524	-3.0696497
110	0xc04492ce	-3.0714602
111	0xc041a9ba	-3.0259843
112	0xc04407c2	-3.0629735
113	0xc0395ffa	-2.896483
114	0xc03a79f9	-2.9136946
115	0xc0385910	-2.880436
116	0xc03d02c4	-2.9532938
117	0xc0486c7d	-3.1316216
118	0xc044abe5	-3.0729916
119	0xc03ab5a9	-2.9173377
120	0xc0389434	-2.8840456
121	0xc0493ef3	-3.144467
122	0xc03b0081	-2.9219058
123	0xc03b3bf0	-2.9255333
124	0xc0401d3f	-3.001785
125	0xc03b7648	-2.9290943
126	0xc03fc92a	-2.996653
127	0xc0369061	-2.8525622
128	0xc03eddd9	-2.9822905
129	0xc0429765	-3.0404904
130	0xc03ebcdb	-2.9802768
131	0xc0441618	-3.0638485
132	0xc048a479	-3.1350386
133	0xc03d85c1	-2.9612887
134	0xc0415e9c	-3.0213995
135	0xc0387196	-2.8819327
136	0xc039819e	-2.8985362
137	0xc03dd11b	-2.9658878
138	0xc03a39f9	-2.9097884
139	0xc04a3b90	-3.1598854
140	0xc044a3ef	-3.0725057
141	0xc04eb2b6	-3.2296576
142	0xc0332526	-2.7991424
143	0xc043dd57	-3.0603845
144	0xc0451539	-3.0794203
145	0xc0322fd9	-2.7841704
146	0xc0464197	-3.0977533
147	0xc03f7a01	-2.9918215
148	0xc030172a	-2.7514138
149	0xc039edad	-2.9051316
150	0xc05288d0	-3.2896004
151	0xc03c5c91	-2.9431498
152	0xc0373c65	-2.8630612
153	0xc03b6ef1	-2.9286463
154	0xc046d5ae	-3.106792
155	0xc03ad7b0	-2.9194145
156	0xc0377ec0	-2.8671112
157	0xc041576f	-3.0209615
158	0xc048eae4	-3.1393366
159	0xc046ede4	-3.1082697
160	0xc0459f0c	-3.0878325
161	0xc03d913b	-2.9619892
162	0xc048ef42	-3.1396031
163	0xc03f6141	-2.990311
164	0xc0380e15	-2.8758595
165	0xc03827a1	-2.8774188
166	0xc03ccdd0	-2.9500618
167	0xc0493110	-3.1436195
168	0xc03cac82	-2.948029
169	0xc036b90a	-2.855044
170	0xc0412ed7	-3.0184839
171	0xc0462da8	-3.0965366
172	0xc03ca9db	-2.9478672
173	0xc03f4060	-2.9883041
174	0xc03d2310	-2.955265
175	0xc0438ecc	-3.0555906
176	0xc03f69df	-2.9908369
177	0xc04968f5	-3.147031
178	0xc03e00f7	-2.968809
179	0xc03d7243	-2.960099
180	0xc03cfe8f	-2.953037
181	0xc0457a3b	-3.0855854
182	0xc02fec55	-2.7487996
183	0xc04199fe	-3.025024
184	0xc040b09a	-3.010779
185	0xc03ab5ae	-2.9173388
186	0xc038ba69	-2.8863776
187	0xc0429b4f	-3.0407293
188	0xc0341ee9	-2.8143866
189	0xc04429d8	-3.065054
190	0xc03de5c7	-2.9671495
191	0xc04d1261	-3.2042468
192	0xc04bfd61	-3.18734
193	0xc041e5a0	-3.0296402
194	0xc041fb49	-3.0309622
195	0xc0439292	-3.055821
196	0xc040bfd4	-3.0117083
197	0xc03f7b1a	-2.9918885
198	0xc042c3e9	-3.0432074
199	0xc0408c3e	-3.0085597
200	0xc036da9f	-2.8570936
201	0xc0453e6a	-3.0819345
202	0xc0448656	-3.0706992
203	0xc0371004	-2.8603525
204	0xc041e934	-3.0298586
205	0xc03a0632	-2.9066281
206	0xc04f9094	-3.2431993
207	0xc0480efc	-3.1259146
208	0xc04f3459	-3.23757
209	0xc03bd285	-2.934724
210	0xc0472b13	-3.112004
211	0xc03e6825	-2.9751065
212	0xc04bb646	-3.183
213	0xc03d761f	-2.9603345
214	0xc0380642	-2.875382
215	0xc04d85d8	-3.2112942
216	0xc03f1ee3	-2.9862602
217	0xc035efcd	-2.8427613
218	0xc03b59b4	-2.92735
219	0xc042d085	-3.043977
220	0xc03dcde0	-2.9656906
221	0xc03dd1dd	-2.965934
222	0xc03b4880	-2.9263
223	0xc03d4e9a	-2.9579225
224	0xc03aed12	-2.9207196
225	0xc045533e	-3.0832057
226	0xc03f7c31	-2.991955
227	0xc044c859	-3.0747283
228	0xc0415dcb	-3.0213497
229	0xc0479e90	-3.119053
230	0xc0438aea	-3.0553536
231	0xc040c5f6	-3.0120826
232	0xc03ff1f6	-2.9991431
233	0xc03e5d95	-2.9744618
234	0xc03f7abb	-2.9918659
235	0xc041e0f3	-3.0293548
236	0xc03bfe87	-2.93741
237	0xc04378fb	-3.054259
238	0xc047d193	-3.1221664
239	0xc04d5e28	-3.2088718
240	0xc03f343d	-2.9875634
241	0xc045c88c	-3.0903654
242	0xc047b536	-3.1204352
243	0xc035a2d1	-2.8380625
244	0xc03eaceb	-2.979304
245	0xc041eeb0	-3.0301933
246	0xc03970c6	-2.8975081
247	0xc0452cac	-3.0808516
248	0xc048ae6b	-3.1356456
249	0xc046f3f8	-3.1086407
250	0xc03c07bd	-2.9379723
251	0xc04578b2	-3.0854917
252	0xc04e0951	-3.2193186
253	0xc033ac62	-2.8073964
254	0xc0496c79	-3.1472456
255	0xc0498639	-3.1488173

l1.bias.mu f4 [120]
0	0x3d75b834	0.059990123
1	0x3c41cae5	0.011828159
2	0x3dae560e	0.085125074
3	0xbde00c50	-0.109398484
4	0x3db4e057	0.08831852
5	0xbd069e6a	-0.03286592
6	0x3d62d13f	0.055375334
7	0xbc75b6ab	-0.014997165
8	0x3d864b5b	0.06557342
9	0xbe36e70d	-0.17861576
10	0xbd2e8b36	-0.04261323
11	0x3dd9b80e	0.10630809
12	0xbe7d424b	-0.2473232
13	0x3d2d8208	0.042360336
14	0x3dde97aa	0.108687714
15	0xbe003a44	-0.12522227
16	0xbd5f7dc5	-0.054563303
17	0x3e1fee9c	0.15618366
18	0x3d09bbb6	0.03362628
19	0x3be4108c	0.0069599804
20	0xbcd3b776	-0.025844317
21	0x3d2e814e	0.042603783
22	0xbddb9092	-0.10720934
23	0x3d1c0d07	0.03809836
24	0xbd875b1d	-0.06609175
25	0xbdaa014c	-0.083010286
26	0x3dde864c	0.10865459
27	0x3cc7bb1f	0.024381218
28	0x3de23750	0.11045706
29	0xbe1c7a7f	-0.15281104
30	0xbd346c7e	-0.04404878
31	0xbe13fad8	-0.14451158
32	0xbe47dca8	-0.19517767
33	0x3cb9bb7d	0.02267241
34	0xbe057c5e	-0.13035724
35	0x3de5f888	0.11229044
36	0x3dc6684a	0.0968786
37	0xbd6120b5	-0.054962832
38	0xbe143f3b	-0.14477246
39	0xbda4b9b9	-0.08043236
40	0x3cbbaf29	0.022910671
41	0x3dce34dc	0.10068676
42	0x3cc39d4a	0.023878712
43	0x3e16d619	0.1473011
44	0xbd5268e9	-0.05136958
45	0xbc29889e	-0.0103475135
46	0xbe0a32df	-0.13495968
47	0xbe1325ad	-0.14369841
48	0xbe796c0c	-0.24357623
49	0x3db857c8	0.09001118
50	0xbd4c96c3	-0.049948465
51	0x3df1ee85	0.11813072
52	0x3d160e16	0.036634527
53	0xbe461f0e	-0.19347784
54	0x3ab7d2af	0.0014024581
55	0x3e426875	0.1898516
56	0xbd896907	-0.067094855
57	0xbd98346b	-0.07431873
58	0xbdb5cce1	-0.08876968
59	0x3e7eee88	0.2489568
60	0x3d73089d	0.059334386
61	0xbdb5c578	-0.08875555
62	0xbc3014f0	-0.010747179
63	0x3d44272a	0.047888912
64	0xbe2be9eb	-0.16788451
65	0x3d92ac91	0.07161821
66	0x3d0cb576	0.034352742
67	0x3dc42a9b	0.09578439
68	0x3dbc1948	0.091845095
69	0x3e5cb436	0.2155312
70	0x3e094e09	0.13408674
71	0xbc066624	-0.008203063
72	0x3d9d6212	0.07684721
73	0x3cbb0447	0.022829188
74	0xbd519c4a	-0.05117444
75	0x3dc0f7fc	0.09422299
76	0x3ce566c4	0.028003104
77	0x3ca8d12d	0.020607555
78	0x3e198f40	0.14996052
79	0x3dc0506a	0.09390338
80	0x3d8284ec	0.06373009
81	0xbc26e946	-0.010187453
82	0xbc699a84	-0.014258031
83	0x3d475cc5	0.048672456
84	0xbd97df42	-0.0741563
85	0x3d253a04	0.04033853
86	0xbe03ffb9	-0.12890519
87	0xbdec8936	-0.115496084
88	0xbe161305	-0.14655693
89	0xbd8e7c93	-0.069573544
90	0x3cb8a841	0.022541167
91	0xbd67fa04	-0.056634918
92	0xb8e9d2fa	-0.00011149603
93	0x3bf3d12d	0.007440707
94	0x3e098f86	0.13433656
95	0xbd8921c8	-0.066958964
96	0xbe37c079	-0.17944516
97	0x3e80bff5	0.25146452
98	0x3dd15c8e	0.102227315
99	0xbd45b59c	-0.0482689
100	0x3e118cc5	0.14213856
101	0xbc1babc2	-0.0095013995
102	0xbe36155a	-0.17781582
103	0xbb833fd7	-0.004005413
104	0xbe329990	-0.17441392
105	0xbe2ef3ae	-0.17085144
106	0x3d8316a9	0.064008065
107	0x3cef88fc	0.029240124
108	0x3dac5661	0.08414913
109	0xbb9cc3fe	-0.0047841063
110	0x3c9f8430	0.019472212
111	0xbe49f346	-0.19721708
112	0x3ceb33d0	0.02871123
113	0x3cceb867	0.025234414
114	0xbccb073f	-0.024783729
115	0xbc504364	-0.01271138
116	0x3e0ea6ac	0.13930768
117	0xbe0691c7	-0.13141547
118	0x3e04c831	0.12966992
119	0xbd03b8d8	-0.032158703

l1.bias.rho f4 [120]
0	0xc043363d	-3.0501854
1	0xc0446b07	-3.0690324
2	0xc0445a46	-3.0680099
3	0xc03ffeff	-2.9999387
4	0xc042b8da	-3.0425324
5	0xc0481991	-3.1265604
6	0xc0445369	-3.067591
7	0xc036c691	-2.8558695
8	0xc03b9ebf	-2.931564
9	0xc0430b26	-3.0475554
10	0xc0436ba9	-3.053446
11	0xc03ca244	-2.947404
12	0xc0427d0b	-3.038882
13	0xc03d75a6	-2.9603057
14	0xc047e3de	-3.123283
15	0xc041e9f1	-3.0299037
16	0xc03c5959	-2.9429533
17	0xc043bc6c	-3.0583754
18	0xc032daa1	-2.794594
19	0xc0434b0a	-3.051455
20	0xc03c5a92	-2.943028
21	0xc03f8767	-2.9926393
22	0xc03af6c5	-2.9213116
23	0xc0341873	-2.8139923
24	0xc042328d	-3.0343354
25	0xc044a53a	-3.0725846
26	0xc03d34a1	-2.9563372
27	0xc03dea46	-2.967424
28	0xc0468542	-3.1018834
29	0xc040d91a	-3.0132508
30	0xc0365b43	-2.8493202
31	0xc03a8807	-2.9145525
32	0xc0395e9a	-2.896399
33	0xc03a0fb2	-2.907208
34	0xc04394de	-3.0559611
35	0xc0414a72	-3.0201688
36	0xc048acf9	-3.1355574
37	0xc03a5e0a	-2.9119897
38	0xc046caf3	-3.106137
39	0xc03f802b	-2.9921978
40	0xc0440513	-3.0628097
41	0xc03b0884	-2.9223948
42	0xc0363dab	-2.847514
43	0xc0387931	-2.882397
44	0xc03fbdd9	-2.9959624
45	0xc03c12bc	-2.9386435
46	0xc040cb7c	-3.0124197
47	0xc040ff44	-3.0155802
48	0xc03bcd10	-2.934391
49	0xc03b81df	-2.9298017
50	0xc033c28b	-2.808749
51	0xc03f1800	-2.9858398
52	0xc03b5b5d	-2.9274514
53	0xc035bf8a	-2.8398156
54	0xc0350ccb	-2.8289058
55	0xc03fe94f	-2.998615
56	0xc03c977e	-2.9467463
57	0xc049dfc0	-3.1542816
58	0xc0444c79	-3.0671675
59	0xc04b13ff	-3.1730955
60	0xc044dcb2	-3.0759702
61	0xc040bda3	-3.0115745
62	0xc03f0a45	-2.9850018
63	0xc0391359	-2.891806
64	0xc03d8e0c	-2.9617949
65	0xc049e2ae	-3.1544604
66	0xc0407438	-3.0070934
67	0xc039e97e	-2.9048762
68	0xc04872ca	-3.1320062
69	0xc0454256	-3.0821738
70	0xc041c851	-3.0278513
71	0xc03136bd	-2.768966
72	0xc046c430	-3.1057243
73	0xc032f82b	-2.796397
74	0xc03faa36	-2.9947639
75	0xc039a42d	-2.9006455
76	0xc0405481	-3.0051577
77	0xc03cf914	-2.9527025
78	0xc04a08d7	-3.1567895
79	0xc0418267	-3.0235841
80	0xc039e26a	-2.9044442
81	0xc041c6fd	-3.0277703
82	0xc03d7fd1	-2.9609263
83	0xc03eed5e	-2.9832377
84	0xc0385914	-2.880437
85	0xc0464120	-3.097725
86	0xc040d849	-3.013201
87	0xc038213b	-2.8770282
88	0xc03fae2e	-2.995006
89	0xc0426c5a	-3.0378633
90	0xc03c7cfc	-2.9451284
91	0xc039add5	-2.9012349
92	0xc0412bdb	-3.0183017
93	0xc0442894	-3.0649767
94	0xc03eedc3	-2.9832618
95	0xc039fd68	-2.9060917
96	0xc037b92c	-2.870677
97	0xc03dbbd3	-2.9645889
98	0xc03defa0	-2.9677505
99	0xc03b0058	-2.921896
100	0xc03e89a5	-2.9771512
101	0xc039ece4	-2.9050837
102	0xc03e0c3a	-2.9694963
103	0xc03c965a	-2.9466767
104	0xc04025b0	-3.0023003
105	0xc0434a2c	-3.051402
106	0xc04b68e4	-3.178277
107	0xc04a57c3	-3.1616066
108	0xc03afcb3	-2.9216735
109	0xc03fa9e3	-2.994744
110	0xc0475b71	-3.1149561
111	0xc03986cc	-2.8988523
112	0xc04791d1	-3.118275
113	0xc03b1587	-2.923189
114	0xc043b3ac	-3.0578413
115	0xc03a3cce	-2.9099612
116	0xc03e68a7	-2.9751375
117	0xc04392ba	-3.0558305
118	0xc03c2215	-2.9395802
119	0xc03c760c	-2.944705

classifier.0.weight_mu f4 [2, 120]
0	0xbb8ebf4c	-0.0043563005
1	0xbd862e1b	-0.06551763
2	0x3b815d1f	0.0039478685
3	0xbaf917e7	-0.0019004316
4	0x3ccca87b	0.024982681
5	0x3e0dfbac	0.13865536
6	0xbd8d4937	-0.0689873
7	0xbd4b23e1	-0.049594764
8	0x3c396d77	0.011317602
9	0x3dd2cbb3	0.10292759
10	0x3db1184a	0.08647211
11	0xbbdc7872	-0.0067282254
12	0x3e0f2264	0.13977963
13	0xbd88b383	-0.06674864
14	0x3e026a46	0.12735853
15	0x3c9704e7	0.018434955
16	0xbe253207	-0.16132365
17	0xbe1220fa	-0.14270392
18	0xbde5c197	-0.11218565
19	0xbc8cffa1	-0.017211737
20	0xbd81c8ec	-0.06337151
21	0xbdf7e4c0	-0.121041775
22	0xbd5bda62	-0.053675063
23	0xbe60067a	-0.2187747
24	0xbcef8bf8	-0.029241547
25	0xbc82296e	-0.015888896
26	0x3b70dbd2	0.0036752117
27	0x3d7e366d	0.062063623
28	0x3bc7176e	0.006075791
29	0xbb5529bd	-0.0032526099
30	0x3d1f6e61	0.038923625
31	0xbd121b83	-0.03567077
32	0xbe093e3b	-0.13402645
33	0x3d31b66f	0.043386873
34	0xbdf6dba7	-0.12053614
35	0x3da25db7	0.07928031
36	0x3d9949c6	0.07484774
37	0xbd315266	-0.043291472
38	0x3c2c0269	0.0104986215
39	0xbdbd9004	-0.092559844
40	0xbda345ab	-0.079722725
41	0xbd901f95	-0.07037274
42	0x3d8d2778	0.06892294
43	0xbd15cad9	-0.036570404
44	0xbcb8eda1	-0.022574248
45	0xbd8e52eb	-0.06949409
46	0xbdc4428a	-0.09583004
47	0xbd956930	-0.072954535
48	0x3d32a17d	0.04361104
49	0x3bd67c42	0.0065455744
50	0xba94aa14	-0.0011342191
51	0xbc1d2293	-0.009590763
52	0x3e082277	0.13294397
53	0xbe089ac7	-0.13340293
54	0x3d2b5d6f	0.041837152
55	0x3cd2d85b	0.025737932
56	0x3d45d887	0.0483022
57	0xbe1e479b	-0.15457003
58	0x3d338200	0.04382515
59	0xbdb69f79	-0.08917136
60	0x3b8b8d21	0.0042587672
61	0x3d9aea25	0.07564191
62	0x3d1eda4c	0.038782403
63	0xbe0f9617	-0.14022098
64	0x3cc9c78d	0.024631286
65	0xbd7d9aa0	-0.06191504
66	0xbd2ac863	-0.04169501
67	0x3bfc9cf8	0.007709142
68	0x3e0bf068	0.13665926
69	0x3d9a3a1d	0.075306155
70	0xbe3ec780	-0.1863079
71	0x3d3f8fb1	0.046767894
72	0xbd31825e	-0.04333722
73	0x3dabfaed	0.0839747
74	0x3e12ee93	0.14348821
75	0x3d8de648	0.06928688
76	0x3cc66ed3	0.024222767
77	0x3caf3260	0.021386325
78	0xbe2dae17	-0.16960941
79	0xbe0762b7	-0.1322125
80	0x3e06c8ed	0.13162585
81	0xbe18c332	-0.14918211
82	0xbc4af440	-0.012387335
83	0x3d6680d8	0.05627522
84	0xbde63448	-0.112404406
85	0xbe1cca3d	-0.15311523
86	0xb8e47252	-0.00010893181
87	0xbe1ee173	-0.1551569
88	0xbd6da437	-0.058017936
89	0xbd5d1eaa	-0.05398432
90	0xbdbd54a3	-0.09244659
91	0xbec3e05f	-0.3825712
92	0xbd38cf2d	-0.045119453
93	0x3abe03e0	0.0014497004
94	0xbd2944df	-0.041325446
95	0x3e53bbdf	0.20677136
96	0x3dca9a67	0.09892731
97	0xbde15fb0	-0.11004579
98	0x3dd57152	0.10422005
99	0xbe0e1a91	-0.13877322
100	0x39d43cdd	0.00040481138
101	0xbdf24473	-0.11829462
102	0xbd3d4947	-0.04621246
103	0xbd3b820c	-0.04577832
104	0xbc6f17d8	-0.014593087
105	0x3d34ccf7	0.044140782
106	0xbdeb259f	-0.11481785
107	0xbdf3af57	-0.11898678
108	0x3da81659	0.082073875
109	0x3dd6e2ff	0.10492515
110	0x3bf5920a	0.007494216
111	0x3c152f6c	0.009105545
112	0xbd866eea	-0.06564124
113	0xbcf797b5	-0.030223707
114	0x3d609237	0.05482694
115	0x3c6d8d7a	0.014499063
116	0x3dab4105	0.08362011
117	0xbbf6d5e8	-0.007532824
118	0xbca21a47	-0.01978792
119	0x3c8b423f	0.016999362
120	0x3d973532	0.07383193
121	0x3d0e354d	0.0347188
122	0x3e1829a3	0.14859633
123	0x3e469cee	0.19395801
124	0x3da2009f	0.07910275
125	0xbdcf8c4b	-0.10134181
126	0x3b6c8a7a	0.003609328
127	0x3e071385	0.1319104
128	0xbb072d44	-0.0020626346
129	0xbd8c91f2	-0.06863774
130	0x3c3d7685	0.011563902
131	0x3d4bdce3	0.0497712
132	0xbd5a00f0	-0.05322355
133	0x3c3a6d77	0.0113786375
134	0x3cfeb2a3	0.03109104
135	0x3dc74ad1	0.09731067
136	0x3e5b53d0	0.2141869
137	0xbc9f4457	-0.019441767
138	0x3daf59cd	0.0856205
139	0xbd20847b	-0.039188843
140	0xbd8ea812	-0.069656506
141	0xbdadaadc	-0.084798545
142	0x3e1d87db	0.15383856
143	0x3d1da48f	0.038487013
144	0x3c2fd5ca	0.010732124
145	0x3d7dd77f	0.06197309
146	0x3dc7fb0f	0.097646825
147	0x3d749488	0.059711963
148	0x3da63d2b	0.081171356
149	0x39821fbd	0.0002481918
150	0xbe45ab58	-0.19303644
151	0x3db52eb7	0.08846801
152	0xbd6478cb	-0.05577926
153	0x3c17d69d	0.009267476
154	0x3d13fec7	0.036131646
155	0x3de3fe95	0.11132542
156	0xbdf0f600	-0.11765671
157	0xbda25f13	-0.0792829
158	0xbcd36043	-0.025802737
159	0x3d998b9b	0.07497331
160	0x3d192b42	0.03739477
161	0xbca22767	-0.01979418
162	0x3e4cf0ff	0.20013808
163	0xbca97e16	-0.020690005
164	0x3cf09ba0	0.029371083
165	0xbd4122e2	-0.047152407
166	0x3d238b95	0.039928038
167	0x3e30c166	0.17261276
168	0xbd99889f	-0.074967615
169	0x3dc1146a	0.09427722
170	0x3d953126	0.07284765
171	0xbd63078f	-0.05542713
172	0x3d800edf	0.062528364
173	0xbe87b88c	-0.26507986
174	0xbd5710fd	-0.052506436
175	0x3dc339c3	0.095325015
176	0xbd999581	-0.07499219
177	0xbccebff5	-0.025238017
178	0x3e293cef	0.1652715
179	0x3d9f013c	0.07763907
180	0x3cf326bf	0.029681562
181	0xbe01ca03	-0.12674718
182	0xbe1d78cd	-0.15378113
183	0xbd008908	-0.031380683
184	0x3d5a1a50	0.05324775
185	0xbcd7330a	-0.026269455
186	0x3e817b38	0.2528932
187	0x3c460832	0.012086915
188	0x3d68016d	0.056641985
189	0x3e213dcb	0.15746228
190	0xbe09d3ee	-0.13459751
191	0xbc7333bb	-0.0148438765
192	0xbdc4f628	-0.09617263
193	0x3e6801cb	0.22656934
194	0xbda353ca	-0.07974966
195	0xbd2a693f	-0.041604277
196	0x3d0401a5	0.03222813
197	0xbbafca27	-0.0053646746
198	0xbdbe075f	-0.0927875
199	0x3c28a41b	0.010293032
200	0xbc4bf198	-0.012447737
201	0xbdd21f17	-0.10259836
202	0xbcf3acbf	-0.029745458
203	0x3af96253	0.0019026495
204	0xbe31a948	-0.17349732
205	0x3c64bc30	0.013960883
206	0xbdb43e11	-0.08800901
207	0x3c640b10	0.013918653
208	0x3e2e4c1c	0.17021221
209	0xbe92a0d2	-0.2863832
210	0xbcc96a15	-0.024586717
211	0x3d8f6aeb	0.07002815
212	0x3d69c9d7	0.057077255
213	0x3d787e5f	0.060667392
214	0x3d04f6c4	0.032461897
215	0xbdc4281f	-0.09577965
216	0x3b5df97d	0.003387063
217	0x3b2423f1	0.0025045837
218	0x3e1a5231	0.15070416
219	0x3db16ff4	0.086639315
220	0x3e0633cf	0.13105701
221	0xbd9c2632	-0.07624473
222	0x3b308243	0.002693311
223	0x3e593a68	0.21213686
224	0xbd05cfae	-0.032668762
225	0x3d8c9ef6	0.06866257
226	0xbda8f36e	-0.082495555
227	0xbe608695	-0.21926339
228	0x3dcaa137	0.098940305
229	0x3d64daf5	0.055872876
230	0x3d03277b	0.032020073
231	0xbdf2f372	-0.1186284
232	0x3da3c32e	0.07996212
233	0xbcf44618	-0.02981858
234	0xbdaa2066	-0.08306961
235	0x3d050e21	0.032484178
236	0xbe303593	-0.17207937
237	0x3caf9d5b	0.021437338
238	0x3dacc9f7	0.08436959
239	0x3c0f78ad	0.008756799
