checkpoints/16_tasks_UCB/model_1.pth.tar (torch_old, 418685 bytes, 136 tensors)

l1.weight_mu f4 [800, 29]
0	0xbe4a2622	-0.19741109
1	0xbdc9f803	-0.098617576
2	0x3d7b81e7	0.06140318
3	0xbe2e6514	-0.17030746
4	0xbe51719e	-0.20453498
5	0x3dbd3cb7	0.09240096
6	0x3e0eb1c6	0.13935003
7	0xbd8f08df	-0.06984114
8	0xbdac512a	-0.08413918
9	0x3d2ae31a	0.041720487
10	0x3e158269	0.14600529
11	0x3e336fc4	0.17523104
12	0xbd2f5c63	-0.042812716
13	0x3d55d1f0	0.052202165
14	0xbe21b72d	-0.15792532
15	0xbdc2eee2	-0.095182195
16	0xbe077b53	-0.13230638
17	0x3d8e487d	0.0694742
18	0x3dded4da	0.10880442
19	0x3de53ff6	0.1119384
20	0x3d1d3cee	0.038388185
21	0xbcbe934c	-0.023263596
22	0x3e000bf4	0.1250456
23	0x3d6f8d6d	0.058484484
24	0xbda60c65	-0.08107833
25	0xbe4a1f67	-0.19738542
26	0xbc3f76f7	-0.011686078
27	0x3d29b8aa	0.041435875
28	0xbde0666b	-0.10957035
29	0xbdecf6fb	-0.11570545
30	0x3d87e27c	0.06634995
31	0x3db94371	0.090460666
32	0xbd0b4227	-0.033998635
33	0xbd61a47d	-0.05508851
34	0xbe171533	-0.1475418
35	0xbd9cd465	-0.076576985
36	0x3d84866c	0.064709514
37	0x3d033e85	0.032042045
38	0xbbe149f9	-0.0068752733
39	0xbdbad5af	-0.09122788
40	0xbdbbfebc	-0.09179446
41	0xbdc8f999	-0.09813232
42	0xbd0ad798	-0.033897012
43	0xbd1c6b97	-0.038188543
44	0x3dd3ebb6	0.10347693
45	0x3e82aadb	0.25520977
46	0x3e11dd72	0.14244631
47	0xbdecf773	-0.11570635
48	0x3b8563c7	0.0040707323
49	0x3da82f48	0.08212143
50	0xbd01c27b	-0.03167961
51	0x3db4142c	0.0879291
52	0x3ddbab5d	0.10726044
53	0xbd6d2ab9	-0.05790207
54	0xbe37c928	-0.17947829
55	0xbcfc55db	-0.030802658
56	0xbbe5468e	-0.006996936
57	0x3e5f1958	0.21787012
58	0xbcf80572	-0.030276034
59	0xbe1a837f	-0.15089224
60	0x3d0eefb8	0.034896582
61	0xbd1130e2	-0.03544701
62	0x3d81a742	0.0633073
63	0x3d7d4b01	0.061839107
64	0xbdff0850	-0.12452757
65	0x3ceed04f	0.029152064
66	0xbd9a102d	-0.075226165
67	0xbde8420a	-0.11340721
68	0x3aa83848	0.0012834156
69	0xbdbbedc0	-0.091762066
70	0xbdd9d31a	-0.106359676
71	0x3df516fd	0.11967275
72	0x3e133936	0.14377293
73	0x3cf39d26	0.02973802
74	0xbd12ba59	-0.035822246
75	0x3ce31d0b	0.02772381
76	0x3e0b5fa4	0.13610703
77	0xbe55b8fc	-0.20871347
78	0x3d074f44	0.033034578
79	0x3e1eb664	0.15499264
80	0xbccf9444	-0.025339253
81	0x3e160e0c	0.14653796
82	0x3d81b18b	0.06332692
83	0x3cda55aa	0.026652176
84	0x3daef85d	0.08543465
85	0xbdc9e8d0	-0.098588586
86	0xbe16bec1	-0.14721204
87	0x3d180208	0.037111312
88	0x3ca18340	0.019715905
89	0x3c98fba4	0.01867468
90	0xba443fa7	-0.00074862916
91	0xbe2b7676	-0.16744408
92	0x3dac0cad	0.08400855
93	0xbd3efe76	-0.04662939
94	0xbd72d727	-0.059287217
95	0xbdb9d301	-0.09073449
96	0x3dff54e0	0.124673605
97	0xbd9ecbf7	-0.07753747
98	0x3d24d785	0.040244598
99	0xbd9c910f	-0.07644855
100	0x3d45d64d	0.048300076
101	0x3ba33f1b	0.004981888
102	0x3d53a1a9	0.051667843
103	0xbbf28e4f	-0.0074022184
104	0xbe52c5c3	-0.20583253
105	0x3d3f4c9a	0.046703912
106	0xbdaeb80c	-0.08531198
107	0xbdb74adb	-0.089498244
108	0xbd009ca0	-0.03139937
109	0x3d5927b2	0.053016372
110	0xbe1ee4f9	-0.15517034
111	0x3db1f858	0.08689946
112	0x3e9bf3d9	0.30459478
113	0x3e498eb7	0.19683348
114	0xbe265b31	-0.16245724
115	0x3ddcb250	0.10776198
116	0x3e0d165f	0.13778065
117	0xbe57ce9e	-0.21074912
118	0x3e11d1da	0.14240208
119	0x3dd60695	0.10450474
120	0x3d3ee89d	0.046608556
121	0x3dc42fe6	0.095794484
122	0xbe884229	-0.26612976
123	0xbd9fda03	-0.07805254
124	0xbd051a6e	-0.03249591
125	0xbd13957a	-0.036031224
126	0xbcb514a5	-0.02210457
127	0xbd958652	-0.0730101
128	0x3d4734d8	0.04863438
129	0x3d720b83	0.05909301
130	0xbdc2cf86	-0.09512238
131	0xbd9f328a	-0.077733114
132	0x3d95e245	0.07318548
133	0x3dfc758e	0.12327109
134	0x3caf5a5b	0.02140539
135	0x3d99cf2c	0.07510218
136	0xbcecab88	-0.028890386
137	0x3cb0d365	0.021585176
138	0x3d1ba106	0.03799536
139	0x3dc828c2	0.09773399
140	0xbdb06967	-0.08613854
141	0x3d80957e	0.06278513
142	0xbbef3c15	-0.0073008635
143	0xbca11125	-0.019661495
144	0xbe437022	-0.19085744
145	0x3c851271	0.016244145
146	0x3c09aa8e	0.00840248
147	0xbdd83e1f	-0.10558724
148	0xbe38a4e8	-0.18031657
149	0xbda4b7f5	-0.080428995
150	0x3e03668a	0.12832084
151	0x3e251b30	0.16123652
152	0xbe87ad98	-0.2649963
153	0x3b84ca34	0.004052425
154	0xbc92529f	-0.017861662
155	0xbd54f2d3	-0.051989388
156	0xbe03434d	-0.12818642
157	0xbe072785	-0.13198669
158	0xbd9eb1ac	-0.07748732
159	0x3dca9eaa	0.09893544
160	0x3de63deb	0.11242279
161	0x3d5d5efc	0.054045662
162	0xbd1efa23	-0.038812768
163	0x3e458fce	0.19293138
164	0x3c2518b3	0.0100766895
165	0x3bb37038	0.005476024
166	0x3dd65f8c	0.10467443
167	0x3de17372	0.110083476
168	0x3d30acbd	0.043133486
169	0xbd957927	-0.072984986
170	0x3c4d40a2	0.012527617
171	0xbdbd0ce6	-0.09230976
172	0xbd0c1641	-0.03420091
173	0x3df407f9	0.11915583
174	0xbc163ac3	-0.009169283
175	0x3d0d0ec8	0.034437925
176	0x3d39ca35	0.045358855
177	0xbc053b5f	-0.008131831
178	0xbdcd5c8d	-0.10027418
179	0x3e248ab9	0.16068543
180	0x3c485dcc	0.012229394
181	0xbe365317	-0.17805134
182	0x3e2ccccd	0.16875
183	0xbe1f555a	-0.15559903
184	0x3d531d9d	0.051541913
185	0xbd4d9b97	-0.05019721
186	0x3c3830e1	0.011242122
187	0xbcdb267f	-0.026751755
188	0xbd650571	-0.055913392
189	0x3db88b81	0.09010983
190	0x3c888640	0.016665578
191	0x3d15cdfb	0.03657339
192	0x3d470043	0.048584234
193	0xbe2707c5	-0.16311558
194	0xbdf8f10d	-0.12155352
195	0xbddccc65	-0.10781173
196	0xbdab424f	-0.08362257
197	0xbde3a42a	-0.11115296
198	0x3d86c7af	0.065810554
199	0xbe0a7d24	-0.135243
200	0x3e875780	0.26433945
201	0xbe52115d	-0.20514436
202	0xbd10c9cb	-0.035348695
203	0x3d640e1d	0.055677522
204	0xbdaf2b45	-0.08553175
205	0xbe317418	-0.17329443
206	0xbd3c3fa2	-0.045959122
207	0xbc257660	-0.010099024
208	0x3e15fcfd	0.14647289
209	0xbb9a3522	-0.004706041
210	0xbcbfaf31	-0.023398967
211	0xbdd07115	-0.10177819
212	0xbe0613ca	-0.13093486
213	0x3e4847c7	0.19558631
214	0x3d890b21	0.06691576
215	0xbdb0e3b8	-0.08637184
216	0x3dff7e61	0.12475277
217	0x3ba0ac12	0.004903325
218	0x3db6e70a	0.08930786
219	0x3dfe8a5c	0.12428734
220	0xbe4e7807	-0.20162974
221	0xbd75f213	-0.060045313
222	0x3e18079e	0.14846656
223	0xbcbb34d5	-0.02285234
224	0xbd2771ec	-0.04088013
225	0x3d512906	0.051064514
226	0x3be1a73f	0.0068863924
227	0x3dd4b8f1	0.10386837
228	0xbdf1246d	-0.11774526
229	0x3db0567e	0.08610247
230	0x3e2c63ce	0.16834947
231	0x3de3a472	0.1111535
232	0xbd1774ab	-0.036976498
233	0xbc110701	-0.0088517675
234	0xbbc7106e	-0.0060749566
235	0x3e0185ef	0.12648748
236	0x3c9a6aa5	0.01884968
237	0xbd4e82f6	-0.050417863
238	0xbd83b0d6	-0.06430213
239	0xbd3831e5	-0.044969458
240	0x3c3a7966	0.011381483
241	0xbd0e8294	-0.034792498
242	0x3c08c147	0.008346862
243	0xbe282f7f	-0.16424368
244	0x3e2beddf	0.1678996
245	0x3cf66bbb	0.030080667
246	0xbd968e7e	-0.07351397
247	0xbb2a3535	-0.0025971655
248	0xbcf0016a	-0.02929755
249	0xbe1e7db8	-0.15477645
250	0x3d5599a8	0.05214849
251	0x3cd5d756	0.026103657
252	0xbe055a51	-0.13022734
253	0x3e15cc39	0.14628686
254	0x3d72e4f5	0.05930038
255	0x3e08dec1	0.13366224

l1.weight_rho f4 [800, 29]
0	0xc03ff595	-2.9993641
1	0xc043bb1e	-3.0582957
2	0xc049e74e	-3.1547427
3	0xc03b91e6	-2.93078
4	0xc03df936	-2.9683356
5	0xc04841e4	-3.1290216
6	0xc03f5f1a	-2.9901795
7	0xc0392bdb	-2.8933017
8	0xc042d93c	-3.044509
9	0xc042132d	-3.0324204
10	0xc0408b3c	-3.0084982
11	0xc042b430	-3.0422478
12	0xc04507b9	-3.0785964
13	0xc03e1c3a	-2.9704728
14	0xc03f697b	-2.990813
15	0xc03511be	-2.829208
16	0xc03bfe84	-2.9374094
17	0xc037788e	-2.866733
18	0xc03b7742	-2.929154
19	0xc045e78c	-3.0922575
20	0xc04065b1	-3.0062068
21	0xc04a55d7	-3.1614892
22	0xc0473cb6	-3.1130805
23	0xc036c214	-2.8555956
24	0xc0399c0d	-2.9001496
25	0xc03418e0	-2.8140182
26	0xc03d96e7	-2.9623353
27	0xc0419f29	-3.0253394
28	0xc0491a3d	-3.1422265
29	0xc03bef0d	-2.9364655
30	0xc03ff978	-2.9996014
31	0xc045b971	-3.0894434
32	0xc0335efc	-2.8026724
33	0xc041342b	-3.018809
34	0xc0430178	-3.0469646
35	0xc040afd9	-3.010733
36	0xc03f35c0	-2.9876556
37	0xc0448c10	-3.0710487
38	0xc043afa4	-3.0575953
39	0xc046422c	-3.0977888
40	0xc03cbee9	-2.9491522
41	0xc03dc496	-2.9651237
42	0xc03c174e	-2.9389224
43	0xc03fd86c	-2.9975843
44	0xc04344ba	-3.0510697
45	0xc0517a1a	-3.2730775
46	0xc0373d17	-2.8631036
47	0xc03c3b65	-2.9411252
48	0xc0389b8b	-2.8844936
49	0xc0409ab5	-3.0094426
50	0xc03fb96d	-2.9956925
51	0xc03cc569	-2.949549
52	0xc043505f	-3.0517805
53	0xc03fcba1	-2.9968035
54	0xc0469c2f	-3.1032827
55	0xc03865e7	-2.8812196
56	0xc039fe94	-2.9061632
57	0xc03905d0	-2.8909798
58	0xc0417451	-3.0227244
59	0xc03720ca	-2.8613763
60	0xc042354a	-3.0345025
61	0xc038f191	-2.889744
62	0xc03cdd41	-2.9510043
63	0xc03b6882	-2.9282537
64	0xc0446a9e	-3.0690074
65	0xc0409a71	-3.0094264
66	0xc03dfe0c	-2.9686308
67	0xc044fbde	-3.0778728
68	0xc03f5084	-2.9892893
69	0xc03bde58	-2.9354458
70	0xc04107fb	-3.016112
71	0xc0431da1	-3.0486834
72	0xc03fc452	-2.9963574
73	0xc03c19f4	-2.939084
74	0xc047ec12	-3.1237836
75	0xc0475d41	-3.1150668
76	0xc03a3a94	-2.9098253
77	0xc03fa86a	-2.9946542
78	0xc03daa9c	-2.9635382
79	0xc03d3625	-2.9564297
80	0xc03b0f88	-2.922823
81	0xc04c96f9	-3.1967146
82	0xc0454948	-3.0825977
83	0xc0418f7e	-3.024383
84	0xc047d7bf	-3.122543
85	0xc0461d48	-3.0955372
86	0xc055744f	-3.335224
87	0xc03eeaf7	-2.983091
88	0xc044554d	-3.0677063
89	0xc036a69b	-2.8539188
90	0xc041676d	-3.0219376
91	0xc04519fc	-3.079711
92	0xc044852e	-3.0706286
93	0xc04be715	-3.1859791
94	0xc03dc51f	-2.9651563
95	0xc0424484	-3.0354319
96	0xc03cd8d2	-2.9507337
97	0xc0493d13	-3.1443527
98	0xc0376433	-2.8654907
99	0xc042d985	-3.0445263
100	0xc0400726	-3.0004363
101	0xc043e610	-3.060917
102	0xc0366854	-2.8501177
103	0xc0464852	-3.098164
104	0xc049f87d	-3.1557915
105	0xc04e3e76	-3.2225623
106	0xc04c5ffa	-3.193358
107	0xc047768f	-3.1166112
108	0xc0459a93	-3.0875595
109	0xc03e0873	-2.9692657
110	0xc041d9a7	-3.0289094
111	0xc03d3709	-2.956484
112	0xc0413e22	-3.0194173
113	0xc03f2def	-2.9871786
114	0xc04df543	-3.2180946
115	0xc04e4ae6	-3.2233214
116	0xc045061d	-3.0784981
117	0xc042ed10	-3.0457191
118	0xc04465a7	-3.0687044
119	0xc03e1053	-2.9697464
120	0xc03fa763	-2.9945915
121	0xc03c6585	-2.9436963
122	0xc03bada0	-2.9324722
123	0xc04366a3	-3.0531394
124	0xc045edcc	-3.092639
125	0xc0494053	-3.144551
126	0xc03f96f5	-2.9935887
127	0xc03c844a	-2.9455743
128	0xc047553f	-3.114578
129	0xc04ace4e	-3.1688418
130	0xc03746df	-2.8637006
131	0xc0384797	-2.8793695
132	0xc046521c	-3.0987616
133	0xc03d9ac4	-2.9625711
134	0xc03dba0b	-2.9644802
135	0xc0389323	-2.8839805
136	0xc0428766	-3.039514
137	0xc03f40f9	-2.9883406
138	0xc03d85aa	-2.9612832
139	0xc03a171f	-2.9076612
140	0xc03b2130	-2.9239006
141	0xc03c4a03	-2.9420173
142	0xc042a370	-3.0412254
143	0xc03628fa	-2.846251
144	0xc03d8c11	-2.961674
145	0xc047634a	-3.1154351
146	0xc0439da1	-3.056496
147	0xc0422012	-3.0332074
148	0xc040b57e	-3.0110774
149	0xc0402c77	-3.002714
150	0xc03be8c3	-2.9360816
151	0xc0494413	-3.14478
152	0xc03f1fc7	-2.9863145
153	0xc0443c3e	-3.066177
154	0xc04017db	-3.001456
155	0xc03dd999	-2.966406
156	0xc0423f69	-3.0351202
157	0xc0478f32	-3.118115
158	0xc0462b67	-3.096399
159	0xc038dfbe	-2.8886561
160	0xc032e95d	-2.7954934
161	0xc03156bd	-2.770919
162	0xc03a26b3	-2.908612
163	0xc03f33f5	-2.9875462
164	0xc032c407	-2.7932146
165	0xc03e15f4	-2.97009
166	0xc0463cd1	-3.097462
167	0xc03f14d0	-2.9856453
168	0xc0315b7b	-2.7712085
169	0xc03f8a10	-2.9928017
170	0xc04398aa	-3.0561929
171	0xc04448c5	-3.0669415
172	0xc042c959	-3.0435393
173	0xc04597a8	-3.0873814
174	0xc03bb4f5	-2.9329197
175	0xc041b4fa	-3.026671
176	0xc04567ad	-3.0844529
177	0xc04c6b2c	-3.1940413
178	0xc0549cc6	-3.3220687
179	0xc035f84b	-2.8432796
180	0xc04584fb	-3.0862415
181	0xc03dc53c	-2.9651632
182	0xc03ca82c	-2.9477644
183	0xc0430e64	-3.0477533
184	0xc03b0d99	-2.922705
185	0xc0406697	-3.0062616
186	0xc03f8e03	-2.9930427
187	0xc0485ab5	-3.1305363
188	0xc043c806	-3.0590835
189	0xc03ba957	-2.9322107
190	0xc033ee79	-2.8114302
191	0xc03d55b8	-2.9583569
192	0xc049079a	-3.141089
193	0xc03f6fae	-2.9911914
194	0xc0417fb4	-3.0234194
195	0xc03ed159	-2.9815276
196	0xc03aaa22	-2.916634
197	0xc04e57bd	-3.2241051
198	0xc03beefc	-2.9364614
199	0xc042239a	-3.033423
200	0xc03cc206	-2.9493423
201	0xc03e5c58	-2.9743862
202	0xc0525467	-3.2864015
203	0xc04155cd	-3.0208619
204	0xc04ffb5b	-3.2497165
205	0xc0409b4f	-3.0094793
206	0xc03f821e	-2.9923167
207	0xc0410ed7	-3.0165308
208	0xc042593f	-3.0366971
209	0xc045feea	-3.0936837
210	0xc03fe57a	-2.9983811
211	0xc03d18bf	-2.9546354
212	0xc043b029	-3.057627
213	0xc03a0d99	-2.90708
214	0xc045708b	-3.084994
215	0xc0417002	-3.0224614
216	0xc03f21fc	-2.9864492
217	0xc044669f	-3.0687635
218	0xc0401962	-3.0015492
219	0xc040384e	-3.0034366
220	0xc04459ea	-3.067988
221	0xc044a2a1	-3.072426
222	0xc0332bcf	-2.7995489
223	0xc0494d0b	-3.1453273
224	0xc041e2ed	-3.0294755
225	0xc03b5523	-2.9270713
226	0xc049997f	-3.1499937
227	0xc036d398	-2.8566647
228	0xc036e16d	-2.857509
229	0xc04683bc	-3.1017904
230	0xc0376310	-2.8654213
231	0xc041ea4d	-3.0299256
232	0xc04f0e0d	-3.2352326
233	0xc0408fe4	-3.0087824
234	0xc04b5a44	-3.1773844
235	0xc039f4b0	-2.9055595
236	0xc03f74d6	-2.991506
237	0xc0450d17	-3.078924
238	0xc03c968b	-2.9466884
239	0xc03cddb6	-2.9510322
240	0xc04575b9	-3.0853102
241	0xc03d371e	-2.956489
242	0xc03da6f8	-2.963316
243	0xc040c9b9	-3.0123122
244	0xc0400879	-3.0005171
245	0xc03e9a5a	-2.9781709
246	0xc03a99dd	-2.915641
247	0xc0454df0	-3.082882
248	0xc03bbfaf	-2.9335744
249	0xc03ea872	-2.979031
250	0xc0435b74	-3.0524569
251	0xc0467898	-3.1011105
252	0xc039f609	-2.9056418
253	0xc03e57ef	-2.974117
254	0xc03b4524	-2.926095
255	0xc03e44fb	-2.9729602

l1.bias_mu f4 [800]
0	0xbd074d7e	-0.033032887
1	0x3e32cb2d	0.17460318
2	0xbde0a1d5	-0.10968367
3	0xbe5800dd	-0.2109408
4	0xbd6a173d	-0.057151068
5	0x3c114081	0.008865477
6	0xbd6e9aeb	-0.05825321
7	0x3d6755f2	0.05647845
8	0xbdd33155	-0.10312144
9	0x3dd8a297	0.105778866
10	0xbd9e10d9	-0.07718057
11	0x3dcb44d3	0.099252366
12	0xbd2e2c7b	-0.04252289
13	0x3cb7bc26	0.022428583
14	0xbd2d6765	-0.042334933
15	0xbbd3d8a8	-0.0064650364
16	0x3d7e8276	0.062136136
17	0x3d39bd56	0.04534658
18	0xbd9879cf	-0.07445108
19	0x3e475608	0.19466412
20	0x3e595768	0.21224749
21	0x3db25a33	0.087086104
22	0x3e07c548	0.1325885
23	0x3c95cebc	0.018287055
24	0x3d031328	0.03200069
25	0xbe32f5a6	-0.1747652
26	0xbe5d2919	-0.21597709
27	0xbd2ab234	-0.041673854
28	0xbde32151	-0.11090339
29	0xbe0fcdb5	-0.14043315
30	0xbd5b4d5f	-0.053540584
31	0x3dcae29b	0.09906503
32	0xbc960ade	-0.018315729
33	0xbca021fd	-0.019547457
34	0x3c591d05	0.013251548
35	0x3e3db742	0.18526939
36	0x3de1356b	0.10996517
37	0x3cb8da11	0.02256492
38	0xbd4ba48c	-0.04971747
39	0xbe015347	-0.12629424
40	0xbcb838ec	-0.02248808
41	0xbd5afc35	-0.05346318
42	0xbd77f2c6	-0.06053426
43	0x3db659d8	0.08903855
44	0x3e5aa5db	0.21352331
45	0x3dc6b629	0.09702713
46	0xbe33a6bd	-0.17544074
47	0xbe0c06f3	-0.13674526
48	0x3dadad05	0.084802665
49	0x3dad15c0	0.08451414
50	0x3e52aac7	0.20572959
51	0x3df710db	0.12063762
52	0x3d1b3dec	0.03790085
53	0xbd09f132	-0.033677287
54	0xbd0c5046	-0.034256242
55	0x3d453b87	0.048152473
56	0x3d7a06e7	0.06104174
57	0x3d6adc55	0.05733903
58	0x3da995f6	0.08280556
59	0x3e152aa9	0.14567055
60	0x3db49dc3	0.08819153
61	0xbd2f2a52	-0.04276497
62	0xbe07fbb3	-0.1327961
63	0xbb5e507d	-0.0033922486
64	0x3d487a55	0.04894479
65	0xbe4daef1	-0.20086266
66	0xbe0f1a1e	-0.13974807
67	0x3d95302e	0.0728458
68	0xbd127e0b	-0.035764735
69	0xbd62f0d7	-0.055405464
70	0xbca3cee4	-0.019996114
71	0x3ba90410	0.005157955
72	0x3dffe8bf	0.12495565
73	0xbdab6365	-0.083685674
74	0x3d19b3b8	0.03752491
75	0xbe4dab14	-0.20084792
76	0xbd950803	-0.07276919
77	0x3b3ca307	0.0028783695
78	0xbdc7f117	-0.09762781
79	0xbbab374d	-0.005225098
80	0xbe0bbf74	-0.13647252
81	0xbe0394be	-0.1284971
82	0x3d91088d	0.07081709
83	0xbe5247ec	-0.20535249
84	0x3c92e752	0.017932568
85	0x3db973dc	0.090553015
86	0x3d328ed4	0.043593243
87	0x3d7b3984	0.061334148
88	0xbc3dc375	-0.011582245
89	0x3d7416b8	0.05959198
90	0x3dc2ed72	0.09517945
91	0xbdf10443	-0.11768391
92	0xbd5946e4	-0.053046122
93	0x3a84585d	0.0010097135
94	0xbda00fa9	-0.07815487
95	0x3c6ff03c	0.014644679
96	0x3e04bf5e	0.12963626
97	0xbd96c26e	-0.07361303
98	0x3d9ac0ca	0.07556303
99	0xbd737937	-0.05944177
100	0x3de08e99	0.10964698
101	0x3d3e85e2	0.0465144
102	0xbd442ac8	-0.047892362
103	0xbd09e012	-0.033660956
104	0x3d37cf22	0.04487527
105	0x3da705db	0.08155414
106	0xbe2b7bfc	-0.16746515
107	0xbd224f99	-0.03962669
108	0xbd0b7051	-0.03404266
109	0xbd776e16	-0.06040772
110	0x3d57668c	0.05258803
111	0x3dba8b65	0.09108619
112	0xbdf7b15f	-0.12094378
113	0xbdb2f58f	-0.08738243
114	0x3e1efa75	0.1552523
115	0x3dd8f80e	0.10594188
116	0x3de297b7	0.110640936
117	0x3d0f026c	0.03491442
118	0xbde4ecd6	-0.11177985
119	0x3a73646b	0.0009284678
120	0xbcc976b3	-0.024592733
121	0xbd62f1ca	-0.05540637
122	0x3d6cd667	0.057821658
123	0x3c0fc68d	0.008775366
124	0x3e7191e7	0.23590814
125	0xbaa37eaa	-0.0012473662
126	0x3e8df37c	0.27724826
127	0x3d7cb87a	0.061699368
128	0xbdb2d035	-0.087311186
129	0xbe13e1fa	-0.14441672
130	0xbcaefcd8	-0.0213608
131	0xbd781d2c	-0.060574695
132	0x3c29bcb3	0.010359931
133	0x3deeefec	0.11666855
134	0x3b443554	0.0029939013
135	0xbd92ec78	-0.07174009
136	0xbe20a4e5	-0.15687902
137	0x3aa65105	0.0012688941
138	0xbdafd194	-0.08584896
139	0xbe874aea	-0.26424342
140	0x3bafa9d4	0.0053608213
141	0xbd9dabe1	-0.07698799
142	0xbd228a7d	-0.039682854
143	0xbd475de0	-0.04867351
144	0xbb971797	-0.0046109664
145	0xbbef812b	-0.007309099
146	0x3d15e757	0.036597576
147	0xbd31ca38	-0.04340574
148	0xbbad9483	-0.005297245
149	0x3ccb21eb	0.024796447
150	0x3ca6de26	0.0203696
151	0xbd7dfd22	-0.062008984
152	0x3d99958c	0.07499227
153	0xbe7dcf36	-0.24786076
154	0x3e397ea3	0.18114714
155	0x3d7f3814	0.06230934
156	0x3dcde86f	0.10054099
157	0x3d447a73	0.04796834
158	0x3d9ce3d5	0.07660643
159	0xbe005af9	-0.12534703
160	0xbda8946b	-0.082314335
161	0xbc3f91b6	-0.011692455
162	0x3cfde507	0.030992998
163	0x3d4c73cf	0.04991513
164	0xbd7f31c4	-0.06230332
165	0xbe608d2a	-0.2192885
166	0x3db4d81c	0.08830282
167	0x3d487822	0.048942693
168	0x3cee3c09	0.029081361
169	0xbe4e090f	-0.20120643
170	0xbd8b9fb8	-0.06817573
171	0xbc5f8de9	-0.013644674
172	0xbad18627	-0.0015985415
173	0x3ddd8069	0.10815508
174	0xbdf1c173	-0.11804476
175	0xbd856f2c	-0.06515345
176	0x3cb57489	0.022150295
177	0xbbfeacc7	-0.0077720615
178	0xbcf192f5	-0.02948902
179	0x3d60d2f6	0.054888688
180	0x39feb01a	0.0004857786
181	0x3e57e294	0.21082526
182	0x3d228ea1	0.039686803
183	0x3d63fe76	0.055662595
184	0x3c0a7e73	0.008452999
185	0x3de5f10c	0.11227617
186	0xbe06ad8e	-0.13152143
187	0xbe00c5f2	-0.1257551
188	0x3d49b6ee	0.04924672
189	0x3e06627d	0.13123508
190	0x3ce6f79c	0.028194241
191	0x3e254131	0.1613815
192	0x3d344630	0.04401225
193	0xbe7dd712	-0.24789074
194	0x3d625215	0.05525406
195	0xbbd78a8a	-0.0065777944
196	0xbdbd067f	-0.09229755
197	0x3b73a4b0	0.0037177019
198	0x3d377e70	0.044798315
199	0xbe102e35	-0.14080127
200	0xbe47ca26	-0.19510707
201	0x3d79a9e0	0.06095302
202	0xbc7631ae	-0.015026493
203	0x3d118a5f	0.03553235
204	0xbddb0953	-0.10695138
205	0x3e2c92e1	0.16852905
206	0x3d9f6241	0.07782412
207	0xbde2d651	-0.11076034
208	0x3e615e45	0.22008617
209	0x3e097366	0.13422927
210	0x3cb23003	0.02175141
211	0x3e0b737a	0.1361827
212	0x3dc601b1	0.09668291
213	0x3b099eb2	0.002099913
214	0x3d2db366	0.042407416
215	0xbd568da4	-0.052381173
216	0xbc1ff732	-0.009763526
217	0xbd8811d9	-0.06644029
218	0xbdcbe2e4	-0.09955385
219	0xbe61a7b1	-0.22036625
220	0xbd1ca0b8	-0.03823921
221	0xbdc07375	-0.09397022
222	0xbcf926df	-0.030414043
223	0xbe252e42	-0.16130927
224	0x3e0e8d89	0.13921179
225	0x3c1cd701	0.009572745
226	0xbce77a6a	-0.028256614
227	0x3cecde58	0.028914616
228	0xbb1d6f7c	-0.0024022749
229	0xbe174334	-0.1477173
230	0xbe2f8b20	-0.17142916
231	0x3c570a1c	0.013124969
232	0x3d2f2613	0.04276092
233	0x3d297d15	0.041379053
234	0x3d93d2d8	0.0721795
235	0xbde1256d	-0.109934665
236	0x3e199427	0.14997922
237	0xbd1bad6f	-0.038007196
238	0xbbaf14d9	-0.0053430614
239	0xbdcb2e57	-0.09920948
240	0xbd9961fb	-0.074893914
241	0xbb6eea2a	-0.003645549
242	0x3d18535d	0.037188876
243	0xbc8f9ea5	-0.017531702
244	0x3e1ce4d7	0.1532167
245	0x3da42cd5	0.080163635
246	0xbe50719a	-0.20355836
247	0xbb712bc6	-0.0036799773
248	0xbe37fd8f	-0.17967819
249	0xbd5f4529	-0.054509316
250	0xbc6915a4	-0.014226351
251	0xbde42e43	-0.11141636
252	0x3e2157ce	0.15756151
253	0x3cceceff	0.025245188
254	0xbe068420	-0.13136339
255	0x3dae9996	0.08525388

l1.bias_rho f4 [800]
0	0xc0425a64	-3.036767
1	0xc036e139	-2.8574965
2	0xc042497d	-3.0357354
3	0xc049cd8e	-3.153171
4	0xc047b6fa	-3.120543
5	0xc041b946	-3.0269332
6	0xc047747d	-3.1164849
7	0xc0463012	-3.096684
8	0xc043ba2e	-3.0582385
9	0xc03a4364	-2.9103632
10	0xc043ae89	-3.0575278
11	0xc0433d9a	-3.0506349
12	0xc0417bbb	-3.023177
13	0xc0469844	-3.1030436
14	0xc035b286	-2.8390212
15	0xc0483bde	-3.128654
16	0xc0381e3f	-2.876846
17	0xc03528ee	-2.8306231
18	0xc042bf96	-3.0429435
19	0xc045e231	-3.0919306
20	0xc04346bf	-3.051193
21	0xc047bb80	-3.120819
22	0xc03b916a	-2.9307504
23	0xc038ad19	-2.885565
24	0xc044d5bd	-3.0755455
25	0xc0473813	-3.1127975
26	0xc0496942	-3.1470494
27	0xc032a9b1	-2.7916071
28	0xc03fe49f	-2.998329
29	0xc03b0724	-2.9223108
30	0xc039d383	-2.9035347
31	0xc03f98ce	-2.9937015
32	0xc04b6e37	-3.178602
33	0xc049c34f	-3.1525457
34	0xc04348cd	-3.0513184
35	0xc043bba1	-3.058327
36	0xc03e5a47	-2.97426
37	0xc038e166	-2.8887572
38	0xc03f50bc	-2.9893026
39	0xc03ecced	-2.9812577
40	0xc038d2c4	-2.887864
41	0xc0415748	-3.0209522
42	0xc04166ab	-3.0218914
43	0xc03a66c8	-2.9125233
44	0xc03f16f2	-2.9857755
45	0xc04231ec	-3.034297
46	0xc03dd9e7	-2.9664247
47	0xc0454db0	-3.0828667
48	0xc047f01b	-3.1240299
49	0xc04555ad	-3.0833542
50	0xc03e63f8	-2.9748516
51	0xc042db71	-3.0446436
52	0xc046426f	-3.0978048
53	0xc04ac465	-3.168237
54	0xc03efc55	-2.9841511
55	0xc042502c	-3.0361433
56	0xc046e161	-3.107506
57	0xc04562f4	-3.0841646
58	0xc0452b1d	-3.0807564
59	0xc04522b9	-3.0802443
60	0xc043d9b9	-3.0601637
61	0xc0372e28	-2.8621922
62	0xc03f738b	-2.9914272
63	0xc03a47a2	-2.9106221
64	0xc04161bc	-3.0215902
65	0xc036c870	-2.8559837
66	0xc03776c4	-2.8666239
67	0xc042b101	-3.0420535
68	0xc0391eef	-2.892513
69	0xc04a62b1	-3.1622736
70	0xc04ccd71	-3.2000391
71	0xc03b828d	-2.9298432
72	0xc047508f	-3.114292
73	0xc0472ca5	-3.1121
74	0xc0422c71	-3.0339625
75	0xc03fdce0	-2.9978561
76	0xc0388dd3	-2.8836563
77	0xc0462ce1	-3.0964892
78	0xc04026ae	-3.0023608
79	0xc03f4d15	-2.9890797
80	0xc03c3e69	-2.9413092
81	0xc04a3b1f	-3.1598585
82	0xc04716e0	-3.1107712
83	0xc045059e	-3.0784678
84	0xc03bd41f	-2.9348218
85	0xc042a4c5	-3.0413067
86	0xc03e1eb8	-2.970625
87	0xc038ba76	-2.8863807
88	0xc03a0a57	-2.906881
89	0xc04a8fe0	-3.1650314
90	0xc045d2c3	-3.0909889
91	0xc041b19d	-3.0264657
92	0xc03e5303	-2.9738166
93	0xc0407f29	-3.0077612
94	0xc03d34de	-2.9563518
95	0xc03d84c3	-2.9612281
96	0xc046c9bb	-3.1060627
97	0xc0387abc	-2.882491
98	0xc04181bc	-3.0235434
99	0xc043c8ce	-3.0591311
100	0xc04036cd	-3.0033448
101	0xc037564a	-2.8646417
102	0xc035d078	-2.840849
103	0xc0410c86	-3.0163894
104	0xc040ff2f	-3.0155752
105	0xc0452821	-3.0805743
106	0xc0465c5b	-3.099387
107	0xc04948d7	-3.1450708
108	0xc03d0509	-2.9534323
109	0xc04285d5	-3.0394185
110	0xc03f4cd9	-2.9890654
111	0xc040f7dc	-3.0151281
112	0xc03a53a9	-2.9113562
113	0xc045603f	-3.0839994
114	0xc0414842	-3.0200353
115	0xc03fcdcc	-2.9969358
116	0xc03ba024	-2.9316492
117	0xc03b440a	-2.9260278
118	0xc03d984b	-2.9624202
119	0xc03cb687	-2.9486406
120	0xc043dbc8	-3.0602894
121	0xc03df6ca	-2.9681878
122	0xc03c9cee	-2.9470782
123	0xc0400c82	-3.0007634
124	0xc03e4cb8	-2.9734325
125	0xc0481ada	-3.126639
126	0xc046dc30	-3.1071892
127	0xc038e233	-2.888806
128	0xc04309d8	-3.0474758
129	0xc043af8b	-3.0575893
130	0xc0476bd0	-3.1159554
131	0xc0407eba	-3.0077348
132	0xc03a1611	-2.9075968
133	0xc040b3d6	-3.0109763
134	0xc037eb23	-2.8737266
135	0xc03c3c5f	-2.9411848
136	0xc03d4ff4	-2.958005
137	0xc03a2efc	-2.9091177
138	0xc0400790	-3.0004616
139	0xc04071b3	-3.0069396
140	0xc03c5280	-2.9425354
141	0xc03f627a	-2.9903855
142	0xc0407711	-3.0072672
143	0xc0386896	-2.8813834
144	0xc04086df	-3.0082319
145	0xc0375e91	-2.8651469
146	0xc03f69e3	-2.9908378
147	0xc03dcd72	-2.9656644
148	0xc03bac8b	-2.9324062
149	0xc03f40e5	-2.9883358
150	0xc036df9c	-2.857398
151	0xc0464429	-3.0979102
152	0xc042f9df	-3.046501
153	0xc03f45d1	-2.9886363
154	0xc04091cc	-3.0088987
155	0xc04b2480	-3.1741028
156	0xc048ecb0	-3.1394463
157	0xc036c89f	-2.855995
158	0xc038d88c	-2.888217
159	0xc0389d4c	-2.8846006
160	0xc043bebf	-3.0585172
161	0xc035f3f6	-2.8430152
162	0xc0384bd5	-2.8796284
163	0xc0461c14	-3.0954638
164	0xc03fc300	-2.9962769
165	0xc0365d31	-2.849438
166	0xc040256d	-3.0022843
167	0xc03fc93d	-2.9966576
168	0xc0439825	-3.0561612
169	0xc0406cb6	-3.0066352
170	0xc0369f35	-2.8534672
171	0xc0445b02	-3.0680547
172	0xc03c8e66	-2.9461913
173	0xc0442855	-3.0649617
174	0xc0476fd4	-3.1162004
175	0xc043937e	-3.0558772
176	0xc04aae41	-3.1668856
177	0xc039b840	-2.9018707
178	0xc039adb3	-2.9012268
179	0xc045fdae	-3.0936084
180	0xc038c1b3	-2.8868225
181	0xc03eb24a	-2.979632
182	0xc03f00ab	-2.9844158
183	0xc03ae565	-2.9202511
184	0xc03a5eb2	-2.9120297
185	0xc0417a9f	-3.0231092
186	0xc043ef77	-3.0614908
187	0xc0428f2f	-3.0399892
188	0xc0443925	-3.0659878
189	0xc03c8e79	-2.9461958
190	0xc04c3646	-3.1908126
191	0xc042d58a	-3.0442834
192	0xc03b8575	-2.9300206
193	0xc040d075	-3.0127232
194	0xc0409c47	-3.0095384
195	0xc0410837	-3.0161264
196	0xc03fac9a	-2.9949098
197	0xc03bb99d	-2.933204
198	0xc04161e3	-3.0215995
199	0xc033eaea	-2.811213
200	0xc03c738c	-2.9445524
201	0xc03bb84e	-2.933124
202	0xc049ce91	-3.1532328
203	0xc040e19d	-3.0137703
204	0xc0460e99	-3.094641
205	0xc035ca65	-2.8404782
206	0xc04070e2	-3.0068898
207	0xc03bbb92	-2.9333234
208	0xc04160d7	-3.0215356
209	0xc0418a6b	-3.0240734
210	0xc0414c1e	-3.0202708
211	0xc04d0ace	-3.2037845
212	0xc042cf2f	-3.0438955
213	0xc040eed3	-3.0145767
214	0xc0436bfb	-3.0534656
215	0xc045e103	-3.0918586
216	0xc0353c58	-2.831808
217	0xc04cffbf	-3.2031095
218	0xc03d408c	-2.9570646
219	0xc043a584	-3.0569773
220	0xc03b8458	-2.9299526
221	0xc040d803	-3.0131843
222	0xc0402dd2	-3.0027966
223	0xc040aa05	-3.0103772
224	0xc03a4a79	-2.9107955
225	0xc0441385	-3.0636914
226	0xc04339ee	-3.0504107
227	0xc048b9b0	-3.1363335
228	0xc03efb07	-2.9840715
229	0xc046f8c1	-3.1089327
230	0xc03f1465	-2.9856198
231	0xc03ff9cc	-2.9996214
232	0xc0486d9d	-3.1316903
233	0xc03ff793	-2.9994857
234	0xc044282d	-3.0649521
235	0xc0484327	-3.1290987
236	0xc03f9fe3	-2.9941337
237	0xc041fc79	-3.0310347
238	0xc03fe44e	-2.9983096
239	0xc041303d	-3.0185692
240	0xc046cdea	-3.106318
241	0xc03ad2b2	-2.9191098
242	0xc0380706	-2.8754287
243	0xc046d040	-3.1064606
244	0xc044a59f	-3.0726087
245	0xc0473545	-3.1126263
246	0xc04c40d0	-3.1914558
247	0xc0409de6	-3.0096374
248	0xc043859b	-3.0550296
249	0xc03fe10b	-2.9981105
250	0xc03f3bb9	-2.9880202
251	0xc03b3d9a	-2.9256349
252	0xc03af083	-2.9209297
253	0xc03e3451	-2.9719431
254	0xc0399cea	-2.9002023
255	0xc041c078	-3.0273724

l1.weight.mu f4 [800, 29]
0	0xbe4a2622	-0.19741109
1	0xbdc9f803	-0.098617576
2	0x3d7b81e7	0.06140318
3	0xbe2e6514	-0.17030746
4	0xbe51719e	-0.20453498
5	0x3dbd3cb7	0.09240096
6	0x3e0eb1c6	0.13935003
7	0xbd8f08df	-0.06984114
8	0xbdac512a	-0.08413918
9	0x3d2ae31a	0.041720487
10	0x3e158269	0.14600529
11	0x3e336fc4	0.17523104
12	0xbd2f5c63	-0.042812716
13	0x3d55d1f0	0.052202165
14	0xbe21b72d	-0.15792532
15	0xbdc2eee2	-0.095182195
16	0xbe077b53	-0.13230638
17	0x3d8e487d	0.0694742
18	0x3dded4da	0.10880442
19	0x3de53ff6	0.1119384
20	0x3d1d3cee	0.038388185
21	0xbcbe934c	-0.023263596
22	0x3e000bf4	0.1250456
23	0x3d6f8d6d	0.058484484
24	0xbda60c65	-0.08107833
25	0xbe4a1f67	-0.19738542
26	0xbc3f76f7	-0.011686078
27	0x3d29b8aa	0.041435875
28	0xbde0666b	-0.10957035
29	0xbdecf6fb	-0.11570545
30	0x3d87e27c	0.06634995
31	0x3db94371	0.090460666
32	0xbd0b4227	-0.033998635
33	0xbd61a47d	-0.05508851
34	0xbe171533	-0.1475418
35	0xbd9cd465	-0.076576985
36	0x3d84866c	0.064709514
37	0x3d033e85	0.032042045
38	0xbbe149f9	-0.0068752733
39	0xbdbad5af	-0.09122788
40	0xbdbbfebc	-0.09179446
41	0xbdc8f999	-0.09813232
42	0xbd0ad798	-0.033897012
43	0xbd1c6b97	-0.038188543
44	0x3dd3ebb6	0.10347693
45	0x3e82aadb	0.25520977
46	0x3e11dd72	0.14244631
47	0xbdecf773	-0.11570635
48	0x3b8563c7	0.0040707323
49	0x3da82f48	0.08212143
50	0xbd01c27b	-0.03167961
51	0x3db4142c	0.0879291
52	0x3ddbab5d	0.10726044
53	0xbd6d2ab9	-0.05790207
54	0xbe37c928	-0.17947829
55	0xbcfc55db	-0.030802658
56	0xbbe5468e	-0.006996936
57	0x3e5f1958	0.21787012
58	0xbcf80572	-0.030276034
59	0xbe1a837f	-0.15089224
60	0x3d0eefb8	0.034896582
61	0xbd1130e2	-0.03544701
62	0x3d81a742	0.0633073
63	0x3d7d4b01	0.061839107
64	0xbdff0850	-0.12452757
65	0x3ceed04f	0.029152064
66	0xbd9a102d	-0.075226165
67	0xbde8420a	-0.11340721
68	0x3aa83848	0.0012834156
69	0xbdbbedc0	-0.091762066
70	0xbdd9d31a	-0.106359676
71	0x3df516fd	0.11967275
72	0x3e133936	0.14377293
73	0x3cf39d26	0.02973802
74	0xbd12ba59	-0.035822246
75	0x3ce31d0b	0.02772381
76	0x3e0b5fa4	0.13610703
77	0xbe55b8fc	-0.20871347
78	0x3d074f44	0.033034578
79	0x3e1eb664	0.15499264
80	0xbccf9444	-0.025339253
81	0x3e160e0c	0.14653796
82	0x3d81b18b	0.06332692
83	0x3cda55aa	0.026652176
84	0x3daef85d	0.08543465
85	0xbdc9e8d0	-0.098588586
86	0xbe16bec1	-0.14721204
87	0x3d180208	0.037111312
88	0x3ca18340	0.019715905
89	0x3c98fba4	0.01867468
90	0xba443fa7	-0.00074862916
91	0xbe2b7676	-0.16744408
92	0x3dac0cad	0.08400855
93	0xbd3efe76	-0.04662939
94	0xbd72d727	-0.059287217
95	0xbdb9d301	-0.09073449
96	0x3dff54e0	0.124673605
97	0xbd9ecbf7	-0.07753747
98	0x3d24d785	0.040244598
99	0xbd9c910f	-0.07644855
100	0x3d45d64d	0.048300076
101	0x3ba33f1b	0.004981888
102	0x3d53a1a9	0.051667843
103	0xbbf28e4f	-0.0074022184
104	0xbe52c5c3	-0.20583253
105	0x3d3f4c9a	0.046703912
106	0xbdaeb80c	-0.08531198
107	0xbdb74adb	-0.089498244
108	0xbd009ca0	-0.03139937
109	0x3d5927b2	0.053016372
110	0xbe1ee4f9	-0.15517034
111	0x3db1f858	0.08689946
112	0x3e9bf3d9	0.30459478
113	0x3e498eb7	0.19683348
114	0xbe265b31	-0.16245724
115	0x3ddcb250	0.10776198
116	0x3e0d165f	0.13778065
117	0xbe57ce9e	-0.21074912
118	0x3e11d1da	0.14240208
119	0x3dd60695	0.10450474
120	0x3d3ee89d	0.046608556
121	0x3dc42fe6	0.095794484
122	0xbe884229	-0.26612976
123	0xbd9fda03	-0.07805254
124	0xbd051a6e	-0.03249591
125	0xbd13957a	-0.036031224
126	0xbcb514a5	-0.02210457
127	0xbd958652	-0.0730101
128	0x3d4734d8	0.04863438
129	0x3d720b83	0.05909301
130	0xbdc2cf86	-0.09512238
131	0xbd9f328a	-0.077733114
132	0x3d95e245	0.07318548
133	0x3dfc758e	0.12327109
134	0x3caf5a5b	0.02140539
135	0x3d99cf2c	0.07510218
136	0xbcecab88	-0.028890386
137	0x3cb0d365	0.021585176
138	0x3d1ba106	0.03799536
139	0x3dc828c2	0.09773399
140	0xbdb06967	-0.08613854
141	0x3d80957e	0.06278513
142	0xbbef3c15	-0.0073008635
143	0xbca11125	-0.019661495
144	0xbe437022	-0.19085744
145	0x3c851271	0.016244145
146	0x3c09aa8e	0.00840248
147	0xbdd83e1f	-0.10558724
148	0xbe38a4e8	-0.18031657
149	0xbda4b7f5	-0.080428995
150	0x3e03668a	0.12832084
151	0x3e251b30	0.16123652
152	0xbe87ad98	-0.2649963
153	0x3b84ca34	0.004052425
154	0xbc92529f	-0.017861662
155	0xbd54f2d3	-0.051989388
156	0xbe03434d	-0.12818642
157	0xbe072785	-0.13198669
158	0xbd9eb1ac	-0.07748732
159	0x3dca9eaa	0.09893544
160	0x3de63deb	0.11242279
161	0x3d5d5efc	0.054045662
162	0xbd1efa23	-0.038812768
163	0x3e458fce	0.19293138
164	0x3c2518b3	0.0100766895
165	0x3bb37038	0.005476024
166	0x3dd65f8c	0.10467443
167	0x3de17372	0.110083476
168	0x3d30acbd	0.043133486
169	0xbd957927	-0.072984986
170	0x3c4d40a2	0.012527617
171	0xbdbd0ce6	-0.09230976
172	0xbd0c1641	-0.03420091
173	0x3df407f9	0.11915583
174	0xbc163ac3	-0.009169283
175	0x3d0d0ec8	0.034437925
176	0x3d39ca35	0.045358855
177	0xbc053b5f	-0.008131831
178	0xbdcd5c8d	-0.10027418
179	0x3e248ab9	0.16068543
180	0x3c485dcc	0.012229394
181	0xbe365317	-0.17805134
182	0x3e2ccccd	0.16875
183	0xbe1f555a	-0.15559903
184	0x3d531d9d	0.051541913
185	0xbd4d9b97	-0.05019721
186	0x3c3830e1	0.011242122
187	0xbcdb267f	-0.026751755
188	0xbd650571	-0.055913392
189	0x3db88b81	0.09010983
190	0x3c888640	0.016665578
191	0x3d15cdfb	0.03657339
192	0x3d470043	0.048584234
193	0xbe2707c5	-0.16311558
194	0xbdf8f10d	-0.12155352
195	0xbddccc65	-0.10781173
196	0xbdab424f	-0.08362257
197	0xbde3a42a	-0.11115296
198	0x3d86c7af	0.065810554
199	0xbe0a7d24	-0.135243
200	0x3e875780	0.26433945
201	0xbe52115d	-0.20514436
202	0xbd10c9cb	-0.035348695
203	0x3d640e1d	0.055677522
204	0xbdaf2b45	-0.08553175
205	0xbe317418	-0.17329443
206	0xbd3c3fa2	-0.045959122
207	0xbc257660	-0.010099024
208	0x3e15fcfd	0.14647289
209	0xbb9a3522	-0.004706041
210	0xbcbfaf31	-0.023398967
211	0xbdd07115	-0.10177819
212	0xbe0613ca	-0.13093486
213	0x3e4847c7	0.19558631
214	0x3d890b21	0.06691576
215	0xbdb0e3b8	-0.08637184
216	0x3dff7e61	0.12475277
217	0x3ba0ac12	0.004903325
218	0x3db6e70a	0.08930786
219	0x3dfe8a5c	0.12428734
220	0xbe4e7807	-0.20162974
221	0xbd75f213	-0.060045313
222	0x3e18079e	0.14846656
223	0xbcbb34d5	-0.02285234
224	0xbd2771ec	-0.04088013
225	0x3d512906	0.051064514
226	0x3be1a73f	0.0068863924
227	0x3dd4b8f1	0.10386837
228	0xbdf1246d	-0.11774526
229	0x3db0567e	0.08610247
230	0x3e2c63ce	0.16834947
231	0x3de3a472	0.1111535
232	0xbd1774ab	-0.036976498
233	0xbc110701	-0.0088517675
234	0xbbc7106e	-0.0060749566
235	0x3e0185ef	0.12648748
236	0x3c9a6aa5	0.01884968
237	0xbd4e82f6	-0.050417863
238	0xbd83b0d6	-0.06430213
239	0xbd3831e5	-0.044969458
240	0x3c3a7966	0.011381483
241	0xbd0e8294	-0.034792498
242	0x3c08c147	0.008346862
243	0xbe282f7f	-0.16424368
244	0x3e2beddf	0.1678996
245	0x3cf66bbb	0.030080667
246	0xbd968e7e	-0.07351397
247	0xbb2a3535	-0.0025971655
248	0xbcf0016a	-0.02929755
249	0xbe1e7db8	-0.15477645
250	0x3d5599a8	0.05214849
251	0x3cd5d756	0.026103657
252	0xbe055a51	-0.13022734
253	0x3e15cc39	0.14628686
254	0x3d72e4f5	0.05930038
255	0x3e08dec1	0.13366224

l1.weight.rho f4 [800, 29]
0	0xc03ff595	-2.9993641
1	0xc043bb1e	-3.0582957
2	0xc049e74e	-3.1547427
3	0xc03b91e6	-2.93078
4	0xc03df936	-2.9683356
5	0xc04841e4	-3.1290216
6	0xc03f5f1a	-2.9901795
7	0xc0392bdb	-2.8933017
8	0xc042d93c	-3.044509
9	0xc042132d	-3.0324204
10	0xc0408b3c	-3.0084982
11	0xc042b430	-3.0422478
12	0xc04507b9	-3.0785964
13	0xc03e1c3a	-2.9704728
14	0xc03f697b	-2.990813
15	0xc03511be	-2.829208
16	0xc03bfe84	-2.9374094
17	0xc037788e	-2.866733
18	0xc03b7742	-2.929154
19	0xc045e78c	-3.0922575
20	0xc04065b1	-3.0062068
21	0xc04a55d7	-3.1614892
22	0xc0473cb6	-3.1130805
23	0xc036c214	-2.8555956
24	0xc0399c0d	-2.9001496
25	0xc03418e0	-2.8140182
26	0xc03d96e7	-2.9623353
27	0xc0419f29	-3.0253394
28	0xc0491a3d	-3.1422265
29	0xc03bef0d	-2.9364655
30	0xc03ff978	-2.9996014
31	0xc045b971	-3.0894434
32	0xc0335efc	-2.8026724
33	0xc041342b	-3.018809
34	0xc0430178	-3.0469646
35	0xc040afd9	-3.010733
36	0xc03f35c0	-2.9876556
37	0xc0448c10	-3.0710487
38	0xc043afa4	-3.0575953
39	0xc046422c	-3.0977888
40	0xc03cbee9	-2.9491522
41	0xc03dc496	-2.9651237
42	0xc03c174e	-2.9389224
43	0xc03fd86c	-2.9975843
44	0xc04344ba	-3.0510697
45	0xc0517a1a	-3.2730775
46	0xc0373d17	-2.8631036
47	0xc03c3b65	-2.9411252
48	0xc0389b8b	-2.8844936
49	0xc0409ab5	-3.0094426
50	0xc03fb96d	-2.9956925
51	0xc03cc569	-2.949549
52	0xc043505f	-3.0517805
53	0xc03fcba1	-2.9968035
54	0xc0469c2f	-3.1032827
55	0xc03865e7	-2.8812196
56	0xc039fe94	-2.9061632
57	0xc03905d0	-2.8909798
58	0xc0417451	-3.0227244
59	0xc03720ca	-2.8613763
60	0xc042354a	-3.0345025
61	0xc038f191	-2.889744
62	0xc03cdd41	-2.9510043
63	0xc03b6882	-2.9282537
64	0xc0446a9e	-3.0690074
65	0xc0409a71	-3.0094264
66	0xc03dfe0c	-2.9686308
67	0xc044fbde	-3.0778728
68	0xc03f5084	-2.9892893
69	0xc03bde58	-2.9354458
70	0xc04107fb	-3.016112
71	0xc0431da1	-3.0486834
72	0xc03fc452	-2.9963574
73	0xc03c19f4	-2.939084
74	0xc047ec12	-3.1237836
75	0xc0475d41	-3.1150668
76	0xc03a3a94	-2.9098253
77	0xc03fa86a	-2.9946542
78	0xc03daa9c	-2.9635382
79	0xc03d3625	-2.9564297
80	0xc03b0f88	-2.922823
81	0xc04c96f9	-3.1967146
82	0xc0454948	-3.0825977
83	0xc0418f7e	-3.024383
84	0xc047d7bf	-3.122543
85	0xc0461d48	-3.0955372
86	0xc055744f	-3.335224
87	0xc03eeaf7	-2.983091
88	0xc044554d	-3.0677063
89	0xc036a69b	-2.8539188
90	0xc041676d	-3.0219376
91	0xc04519fc	-3.079711
92	0xc044852e	-3.0706286
93	0xc04be715	-3.1859791
94	0xc03dc51f	-2.9651563
95	0xc0424484	-3.0354319
96	0xc03cd8d2	-2.9507337
97	0xc0493d13	-3.1443527
98	0xc0376433	-2.8654907
99	0xc042d985	-3.0445263
100	0xc0400726	-3.0004363
101	0xc043e610	-3.060917
102	0xc0366854	-2.8501177
103	0xc0464852	-3.098164
104	0xc049f87d	-3.1557915
105	0xc04e3e76	-3.2225623
106	0xc04c5ffa	-3.193358
107	0xc047768f	-3.1166112
108	0xc0459a93	-3.0875595
109	0xc03e0873	-2.9692657
110	0xc041d9a7	-3.0289094
111	0xc03d3709	-2.956484
112	0xc0413e22	-3.0194173
113	0xc03f2def	-2.9871786
114	0xc04df543	-3.2180946
115	0xc04e4ae6	-3.2233214
116	0xc045061d	-3.0784981
117	0xc042ed10	-3.0457191
118	0xc04465a7	-3.0687044
119	0xc03e1053	-2.9697464
120	0xc03fa763	-2.9945915
121	0xc03c6585	-2.9436963
122	0xc03bada0	-2.9324722
123	0xc04366a3	-3.0531394
124	0xc045edcc	-3.092639
125	0xc0494053	-3.144551
126	0xc03f96f5	-2.9935887
127	0xc03c844a	-2.9455743
128	0xc047553f	-3.114578
129	0xc04ace4e	-3.1688418
130	0xc03746df	-2.8637006
131	0xc0384797	-2.8793695
132	0xc046521c	-3.0987616
133	0xc03d9ac4	-2.9625711
134	0xc03dba0b	-2.9644802
135	0xc0389323	-2.8839805
136	0xc0428766	-3.039514
137	0xc03f40f9	-2.9883406
138	0xc03d85aa	-2.9612832
139	0xc03a171f	-2.9076612
140	0xc03b2130	-2.9239006
141	0xc03c4a03	-2.9420173
142	0xc042a370	-3.0412254
143	0xc03628fa	-2.846251
144	0xc03d8c11	-2.961674
145	0xc047634a	-3.1154351
146	0xc0439da1	-3.056496
147	0xc0422012	-3.0332074
148	0xc040b57e	-3.0110774
149	0xc0402c77	-3.002714
150	0xc03be8c3	-2.9360816
151	0xc0494413	-3.14478
152	0xc03f1fc7	-2.9863145
153	0xc0443c3e	-3.066177
154	0xc04017db	-3.001456
155	0xc03dd999	-2.966406
156	0xc0423f69	-3.0351202
157	0xc0478f32	-3.118115
158	0xc0462b67	-3.096399
159	0xc038dfbe	-2.8886561
160	0xc032e95d	-2.7954934
161	0xc03156bd	-2.770919
162	0xc03a26b3	-2.908612
163	0xc03f33f5	-2.9875462
164	0xc032c407	-2.7932146
165	0xc03e15f4	-2.97009
166	0xc0463cd1	-3.097462
167	0xc03f14d0	-2.9856453
168	0xc0315b7b	-2.7712085
169	0xc03f8a10	-2.9928017
170	0xc04398aa	-3.0561929
171	0xc04448c5	-3.0669415
172	0xc042c959	-3.0435393
173	0xc04597a8	-3.0873814
174	0xc03bb4f5	-2.9329197
175	0xc041b4fa	-3.026671
176	0xc04567ad	-3.0844529
177	0xc04c6b2c	-3.1940413
178	0xc0549cc6	-3.3220687
179	0xc035f84b	-2.8432796
180	0xc04584fb	-3.0862415
181	0xc03dc53c	-2.9651632
182	0xc03ca82c	-2.9477644
183	0xc0430e64	-3.0477533
184	0xc03b0d99	-2.922705
185	0xc0406697	-3.0062616
186	0xc03f8e03	-2.9930427
187	0xc0485ab5	-3.1305363
188	0xc043c806	-3.0590835
189	0xc03ba957	-2.9322107
190	0xc033ee79	-2.8114302
191	0xc03d55b8	-2.9583569
192	0xc049079a	-3.141089
193	0xc03f6fae	-2.9911914
194	0xc0417fb4	-3.0234194
195	0xc03ed159	-2.9815276
196	0xc03aaa22	-2.916634
197	0xc04e57bd	-3.2241051
198	0xc03beefc	-2.9364614
199	0xc042239a	-3.033423
200	0xc03cc206	-2.9493423
201	0xc03e5c58	-2.9743862
202	0xc0525467	-3.2864015
203	0xc04155cd	-3.0208619
204	0xc04ffb5b	-3.2497165
205	0xc0409b4f	-3.0094793
206	0xc03f821e	-2.9923167
207	0xc0410ed7	-3.0165308
208	0xc042593f	-3.0366971
209	0xc045feea	-3.0936837
210	0xc03fe57a	-2.9983811
211	0xc03d18bf	-2.9546354
212	0xc043b029	-3.057627
213	0xc03a0d99	-2.90708
214	0xc045708b	-3.084994
215	0xc0417002	-3.0224614
216	0xc03f21fc	-2.9864492
217	0xc044669f	-3.0687635
218	0xc0401962	-3.0015492
219	0xc040384e	-3.0034366
220	0xc04459ea	-3.067988
221	0xc044a2a1	-3.072426
222	0xc0332bcf	-2.7995489
223	0xc0494d0b	-3.1453273
224	0xc041e2ed	-3.0294755
225	0xc03b5523	-2.9270713
226	0xc049997f	-3.1499937
227	0xc036d398	-2.8566647
228	0xc036e16d	-2.857509
229	0xc04683bc	-3.1017904
230	0xc0376310	-2.8654213
231	0xc041ea4d	-3.0299256
232	0xc04f0e0d	-3.2352326
233	0xc0408fe4	-3.0087824
234	0xc04b5a44	-3.1773844
235	0xc039f4b0	-2.9055595
236	0xc03f74d6	-2.991506
237	0xc0450d17	-3.078924
238	0xc03c968b	-2.9466884
239	0xc03cddb6	-2.9510322
240	0xc04575b9	-3.0853102
241	0xc03d371e	-2.956489
242	0xc03da6f8	-2.963316
243	0xc040c9b9	-3.0123122
244	0xc0400879	-3.0005171
245	0xc03e9a5a	-2.9781709
246	0xc03a99dd	-2.915641
247	0xc0454df0	-3.082882
248	0xc03bbfaf	-2.9335744
249	0xc03ea872	-2.979031
250	0xc0435b74	-3.0524569
251	0xc0467898	-3.1011105
252	0xc039f609	-2.9056418
253	0xc03e57ef	-2.974117
254	0xc03b4524	-2.926095
255	0xc03e44fb	-2.9729602

l1.bias.mu f4 [800]
0	0xbd074d7e	-0.033032887
1	0x3e32cb2d	0.17460318
2	0xbde0a1d5	-0.10968367
3	0xbe5800dd	-0.2109408
4	0xbd6a173d	-0.057151068
5	0x3c114081	0.008865477
6	0xbd6e9aeb	-0.05825321
7	0x3d6755f2	0.05647845
8	0xbdd33155	-0.10312144
9	0x3dd8a297	0.105778866
10	0xbd9e10d9	-0.07718057
11	0x3dcb44d3	0.099252366
12	0xbd2e2c7b	-0.04252289
13	0x3cb7bc26	0.022428583
14	0xbd2d6765	-0.042334933
15	0xbbd3d8a8	-0.0064650364
16	0x3d7e8276	0.062136136
17	0x3d39bd56	0.04534658
18	0xbd9879cf	-0.07445108
19	0x3e475608	0.19466412
20	0x3e595768	0.21224749
21	0x3db25a33	0.087086104
22	0x3e07c548	0.1325885
23	0x3c95cebc	0.018287055
24	0x3d031328	0.03200069
25	0xbe32f5a6	-0.1747652
26	0xbe5d2919	-0.21597709
27	0xbd2ab234	-0.041673854
28	0xbde32151	-0.11090339
29	0xbe0fcdb5	-0.14043315
30	0xbd5b4d5f	-0.053540584
31	0x3dcae29b	0.09906503
32	0xbc960ade	-0.018315729
33	0xbca021fd	-0.019547457
34	0x3c591d05	0.013251548
35	0x3e3db742	0.18526939
36	0x3de1356b	0.10996517
37	0x3cb8da11	0.02256492
38	0xbd4ba48c	-0.04971747
39	0xbe015347	-0.12629424
40	0xbcb838ec	-0.02248808
41	0xbd5afc35	-0.05346318
42	0xbd77f2c6	-0.06053426
43	0x3db659d8	0.08903855
44	0x3e5aa5db	0.21352331
45	0x3dc6b629	0.09702713
46	0xbe33a6bd	-0.17544074
47	0xbe0c06f3	-0.13674526
48	0x3dadad05	0.084802665
49	0x3dad15c0	0.08451414
50	0x3e52aac7	0.20572959
51	0x3df710db	0.12063762
52	0x3d1b3dec	0.03790085
53	0xbd09f132	-0.033677287
54	0xbd0c5046	-0.034256242
55	0x3d453b87	0.048152473
56	0x3d7a06e7	0.06104174
57	0x3d6adc55	0.05733903
58	0x3da995f6	0.08280556
59	0x3e152aa9	0.14567055
60	0x3db49dc3	0.08819153
61	0xbd2f2a52	-0.04276497
62	0xbe07fbb3	-0.1327961
63	0xbb5e507d	-0.0033922486
64	0x3d487a55	0.04894479
65	0xbe4daef1	-0.20086266
66	0xbe0f1a1e	-0.13974807
67	0x3d95302e	0.0728458
68	0xbd127e0b	-0.035764735
69	0xbd62f0d7	-0.055405464
70	0xbca3cee4	-0.019996114
71	0x3ba90410	0.005157955
72	0x3dffe8bf	0.12495565
73	0xbdab6365	-0.083685674
74	0x3d19b3b8	0.03752491
75	0xbe4dab14	-0.20084792
76	0xbd950803	-0.07276919
77	0x3b3ca307	0.0028783695
78	0xbdc7f117	-0.09762781
79	0xbbab374d	-0.005225098
80	0xbe0bbf74	-0.13647252
81	0xbe0394be	-0.1284971
82	0x3d91088d	0.07081709
83	0xbe5247ec	-0.20535249
84	0x3c92e752	0.017932568
85	0x3db973dc	0.090553015
86	0x3d328ed4	0.043593243
87	0x3d7b3984	0.061334148
88	0xbc3dc375	-0.011582245
89	0x3d7416b8	0.05959198
90	0x3dc2ed72	0.09517945
91	0xbdf10443	-0.11768391
92	0xbd5946e4	-0.053046122
93	0x3a84585d	0.0010097135
94	0xbda00fa9	-0.07815487
95	0x3c6ff03c	0.014644679
96	0x3e04bf5e	0.12963626
97	0xbd96c26e	-0.07361303
98	0x3d9ac0ca	0.07556303
99	0xbd737937	-0.05944177
100	0x3de08e99	0.10964698
101	0x3d3e85e2	0.0465144
102	0xbd442ac8	-0.047892362
103	0xbd09e012	-0.033660956
104	0x3d37cf22	0.04487527
105	0x3da705db	0.08155414
106	0xbe2b7bfc	-0.16746515
107	0xbd224f99	-0.03962669
108	0xbd0b7051	-0.03404266
109	0xbd776e16	-0.06040772
110	0x3d57668c	0.05258803
111	0x3dba8b65	0.09108619
112	0xbdf7b15f	-0.12094378
113	0xbdb2f58f	-0.08738243
114	0x3e1efa75	0.1552523
115	0x3dd8f80e	0.10594188
116	0x3de297b7	0.110640936
117	0x3d0f026c	0.03491442
118	0xbde4ecd6	-0.11177985
119	0x3a73646b	0.0009284678
120	0xbcc976b3	-0.024592733
121	0xbd62f1ca	-0.05540637
122	0x3d6cd667	0.057821658
123	0x3c0fc68d	0.008775366
124	0x3e7191e7	0.23590814
125	0xbaa37eaa	-0.0012473662
126	0x3e8df37c	0.27724826
127	0x3d7cb87a	0.061699368
128	0xbdb2d035	-0.087311186
129	0xbe13e1fa	-0.14441672
130	0xbcaefcd8	-0.0213608
131	0xbd781d2c	-0.060574695
132	0x3c29bcb3	0.010359931
133	0x3deeefec	0.11666855
134	0x3b443554	0.0029939013
135	0xbd92ec78	-0.07174009
136	0xbe20a4e5	-0.15687902
137	0x3aa65105	0.0012688941
138	0xbdafd194	-0.08584896
139	0xbe874aea	-0.26424342
140	0x3bafa9d4	0.0053608213
141	0xbd9dabe1	-0.07698799
142	0xbd228a7d	-0.039682854
143	0xbd475de0	-0.04867351
144	0xbb971797	-0.0046109664
145	0xbbef812b	-0.007309099
146	0x3d15e757	0.036597576
147	0xbd31ca38	-0.04340574
148	0xbbad9483	-0.005297245
149	0x3ccb21eb	0.024796447
150	0x3ca6de26	0.0203696
151	0xbd7dfd22	-0.062008984
152	0x3d99958c	0.07499227
153	0xbe7dcf36	-0.24786076
154	0x3e397ea3	0.18114714
155	0x3d7f3814	0.06230934
156	0x3dcde86f	0.10054099
157	0x3d447a73	0.04796834
158	0x3d9ce3d5	0.07660643
159	0xbe005af9	-0.12534703
160	0xbda8946b	-0.082314335
161	0xbc3f91b6	-0.011692455
162	0x3cfde507	0.030992998
163	0x3d4c73cf	0.04991513
164	0xbd7f31c4	-0.06230332
165	0xbe608d2a	-0.2192885
166	0x3db4d81c	0.08830282
167	0x3d487822	0.048942693
168	0x3cee3c09	0.029081361
169	0xbe4e090f	-0.20120643
170	0xbd8b9fb8	-0.06817573
171	0xbc5f8de9	-0.013644674
172	0xbad18627	-0.0015985415
173	0x3ddd8069	0.10815508
174	0xbdf1c173	-0.11804476
175	0xbd856f2c	-0.06515345
176	0x3cb57489	0.022150295
177	0xbbfeacc7	-0.0077720615
178	0xbcf192f5	-0.02948902
179	0x3d60d2f6	0.054888688
180	0x39feb01a	0.0004857786
181	0x3e57e294	0.21082526
182	0x3d228ea1	0.039686803
183	0x3d63fe76	0.055662595
184	0x3c0a7e73	0.008452999
185	0x3de5f10c	0.11227617
186	0xbe06ad8e	-0.13152143
187	0xbe00c5f2	-0.1257551
188	0x3d49b6ee	0.04924672
189	0x3e06627d	0.13123508
190	0x3ce6f79c	0.028194241
191	0x3e254131	0.1613815
192	0x3d344630	0.04401225
193	0xbe7dd712	-0.24789074
194	0x3d625215	0.05525406
195	0xbbd78a8a	-0.0065777944
196	0xbdbd067f	-0.09229755
197	0x3b73a4b0	0.0037177019
198	0x3d377e70	0.044798315
199	0xbe102e35	-0.14080127
200	0xbe47ca26	-0.19510707
201	0x3d79a9e0	0.06095302
202	0xbc7631ae	-0.015026493
203	0x3d118a5f	0.03553235
204	0xbddb0953	-0.10695138
205	0x3e2c92e1	0.16852905
206	0x3d9f6241	0.07782412
207	0xbde2d651	-0.11076034
208	0x3e615e45	0.22008617
209	0x3e097366	0.13422927
210	0x3cb23003	0.02175141
211	0x3e0b737a	0.1361827
212	0x3dc601b1	0.09668291
213	0x3b099eb2	0.002099913
214	0x3d2db366	0.042407416
215	0xbd568da4	-0.052381173
216	0xbc1ff732	-0.009763526
217	0xbd8811d9	-0.06644029
218	0xbdcbe2e4	-0.09955385
219	0xbe61a7b1	-0.22036625
220	0xbd1ca0b8	-0.03823921
221	0xbdc07375	-0.09397022
222	0xbcf926df	-0.030414043
223	0xbe252e42	-0.16130927
224	0x3e0e8d89	0.13921179
225	0x3c1cd701	0.009572745
226	0xbce77a6a	-0.028256614
227	0x3cecde58	0.028914616
228	0xbb1d6f7c	-0.0024022749
229	0xbe174334	-0.1477173
230	0xbe2f8b20	-0.17142916
231	0x3c570a1c	0.013124969
232	0x3d2f2613	0.04276092
233	0x3d297d15	0.041379053
234	0x3d93d2d8	0.0721795
235	0xbde1256d	-0.109934665
236	0x3e199427	0.14997922
237	0xbd1bad6f	-0.038007196
238	0xbbaf14d9	-0.0053430614
239	0xbdcb2e57	-0.09920948
240	0xbd9961fb	-0.074893914
241	0xbb6eea2a	-0.003645549
242	0x3d18535d	0.037188876
243	0xbc8f9ea5	-0.017531702
244	0x3e1ce4d7	0.1532167
245	0x3da42cd5	0.080163635
246	0xbe50719a	-0.20355836
247	0xbb712bc6	-0.0036799773
248	0xbe37fd8f	-0.17967819
249	0xbd5f4529	-0.054509316
250	0xbc6915a4	-0.014226351
251	0xbde42e43	-0.11141636
252	0x3e2157ce	0.15756151
253	0x3cceceff	0.025245188
254	0xbe068420	-0.13136339
255	0x3dae9996	0.08525388
