checkpoints_16_tasks/16_task_groups_PUGCL_optimized/model_6.pth.tar (torch_old, 418685 bytes, 136 tensors)

l1.weight_mu f4 [800, 29]
000000 67 48 99 bd ee d3 43 3d 2e c6 a8 bd ef 8a d8 bc
       -0.07484513 0.047809534 -0.08240925 -0.026433436
000010 e4 ac 11 bd 58 f0 98 bd 6a 50 50 3e 7f 41 6d bd
       -0.035565272 -0.07467717 0.20343176 -0.05792379
000020 b5 eb 1e 3c 72 bb 62 3a 41 24 18 be ff 19 98 3d
       0.009699752 0.00086491473 -0.1485758 0.07426833
000030 5f 86 a8 bd 49 0d 47 3e b3 7a 04 be 3b 51 87 3d
       -0.08228754 0.19438662 -0.12937431 0.0660729
000040 32 02 a2 bd c9 89 3b bd 04 22 37 3e a6 0a 27 be
       -0.07910575 -0.0457857 0.1788407 -0.16312656
000050 f2 79 25 3e 3e f2 b7 bd 0c 09 45 bc ef 67 c6 bd
       0.161598 -0.08981751 -0.012026083 -0.096877925
000060 7f 45 ce 3d 76 c4 7f 3d a9 d9 e3 3d 92 06 5f bd
       0.10071849 0.06244322 0.111255 -0.054449625
000070 e7 c9 98 bd 8e 67 df 3c 33 32 18 3d 98 69 34 3b
       -0.07460385 0.027271058 0.03715725 0.002752876
000080 f0 32 97 3d 52 56 7a 3c df ab 40 3e 26 76 20 3d
       0.073827624 0.015279369 0.18815564 0.039175175
000090 22 84 5f be 6b 1a a0 bc 8b dc c0 3c b6 ae 9a 3d
       -0.21827748 -0.019543847 0.023542663 0.07552855
0000a0 47 9c 1a be ca f3 8f bd 83 7b a4 bd 1c f4 30 be
       -0.15098678 -0.07028921 -0.080313705 -0.1728062
0000b0 40 2c 90 3c ff 58 81 bc e7 83 86 bc 8e ea d8 bd
       0.017599225 -0.015789507 -0.016420318 -0.10591613
0000c0 88 d9 60 3e 85 0d a4 bd 2c 61 62 3d 34 9a b6 3c
       0.21957982 -0.08010391 0.05526845 0.022290327
0000d0 d9 f9 77 3c 8e a5 5d bd c1 d1 22 be 39 e9 aa bd
       0.015135252 -0.054112963 -0.15900327 -0.08345265
0000e0 28 51 ce bd 5e 72 89 bd 96 48 31 be d7 06 e3 3c
       -0.10074073 -0.06711267 -0.17312846 0.027713222
0000f0 72 c5 2d 3d b2 d6 a7 3b 9a fc a4 3d 7e 60 b5 bd
       0.042424627 0.005122029 0.080559924 -0.08856295
000100 3e 49 96 3d 3a 6c 94 ba b9 84 e9 3d 2b e9 be bd
       0.073381886 -0.0011323758 0.11402268 -0.09321817
000110 a7 c4 85 bd 5c 53 94 bd b9 18 98 3d 1b 7d 13 3e
       -0.06531649 -0.07242462 0.074265905 0.14403193
000120 a8 3f 9d 3d d5 32 d1 3d f4 aa ea bd 25 5e 7a 3d
       0.07678157 0.102147736 -0.11458388 0.06112494
000130 e4 e7 d0 bb f8 98 47 bd ed 07 f2 3d 04 60 c6 3a
       -0.0063752998 -0.048729867 0.11817918 0.0015134816
000140 ef 2d 12 be 8b 05 f0 bd d2 db fe 3b 17 8a fe bd
       -0.14275335 -0.11719807 0.0077776695 -0.12428682
000150 fa b9 82 bb 8c 97 91 bd 9a 0b 37 bd bf b4 34 be
       -0.0039894553 -0.071089834 -0.0446888 -0.17647074
000160 b5 5a 5b 3d f0 91 d7 bd 93 b7 ad bd 8d 8d 50 bb
       0.0535533 -0.10525882 -0.0848228 -0.0031822652
000170 46 66 1c 3d c0 23 1e bd 71 75 67 bb d3 85 9a 3c
       0.038183473 -0.038608313 -0.0035317803 0.01886264
000180 66 86 1d 3e 47 0d f0 bd 6b d6 af bd 9f 85 d7 bd
       0.153833 -0.117212825 -0.08585819 -0.10523533
000190 07 6d 97 bd e0 d9 0f 3d b2 89 e5 3d d4 f6 38 3d
       -0.07393842 0.03511989 0.11207904 0.04515727
0001a0 6f 8a 9a bd d7 25 73 3e a5 f5 c2 bd 73 22 60 3e
       -0.07545935 0.23744904 -0.09519509 0.21888141
0001b0 53 d5 21 be 2e a5 07 3e 40 ad b0 3d 6d 06 25 be
       -0.15804033 0.13246605 0.08626795 -0.16115732
0001c0 5e 4d 2a 3e e7 50 01 be 5f c1 15 3e e0 29 87 bc
       0.16631076 -0.12628518 0.14624546 -0.01649946
0001d0 2f 63 16 bd 67 47 26 3d ee 32 60 3d 87 4d 89 3d
       -0.036715683 0.04059544 0.05473607 0.0670424
0001e0 30 b7 37 3d 99 e4 cf 3d 15 ea 16 bb ed 3e a5 3d
       0.044852436 0.101510234 -0.0023027707 0.08068643
0001f0 8e 56 bd bb 29 65 05 bd 80 e0 9b bd 1d 09 81 bd
       -0.0057781404 -0.032567177 -0.07611179 -0.06300566
000200 cd 18 25 3e 74 bd d5 bd 11 57 2e 3e 64 9c b0 3b
       0.16122742 -0.10436526 0.170254 0.005389737
000210 de 0c ea bd 5c 0c 4d 3d 34 54 1f 3d 9c 96 36 3e
       -0.114282355 0.050060615 0.03889866 0.1783089
000220 f4 ad e0 3d a3 ba 21 3e 98 45 d1 3a eb 86 e6 bc
       0.10970679 0.15793853 0.0015966175 -0.028140506
000230 7c 24 3a be 4e 40 47 bd c9 c8 d1 3c d7 4a 00 3e
       -0.1817798 -0.04864531 0.025608437 0.12528549
000240 e7 2c 33 be 41 95 1d 3d ea 70 14 3c cd 56 b6 3d
       -0.17497598 0.038472418 0.009060124 0.08903275
000250 a2 44 47 3c 9f f7 df bc 3b b3 03 3e 47 8c 53 be
       0.012162359 -0.027339755 0.1286134 -0.2065898
000260 9b 46 60 bd e3 dd 03 bd f4 c4 7c bd 64 88 d1 3b
       -0.054754835 -0.03219403 -0.061711267 0.006394433
000270 c1 d8 d3 bd 62 6f 21 3e c8 0d 15 3d 38 ad f0 bd
       -0.10344077 0.15765145 0.036390096 -0.11751789
000280 75 c2 23 3e f1 ed 85 bd 6b 9a ef b9 c7 bf 06 3e
       0.15992148 -0.06539524 -0.00045700683 0.13159095
000290 bd bc 2b be 21 0c 7b 3d ec f4 9a bc 30 e2 84 3a
       -0.16771217 0.061290864 -0.018915616 0.001013821
0002a0 75 3b 88 3d 8b 17 1f be ba f1 e0 bc 79 54 e6 3a
       0.066519655 -0.15536325 -0.027459014 0.0017572782
0002b0 9c ab b1 3d 1a 4c 95 bd d5 a4 ae 3d 64 b0 5f be
       0.0867531 -0.07289906 0.08527533 -0.21844631
0002c0 87 55 33 3d 16 f8 9e bc 8a 2a 72 3c 77 ff 9c 3c
       0.043782737 -0.019405406 0.01478065 0.019164784
0002d0 7c e7 13 3e e0 79 c8 3d 5e e5 49 3e e3 a2 0a bc
       0.14443773 0.09788871 0.19716403 -0.008461687
0002e0 84 e8 e0 bd 4d 41 96 bd 19 4f c5 bb c5 41 76 bd
       -0.10981849 -0.07336674 -0.006021392 -0.060121316
0002f0 ea 06 6e 3c c2 b5 51 3c c6 28 2d b9 f8 e2 d7 bd
       0.014528016 0.012799682 -0.00016513755 -0.10541338
000300 1d 27 1f 3e 6a 25 7b 3d f3 6a fc bc 8e 90 14 bd
       0.15542264 0.061314978 -0.030812716 -0.03627067
000310 3b 83 5a bc 67 42 40 bc 20 4c 94 bc 5e 60 b6 3d
       -0.013336952 -0.011734582 -0.018102705 0.08905099
000320 b0 34 da bc 95 07 6e bd 3a bd 14 3e e3 12 b9 bc
       -0.026636451 -0.0581127 0.14525309 -0.022592014
000330 8d 27 f5 bc f2 a8 34 be 10 69 5d 3c 1a de 5a bd
       -0.029926086 -0.17642573 0.013513818 -0.05343447
000340 f1 27 e9 bb 99 8d fc bb 44 d3 29 bd 69 58 6c bd
       -0.007115357 -0.0077073094 -0.041461244 -0.057701502
000350 92 c5 a8 bd 9f 8d ee bc f8 be 1f 3c fa 15 78 3d
       -0.082408085 -0.029120265 0.00975012 0.060567833
000360 21 c9 54 3d 00 cd d3 3b 41 d9 19 3e a2 0f 7c bd
       0.051949624 0.006463647 0.15024282 -0.061538346
000370 33 49 d4 bc 3c 7a 0b bd 34 d4 3b 3d 64 2e b2 3c
       -0.02591381 -0.03405212 0.04585667 0.021750636
000380 90 73 67 3e 7d 0a cc 3d d3 e2 84 3d e1 99 4d be
       0.22602677 0.09962938 0.06488576 -0.20078231
000390 64 56 25 3d 22 24 01 be ec 69 74 bc 2a 06 08 3e
       0.04036559 -0.1261144 -0.014917832 0.13283601
0003a0 03 aa fc 3d a2 e6 91 bd fd bb cb bc 6f 6e e9 3d
       0.12337115 -0.07124068 -0.024869913 0.11398017
0003b0 01 2f 0c be 61 6a 52 3c d9 ec f9 bd 72 7e af bc
       -0.13689806 0.0128427455 -0.12203378 -0.021422599
0003c0 29 1b d9 3c 07 a0 af 3b 8d 8e d5 3d ac cf 29 3d
       0.026502209 0.005359653 0.1042758 0.041457817
0003d0 ad 1b 41 bd 05 1a b4 3d d8 db 1b 3e 1d bf 18 bd
       -0.047145534 0.08794025 0.15220582 -0.037291635
0003e0 cc f3 1e 3d 1e ba 87 bd 48 5b f3 3d a7 88 34 3d
       0.03880672 -0.06627296 0.11882645 0.044075634
0003f0 ba 43 8d bd 2e a6 5c 3d b6 02 cb 3d f3 79 3b 3c
       -0.068976834 0.05386942 0.099126264 0.011442649

l1.weight_rho f4 [800, 29]
000000 17 37 3d c0 c5 6a 38 c0 bf 9f 3f c0 a2 57 46 c0
       -2.9564874 -2.8815167 -2.9941251 -3.0990987
000010 35 22 3e c0 fd d7 3b c0 3c 20 42 c0 61 00 42 c0
       -2.9708378 -2.9350579 -3.0332174 -3.0312731
000020 62 40 35 c0 09 87 3d c0 7d cc 40 c0 db d3 3c c0
       -2.8320546 -2.961367 -3.012481 -2.9504306
000030 58 37 35 c0 a2 78 40 c0 62 d9 43 c0 2d 04 3a c0
       -2.831503 -3.0073628 -3.060143 -2.9065049
000040 a3 bc 3c c0 f4 1b 39 c0 48 7a 3f c0 72 da 42 c0
       -2.9490135 -2.8923311 -2.9918385 -3.0445828
000050 1e 99 38 c0 73 50 3e c0 63 3c 3b c0 17 a8 3b c0
       -2.8843455 -2.9736602 -2.9255607 -2.9321344
000060 79 66 3d c0 42 24 46 c0 29 87 44 c0 f8 b3 45 c0
       -2.9593794 -3.095963 -3.0707495 -3.0891094
000070 62 65 42 c0 60 56 39 c0 6e 40 3b c0 6f 6c 45 c0
       -3.037438 -2.895897 -2.9258075 -3.0847433
000080 cd f0 3d c0 00 74 3f c0 f4 22 40 c0 f5 c3 3c c0
       -2.9678223 -2.991455 -3.0021334 -2.9494603
000090 19 d4 35 c0 35 6c 46 c0 e2 d0 3e c0 c4 30 3c c0
       -2.8410704 -3.1003544 -2.9814992 -2.9404764
0000a0 54 2a 3a c0 68 b5 46 c0 0b 35 36 c0 4c a3 37 c0
       -2.9088335 -3.1048222 -2.8469875 -2.8693419
0000b0 0d 39 43 c0 d3 d4 46 c0 8e 04 3a c0 e7 bc 3b c0
       -3.050357 -3.1067398 -2.906528 -2.9334047
0000c0 02 e7 47 c0 bb 25 3d c0 20 bb 3f c0 ba 3d 43 c0
       -3.1234746 -2.955428 -2.9957962 -3.0506425
0000d0 d3 be 39 c0 7d 6d 3b c0 8d 8e 3a c0 8f c3 42 c0
       -2.902272 -2.9285576 -2.9149506 -3.043186
0000e0 bc f8 3f c0 5b 59 4c c0 38 9a 40 c0 9b 1f 41 c0
       -2.9995565 -3.1929538 -3.0094128 -3.017554
0000f0 a5 a3 3e c0 e3 b2 37 c0 10 7a 40 c0 a4 57 3b c0
       -2.978738 -2.8702934 -3.00745 -2.9272242
000100 79 3b 4b c0 62 60 29 c0 37 5b 3f c0 bf b9 4a c0
       -3.175505 -2.6465077 -2.9899423 -3.167587
000110 ec 14 42 c0 09 c5 38 c0 a7 c2 44 c0 e6 f1 43 c0
       -3.032527 -2.887026 -3.0743806 -3.0616393
000120 65 4c 40 c0 0d 5b 35 c0 55 3f 41 c0 ca a1 42 c0
       -3.0046628 -2.8336823 -3.0194905 -3.0411248
000130 da a8 3d c0 bb 56 3c c0 53 55 43 c0 a3 50 43 c0
       -2.963431 -2.9427936 -3.0520828 -3.0517967
000140 c8 29 3f c0 a8 8f 40 c0 7b d9 4c c0 42 ee 49 c0
       -2.9869251 -3.008768 -3.200774 -3.155167
000150 d4 17 45 c0 8b 2c 39 c0 d4 fc 36 c0 3c 00 45 c0
       -3.0795794 -2.8933437 -2.8591814 -3.0781393
000160 8c 41 3f c0 72 2e 40 c0 5d ce 46 c0 1d 79 3e c0
       -2.9883757 -3.0028348 -3.1063454 -2.9761422
000170 a4 5a 41 c0 a4 f1 38 c0 b4 9d 42 c0 75 f7 42 c0
       -3.0211573 -2.8897486 -3.0408754 -3.0463536
000180 4a 89 3e c0 58 fd 3a c0 45 87 37 c0 12 86 44 c0
       -2.9771295 -2.9217129 -2.8676312 -3.070683
000190 b6 aa 4a c0 c1 d9 40 c0 6d d2 34 c0 5a 6d 42 c0
       -3.1666694 -3.0132906 -2.8253434 -3.0379243
0001a0 fe 1f 43 c0 71 78 36 c0 34 ea 42 c0 2e 48 3e c0
       -3.0488276 -2.8511012 -3.0455446 -2.9731555
0001b0 37 47 3b c0 3a 37 3f c0 50 91 45 c0 91 4a 41 c0
       -2.9262216 -2.9877458 -3.0869942 -3.0201762
0001c0 e0 88 3c c0 70 19 45 c0 5f fb 3a c0 f9 54 3f c0
       -2.9458542 -3.0796776 -2.9215925 -2.9895613
0001d0 c5 05 47 c0 9c 36 42 c0 19 90 40 c0 c1 eb 38 c0
       -3.1097271 -3.034583 -3.008795 -2.8893893
0001e0 4d 80 43 c0 4f 8e 3d c0 a7 97 36 c0 6a 75 3c c0
       -3.0547059 -2.9618108 -2.8530061 -2.9446664
0001f0 66 88 41 c0 42 ee 41 c0 8b 3c 40 c0 1b a6 42 c0
       -3.02395 -3.030167 -3.0036952 -3.0413883
000200 5e cb 48 c0 1b e2 35 c0 e4 90 3c c0 34 ad 3a c0
       -3.1374125 -2.8419254 -2.9463434 -2.9168215
000210 da fd 3e c0 fa bf 3b c0 df 9e 3f c0 b2 92 3b c0
       -2.9842439 -2.9335923 -2.9940717 -2.9308286
000220 3d d5 44 c0 09 ef 36 c0 b1 8f 4d c0 3f 2c 42 c0
       -3.075515 -2.8583395 -3.2118952 -3.0339506
000230 6b c6 39 c0 66 bc 48 c0 2a 2c 3e c0 47 f3 3a c0
       -2.9027355 -3.136499 -2.9714456 -2.9210985
000240 45 2b 3e c0 4e cf 39 c0 0e 2d 40 c0 42 b4 3b c0
       -2.971391 -2.9032779 -3.00275 -2.932877
000250 51 81 41 c0 ae 6b 3c c0 30 86 3d c0 4b d0 37 c0
       -3.0235178 -2.9440722 -2.9613152 -2.8720882
000260 26 4d 43 c0 a3 82 3c c0 24 13 40 c0 9e a8 43 c0
       -3.0515838 -2.9454734 -3.0011683 -3.0571666
000270 d8 71 39 c0 89 6c 48 c0 8e 63 4c c0 c9 94 36 c0
       -2.8975735 -3.1316245 -3.1935763 -2.8528311
000280 09 f1 4c c0 0e fd 4b c0 90 66 3a c0 b9 4e 3f c0
       -3.2022116 -3.1873202 -2.91251 -2.9891798
000290 6f f0 39 c0 fa 3d 48 c0 75 8b 3d c0 6e d5 42 c0
       -2.9053 -3.1287827 -2.9616368 -3.0442767
0002a0 1f b5 35 c0 56 17 36 c0 71 91 47 c0 21 77 41 c0
       -2.8391798 -2.8451743 -3.118252 -3.022896
0002b0 ac c8 42 c0 79 24 3c c0 78 5a 43 c0 1c 21 44 c0
       -3.043498 -2.939726 -3.0523968 -3.0645208
0002c0 39 bd 42 c0 25 77 40 c0 eb 14 36 c0 a0 fb 4a c0
       -3.0427992 -3.007272 -2.8450267 -3.171608
0002d0 18 0b 38 c0 15 4d 3f c0 cd 41 43 c0 37 04 3d c0
       -2.875677 -2.9890797 -3.0508912 -2.9533823
0002e0 ab d7 42 c0 3a 76 39 c0 cf 30 3e c0 27 fd 40 c0
       -3.0444133 -2.897841 -2.971729 -3.0154512
0002f0 ac 80 45 c0 38 1b 47 c0 5f 0a 3a c0 c3 61 3d c0
       -3.0859785 -3.1110363 -2.906883 -2.959092
000300 ac 1d 41 c0 71 c8 2f c0 e7 15 44 c0 16 3b 3d c0
       -3.017436 -2.746609 -3.0638368 -2.9567313
000310 c5 4e 3e c0 87 a8 38 c0 4b 1a 3a c0 f1 db 42 c0
       -2.9735577 -2.885286 -2.9078548 -3.0446742
000320 09 d7 35 c0 ff f4 4b c0 06 e3 3b c0 72 b1 45 c0
       -2.8412497 -3.1868284 -2.9357314 -3.0889554
000330 b4 42 3e c0 9b 04 41 c0 be 08 42 c0 87 ac 32 c0
       -2.9728212 -3.015906 -3.0317836 -2.7917802
000340 3a 6a 44 c0 f6 2d 3c c0 e6 1c 3e c0 00 82 42 c0
       -3.0689836 -2.9403052 -2.9705138 -3.0391846
000350 46 10 43 c0 b5 fd 35 c0 4f 0c 41 c0 11 92 51 c0
       -3.0478683 -2.84361 -3.0163763 -3.2745402
000360 4d c1 46 c0 77 7b 35 c0 68 68 4c c0 24 97 40 c0
       -3.1055481 -2.8356607 -3.1938725 -3.009225
000370 8d eb 3b c0 0d 8a 40 c0 1f e4 41 c0 79 73 39 c0
       -2.9362519 -3.008426 -3.0295484 -2.897673
000380 e8 64 3b c0 63 ac 4a c0 ee 51 4d c0 8d db 45 c0
       -2.9280338 -3.1667717 -3.2081256 -3.0915253
000390 b6 4e 42 c0 70 1e 3f c0 7d 91 38 c0 79 4c 43 c0
       -3.0360541 -2.9862328 -2.88388 -3.0515425
0003a0 2b 02 41 c0 bf 2a 39 c0 45 a1 40 c0 48 70 2c c0
       -3.0157573 -2.893234 -3.009843 -2.694353
0003b0 f1 53 47 c0 50 9f 43 c0 5f c4 3d c0 e3 64 3e c0
       -3.1144984 -3.0565987 -2.9651105 -2.9749076
0003c0 9d 21 3c c0 46 77 39 c0 e6 86 40 c0 5c 13 41 c0
       -2.9395516 -2.8979049 -3.0082335 -3.0168066
0003d0 63 d1 41 c0 ce 81 3a c0 3e 2c 43 c0 09 fe 46 c0
       -3.028405 -2.9141726 -3.0495753 -3.109255
0003e0 ad a2 3e c0 22 21 45 c0 86 09 3f c0 7d e6 43 c0
       -2.978679 -3.0801473 -2.9849563 -3.060943
0003f0 b3 01 43 c0 bc d5 48 c0 51 aa 38 c0 19 80 3e c0
       -3.0469787 -3.1380453 -2.8853953 -2.9765685

l1.bias_mu f4 [800]
000000 2b 3c 38 3e e7 10 3d be 0e 66 3c bc 58 8a 0e 3e
       0.17991702 -0.18463479 -0.011498941 0.13919961
000010 60 c1 c3 3c eb df 00 be a1 82 11 3d d3 a8 4d bd
       0.02389592 -0.12585418 0.035524968 -0.05020983
000020 ed 40 be 3d e0 a6 69 3b 7e 13 c7 bd a9 98 05 3d
       0.09289727 0.0035652444 -0.09720515 0.03261629
000030 5a 7d 2b be 0b a6 79 bc b7 3b 1f bc c2 03 e1 bd
       -0.16747037 -0.015237342 -0.009718827 -0.10987045
000040 97 0d 81 3a 03 3c b4 bc 7c 17 2e be 38 45 a4 3d
       0.0009845969 -0.022001272 -0.17001146 0.08021015
000050 95 ea 19 3d 02 ac c5 bd ed fd 41 be f0 4b bd 3d
       0.03757723 -0.096519485 -0.18944521 0.092429996
000060 4a 71 35 be eb cc 83 3d 69 7d 4c be 96 21 61 bd
       -0.17718998 0.064355694 -0.19969715 -0.05496367
000070 13 6c d7 3c fd 1f 8a bb 26 53 f5 bd 19 34 0d 3e
       0.026296651 -0.004215239 -0.1197875 0.13789405
000080 bd 22 af bd 40 b5 95 bd 28 bc bf 3d bd 30 f8 3d
       -0.08551548 -0.07309961 0.0936206 0.12118671
000090 d7 e0 cf 3d 87 81 bf bd 7a a5 17 bc 32 17 3a 3d
       0.10150307 -0.09350877 -0.009255761 0.045432277
0000a0 74 82 94 be 87 e7 6d 3e 79 d5 b7 bc e4 0c 05 bd
       -0.29005778 0.23232852 -0.022440659 -0.032482997
0000b0 96 c8 8d bd 68 45 af bd 31 75 ab bd 88 ff ac 3c
       -0.06923024 -0.0855816 -0.08371962 0.02111794
0000c0 d7 4f 91 bd 58 fc d7 3d 3a 59 cb bd 97 c0 8d 3c
       -0.07095306 0.105461776 -0.09929128 0.017303748
0000d0 51 15 a1 3e 64 77 8e 3b e3 79 2e 3e 7b 5c 5d 3d
       0.31461576 0.0043477286 0.17038684 0.054043274
0000e0 45 54 6c 3b f6 48 93 bd dd 6f 8d 3c 2b ef 99 bd
       0.003606097 -0.071916506 0.017265255 -0.07516321
0000f0 ed 99 5d bd 7b 37 8e 3b eb 16 e5 bd f3 2c 4e bd
       -0.054101873 0.00434011 -0.11186012 -0.050335836
000100 30 6a 30 bd 03 ac f1 bc b4 3c 00 3e 89 f6 b4 3d
       -0.04307002 -0.029500967 0.12523156 0.08836085
000110 40 bc eb 3d 75 37 60 be 0a a0 29 be 55 3a 49 3c
       0.11510515 -0.21896155 -0.16564956 0.012281974
000120 47 b4 d3 bc 97 19 53 3d f8 de e3 3d 81 9a 30 bc
       -0.025842799 0.051538076 0.11126512 -0.010779024
000130 54 f5 2f be 14 76 8b 3e 18 f1 b3 bd 3c 6c 7a bd
       -0.17183429 0.27238524 -0.08786219 -0.061138377
000140 40 4e 7a 3c 1c 9a 7e bd 26 03 12 3e 00 28 2e 3e
       0.015277445 -0.06215869 0.14259014 0.17007446
000150 2f a7 bd bd b7 ec 47 be ba 9e 04 be 53 74 95 bc
       -0.09260403 -0.19523893 -0.12951174 -0.018243944
000160 59 dd 97 bd 6e 76 0c bd c0 8d 5c bc 30 86 20 be
       -0.074152656 -0.03429263 -0.01346153 -0.15676188
000170 a6 69 22 3b 71 78 10 be 5e 68 a7 bc 3f e8 1b 3e
       0.002478221 -0.14108445 -0.020435508 0.15225314
000180 29 7b 17 3e 64 e2 32 3e d7 10 36 3d 7c 6f 9e 3c
       0.14793076 0.17469174 0.044449653 0.01934027
000190 ce 59 a3 3d 92 6f 34 3e f3 66 f5 bc b8 64 30 3b
       0.07976113 0.17620686 -0.029956317 0.0026915502
0001a0 01 09 37 bc 77 59 d5 3d b9 8e 5d bd 74 61 ae 3d
       -0.01117158 0.10417455 -0.05409119 0.085146815
0001b0 37 32 13 3a 0c 4c 68 bc b7 75 dc bd ce 82 b4 3d
       0.00056150876 -0.014178287 -0.1076464 0.088140115
0001c0 96 dd d7 bc 67 75 7d 3c be 59 4f be 5e bf a2 3d
       -0.026350778 0.015469885 -0.20249078 0.07946657
0001d0 c2 16 9e bb a0 51 d3 ba ce ea 07 3d f1 5f fd bd
       -0.0048244903 -0.0016122349 0.03318291 -0.12371815
0001e0 4b da 8c bb 72 69 b8 3c 0e 5c 7e 3d ec 6e 08 be
       -0.0042984835 0.022511218 0.06209951 -0.13323563
0001f0 cf 71 ed bd 82 e0 f9 bd 75 14 cb 3c f7 c7 98 bd
       -0.11593973 -0.122010246 0.024790028 -0.07460015
000200 92 a7 8c bb 92 73 85 bd d5 7a 38 3d cb 14 fc bc
       -0.004292437 -0.06516184 0.045039017 -0.030771634
000210 e8 e4 07 be 2b 19 9d 3c 6a 32 97 bc dc 38 09 3e
       -0.13270915 0.01917704 -0.018456656 0.13400596
000220 cf 0a 1c 3d ee 07 87 3e c8 92 98 ba f2 c2 67 bc
       0.038096245 0.26373237 -0.0011640424 -0.0141456
000230 07 1d 0a 3d bb 2f 41 3e 2b 25 9f bd 08 c7 3d 3d
       0.03371909 0.18865864 -0.07770761 0.04633239
000240 0c 42 8e 3d 9f 2e 17 be 0a fe 82 bd 31 f5 3c be
       0.06946191 -0.14763878 -0.0639611 -0.18452908
000250 c6 9b e6 bc 64 7a 05 3e e2 82 4f be b2 1f 82 3e
       -0.02815045 0.1303497 -0.20264772 0.25414807
000260 31 3c 54 be 0b 9b fe 3c 12 8c bb bd 65 41 56 3d
       -0.20726086 0.03107979 -0.09157576 0.05230846
000270 07 3a 57 be 20 84 a4 bd 17 21 ca bd 7f 62 54 3e
       -0.2101823 -0.08033013 -0.09869593 0.20740698
000280 fa ef b3 bc 59 c3 3b 3d 65 82 33 be 0f a7 d8 3d
       -0.021965016 0.045840595 -0.1753021 0.10578739
000290 cd 2c a2 3d 93 1b 84 3c b6 54 53 3b 77 bd 3c 3e
       0.07918701 0.01612643 0.0032246537 0.1843165
0002a0 b0 07 f8 3b 68 f1 f0 bc 58 4f 21 3c fb d6 f0 3d
       0.007569276 -0.029411986 0.009845577 0.11759754
0002b0 db 45 c0 3d 00 de bc bc b5 03 80 3e 0f 0e 41 3d
       0.09388324 -0.023055077 0.25002828 0.047132548
0002c0 73 25 bb ba c1 71 42 3c f0 07 b6 3d 11 05 47 3e
       -0.0014278129 0.011867941 0.08888233 0.19435526
0002d0 04 d7 32 bd bc a7 42 3e ce b5 3f be 6c 51 ba bc
       -0.043662086 0.19009298 -0.18721697 -0.022743903
0002e0 5a e3 a8 be 04 19 76 bd 44 52 11 3e ec 6e 91 3c
       -0.32985955 -0.06008245 0.14191538 0.017753087
0002f0 fc 84 a8 3c 9e f3 de 3d 9d d2 0e 3e 92 59 ea bd
       0.020571224 0.1088631 0.1394753 -0.114428654
000300 51 9d 21 3e f5 a9 65 3d ac 64 a1 bd 65 a7 7d 3d
       0.15782668 0.056070287 -0.0788053 0.061927218
000310 0d 4f d7 bd e6 44 65 3d 5d 85 10 3d 99 11 79 3c
       -0.105131246 0.05597391 0.035283435 0.0152019495
000320 37 59 d9 3c a6 75 93 3d 61 0c dc 3d 78 1f b2 3d
       0.026531799 0.07200174 0.107445486 0.086974084
000330 20 c5 ac bd 49 1c 09 be 4b a6 14 bd 49 e4 02 be
       -0.08436036 -0.13389696 -0.0362914 -0.12782396
000340 07 64 28 3e 1a 43 10 be 34 47 a5 bd cf fb 0b 3d
       0.16444407 -0.14088097 -0.080702215 0.03417569
000350 f2 6a 61 3e 5d 8e d8 bb 1b fc 4e be 68 5c 22 3e
       0.22013453 -0.006608768 -0.20213358 0.15855563
000360 13 0d 4c be 35 dd 62 be 06 51 4b bd 70 2e 83 3c
       -0.19926862 -0.22154696 -0.049637817 0.016013354
000370 ec b5 f2 bc 2f 66 80 3d a7 43 e0 3d 87 e1 84 bc
       -0.029627763 0.0626949 0.10950404 -0.016220821
000380 4e 2c 2a bd 1b 70 df bc 0a ca 8c bd db 8c 9b 3d
       -0.04154616 -0.027275136 -0.068744734 0.075952254
000390 6c 04 43 3e d2 b7 1d 3e 48 f6 c7 3b 13 05 b7 bb
       0.19044656 0.15402153 0.006102357 -0.0055853217
0003a0 a4 6d a6 3c 9d b8 7c 3e 84 de 9f 3d 34 80 7d bc
       0.020315953 0.246798 0.07806113 -0.015472461
0003b0 12 fc 1e be db c5 02 3e 29 29 d4 bb ee 48 fc 3c
       -0.15525845 0.12770788 -0.0064746332 0.030796494
0003c0 9a 18 f6 3c 07 58 18 3e 95 ca b4 bd 19 f6 c5 3d
       0.030041028 0.1487733 -0.08827702 0.0966608
0003d0 1d 7d 63 3b ea 97 26 3e e9 ec b5 bd 93 56 e4 3d
       0.0034712024 0.16268888 -0.08883078 0.11149325
0003e0 59 c3 f4 bd 29 06 85 3d 97 e2 25 3e f3 68 39 bc
       -0.11951322 0.064953156 0.16199718 -0.011316526
0003f0 26 2b 95 3c a5 42 30 bb 81 9c b5 3d 4b 4a 4e bd
       0.018209051 -0.0026895192 0.088677414 -0.05036382

l1.bias_rho f4 [800]
000000 a6 34 43 c0 d5 ba 3e c0 87 cd 36 c0 96 fd 3c c0
       -3.0500884 -2.9801533 -2.8562944 -2.9529777
000010 2e 80 3c c0 ca 8c 3d c0 5e f9 46 c0 71 9e 37 c0
       -2.9453235 -2.961718 -3.1089702 -2.8690455
000020 7b b5 3e c0 67 02 3f c0 ec 93 3d c0 fb ce 45 c0
       -2.9798267 -2.9845216 -2.9621534 -3.090758
000030 bb ae 40 c0 45 b0 4b c0 0a e4 40 c0 d0 33 37 c0
       -3.0106647 -3.1826336 -3.0139184 -2.8625374
000040 b2 a4 39 c0 b8 de 41 c0 da ef 43 c0 6b d5 41 c0
       -2.9006772 -3.0292187 -3.0615144 -3.028651
000050 a7 af 3e c0 e3 1b 44 c0 10 1f 3d c0 79 51 3b c0
       -2.979471 -3.064202 -2.955021 -2.9268477
000060 c9 f4 4a c0 21 e8 34 c0 b2 1d 40 c0 e9 de 3d c0
       -3.1711905 -2.826668 -3.0018125 -2.9667304
000070 eb 10 43 c0 2e 27 38 c0 44 62 43 c0 d6 59 45 c0
       -3.0479076 -2.8773913 -3.0528727 -3.0836082
000080 dd e4 37 c0 6b 2a 43 c0 2d ca 33 c0 34 b0 32 c0
       -2.8733437 -3.049464 -2.8092148 -2.7920046
000090 19 5a 33 c0 99 e5 3d c0 5d ad 3e c0 90 45 3f c0
       -2.8023741 -2.9671385 -2.9793313 -2.9886208
0000a0 e7 41 3c c0 ae e0 3b c0 08 58 3d c0 d4 80 42 c0
       -2.9415224 -2.9355884 -2.958498 -3.039113
0000b0 1f e2 38 c0 59 a5 43 c0 1a b9 35 c0 60 a5 41 c0
       -2.8888013 -3.056967 -2.8394227 -3.0257187
0000c0 53 ef 36 c0 f6 b2 46 c0 47 0c 37 c0 a4 b7 3b c0
       -2.8583572 -3.104673 -2.8601243 -2.9330835
0000d0 33 5a 33 c0 f9 5d 4d c0 c6 5a 50 c0 c9 97 45 c0
       -2.8023803 -3.2088606 -3.2555404 -3.0873892
0000e0 b6 4a 42 c0 f9 86 2c c0 b6 9e 37 c0 68 8f 3a c0
       -3.03581 -2.695738 -2.869062 -2.9150028
0000f0 31 ca 3f c0 0e c9 3f c0 69 f5 41 c0 d7 e0 4b c0
       -2.9967158 -2.9966464 -3.0306036 -3.1855981
000100 87 50 42 c0 ae 17 42 c0 1f 9b 40 c0 f0 53 3d c0
       -3.036165 -3.0326953 -3.0094678 -2.9582481
000110 05 86 3c c0 61 2a 39 c0 91 59 36 c0 95 64 44 c0
       -2.94568 -2.8932116 -2.8492167 -3.068639
000120 e9 cf 45 c0 ca 7d 3f c0 d4 e5 38 c0 c1 e6 4a c0
       -3.0908148 -2.9920526 -2.8890276 -3.170334
000130 96 c5 3d c0 83 01 42 c0 f0 c0 43 c0 25 61 3e c0
       -2.9651847 -3.0313423 -3.058651 -2.9746792
000140 32 85 48 c0 91 ea 38 c0 3a 36 46 c0 55 d5 3f c0
       -3.1331296 -2.8893168 -3.0970597 -2.9973958
000150 3c fd 39 c0 cb 3e 44 c0 f1 52 3e c0 94 3b 42 c0
       -2.9060812 -3.0663326 -2.9738123 -3.0348864
000160 87 06 39 c0 60 c2 3b c0 4d 97 41 c0 05 87 49 c0
       -2.8910234 -2.9337387 -3.0248597 -3.148866
000170 1f 60 3b c0 a3 0d 49 c0 7e 4d 3c c0 5f 3b 47 c0
       -2.9277418 -3.1414573 -2.9422297 -3.1129987
000180 e3 12 40 c0 8b c5 39 c0 45 68 3c c0 da 68 4d c0
       -3.0011528 -2.902682 -2.943864 -3.2095246
000190 43 46 3a c0 c3 9c 43 c0 83 28 39 c0 88 ef 39 c0
       -2.9105384 -3.056443 -2.8930976 -2.9052448
0001a0 f8 92 3b c0 9a 9b 3b c0 58 88 46 c0 b6 6b 48 c0
       -2.9308453 -2.9313722 -3.1020718 -3.1315742
0001b0 6a 12 48 c0 3d a7 3c c0 67 42 2f c0 1e 27 41 c0
       -3.126124 -2.9477074 -2.7384279 -3.0180125
0001c0 78 b3 3f c0 ac d8 3e c0 26 39 3f c0 f9 dc 34 c0
       -2.995329 -2.9819746 -2.987863 -2.825987
0001d0 f6 09 44 c0 1a b8 3d c0 50 32 38 c0 a9 6e 3e c0
       -3.063108 -2.9643617 -2.8780708 -2.9755042
0001e0 81 8f 45 c0 a0 44 38 c0 b1 a4 3e c0 38 09 45 c0
       -3.0868838 -2.8791885 -2.978802 -3.0786877
0001f0 a7 61 3a c0 de 80 3f c0 67 db 43 c0 28 c9 4a c0
       -2.9122102 -2.9922404 -3.0602663 -3.1685276
000200 2c ef 45 c0 82 0b 35 c0 b2 5f 2e c0 c8 dd 3d c0
       -3.092723 -2.8288274 -2.7245908 -2.9666615
000210 24 bf 45 c0 53 62 40 c0 d3 92 41 c0 03 ef 3d c0
       -3.0897913 -3.0060012 -3.0245864 -2.967713
000220 a6 47 3d c0 e1 f7 40 c0 c7 38 48 c0 a7 7d 39 c0
       -2.957498 -3.0151293 -3.1284654 -2.8982942
000230 ec 81 40 c0 6a 69 33 c0 ae 23 37 c0 12 31 3e c0
       -3.0079298 -2.803309 -2.8615527 -2.971745
000240 66 af 43 c0 1c 4b 38 c0 74 2a 36 c0 0c 51 47 c0
       -3.0575805 -2.8795843 -2.8463411 -3.1143217
000250 13 df 4b c0 ec 02 48 c0 b4 30 40 c0 c6 85 38 c0
       -3.1854904 -3.1251783 -3.0029726 -2.883165
000260 9a 44 45 c0 8e 20 42 c0 8a 0e 38 c0 e3 a1 49 c0
       -3.082312 -3.033237 -2.8758874 -3.1505058
000270 2c c0 46 c0 99 48 39 c0 44 98 3e c0 5f 99 45 c0
       -3.1054792 -2.895056 -2.9780436 -3.087486
000280 6b 92 40 c0 66 30 42 c0 ff 46 38 c0 ff b7 3d c0
       -3.0089366 -3.034204 -2.8793333 -2.9643552
000290 77 02 4b c0 5a ef 40 c0 79 93 38 c0 05 d4 40 c0
       -3.1720254 -3.0146089 -2.884001 -3.0129406
0002a0 aa 99 43 c0 18 a7 3c c0 34 d7 3e c0 70 d4 48 c0
       -3.056254 -2.9476986 -2.981885 -3.1379662
0002b0 6c 2c 3c c0 7a 12 42 c0 c5 d8 4c c0 fe 9c 42 c0
       -2.9402113 -3.0323777 -3.2007306 -3.040832
0002c0 be b0 3c c0 4a 69 44 c0 14 3c 42 c0 85 22 38 c0
       -2.9482875 -3.0689263 -3.0349169 -2.877107
0002d0 86 1a 38 c0 62 b4 3a c0 f9 1b 45 c0 1e de 45 c0
       -2.8766189 -2.9172597 -3.0798323 -3.091682
0002e0 44 b0 33 c0 07 ea 47 c0 49 a4 3e c0 cc 06 39 c0
       -2.8076334 -3.123659 -2.9787772 -2.8910398
0002f0 0c ed 3d c0 83 c3 47 c0 d8 b3 41 c0 c0 bb 43 c0
       -2.9675932 -3.121308 -3.0266018 -3.0583344
000300 17 ef 3c c0 df a8 47 c0 83 68 41 c0 cc e9 42 c0
       -2.952093 -3.119682 -3.022004 -3.0455198
000310 ad a4 41 c0 96 cf 45 c0 6e f1 45 c0 7d 93 3e c0
       -3.025676 -3.090795 -3.0928607 -2.977752
000320 11 18 45 c0 a9 54 4c c0 0f ad 39 c0 bb 7d 42 c0
       -3.079594 -3.1926672 -2.9011877 -3.038924
000330 18 77 3f c0 9f 5e 4b c0 43 72 3c c0 74 9a 43 c0
       -2.991644 -3.1776502 -2.944474 -3.056302
000340 b2 6e 45 c0 43 d6 36 c0 e2 4e 42 c0 46 a0 40 c0
       -3.0848813 -2.8568275 -3.0360646 -3.0097823
000350 4d 7a 3b c0 1b 06 3f c0 60 aa 43 c0 a2 83 3e c0
       -2.9293396 -2.9847476 -3.0572739 -2.9767842
000360 7d a6 44 c0 ad a2 3d c0 df 5a 41 c0 a6 58 37 c0
       -3.0726616 -2.963054 -3.0211713 -2.8647857
000370 54 86 3f c0 4f d5 41 c0 24 5e 37 c0 2d fb 3e c0
       -2.9925737 -3.0286443 -2.865121 -2.9840806
000380 72 6f 47 c0 c8 c4 49 c0 cd 7f 38 c0 d8 f1 3b c0
       -3.116177 -3.1526356 -2.8828003 -2.936636
000390 cf ce 3f c0 8f df 38 c0 a6 1e 3f c0 1f 94 4b c0
       -2.9969976 -2.888645 -2.9862456 -3.1809156
0003a0 cf 48 35 c0 47 ad 3a c0 44 3b 41 c0 2b 8b 42 c0
       -2.832569 -2.916826 -3.0192423 -3.0397441
0003b0 5f 9f 34 c0 26 5f 3d c0 65 54 4b c0 c5 1b 3a c0
       -2.8222272 -2.9589324 -3.177026 -2.907945
0003c0 31 3f 43 c0 05 42 40 c0 c9 68 3e c0 58 c0 39 c0
       -3.050732 -3.0040295 -2.9751456 -2.9023647
0003d0 ab d2 46 c0 ca 09 3f c0 ba a3 39 c0 38 3b 48 c0
       -3.1066082 -2.9849725 -2.900618 -3.1286144
0003e0 df f5 3a c0 cf a2 3e c0 1d 08 43 c0 65 d8 39 c0
       -2.9212568 -2.978687 -3.0473702 -2.9038327
0003f0 64 8e 3e c0 2a 1d 3b c0 d7 37 3b c0 01 85 3d c0
       -2.9774408 -2.923655 -2.9252832 -2.961243

l1.weight.mu f4 [800, 29]
000000 67 48 99 bd ee d3 43 3d 2e c6 a8 bd ef 8a d8 bc
       -0.07484513 0.047809534 -0.08240925 -0.026433436
000010 e4 ac 11 bd 58 f0 98 bd 6a 50 50 3e 7f 41 6d bd
       -0.035565272 -0.07467717 0.20343176 -0.05792379
000020 b5 eb 1e 3c 72 bb 62 3a 41 24 18 be ff 19 98 3d
       0.009699752 0.00086491473 -0.1485758 0.07426833
000030 5f 86 a8 bd 49 0d 47 3e b3 7a 04 be 3b 51 87 3d
       -0.08228754 0.19438662 -0.12937431 0.0660729
000040 32 02 a2 bd c9 89 3b bd 04 22 37 3e a6 0a 27 be
       -0.07910575 -0.0457857 0.1788407 -0.16312656
000050 f2 79 25 3e 3e f2 b7 bd 0c 09 45 bc ef 67 c6 bd
       0.161598 -0.08981751 -0.012026083 -0.096877925
000060 7f 45 ce 3d 76 c4 7f 3d a9 d9 e3 3d 92 06 5f bd
       0.10071849 0.06244322 0.111255 -0.054449625
000070 e7 c9 98 bd 8e 67 df 3c 33 32 18 3d 98 69 34 3b
       -0.07460385 0.027271058 0.03715725 0.002752876
000080 f0 32 97 3d 52 56 7a 3c df ab 40 3e 26 76 20 3d
       0.073827624 0.015279369 0.18815564 0.039175175
000090 22 84 5f be 6b 1a a0 bc 8b dc c0 3c b6 ae 9a 3d
       -0.21827748 -0.019543847 0.023542663 0.07552855
0000a0 47 9c 1a be ca f3 8f bd 83 7b a4 bd 1c f4 30 be
       -0.15098678 -0.07028921 -0.080313705 -0.1728062
0000b0 40 2c 90 3c ff 58 81 bc e7 83 86 bc 8e ea d8 bd
       0.017599225 -0.015789507 -0.016420318 -0.10591613
0000c0 88 d9 60 3e 85 0d a4 bd 2c 61 62 3d 34 9a b6 3c
       0.21957982 -0.08010391 0.05526845 0.022290327
0000d0 d9 f9 77 3c 8e a5 5d bd c1 d1 22 be 39 e9 aa bd
       0.015135252 -0.054112963 -0.15900327 -0.08345265
0000e0 28 51 ce bd 5e 72 89 bd 96 48 31 be d7 06 e3 3c
       -0.10074073 -0.06711267 -0.17312846 0.027713222
0000f0 72 c5 2d 3d b2 d6 a7 3b 9a fc a4 3d 7e 60 b5 bd
       0.042424627 0.005122029 0.080559924 -0.08856295
000100 3e 49 96 3d 3a 6c 94 ba b9 84 e9 3d 2b e9 be bd
       0.073381886 -0.0011323758 0.11402268 -0.09321817
000110 a7 c4 85 bd 5c 53 94 bd b9 18 98 3d 1b 7d 13 3e
       -0.06531649 -0.07242462 0.074265905 0.14403193
000120 a8 3f 9d 3d d5 32 d1 3d f4 aa ea bd 25 5e 7a 3d
       0.07678157 0.102147736 -0.11458388 0.06112494
000130 e4 e7 d0 bb f8 98 47 bd ed 07 f2 3d 04 60 c6 3a
       -0.0063752998 -0.048729867 0.11817918 0.0015134816
000140 ef 2d 12 be 8b 05 f0 bd d2 db fe 3b 17 8a fe bd
       -0.14275335 -0.11719807 0.0077776695 -0.12428682
000150 fa b9 82 bb 8c 97 91 bd 9a 0b 37 bd bf b4 34 be
       -0.0039894553 -0.071089834 -0.0446888 -0.17647074
000160 b5 5a 5b 3d f0 91 d7 bd 93 b7 ad bd 8d 8d 50 bb
       0.0535533 -0.10525882 -0.0848228 -0.0031822652
000170 46 66 1c 3d c0 23 1e bd 71 75 67 bb d3 85 9a 3c
       0.038183473 -0.038608313 -0.0035317803 0.01886264
000180 66 86 1d 3e 47 0d f0 bd 6b d6 af bd 9f 85 d7 bd
       0.153833 -0.117212825 -0.08585819 -0.10523533
000190 07 6d 97 bd e0 d9 0f 3d b2 89 e5 3d d4 f6 38 3d
       -0.07393842 0.03511989 0.11207904 0.04515727
0001a0 6f 8a 9a bd d7 25 73 3e a5 f5 c2 bd 73 22 60 3e
       -0.07545935 0.23744904 -0.09519509 0.21888141
0001b0 53 d5 21 be 2e a5 07 3e 40 ad b0 3d 6d 06 25 be
       -0.15804033 0.13246605 0.08626795 -0.16115732
0001c0 5e 4d 2a 3e e7 50 01 be 5f c1 15 3e e0 29 87 bc
       0.16631076 -0.12628518 0.14624546 -0.01649946
0001d0 2f 63 16 bd 67 47 26 3d ee 32 60 3d 87 4d 89 3d
       -0.036715683 0.04059544 0.05473607 0.0670424
0001e0 30 b7 37 3d 99 e4 cf 3d 15 ea 16 bb ed 3e a5 3d
       0.044852436 0.101510234 -0.0023027707 0.08068643
0001f0 8e 56 bd bb 29 65 05 bd 80 e0 9b bd 1d 09 81 bd
       -0.0057781404 -0.032567177 -0.07611179 -0.06300566
000200 cd 18 25 3e 74 bd d5 bd 11 57 2e 3e 64 9c b0 3b
       0.16122742 -0.10436526 0.170254 0.005389737
000210 de 0c ea bd 5c 0c 4d 3d 34 54 1f 3d 9c 96 36 3e
       -0.114282355 0.050060615 0.03889866 0.1783089
000220 f4 ad e0 3d a3 ba 21 3e 98 45 d1 3a eb 86 e6 bc
       0.10970679 0.15793853 0.0015966175 -0.028140506
000230 7c 24 3a be 4e 40 47 bd c9 c8 d1 3c d7 4a 00 3e
       -0.1817798 -0.04864531 0.025608437 0.12528549
000240 e7 2c 33 be 41 95 1d 3d ea 70 14 3c cd 56 b6 3d
       -0.17497598 0.038472418 0.009060124 0.08903275
000250 a2 44 47 3c 9f f7 df bc 3b b3 03 3e 47 8c 53 be
       0.012162359 -0.027339755 0.1286134 -0.2065898
000260 9b 46 60 bd e3 dd 03 bd f4 c4 7c bd 64 88 d1 3b
       -0.054754835 -0.03219403 -0.061711267 0.006394433
000270 c1 d8 d3 bd 62 6f 21 3e c8 0d 15 3d 38 ad f0 bd
       -0.10344077 0.15765145 0.036390096 -0.11751789
000280 75 c2 23 3e f1 ed 85 bd 6b 9a ef b9 c7 bf 06 3e
       0.15992148 -0.06539524 -0.00045700683 0.13159095
000290 bd bc 2b be 21 0c 7b 3d ec f4 9a bc 30 e2 84 3a
       -0.16771217 0.061290864 -0.018915616 0.001013821
0002a0 75 3b 88 3d 8b 17 1f be ba f1 e0 bc 79 54 e6 3a
       0.066519655 -0.15536325 -0.027459014 0.0017572782
0002b0 9c ab b1 3d 1a 4c 95 bd d5 a4 ae 3d 64 b0 5f be
       0.0867531 -0.07289906 0.08527533 -0.21844631
0002c0 87 55 33 3d 16 f8 9e bc 8a 2a 72 3c 77 ff 9c 3c
       0.043782737 -0.019405406 0.01478065 0.019164784
0002d0 7c e7 13 3e e0 79 c8 3d 5e e5 49 3e e3 a2 0a bc
       0.14443773 0.09788871 0.19716403 -0.008461687
0002e0 84 e8 e0 bd 4d 41 96 bd 19 4f c5 bb c5 41 76 bd
       -0.10981849 -0.07336674 -0.006021392 -0.060121316
0002f0 ea 06 6e 3c c2 b5 51 3c c6 28 2d b9 f8 e2 d7 bd
       0.014528016 0.012799682 -0.00016513755 -0.10541338
000300 1d 27 1f 3e 6a 25 7b 3d f3 6a fc bc 8e 90 14 bd
       0.15542264 0.061314978 -0.030812716 -0.03627067
000310 3b 83 5a bc 67 42 40 bc 20 4c 94 bc 5e 60 b6 3d
       -0.013336952 -0.011734582 -0.018102705 0.08905099
000320 b0 34 da bc 95 07 6e bd 3a bd 14 3e e3 12 b9 bc
       -0.026636451 -0.0581127 0.14525309 -0.022592014
000330 8d 27 f5 bc f2 a8 34 be 10 69 5d 3c 1a de 5a bd
       -0.029926086 -0.17642573 0.013513818 -0.05343447
000340 f1 27 e9 bb 99 8d fc bb 44 d3 29 bd 69 58 6c bd
       -0.007115357 -0.0077073094 -0.041461244 -0.057701502
000350 92 c5 a8 bd 9f 8d ee bc f8 be 1f 3c fa 15 78 3d
       -0.082408085 -0.029120265 0.00975012 0.060567833
000360 21 c9 54 3d 00 cd d3 3b 41 d9 19 3e a2 0f 7c bd
       0.051949624 0.006463647 0.15024282 -0.061538346
000370 33 49 d4 bc 3c 7a 0b bd 34 d4 3b 3d 64 2e b2 3c
       -0.02591381 -0.03405212 0.04585667 0.021750636
000380 90 73 67 3e 7d 0a cc 3d d3 e2 84 3d e1 99 4d be
       0.22602677 0.09962938 0.06488576 -0.20078231
000390 64 56 25 3d 22 24 01 be ec 69 74 bc 2a 06 08 3e
       0.04036559 -0.1261144 -0.014917832 0.13283601
0003a0 03 aa fc 3d a2 e6 91 bd fd bb cb bc 6f 6e e9 3d
       0.12337115 -0.07124068 -0.024869913 0.11398017
0003b0 01 2f 0c be 61 6a 52 3c d9 ec f9 bd 72 7e af bc
       -0.13689806 0.0128427455 -0.12203378 -0.021422599
0003c0 29 1b d9 3c 07 a0 af 3b 8d 8e d5 3d ac cf 29 3d
       0.026502209 0.005359653 0.1042758 0.041457817
0003d0 ad 1b 41 bd 05 1a b4 3d d8 db 1b 3e 1d bf 18 bd
       -0.047145534 0.08794025 0.15220582 -0.037291635
0003e0 cc f3 1e 3d 1e ba 87 bd 48 5b f3 3d a7 88 34 3d
       0.03880672 -0.06627296 0.11882645 0.044075634
0003f0 ba 43 8d bd 2e a6 5c 3d b6 02 cb 3d f3 79 3b 3c
       -0.068976834 0.05386942 0.099126264 0.011442649

l1.weight.rho f4 [800, 29]
000000 17 37 3d c0 c5 6a 38 c0 bf 9f 3f c0 a2 57 46 c0
       -2.9564874 -2.8815167 -2.9941251 -3.0990987
000010 35 22 3e c0 fd d7 3b c0 3c 20 42 c0 61 00 42 c0
       -2.9708378 -2.9350579 -3.0332174 -3.0312731
000020 62 40 35 c0 09 87 3d c0 7d cc 40 c0 db d3 3c c0
       -2.8320546 -2.961367 -3.012481 -2.9504306
000030 58 37 35 c0 a2 78 40 c0 62 d9 43 c0 2d 04 3a c0
       -2.831503 -3.0073628 -3.060143 -2.9065049
000040 a3 bc 3c c0 f4 1b 39 c0 48 7a 3f c0 72 da 42 c0
       -2.9490135 -2.8923311 -2.9918385 -3.0445828
000050 1e 99 38 c0 73 50 3e c0 63 3c 3b c0 17 a8 3b c0
       -2.8843455 -2.9736602 -2.9255607 -2.9321344
000060 79 66 3d c0 42 24 46 c0 29 87 44 c0 f8 b3 45 c0
       -2.9593794 -3.095963 -3.0707495 -3.0891094
000070 62 65 42 c0 60 56 39 c0 6e 40 3b c0 6f 6c 45 c0
       -3.037438 -2.895897 -2.9258075 -3.0847433
000080 cd f0 3d c0 00 74 3f c0 f4 22 40 c0 f5 c3 3c c0
       -2.9678223 -2.991455 -3.0021334 -2.9494603
000090 19 d4 35 c0 35 6c 46 c0 e2 d0 3e c0 c4 30 3c c0
       -2.8410704 -3.1003544 -2.9814992 -2.9404764
0000a0 54 2a 3a c0 68 b5 46 c0 0b 35 36 c0 4c a3 37 c0
       -2.9088335 -3.1048222 -2.8469875 -2.8693419
0000b0 0d 39 43 c0 d3 d4 46 c0 8e 04 3a c0 e7 bc 3b c0
       -3.050357 -3.1067398 -2.906528 -2.9334047
0000c0 02 e7 47 c0 bb 25 3d c0 20 bb 3f c0 ba 3d 43 c0
       -3.1234746 -2.955428 -2.9957962 -3.0506425
0000d0 d3 be 39 c0 7d 6d 3b c0 8d 8e 3a c0 8f c3 42 c0
       -2.902272 -2.9285576 -2.9149506 -3.043186
0000e0 bc f8 3f c0 5b 59 4c c0 38 9a 40 c0 9b 1f 41 c0
       -2.9995565 -3.1929538 -3.0094128 -3.017554
0000f0 a5 a3 3e c0 e3 b2 37 c0 10 7a 40 c0 a4 57 3b c0
       -2.978738 -2.8702934 -3.00745 -2.9272242
000100 79 3b 4b c0 62 60 29 c0 37 5b 3f c0 bf b9 4a c0
       -3.175505 -2.6465077 -2.9899423 -3.167587
000110 ec 14 42 c0 09 c5 38 c0 a7 c2 44 c0 e6 f1 43 c0
       -3.032527 -2.887026 -3.0743806 -3.0616393
000120 65 4c 40 c0 0d 5b 35 c0 55 3f 41 c0 ca a1 42 c0
       -3.0046628 -2.8336823 -3.0194905 -3.0411248
000130 da a8 3d c0 bb 56 3c c0 53 55 43 c0 a3 50 43 c0
       -2.963431 -2.9427936 -3.0520828 -3.0517967
000140 c8 29 3f c0 a8 8f 40 c0 7b d9 4c c0 42 ee 49 c0
       -2.9869251 -3.008768 -3.200774 -3.155167
000150 d4 17 45 c0 8b 2c 39 c0 d4 fc 36 c0 3c 00 45 c0
       -3.0795794 -2.8933437 -2.8591814 -3.0781393
000160 8c 41 3f c0 72 2e 40 c0 5d ce 46 c0 1d 79 3e c0
       -2.9883757 -3.0028348 -3.1063454 -2.9761422
000170 a4 5a 41 c0 a4 f1 38 c0 b4 9d 42 c0 75 f7 42 c0
       -3.0211573 -2.8897486 -3.0408754 -3.0463536
000180 4a 89 3e c0 58 fd 3a c0 45 87 37 c0 12 86 44 c0
       -2.9771295 -2.9217129 -2.8676312 -3.070683
000190 b6 aa 4a c0 c1 d9 40 c0 6d d2 34 c0 5a 6d 42 c0
       -3.1666694 -3.0132906 -2.8253434 -3.0379243
0001a0 fe 1f 43 c0 71 78 36 c0 34 ea 42 c0 2e 48 3e c0
       -3.0488276 -2.8511012 -3.0455446 -2.9731555
0001b0 37 47 3b c0 3a 37 3f c0 50 91 45 c0 91 4a 41 c0
       -2.9262216 -2.9877458 -3.0869942 -3.0201762
0001c0 e0 88 3c c0 70 19 45 c0 5f fb 3a c0 f9 54 3f c0
       -2.9458542 -3.0796776 -2.9215925 -2.9895613
0001d0 c5 05 47 c0 9c 36 42 c0 19 90 40 c0 c1 eb 38 c0
       -3.1097271 -3.034583 -3.008795 -2.8893893
0001e0 4d 80 43 c0 4f 8e 3d c0 a7 97 36 c0 6a 75 3c c0
       -3.0547059 -2.9618108 -2.8530061 -2.9446664
0001f0 66 88 41 c0 42 ee 41 c0 8b 3c 40 c0 1b a6 42 c0
       -3.02395 -3.030167 -3.0036952 -3.0413883
000200 5e cb 48 c0 1b e2 35 c0 e4 90 3c c0 34 ad 3a c0
       -3.1374125 -2.8419254 -2.9463434 -2.9168215
000210 da fd 3e c0 fa bf 3b c0 df 9e 3f c0 b2 92 3b c0
       -2.9842439 -2.9335923 -2.9940717 -2.9308286
000220 3d d5 44 c0 09 ef 36 c0 b1 8f 4d c0 3f 2c 42 c0
       -3.075515 -2.8583395 -3.2118952 -3.0339506
000230 6b c6 39 c0 66 bc 48 c0 2a 2c 3e c0 47 f3 3a c0
       -2.9027355 -3.136499 -2.9714456 -2.9210985
000240 45 2b 3e c0 4e cf 39 c0 0e 2d 40 c0 42 b4 3b c0
       -2.971391 -2.9032779 -3.00275 -2.932877
000250 51 81 41 c0 ae 6b 3c c0 30 86 3d c0 4b d0 37 c0
       -3.0235178 -2.9440722 -2.9613152 -2.8720882
000260 26 4d 43 c0 a3 82 3c c0 24 13 40 c0 9e a8 43 c0
       -3.0515838 -2.9454734 -3.0011683 -3.0571666
000270 d8 71 39 c0 89 6c 48 c0 8e 63 4c c0 c9 94 36 c0
       -2.8975735 -3.1316245 -3.1935763 -2.8528311
000280 09 f1 4c c0 0e fd 4b c0 90 66 3a c0 b9 4e 3f c0
       -3.2022116 -3.1873202 -2.91251 -2.9891798
000290 6f f0 39 c0 fa 3d 48 c0 75 8b 3d c0 6e d5 42 c0
       -2.9053 -3.1287827 -2.9616368 -3.0442767
0002a0 1f b5 35 c0 56 17 36 c0 71 91 47 c0 21 77 41 c0
       -2.8391798 -2.8451743 -3.118252 -3.022896
0002b0 ac c8 42 c0 79 24 3c c0 78 5a 43 c0 1c 21 44 c0
       -3.043498 -2.939726 -3.0523968 -3.0645208
0002c0 39 bd 42 c0 25 77 40 c0 eb 14 36 c0 a0 fb 4a c0
       -3.0427992 -3.007272 -2.8450267 -3.171608
0002d0 18 0b 38 c0 15 4d 3f c0 cd 41 43 c0 37 04 3d c0
       -2.875677 -2.9890797 -3.0508912 -2.9533823
0002e0 ab d7 42 c0 3a 76 39 c0 cf 30 3e c0 27 fd 40 c0
       -3.0444133 -2.897841 -2.971729 -3.0154512
0002f0 ac 80 45 c0 38 1b 47 c0 5f 0a 3a c0 c3 61 3d c0
       -3.0859785 -3.1110363 -2.906883 -2.959092
000300 ac 1d 41 c0 71 c8 2f c0 e7 15 44 c0 16 3b 3d c0
       -3.017436 -2.746609 -3.0638368 -2.9567313
000310 c5 4e 3e c0 87 a8 38 c0 4b 1a 3a c0 f1 db 42 c0
       -2.9735577 -2.885286 -2.9078548 -3.0446742
000320 09 d7 35 c0 ff f4 4b c0 06 e3 3b c0 72 b1 45 c0
       -2.8412497 -3.1868284 -2.9357314 -3.0889554
000330 b4 42 3e c0 9b 04 41 c0 be 08 42 c0 87 ac 32 c0
       -2.9728212 -3.015906 -3.0317836 -2.7917802
000340 3a 6a 44 c0 f6 2d 3c c0 e6 1c 3e c0 00 82 42 c0
       -3.0689836 -2.9403052 -2.9705138 -3.0391846
000350 46 10 43 c0 b5 fd 35 c0 4f 0c 41 c0 11 92 51 c0
       -3.0478683 -2.84361 -3.0163763 -3.2745402
000360 4d c1 46 c0 77 7b 35 c0 68 68 4c c0 24 97 40 c0
       -3.1055481 -2.8356607 -3.1938725 -3.009225
000370 8d eb 3b c0 0d 8a 40 c0 1f e4 41 c0 79 73 39 c0
       -2.9362519 -3.008426 -3.0295484 -2.897673
000380 e8 64 3b c0 63 ac 4a c0 ee 51 4d c0 8d db 45 c0
       -2.9280338 -3.1667717 -3.2081256 -3.0915253
000390 b6 4e 42 c0 70 1e 3f c0 7d 91 38 c0 79 4c 43 c0
       -3.0360541 -2.9862328 -2.88388 -3.0515425
0003a0 2b 02 41 c0 bf 2a 39 c0 45 a1 40 c0 48 70 2c c0
       -3.0157573 -2.893234 -3.009843 -2.694353
0003b0 f1 53 47 c0 50 9f 43 c0 5f c4 3d c0 e3 64 3e c0
       -3.1144984 -3.0565987 -2.9651105 -2.9749076
0003c0 9d 21 3c c0 46 77 39 c0 e6 86 40 c0 5c 13 41 c0
       -2.9395516 -2.8979049 -3.0082335 -3.0168066
0003d0 63 d1 41 c0 ce 81 3a c0 3e 2c 43 c0 09 fe 46 c0
       -3.028405 -2.9141726 -3.0495753 -3.109255
0003e0 ad a2 3e c0 22 21 45 c0 86 09 3f c0 7d e6 43 c0
       -2.978679 -3.0801473 -2.9849563 -3.060943
0003f0 b3 01 43 c0 bc d5 48 c0 51 aa 38 c0 19 80 3e c0
       -3.0469787 -3.1380453 -2.8853953 -2.9765685

l1.bias.mu f4 [800]
000000 2b 3c 38 3e e7 10 3d be 0e 66 3c bc 58 8a 0e 3e
       0.17991702 -0.18463479 -0.011498941 0.13919961
000010 60 c1 c3 3c eb df 00 be a1 82 11 3d d3 a8 4d bd
       0.02389592 -0.12585418 0.035524968 -0.05020983
000020 ed 40 be 3d e0 a6 69 3b 7e 13 c7 bd a9 98 05 3d
       0.09289727 0.0035652444 -0.09720515 0.03261629
000030 5a 7d 2b be 0b a6 79 bc b7 3b 1f bc c2 03 e1 bd
       -0.16747037 -0.015237342 -0.009718827 -0.10987045
000040 97 0d 81 3a 03 3c b4 bc 7c 17 2e be 38 45 a4 3d
       0.0009845969 -0.022001272 -0.17001146 0.08021015
000050 95 ea 19 3d 02 ac c5 bd ed fd 41 be f0 4b bd 3d
       0.03757723 -0.096519485 -0.18944521 0.092429996
000060 4a 71 35 be eb cc 83 3d 69 7d 4c be 96 21 61 bd
       -0.17718998 0.064355694 -0.19969715 -0.05496367
000070 13 6c d7 3c fd 1f 8a bb 26 53 f5 bd 19 34 0d 3e
       0.026296651 -0.004215239 -0.1197875 0.13789405
000080 bd 22 af bd 40 b5 95 bd 28 bc bf 3d bd 30 f8 3d
       -0.08551548 -0.07309961 0.0936206 0.12118671
000090 d7 e0 cf 3d 87 81 bf bd 7a a5 17 bc 32 17 3a 3d
       0.10150307 -0.09350877 -0.009255761 0.045432277
0000a0 74 82 94 be 87 e7 6d 3e 79 d5 b7 bc e4 0c 05 bd
       -0.29005778 0.23232852 -0.022440659 -0.032482997
0000b0 96 c8 8d bd 68 45 af bd 31 75 ab bd 88 ff ac 3c
       -0.06923024 -0.0855816 -0.08371962 0.02111794
0000c0 d7 4f 91 bd 58 fc d7 3d 3a 59 cb bd 97 c0 8d 3c
       -0.07095306 0.105461776 -0.09929128 0.017303748
0000d0 51 15 a1 3e 64 77 8e 3b e3 79 2e 3e 7b 5c 5d 3d
       0.31461576 0.0043477286 0.17038684 0.054043274
0000e0 45 54 6c 3b f6 48 93 bd dd 6f 8d 3c 2b ef 99 bd
       0.003606097 -0.071916506 0.017265255 -0.07516321
0000f0 ed 99 5d bd 7b 37 8e 3b eb 16 e5 bd f3 2c 4e bd
       -0.054101873 0.00434011 -0.11186012 -0.050335836
000100 30 6a 30 bd 03 ac f1 bc b4 3c 00 3e 89 f6 b4 3d
       -0.04307002 -0.029500967 0.12523156 0.08836085
000110 40 bc eb 3d 75 37 60 be 0a a0 29 be 55 3a 49 3c
       0.11510515 -0.21896155 -0.16564956 0.012281974
000120 47 b4 d3 bc 97 19 53 3d f8 de e3 3d 81 9a 30 bc
       -0.025842799 0.051538076 0.11126512 -0.010779024
000130 54 f5 2f be 14 76 8b 3e 18 f1 b3 bd 3c 6c 7a bd
       -0.17183429 0.27238524 -0.08786219 -0.061138377
000140 40 4e 7a 3c 1c 9a 7e bd 26 03 12 3e 00 28 2e 3e
       0.015277445 -0.06215869 0.14259014 0.17007446
000150 2f a7 bd bd b7 ec 47 be ba 9e 04 be 53 74 95 bc
       -0.09260403 -0.19523893 -0.12951174 -0.018243944
000160 59 dd 97 bd 6e 76 0c bd c0 8d 5c bc 30 86 20 be
       -0.074152656 -0.03429263 -0.01346153 -0.15676188
000170 a6 69 22 3b 71 78 10 be 5e 68 a7 bc 3f e8 1b 3e
       0.002478221 -0.14108445 -0.020435508 0.15225314
000180 29 7b 17 3e 64 e2 32 3e d7 10 36 3d 7c 6f 9e 3c
       0.14793076 0.17469174 0.044449653 0.01934027
000190 ce 59 a3 3d 92 6f 34 3e f3 66 f5 bc b8 64 30 3b
       0.07976113 0.17620686 -0.029956317 0.0026915502
0001a0 01 09 37 bc 77 59 d5 3d b9 8e 5d bd 74 61 ae 3d
       -0.01117158 0.10417455 -0.05409119 0.085146815
0001b0 37 32 13 3a 0c 4c 68 bc b7 75 dc bd ce 82 b4 3d
       0.00056150876 -0.014178287 -0.1076464 0.088140115
0001c0 96 dd d7 bc 67 75 7d 3c be 59 4f be 5e bf a2 3d
       -0.026350778 0.015469885 -0.20249078 0.07946657
0001d0 c2 16 9e bb a0 51 d3 ba ce ea 07 3d f1 5f fd bd
       -0.0048244903 -0.0016122349 0.03318291 -0.12371815
0001e0 4b da 8c bb 72 69 b8 3c 0e 5c 7e 3d ec 6e 08 be
       -0.0042984835 0.022511218 0.06209951 -0.13323563
0001f0 cf 71 ed bd 82 e0 f9 bd 75 14 cb 3c f7 c7 98 bd
       -0.11593973 -0.122010246 0.024790028 -0.07460015
000200 92 a7 8c bb 92 73 85 bd d5 7a 38 3d cb 14 fc bc
       -0.004292437 -0.06516184 0.045039017 -0.030771634
000210 e8 e4 07 be 2b 19 9d 3c 6a 32 97 bc dc 38 09 3e
       -0.13270915 0.01917704 -0.018456656 0.13400596
000220 cf 0a 1c 3d ee 07 87 3e c8 92 98 ba f2 c2 67 bc
       0.038096245 0.26373237 -0.0011640424 -0.0141456
000230 07 1d 0a 3d bb 2f 41 3e 2b 25 9f bd 08 c7 3d 3d
       0.03371909 0.18865864 -0.07770761 0.04633239
000240 0c 42 8e 3d 9f 2e 17 be 0a fe 82 bd 31 f5 3c be
       0.06946191 -0.14763878 -0.0639611 -0.18452908
000250 c6 9b e6 bc 64 7a 05 3e e2 82 4f be b2 1f 82 3e
       -0.02815045 0.1303497 -0.20264772 0.25414807
000260 31 3c 54 be 0b 9b fe 3c 12 8c bb bd 65 41 56 3d
       -0.20726086 0.03107979 -0.09157576 0.05230846
000270 07 3a 57 be 20 84 a4 bd 17 21 ca bd 7f 62 54 3e
       -0.2101823 -0.08033013 -0.09869593 0.20740698
000280 fa ef b3 bc 59 c3 3b 3d 65 82 33 be 0f a7 d8 3d
       -0.021965016 0.045840595 -0.1753021 0.10578739
000290 cd 2c a2 3d 93 1b 84 3c b6 54 53 3b 77 bd 3c 3e
       0.07918701 0.01612643 0.0032246537 0.1843165
0002a0 b0 07 f8 3b 68 f1 f0 bc 58 4f 21 3c fb d6 f0 3d
       0.007569276 -0.029411986 0.009845577 0.11759754
0002b0 db 45 c0 3d 00 de bc bc b5 03 80 3e 0f 0e 41 3d
       0.09388324 -0.023055077 0.25002828 0.047132548
0002c0 73 25 bb ba c1 71 42 3c f0 07 b6 3d 11 05 47 3e
       -0.0014278129 0.011867941 0.08888233 0.19435526
0002d0 04 d7 32 bd bc a7 42 3e ce b5 3f be 6c 51 ba bc
       -0.043662086 0.19009298 -0.18721697 -0.022743903
0002e0 5a e3 a8 be 04 19 76 bd 44 52 11 3e ec 6e 91 3c
       -0.32985955 -0.06008245 0.14191538 0.017753087
0002f0 fc 84 a8 3c 9e f3 de 3d 9d d2 0e 3e 92 59 ea bd
       0.020571224 0.1088631 0.1394753 -0.114428654
000300 51 9d 21 3e f5 a9 65 3d ac 64 a1 bd 65 a7 7d 3d
       0.15782668 0.056070287 -0.0788053 0.061927218
000310 0d 4f d7 bd e6 44 65 3d 5d 85 10 3d 99 11 79 3c
       -0.105131246 0.05597391 0.035283435 0.0152019495
000320 37 59 d9 3c a6 75 93 3d 61 0c dc 3d 78 1f b2 3d
       0.026531799 0.07200174 0.107445486 0.086974084
000330 20 c5 ac bd 49 1c 09 be 4b a6 14 bd 49 e4 02 be
       -0.08436036 -0.13389696 -0.0362914 -0.12782396
000340 07 64 28 3e 1a 43 10 be 34 47 a5 bd cf fb 0b 3d
       0.16444407 -0.14088097 -0.080702215 0.03417569
000350 f2 6a 61 3e 5d 8e d8 bb 1b fc 4e be 68 5c 22 3e
       0.22013453 -0.006608768 -0.20213358 0.15855563
000360 13 0d 4c be 35 dd 62 be 06 51 4b bd 70 2e 83 3c
       -0.19926862 -0.22154696 -0.049637817 0.016013354
000370 ec b5 f2 bc 2f 66 80 3d a7 43 e0 3d 87 e1 84 bc
       -0.029627763 0.0626949 0.10950404 -0.016220821
000380 4e 2c 2a bd 1b 70 df bc 0a ca 8c bd db 8c 9b 3d
       -0.04154616 -0.027275136 -0.068744734 0.075952254
000390 6c 04 43 3e d2 b7 1d 3e 48 f6 c7 3b 13 05 b7 bb
       0.19044656 0.15402153 0.006102357 -0.0055853217
0003a0 a4 6d a6 3c 9d b8 7c 3e 84 de 9f 3d 34 80 7d bc
       0.020315953 0.246798 0.07806113 -0.015472461
0003b0 12 fc 1e be db c5 02 3e 29 29 d4 bb ee 48 fc 3c
       -0.15525845 0.12770788 -0.0064746332 0.030796494
0003c0 9a 18 f6 3c 07 58 18 3e 95 ca b4 bd 19 f6 c5 3d
       0.030041028 0.1487733 -0.08827702 0.0966608
0003d0 1d 7d 63 3b ea 97 26 3e e9 ec b5 bd 93 56 e4 3d
       0.0034712024 0.16268888 -0.08883078 0.11149325
0003e0 59 c3 f4 bd 29 06 85 3d 97 e2 25 3e f3 68 39 bc
       -0.11951322 0.064953156 0.16199718 -0.011316526
0003f0 26 2b 95 3c a5 42 30 bb 81 9c b5 3d 4b 4a 4e bd
       0.018209051 -0.0026895192 0.088677414 -0.05036382
