checkpoints_16_tasks/16_task_groups_PUGCL_epochs_:50_lr_:0.06_hidden_:400_task_order_:[ 7 14 11  1  2  4  5  6 13 10 15 12  9  8  0  3]/model_12.pth.tar (torch_old, 220285 bytes, 136 tensors)

l1.weight_mu f4 [400, 29]
00000000: 3c16 ef3d 7863 86bd 85de f03d 9f7e cd3c
00000010: 1c92 13bb c5d0 bd3d bc12 01be 4bd1 1cbe
00000020: bd11 5d38 0743 093e 007c 28be 2022 c73b
00000030: 2c73 5fbd fad2 19be f6cf bebd 9652 a5bd
00000040: b930 cebd 589a 95bb e21c dd3d c551 30bc
00000050: ab8e 30bc 6a98 ad3c 9799 953e 2d27 46bd
00000060: 24ee 353e e698 8c3d dfeb 703c e823 8fbd
00000070: 258b 2f3e 17c6 1d3e 4f28 b33d d18b a63d
00000080: 3c79 853d dbc9 293d dc07 e33d e80f f33d
00000090: 8fcc 21bd e0a0 363e 577d 71bc b75e 683d
000000a0: 2541 ba3d b6c0 bc3d 02bd 983d 4b93 7bbd
000000b0: 38d3 cc3c 8ef6 833d 6760 983d d566 a6bc
000000c0: 084a 803d 0de9 023e b6fa 5d3d d8f8 c5bd
000000d0: 7bd4 273e 4681 8d3d 3c96 023e 6d18 cabc
000000e0: 96c8 733d 0b64 f43c 157b 3abd 5e96 083d
000000f0: 5b4f e13d 7b45 81bd 4774 3ebe 0191 07be
00000100: dc91 593c f8ba e23d 2656 d8bd 9313 aa3d
00000110: 2906 9f3d 3768 1ebd 939b 793d 738d 0d3d
00000120: 3577 473e a5c2 173d 7ec7 e4bd 692f 983c
00000130: 3c1b 413d 381a ce3d 75d7 99bd c6d0 c63d
00000140: a52b 8cbc 5045 7a3d 7fbc bd3d 4103 4a3d
00000150: d0fd 853d 3735 953d 88c1 14be 4a2b 3bbc
00000160: 4cbd 1cbd ebfc 813c c8c8 91bc 78e1 f63d
00000170: 2890 c03d ae84 963e d81b 6ebc 8384 233e
00000180: 8650 06bd 3e00 853d 7e67 603b d6c7 0ebd
00000190: d4a4 673e 5cb4 423c 0255 a93c 4a01 ae3a
000001a0: 3a70 b8bb 57f7 acbd b93a 953d 8c67 50bd
000001b0: e124 d13c 8947 c9bd 6166 f0bd 5ffc 483c
000001c0: 7c1f 03be b511 81be 4fa5 abbd a08d 313e
000001d0: ff26 503d b205 953d f2a3 cb3b 1a8b 2b3d
000001e0: fb94 823a 0620 903d 8bb0 1dbb 97a3 41bb
000001f0: a201 dabc 52ba 27be a3e5 35be 428c 803e
00000200: 61ae 27be b0fc 53bd 4c9f 43bd 0f67 8a3c
00000210: 174f edbb 6219 c63c 5542 3f3e 7fe2 ea3d
00000220: 6c10 3a3e 1b2f a03d 369c 91bc 9889 8c3d
00000230: 47c5 db3d 5366 463e d993 5ebd 8ef3 48bd
00000240: 0464 87bd a2ae c03c 873d f3bd 0b4c 1b3b
00000250: d555 35be d4b1 0f3c e553 05bd f149 0bbe
00000260: deb5 9b3d 2b42 bbbd 7657 21be e445 b23d
00000270: 7145 dcbd 308f e7bd b80f afbd 4eae cf3d
00000280: ea10 6f3d 5ae2 8bbd 4016 34be a2a3 0e3e
00000290: 671e f83d 7b67 1cbe 6be5 f93d 4cc1 273b
000002a0: a933 e7bc e323 fb3d f66f 1039 3cc3 0b3e
000002b0: c7a8 223d 8a90 2abe 252c 513e 403f 8c3e
000002c0: 36f6 823e d0d8 a23c 569e c83d f0c5 543e
000002d0: 277a 293e 19fa 193e 1b1a de3d 0d02 133e
000002e0: f801 4e3d 1718 5b3e b4e5 a13d 3f6f 443e
000002f0: 9ee3 f13d 3a6d 6e3d 1190 853e 3282 353e
00000300: 70ab 08bd 75e0 363e 2166 0f3e 3799 c1bd
00000310: eb5c 293e adda d83e 46b6 49bc 243a f73d
00000320: f2d6 283e ab2a 873d ebd4 ca3d 3496 aebd
00000330: 411b 313e b9f7 2cbe 73b5 663d e532 0a3e
00000340: de40 173e 7064 82bd 9fde a2bd 052d 89bd
00000350: 1846 093e f13e 353c 1dca ba3c 6243 9a3c
00000360: a9c2 5d3d a9a9 0ebe 037d debd f52e b7bd
00000370: dad7 45be 77d1 1cbd aec5 a13b 9772 a23d
00000380: f8e3 323d 4432 d2bd 1cfd c83c 384d 9a3d
00000390: 9a2d b6bd 2657 dc3d 93ea d9bd b4da 193e
000003a0: 083d 003d 6bb7 0cbd 13b3 11bd 9719 c8bd
000003b0: 36fd 4ebd c2ec 153e e92c 283d cc82 1cbe
000003c0: e7f2 8d3d 581c e5bd c116 7b3b e6a7 94bd
000003d0: ed72 00be baeb e4bd 71b8 96bd de51 003d
000003e0: f69e 033e e0a9 cabd 9dc9 a73c 225a 873d
000003f0: c273 54bc 8332 1cbd 6fb6 f33d abf5 fdbc
0.11674163 -0.06561941 0.11761192 0.025084792 -0.0022517508 0.09268335 -0.12604803 -0.15314214
5.2707026e-05 0.13404475 -0.16453552 0.006077066 -0.054553196 -0.15021887 -0.09317009 -0.08072393
-0.10067887 -0.0045655183 0.107965246 -0.010761683 -0.010776202 0.02119084 0.29218742 -0.048377205
0.17766625 0.068651006 0.014704674 -0.069892704 0.17142923 0.15407597 0.08747923 0.081321366
0.06517264 0.04145227 0.110854834 0.11868268 -0.039501723 0.17834806 -0.014739356 0.056730952
0.090944566 0.09216444 0.074579254 -0.061419766 0.02500306 0.06443511 0.07440262 -0.020312706
0.0626412 0.12784214 0.054194175 -0.09666604 0.16389649 0.069094226 0.12752622 -0.02466985
0.059517466 0.02983286 -0.045527536 0.033346526 0.11001464 -0.063120805 -0.18599044 -0.13238908
0.0132794045 0.11070818 -0.105633065 0.08304515 0.07764847 -0.038673606 0.060939383 0.034558725
0.19479068 0.037050862 -0.111708626 0.018577294 0.047145113 0.100635946 -0.07511798 0.09707789
-0.017110655 0.061101258 0.092644684 0.04931951 0.065425515 0.072855406 -0.14526951 -0.011423895
-0.038266465 0.015867671 -0.017795935 0.120547235 0.094024956 0.29398102 -0.014533006 0.15968518
-0.032791637 0.06494187 0.0034241374 -0.034858547 0.2262147 0.011883821 0.020670418 0.0013275531
-0.005628613 -0.08445614 0.07286591 -0.05088 0.02553028 -0.098280974 -0.11738277 0.012267201
-0.12804979 -0.25208822 -0.083811395 0.17339182 0.05081844 0.07276477 0.006214612 0.041880704
0.0009962613 0.07037358 -0.0024061527 -0.002954697 -0.026612107 -0.1637967 -0.1776338 0.25107008
-0.16375114 -0.051754653 -0.04775934 0.016894845 -0.0072420943 0.024182025 0.18677647 0.11468982
0.18170327 0.07821485 -0.017774682 0.068621814 0.10730987 0.19374971 -0.054340217 -0.049060397
-0.06610873 0.023520771 -0.1187697 0.0023696448 -0.17708524 0.008770425 -0.03255071 -0.13602425
0.07603048 -0.0914348 -0.1575602 0.08704737 -0.107554324 -0.11306608 -0.0854792 0.10140668
0.05836574 -0.068302825 -0.17586613 0.13929608 0.12115174 -0.1527385 0.12201961 0.0025597392
-0.028222876 0.12262704 0.00013774619 0.13648695 0.03971174 -0.166567 0.20426996 0.27392006
0.2557847 0.019878775 0.09795825 0.20778632 0.16550504 0.15036811 0.10844823 0.14356251
0.050294846 0.21395908 0.079051405 0.19183062 0.11810993 0.058209635 0.26086476 0.17725447
-0.03336662 0.17859061 0.14003803 -0.094530515 0.16539352 0.42354336 -0.012311524 0.12071636
0.16488245 0.06599935 0.09903892 -0.08524743 0.17295553 -0.16891374 0.056325387 0.13495977
0.14770839 -0.06366813 -0.07952618 -0.0669804 0.13405645 0.01106237 0.022801453 0.018830959
0.05414072 -0.13931908 -0.10863688 -0.08944503 -0.19320622 -0.0382857 0.0049368953 0.079320125
0.04367444 -0.10263494 0.024534754 0.075342596 -0.088954166 0.1075881 -0.106404446 0.15024835
0.031308204 -0.03435461 -0.03557117 -0.09770506 -0.05053445 0.14641097 0.041058455 -0.1528427
0.069310956 -0.11187047 0.0038313123 -0.072585866 -0.1254384 -0.11177774 -0.07359398 0.031328075
0.12853608 -0.09895682 0.020481879 0.06608988 -0.012967052 -0.03813411 0.11900031 -0.031000933

l1.weight_rho f4 [400, 29]
00000000: 4a92 3cc0 8e42 3dc0 add4 41c0 66f6 39c0
00000010: a867 33c0 d9ec 42c0 7385 3ec0 64f0 4ac0
00000020: 3e21 49c0 4089 41c0 2483 4cc0 1862 40c0
00000030: a6b3 3dc0 1948 47c0 0072 42c0 85be 3bc0
00000040: 9b03 4cc0 4ccb 41c0 5e3a 3ec0 8815 3cc0
00000050: 49ec 3ac0 a8c6 3dc0 1d26 41c0 0d77 46c0
00000060: 78a4 38c0 094d 3cc0 1756 31c0 1586 3ec0
00000070: a5c5 3dc0 8c7c 44c0 fffa 41c0 0457 46c0
00000080: e4b2 3bc0 c86b 38c0 0a12 53c0 4ad1 46c0
00000090: 90c3 3fc0 b92b 42c0 0088 43c0 6d3f 31c0
000000a0: 9b93 3ec0 ce67 42c0 9656 32c0 4e31 35c0
000000b0: 0548 39c0 7b9b 3bc0 2c1a 39c0 6090 40c0
000000c0: 86b8 44c0 e472 37c0 257c 46c0 1a43 35c0
000000d0: c05c 40c0 ce2b 3dc0 7542 42c0 92ad 4ac0
000000e0: 2e8c 3fc0 7842 43c0 9469 3dc0 ed85 48c0
000000f0: d7a7 45c0 ceb3 36c0 1e0e 3bc0 ee37 46c0
00000100: 442c 3fc0 0290 3bc0 d941 41c0 bc36 3bc0
00000110: 373e 3dc0 c9ae 3dc0 87c5 3dc0 2f89 46c0
00000120: 7acc 42c0 b5f6 42c0 ec7f 3ec0 cf5e 3bc0
00000130: 7d4c 3bc0 c451 3ac0 26b7 4ac0 9cf5 3dc0
00000140: 3b6c 3ec0 f1c5 38c0 0661 41c0 f8e0 3ac0
00000150: 4aa7 43c0 6edc 46c0 ad59 3ac0 e11a 47c0
00000160: 8b3e 39c0 9c2d 48c0 a95e 3ac0 7128 47c0
00000170: bb64 3ec0 7d5c 42c0 bfde 3cc0 e496 3dc0
00000180: 0f78 44c0 b52c 3dc0 b84b 46c0 a7f3 44c0
00000190: 9412 3fc0 6b22 44c0 9638 3dc0 fe0d 4cc0
000001a0: 0201 43c0 c6ff 41c0 9486 3fc0 dcec 36c0
000001b0: 70e0 42c0 f1be 3bc0 0e41 38c0 9cec 47c0
000001c0: b999 43c0 f3e6 3fc0 0002 44c0 6e51 3bc0
000001d0: 99d2 44c0 1940 45c0 6820 44c0 8655 3dc0
000001e0: ee5d 41c0 c63b 42c0 f3bf 3dc0 ddad 36c0
000001f0: 5f90 3fc0 e19b 4ac0 c19c 41c0 0093 4bc0
00000200: 1000 43c0 00e5 35c0 230c 3cc0 18e0 3ec0
00000210: c231 38c0 909b 3fc0 c9d6 47c0 8aca 35c0
00000220: c915 43c0 bcd0 30c0 21d2 4bc0 a957 45c0
00000230: d1a1 3dc0 3f99 3fc0 beff 43c0 5fd9 42c0
00000240: dc26 46c0 4465 3bc0 d39c 39c0 718f 36c0
00000250: 5766 45c0 ff4b 45c0 3898 3ac0 8cf0 44c0
00000260: eea3 3fc0 58d9 44c0 8454 3fc0 140c 3cc0
00000270: 2d8d 3fc0 4509 46c0 d162 47c0 cd54 34c0
00000280: 4063 3dc0 e4d8 39c0 4b7b 43c0 bee9 44c0
00000290: 7907 45c0 b919 3cc0 921e 48c0 fe1d 46c0
000002a0: a835 41c0 7678 44c0 43cb 41c0 e96e 43c0
000002b0: 4f13 37c0 938e 47c0 7bb6 41c0 318e 3cc0
000002c0: a19d 38c0 3b77 4ec0 476e 3bc0 e5bb 42c0
000002d0: 00de 3dc0 92f2 40c0 4809 43c0 a6d4 33c0
000002e0: 9f00 36c0 8029 42c0 7575 39c0 9cb3 3ec0
000002f0: bffd 40c0 0fc8 3fc0 1e9f 49c0 b7aa 43c0
00000300: b659 3bc0 9d39 4bc0 b61c 4ac0 022b 33c0
00000310: 7a73 3ec0 00d0 40c0 6e88 37c0 f8a7 3bc0
00000320: de11 40c0 8b5e 33c0 42e1 40c0 25aa 3ec0
00000330: fd5a 46c0 f01c 3dc0 f917 42c0 7b54 3bc0
00000340: 96a2 3ec0 e6aa 3cc0 d181 3cc0 87e4 33c0
00000350: 1865 35c0 6688 3dc0 2761 3ec0 e96a 3cc0
00000360: 3037 40c0 8e7e 3ec0 a355 47c0 22b3 4ec0
00000370: 5282 48c0 b781 3ac0 8837 40c0 60d7 42c0
00000380: df2a 3dc0 8eac 3ec0 4134 44c0 4729 39c0
00000390: a60d 46c0 69f0 37c0 ee0f 51c0 d2dc 3ec0
000003a0: 0db2 49c0 3b96 3fc0 72e8 3bc0 1993 48c0
000003b0: 49eb 45c0 3da8 45c0 87a6 34c0 f755 4ac0
000003c0: c134 36c0 a7c1 41c0 0272 43c0 6ca1 37c0
000003d0: 1e54 3fc0 c56d 3dc0 f1d7 36c0 246e 4dc0
000003e0: e8fe 39c0 ccc8 43c0 0077 49c0 247a 3ec0
000003f0: 1b2d 3bc0 86e1 39c0 25a4 3bc0 9699 3fc0
-2.9464288 -2.9571872 -3.0286057 -2.905664 -2.8032017 -3.045706 -2.976895 -3.1709223
-3.142654 -3.024002 -3.1955042 -3.0059872 -2.9640899 -3.1137755 -3.038208 -2.9335034
-3.18772 -3.0280333 -2.9723125 -2.9388142 -2.9206717 -2.96525 -3.0179513 -3.1010163
-2.8850384 -2.9422019 -2.7708795 -2.9769337 -2.9651883 -3.0701017 -3.0309446 -3.099061
-2.9327936 -2.8815784 -3.297976 -3.106524 -2.9963112 -3.0339186 -3.0551758 -2.7694962
-2.9777591 -3.0375857 -2.7865348 -2.8311343 -2.8950207 -2.9313648 -2.8922224 -3.008812
-3.0737624 -2.8663874 -3.1013272 -2.8322206 -3.005661 -2.9557986 -3.0353062 -3.166844
-2.992931 -3.050932 -2.959569 -3.1331742 -3.0883691 -2.8547244 -2.9227366 -3.0971637
-2.9870768 -2.9306645 -3.019644 -2.9252157 -2.9569223 -2.963793 -2.965181 -3.102123
-3.0437303 -3.0463078 -2.9765577 -2.9276617 -2.9265435 -2.9112406 -3.1674285 -2.9681158
-2.9753559 -2.8870814 -3.0215468 -2.919981 -3.0570855 -3.107204 -2.9117234 -3.1110156
-2.8944423 -3.1277838 -2.9120276 -3.1118433 -2.974898 -3.036895 -2.9510953 -2.9623346
-3.0698278 -2.9558537 -3.0983715 -3.0773714 -2.985509 -3.0646007 -2.9565787 -3.188354
-3.0469365 -3.0312362 -2.992589 -2.8582067 -3.0449486 -2.9335291 -2.8789706 -3.1238165
-3.0562575 -2.998471 -3.062622 -2.926845 -3.0753539 -3.0820372 -3.064478 -2.958345
-3.021358 -3.0348983 -2.9648407 -2.8543618 -2.9931867 -3.165764 -3.0251925 -3.1808472
-3.0468788 -2.842102 -2.9382408 -2.9824276 -2.878037 -2.9938698 -3.1224844 -2.840487
-3.0482047 -2.7627401 -3.1847003 -3.0834754 -2.9630015 -2.9937284 -3.0624843 -3.0445173
-3.0961218 -2.9280558 -2.9001968 -2.852505 -3.0843713 -3.0827634 -2.9155407 -3.0771818
-2.9943805 -3.0757656 -2.9895334 -2.9382372 -2.9929917 -3.0943158 -3.1154063 -2.8176758
-2.9591827 -2.903863 -3.0544002 -3.0767665 -3.078581 -2.93907 -3.1268659 -3.0955806
-3.0189 -3.0698524 -3.028031 -3.0536444 -2.8605535 -3.118077 -3.0267627 -2.9461787
-2.884621 -3.2260273 -2.9286058 -3.0427182 -2.9666748 -3.0148053 -3.0474415 -2.809854
-2.843788 -3.033783 -2.897794 -2.9797125 -3.0154874 -2.9965856 -3.1503367 -3.0572946
-2.9273505 -3.1753914 -3.1580024 -2.7995 -2.9757981 -3.0126953 -2.867702 -2.932127
-3.0010905 -2.8026454 -3.0137486 -2.9791348 -3.0993035 -2.9548912 -3.0327132 -2.9270313
-2.9786735 -2.9479308 -2.9454234 -2.8108232 -2.8342953 -2.96145 -2.9746797 -2.9440253
-3.0033684 -2.9764743 -3.1146019 -3.2296834 -3.1329541 -2.9141672 -3.0033894 -3.0443954
-2.9557416 -2.979282 -3.0656893 -2.8931444 -3.094583 -2.8740485 -3.2665973 -2.9822278
-3.1514924 -2.9935443 -2.9360623 -3.1339781 -3.0924857 -3.0883934 -2.822664 -3.1614969
-2.8469698 -3.0274446 -3.0538335 -2.8692274 -2.989509 -2.9598248 -2.85693 -3.2098475
-2.9061832 -3.0591307 -3.1478882 -2.9762049 -2.924628 -2.9043899 -2.9318936 -2.9937491

l1.bias_mu f4 [400]
00000000: 47c0 8cbe d0bf 463e 8b96 063e 0542 833e
00000010: e15b 123c 4096 0bbe 087e e33e a626 aebc
00000020: 3360 883e 7526 073e 41a4 633e 6be5 5c3d
00000030: 3920 1f3e e332 a3bd 5809 933d 2842 3fbd
00000040: 345a 4e3c 7a68 483e 0576 353e e046 4e3d
00000050: e909 c43e 74c7 cc3d 317c ec3d f43f 4f3e
00000060: b5e3 c3bd 61ff 3ebd 46c7 623c 4a32 6a3e
00000070: a499 b83c 6d84 8b3e f992 aabd fd5b 0abd
00000080: 6c1e efb9 0b7e 0b3e af8d 67bd b14c debd
00000090: 394f 89bc a9a9 f6bd 6faf c1bc 3bad c9bb
000000a0: e939 b5bc 6e41 213d 819c d8bb e838 c13d
000000b0: fa39 ef3d 4d0d 5a3c d6df 99bd 837d 183e
000000c0: 9dfe 283e c442 823e e040 813d f3c3 98bd
000000d0: 2db6 8e3c 485e e43d 3015 9cbd bf13 74bd
000000e0: 1f97 b93d 5e4e e03d b484 113e 75da 04bc
000000f0: 2c21 54bd c5c7 013e fb66 f2ba 729e db3d
00000100: b61d 43be bc8c b43e f3e6 e4bd 682e 943d
00000110: ee0c 5abe ef59 30be 8a59 b13d 31d9 af3c
00000120: d7d2 793d 8afd 7a3b 0f10 603c 528d 1abd
00000130: 20bf 983c 7ba4 073e c286 10be 3b2d a23d
00000140: ca37 f2bd b7f9 eabc 655e ed3c 0d0a f1bc
00000150: 9e5a ca3d e403 3fbd 74d3 e9bc 7ff3 913c
00000160: eeb9 a3bb cb6c 63be 1539 013c 709b d83d
00000170: 017e 22be 3a1b 9a3e 6c8d c93c 2959 a33d
00000180: 268c 583d a2c1 143d fd99 a5bc 20cf 8dbd
00000190: e1bb b9bc 7d34 3e3d 1749 4a3e 59ea 053d
000001a0: 9924 3bbd 74ac c93d 3125 3f3c 781e 6e3c
000001b0: 9c16 17be 7b6e 883e b12b cb3d 3b18 54be
000001c0: 3558 9fbd 6415 5f3e f564 f83d 7360 d3bd
000001d0: c6a3 803e f0d9 f13c 638e 143d ceb0 d93b
000001e0: 5d4e c63c bcd7 a73d 6fc8 c1bd 1b30 b0bd
000001f0: a72d ebbc a10f a0bc 2430 5abd a886 42bd
00000200: 60ea 7e3e 09ca 33be b276 863c 474d 953d
00000210: 1c05 ee3a 5e74 e1bd 0f4c f6bb bd8c a03d
00000220: 6d39 3a3d 49ea 023d 80c0 563e dc30 55bc
00000230: eb1c 763d 3644 483e f7dc 483b e094 553d
00000240: 7551 a73c 885c 53bc 69b4 dcbd 848c 7e3e
00000250: c331 c53d 2c0e 0abe 8e1a e53d 5a54 d7bd
00000260: f9c3 22be 1cdd 56be e02a 5abd b5ff 4cbd
00000270: 292c cdbc 6a1d 8b3d cfd0 383e 67a7 c53d
00000280: 1415 383e 1aea 34be 9bc8 d1bd 4975 6c3b
00000290: dffe 68bc 221f 99bd 41da 90be 7591 1bbd
000002a0: 3e42 483e 0493 e0bd a956 05be 1ecb aabd
000002b0: bf09 edbc 9159 623d 1cf3 84bd a31d 1f3d
000002c0: 5960 663d 2785 1c3e 3933 f3bd cb71 5d3d
000002d0: 5848 c33b 6149 bc3b b0d8 d8bd a0ae 3d3d
000002e0: 02b4 763b 56cd 3e3d 4554 8fbc e481 c7bd
000002f0: 74c0 e2bd 4279 853d 9b14 88bd b7a7 48be
00000300: 7d64 18be fe26 f3bb fd61 2c3d f84c 93bd
00000310: 2652 a7bc dbe9 783d 0445 243e e409 403e
00000320: b9b3 213e bf22 32bc 2416 efbc a869 a33c
00000330: a58f 0bbe 3de6 e73e 6801 89bd bf7e 11be
00000340: b109 e23d d147 083e d9b0 513e 704a fdbd
00000350: aeb2 793e d530 013e 7b38 a93d edfa 96bd
00000360: 0f00 6b3d 5bf6 0fbc 2a69 673e 2285 293d
00000370: 303a 173e 0bf8 713c 48f1 5fbe c65e c8bb
00000380: 4fac 6f3b 23e9 a33d 46fd 20be 324b dd3d
00000390: 1f19 543c 64db 253b 64df 0a3d b360 3f3d
000003a0: e1f2 4a3d c10b 21bc bf23 9bbc 81ae 37be
000003b0: 1950 c13d c42b c6bd 1dd8 2d3e 18fb d5bd
000003c0: e029 85bd 1ded 7b3d 3051 f7bc 2ee1 bebc
000003d0: ddb1 ebbc bcc2 463d 6f72 213d 32b1 7f3c
000003e0: c9ab cabd 11cd e0bc 874e 8cbd b448 18bd
000003f0: 9e10 b13d 3911 a13d 9066 86ba 972a 093d
-0.27490446 0.19409108 0.13143365 0.25636306 0.008933038 -0.13631535 0.44432092 -0.021258663
0.26635894 0.13198264 0.22230627 0.053929728 0.15539636 -0.0796869 0.071795166 -0.04669395
0.012594748 0.19571105 0.17720802 0.05036056 0.3828881 0.0999898 0.11547125 0.2023924
-0.09564916 -0.046630267 0.013841456 0.22870746 0.022534199 0.2724947 -0.08328814 -0.033779133
-0.00045608298 0.136223 -0.056531604 -0.108544715 -0.01676141 -0.12044079 -0.023643224 -0.006154684
-0.02212234 0.03936904 -0.0066104536 0.09434682 0.1168098 0.013308835 -0.075133964 0.14891629
0.16503377 0.25441563 0.06311202 -0.07459249 0.017420853 0.11150795 -0.07621229 -0.059589144
0.09062027 0.10952447 0.14210778 -0.008108725 -0.051789448 0.12673862 -0.0018493825 0.107235804
-0.19054303 0.35263622 -0.111768626 0.07235414 -0.21293995 -0.17221807 0.08659656 0.02146587
0.06099209 0.0038298094 0.013675704 -0.03773243 0.018645823 0.13246338 -0.14113906 0.07918783
-0.11827047 -0.028683526 0.028975675 -0.029423738 0.09880565 -0.04663457 -0.028543212 0.017816303
-0.00499653 -0.2220947 0.007887145 0.10576522 -0.15868379 0.30098897 0.024603568 0.0797599
0.05286803 0.036317475 -0.020215029 -0.069242716 -0.022672595 0.046436775 0.19754444 0.032694194
-0.0456892 0.09847346 0.011666582 0.0145336315 -0.14754719 0.2664679 0.09920443 -0.20712368
-0.07780496 0.21785504 0.12128631 -0.103211306 0.2512495 0.029522866 0.036268603 0.006643391
0.024207288 0.08195445 -0.09462058 -0.086029254 -0.028708292 -0.019538702 -0.053268567 -0.0474917
0.24894094 -0.17557539 0.01641402 0.0729013 0.0018159482 -0.110085234 -0.007516391 0.07839344
0.04546492 0.031961713 0.2097187 -0.013012137 0.060086172 0.1955727 0.0030649283 0.05214393
0.020424584 -0.012900479 -0.10776598 0.2485829 0.09628632 -0.13481969 0.111867055 -0.10514136
-0.1589507 -0.20982784 -0.053263545 -0.05004855 -0.025045471 0.0679272 0.18048404 0.0965107
0.1797679 -0.17667428 -0.102433406 0.003608065 -0.014220922 -0.07476641 -0.28291515 -0.037980516
0.1955652 -0.10965541 -0.1302134 -0.08339523 -0.028935311 0.0552612 -0.06491682 0.038846623
0.056244228 0.15285169 -0.11875004 0.0540636 0.005959552 0.005746052 -0.10588205 0.046309114
0.0037643914 0.046582542 -0.017496238 -0.097415715 -0.11071864 0.06517269 -0.06644555 -0.19595228
-0.14882083 -0.0074204197 0.042085636 -0.07192415 -0.020424914 0.060769897 0.16041952 0.18753773
0.15791215 -0.010872542 -0.029185362 0.019947842 -0.13629015 0.45292845 -0.06689721 -0.14208506
0.11037005 0.13308646 0.20477618 -0.123677135 0.24384567 0.12616284 0.08262726 -0.07372079
0.057373103 -0.008786763 0.2259871 0.04138673 0.1476829 0.014768611 -0.21869385 -0.0061148135
0.003657121 0.08003452 -0.15721616 0.10805358 0.012945442 0.002530777 0.03390445 0.04672308
0.049548034 -0.0098294625 -0.018937944 -0.17937662 0.094391055 -0.096763164 0.16976972 -0.10448283
-0.06502128 0.061505426 -0.03019008 -0.023300733 -0.028771335 0.048525557 0.039415773 0.0156062115
-0.09896047 -0.027441533 -0.068509154 -0.03717871 0.086457476 0.07864613 -0.0010253955 0.033487882

l1.bias_rho f4 [400]
00000000: b593 41c0 5116 4dc0 7868 44c0 46e1 3fc0
00000010: 3f8f 39c0 7248 41c0 a923 38c0 b16e 43c0
00000020: 943a 44c0 a4a3 43c0 e0fc 45c0 2e29 3cc0
00000030: e1e0 36c0 a58b 3ec0 5076 41c0 d224 44c0
00000040: 282f 46c0 5e1a 3ac0 8970 39c0 fb9a 42c0
00000050: 7f0b 38c0 c2f8 49c0 c190 3ac0 88a4 3cc0
00000060: 0e6e 37c0 8ad6 41c0 e4e5 47c0 9b4d 41c0
00000070: d8a7 34c0 5240 3ec0 9b83 41c0 a5fb 3bc0
00000080: 86bc 46c0 41f2 38c0 ab02 46c0 a814 3fc0
00000090: ebd3 3bc0 8033 44c0 17fc 48c0 8800 49c0
000000a0: c7d2 37c0 d090 37c0 188f 47c0 52ae 3ec0
000000b0: d40f 38c0 f76f 3dc0 ba26 40c0 e7e6 44c0
000000c0: d887 41c0 29cf 34c0 0d67 43c0 7552 4cc0
000000d0: 5bb0 3ac0 4f52 48c0 281f 45c0 7fc4 41c0
000000e0: 5175 3cc0 60fa 43c0 35c1 41c0 bab3 33c0
000000f0: e489 4dc0 8e5f 40c0 1ad6 42c0 10b3 3ac0
00000100: 255d 42c0 2d47 3dc0 e8a0 3ec0 4b9c 47c0
00000110: 9f23 38c0 6275 37c0 6d70 3ac0 c17a 41c0
00000120: 2419 3fc0 ef28 41c0 2179 36c0 04ab 3bc0
00000130: 58b5 40c0 edd1 3cc0 1fe2 44c0 8b92 3fc0
00000140: 2c4d 41c0 14b3 47c0 45ad 43c0 a475 3cc0
00000150: dbad 3bc0 c674 3fc0 86f9 41c0 a387 3fc0
00000160: 1fa3 38c0 ac84 38c0 2d47 40c0 e510 36c0
00000170: 181b 3cc0 fb7b 3dc0 a391 42c0 b335 3ac0
00000180: 27d2 37c0 67ed 3bc0 f116 4bc0 4226 4bc0
00000190: 3171 4fc0 65ec 49c0 9060 45c0 fb08 43c0
000001a0: 167a 2fc0 4538 31c0 f665 4ac0 48d6 44c0
000001b0: 823c 3fc0 9667 48c0 bc9f 45c0 c4f2 4bc0
000001c0: 68c5 49c0 2de5 38c0 cce5 39c0 245e 4dc0
000001d0: 0690 40c0 f4b9 34c0 e57f 47c0 398c 43c0
000001e0: c26c 43c0 ee82 3ac0 427b 3ec0 e441 3cc0
000001f0: 8721 46c0 6eed 53c0 99e2 3fc0 099c 41c0
00000200: 346f 46c0 6075 3ac0 7591 43c0 afe1 36c0
00000210: ea83 46c0 675d 38c0 afef 3ec0 337e 4dc0
00000220: a977 47c0 66f9 45c0 2df4 41c0 8725 4cc0
00000230: b35d 45c0 6305 41c0 8eaf 39c0 ebf9 3fc0
00000240: a028 47c0 03dd 4dc0 8d86 3cc0 4b81 43c0
00000250: 5f95 41c0 1144 3bc0 8d31 3bc0 c04f 42c0
00000260: 0912 44c0 2ea7 47c0 a4b6 3cc0 9267 46c0
00000270: eb38 38c0 9a78 3dc0 37e0 3fc0 5ff4 3dc0
00000280: f22a 3fc0 41ff 43c0 39a8 3fc0 001d 4dc0
00000290: 0005 35c0 3a24 3ec0 f6f8 44c0 cabe 42c0
000002a0: 5033 3ec0 ede3 47c0 d683 3dc0 b7d0 3cc0
000002b0: 790d 40c0 ed98 3fc0 dc9c 3bc0 2117 40c0
000002c0: 9efe 35c0 19e4 40c0 2ff3 3dc0 4d3a 3cc0
000002d0: 1406 47c0 f1b3 3ec0 cd53 44c0 32ab 3ec0
000002e0: ba6e 3cc0 904d 3dc0 3c1f 44c0 9b30 43c0
000002f0: 2a22 3ac0 891b 47c0 ebc0 40c0 de96 3dc0
00000300: dc9f 3ec0 17f7 4dc0 a550 40c0 5e09 49c0
00000310: d129 34c0 062f 3ac0 2cc7 3ac0 84ee 3bc0
00000320: eecf 39c0 4883 40c0 45fb 3bc0 3818 39c0
00000330: d4f1 3cc0 7a2d 39c0 ef11 3ac0 2b1d 4ac0
00000340: 7793 47c0 a582 3fc0 7da2 41c0 acc5 47c0
00000350: 4a9d 37c0 a588 3fc0 0882 40c0 ff0a 46c0
00000360: bfe8 3ec0 bb12 41c0 7f10 40c0 ae94 46c0
00000370: 2e30 33c0 0408 3bc0 d703 38c0 afb6 3cc0
00000380: a79d 3fc0 e28b 36c0 c446 3ac0 1b32 3dc0
00000390: cadd 3dc0 19b5 3ac0 c3ab 46c0 a004 3ec0
000003a0: a2e3 3ec0 1086 35c0 5f7e 41c0 3d4b 49c0
000003b0: 3cd2 45c0 03f5 38c0 f682 3ec0 b4bf 40c0
000003c0: 142b 44c0 22b4 3cc0 e844 3ec0 244d 3cc0
000003d0: fc05 39c0 94a9 43c0 7e40 36c0 34af 36c0
000003e0: e6d0 41c0 f947 40c0 b4b9 45c0 25c3 40c0
000003f0: 4540 44c0 5d1b 40c0 41d8 44c0 778d 41c0
-3.0246403 -3.204487 -3.0688763 -2.9981246 -2.899368 -3.0200467 -2.8771765 -3.053631
-3.0660753 -3.0568628 -3.0935593 -2.9400134 -2.8574755 -2.9772732 -3.0228462 -3.0647473
-3.0966282 -2.9078593 -2.8974936 -3.0407093 -2.8757017 -3.155808 -2.915085 -2.9475422
-2.8660922 -3.0287194 -3.1234064 -3.0203617 -2.8227444 -2.9726758 -3.0236576 -2.9372342
-3.1052566 -2.889786 -3.0939128 -2.9856358 -2.9348094 -3.0656433 -3.1403863 -3.1406574
-2.8722398 -2.8682137 -3.1181087 -2.9793897 -2.875966 -2.9599588 -3.0023637 -3.0765932
-3.0239162 -2.825144 -3.0531647 -3.1925328 -2.917014 -3.1300237 -3.0800266 -3.0276182
-2.9446604 -3.0621567 -3.0274174 -2.8078446 -3.2115412 -3.0058322 -3.0443177 -2.917179
-3.036935 -2.9574692 -2.978571 -3.1189144 -2.8771741 -2.8665395 -2.913112 -3.0231173
-2.9859095 -3.0181234 -2.8511431 -2.932313 -3.0110683 -2.9503129 -3.0763013 -2.9933193
-3.0203352 -3.120305 -3.0574505 -2.9446802 -2.9324863 -2.9915023 -3.0308547 -2.9926536
-2.8849561 -2.8830976 -3.0043442 -2.8447812 -2.9391537 -2.9606922 -3.040139 -2.9095275
-2.8722017 -2.936365 -3.1732752 -3.17421 -3.2412837 -3.1550534 -3.0840187 -3.0474231
-2.7418265 -2.7690594 -3.1624732 -3.0755787 -2.988068 -3.1313224 -3.0878744 -3.1866922
-3.1526737 -2.8889878 -2.9046507 -3.208871 -3.0087905 -2.8238497 -3.117181 -3.0554335
-3.053513 -2.9142413 -2.976273 -2.9415216 -3.0957963 -3.3113666 -2.9982054 -3.0251486
-3.1005373 -2.913414 -3.055753 -2.8575246 -3.1018014 -2.8807008 -2.9833791 -3.2108276
-3.1166785 -3.093347 -3.0305283 -3.1897905 -3.083844 -3.0159538 -2.90134 -2.9996288
-3.1118546 -3.2166145 -2.9457123 -3.0547664 -3.024742 -2.9260294 -2.9248993 -3.0361176
-3.0636008 -3.1195788 -2.9486475 -3.1000714 -2.878474 -2.960486 -2.99806 -2.9680402
-2.9869962 -3.0624545 -2.9946425 -3.204895 -2.8284302 -2.970961 -3.0776954 -3.0428948
-2.9718819 -3.1232865 -2.9611716 -2.950239 -3.0008223 -2.9937088 -2.931449 -3.0014117
-2.8436656 -3.013922 -2.9679677 -2.9410584 -3.109746 -2.9797328 -3.0676148 -2.979199
-2.9442582 -2.957859 -3.0644064 -3.0498416 -2.9083352 -3.1110556 -3.0117748 -2.9623332
-2.978507 -3.2182062 -3.0049222 -3.1411967 -2.8150523 -2.90912 -2.9184065 -2.9364328
-2.903316 -3.0080128 -2.9372113 -2.8921032 -2.95226 -2.8934007 -2.9073446 -3.1580303
-3.1183755 -2.992349 -3.0255425 -3.12144 -2.8689752 -2.9927151 -3.0079365 -3.0944211
-2.9829557 -3.0167682 -3.0010068 -3.1028247 -2.7998157 -2.9223642 -2.8752344 -2.9486501
-2.9939973 -2.8522878 -2.9105692 -2.9561832 -2.966662 -2.9173033 -3.1042335 -2.9690323
-2.9826436 -2.8363075 -3.023338 -3.1452172 -3.0909567 -2.8899543 -2.9767432 -3.0117006
-3.0651293 -2.9484944 -2.9729557 -2.9422083 -2.8909903 -3.0572252 -2.8476863 -2.8544436
-3.0283751 -3.0043929 -3.0894594 -3.0119107 -3.0664227 -3.0016701 -3.075699 -3.0242593

l1.weight.mu f4 [400, 29]
00000000: 3c16 ef3d 7863 86bd 85de f03d 9f7e cd3c
00000010: 1c92 13bb c5d0 bd3d bc12 01be 4bd1 1cbe
00000020: bd11 5d38 0743 093e 007c 28be 2022 c73b
00000030: 2c73 5fbd fad2 19be f6cf bebd 9652 a5bd
00000040: b930 cebd 589a 95bb e21c dd3d c551 30bc
00000050: ab8e 30bc 6a98 ad3c 9799 953e 2d27 46bd
00000060: 24ee 353e e698 8c3d dfeb 703c e823 8fbd
00000070: 258b 2f3e 17c6 1d3e 4f28 b33d d18b a63d
00000080: 3c79 853d dbc9 293d dc07 e33d e80f f33d
00000090: 8fcc 21bd e0a0 363e 577d 71bc b75e 683d
000000a0: 2541 ba3d b6c0 bc3d 02bd 983d 4b93 7bbd
000000b0: 38d3 cc3c 8ef6 833d 6760 983d d566 a6bc
000000c0: 084a 803d 0de9 023e b6fa 5d3d d8f8 c5bd
000000d0: 7bd4 273e 4681 8d3d 3c96 023e 6d18 cabc
000000e0: 96c8 733d 0b64 f43c 157b 3abd 5e96 083d
000000f0: 5b4f e13d 7b45 81bd 4774 3ebe 0191 07be
00000100: dc91 593c f8ba e23d 2656 d8bd 9313 aa3d
00000110: 2906 9f3d 3768 1ebd 939b 793d 738d 0d3d
00000120: 3577 473e a5c2 173d 7ec7 e4bd 692f 983c
00000130: 3c1b 413d 381a ce3d 75d7 99bd c6d0 c63d
00000140: a52b 8cbc 5045 7a3d 7fbc bd3d 4103 4a3d
00000150: d0fd 853d 3735 953d 88c1 14be 4a2b 3bbc
00000160: 4cbd 1cbd ebfc 813c c8c8 91bc 78e1 f63d
00000170: 2890 c03d ae84 963e d81b 6ebc 8384 233e
00000180: 8650 06bd 3e00 853d 7e67 603b d6c7 0ebd
00000190: d4a4 673e 5cb4 423c 0255 a93c 4a01 ae3a
000001a0: 3a70 b8bb 57f7 acbd b93a 953d 8c67 50bd
000001b0: e124 d13c 8947 c9bd 6166 f0bd 5ffc 483c
000001c0: 7c1f 03be b511 81be 4fa5 abbd a08d 313e
000001d0: ff26 503d b205 953d f2a3 cb3b 1a8b 2b3d
000001e0: fb94 823a 0620 903d 8bb0 1dbb 97a3 41bb
000001f0: a201 dabc 52ba 27be a3e5 35be 428c 803e
00000200: 61ae 27be b0fc 53bd 4c9f 43bd 0f67 8a3c
00000210: 174f edbb 6219 c63c 5542 3f3e 7fe2 ea3d
00000220: 6c10 3a3e 1b2f a03d 369c 91bc 9889 8c3d
00000230: 47c5 db3d 5366 463e d993 5ebd 8ef3 48bd
00000240: 0464 87bd a2ae c03c 873d f3bd 0b4c 1b3b
00000250: d555 35be d4b1 0f3c e553 05bd f149 0bbe
00000260: deb5 9b3d 2b42 bbbd 7657 21be e445 b23d
00000270: 7145 dcbd 308f e7bd b80f afbd 4eae cf3d
00000280: ea10 6f3d 5ae2 8bbd 4016 34be a2a3 0e3e
00000290: 671e f83d 7b67 1cbe 6be5 f93d 4cc1 273b
000002a0: a933 e7bc e323 fb3d f66f 1039 3cc3 0b3e
000002b0: c7a8 223d 8a90 2abe 252c 513e 403f 8c3e
000002c0: 36f6 823e d0d8 a23c 569e c83d f0c5 543e
000002d0: 277a 293e 19fa 193e 1b1a de3d 0d02 133e
000002e0: f801 4e3d 1718 5b3e b4e5 a13d 3f6f 443e
000002f0: 9ee3 f13d 3a6d 6e3d 1190 853e 3282 353e
00000300: 70ab 08bd 75e0 363e 2166 0f3e 3799 c1bd
00000310: eb5c 293e adda d83e 46b6 49bc 243a f73d
00000320: f2d6 283e ab2a 873d ebd4 ca3d 3496 aebd
00000330: 411b 313e b9f7 2cbe 73b5 663d e532 0a3e
00000340: de40 173e 7064 82bd 9fde a2bd 052d 89bd
00000350: 1846 093e f13e 353c 1dca ba3c 6243 9a3c
00000360: a9c2 5d3d a9a9 0ebe 037d debd f52e b7bd
00000370: dad7 45be 77d1 1cbd aec5 a13b 9772 a23d
00000380: f8e3 323d 4432 d2bd 1cfd c83c 384d 9a3d
00000390: 9a2d b6bd 2657 dc3d 93ea d9bd b4da 193e
000003a0: 083d 003d 6bb7 0cbd 13b3 11bd 9719 c8bd
000003b0: 36fd 4ebd c2ec 153e e92c 283d cc82 1cbe
000003c0: e7f2 8d3d 581c e5bd c116 7b3b e6a7 94bd
000003d0: ed72 00be baeb e4bd 71b8 96bd de51 003d
000003e0: f69e 033e e0a9 cabd 9dc9 a73c 225a 873d
000003f0: c273 54bc 8332 1cbd 6fb6 f33d abf5 fdbc
0.11674163 -0.06561941 0.11761192 0.025084792 -0.0022517508 0.09268335 -0.12604803 -0.15314214
5.2707026e-05 0.13404475 -0.16453552 0.006077066 -0.054553196 -0.15021887 -0.09317009 -0.08072393
-0.10067887 -0.0045655183 0.107965246 -0.010761683 -0.010776202 0.02119084 0.29218742 -0.048377205
0.17766625 0.068651006 0.014704674 -0.069892704 0.17142923 0.15407597 0.08747923 0.081321366
0.06517264 0.04145227 0.110854834 0.11868268 -0.039501723 0.17834806 -0.014739356 0.056730952
0.090944566 0.09216444 0.074579254 -0.061419766 0.02500306 0.06443511 0.07440262 -0.020312706
0.0626412 0.12784214 0.054194175 -0.09666604 0.16389649 0.069094226 0.12752622 -0.02466985
0.059517466 0.02983286 -0.045527536 0.033346526 0.11001464 -0.063120805 -0.18599044 -0.13238908
0.0132794045 0.11070818 -0.105633065 0.08304515 0.07764847 -0.038673606 0.060939383 0.034558725
0.19479068 0.037050862 -0.111708626 0.018577294 0.047145113 0.100635946 -0.07511798 0.09707789
-0.017110655 0.061101258 0.092644684 0.04931951 0.065425515 0.072855406 -0.14526951 -0.011423895
-0.038266465 0.015867671 -0.017795935 0.120547235 0.094024956 0.29398102 -0.014533006 0.15968518
-0.032791637 0.06494187 0.0034241374 -0.034858547 0.2262147 0.011883821 0.020670418 0.0013275531
-0.005628613 -0.08445614 0.07286591 -0.05088 0.02553028 -0.098280974 -0.11738277 0.012267201
-0.12804979 -0.25208822 -0.083811395 0.17339182 0.05081844 0.07276477 0.006214612 0.041880704
0.0009962613 0.07037358 -0.0024061527 -0.002954697 -0.026612107 -0.1637967 -0.1776338 0.25107008
-0.16375114 -0.051754653 -0.04775934 0.016894845 -0.0072420943 0.024182025 0.18677647 0.11468982
0.18170327 0.07821485 -0.017774682 0.068621814 0.10730987 0.19374971 -0.054340217 -0.049060397
-0.06610873 0.023520771 -0.1187697 0.0023696448 -0.17708524 0.008770425 -0.03255071 -0.13602425
0.07603048 -0.0914348 -0.1575602 0.08704737 -0.107554324 -0.11306608 -0.0854792 0.10140668
0.05836574 -0.068302825 -0.17586613 0.13929608 0.12115174 -0.1527385 0.12201961 0.0025597392
-0.028222876 0.12262704 0.00013774619 0.13648695 0.03971174 -0.166567 0.20426996 0.27392006
0.2557847 0.019878775 0.09795825 0.20778632 0.16550504 0.15036811 0.10844823 0.14356251
0.050294846 0.21395908 0.079051405 0.19183062 0.11810993 0.058209635 0.26086476 0.17725447
-0.03336662 0.17859061 0.14003803 -0.094530515 0.16539352 0.42354336 -0.012311524 0.12071636
0.16488245 0.06599935 0.09903892 -0.08524743 0.17295553 -0.16891374 0.056325387 0.13495977
0.14770839 -0.06366813 -0.07952618 -0.0669804 0.13405645 0.01106237 0.022801453 0.018830959
0.05414072 -0.13931908 -0.10863688 -0.08944503 -0.19320622 -0.0382857 0.0049368953 0.079320125
0.04367444 -0.10263494 0.024534754 0.075342596 -0.088954166 0.1075881 -0.106404446 0.15024835
0.031308204 -0.03435461 -0.03557117 -0.09770506 -0.05053445 0.14641097 0.041058455 -0.1528427
0.069310956 -0.11187047 0.0038313123 -0.072585866 -0.1254384 -0.11177774 -0.07359398 0.031328075
0.12853608 -0.09895682 0.020481879 0.06608988 -0.012967052 -0.03813411 0.11900031 -0.031000933

l1.weight.rho f4 [400, 29]
00000000: 4a92 3cc0 8e42 3dc0 add4 41c0 66f6 39c0
00000010: a867 33c0 d9ec 42c0 7385 3ec0 64f0 4ac0
00000020: 3e21 49c0 4089 41c0 2483 4cc0 1862 40c0
00000030: a6b3 3dc0 1948 47c0 0072 42c0 85be 3bc0
00000040: 9b03 4cc0 4ccb 41c0 5e3a 3ec0 8815 3cc0
00000050: 49ec 3ac0 a8c6 3dc0 1d26 41c0 0d77 46c0
00000060: 78a4 38c0 094d 3cc0 1756 31c0 1586 3ec0
00000070: a5c5 3dc0 8c7c 44c0 fffa 41c0 0457 46c0
00000080: e4b2 3bc0 c86b 38c0 0a12 53c0 4ad1 46c0
00000090: 90c3 3fc0 b92b 42c0 0088 43c0 6d3f 31c0
000000a0: 9b93 3ec0 ce67 42c0 9656 32c0 4e31 35c0
000000b0: 0548 39c0 7b9b 3bc0 2c1a 39c0 6090 40c0
000000c0: 86b8 44c0 e472 37c0 257c 46c0 1a43 35c0
000000d0: c05c 40c0 ce2b 3dc0 7542 42c0 92ad 4ac0
000000e0: 2e8c 3fc0 7842 43c0 9469 3dc0 ed85 48c0
000000f0: d7a7 45c0 ceb3 36c0 1e0e 3bc0 ee37 46c0
00000100: 442c 3fc0 0290 3bc0 d941 41c0 bc36 3bc0
00000110: 373e 3dc0 c9ae 3dc0 87c5 3dc0 2f89 46c0
00000120: 7acc 42c0 b5f6 42c0 ec7f 3ec0 cf5e 3bc0
00000130: 7d4c 3bc0 c451 3ac0 26b7 4ac0 9cf5 3dc0
00000140: 3b6c 3ec0 f1c5 38c0 0661 41c0 f8e0 3ac0
00000150: 4aa7 43c0 6edc 46c0 ad59 3ac0 e11a 47c0
00000160: 8b3e 39c0 9c2d 48c0 a95e 3ac0 7128 47c0
00000170: bb64 3ec0 7d5c 42c0 bfde 3cc0 e496 3dc0
00000180: 0f78 44c0 b52c 3dc0 b84b 46c0 a7f3 44c0
00000190: 9412 3fc0 6b22 44c0 9638 3dc0 fe0d 4cc0
000001a0: 0201 43c0 c6ff 41c0 9486 3fc0 dcec 36c0
000001b0: 70e0 42c0 f1be 3bc0 0e41 38c0 9cec 47c0
000001c0: b999 43c0 f3e6 3fc0 0002 44c0 6e51 3bc0
000001d0: 99d2 44c0 1940 45c0 6820 44c0 8655 3dc0
000001e0: ee5d 41c0 c63b 42c0 f3bf 3dc0 ddad 36c0
000001f0: 5f90 3fc0 e19b 4ac0 c19c 41c0 0093 4bc0
00000200: 1000 43c0 00e5 35c0 230c 3cc0 18e0 3ec0
00000210: c231 38c0 909b 3fc0 c9d6 47c0 8aca 35c0
00000220: c915 43c0 bcd0 30c0 21d2 4bc0 a957 45c0
00000230: d1a1 3dc0 3f99 3fc0 beff 43c0 5fd9 42c0
00000240: dc26 46c0 4465 3bc0 d39c 39c0 718f 36c0
00000250: 5766 45c0 ff4b 45c0 3898 3ac0 8cf0 44c0
00000260: eea3 3fc0 58d9 44c0 8454 3fc0 140c 3cc0
00000270: 2d8d 3fc0 4509 46c0 d162 47c0 cd54 34c0
00000280: 4063 3dc0 e4d8 39c0 4b7b 43c0 bee9 44c0
00000290: 7907 45c0 b919 3cc0 921e 48c0 fe1d 46c0
000002a0: a835 41c0 7678 44c0 43cb 41c0 e96e 43c0
000002b0: 4f13 37c0 938e 47c0 7bb6 41c0 318e 3cc0
000002c0: a19d 38c0 3b77 4ec0 476e 3bc0 e5bb 42c0
000002d0: 00de 3dc0 92f2 40c0 4809 43c0 a6d4 33c0
000002e0: 9f00 36c0 8029 42c0 7575 39c0 9cb3 3ec0
000002f0: bffd 40c0 0fc8 3fc0 1e9f 49c0 b7aa 43c0
00000300: b659 3bc0 9d39 4bc0 b61c 4ac0 022b 33c0
00000310: 7a73 3ec0 00d0 40c0 6e88 37c0 f8a7 3bc0
00000320: de11 40c0 8b5e 33c0 42e1 40c0 25aa 3ec0
00000330: fd5a 46c0 f01c 3dc0 f917 42c0 7b54 3bc0
00000340: 96a2 3ec0 e6aa 3cc0 d181 3cc0 87e4 33c0
00000350: 1865 35c0 6688 3dc0 2761 3ec0 e96a 3cc0
00000360: 3037 40c0 8e7e 3ec0 a355 47c0 22b3 4ec0
00000370: 5282 48c0 b781 3ac0 8837 40c0 60d7 42c0
00000380: df2a 3dc0 8eac 3ec0 4134 44c0 4729 39c0
00000390: a60d 46c0 69f0 37c0 ee0f 51c0 d2dc 3ec0
000003a0: 0db2 49c0 3b96 3fc0 72e8 3bc0 1993 48c0
000003b0: 49eb 45c0 3da8 45c0 87a6 34c0 f755 4ac0
000003c0: c134 36c0 a7c1 41c0 0272 43c0 6ca1 37c0
000003d0: 1e54 3fc0 c56d 3dc0 f1d7 36c0 246e 4dc0
000003e0: e8fe 39c0 ccc8 43c0 0077 49c0 247a 3ec0
000003f0: 1b2d 3bc0 86e1 39c0 25a4 3bc0 9699 3fc0
-2.9464288 -2.9571872 -3.0286057 -2.905664 -2.8032017 -3.045706 -2.976895 -3.1709223
-3.142654 -3.024002 -3.1955042 -3.0059872 -2.9640899 -3.1137755 -3.038208 -2.9335034
-3.18772 -3.0280333 -2.9723125 -2.9388142 -2.9206717 -2.96525 -3.0179513 -3.1010163
-2.8850384 -2.9422019 -2.7708795 -2.9769337 -2.9651883 -3.0701017 -3.0309446 -3.099061
-2.9327936 -2.8815784 -3.297976 -3.106524 -2.9963112 -3.0339186 -3.0551758 -2.7694962
-2.9777591 -3.0375857 -2.7865348 -2.8311343 -2.8950207 -2.9313648 -2.8922224 -3.008812
-3.0737624 -2.8663874 -3.1013272 -2.8322206 -3.005661 -2.9557986 -3.0353062 -3.166844
-2.992931 -3.050932 -2.959569 -3.1331742 -3.0883691 -2.8547244 -2.9227366 -3.0971637
-2.9870768 -2.9306645 -3.019644 -2.9252157 -2.9569223 -2.963793 -2.965181 -3.102123
-3.0437303 -3.0463078 -2.9765577 -2.9276617 -2.9265435 -2.9112406 -3.1674285 -2.9681158
-2.9753559 -2.8870814 -3.0215468 -2.919981 -3.0570855 -3.107204 -2.9117234 -3.1110156
-2.8944423 -3.1277838 -2.9120276 -3.1118433 -2.974898 -3.036895 -2.9510953 -2.9623346
-3.0698278 -2.9558537 -3.0983715 -3.0773714 -2.985509 -3.0646007 -2.9565787 -3.188354
-3.0469365 -3.0312362 -2.992589 -2.8582067 -3.0449486 -2.9335291 -2.8789706 -3.1238165
-3.0562575 -2.998471 -3.062622 -2.926845 -3.0753539 -3.0820372 -3.064478 -2.958345
-3.021358 -3.0348983 -2.9648407 -2.8543618 -2.9931867 -3.165764 -3.0251925 -3.1808472
-3.0468788 -2.842102 -2.9382408 -2.9824276 -2.878037 -2.9938698 -3.1224844 -2.840487
-3.0482047 -2.7627401 -3.1847003 -3.0834754 -2.9630015 -2.9937284 -3.0624843 -3.0445173
-3.0961218 -2.9280558 -2.9001968 -2.852505 -3.0843713 -3.0827634 -2.9155407 -3.0771818
-2.9943805 -3.0757656 -2.9895334 -2.9382372 -2.9929917 -3.0943158 -3.1154063 -2.8176758
-2.9591827 -2.903863 -3.0544002 -3.0767665 -3.078581 -2.93907 -3.1268659 -3.0955806
-3.0189 -3.0698524 -3.028031 -3.0536444 -2.8605535 -3.118077 -3.0267627 -2.9461787
-2.884621 -3.2260273 -2.9286058 -3.0427182 -2.9666748 -3.0148053 -3.0474415 -2.809854
-2.843788 -3.033783 -2.897794 -2.9797125 -3.0154874 -2.9965856 -3.1503367 -3.0572946
-2.9273505 -3.1753914 -3.1580024 -2.7995 -2.9757981 -3.0126953 -2.867702 -2.932127
-3.0010905 -2.8026454 -3.0137486 -2.9791348 -3.0993035 -2.9548912 -3.0327132 -2.9270313
-2.9786735 -2.9479308 -2.9454234 -2.8108232 -2.8342953 -2.96145 -2.9746797 -2.9440253
-3.0033684 -2.9764743 -3.1146019 -3.2296834 -3.1329541 -2.9141672 -3.0033894 -3.0443954
-2.9557416 -2.979282 -3.0656893 -2.8931444 -3.094583 -2.8740485 -3.2665973 -2.9822278
-3.1514924 -2.9935443 -2.9360623 -3.1339781 -3.0924857 -3.0883934 -2.822664 -3.1614969
-2.8469698 -3.0274446 -3.0538335 -2.8692274 -2.989509 -2.9598248 -2.85693 -3.2098475
-2.9061832 -3.0591307 -3.1478882 -2.9762049 -2.924628 -2.9043899 -2.9318936 -2.9937491

l1.bias.mu f4 [400]
00000000: 47c0 8cbe d0bf 463e 8b96 063e 0542 833e
00000010: e15b 123c 4096 0bbe 087e e33e a626 aebc
00000020: 3360 883e 7526 073e 41a4 633e 6be5 5c3d
00000030: 3920 1f3e e332 a3bd 5809 933d 2842 3fbd
00000040: 345a 4e3c 7a68 483e 0576 353e e046 4e3d
00000050: e909 c43e 74c7 cc3d 317c ec3d f43f 4f3e
00000060: b5e3 c3bd 61ff 3ebd 46c7 623c 4a32 6a3e
00000070: a499 b83c 6d84 8b3e f992 aabd fd5b 0abd
00000080: 6c1e efb9 0b7e 0b3e af8d 67bd b14c debd
00000090: 394f 89bc a9a9 f6bd 6faf c1bc 3bad c9bb
000000a0: e939 b5bc 6e41 213d 819c d8bb e838 c13d
000000b0: fa39 ef3d 4d0d 5a3c d6df 99bd 837d 183e
000000c0: 9dfe 283e c442 823e e040 813d f3c3 98bd
000000d0: 2db6 8e3c 485e e43d 3015 9cbd bf13 74bd
000000e0: 1f97 b93d 5e4e e03d b484 113e 75da 04bc
000000f0: 2c21 54bd c5c7 013e fb66 f2ba 729e db3d
00000100: b61d 43be bc8c b43e f3e6 e4bd 682e 943d
00000110: ee0c 5abe ef59 30be 8a59 b13d 31d9 af3c
00000120: d7d2 793d 8afd 7a3b 0f10 603c 528d 1abd
00000130: 20bf 983c 7ba4 073e c286 10be 3b2d a23d
00000140: ca37 f2bd b7f9 eabc 655e ed3c 0d0a f1bc
00000150: 9e5a ca3d e403 3fbd 74d3 e9bc 7ff3 913c
00000160: eeb9 a3bb cb6c 63be 1539 013c 709b d83d
00000170: 017e 22be 3a1b 9a3e 6c8d c93c 2959 a33d
00000180: 268c 583d a2c1 143d fd99 a5bc 20cf 8dbd
00000190: e1bb b9bc 7d34 3e3d 1749 4a3e 59ea 053d
000001a0: 9924 3bbd 74ac c93d 3125 3f3c 781e 6e3c
000001b0: 9c16 17be 7b6e 883e b12b cb3d 3b18 54be
000001c0: 3558 9fbd 6415 5f3e f564 f83d 7360 d3bd
000001d0: c6a3 803e f0d9 f13c 638e 143d ceb0 d93b
000001e0: 5d4e c63c bcd7 a73d 6fc8 c1bd 1b30 b0bd
000001f0: a72d ebbc a10f a0bc 2430 5abd a886 42bd
00000200: 60ea 7e3e 09ca 33be b276 863c 474d 953d
00000210: 1c05 ee3a 5e74 e1bd 0f4c f6bb bd8c a03d
00000220: 6d39 3a3d 49ea 023d 80c0 563e dc30 55bc
00000230: eb1c 763d 3644 483e f7dc 483b e094 553d
00000240: 7551 a73c 885c 53bc 69b4 dcbd 848c 7e3e
00000250: c331 c53d 2c0e 0abe 8e1a e53d 5a54 d7bd
00000260: f9c3 22be 1cdd 56be e02a 5abd b5ff 4cbd
00000270: 292c cdbc 6a1d 8b3d cfd0 383e 67a7 c53d
00000280: 1415 383e 1aea 34be 9bc8 d1bd 4975 6c3b
00000290: dffe 68bc 221f 99bd 41da 90be 7591 1bbd
000002a0: 3e42 483e 0493 e0bd a956 05be 1ecb aabd
000002b0: bf09 edbc 9159 623d 1cf3 84bd a31d 1f3d
000002c0: 5960 663d 2785 1c3e 3933 f3bd cb71 5d3d
000002d0: 5848 c33b 6149 bc3b b0d8 d8bd a0ae 3d3d
000002e0: 02b4 763b 56cd 3e3d 4554 8fbc e481 c7bd
000002f0: 74c0 e2bd 4279 853d 9b14 88bd b7a7 48be
00000300: 7d64 18be fe26 f3bb fd61 2c3d f84c 93bd
00000310: 2652 a7bc dbe9 783d 0445 243e e409 403e
00000320: b9b3 213e bf22 32bc 2416 efbc a869 a33c
00000330: a58f 0bbe 3de6 e73e 6801 89bd bf7e 11be
00000340: b109 e23d d147 083e d9b0 513e 704a fdbd
00000350: aeb2 793e d530 013e 7b38 a93d edfa 96bd
00000360: 0f00 6b3d 5bf6 0fbc 2a69 673e 2285 293d
00000370: 303a 173e 0bf8 713c 48f1 5fbe c65e c8bb
00000380: 4fac 6f3b 23e9 a33d 46fd 20be 324b dd3d
00000390: 1f19 543c 64db 253b 64df 0a3d b360 3f3d
000003a0: e1f2 4a3d c10b 21bc bf23 9bbc 81ae 37be
000003b0: 1950 c13d c42b c6bd 1dd8 2d3e 18fb d5bd
000003c0: e029 85bd 1ded 7b3d 3051 f7bc 2ee1 bebc
000003d0: ddb1 ebbc bcc2 463d 6f72 213d 32b1 7f3c
000003e0: c9ab cabd 11cd e0bc 874e 8cbd b448 18bd
000003f0: 9e10 b13d 3911 a13d 9066 86ba 972a 093d
-0.27490446 0.19409108 0.13143365 0.25636306 0.008933038 -0.13631535 0.44432092 -0.021258663
0.26635894 0.13198264 0.22230627 0.053929728 0.15539636 -0.0796869 0.071795166 -0.04669395
0.012594748 0.19571105 0.17720802 0.05036056 0.3828881 0.0999898 0.11547125 0.2023924
-0.09564916 -0.046630267 0.013841456 0.22870746 0.022534199 0.2724947 -0.08328814 -0.033779133
-0.00045608298 0.136223 -0.056531604 -0.108544715 -0.01676141 -0.12044079 -0.023643224 -0.006154684
-0.02212234 0.03936904 -0.0066104536 0.09434682 0.1168098 0.013308835 -0.075133964 0.14891629
0.16503377 0.25441563 0.06311202 -0.07459249 0.017420853 0.11150795 -0.07621229 -0.059589144
0.09062027 0.10952447 0.14210778 -0.008108725 -0.051789448 0.12673862 -0.0018493825 0.107235804
-0.19054303 0.35263622 -0.111768626 0.07235414 -0.21293995 -0.17221807 0.08659656 0.02146587
0.06099209 0.0038298094 0.013675704 -0.03773243 0.018645823 0.13246338 -0.14113906 0.07918783
-0.11827047 -0.028683526 0.028975675 -0.029423738 0.09880565 -0.04663457 -0.028543212 0.017816303
-0.00499653 -0.2220947 0.007887145 0.10576522 -0.15868379 0.30098897 0.024603568 0.0797599
0.05286803 0.036317475 -0.020215029 -0.069242716 -0.022672595 0.046436775 0.19754444 0.032694194
-0.0456892 0.09847346 0.011666582 0.0145336315 -0.14754719 0.2664679 0.09920443 -0.20712368
-0.07780496 0.21785504 0.12128631 -0.103211306 0.2512495 0.029522866 0.036268603 0.006643391
0.024207288 0.08195445 -0.09462058 -0.086029254 -0.028708292 -0.019538702 -0.053268567 -0.0474917
0.24894094 -0.17557539 0.01641402 0.0729013 0.0018159482 -0.110085234 -0.007516391 0.07839344
0.04546492 0.031961713 0.2097187 -0.013012137 0.060086172 0.1955727 0.0030649283 0.05214393
0.020424584 -0.012900479 -0.10776598 0.2485829 0.09628632 -0.13481969 0.111867055 -0.10514136
-0.1589507 -0.20982784 -0.053263545 -0.05004855 -0.025045471 0.0679272 0.18048404 0.0965107
0.1797679 -0.17667428 -0.102433406 0.003608065 -0.014220922 -0.07476641 -0.28291515 -0.037980516
0.1955652 -0.10965541 -0.1302134 -0.08339523 -0.028935311 0.0552612 -0.06491682 0.038846623
0.056244228 0.15285169 -0.11875004 0.0540636 0.005959552 0.005746052 -0.10588205 0.046309114
0.0037643914 0.046582542 -0.017496238 -0.097415715 -0.11071864 0.06517269 -0.06644555 -0.19595228
-0.14882083 -0.0074204197 0.042085636 -0.07192415 -0.020424914 0.060769897 0.16041952 0.18753773
0.15791215 -0.010872542 -0.029185362 0.019947842 -0.13629015 0.45292845 -0.06689721 -0.14208506
0.11037005 0.13308646 0.20477618 -0.123677135 0.24384567 0.12616284 0.08262726 -0.07372079
0.057373103 -0.008786763 0.2259871 0.04138673 0.1476829 0.014768611 -0.21869385 -0.0061148135
0.003657121 0.08003452 -0.15721616 0.10805358 0.012945442 0.002530777 0.03390445 0.04672308
0.049548034 -0.0098294625 -0.018937944 -0.17937662 0.094391055 -0.096763164 0.16976972 -0.10448283
-0.06502128 0.061505426 -0.03019008 -0.023300733 -0.028771335 0.048525557 0.039415773 0.0156062115
-0.09896047 -0.027441533 -0.068509154 -0.03717871 0.086457476 0.07864613 -0.0010253955 0.033487882

l1.bias.rho f4 [400]
00000000: b593 41c0 5116 4dc0 7868 44c0 46e1 3fc0
00000010: 3f8f 39c0 7248 41c0 a923 38c0 b16e 43c0
00000020: 943a 44c0 a4a3 43c0 e0fc 45c0 2e29 3cc0
00000030: e1e0 36c0 a58b 3ec0 5076 41c0 d224 44c0
00000040: 282f 46c0 5e1a 3ac0 8970 39c0 fb9a 42c0
00000050: 7f0b 38c0 c2f8 49c0 c190 3ac0 88a4 3cc0
00000060: 0e6e 37c0 8ad6 41c0 e4e5 47c0 9b4d 41c0
00000070: d8a7 34c0 5240 3ec0 9b83 41c0 a5fb 3bc0
00000080: 86bc 46c0 41f2 38c0 ab02 46c0 a814 3fc0
00000090: ebd3 3bc0 8033 44c0 17fc 48c0 8800 49c0
000000a0: c7d2 37c0 d090 37c0 188f 47c0 52ae 3ec0
000000b0: d40f 38c0 f76f 3dc0 ba26 40c0 e7e6 44c0
000000c0: d887 41c0 29cf 34c0 0d67 43c0 7552 4cc0
000000d0: 5bb0 3ac0 4f52 48c0 281f 45c0 7fc4 41c0
000000e0: 5175 3cc0 60fa 43c0 35c1 41c0 bab3 33c0
000000f0: e489 4dc0 8e5f 40c0 1ad6 42c0 10b3 3ac0
00000100: 255d 42c0 2d47 3dc0 e8a0 3ec0 4b9c 47c0
00000110: 9f23 38c0 6275 37c0 6d70 3ac0 c17a 41c0
00000120: 2419 3fc0 ef28 41c0 2179 36c0 04ab 3bc0
00000130: 58b5 40c0 edd1 3cc0 1fe2 44c0 8b92 3fc0
00000140: 2c4d 41c0 14b3 47c0 45ad 43c0 a475 3cc0
00000150: dbad 3bc0 c674 3fc0 86f9 41c0 a387 3fc0
00000160: 1fa3 38c0 ac84 38c0 2d47 40c0 e510 36c0
00000170: 181b 3cc0 fb7b 3dc0 a391 42c0 b335 3ac0
00000180: 27d2 37c0 67ed 3bc0 f116 4bc0 4226 4bc0
00000190: 3171 4fc0 65ec 49c0 9060 45c0 fb08 43c0
000001a0: 167a 2fc0 4538 31c0 f665 4ac0 48d6 44c0
000001b0: 823c 3fc0 9667 48c0 bc9f 45c0 c4f2 4bc0
000001c0: 68c5 49c0 2de5 38c0 cce5 39c0 245e 4dc0
000001d0: 0690 40c0 f4b9 34c0 e57f 47c0 398c 43c0
000001e0: c26c 43c0 ee82 3ac0 427b 3ec0 e441 3cc0
000001f0: 8721 46c0 6eed 53c0 99e2 3fc0 099c 41c0
00000200: 346f 46c0 6075 3ac0 7591 43c0 afe1 36c0
00000210: ea83 46c0 675d 38c0 afef 3ec0 337e 4dc0
00000220: a977 47c0 66f9 45c0 2df4 41c0 8725 4cc0
00000230: b35d 45c0 6305 41c0 8eaf 39c0 ebf9 3fc0
00000240: a028 47c0 03dd 4dc0 8d86 3cc0 4b81 43c0
00000250: 5f95 41c0 1144 3bc0 8d31 3bc0 c04f 42c0
00000260: 0912 44c0 2ea7 47c0 a4b6 3cc0 9267 46c0
00000270: eb38 38c0 9a78 3dc0 37e0 3fc0 5ff4 3dc0
00000280: f22a 3fc0 41ff 43c0 39a8 3fc0 001d 4dc0
00000290: 0005 35c0 3a24 3ec0 f6f8 44c0 cabe 42c0
000002a0: 5033 3ec0 ede3 47c0 d683 3dc0 b7d0 3cc0
000002b0: 790d 40c0 ed98 3fc0 dc9c 3bc0 2117 40c0
000002c0: 9efe 35c0 19e4 40c0 2ff3 3dc0 4d3a 3cc0
000002d0: 1406 47c0 f1b3 3ec0 cd53 44c0 32ab 3ec0
000002e0: ba6e 3cc0 904d 3dc0 3c1f 44c0 9b30 43c0
000002f0: 2a22 3ac0 891b 47c0 ebc0 40c0 de96 3dc0
00000300: dc9f 3ec0 17f7 4dc0 a550 40c0 5e09 49c0
00000310: d129 34c0 062f 3ac0 2cc7 3ac0 84ee 3bc0
00000320: eecf 39c0 4883 40c0 45fb 3bc0 3818 39c0
00000330: d4f1 3cc0 7a2d 39c0 ef11 3ac0 2b1d 4ac0
00000340: 7793 47c0 a582 3fc0 7da2 41c0 acc5 47c0
00000350: 4a9d 37c0 a588 3fc0 0882 40c0 ff0a 46c0
00000360: bfe8 3ec0 bb12 41c0 7f10 40c0 ae94 46c0
00000370: 2e30 33c0 0408 3bc0 d703 38c0 afb6 3cc0
00000380: a79d 3fc0 e28b 36c0 c446 3ac0 1b32 3dc0
00000390: cadd 3dc0 19b5 3ac0 c3ab 46c0 a004 3ec0
000003a0: a2e3 3ec0 1086 35c0 5f7e 41c0 3d4b 49c0
000003b0: 3cd2 45c0 03f5 38c0 f682 3ec0 b4bf 40c0
000003c0: 142b 44c0 22b4 3cc0 e844 3ec0 244d 3cc0
000003d0: fc05 39c0 94a9 43c0 7e40 36c0 34af 36c0
000003e0: e6d0 41c0 f947 40c0 b4b9 45c0 25c3 40c0
000003f0: 4540 44c0 5d1b 40c0 41d8 44c0 778d 41c0
-3.0246403 -3.204487 -3.0688763 -2.9981246 -2.899368 -3.0200467 -2.8771765 -3.053631
-3.0660753 -3.0568628 -3.0935593 -2.9400134 -2.8574755 -2.9772732 -3.0228462 -3.0647473
-3.0966282 -2.9078593 -2.8974936 -3.0407093 -2.8757017 -3.155808 -2.915085 -2.9475422
-2.8660922 -3.0287194 -3.1234064 -3.0203617 -2.8227444 -2.9726758 -3.0236576 -2.9372342
-3.1052566 -2.889786 -3.0939128 -2.9856358 -2.9348094 -3.0656433 -3.1403863 -3.1406574
-2.8722398 -2.8682137 -3.1181087 -2.9793897 -2.875966 -2.9599588 -3.0023637 -3.0765932
-3.0239162 -2.825144 -3.0531647 -3.1925328 -2.917014 -3.1300237 -3.0800266 -3.0276182
-2.9446604 -3.0621567 -3.0274174 -2.8078446 -3.2115412 -3.0058322 -3.0443177 -2.917179
-3.036935 -2.9574692 -2.978571 -3.1189144 -2.8771741 -2.8665395 -2.913112 -3.0231173
-2.9859095 -3.0181234 -2.8511431 -2.932313 -3.0110683 -2.9503129 -3.0763013 -2.9933193
-3.0203352 -3.120305 -3.0574505 -2.9446802 -2.9324863 -2.9915023 -3.0308547 -2.9926536
-2.8849561 -2.8830976 -3.0043442 -2.8447812 -2.9391537 -2.9606922 -3.040139 -2.9095275
-2.8722017 -2.936365 -3.1732752 -3.17421 -3.2412837 -3.1550534 -3.0840187 -3.0474231
-2.7418265 -2.7690594 -3.1624732 -3.0755787 -2.988068 -3.1313224 -3.0878744 -3.1866922
-3.1526737 -2.8889878 -2.9046507 -3.208871 -3.0087905 -2.8238497 -3.117181 -3.0554335
-3.053513 -2.9142413 -2.976273 -2.9415216 -3.0957963 -3.3113666 -2.9982054 -3.0251486
-3.1005373 -2.913414 -3.055753 -2.8575246 -3.1018014 -2.8807008 -2.9833791 -3.2108276
-3.1166785 -3.093347 -3.0305283 -3.1897905 -3.083844 -3.0159538 -2.90134 -2.9996288
-3.1118546 -3.2166145 -2.9457123 -3.0547664 -3.024742 -2.9260294 -2.9248993 -3.0361176
-3.0636008 -3.1195788 -2.9486475 -3.1000714 -2.878474 -2.960486 -2.99806 -2.9680402
-2.9869962 -3.0624545 -2.9946425 -3.204895 -2.8284302 -2.970961 -3.0776954 -3.0428948
-2.9718819 -3.1232865 -2.9611716 -2.950239 -3.0008223 -2.9937088 -2.931449 -3.0014117
-2.8436656 -3.013922 -2.9679677 -2.9410584 -3.109746 -2.9797328 -3.0676148 -2.979199
-2.9442582 -2.957859 -3.0644064 -3.0498416 -2.9083352 -3.1110556 -3.0117748 -2.9623332
-2.978507 -3.2182062 -3.0049222 -3.1411967 -2.8150523 -2.90912 -2.9184065 -2.9364328
-2.903316 -3.0080128 -2.9372113 -2.8921032 -2.95226 -2.8934007 -2.9073446 -3.1580303
-3.1183755 -2.992349 -3.0255425 -3.12144 -2.8689752 -2.9927151 -3.0079365 -3.0944211
-2.9829557 -3.0167682 -3.0010068 -3.1028247 -2.7998157 -2.9223642 -2.8752344 -2.9486501
-2.9939973 -2.8522878 -2.9105692 -2.9561832 -2.966662 -2.9173033 -3.1042335 -2.9690323
-2.9826436 -2.8363075 -3.023338 -3.1452172 -3.0909567 -2.8899543 -2.9767432 -3.0117006
-3.0651293 -2.9484944 -2.9729557 -2.9422083 -2.8909903 -3.0572252 -2.8476863 -2.8544436
-3.0283751 -3.0043929 -3.0894594 -3.0119107 -3.0664227 -3.0016701 -3.075699 -3.0242593
