checkpoints_16_tasks/16_task_groups_PUGCL_epochs_:150_lr_:0.03_hidden_:180_task_order_:[ 7 14  1 11  2 10  8  4  0  3 12  6 13 15  5  9]/model_9.pth.tar (torch_old, 111025 bytes, 136 tensors)

l1.weight_mu f4 [180, 29]
00000000: 8f0e 8d3d 3326 623e 11af bfbd e235 11be
00000010: 2d01 bebc d91c c1bc ff20 193e 5036 efbb
00000020: f41f 5bbc 5ece 48bd 8235 573d 88e7 453d
00000030: 2fda d1bd 43e5 5dbd b291 26be 6a9d 2f3d
00000040: 954c a63d 3c4d 51be 22af 53bd 101f 6ebd
00000050: 5008 2fbd f907 a83d 3c59 81be 0cbb b6bd
00000060: da2f 263e bb35 18be 7eee 86bd 6d49 2abc
00000070: 675b fabd 6b6c 3fbe 23f5 d23d 1e33 283d
00000080: 6767 ea3c 0a49 72bd b2d2 fcbd 1b3a 763d
00000090: c0e0 36bc 316e 27bd 7575 a1b9 5509 44bd
000000a0: a9c5 a2bd 6fa2 f83c 8bbc debd eafb 00bd
000000b0: b70e 9bbd 9516 42bc 2dcd b03d fc49 d03d
000000c0: 5f31 aa3d 238d 36bd 10f6 8ebc 680d f53d
000000d0: c51e 4fbd f29d 183e 84ba 653d a9b2 843b
000000e0: 5e9a 873d d60c 4b3e f5cc 30bd 0925 babd
000000f0: 6b92 183e 017c 753d 8d76 0abe df21 1a3e
00000100: 1b9a c6bd 71c5 49be 4c8f df3b 8d9e 39bd
00000110: a1e1 0bbe 11ec 023b df2a 893d 6d5c 5c39
00000120: d60d 323d 505d 6c3c 17f3 bf3d 9155 c3bd
00000130: 38f4 b13d 910c b23d c845 cbbd a103 973b
00000140: eb8d 18be ce51 fcbd d675 a9bd 3ffb 6dbd
00000150: 7339 fdbd 1755 12bd 2bf8 14bd 296e 963d
00000160: e9fe 94bd 4f74 84bd 5cf2 fa3b b2a8 31bd
00000170: e095 633d 6eb3 a0be a9ea 6fbd 09c6 9e3d
00000180: 5fcf cfbd d675 2bbb c233 5cbd 553d 72be
00000190: 349d 6a3c c48e 8d3d 346d 46bd 20ea 88bd
000001a0: 10ca 93bd 1788 f63d 8c50 bcbb 0c2e e93b
000001b0: 9053 7a3d 77ed 963d 30f5 33bc 1434 653d
000001c0: e7ae 96bd b3dc a1bd 5665 1e3d a448 67bd
000001d0: 9440 c7bc 0a72 d7bc 4ea0 8d3c e8b2 0d3e
000001e0: 68c8 e23c 175a 053e 210a 2fbe 98c3 3c3e
000001f0: 44ad 2a3e b70b 5f3c 0f44 afbc e679 733d
00000200: 6e44 5dbe f0a7 00bd f44f e2bc 8637 04be
00000210: 12c1 513e 3be7 573d 066e 07be 620a 3abd
00000220: 5175 be3d 3a40 00be 75b4 3ebe 2aad 933d
00000230: 024f 47bc 8390 e8bd 1458 a13d d742 a1bc
00000240: fc5e aa3c 6301 0cbe 97fe 6e3e b7ee 2bbd
00000250: 5546 94bb 5989 3abd 05f4 32be 068d b43d
00000260: 1091 c53d 9d4e 26bd cdad 223e e4e7 b2bd
00000270: 0373 023e 775c d9bd 65dc 993d 87bb babd
00000280: 6136 b6bd 4a21 023c da99 a63c 2685 a1bd
00000290: 31c3 8abd 6bf7 6fbd 1448 dcbc dd7d acbd
000002a0: ff2b a1bd 5599 85bc d180 8bbd bc88 053e
000002b0: dcb7 8dbd d248 0fbd 7376 263f 3929 113e
000002c0: c53d bf3e 74ad fb3d 7168 cf3e 28ce 623e
000002d0: 4ef4 aa3d f1c0 c83d a565 b73e 006c a33c
000002e0: 219b 213d e500 363d f276 1d3e 89bd 2f3e
000002f0: b75e 533e a2ab 273e fb93 813c be6c 283e
00000300: 0d25 883d 48d7 713e b397 073e 92fc c23c
00000310: 017d 863e 669f ec3e 7857 f33c 6cc8 e13e
00000320: 8fa4 123e 7dee cf3d b836 5e3e 1ef1 363e
00000330: 3cfb a13e 71de 113e e47f d73d 8029 613e
00000340: 5920 653e 18b2 3a3e 12ac ff3c a33d af3d
00000350: 2b7a 14bb b553 013d 67f4 4a3d d0ac 233e
00000360: cf22 513c b9ac 843e 2bcf 0e3d 7793 2e3d
00000370: 7b4e 0b3e 8161 193e ea40 e13d 781b 7c3e
00000380: caa1 813d 06ea 2d3c 0235 5f3e 50e4 37bb
00000390: 4e01 933e bc6e 44bd 79ff 19bc 64f8 f33d
000003a0: 93f1 3abd 1051 7b3e fb97 af3d 8315 c43c
000003b0: 7eca 3f3c 4bab 65bd b5c9 cbbc f264 29be
000003c0: 1247 043d accd 80bd 0436 173c d5a9 e6ba
000003d0: 6282 d2bc 4393 df3d bee8 53bd 4482 033c
000003e0: e254 463d b943 ca3d 2ae3 4d3d ab3c 8a3d
000003f0: 7555 633d 977f b0bd cf4e 933e 5720 003e
0.068875425 0.22084884 -0.09359563 -0.14180711 -0.02319392 -0.023573326 0.14953993 -0.0073001757
-0.013374317 -0.049024932 0.052541263 0.04831651 -0.10246693 -0.05417372 -0.16266516 0.04287473
0.081200756 -0.20439619 -0.05168069 -0.058135092 -0.042732537 0.08204646 -0.25263393 -0.08922395
0.16229191 -0.14864247 -0.065884575 -0.010393483 -0.12224465 -0.18693702 0.10300662 0.041064374
0.02861376 -0.059151687 -0.123448744 0.060114007 -0.011161983 -0.04087657 -0.00030795825 -0.047860462
-0.07947857 0.030350892 -0.108758055 -0.031490244 -0.07571166 -0.011846204 0.08632884 0.101703614
0.08310198 -0.044568192 -0.017451316 0.11965448 -0.050566453 0.14904001 0.05608608 0.0040496183
0.0662124 0.19829115 -0.043164212 -0.09089095 0.14899604 0.059932712 -0.13521786 0.15051983
-0.09697362 -0.19704224 0.0068225022 -0.04531722 -0.1366029 0.0019977132 0.0669763 0.00021015266
0.043470226 0.014426544 0.093725376 -0.09537805 0.08689159 0.08693803 -0.09925419 0.004608587
-0.14897887 -0.123202905 -0.082744285 -0.058100935 -0.12364473 -0.03572568 -0.036369484 0.0734523
-0.07275183 -0.064674966 0.007658286 -0.04337377 0.055562854 -0.31386894 -0.0585734 0.07752616
-0.10146975 -0.0026162765 -0.053760298 -0.23656209 0.014319707 0.06911996 -0.048443988 -0.06685281
-0.07216275 0.12037676 -0.0057469066 0.007116085 0.061114848 0.073695116 -0.01098375 0.05595787
-0.07357579 -0.07903423 0.03867086 -0.05646576 -0.024322785 -0.026299495 0.017288353 0.13837779
0.027683452 0.13022648 -0.17093708 0.18433988 0.16667658 0.013613633 -0.021394758 0.059442423
-0.21608135 -0.031410158 -0.027626015 -0.12911806 0.20483807 0.052710753 -0.13225564 -0.045420058
0.0929972 -0.125245 -0.18623526 0.07210763 -0.012164833 -0.113556884 0.07878128 -0.019685192
0.020797245 -0.13672404 0.23339306 -0.041975703 -0.004524986 -0.04554114 -0.17475899 0.088159606
0.09646809 -0.040602315 0.15886612 -0.08735636 0.12739186 -0.106133394 0.0751274 -0.09117799
-0.08897091 0.007942507 0.020337034 -0.07886724 -0.06775511 -0.058585566 -0.026889838 -0.08422444
-0.0786972 -0.016308466 -0.06811679 0.13040441 -0.06919834 -0.034981556 0.6502449 0.14175881
0.37351814 0.12288943 0.4050937 0.22148955 0.08347379 0.09802426 0.35819736 0.01994896
0.039454583 0.044434447 0.15377405 0.17162146 0.206416 0.16374066 0.015817633 0.16447732
0.06647692 0.2361728 0.13241462 0.023802076 0.26267245 0.4621536 0.029704794 0.44098222
0.14320587 0.1015291 0.21700561 0.17865416 0.3163699 0.14245011 0.1052244 0.21988487
0.22375621 0.18232 0.03120998 0.08556678 -0.0022655826 0.03157397 0.049549486 0.15983891
0.012764647 0.25913027 0.03486554 0.042621102 0.13604157 0.14978601 0.109987095 0.24619853
0.06329687 0.010614878 0.21797565 -0.002805967 0.28711933 -0.047957167 -0.009399288 0.11912611
-0.04564054 0.24542642 0.0857391 0.023936039 0.011705993 -0.05607156 -0.024876455 -0.16542414
0.03229434 -0.06289229 0.009229187 -0.0017598221 -0.025696937 0.1091676 -0.051735632 0.008026663
0.048420794 0.09876198 0.05026547 0.06749853 0.05550142 -0.08618086 0.28771064 0.12512337

l1.weight_rho f4 [180, 29]
00000000: 9a45 37c0 543f 3ac0 6b15 44c0 6c72 48c0
00000010: 5802 3ec0 e4b3 3cc0 7aec 3dc0 79fc 41c0
00000020: ff5a 3cc0 5125 43c0 6379 3bc0 d53f 38c0
00000030: 6610 4bc0 eedd 40c0 e9e9 3bc0 1125 3cc0
00000040: 7958 3fc0 9cd8 3fc0 1c2a 3cc0 c297 3bc0
00000050: 8317 45c0 0fd7 36c0 77c3 49c0 b252 43c0
00000060: f68b 43c0 08ad 41c0 681b 40c0 dd43 42c0
00000070: 4907 47c0 fef4 3bc0 5d93 43c0 4b86 43c0
00000080: 9f49 36c0 fa37 41c0 b899 42c0 b6c6 3bc0
00000090: f702 41c0 8468 42c0 df2a 36c0 9d24 49c0
000000a0: 46ed 37c0 85ee 41c0 9264 36c0 1477 32c0
000000b0: 7eff 43c0 7080 3ec0 77c6 48c0 6ad6 3cc0
000000c0: 9846 37c0 523a 3cc0 5f36 3dc0 b6ba 38c0
000000d0: d707 41c0 d33a 45c0 c35c 3cc0 80db 45c0
000000e0: fb6e 3bc0 f1f1 3fc0 2618 44c0 ff2d 2cc0
000000f0: 5a14 41c0 b51e 3dc0 54ef 39c0 84c0 3dc0
00000100: 5e79 3fc0 57d7 42c0 12ed 3dc0 bf21 42c0
00000110: e628 42c0 dcea 3fc0 8fcb 41c0 6d1c 3dc0
00000120: 101b 3ec0 9317 43c0 6670 42c0 092a 37c0
00000130: 6521 3ec0 4e0f 42c0 71af 3dc0 51bb 45c0
00000140: 1a4f 41c0 f23e 40c0 9747 3cc0 5e9e 3ac0
00000150: 8da3 47c0 d3bc 34c0 1f90 4ac0 3d27 3fc0
00000160: e768 38c0 e5bf 3dc0 ba3e 45c0 c773 42c0
00000170: 7ebf 3cc0 44d5 46c0 80b9 3bc0 af72 3ac0
00000180: 4867 47c0 68c5 57c0 b62e 38c0 4085 3fc0
00000190: d21d 38c0 d21b 47c0 6bc5 40c0 1d47 40c0
000001a0: b71d 3ac0 fe18 3ec0 0490 43c0 7e71 3dc0
000001b0: b048 47c0 0e77 3dc0 6d21 37c0 2721 44c0
000001c0: b00e 3bc0 f7d7 38c0 82cf 42c0 f678 46c0
000001d0: 5e27 3ec0 2c55 38c0 7e57 41c0 11b8 39c0
000001e0: 366b 4cc0 d3de 35c0 acf1 34c0 9a00 45c0
000001f0: b6ac 4ec0 e743 3bc0 c6ef 40c0 5878 41c0
00000200: d273 32c0 ec17 42c0 19ff 39c0 4ff4 42c0
00000210: 3e8e 3ac0 74e1 40c0 dbf0 38c0 b5a9 3dc0
00000220: a7f6 42c0 2be9 3fc0 788d 4ac0 3968 38c0
00000230: 8d31 37c0 9df5 35c0 da1e 41c0 2bbb 34c0
00000240: 4279 41c0 6cb1 40c0 49ca 44c0 e735 47c0
00000250: 123f 4cc0 947a 51c0 6187 3ec0 3f8a 40c0
00000260: 4ef5 3dc0 f874 4ac0 bf7a 3ec0 c0af 42c0
00000270: 08b3 40c0 d54a 3dc0 a971 38c0 f352 47c0
00000280: f017 38c0 d34e 4cc0 5e1c 33c0 3a0c 47c0
00000290: 2530 41c0 f476 3bc0 adc6 40c0 d679 42c0
000002a0: 8192 4ac0 8242 3cc0 20ff 3bc0 ae55 3cc0
000002b0: 8fa1 3ec0 7645 44c0 258b 34c0 c3b8 4fc0
000002c0: 6027 41c0 673f 41c0 c800 40c0 4fa0 3dc0
000002d0: b7be 49c0 33da 3ec0 4a11 30c0 575d 3ec0
000002e0: 015c 41c0 1ad8 44c0 8d89 45c0 e5b5 40c0
000002f0: cd4b 4bc0 2ec7 3bc0 9a54 3cc0 c133 40c0
00000300: 2d26 3cc0 b019 3cc0 47e2 48c0 bda0 47c0
00000310: 34a3 41c0 ca51 3fc0 60bb 4bc0 f441 46c0
00000320: 29de 40c0 aa82 3fc0 dbde 42c0 1c98 3fc0
00000330: 7b41 40c0 1fc6 40c0 0abd 3fc0 5f1f 40c0
00000340: 2144 42c0 bfa2 39c0 db8e 3fc0 0dd0 38c0
00000350: 8766 46c0 0fbc 4ac0 e37d 4ec0 a1ec 45c0
00000360: ea93 49c0 f7fb 3ac0 87ef 42c0 95dd 41c0
00000370: 07fb 3cc0 64e7 36c0 7208 3ac0 349e 45c0
00000380: 5c46 42c0 ef99 3bc0 fe26 3fc0 40e8 48c0
00000390: bf16 40c0 bc84 3ac0 9717 36c0 d462 3ec0
000003a0: c377 39c0 fbe1 46c0 54b0 4ac0 949a 36c0
000003b0: 3709 3dc0 8d61 3cc0 2b0a 48c0 9815 43c0
000003c0: 29c6 3ac0 8566 3cc0 b434 3ec0 0ee0 39c0
000003d0: e6e3 40c0 6189 3ec0 b58d 3ec0 600d 3cc0
000003e0: 2bd4 3dc0 d8fc 3fc0 ea6e 42c0 5a7b 4ac0
000003f0: 78fe 42c0 bd48 3ac0 7642 42c0 15cf 35c0
-2.8636231 -2.9101152 -3.0638072 -3.1319838 -2.968893 -2.9484797 -2.9675584 -3.0310347
-2.943054 -3.0491526 -2.9292839 -2.878896 -3.172876 -3.0135455 -2.9361517 -2.9397624
-2.989775 -2.9975958 -2.9400702 -2.9311376 -3.07956 -2.8568761 -3.1525552 -3.0519223
-3.0554175 -3.026186 -3.0016727 -3.035392 -3.1098197 -2.9368281 -3.0558693 -3.0550716
-2.8482435 -3.0190415 -3.0406322 -2.9340034 -3.015806 -3.0376291 -2.8463666 -3.1428597
-2.873857 -3.030183 -2.8498883 -2.788518 -3.062469 -2.9765892 -3.1371133 -2.9505868
-2.8636837 -2.9410596 -2.9564435 -2.886396 -3.0161035 -3.0817153 -2.9431617 -3.0915222
-2.9286487 -2.999142 -3.063974 -2.6903074 -3.0168672 -2.9549992 -2.9052324 -2.9648752
-2.9917827 -3.0443933 -2.9675946 -3.0333097 -3.0337462 -2.9987097 -3.0280492 -2.95486
-2.9704018 -3.0483139 -3.0381103 -2.8619406 -2.9707882 -3.0321841 -2.963833 -3.089558
-3.020453 -3.0038419 -2.9418695 -2.915916 -3.1193573 -2.824025 -3.1650465 -2.98677
-2.8814027 -2.9648373 -3.0819535 -3.0383165 -2.9491878 -3.1067667 -2.933197 -2.9132497
-3.1156788 -3.3714237 -2.877851 -2.992508 -2.87682 -3.111073 -3.0120494 -3.0043404
-2.9080637 -2.9702754 -3.055665 -2.960052 -3.1138115 -2.9603915 -2.8614151 -3.0645235
-2.9227715 -2.8881814 -3.0439153 -3.1011329 -2.9711528 -2.8801985 -3.020965 -2.9018595
-3.1940436 -2.841725 -2.8272505 -3.0781617 -3.2292914 -2.9260194 -3.0146346 -3.0229702
-2.788319 -3.03271 -2.906195 -3.0461614 -2.9149318 -3.0137606 -2.8897007 -2.963483
-3.0463045 -2.9986064 -3.1648846 -2.8813612 -2.8623993 -2.843116 -3.017508 -2.8239238
-3.023026 -3.010829 -3.0748465 -3.112665 -3.1913495 -3.2731066 -2.9770129 -3.0084379
-2.9680972 -3.1633892 -2.9762418 -3.041977 -3.0109272 -2.9576924 -2.8819373 -3.1144378
-2.876461 -3.192311 -2.7986064 -3.1101213 -3.0185635 -2.9291353 -3.0121262 -3.0386863
-3.165192 -2.9415593 -2.9374466 -2.9427295 -2.9786108 -3.0667396 -2.8209927 -3.245652
-3.0180283 -3.0194948 -3.0000477 -2.9629095 -3.1522653 -2.9820678 -2.7510552 -2.974447
-3.0212405 -3.0756898 -3.0865204 -3.011102 -3.1765015 -2.934032 -2.9426637 -3.0031588
-2.93983 -2.9390678 -3.1388109 -3.1191857 -3.0255861 -2.989367 -3.1833115 -3.0977755
-3.0135596 -2.99235 -3.044852 -2.993659 -3.0039966 -3.0120924 -2.995913 -3.0019147
-3.0354083 -2.9005582 -2.9930942 -2.8876984 -3.1000078 -3.1677282 -3.2264335 -3.0925677
-3.149653 -2.9216287 -3.0458696 -3.0291493 -2.9528215 -2.857873 -2.9067655 -3.087781
-3.0355444 -2.9312704 -2.986755 -3.1391754 -3.0013883 -2.9143515 -2.8451898 -2.974782
-2.8979347 -3.1075428 -3.1670122 -2.8531847 -2.9536874 -2.943454 -3.1256206 -3.048193
-2.9183447 -2.9437573 -2.9719667 -2.9043002 -3.0139098 -2.977135 -2.977399 -2.9383163
-2.9660747 -2.9998074 -3.0380197 -3.1637788 -3.0467815 -2.9106896 -3.0353065 -2.8407643

l1.bias_mu f4 [180]
00000000: d915 1a3b a20b 053e 6ece b8bc 2a45 01be
00000010: 8ffb 223e b17c ad3d 0208 173f e219 ed3e
00000020: c5d1 a03d 4720 843d aea1 1a3b 8b26 783d
00000030: ae2c 4dbd c689 9ebd 1ccd 693e 5a35 f1bd
00000040: cfc3 ae3d 5396 26be 12d3 c13d 64d1 ae3e
00000050: 2d58 91bd 23cd a6bd 676d bcbd bb80 643e
00000060: 312d b23e 0987 d53e 8d1d 533e ebcc 87be
00000070: 7a96 01be 8d7b 373e bd62 163e 97c1 20be
00000080: 0df2 c53d 399f 91bd 75be 0abd c48b 99be
00000090: 7db6 75bb e0b3 7a3e cf90 5a3e 1e92 68bd
000000a0: fb15 fe3e 21d5 71bd 1671 6ebe 101a 9a3e
000000b0: c73c 003c 356f df3d 8aa7 bfbd 7278 b63e
000000c0: 39ba 71bd 50f7 cc3e 2744 18be ee79 c83d
000000d0: 148e 54bc e328 bd3e df18 8abe 9800 453d
000000e0: 1056 093d cf66 8c3f 8d87 3cbe ba79 a03d
000000f0: 6d76 b43d 360e 073d 02da e03d ad0f 9b3b
00000100: f004 edbd 0688 083f 1c5a 90be c8ff bb3d
00000110: 3650 4abd c55f 5a3e 652d 9dbd 813d e03e
00000120: 6668 0cbe 4bdb 79bd d5cd ed3d 6157 7d3e
00000130: c3a3 1cbd 4679 ca3e 9c8e 28be f42e 26be
00000140: e1a5 b8bd 5ee2 143f e1fd 913c 4601 06bd
00000150: de7d 10be 35dd 6e3d 5f89 87be 92d3 2d3e
00000160: b3eb e33d 930d c5bd a50e c8bd 6be1 0bbe
00000170: a81c 813e 8fbd 05be b7b0 50be ec6b 6a3e
00000180: ec6f 31be bfd5 993e 1d05 e4bd 2dd5 b63c
00000190: b70e 7cbd 3f46 83bd 4b54 e83d 8c84 e2bd
000001a0: 6f57 2bbe d982 6fbd f54a 96bd b9e0 c3bd
000001b0: 4117 b13c 7539 2a3e f1ba 993d 642e 603e
000001c0: 3940 c6bc 53c3 873c 7912 233e cbb4 f7bc
000001d0: 11f7 013e a930 c9bd b648 053e 9a0a 7f3e
000001e0: e140 ccbd 3378 83bd 60c7 a7bd 2324 2e3d
000001f0: b8a0 c73d 6d02 793d e10a 36bd daa6 843d
00000200: 3a81 ab3d e09f d43d 736d bc3d bcf9 a23d
00000210: 84e1 063f 4f39 8f3d 1e33 5dbe 2d86 46be
00000220: 3502 7b3d 7e8e b8bd a7c1 0ebd 8ac8 9abd
00000230: fd0a 3cbe c143 eb3b 08a4 1a3e 2604 d63e
00000240: 8772 573e 6702 8bbd e2d8 92bc 7408 b83d
00000250: aeb3 2fbe d3ff 3b3d 7ed8 88be fdbb 9f3e
00000260: 7ee6 433e b4a7 a4bd f84f 333e ed4b 653c
00000270: a8d7 c1bd 0ac8 7c3e 2cf0 8fbd 59be 95bd
00000280: 19cf 253e 09f5 dd3e 14de 1f3e 16f7 dbbb
00000290: c7e9 8e3d 68f5 91bd fc2e f4bd 2332 963d
000002a0: ca98 3a3d 2e71 15be 9cc5 8bbd 7843 463e
000002b0: fe05 fdbd 4d3b b03e 9b9e 27be 7a91 d1bc
000002c0: b5ce 55be 26d9 473e 9c86 263f 7e85 06be
0.0023511557 0.12992719 -0.02255937 -0.1262404 0.15916274 0.084710486 0.58996594 0.4630881
0.0785251 0.06451469 0.0023594904 0.060583632 -0.050091438 -0.07741122 0.2283215 -0.11777754
0.08533441 -0.16268282 0.094640866 0.34144127 -0.07096896 -0.081445955 -0.09200554 0.22314732
0.34800103 0.41704586 0.20616741 -0.26523528 -0.12655059 0.17918225 0.14686103 -0.15698849
0.09665308 -0.071104474 -0.03387304 -0.29989445 -0.0037492805 0.2448268 0.21344303 -0.056779973
0.49626145 -0.059041146 -0.23285326 0.3009801 0.00782699 0.10909883 -0.093581274 0.35638767
-0.059015486 0.40032434 -0.14869748 0.09788881 -0.012973327 0.36945257 -0.269721 0.04809627
0.03352934 1.0968875 -0.18411084 0.078357175 0.088116504 0.032972537 0.10979082 0.0047320933
-0.115732074 0.53332555 -0.28193748 0.09179646 -0.0493929 0.21325596 -0.07674674 0.43796924
-0.137117 -0.06100015 0.11611525 0.24740364 -0.038242113 0.3954565 -0.16460651 -0.16228849
-0.09016014 0.5815791 0.017821254 -0.03271606 -0.14110515 0.05831643 -0.26471993 0.16975239
0.111289404 -0.0962173 -0.09768418 -0.13660209 0.25217175 -0.13060592 -0.20379911 0.22892731
-0.17327851 0.30045888 -0.11133788 0.022318447 -0.06153747 -0.06409883 0.113442026 -0.110604376
-0.16732572 -0.058474395 -0.07338516 -0.09564347 0.021617534 0.1662348 0.07506359 0.21892697
-0.024200546 0.01657263 0.15925016 -0.030237576 0.12691905 -0.09823734 0.13016018 0.24906388
-0.09973312 -0.064194106 -0.08192325 0.04251493 0.097474515 0.06079333 -0.04444397 0.06477137
0.083742574 0.10382056 0.09200563 0.07957789 0.5268786 0.069933526 -0.21601531 -0.19387121
0.0612814 -0.09011553 -0.03485265 -0.07557781 -0.18363567 0.0071797078 0.15101635 0.4180004
0.21039782 -0.067875676 -0.017925683 0.08985987 -0.17158386 0.04589827 -0.2672767 0.3119811
0.19130895 -0.08039799 0.17510974 0.013995153 -0.09464961 0.24685684 -0.07028231 -0.073116966
0.16192283 0.4335101 0.1561206 -0.0067128045 0.06978183 -0.07126886 -0.11923024 0.073337816
0.045555867 -0.14593956 -0.068248 0.19361675 -0.123546585 0.34420243 -0.16369097 -0.025582064
-0.20879634 0.1951643 0.6504915 -0.1313686

l1.bias_rho f4 [180]
00000000: d02b 41c0 f8b1 4ac0 6282 40c0 d30b 3bc0
00000010: b7bc 42c0 b90e 42c0 351b 3dc0 1790 34c0
00000020: 4aa1 44c0 c14b 40c0 b10a 3ac0 565e 46c0
00000030: b154 36c0 260d 38c0 c010 4dc0 fbe5 3bc0
00000040: a829 4ec0 254e 43c0 dc6a 3dc0 20bb 3dc0
00000050: 6bd5 47c0 a37a 3bc0 bcca 3bc0 bdad 39c0
00000060: 56f1 42c0 a441 3dc0 1021 31c0 555b 38c0
00000070: f4b1 36c0 d8f0 45c0 6172 42c0 5237 3cc0
00000080: 84b8 3cc0 05cf 43c0 98c1 48c0 7420 44c0
00000090: f68f 44c0 b69e 46c0 65d6 3fc0 bbb4 31c0
000000a0: 8f61 3ac0 becf 36c0 7442 47c0 fe08 3cc0
000000b0: a48e 3ec0 7381 3fc0 bc04 3bc0 b7a9 3ec0
000000c0: 2111 3ec0 52fa 3ec0 0ff2 3bc0 5dfd 3cc0
000000d0: 046b 3dc0 55c6 3fc0 4981 41c0 e7bd 3ec0
000000e0: 5fcc 45c0 34ab 3cc0 7c4d 39c0 751b 44c0
000000f0: 93b4 47c0 c99f 43c0 1ee0 3bc0 5aea 3cc0
00000100: 7809 37c0 9720 3cc0 b288 3ec0 a49e 3dc0
00000110: 52d9 45c0 c965 3ec0 7200 3ec0 3be6 42c0
00000120: 3be8 3ac0 e7e4 3dc0 ebb3 41c0 50a7 45c0
00000130: f615 4bc0 8330 43c0 c597 41c0 6d31 41c0
00000140: ed34 39c0 4a3d 48c0 7c6e 3bc0 6bcf 3bc0
00000150: 530f 3dc0 2fdc 41c0 2eb6 3bc0 a2d0 42c0
00000160: c52a 42c0 a957 3cc0 2b09 43c0 b58b 41c0
00000170: 2af7 3ec0 e4bf 44c0 1c5a 47c0 1277 40c0
00000180: 35b0 4ac0 1f4a 48c0 dd42 40c0 d76c 40c0
00000190: 425b 3fc0 bdba 41c0 b127 38c0 b384 38c0
000001a0: 6537 3ac0 53ca 39c0 1ed4 45c0 b2d8 42c0
000001b0: 1da2 4dc0 5c53 46c0 1d33 43c0 b863 42c0
000001c0: 891d 49c0 6c90 42c0 07b2 38c0 f63d 48c0
000001d0: 079e 36c0 95fb 40c0 9f47 49c0 1367 40c0
000001e0: 38ff 36c0 1c50 4bc0 bed9 4ac0 8814 42c0
000001f0: 2050 49c0 04ca 48c0 8ccf 42c0 5e45 3ac0
00000200: cd6e 41c0 4e6f 3ac0 e292 44c0 5c3e 44c0
00000210: bc60 46c0 4ea1 3fc0 179e 46c0 0826 42c0
00000220: d521 3dc0 94c1 42c0 fb95 3ac0 f4c3 3fc0
00000230: 0355 3dc0 98dd 3dc0 9bed 42c0 8623 48c0
00000240: 3690 4ac0 2868 3cc0 58af 3ac0 cf6d 45c0
00000250: 8a6c 40c0 5e87 45c0 e16f 48c0 4bf2 47c0
00000260: 3ccb 3ac0 a81a 4ec0 3829 42c0 f756 44c0
00000270: 0d0d 3ec0 afb8 39c0 d5e3 41c0 a714 3dc0
00000280: 4a87 42c0 8189 40c0 f7a9 38c0 8b74 43c0
00000290: 9f1a 36c0 2f8e 45c0 0dee 40c0 0186 3bc0
000002a0: 8d2f 4fc0 8a82 3ec0 be94 42c0 e2cc 47c0
000002b0: 9a36 3ec0 d8c4 41c0 b082 40c0 350a 3ac0
000002c0: 8336 3fc0 0feb 3fc0 fc30 3cc0 8771 39c0
-3.018299 -3.1671124 -3.007958 -2.9225967 -3.0427682 -3.0321486 -2.9547856 -2.8212945
-3.0723443 -3.0046237 -2.9069026 -3.0995078 -2.8489192 -2.8758025 -3.2041473 -2.935912
-3.2212925 -3.0516446 -2.9596472 -2.9645462 -3.122401 -2.9293602 -2.934249 -2.9012291
-3.04598 -2.9571314 -2.767643 -2.8805745 -2.8546114 -3.092825 -3.0382311 -2.9408765
-2.948762 -3.0595105 -3.136816 -3.0644808 -3.0712867 -3.103437 -2.9974606 -2.776656
-2.9122045 -2.8564296 -3.113431 -2.9380488 -2.977456 -2.992276 -2.922164 -2.9791086
-2.9697955 -2.9840283 -2.936649 -2.952964 -2.9596567 -2.9964802 -3.023516 -2.9803407
-3.0905988 -2.9479494 -2.8953543 -3.0641758 -3.1203964 -3.0566275 -2.935554 -2.9518037
-2.859953 -2.9394891 -2.9770932 -2.9628077 -3.0913892 -2.9749625 -2.9687772 -3.0453022
-2.9204242 -2.967096 -3.0266063 -3.088337 -3.1732154 -3.049836 -3.0248883 -3.0186417
-2.8938553 -3.1287408 -2.9286184 -2.9345348 -2.9540603 -3.029064 -2.9329944 -3.043984
-3.0338604 -2.9428504 -3.0474346 -3.024152 -2.9838357 -3.074212 -3.1148748 -3.0072675
-3.1670048 -3.129524 -3.004081 -3.006643 -2.989945 -3.0270226 -2.8774226 -2.8830993
-2.909631 -2.902974 -3.0910716 -3.044476 -3.2130196 -3.0988379 -3.0499947 -3.0373363
-3.1424277 -3.0400648 -2.885866 -3.1287818 -2.8533952 -3.0153553 -3.1449964 -3.0062912
-2.8593273 -3.1767645 -3.16954 -3.0325031 -3.1455154 -3.13733 -3.0439177 -2.9104838
-3.0223877 -2.9130435 -3.071465 -3.066306 -3.0996542 -2.9942203 -3.103399 -3.0335712
-2.95519 -3.043065 -2.915404 -2.996335 -2.9583137 -2.96665 -3.0457523 -3.1271682
-3.165052 -2.9438572 -2.9169521 -3.0848272 -3.0066247 -3.0863872 -3.1318285 -3.1241634
-2.9186544 -3.220377 -3.0337658 -3.067808 -2.9695466 -2.9018972 -3.0295308 -2.9543855
-3.0395074 -3.0083926 -2.8853738 -3.0539882 -2.8453748 -3.0868032 -3.0145295 -2.930054
-3.2372773 -2.9767175 -3.0403285 -3.12188 -2.9720826 -3.0276394 -3.0079765 -2.906873
-2.9877021 -2.9987218 -2.9404898 -2.8975542

l1.weight.mu f4 [180, 29]
00000000: 8f0e 8d3d 3326 623e 11af bfbd e235 11be
00000010: 2d01 bebc d91c c1bc ff20 193e 5036 efbb
00000020: f41f 5bbc 5ece 48bd 8235 573d 88e7 453d
00000030: 2fda d1bd 43e5 5dbd b291 26be 6a9d 2f3d
00000040: 954c a63d 3c4d 51be 22af 53bd 101f 6ebd
00000050: 5008 2fbd f907 a83d 3c59 81be 0cbb b6bd
00000060: da2f 263e bb35 18be 7eee 86bd 6d49 2abc
00000070: 675b fabd 6b6c 3fbe 23f5 d23d 1e33 283d
00000080: 6767 ea3c 0a49 72bd b2d2 fcbd 1b3a 763d
00000090: c0e0 36bc 316e 27bd 7575 a1b9 5509 44bd
000000a0: a9c5 a2bd 6fa2 f83c 8bbc debd eafb 00bd
000000b0: b70e 9bbd 9516 42bc 2dcd b03d fc49 d03d
000000c0: 5f31 aa3d 238d 36bd 10f6 8ebc 680d f53d
000000d0: c51e 4fbd f29d 183e 84ba 653d a9b2 843b
000000e0: 5e9a 873d d60c 4b3e f5cc 30bd 0925 babd
000000f0: 6b92 183e 017c 753d 8d76 0abe df21 1a3e
00000100: 1b9a c6bd 71c5 49be 4c8f df3b 8d9e 39bd
00000110: a1e1 0bbe 11ec 023b df2a 893d 6d5c 5c39
00000120: d60d 323d 505d 6c3c 17f3 bf3d 9155 c3bd
00000130: 38f4 b13d 910c b23d c845 cbbd a103 973b
00000140: eb8d 18be ce51 fcbd d675 a9bd 3ffb 6dbd
00000150: 7339 fdbd 1755 12bd 2bf8 14bd 296e 963d
00000160: e9fe 94bd 4f74 84bd 5cf2 fa3b b2a8 31bd
00000170: e095 633d 6eb3 a0be a9ea 6fbd 09c6 9e3d
00000180: 5fcf cfbd d675 2bbb c233 5cbd 553d 72be
00000190: 349d 6a3c c48e 8d3d 346d 46bd 20ea 88bd
000001a0: 10ca 93bd 1788 f63d 8c50 bcbb 0c2e e93b
000001b0: 9053 7a3d 77ed 963d 30f5 33bc 1434 653d
000001c0: e7ae 96bd b3dc a1bd 5665 1e3d a448 67bd
000001d0: 9440 c7bc 0a72 d7bc 4ea0 8d3c e8b2 0d3e
000001e0: 68c8 e23c 175a 053e 210a 2fbe 98c3 3c3e
000001f0: 44ad 2a3e b70b 5f3c 0f44 afbc e679 733d
00000200: 6e44 5dbe f0a7 00bd f44f e2bc 8637 04be
00000210: 12c1 513e 3be7 573d 066e 07be 620a 3abd
00000220: 5175 be3d 3a40 00be 75b4 3ebe 2aad 933d
00000230: 024f 47bc 8390 e8bd 1458 a13d d742 a1bc
00000240: fc5e aa3c 6301 0cbe 97fe 6e3e b7ee 2bbd
00000250: 5546 94bb 5989 3abd 05f4 32be 068d b43d
00000260: 1091 c53d 9d4e 26bd cdad 223e e4e7 b2bd
00000270: 0373 023e 775c d9bd 65dc 993d 87bb babd
00000280: 6136 b6bd 4a21 023c da99 a63c 2685 a1bd
00000290: 31c3 8abd 6bf7 6fbd 1448 dcbc dd7d acbd
000002a0: ff2b a1bd 5599 85bc d180 8bbd bc88 053e
000002b0: dcb7 8dbd d248 0fbd 7376 263f 3929 113e
000002c0: c53d bf3e 74ad fb3d 7168 cf3e 28ce 623e
000002d0: 4ef4 aa3d f1c0 c83d a565 b73e 006c a33c
000002e0: 219b 213d e500 363d f276 1d3e 89bd 2f3e
000002f0: b75e 533e a2ab 273e fb93 813c be6c 283e
00000300: 0d25 883d 48d7 713e b397 073e 92fc c23c
00000310: 017d 863e 669f ec3e 7857 f33c 6cc8 e13e
00000320: 8fa4 123e 7dee cf3d b836 5e3e 1ef1 363e
00000330: 3cfb a13e 71de 113e e47f d73d 8029 613e
00000340: 5920 653e 18b2 3a3e 12ac ff3c a33d af3d
00000350: 2b7a 14bb b553 013d 67f4 4a3d d0ac 233e
00000360: cf22 513c b9ac 843e 2bcf 0e3d 7793 2e3d
00000370: 7b4e 0b3e 8161 193e ea40 e13d 781b 7c3e
00000380: caa1 813d 06ea 2d3c 0235 5f3e 50e4 37bb
00000390: 4e01 933e bc6e 44bd 79ff 19bc 64f8 f33d
000003a0: 93f1 3abd 1051 7b3e fb97 af3d 8315 c43c
000003b0: 7eca 3f3c 4bab 65bd b5c9 cbbc f264 29be
000003c0: 1247 043d accd 80bd 0436 173c d5a9 e6ba
000003d0: 6282 d2bc 4393 df3d bee8 53bd 4482 033c
000003e0: e254 463d b943 ca3d 2ae3 4d3d ab3c 8a3d
000003f0: 7555 633d 977f b0bd cf4e 933e 5720 003e
0.068875425 0.22084884 -0.09359563 -0.14180711 -0.02319392 -0.023573326 0.14953993 -0.0073001757
-0.013374317 -0.049024932 0.052541263 0.04831651 -0.10246693 -0.05417372 -0.16266516 0.04287473
0.081200756 -0.20439619 -0.05168069 -0.058135092 -0.042732537 0.08204646 -0.25263393 -0.08922395
0.16229191 -0.14864247 -0.065884575 -0.010393483 -0.12224465 -0.18693702 0.10300662 0.041064374
0.02861376 -0.059151687 -0.123448744 0.060114007 -0.011161983 -0.04087657 -0.00030795825 -0.047860462
-0.07947857 0.030350892 -0.108758055 -0.031490244 -0.07571166 -0.011846204 0.08632884 0.101703614
0.08310198 -0.044568192 -0.017451316 0.11965448 -0.050566453 0.14904001 0.05608608 0.0040496183
0.0662124 0.19829115 -0.043164212 -0.09089095 0.14899604 0.059932712 -0.13521786 0.15051983
-0.09697362 -0.19704224 0.0068225022 -0.04531722 -0.1366029 0.0019977132 0.0669763 0.00021015266
0.043470226 0.014426544 0.093725376 -0.09537805 0.08689159 0.08693803 -0.09925419 0.004608587
-0.14897887 -0.123202905 -0.082744285 -0.058100935 -0.12364473 -0.03572568 -0.036369484 0.0734523
-0.07275183 -0.064674966 0.007658286 -0.04337377 0.055562854 -0.31386894 -0.0585734 0.07752616
-0.10146975 -0.0026162765 -0.053760298 -0.23656209 0.014319707 0.06911996 -0.048443988 -0.06685281
-0.07216275 0.12037676 -0.0057469066 0.007116085 0.061114848 0.073695116 -0.01098375 0.05595787
-0.07357579 -0.07903423 0.03867086 -0.05646576 -0.024322785 -0.026299495 0.017288353 0.13837779
0.027683452 0.13022648 -0.17093708 0.18433988 0.16667658 0.013613633 -0.021394758 0.059442423
-0.21608135 -0.031410158 -0.027626015 -0.12911806 0.20483807 0.052710753 -0.13225564 -0.045420058
0.0929972 -0.125245 -0.18623526 0.07210763 -0.012164833 -0.113556884 0.07878128 -0.019685192
0.020797245 -0.13672404 0.23339306 -0.041975703 -0.004524986 -0.04554114 -0.17475899 0.088159606
0.09646809 -0.040602315 0.15886612 -0.08735636 0.12739186 -0.106133394 0.0751274 -0.09117799
-0.08897091 0.007942507 0.020337034 -0.07886724 -0.06775511 -0.058585566 -0.026889838 -0.08422444
-0.0786972 -0.016308466 -0.06811679 0.13040441 -0.06919834 -0.034981556 0.6502449 0.14175881
0.37351814 0.12288943 0.4050937 0.22148955 0.08347379 0.09802426 0.35819736 0.01994896
0.039454583 0.044434447 0.15377405 0.17162146 0.206416 0.16374066 0.015817633 0.16447732
0.06647692 0.2361728 0.13241462 0.023802076 0.26267245 0.4621536 0.029704794 0.44098222
0.14320587 0.1015291 0.21700561 0.17865416 0.3163699 0.14245011 0.1052244 0.21988487
0.22375621 0.18232 0.03120998 0.08556678 -0.0022655826 0.03157397 0.049549486 0.15983891
0.012764647 0.25913027 0.03486554 0.042621102 0.13604157 0.14978601 0.109987095 0.24619853
0.06329687 0.010614878 0.21797565 -0.002805967 0.28711933 -0.047957167 -0.009399288 0.11912611
-0.04564054 0.24542642 0.0857391 0.023936039 0.011705993 -0.05607156 -0.024876455 -0.16542414
0.03229434 -0.06289229 0.009229187 -0.0017598221 -0.025696937 0.1091676 -0.051735632 0.008026663
0.048420794 0.09876198 0.05026547 0.06749853 0.05550142 -0.08618086 0.28771064 0.12512337

l1.weight.rho f4 [180, 29]
00000000: 9a45 37c0 543f 3ac0 6b15 44c0 6c72 48c0
00000010: 5802 3ec0 e4b3 3cc0 7aec 3dc0 79fc 41c0
00000020: ff5a 3cc0 5125 43c0 6379 3bc0 d53f 38c0
00000030: 6610 4bc0 eedd 40c0 e9e9 3bc0 1125 3cc0
00000040: 7958 3fc0 9cd8 3fc0 1c2a 3cc0 c297 3bc0
00000050: 8317 45c0 0fd7 36c0 77c3 49c0 b252 43c0
00000060: f68b 43c0 08ad 41c0 681b 40c0 dd43 42c0
00000070: 4907 47c0 fef4 3bc0 5d93 43c0 4b86 43c0
00000080: 9f49 36c0 fa37 41c0 b899 42c0 b6c6 3bc0
00000090: f702 41c0 8468 42c0 df2a 36c0 9d24 49c0
000000a0: 46ed 37c0 85ee 41c0 9264 36c0 1477 32c0
000000b0: 7eff 43c0 7080 3ec0 77c6 48c0 6ad6 3cc0
000000c0: 9846 37c0 523a 3cc0 5f36 3dc0 b6ba 38c0
000000d0: d707 41c0 d33a 45c0 c35c 3cc0 80db 45c0
000000e0: fb6e 3bc0 f1f1 3fc0 2618 44c0 ff2d 2cc0
000000f0: 5a14 41c0 b51e 3dc0 54ef 39c0 84c0 3dc0
00000100: 5e79 3fc0 57d7 42c0 12ed 3dc0 bf21 42c0
00000110: e628 42c0 dcea 3fc0 8fcb 41c0 6d1c 3dc0
00000120: 101b 3ec0 9317 43c0 6670 42c0 092a 37c0
00000130: 6521 3ec0 4e0f 42c0 71af 3dc0 51bb 45c0
00000140: 1a4f 41c0 f23e 40c0 9747 3cc0 5e9e 3ac0
00000150: 8da3 47c0 d3bc 34c0 1f90 4ac0 3d27 3fc0
00000160: e768 38c0 e5bf 3dc0 ba3e 45c0 c773 42c0
00000170: 7ebf 3cc0 44d5 46c0 80b9 3bc0 af72 3ac0
00000180: 4867 47c0 68c5 57c0 b62e 38c0 4085 3fc0
00000190: d21d 38c0 d21b 47c0 6bc5 40c0 1d47 40c0
000001a0: b71d 3ac0 fe18 3ec0 0490 43c0 7e71 3dc0
000001b0: b048 47c0 0e77 3dc0 6d21 37c0 2721 44c0
000001c0: b00e 3bc0 f7d7 38c0 82cf 42c0 f678 46c0
000001d0: 5e27 3ec0 2c55 38c0 7e57 41c0 11b8 39c0
000001e0: 366b 4cc0 d3de 35c0 acf1 34c0 9a00 45c0
000001f0: b6ac 4ec0 e743 3bc0 c6ef 40c0 5878 41c0
00000200: d273 32c0 ec17 42c0 19ff 39c0 4ff4 42c0
00000210: 3e8e 3ac0 74e1 40c0 dbf0 38c0 b5a9 3dc0
00000220: a7f6 42c0 2be9 3fc0 788d 4ac0 3968 38c0
00000230: 8d31 37c0 9df5 35c0 da1e 41c0 2bbb 34c0
00000240: 4279 41c0 6cb1 40c0 49ca 44c0 e735 47c0
00000250: 123f 4cc0 947a 51c0 6187 3ec0 3f8a 40c0
00000260: 4ef5 3dc0 f874 4ac0 bf7a 3ec0 c0af 42c0
00000270: 08b3 40c0 d54a 3dc0 a971 38c0 f352 47c0
00000280: f017 38c0 d34e 4cc0 5e1c 33c0 3a0c 47c0
00000290: 2530 41c0 f476 3bc0 adc6 40c0 d679 42c0
000002a0: 8192 4ac0 8242 3cc0 20ff 3bc0 ae55 3cc0
000002b0: 8fa1 3ec0 7645 44c0 258b 34c0 c3b8 4fc0
000002c0: 6027 41c0 673f 41c0 c800 40c0 4fa0 3dc0
000002d0: b7be 49c0 33da 3ec0 4a11 30c0 575d 3ec0
000002e0: 015c 41c0 1ad8 44c0 8d89 45c0 e5b5 40c0
000002f0: cd4b 4bc0 2ec7 3bc0 9a54 3cc0 c133 40c0
00000300: 2d26 3cc0 b019 3cc0 47e2 48c0 bda0 47c0
00000310: 34a3 41c0 ca51 3fc0 60bb 4bc0 f441 46c0
00000320: 29de 40c0 aa82 3fc0 dbde 42c0 1c98 3fc0
00000330: 7b41 40c0 1fc6 40c0 0abd 3fc0 5f1f 40c0
00000340: 2144 42c0 bfa2 39c0 db8e 3fc0 0dd0 38c0
00000350: 8766 46c0 0fbc 4ac0 e37d 4ec0 a1ec 45c0
00000360: ea93 49c0 f7fb 3ac0 87ef 42c0 95dd 41c0
00000370: 07fb 3cc0 64e7 36c0 7208 3ac0 349e 45c0
00000380: 5c46 42c0 ef99 3bc0 fe26 3fc0 40e8 48c0
00000390: bf16 40c0 bc84 3ac0 9717 36c0 d462 3ec0
000003a0: c377 39c0 fbe1 46c0 54b0 4ac0 949a 36c0
000003b0: 3709 3dc0 8d61 3cc0 2b0a 48c0 9815 43c0
000003c0: 29c6 3ac0 8566 3cc0 b434 3ec0 0ee0 39c0
000003d0: e6e3 40c0 6189 3ec0 b58d 3ec0 600d 3cc0
000003e0: 2bd4 3dc0 d8fc 3fc0 ea6e 42c0 5a7b 4ac0
000003f0: 78fe 42c0 bd48 3ac0 7642 42c0 15cf 35c0
-2.8636231 -2.9101152 -3.0638072 -3.1319838 -2.968893 -2.9484797 -2.9675584 -3.0310347
-2.943054 -3.0491526 -2.9292839 -2.878896 -3.172876 -3.0135455 -2.9361517 -2.9397624
-2.989775 -2.9975958 -2.9400702 -2.9311376 -3.07956 -2.8568761 -3.1525552 -3.0519223
-3.0554175 -3.026186 -3.0016727 -3.035392 -3.1098197 -2.9368281 -3.0558693 -3.0550716
-2.8482435 -3.0190415 -3.0406322 -2.9340034 -3.015806 -3.0376291 -2.8463666 -3.1428597
-2.873857 -3.030183 -2.8498883 -2.788518 -3.062469 -2.9765892 -3.1371133 -2.9505868
-2.8636837 -2.9410596 -2.9564435 -2.886396 -3.0161035 -3.0817153 -2.9431617 -3.0915222
-2.9286487 -2.999142 -3.063974 -2.6903074 -3.0168672 -2.9549992 -2.9052324 -2.9648752
-2.9917827 -3.0443933 -2.9675946 -3.0333097 -3.0337462 -2.9987097 -3.0280492 -2.95486
-2.9704018 -3.0483139 -3.0381103 -2.8619406 -2.9707882 -3.0321841 -2.963833 -3.089558
-3.020453 -3.0038419 -2.9418695 -2.915916 -3.1193573 -2.824025 -3.1650465 -2.98677
-2.8814027 -2.9648373 -3.0819535 -3.0383165 -2.9491878 -3.1067667 -2.933197 -2.9132497
-3.1156788 -3.3714237 -2.877851 -2.992508 -2.87682 -3.111073 -3.0120494 -3.0043404
-2.9080637 -2.9702754 -3.055665 -2.960052 -3.1138115 -2.9603915 -2.8614151 -3.0645235
-2.9227715 -2.8881814 -3.0439153 -3.1011329 -2.9711528 -2.8801985 -3.020965 -2.9018595
-3.1940436 -2.841725 -2.8272505 -3.0781617 -3.2292914 -2.9260194 -3.0146346 -3.0229702
-2.788319 -3.03271 -2.906195 -3.0461614 -2.9149318 -3.0137606 -2.8897007 -2.963483
-3.0463045 -2.9986064 -3.1648846 -2.8813612 -2.8623993 -2.843116 -3.017508 -2.8239238
-3.023026 -3.010829 -3.0748465 -3.112665 -3.1913495 -3.2731066 -2.9770129 -3.0084379
-2.9680972 -3.1633892 -2.9762418 -3.041977 -3.0109272 -2.9576924 -2.8819373 -3.1144378
-2.876461 -3.192311 -2.7986064 -3.1101213 -3.0185635 -2.9291353 -3.0121262 -3.0386863
-3.165192 -2.9415593 -2.9374466 -2.9427295 -2.9786108 -3.0667396 -2.8209927 -3.245652
-3.0180283 -3.0194948 -3.0000477 -2.9629095 -3.1522653 -2.9820678 -2.7510552 -2.974447
-3.0212405 -3.0756898 -3.0865204 -3.011102 -3.1765015 -2.934032 -2.9426637 -3.0031588
-2.93983 -2.9390678 -3.1388109 -3.1191857 -3.0255861 -2.989367 -3.1833115 -3.0977755
-3.0135596 -2.99235 -3.044852 -2.993659 -3.0039966 -3.0120924 -2.995913 -3.0019147
-3.0354083 -2.9005582 -2.9930942 -2.8876984 -3.1000078 -3.1677282 -3.2264335 -3.0925677
-3.149653 -2.9216287 -3.0458696 -3.0291493 -2.9528215 -2.857873 -2.9067655 -3.087781
-3.0355444 -2.9312704 -2.986755 -3.1391754 -3.0013883 -2.9143515 -2.8451898 -2.974782
-2.8979347 -3.1075428 -3.1670122 -2.8531847 -2.9536874 -2.943454 -3.1256206 -3.048193
-2.9183447 -2.9437573 -2.9719667 -2.9043002 -3.0139098 -2.977135 -2.977399 -2.9383163
-2.9660747 -2.9998074 -3.0380197 -3.1637788 -3.0467815 -2.9106896 -3.0353065 -2.8407643

l1.bias.mu f4 [180]
00000000: d915 1a3b a20b 053e 6ece b8bc 2a45 01be
00000010: 8ffb 223e b17c ad3d 0208 173f e219 ed3e
00000020: c5d1 a03d 4720 843d aea1 1a3b 8b26 783d
00000030: ae2c 4dbd c689 9ebd 1ccd 693e 5a35 f1bd
00000040: cfc3 ae3d 5396 26be 12d3 c13d 64d1 ae3e
00000050: 2d58 91bd 23cd a6bd 676d bcbd bb80 643e
00000060: 312d b23e 0987 d53e 8d1d 533e ebcc 87be
00000070: 7a96 01be 8d7b 373e bd62 163e 97c1 20be
00000080: 0df2 c53d 399f 91bd 75be 0abd c48b 99be
00000090: 7db6 75bb e0b3 7a3e cf90 5a3e 1e92 68bd
000000a0: fb15 fe3e 21d5 71bd 1671 6ebe 101a 9a3e
000000b0: c73c 003c 356f df3d 8aa7 bfbd 7278 b63e
000000c0: 39ba 71bd 50f7 cc3e 2744 18be ee79 c83d
000000d0: 148e 54bc e328 bd3e df18 8abe 9800 453d
000000e0: 1056 093d cf66 8c3f 8d87 3cbe ba79 a03d
000000f0: 6d76 b43d 360e 073d 02da e03d ad0f 9b3b
00000100: f004 edbd 0688 083f 1c5a 90be c8ff bb3d
00000110: 3650 4abd c55f 5a3e 652d 9dbd 813d e03e
00000120: 6668 0cbe 4bdb 79bd d5cd ed3d 6157 7d3e
00000130: c3a3 1cbd 4679 ca3e 9c8e 28be f42e 26be
00000140: e1a5 b8bd 5ee2 143f e1fd 913c 4601 06bd
00000150: de7d 10be 35dd 6e3d 5f89 87be 92d3 2d3e
00000160: b3eb e33d 930d c5bd a50e c8bd 6be1 0bbe
00000170: a81c 813e 8fbd 05be b7b0 50be ec6b 6a3e
00000180: ec6f 31be bfd5 993e 1d05 e4bd 2dd5 b63c
00000190: b70e 7cbd 3f46 83bd 4b54 e83d 8c84 e2bd
000001a0: 6f57 2bbe d982 6fbd f54a 96bd b9e0 c3bd
000001b0: 4117 b13c 7539 2a3e f1ba 993d 642e 603e
000001c0: 3940 c6bc 53c3 873c 7912 233e cbb4 f7bc
000001d0: 11f7 013e a930 c9bd b648 053e 9a0a 7f3e
000001e0: e140 ccbd 3378 83bd 60c7 a7bd 2324 2e3d
000001f0: b8a0 c73d 6d02 793d e10a 36bd daa6 843d
00000200: 3a81 ab3d e09f d43d 736d bc3d bcf9 a23d
00000210: 84e1 063f 4f39 8f3d 1e33 5dbe 2d86 46be
00000220: 3502 7b3d 7e8e b8bd a7c1 0ebd 8ac8 9abd
00000230: fd0a 3cbe c143 eb3b 08a4 1a3e 2604 d63e
00000240: 8772 573e 6702 8bbd e2d8 92bc 7408 b83d
00000250: aeb3 2fbe d3ff 3b3d 7ed8 88be fdbb 9f3e
00000260: 7ee6 433e b4a7 a4bd f84f 333e ed4b 653c
00000270: a8d7 c1bd 0ac8 7c3e 2cf0 8fbd 59be 95bd
00000280: 19cf 253e 09f5 dd3e 14de 1f3e 16f7 dbbb
00000290: c7e9 8e3d 68f5 91bd fc2e f4bd 2332 963d
000002a0: ca98 3a3d 2e71 15be 9cc5 8bbd 7843 463e
000002b0: fe05 fdbd 4d3b b03e 9b9e 27be 7a91 d1bc
000002c0: b5ce 55be 26d9 473e 9c86 263f 7e85 06be
0.0023511557 0.12992719 -0.02255937 -0.1262404 0.15916274 0.084710486 0.58996594 0.4630881
0.0785251 0.06451469 0.0023594904 0.060583632 -0.050091438 -0.07741122 0.2283215 -0.11777754
0.08533441 -0.16268282 0.094640866 0.34144127 -0.07096896 -0.081445955 -0.09200554 0.22314732
0.34800103 0.41704586 0.20616741 -0.26523528 -0.12655059 0.17918225 0.14686103 -0.15698849
0.09665308 -0.071104474 -0.03387304 -0.29989445 -0.0037492805 0.2448268 0.21344303 -0.056779973
0.49626145 -0.059041146 -0.23285326 0.3009801 0.00782699 0.10909883 -0.093581274 0.35638767
-0.059015486 0.40032434 -0.14869748 0.09788881 -0.012973327 0.36945257 -0.269721 0.04809627
0.03352934 1.0968875 -0.18411084 0.078357175 0.088116504 0.032972537 0.10979082 0.0047320933
-0.115732074 0.53332555 -0.28193748 0.09179646 -0.0493929 0.21325596 -0.07674674 0.43796924
-0.137117 -0.06100015 0.11611525 0.24740364 -0.038242113 0.3954565 -0.16460651 -0.16228849
-0.09016014 0.5815791 0.017821254 -0.03271606 -0.14110515 0.05831643 -0.26471993 0.16975239
0.111289404 -0.0962173 -0.09768418 -0.13660209 0.25217175 -0.13060592 -0.20379911 0.22892731
-0.17327851 0.30045888 -0.11133788 0.022318447 -0.06153747 -0.06409883 0.113442026 -0.110604376
-0.16732572 -0.058474395 -0.07338516 -0.09564347 0.021617534 0.1662348 0.07506359 0.21892697
-0.024200546 0.01657263 0.15925016 -0.030237576 0.12691905 -0.09823734 0.13016018 0.24906388
-0.09973312 -0.064194106 -0.08192325 0.04251493 0.097474515 0.06079333 -0.04444397 0.06477137
0.083742574 0.10382056 0.09200563 0.07957789 0.5268786 0.069933526 -0.21601531 -0.19387121
0.0612814 -0.09011553 -0.03485265 -0.07557781 -0.18363567 0.0071797078 0.15101635 0.4180004
0.21039782 -0.067875676 -0.017925683 0.08985987 -0.17158386 0.04589827 -0.2672767 0.3119811
0.19130895 -0.08039799 0.17510974 0.013995153 -0.09464961 0.24685684 -0.07028231 -0.073116966
0.16192283 0.4335101 0.1561206 -0.0067128045 0.06978183 -0.07126886 -0.11923024 0.073337816
0.045555867 -0.14593956 -0.068248 0.19361675 -0.123546585 0.34420243 -0.16369097 -0.025582064
-0.20879634 0.1951643 0.6504915 -0.1313686

l1.bias.rho f4 [180]
00000000: d02b 41c0 f8b1 4ac0 6282 40c0 d30b 3bc0
00000010: b7bc 42c0 b90e 42c0 351b 3dc0 1790 34c0
00000020: 4aa1 44c0 c14b 40c0 b10a 3ac0 565e 46c0
00000030: b154 36c0 260d 38c0 c010 4dc0 fbe5 3bc0
00000040: a829 4ec0 254e 43c0 dc6a 3dc0 20bb 3dc0
00000050: 6bd5 47c0 a37a 3bc0 bcca 3bc0 bdad 39c0
00000060: 56f1 42c0 a441 3dc0 1021 31c0 555b 38c0
00000070: f4b1 36c0 d8f0 45c0 6172 42c0 5237 3cc0
00000080: 84b8 3cc0 05cf 43c0 98c1 48c0 7420 44c0
00000090: f68f 44c0 b69e 46c0 65d6 3fc0 bbb4 31c0
000000a0: 8f61 3ac0 becf 36c0 7442 47c0 fe08 3cc0
000000b0: a48e 3ec0 7381 3fc0 bc04 3bc0 b7a9 3ec0
000000c0: 2111 3ec0 52fa 3ec0 0ff2 3bc0 5dfd 3cc0
000000d0: 046b 3dc0 55c6 3fc0 4981 41c0 e7bd 3ec0
000000e0: 5fcc 45c0 34ab 3cc0 7c4d 39c0 751b 44c0
000000f0: 93b4 47c0 c99f 43c0 1ee0 3bc0 5aea 3cc0
00000100: 7809 37c0 9720 3cc0 b288 3ec0 a49e 3dc0
00000110: 52d9 45c0 c965 3ec0 7200 3ec0 3be6 42c0
00000120: 3be8 3ac0 e7e4 3dc0 ebb3 41c0 50a7 45c0
00000130: f615 4bc0 8330 43c0 c597 41c0 6d31 41c0
00000140: ed34 39c0 4a3d 48c0 7c6e 3bc0 6bcf 3bc0
00000150: 530f 3dc0 2fdc 41c0 2eb6 3bc0 a2d0 42c0
00000160: c52a 42c0 a957 3cc0 2b09 43c0 b58b 41c0
00000170: 2af7 3ec0 e4bf 44c0 1c5a 47c0 1277 40c0
00000180: 35b0 4ac0 1f4a 48c0 dd42 40c0 d76c 40c0
00000190: 425b 3fc0 bdba 41c0 b127 38c0 b384 38c0
000001a0: 6537 3ac0 53ca 39c0 1ed4 45c0 b2d8 42c0
000001b0: 1da2 4dc0 5c53 46c0 1d33 43c0 b863 42c0
000001c0: 891d 49c0 6c90 42c0 07b2 38c0 f63d 48c0
000001d0: 079e 36c0 95fb 40c0 9f47 49c0 1367 40c0
000001e0: 38ff 36c0 1c50 4bc0 bed9 4ac0 8814 42c0
000001f0: 2050 49c0 04ca 48c0 8ccf 42c0 5e45 3ac0
00000200: cd6e 41c0 4e6f 3ac0 e292 44c0 5c3e 44c0
00000210: bc60 46c0 4ea1 3fc0 179e 46c0 0826 42c0
00000220: d521 3dc0 94c1 42c0 fb95 3ac0 f4c3 3fc0
00000230: 0355 3dc0 98dd 3dc0 9bed 42c0 8623 48c0
00000240: 3690 4ac0 2868 3cc0 58af 3ac0 cf6d 45c0
00000250: 8a6c 40c0 5e87 45c0 e16f 48c0 4bf2 47c0
00000260: 3ccb 3ac0 a81a 4ec0 3829 42c0 f756 44c0
00000270: 0d0d 3ec0 afb8 39c0 d5e3 41c0 a714 3dc0
00000280: 4a87 42c0 8189 40c0 f7a9 38c0 8b74 43c0
00000290: 9f1a 36c0 2f8e 45c0 0dee 40c0 0186 3bc0
000002a0: 8d2f 4fc0 8a82 3ec0 be94 42c0 e2cc 47c0
000002b0: 9a36 3ec0 d8c4 41c0 b082 40c0 350a 3ac0
000002c0: 8336 3fc0 0feb 3fc0 fc30 3cc0 8771 39c0
-3.018299 -3.1671124 -3.007958 -2.9225967 -3.0427682 -3.0321486 -2.9547856 -2.8212945
-3.0723443 -3.0046237 -2.9069026 -3.0995078 -2.8489192 -2.8758025 -3.2041473 -2.935912
-3.2212925 -3.0516446 -2.9596472 -2.9645462 -3.122401 -2.9293602 -2.934249 -2.9012291
-3.04598 -2.9571314 -2.767643 -2.8805745 -2.8546114 -3.092825 -3.0382311 -2.9408765
-2.948762 -3.0595105 -3.136816 -3.0644808 -3.0712867 -3.103437 -2.9974606 -2.776656
-2.9122045 -2.8564296 -3.113431 -2.9380488 -2.977456 -2.992276 -2.922164 -2.9791086
-2.9697955 -2.9840283 -2.936649 -2.952964 -2.9596567 -2.9964802 -3.023516 -2.9803407
-3.0905988 -2.9479494 -2.8953543 -3.0641758 -3.1203964 -3.0566275 -2.935554 -2.9518037
-2.859953 -2.9394891 -2.9770932 -2.9628077 -3.0913892 -2.9749625 -2.9687772 -3.0453022
-2.9204242 -2.967096 -3.0266063 -3.088337 -3.1732154 -3.049836 -3.0248883 -3.0186417
-2.8938553 -3.1287408 -2.9286184 -2.9345348 -2.9540603 -3.029064 -2.9329944 -3.043984
-3.0338604 -2.9428504 -3.0474346 -3.024152 -2.9838357 -3.074212 -3.1148748 -3.0072675
-3.1670048 -3.129524 -3.004081 -3.006643 -2.989945 -3.0270226 -2.8774226 -2.8830993
-2.909631 -2.902974 -3.0910716 -3.044476 -3.2130196 -3.0988379 -3.0499947 -3.0373363
-3.1424277 -3.0400648 -2.885866 -3.1287818 -2.8533952 -3.0153553 -3.1449964 -3.0062912
-2.8593273 -3.1767645 -3.16954 -3.0325031 -3.1455154 -3.13733 -3.0439177 -2.9104838
-3.0223877 -2.9130435 -3.071465 -3.066306 -3.0996542 -2.9942203 -3.103399 -3.0335712
-2.95519 -3.043065 -2.915404 -2.996335 -2.9583137 -2.96665 -3.0457523 -3.1271682
-3.165052 -2.9438572 -2.9169521 -3.0848272 -3.0066247 -3.0863872 -3.1318285 -3.1241634
-2.9186544 -3.220377 -3.0337658 -3.067808 -2.9695466 -2.9018972 -3.0295308 -2.9543855
-3.0395074 -3.0083926 -2.8853738 -3.0539882 -2.8453748 -3.0868032 -3.0145295 -2.930054
-3.2372773 -2.9767175 -3.0403285 -3.12188 -2.9720826 -3.0276394 -3.0079765 -2.906873
-2.9877021 -2.9987218 -2.9404898 -2.8975542

classifier.0.weight_mu f4 [2, 180]
00000000: dc1a 34bd db7b a53d b6ed 263d fea1 3bbd
00000010: feff a9bd b11d 763e 3c81 f03d 6667 0d3d
00000020: 61f2 b33c 5390 db3d a0d8 35bd c44f 03be
00000030: 6b54 55bd 39b6 0fbe 4b41 4fbd 6553 28be
00000040: 6148 13bc 44ba 123e ced3 953c 7f2b bf3d
00000050: a6a5 c8bb 6e90 ce3d 9060 ad3c 05e6 173e
00000060: 8288 f7bb f57a 563d 693c 8ebd bba6 04be
00000070: b04a f9bd 2b97 e33c 1b61 9a3d 1aba 07be
00000080: 52d5 dabd 95c4 86bd 9d9a c43a 234e b6bd
00000090: c0c7 94bd e176 01bd 64b1 20bd 38e6 1a3e
000000a0: b5b8 283e 2e28 62bc f6d7 a93d 7f99 c13d
000000b0: f4f1 3a3d 1f71 803d 8af1 203e 1de9 f33d
000000c0: 164f 2abd 42ad 053e 065b 553c 7c1b 45be
000000d0: 4052 8dbd ce0f 333e 093f 21be c709 d93c
000000e0: 78fc 79bd d011 323e f62d bfbc 2d36 063d
000000f0: 9a3a 433e ede9 4c3d 086a f5bd 8491 283e
00000100: 7e0b 323e eb53 3e3c 61e6 fc3d 0d11 f7bc
00000110: 7da6 15be e61d 96bc cdb3 d33c dbcc 453e
00000120: d9ea c43d 46a1 b2bd 8243 98bd 0997 183d
00000130: 69aa 903d a599 bbbd 7d7e 7b3c 76a2 e7bd
00000140: cce7 87bd 9292 053e 5325 d6bc 27b8 893c
00000150: 4b18 9cbd 8b35 093e 6d07 dabd 52d9 b03d
00000160: 2db4 53bd ea5e b43c 843e 3abd 75c1 443d
00000170: 69ae 44bd 2682 f83c bb34 243e c9b2 943c
00000180: 193f 84bd 3406 c93d 7356 e3bd 9981 b6bc
00000190: 37bd 9fbd cc58 2cbe 820b b63d 0847 d8bd
000001a0: 3992 f2bd b5b5 113d 5d4e e0bd c8e2 593d
000001b0: 8f67 11bd db9a 00be 66bc 2ebd f24a 3d3e
000001c0: edda 43bd 60d6 173e 6029 74be 6091 993b
000001d0: d9d0 14bb 4dd9 6dbd 382d 59bd a219 ee3d
000001e0: d173 bf3a 865a 583d eaa8 143d 0fd9 a63d
000001f0: dbce 50bd f373 e83d 1a43 cfbd 1d52 b23d
00000200: a81a b43c 529e 143d 4dc8 a33d 33eb f43c
00000210: 7637 863d ac92 50bd 8781 683e 561c e1bd
00000220: 78a6 42bd 0fa9 e73c 7fb6 94bd e8b0 d73d
00000230: 2433 1bbe 5253 1ebe 3c10 22bd 2926 c13d
00000240: 4365 41bd cff6 9f3d 3d69 f0bd 73df 953c
00000250: 6164 39bd 85b2 f43d a64b 2bbd e1de d3bc
00000260: bf31 71be d1c7 733c c2e6 44bc 80b9 2f3e
00000270: 3b15 00be 3827 843d c234 9dbd bf44 3c3a
00000280: b8d7 1a3e 6d8f b53d 677c 94bd 823f dd3d
00000290: 3676 4dbd acb6 59bd 9096 97b9 096a 60bc
000002a0: 72d0 55bd 5411 81bd 3749 e6bd 337c 433c
000002b0: 0a89 133c c354 bf3d 565b 30be 8036 99bc
000002c0: 554f 163d 1608 4e3c 7660 013d 9661 913d
000002d0: 5884 1dbc 5051 d23c dd0b f6bc 463c b7bc
000002e0: 4273 033e a688 86be de7b ad3d 52d2 a1bd
000002f0: a86a 0ebe ca41 d3bd 49ea b93c 9897 133e
00000300: 3f75 11be 9325 84bd 013a 05be a0ce 973d
00000310: 6fe8 c7bd d077 7b3c 406f 9cbd 0659 253d
00000320: f4ec a9bd 83c0 fbbc a1b5 a13d c5a1 9b3d
00000330: 8532 1ebd 186b 8ebd b76e b5bd 450b e2bd
00000340: 4723 80bc c00c 6c3d 854a 12be 7172 f53c
00000350: abd0 0d3d f2ac 06bd 62e5 eebd 5897 3b3e
00000360: ad5f 0fbd 3e95 363d 0e1e 24bd f253 87bd
00000370: 23be d63d 4831 53be 538a 97bd 0111 113e
00000380: eb31 2e3e a3ae 43be 472d 2a3d 9b02 133e
00000390: 4fd8 fa3d 46e5 26bd b607 973d 042f b4bd
000003a0: 3633 7f3d 0dd0 a73c beda 14bd 101e 093d
000003b0: 1bff 22bd 0609 b53d a4ea 36be e86a 243d
000003c0: 6ee6 1d3c 5f19 e93d f42e b3bd ba83 1abe
000003d0: 8446 3cbe 9960 35bd 39ce 61be f5ae 0f3e
000003e0: 07ea 3a3d 11ae 483d e120 d7bd b3bc d8bc
000003f0: 7716 e03c a827 6739 cbe7 0d3d f011 ac3c
-0.043970928 0.08080264 0.040754043 -0.045808785 -0.0830078 0.24034764 0.117433995 0.034522437
0.021966161 0.10720887 -0.044396043 -0.12823397 -0.05208246 -0.14034356 -0.050599378 -0.16438062
-0.008989424 0.14328867 0.018289473 0.09334468 -0.0061232625 0.100861415 0.021164209 0.14833839
-0.007554115 0.052363355 -0.06945116 -0.12954228 -0.12172449 0.027782043 0.07538053 -0.13254586
-0.10685219 -0.06580464 0.0014999692 -0.08901622 -0.07264662 -0.031607512 -0.039231673 0.15126884
0.1647671 -0.013803525 0.082931444 0.09453105 0.0456409 0.06271576 0.1571714 0.11909697
-0.04157933 0.13054374 0.01302219 -0.19248766 -0.069004536 0.17486498 -0.15746702 0.02649392
-0.06103179 0.17389607 -0.023337346 0.03276651 0.19065323 0.050027777 -0.119831145 0.1646176
0.17387196 0.011616687 0.12348629 -0.030159498 -0.14614291 -0.018324804 0.025842572 0.19316427
0.09615106 -0.08722167 -0.07434751 0.037253413 0.07063753 -0.09160165 0.015349981 -0.11310284
-0.066360086 0.13044193 -0.026140844 0.016811443 -0.07621821 0.13399331 -0.106459476 0.086352006
-0.0516855 0.022017915 -0.045469776 0.048036058 -0.048017893 0.030335497 0.1603574 0.018151658
-0.064573474 0.09815636 -0.11100473 -0.022278594 -0.07799762 -0.16830748 0.08888914 -0.10560423
-0.11844296 0.03557368 -0.109524466 0.05319479 -0.03549915 -0.12559073 -0.04266014 0.1848562
-0.047816206 0.14827871 -0.23843908 0.0046865195 -0.002270749 -0.058068562 -0.05302164 0.11625983
0.001460666 0.052820705 0.0362939 0.081468694 -0.050978523 0.113502406 -0.101202205 0.08707068
0.021985367 0.0362838 0.07997189 0.029897308 0.06553547 -0.050921127 0.22705661 -0.10991733
-0.04752204 0.028278856 -0.07261371 0.10531789 -0.15156227 -0.15461472 -0.039566264 0.094311066
-0.04721571 0.07810747 -0.117388226 0.018295025 -0.045261744 0.119481124 -0.04182019 -0.025863113
-0.23554133 0.014879183 -0.012017908 0.17160606 -0.12508099 0.06452793 -0.076760784 0.0007181875
0.15121353 0.08865247 -0.0725029 0.10803129 -0.050161563 -0.053152725 -0.00028913142 -0.013697156
-0.052200742 -0.06302133 -0.112444334 0.011931467 0.009004841 0.09342339 -0.17222342 -0.018702745
0.03669675 0.01257517 0.031586133 0.07098691 -0.009614073 0.025673538 -0.030034954 -0.022367608
0.12836936 -0.2627613 0.084708914 -0.079014435 -0.13907874 -0.10315283 0.022694724 0.14413297
-0.14204882 -0.06452479 -0.13010408 0.074124575 -0.0976113 0.01534839 -0.07638407 0.040368102
-0.08297148 -0.030731445 0.07895971 0.075992145 -0.038622398 -0.0695402 -0.08859008 -0.11037306
-0.015641822 0.057629347 -0.1428624 0.029961796 0.03462283 -0.032879777 -0.11664845 0.18319452
-0.035003353 0.044575922 -0.040067725 -0.06607808 0.104854845 -0.20624268 -0.0739943 0.14166643
0.1701123 -0.19109587 0.041547086 0.14356463 0.12248289 -0.040745996 0.073745176 -0.0879803
0.062304698 0.020484949 -0.03634142 0.033475935 -0.03979407 0.08839612 -0.17862946 0.040141016
0.009637458 0.11381792 -0.0874919 -0.15089312 -0.18386275 -0.044281576 -0.22051324 0.14031585
0.045633342 0.048994128 -0.10504318 -0.026457166 0.027354462 0.0002204465 0.034644883 0.021004647
