checkpoints_16_tasks/16_task_groups_PUGCL_epochs_:150_lr_:0.03_hidden_:180_task_order_:[ 7 14  1 11  2 10  8  4  0  3 12  6 13 15  5  9]/model_10.pth.tar (torch_old, 111025 bytes, 136 tensors)

l1.weight_mu f4 [180, 29]
0	0x3dc16ce6	0.09444599
1	0x3e45c9b2	0.19315222
2	0xbdd12fa7	-0.10214167
3	0xbe14d6b5	-0.14535029
4	0xbcc49f03	-0.024001604
5	0xbccb519f	-0.024819193
6	0x3e13ca0d	0.14432545
7	0x39b2a19e	0.0003407122
8	0xbad785a6	-0.0016443029
9	0xbd36e72d	-0.04465406
10	0x3d85b665	0.065289296
11	0x3d87bc62	0.06627728
12	0xbdcf60a9	-0.10125858
13	0xbd292fee	-0.041305475
14	0xbe18eafb	-0.14933388
15	0x3d3697f9	0.044578526
16	0x3db3e998	0.08784789
17	0xbe4e8acb	-0.20170133
18	0xbd3c5a92	-0.045984812
19	0xbd22b5eb	-0.03972427
20	0xbd2255cf	-0.039632615
21	0x3d9d755f	0.076884024
22	0xbe8168ed	-0.25275365
23	0xbdc390d5	-0.09549109
24	0x3e2b1f06	0.16711053
25	0xbe21771e	-0.15768096
26	0xbd8d4eb7	-0.06899779
27	0xbc3a51bc	-0.011372026
28	0xbe058c54	-0.13041812
29	0x3c72b0d0	0.014812663
30	0xbdd21c54	-0.102593094
31	0x3d71337e	0.058886997
32	0x3c8b483a	0.017002214
33	0xbd4285dd	-0.047490943
34	0xbde86fa2	-0.11349417
35	0x3dddcdca	0.10830267
36	0x3c99973c	0.018748872
37	0x3d8e4c5b	0.069481574
38	0x3bae634c	0.0053218957
39	0xbd1e50df	-0.038651343
40	0xbd8b268b	-0.06794461
41	0x3d1782a6	0.03698983
42	0xbdd8ef90	-0.10592568
43	0xbc82964d	-0.01594081
44	0xbd949324	-0.07254627
45	0x3c013aed	0.007887584
46	0x3e09a83d	0.13443084
47	0x3e0f5c6c	0.140001
48	0x3dea2bae	0.114341125
49	0xbd0d34c9	-0.034474168
50	0x3bd6b19a	0.0065519335
51	0x3dbc8e3c	0.092068166
52	0xbcb3b9b3	-0.021939134
53	0x3defe126	0.117128655
54	0x3da5950c	0.08085069
55	0x3d1228c2	0.0356834
56	0x3d83d3f6	0.06436913
57	0x3e4f7362	0.20258859
58	0xbd618a9f	-0.05506384
59	0xbd9b8a57	-0.075947456
60	0x3e1a9c79	0.15098752
61	0x3d77e5b1	0.060521785
62	0xbe07be7b	-0.13256256
63	0x3e1cb9ba	0.15305224
64	0xbdc2cad0	-0.0951134
65	0xbe495eb2	-0.1966503
66	0x39cf6f72	0.0003956515
67	0xbd37defd	-0.044890393
68	0xbe0b43a7	-0.13600026
69	0x3afaf2fb	0.00191459
70	0x3d8b7459	0.06809301
71	0x3a679e5c	0.0008835548
72	0x3d32e135	0.043671805
73	0x3c6e544d	0.014546466
74	0x3dc09f91	0.09405435
75	0xbdc3d5e3	-0.0956228
76	0x3db0ffb6	0.08642523
77	0x3db5218c	0.08844289
78	0xbdc99fc8	-0.09844929
79	0x3b89b4d2	0.0042024637
80	0xbe16c8fb	-0.14725105
81	0xbdf95de2	-0.1217611
82	0xbda74eee	-0.081693515
83	0xbd66b198	-0.05632171
84	0xbdfe3dd5	-0.12414137
85	0xbd09e93e	-0.033669703
86	0xbd0e6bcc	-0.03477077
87	0x3de1367d	0.10996721
88	0xbd9438e1	-0.07237411
89	0xbd4a3841	-0.049370054
90	0x3c2daf4b	0.010600875
91	0xbc037aa1	-0.0080248425
92	0x3db9a1a2	0.09064032
93	0xbe9f2a55	-0.31086984
94	0xbd51dd9b	-0.05123673
95	0x3dd8d161	0.10586811
96	0xbdcc5de7	-0.09978848
97	0x3a561753	0.0008166928
98	0xbd33b6c5	-0.043875474
99	0xbe6bdb90	-0.23032975
100	0x3cb23389	0.02175309
101	0x3daccc5d	0.08437417
102	0xbd1ada9b	-0.037806135
103	0xbd5fe44b	-0.054661077
104	0xbd69c473	-0.057072114
105	0x3e0aa7a8	0.13540518
106	0x3c155a9e	0.009115843
107	0x3bf83107	0.007574204
108	0x3d850d17	0.06496637
109	0x3d8b5d94	0.06804958
110	0x3d0846bf	0.033270594
111	0x3d7f74d3	0.06236727
112	0xbd2fb0fa	-0.042893387
113	0xbd8cd510	-0.06876576
114	0x3d291b8c	0.041286036
115	0xbd287a04	-0.04113199
116	0xbd896d33	-0.06710281
117	0x3c151a57	0.009100518
118	0xba90bc61	-0.0011042469
119	0x3e0af349	0.13569368
120	0x3c9de3e9	0.019273715
121	0x3e03efe4	0.1288448
122	0xbe32d22a	-0.17462984
123	0x3e1f7f92	0.15576008
124	0x3e144ec4	0.14483172
125	0x3c8c3d62	0.017119113
126	0xbc8b97e9	-0.01704021
127	0x3d5b2137	0.053498473
128	0xbe5e67f0	-0.21719337
129	0xbceb783c	-0.028743856
130	0xbd25602b	-0.040374916
131	0xbe026f41	-0.12737752
132	0x3e479718	0.19491231
133	0x3c6b20be	0.014351068
134	0xbe220c4f	-0.15825008
135	0xbdaa3292	-0.08310427
136	0x3db3183c	0.08744857
137	0xbe093d00	-0.13402176
138	0xbe4c5d64	-0.199575
139	0x3da4fcb9	0.080560155
140	0xbb1b3e73	-0.0023688346
141	0xbe03ebfe	-0.12882993
142	0x3d745e16	0.05966004
143	0xbc1efb1a	-0.009703422
144	0x3c237fa0	0.009979159
145	0xbd0ac787	-0.03388169
146	0x3e97786a	0.29584056
147	0x3d05016a	0.03247205
148	0x3bddb5a6	0.006766039
149	0x3ddedd44	0.10882047
150	0xbcae19ff	-0.02125263
151	0x3e428857	0.18997322
152	0x3e100eea	0.1406819
153	0x3c7bfcd9	0.015380108
154	0x3e3f93ea	0.18708768
155	0xbd0c6390	-0.034274638
156	0x3e491edc	0.19640678
157	0xbd602359	-0.05472121
158	0x3e179a7f	0.1480503
159	0xbbe65128	-0.0070287175
160	0xbd29a72c	-0.041419193
161	0x3d502e1f	0.050825235
162	0x3dc7c986	0.097552344
163	0xbcc06dc8	-0.023489848
164	0x3c2c7121	0.010525019
165	0xbc48b13f	-0.01224929
166	0xbc5103fa	-0.012757296
167	0xbd4101bd	-0.0471208
168	0x3d225259	0.039629314
169	0x3d297df3	0.04137988
170	0x3d2788c2	0.040901907
171	0x3e2d7f30	0.1694305
172	0xbd845f03	-0.064634345
173	0x3d122279	0.035677407
174	0x3ebbc54d	0.36673966
175	0x3e252ecf	0.16131137
176	0x3e900d5f	0.281352
177	0x3d06c3f2	0.03290171
178	0x3e8add97	0.27122185
179	0x3da3bd78	0.07995123
180	0x3d5056ad	0.05086391
181	0x3d67eb08	0.056620628
182	0x3e559d64	0.20860821
183	0x3c286b43	0.010279479
184	0x3c280458	0.010254942
185	0xbb95d0f8	-0.00457203
186	0x3de16ab9	0.11006684
187	0x3de13420	0.1099627
188	0x3e060d80	0.13091087
189	0x3de39d82	0.111140266
190	0xbcdeb62e	-0.02718648
191	0x3e0be750	0.13662457
192	0x3d1e1ca6	0.03860154
193	0x3e5d4574	0.21608526
194	0x3dce9c94	0.10088459
195	0xbc552987	-0.013010389
196	0x3e544734	0.20730287
197	0x3e8c7cad	0.2743887
198	0xbd8f5faf	-0.07000672
199	0x3e8ab916	0.27094334
200	0x3def09b7	0.11671775
201	0x3db504dc	0.088388175
202	0x3dd7355a	0.10508223
203	0x3d9c53b2	0.07633151
204	0xbd308c8b	-0.043102782
205	0xbd0a86b5	-0.033819873
206	0xbd64a811	-0.055824343
207	0xbca8a428	-0.020586088
208	0xbcd156c8	-0.025554076
209	0x3d619a5b	0.055078845
210	0xbdbefeae	-0.0932592
211	0x3d31eb7e	0.043437473
212	0xbc705a45	-0.014669959
213	0xbbf22cad	-0.0073905797
214	0xbd02b9e5	-0.031915564
215	0x3da87ded	0.082271434
216	0xbdaee1f1	-0.08539189
217	0x3e05cb2e	0.13065788
218	0xbd310c70	-0.043224752
219	0xbd5635d9	-0.052297447
220	0x3d53af98	0.05168113
221	0x3d770fad	0.060317684
222	0xbc65bdf2	-0.014022337
223	0x3e13f8ee	0.14450428
224	0xbc8d5252	-0.017251167
225	0xbdc4020e	-0.095707044
226	0xbdd8e3b5	-0.10590307
227	0xbe2669d0	-0.16251302
228	0xbcbee03e	-0.023300286
229	0xbdc8257d	-0.09772775
230	0xbd1903bd	-0.03735708
231	0xbdaff6e6	-0.08592014
232	0x3d46631c	0.04843436
233	0x3ed40460	0.41409588
234	0x3e51c8ec	0.20486802
235	0x3dc3aba7	0.095542245
236	0x3e3d1d98	0.1846832
237	0x3df25385	0.11832336
238	0x3db622f9	0.08893389
239	0xbda57f98	-0.08080977
240	0x3da61137	0.08108752
241	0xbd71a575	-0.058995683
242	0x3c9c8a64	0.019108959
243	0x3ccdaf65	0.025108049
244	0x3c961662	0.01832122
245	0x3e225768	0.15853655
246	0x3c1fc5ac	0.0097517185
247	0x3d438e03	0.047742855
248	0x3e06e4ca	0.13173214
249	0x3e465647	0.1936885
250	0x3e04761a	0.12935677
251	0x3e40b141	0.18817617
252	0x3e018ebc	0.12652105
253	0xbd3b7086	-0.045761608
254	0x3ea8fb26	0.3300411
255	0x3eadcb4c	0.33944166

l1.weight_rho f4 [180, 29]
0	0xc0373469	-2.8625739
1	0xc03a2ee4	-2.909112
2	0xc0441727	-3.063913
3	0xc0486cd5	-3.1316426
4	0xc03dfc01	-2.968506
5	0xc03caa7f	-2.9479063
6	0xc03de861	-2.9673083
7	0xc041fafa	-3.0309434
8	0xc03c55f4	-2.9427462
9	0xc0432232	-3.048962
10	0xc03b742b	-2.9289653
11	0xc0383c8d	-2.8786957
12	0xc04b0d47	-3.1726854
13	0xc040d788	-3.013155
14	0xc03be5f0	-2.9359093
15	0xc03c241b	-2.9397037
16	0xc03f5692	-2.9896588
17	0xc03fd39d	-2.9972908
18	0xc03c2284	-2.9396067
19	0xc03b8f40	-2.9306183
20	0xc04513a1	-3.079323
21	0xc036d14f	-2.8565252
22	0xc049c0d5	-3.1523945
23	0xc0433da1	-3.0506365
24	0xc043855b	-3.0550144
25	0xc041a98c	-3.0259733
26	0xc0401808	-3.0014668
27	0xc04241ff	-3.035278
28	0xc0470d15	-3.1101735
29	0xc03be087	-2.935579
30	0xc043c29b	-3.0587528
31	0xc04388cf	-3.0552251
32	0xc0364f11	-2.8485758
33	0xc0414a50	-3.0201607
34	0xc042ac48	-3.0417652
35	0xc03bcf6f	-2.9345357
36	0xc041040a	-3.0158715
37	0xc04262b5	-3.0372746
38	0xc0362d03	-2.8464973
39	0xc0492814	-3.1430712
40	0xc037f3e0	-2.87426
41	0xc041f01e	-3.0302806
42	0xc0366460	-2.8498764
43	0xc0327be6	-2.7888122
44	0xc0440310	-3.062687
45	0xc03e80c2	-2.9766088
46	0xc048c6a7	-3.1371248
47	0xc03cd926	-2.9507537
48	0xc03751f0	-2.864376
49	0xc03c40e9	-2.9414618
50	0xc03d36ba	-2.9564652
51	0xc038bd74	-2.8865633
52	0xc041263b	-3.0179584
53	0xc04541d7	-3.0821435
54	0xc03c7454	-2.9446
55	0xc045df42	-3.0917516
56	0xc03b722e	-2.928844
57	0xc03ff161	-2.9991076
58	0xc044186b	-3.0639904
59	0xc02c12e8	-2.688654
60	0xc041112b	-3.0166728
61	0xc03d1d22	-2.9549031
62	0xc039df09	-2.904238
63	0xc03db2d7	-2.9640405
64	0xc03f753c	-2.9915304
65	0xc042d6be	-3.0443568
66	0xc03ded96	-2.967626
67	0xc0422123	-3.0332725
68	0xc042275f	-3.033653
69	0xc03fe74f	-2.998493
70	0xc041ca9e	-3.0279918
71	0xc03d19f0	-2.954708
72	0xc03e16c1	-2.9701388
73	0xc0431671	-3.0482447
74	0xc0426c04	-3.0378428
75	0xc03727b7	-2.861799
76	0xc03e1e82	-2.970612
77	0xc0420aef	-3.0319173
78	0xc03dae19	-2.963751
79	0xc045ba76	-3.0895057
80	0xc0414bf7	-3.0202615
81	0xc0403389	-3.0031455
82	0xc03c4426	-2.9416595
83	0xc03a919c	-2.9151373
84	0xc047a31f	-3.1193311
85	0xc034ba33	-2.8238647
86	0xc04a8dda	-3.164908
87	0xc03f28e9	-2.986872
88	0xc038688d	-2.8813813
89	0xc03dc416	-2.9650931
90	0xc0453ed3	-3.0819595
91	0xc04278bf	-3.0386198
92	0xc03cc16c	-2.9493055
93	0xc046d97d	-3.1070244
94	0xc03bbb82	-2.9333196
95	0xc03a7326	-2.913278
96	0xc047684b	-3.1157405
97	0xc057c657	-3.3714807
98	0xc03832a8	-2.8780918
99	0xc03f86a9	-2.992594
100	0xc0381f29	-2.8769019
101	0xc0471d29	-3.1111548
102	0xc040c6b9	-3.012129
103	0xc040487d	-3.0044243
104	0xc03a1cd7	-2.9080102
105	0xc03e1b50	-2.970417
106	0xc04390da	-3.055716
107	0xc03d74c7	-2.9602525
108	0xc04749d7	-3.1138818
109	0xc03d7aad	-2.9606125
110	0xc03727ac	-2.8617964
111	0xc044205e	-3.0644755
112	0xc03b14b8	-2.9231396
113	0xc038d730	-2.888134
114	0xc042d1e9	-3.044062
115	0xc0467a60	-3.1012192
116	0xc03e2124	-2.9707727
117	0xc0384ee1	-2.8798144
118	0xc0415398	-3.0207272
119	0xc039b914	-2.9019213
120	0xc04c6197	-3.1934564
121	0xc035ce83	-2.8407295
122	0xc034e2f2	-2.8263516
123	0xc045002e	-3.078136
124	0xc04eaaaa	-3.2291665
125	0xc03b41db	-2.9258945
126	0xc040ec46	-3.014421
127	0xc04174a4	-3.0227442
128	0xc0326e80	-2.7879944
129	0xc04211ab	-3.0323284
130	0xc039f606	-2.905641
131	0xc042f26e	-3.0460467
132	0xc03a8d67	-2.9148805
133	0xc040dfc8	-3.0136585
134	0xc038ea57	-2.889303
135	0xc03da3a8	-2.9631138
136	0xc042f5b4	-3.0462465
137	0xc03fe6cc	-2.9984617
138	0xc04a8a7c	-3.1647024
139	0xc0385092	-2.8799176
140	0xc0372daa	-2.862162
141	0xc035e7c4	-2.8422709
142	0xc0411c5e	-3.0173564
143	0xc034b739	-2.823683
144	0xc0416fc0	-3.0224457
145	0xc040a7e1	-3.0102465
146	0xc044cda9	-3.0750525
147	0xc04732a3	-3.1124656
148	0xc04c3eb9	-3.1913283
149	0xc0517414	-3.2727098
150	0xc03e845a	-2.976828
151	0xc0408be1	-3.0085375
152	0xc03df450	-2.9680367
153	0xc04a770e	-3.1635165
154	0xc03e7a94	-2.9762316
155	0xc042b2f2	-3.042172
156	0xc040b3d7	-3.0109766
157	0xc03d4c82	-2.9577947
158	0xc0386b3b	-2.8815448
159	0xc047491d	-3.1138375
160	0xc0381a26	-2.876596
161	0xc04c4c25	-3.1921475
162	0xc0331995	-2.7984364
163	0xc0470aef	-3.1100423
164	0xc04125c6	-3.0179305
165	0xc03b72c1	-2.928879
166	0xc040c5f8	-3.012083
167	0xc0427889	-3.038607
168	0xc04a8dfe	-3.1649165
169	0xc03c38e2	-2.9409719
170	0xc03bf3e5	-2.9367611
171	0xc03c5408	-2.9426289
172	0xc03ea2df	-2.9786909
173	0xc04441f3	-3.0665252
174	0xc03484aa	-2.8205972
175	0xc04fafec	-3.2451124
176	0xc0412688	-3.0179768
177	0xc0413c1d	-3.019294
178	0xc03ff990	-2.999607
179	0xc03da5b9	-2.96324
180	0xc049c296	-3.1525016
181	0xc03ed970	-2.9820213
182	0xc0301358	-2.7511806
183	0xc03e5d3c	-2.9744406
184	0xc0415d33	-3.0213134
185	0xc044d81e	-3.0756907
186	0xc0458796	-3.0864005
187	0xc040b2e0	-3.0109177
188	0xc04b4c60	-3.1765366
189	0xc03bc5c6	-2.9339461
190	0xc03c566b	-2.9427745
191	0xc040343a	-3.0031877
192	0xc03c271f	-2.9398878
193	0xc03c1aff	-2.9391477
194	0xc048e398	-3.1388912
195	0xc0479f81	-3.1191103
196	0xc041a38b	-3.0256069
197	0xc03f5470	-2.9895287
198	0xc04bbaa5	-3.1832669
199	0xc0463773	-3.0971344
200	0xc040dc58	-3.0134487
201	0xc03f83cd	-2.9924195
202	0xc042dc65	-3.0447018
203	0xc03fa9b8	-2.9947338
204	0xc0403b83	-3.0036323
205	0xc040caf0	-3.0123863
206	0xc03fbe0a	-2.995974
207	0xc0403482	-3.0032048
208	0xc0424610	-3.0355263
209	0xc039a5a8	-2.9007359
210	0xc03f908f	-2.9931982
211	0xc038d681	-2.8880923
212	0xc0466818	-3.1001034
213	0xc04abc61	-3.1677477
214	0xc04e8122	-3.2266316
215	0xc045eeb6	-3.0926948
216	0xc0499771	-3.1498682
217	0xc03b047e	-2.9221492
218	0xc042f798	-3.046362
219	0xc041e570	-3.0296288
220	0xc03d014e	-2.9532046
221	0xc036ebfa	-2.8581529
222	0xc03a12eb	-2.9074047
223	0xc045a214	-3.0880175
224	0xc04246a7	-3.0355623
225	0xc03b9caa	-2.931437
226	0xc03f2beb	-2.9870555
227	0xc048eaab	-3.139323
228	0xc0402834	-3.0024538
229	0xc03a837a	-2.9142747
230	0xc0361b2b	-2.8454082
231	0xc03e65ca	-2.9749627
232	0xc0397136	-2.8975348
233	0xc046daac	-3.1070967
234	0xc04aacdb	-3.1668003
235	0xc036971b	-2.8529727
236	0xc03cfcbe	-2.9529262
237	0xc03c50d8	-2.9424343
238	0xc0480551	-3.1253245
239	0xc04314b0	-3.0481377
240	0xc03ac5a3	-2.9183128
241	0xc03c643c	-2.9436178
242	0xc03e351e	-2.971992
243	0xc039d8dc	-2.903861
244	0xc040e69c	-3.0140753
245	0xc03e873e	-2.9770045
246	0xc03e8d23	-2.9773643
247	0xc03c0b4e	-2.93819
248	0xc03dd041	-2.9658358
249	0xc03ffd4c	-2.999835
250	0xc0426bcd	-3.0378296
251	0xc04a7742	-3.163529
252	0xc042fd2e	-3.0467029
253	0xc03a42d2	-2.9103284
254	0xc0424122	-3.0352254
255	0xc035c1c3	-2.8399513

l1.bias_mu f4 [180]
0	0xbaf20a55	-0.0018466214
1	0x3e0441c0	0.12915707
2	0xbca32f82	-0.019920114
3	0xbdb7db05	-0.089773215
4	0x3e179273	0.1480196
5	0x3e7f00ec	0.24902695
6	0x3ea5f0c0	0.3241024
7	0x3b5f5ef0	0.0034083687
8	0x3eaf4dc1	0.3423901
9	0x3d8c3e85	0.06847862
10	0xbda9691e	-0.08272003
11	0x3d88f431	0.06687201
12	0xbcef6fb1	-0.029228063
13	0xbd7a6c3e	-0.061138384
14	0xbd485cec	-0.048916742
15	0xbdaceb9c	-0.084433764
16	0x3da401a2	0.08008124
17	0xbdb8465c	-0.08997795
18	0x3d443789	0.047904525
19	0x3d21ab2b	0.03946988
20	0xbd7cf124	-0.061753407
21	0xbdac1259	-0.08401937
22	0xbd3f4d20	-0.04670441
23	0x3eb0a04a	0.3449729
24	0x3e79f5a3	0.24410109
25	0x3a33ac70	0.00068540033
26	0x3e35501b	0.17706339
27	0xbe87922f	-0.26478717
28	0xbdc52568	-0.09626275
29	0x3dca3aca	0.098744944
30	0xba9a9992	-0.0011795035
31	0xbe09ca3e	-0.13456056
32	0x3de483e8	0.111579716
33	0xbd7e2c7f	-0.062054154
34	0xbe319a94	-0.17344123
35	0xbe92b59e	-0.28654188
36	0x3cb9f031	0.02269754
37	0x3e0bb978	0.1364497
38	0x3dcdb997	0.10045164
39	0x3c03fbf0	0.008055672
40	0xbc42dbdb	-0.011893238
41	0xbd17523d	-0.036943663
42	0xbe796455	-0.2435468
43	0x3ebcf722	0.36907297
44	0xbc91d1e2	-0.017800275
45	0x3e475913	0.19467573
46	0xbdd0d0a7	-0.10196047
47	0x3ee4be54	0.4467646
48	0x3e321b69	0.17393269
49	0x3e30bc3d	0.17259307
50	0x3d0f577d	0.034995545
51	0x3e5c18e2	0.21493867
52	0x3bb46b87	0.0055059823
53	0x3dbf5954	0.0934321
54	0xbe92e01a	-0.286866
55	0x3e49ce3f	0.19707583
56	0xbcb5e952	-0.022205982
57	0x3ec5112b	0.3848966
58	0xbe2aebce	-0.16691515
59	0x3d97b496	0.07407491
60	0x3d9b8534	0.07593766
61	0x3d2b7b26	0.04186549
62	0xbd99d7bf	-0.075118534
63	0x3e8d6aaa	0.2762044
64	0xbde8a320	-0.113592386
65	0x3f0b459b	0.54403085
66	0xbd8a3aeb	-0.06749519
67	0x3e9ac647	0.302294
68	0xbd08ac55	-0.033367474
69	0x3d2d0def	0.042249616
70	0xbd4f9ece	-0.050688557
71	0x3cb85c8c	0.022505067
72	0xbe29fc28	-0.16600096
73	0xbd735cbd	-0.059414614
74	0xbdba985f	-0.09111094
75	0x3e99a0b2	0.30005413
76	0xbd0932d8	-0.033495754
77	0x3e7b5688	0.24544728
78	0xbe115e90	-0.14196229
79	0xbe2a508c	-0.16632289
80	0xbdb15f88	-0.08660799
81	0x3eb47a99	0.35249785
82	0xbd4ff248	-0.050768167
83	0x3df68d37	0.12038653
84	0xbe1a526b	-0.15070502
85	0x3e9677a5	0.29388157
86	0xbe8fc84c	-0.28082502
87	0xbcafb519	-0.021448659
88	0x3ceff27d	0.029290432
89	0xbdbe3f70	-0.092894435
90	0x3cdd440c	0.027009986
91	0xbdd5a9d6	-0.10432784
92	0x3e35df41	0.17760946
93	0xbdca99c7	-0.09892612
94	0xbe0ef168	-0.13959277
95	0x3eb97c85	0.36227813
96	0xbe42d6ef	-0.19027303
97	0x3ea57221	0.32313636
98	0xbd8ee5b9	-0.0697741
99	0xbdad8b4c	-0.084738344
100	0xbd850384	-0.06494811
101	0xbda4a9ba	-0.08040185
102	0xbe1289ba	-0.14310351
103	0xbdcf1f8b	-0.10113438
104	0xbe339acc	-0.17539519
105	0xbd4efa5b	-0.050531726
106	0xbda11f76	-0.07867329
107	0xbdc3cb9c	-0.0956032
108	0xbc861c0f	-0.016370801
109	0x3e794acd	0.2434494
110	0x3daf98dd	0.08574078
111	0xbdc66bd2	-0.09688534
112	0xbca62216	-0.020279925
113	0xb9cec543	-0.00039438353
114	0x3e5c6a20	0.21524858
115	0xbccd9fdc	-0.025100641
116	0x3d9eca25	0.077534
117	0xbdd5a04a	-0.10430963
118	0x3d533203	0.051561367
119	0x3e9b0482	0.30276877
120	0xbd5badb8	-0.053632468
121	0xbd3c684f	-0.045997914
122	0xbda88635	-0.08228723
123	0x3dd78aae	0.10524498
124	0xbe3bbd6b	-0.18333976
125	0xbbaf170c	-0.0053433236
126	0x3d75b954	0.059991196
127	0x3d1f10e0	0.038834453
128	0x3dd024e7	0.101632886
129	0x3e08ad30	0.13347316
130	0x3d818012	0.063232556
131	0x3cbcb67e	0.023036238
132	0x3e1185af	0.14211152
133	0x3e20bda5	0.15697344
134	0xbe3cd644	-0.18441111
135	0xbe1e2949	-0.15445437
136	0x3e42fa8c	0.19040889
137	0xbdb2b494	-0.08725849
138	0xbe0f09d1	-0.13968588
139	0xbd2974e9	-0.04137126
140	0xbe12cbc5	-0.14335544
141	0x3d75da70	0.06002277
142	0x3e1d717f	0.15375327
143	0xbcc4279a	-0.023944665
144	0x3d5c769b	0.05382405
145	0xbd84c660	-0.064831495
146	0xbda0bfa8	-0.078490555
147	0x3d1e1e2a	0.038602985
148	0xbdb8f576	-0.09031193
149	0x3e5922a5	0.21204622
150	0xbe6d37cd	-0.23165818
151	0x3d93ad39	0.07210774
152	0xbc51ddce	-0.01280923
153	0xbd691e46	-0.056913637
154	0xbcc3d068	-0.023903087
155	0x3beee684	0.007290663
156	0xbda9ac65	-0.08284835
157	0x3efa9c9e	0.48947614
158	0xbd8615dd	-0.06547139
159	0xbdb823c7	-0.08991199
160	0xbc471f9f	-0.012153535
161	0x3e9be48a	0.304478
162	0x3e8229ef	0.25422618
163	0x3d6f9fb6	0.05850192
164	0xbc46dcb9	-0.012137585
165	0xbd1d7ae8	-0.03844729
166	0x3d00949d	0.03139173
167	0x3de2950c	0.11063585
168	0x3db8deac	0.09026846
169	0xbe12172d	-0.14266653
170	0x3e0a3268	0.13495791
171	0x3e6494f7	0.2232245
172	0x3cc927d8	0.024555132
173	0x3e48f38f	0.1962416
174	0xbe10e8cf	-0.1415131
175	0x3de6ac21	0.112633
176	0xbe7085fe	-0.23488614
177	0xbe105bb9	-0.1409749
178	0x3e60fd1e	0.21971557
179	0xbdf1a050	-0.11798155

l1.bias_rho f4 [180]
0	0xc0411b73	-3.0173004
1	0xc04ac3f0	-3.168209
2	0xc040759c	-3.0071783
3	0xc03b128b	-2.9230068
4	0xc042b7e4	-3.0424738
5	0xc04214a3	-3.0325096
6	0xc03d1d35	-2.9549077
7	0xc034a496	-2.8225455
8	0xc0448491	-3.0705912
9	0xc0405a5f	-3.0055158
10	0xc03a2c04	-2.9089365
11	0xc0464fc6	-3.098619
12	0xc0364331	-2.847851
13	0xc038104a	-2.8759942
14	0xc04d12eb	-3.2042797
15	0xc03bf5b3	-2.9368713
16	0xc04e34a5	-3.2219632
17	0xc0432618	-3.0492
18	0xc03d80dd	-2.9609902
19	0xc03dc179	-2.9649336
20	0xc047caa9	-3.1217444
21	0xc03b76d6	-2.9291282
22	0xc03b8b29	-2.9303687
23	0xc039a87b	-2.9009082
24	0xc042e6f3	-3.045346
25	0xc03d453f	-2.9573514
26	0xc030fa40	-2.765274
27	0xc0385bd9	-2.880606
28	0xc03698ef	-2.8530843
29	0xc045e705	-3.0922253
30	0xc04246fa	-3.035582
31	0xc03c21f2	-2.9395719
32	0xc03cb6da	-2.9486604
33	0xc043c8d5	-3.0591328
34	0xc048e192	-3.1387677
35	0xc0441a62	-3.0641103
36	0xc04494a7	-3.071573
37	0xc046a067	-3.1035402
38	0xc040114a	-3.0010552
39	0xc031a97b	-2.7759693
40	0xc03a6510	-2.9124184
41	0xc036ac5d	-2.8542702
42	0xc0473c4e	-3.1130557
43	0xc03be125	-2.9356167
44	0xc03e8c03	-2.9772956
45	0xc03f6cbd	-2.9910119
46	0xc03b05df	-2.9222333
47	0xc03e9da0	-2.9783707
48	0xc03e1d9b	-2.970557
49	0xc03ef481	-2.9836733
50	0xc03beedd	-2.936454
51	0xc03ce0f5	-2.9512303
52	0xc03d6609	-2.9593527
53	0xc03fc492	-2.9963727
54	0xc04194f8	-3.0247173
55	0xc03eb695	-2.979894
56	0xc045ddc9	-3.0916617
57	0xc03cb648	-2.9486256
58	0xc03942d0	-2.894703
59	0xc043f61b	-3.061896
60	0xc047b082	-3.1201482
61	0xc04395bb	-3.0560138
62	0xc03bfd0d	-2.93732
63	0xc03cc2ca	-2.949389
64	0xc03709c7	-2.8599718
65	0xc03c13a8	-2.9386997
66	0xc03e6b39	-2.9752944
67	0xc03d67f3	-2.9594696
68	0xc045d721	-3.0912554
69	0xc03e5f8c	-2.9745817
70	0xc03e1136	-2.9698005
71	0xc042cd73	-3.0437896
72	0xc03aec58	-2.9206753
73	0xc03de180	-2.9668884
74	0xc041aeab	-3.026286
75	0xc045bb9a	-3.0895753
76	0xc04b0b89	-3.172579
77	0xc0433a03	-3.0504158
78	0xc0418a64	-3.0240717
79	0xc0412f21	-3.0185015
80	0xc0393516	-2.893865
81	0xc0482ae0	-3.127617
82	0xc03b913d	-2.9307396
83	0xc03bbdb6	-2.933454
84	0xc03d16ca	-2.954516
85	0xc041c104	-3.0274057
86	0xc03b9361	-2.9308703
87	0xc042fff8	-3.046873
88	0xc0424bff	-3.0358884
89	0xc03c5df0	-2.9432335
90	0xc042dc86	-3.0447097
91	0xc0416cc6	-3.022264
92	0xc03ed625	-2.9818203
93	0xc044a67e	-3.0726619
94	0xc0473689	-3.1127036
95	0xc0407da5	-3.0076687
96	0xc04ab1f4	-3.1671114
97	0xc04838d5	-3.1284688
98	0xc04046f7	-3.0043314
99	0xc0409783	-3.0092475
100	0xc03f3dfb	-2.988158
101	0xc041a643	-3.0257728
102	0xc0382fb1	-2.8779109
103	0xc038639f	-2.8810804
104	0xc03a344f	-2.9094427
105	0xc039c279	-2.9024947
106	0xc045d9c7	-3.091417
107	0xc042d8c9	-3.0444815
108	0xc04db009	-3.2138693
109	0xc0462de4	-3.096551
110	0xc0432554	-3.0491533
111	0xc04270f9	-3.0381453
112	0xc0491ab4	-3.1422548
113	0xc04299ad	-3.0406296
114	0xc0388ec9	-2.883715
115	0xc04840d1	-3.128956
116	0xc036bbc7	-2.855211
117	0xc040e85d	-3.0141823
118	0xc0496b95	-3.1471913
119	0xc0405519	-3.005194
120	0xc036dc55	-2.857198
121	0xc04b3ffe	-3.1757808
122	0xc04adfa9	-3.1699011
123	0xc0421429	-3.0324805
124	0xc04968ce	-3.1470218
125	0xc048d6c9	-3.1381094
126	0xc042de0d	-3.044803
127	0xc03a6231	-2.9122431
128	0xc04176c1	-3.0228732
129	0xc03a5c17	-2.9118707
130	0xc044b078	-3.0732708
131	0xc04431c5	-3.0655377
132	0xc04675aa	-3.1009316
133	0xc03f99fa	-2.993773
134	0xc046a4c4	-3.1038065
135	0xc0422939	-3.033766
136	0xc03d0e3b	-2.9539936
137	0xc042c97d	-3.0435479
138	0xc03abe06	-2.917848
139	0xc03fb5df	-2.9954755
140	0xc03d2227	-2.9552095
141	0xc03dd90d	-2.9663727
142	0xc042e969	-3.0454962
143	0xc04835d2	-3.128285
144	0xc04a9f9d	-3.165992
145	0xc03c6256	-2.943502
146	0xc03aa6a8	-2.916422
147	0xc04573a2	-3.0851827
148	0xc0405115	-3.0049489
149	0xc0457735	-3.0854008
150	0xc0482c5c	-3.1277075
151	0xc047fcbb	-3.1248004
152	0xc03ae918	-2.920477
153	0xc04e12d7	-3.2199
154	0xc042093a	-3.0318131
155	0xc044592d	-3.0679429
156	0xc03e0425	-2.969003
157	0xc039ae9a	-2.9012818
158	0xc041dec8	-3.0292225
159	0xc03d2575	-2.9554112
160	0xc042c876	-3.0434852
161	0xc040b4e9	-3.0110419
162	0xc038ab09	-2.8854392
163	0xc0434d6c	-3.0516005
164	0xc0366570	-2.8499413
165	0xc0459781	-3.087372
166	0xc040d6e6	-3.0131164
167	0xc03bac8b	-2.9324062
168	0xc04f0480	-3.2346497
169	0xc03e7362	-2.9757924
170	0xc0427999	-3.0386717
171	0xc047c2fb	-3.1212757
172	0xc03e02a7	-2.968912
173	0xc041d202	-3.0284429
174	0xc0406e89	-3.0067465
175	0xc039dd1d	-2.9041207
176	0xc03f3b4b	-2.987994
177	0xc0401877	-3.0014932
178	0xc03c35da	-2.9407868
179	0xc0397511	-2.8977702

l1.weight.mu f4 [180, 29]
0	0x3dc16ce6	0.09444599
1	0x3e45c9b2	0.19315222
2	0xbdd12fa7	-0.10214167
3	0xbe14d6b5	-0.14535029
4	0xbcc49f03	-0.024001604
5	0xbccb519f	-0.024819193
6	0x3e13ca0d	0.14432545
7	0x39b2a19e	0.0003407122
8	0xbad785a6	-0.0016443029
9	0xbd36e72d	-0.04465406
10	0x3d85b665	0.065289296
11	0x3d87bc62	0.06627728
12	0xbdcf60a9	-0.10125858
13	0xbd292fee	-0.041305475
14	0xbe18eafb	-0.14933388
15	0x3d3697f9	0.044578526
16	0x3db3e998	0.08784789
17	0xbe4e8acb	-0.20170133
18	0xbd3c5a92	-0.045984812
19	0xbd22b5eb	-0.03972427
20	0xbd2255cf	-0.039632615
21	0x3d9d755f	0.076884024
22	0xbe8168ed	-0.25275365
23	0xbdc390d5	-0.09549109
24	0x3e2b1f06	0.16711053
25	0xbe21771e	-0.15768096
26	0xbd8d4eb7	-0.06899779
27	0xbc3a51bc	-0.011372026
28	0xbe058c54	-0.13041812
29	0x3c72b0d0	0.014812663
30	0xbdd21c54	-0.102593094
31	0x3d71337e	0.058886997
32	0x3c8b483a	0.017002214
33	0xbd4285dd	-0.047490943
34	0xbde86fa2	-0.11349417
35	0x3dddcdca	0.10830267
36	0x3c99973c	0.018748872
37	0x3d8e4c5b	0.069481574
38	0x3bae634c	0.0053218957
39	0xbd1e50df	-0.038651343
40	0xbd8b268b	-0.06794461
41	0x3d1782a6	0.03698983
42	0xbdd8ef90	-0.10592568
43	0xbc82964d	-0.01594081
44	0xbd949324	-0.07254627
45	0x3c013aed	0.007887584
46	0x3e09a83d	0.13443084
47	0x3e0f5c6c	0.140001
48	0x3dea2bae	0.114341125
49	0xbd0d34c9	-0.034474168
50	0x3bd6b19a	0.0065519335
51	0x3dbc8e3c	0.092068166
52	0xbcb3b9b3	-0.021939134
53	0x3defe126	0.117128655
54	0x3da5950c	0.08085069
55	0x3d1228c2	0.0356834
56	0x3d83d3f6	0.06436913
57	0x3e4f7362	0.20258859
58	0xbd618a9f	-0.05506384
59	0xbd9b8a57	-0.075947456
60	0x3e1a9c79	0.15098752
61	0x3d77e5b1	0.060521785
62	0xbe07be7b	-0.13256256
63	0x3e1cb9ba	0.15305224
64	0xbdc2cad0	-0.0951134
65	0xbe495eb2	-0.1966503
66	0x39cf6f72	0.0003956515
67	0xbd37defd	-0.044890393
68	0xbe0b43a7	-0.13600026
69	0x3afaf2fb	0.00191459
70	0x3d8b7459	0.06809301
71	0x3a679e5c	0.0008835548
72	0x3d32e135	0.043671805
73	0x3c6e544d	0.014546466
74	0x3dc09f91	0.09405435
75	0xbdc3d5e3	-0.0956228
76	0x3db0ffb6	0.08642523
77	0x3db5218c	0.08844289
78	0xbdc99fc8	-0.09844929
79	0x3b89b4d2	0.0042024637
80	0xbe16c8fb	-0.14725105
81	0xbdf95de2	-0.1217611
82	0xbda74eee	-0.081693515
83	0xbd66b198	-0.05632171
84	0xbdfe3dd5	-0.12414137
85	0xbd09e93e	-0.033669703
86	0xbd0e6bcc	-0.03477077
87	0x3de1367d	0.10996721
88	0xbd9438e1	-0.07237411
89	0xbd4a3841	-0.049370054
90	0x3c2daf4b	0.010600875
91	0xbc037aa1	-0.0080248425
92	0x3db9a1a2	0.09064032
93	0xbe9f2a55	-0.31086984
94	0xbd51dd9b	-0.05123673
95	0x3dd8d161	0.10586811
96	0xbdcc5de7	-0.09978848
97	0x3a561753	0.0008166928
98	0xbd33b6c5	-0.043875474
99	0xbe6bdb90	-0.23032975
100	0x3cb23389	0.02175309
101	0x3daccc5d	0.08437417
102	0xbd1ada9b	-0.037806135
103	0xbd5fe44b	-0.054661077
104	0xbd69c473	-0.057072114
105	0x3e0aa7a8	0.13540518
106	0x3c155a9e	0.009115843
107	0x3bf83107	0.007574204
108	0x3d850d17	0.06496637
109	0x3d8b5d94	0.06804958
110	0x3d0846bf	0.033270594
111	0x3d7f74d3	0.06236727
112	0xbd2fb0fa	-0.042893387
113	0xbd8cd510	-0.06876576
114	0x3d291b8c	0.041286036
115	0xbd287a04	-0.04113199
116	0xbd896d33	-0.06710281
117	0x3c151a57	0.009100518
118	0xba90bc61	-0.0011042469
119	0x3e0af349	0.13569368
120	0x3c9de3e9	0.019273715
121	0x3e03efe4	0.1288448
122	0xbe32d22a	-0.17462984
123	0x3e1f7f92	0.15576008
124	0x3e144ec4	0.14483172
125	0x3c8c3d62	0.017119113
126	0xbc8b97e9	-0.01704021
127	0x3d5b2137	0.053498473
128	0xbe5e67f0	-0.21719337
129	0xbceb783c	-0.028743856
130	0xbd25602b	-0.040374916
131	0xbe026f41	-0.12737752
132	0x3e479718	0.19491231
133	0x3c6b20be	0.014351068
134	0xbe220c4f	-0.15825008
135	0xbdaa3292	-0.08310427
136	0x3db3183c	0.08744857
137	0xbe093d00	-0.13402176
138	0xbe4c5d64	-0.199575
139	0x3da4fcb9	0.080560155
140	0xbb1b3e73	-0.0023688346
141	0xbe03ebfe	-0.12882993
142	0x3d745e16	0.05966004
143	0xbc1efb1a	-0.009703422
144	0x3c237fa0	0.009979159
145	0xbd0ac787	-0.03388169
146	0x3e97786a	0.29584056
147	0x3d05016a	0.03247205
148	0x3bddb5a6	0.006766039
149	0x3ddedd44	0.10882047
150	0xbcae19ff	-0.02125263
151	0x3e428857	0.18997322
152	0x3e100eea	0.1406819
153	0x3c7bfcd9	0.015380108
154	0x3e3f93ea	0.18708768
155	0xbd0c6390	-0.034274638
156	0x3e491edc	0.19640678
157	0xbd602359	-0.05472121
158	0x3e179a7f	0.1480503
159	0xbbe65128	-0.0070287175
160	0xbd29a72c	-0.041419193
161	0x3d502e1f	0.050825235
162	0x3dc7c986	0.097552344
163	0xbcc06dc8	-0.023489848
164	0x3c2c7121	0.010525019
165	0xbc48b13f	-0.01224929
166	0xbc5103fa	-0.012757296
167	0xbd4101bd	-0.0471208
168	0x3d225259	0.039629314
169	0x3d297df3	0.04137988
170	0x3d2788c2	0.040901907
171	0x3e2d7f30	0.1694305
172	0xbd845f03	-0.064634345
173	0x3d122279	0.035677407
174	0x3ebbc54d	0.36673966
175	0x3e252ecf	0.16131137
176	0x3e900d5f	0.281352
177	0x3d06c3f2	0.03290171
178	0x3e8add97	0.27122185
179	0x3da3bd78	0.07995123
180	0x3d5056ad	0.05086391
181	0x3d67eb08	0.056620628
182	0x3e559d64	0.20860821
183	0x3c286b43	0.010279479
184	0x3c280458	0.010254942
185	0xbb95d0f8	-0.00457203
186	0x3de16ab9	0.11006684
187	0x3de13420	0.1099627
188	0x3e060d80	0.13091087
189	0x3de39d82	0.111140266
190	0xbcdeb62e	-0.02718648
191	0x3e0be750	0.13662457
192	0x3d1e1ca6	0.03860154
193	0x3e5d4574	0.21608526
194	0x3dce9c94	0.10088459
195	0xbc552987	-0.013010389
196	0x3e544734	0.20730287
197	0x3e8c7cad	0.2743887
198	0xbd8f5faf	-0.07000672
199	0x3e8ab916	0.27094334
200	0x3def09b7	0.11671775
201	0x3db504dc	0.088388175
202	0x3dd7355a	0.10508223
203	0x3d9c53b2	0.07633151
204	0xbd308c8b	-0.043102782
205	0xbd0a86b5	-0.033819873
206	0xbd64a811	-0.055824343
207	0xbca8a428	-0.020586088
208	0xbcd156c8	-0.025554076
209	0x3d619a5b	0.055078845
210	0xbdbefeae	-0.0932592
211	0x3d31eb7e	0.043437473
212	0xbc705a45	-0.014669959
213	0xbbf22cad	-0.0073905797
214	0xbd02b9e5	-0.031915564
215	0x3da87ded	0.082271434
216	0xbdaee1f1	-0.08539189
217	0x3e05cb2e	0.13065788
218	0xbd310c70	-0.043224752
219	0xbd5635d9	-0.052297447
220	0x3d53af98	0.05168113
221	0x3d770fad	0.060317684
222	0xbc65bdf2	-0.014022337
223	0x3e13f8ee	0.14450428
224	0xbc8d5252	-0.017251167
225	0xbdc4020e	-0.095707044
226	0xbdd8e3b5	-0.10590307
227	0xbe2669d0	-0.16251302
228	0xbcbee03e	-0.023300286
229	0xbdc8257d	-0.09772775
230	0xbd1903bd	-0.03735708
231	0xbdaff6e6	-0.08592014
232	0x3d46631c	0.04843436
233	0x3ed40460	0.41409588
234	0x3e51c8ec	0.20486802
235	0x3dc3aba7	0.095542245
236	0x3e3d1d98	0.1846832
237	0x3df25385	0.11832336
238	0x3db622f9	0.08893389
239	0xbda57f98	-0.08080977
240	0x3da61137	0.08108752
241	0xbd71a575	-0.058995683
242	0x3c9c8a64	0.019108959
243	0x3ccdaf65	0.025108049
244	0x3c961662	0.01832122
245	0x3e225768	0.15853655
246	0x3c1fc5ac	0.0097517185
247	0x3d438e03	0.047742855
248	0x3e06e4ca	0.13173214
249	0x3e465647	0.1936885
250	0x3e04761a	0.12935677
251	0x3e40b141	0.18817617
252	0x3e018ebc	0.12652105
253	0xbd3b7086	-0.045761608
254	0x3ea8fb26	0.3300411
255	0x3eadcb4c	0.33944166

l1.weight.rho f4 [180, 29]
0	0xc0373469	-2.8625739
1	0xc03a2ee4	-2.909112
2	0xc0441727	-3.063913
3	0xc0486cd5	-3.1316426
4	0xc03dfc01	-2.968506
5	0xc03caa7f	-2.9479063
6	0xc03de861	-2.9673083
7	0xc041fafa	-3.0309434
8	0xc03c55f4	-2.9427462
9	0xc0432232	-3.048962
10	0xc03b742b	-2.9289653
11	0xc0383c8d	-2.8786957
12	0xc04b0d47	-3.1726854
13	0xc040d788	-3.013155
14	0xc03be5f0	-2.9359093
15	0xc03c241b	-2.9397037
16	0xc03f5692	-2.9896588
17	0xc03fd39d	-2.9972908
18	0xc03c2284	-2.9396067
19	0xc03b8f40	-2.9306183
20	0xc04513a1	-3.079323
21	0xc036d14f	-2.8565252
22	0xc049c0d5	-3.1523945
23	0xc0433da1	-3.0506365
24	0xc043855b	-3.0550144
25	0xc041a98c	-3.0259733
26	0xc0401808	-3.0014668
27	0xc04241ff	-3.035278
28	0xc0470d15	-3.1101735
29	0xc03be087	-2.935579
30	0xc043c29b	-3.0587528
31	0xc04388cf	-3.0552251
32	0xc0364f11	-2.8485758
33	0xc0414a50	-3.0201607
34	0xc042ac48	-3.0417652
35	0xc03bcf6f	-2.9345357
36	0xc041040a	-3.0158715
37	0xc04262b5	-3.0372746
38	0xc0362d03	-2.8464973
39	0xc0492814	-3.1430712
40	0xc037f3e0	-2.87426
41	0xc041f01e	-3.0302806
42	0xc0366460	-2.8498764
43	0xc0327be6	-2.7888122
44	0xc0440310	-3.062687
45	0xc03e80c2	-2.9766088
46	0xc048c6a7	-3.1371248
47	0xc03cd926	-2.9507537
48	0xc03751f0	-2.864376
49	0xc03c40e9	-2.9414618
50	0xc03d36ba	-2.9564652
51	0xc038bd74	-2.8865633
52	0xc041263b	-3.0179584
53	0xc04541d7	-3.0821435
54	0xc03c7454	-2.9446
55	0xc045df42	-3.0917516
56	0xc03b722e	-2.928844
57	0xc03ff161	-2.9991076
58	0xc044186b	-3.0639904
59	0xc02c12e8	-2.688654
60	0xc041112b	-3.0166728
61	0xc03d1d22	-2.9549031
62	0xc039df09	-2.904238
63	0xc03db2d7	-2.9640405
64	0xc03f753c	-2.9915304
65	0xc042d6be	-3.0443568
66	0xc03ded96	-2.967626
67	0xc0422123	-3.0332725
68	0xc042275f	-3.033653
69	0xc03fe74f	-2.998493
70	0xc041ca9e	-3.0279918
71	0xc03d19f0	-2.954708
72	0xc03e16c1	-2.9701388
73	0xc0431671	-3.0482447
74	0xc0426c04	-3.0378428
75	0xc03727b7	-2.861799
76	0xc03e1e82	-2.970612
77	0xc0420aef	-3.0319173
78	0xc03dae19	-2.963751
79	0xc045ba76	-3.0895057
80	0xc0414bf7	-3.0202615
81	0xc0403389	-3.0031455
82	0xc03c4426	-2.9416595
83	0xc03a919c	-2.9151373
84	0xc047a31f	-3.1193311
85	0xc034ba33	-2.8238647
86	0xc04a8dda	-3.164908
87	0xc03f28e9	-2.986872
88	0xc038688d	-2.8813813
89	0xc03dc416	-2.9650931
90	0xc0453ed3	-3.0819595
91	0xc04278bf	-3.0386198
92	0xc03cc16c	-2.9493055
93	0xc046d97d	-3.1070244
94	0xc03bbb82	-2.9333196
95	0xc03a7326	-2.913278
96	0xc047684b	-3.1157405
97	0xc057c657	-3.3714807
98	0xc03832a8	-2.8780918
99	0xc03f86a9	-2.992594
100	0xc0381f29	-2.8769019
101	0xc0471d29	-3.1111548
102	0xc040c6b9	-3.012129
103	0xc040487d	-3.0044243
104	0xc03a1cd7	-2.9080102
105	0xc03e1b50	-2.970417
106	0xc04390da	-3.055716
107	0xc03d74c7	-2.9602525
108	0xc04749d7	-3.1138818
109	0xc03d7aad	-2.9606125
110	0xc03727ac	-2.8617964
111	0xc044205e	-3.0644755
112	0xc03b14b8	-2.9231396
113	0xc038d730	-2.888134
114	0xc042d1e9	-3.044062
115	0xc0467a60	-3.1012192
116	0xc03e2124	-2.9707727
117	0xc0384ee1	-2.8798144
118	0xc0415398	-3.0207272
119	0xc039b914	-2.9019213
120	0xc04c6197	-3.1934564
121	0xc035ce83	-2.8407295
122	0xc034e2f2	-2.8263516
123	0xc045002e	-3.078136
124	0xc04eaaaa	-3.2291665
125	0xc03b41db	-2.9258945
126	0xc040ec46	-3.014421
127	0xc04174a4	-3.0227442
128	0xc0326e80	-2.7879944
129	0xc04211ab	-3.0323284
130	0xc039f606	-2.905641
131	0xc042f26e	-3.0460467
132	0xc03a8d67	-2.9148805
133	0xc040dfc8	-3.0136585
134	0xc038ea57	-2.889303
135	0xc03da3a8	-2.9631138
136	0xc042f5b4	-3.0462465
137	0xc03fe6cc	-2.9984617
138	0xc04a8a7c	-3.1647024
139	0xc0385092	-2.8799176
140	0xc0372daa	-2.862162
141	0xc035e7c4	-2.8422709
142	0xc0411c5e	-3.0173564
143	0xc034b739	-2.823683
144	0xc0416fc0	-3.0224457
145	0xc040a7e1	-3.0102465
146	0xc044cda9	-3.0750525
147	0xc04732a3	-3.1124656
148	0xc04c3eb9	-3.1913283
149	0xc0517414	-3.2727098
150	0xc03e845a	-2.976828
151	0xc0408be1	-3.0085375
152	0xc03df450	-2.9680367
153	0xc04a770e	-3.1635165
154	0xc03e7a94	-2.9762316
155	0xc042b2f2	-3.042172
156	0xc040b3d7	-3.0109766
157	0xc03d4c82	-2.9577947
158	0xc0386b3b	-2.8815448
159	0xc047491d	-3.1138375
160	0xc0381a26	-2.876596
161	0xc04c4c25	-3.1921475
162	0xc0331995	-2.7984364
163	0xc0470aef	-3.1100423
164	0xc04125c6	-3.0179305
165	0xc03b72c1	-2.928879
166	0xc040c5f8	-3.012083
167	0xc0427889	-3.038607
168	0xc04a8dfe	-3.1649165
169	0xc03c38e2	-2.9409719
170	0xc03bf3e5	-2.9367611
171	0xc03c5408	-2.9426289
172	0xc03ea2df	-2.9786909
173	0xc04441f3	-3.0665252
174	0xc03484aa	-2.8205972
175	0xc04fafec	-3.2451124
176	0xc0412688	-3.0179768
177	0xc0413c1d	-3.019294
178	0xc03ff990	-2.999607
179	0xc03da5b9	-2.96324
180	0xc049c296	-3.1525016
181	0xc03ed970	-2.9820213
182	0xc0301358	-2.7511806
183	0xc03e5d3c	-2.9744406
184	0xc0415d33	-3.0213134
185	0xc044d81e	-3.0756907
186	0xc0458796	-3.0864005
187	0xc040b2e0	-3.0109177
188	0xc04b4c60	-3.1765366
189	0xc03bc5c6	-2.9339461
190	0xc03c566b	-2.9427745
191	0xc040343a	-3.0031877
192	0xc03c271f	-2.9398878
193	0xc03c1aff	-2.9391477
194	0xc048e398	-3.1388912
195	0xc0479f81	-3.1191103
196	0xc041a38b	-3.0256069
197	0xc03f5470	-2.9895287
198	0xc04bbaa5	-3.1832669
199	0xc0463773	-3.0971344
200	0xc040dc58	-3.0134487
201	0xc03f83cd	-2.9924195
202	0xc042dc65	-3.0447018
203	0xc03fa9b8	-2.9947338
204	0xc0403b83	-3.0036323
205	0xc040caf0	-3.0123863
206	0xc03fbe0a	-2.995974
207	0xc0403482	-3.0032048
208	0xc0424610	-3.0355263
209	0xc039a5a8	-2.9007359
210	0xc03f908f	-2.9931982
211	0xc038d681	-2.8880923
212	0xc0466818	-3.1001034
213	0xc04abc61	-3.1677477
214	0xc04e8122	-3.2266316
215	0xc045eeb6	-3.0926948
216	0xc0499771	-3.1498682
217	0xc03b047e	-2.9221492
218	0xc042f798	-3.046362
219	0xc041e570	-3.0296288
220	0xc03d014e	-2.9532046
221	0xc036ebfa	-2.8581529
222	0xc03a12eb	-2.9074047
223	0xc045a214	-3.0880175
224	0xc04246a7	-3.0355623
225	0xc03b9caa	-2.931437
226	0xc03f2beb	-2.9870555
227	0xc048eaab	-3.139323
228	0xc0402834	-3.0024538
229	0xc03a837a	-2.9142747
230	0xc0361b2b	-2.8454082
231	0xc03e65ca	-2.9749627
232	0xc0397136	-2.8975348
233	0xc046daac	-3.1070967
234	0xc04aacdb	-3.1668003
235	0xc036971b	-2.8529727
236	0xc03cfcbe	-2.9529262
237	0xc03c50d8	-2.9424343
238	0xc0480551	-3.1253245
239	0xc04314b0	-3.0481377
240	0xc03ac5a3	-2.9183128
241	0xc03c643c	-2.9436178
242	0xc03e351e	-2.971992
243	0xc039d8dc	-2.903861
244	0xc040e69c	-3.0140753
245	0xc03e873e	-2.9770045
246	0xc03e8d23	-2.9773643
247	0xc03c0b4e	-2.93819
248	0xc03dd041	-2.9658358
249	0xc03ffd4c	-2.999835
250	0xc0426bcd	-3.0378296
251	0xc04a7742	-3.163529
252	0xc042fd2e	-3.0467029
253	0xc03a42d2	-2.9103284
254	0xc0424122	-3.0352254
255	0xc035c1c3	-2.8399513

l1.bias.mu f4 [180]
0	0xbaf20a55	-0.0018466214
1	0x3e0441c0	0.12915707
2	0xbca32f82	-0.019920114
3	0xbdb7db05	-0.089773215
4	0x3e179273	0.1480196
5	0x3e7f00ec	0.24902695
6	0x3ea5f0c0	0.3241024
7	0x3b5f5ef0	0.0034083687
8	0x3eaf4dc1	0.3423901
9	0x3d8c3e85	0.06847862
10	0xbda9691e	-0.08272003
11	0x3d88f431	0.06687201
12	0xbcef6fb1	-0.029228063
13	0xbd7a6c3e	-0.061138384
14	0xbd485cec	-0.048916742
15	0xbdaceb9c	-0.084433764
16	0x3da401a2	0.08008124
17	0xbdb8465c	-0.08997795
18	0x3d443789	0.047904525
19	0x3d21ab2b	0.03946988
20	0xbd7cf124	-0.061753407
21	0xbdac1259	-0.08401937
22	0xbd3f4d20	-0.04670441
23	0x3eb0a04a	0.3449729
24	0x3e79f5a3	0.24410109
25	0x3a33ac70	0.00068540033
26	0x3e35501b	0.17706339
27	0xbe87922f	-0.26478717
28	0xbdc52568	-0.09626275
29	0x3dca3aca	0.098744944
30	0xba9a9992	-0.0011795035
31	0xbe09ca3e	-0.13456056
32	0x3de483e8	0.111579716
33	0xbd7e2c7f	-0.062054154
34	0xbe319a94	-0.17344123
35	0xbe92b59e	-0.28654188
36	0x3cb9f031	0.02269754
37	0x3e0bb978	0.1364497
38	0x3dcdb997	0.10045164
39	0x3c03fbf0	0.008055672
40	0xbc42dbdb	-0.011893238
41	0xbd17523d	-0.036943663
42	0xbe796455	-0.2435468
43	0x3ebcf722	0.36907297
44	0xbc91d1e2	-0.017800275
45	0x3e475913	0.19467573
46	0xbdd0d0a7	-0.10196047
47	0x3ee4be54	0.4467646
48	0x3e321b69	0.17393269
49	0x3e30bc3d	0.17259307
50	0x3d0f577d	0.034995545
51	0x3e5c18e2	0.21493867
52	0x3bb46b87	0.0055059823
53	0x3dbf5954	0.0934321
54	0xbe92e01a	-0.286866
55	0x3e49ce3f	0.19707583
56	0xbcb5e952	-0.022205982
57	0x3ec5112b	0.3848966
58	0xbe2aebce	-0.16691515
59	0x3d97b496	0.07407491
60	0x3d9b8534	0.07593766
61	0x3d2b7b26	0.04186549
62	0xbd99d7bf	-0.075118534
63	0x3e8d6aaa	0.2762044
64	0xbde8a320	-0.113592386
65	0x3f0b459b	0.54403085
66	0xbd8a3aeb	-0.06749519
67	0x3e9ac647	0.302294
68	0xbd08ac55	-0.033367474
69	0x3d2d0def	0.042249616
70	0xbd4f9ece	-0.050688557
71	0x3cb85c8c	0.022505067
72	0xbe29fc28	-0.16600096
73	0xbd735cbd	-0.059414614
74	0xbdba985f	-0.09111094
75	0x3e99a0b2	0.30005413
76	0xbd0932d8	-0.033495754
77	0x3e7b5688	0.24544728
78	0xbe115e90	-0.14196229
79	0xbe2a508c	-0.16632289
80	0xbdb15f88	-0.08660799
81	0x3eb47a99	0.35249785
82	0xbd4ff248	-0.050768167
83	0x3df68d37	0.12038653
84	0xbe1a526b	-0.15070502
85	0x3e9677a5	0.29388157
86	0xbe8fc84c	-0.28082502
87	0xbcafb519	-0.021448659
88	0x3ceff27d	0.029290432
89	0xbdbe3f70	-0.092894435
90	0x3cdd440c	0.027009986
91	0xbdd5a9d6	-0.10432784
92	0x3e35df41	0.17760946
93	0xbdca99c7	-0.09892612
94	0xbe0ef168	-0.13959277
95	0x3eb97c85	0.36227813
96	0xbe42d6ef	-0.19027303
97	0x3ea57221	0.32313636
98	0xbd8ee5b9	-0.0697741
99	0xbdad8b4c	-0.084738344
100	0xbd850384	-0.06494811
101	0xbda4a9ba	-0.08040185
102	0xbe1289ba	-0.14310351
103	0xbdcf1f8b	-0.10113438
104	0xbe339acc	-0.17539519
105	0xbd4efa5b	-0.050531726
106	0xbda11f76	-0.07867329
107	0xbdc3cb9c	-0.0956032
108	0xbc861c0f	-0.016370801
109	0x3e794acd	0.2434494
110	0x3daf98dd	0.08574078
111	0xbdc66bd2	-0.09688534
112	0xbca62216	-0.020279925
113	0xb9cec543	-0.00039438353
114	0x3e5c6a20	0.21524858
115	0xbccd9fdc	-0.025100641
116	0x3d9eca25	0.077534
117	0xbdd5a04a	-0.10430963
118	0x3d533203	0.051561367
119	0x3e9b0482	0.30276877
120	0xbd5badb8	-0.053632468
121	0xbd3c684f	-0.045997914
122	0xbda88635	-0.08228723
123	0x3dd78aae	0.10524498
124	0xbe3bbd6b	-0.18333976
125	0xbbaf170c	-0.0053433236
126	0x3d75b954	0.059991196
127	0x3d1f10e0	0.038834453
128	0x3dd024e7	0.101632886
129	0x3e08ad30	0.13347316
130	0x3d818012	0.063232556
131	0x3cbcb67e	0.023036238
132	0x3e1185af	0.14211152
133	0x3e20bda5	0.15697344
134	0xbe3cd644	-0.18441111
135	0xbe1e2949	-0.15445437
136	0x3e42fa8c	0.19040889
137	0xbdb2b494	-0.08725849
138	0xbe0f09d1	-0.13968588
139	0xbd2974e9	-0.04137126
140	0xbe12cbc5	-0.14335544
141	0x3d75da70	0.06002277
142	0x3e1d717f	0.15375327
143	0xbcc4279a	-0.023944665
144	0x3d5c769b	0.05382405
145	0xbd84c660	-0.064831495
146	0xbda0bfa8	-0.078490555
147	0x3d1e1e2a	0.038602985
148	0xbdb8f576	-0.09031193
149	0x3e5922a5	0.21204622
150	0xbe6d37cd	-0.23165818
151	0x3d93ad39	0.07210774
152	0xbc51ddce	-0.01280923
153	0xbd691e46	-0.056913637
154	0xbcc3d068	-0.023903087
155	0x3beee684	0.007290663
156	0xbda9ac65	-0.08284835
157	0x3efa9c9e	0.48947614
158	0xbd8615dd	-0.06547139
159	0xbdb823c7	-0.08991199
160	0xbc471f9f	-0.012153535
161	0x3e9be48a	0.304478
162	0x3e8229ef	0.25422618
163	0x3d6f9fb6	0.05850192
164	0xbc46dcb9	-0.012137585
165	0xbd1d7ae8	-0.03844729
166	0x3d00949d	0.03139173
167	0x3de2950c	0.11063585
168	0x3db8deac	0.09026846
169	0xbe12172d	-0.14266653
170	0x3e0a3268	0.13495791
171	0x3e6494f7	0.2232245
172	0x3cc927d8	0.024555132
173	0x3e48f38f	0.1962416
174	0xbe10e8cf	-0.1415131
175	0x3de6ac21	0.112633
176	0xbe7085fe	-0.23488614
177	0xbe105bb9	-0.1409749
178	0x3e60fd1e	0.21971557
179	0xbdf1a050	-0.11798155

l1.bias.rho f4 [180]
0	0xc0411b73	-3.0173004
1	0xc04ac3f0	-3.168209
2	0xc040759c	-3.0071783
3	0xc03b128b	-2.9230068
4	0xc042b7e4	-3.0424738
5	0xc04214a3	-3.0325096
6	0xc03d1d35	-2.9549077
7	0xc034a496	-2.8225455
8	0xc0448491	-3.0705912
9	0xc0405a5f	-3.0055158
10	0xc03a2c04	-2.9089365
11	0xc0464fc6	-3.098619
12	0xc0364331	-2.847851
13	0xc038104a	-2.8759942
14	0xc04d12eb	-3.2042797
15	0xc03bf5b3	-2.9368713
16	0xc04e34a5	-3.2219632
17	0xc0432618	-3.0492
18	0xc03d80dd	-2.9609902
19	0xc03dc179	-2.9649336
20	0xc047caa9	-3.1217444
21	0xc03b76d6	-2.9291282
22	0xc03b8b29	-2.9303687
23	0xc039a87b	-2.9009082
24	0xc042e6f3	-3.045346
25	0xc03d453f	-2.9573514
26	0xc030fa40	-2.765274
27	0xc0385bd9	-2.880606
28	0xc03698ef	-2.8530843
29	0xc045e705	-3.0922253
30	0xc04246fa	-3.035582
31	0xc03c21f2	-2.9395719
32	0xc03cb6da	-2.9486604
33	0xc043c8d5	-3.0591328
34	0xc048e192	-3.1387677
35	0xc0441a62	-3.0641103
36	0xc04494a7	-3.071573
37	0xc046a067	-3.1035402
38	0xc040114a	-3.0010552
39	0xc031a97b	-2.7759693
40	0xc03a6510	-2.9124184
41	0xc036ac5d	-2.8542702
42	0xc0473c4e	-3.1130557
43	0xc03be125	-2.9356167
44	0xc03e8c03	-2.9772956
45	0xc03f6cbd	-2.9910119
46	0xc03b05df	-2.9222333
47	0xc03e9da0	-2.9783707
48	0xc03e1d9b	-2.970557
49	0xc03ef481	-2.9836733
50	0xc03beedd	-2.936454
51	0xc03ce0f5	-2.9512303
52	0xc03d6609	-2.9593527
53	0xc03fc492	-2.9963727
54	0xc04194f8	-3.0247173
55	0xc03eb695	-2.979894
56	0xc045ddc9	-3.0916617
57	0xc03cb648	-2.9486256
58	0xc03942d0	-2.894703
59	0xc043f61b	-3.061896
60	0xc047b082	-3.1201482
61	0xc04395bb	-3.0560138
62	0xc03bfd0d	-2.93732
63	0xc03cc2ca	-2.949389
64	0xc03709c7	-2.8599718
65	0xc03c13a8	-2.9386997
66	0xc03e6b39	-2.9752944
67	0xc03d67f3	-2.9594696
68	0xc045d721	-3.0912554
69	0xc03e5f8c	-2.9745817
70	0xc03e1136	-2.9698005
71	0xc042cd73	-3.0437896
72	0xc03aec58	-2.9206753
73	0xc03de180	-2.9668884
74	0xc041aeab	-3.026286
75	0xc045bb9a	-3.0895753
76	0xc04b0b89	-3.172579
77	0xc0433a03	-3.0504158
78	0xc0418a64	-3.0240717
79	0xc0412f21	-3.0185015
80	0xc0393516	-2.893865
81	0xc0482ae0	-3.127617
82	0xc03b913d	-2.9307396
83	0xc03bbdb6	-2.933454
84	0xc03d16ca	-2.954516
85	0xc041c104	-3.0274057
86	0xc03b9361	-2.9308703
87	0xc042fff8	-3.046873
88	0xc0424bff	-3.0358884
89	0xc03c5df0	-2.9432335
90	0xc042dc86	-3.0447097
91	0xc0416cc6	-3.022264
92	0xc03ed625	-2.9818203
93	0xc044a67e	-3.0726619
94	0xc0473689	-3.1127036
95	0xc0407da5	-3.0076687
96	0xc04ab1f4	-3.1671114
97	0xc04838d5	-3.1284688
98	0xc04046f7	-3.0043314
99	0xc0409783	-3.0092475
100	0xc03f3dfb	-2.988158
101	0xc041a643	-3.0257728
102	0xc0382fb1	-2.8779109
103	0xc038639f	-2.8810804
104	0xc03a344f	-2.9094427
105	0xc039c279	-2.9024947
106	0xc045d9c7	-3.091417
107	0xc042d8c9	-3.0444815
108	0xc04db009	-3.2138693
109	0xc0462de4	-3.096551
110	0xc0432554	-3.0491533
111	0xc04270f9	-3.0381453
112	0xc0491ab4	-3.1422548
113	0xc04299ad	-3.0406296
114	0xc0388ec9	-2.883715
115	0xc04840d1	-3.128956
116	0xc036bbc7	-2.855211
117	0xc040e85d	-3.0141823
118	0xc0496b95	-3.1471913
119	0xc0405519	-3.005194
120	0xc036dc55	-2.857198
121	0xc04b3ffe	-3.1757808
122	0xc04adfa9	-3.1699011
123	0xc0421429	-3.0324805
124	0xc04968ce	-3.1470218
125	0xc048d6c9	-3.1381094
126	0xc042de0d	-3.044803
127	0xc03a6231	-2.9122431
128	0xc04176c1	-3.0228732
129	0xc03a5c17	-2.9118707
130	0xc044b078	-3.0732708
131	0xc04431c5	-3.0655377
132	0xc04675aa	-3.1009316
133	0xc03f99fa	-2.993773
134	0xc046a4c4	-3.1038065
135	0xc0422939	-3.033766
136	0xc03d0e3b	-2.9539936
137	0xc042c97d	-3.0435479
138	0xc03abe06	-2.917848
139	0xc03fb5df	-2.9954755
140	0xc03d2227	-2.9552095
141	0xc03dd90d	-2.9663727
142	0xc042e969	-3.0454962
143	0xc04835d2	-3.128285
144	0xc04a9f9d	-3.165992
145	0xc03c6256	-2.943502
146	0xc03aa6a8	-2.916422
147	0xc04573a2	-3.0851827
148	0xc0405115	-3.0049489
149	0xc0457735	-3.0854008
150	0xc0482c5c	-3.1277075
151	0xc047fcbb	-3.1248004
152	0xc03ae918	-2.920477
153	0xc04e12d7	-3.2199
154	0xc042093a	-3.0318131
155	0xc044592d	-3.0679429
156	0xc03e0425	-2.969003
157	0xc039ae9a	-2.9012818
158	0xc041dec8	-3.0292225
159	0xc03d2575	-2.9554112
160	0xc042c876	-3.0434852
161	0xc040b4e9	-3.0110419
162	0xc038ab09	-2.8854392
163	0xc0434d6c	-3.0516005
164	0xc0366570	-2.8499413
165	0xc0459781	-3.087372
166	0xc040d6e6	-3.0131164
167	0xc03bac8b	-2.9324062
168	0xc04f0480	-3.2346497
169	0xc03e7362	-2.9757924
170	0xc0427999	-3.0386717
171	0xc047c2fb	-3.1212757
172	0xc03e02a7	-2.968912
173	0xc041d202	-3.0284429
174	0xc0406e89	-3.0067465
175	0xc039dd1d	-2.9041207
176	0xc03f3b4b	-2.987994
177	0xc0401877	-3.0014932
178	0xc03c35da	-2.9407868
179	0xc0397511	-2.8977702
