checkpoints_16_tasks/16_task_groups_PUGCL_epochs_:200_lr_:0.06_hidden_:800_task_order_:[ 0  2 14  5 13  9  8  6 11 15 10  3  7  1  4 12]/model_5.pth.tar (torch_old, 418685 bytes, 136 tensors)

l1.weight_mu f4 [800, 29]
0.124008074 -0.025192708 0.1221605 -0.059410293 0.14190626 0.04467566 0.01258571 0.07819744
0.03139484 -0.18812059 -0.2809111 0.071162574 -0.13207026 -0.05094339 0.019543555 -0.07041173
-0.050601088 -0.07582699 -0.16193262 -0.21605444 -0.11197101 0.06352895 -0.012945629 0.2845753
0.07231827 -0.0084638 0.05986259 0.004825537 0.005597087 0.055767722 -0.012678359 -0.08940089
-0.07710439 -0.104101606 -0.079454236 0.03886738 -0.02588371 -0.116410874 -0.026856245 -0.098460175
0.22722891 -0.033704683 0.126249 0.09228368 0.12887387 -0.032746125 0.035303116 0.011670429
0.14234486 0.15632774 0.033280436 -0.12130912 -0.070760295 0.19498312 0.085107215 0.03374769
0.15980463 -0.010532959 -0.10351721 0.08168635 -0.20801947 0.05707593 0.050501585 0.013352124
-0.033402026 -0.15375131 0.13442577 -0.19350821 0.05349313 -0.045368336 -0.0975068 0.04019395
0.052128993 0.08563649 0.0031738752 -0.15543824 0.053783275 0.093534306 -0.032843027 -0.098946586
0.12407193 -0.03727548 0.0504776 0.21439603 -0.012623856 -0.015737768 0.056511015 -0.020331444
-0.004930281 0.014235659 -0.10374984 -0.037460916 -0.03623124 0.013584852 0.10841508 -0.12942562
-0.015914341 -0.051455114 0.13016196 0.06369479 -0.10758778 -0.10371755 -0.0035149583 0.0565094
-0.16496402 0.07083462 0.16154301 -0.10710668 0.21494724 -0.022916995 -0.012826587 0.09606866
0.11569144 0.19620349 0.2267465 0.10375651 0.11101547 -0.14006823 -0.089380376 0.09907762
-0.051877096 -0.067426674 -0.036969442 0.020167938 0.12599912 -0.0069189807 0.0005742414 -0.07544354
-0.12646234 0.13137282 -0.09533922 0.087497085 -0.110513665 -0.06983814 0.07994124 0.00030130983
0.06092897 -0.12550198 0.084689476 0.19031243 0.119930044 -0.052691113 0.23445006 -0.22717035
-0.14135925 -0.09855626 0.09777247 -0.012486042 0.013358208 -0.10047833 0.068404645 -0.1353646
-0.004204157 -0.12771244 0.09689415 -0.15904142 0.07057726 -0.15515576 -0.01582918 0.09616425
0.036079083 -0.038292762 0.06855437 0.020936752 0.14358011 0.07986758 0.05124084 -0.016578251
0.036700998 -0.19033499 0.17158282 0.06690836 -0.15916827 -0.011589269 0.034037348 0.104614094
-0.050057698 0.14259762 0.017896466 0.21902436 1.6229335e-05 0.102010526 0.055084202 -0.055630427
-0.15688047 0.042475432 -0.05225731 -0.046380974 -0.061522607 0.020083962 -0.25015068 -0.055070292
0.00941073 0.15249346 0.074196026 0.05993995 0.13253044 0.0454083 0.075354785 0.027431488
0.08508109 0.08974556 -0.032329105 -0.02444505 -0.02782446 -0.003258895 0.022080205 -0.15943713
0.10977228 -0.088692725 -0.052121285 0.068290055 -0.020172637 -0.062707216 -0.11890368 -0.28815678
-0.056175936 -0.061405137 0.09434895 0.009336349 -0.105948076 0.08776357 -0.15716042 0.009317838
0.031377196 -0.07151352 -0.012502099 -0.01649337 -0.0027294795 0.05477843 0.003228556 -0.05539893
0.05938962 0.22508243 0.07779609 -0.040529624 0.095304064 -0.019911604 0.032307565 -0.020955436
0.062514246 -0.12227284 0.20293845 -0.1356181 0.052498307 -0.044832274 -0.040546983 0.1147985
0.0054595154 -0.054093894 -0.014409283 -0.028467024 0.09072036 0.12610805 0.04447259 0.055134606
00000000: f2f7 fd3d f060 cebc 492f fa3d 3558 73bd
00000010: e04f 113e d3fd 363d 4b34 4e3c fb25 a03d
00000020: e097 003d afa2 40be 94d3 8fbe afbd 913d
00000030: 6d3d 07be 04aa 50bd ce19 a03c 0634 90bd
00000040: 1643 4fbd 2e4b 9bbd aad1 25be 603d 5dbe
00000050: 0f51 e5bd 771b 823d e719 54bc dbb3 913e
00000060: 9a1b 943d c0ab 0abc 7a32 753d 8a1f 9e3b
00000070: c567 b73b b26c 643d e4b8 4fbc d017 b7bd
00000080: e8e8 9dbd 3933 d5bd e7b8 a2bd 6733 1f3d
00000090: 130a d4bc d368 eebd a101 dcbc 7da5 c9bd
000000a0: b2ae 683e ec0d 0abd 6b47 013e 3aff bc3d
000000b0: 83f7 033e cd20 06bd 009a 103d 5435 3f3c
000000c0: dac2 113e 6114 203e 1151 083d ea70 f8bd
000000d0: c6ea 90bd a8a9 473e b14c ae3d 053b 0a3d
000000e0: d3a3 233e 6f92 2cbc d500 d4bd 2c4b a73d
000000f0: 0e03 55be 73c8 693d c0da 4e3d dec2 5a3c
00000100: 90d0 08bd fc70 1dbe e9a6 093e 0427 46be
00000110: 9d1b 5b3d 26d4 39bd a5b1 c7bd 69a2 243d
00000120: 3685 553d 2f62 af3d ca00 503b 342b 1fbe
00000130: da4b 5c3d ea8e bf3d 6986 06bd 82a4 cabd
00000140: 6d19 fe3d 2cae 18bd 9ac1 4e3d a28a 5b3e
00000150: 4ad4 4ebc 7eec 80bc 1878 673d 218e a6bc
00000160: 328e a1bb ae3c 693c cc7a d4bd 9e70 19bd
00000170: 3567 14bd 0093 5e3c ba08 de3d 2688 04be
00000180: cb5e 82bc 99c2 52bd 2d49 053e 6a72 823d
00000190: fb56 dcbd de69 d4bd 375b 66bb 6776 673d
000001a0: 54ec 28be be11 913d 886b 253e bf5a dbbd
000001b0: 211b 5c3e 6cbc bbbc 9b26 52bc a5bf c43d
000001c0: a2ef ec3d 91e9 483e 3c30 683e 4b7e d43d
000001d0: 145c e33d 0c6e 0fbe 0f0d b7bd 35e9 ca3d
000001e0: 147d 54bd ff16 8abd 456d 17bd 3b37 a53c
000001f0: ea05 013e 9eb8 e2bb b088 163a 2582 9abd
00000200: 587f 01be 9986 063e 3541 c3bd ac31 b33d
00000210: fd54 e2bd 4c07 8fbd 3cb8 a33d 1ff9 9d39
00000220: a890 793d 9783 00be ad71 ad3d 43e1 423e
00000230: e29d f53d a3d2 57bd ad13 703e 589f 68be
00000240: 7bc0 10be ddd7 c9bd ef3c c83d 4292 4cbc
00000250: 63dc 5a3c 95c7 cdbd bc17 8c3d 059d 0abe
00000260: 06c3 89bb 0dc7 02be 7170 c63d c1db 22be
00000270: cf8a 903d 27e1 1ebe 32ac 81bc c3f1 c43d
00000280: a9c7 133d dfd8 1cbd 3c66 8c3d 8d83 ab3c
00000290: aa06 133e 9d91 a33d eae1 513d 1dcf 87bc
000002a0: c953 163d 2de7 42be 68b3 2f3e 4007 893d
000002b0: 02fd 22be ebe0 3dbc bf6a 0b3d ea3f d63d
000002c0: 4d09 4dbd 1c05 123e 9c9b 923c ec47 603e
000002d0: 3b24 8837 e5ea d03d f99f 613d bbdc 63bd
000002e0: 46a5 20be b8fa 2d3d c30b 56bd faf9 3dbd
000002f0: 21ff 7bbd 1f87 a43c c013 80be 6391 61bd
00000300: 762f 1a3c 3f27 1c3e 16f4 973d 9883 753d
00000310: 0fb6 073e 0efe 393d 9c53 9a3d 00b8 e03c
00000320: ff3e ae3d 85cc b73d 866b 04bd fc40 c8bc
00000330: 1ff0 e3bc 2f93 55bb 8ce1 b43c 7d43 23be
00000340: 4ad0 e03d 88a4 b5bd 217d 55bd a8db 8b3d
00000350: 1641 a5bc a46c 80bd c683 f3bd 4989 93be
00000360: bd18 66bd f483 7bbd 063a c13d 7cf7 183c
00000370: 4efb d8bd 63bd b33d a9ee 20be d8a9 183c
00000380: 6085 003d ae75 92bd 9bd5 4cbc 1b1d 87bc
00000390: 11e1 32bb 595f 603d 2e96 533b fde9 62bd
000003a0: 8842 733d 027c 663e 8e53 9f3d 6402 26bd
000003b0: c72e c33d a91d a3bc f054 043d bcaa abbc
000003c0: 7807 803d 2f6a fabd 19cf 4f3e 79df 0abe
000003d0: 7708 573d 0ca2 37bd 9814 26bd 7a1b eb3d
000003e0: bce5 b23b 8f91 5dbd ea14 6cbc ad33 e9bc
000003f0: 99cb b93d 7822 013e e428 363d d3d4 613d

l1.weight_rho f4 [800, 29]
-2.937131 -3.0898373 -2.976676 -3.0623171 -3.1482089 -2.8812737 -2.9020553 -2.9090152
-2.847584 -2.9835722 -2.930834 -3.07088 -2.9171298 -2.993222 -2.9743538 -2.9360096
-3.0673008 -3.0939133 -3.0651538 -3.0897326 -2.898628 -3.0254216 -2.8243024 -3.0431705
-3.0197651 -2.8339715 -2.9522572 -3.170517 -2.9800544 -2.954715 -3.005699 -2.9695969
-2.9550624 -2.8699281 -3.0739229 -2.938424 -2.9186196 -3.0016115 -3.0830002 -3.0916922
-2.781871 -3.0070987 -2.942675 -2.9092648 -3.1203177 -2.9323175 -2.9778497 -2.881787
-2.8206425 -3.1823604 -2.9130692 -3.1367066 -3.040179 -2.9046884 -3.0906553 -3.0353785
-3.0494032 -2.8784645 -2.934994 -3.009998 -2.921055 -2.985951 -2.9699345 -3.023156
-2.9661748 -2.9313247 -2.9764607 -3.055792 -2.9607887 -2.9072454 -3.1223814 -2.9754798
-3.1067183 -3.0987751 -3.088485 -2.9748244 -3.032659 -2.9748971 -2.9089167 -3.0771441
-3.0400555 -2.8632545 -2.9901667 -3.1533916 -2.9424088 -2.9147928 -2.9059718 -2.868183
-2.888305 -2.917676 -2.9842978 -3.2536938 -3.1202548 -3.1171644 -2.8302586 -2.9416757
-3.1185112 -3.047838 -3.039386 -2.9918141 -2.9175148 -2.987924 -2.8932438 -2.9533756
-3.0260756 -2.9722703 -3.1302736 -2.996414 -3.1426468 -3.1511657 -3.0003026 -3.0996838
-2.8959172 -2.9600763 -3.0304997 -3.0221846 -2.9149182 -3.1104496 -3.1278553 -3.065738
-2.7950218 -3.0777035 -2.9686847 -3.0918226 -3.0817657 -3.1779718 -2.8554893 -3.037692
-2.9768314 -3.1308126 -3.0059764 -2.8619418 -3.0223873 -2.9791682 -3.0409172 -3.001828
-3.0648503 -3.079522 -3.1176534 -3.152846 -2.948486 -2.9382615 -2.9513934 -2.9407232
-3.0991414 -3.1788452 -2.9070508 -3.1559665 -3.0328774 -2.9647596 -2.9733722 -2.990412
-3.1065857 -2.8710685 -3.0383096 -3.0851958 -2.9769604 -3.102244 -2.9227312 -3.0341265
-3.1267607 -2.9024923 -3.1696503 -3.1269257 -2.9330914 -3.1872332 -3.067698 -3.1035
-3.070531 -3.12061 -3.083568 -3.2347767 -2.8787105 -3.1676095 -2.874021 -2.9159338
-3.1028454 -2.9090104 -3.0858157 -3.0283756 -3.0192745 -3.1841497 -2.9172919 -2.9070396
-3.0118508 -2.9787052 -3.174325 -2.9830358 -2.7819793 -2.9025345 -2.9960308 -3.0921426
-2.9819002 -3.0582995 -2.9443052 -2.8610656 -3.0579715 -2.955496 -2.9708385 -3.0570264
-3.064879 -3.0197787 -3.1359818 -2.8001187 -2.940239 -3.0625625 -2.959194 -3.1183372
-2.9585016 -3.057347 -3.0210886 -3.0919957 -3.0435302 -3.0408964 -2.9895856 -3.0146046
-2.9929495 -3.0539904 -2.9754188 -3.0908027 -2.9345047 -2.8855624 -3.1794631 -2.9972658
-2.9499874 -3.1411207 -3.0538206 -3.1156938 -2.945766 -2.924084 -2.9102442 -2.9365337
-2.785831 -2.996053 -2.833321 -2.9314134 -2.9571276 -2.9953973 -2.8641403 -2.902064
-3.2266746 -3.0678296 -2.9908125 -2.8711057 -3.0405889 -2.900192 -2.9190753 -3.118536
-2.99978 -3.0154436 -3.111412 -2.9500656 -2.9621642 -2.9762137 -2.9273186 -3.0774322
00000000: f4f9 3bc0 e5bf 45c0 dc81 3ec0 01fd 43c0
00000010: 417c 49c0 ca66 38c0 46bb 39c0 4e2d 3ac0
00000020: d13e 36c0 d9f2 3ec0 c992 3bc0 4c89 44c0
00000030: 41b2 3ac0 f390 3fc0 d05b 3ec0 95e7 3bc0
00000040: a84e 44c0 ad02 46c0 7b2b 44c0 2ebe 45c0
00000050: 1f83 39c0 82a0 41c0 5fc1 34c0 4ec3 42c0
00000060: d543 41c0 ca5f 35c0 c8f1 3cc0 c0e9 4ac0
00000070: 36b9 3ec0 0d1a 3dc0 5f5d 40c0 e00d 3ec0
00000080: be1f 3dc0 e7ac 37c0 27bb 44c0 240f 3cc0
00000090: aaca 3ac0 671a 40c0 e04f 45c0 49de 45c0
000000a0: 2d0a 32c0 4e74 40c0 ca54 3cc0 6531 3ac0
000000b0: 49b3 47c0 17ab 3bc0 1795 3ec0 336f 38c0
000000c0: 6885 34c0 cbab 4bc0 ba6f 3ac0 cdbf 48c0
000000d0: 4b92 42c0 6ae6 39c0 4ccd 45c0 a443 42c0
000000e0: 6c29 43c0 c338 38c0 f1d6 3bc0 cfa3 40c0
000000f0: 91f2 3ac0 d219 3fc0 6813 3ec0 637b 41c0
00000100: cfd5 3dc0 d39a 3bc0 557e 3ec0 1992 43c0
00000110: 907d 3dc0 4f10 3ac0 19d5 47c0 436e 3ec0
00000120: 79d4 46c0 5552 46c0 bda9 45c0 8663 3ec0
00000130: 1617 42c0 b764 3ec0 b12b 3ac0 eeef 44c0
00000140: 4590 42c0 903f 37c0 e45e 3fc0 2bd1 49c0
00000150: 6d50 3cc0 f78b 3ac0 71fb 39c0 4f90 37c0
00000160: fdd9 38c0 34bb 3ac0 bcfe 3ec0 853c 50c0
00000170: 41b2 47c0 9f7f 47c0 f522 35c0 6a44 3cc0
00000180: b095 47c0 c70f 43c0 4d85 42c0 e279 3fc0
00000190: 90b8 3ac0 263a 3fc0 e82a 39c0 1b04 3dc0
000001a0: 39ab 41c0 ad39 3ec0 6756 48c0 3fc5 3fc0
000001b0: 2021 49c0 b3ac 49c0 f504 40c0 3861 46c0
000001c0: b556 39c0 e471 3dc0 b5f3 41c0 796b 41c0
000001d0: 058e 3ac0 9b11 47c0 c82e 48c0 0d35 44c0
000001e0: a3e1 32c0 18f9 44c0 eefe 3dc0 6ce0 45c0
000001f0: a63b 45c0 e463 4bc0 56c0 36c0 8c69 42c0
00000200: 6884 3ec0 3c5f 48c0 eb61 40c0 0e2a 37c0
00000210: cb6e 41c0 b1aa 3ec0 639e 42c0 f31d 40c0
00000220: 8226 44c0 e316 45c0 a287 47c0 3bc8 49c0
00000230: ffb3 3cc0 7a0c 3cc0 a1e3 3cc0 cf34 3cc0
00000240: 5558 46c0 3372 4bc0 1f0d 3ac0 5bfb 49c0
00000250: aa1a 42c0 9fbe 3dc0 bb4b 3ec0 e962 3fc0
00000260: 4dd2 46c0 96bf 37c0 aa73 42c0 d973 45c0
00000270: 8586 3ec0 2a8b 46c0 070e 3bc0 212f 42c0
00000280: d91c 48c0 6fc2 39c0 8ddb 4ac0 8d1f 48c0
00000290: c5b7 3bc0 a1fb 4bc0 2a55 44c0 be9f 46c0
000002a0: 9483 44c0 13b8 47c0 2e59 45c0 9506 4fc0
000002b0: cb3c 38c0 1dba 4ac0 f6ef 37c0 a99e 3ac0
000002c0: 0595 46c0 3a2d 3ac0 017e 45c0 e8d0 41c0
000002d0: cb3b 41c0 1cc9 4bc0 e9b4 3ac0 f00c 3ac0
000002e0: 2ac2 40c0 1ba3 3ec0 2428 4bc0 0fea 3ec0
000002f0: f30b 32c0 20c3 39c0 f8be 3fc0 aae5 45c0
00000300: 74d7 3ec0 2ebb 43c0 7f6f 3cc0 b31b 37c0
00000310: ceb5 43c0 d926 3dc0 3822 3ec0 52a6 43c0
00000320: fa26 44c0 0e44 41c0 edb3 48c0 2535 33c0
00000330: e02c 3cc0 0601 44c0 6f63 3dc0 d692 47c0
00000340: 1758 3dc0 93ab 43c0 8459 41c0 42e3 45c0
00000350: 33c9 42c0 0c9e 42c0 5f55 3fc0 48ef 40c0
00000360: 7c8c 3fc0 9474 43c0 436d 3ec0 b6cf 45c0
00000370: edce 3bc0 0ead 38c0 537c 4bc0 34d3 3fc0
00000380: 98cc 3cc0 1f08 49c0 cc71 43c0 8767 47c0
00000390: 6e87 3cc0 3124 3bc0 7141 3ac0 2bf0 3bc0
000003a0: 0e4b 32c0 55bf 3fc0 2255 35c0 479c 3bc0
000003b0: 9441 3dc0 97b4 3fc0 134e 37c0 6bbb 39c0
000003c0: d681 4ec0 5257 44c0 7969 3fc0 32c0 37c0
000003d0: 0299 42c0 bf9c 39c0 21d2 3ac0 1896 47c0
000003e0: 65fc 3fc0 07fd 40c0 6021 47c0 e0cd 3cc0
000003f0: 1994 3dc0 497a 3ec0 3059 3bc0 a6f4 44c0

l1.bias_mu f4 [800]
0.07979226 0.027057962 -0.07564548 -0.101239465 0.08332375 -0.023269229 -0.13788821 0.026765158
0.10801977 -0.04353619 -0.0056075705 -0.027510362 -0.047168907 -0.025853693 -0.17403503 -0.050429977
-0.07219483 -0.18831077 -0.09781727 0.0014105672 0.080808975 -0.23630615 0.1685228 0.087377734
-0.020335076 0.044391055 -0.047695663 0.15411426 -0.16096967 -0.017941976 0.03830122 -0.16462535
0.07479896 -0.14324401 -0.03918757 0.08452891 -0.033634882 -0.032038685 0.061446246 -0.059920106
-0.028813101 -0.04672118 0.07720287 0.052380793 -0.08293134 -0.066821255 0.08521744 -0.06030664
0.15691 -0.09895075 0.018104428 -0.13846685 0.010733514 0.16821456 0.1305275 0.078323595
0.04676003 -0.10683917 0.05927185 0.19431753 0.058293685 0.17365393 0.059539225 -0.117624424
-0.083358936 -0.003911936 0.19231202 0.05059465 -0.0016315834 -0.10730883 -0.09314177 0.040560003
0.02766528 -0.20243095 -0.07437601 0.037855484 0.069557846 0.025743416 -0.119570404 -0.16128716
0.051284943 0.121525005 -0.11292062 -0.038378477 0.018624065 -0.033625904 0.05434747 -0.005005629
-0.011994437 -0.01583458 -0.1728176 -0.20980532 -0.023054952 -0.06994644 0.10083607 0.0063031893
-0.011169087 0.061707824 0.14324933 0.094280206 0.1896703 0.123658545 0.032423656 -0.031433214
0.008754675 -0.07481874 0.13745604 0.20585454 -0.030427925 0.05378131 0.2530011 -0.16978492
-0.08031632 -0.18177465 0.119901456 -0.0072594495 -0.044976957 -0.10390549 -0.07850249 -0.038320296
-0.20106667 0.06125078 0.0098222215 0.040674478 0.07116883 0.036662895 -0.07195458 0.029487306
-0.03365266 0.22255383 -0.03815135 0.083213866 0.2060636 -0.11370275 -0.16381706 -0.03761447
0.005345057 -0.098890185 0.022112016 0.014238903 -0.030286904 0.14383824 0.15237033 -0.1021138
0.15142575 0.12214453 -0.0022601679 -0.027279317 0.048909925 0.02525099 0.19356078 0.13482538
0.030968098 0.00903974 0.047446236 -0.021634791 0.11229749 -0.1705187 -0.011626951 0.00635361
0.03360852 0.08186034 -0.09931697 -0.092967585 0.058112234 0.047154617 0.14916451 0.029578151
-0.019079683 -0.11315665 0.12588286 0.12552077 -0.14522848 0.05319746 -0.05835508 0.04751908
-0.0558619 0.014046551 -0.1459856 0.02221069 -0.10988098 -0.060638677 -0.1284086 0.037263334
0.26646018 -0.06178117 0.09435524 0.08421448 0.012980674 -0.07961104 -0.11560042 0.15524651
-0.15260766 -0.07916254 0.021299712 0.04313704 0.01830312 0.113819964 -0.07622147 0.10723808
-0.00076544646 0.23790835 -0.22643004 0.022147397 -0.048753023 -0.058139436 -0.083593175 0.06774425
-0.011232077 0.004788484 -0.037705217 -0.053526238 -0.12931319 0.0036853575 0.11624707 -0.009082634
-0.121924505 0.016716933 -0.034989756 -0.046223983 -0.14310391 -0.12705861 -0.1429729 -0.052148476
-0.010757585 -0.10764483 0.112808526 0.055114683 -0.0820607 -0.11231022 0.05504736 0.10815859
0.15338735 -0.04457342 0.015019208 -0.06276441 -0.09858792 0.020082958 -0.030663086 0.06670711
0.063212715 0.05476484 0.02553694 -0.023044186 0.036947966 0.104613125 -0.012544895 0.16142674
-0.06407961 -0.10455523 -0.035456557 0.04136913 0.21404675 -0.07315842 0.35537505 -0.17103435
00000000: 206a a33d a9a8 dd3c 04ec 9abd a356 cfbd
00000010: a4a5 aa3d 1c9f bebc 9132 0dbe 9b42 db3c
00000020: 7839 dd3d 0153 32bd b6bf b7bb 695d e1bc
00000030: 2f34 41bd 20cb d3bc 3d36 32be aa8f 4ebd
00000040: e2da 93bd 8ad4 40be 6c54 c8bd c8e2 b83a
00000050: 2d7f a53d 3dfa 71be 3e91 2c3e 19f3 b23d
00000060: bf95 a6bc 65d3 353d 875c 43bd 21d0 1d3e
00000070: 3cd5 24be 0dfb 92bc bde1 1c3d 8c93 28be
00000080: 3230 993d 8fae 12be 2583 20bd 7e1d ad3d
00000090: bbc4 09bd ff3a 03bd 0faf 7b3d c96e 75bd
000000a0: 7409 ecbc b55e 3fbd 8a1c 9e3d 3e8d 563d
000000b0: e8d7 a9bd 95d9 88bd 7b86 ae3d 1804 77bd
000000c0: 04ad 203e b1a6 cabd bd4f 943c 41ca 0dbe
000000d0: 9fdb 2f3c 7040 2c3e 00a9 053e 1f68 a03d
000000e0: 7287 3f3d 7fce dabd 0ac7 723d 2dfb 463e
000000f0: 5cc5 6e3d 56d2 313e 67df 733d 13e5 f0bd
00000100: 17b8 aabd b32f 80bb 71ed 443e 563c 4f3d
00000110: dbda d5ba bbc4 dbbd 1dc1 bebd 3f22 263d
00000120: 4ca2 e23c 0f4a 4fbe 7352 98bd 5a0e 1b3d
00000130: 5874 8e3d dbe3 d23c 54e1 f4bd 7628 25be
00000140: 2910 523d 1ae2 f83d ed42 e7bd c032 1dbd
00000150: 7f91 983c 51bb 09bd 749b 5e3d 4206 a4bb
00000160: 5184 44bc 85b7 81bc 19f7 30be 35d7 56be
00000170: bddd bcbc 1440 8fbd 2483 ce3d fc8a ce3b
00000180: 8cfe 36bc 58c1 7c3d f4af 123e fb15 c13d
00000190: ee38 423e b140 fd3d abce 043d 1dc0 00bd
000001a0: c56f 0f3c 913a 99bd 47c1 0c3e 88cb 523e
000001b0: fc43 f9bc ca49 5c3d 5c89 813e 19dc 2dbe
000001c0: e27c a4bd 2223 3abe e58e f53d ade0 edbb
000001d0: c239 38bd 67cc d4bd eac5 a0bd bef5 1cbd
000001e0: 6ce4 4dbe 19e2 7a3d 62ed 203c 489a 263d
000001f0: f7c0 913d d52b 163d ec5c 93bd 5d8f f13c
00000200: 5fd7 09bd 27e5 633e 9744 1cbd 086c aa3d
00000210: 5602 533e fddc e8bd a9bf 27be a111 1abd
00000220: 9725 af3b f086 cabd 4224 b53c 4a4a 693c
00000230: 3e1c f8bc 554a 133e f806 1c3e 0a21 d1bd
00000240: 5a0f 1b3e e926 fa3d 531f 14bb e078 dfbc
00000250: c655 483d 2adb ce3c cc34 463e aa0f 0a3e
00000260: cfb0 fd3c 6b1b 143c fc56 423d 723b b1bc
00000270: 3afc e53d 749c 2ebe f87e 3ebc f231 d03b
00000280: 16a9 093d 65a6 a73d b266 cbbd ca65 bebd
00000290: 1807 6e3d 3325 413d 95be 183e e14d f23c
000002a0: ff4c 9cbc acbe e7bd 70e7 003e 8488 003e
000002b0: c6b6 14be 94e5 593d bd05 6fbd 5ea3 423d
000002c0: 73cf 64bd 8123 663c 407d 15be 31f3 b53c
000002d0: 4709 e1bd 4360 78bd 8b7d 03be 70a1 183d
000002e0: 786d 883e 410e 7dbd 523d c13d a478 ac3d
000002f0: e5ac 543c 1d0b a3bd eabf ecbd f1f8 1e3e
00000300: 2f45 1cbe f81f a2bd bc7c ae3c 77b0 303d
00000310: 6df0 953c 711a e93d 011a 9cbd a39f db3d
00000320: 3ea8 48ba 3f9e 733e 47dd 67be 756e b53c
00000330: 40b1 47bd 9e23 6ebd e632 abbd 7fbd 8a3d
00000340: bf06 38bc b7e8 9c3b c970 1abd 543e 5bbd
00000350: ad6a 04be 0a86 713b f212 ee3d 54cf 14bc
00000360: 8eb3 f9bd f3f1 883c 6b51 0fbd 5c55 3dbd
00000370: d589 12be a71b 02be 7d67 12be a499 55bd
00000380: 9540 30bc e574 dcbd 2808 e73d efbf 613d
00000390: 710f a8bd e702 e6bd 5779 613d 4082 dd3d
000003a0: 9311 1d3e 9e92 36bd 2013 763c a18a 80bd
000003b0: 77e8 c9bd 0485 a43c 2731 fbbc bd9d 883d
000003c0: ab75 813d 1951 603d d832 d13c 29c7 bcbc
000003d0: c056 173d 683f d63d 1a89 4dbc 0d4d 253e
000003e0: 2c3c 83bd 0d21 d6bd e53a 11bd ad72 293d
000003f0: 122f 5b3e 15d4 95bd b8f3 b53e a123 2fbe

l1.bias_rho f4 [800]
-3.0092845 -2.9202113 -2.9877985 -3.0799928 -2.9339166 -3.0935798 -3.2254193 -2.9672887
-2.89675 -2.8515227 -3.0098455 -2.8848372 -2.8778875 -2.8139575 -3.1483326 -3.3511376
-3.0224385 -2.9932582 -2.8265476 -3.0903835 -3.0580814 -3.0953152 -3.0316596 -3.051858
-2.9755845 -3.0518332 -2.7628539 -2.8823552 -2.9876273 -2.9309576 -2.9013593 -3.0081
-3.1072183 -3.0319169 -3.1226616 -2.9630382 -3.0599902 -3.0152123 -2.8753667 -3.1378324
-2.917902 -2.9134386 -2.8938048 -3.0421665 -3.011876 -2.9149492 -2.8908079 -2.9673755
-3.2376184 -3.0208764 -2.8466733 -2.859306 -3.008342 -3.0932245 -3.0719676 -2.8829274
-3.0552723 -3.2259269 -2.9594042 -3.1579535 -3.0373275 -3.030839 -3.0129533 -3.008017
-3.0535905 -2.9202974 -2.8986797 -2.9436285 -3.0186794 -2.975821 -2.9320662 -2.9660125
-3.1343293 -2.9254746 -2.8632665 -3.1404657 -3.0716705 -2.9289706 -3.068444 -2.941163
-2.6665435 -3.0915422 -2.8880272 -2.894642 -2.9986515 -2.8784306 -2.9780052 -3.0843835
-2.9518282 -3.0690153 -2.927809 -3.1429324 -2.9878736 -2.9683876 -2.9810715 -2.9629798
-3.0322857 -3.016974 -3.0893178 -3.0328505 -3.0355465 -2.909079 -2.8064363 -2.8596823
-2.9142349 -3.0192802 -2.9694638 -2.8984406 -3.1069643 -3.187825 -2.961919 -3.1043978
-3.1142707 -2.9184241 -3.0324514 -3.056409 -3.1263056 -2.8321373 -2.9378364 -2.8640223
-3.0792387 -2.9826186 -3.0633729 -2.9667442 -2.9956276 -3.2234728 -3.0800471 -2.9019415
-2.9205256 -3.1796207 -2.8297591 -2.8720706 -2.9402106 -2.9195669 -2.9576156 -3.1420453
-3.0535824 -3.0975575 -2.912501 -2.962307 -2.951558 -2.9135933 -2.974812 -3.2136366
-2.8542702 -2.9335139 -2.8723462 -2.9759974 -2.943191 -2.9348278 -3.0102139 -3.017754
-2.9142904 -3.0474632 -3.0218775 -3.0916784 -3.1152744 -2.9495795 -2.882459 -2.9004776
-3.012375 -3.0690784 -2.839261 -2.9725246 -3.0369065 -3.0147903 -2.7541635 -3.1196465
-3.1582692 -2.9153008 -2.991357 -3.131147 -2.998783 -2.875691 -3.021549 -3.0389009
-2.8644025 -2.9270768 -2.9275713 -3.0047474 -3.0535686 -2.9095616 -2.9817924 -3.033637
-2.8823256 -2.8682997 -2.9498029 -2.9454784 -3.0235817 -3.0010874 -3.0561118 -2.941666
-2.8937616 -2.9627955 -2.854364 -2.969617 -3.0497942 -3.118031 -2.9300096 -2.7555323
-2.9771926 -2.9949749 -3.0716226 -3.034171 -2.9687212 -2.9028625 -3.046098 -3.132629
-3.1148975 -3.0265014 -3.094764 -2.910358 -2.9725778 -3.0129068 -2.8744593 -2.7383924
-2.9903328 -2.9074152 -3.0156872 -2.9614174 -2.9394913 -2.9971282 -3.0918164 -2.8975785
-3.0813398 -2.8320637 -3.086634 -3.018621 -2.8265445 -3.113004 -2.864807 -2.94948
-3.066463 -2.9462135 -3.0077398 -2.8873258 -3.178085 -3.005389 -2.9937875 -2.891286
-2.7996583 -2.9744675 -3.0457249 -3.0630133 -3.1564028 -3.048001 -3.0167117 -2.8833463
-3.0117385 -2.921457 -3.141819 -3.0484974 -3.245744 -2.9691164 -3.0392253 -3.0881164
00000000: 1e98 40c0 bee4 3ac0 1738 3fc0 9a1e 45c0
00000010: 4ac5 3bc0 36fd 45c0 456d 4ec0 0fe8 3dc0
00000020: 5a64 39c0 597f 36c0 4fa1 40c0 2ca1 38c0
00000030: 4f2f 38c0 e117 34c0 487e 49c0 0a79 56c0
00000040: a26f 41c0 8b91 3fc0 28e6 34c0 d8c8 45c0
00000050: 9bb7 43c0 a519 46c0 b606 42c0 a451 43c0
00000060: fa6f 3ec0 3c51 43c0 99d2 30c0 8278 38c0
00000070: 4935 3fc0 cf94 3bc0 dfaf 39c0 b684 40c0
00000080: aadc 46c0 ed0a 42c0 b0d9 47c0 6ba2 3dc0
00000090: e1d6 43c0 3df9 40c0 0206 38c0 3fd2 48c0
000000a0: e8be 3ac0 c775 3ac0 1934 39c0 dbb2 42c0
000000b0: 94c2 40c0 878e 3ac0 ff02 39c0 7be9 3dc0
000000c0: 2435 4fc0 0a56 41c0 e52f 36c0 dffe 36c0
000000d0: ad88 40c0 64f7 45c0 1e9b 44c0 e281 38c0
000000e0: 9589 43c0 9675 4ec0 e166 3dc0 e91b 4ac0
000000f0: 9363 42c0 44f9 41c0 3ad4 40c0 5a83 40c0
00000100: 076e 43c0 27e6 3ac0 f883 39c0 6964 3cc0
00000110: 0b32 41c0 da73 3ec0 f9a6 3bc0 26d3 3dc0
00000120: da98 48c0 fa3a 3bc0 c23f 37c0 64fd 48c0
00000130: 4096 44c0 4174 3bc0 6361 44c0 043c 3cc0
00000140: a6a8 2ac0 d4db 45c0 70d5 38c0 d141 39c0
00000150: e8e9 3fc0 3538 38c0 a397 3ec0 8a66 45c0
00000160: c1ea 3cc0 bf6a 44c0 3961 3bc0 ce25 49c0
00000170: 5239 3fc0 10fa 3dc0 e0c9 3ec0 76a1 3dc0
00000180: f810 42c0 1a16 41c0 62b7 45c0 391a 42c0
00000190: 6546 42c0 5a2e 3ac0 a79c 33c0 0905 37c0
000001a0: d382 3ac0 e33b 41c0 b20b 3ec0 0d80 39c0
000001b0: 81d8 46c0 5305 4cc0 1590 3dc0 74ae 46c0
000001c0: 3650 47c0 76c7 3ac0 af13 42c0 349c 43c0
000001d0: 6415 48c0 bd41 35c0 8305 3cc0 244c 37c0
000001e0: 3f12 45c0 39e3 3ec0 4d0e 44c0 23df 3dc0
000001f0: 5db8 3fc0 614d 4ec0 7e1f 45c0 69b9 39c0
00000200: e4e9 3ac0 e87e 4bc0 c61a 35c0 01d0 37c0
00000210: 692c 3cc0 2fda 3ac0 9349 3dc0 4517 49c0
00000220: e56d 43c0 623e 46c0 6b66 3ac0 7096 3dc0
00000230: 54e6 3cc0 5078 3ac0 5263 3ec0 39ac 4dc0
00000240: 5dac 36c0 b1be 3bc0 85d4 37c0 be76 3ec0
00000250: 3e5d 3cc0 38d4 3bc0 58a7 40c0 e222 41c0
00000260: bc83 3ac0 a309 43c0 7166 41c0 0fde 45c0
00000270: a860 47c0 e9c5 3cc0 357a 38c0 6da1 39c0
00000280: c1ca 40c0 c86b 44c0 74b6 35c0 d83d 3ec0
00000290: ad5c 42c0 53f2 40c0 3744 30c0 4aa8 47c0
000002a0: 1521 4ac0 4a94 3ac0 6572 3fc0 b664 48c0
000002b0: 10ec 3fc0 520b 38c0 0f61 41c0 5a7d 42c0
000002c0: 5f52 37c0 3a55 3bc0 545d 3bc0 c84d 40c0
000002d0: ab6d 43c0 4236 3ac0 b0d5 3ec0 1c27 42c0
000002e0: 0678 38c0 3992 37c0 92c9 3cc0 b882 3cc0
000002f0: 5d82 41c0 d111 40c0 5697 43c0 4144 3cc0
00000300: 6433 39c0 719e 3dc0 e6ad 36c0 340e 3ec0
00000310: d42f 43c0 d28d 47c0 4785 3bc0 a45a 30c0
00000320: 538a 3ec0 abad 3fc0 7795 44c0 dc2f 42c0
00000330: 87ff 3dc0 80c8 39c0 45f3 42c0 fe7c 48c0
00000340: 7b5a 47c0 33b2 41c0 9d10 46c0 4e43 3ac0
00000350: b73e 3ec0 77d3 40c0 24f7 37c0 d241 2fc0
00000360: 9d61 3fc0 1713 3ac0 0501 41c0 dd87 3dc0
00000370: a020 3cc0 f3d0 3fc0 52e0 45c0 ed71 39c0
00000380: ac34 45c0 8840 35c0 698b 45c0 1631 41c0
00000390: 1be6 34c0 753b 47c0 ff58 37c0 48c4 3cc0
000003a0: ee40 44c0 c38e 3cc0 cf7e 40c0 f2c9 38c0
000003b0: bf65 4bc0 4b58 40c0 379a 3fc0 d40a 39c0
000003c0: 9a2d 33c0 ad5d 3ec0 28ed 42c0 6908 44c0
000003d0: 8102 4ac0 7312 43c0 ce11 41c0 bf88 38c0
000003e0: 53c0 40c0 27f9 3ac0 9013 49c0 951a 43c0
000003f0: 45ba 4fc0 0106 3ec0 ab82 42c0 b3a3 45c0

l1.weight.mu f4 [800, 29]
0.124008074 -0.025192708 0.1221605 -0.059410293 0.14190626 0.04467566 0.01258571 0.07819744
0.03139484 -0.18812059 -0.2809111 0.071162574 -0.13207026 -0.05094339 0.019543555 -0.07041173
-0.050601088 -0.07582699 -0.16193262 -0.21605444 -0.11197101 0.06352895 -0.012945629 0.2845753
0.07231827 -0.0084638 0.05986259 0.004825537 0.005597087 0.055767722 -0.012678359 -0.08940089
-0.07710439 -0.104101606 -0.079454236 0.03886738 -0.02588371 -0.116410874 -0.026856245 -0.098460175
0.22722891 -0.033704683 0.126249 0.09228368 0.12887387 -0.032746125 0.035303116 0.011670429
0.14234486 0.15632774 0.033280436 -0.12130912 -0.070760295 0.19498312 0.085107215 0.03374769
0.15980463 -0.010532959 -0.10351721 0.08168635 -0.20801947 0.05707593 0.050501585 0.013352124
-0.033402026 -0.15375131 0.13442577 -0.19350821 0.05349313 -0.045368336 -0.0975068 0.04019395
0.052128993 0.08563649 0.0031738752 -0.15543824 0.053783275 0.093534306 -0.032843027 -0.098946586
0.12407193 -0.03727548 0.0504776 0.21439603 -0.012623856 -0.015737768 0.056511015 -0.020331444
-0.004930281 0.014235659 -0.10374984 -0.037460916 -0.03623124 0.013584852 0.10841508 -0.12942562
-0.015914341 -0.051455114 0.13016196 0.06369479 -0.10758778 -0.10371755 -0.0035149583 0.0565094
-0.16496402 0.07083462 0.16154301 -0.10710668 0.21494724 -0.022916995 -0.012826587 0.09606866
0.11569144 0.19620349 0.2267465 0.10375651 0.11101547 -0.14006823 -0.089380376 0.09907762
-0.051877096 -0.067426674 -0.036969442 0.020167938 0.12599912 -0.0069189807 0.0005742414 -0.07544354
-0.12646234 0.13137282 -0.09533922 0.087497085 -0.110513665 -0.06983814 0.07994124 0.00030130983
0.06092897 -0.12550198 0.084689476 0.19031243 0.119930044 -0.052691113 0.23445006 -0.22717035
-0.14135925 -0.09855626 0.09777247 -0.012486042 0.013358208 -0.10047833 0.068404645 -0.1353646
-0.004204157 -0.12771244 0.09689415 -0.15904142 0.07057726 -0.15515576 -0.01582918 0.09616425
0.036079083 -0.038292762 0.06855437 0.020936752 0.14358011 0.07986758 0.05124084 -0.016578251
0.036700998 -0.19033499 0.17158282 0.06690836 -0.15916827 -0.011589269 0.034037348 0.104614094
-0.050057698 0.14259762 0.017896466 0.21902436 1.6229335e-05 0.102010526 0.055084202 -0.055630427
-0.15688047 0.042475432 -0.05225731 -0.046380974 -0.061522607 0.020083962 -0.25015068 -0.055070292
0.00941073 0.15249346 0.074196026 0.05993995 0.13253044 0.0454083 0.075354785 0.027431488
0.08508109 0.08974556 -0.032329105 -0.02444505 -0.02782446 -0.003258895 0.022080205 -0.15943713
0.10977228 -0.088692725 -0.052121285 0.068290055 -0.020172637 -0.062707216 -0.11890368 -0.28815678
-0.056175936 -0.061405137 0.09434895 0.009336349 -0.105948076 0.08776357 -0.15716042 0.009317838
0.031377196 -0.07151352 -0.012502099 -0.01649337 -0.0027294795 0.05477843 0.003228556 -0.05539893
0.05938962 0.22508243 0.07779609 -0.040529624 0.095304064 -0.019911604 0.032307565 -0.020955436
0.062514246 -0.12227284 0.20293845 -0.1356181 0.052498307 -0.044832274 -0.040546983 0.1147985
0.0054595154 -0.054093894 -0.014409283 -0.028467024 0.09072036 0.12610805 0.04447259 0.055134606
00000000: f2f7 fd3d f060 cebc 492f fa3d 3558 73bd
00000010: e04f 113e d3fd 363d 4b34 4e3c fb25 a03d
00000020: e097 003d afa2 40be 94d3 8fbe afbd 913d
00000030: 6d3d 07be 04aa 50bd ce19 a03c 0634 90bd
00000040: 1643 4fbd 2e4b 9bbd aad1 25be 603d 5dbe
00000050: 0f51 e5bd 771b 823d e719 54bc dbb3 913e
00000060: 9a1b 943d c0ab 0abc 7a32 753d 8a1f 9e3b
00000070: c567 b73b b26c 643d e4b8 4fbc d017 b7bd
00000080: e8e8 9dbd 3933 d5bd e7b8 a2bd 6733 1f3d
00000090: 130a d4bc d368 eebd a101 dcbc 7da5 c9bd
000000a0: b2ae 683e ec0d 0abd 6b47 013e 3aff bc3d
000000b0: 83f7 033e cd20 06bd 009a 103d 5435 3f3c
000000c0: dac2 113e 6114 203e 1151 083d ea70 f8bd
000000d0: c6ea 90bd a8a9 473e b14c ae3d 053b 0a3d
000000e0: d3a3 233e 6f92 2cbc d500 d4bd 2c4b a73d
000000f0: 0e03 55be 73c8 693d c0da 4e3d dec2 5a3c
00000100: 90d0 08bd fc70 1dbe e9a6 093e 0427 46be
00000110: 9d1b 5b3d 26d4 39bd a5b1 c7bd 69a2 243d
00000120: 3685 553d 2f62 af3d ca00 503b 342b 1fbe
00000130: da4b 5c3d ea8e bf3d 6986 06bd 82a4 cabd
00000140: 6d19 fe3d 2cae 18bd 9ac1 4e3d a28a 5b3e
00000150: 4ad4 4ebc 7eec 80bc 1878 673d 218e a6bc
00000160: 328e a1bb ae3c 693c cc7a d4bd 9e70 19bd
00000170: 3567 14bd 0093 5e3c ba08 de3d 2688 04be
00000180: cb5e 82bc 99c2 52bd 2d49 053e 6a72 823d
00000190: fb56 dcbd de69 d4bd 375b 66bb 6776 673d
000001a0: 54ec 28be be11 913d 886b 253e bf5a dbbd
000001b0: 211b 5c3e 6cbc bbbc 9b26 52bc a5bf c43d
000001c0: a2ef ec3d 91e9 483e 3c30 683e 4b7e d43d
000001d0: 145c e33d 0c6e 0fbe 0f0d b7bd 35e9 ca3d
000001e0: 147d 54bd ff16 8abd 456d 17bd 3b37 a53c
000001f0: ea05 013e 9eb8 e2bb b088 163a 2582 9abd
00000200: 587f 01be 9986 063e 3541 c3bd ac31 b33d
00000210: fd54 e2bd 4c07 8fbd 3cb8 a33d 1ff9 9d39
00000220: a890 793d 9783 00be ad71 ad3d 43e1 423e
00000230: e29d f53d a3d2 57bd ad13 703e 589f 68be
00000240: 7bc0 10be ddd7 c9bd ef3c c83d 4292 4cbc
00000250: 63dc 5a3c 95c7 cdbd bc17 8c3d 059d 0abe
00000260: 06c3 89bb 0dc7 02be 7170 c63d c1db 22be
00000270: cf8a 903d 27e1 1ebe 32ac 81bc c3f1 c43d
00000280: a9c7 133d dfd8 1cbd 3c66 8c3d 8d83 ab3c
00000290: aa06 133e 9d91 a33d eae1 513d 1dcf 87bc
000002a0: c953 163d 2de7 42be 68b3 2f3e 4007 893d
000002b0: 02fd 22be ebe0 3dbc bf6a 0b3d ea3f d63d
000002c0: 4d09 4dbd 1c05 123e 9c9b 923c ec47 603e
000002d0: 3b24 8837 e5ea d03d f99f 613d bbdc 63bd
000002e0: 46a5 20be b8fa 2d3d c30b 56bd faf9 3dbd
000002f0: 21ff 7bbd 1f87 a43c c013 80be 6391 61bd
00000300: 762f 1a3c 3f27 1c3e 16f4 973d 9883 753d
00000310: 0fb6 073e 0efe 393d 9c53 9a3d 00b8 e03c
00000320: ff3e ae3d 85cc b73d 866b 04bd fc40 c8bc
00000330: 1ff0 e3bc 2f93 55bb 8ce1 b43c 7d43 23be
00000340: 4ad0 e03d 88a4 b5bd 217d 55bd a8db 8b3d
00000350: 1641 a5bc a46c 80bd c683 f3bd 4989 93be
00000360: bd18 66bd f483 7bbd 063a c13d 7cf7 183c
00000370: 4efb d8bd 63bd b33d a9ee 20be d8a9 183c
00000380: 6085 003d ae75 92bd 9bd5 4cbc 1b1d 87bc
00000390: 11e1 32bb 595f 603d 2e96 533b fde9 62bd
000003a0: 8842 733d 027c 663e 8e53 9f3d 6402 26bd
000003b0: c72e c33d a91d a3bc f054 043d bcaa abbc
000003c0: 7807 803d 2f6a fabd 19cf 4f3e 79df 0abe
000003d0: 7708 573d 0ca2 37bd 9814 26bd 7a1b eb3d
000003e0: bce5 b23b 8f91 5dbd ea14 6cbc ad33 e9bc
000003f0: 99cb b93d 7822 013e e428 363d d3d4 613d

l1.weight.rho f4 [800, 29]
-2.937131 -3.0898373 -2.976676 -3.0623171 -3.1482089 -2.8812737 -2.9020553 -2.9090152
-2.847584 -2.9835722 -2.930834 -3.07088 -2.9171298 -2.993222 -2.9743538 -2.9360096
-3.0673008 -3.0939133 -3.0651538 -3.0897326 -2.898628 -3.0254216 -2.8243024 -3.0431705
-3.0197651 -2.8339715 -2.9522572 -3.170517 -2.9800544 -2.954715 -3.005699 -2.9695969
-2.9550624 -2.8699281 -3.0739229 -2.938424 -2.9186196 -3.0016115 -3.0830002 -3.0916922
-2.781871 -3.0070987 -2.942675 -2.9092648 -3.1203177 -2.9323175 -2.9778497 -2.881787
-2.8206425 -3.1823604 -2.9130692 -3.1367066 -3.040179 -2.9046884 -3.0906553 -3.0353785
-3.0494032 -2.8784645 -2.934994 -3.009998 -2.921055 -2.985951 -2.9699345 -3.023156
-2.9661748 -2.9313247 -2.9764607 -3.055792 -2.9607887 -2.9072454 -3.1223814 -2.9754798
-3.1067183 -3.0987751 -3.088485 -2.9748244 -3.032659 -2.9748971 -2.9089167 -3.0771441
-3.0400555 -2.8632545 -2.9901667 -3.1533916 -2.9424088 -2.9147928 -2.9059718 -2.868183
-2.888305 -2.917676 -2.9842978 -3.2536938 -3.1202548 -3.1171644 -2.8302586 -2.9416757
-3.1185112 -3.047838 -3.039386 -2.9918141 -2.9175148 -2.987924 -2.8932438 -2.9533756
-3.0260756 -2.9722703 -3.1302736 -2.996414 -3.1426468 -3.1511657 -3.0003026 -3.0996838
-2.8959172 -2.9600763 -3.0304997 -3.0221846 -2.9149182 -3.1104496 -3.1278553 -3.065738
-2.7950218 -3.0777035 -2.9686847 -3.0918226 -3.0817657 -3.1779718 -2.8554893 -3.037692
-2.9768314 -3.1308126 -3.0059764 -2.8619418 -3.0223873 -2.9791682 -3.0409172 -3.001828
-3.0648503 -3.079522 -3.1176534 -3.152846 -2.948486 -2.9382615 -2.9513934 -2.9407232
-3.0991414 -3.1788452 -2.9070508 -3.1559665 -3.0328774 -2.9647596 -2.9733722 -2.990412
-3.1065857 -2.8710685 -3.0383096 -3.0851958 -2.9769604 -3.102244 -2.9227312 -3.0341265
-3.1267607 -2.9024923 -3.1696503 -3.1269257 -2.9330914 -3.1872332 -3.067698 -3.1035
-3.070531 -3.12061 -3.083568 -3.2347767 -2.8787105 -3.1676095 -2.874021 -2.9159338
-3.1028454 -2.9090104 -3.0858157 -3.0283756 -3.0192745 -3.1841497 -2.9172919 -2.9070396
-3.0118508 -2.9787052 -3.174325 -2.9830358 -2.7819793 -2.9025345 -2.9960308 -3.0921426
-2.9819002 -3.0582995 -2.9443052 -2.8610656 -3.0579715 -2.955496 -2.9708385 -3.0570264
-3.064879 -3.0197787 -3.1359818 -2.8001187 -2.940239 -3.0625625 -2.959194 -3.1183372
-2.9585016 -3.057347 -3.0210886 -3.0919957 -3.0435302 -3.0408964 -2.9895856 -3.0146046
-2.9929495 -3.0539904 -2.9754188 -3.0908027 -2.9345047 -2.8855624 -3.1794631 -2.9972658
-2.9499874 -3.1411207 -3.0538206 -3.1156938 -2.945766 -2.924084 -2.9102442 -2.9365337
-2.785831 -2.996053 -2.833321 -2.9314134 -2.9571276 -2.9953973 -2.8641403 -2.902064
-3.2266746 -3.0678296 -2.9908125 -2.8711057 -3.0405889 -2.900192 -2.9190753 -3.118536
-2.99978 -3.0154436 -3.111412 -2.9500656 -2.9621642 -2.9762137 -2.9273186 -3.0774322
00000000: f4f9 3bc0 e5bf 45c0 dc81 3ec0 01fd 43c0
00000010: 417c 49c0 ca66 38c0 46bb 39c0 4e2d 3ac0
00000020: d13e 36c0 d9f2 3ec0 c992 3bc0 4c89 44c0
00000030: 41b2 3ac0 f390 3fc0 d05b 3ec0 95e7 3bc0
00000040: a84e 44c0 ad02 46c0 7b2b 44c0 2ebe 45c0
00000050: 1f83 39c0 82a0 41c0 5fc1 34c0 4ec3 42c0
00000060: d543 41c0 ca5f 35c0 c8f1 3cc0 c0e9 4ac0
00000070: 36b9 3ec0 0d1a 3dc0 5f5d 40c0 e00d 3ec0
00000080: be1f 3dc0 e7ac 37c0 27bb 44c0 240f 3cc0
00000090: aaca 3ac0 671a 40c0 e04f 45c0 49de 45c0
000000a0: 2d0a 32c0 4e74 40c0 ca54 3cc0 6531 3ac0
000000b0: 49b3 47c0 17ab 3bc0 1795 3ec0 336f 38c0
000000c0: 6885 34c0 cbab 4bc0 ba6f 3ac0 cdbf 48c0
000000d0: 4b92 42c0 6ae6 39c0 4ccd 45c0 a443 42c0
000000e0: 6c29 43c0 c338 38c0 f1d6 3bc0 cfa3 40c0
000000f0: 91f2 3ac0 d219 3fc0 6813 3ec0 637b 41c0
00000100: cfd5 3dc0 d39a 3bc0 557e 3ec0 1992 43c0
00000110: 907d 3dc0 4f10 3ac0 19d5 47c0 436e 3ec0
00000120: 79d4 46c0 5552 46c0 bda9 45c0 8663 3ec0
00000130: 1617 42c0 b764 3ec0 b12b 3ac0 eeef 44c0
00000140: 4590 42c0 903f 37c0 e45e 3fc0 2bd1 49c0
00000150: 6d50 3cc0 f78b 3ac0 71fb 39c0 4f90 37c0
00000160: fdd9 38c0 34bb 3ac0 bcfe 3ec0 853c 50c0
00000170: 41b2 47c0 9f7f 47c0 f522 35c0 6a44 3cc0
00000180: b095 47c0 c70f 43c0 4d85 42c0 e279 3fc0
00000190: 90b8 3ac0 263a 3fc0 e82a 39c0 1b04 3dc0
000001a0: 39ab 41c0 ad39 3ec0 6756 48c0 3fc5 3fc0
000001b0: 2021 49c0 b3ac 49c0 f504 40c0 3861 46c0
000001c0: b556 39c0 e471 3dc0 b5f3 41c0 796b 41c0
000001d0: 058e 3ac0 9b11 47c0 c82e 48c0 0d35 44c0
000001e0: a3e1 32c0 18f9 44c0 eefe 3dc0 6ce0 45c0
000001f0: a63b 45c0 e463 4bc0 56c0 36c0 8c69 42c0
00000200: 6884 3ec0 3c5f 48c0 eb61 40c0 0e2a 37c0
00000210: cb6e 41c0 b1aa 3ec0 639e 42c0 f31d 40c0
00000220: 8226 44c0 e316 45c0 a287 47c0 3bc8 49c0
00000230: ffb3 3cc0 7a0c 3cc0 a1e3 3cc0 cf34 3cc0
00000240: 5558 46c0 3372 4bc0 1f0d 3ac0 5bfb 49c0
00000250: aa1a 42c0 9fbe 3dc0 bb4b 3ec0 e962 3fc0
00000260: 4dd2 46c0 96bf 37c0 aa73 42c0 d973 45c0
00000270: 8586 3ec0 2a8b 46c0 070e 3bc0 212f 42c0
00000280: d91c 48c0 6fc2 39c0 8ddb 4ac0 8d1f 48c0
00000290: c5b7 3bc0 a1fb 4bc0 2a55 44c0 be9f 46c0
000002a0: 9483 44c0 13b8 47c0 2e59 45c0 9506 4fc0
000002b0: cb3c 38c0 1dba 4ac0 f6ef 37c0 a99e 3ac0
000002c0: 0595 46c0 3a2d 3ac0 017e 45c0 e8d0 41c0
000002d0: cb3b 41c0 1cc9 4bc0 e9b4 3ac0 f00c 3ac0
000002e0: 2ac2 40c0 1ba3 3ec0 2428 4bc0 0fea 3ec0
000002f0: f30b 32c0 20c3 39c0 f8be 3fc0 aae5 45c0
00000300: 74d7 3ec0 2ebb 43c0 7f6f 3cc0 b31b 37c0
00000310: ceb5 43c0 d926 3dc0 3822 3ec0 52a6 43c0
00000320: fa26 44c0 0e44 41c0 edb3 48c0 2535 33c0
00000330: e02c 3cc0 0601 44c0 6f63 3dc0 d692 47c0
00000340: 1758 3dc0 93ab 43c0 8459 41c0 42e3 45c0
00000350: 33c9 42c0 0c9e 42c0 5f55 3fc0 48ef 40c0
00000360: 7c8c 3fc0 9474 43c0 436d 3ec0 b6cf 45c0
00000370: edce 3bc0 0ead 38c0 537c 4bc0 34d3 3fc0
00000380: 98cc 3cc0 1f08 49c0 cc71 43c0 8767 47c0
00000390: 6e87 3cc0 3124 3bc0 7141 3ac0 2bf0 3bc0
000003a0: 0e4b 32c0 55bf 3fc0 2255 35c0 479c 3bc0
000003b0: 9441 3dc0 97b4 3fc0 134e 37c0 6bbb 39c0
000003c0: d681 4ec0 5257 44c0 7969 3fc0 32c0 37c0
000003d0: 0299 42c0 bf9c 39c0 21d2 3ac0 1896 47c0
000003e0: 65fc 3fc0 07fd 40c0 6021 47c0 e0cd 3cc0
000003f0: 1994 3dc0 497a 3ec0 3059 3bc0 a6f4 44c0

l1.bias.mu f4 [800]
0.07979226 0.027057962 -0.07564548 -0.101239465 0.08332375 -0.023269229 -0.13788821 0.026765158
0.10801977 -0.04353619 -0.0056075705 -0.027510362 -0.047168907 -0.025853693 -0.17403503 -0.050429977
-0.07219483 -0.18831077 -0.09781727 0.0014105672 0.080808975 -0.23630615 0.1685228 0.087377734
-0.020335076 0.044391055 -0.047695663 0.15411426 -0.16096967 -0.017941976 0.03830122 -0.16462535
0.07479896 -0.14324401 -0.03918757 0.08452891 -0.033634882 -0.032038685 0.061446246 -0.059920106
-0.028813101 -0.04672118 0.07720287 0.052380793 -0.08293134 -0.066821255 0.08521744 -0.06030664
0.15691 -0.09895075 0.018104428 -0.13846685 0.010733514 0.16821456 0.1305275 0.078323595
0.04676003 -0.10683917 0.05927185 0.19431753 0.058293685 0.17365393 0.059539225 -0.117624424
-0.083358936 -0.003911936 0.19231202 0.05059465 -0.0016315834 -0.10730883 -0.09314177 0.040560003
0.02766528 -0.20243095 -0.07437601 0.037855484 0.069557846 0.025743416 -0.119570404 -0.16128716
0.051284943 0.121525005 -0.11292062 -0.038378477 0.018624065 -0.033625904 0.05434747 -0.005005629
-0.011994437 -0.01583458 -0.1728176 -0.20980532 -0.023054952 -0.06994644 0.10083607 0.0063031893
-0.011169087 0.061707824 0.14324933 0.094280206 0.1896703 0.123658545 0.032423656 -0.031433214
0.008754675 -0.07481874 0.13745604 0.20585454 -0.030427925 0.05378131 0.2530011 -0.16978492
-0.08031632 -0.18177465 0.119901456 -0.0072594495 -0.044976957 -0.10390549 -0.07850249 -0.038320296
-0.20106667 0.06125078 0.0098222215 0.040674478 0.07116883 0.036662895 -0.07195458 0.029487306
-0.03365266 0.22255383 -0.03815135 0.083213866 0.2060636 -0.11370275 -0.16381706 -0.03761447
0.005345057 -0.098890185 0.022112016 0.014238903 -0.030286904 0.14383824 0.15237033 -0.1021138
0.15142575 0.12214453 -0.0022601679 -0.027279317 0.048909925 0.02525099 0.19356078 0.13482538
0.030968098 0.00903974 0.047446236 -0.021634791 0.11229749 -0.1705187 -0.011626951 0.00635361
0.03360852 0.08186034 -0.09931697 -0.092967585 0.058112234 0.047154617 0.14916451 0.029578151
-0.019079683 -0.11315665 0.12588286 0.12552077 -0.14522848 0.05319746 -0.05835508 0.04751908
-0.0558619 0.014046551 -0.1459856 0.02221069 -0.10988098 -0.060638677 -0.1284086 0.037263334
0.26646018 -0.06178117 0.09435524 0.08421448 0.012980674 -0.07961104 -0.11560042 0.15524651
-0.15260766 -0.07916254 0.021299712 0.04313704 0.01830312 0.113819964 -0.07622147 0.10723808
-0.00076544646 0.23790835 -0.22643004 0.022147397 -0.048753023 -0.058139436 -0.083593175 0.06774425
-0.011232077 0.004788484 -0.037705217 -0.053526238 -0.12931319 0.0036853575 0.11624707 -0.009082634
-0.121924505 0.016716933 -0.034989756 -0.046223983 -0.14310391 -0.12705861 -0.1429729 -0.052148476
-0.010757585 -0.10764483 0.112808526 0.055114683 -0.0820607 -0.11231022 0.05504736 0.10815859
0.15338735 -0.04457342 0.015019208 -0.06276441 -0.09858792 0.020082958 -0.030663086 0.06670711
0.063212715 0.05476484 0.02553694 -0.023044186 0.036947966 0.104613125 -0.012544895 0.16142674
-0.06407961 -0.10455523 -0.035456557 0.04136913 0.21404675 -0.07315842 0.35537505 -0.17103435
00000000: 206a a33d a9a8 dd3c 04ec 9abd a356 cfbd
00000010: a4a5 aa3d 1c9f bebc 9132 0dbe 9b42 db3c
00000020: 7839 dd3d 0153 32bd b6bf b7bb 695d e1bc
00000030: 2f34 41bd 20cb d3bc 3d36 32be aa8f 4ebd
00000040: e2da 93bd 8ad4 40be 6c54 c8bd c8e2 b83a
00000050: 2d7f a53d 3dfa 71be 3e91 2c3e 19f3 b23d
00000060: bf95 a6bc 65d3 353d 875c 43bd 21d0 1d3e
00000070: 3cd5 24be 0dfb 92bc bde1 1c3d 8c93 28be
00000080: 3230 993d 8fae 12be 2583 20bd 7e1d ad3d
00000090: bbc4 09bd ff3a 03bd 0faf 7b3d c96e 75bd
000000a0: 7409 ecbc b55e 3fbd 8a1c 9e3d 3e8d 563d
000000b0: e8d7 a9bd 95d9 88bd 7b86 ae3d 1804 77bd
000000c0: 04ad 203e b1a6 cabd bd4f 943c 41ca 0dbe
000000d0: 9fdb 2f3c 7040 2c3e 00a9 053e 1f68 a03d
000000e0: 7287 3f3d 7fce dabd 0ac7 723d 2dfb 463e
000000f0: 5cc5 6e3d 56d2 313e 67df 733d 13e5 f0bd
00000100: 17b8 aabd b32f 80bb 71ed 443e 563c 4f3d
00000110: dbda d5ba bbc4 dbbd 1dc1 bebd 3f22 263d
00000120: 4ca2 e23c 0f4a 4fbe 7352 98bd 5a0e 1b3d
00000130: 5874 8e3d dbe3 d23c 54e1 f4bd 7628 25be
00000140: 2910 523d 1ae2 f83d ed42 e7bd c032 1dbd
00000150: 7f91 983c 51bb 09bd 749b 5e3d 4206 a4bb
00000160: 5184 44bc 85b7 81bc 19f7 30be 35d7 56be
00000170: bddd bcbc 1440 8fbd 2483 ce3d fc8a ce3b
00000180: 8cfe 36bc 58c1 7c3d f4af 123e fb15 c13d
00000190: ee38 423e b140 fd3d abce 043d 1dc0 00bd
000001a0: c56f 0f3c 913a 99bd 47c1 0c3e 88cb 523e
000001b0: fc43 f9bc ca49 5c3d 5c89 813e 19dc 2dbe
000001c0: e27c a4bd 2223 3abe e58e f53d ade0 edbb
000001d0: c239 38bd 67cc d4bd eac5 a0bd bef5 1cbd
000001e0: 6ce4 4dbe 19e2 7a3d 62ed 203c 489a 263d
000001f0: f7c0 913d d52b 163d ec5c 93bd 5d8f f13c
00000200: 5fd7 09bd 27e5 633e 9744 1cbd 086c aa3d
00000210: 5602 533e fddc e8bd a9bf 27be a111 1abd
00000220: 9725 af3b f086 cabd 4224 b53c 4a4a 693c
00000230: 3e1c f8bc 554a 133e f806 1c3e 0a21 d1bd
00000240: 5a0f 1b3e e926 fa3d 531f 14bb e078 dfbc
00000250: c655 483d 2adb ce3c cc34 463e aa0f 0a3e
00000260: cfb0 fd3c 6b1b 143c fc56 423d 723b b1bc
00000270: 3afc e53d 749c 2ebe f87e 3ebc f231 d03b
00000280: 16a9 093d 65a6 a73d b266 cbbd ca65 bebd
00000290: 1807 6e3d 3325 413d 95be 183e e14d f23c
000002a0: ff4c 9cbc acbe e7bd 70e7 003e 8488 003e
000002b0: c6b6 14be 94e5 593d bd05 6fbd 5ea3 423d
000002c0: 73cf 64bd 8123 663c 407d 15be 31f3 b53c
000002d0: 4709 e1bd 4360 78bd 8b7d 03be 70a1 183d
000002e0: 786d 883e 410e 7dbd 523d c13d a478 ac3d
000002f0: e5ac 543c 1d0b a3bd eabf ecbd f1f8 1e3e
00000300: 2f45 1cbe f81f a2bd bc7c ae3c 77b0 303d
00000310: 6df0 953c 711a e93d 011a 9cbd a39f db3d
00000320: 3ea8 48ba 3f9e 733e 47dd 67be 756e b53c
00000330: 40b1 47bd 9e23 6ebd e632 abbd 7fbd 8a3d
00000340: bf06 38bc b7e8 9c3b c970 1abd 543e 5bbd
00000350: ad6a 04be 0a86 713b f212 ee3d 54cf 14bc
00000360: 8eb3 f9bd f3f1 883c 6b51 0fbd 5c55 3dbd
00000370: d589 12be a71b 02be 7d67 12be a499 55bd
00000380: 9540 30bc e574 dcbd 2808 e73d efbf 613d
00000390: 710f a8bd e702 e6bd 5779 613d 4082 dd3d
000003a0: 9311 1d3e 9e92 36bd 2013 763c a18a 80bd
000003b0: 77e8 c9bd 0485 a43c 2731 fbbc bd9d 883d
000003c0: ab75 813d 1951 603d d832 d13c 29c7 bcbc
000003d0: c056 173d 683f d63d 1a89 4dbc 0d4d 253e
000003e0: 2c3c 83bd 0d21 d6bd e53a 11bd ad72 293d
000003f0: 122f 5b3e 15d4 95bd b8f3 b53e a123 2fbe

l1.bias.rho f4 [800]
-3.0092845 -2.9202113 -2.9877985 -3.0799928 -2.9339166 -3.0935798 -3.2254193 -2.9672887
-2.89675 -2.8515227 -3.0098455 -2.8848372 -2.8778875 -2.8139575 -3.1483326 -3.3511376
-3.0224385 -2.9932582 -2.8265476 -3.0903835 -3.0580814 -3.0953152 -3.0316596 -3.051858
-2.9755845 -3.0518332 -2.7628539 -2.8823552 -2.9876273 -2.9309576 -2.9013593 -3.0081
-3.1072183 -3.0319169 -3.1226616 -2.9630382 -3.0599902 -3.0152123 -2.8753667 -3.1378324
-2.917902 -2.9134386 -2.8938048 -3.0421665 -3.011876 -2.9149492 -2.8908079 -2.9673755
-3.2376184 -3.0208764 -2.8466733 -2.859306 -3.008342 -3.0932245 -3.0719676 -2.8829274
-3.0552723 -3.2259269 -2.9594042 -3.1579535 -3.0373275 -3.030839 -3.0129533 -3.008017
-3.0535905 -2.9202974 -2.8986797 -2.9436285 -3.0186794 -2.975821 -2.9320662 -2.9660125
-3.1343293 -2.9254746 -2.8632665 -3.1404657 -3.0716705 -2.9289706 -3.068444 -2.941163
-2.6665435 -3.0915422 -2.8880272 -2.894642 -2.9986515 -2.8784306 -2.9780052 -3.0843835
-2.9518282 -3.0690153 -2.927809 -3.1429324 -2.9878736 -2.9683876 -2.9810715 -2.9629798
-3.0322857 -3.016974 -3.0893178 -3.0328505 -3.0355465 -2.909079 -2.8064363 -2.8596823
-2.9142349 -3.0192802 -2.9694638 -2.8984406 -3.1069643 -3.187825 -2.961919 -3.1043978
-3.1142707 -2.9184241 -3.0324514 -3.056409 -3.1263056 -2.8321373 -2.9378364 -2.8640223
-3.0792387 -2.9826186 -3.0633729 -2.9667442 -2.9956276 -3.2234728 -3.0800471 -2.9019415
-2.9205256 -3.1796207 -2.8297591 -2.8720706 -2.9402106 -2.9195669 -2.9576156 -3.1420453
-3.0535824 -3.0975575 -2.912501 -2.962307 -2.951558 -2.9135933 -2.974812 -3.2136366
-2.8542702 -2.9335139 -2.8723462 -2.9759974 -2.943191 -2.9348278 -3.0102139 -3.017754
-2.9142904 -3.0474632 -3.0218775 -3.0916784 -3.1152744 -2.9495795 -2.882459 -2.9004776
-3.012375 -3.0690784 -2.839261 -2.9725246 -3.0369065 -3.0147903 -2.7541635 -3.1196465
-3.1582692 -2.9153008 -2.991357 -3.131147 -2.998783 -2.875691 -3.021549 -3.0389009
-2.8644025 -2.9270768 -2.9275713 -3.0047474 -3.0535686 -2.9095616 -2.9817924 -3.033637
-2.8823256 -2.8682997 -2.9498029 -2.9454784 -3.0235817 -3.0010874 -3.0561118 -2.941666
-2.8937616 -2.9627955 -2.854364 -2.969617 -3.0497942 -3.118031 -2.9300096 -2.7555323
-2.9771926 -2.9949749 -3.0716226 -3.034171 -2.9687212 -2.9028625 -3.046098 -3.132629
-3.1148975 -3.0265014 -3.094764 -2.910358 -2.9725778 -3.0129068 -2.8744593 -2.7383924
-2.9903328 -2.9074152 -3.0156872 -2.9614174 -2.9394913 -2.9971282 -3.0918164 -2.8975785
-3.0813398 -2.8320637 -3.086634 -3.018621 -2.8265445 -3.113004 -2.864807 -2.94948
-3.066463 -2.9462135 -3.0077398 -2.8873258 -3.178085 -3.005389 -2.9937875 -2.891286
-2.7996583 -2.9744675 -3.0457249 -3.0630133 -3.1564028 -3.048001 -3.0167117 -2.8833463
-3.0117385 -2.921457 -3.141819 -3.0484974 -3.245744 -2.9691164 -3.0392253 -3.0881164
00000000: 1e98 40c0 bee4 3ac0 1738 3fc0 9a1e 45c0
00000010: 4ac5 3bc0 36fd 45c0 456d 4ec0 0fe8 3dc0
00000020: 5a64 39c0 597f 36c0 4fa1 40c0 2ca1 38c0
00000030: 4f2f 38c0 e117 34c0 487e 49c0 0a79 56c0
00000040: a26f 41c0 8b91 3fc0 28e6 34c0 d8c8 45c0
00000050: 9bb7 43c0 a519 46c0 b606 42c0 a451 43c0
00000060: fa6f 3ec0 3c51 43c0 99d2 30c0 8278 38c0
00000070: 4935 3fc0 cf94 3bc0 dfaf 39c0 b684 40c0
00000080: aadc 46c0 ed0a 42c0 b0d9 47c0 6ba2 3dc0
00000090: e1d6 43c0 3df9 40c0 0206 38c0 3fd2 48c0
000000a0: e8be 3ac0 c775 3ac0 1934 39c0 dbb2 42c0
000000b0: 94c2 40c0 878e 3ac0 ff02 39c0 7be9 3dc0
000000c0: 2435 4fc0 0a56 41c0 e52f 36c0 dffe 36c0
000000d0: ad88 40c0 64f7 45c0 1e9b 44c0 e281 38c0
000000e0: 9589 43c0 9675 4ec0 e166 3dc0 e91b 4ac0
000000f0: 9363 42c0 44f9 41c0 3ad4 40c0 5a83 40c0
00000100: 076e 43c0 27e6 3ac0 f883 39c0 6964 3cc0
00000110: 0b32 41c0 da73 3ec0 f9a6 3bc0 26d3 3dc0
00000120: da98 48c0 fa3a 3bc0 c23f 37c0 64fd 48c0
00000130: 4096 44c0 4174 3bc0 6361 44c0 043c 3cc0
00000140: a6a8 2ac0 d4db 45c0 70d5 38c0 d141 39c0
00000150: e8e9 3fc0 3538 38c0 a397 3ec0 8a66 45c0
00000160: c1ea 3cc0 bf6a 44c0 3961 3bc0 ce25 49c0
00000170: 5239 3fc0 10fa 3dc0 e0c9 3ec0 76a1 3dc0
00000180: f810 42c0 1a16 41c0 62b7 45c0 391a 42c0
00000190: 6546 42c0 5a2e 3ac0 a79c 33c0 0905 37c0
000001a0: d382 3ac0 e33b 41c0 b20b 3ec0 0d80 39c0
000001b0: 81d8 46c0 5305 4cc0 1590 3dc0 74ae 46c0
000001c0: 3650 47c0 76c7 3ac0 af13 42c0 349c 43c0
000001d0: 6415 48c0 bd41 35c0 8305 3cc0 244c 37c0
000001e0: 3f12 45c0 39e3 3ec0 4d0e 44c0 23df 3dc0
000001f0: 5db8 3fc0 614d 4ec0 7e1f 45c0 69b9 39c0
00000200: e4e9 3ac0 e87e 4bc0 c61a 35c0 01d0 37c0
00000210: 692c 3cc0 2fda 3ac0 9349 3dc0 4517 49c0
00000220: e56d 43c0 623e 46c0 6b66 3ac0 7096 3dc0
00000230: 54e6 3cc0 5078 3ac0 5263 3ec0 39ac 4dc0
00000240: 5dac 36c0 b1be 3bc0 85d4 37c0 be76 3ec0
00000250: 3e5d 3cc0 38d4 3bc0 58a7 40c0 e222 41c0
00000260: bc83 3ac0 a309 43c0 7166 41c0 0fde 45c0
00000270: a860 47c0 e9c5 3cc0 357a 38c0 6da1 39c0
00000280: c1ca 40c0 c86b 44c0 74b6 35c0 d83d 3ec0
00000290: ad5c 42c0 53f2 40c0 3744 30c0 4aa8 47c0
000002a0: 1521 4ac0 4a94 3ac0 6572 3fc0 b664 48c0
000002b0: 10ec 3fc0 520b 38c0 0f61 41c0 5a7d 42c0
000002c0: 5f52 37c0 3a55 3bc0 545d 3bc0 c84d 40c0
000002d0: ab6d 43c0 4236 3ac0 b0d5 3ec0 1c27 42c0
000002e0: 0678 38c0 3992 37c0 92c9 3cc0 b882 3cc0
000002f0: 5d82 41c0 d111 40c0 5697 43c0 4144 3cc0
00000300: 6433 39c0 719e 3dc0 e6ad 36c0 340e 3ec0
00000310: d42f 43c0 d28d 47c0 4785 3bc0 a45a 30c0
00000320: 538a 3ec0 abad 3fc0 7795 44c0 dc2f 42c0
00000330: 87ff 3dc0 80c8 39c0 45f3 42c0 fe7c 48c0
00000340: 7b5a 47c0 33b2 41c0 9d10 46c0 4e43 3ac0
00000350: b73e 3ec0 77d3 40c0 24f7 37c0 d241 2fc0
00000360: 9d61 3fc0 1713 3ac0 0501 41c0 dd87 3dc0
00000370: a020 3cc0 f3d0 3fc0 52e0 45c0 ed71 39c0
00000380: ac34 45c0 8840 35c0 698b 45c0 1631 41c0
00000390: 1be6 34c0 753b 47c0 ff58 37c0 48c4 3cc0
000003a0: ee40 44c0 c38e 3cc0 cf7e 40c0 f2c9 38c0
000003b0: bf65 4bc0 4b58 40c0 379a 3fc0 d40a 39c0
000003c0: 9a2d 33c0 ad5d 3ec0 28ed 42c0 6908 44c0
000003d0: 8102 4ac0 7312 43c0 ce11 41c0 bf88 38c0
000003e0: 53c0 40c0 27f9 3ac0 9013 49c0 951a 43c0
000003f0: 45ba 4fc0 0106 3ec0 ab82 42c0 b3a3 45c0
