checkpoints_16_tasks/16_task_groups_PUGCL_epochs_:100_lr_:0.03_hidden_:600_task_order_:[ 5 13 14  3 15  7 12 10  6  0  1 11  2  9  4  8]/model_10.pth.tar (torch_old, 319485 bytes, 136 tensors)

l1.weight_mu f4 [600, 29]
000000 aa 20 0a 3e 25 9a 53 bd 54 73 a1 3c 06 99 04 be
       0.13489023 -0.051660676 0.019708313 -0.12948999
000010 27 54 cd 3d 50 a1 9a 3d ce b0 ae bb ab d3 08 3e
       0.100258164 0.07550299 -0.0053311354 0.13361995
000020 3c 54 0c 3e ad ed 27 3d d9 13 c1 bd 35 58 33 be
       0.13704008 0.04099815 -0.09427614 -0.17514117
000030 56 82 3b 3e c6 02 77 bd a7 ef 1c 3d 3e 2f f6 3d
       0.18311438 -0.06030538 0.038314488 0.120207295
000040 07 f3 f1 bd 74 ff 94 3d 5c 72 30 3d 1f 61 c2 bd
       -0.11813932 0.07275286 0.04307781 -0.09491181
000050 8f 1d 29 3d 71 d6 6a bd c4 22 3d 3d 92 39 c6 3d
       0.041287955 -0.057333414 0.046175733 0.096789494
000060 91 40 fc bb 56 6c 5e bd fc 39 de bd 80 90 61 3e
       -0.0076981266 -0.054302536 -0.108509034 0.22027779
000070 12 e5 af 3b c7 cd 69 bd a7 33 c4 3d c6 10 63 bd
       0.0053678835 -0.05708101 0.095801644 -0.05543592
000080 b5 d8 92 bc 39 ea ab 3c 2d 3c c2 bc be 4b 05 3b
       -0.0179256 0.02098571 -0.023710335 0.0020339335
000090 61 69 92 bc 71 57 17 be 7c 0a f6 3d 95 32 f1 3d
       -0.017872514 -0.1477945 0.120137185 0.11777226
0000a0 db 88 1d 3d cb 27 30 3c 3a bb 66 bb 6c 6c 42 3e
       0.038460594 0.010751675 -0.003520681 0.18986672
0000b0 5a 7f 86 bd 0e 94 02 be ac 47 90 bd ad 55 8e bc
       -0.06567259 -0.12751791 -0.0704492 -0.017374838
0000c0 66 44 91 3c 04 fe 72 3d d1 2d 38 3d 58 94 28 3e
       0.01773281 0.05932428 0.04496557 0.16462839
0000d0 58 2a 44 3d 68 80 9c bd c4 b3 fe 3d 5e ec b1 bc
       0.047891945 -0.07641679 0.12436631 -0.021719154
0000e0 d0 31 ce bd 9b 98 bc 3d 3f f2 69 be 2e 6a 6f bd
       -0.10068095 0.09208795 -0.22846316 -0.05845087
0000f0 1d db c8 bc 38 74 66 bc b2 d1 be 3c f6 5b e2 bd
       -0.024518544 -0.014065795 0.02329335 -0.110526964
000100 8d 50 35 3d 13 29 ca bb 7d 84 13 bd d7 5e 89 3c
       0.044266272 -0.006169447 -0.036015023 0.016768856
000110 d3 72 35 bd 3a 50 09 be c8 bb 91 bd e9 ca 1a be
       -0.044298958 -0.1340951 -0.071158946 -0.15116467
000120 af f7 09 3e 4c 3f 8b bd 60 bc 63 bd e8 0c 92 3d
       0.1347339 -0.06799182 -0.05559957 0.07131368
000130 ac ad b9 3d ea ea d1 3a 68 73 3f 3d 18 b4 06 3e
       0.090663284 0.0016015444 0.04674092 0.13154638
000140 9f 4a a4 3d 0e 05 aa bd bf a7 b2 bd f7 db 2f 3e
       0.08022045 -0.08301745 -0.08723401 0.17173754
000150 2a ed 53 3d 69 a2 63 3c dc 69 7e be 52 f9 c4 bd
       0.05173985 0.013893702 -0.2484507 -0.096178666
000160 25 8d b2 bc 13 c7 a9 3d 9f df 1e bb a3 26 70 3e
       -0.021795819 0.082899235 -0.0024242175 0.23452239
000170 df ab ff bd 6d f5 bb bd a4 cd 95 3d 79 99 83 bd
       -0.12483954 -0.09177671 0.073146135 -0.06425757
000180 32 64 e9 3d eb f1 43 3e 47 22 26 3d 59 43 43 bd
       0.11396064 0.19135253 0.040560033 -0.04767165
000190 b0 a0 2f 3e 05 e7 59 bb e1 5c 1c bd e1 c7 86 bc
       0.17151141 -0.003324927 -0.038174514 -0.016452732
0001a0 ce d8 94 bd 0a 41 08 3e 59 b6 64 3d 2e 63 1a be
       -0.07267915 0.1330606 0.055837963 -0.15076897
0001b0 fc e7 3d 3d 0e 8a 50 3d a1 c4 90 3d 59 c7 ab bd
       0.046363816 0.05091291 0.07068754 -0.08387632
0001c0 61 76 8c 3e 8f 16 eb 3d b7 93 84 bd fb a2 18 3e
       0.27434066 0.11478912 -0.06473487 0.14905922
0001d0 8a ca 81 3d 2b 13 21 3c 19 41 a6 3d d4 6b fb bb
       0.063374594 0.00983123 0.08117885 -0.007672766
0001e0 80 42 c4 bb 5e 3b fd b9 ca 5e 67 3b d4 13 b2 3c
       -0.0059893727 -0.00048300152 0.0035304301 0.02173797
0001f0 b4 32 ac bd 50 4a db 3d b8 bc ce bd 99 d3 a6 bc
       -0.08408108 0.10707533 -0.10094589 -0.02036457
000200 03 95 e1 3d bd f2 65 bc c3 1a 65 bc fb 42 07 be
       0.1101475 -0.014034924 -0.013983431 -0.13209145
000210 79 a2 b4 bc 83 a6 6b bc 89 ed d7 bd cf ce fb 3c
       -0.02205013 -0.014382961 -0.10543353 0.030738262
000220 41 1a 9f 3d f9 2a df 3d b7 aa 9a 3d 71 60 2a bd
       0.077686794 0.10896868 0.075520925 -0.04159588
000230 61 04 f3 bd c2 28 1b be 3c d4 2e 3d 4c ae 64 3d
       -0.118660696 -0.15152267 0.04268287 0.055830285
000240 25 89 45 bd 57 7e df bc 53 33 49 3d 8f 40 5d 3c
       -0.048226494 -0.027281923 0.049121212 0.0135041615
000250 10 32 6f 3d 03 54 97 bd 04 24 21 3d 26 30 d4 3c
       0.058397353 -0.07389071 0.039340988 0.025901865
000260 0a 22 81 3d 61 f3 7a bd 9e 32 f1 bd e2 af 57 3d
       0.063053206 -0.06126726 -0.117772326 0.05265797
000270 bc a4 3f 3e 68 95 47 bc 61 7d df 3d 2d 41 29 3d
       0.18715185 -0.012181617 0.10912586 0.041321922
000280 4d 1f 95 3d fc 9e e3 3d c2 ca ab bd dc 45 a0 3d
       0.07281361 0.11114308 -0.08388282 0.078258246
000290 22 9f a4 3c 16 37 bb 3d 86 7d 1e bd 3d f1 c4 bd
       0.020095412 0.09141366 -0.038693927 -0.09616325
0002a0 cf 39 a8 bd 7a cf e7 3d d8 6a fb bd 8a ae 59 bd
       -0.08214151 0.1131887 -0.12276238 -0.05314497
0002b0 8e d9 bc 3c 46 15 42 be 4f 57 21 ba da df 25 bd
       0.023052957 -0.18953428 -0.00061546726 -0.040496685
0002c0 e4 b3 67 bb 58 82 28 be 42 17 36 3d 3d ff 68 3d
       -0.0035355026 -0.16455972 0.044455774 0.05688404
0002d0 62 52 cd 3c fd 46 57 be e3 bf 7c 3c 49 37 c8 bc
       0.025063697 -0.21023174 0.015426609 -0.024440425
0002e0 3b be ae bd 73 47 64 3c 89 7e 96 bd b1 30 aa bd
       -0.08532377 0.01393305 -0.073483534 -0.083100684
0002f0 bd f9 7f bd 14 01 fc bd 8e 51 b6 3c ec 81 37 be
       -0.06249403 -0.12304893 0.022255685 -0.17920655
000300 83 28 ae 3c 9d ce 8d bd fc 24 de 3d 93 83 93 bc
       0.021259552 -0.06924174 0.10846898 -0.018007075
000310 b8 72 1e 3b 75 e5 51 bc dc 1b 1d bd 1a 6d 93 bd
       0.0024177264 -0.0128110545 -0.038356647 -0.07198544
000320 02 66 cc bb 2d a0 82 bd 4c 4d 2f 3d b1 1a 9a bc
       -0.006237746 -0.06378207 0.042798325 -0.018811556
000330 67 39 25 3d de c4 40 bd 35 bf 80 bc 50 cd 8e bc
       0.040337946 -0.047062747 -0.015716175 -0.017431885
000340 fa bf 9b bb b2 46 b4 3b dd 0a 60 3e 40 3b 16 bc
       -0.00475311 0.0055015916 0.21879144 -0.0091694
000350 76 19 80 bd 3d 3e c4 3d 2e 7c 21 3e 5c 1e 02 be
       -0.06254856 0.095821835 0.15770027 -0.12706894
000360 d4 3e a5 bc 39 74 4d be 07 0a 89 be bd 71 a3 3c
       -0.02017156 -0.20063867 -0.26765463 0.019951696
000370 0c 78 c7 bd 84 66 60 3c 38 53 16 3d 2f d8 cc bd
       -0.09739694 0.013696317 0.036700457 -0.10002171
000380 9d 97 19 3c fc 49 15 be 33 9e 89 3c c1 1c 41 3e
       0.009374526 -0.14579004 0.016799068 0.18858625
000390 32 0a 1d be 8e 90 64 3d 08 2e 8b bc 82 2f 4d 3d
       -0.1533592 0.05580192 -0.016989723 0.050094135
0003a0 84 22 b6 3d be 8d a9 bd a0 f8 0f bd 75 d3 89 bb
       0.08893302 -0.08278988 -0.035149217 -0.004206116
0003b0 3e 87 ac 3d 6a e4 04 bd f5 7e af 3d 56 07 e0 3c
       0.08424233 -0.032444395 0.08569137 0.027347248
0003c0 0d 3e 8a bd 76 26 e1 3d aa 18 c4 3b 3b 5b 28 3b
       -0.067501165 0.10993664 0.0059843855 0.0025689143
0003d0 0a 37 59 3d cf 48 0a 3d b3 6f 80 bc c7 d7 5c 3d
       0.053031005 0.033760842 -0.015678262 0.05391672
0003e0 4a 4d 7b 3d d7 e7 ea 3c 90 3e 1e bd f5 55 05 bd
       0.061353005 0.028675003 -0.038633883 -0.03255268
0003f0 8c d8 70 bd 83 d8 e3 bd 47 0a 99 bd 71 24 d9 bd
       -0.058800265 -0.11125281 -0.074726634 -0.10602654

l1.weight_rho f4 [600, 29]
000000 1f 89 43 c0 7a 8b 3e c0 bc 46 49 c0 ea 49 3f c0
       -3.0552442 -2.977263 -3.1449423 -2.9888864
000010 f0 54 3d c0 ad 79 3b c0 e4 fc 3d c0 fa 82 42 c0
       -2.9583092 -2.9293015 -2.9685602 -3.0392442
000020 2d f7 46 c0 10 e2 45 c0 17 0a 44 c0 4c 3e 41 c0
       -3.1088364 -3.0919228 -3.0631158 -3.0194273
000030 50 2d 42 c0 4c e2 3f c0 ea 1a 3e c0 33 e4 3a c0
       -3.0340157 -2.998187 -2.9703927 -2.9201782
000040 08 1a 46 c0 eb 33 35 c0 40 c4 40 c0 0f 58 38 c0
       -3.0953388 -2.8312938 -3.0119781 -2.8803747
000050 f3 83 38 c0 03 08 4b c0 a5 23 49 c0 98 9a 46 c0
       -2.8830535 -3.172364 -3.1428006 -3.1031857
000060 04 1b 40 c0 d2 07 48 c0 fc 14 41 c0 09 bb 38 c0
       -3.001649 -3.1254773 -3.0169058 -2.8864157
000070 4c 47 4c c0 c5 f6 40 c0 14 40 35 c0 83 79 42 c0
       -3.1918516 -3.0150616 -2.832036 -3.0386665
000080 d8 3b 3e c0 12 4a 30 c0 c9 7d 39 c0 a3 8f 42 c0
       -2.9724026 -2.754521 -2.8983023 -3.040017
000090 9b 77 47 c0 a4 2c 37 c0 f3 d6 3f c0 aa 19 31 c0
       -3.1166751 -2.8620996 -2.9974945 -2.7671914
0000a0 87 19 44 c0 ae 18 4b c0 ab 6b 3b c0 ca 0c 34 c0
       -3.064058 -3.1733813 -2.9284465 -2.8132806
0000b0 46 f9 42 c0 c7 ad 40 c0 4a fc 43 c0 97 c4 42 c0
       -3.0464644 -3.0106065 -3.0622735 -3.043249
0000c0 35 29 34 c0 71 ee 3c c0 1c 89 41 c0 be 41 42 c0
       -2.815015 -2.9520533 -3.0239935 -3.0352626
0000d0 79 23 3f c0 85 d3 41 c0 e2 ba 39 c0 3e f3 44 c0
       -2.98654 -3.0285351 -2.9020314 -3.0773463
0000e0 ad 3f 45 c0 20 ad 3b c0 51 70 32 c0 0d af 40 c0
       -3.0820115 -2.9324417 -2.7881052 -3.0106843
0000f0 43 82 3a c0 7a 91 3a c0 96 12 3f c0 2e 5e 47 c0
       -2.9142005 -2.9151292 -2.9855094 -3.1151233
000100 33 9b 49 c0 80 d2 4b c0 5e 26 36 c0 a7 bd 44 c0
       -3.1500976 -3.184723 -2.8460917 -3.0740755
000110 ae 0c 4d c0 f7 18 40 c0 9c 37 3f c0 8d 3d 4f c0
       -3.203899 -3.0015237 -2.9877691 -3.2381318
000120 20 40 46 c0 59 a6 42 c0 1b 87 3f c0 ba 1c 44 c0
       -3.0976639 -3.041403 -2.9926212 -3.0642533
000130 4b 48 44 c0 73 e6 36 c0 c2 97 4c c0 6d b3 34 c0
       -3.0669124 -2.8578155 -3.1967626 -2.8234513
000140 c7 0a 42 c0 0b 4c 44 c0 9b bc 3d c0 4c 14 3c c0
       -3.0319078 -3.0671413 -2.9646366 -2.9387388
000150 6a 8d 39 c0 c5 99 41 c0 2c a1 3e c0 1d 54 40 c0
       -2.8992562 -3.0250103 -2.9785872 -3.0051339
000160 19 c2 33 c0 fc b4 3d c0 92 60 43 c0 bf fe 3c c0
       -2.8087218 -2.9641714 -3.0527692 -2.9530485
000170 d1 b7 43 c0 1c dc 42 c0 76 0d 44 c0 7a fb 3e c0
       -3.0580943 -3.0446844 -3.0633216 -2.984099
000180 a2 c3 38 c0 94 f9 3d c0 f3 00 48 c0 9c f5 4a c0
       -2.8869405 -2.968358 -3.125058 -3.1712408
000190 e1 36 44 c0 69 09 44 c0 c5 e4 48 c0 da 50 40 c0
       -3.0658495 -3.0630744 -3.138963 -3.0049348
0001a0 06 02 49 c0 18 c9 3e c0 68 31 43 c0 c2 85 42 c0
       -3.1407485 -2.9810238 -3.0498905 -3.039414
0001b0 94 40 3a c0 47 d6 3e c0 45 db 45 c0 7f 33 33 c0
       -2.9101915 -2.9818285 -3.0915082 -2.800018
0001c0 3c d8 40 c0 48 7c 3f c0 b7 32 43 c0 b1 38 39 c0
       -3.013198 -2.9919605 -3.0499704 -2.8940852
0001d0 29 a5 4d c0 22 32 47 c0 f6 6a 42 c0 6c 41 46 c0
       -3.2132056 -3.1124349 -3.0377784 -3.097743
0001e0 11 a5 42 c0 51 55 3b c0 4d 16 43 c0 8b 2f 46 c0
       -3.0413249 -2.9270823 -3.0482361 -3.0966518
0001f0 ea 44 39 c0 6f d4 49 c0 95 d3 3e c0 13 52 35 c0
       -2.8948312 -3.153591 -2.981664 -2.8331344
000200 0d 14 39 c0 90 b2 3a c0 4b 5d 3d c0 90 5e 4a c0
       -2.8918488 -2.9171486 -2.9588192 -3.1620216
000210 11 f2 44 c0 9b 08 36 c0 ae b5 43 c0 b2 73 39 c0
       -3.0772746 -2.8442752 -3.0579638 -2.8976865
000220 df 94 3d c0 16 ec 43 c0 42 53 41 c0 7a 28 44 c0
       -2.9622114 -3.0612845 -3.0207067 -3.0649705
000230 a4 06 34 c0 c8 5a 47 c0 d1 53 2e c0 4a ef 49 c0
       -2.8129053 -3.1149158 -2.7238657 -3.15523
000240 5a 80 3f c0 84 3e 46 c0 8f 7f 39 c0 9a fc 49 c0
       -2.992209 -3.0975657 -2.8984106 -3.1560426
000250 3e 24 46 c0 de a1 48 c0 d9 7d 36 c0 8c cd 34 c0
       -3.095962 -3.1348796 -2.8514311 -2.8250456
000260 60 f5 3e c0 d2 8b 3b c0 f3 09 44 c0 2c 71 3b c0
       -2.9837265 -2.930409 -3.0631073 -2.9287825
000270 b2 c4 38 c0 39 fc 4f c0 ef a5 47 c0 b5 f8 41 c0
       -2.8870053 -3.2497694 -3.1195028 -3.0308049
000280 73 5e 43 c0 01 89 43 c0 81 69 47 c0 0a 29 45 c0
       -3.0526397 -3.055237 -3.1158144 -3.0806298
000290 97 07 39 c0 5f 35 3e c0 d3 cf 3f c0 07 7f 37 c0
       -2.8910882 -2.9720075 -2.9970596 -2.8671281
0002a0 cf 18 41 c0 43 d7 42 c0 15 cc 39 c0 72 30 47 c0
       -3.0171392 -3.0443885 -2.9030812 -3.1123319
0002b0 1e d4 3f c0 a1 86 41 c0 7a ed 3d c0 bc 60 3b c0
       -2.9973216 -3.023842 -2.9676194 -2.9277792
0002c0 01 05 41 c0 db 08 45 c0 9a 65 42 c0 57 1d 42 c0
       -3.0159304 -3.0786655 -3.0374513 -3.0330408
0002d0 84 23 46 c0 14 a5 43 c0 1a a3 39 c0 10 fb 38 c0
       -3.0959177 -3.0569506 -2.90058 -2.8903236
0002e0 a7 42 45 c0 ab 69 39 c0 5f 4d 3b c0 25 fb 45 c0
       -3.0821931 -2.8970745 -2.9265974 -3.0934536
0002f0 0b 68 46 c0 28 b0 4a c0 4f 71 43 c0 9f 02 42 c0
       -3.1001003 -3.1670017 -3.0537908 -3.03141
000300 a0 8b 3e c0 3b fe 31 c0 c3 2a 44 c0 97 c4 41 c0
       -2.977272 -2.781142 -3.06511 -3.027624
000310 bd 40 43 c0 d4 a3 4b c0 a9 2f 39 c0 5f 2d 3c c0
       -3.0508263 -3.1818743 -2.893534 -2.9402692
000320 d7 1e 3d c0 04 b3 41 c0 7d 0e 40 c0 5b e1 3e c0
       -2.9550073 -3.0265512 -3.0008843 -2.9825046
000330 20 bc 47 c0 fe 8f 42 c0 b8 21 48 c0 8e 6b 40 c0
       -3.1208572 -3.0400386 -3.127058 -3.0065646
000340 ba 3b 3d c0 2c 11 42 c0 6f 14 40 c0 64 b2 3b c0
       -2.9567704 -3.032298 -3.0012472 -2.932763
000350 d0 25 4f c0 e5 9b 49 c0 13 c6 40 c0 a4 40 45 c0
       -3.236683 -3.15014 -3.0120895 -3.0820704
000360 43 56 38 c0 8b 80 39 c0 b5 66 36 c0 2d 96 38 c0
       -2.880265 -2.8984706 -2.8500187 -2.884166
000370 b9 f2 3d c0 17 9d 3f c0 f3 10 3f c0 14 55 4d c0
       -2.9679396 -2.993963 -2.9854095 -3.2083178
000380 3b 07 46 c0 e1 70 41 c0 4d 70 3a c0 a4 c5 49 c0
       -3.0941913 -3.0225146 -2.9131043 -3.152688
000390 6e 7e 43 c0 a1 68 40 c0 44 61 36 c0 2b ec 40 c0
       -3.0545917 -3.006386 -2.8496866 -3.0144145
0003a0 46 50 3e c0 82 9e 3f c0 80 b9 3a c0 0c 19 4a c0
       -2.9736495 -2.9940495 -2.917572 -3.1577787
0003b0 91 81 3f c0 9a e1 3c c0 c5 8e 3c c0 41 d4 43 c0
       -2.992283 -2.9512696 -2.946214 -3.05983
0003c0 10 2b 37 c0 14 1e 41 c0 0e 95 40 c0 92 25 36 c0
       -2.8620033 -3.0174608 -3.0090976 -2.846043
0003d0 30 fb 41 c0 80 7a 42 c0 0d d7 38 c0 3e 14 4a c0
       -3.0309563 -3.0387268 -2.8881257 -3.1574855
0003e0 c3 fb 3c c0 3f 5b 41 c0 8a 76 47 c0 0b b2 42 c0
       -2.9528663 -3.0211942 -3.11661 -3.0421169
0003f0 6b 12 3c c0 cc f8 3b c0 18 f0 3c c0 e8 bc 3e c0
       -2.9386241 -2.9370604 -2.9521542 -2.98028

l1.bias_mu f4 [600]
000000 84 21 8e 3d 08 65 0d 3e 27 5a 03 3d bd 87 1c 3d
       0.06939986 0.13808072 0.032068398 0.038215388
000010 64 1e ef bd 4f 09 ec bd 83 bb 72 bd ec 1d 60 3b
       -0.116757184 -0.11525213 -0.059260856 0.0034197522
000020 cb 91 30 3d 6c 4f 0a 3e 7a a6 44 3e c4 a2 c8 3d
       0.04310779 0.1350686 0.19204131 0.0979667
000030 f7 1e 3a 3e 11 33 24 3e 15 e1 b4 bd 9d 69 73 3b
       0.18175875 0.16035105 -0.088319935 0.0037141808
000040 37 ee 51 be d5 3e bb 3d aa c5 45 bd bc 7b 61 bc
       -0.20501028 0.09142844 -0.04828421 -0.013762411
000050 3b f4 cd bb 29 eb ba 3c 2b da 56 3d 1d 0d d7 bd
       -0.006285218 0.022817211 0.052454155 -0.10500548
000060 14 91 70 be e6 d4 22 be 89 69 c3 3c 0e 30 4e 3d
       -0.23492843 -0.15901527 0.023854034 0.050338797
000070 4e f1 7e 3d 8d 26 63 3e 55 4c db bd 09 5c 6e 3d
       0.062241845 0.22182675 -0.107079186 0.05819324
000080 13 54 b3 bd 8f 0e b5 bc 86 e7 b0 bd 8a 9e 94 3d
       -0.0875627 -0.022101669 -0.086379096 0.072568014
000090 cd ea 3a bd 29 43 f7 bd d3 b2 74 3c ee 96 9d bd
       -0.04563408 -0.12073357 0.014935213 -0.07694803
0000a0 97 ab 6e bc f7 1f 41 bc e7 1e 49 3b 46 94 51 3d
       -0.014567277 -0.011787406 0.0030688585 0.051166795
0000b0 53 7e 64 bd 0e fb dc ba 62 07 72 be ad 46 df bc
       -0.055784535 -0.0016859488 -0.23635629 -0.02725538
0000c0 67 28 45 be 2c 7d 0f 3c 47 0c 30 bd 4e 69 58 bd
       -0.19253694 0.008757871 -0.04298046 -0.0528348
0000d0 01 23 f6 bc 14 d3 18 3e 38 81 15 3e ef 5a 88 3c
       -0.030045988 0.1492427 0.14600074 0.016644923
0000e0 4b fa 49 3e 98 d7 17 3d dc 83 62 3e c5 c3 fd bd
       0.19724385 0.03707084 0.22120613 -0.12390856
0000f0 a4 f7 08 bd 6c 9f 7b 3e 4f d8 2f 3e d1 e6 00 3e
       -0.033439294 0.24572533 0.17172359 0.1258805
000100 26 fd 0e be 98 2a 2d be da 56 e9 3d 13 29 0f be
       -0.13963756 -0.1691078 0.11393519 -0.13980512
000110 43 51 d1 3c ce a2 ae bc 65 0b b1 ba 8b 13 cc 3d
       0.025551444 -0.021317866 -0.0013507424 0.09964665
000120 c5 87 da 3c 87 32 a7 3b a2 f8 12 bc 61 42 b9 3c
       0.026676068 0.005102459 -0.0089704115 0.02261466
000130 69 ca ce bd 21 dc 09 3e 80 8f 9d 3d ae 38 ed 3d
       -0.100972004 0.13462879 0.07693386 0.115830764
000140 c9 15 06 3d 81 32 9f bc cc d8 d5 bd a3 2c fc bd
       0.03273562 -0.019433262 -0.10441741 -0.12313201
000150 7c b3 2a bc 6c 8c e6 3d aa 7e ee bc 6e 87 43 bd
       -0.010418769 0.11257252 -0.029113133 -0.047736578
000160 9e e3 b2 3c 7d bb 42 3d 43 96 43 3d 8d 53 c9 bd
       0.021837052 0.047542084 0.047750723 -0.09830389
000170 2f a7 df 3d 3a c5 18 3e 33 e6 74 bd a3 2a 73 be
       0.109205596 0.14918986 -0.059789848 -0.23746733
000180 e7 f6 c9 3c b2 42 bc 3d b9 6f 1f 3e 80 52 61 3d
       0.024653865 0.091924086 0.15569963 0.05501032
000190 09 88 71 3e ea f6 ac bd f0 51 87 bd 66 35 dc bd
       0.2358705 -0.084455326 -0.06607425 -0.107523724
0001a0 a6 f1 a5 3d 52 df 0e bd ed e3 36 bd 8f 45 0d bd
       0.081027314 -0.034880944 -0.04465096 -0.034490164
0001b0 d4 55 5f 3d 59 f2 0e be c5 e4 41 3b e1 5d ad 3d
       0.05452521 -0.13959636 0.002958582 0.084651716
0001c0 f3 79 34 3c 1e f3 b4 bd da 7d 4e be 6f fb 70 3e
       0.011015403 -0.088354334 -0.20165196 0.23533414
0001d0 db 9b 44 3e 44 9d 36 3d a8 b4 6a be 08 62 be 3c
       0.19200079 0.044583574 -0.22920477 0.023240104
0001e0 28 75 62 bc 8a 79 92 bd 0d 47 b8 3d 5c c2 40 bc
       -0.013821878 -0.07152088 0.08997927 -0.011765089
0001f0 0d ec 6a 3e 07 88 d9 bd bc ee 7f bd df c3 d9 bd
       0.22941609 -0.10621648 -0.062483534 -0.106330626
000200 39 47 36 bd aa e8 a8 3d a6 d4 8f 3d be d3 35 3e
       -0.044501517 0.08247502 0.07022981 0.17756554
000210 88 40 56 be 9f ca 94 3d 5e 5a 90 3d 14 f1 eb bd
       -0.20923054 0.072652094 0.07048486 -0.115205914
000220 89 a3 1e 3d a6 a9 af 3d 7e 0d 69 bd 03 7d 0c 3d
       0.038730178 0.0857728 -0.056897633 0.034298908
000230 f4 c0 c9 bd f1 fd 5c bd 95 c4 8d bd c9 d5 45 be
       -0.09851256 -0.053953115 -0.06922261 -0.19319834
000240 19 62 a8 bd 69 8f ad 3e 63 79 63 3d a5 91 98 3d
       -0.08221836 0.33898476 0.055535685 0.074496545
000250 5f b2 f7 3d 8d c2 8c bb 5a c8 bf 3d 92 06 ab 3d
       0.120945685 -0.004295653 0.09364386 0.083508626
000260 75 82 d3 bb 78 08 17 bd e7 66 12 3e 9b 5f 87 bd
       -0.0064547607 -0.03687331 0.14297067 -0.06610032
000270 44 d2 1e 3d 4b 84 51 3d a0 c8 72 3e c9 19 3d 3e
       0.038774744 0.051151555 0.23709345 0.18466868
000280 94 e4 b8 bd d5 11 11 be ff 10 6a bd b9 6f 15 bd
       -0.09027973 -0.14166959 -0.057145115 -0.0364835
000290 07 89 d6 bc f0 26 ea bd 33 01 8c bc 73 6b 4d bc
       -0.026188387 -0.11433208 -0.017090416 -0.012537825
0002a0 a7 52 7e 3d 3c 22 38 3d 79 38 79 3d 02 ab 2c bd
       0.062090542 0.044954523 0.060844872 -0.042155273
0002b0 3a 14 98 bc 19 b6 57 3e 4d 16 a0 bd fe 9c c9 bd
       -0.018564332 0.21065558 -0.078167535 -0.09844397
0002c0 79 c0 06 bd 2e 7e 71 3d bd b2 00 bc e2 d3 34 3d
       -0.0328984 0.058958225 -0.0078551145 0.04414738
0002d0 3c 40 34 bd 68 2e b8 3c d7 8e 00 bd b1 b6 85 3d
       -0.04400657 0.022483066 -0.031386223 0.06528986
0002e0 bd 2b e7 bd 9f 21 a9 3e f3 0b 79 bd e6 aa 1f 3e
       -0.11287639 0.33033463 -0.06080241 0.15592536
0002f0 4a 79 ec bc 4f 8a 8a 3d 5b d5 61 bd d5 93 aa bd
       -0.028866429 0.067646615 -0.055135112 -0.08328978
000300 e1 7d 15 bd 06 84 31 3d e1 ed 9a 3b 92 74 5a 3e
       -0.036497 0.043338798 0.0047280644 0.2133353
000310 76 45 c1 bd fa 0a a1 3d 7d 50 15 be 9a 8e ae bd
       -0.09437077 0.07863422 -0.14581485 -0.08523293
000320 56 75 30 be bd b0 5f bd 70 32 14 3e 10 73 dc 3c
       -0.1723226 -0.05461191 0.14472365 0.026910335
000330 e3 db 51 bd 15 50 93 bc c2 31 87 3d cd 9f a9 3d
       -0.05123509 -0.017982522 0.066012874 0.08282433
000340 17 9f bf 3d d7 cb 7f bc d6 7f 0a 3d 66 fc af bd
       0.09356516 -0.015612564 0.03381332 -0.08593063
000350 4d e1 41 bd 9d 6d 7c bd 68 f0 d4 3d 2e aa 80 3c
       -0.047334004 -0.061627973 0.10397416 0.015706148
000360 56 1b 52 bc 19 13 88 3c 85 35 43 ba 13 67 cd ba
       -0.0128239 0.016610669 -0.00074466347 -0.0015670977
000370 df 7a af bd 99 ca 0c 3d 0e 84 60 3d 7a 42 b0 bd
       -0.08568358 0.0343729 0.054813437 -0.086064294
000380 6e 87 b0 bc 03 54 9e bc 6f eb 59 bd 57 d0 f3 3d
       -0.021548953 -0.01932717 -0.053203043 0.11904972
000390 2e 38 13 3e 20 41 8c bb 80 12 3a be 0c e1 f6 3d
       0.143769 -0.0042802244 -0.1817112 0.12054643
0003a0 de f9 23 3e 5e bc 34 3c bb 05 03 be ad 1e e7 bd
       0.16013286 0.011031238 -0.12795155 -0.11285148
0003b0 77 ba 11 3e 63 d7 e5 3d a8 16 a0 3d 93 df a7 bd
       0.14231287 0.112227224 0.07816821 -0.0819694
0003c0 78 2a 43 bd 78 dc d5 bc c7 f6 40 bd a2 31 34 3e
       -0.047647923 -0.026106104 -0.047110345 0.17597058
0003d0 aa d6 69 bc 78 38 3f be 31 20 3d 3d b4 bf 1f 3d
       -0.014272371 -0.18673885 0.04617328 0.03900118
0003e0 a0 a8 82 be a1 90 67 3e 49 36 20 3d a6 bb 26 3c
       -0.25519276 0.22613765 0.03911427 0.010176575
0003f0 ae e4 8d 3b 6e bc ae 3e f5 57 1d be 94 a7 7e 3e
       0.0043302393 0.34128135 -0.15365584 0.24868613

l1.bias_rho f4 [600]
000000 52 4b 48 c0 63 3e 3f c0 a8 38 3f c0 4e dd 3e c0
       -3.1295972 -2.9881828 -2.987833 -2.9822574
000010 87 95 35 c0 6e 30 36 c0 5f 9a 39 c0 80 98 3e c0
       -2.8372514 -2.846706 -2.900047 -2.9780579
000020 07 8b 3b c0 ca 90 3d c0 2a 12 43 c0 2d 06 37 c0
       -2.9303606 -2.9619622 -3.0479836 -2.859752
000030 19 d0 3c c0 c8 57 46 c0 ee c4 4f c0 40 4a 40 c0
       -2.9502013 -3.0991077 -3.2463946 -3.0045319
000040 20 dc 40 c0 d6 6e 46 c0 2c 69 48 c0 df 10 3f c0
       -3.0134354 -3.100515 -3.1314192 -2.9854047
000050 f2 44 40 c0 a3 40 48 c0 fe b3 44 c0 f5 bb 3c c0
       -3.004208 -3.128945 -3.0734859 -2.948972
000060 85 80 43 c0 b0 40 44 c0 2d 12 3c c0 44 91 45 c0
       -3.0547192 -3.0664482 -2.9386094 -3.0869913
000070 e9 07 47 c0 77 6d 45 c0 ac 55 45 c0 05 aa 38 c0
       -3.1098578 -3.0848062 -3.083354 -2.8853772
000080 48 42 40 c0 ca fb 43 c0 e2 c1 46 c0 c2 2c 40 c0
       -3.0040455 -3.062243 -3.1055837 -3.0027318
000090 8d 74 32 c0 02 2b 45 c0 97 dd 3f c0 54 0c 44 c0
       -2.7883637 -3.08075 -2.9978998 -3.0632524
0000a0 d5 b6 3b c0 69 81 40 c0 5e 7e 43 c0 cb 0b 3f c0
       -2.9330342 -3.0078986 -3.0545878 -2.9850948
0000b0 34 bb 4a c0 59 d0 3d c0 d1 35 3a c0 21 e0 40 c0
       -3.167676 -2.9658415 -2.9095347 -3.0136797
0000c0 0f 86 47 c0 75 f1 42 c0 d9 46 3f c0 47 de 35 c0
       -3.1175573 -3.0459874 -2.9886992 -2.8416917
0000d0 c2 2c 38 c0 cd f3 3f c0 45 25 3a c0 17 c9 3a c0
       -2.8777318 -2.9992554 -2.9085248 -2.9185236
0000e0 1f 64 43 c0 c2 b0 49 c0 a7 6c 48 c0 59 97 3e c0
       -3.052986 -3.1514134 -3.1316316 -2.9779875
0000f0 df d5 39 c0 b8 b2 3d c0 92 4c 40 c0 96 54 43 c0
       -2.9036787 -2.9640331 -3.0046735 -3.0520377
000100 73 9a 45 c0 95 55 46 c0 28 31 3f c0 81 e6 3e c0
       -3.0875518 -3.0989735 -2.9873753 -2.9828188
000110 7e a3 48 c0 7e 4a 39 c0 31 1f 41 c0 20 3f 3c c0
       -3.1349788 -2.8951716 -3.0175288 -2.9413528
000120 f0 1e 42 c0 3d cd 4a c0 4b 9c 38 c0 64 2a 46 c0
       -3.0331383 -3.1687768 -2.8845394 -3.0963373
000130 83 d5 43 c0 18 28 43 c0 af 4d 44 c0 8d 02 38 c0
       -3.0599067 -3.0493221 -3.0672414 -2.8751557
000140 b1 eb 48 c0 e6 86 41 c0 b2 3d 3b c0 e1 4e 3f c0
       -3.1393855 -3.0238585 -2.9256406 -2.9891894
000150 2b 0a 3c c0 a8 f1 39 c0 34 d6 3d c0 f5 66 4c c0
       -2.9381206 -2.9053745 -2.966199 -3.193784
000160 98 23 43 c0 d1 71 3d c0 24 e8 39 c0 7f 35 40 c0
       -3.0490475 -2.9600718 -2.9047937 -3.0032651
000170 d0 60 41 c0 5a 18 42 c0 90 5e 3c c0 8a 07 47 c0
       -3.021534 -3.0327363 -2.9432716 -3.1098351
000180 06 6c 41 c0 24 65 3d c0 8d 2e 3d c0 03 89 40 c0
       -3.0222182 -2.9592981 -2.9559662 -3.0083625
000190 7b 27 36 c0 82 d6 46 c0 75 c1 31 c0 34 d2 42 c0
       -2.8461597 -3.1068425 -2.7774327 -3.0440798
0001a0 96 e7 43 c0 85 99 44 c0 bc 25 3a c0 49 0f 3b c0
       -3.06101 -3.07187 -2.9085531 -2.922808
0001b0 3c 16 36 c0 c9 a9 31 c0 00 5d 35 c0 21 64 46 c0
       -2.845107 -2.7759879 -2.8338013 -3.0998614
0001c0 bc 09 45 c0 b3 84 3e c0 12 96 3f c0 e6 c3 49 c0
       -3.0787191 -2.9768493 -2.9935346 -3.1525817
0001d0 a0 3a 38 c0 d0 a5 32 c0 53 76 43 c0 8d 44 3e c0
       -2.8785782 -2.7913704 -3.054097 -2.972934
0001e0 9d 25 40 c0 19 4f 43 c0 b8 94 37 c0 ca 91 37 c0
       -3.0022957 -3.0517027 -2.868452 -2.8682733
0001f0 28 12 3e c0 64 fc 30 c0 7d 68 3f c0 8a 3f 3c c0
       -2.9698582 -2.7654047 -2.9907525 -2.941378
000200 83 68 3e c0 0f 4f 37 c0 3c c7 3f c0 a4 ac 41 c0
       -2.975129 -2.8642004 -2.9965353 -3.0261621
000210 d4 f1 44 c0 0f c1 46 c0 c6 ef 42 c0 e6 42 35 c0
       -3.07726 -3.1055334 -3.0458846 -2.8322082
000220 3a b7 40 c0 f4 60 40 c0 ed ea 3c c0 e5 b0 41 c0
       -3.0111833 -3.0059175 -2.9518387 -3.0264218
000230 e6 e6 41 c0 7d 5c 42 c0 bb f3 37 c0 78 af 40 c0
       -3.029718 -3.036895 -2.8742511 -3.0107098
000240 26 2d 41 c0 72 80 41 c0 b1 6a 47 c0 f4 6a 42 c0
       -3.0183806 -3.0234647 -3.115887 -3.037778
000250 9b 9e 48 c0 10 29 44 c0 2e 57 44 c0 76 fc 3c c0
       -3.1346805 -3.0650063 -3.067821 -2.952909
000260 41 c6 3d c0 60 0b 40 c0 23 9d 40 c0 fa 98 31 c0
       -2.9652255 -3.0006943 -3.0095909 -2.774962
000270 99 38 3f c0 eb 36 43 c0 e6 6a 39 c0 b2 72 43 c0
       -2.9878294 -3.050227 -2.8971496 -3.0538754
000280 cc fd 3e c0 8b e6 42 c0 07 b5 2f c0 2b 72 3b c0
       -2.9842405 -3.0453212 -2.745424 -2.9288433
000290 a0 7e 49 c0 57 7a 35 c0 40 86 3f c0 ff a5 3f c0
       -3.1483536 -2.835592 -2.992569 -2.9945066
0002a0 f8 f7 49 c0 90 6b 36 c0 6d 5c 49 c0 e5 9b 42 c0
       -3.1557598 -2.850315 -3.1462662 -3.040765
0002b0 ab 0f 45 c0 56 a0 46 c0 f5 47 3c c0 b1 a9 38 c0
       -3.0790813 -3.1035361 -2.941892 -2.8853571
0002c0 fb a8 3b c0 1c a4 42 c0 62 49 45 c0 c3 fa 44 c0
       -2.9321887 -3.0412664 -3.082604 -3.0778053
0002d0 ac 21 4a c0 3b 3a 37 c0 9a 94 40 c0 ab 8e 3f c0
       -3.1583052 -2.862929 -3.00907 -2.9930828
0002e0 25 4c 34 c0 0a 3f 46 c0 35 f7 3d c0 19 df 3e c0
       -2.8171475 -3.0975976 -2.9682133 -2.9823668
0002f0 01 c8 3b c0 c8 be 32 c0 df aa 41 c0 59 b6 3d c0
       -2.9340823 -2.7928944 -3.0260541 -2.9642546
000300 4d 31 46 c0 1a 3b 44 c0 d2 69 41 c0 dc b6 3f c0
       -3.096759 -3.0661073 -3.0220838 -2.9955359
000310 1d 11 3d c0 06 f2 3d c0 67 5f 3c c0 b5 82 44 c0
       -2.9541695 -2.967897 -2.943323 -3.0704777
000320 d0 48 36 c0 86 97 3b c0 3d 72 4b c0 56 82 42 c0
       -2.8481941 -2.9311233 -3.1788476 -3.039205
000330 72 4b 36 c0 e3 70 40 c0 f6 3c 46 c0 78 da 45 c0
       -2.8483548 -3.00689 -3.0974708 -3.0914593
000340 fe 9b 4e c0 70 ea 34 c0 6b b7 46 c0 3c 9e 3e c0
       -3.228271 -2.826809 -3.104945 -2.9784079
000350 3d 33 4c c0 91 93 49 c0 4d 57 41 c0 ce 44 42 c0
       -3.1906273 -3.1496317 -3.0209534 -3.0354495
000360 98 22 37 c0 aa 7e 45 c0 25 5e 3d c0 d0 2c 46 c0
       -2.8614864 -3.085856 -2.9588711 -3.0964851
000370 cc 42 3c c0 48 94 43 c0 47 21 44 c0 19 4c 43 c0
       -2.941577 -3.0559254 -3.064531 -3.0515196
000380 77 60 3b c0 e5 32 35 c0 0f 5a 51 c0 12 ed 3d c0
       -2.9277627 -2.8312314 -3.2711217 -2.9675946
000390 79 cd 40 c0 2b 66 3d c0 35 5f 40 c0 e6 60 47 c0
       -3.012541 -2.9593608 -3.005811 -3.1152892
0003a0 0f 9f 42 c0 c2 4f 3f c0 4a 03 39 c0 8b 3e 3d c0
       -3.0409582 -2.989243 -2.8908257 -2.9569423
0003b0 36 23 31 c0 75 c3 47 c0 65 24 49 c0 6d b7 40 c0
       -2.767774 -3.1213048 -3.1428463 -3.0111954
0003c0 a6 bc 40 c0 c9 58 41 c0 c3 33 45 c0 fa a7 48 c0
       -3.0115142 -3.021044 -3.0812843 -3.1352525
0003d0 49 23 3c c0 3e ac 49 c0 36 92 3f c0 b5 33 44 c0
       -2.9396536 -3.1511378 -2.993299 -3.065656
0003e0 88 f3 44 c0 70 cc 43 c0 c8 61 3c c0 e5 63 3a c0
       -3.077364 -3.0593529 -2.943468 -2.912347
0003f0 d8 54 36 c0 33 f6 44 c0 44 57 41 c0 36 25 42 c0
       -2.8489285 -3.0775268 -3.0209513 -3.0335212

l1.weight.mu f4 [600, 29]
000000 aa 20 0a 3e 25 9a 53 bd 54 73 a1 3c 06 99 04 be
       0.13489023 -0.051660676 0.019708313 -0.12948999
000010 27 54 cd 3d 50 a1 9a 3d ce b0 ae bb ab d3 08 3e
       0.100258164 0.07550299 -0.0053311354 0.13361995
000020 3c 54 0c 3e ad ed 27 3d d9 13 c1 bd 35 58 33 be
       0.13704008 0.04099815 -0.09427614 -0.17514117
000030 56 82 3b 3e c6 02 77 bd a7 ef 1c 3d 3e 2f f6 3d
       0.18311438 -0.06030538 0.038314488 0.120207295
000040 07 f3 f1 bd 74 ff 94 3d 5c 72 30 3d 1f 61 c2 bd
       -0.11813932 0.07275286 0.04307781 -0.09491181
000050 8f 1d 29 3d 71 d6 6a bd c4 22 3d 3d 92 39 c6 3d
       0.041287955 -0.057333414 0.046175733 0.096789494
000060 91 40 fc bb 56 6c 5e bd fc 39 de bd 80 90 61 3e
       -0.0076981266 -0.054302536 -0.108509034 0.22027779
000070 12 e5 af 3b c7 cd 69 bd a7 33 c4 3d c6 10 63 bd
       0.0053678835 -0.05708101 0.095801644 -0.05543592
000080 b5 d8 92 bc 39 ea ab 3c 2d 3c c2 bc be 4b 05 3b
       -0.0179256 0.02098571 -0.023710335 0.0020339335
000090 61 69 92 bc 71 57 17 be 7c 0a f6 3d 95 32 f1 3d
       -0.017872514 -0.1477945 0.120137185 0.11777226
0000a0 db 88 1d 3d cb 27 30 3c 3a bb 66 bb 6c 6c 42 3e
       0.038460594 0.010751675 -0.003520681 0.18986672
0000b0 5a 7f 86 bd 0e 94 02 be ac 47 90 bd ad 55 8e bc
       -0.06567259 -0.12751791 -0.0704492 -0.017374838
0000c0 66 44 91 3c 04 fe 72 3d d1 2d 38 3d 58 94 28 3e
       0.01773281 0.05932428 0.04496557 0.16462839
0000d0 58 2a 44 3d 68 80 9c bd c4 b3 fe 3d 5e ec b1 bc
       0.047891945 -0.07641679 0.12436631 -0.021719154
0000e0 d0 31 ce bd 9b 98 bc 3d 3f f2 69 be 2e 6a 6f bd
       -0.10068095 0.09208795 -0.22846316 -0.05845087
0000f0 1d db c8 bc 38 74 66 bc b2 d1 be 3c f6 5b e2 bd
       -0.024518544 -0.014065795 0.02329335 -0.110526964
000100 8d 50 35 3d 13 29 ca bb 7d 84 13 bd d7 5e 89 3c
       0.044266272 -0.006169447 -0.036015023 0.016768856
000110 d3 72 35 bd 3a 50 09 be c8 bb 91 bd e9 ca 1a be
       -0.044298958 -0.1340951 -0.071158946 -0.15116467
000120 af f7 09 3e 4c 3f 8b bd 60 bc 63 bd e8 0c 92 3d
       0.1347339 -0.06799182 -0.05559957 0.07131368
000130 ac ad b9 3d ea ea d1 3a 68 73 3f 3d 18 b4 06 3e
       0.090663284 0.0016015444 0.04674092 0.13154638
000140 9f 4a a4 3d 0e 05 aa bd bf a7 b2 bd f7 db 2f 3e
       0.08022045 -0.08301745 -0.08723401 0.17173754
000150 2a ed 53 3d 69 a2 63 3c dc 69 7e be 52 f9 c4 bd
       0.05173985 0.013893702 -0.2484507 -0.096178666
000160 25 8d b2 bc 13 c7 a9 3d 9f df 1e bb a3 26 70 3e
       -0.021795819 0.082899235 -0.0024242175 0.23452239
000170 df ab ff bd 6d f5 bb bd a4 cd 95 3d 79 99 83 bd
       -0.12483954 -0.09177671 0.073146135 -0.06425757
000180 32 64 e9 3d eb f1 43 3e 47 22 26 3d 59 43 43 bd
       0.11396064 0.19135253 0.040560033 -0.04767165
000190 b0 a0 2f 3e 05 e7 59 bb e1 5c 1c bd e1 c7 86 bc
       0.17151141 -0.003324927 -0.038174514 -0.016452732
0001a0 ce d8 94 bd 0a 41 08 3e 59 b6 64 3d 2e 63 1a be
       -0.07267915 0.1330606 0.055837963 -0.15076897
0001b0 fc e7 3d 3d 0e 8a 50 3d a1 c4 90 3d 59 c7 ab bd
       0.046363816 0.05091291 0.07068754 -0.08387632
0001c0 61 76 8c 3e 8f 16 eb 3d b7 93 84 bd fb a2 18 3e
       0.27434066 0.11478912 -0.06473487 0.14905922
0001d0 8a ca 81 3d 2b 13 21 3c 19 41 a6 3d d4 6b fb bb
       0.063374594 0.00983123 0.08117885 -0.007672766
0001e0 80 42 c4 bb 5e 3b fd b9 ca 5e 67 3b d4 13 b2 3c
       -0.0059893727 -0.00048300152 0.0035304301 0.02173797
0001f0 b4 32 ac bd 50 4a db 3d b8 bc ce bd 99 d3 a6 bc
       -0.08408108 0.10707533 -0.10094589 -0.02036457
000200 03 95 e1 3d bd f2 65 bc c3 1a 65 bc fb 42 07 be
       0.1101475 -0.014034924 -0.013983431 -0.13209145
000210 79 a2 b4 bc 83 a6 6b bc 89 ed d7 bd cf ce fb 3c
       -0.02205013 -0.014382961 -0.10543353 0.030738262
000220 41 1a 9f 3d f9 2a df 3d b7 aa 9a 3d 71 60 2a bd
       0.077686794 0.10896868 0.075520925 -0.04159588
000230 61 04 f3 bd c2 28 1b be 3c d4 2e 3d 4c ae 64 3d
       -0.118660696 -0.15152267 0.04268287 0.055830285
000240 25 89 45 bd 57 7e df bc 53 33 49 3d 8f 40 5d 3c
       -0.048226494 -0.027281923 0.049121212 0.0135041615
000250 10 32 6f 3d 03 54 97 bd 04 24 21 3d 26 30 d4 3c
       0.058397353 -0.07389071 0.039340988 0.025901865
000260 0a 22 81 3d 61 f3 7a bd 9e 32 f1 bd e2 af 57 3d
       0.063053206 -0.06126726 -0.117772326 0.05265797
000270 bc a4 3f 3e 68 95 47 bc 61 7d df 3d 2d 41 29 3d
       0.18715185 -0.012181617 0.10912586 0.041321922
000280 4d 1f 95 3d fc 9e e3 3d c2 ca ab bd dc 45 a0 3d
       0.07281361 0.11114308 -0.08388282 0.078258246
000290 22 9f a4 3c 16 37 bb 3d 86 7d 1e bd 3d f1 c4 bd
       0.020095412 0.09141366 -0.038693927 -0.09616325
0002a0 cf 39 a8 bd 7a cf e7 3d d8 6a fb bd 8a ae 59 bd
       -0.08214151 0.1131887 -0.12276238 -0.05314497
0002b0 8e d9 bc 3c 46 15 42 be 4f 57 21 ba da df 25 bd
       0.023052957 -0.18953428 -0.00061546726 -0.040496685
0002c0 e4 b3 67 bb 58 82 28 be 42 17 36 3d 3d ff 68 3d
       -0.0035355026 -0.16455972 0.044455774 0.05688404
0002d0 62 52 cd 3c fd 46 57 be e3 bf 7c 3c 49 37 c8 bc
       0.025063697 -0.21023174 0.015426609 -0.024440425
0002e0 3b be ae bd 73 47 64 3c 89 7e 96 bd b1 30 aa bd
       -0.08532377 0.01393305 -0.073483534 -0.083100684
0002f0 bd f9 7f bd 14 01 fc bd 8e 51 b6 3c ec 81 37 be
       -0.06249403 -0.12304893 0.022255685 -0.17920655
000300 83 28 ae 3c 9d ce 8d bd fc 24 de 3d 93 83 93 bc
       0.021259552 -0.06924174 0.10846898 -0.018007075
000310 b8 72 1e 3b 75 e5 51 bc dc 1b 1d bd 1a 6d 93 bd
       0.0024177264 -0.0128110545 -0.038356647 -0.07198544
000320 02 66 cc bb 2d a0 82 bd 4c 4d 2f 3d b1 1a 9a bc
       -0.006237746 -0.06378207 0.042798325 -0.018811556
000330 67 39 25 3d de c4 40 bd 35 bf 80 bc 50 cd 8e bc
       0.040337946 -0.047062747 -0.015716175 -0.017431885
000340 fa bf 9b bb b2 46 b4 3b dd 0a 60 3e 40 3b 16 bc
       -0.00475311 0.0055015916 0.21879144 -0.0091694
000350 76 19 80 bd 3d 3e c4 3d 2e 7c 21 3e 5c 1e 02 be
       -0.06254856 0.095821835 0.15770027 -0.12706894
000360 d4 3e a5 bc 39 74 4d be 07 0a 89 be bd 71 a3 3c
       -0.02017156 -0.20063867 -0.26765463 0.019951696
000370 0c 78 c7 bd 84 66 60 3c 38 53 16 3d 2f d8 cc bd
       -0.09739694 0.013696317 0.036700457 -0.10002171
000380 9d 97 19 3c fc 49 15 be 33 9e 89 3c c1 1c 41 3e
       0.009374526 -0.14579004 0.016799068 0.18858625
000390 32 0a 1d be 8e 90 64 3d 08 2e 8b bc 82 2f 4d 3d
       -0.1533592 0.05580192 -0.016989723 0.050094135
0003a0 84 22 b6 3d be 8d a9 bd a0 f8 0f bd 75 d3 89 bb
       0.08893302 -0.08278988 -0.035149217 -0.004206116
0003b0 3e 87 ac 3d 6a e4 04 bd f5 7e af 3d 56 07 e0 3c
       0.08424233 -0.032444395 0.08569137 0.027347248
0003c0 0d 3e 8a bd 76 26 e1 3d aa 18 c4 3b 3b 5b 28 3b
       -0.067501165 0.10993664 0.0059843855 0.0025689143
0003d0 0a 37 59 3d cf 48 0a 3d b3 6f 80 bc c7 d7 5c 3d
       0.053031005 0.033760842 -0.015678262 0.05391672
0003e0 4a 4d 7b 3d d7 e7 ea 3c 90 3e 1e bd f5 55 05 bd
       0.061353005 0.028675003 -0.038633883 -0.03255268
0003f0 8c d8 70 bd 83 d8 e3 bd 47 0a 99 bd 71 24 d9 bd
       -0.058800265 -0.11125281 -0.074726634 -0.10602654

l1.weight.rho f4 [600, 29]
000000 1f 89 43 c0 7a 8b 3e c0 bc 46 49 c0 ea 49 3f c0
       -3.0552442 -2.977263 -3.1449423 -2.9888864
000010 f0 54 3d c0 ad 79 3b c0 e4 fc 3d c0 fa 82 42 c0
       -2.9583092 -2.9293015 -2.9685602 -3.0392442
000020 2d f7 46 c0 10 e2 45 c0 17 0a 44 c0 4c 3e 41 c0
       -3.1088364 -3.0919228 -3.0631158 -3.0194273
000030 50 2d 42 c0 4c e2 3f c0 ea 1a 3e c0 33 e4 3a c0
       -3.0340157 -2.998187 -2.9703927 -2.9201782
000040 08 1a 46 c0 eb 33 35 c0 40 c4 40 c0 0f 58 38 c0
       -3.0953388 -2.8312938 -3.0119781 -2.8803747
000050 f3 83 38 c0 03 08 4b c0 a5 23 49 c0 98 9a 46 c0
       -2.8830535 -3.172364 -3.1428006 -3.1031857
000060 04 1b 40 c0 d2 07 48 c0 fc 14 41 c0 09 bb 38 c0
       -3.001649 -3.1254773 -3.0169058 -2.8864157
000070 4c 47 4c c0 c5 f6 40 c0 14 40 35 c0 83 79 42 c0
       -3.1918516 -3.0150616 -2.832036 -3.0386665
000080 d8 3b 3e c0 12 4a 30 c0 c9 7d 39 c0 a3 8f 42 c0
       -2.9724026 -2.754521 -2.8983023 -3.040017
000090 9b 77 47 c0 a4 2c 37 c0 f3 d6 3f c0 aa 19 31 c0
       -3.1166751 -2.8620996 -2.9974945 -2.7671914
0000a0 87 19 44 c0 ae 18 4b c0 ab 6b 3b c0 ca 0c 34 c0
       -3.064058 -3.1733813 -2.9284465 -2.8132806
0000b0 46 f9 42 c0 c7 ad 40 c0 4a fc 43 c0 97 c4 42 c0
       -3.0464644 -3.0106065 -3.0622735 -3.043249
0000c0 35 29 34 c0 71 ee 3c c0 1c 89 41 c0 be 41 42 c0
       -2.815015 -2.9520533 -3.0239935 -3.0352626
0000d0 79 23 3f c0 85 d3 41 c0 e2 ba 39 c0 3e f3 44 c0
       -2.98654 -3.0285351 -2.9020314 -3.0773463
0000e0 ad 3f 45 c0 20 ad 3b c0 51 70 32 c0 0d af 40 c0
       -3.0820115 -2.9324417 -2.7881052 -3.0106843
0000f0 43 82 3a c0 7a 91 3a c0 96 12 3f c0 2e 5e 47 c0
       -2.9142005 -2.9151292 -2.9855094 -3.1151233
000100 33 9b 49 c0 80 d2 4b c0 5e 26 36 c0 a7 bd 44 c0
       -3.1500976 -3.184723 -2.8460917 -3.0740755
000110 ae 0c 4d c0 f7 18 40 c0 9c 37 3f c0 8d 3d 4f c0
       -3.203899 -3.0015237 -2.9877691 -3.2381318
000120 20 40 46 c0 59 a6 42 c0 1b 87 3f c0 ba 1c 44 c0
       -3.0976639 -3.041403 -2.9926212 -3.0642533
000130 4b 48 44 c0 73 e6 36 c0 c2 97 4c c0 6d b3 34 c0
       -3.0669124 -2.8578155 -3.1967626 -2.8234513
000140 c7 0a 42 c0 0b 4c 44 c0 9b bc 3d c0 4c 14 3c c0
       -3.0319078 -3.0671413 -2.9646366 -2.9387388
000150 6a 8d 39 c0 c5 99 41 c0 2c a1 3e c0 1d 54 40 c0
       -2.8992562 -3.0250103 -2.9785872 -3.0051339
000160 19 c2 33 c0 fc b4 3d c0 92 60 43 c0 bf fe 3c c0
       -2.8087218 -2.9641714 -3.0527692 -2.9530485
000170 d1 b7 43 c0 1c dc 42 c0 76 0d 44 c0 7a fb 3e c0
       -3.0580943 -3.0446844 -3.0633216 -2.984099
000180 a2 c3 38 c0 94 f9 3d c0 f3 00 48 c0 9c f5 4a c0
       -2.8869405 -2.968358 -3.125058 -3.1712408
000190 e1 36 44 c0 69 09 44 c0 c5 e4 48 c0 da 50 40 c0
       -3.0658495 -3.0630744 -3.138963 -3.0049348
0001a0 06 02 49 c0 18 c9 3e c0 68 31 43 c0 c2 85 42 c0
       -3.1407485 -2.9810238 -3.0498905 -3.039414
0001b0 94 40 3a c0 47 d6 3e c0 45 db 45 c0 7f 33 33 c0
       -2.9101915 -2.9818285 -3.0915082 -2.800018
0001c0 3c d8 40 c0 48 7c 3f c0 b7 32 43 c0 b1 38 39 c0
       -3.013198 -2.9919605 -3.0499704 -2.8940852
0001d0 29 a5 4d c0 22 32 47 c0 f6 6a 42 c0 6c 41 46 c0
       -3.2132056 -3.1124349 -3.0377784 -3.097743
0001e0 11 a5 42 c0 51 55 3b c0 4d 16 43 c0 8b 2f 46 c0
       -3.0413249 -2.9270823 -3.0482361 -3.0966518
0001f0 ea 44 39 c0 6f d4 49 c0 95 d3 3e c0 13 52 35 c0
       -2.8948312 -3.153591 -2.981664 -2.8331344
000200 0d 14 39 c0 90 b2 3a c0 4b 5d 3d c0 90 5e 4a c0
       -2.8918488 -2.9171486 -2.9588192 -3.1620216
000210 11 f2 44 c0 9b 08 36 c0 ae b5 43 c0 b2 73 39 c0
       -3.0772746 -2.8442752 -3.0579638 -2.8976865
000220 df 94 3d c0 16 ec 43 c0 42 53 41 c0 7a 28 44 c0
       -2.9622114 -3.0612845 -3.0207067 -3.0649705
000230 a4 06 34 c0 c8 5a 47 c0 d1 53 2e c0 4a ef 49 c0
       -2.8129053 -3.1149158 -2.7238657 -3.15523
000240 5a 80 3f c0 84 3e 46 c0 8f 7f 39 c0 9a fc 49 c0
       -2.992209 -3.0975657 -2.8984106 -3.1560426
000250 3e 24 46 c0 de a1 48 c0 d9 7d 36 c0 8c cd 34 c0
       -3.095962 -3.1348796 -2.8514311 -2.8250456
000260 60 f5 3e c0 d2 8b 3b c0 f3 09 44 c0 2c 71 3b c0
       -2.9837265 -2.930409 -3.0631073 -2.9287825
000270 b2 c4 38 c0 39 fc 4f c0 ef a5 47 c0 b5 f8 41 c0
       -2.8870053 -3.2497694 -3.1195028 -3.0308049
000280 73 5e 43 c0 01 89 43 c0 81 69 47 c0 0a 29 45 c0
       -3.0526397 -3.055237 -3.1158144 -3.0806298
000290 97 07 39 c0 5f 35 3e c0 d3 cf 3f c0 07 7f 37 c0
       -2.8910882 -2.9720075 -2.9970596 -2.8671281
0002a0 cf 18 41 c0 43 d7 42 c0 15 cc 39 c0 72 30 47 c0
       -3.0171392 -3.0443885 -2.9030812 -3.1123319
0002b0 1e d4 3f c0 a1 86 41 c0 7a ed 3d c0 bc 60 3b c0
       -2.9973216 -3.023842 -2.9676194 -2.9277792
0002c0 01 05 41 c0 db 08 45 c0 9a 65 42 c0 57 1d 42 c0
       -3.0159304 -3.0786655 -3.0374513 -3.0330408
0002d0 84 23 46 c0 14 a5 43 c0 1a a3 39 c0 10 fb 38 c0
       -3.0959177 -3.0569506 -2.90058 -2.8903236
0002e0 a7 42 45 c0 ab 69 39 c0 5f 4d 3b c0 25 fb 45 c0
       -3.0821931 -2.8970745 -2.9265974 -3.0934536
0002f0 0b 68 46 c0 28 b0 4a c0 4f 71 43 c0 9f 02 42 c0
       -3.1001003 -3.1670017 -3.0537908 -3.03141
000300 a0 8b 3e c0 3b fe 31 c0 c3 2a 44 c0 97 c4 41 c0
       -2.977272 -2.781142 -3.06511 -3.027624
000310 bd 40 43 c0 d4 a3 4b c0 a9 2f 39 c0 5f 2d 3c c0
       -3.0508263 -3.1818743 -2.893534 -2.9402692
000320 d7 1e 3d c0 04 b3 41 c0 7d 0e 40 c0 5b e1 3e c0
       -2.9550073 -3.0265512 -3.0008843 -2.9825046
000330 20 bc 47 c0 fe 8f 42 c0 b8 21 48 c0 8e 6b 40 c0
       -3.1208572 -3.0400386 -3.127058 -3.0065646
000340 ba 3b 3d c0 2c 11 42 c0 6f 14 40 c0 64 b2 3b c0
       -2.9567704 -3.032298 -3.0012472 -2.932763
000350 d0 25 4f c0 e5 9b 49 c0 13 c6 40 c0 a4 40 45 c0
       -3.236683 -3.15014 -3.0120895 -3.0820704
000360 43 56 38 c0 8b 80 39 c0 b5 66 36 c0 2d 96 38 c0
       -2.880265 -2.8984706 -2.8500187 -2.884166
000370 b9 f2 3d c0 17 9d 3f c0 f3 10 3f c0 14 55 4d c0
       -2.9679396 -2.993963 -2.9854095 -3.2083178
000380 3b 07 46 c0 e1 70 41 c0 4d 70 3a c0 a4 c5 49 c0
       -3.0941913 -3.0225146 -2.9131043 -3.152688
000390 6e 7e 43 c0 a1 68 40 c0 44 61 36 c0 2b ec 40 c0
       -3.0545917 -3.006386 -2.8496866 -3.0144145
0003a0 46 50 3e c0 82 9e 3f c0 80 b9 3a c0 0c 19 4a c0
       -2.9736495 -2.9940495 -2.917572 -3.1577787
0003b0 91 81 3f c0 9a e1 3c c0 c5 8e 3c c0 41 d4 43 c0
       -2.992283 -2.9512696 -2.946214 -3.05983
0003c0 10 2b 37 c0 14 1e 41 c0 0e 95 40 c0 92 25 36 c0
       -2.8620033 -3.0174608 -3.0090976 -2.846043
0003d0 30 fb 41 c0 80 7a 42 c0 0d d7 38 c0 3e 14 4a c0
       -3.0309563 -3.0387268 -2.8881257 -3.1574855
0003e0 c3 fb 3c c0 3f 5b 41 c0 8a 76 47 c0 0b b2 42 c0
       -2.9528663 -3.0211942 -3.11661 -3.0421169
0003f0 6b 12 3c c0 cc f8 3b c0 18 f0 3c c0 e8 bc 3e c0
       -2.9386241 -2.9370604 -2.9521542 -2.98028

l1.bias.mu f4 [600]
000000 84 21 8e 3d 08 65 0d 3e 27 5a 03 3d bd 87 1c 3d
       0.06939986 0.13808072 0.032068398 0.038215388
000010 64 1e ef bd 4f 09 ec bd 83 bb 72 bd ec 1d 60 3b
       -0.116757184 -0.11525213 -0.059260856 0.0034197522
000020 cb 91 30 3d 6c 4f 0a 3e 7a a6 44 3e c4 a2 c8 3d
       0.04310779 0.1350686 0.19204131 0.0979667
000030 f7 1e 3a 3e 11 33 24 3e 15 e1 b4 bd 9d 69 73 3b
       0.18175875 0.16035105 -0.088319935 0.0037141808
000040 37 ee 51 be d5 3e bb 3d aa c5 45 bd bc 7b 61 bc
       -0.20501028 0.09142844 -0.04828421 -0.013762411
000050 3b f4 cd bb 29 eb ba 3c 2b da 56 3d 1d 0d d7 bd
       -0.006285218 0.022817211 0.052454155 -0.10500548
000060 14 91 70 be e6 d4 22 be 89 69 c3 3c 0e 30 4e 3d
       -0.23492843 -0.15901527 0.023854034 0.050338797
000070 4e f1 7e 3d 8d 26 63 3e 55 4c db bd 09 5c 6e 3d
       0.062241845 0.22182675 -0.107079186 0.05819324
000080 13 54 b3 bd 8f 0e b5 bc 86 e7 b0 bd 8a 9e 94 3d
       -0.0875627 -0.022101669 -0.086379096 0.072568014
000090 cd ea 3a bd 29 43 f7 bd d3 b2 74 3c ee 96 9d bd
       -0.04563408 -0.12073357 0.014935213 -0.07694803
0000a0 97 ab 6e bc f7 1f 41 bc e7 1e 49 3b 46 94 51 3d
       -0.014567277 -0.011787406 0.0030688585 0.051166795
0000b0 53 7e 64 bd 0e fb dc ba 62 07 72 be ad 46 df bc
       -0.055784535 -0.0016859488 -0.23635629 -0.02725538
0000c0 67 28 45 be 2c 7d 0f 3c 47 0c 30 bd 4e 69 58 bd
       -0.19253694 0.008757871 -0.04298046 -0.0528348
0000d0 01 23 f6 bc 14 d3 18 3e 38 81 15 3e ef 5a 88 3c
       -0.030045988 0.1492427 0.14600074 0.016644923
0000e0 4b fa 49 3e 98 d7 17 3d dc 83 62 3e c5 c3 fd bd
       0.19724385 0.03707084 0.22120613 -0.12390856
0000f0 a4 f7 08 bd 6c 9f 7b 3e 4f d8 2f 3e d1 e6 00 3e
       -0.033439294 0.24572533 0.17172359 0.1258805
000100 26 fd 0e be 98 2a 2d be da 56 e9 3d 13 29 0f be
       -0.13963756 -0.1691078 0.11393519 -0.13980512
000110 43 51 d1 3c ce a2 ae bc 65 0b b1 ba 8b 13 cc 3d
       0.025551444 -0.021317866 -0.0013507424 0.09964665
000120 c5 87 da 3c 87 32 a7 3b a2 f8 12 bc 61 42 b9 3c
       0.026676068 0.005102459 -0.0089704115 0.02261466
000130 69 ca ce bd 21 dc 09 3e 80 8f 9d 3d ae 38 ed 3d
       -0.100972004 0.13462879 0.07693386 0.115830764
000140 c9 15 06 3d 81 32 9f bc cc d8 d5 bd a3 2c fc bd
       0.03273562 -0.019433262 -0.10441741 -0.12313201
000150 7c b3 2a bc 6c 8c e6 3d aa 7e ee bc 6e 87 43 bd
       -0.010418769 0.11257252 -0.029113133 -0.047736578
000160 9e e3 b2 3c 7d bb 42 3d 43 96 43 3d 8d 53 c9 bd
       0.021837052 0.047542084 0.047750723 -0.09830389
000170 2f a7 df 3d 3a c5 18 3e 33 e6 74 bd a3 2a 73 be
       0.109205596 0.14918986 -0.059789848 -0.23746733
000180 e7 f6 c9 3c b2 42 bc 3d b9 6f 1f 3e 80 52 61 3d
       0.024653865 0.091924086 0.15569963 0.05501032
000190 09 88 71 3e ea f6 ac bd f0 51 87 bd 66 35 dc bd
       0.2358705 -0.084455326 -0.06607425 -0.107523724
0001a0 a6 f1 a5 3d 52 df 0e bd ed e3 36 bd 8f 45 0d bd
       0.081027314 -0.034880944 -0.04465096 -0.034490164
0001b0 d4 55 5f 3d 59 f2 0e be c5 e4 41 3b e1 5d ad 3d
       0.05452521 -0.13959636 0.002958582 0.084651716
0001c0 f3 79 34 3c 1e f3 b4 bd da 7d 4e be 6f fb 70 3e
       0.011015403 -0.088354334 -0.20165196 0.23533414
0001d0 db 9b 44 3e 44 9d 36 3d a8 b4 6a be 08 62 be 3c
       0.19200079 0.044583574 -0.22920477 0.023240104
0001e0 28 75 62 bc 8a 79 92 bd 0d 47 b8 3d 5c c2 40 bc
       -0.013821878 -0.07152088 0.08997927 -0.011765089
0001f0 0d ec 6a 3e 07 88 d9 bd bc ee 7f bd df c3 d9 bd
       0.22941609 -0.10621648 -0.062483534 -0.106330626
000200 39 47 36 bd aa e8 a8 3d a6 d4 8f 3d be d3 35 3e
       -0.044501517 0.08247502 0.07022981 0.17756554
000210 88 40 56 be 9f ca 94 3d 5e 5a 90 3d 14 f1 eb bd
       -0.20923054 0.072652094 0.07048486 -0.115205914
000220 89 a3 1e 3d a6 a9 af 3d 7e 0d 69 bd 03 7d 0c 3d
       0.038730178 0.0857728 -0.056897633 0.034298908
000230 f4 c0 c9 bd f1 fd 5c bd 95 c4 8d bd c9 d5 45 be
       -0.09851256 -0.053953115 -0.06922261 -0.19319834
000240 19 62 a8 bd 69 8f ad 3e 63 79 63 3d a5 91 98 3d
       -0.08221836 0.33898476 0.055535685 0.074496545
000250 5f b2 f7 3d 8d c2 8c bb 5a c8 bf 3d 92 06 ab 3d
       0.120945685 -0.004295653 0.09364386 0.083508626
000260 75 82 d3 bb 78 08 17 bd e7 66 12 3e 9b 5f 87 bd
       -0.0064547607 -0.03687331 0.14297067 -0.06610032
000270 44 d2 1e 3d 4b 84 51 3d a0 c8 72 3e c9 19 3d 3e
       0.038774744 0.051151555 0.23709345 0.18466868
000280 94 e4 b8 bd d5 11 11 be ff 10 6a bd b9 6f 15 bd
       -0.09027973 -0.14166959 -0.057145115 -0.0364835
000290 07 89 d6 bc f0 26 ea bd 33 01 8c bc 73 6b 4d bc
       -0.026188387 -0.11433208 -0.017090416 -0.012537825
0002a0 a7 52 7e 3d 3c 22 38 3d 79 38 79 3d 02 ab 2c bd
       0.062090542 0.044954523 0.060844872 -0.042155273
0002b0 3a 14 98 bc 19 b6 57 3e 4d 16 a0 bd fe 9c c9 bd
       -0.018564332 0.21065558 -0.078167535 -0.09844397
0002c0 79 c0 06 bd 2e 7e 71 3d bd b2 00 bc e2 d3 34 3d
       -0.0328984 0.058958225 -0.0078551145 0.04414738
0002d0 3c 40 34 bd 68 2e b8 3c d7 8e 00 bd b1 b6 85 3d
       -0.04400657 0.022483066 -0.031386223 0.06528986
0002e0 bd 2b e7 bd 9f 21 a9 3e f3 0b 79 bd e6 aa 1f 3e
       -0.11287639 0.33033463 -0.06080241 0.15592536
0002f0 4a 79 ec bc 4f 8a 8a 3d 5b d5 61 bd d5 93 aa bd
       -0.028866429 0.067646615 -0.055135112 -0.08328978
000300 e1 7d 15 bd 06 84 31 3d e1 ed 9a 3b 92 74 5a 3e
       -0.036497 0.043338798 0.0047280644 0.2133353
000310 76 45 c1 bd fa 0a a1 3d 7d 50 15 be 9a 8e ae bd
       -0.09437077 0.07863422 -0.14581485 -0.08523293
000320 56 75 30 be bd b0 5f bd 70 32 14 3e 10 73 dc 3c
       -0.1723226 -0.05461191 0.14472365 0.026910335
000330 e3 db 51 bd 15 50 93 bc c2 31 87 3d cd 9f a9 3d
       -0.05123509 -0.017982522 0.066012874 0.08282433
000340 17 9f bf 3d d7 cb 7f bc d6 7f 0a 3d 66 fc af bd
       0.09356516 -0.015612564 0.03381332 -0.08593063
000350 4d e1 41 bd 9d 6d 7c bd 68 f0 d4 3d 2e aa 80 3c
       -0.047334004 -0.061627973 0.10397416 0.015706148
000360 56 1b 52 bc 19 13 88 3c 85 35 43 ba 13 67 cd ba
       -0.0128239 0.016610669 -0.00074466347 -0.0015670977
000370 df 7a af bd 99 ca 0c 3d 0e 84 60 3d 7a 42 b0 bd
       -0.08568358 0.0343729 0.054813437 -0.086064294
000380 6e 87 b0 bc 03 54 9e bc 6f eb 59 bd 57 d0 f3 3d
       -0.021548953 -0.01932717 -0.053203043 0.11904972
000390 2e 38 13 3e 20 41 8c bb 80 12 3a be 0c e1 f6 3d
       0.143769 -0.0042802244 -0.1817112 0.12054643
0003a0 de f9 23 3e 5e bc 34 3c bb 05 03 be ad 1e e7 bd
       0.16013286 0.011031238 -0.12795155 -0.11285148
0003b0 77 ba 11 3e 63 d7 e5 3d a8 16 a0 3d 93 df a7 bd
       0.14231287 0.112227224 0.07816821 -0.0819694
0003c0 78 2a 43 bd 78 dc d5 bc c7 f6 40 bd a2 31 34 3e
       -0.047647923 -0.026106104 -0.047110345 0.17597058
0003d0 aa d6 69 bc 78 38 3f be 31 20 3d 3d b4 bf 1f 3d
       -0.014272371 -0.18673885 0.04617328 0.03900118
0003e0 a0 a8 82 be a1 90 67 3e 49 36 20 3d a6 bb 26 3c
       -0.25519276 0.22613765 0.03911427 0.010176575
0003f0 ae e4 8d 3b 6e bc ae 3e f5 57 1d be 94 a7 7e 3e
       0.0043302393 0.34128135 -0.15365584 0.24868613
