checkpoints_16_tasks/16_task_groups_PUGCL_epochs_:25_lr_:0.001_hidden_:120_task_order_:[ 5  1  9  6  4 10  3  2  8 12 15 13  7 11  0 14]/model_4.pth.tar (torch_old, 81201 bytes, 136 tensors)

l1.weight_mu f4 [120, 29]
000000 ee 47 93 3c 44 0f 49 3d 14 98 89 bd 64 39 56 bd
       0.017978635 0.049086824 -0.0671846 -0.052300826
000010 3f 74 a7 bd bc 4e 1e 3e 30 42 e5 3d 0f 31 9d 3c
       -0.08176469 0.15459722 0.11194265 0.019188432
000020 b3 0b 17 3e e1 9d 3e 3e 8c 99 91 3d af 85 77 3d
       0.14750557 0.18614914 0.07109365 0.060430225
000030 35 48 8d 3d f2 fe 52 bd 24 ad 87 3d 15 fe 1a 3d
       0.06898538 -0.051512666 0.06624821 0.037839968
000040 5b aa 79 bb c0 df 2b 3c b1 00 dc 3d fc 55 17 be
       -0.0038095925 0.010490358 0.107423194 -0.14778894
000050 04 05 06 bc 49 86 8f bd a4 2b 0a 3d e9 f0 cb 3d
       -0.008179907 -0.07008035 0.033733025 0.09958059
000060 a8 6c 39 3d 2c c6 58 3e 15 e9 56 3d 00 1d 90 3d
       0.04526964 0.21169347 0.052468378 0.07036781
000070 37 a0 35 3e d4 93 35 3e cd 6b cf bd 36 33 da 3d
       0.17736898 0.17732173 -0.10127983 0.10654299
000080 83 e2 a8 bd 52 f0 30 bc 41 14 a7 bd d4 87 30 bd
       -0.08246329 -0.010799484 -0.0815816 -0.043098286
000090 5a 17 1a 3e 94 de 6e 3e 82 ad 4d bd a6 c5 cc bd
       0.1504797 0.23327094 -0.050214298 -0.09998636
0000a0 87 42 c6 3d 55 4f 51 bd 0d 48 0a 3e 05 92 6b 3d
       0.09680658 -0.051101048 0.13504048 0.057512302
0000b0 6f b8 02 be be 2c 9e bd 00 25 f3 3d 6a aa 19 3d
       -0.12765668 -0.07723378 0.118722916 0.037516035
0000c0 73 ad d4 3c ee 93 b0 bd 64 11 b6 bc 4d b3 71 bd
       0.025961613 -0.08621965 -0.02222509 -0.059008885
0000d0 ea 9c df bd 65 0a 05 bc bf 27 da bc 29 8d 71 3d
       -0.10918601 -0.008120154 -0.02663028 0.05897251
0000e0 e4 67 98 3d 9e 9f 46 3c 45 db be 3c d9 20 36 3d
       0.074416906 0.012123017 0.023297915 0.04446492
0000f0 d6 f3 b9 bd af aa c1 3d f6 dc 93 bc 77 db 54 3e
       -0.09079711 0.094563834 -0.018049698 0.20786844
000100 e8 42 d8 bd e4 93 f9 3d 39 66 f8 3d 22 96 61 bd
       -0.10559636 0.12186411 0.121288724 -0.05507482
000110 ab ef 56 bd da 6f 61 3d 60 eb 74 bd ce 79 17 3c
       -0.05247466 0.05503831 -0.059794784 0.009245349
000120 27 5d fe bc ad 4a e6 3d f4 69 fe bd 70 7a d0 3c
       -0.031050278 0.11244712 -0.12422553 0.025449008
000130 97 d7 0e be 17 62 fe 3c 73 30 65 bc 07 00 35 3c
       -0.13949428 0.031052632 -0.013988602 0.01104737
000140 96 bd 13 bd 95 08 5e 3d b1 47 73 3d 41 cf 99 bd
       -0.036069475 0.054207403 0.059394542 -0.07510234
000150 8a 9c b4 bd cd fd 8a 3d 8d 01 d9 bd a0 93 25 be
       -0.0881892 0.0678669 -0.10595999 -0.16169596
000160 76 2e ab bd 85 2e 98 bd 74 5f c3 3d 69 63 05 3e
       -0.08358471 -0.07430748 0.095396906 0.13026203
000170 bc ce 1b 3d 12 a5 e4 bd f2 23 6e 3d 6b 51 cc 3d
       0.038038954 -0.11164297 0.05813975 0.09976467
000180 39 ac 9d bd 53 be a9 bd ef 59 1c 3b de b6 26 be
       -0.076988645 -0.082882546 0.0023857316 -0.16280696
000190 b6 29 ca bd 47 4b 5c be f0 3e 35 3b f4 29 c0 3d
       -0.09871237 -0.21513091 0.0027655922 0.09383002
0001a0 cc 12 b5 bc a5 6f ad bd af ca 67 3e fc 7d a5 be
       -0.02210369 -0.0846856 0.22635911 -0.3232268
0001b0 b8 30 82 3c e0 51 5d bd d4 7c 11 be 69 b0 f7 bd
       0.015892372 -0.05403316 -0.14207774 -0.120941944
0001c0 31 cf 03 3e 9d 37 76 bd dc 82 03 3d 48 50 aa bd
       0.12872006 -0.06011163 0.03210722 -0.08316094
0001d0 c6 01 95 be a7 ff d4 bd 72 31 12 bd 3e d0 ee 3d
       -0.29102916 -0.10400324 -0.035691686 0.11660813
0001e0 50 5d a0 bd e3 5a 7c 3d b6 1d 4c be 52 c3 e7 bd
       -0.07830298 0.061610114 -0.19933209 -0.11316551
0001f0 73 d1 9f bd 49 75 cc bc e3 65 3f 3c d5 26 1a 3d
       -0.07803621 -0.02495827 0.0116820065 0.03763469
000200 e3 ec a6 bd d1 5e 59 bb 36 e6 83 bd 89 a5 19 bd
       -0.08150651 -0.0033168087 -0.064403936 -0.037511382
000210 ac 9a 2b be 9d 71 01 bd 5e 35 99 bc f9 32 07 3d
       -0.16758221 -0.03160249 -0.018702205 0.033007596
000220 41 43 40 be c0 c6 cf 3b 58 69 1d bd c7 fa 8e 3a
       -0.18775655 0.0063408315 -0.03843054 0.0010908478
000230 0a 9e 0d 3d 73 3c 2f 3d 57 cc 45 bd a0 45 1e 3e
       0.034574546 0.04278226 -0.048290577 0.15456247
000240 fb 95 a4 be a7 0d 28 3d 80 47 c8 3c 64 ef 19 be
       -0.32145676 0.041028645 0.024448156 -0.15032727
000250 e2 50 eb 3d 66 c5 0b bd 8b 7f f9 bc 44 49 aa 3d
       0.114900365 -0.0341238 -0.030456325 0.083147556
000260 31 d7 09 be d0 a3 a7 bd 61 7f f9 3d 36 60 e9 bd
       -0.13460995 -0.08185542 0.12182499 -0.11395304
000270 25 99 ac 3d 37 47 3d 3e 5c 38 28 3d e5 84 29 bc
       0.084276475 0.18484198 0.041069373 -0.010346626
000280 27 e4 2a 3e f1 c7 53 3d bc f3 55 bd fa 90 d9 bc
       0.16688596 0.05170435 -0.052234396 -0.026558388
000290 93 a4 6b bc 44 37 fb bd 09 57 41 be 4a 78 6b bd
       -0.014382499 -0.122664005 -0.18880858 -0.057487763
0002a0 4f 5b 41 bd af af b1 3c 4a 6c ef 3c 9a cc f1 3d
       -0.04720622 0.021690218 0.029226441 0.11806603
0002b0 71 2e f0 3d 59 e4 d2 bc f8 0f 54 be 96 2d 7b 3d
       0.11727608 -0.02574365 -0.20709217 0.06132277
0002c0 5c f1 08 3c 88 fe c7 bc cc 66 f8 3b 64 f4 d4 3c
       0.008358326 -0.024413362 0.0075806137 0.02599544
0002d0 0f a4 52 3d 59 2b e3 3d 99 b7 d8 3b 67 1c b7 3c
       0.05142599 0.11092252 0.0066136834 0.02235241
0002e0 fc d9 9a bd 10 d7 22 bd 6a f7 6e bc 93 f9 80 3d
       -0.075611085 -0.03975588 -0.014585355 0.062976025
0002f0 05 ac 14 bd af 13 9b 3b f9 fc ae bd d7 d5 dc bd
       -0.036296863 0.004732571 -0.085443445 -0.10782974
000300 5e e6 cb bd 2a 51 37 3d 4c 90 7b 3d 1c a9 45 be
       -0.099560484 0.04475514 0.06141691 -0.19302791
000310 fe d8 3f bc d1 15 15 be 3c c0 e3 3d 20 04 64 3e
       -0.01170945 -0.14559104 0.1112065 0.22267199
000320 32 4d 02 bd 55 ff 9d 3d 67 62 9e 3d 4e 69 83 3d
       -0.0318119 0.07714716 0.077336125 0.0641657
000330 ad 57 a7 bd 5c a6 cd 3d 67 45 13 bd 44 56 1a be
       -0.0817102 0.10041496 -0.03595486 -0.1507197
000340 d4 80 88 3b 6b e5 5b 3d 7a 5e b7 bd 61 ba 97 bc
       0.004165748 0.053685587 -0.08953567 -0.01852149
000350 de b7 de bc 89 be a7 3c 52 ec 9a 3d 53 b0 ac bc
       -0.027187284 0.020476596 0.07564606 -0.021080172
000360 68 92 ed 3c 07 07 b7 3d 7a 9c c5 bd cc c5 f5 3d
       0.029000476 0.08936887 -0.09648986 0.120006174
000370 db 5b 3a bc e7 24 2b 3e 1a 69 32 bc a4 bd 37 3d
       -0.011374439 0.16713296 -0.010889316 0.04485859
000380 b7 74 02 bc 2f d3 21 3e 7c 93 20 3e af 01 fd bd
       -0.007962397 0.15803216 0.15681261 -0.12353837
000390 c1 d5 80 be 29 b7 1a be 76 57 82 bc 8b 03 26 3e
       -0.2516308 -0.15108933 -0.015910845 0.16212289
0003a0 51 7f 42 bc ea e2 45 be 80 cf 80 bd e9 3c 59 bd
       -0.011871175 -0.19324842 -0.062895775 -0.053036604
0003b0 76 8b 8b 3d b7 ca 03 3d b3 10 db 3d 18 66 f7 bd
       0.068137094 0.032175746 0.106965445 -0.1208002
0003c0 d9 33 80 3c 9f aa d9 3d 96 f9 43 bb d3 c6 b3 bb
       0.015649723 0.106282465 -0.0029903403 -0.005486348
0003d0 ad 6f ce 3d f2 72 11 3e 3e 00 b7 3d 27 a5 48 3d
       0.10079894 0.14204004 0.08935593 0.048985627
0003e0 56 55 e5 bd 14 0c 8d 3c 43 7f e9 ba 47 fd 32 be
       -0.11197917 0.017217673 -0.0017814416 -0.1747943
0003f0 46 1b b0 bd b5 8d d1 bd c1 ca 36 3d e2 32 57 3d
       -0.08598952 -0.102321066 0.044626955 0.05253876

l1.weight_rho f4 [120, 29]
000000 5d bb 40 c0 e9 ae 43 c0 65 1d 43 c0 04 8d 34 c0
       -3.0114357 -3.0575507 -3.048669 -2.821107
000010 50 3e 46 c0 44 f1 4d c0 ec aa 40 c0 5d 37 39 c0
       -3.0975533 -3.2178507 -3.0104322 -2.894004
000020 df 5c 42 c0 18 18 48 c0 e5 13 3b c0 f8 56 4b c0
       -3.0369184 -3.1264706 -2.9230893 -3.1771832
000030 8d fe 3d c0 5e 4b 36 c0 42 6f 3f c0 5f 37 3f c0
       -2.9686615 -2.84835 -2.9911656 -2.9877546
000040 80 e0 4f c0 0d 87 43 c0 79 8e 46 c0 bb f9 41 c0
       -3.2480774 -3.0551178 -3.1024458 -3.0308673
000050 5b ce 3a c0 9e fc 42 c0 75 0b 41 c0 c7 f6 3d c0
       -2.918845 -3.0466685 -3.0163243 -2.968187
000060 3e 87 3a c0 24 55 41 c0 95 41 3b c0 a4 54 43 c0
       -2.9145045 -3.0208216 -2.9258778 -3.052041
000070 9f 6f 3a c0 db e7 41 c0 55 38 47 c0 b4 62 3d c0
       -2.9130628 -3.0297763 -3.1128132 -2.9591494
000080 14 a9 45 c0 65 a2 41 c0 9e 80 45 c0 90 e2 36 c0
       -3.0884447 -3.0255368 -3.0859752 -2.8575783
000090 77 3f 36 c0 a2 61 49 c0 a1 cf 42 c0 e8 5f 3f c0
       -2.8476236 -3.146584 -3.0439227 -2.9902287
0000a0 88 ea 46 c0 35 34 3e c0 c8 a3 3c c0 37 e3 3d c0
       -3.1080647 -2.9719365 -2.9474964 -2.966993
0000b0 f1 02 47 c0 8c 26 39 c0 06 b8 46 c0 8f bd 47 c0
       -3.1095545 -2.8929777 -3.104982 -3.1209447
0000c0 83 7c 3e c0 fb 90 44 c0 07 9f 41 c0 9a 43 4b c0
       -2.9763496 -3.071349 -3.0253313 -3.176001
0000d0 e4 74 3f c0 28 e8 41 c0 5a a4 30 c0 03 4c 37 c0
       -2.9915094 -3.0297947 -2.7600312 -2.8640144
0000e0 27 8f 45 c0 15 59 36 c0 c0 ea 42 c0 21 2d 41 c0
       -3.0868623 -2.8491871 -3.045578 -3.0183794
0000f0 d8 cd 4f c0 23 b3 40 c0 69 0e 41 c0 f9 0a 38 c0
       -3.2469387 -3.0109336 -3.0165045 -2.8756697
000100 06 4d 49 c0 49 c5 38 c0 66 88 42 c0 93 c7 45 c0
       -3.1453261 -2.8870413 -3.039575 -3.090306
000110 f5 ea 49 c0 23 98 3c c0 b7 4a 40 c0 c2 81 35 c0
       -3.1549656 -2.9467857 -3.0045602 -2.8360448
000120 bb 70 3f c0 b9 fb 4b c0 18 d3 41 c0 52 17 3b c0
       -2.9912555 -3.187239 -3.0285091 -2.9232984
000130 cd 8b 45 c0 3a 42 42 c0 c2 27 38 c0 55 6a 42 c0
       -3.0866578 -3.0352921 -2.8774266 -3.03774
000140 69 df 43 c0 66 f1 45 c0 c5 a8 40 c0 d0 08 41 c0
       -3.0605109 -3.0928588 -3.0103009 -3.0161629
000150 1d ee 44 c0 bd 57 32 c0 63 bb 35 c0 1c 1e 4a c0
       -3.0770333 -2.7866051 -2.8395622 -3.1580877
000160 59 40 3d c0 49 0b 3f c0 69 8e 3a c0 8d b3 3d c0
       -2.9570525 -2.9850638 -2.914942 -2.964084
000170 98 f9 3f c0 3c ee 3b c0 fe fb 3d c0 72 7c 43 c0
       -2.999609 -2.9364157 -2.9685054 -3.0544705
000180 91 fb 38 c0 74 f2 3f c0 03 88 39 c0 eb cd 36 c0
       -2.8903544 -2.9991732 -2.8989265 -2.8563182
000190 4d 73 44 c0 2c 84 49 c0 92 0a 3b c0 91 17 37 c0
       -3.0695374 -3.1486921 -2.9225202 -2.8608134
0001a0 dc d7 42 c0 6b 72 3f c0 1f 6b 33 c0 d3 c8 42 c0
       -3.044425 -2.9913585 -2.8034132 -3.0435073
0001b0 20 9e 3f c0 27 1f 42 c0 06 30 48 c0 69 ea 49 c0
       -2.9940262 -3.0331514 -3.127931 -3.1549323
0001c0 a2 5f 3e c0 10 93 3f c0 e1 ab 3e c0 98 76 39 c0
       -2.974587 -2.993351 -2.9792407 -2.8978634
0001d0 1c cf 3e c0 c6 8e 45 c0 3b 83 44 c0 0c 1f 44 c0
       -2.981391 -3.0868392 -3.0705097 -3.064395
0001e0 f2 48 4a c0 4f ee 31 c0 9a d8 38 c0 fb 48 3d c0
       -3.1607022 -2.7801702 -2.8882203 -2.9575794
0001f0 ca 3e 3c c0 67 cd 3b c0 da d5 43 c0 6d 64 42 c0
       -2.9413323 -2.9344118 -3.0599275 -3.0373795
000200 6e 35 38 c0 f1 af 3a c0 84 86 3d c0 ca df 42 c0
       -2.878261 -2.9169886 -2.9613352 -3.044909
000210 cb 4a 3b c0 1b 5a 39 c0 be 01 3f c0 25 01 3f c0
       -2.92644 -2.8961246 -2.9844813 -2.9844449
000220 bc 40 3e c0 3d ed 45 c0 1a 32 38 c0 7f 52 40 c0
       -2.972701 -3.0926049 -2.878058 -3.0050352
000230 4b f8 3d c0 ae fd 41 c0 77 82 40 c0 11 2b 42 c0
       -2.9682796 -3.0311084 -3.007963 -3.0338786
000240 2f 87 34 c0 36 1d 4c c0 97 97 35 c0 fc 40 41 c0
       -2.820751 -3.189283 -2.8373773 -3.0195913
000250 40 6a 42 c0 29 e6 48 c0 d9 b4 3f c0 da 5b 46 c0
       -3.037735 -3.1390479 -2.995413 -3.0993562
000260 7c 04 35 c0 85 e3 3e c0 50 77 3c c0 8f 36 40 c0
       -2.8283987 -2.9826367 -2.9447823 -3.00333
000270 6a 85 3f c0 01 45 3d c0 75 d0 40 c0 34 f5 45 c0
       -2.992518 -2.9573367 -3.0127232 -3.093091
000280 1f 39 3d c0 24 28 3c c0 06 04 3f c0 8b b1 42 c0
       -2.9566114 -2.93995 -2.9846206 -3.0420864
000290 6d 7d 42 c0 d1 78 4a c0 ec 4a 3f c0 b4 e1 3f c0
       -3.0389054 -3.163624 -2.9889479 -2.9981508
0002a0 41 e6 38 c0 4c fa 38 c0 53 d1 41 c0 83 5e 40 c0
       -2.8890536 -2.890277 -3.0284011 -3.0057685
0002b0 05 78 3a c0 a7 e2 43 c0 10 d0 38 c0 b1 41 33 c0
       -2.9135754 -3.0607088 -2.8876991 -2.8008845
0002c0 8d 14 3d c0 a7 3b 39 c0 6e fb 44 c0 5a 28 49 c0
       -2.9543793 -2.894266 -3.077846 -3.1430879
0002d0 4c a4 3f c0 92 49 4b c0 7e 07 3d c0 ea 40 3e c0
       -2.994403 -3.1763654 -2.9535823 -2.972712
0002e0 0d d4 48 c0 1e 58 40 c0 23 67 41 c0 22 e4 42 c0
       -3.1379426 -3.0053782 -3.02192 -3.0451741
0002f0 22 46 46 c0 82 d2 42 c0 1f 23 42 c0 57 40 3f c0
       -3.0980306 -3.0440984 -3.0333936 -2.988302
000300 06 14 3c c0 bf 61 3c c0 4e 29 44 c0 a1 4b 3e c0
       -2.9387221 -2.943466 -3.065021 -2.973366
000310 2f ad 3d c0 ae 63 49 c0 08 1c 3d c0 c3 7f 41 c0
       -2.9636953 -3.146709 -2.954836 -3.023423
000320 38 8e 3b c0 dc c8 3b c0 d5 05 44 c0 9a ad 3e c0
       -2.9305553 -2.9341345 -3.062856 -2.9793458
000330 fc 3d 40 c0 60 31 38 c0 d9 7b 3c c0 68 ea 46 c0
       -3.0037832 -2.8780136 -2.945059 -3.108057
000340 50 3c 3a c0 61 03 3f c0 b7 25 39 c0 6c 29 3e c0
       -2.9099312 -2.9845812 -2.892927 -2.9712782
000350 dc de 41 c0 1d ef 40 c0 66 2d 44 c0 36 0a 38 c0
       -3.0292273 -3.0145943 -3.065271 -2.8756232
000360 e1 69 49 c0 19 42 4a c0 d4 ce 38 c0 cd 8b 36 c0
       -3.1470873 -3.1602843 -2.8876238 -2.8522828
000370 e6 63 3e c0 a1 18 33 c0 06 17 3f c0 83 4b 39 c0
       -2.9748473 -2.7983782 -2.9857802 -2.8952339
000380 c5 cc 3b c0 02 c1 4c c0 09 77 3f c0 40 08 48 c0
       -2.9343731 -3.1992803 -2.9916403 -3.1255035
000390 31 18 40 c0 06 33 3f c0 18 2f 4c c0 a3 b4 3f c0
       -3.0014765 -2.9874892 -3.1903744 -2.9954002
0003a0 6c 6b 37 c0 00 e9 3b c0 15 4a 40 c0 3c 88 3d c0
       -2.8659315 -2.9360962 -3.0045216 -2.96144
0003b0 74 7e 33 c0 f1 c2 40 c0 84 0a 35 c0 cd 19 3f c0
       -2.804593 -3.0118983 -2.8287668 -2.9859498
0003c0 f9 ab 53 c0 fc 57 55 c0 de 08 38 c0 bc 78 3f c0
       -3.3073714 -3.3334951 -2.8755412 -2.991744
0003d0 f3 c3 41 c0 ba 2b 3c c0 90 41 37 c0 5b 6b 3b c0
       -3.0275848 -2.9401689 -2.8633766 -2.9284275
0003e0 26 9d 42 c0 6e b7 44 c0 8f a4 37 c0 d1 3d 43 c0
       -3.0408416 -3.0736957 -2.8694189 -3.050648
0003f0 51 7e 48 c0 3e 1d 45 c0 5d 9b 45 c0 af 11 30 c0
       -3.1327097 -3.0799098 -3.0876076 -2.7510793

l1.bias_mu f4 [120]
000000 90 f7 16 be b5 16 e6 3c 26 cc 0f 3e 74 cc 87 3e
       -0.14742875 0.028087 0.1404272 0.26523173
000010 09 ef af bd d2 18 3c 3d af 23 01 bd 46 b5 64 3d
       -0.08590514 0.045922108 -0.03152817 0.05583694
000020 41 e4 5f 3d 8f c3 f6 3d 7b be 0c be 38 68 d0 3d
       0.05466104 0.120490186 -0.13744538 0.10176128
000030 85 0c 3d bd d2 83 25 3d e0 06 15 bd 2e 67 dd 3c
       -0.046154518 0.040408917 -0.03638351 0.027026739
000040 7a 47 6e 3d 2e 07 b2 bc b6 3d e2 bc b7 19 dd bd
       0.058173634 -0.02173194 -0.027617317 -0.1079592
000050 c3 d2 24 3d 8c 52 10 3d f5 be 18 3d 14 4f a6 bc
       0.04024006 0.035234973 0.037291486 -0.02030138
000060 4c 26 5b 3d ab 84 9c 3d d3 b0 5e 3c 25 8e 82 bc
       0.05350332 0.07642492 0.013591963 -0.01593692
000070 17 48 e9 3d d7 52 53 3d 41 da 3c 3e 67 fe 43 bd
       0.11390703 0.051592674 0.18442632 -0.04785004
000080 13 26 34 3d 33 d5 73 3b e3 8b 9e 3d 18 15 90 3e
       0.043981623 0.0037205934 0.07741525 0.28141093
000090 52 28 ea 3d ee cf f5 3d 10 0e 90 3d 22 dd b8 3c
       0.11433472 0.1200255 0.07033932 0.022566382
0000a0 41 9f 43 bd e2 66 af bd ff 71 4f bc e6 53 6a 3d
       -0.0477593 -0.08564545 -0.012661456 0.057208918
0000b0 9d 7d e2 bd 91 91 67 bd f3 dc 99 bd 8b 89 87 bd
       -0.11059115 -0.056535307 -0.07512846 -0.06618031
0000c0 6f ab e1 3d 3a e1 3d bd 04 1a 5e 3d 32 51 14 3e
       0.110190265 -0.04635737 0.05422403 0.14484099
0000d0 31 58 4d 3d 6c 7c 2e 3d a1 ba 10 3e 0a ae f8 3d
       0.050132934 0.042599127 0.14133693 0.1214257
0000e0 fd d1 70 3c b0 63 a2 bd ab 93 f4 bd a8 10 e1 bd
       0.014698503 -0.0792917 -0.11942228 -0.10989505
0000f0 1e c3 65 bd 71 c3 0a be 6b 2e 19 be 1e 86 c5 bd
       -0.05609428 -0.13551117 -0.14959113 -0.096447214
000100 d3 bc 4a bd c5 f9 b5 3c b0 55 01 be 3e f2 c6 bd
       -0.049496483 0.022213826 -0.12630343 -0.09714173
000110 64 c6 b0 3d f2 7b 5e bb 23 99 10 bd e2 e1 e7 bc
       0.0863159 -0.003394839 -0.035302293 -0.028305952
000120 e5 71 12 bd f8 78 40 bd 02 9b 27 bd 55 d7 1f 3e
       -0.03575315 -0.046990365 -0.04091931 0.15609486
000130 54 7e c6 3b ba da 45 3e fc dd 43 3c d4 7c 17 3e
       0.00605754 0.19321719 0.011954781 0.14793712
000140 40 27 82 3e e8 25 e4 3c 06 bc 29 be c4 10 0f bc
       0.2542057 0.027850106 -0.16575631 -0.008732025
000150 9d 1f 41 3c a9 32 d1 bb 55 7e d5 bd 3f 8a 8d 3c
       0.011787322 -0.006384213 -0.104244865 0.017277835
000160 38 bd e0 3d a2 2b 89 3d 5e 87 da 3d 4f 7a c0 bb
       0.109735906 0.066977754 0.106703505 -0.0058739553
000170 27 3f 26 bd 37 cb 71 bd 92 ce 6a bd 80 e9 e5 3d
       -0.04058757 -0.05903169 -0.057325907 0.11226177
000180 4f 67 f0 bc 5d e5 1e 3d c7 90 eb 3d fc 68 9d 3d
       -0.029346136 0.038792957 0.115022235 0.0768604
000190 ca 8e 5d bd e6 e2 03 be fe 68 63 3e 04 59 be bc
       -0.054091252 -0.12879524 0.2220802 -0.023235805
0001a0 6f 54 14 3e cf 79 46 3d 4f a1 14 3e 4d 07 0a 3d
       0.14485334 0.04845601 0.1451466 0.03369837
0001b0 a1 89 7e 3d 29 4b f4 3d 13 d4 4c bd e5 e6 8a 3d
       0.062142972 0.11928398 -0.050006937 0.06782321
0001c0 26 a6 9f bd 1a d3 5a 3a 36 20 87 bc 89 a5 11 bd
       -0.07795362 0.00083474966 -0.016494852 -0.035558257
0001d0 ca 8e 22 3e 53 8a 8f 3d 88 72 9a bc 5c e9 a9 bd
       0.15874782 0.07008805 -0.01885344 -0.08296463

l1.bias_rho f4 [120]
000000 c5 76 3c c0 ef 5a 3f c0 c0 cc 40 c0 65 d1 3e c0
       -2.944749 -2.9899251 -3.012497 -2.9815304
000010 ee d3 35 c0 5b a9 47 c0 7e 8d 42 c0 ce f8 38 c0
       -2.8410602 -3.1197116 -3.039886 -2.8901858
000020 0a 7c 43 c0 8d d7 3f c0 86 d1 3d c0 da a2 45 c0
       -3.0544457 -2.9975312 -2.9659133 -3.0880647
000030 66 f0 35 c0 25 67 3b c0 d7 98 41 c0 9a 67 40 c0
       -2.8427978 -2.9281704 -3.0249536 -3.0063233
000040 1f 99 3b c0 fe b2 3b c0 c8 85 40 c0 1e bf 2e c0
       -2.9312208 -2.9327998 -3.0081654 -2.7304149
000050 c3 4a 41 c0 3a b4 44 c0 af 64 3a c0 50 ec 3b c0
       -3.020188 -3.0735002 -2.9123952 -2.9362984
000060 b4 7a 3d c0 49 db 3f c0 ea d4 3b c0 f5 85 4e c0
       -2.9606142 -2.997759 -2.9348702 -3.226926
000070 15 2b 37 c0 23 ce 46 c0 0f 9e 37 c0 de 60 3f c0
       -2.8620045 -3.1063316 -2.8690221 -2.9902873
000080 6f 54 3b c0 64 40 34 c0 78 16 3f c0 55 ab 3b c0
       -2.9270284 -2.81643 -2.9857464 -2.9323323
000090 36 b4 3c c0 bc 41 40 c0 b6 65 3e c0 e8 9f 41 c0
       -2.9484992 -3.004012 -2.974958 -3.025385
0000a0 f4 25 44 c0 ad 2f 40 c0 0b 74 3f c0 b1 d4 3f c0
       -3.0648165 -3.00291 -2.9914577 -2.9973567
0000b0 32 cf 3b c0 40 3a 44 c0 d4 17 45 c0 84 ed 41 c0
       -2.9345212 -3.0660553 -3.0795794 -3.0301218
0000c0 84 34 35 c0 18 32 45 c0 bd 9d 35 c0 79 61 3d c0
       -2.8313303 -3.0811825 -2.8377526 -2.9590743
0000d0 12 8d 49 c0 3a b2 44 c0 0a bd 3f c0 bc a7 44 c0
       -3.1492352 -3.073378 -2.995913 -3.0727377
0000e0 e4 82 3c c0 86 b9 44 c0 2f 4c 36 c0 af d5 42 c0
       -2.945489 -3.0738235 -2.8483999 -3.0442922
0000f0 0a a7 40 c0 bf 17 42 c0 09 f8 45 c0 fa 45 3e c0
       -3.0101953 -3.0326993 -3.0932639 -2.973021
000100 d4 c2 4a c0 73 81 42 c0 53 5a 3a c0 ac e9 4a c0
       -3.1681414 -3.039151 -2.911763 -3.1705122
000110 26 b9 42 c0 de 5f 4e c0 07 86 45 c0 71 66 3b c0
       -3.0425506 -3.2246013 -3.0863054 -2.9281275
000120 ec 3f 40 c0 91 fc 39 c0 a3 1c 40 c0 23 ad 46 c0
       -3.0039015 -2.9060404 -3.0017478 -3.1043174
000130 fe a2 4e c0 ce f5 3d c0 9d 6a 42 c0 4e 34 3e c0
       -3.2286983 -2.9681277 -3.0377572 -2.9719424
000140 32 51 48 c0 58 2f 44 c0 c1 d8 4c c0 87 98 40 c0
       -3.1299558 -3.0653896 -3.2007296 -3.0093095
000150 2d 04 4e c0 ad ae 40 c0 d1 6b 3a c0 a8 ac 34 c0
       -3.2190049 -3.0106614 -2.9128306 -2.823038
000160 88 b4 3e c0 0b c1 33 c0 df 92 3f c0 5a 7a 3b c0
       -2.9797688 -2.8086574 -2.9933393 -2.9293427
000170 49 5f 40 c0 7c a2 3c c0 c2 c8 3d c0 05 a9 42 c0
       -3.0058157 -2.9474173 -2.9653783 -3.0415661
000180 cf 1c 44 c0 06 7b 3d c0 e4 67 3f c0 dc 52 41 c0
       -3.0642583 -2.9606338 -2.990716 -3.0206823
000190 cf 2a 46 c0 7d 0f 3a c0 b0 7c 3c c0 22 0f 47 c0
       -3.0963628 -2.9071953 -2.9451103 -3.1102986
0001a0 4e 62 39 c0 e6 7d 3c c0 a9 37 49 c0 e2 c1 41 c0
       -2.896625 -2.9451842 -3.1440222 -3.0274587
0001b0 62 d2 3a c0 3e 59 46 c0 1d 6e 49 c0 15 7d 38 c0
       -2.9190907 -3.099197 -3.1473458 -2.8826344
0001c0 25 4b 40 c0 ee d6 4d c0 e1 12 42 c0 f9 5f 3f c0
       -3.0045865 -3.2162433 -3.0324023 -2.9902327
0001d0 d9 68 3f c0 94 f8 34 c0 9b 75 49 c0 8d 9f 41 c0
       -2.9907744 -2.827672 -3.147803 -3.0253632

l1.weight.mu f4 [120, 29]
000000 ee 47 93 3c 44 0f 49 3d 14 98 89 bd 64 39 56 bd
       0.017978635 0.049086824 -0.0671846 -0.052300826
000010 3f 74 a7 bd bc 4e 1e 3e 30 42 e5 3d 0f 31 9d 3c
       -0.08176469 0.15459722 0.11194265 0.019188432
000020 b3 0b 17 3e e1 9d 3e 3e 8c 99 91 3d af 85 77 3d
       0.14750557 0.18614914 0.07109365 0.060430225
000030 35 48 8d 3d f2 fe 52 bd 24 ad 87 3d 15 fe 1a 3d
       0.06898538 -0.051512666 0.06624821 0.037839968
000040 5b aa 79 bb c0 df 2b 3c b1 00 dc 3d fc 55 17 be
       -0.0038095925 0.010490358 0.107423194 -0.14778894
000050 04 05 06 bc 49 86 8f bd a4 2b 0a 3d e9 f0 cb 3d
       -0.008179907 -0.07008035 0.033733025 0.09958059
000060 a8 6c 39 3d 2c c6 58 3e 15 e9 56 3d 00 1d 90 3d
       0.04526964 0.21169347 0.052468378 0.07036781
000070 37 a0 35 3e d4 93 35 3e cd 6b cf bd 36 33 da 3d
       0.17736898 0.17732173 -0.10127983 0.10654299
000080 83 e2 a8 bd 52 f0 30 bc 41 14 a7 bd d4 87 30 bd
       -0.08246329 -0.010799484 -0.0815816 -0.043098286
000090 5a 17 1a 3e 94 de 6e 3e 82 ad 4d bd a6 c5 cc bd
       0.1504797 0.23327094 -0.050214298 -0.09998636
0000a0 87 42 c6 3d 55 4f 51 bd 0d 48 0a 3e 05 92 6b 3d
       0.09680658 -0.051101048 0.13504048 0.057512302
0000b0 6f b8 02 be be 2c 9e bd 00 25 f3 3d 6a aa 19 3d
       -0.12765668 -0.07723378 0.118722916 0.037516035
0000c0 73 ad d4 3c ee 93 b0 bd 64 11 b6 bc 4d b3 71 bd
       0.025961613 -0.08621965 -0.02222509 -0.059008885
0000d0 ea 9c df bd 65 0a 05 bc bf 27 da bc 29 8d 71 3d
       -0.10918601 -0.008120154 -0.02663028 0.05897251
0000e0 e4 67 98 3d 9e 9f 46 3c 45 db be 3c d9 20 36 3d
       0.074416906 0.012123017 0.023297915 0.04446492
0000f0 d6 f3 b9 bd af aa c1 3d f6 dc 93 bc 77 db 54 3e
       -0.09079711 0.094563834 -0.018049698 0.20786844
000100 e8 42 d8 bd e4 93 f9 3d 39 66 f8 3d 22 96 61 bd
       -0.10559636 0.12186411 0.121288724 -0.05507482
000110 ab ef 56 bd da 6f 61 3d 60 eb 74 bd ce 79 17 3c
       -0.05247466 0.05503831 -0.059794784 0.009245349
000120 27 5d fe bc ad 4a e6 3d f4 69 fe bd 70 7a d0 3c
       -0.031050278 0.11244712 -0.12422553 0.025449008
000130 97 d7 0e be 17 62 fe 3c 73 30 65 bc 07 00 35 3c
       -0.13949428 0.031052632 -0.013988602 0.01104737
000140 96 bd 13 bd 95 08 5e 3d b1 47 73 3d 41 cf 99 bd
       -0.036069475 0.054207403 0.059394542 -0.07510234
000150 8a 9c b4 bd cd fd 8a 3d 8d 01 d9 bd a0 93 25 be
       -0.0881892 0.0678669 -0.10595999 -0.16169596
000160 76 2e ab bd 85 2e 98 bd 74 5f c3 3d 69 63 05 3e
       -0.08358471 -0.07430748 0.095396906 0.13026203
000170 bc ce 1b 3d 12 a5 e4 bd f2 23 6e 3d 6b 51 cc 3d
       0.038038954 -0.11164297 0.05813975 0.09976467
000180 39 ac 9d bd 53 be a9 bd ef 59 1c 3b de b6 26 be
       -0.076988645 -0.082882546 0.0023857316 -0.16280696
000190 b6 29 ca bd 47 4b 5c be f0 3e 35 3b f4 29 c0 3d
       -0.09871237 -0.21513091 0.0027655922 0.09383002
0001a0 cc 12 b5 bc a5 6f ad bd af ca 67 3e fc 7d a5 be
       -0.02210369 -0.0846856 0.22635911 -0.3232268
0001b0 b8 30 82 3c e0 51 5d bd d4 7c 11 be 69 b0 f7 bd
       0.015892372 -0.05403316 -0.14207774 -0.120941944
0001c0 31 cf 03 3e 9d 37 76 bd dc 82 03 3d 48 50 aa bd
       0.12872006 -0.06011163 0.03210722 -0.08316094
0001d0 c6 01 95 be a7 ff d4 bd 72 31 12 bd 3e d0 ee 3d
       -0.29102916 -0.10400324 -0.035691686 0.11660813
0001e0 50 5d a0 bd e3 5a 7c 3d b6 1d 4c be 52 c3 e7 bd
       -0.07830298 0.061610114 -0.19933209 -0.11316551
0001f0 73 d1 9f bd 49 75 cc bc e3 65 3f 3c d5 26 1a 3d
       -0.07803621 -0.02495827 0.0116820065 0.03763469
000200 e3 ec a6 bd d1 5e 59 bb 36 e6 83 bd 89 a5 19 bd
       -0.08150651 -0.0033168087 -0.064403936 -0.037511382
000210 ac 9a 2b be 9d 71 01 bd 5e 35 99 bc f9 32 07 3d
       -0.16758221 -0.03160249 -0.018702205 0.033007596
000220 41 43 40 be c0 c6 cf 3b 58 69 1d bd c7 fa 8e 3a
       -0.18775655 0.0063408315 -0.03843054 0.0010908478
000230 0a 9e 0d 3d 73 3c 2f 3d 57 cc 45 bd a0 45 1e 3e
       0.034574546 0.04278226 -0.048290577 0.15456247
000240 fb 95 a4 be a7 0d 28 3d 80 47 c8 3c 64 ef 19 be
       -0.32145676 0.041028645 0.024448156 -0.15032727
000250 e2 50 eb 3d 66 c5 0b bd 8b 7f f9 bc 44 49 aa 3d
       0.114900365 -0.0341238 -0.030456325 0.083147556
000260 31 d7 09 be d0 a3 a7 bd 61 7f f9 3d 36 60 e9 bd
       -0.13460995 -0.08185542 0.12182499 -0.11395304
000270 25 99 ac 3d 37 47 3d 3e 5c 38 28 3d e5 84 29 bc
       0.084276475 0.18484198 0.041069373 -0.010346626
000280 27 e4 2a 3e f1 c7 53 3d bc f3 55 bd fa 90 d9 bc
       0.16688596 0.05170435 -0.052234396 -0.026558388
000290 93 a4 6b bc 44 37 fb bd 09 57 41 be 4a 78 6b bd
       -0.014382499 -0.122664005 -0.18880858 -0.057487763
0002a0 4f 5b 41 bd af af b1 3c 4a 6c ef 3c 9a cc f1 3d
       -0.04720622 0.021690218 0.029226441 0.11806603
0002b0 71 2e f0 3d 59 e4 d2 bc f8 0f 54 be 96 2d 7b 3d
       0.11727608 -0.02574365 -0.20709217 0.06132277
0002c0 5c f1 08 3c 88 fe c7 bc cc 66 f8 3b 64 f4 d4 3c
       0.008358326 -0.024413362 0.0075806137 0.02599544
0002d0 0f a4 52 3d 59 2b e3 3d 99 b7 d8 3b 67 1c b7 3c
       0.05142599 0.11092252 0.0066136834 0.02235241
0002e0 fc d9 9a bd 10 d7 22 bd 6a f7 6e bc 93 f9 80 3d
       -0.075611085 -0.03975588 -0.014585355 0.062976025
0002f0 05 ac 14 bd af 13 9b 3b f9 fc ae bd d7 d5 dc bd
       -0.036296863 0.004732571 -0.085443445 -0.10782974
000300 5e e6 cb bd 2a 51 37 3d 4c 90 7b 3d 1c a9 45 be
       -0.099560484 0.04475514 0.06141691 -0.19302791
000310 fe d8 3f bc d1 15 15 be 3c c0 e3 3d 20 04 64 3e
       -0.01170945 -0.14559104 0.1112065 0.22267199
000320 32 4d 02 bd 55 ff 9d 3d 67 62 9e 3d 4e 69 83 3d
       -0.0318119 0.07714716 0.077336125 0.0641657
000330 ad 57 a7 bd 5c a6 cd 3d 67 45 13 bd 44 56 1a be
       -0.0817102 0.10041496 -0.03595486 -0.1507197
000340 d4 80 88 3b 6b e5 5b 3d 7a 5e b7 bd 61 ba 97 bc
       0.004165748 0.053685587 -0.08953567 -0.01852149
000350 de b7 de bc 89 be a7 3c 52 ec 9a 3d 53 b0 ac bc
       -0.027187284 0.020476596 0.07564606 -0.021080172
000360 68 92 ed 3c 07 07 b7 3d 7a 9c c5 bd cc c5 f5 3d
       0.029000476 0.08936887 -0.09648986 0.120006174
000370 db 5b 3a bc e7 24 2b 3e 1a 69 32 bc a4 bd 37 3d
       -0.011374439 0.16713296 -0.010889316 0.04485859
000380 b7 74 02 bc 2f d3 21 3e 7c 93 20 3e af 01 fd bd
       -0.007962397 0.15803216 0.15681261 -0.12353837
000390 c1 d5 80 be 29 b7 1a be 76 57 82 bc 8b 03 26 3e
       -0.2516308 -0.15108933 -0.015910845 0.16212289
0003a0 51 7f 42 bc ea e2 45 be 80 cf 80 bd e9 3c 59 bd
       -0.011871175 -0.19324842 -0.062895775 -0.053036604
0003b0 76 8b 8b 3d b7 ca 03 3d b3 10 db 3d 18 66 f7 bd
       0.068137094 0.032175746 0.106965445 -0.1208002
0003c0 d9 33 80 3c 9f aa d9 3d 96 f9 43 bb d3 c6 b3 bb
       0.015649723 0.106282465 -0.0029903403 -0.005486348
0003d0 ad 6f ce 3d f2 72 11 3e 3e 00 b7 3d 27 a5 48 3d
       0.10079894 0.14204004 0.08935593 0.048985627
0003e0 56 55 e5 bd 14 0c 8d 3c 43 7f e9 ba 47 fd 32 be
       -0.11197917 0.017217673 -0.0017814416 -0.1747943
0003f0 46 1b b0 bd b5 8d d1 bd c1 ca 36 3d e2 32 57 3d
       -0.08598952 -0.102321066 0.044626955 0.05253876

l1.weight.rho f4 [120, 29]
000000 5d bb 40 c0 e9 ae 43 c0 65 1d 43 c0 04 8d 34 c0
       -3.0114357 -3.0575507 -3.048669 -2.821107
000010 50 3e 46 c0 44 f1 4d c0 ec aa 40 c0 5d 37 39 c0
       -3.0975533 -3.2178507 -3.0104322 -2.894004
000020 df 5c 42 c0 18 18 48 c0 e5 13 3b c0 f8 56 4b c0
       -3.0369184 -3.1264706 -2.9230893 -3.1771832
000030 8d fe 3d c0 5e 4b 36 c0 42 6f 3f c0 5f 37 3f c0
       -2.9686615 -2.84835 -2.9911656 -2.9877546
000040 80 e0 4f c0 0d 87 43 c0 79 8e 46 c0 bb f9 41 c0
       -3.2480774 -3.0551178 -3.1024458 -3.0308673
000050 5b ce 3a c0 9e fc 42 c0 75 0b 41 c0 c7 f6 3d c0
       -2.918845 -3.0466685 -3.0163243 -2.968187
000060 3e 87 3a c0 24 55 41 c0 95 41 3b c0 a4 54 43 c0
       -2.9145045 -3.0208216 -2.9258778 -3.052041
000070 9f 6f 3a c0 db e7 41 c0 55 38 47 c0 b4 62 3d c0
       -2.9130628 -3.0297763 -3.1128132 -2.9591494
000080 14 a9 45 c0 65 a2 41 c0 9e 80 45 c0 90 e2 36 c0
       -3.0884447 -3.0255368 -3.0859752 -2.8575783
000090 77 3f 36 c0 a2 61 49 c0 a1 cf 42 c0 e8 5f 3f c0
       -2.8476236 -3.146584 -3.0439227 -2.9902287
0000a0 88 ea 46 c0 35 34 3e c0 c8 a3 3c c0 37 e3 3d c0
       -3.1080647 -2.9719365 -2.9474964 -2.966993
0000b0 f1 02 47 c0 8c 26 39 c0 06 b8 46 c0 8f bd 47 c0
       -3.1095545 -2.8929777 -3.104982 -3.1209447
0000c0 83 7c 3e c0 fb 90 44 c0 07 9f 41 c0 9a 43 4b c0
       -2.9763496 -3.071349 -3.0253313 -3.176001
0000d0 e4 74 3f c0 28 e8 41 c0 5a a4 30 c0 03 4c 37 c0
       -2.9915094 -3.0297947 -2.7600312 -2.8640144
0000e0 27 8f 45 c0 15 59 36 c0 c0 ea 42 c0 21 2d 41 c0
       -3.0868623 -2.8491871 -3.045578 -3.0183794
0000f0 d8 cd 4f c0 23 b3 40 c0 69 0e 41 c0 f9 0a 38 c0
       -3.2469387 -3.0109336 -3.0165045 -2.8756697
000100 06 4d 49 c0 49 c5 38 c0 66 88 42 c0 93 c7 45 c0
       -3.1453261 -2.8870413 -3.039575 -3.090306
000110 f5 ea 49 c0 23 98 3c c0 b7 4a 40 c0 c2 81 35 c0
       -3.1549656 -2.9467857 -3.0045602 -2.8360448
000120 bb 70 3f c0 b9 fb 4b c0 18 d3 41 c0 52 17 3b c0
       -2.9912555 -3.187239 -3.0285091 -2.9232984
000130 cd 8b 45 c0 3a 42 42 c0 c2 27 38 c0 55 6a 42 c0
       -3.0866578 -3.0352921 -2.8774266 -3.03774
000140 69 df 43 c0 66 f1 45 c0 c5 a8 40 c0 d0 08 41 c0
       -3.0605109 -3.0928588 -3.0103009 -3.0161629
000150 1d ee 44 c0 bd 57 32 c0 63 bb 35 c0 1c 1e 4a c0
       -3.0770333 -2.7866051 -2.8395622 -3.1580877
000160 59 40 3d c0 49 0b 3f c0 69 8e 3a c0 8d b3 3d c0
       -2.9570525 -2.9850638 -2.914942 -2.964084
000170 98 f9 3f c0 3c ee 3b c0 fe fb 3d c0 72 7c 43 c0
       -2.999609 -2.9364157 -2.9685054 -3.0544705
000180 91 fb 38 c0 74 f2 3f c0 03 88 39 c0 eb cd 36 c0
       -2.8903544 -2.9991732 -2.8989265 -2.8563182
000190 4d 73 44 c0 2c 84 49 c0 92 0a 3b c0 91 17 37 c0
       -3.0695374 -3.1486921 -2.9225202 -2.8608134
0001a0 dc d7 42 c0 6b 72 3f c0 1f 6b 33 c0 d3 c8 42 c0
       -3.044425 -2.9913585 -2.8034132 -3.0435073
0001b0 20 9e 3f c0 27 1f 42 c0 06 30 48 c0 69 ea 49 c0
       -2.9940262 -3.0331514 -3.127931 -3.1549323
0001c0 a2 5f 3e c0 10 93 3f c0 e1 ab 3e c0 98 76 39 c0
       -2.974587 -2.993351 -2.9792407 -2.8978634
0001d0 1c cf 3e c0 c6 8e 45 c0 3b 83 44 c0 0c 1f 44 c0
       -2.981391 -3.0868392 -3.0705097 -3.064395
0001e0 f2 48 4a c0 4f ee 31 c0 9a d8 38 c0 fb 48 3d c0
       -3.1607022 -2.7801702 -2.8882203 -2.9575794
0001f0 ca 3e 3c c0 67 cd 3b c0 da d5 43 c0 6d 64 42 c0
       -2.9413323 -2.9344118 -3.0599275 -3.0373795
000200 6e 35 38 c0 f1 af 3a c0 84 86 3d c0 ca df 42 c0
       -2.878261 -2.9169886 -2.9613352 -3.044909
000210 cb 4a 3b c0 1b 5a 39 c0 be 01 3f c0 25 01 3f c0
       -2.92644 -2.8961246 -2.9844813 -2.9844449
000220 bc 40 3e c0 3d ed 45 c0 1a 32 38 c0 7f 52 40 c0
       -2.972701 -3.0926049 -2.878058 -3.0050352
000230 4b f8 3d c0 ae fd 41 c0 77 82 40 c0 11 2b 42 c0
       -2.9682796 -3.0311084 -3.007963 -3.0338786
000240 2f 87 34 c0 36 1d 4c c0 97 97 35 c0 fc 40 41 c0
       -2.820751 -3.189283 -2.8373773 -3.0195913
000250 40 6a 42 c0 29 e6 48 c0 d9 b4 3f c0 da 5b 46 c0
       -3.037735 -3.1390479 -2.995413 -3.0993562
000260 7c 04 35 c0 85 e3 3e c0 50 77 3c c0 8f 36 40 c0
       -2.8283987 -2.9826367 -2.9447823 -3.00333
000270 6a 85 3f c0 01 45 3d c0 75 d0 40 c0 34 f5 45 c0
       -2.992518 -2.9573367 -3.0127232 -3.093091
000280 1f 39 3d c0 24 28 3c c0 06 04 3f c0 8b b1 42 c0
       -2.9566114 -2.93995 -2.9846206 -3.0420864
000290 6d 7d 42 c0 d1 78 4a c0 ec 4a 3f c0 b4 e1 3f c0
       -3.0389054 -3.163624 -2.9889479 -2.9981508
0002a0 41 e6 38 c0 4c fa 38 c0 53 d1 41 c0 83 5e 40 c0
       -2.8890536 -2.890277 -3.0284011 -3.0057685
0002b0 05 78 3a c0 a7 e2 43 c0 10 d0 38 c0 b1 41 33 c0
       -2.9135754 -3.0607088 -2.8876991 -2.8008845
0002c0 8d 14 3d c0 a7 3b 39 c0 6e fb 44 c0 5a 28 49 c0
       -2.9543793 -2.894266 -3.077846 -3.1430879
0002d0 4c a4 3f c0 92 49 4b c0 7e 07 3d c0 ea 40 3e c0
       -2.994403 -3.1763654 -2.9535823 -2.972712
0002e0 0d d4 48 c0 1e 58 40 c0 23 67 41 c0 22 e4 42 c0
       -3.1379426 -3.0053782 -3.02192 -3.0451741
0002f0 22 46 46 c0 82 d2 42 c0 1f 23 42 c0 57 40 3f c0
       -3.0980306 -3.0440984 -3.0333936 -2.988302
000300 06 14 3c c0 bf 61 3c c0 4e 29 44 c0 a1 4b 3e c0
       -2.9387221 -2.943466 -3.065021 -2.973366
000310 2f ad 3d c0 ae 63 49 c0 08 1c 3d c0 c3 7f 41 c0
       -2.9636953 -3.146709 -2.954836 -3.023423
000320 38 8e 3b c0 dc c8 3b c0 d5 05 44 c0 9a ad 3e c0
       -2.9305553 -2.9341345 -3.062856 -2.9793458
000330 fc 3d 40 c0 60 31 38 c0 d9 7b 3c c0 68 ea 46 c0
       -3.0037832 -2.8780136 -2.945059 -3.108057
000340 50 3c 3a c0 61 03 3f c0 b7 25 39 c0 6c 29 3e c0
       -2.9099312 -2.9845812 -2.892927 -2.9712782
000350 dc de 41 c0 1d ef 40 c0 66 2d 44 c0 36 0a 38 c0
       -3.0292273 -3.0145943 -3.065271 -2.8756232
000360 e1 69 49 c0 19 42 4a c0 d4 ce 38 c0 cd 8b 36 c0
       -3.1470873 -3.1602843 -2.8876238 -2.8522828
000370 e6 63 3e c0 a1 18 33 c0 06 17 3f c0 83 4b 39 c0
       -2.9748473 -2.7983782 -2.9857802 -2.8952339
000380 c5 cc 3b c0 02 c1 4c c0 09 77 3f c0 40 08 48 c0
       -2.9343731 -3.1992803 -2.9916403 -3.1255035
000390 31 18 40 c0 06 33 3f c0 18 2f 4c c0 a3 b4 3f c0
       -3.0014765 -2.9874892 -3.1903744 -2.9954002
0003a0 6c 6b 37 c0 00 e9 3b c0 15 4a 40 c0 3c 88 3d c0
       -2.8659315 -2.9360962 -3.0045216 -2.96144
0003b0 74 7e 33 c0 f1 c2 40 c0 84 0a 35 c0 cd 19 3f c0
       -2.804593 -3.0118983 -2.8287668 -2.9859498
0003c0 f9 ab 53 c0 fc 57 55 c0 de 08 38 c0 bc 78 3f c0
       -3.3073714 -3.3334951 -2.8755412 -2.991744
0003d0 f3 c3 41 c0 ba 2b 3c c0 90 41 37 c0 5b 6b 3b c0
       -3.0275848 -2.9401689 -2.8633766 -2.9284275
0003e0 26 9d 42 c0 6e b7 44 c0 8f a4 37 c0 d1 3d 43 c0
       -3.0408416 -3.0736957 -2.8694189 -3.050648
0003f0 51 7e 48 c0 3e 1d 45 c0 5d 9b 45 c0 af 11 30 c0
       -3.1327097 -3.0799098 -3.0876076 -2.7510793

l1.bias.mu f4 [120]
000000 90 f7 16 be b5 16 e6 3c 26 cc 0f 3e 74 cc 87 3e
       -0.14742875 0.028087 0.1404272 0.26523173
000010 09 ef af bd d2 18 3c 3d af 23 01 bd 46 b5 64 3d
       -0.08590514 0.045922108 -0.03152817 0.05583694
000020 41 e4 5f 3d 8f c3 f6 3d 7b be 0c be 38 68 d0 3d
       0.05466104 0.120490186 -0.13744538 0.10176128
000030 85 0c 3d bd d2 83 25 3d e0 06 15 bd 2e 67 dd 3c
       -0.046154518 0.040408917 -0.03638351 0.027026739
000040 7a 47 6e 3d 2e 07 b2 bc b6 3d e2 bc b7 19 dd bd
       0.058173634 -0.02173194 -0.027617317 -0.1079592
000050 c3 d2 24 3d 8c 52 10 3d f5 be 18 3d 14 4f a6 bc
       0.04024006 0.035234973 0.037291486 -0.02030138
000060 4c 26 5b 3d ab 84 9c 3d d3 b0 5e 3c 25 8e 82 bc
       0.05350332 0.07642492 0.013591963 -0.01593692
000070 17 48 e9 3d d7 52 53 3d 41 da 3c 3e 67 fe 43 bd
       0.11390703 0.051592674 0.18442632 -0.04785004
000080 13 26 34 3d 33 d5 73 3b e3 8b 9e 3d 18 15 90 3e
       0.043981623 0.0037205934 0.07741525 0.28141093
000090 52 28 ea 3d ee cf f5 3d 10 0e 90 3d 22 dd b8 3c
       0.11433472 0.1200255 0.07033932 0.022566382
0000a0 41 9f 43 bd e2 66 af bd ff 71 4f bc e6 53 6a 3d
       -0.0477593 -0.08564545 -0.012661456 0.057208918
0000b0 9d 7d e2 bd 91 91 67 bd f3 dc 99 bd 8b 89 87 bd
       -0.11059115 -0.056535307 -0.07512846 -0.06618031
0000c0 6f ab e1 3d 3a e1 3d bd 04 1a 5e 3d 32 51 14 3e
       0.110190265 -0.04635737 0.05422403 0.14484099
0000d0 31 58 4d 3d 6c 7c 2e 3d a1 ba 10 3e 0a ae f8 3d
       0.050132934 0.042599127 0.14133693 0.1214257
0000e0 fd d1 70 3c b0 63 a2 bd ab 93 f4 bd a8 10 e1 bd
       0.014698503 -0.0792917 -0.11942228 -0.10989505
0000f0 1e c3 65 bd 71 c3 0a be 6b 2e 19 be 1e 86 c5 bd
       -0.05609428 -0.13551117 -0.14959113 -0.096447214
000100 d3 bc 4a bd c5 f9 b5 3c b0 55 01 be 3e f2 c6 bd
       -0.049496483 0.022213826 -0.12630343 -0.09714173
000110 64 c6 b0 3d f2 7b 5e bb 23 99 10 bd e2 e1 e7 bc
       0.0863159 -0.003394839 -0.035302293 -0.028305952
000120 e5 71 12 bd f8 78 40 bd 02 9b 27 bd 55 d7 1f 3e
       -0.03575315 -0.046990365 -0.04091931 0.15609486
000130 54 7e c6 3b ba da 45 3e fc dd 43 3c d4 7c 17 3e
       0.00605754 0.19321719 0.011954781 0.14793712
000140 40 27 82 3e e8 25 e4 3c 06 bc 29 be c4 10 0f bc
       0.2542057 0.027850106 -0.16575631 -0.008732025
000150 9d 1f 41 3c a9 32 d1 bb 55 7e d5 bd 3f 8a 8d 3c
       0.011787322 -0.006384213 -0.104244865 0.017277835
000160 38 bd e0 3d a2 2b 89 3d 5e 87 da 3d 4f 7a c0 bb
       0.109735906 0.066977754 0.106703505 -0.0058739553
000170 27 3f 26 bd 37 cb 71 bd 92 ce 6a bd 80 e9 e5 3d
       -0.04058757 -0.05903169 -0.057325907 0.11226177
000180 4f 67 f0 bc 5d e5 1e 3d c7 90 eb 3d fc 68 9d 3d
       -0.029346136 0.038792957 0.115022235 0.0768604
000190 ca 8e 5d bd e6 e2 03 be fe 68 63 3e 04 59 be bc
       -0.054091252 -0.12879524 0.2220802 -0.023235805
0001a0 6f 54 14 3e cf 79 46 3d 4f a1 14 3e 4d 07 0a 3d
       0.14485334 0.04845601 0.1451466 0.03369837
0001b0 a1 89 7e 3d 29 4b f4 3d 13 d4 4c bd e5 e6 8a 3d
       0.062142972 0.11928398 -0.050006937 0.06782321
0001c0 26 a6 9f bd 1a d3 5a 3a 36 20 87 bc 89 a5 11 bd
       -0.07795362 0.00083474966 -0.016494852 -0.035558257
0001d0 ca 8e 22 3e 53 8a 8f 3d 88 72 9a bc 5c e9 a9 bd
       0.15874782 0.07008805 -0.01885344 -0.08296463

l1.bias.rho f4 [120]
000000 c5 76 3c c0 ef 5a 3f c0 c0 cc 40 c0 65 d1 3e c0
       -2.944749 -2.9899251 -3.012497 -2.9815304
000010 ee d3 35 c0 5b a9 47 c0 7e 8d 42 c0 ce f8 38 c0
       -2.8410602 -3.1197116 -3.039886 -2.8901858
000020 0a 7c 43 c0 8d d7 3f c0 86 d1 3d c0 da a2 45 c0
       -3.0544457 -2.9975312 -2.9659133 -3.0880647
000030 66 f0 35 c0 25 67 3b c0 d7 98 41 c0 9a 67 40 c0
       -2.8427978 -2.9281704 -3.0249536 -3.0063233
000040 1f 99 3b c0 fe b2 3b c0 c8 85 40 c0 1e bf 2e c0
       -2.9312208 -2.9327998 -3.0081654 -2.7304149
000050 c3 4a 41 c0 3a b4 44 c0 af 64 3a c0 50 ec 3b c0
       -3.020188 -3.0735002 -2.9123952 -2.9362984
000060 b4 7a 3d c0 49 db 3f c0 ea d4 3b c0 f5 85 4e c0
       -2.9606142 -2.997759 -2.9348702 -3.226926
000070 15 2b 37 c0 23 ce 46 c0 0f 9e 37 c0 de 60 3f c0
       -2.8620045 -3.1063316 -2.8690221 -2.9902873
000080 6f 54 3b c0 64 40 34 c0 78 16 3f c0 55 ab 3b c0
       -2.9270284 -2.81643 -2.9857464 -2.9323323
000090 36 b4 3c c0 bc 41 40 c0 b6 65 3e c0 e8 9f 41 c0
       -2.9484992 -3.004012 -2.974958 -3.025385
0000a0 f4 25 44 c0 ad 2f 40 c0 0b 74 3f c0 b1 d4 3f c0
       -3.0648165 -3.00291 -2.9914577 -2.9973567
0000b0 32 cf 3b c0 40 3a 44 c0 d4 17 45 c0 84 ed 41 c0
       -2.9345212 -3.0660553 -3.0795794 -3.0301218
0000c0 84 34 35 c0 18 32 45 c0 bd 9d 35 c0 79 61 3d c0
       -2.8313303 -3.0811825 -2.8377526 -2.9590743
0000d0 12 8d 49 c0 3a b2 44 c0 0a bd 3f c0 bc a7 44 c0
       -3.1492352 -3.073378 -2.995913 -3.0727377
0000e0 e4 82 3c c0 86 b9 44 c0 2f 4c 36 c0 af d5 42 c0
       -2.945489 -3.0738235 -2.8483999 -3.0442922
0000f0 0a a7 40 c0 bf 17 42 c0 09 f8 45 c0 fa 45 3e c0
       -3.0101953 -3.0326993 -3.0932639 -2.973021
000100 d4 c2 4a c0 73 81 42 c0 53 5a 3a c0 ac e9 4a c0
       -3.1681414 -3.039151 -2.911763 -3.1705122
000110 26 b9 42 c0 de 5f 4e c0 07 86 45 c0 71 66 3b c0
       -3.0425506 -3.2246013 -3.0863054 -2.9281275
000120 ec 3f 40 c0 91 fc 39 c0 a3 1c 40 c0 23 ad 46 c0
       -3.0039015 -2.9060404 -3.0017478 -3.1043174
000130 fe a2 4e c0 ce f5 3d c0 9d 6a 42 c0 4e 34 3e c0
       -3.2286983 -2.9681277 -3.0377572 -2.9719424
000140 32 51 48 c0 58 2f 44 c0 c1 d8 4c c0 87 98 40 c0
       -3.1299558 -3.0653896 -3.2007296 -3.0093095
000150 2d 04 4e c0 ad ae 40 c0 d1 6b 3a c0 a8 ac 34 c0
       -3.2190049 -3.0106614 -2.9128306 -2.823038
000160 88 b4 3e c0 0b c1 33 c0 df 92 3f c0 5a 7a 3b c0
       -2.9797688 -2.8086574 -2.9933393 -2.9293427
000170 49 5f 40 c0 7c a2 3c c0 c2 c8 3d c0 05 a9 42 c0
       -3.0058157 -2.9474173 -2.9653783 -3.0415661
000180 cf 1c 44 c0 06 7b 3d c0 e4 67 3f c0 dc 52 41 c0
       -3.0642583 -2.9606338 -2.990716 -3.0206823
000190 cf 2a 46 c0 7d 0f 3a c0 b0 7c 3c c0 22 0f 47 c0
       -3.0963628 -2.9071953 -2.9451103 -3.1102986
0001a0 4e 62 39 c0 e6 7d 3c c0 a9 37 49 c0 e2 c1 41 c0
       -2.896625 -2.9451842 -3.1440222 -3.0274587
0001b0 62 d2 3a c0 3e 59 46 c0 1d 6e 49 c0 15 7d 38 c0
       -2.9190907 -3.099197 -3.1473458 -2.8826344
0001c0 25 4b 40 c0 ee d6 4d c0 e1 12 42 c0 f9 5f 3f c0
       -3.0045865 -3.2162433 -3.0324023 -2.9902327
0001d0 d9 68 3f c0 94 f8 34 c0 9b 75 49 c0 8d 9f 41 c0
       -2.9907744 -2.827672 -3.147803 -3.0253632

classifier.0.weight_mu f4 [2, 120]
000000 c6 4e b0 bd f3 a1 22 3e 03 81 e0 bd 6d 86 59 be
       -0.08608775 0.15882091 -0.10962107 -0.21242686
000010 10 cd 1c 3d 84 b6 3b be 1d 1a 42 bc 63 cb 0b bd
       0.0382815 -0.18331343 -0.011847046 -0.03412951
000020 3b 61 a4 3d c3 0c 13 3e a8 a4 fb bd b8 c1 c3 3d
       0.08026358 0.14360337 -0.12287265 0.09558433
000030 95 70 ac 3b 33 e4 54 be 42 74 54 bd eb 36 1d 3e
       0.0052624443 -0.20790176 -0.051868685 0.15352981
000040 88 2b 5e bd 2b b3 4f 3e 77 c4 b0 bd 4a 6a 5c bd
       -0.054240733 0.20283191 -0.08631223 -0.053812303
000050 b9 73 0d 3d aa 4b 04 bd d7 82 49 3d 60 d4 76 3d
       0.03453419 -0.03229872 0.049197044 0.06026113
000060 58 e7 60 3d 98 93 05 3a 63 4d 26 be 25 49 58 bd
       0.054908127 0.00050955405 -0.16240458 -0.05280413
000070 73 36 1d be 9f b1 0d 3e a8 81 9b bd 06 86 26 3d
       -0.15352802 0.13837288 -0.07593089 0.04065516
000080 27 04 13 be 3b 35 89 3d 23 21 4f be 71 8e 9d bd
       -0.14357053 0.06699606 -0.20227484 -0.07693184
000090 97 92 a1 bd 0a ba 05 3d 37 0a 21 be f3 57 3c be
       -0.07889288 0.032648124 -0.15726553 -0.18392925
0000a0 d0 2b 81 3d c3 19 7a 3d 27 e9 27 bd e3 10 bb bd
       0.06307185 0.061059725 -0.040993836 -0.0913408
0000b0 a5 27 4e be fb 5b 5d be b2 03 be 3b dd 6a 07 3e
       -0.2013231 -0.21617119 0.0057987804 0.13224359
0000c0 e9 ea 40 3e 73 35 4c 3d 72 23 81 bd 8f 17 54 3b
       0.18839611 0.04985566 -0.06305589 0.0032362675
0000d0 d8 83 99 3c e5 e3 79 3c 43 57 ed bd df c5 31 3e
       0.018739626 0.015252088 -0.115889095 0.17360638
0000e0 2b d3 99 bd c3 20 c2 3d 2c 56 04 bd 5a 32 c2 3d
       -0.0751098 0.09478905 -0.032308742 0.0948226
0000f0 4f e8 55 3d 1a 17 a4 3a a7 b7 37 be 88 3c a8 bd
       0.0522235 0.0012519092 -0.17941152 -0.082146704
000100 4b d2 c4 3d 35 e2 64 bb 31 3f 2b bd a9 78 00 be
       0.09610423 -0.003492487 -0.04180831 -0.12546028
000110 ba e2 c7 3d ea 7d c8 3b 5d 2c 9c 3d 92 53 4e 3d
       0.097600415 0.0061185258 0.07625649 0.050372668
000120 48 f6 7e bc 7f 0e 08 bd 02 46 8b bc ca 26 b0 3a
       -0.015561648 -0.03321695 -0.017001156 0.0013439294
000130 cd 7f a4 bc 41 a1 91 bc e3 4a d3 bd e3 35 e0 3d
       -0.020080471 -0.017777087 -0.10317018 0.10947778
000140 87 fd 33 be a3 d0 8c bd 27 76 85 bd 5d e1 6e 3e
       -0.17577182 -0.06875732 -0.065166764 0.23328157
000150 9f e5 e6 3d 4f 65 22 bd 97 33 13 3c 91 e8 3d 3e
       0.112742655 -0.039647397 0.008984468 0.18545748
000160 29 7c 29 3e 3d ba 66 bc 67 1d 29 3d 0d 8c 03 3e
       0.1655127 -0.014082489 0.041287806 0.12846394
000170 2c 63 4c 3d dd 9b c8 bd 0f ab e0 bd bd 50 6f be
       0.049899265 -0.097953536 -0.10970127 -0.23370643
000180 cf d5 3d 3e d7 56 2d 3d 8d eb 9d bd b7 10 00 be
       0.18538593 0.042319145 -0.07710943 -0.12506376
000190 c0 e5 f6 bd 87 9b 83 3d c8 53 1b bd f0 12 f4 3d
       -0.1205554 0.06426149 -0.037921697 0.119176745
0001a0 c2 15 4d bc 31 81 0b 3e cd 8b 5d 3d e8 e1 a7 3c
       -0.0125173945 0.13623501 0.054088403 0.020493463
0001b0 1b 28 af bd 8b ee 7d bd c0 6d 13 3d 47 16 64 3e
       -0.085525714 -0.06199507 0.035993338 0.22274123
0001c0 6d d3 e7 3d 22 06 20 be 7c ff a7 bc 18 c5 1f bc
       0.11319623 -0.1562734 -0.020507567 -0.009751581
0001d0 72 95 ab 3c 62 d3 df 3d 85 5f e6 bd 0f da 3c 3d
       0.020945285 0.1092899 -0.11248688 0.046106394
0001e0 5b 15 8a bd e5 26 99 3d 7a f7 04 be de 02 8e bd
       -0.067423545 0.07478122 -0.1298503 -0.069341406
0001f0 d8 9e 5f 3e d7 aa e7 bd b7 1e 1a be 7a b2 3e bd
       0.21837938 -0.11311882 -0.1505078 -0.046556927
000200 b0 7c 52 be 25 08 f7 3a ba 7f 1f 3e 2d 1c 5a 3d
       -0.20555377 0.0018847032 0.15576068 0.053249527
000210 35 e0 6b be 03 4f c0 3d 6f 5c de 3c f7 8f c1 bb
       -0.23034747 0.0939007 0.027143685 -0.0059070545
000220 4a ba f8 bc b7 b4 aa bb 8d 5c 2b bd 78 8f ea 3c
       -0.030362267 -0.005209531 -0.04183631 0.028632864
000230 43 33 f5 3d 33 83 1d 3b 5a 2c 9b 3c dd cc f7 3c
       0.11972668 0.00240345 0.018942047 0.030249054
000240 3b b7 6e be 7a 9c b6 ba 33 14 fd 3d 41 35 bd bd
       -0.23312084 -0.0013932132 0.12357368 -0.09238673
000250 42 0d 90 bd 65 3b 17 be 1a 9d dd ba 83 91 1c be
       -0.07033779 -0.14768751 -0.0016907782 -0.15289883
000260 7d c4 cc bd c7 2d a0 3b 41 de 00 3e 8b 61 86 3c
       -0.09998415 0.0048882696 0.12584783 0.016403934
000270 e3 5d 36 bd 7b ed cc bc eb 7f d2 bd ff e7 9c 3d
       -0.04452313 -0.025015583 -0.10278305 0.07661437
000280 b3 44 b1 3d e8 4c b1 3d 5a 29 93 bd 57 81 0c 3e
       0.086556815 0.08657247 -0.071856216 0.13721214
000290 3f e4 ae 3d ab f2 80 3d 9f c9 87 be 67 07 6c 3d
       0.08539628 0.06296285 -0.26521012 0.057624247
0002a0 66 8f 3c 3d 90 f8 e4 bd 1b b9 4c 3e df 54 fd 3c
       0.046035193 -0.11180222 0.19992487 0.030924259
0002b0 d4 e0 30 3e 52 12 65 bd 75 8f ce 3d a7 6f 0f 3e
       0.17273265 -0.055925675 0.10085956 0.14007436
0002c0 40 b1 2c bc 08 24 13 bc cf 4a 05 3c 6b fa 56 be
       -0.010540307 -0.0089807585 0.008135512 -0.20993964
0002d0 3f 55 c1 bc 17 0f 68 3d 7d 66 01 bc 87 78 e0 3d
       -0.023600219 0.056655016 -0.00789797 0.10960489
0002e0 05 cb fb 3c 8f 2e dc bd e8 b1 ff 3d 9f 50 12 3c
       0.030736456 -0.10751068 0.12485105 0.008930354
0002f0 3a 1e 08 bc e0 07 32 bd cc 34 05 be 7d c6 07 bd
       -0.008307988 -0.04346454 -0.13008422 -0.033148278
000300 ed 54 68 3b c5 77 56 be bb d1 be 3d 88 98 f1 3d
       0.003545101 -0.20944126 0.09317347 0.11796671
000310 07 52 61 3d ba 44 37 3d 53 38 94 bd 8f 6d b2 3d
       0.055009868 0.044743277 -0.072373055 0.08712303
000320 b7 80 34 bd e0 e1 24 bd 6c 9b 1f 3e 5b 01 80 bd
       -0.044068065 -0.040254474 0.15586632 -0.062502585
000330 c6 44 9a 3d 33 69 ee 3c 08 f3 d5 3d df 1e 37 be
       0.07532649 0.029102897 0.10446745 -0.1788287
000340 ca 21 3d be 0f 75 c2 3c 95 c8 47 3e 43 1d e4 bd
       -0.18469921 0.023737459 0.1951011 -0.11138394
000350 8f e4 df 3d 2e 25 c5 3d b7 81 d4 bb a7 77 01 3e
       0.10932266 0.09626232 -0.00648519 0.126433
000360 d8 04 b9 3c 19 f9 3c 3e 58 ba f1 3d 0f e5 94 3d
       0.022585317 0.18454398 0.118031204 0.07270252
000370 b3 c2 21 be 4e 5a 1a 3d c8 83 79 bd db 68 e2 3d
       -0.15796928 0.037683778 -0.060916692 0.11055156
000380 4f d8 0a bd fa fc 93 3d 01 94 29 be 1f 7e ce bd
       -0.033897694 0.07225986 -0.16560365 -0.100826494
000390 9f 63 fe 3b c3 b7 c6 3c b5 ea 9e bd ab 50 0c be
       0.0077633406 0.024257546 -0.077596106 -0.13702647
0003a0 d5 50 2d 3c e7 e6 53 be 1a 1f bb 3d ca f2 bc bc
       0.010578354 -0.20693551 0.091367915 -0.02306499
0003b0 12 d1 1a bd 82 4e c5 3d 05 7e e4 bc f7 4d 4d 3e
       -0.03779704 0.09634115 -0.027892122 0.20049272
