checkpoints_1_tasks/1_task_groups_PUGCL_epochs_:75_lr_:0.06_hidden_:120/model_0.pth.tar (torch_old, 46622 bytes, 16 tensors)

l1.weight_mu f4 [120, 29]
0	0x3e083faf	0.13305543
1	0x3d36a6cd	0.044592667
2	0x3d846bdf	0.06465887
3	0x3d224641	0.03961778
4	0x3d2d2790	0.042274058
5	0x3b889c7f	0.0041690464
6	0x3c863a79	0.016385304
7	0x3d205e61	0.039152507
8	0xbca7a644	-0.020465024
9	0x3d9a2fc3	0.07528641
10	0x3da52ce6	0.08065204
11	0xbe53f49b	-0.20698778
12	0x3938512c	0.00017577846
13	0xbc4514ea	-0.012028912
14	0x3e4b04df	0.19826077
15	0x3d346531	0.044041816
16	0x3b721e56	0.003694435
17	0x3d8f8b33	0.07008972
18	0xbe1e3e93	-0.15453558
19	0xbdb3b9e6	-0.08775692
20	0x3d2d9a5c	0.042383537
21	0xbdb83518	-0.08994502
22	0x3d932388	0.071845114
23	0x3ea0bd30	0.3139434
24	0x3e3f7754	0.18697864
25	0x3e50685c	0.2035231
26	0x3d8c8e83	0.068631195
27	0x3de5ba41	0.11217166
28	0x3e47eec5	0.19524677
29	0x3e04f055	0.12982304
30	0xbe3e5e61	-0.1859069
31	0xbd665e31	-0.05624217
32	0xbdc65e25	-0.096859254
33	0xbd6ee3b3	-0.05832262
34	0xbd6b3357	-0.05742201
35	0xbde4e109	-0.111757345
36	0xbe80a5e6	-0.2512657
37	0xbe369dc5	-0.17833622
38	0xbe170c4a	-0.14750782
39	0x3d845597	0.064616375
40	0xbc17e1a6	-0.009270107
41	0x3d4e3bdd	0.05035006
42	0xbd23491e	-0.03986465
43	0xbdd1fddb	-0.10253497
44	0x3dba2ed4	0.09090963
45	0xbd244e96	-0.040114008
46	0x3dfaed4f	0.12252294
47	0xbc203a6d	-0.009779555
48	0x3e32c7b0	0.17458987
49	0xbd52bd10	-0.051449835
50	0xbdda23ea	-0.10651381
51	0x3d32d736	0.043662272
52	0xbc51b657	-0.012799821
53	0xbe153a71	-0.14573075
54	0x3dfb5bac	0.122733444
55	0xbe097f11	-0.13427378
56	0xbc498077	-0.012298695
57	0xbdc5d9d0	-0.09660685
58	0xbd163f70	-0.036681592
59	0x3dd673c0	0.10471296
60	0xbd74db73	-0.059779596
61	0x3c8651a0	0.016396344
62	0xbd891698	-0.066937625
63	0xbcb7c261	-0.022431554
64	0xbde56440	-0.11200762
65	0xbd68ee31	-0.056867782
66	0xbdc14aeb	-0.094381176
67	0xbe551c3f	-0.20811556
68	0x3c8e209d	0.017349536
69	0xbd81aa33	-0.06331291
70	0x3afef83f	0.0019452645
71	0xbd812865	-0.06306533
72	0x3d651422	0.055927403
73	0xbe50a900	-0.20376968
74	0x3db1430f	0.086553685
75	0x3c0e3be2	0.008681269
76	0xbba679bb	-0.0050804294
77	0x3dbc2d50	0.0918833
78	0xbd3489e4	-0.044076815
79	0xbd32ac86	-0.043621562
80	0xbc8981bb	-0.016785493
81	0x3c0977ec	0.008390408
82	0xbc490e0a	-0.012271414
83	0x3d1496ac	0.036276504
84	0x3d297a07	0.04137614
85	0xbd8bc16f	-0.06824004
86	0xbdc3e522	-0.09565188
87	0x3c54f9ca	0.0129990075
88	0xbc40d3b0	-0.01176922
89	0x3cf8b643	0.030360347
90	0xbb9fc56b	-0.004875829
91	0xbd6d4ac4	-0.05793263
92	0xbc834266	-0.016022872
93	0x3d8acfa0	0.067778826
94	0xbe1d53e8	-0.15364039
95	0xbe0c6863	-0.13711695
96	0xbdb59bc0	-0.088675976
97	0x3dad5368	0.08463174
98	0xbd612841	-0.05497003
99	0xbdd2db33	-0.10295715
100	0xbc7f10a1	-0.0155679295
101	0x3e4a0311	0.19727732
102	0xbc0af35b	-0.008480872
103	0xbd54ce46	-0.05195453
104	0xbd53a245	-0.051668424
105	0x3d669037	0.056289878
106	0xbe423c76	-0.18968377
107	0xbdad7626	-0.08469801
108	0x3d862f5f	0.06552004
109	0xbc83f396	-0.016107362
110	0x3ddd4484	0.10804084
111	0x3ddecd4a	0.108789995
112	0x3e1bcc83	0.15214734
113	0x3ce61b3f	0.028089164
114	0x3b8b3437	0.004248168
115	0xbe11d2f1	-0.14240624
116	0x3d5f4f11	0.054518763
117	0x3cdf4bb2	0.027257774
118	0x3dc6ae48	0.0970121
119	0x3de08a6b	0.10963901
120	0xbd92e785	-0.07173065
121	0x3d8d4ac8	0.06899029
122	0xbdf5adf7	-0.11996072
123	0xbda9e9b5	-0.08296529
124	0x3d4ddd7e	0.05026006
125	0x3e144f5c	0.14483398
126	0xbdcb608a	-0.09930523
127	0x3dd9fa0f	0.10643398
128	0x3d779f86	0.060454868
129	0x3de9f37e	0.114233956
130	0x3d3b8549	0.045781408
131	0x3e42cbd0	0.19023061
132	0x3da34686	0.07972436
133	0xbe07e743	-0.13271813
134	0x3c91ab13	0.01778177
135	0x3d8ba6fc	0.06818959
136	0xbd925c89	-0.07146556
137	0xbddfafc9	-0.109222
138	0x3e122c1a	0.14274636
139	0xbd8f91d9	-0.0701024
140	0x3dbd27d0	0.09236109
141	0xbc7c7e49	-0.015410968
142	0xbdacdec9	-0.084409304
143	0xbe00ec86	-0.12590227
144	0x3dffd631	0.12492026
145	0x3ccab43d	0.024744147
146	0xbbdb1825	-0.006686228
147	0x3d82a981	0.063799866
148	0xbdcf0bb7	-0.10109656
149	0xbe7870d1	-0.24261786
150	0x3d2b790d	0.04186349
151	0x3d51195a	0.051049568
152	0x3cc990f7	0.024605257
153	0x3da68fad	0.08132873
154	0xbdcf298d	-0.10115347
155	0x3d63fadd	0.055659164
156	0xbd538fd9	-0.051650856
157	0xbd289735	-0.041159827
158	0xbd2de913	-0.042458605
159	0xbe11e71b	-0.14248316
160	0x3d22541e	0.039631
161	0x3e046579	0.12929334
162	0x3e214cb1	0.15751912
163	0x3b253e75	0.002521423
164	0x3c199236	0.009373238
165	0xbe3ebcf3	-0.18626766
166	0xbdeae6ba	-0.11469789
167	0x3e1c3b0f	0.15256904
168	0x3c0fede2	0.008784743
169	0xbd19a9c9	-0.037515435
170	0xbe3df291	-0.18549563
171	0x3cb5035d	0.02209633
172	0xbcb37a12	-0.021908794
173	0xbd100954	-0.035165146
174	0x3b4b8c38	0.0031058919
175	0x3de2ab7d	0.11067865
176	0x3e0289bb	0.12747853
177	0xbd711d55	-0.058865864
178	0xbc169c2d	-0.009192509
179	0xbcf9d1ec	-0.030495606
180	0x3d4d0cc7	0.050061014
181	0x3d2f197c	0.042748913
182	0xbd0f83a0	-0.035037637
183	0x3dcd9920	0.10038972
184	0xbdef294d	-0.116777994
185	0xbd98de75	-0.07464305
186	0xbe0b88ed	-0.13626452
187	0xbd03b925	-0.03215899
188	0x3d108f0e	0.035292678
189	0x3e1dc2a5	0.15406282
190	0xbe626a0f	-0.2211077
191	0xbde328b9	-0.110917516
192	0x3d7baa05	0.06144144
193	0xbd5a14a8	-0.053242356
194	0xbda95400	-0.08267975
195	0xbcb1aa04	-0.021687515
196	0xbc8a7203	-0.016900068
197	0xbd9479a2	-0.07249762
198	0xbd8a5ccd	-0.067559816
199	0xbd161dc7	-0.03664949
200	0xba0e02d1	-0.000541729
201	0xbd7b56c8	-0.061362058
202	0xbdad2d79	-0.08455939
203	0xbb898919	-0.0041972515
204	0xbdc948c6	-0.098283336
205	0xbc5f1f1f	-0.01361826
206	0xbc21d968	-0.009878494
207	0xbda5c1b7	-0.08093589
208	0x3c122b9b	0.008921529
209	0xbd06e18d	-0.032929946
210	0xbe92fb91	-0.28707555
211	0xbcfafef8	-0.030639157
212	0xbc848d63	-0.0161807
213	0xbd970fe7	-0.0737608
214	0xbe280964	-0.16409832
215	0x3e32c21f	0.17456864
216	0x3d1ca6ac	0.03824489
217	0xbd5d6f61	-0.054061297
218	0xbdb47452	-0.08811249
219	0x3d86fd84	0.06591323
220	0x3cbfc6ee	0.023410287
221	0x3d547b84	0.051875606
222	0x3c990ac5	0.018681893
223	0xbd83ded5	-0.06438986
224	0x3e215d0b	0.1575815
225	0x3d9ba8f5	0.07600585
226	0xbdf0dd64	-0.11760977
227	0x3d591b35	0.053004462
228	0x3d8de278	0.06927961
229	0xbdb2f115	-0.08737389
230	0x3d6a5402	0.057209022
231	0x3d355267	0.044268038
232	0x3e0a9460	0.13533163
233	0x3ddda64b	0.108227335
234	0xbd294b55	-0.041331608
235	0x3e58b319	0.2116207
236	0x3dc2939a	0.09500809
237	0x3e50076a	0.20315328
238	0xbd1278a5	-0.035759587
239	0x3e15a8ce	0.14615175
240	0xbca30be2	-0.019903127
241	0xba1d40e4	-0.0005998744
242	0x3ca77a31	0.020444008
243	0xbd37e06f	-0.04489177
244	0xbbc1dcb3	-0.005916202
245	0xbcc983e7	-0.024599029
246	0x3e451bd0	0.19248891
247	0xbd6581bb	-0.056031924
248	0xbd213508	-0.039357215
249	0x3e2f54e9	0.17122234
250	0x3d8161c0	0.063174725
251	0xbe2657a2	-0.16244367
252	0xbd05318c	-0.032517955
253	0x3dd2acd5	0.10286871
254	0x3db7b2a4	0.0896962
255	0x3e085d89	0.13316931

l1.weight_rho f4 [120, 29]
0	0xc03fc550	-2.996418
1	0xc046d2fb	-3.1066272
2	0xc038ec54	-2.8894243
3	0xc03908d9	-2.891165
4	0xc035331c	-2.8312445
5	0xc03a0564	-2.906579
6	0xc039f819	-2.9057677
7	0xc045c7f3	-3.090329
8	0xc0479809	-3.1186545
9	0xc03ae1ea	-2.9200387
10	0xc0330b1b	-2.7975528
11	0xc040288c	-3.0024748
12	0xc0505965	-3.2554562
13	0xc03a9d10	-2.9158363
14	0xc040d26e	-3.0128436
15	0xc03b8ea0	-2.9305801
16	0xc0423f9e	-3.035133
17	0xc04707c4	-3.109849
18	0xc042f880	-3.0464172
19	0xc03fb675	-2.9955113
20	0xc03916e3	-2.892022
21	0xc042acd0	-3.0417976
22	0xc0440623	-3.0628746
23	0xc047a1cf	-3.119251
24	0xc0431a8f	-3.048496
25	0xc03d4170	-2.957119
26	0xc03e59f4	-2.9742403
27	0xc03945b7	-2.89488
28	0xc04c2371	-3.1896632
29	0xc0417be1	-3.023186
30	0xc0447a0d	-3.0699494
31	0xc04169a7	-3.0220735
32	0xc040c4bb	-3.0120075
33	0xc04d0708	-3.2035542
34	0xc034a858	-2.822775
35	0xc03a93db	-2.9152744
36	0xc03a4879	-2.9106734
37	0xc03a2d9e	-2.9090343
38	0xc0427956	-3.0386558
39	0xc03d8c21	-2.9616778
40	0xc03cd2df	-2.9503706
41	0xc040e4b6	-3.0139594
42	0xc02d78db	-2.7105014
43	0xc0409773	-3.0092437
44	0xc0376591	-2.8655741
45	0xc04506a5	-3.0785306
46	0xc03b9d5b	-2.9314792
47	0xc0345d19	-2.8181822
48	0xc0416457	-3.0217493
49	0xc038efcf	-2.8896368
50	0xc03b5914	-2.927312
51	0xc043da6c	-3.0602064
52	0xc047be19	-3.1209776
53	0xc037b5bf	-2.870468
54	0xc04262b0	-3.0372734
55	0xc0415b44	-3.0211954
56	0xc049830f	-3.1486242
57	0xc03ecbd0	-2.9811897
58	0xc048667f	-3.1312559
59	0xc03c1d18	-2.9392757
60	0xc042e7d7	-3.0454004
61	0xc04199c4	-3.02501
62	0xc041f5cc	-3.0306273
63	0xc045baea	-3.0895333
64	0xc0395081	-2.8955386
65	0xc03a6d80	-2.9129333
66	0xc0455cbc	-3.083785
67	0xc041cfc9	-3.0283072
68	0xc038e57c	-2.8890066
69	0xc0369b19	-2.8532164
70	0xc0393b8f	-2.8942602
71	0xc0419938	-3.0249767
72	0xc03cf1c1	-2.9522555
73	0xc034c244	-2.824357
74	0xc042f952	-3.0464673
75	0xc0429003	-3.0400398
76	0xc0464e85	-3.0985425
77	0xc04048ed	-3.004451
78	0xc0455910	-3.083561
79	0xc0518918	-3.2739925
80	0xc04c6c83	-3.194123
81	0xc038266b	-2.8773448
82	0xc03d1da2	-2.9549336
83	0xc0471cf0	-3.1111412
84	0xc036b35d	-2.8546975
85	0xc039e3ff	-2.9045408
86	0xc034bc18	-2.8239803
87	0xc03e9035	-2.9775517
88	0xc03f166c	-2.9857435
89	0xc0363d5d	-2.8474953
90	0xc03f578f	-2.9897192
91	0xc03eb359	-2.9796965
92	0xc03e3263	-2.9718254
93	0xc045e7cd	-3.092273
94	0xc043bff8	-3.0585918
95	0xc0410a1a	-3.0162416
96	0xc0445aa6	-3.0680327
97	0xc048a27d	-3.1349175
98	0xc03e6eef	-2.9755208
99	0xc04c3238	-3.190565
100	0xc0440733	-3.0629394
101	0xc03b0153	-2.9219558
102	0xc04493cd	-3.071521
103	0xc03826b0	-2.8773613
104	0xc041114a	-3.0166802
105	0xc0429e24	-3.0409021
106	0xc03a7538	-2.9134045
107	0xc03f8d5a	-2.9930024
108	0xc041bbaf	-3.0270803
109	0xc0381c23	-2.8767173
110	0xc042497a	-3.0357347
111	0xc0456e82	-3.0848699
112	0xc04212cc	-3.0323973
113	0xc03805f4	-2.8753633
114	0xc0452b50	-3.0807686
115	0xc0341ad7	-2.8141382
116	0xc0419bcc	-3.025134
117	0xc03ea07b	-2.978545
118	0xc03972fb	-2.8976429
119	0xc0404ed1	-3.0048106
120	0xc0425b6f	-3.0368307
121	0xc046db22	-3.1071248
122	0xc040987f	-3.0093076
123	0xc03c0387	-2.9377153
124	0xc03b2321	-2.924019
125	0xc040a0af	-3.0098073
126	0xc03e7f9f	-2.9765394
127	0xc0405d36	-3.0056891
128	0xc03d2c14	-2.9558153
129	0xc03f1352	-2.9855542
130	0xc04bb04f	-3.182636
131	0xc033eb1b	-2.8112247
132	0xc034a185	-2.8223584
133	0xc047a43f	-3.1193998
134	0xc04db2e6	-3.214044
135	0xc03c80fb	-2.9453723
136	0xc03e5879	-2.97415
137	0xc0424c10	-3.0358925
138	0xc0442ced	-3.065242
139	0xc03b2ec0	-2.9247284
140	0xc03fdcb5	-2.997846
141	0xc047a18c	-3.119235
142	0xc03c3d8c	-2.9412565
143	0xc03c2a48	-2.9400806
144	0xc03a3760	-2.9096298
145	0xc03dad9e	-2.9637218
146	0xc043f188	-3.061617
147	0xc04513ec	-3.079341
148	0xc046ce47	-3.1063402
149	0xc03e630a	-2.9747949
150	0xc03d474d	-2.9574769
151	0xc046c875	-3.105985
152	0xc03e3c03	-2.9724128
153	0xc04dffa3	-3.2187278
154	0xc03928a8	-2.8931065
155	0xc03d21cd	-2.955188
156	0xc03ea858	-2.979025
157	0xc04660a2	-3.099648
158	0xc03a2481	-2.908478
159	0xc04468ba	-3.068892
160	0xc03ef183	-2.9834907
161	0xc046c6b8	-3.1058788
162	0xc03c5f71	-2.9433253
163	0xc03f3788	-2.9877644
164	0xc046fbe3	-3.109124
165	0xc03f1db5	-2.9861882
166	0xc040f65e	-3.015037
167	0xc03ed1af	-2.981548
168	0xc0420f9c	-3.0322027
169	0xc0445f07	-3.0683
170	0xc0458cb2	-3.0867124
171	0xc03e0c62	-2.9695058
172	0xc040ed9c	-3.0145025
173	0xc0404f78	-3.0048504
174	0xc0397c9c	-2.8982306
175	0xc03cea52	-2.9518018
176	0xc035a4c0	-2.8381805
177	0xc0397185	-2.8975537
178	0xc03fb195	-2.9952137
179	0xc046f05b	-3.1084201
180	0xc0416290	-3.0216408
181	0xc042297b	-3.0337818
182	0xc0499a0a	-3.1500268
183	0xc03e7240	-2.9757233
184	0xc0428e1e	-3.0399241
185	0xc034d30d	-2.8253815
186	0xc03898db	-2.8843296
187	0xc0452ad2	-3.0807385
188	0xc04fc9b0	-3.246685
189	0xc0482402	-3.1271977
190	0xc03b74d7	-2.9290063
191	0xc03a908e	-2.915073
192	0xc03e0f4e	-2.9696841
193	0xc0355776	-2.8334632
194	0xc04b73d7	-3.1789453
195	0xc03e24bf	-2.9709928
196	0xc044f2fd	-3.0773308
197	0xc0434b84	-3.051484
198	0xc033fc8a	-2.8122888
199	0xc0397284	-2.8976145
200	0xc0362b88	-2.846407
201	0xc0408ff3	-3.008786
202	0xc03f5c41	-2.9900057
203	0xc0421f17	-3.0331476
204	0xc03d885f	-2.9614484
205	0xc04d1ca2	-3.2048726
206	0xc03e15f4	-2.97009
207	0xc041bd0a	-3.027163
208	0xc03ba103	-2.9317024
209	0xc0427887	-3.0386064
210	0xc03c61d5	-2.9434712
211	0xc049c2ad	-3.152507
212	0xc043f2b9	-3.0616896
213	0xc04140b9	-3.0195754
214	0xc03e3d36	-2.972486
215	0xc042940b	-3.0402858
216	0xc03d30dd	-2.9561074
217	0xc0463753	-3.0971267
218	0xc0356d3e	-2.8347926
219	0xc03fc1b8	-2.9961987
220	0xc047c266	-3.1212401
221	0xc0368bb2	-2.8522763
222	0xc0355051	-2.8330271
223	0xc036b5ad	-2.8548386
224	0xc0400ca0	-3.0007706
225	0xc03a69ae	-2.9127002
226	0xc03d7fb4	-2.9609194
227	0xc03c2613	-2.9398239
228	0xc0435b00	-3.0524292
229	0xc0414b20	-3.0202103
230	0xc03a363e	-2.9095607
231	0xc041e840	-3.0298004
232	0xc0516d93	-3.2723129
233	0xc03f3322	-2.987496
234	0xc03df803	-2.9682624
235	0xc041c4fa	-3.0276475
236	0xc040d9a6	-3.0132842
237	0xc045b38f	-3.0890844
238	0xc0406081	-3.0058901
239	0xc041bb70	-3.0270653
240	0xc044f478	-3.0774212
241	0xc0418d93	-3.024266
242	0xc048ea68	-3.139307
243	0xc03e25b6	-2.9710517
244	0xc03f6252	-2.990376
245	0xc039e955	-2.9048665
246	0xc03e1701	-2.970154
247	0xc0367797	-2.8510492
248	0xc03c7c36	-2.9450812
249	0xc0391384	-2.8918161
250	0xc03b417d	-2.925872
251	0xc0427990	-3.0386696
252	0xc0453b62	-3.0817494
253	0xc04459a4	-3.0679712
254	0xc046f4e3	-3.1086967
255	0xc0397e62	-2.8983388

l1.bias_mu f4 [120]
0	0x3e852824	0.26007187
1	0x3d50165c	0.050802574
2	0xbc05b695	-0.008161207
3	0xbdccc277	-0.09998029
4	0x3e8439b8	0.25825286
5	0x3d3afa8a	0.04564909
6	0x3bb4cf46	0.005517873
7	0x3cd01164	0.025398917
8	0x3eb7dc4e	0.35910267
9	0xbb173ed9	-0.0023078232
10	0xbd8e0b73	-0.069357775
11	0xbdcdcf2f	-0.10049283
12	0xbe94f88e	-0.29095882
13	0xbda87400	-0.0822525
14	0x3e7ad748	0.24496186
15	0xbc8275bd	-0.015925283
16	0x3e10c0fb	0.14136116
17	0xbdc2d61f	-0.095134966
18	0x3e6b50e9	0.22980084
19	0x3d4df660	0.05028379
20	0xbdb0259f	-0.08600926
21	0x3c8255c7	0.015910042
22	0x3e08d5de	0.13362834
23	0x3e2700de	0.16308925
24	0xbe0233f3	-0.1271513
25	0xbe21d3c3	-0.15803437
26	0xbbf719bf	-0.007540911
27	0xbe03ab1a	-0.12858239
28	0xbd3aa04a	-0.04556302
29	0xbe26debb	-0.16295902
30	0x3e3e10dc	0.18561119
31	0x3d29f447	0.041492727
32	0x3e735d53	0.23766069
33	0x3da59138	0.08084339
34	0xbc3f6fe5	-0.011684393
35	0xbdc3deaa	-0.09563954
36	0xbe8b5e3c	-0.27220333
37	0x3ca33403	0.019922262
38	0xbd3f9431	-0.046772186
39	0xbd0bf5da	-0.03417001
40	0x3e1431de	0.14472148
41	0xbdc059ab	-0.09392103
42	0xbc950468	-0.018190578
43	0xbdcd4e90	-0.1002475
44	0x3d9744d3	0.07386174
45	0xbc5876e6	-0.013211941
46	0x3e7ca1bb	0.2467107
47	0x3d8e25c6	0.069407985
48	0xbd9dd724	-0.077070504
49	0xbe33e162	-0.17566445
50	0x3d0a5166	0.033769034
51	0x3cf18251	0.029481085
52	0x3da68705	0.08131222
53	0xbdf0530b	-0.11734589
54	0x3e92e825	0.28692737
55	0x3d5f14b9	0.054463122
56	0xbd8d6365	-0.069037236
57	0x3d404995	0.046945173
58	0x3da6f107	0.08151441
59	0x3dc45708	0.095869124
60	0x3d06c159	0.032899234
61	0x3d782806	0.060585044
62	0xbe1198d4	-0.14218456
63	0xbdb62e97	-0.08895605
64	0x3e5b8f30	0.2144134
65	0x3e1ae5d9	0.15126742
66	0xbc0f08b9	-0.008730107
67	0xbdde6e5e	-0.108608946
68	0xbdb6c945	-0.08925108
69	0x3e20113a	0.15631571
70	0x3d5359e0	0.051599383
71	0xbd6d5ef8	-0.057951897
72	0x3e883f50	0.26610804
73	0x3e3800f4	0.17969114
74	0x3da8ba9d	0.08238719
75	0x3d7fdded	0.062467504
76	0xbe7bd915	-0.24594529
77	0x3e0cc13a	0.13745585
78	0x3d13f686	0.036123775
79	0xbcc77393	-0.024347102
80	0xbc44df9d	-0.012016204
81	0xbdb66dd2	-0.08907665
82	0x3e387efd	0.18017192
83	0x3e5b31d3	0.21405725
84	0x3cf6dac9	0.030133622
85	0x3be590cd	0.007005787
86	0xbdb44b1b	-0.08803388
87	0xbdfa432c	-0.12219843
88	0x3e42bc98	0.19017255
89	0x3dbdaf99	0.09262008
90	0x3e762618	0.24037969
91	0xbe7c4e1e	-0.24639174
92	0xbb92f8da	-0.004485232
93	0x3e0bc9ac	0.1365115
94	0x3d83e84e	0.06440793
95	0xbdb331f1	-0.0874976
96	0x3ba9bbb4	0.0051798467
97	0x3df0bdd8	0.1175496
98	0x3e3c0be2	0.18363908
99	0xbc0daddc	-0.008647408
100	0xbda4a47c	-0.080391854
101	0xbd62253f	-0.055211302
102	0xbcca37df	-0.024684845
103	0xbd25f0ab	-0.040512722
104	0x3dd8534d	0.10562763
105	0xbdc1feef	-0.09472453
106	0x3e3d3a76	0.18479332
107	0x3e49020b	0.19629686
108	0x3e68a803	0.22720341
109	0xbdf6a174	-0.120425135
110	0xbcdb53e8	-0.026773408
111	0x3e8c0466	0.27347106
112	0xbd88a086	-0.066712424
113	0x3c747fe1	0.014923067
114	0x3de5c998	0.112200916
115	0x3d6a8f51	0.057265583
116	0xbd93f8ac	-0.07225165
117	0x3e448500	0.1919136
118	0xbd7052bf	-0.058672663
119	0x3d77ca07	0.060495403

l1.bias_rho f4 [120]
0	0xc04a928c	-3.1651945
1	0xc048ae1b	-3.1356266
2	0xc039dac3	-2.9039772
3	0xc03d3b5a	-2.9567475
4	0xc039d13b	-2.9033954
5	0xc03bca8d	-2.9342377
6	0xc04070e2	-3.0068898
7	0xc03ad989	-2.9195273
8	0xc032ab90	-2.7917213
9	0xc039e424	-2.9045496
10	0xc03e8b81	-2.9772646
11	0xc03ae79f	-2.920387
12	0xc03c4d4b	-2.9422176
13	0xc03ee145	-2.9824994
14	0xc040343a	-3.0031877
15	0xc0450ffd	-3.0791008
16	0xc02b8cd9	-2.6804717
17	0xc04bb299	-3.1827757
18	0xc04cb729	-3.1986792
19	0xc02f00c8	-2.7344227
20	0xc045755c	-3.085288
21	0xc041c3fb	-3.0275867
22	0xc0362f46	-2.8466353
23	0xc0410df8	-3.0164776
24	0xc0454ad5	-3.0826924
25	0xc03b6f1f	-2.9286573
26	0xc04b9239	-3.1807997
27	0xc0423743	-3.034623
28	0xc0389fd1	-2.8847544
29	0xc041c7f2	-3.0278287
30	0xc046363b	-3.09706
31	0xc03df94c	-2.9683409
32	0xc04750b4	-3.1143007
33	0xc0493d3a	-3.144362
34	0xc03fe68b	-2.9984462
35	0xc0400438	-3.0002575
36	0xc03d5b96	-2.958715
37	0xc03df943	-2.9683387
38	0xc036adcc	-2.8543577
39	0xc041058e	-3.015964
40	0xc03ba010	-2.9316444
41	0xc046b7d5	-3.1049702
42	0xc03c10c1	-2.9385226
43	0xc03a7efd	-2.9140007
44	0xc036e189	-2.8575156
45	0xc03d89b1	-2.961529
46	0xc0391cce	-2.892383
47	0xc03a2a88	-2.908846
48	0xc04334a9	-3.0500891
49	0xc040f54c	-3.0149717
50	0xc030af74	-2.7607088
51	0xc0432da3	-3.0496604
52	0xc04879c2	-3.1324315
53	0xc04070e4	-3.0068903
54	0xc039fd66	-2.9060912
55	0xc040456d	-3.0042374
56	0xc043896d	-3.0552628
57	0xc034d8f5	-2.825742
58	0xc04aff5c	-3.171836
59	0xc0491e36	-3.142469
60	0xc03bbf16	-2.933538
61	0xc042e9ce	-3.0455203
62	0xc0401883	-3.001496
63	0xc049b218	-3.151495
64	0xc03aef1c	-2.920844
65	0xc04187c0	-3.0239105
66	0xc0396e4c	-2.897357
67	0xc041eead	-3.0301926
68	0xc0413e3b	-3.0194232
69	0xc0456b63	-3.0846794
70	0xc03728df	-2.8618696
71	0xc03df318	-2.9679623
72	0xc0387b00	-2.8825073
73	0xc040c47e	-3.011993
74	0xc045d0a5	-3.0908597
75	0xc040c82e	-3.012218
76	0xc050a95e	-3.2603374
77	0xc03d33bb	-2.9562824
78	0xc03a31ff	-2.9093015
79	0xc0447bf5	-3.0700657
80	0xc0460b0f	-3.094425
81	0xc04012b8	-3.0011425
82	0xc0350982	-2.8287053
83	0xc040c746	-3.0121627
84	0xc036fb99	-2.8591063
85	0xc0398356	-2.898641
86	0xc03e8ce9	-2.9773505
87	0xc03b853a	-2.9300065
88	0xc0422b7f	-3.0339048
89	0xc04e6bc9	-3.2253287
90	0xc03ca9e2	-2.9478688
91	0xc0361354	-2.8449297
92	0xc03ae941	-2.9204867
93	0xc042dd6e	-3.044765
94	0xc02f55c6	-2.7396102
95	0xc0441aa7	-3.0641267
96	0xc03f9837	-2.9936655
97	0xc037d83e	-2.8725734
98	0xc03843c5	-2.8791363
99	0xc03ec443	-2.9807289
100	0xc03223ae	-2.7834277
101	0xc04122f0	-3.0177574
102	0xc0421867	-3.0327394
103	0xc03baa7e	-2.932281
104	0xc0455684	-3.0834055
105	0xc047a7da	-3.1196198
106	0xc04492bf	-3.0714567
107	0xc0423343	-3.0343788
108	0xc03ed1e3	-2.9815605
109	0xc040a3e7	-3.0100038
110	0xc045e35b	-3.0920017
111	0xc03de34b	-2.9669979
112	0xc03abd52	-2.9178052
113	0xc0476dff	-3.1160886
114	0xc04882c5	-3.1329815
115	0xc039c99e	-2.9029307
116	0xc041a972	-3.0259671
117	0xc03196e6	-2.774835
118	0xc03b55bd	-2.927108
119	0xc042b679	-3.0423872

l1.weight.mu f4 [120, 29]
0	0x3e083faf	0.13305543
1	0x3d36a6cd	0.044592667
2	0x3d846bdf	0.06465887
3	0x3d224641	0.03961778
4	0x3d2d2790	0.042274058
5	0x3b889c7f	0.0041690464
6	0x3c863a79	0.016385304
7	0x3d205e61	0.039152507
8	0xbca7a644	-0.020465024
9	0x3d9a2fc3	0.07528641
10	0x3da52ce6	0.08065204
11	0xbe53f49b	-0.20698778
12	0x3938512c	0.00017577846
13	0xbc4514ea	-0.012028912
14	0x3e4b04df	0.19826077
15	0x3d346531	0.044041816
16	0x3b721e56	0.003694435
17	0x3d8f8b33	0.07008972
18	0xbe1e3e93	-0.15453558
19	0xbdb3b9e6	-0.08775692
20	0x3d2d9a5c	0.042383537
21	0xbdb83518	-0.08994502
22	0x3d932388	0.071845114
23	0x3ea0bd30	0.3139434
24	0x3e3f7754	0.18697864
25	0x3e50685c	0.2035231
26	0x3d8c8e83	0.068631195
27	0x3de5ba41	0.11217166
28	0x3e47eec5	0.19524677
29	0x3e04f055	0.12982304
30	0xbe3e5e61	-0.1859069
31	0xbd665e31	-0.05624217
32	0xbdc65e25	-0.096859254
33	0xbd6ee3b3	-0.05832262
34	0xbd6b3357	-0.05742201
35	0xbde4e109	-0.111757345
36	0xbe80a5e6	-0.2512657
37	0xbe369dc5	-0.17833622
38	0xbe170c4a	-0.14750782
39	0x3d845597	0.064616375
40	0xbc17e1a6	-0.009270107
41	0x3d4e3bdd	0.05035006
42	0xbd23491e	-0.03986465
43	0xbdd1fddb	-0.10253497
44	0x3dba2ed4	0.09090963
45	0xbd244e96	-0.040114008
46	0x3dfaed4f	0.12252294
47	0xbc203a6d	-0.009779555
48	0x3e32c7b0	0.17458987
49	0xbd52bd10	-0.051449835
50	0xbdda23ea	-0.10651381
51	0x3d32d736	0.043662272
52	0xbc51b657	-0.012799821
53	0xbe153a71	-0.14573075
54	0x3dfb5bac	0.122733444
55	0xbe097f11	-0.13427378
56	0xbc498077	-0.012298695
57	0xbdc5d9d0	-0.09660685
58	0xbd163f70	-0.036681592
59	0x3dd673c0	0.10471296
60	0xbd74db73	-0.059779596
61	0x3c8651a0	0.016396344
62	0xbd891698	-0.066937625
63	0xbcb7c261	-0.022431554
64	0xbde56440	-0.11200762
65	0xbd68ee31	-0.056867782
66	0xbdc14aeb	-0.094381176
67	0xbe551c3f	-0.20811556
68	0x3c8e209d	0.017349536
69	0xbd81aa33	-0.06331291
70	0x3afef83f	0.0019452645
71	0xbd812865	-0.06306533
72	0x3d651422	0.055927403
73	0xbe50a900	-0.20376968
74	0x3db1430f	0.086553685
75	0x3c0e3be2	0.008681269
76	0xbba679bb	-0.0050804294
77	0x3dbc2d50	0.0918833
78	0xbd3489e4	-0.044076815
79	0xbd32ac86	-0.043621562
80	0xbc8981bb	-0.016785493
81	0x3c0977ec	0.008390408
82	0xbc490e0a	-0.012271414
83	0x3d1496ac	0.036276504
84	0x3d297a07	0.04137614
85	0xbd8bc16f	-0.06824004
86	0xbdc3e522	-0.09565188
87	0x3c54f9ca	0.0129990075
88	0xbc40d3b0	-0.01176922
89	0x3cf8b643	0.030360347
90	0xbb9fc56b	-0.004875829
91	0xbd6d4ac4	-0.05793263
92	0xbc834266	-0.016022872
93	0x3d8acfa0	0.067778826
94	0xbe1d53e8	-0.15364039
95	0xbe0c6863	-0.13711695
96	0xbdb59bc0	-0.088675976
97	0x3dad5368	0.08463174
98	0xbd612841	-0.05497003
99	0xbdd2db33	-0.10295715
100	0xbc7f10a1	-0.0155679295
101	0x3e4a0311	0.19727732
102	0xbc0af35b	-0.008480872
103	0xbd54ce46	-0.05195453
104	0xbd53a245	-0.051668424
105	0x3d669037	0.056289878
106	0xbe423c76	-0.18968377
107	0xbdad7626	-0.08469801
108	0x3d862f5f	0.06552004
109	0xbc83f396	-0.016107362
110	0x3ddd4484	0.10804084
111	0x3ddecd4a	0.108789995
112	0x3e1bcc83	0.15214734
113	0x3ce61b3f	0.028089164
114	0x3b8b3437	0.004248168
115	0xbe11d2f1	-0.14240624
116	0x3d5f4f11	0.054518763
117	0x3cdf4bb2	0.027257774
118	0x3dc6ae48	0.0970121
119	0x3de08a6b	0.10963901
120	0xbd92e785	-0.07173065
121	0x3d8d4ac8	0.06899029
122	0xbdf5adf7	-0.11996072
123	0xbda9e9b5	-0.08296529
124	0x3d4ddd7e	0.05026006
125	0x3e144f5c	0.14483398
126	0xbdcb608a	-0.09930523
127	0x3dd9fa0f	0.10643398
128	0x3d779f86	0.060454868
129	0x3de9f37e	0.114233956
130	0x3d3b8549	0.045781408
131	0x3e42cbd0	0.19023061
132	0x3da34686	0.07972436
133	0xbe07e743	-0.13271813
134	0x3c91ab13	0.01778177
135	0x3d8ba6fc	0.06818959
136	0xbd925c89	-0.07146556
137	0xbddfafc9	-0.109222
138	0x3e122c1a	0.14274636
139	0xbd8f91d9	-0.0701024
140	0x3dbd27d0	0.09236109
141	0xbc7c7e49	-0.015410968
142	0xbdacdec9	-0.084409304
143	0xbe00ec86	-0.12590227
144	0x3dffd631	0.12492026
145	0x3ccab43d	0.024744147
146	0xbbdb1825	-0.006686228
147	0x3d82a981	0.063799866
148	0xbdcf0bb7	-0.10109656
149	0xbe7870d1	-0.24261786
150	0x3d2b790d	0.04186349
151	0x3d51195a	0.051049568
152	0x3cc990f7	0.024605257
153	0x3da68fad	0.08132873
154	0xbdcf298d	-0.10115347
155	0x3d63fadd	0.055659164
156	0xbd538fd9	-0.051650856
157	0xbd289735	-0.041159827
158	0xbd2de913	-0.042458605
159	0xbe11e71b	-0.14248316
160	0x3d22541e	0.039631
161	0x3e046579	0.12929334
162	0x3e214cb1	0.15751912
163	0x3b253e75	0.002521423
164	0x3c199236	0.009373238
165	0xbe3ebcf3	-0.18626766
166	0xbdeae6ba	-0.11469789
167	0x3e1c3b0f	0.15256904
168	0x3c0fede2	0.008784743
169	0xbd19a9c9	-0.037515435
170	0xbe3df291	-0.18549563
171	0x3cb5035d	0.02209633
172	0xbcb37a12	-0.021908794
173	0xbd100954	-0.035165146
174	0x3b4b8c38	0.0031058919
175	0x3de2ab7d	0.11067865
176	0x3e0289bb	0.12747853
177	0xbd711d55	-0.058865864
178	0xbc169c2d	-0.009192509
179	0xbcf9d1ec	-0.030495606
180	0x3d4d0cc7	0.050061014
181	0x3d2f197c	0.042748913
182	0xbd0f83a0	-0.035037637
183	0x3dcd9920	0.10038972
184	0xbdef294d	-0.116777994
185	0xbd98de75	-0.07464305
186	0xbe0b88ed	-0.13626452
187	0xbd03b925	-0.03215899
188	0x3d108f0e	0.035292678
189	0x3e1dc2a5	0.15406282
190	0xbe626a0f	-0.2211077
191	0xbde328b9	-0.110917516
192	0x3d7baa05	0.06144144
193	0xbd5a14a8	-0.053242356
194	0xbda95400	-0.08267975
195	0xbcb1aa04	-0.021687515
196	0xbc8a7203	-0.016900068
197	0xbd9479a2	-0.07249762
198	0xbd8a5ccd	-0.067559816
199	0xbd161dc7	-0.03664949
200	0xba0e02d1	-0.000541729
201	0xbd7b56c8	-0.061362058
202	0xbdad2d79	-0.08455939
203	0xbb898919	-0.0041972515
204	0xbdc948c6	-0.098283336
205	0xbc5f1f1f	-0.01361826
206	0xbc21d968	-0.009878494
207	0xbda5c1b7	-0.08093589
208	0x3c122b9b	0.008921529
209	0xbd06e18d	-0.032929946
210	0xbe92fb91	-0.28707555
211	0xbcfafef8	-0.030639157
212	0xbc848d63	-0.0161807
213	0xbd970fe7	-0.0737608
214	0xbe280964	-0.16409832
215	0x3e32c21f	0.17456864
216	0x3d1ca6ac	0.03824489
217	0xbd5d6f61	-0.054061297
218	0xbdb47452	-0.08811249
219	0x3d86fd84	0.06591323
220	0x3cbfc6ee	0.023410287
221	0x3d547b84	0.051875606
222	0x3c990ac5	0.018681893
223	0xbd83ded5	-0.06438986
224	0x3e215d0b	0.1575815
225	0x3d9ba8f5	0.07600585
226	0xbdf0dd64	-0.11760977
227	0x3d591b35	0.053004462
228	0x3d8de278	0.06927961
229	0xbdb2f115	-0.08737389
230	0x3d6a5402	0.057209022
231	0x3d355267	0.044268038
232	0x3e0a9460	0.13533163
233	0x3ddda64b	0.108227335
234	0xbd294b55	-0.041331608
235	0x3e58b319	0.2116207
236	0x3dc2939a	0.09500809
237	0x3e50076a	0.20315328
238	0xbd1278a5	-0.035759587
239	0x3e15a8ce	0.14615175
240	0xbca30be2	-0.019903127
241	0xba1d40e4	-0.0005998744
242	0x3ca77a31	0.020444008
243	0xbd37e06f	-0.04489177
244	0xbbc1dcb3	-0.005916202
245	0xbcc983e7	-0.024599029
246	0x3e451bd0	0.19248891
247	0xbd6581bb	-0.056031924
248	0xbd213508	-0.039357215
249	0x3e2f54e9	0.17122234
250	0x3d8161c0	0.063174725
251	0xbe2657a2	-0.16244367
252	0xbd05318c	-0.032517955
253	0x3dd2acd5	0.10286871
254	0x3db7b2a4	0.0896962
255	0x3e085d89	0.13316931

l1.weight.rho f4 [120, 29]
0	0xc03fc550	-2.996418
1	0xc046d2fb	-3.1066272
2	0xc038ec54	-2.8894243
3	0xc03908d9	-2.891165
4	0xc035331c	-2.8312445
5	0xc03a0564	-2.906579
6	0xc039f819	-2.9057677
7	0xc045c7f3	-3.090329
8	0xc0479809	-3.1186545
9	0xc03ae1ea	-2.9200387
10	0xc0330b1b	-2.7975528
11	0xc040288c	-3.0024748
12	0xc0505965	-3.2554562
13	0xc03a9d10	-2.9158363
14	0xc040d26e	-3.0128436
15	0xc03b8ea0	-2.9305801
16	0xc0423f9e	-3.035133
17	0xc04707c4	-3.109849
18	0xc042f880	-3.0464172
19	0xc03fb675	-2.9955113
20	0xc03916e3	-2.892022
21	0xc042acd0	-3.0417976
22	0xc0440623	-3.0628746
23	0xc047a1cf	-3.119251
24	0xc0431a8f	-3.048496
25	0xc03d4170	-2.957119
26	0xc03e59f4	-2.9742403
27	0xc03945b7	-2.89488
28	0xc04c2371	-3.1896632
29	0xc0417be1	-3.023186
30	0xc0447a0d	-3.0699494
31	0xc04169a7	-3.0220735
32	0xc040c4bb	-3.0120075
33	0xc04d0708	-3.2035542
34	0xc034a858	-2.822775
35	0xc03a93db	-2.9152744
36	0xc03a4879	-2.9106734
37	0xc03a2d9e	-2.9090343
38	0xc0427956	-3.0386558
39	0xc03d8c21	-2.9616778
40	0xc03cd2df	-2.9503706
41	0xc040e4b6	-3.0139594
42	0xc02d78db	-2.7105014
43	0xc0409773	-3.0092437
44	0xc0376591	-2.8655741
45	0xc04506a5	-3.0785306
46	0xc03b9d5b	-2.9314792
47	0xc0345d19	-2.8181822
48	0xc0416457	-3.0217493
49	0xc038efcf	-2.8896368
50	0xc03b5914	-2.927312
51	0xc043da6c	-3.0602064
52	0xc047be19	-3.1209776
53	0xc037b5bf	-2.870468
54	0xc04262b0	-3.0372734
55	0xc0415b44	-3.0211954
56	0xc049830f	-3.1486242
57	0xc03ecbd0	-2.9811897
58	0xc048667f	-3.1312559
59	0xc03c1d18	-2.9392757
60	0xc042e7d7	-3.0454004
61	0xc04199c4	-3.02501
62	0xc041f5cc	-3.0306273
63	0xc045baea	-3.0895333
64	0xc0395081	-2.8955386
65	0xc03a6d80	-2.9129333
66	0xc0455cbc	-3.083785
67	0xc041cfc9	-3.0283072
68	0xc038e57c	-2.8890066
69	0xc0369b19	-2.8532164
70	0xc0393b8f	-2.8942602
71	0xc0419938	-3.0249767
72	0xc03cf1c1	-2.9522555
73	0xc034c244	-2.824357
74	0xc042f952	-3.0464673
75	0xc0429003	-3.0400398
76	0xc0464e85	-3.0985425
77	0xc04048ed	-3.004451
78	0xc0455910	-3.083561
79	0xc0518918	-3.2739925
80	0xc04c6c83	-3.194123
81	0xc038266b	-2.8773448
82	0xc03d1da2	-2.9549336
83	0xc0471cf0	-3.1111412
84	0xc036b35d	-2.8546975
85	0xc039e3ff	-2.9045408
86	0xc034bc18	-2.8239803
87	0xc03e9035	-2.9775517
88	0xc03f166c	-2.9857435
89	0xc0363d5d	-2.8474953
90	0xc03f578f	-2.9897192
91	0xc03eb359	-2.9796965
92	0xc03e3263	-2.9718254
93	0xc045e7cd	-3.092273
94	0xc043bff8	-3.0585918
95	0xc0410a1a	-3.0162416
96	0xc0445aa6	-3.0680327
97	0xc048a27d	-3.1349175
98	0xc03e6eef	-2.9755208
99	0xc04c3238	-3.190565
100	0xc0440733	-3.0629394
101	0xc03b0153	-2.9219558
102	0xc04493cd	-3.071521
103	0xc03826b0	-2.8773613
104	0xc041114a	-3.0166802
105	0xc0429e24	-3.0409021
106	0xc03a7538	-2.9134045
107	0xc03f8d5a	-2.9930024
108	0xc041bbaf	-3.0270803
109	0xc0381c23	-2.8767173
110	0xc042497a	-3.0357347
111	0xc0456e82	-3.0848699
112	0xc04212cc	-3.0323973
113	0xc03805f4	-2.8753633
114	0xc0452b50	-3.0807686
115	0xc0341ad7	-2.8141382
116	0xc0419bcc	-3.025134
117	0xc03ea07b	-2.978545
118	0xc03972fb	-2.8976429
119	0xc0404ed1	-3.0048106
120	0xc0425b6f	-3.0368307
121	0xc046db22	-3.1071248
122	0xc040987f	-3.0093076
123	0xc03c0387	-2.9377153
124	0xc03b2321	-2.924019
125	0xc040a0af	-3.0098073
126	0xc03e7f9f	-2.9765394
127	0xc0405d36	-3.0056891
128	0xc03d2c14	-2.9558153
129	0xc03f1352	-2.9855542
130	0xc04bb04f	-3.182636
131	0xc033eb1b	-2.8112247
132	0xc034a185	-2.8223584
133	0xc047a43f	-3.1193998
134	0xc04db2e6	-3.214044
135	0xc03c80fb	-2.9453723
136	0xc03e5879	-2.97415
137	0xc0424c10	-3.0358925
138	0xc0442ced	-3.065242
139	0xc03b2ec0	-2.9247284
140	0xc03fdcb5	-2.997846
141	0xc047a18c	-3.119235
142	0xc03c3d8c	-2.9412565
143	0xc03c2a48	-2.9400806
144	0xc03a3760	-2.9096298
145	0xc03dad9e	-2.9637218
146	0xc043f188	-3.061617
147	0xc04513ec	-3.079341
148	0xc046ce47	-3.1063402
149	0xc03e630a	-2.9747949
150	0xc03d474d	-2.9574769
151	0xc046c875	-3.105985
152	0xc03e3c03	-2.9724128
153	0xc04dffa3	-3.2187278
154	0xc03928a8	-2.8931065
155	0xc03d21cd	-2.955188
156	0xc03ea858	-2.979025
157	0xc04660a2	-3.099648
158	0xc03a2481	-2.908478
159	0xc04468ba	-3.068892
160	0xc03ef183	-2.9834907
161	0xc046c6b8	-3.1058788
162	0xc03c5f71	-2.9433253
163	0xc03f3788	-2.9877644
164	0xc046fbe3	-3.109124
165	0xc03f1db5	-2.9861882
166	0xc040f65e	-3.015037
167	0xc03ed1af	-2.981548
168	0xc0420f9c	-3.0322027
169	0xc0445f07	-3.0683
170	0xc0458cb2	-3.0867124
171	0xc03e0c62	-2.9695058
172	0xc040ed9c	-3.0145025
173	0xc0404f78	-3.0048504
174	0xc0397c9c	-2.8982306
175	0xc03cea52	-2.9518018
176	0xc035a4c0	-2.8381805
177	0xc0397185	-2.8975537
178	0xc03fb195	-2.9952137
179	0xc046f05b	-3.1084201
180	0xc0416290	-3.0216408
181	0xc042297b	-3.0337818
182	0xc0499a0a	-3.1500268
183	0xc03e7240	-2.9757233
184	0xc0428e1e	-3.0399241
185	0xc034d30d	-2.8253815
186	0xc03898db	-2.8843296
187	0xc0452ad2	-3.0807385
188	0xc04fc9b0	-3.246685
189	0xc0482402	-3.1271977
190	0xc03b74d7	-2.9290063
191	0xc03a908e	-2.915073
192	0xc03e0f4e	-2.9696841
193	0xc0355776	-2.8334632
194	0xc04b73d7	-3.1789453
195	0xc03e24bf	-2.9709928
196	0xc044f2fd	-3.0773308
197	0xc0434b84	-3.051484
198	0xc033fc8a	-2.8122888
199	0xc0397284	-2.8976145
200	0xc0362b88	-2.846407
201	0xc0408ff3	-3.008786
202	0xc03f5c41	-2.9900057
203	0xc0421f17	-3.0331476
204	0xc03d885f	-2.9614484
205	0xc04d1ca2	-3.2048726
206	0xc03e15f4	-2.97009
207	0xc041bd0a	-3.027163
208	0xc03ba103	-2.9317024
209	0xc0427887	-3.0386064
210	0xc03c61d5	-2.9434712
211	0xc049c2ad	-3.152507
212	0xc043f2b9	-3.0616896
213	0xc04140b9	-3.0195754
214	0xc03e3d36	-2.972486
215	0xc042940b	-3.0402858
216	0xc03d30dd	-2.9561074
217	0xc0463753	-3.0971267
218	0xc0356d3e	-2.8347926
219	0xc03fc1b8	-2.9961987
220	0xc047c266	-3.1212401
221	0xc0368bb2	-2.8522763
222	0xc0355051	-2.8330271
223	0xc036b5ad	-2.8548386
224	0xc0400ca0	-3.0007706
225	0xc03a69ae	-2.9127002
226	0xc03d7fb4	-2.9609194
227	0xc03c2613	-2.9398239
228	0xc0435b00	-3.0524292
229	0xc0414b20	-3.0202103
230	0xc03a363e	-2.9095607
231	0xc041e840	-3.0298004
232	0xc0516d93	-3.2723129
233	0xc03f3322	-2.987496
234	0xc03df803	-2.9682624
235	0xc041c4fa	-3.0276475
236	0xc040d9a6	-3.0132842
237	0xc045b38f	-3.0890844
238	0xc0406081	-3.0058901
239	0xc041bb70	-3.0270653
240	0xc044f478	-3.0774212
241	0xc0418d93	-3.024266
242	0xc048ea68	-3.139307
243	0xc03e25b6	-2.9710517
244	0xc03f6252	-2.990376
245	0xc039e955	-2.9048665
246	0xc03e1701	-2.970154
247	0xc0367797	-2.8510492
248	0xc03c7c36	-2.9450812
249	0xc0391384	-2.8918161
250	0xc03b417d	-2.925872
251	0xc0427990	-3.0386696
252	0xc0453b62	-3.0817494
253	0xc04459a4	-3.0679712
254	0xc046f4e3	-3.1086967
255	0xc0397e62	-2.8983388

l1.bias.mu f4 [120]
0	0x3e852824	0.26007187
1	0x3d50165c	0.050802574
2	0xbc05b695	-0.008161207
3	0xbdccc277	-0.09998029
4	0x3e8439b8	0.25825286
5	0x3d3afa8a	0.04564909
6	0x3bb4cf46	0.005517873
7	0x3cd01164	0.025398917
8	0x3eb7dc4e	0.35910267
9	0xbb173ed9	-0.0023078232
10	0xbd8e0b73	-0.069357775
11	0xbdcdcf2f	-0.10049283
12	0xbe94f88e	-0.29095882
13	0xbda87400	-0.0822525
14	0x3e7ad748	0.24496186
15	0xbc8275bd	-0.015925283
16	0x3e10c0fb	0.14136116
17	0xbdc2d61f	-0.095134966
18	0x3e6b50e9	0.22980084
19	0x3d4df660	0.05028379
20	0xbdb0259f	-0.08600926
21	0x3c8255c7	0.015910042
22	0x3e08d5de	0.13362834
23	0x3e2700de	0.16308925
24	0xbe0233f3	-0.1271513
25	0xbe21d3c3	-0.15803437
26	0xbbf719bf	-0.007540911
27	0xbe03ab1a	-0.12858239
28	0xbd3aa04a	-0.04556302
29	0xbe26debb	-0.16295902
30	0x3e3e10dc	0.18561119
31	0x3d29f447	0.041492727
32	0x3e735d53	0.23766069
33	0x3da59138	0.08084339
34	0xbc3f6fe5	-0.011684393
35	0xbdc3deaa	-0.09563954
36	0xbe8b5e3c	-0.27220333
37	0x3ca33403	0.019922262
38	0xbd3f9431	-0.046772186
39	0xbd0bf5da	-0.03417001
40	0x3e1431de	0.14472148
41	0xbdc059ab	-0.09392103
42	0xbc950468	-0.018190578
43	0xbdcd4e90	-0.1002475
44	0x3d9744d3	0.07386174
45	0xbc5876e6	-0.013211941
46	0x3e7ca1bb	0.2467107
47	0x3d8e25c6	0.069407985
48	0xbd9dd724	-0.077070504
49	0xbe33e162	-0.17566445
50	0x3d0a5166	0.033769034
51	0x3cf18251	0.029481085
52	0x3da68705	0.08131222
53	0xbdf0530b	-0.11734589
54	0x3e92e825	0.28692737
55	0x3d5f14b9	0.054463122
56	0xbd8d6365	-0.069037236
57	0x3d404995	0.046945173
58	0x3da6f107	0.08151441
59	0x3dc45708	0.095869124
60	0x3d06c159	0.032899234
61	0x3d782806	0.060585044
62	0xbe1198d4	-0.14218456
63	0xbdb62e97	-0.08895605
64	0x3e5b8f30	0.2144134
65	0x3e1ae5d9	0.15126742
66	0xbc0f08b9	-0.008730107
67	0xbdde6e5e	-0.108608946
68	0xbdb6c945	-0.08925108
69	0x3e20113a	0.15631571
70	0x3d5359e0	0.051599383
71	0xbd6d5ef8	-0.057951897
72	0x3e883f50	0.26610804
73	0x3e3800f4	0.17969114
74	0x3da8ba9d	0.08238719
75	0x3d7fdded	0.062467504
76	0xbe7bd915	-0.24594529
77	0x3e0cc13a	0.13745585
78	0x3d13f686	0.036123775
79	0xbcc77393	-0.024347102
80	0xbc44df9d	-0.012016204
81	0xbdb66dd2	-0.08907665
82	0x3e387efd	0.18017192
83	0x3e5b31d3	0.21405725
84	0x3cf6dac9	0.030133622
85	0x3be590cd	0.007005787
86	0xbdb44b1b	-0.08803388
87	0xbdfa432c	-0.12219843
88	0x3e42bc98	0.19017255
89	0x3dbdaf99	0.09262008
90	0x3e762618	0.24037969
91	0xbe7c4e1e	-0.24639174
92	0xbb92f8da	-0.004485232
93	0x3e0bc9ac	0.1365115
94	0x3d83e84e	0.06440793
95	0xbdb331f1	-0.0874976
96	0x3ba9bbb4	0.0051798467
97	0x3df0bdd8	0.1175496
98	0x3e3c0be2	0.18363908
99	0xbc0daddc	-0.008647408
100	0xbda4a47c	-0.080391854
101	0xbd62253f	-0.055211302
102	0xbcca37df	-0.024684845
103	0xbd25f0ab	-0.040512722
104	0x3dd8534d	0.10562763
105	0xbdc1feef	-0.09472453
106	0x3e3d3a76	0.18479332
107	0x3e49020b	0.19629686
108	0x3e68a803	0.22720341
109	0xbdf6a174	-0.120425135
110	0xbcdb53e8	-0.026773408
111	0x3e8c0466	0.27347106
112	0xbd88a086	-0.066712424
113	0x3c747fe1	0.014923067
114	0x3de5c998	0.112200916
115	0x3d6a8f51	0.057265583
116	0xbd93f8ac	-0.07225165
117	0x3e448500	0.1919136
118	0xbd7052bf	-0.058672663
119	0x3d77ca07	0.060495403

l1.bias.rho f4 [120]
0	0xc04a928c	-3.1651945
1	0xc048ae1b	-3.1356266
2	0xc039dac3	-2.9039772
3	0xc03d3b5a	-2.9567475
4	0xc039d13b	-2.9033954
5	0xc03bca8d	-2.9342377
6	0xc04070e2	-3.0068898
7	0xc03ad989	-2.9195273
8	0xc032ab90	-2.7917213
9	0xc039e424	-2.9045496
10	0xc03e8b81	-2.9772646
11	0xc03ae79f	-2.920387
12	0xc03c4d4b	-2.9422176
13	0xc03ee145	-2.9824994
14	0xc040343a	-3.0031877
15	0xc0450ffd	-3.0791008
16	0xc02b8cd9	-2.6804717
17	0xc04bb299	-3.1827757
18	0xc04cb729	-3.1986792
19	0xc02f00c8	-2.7344227
20	0xc045755c	-3.085288
21	0xc041c3fb	-3.0275867
22	0xc0362f46	-2.8466353
23	0xc0410df8	-3.0164776
24	0xc0454ad5	-3.0826924
25	0xc03b6f1f	-2.9286573
26	0xc04b9239	-3.1807997
27	0xc0423743	-3.034623
28	0xc0389fd1	-2.8847544
29	0xc041c7f2	-3.0278287
30	0xc046363b	-3.09706
31	0xc03df94c	-2.9683409
32	0xc04750b4	-3.1143007
33	0xc0493d3a	-3.144362
34	0xc03fe68b	-2.9984462
35	0xc0400438	-3.0002575
36	0xc03d5b96	-2.958715
37	0xc03df943	-2.9683387
38	0xc036adcc	-2.8543577
39	0xc041058e	-3.015964
40	0xc03ba010	-2.9316444
41	0xc046b7d5	-3.1049702
42	0xc03c10c1	-2.9385226
43	0xc03a7efd	-2.9140007
44	0xc036e189	-2.8575156
45	0xc03d89b1	-2.961529
46	0xc0391cce	-2.892383
47	0xc03a2a88	-2.908846
48	0xc04334a9	-3.0500891
49	0xc040f54c	-3.0149717
50	0xc030af74	-2.7607088
51	0xc0432da3	-3.0496604
52	0xc04879c2	-3.1324315
53	0xc04070e4	-3.0068903
54	0xc039fd66	-2.9060912
55	0xc040456d	-3.0042374
56	0xc043896d	-3.0552628
57	0xc034d8f5	-2.825742
58	0xc04aff5c	-3.171836
59	0xc0491e36	-3.142469
60	0xc03bbf16	-2.933538
61	0xc042e9ce	-3.0455203
62	0xc0401883	-3.001496
63	0xc049b218	-3.151495
64	0xc03aef1c	-2.920844
65	0xc04187c0	-3.0239105
66	0xc0396e4c	-2.897357
67	0xc041eead	-3.0301926
68	0xc0413e3b	-3.0194232
69	0xc0456b63	-3.0846794
70	0xc03728df	-2.8618696
71	0xc03df318	-2.9679623
72	0xc0387b00	-2.8825073
73	0xc040c47e	-3.011993
74	0xc045d0a5	-3.0908597
75	0xc040c82e	-3.012218
76	0xc050a95e	-3.2603374
77	0xc03d33bb	-2.9562824
78	0xc03a31ff	-2.9093015
79	0xc0447bf5	-3.0700657
80	0xc0460b0f	-3.094425
81	0xc04012b8	-3.0011425
82	0xc0350982	-2.8287053
83	0xc040c746	-3.0121627
84	0xc036fb99	-2.8591063
85	0xc0398356	-2.898641
86	0xc03e8ce9	-2.9773505
87	0xc03b853a	-2.9300065
88	0xc0422b7f	-3.0339048
89	0xc04e6bc9	-3.2253287
90	0xc03ca9e2	-2.9478688
91	0xc0361354	-2.8449297
92	0xc03ae941	-2.9204867
93	0xc042dd6e	-3.044765
94	0xc02f55c6	-2.7396102
95	0xc0441aa7	-3.0641267
96	0xc03f9837	-2.9936655
97	0xc037d83e	-2.8725734
98	0xc03843c5	-2.8791363
99	0xc03ec443	-2.9807289
100	0xc03223ae	-2.7834277
101	0xc04122f0	-3.0177574
102	0xc0421867	-3.0327394
103	0xc03baa7e	-2.932281
104	0xc0455684	-3.0834055
105	0xc047a7da	-3.1196198
106	0xc04492bf	-3.0714567
107	0xc0423343	-3.0343788
108	0xc03ed1e3	-2.9815605
109	0xc040a3e7	-3.0100038
110	0xc045e35b	-3.0920017
111	0xc03de34b	-2.9669979
112	0xc03abd52	-2.9178052
113	0xc0476dff	-3.1160886
114	0xc04882c5	-3.1329815
115	0xc039c99e	-2.9029307
116	0xc041a972	-3.0259671
117	0xc03196e6	-2.774835
118	0xc03b55bd	-2.927108
119	0xc042b679	-3.0423872

classifier.0.weight_mu f4 [16, 120]
0	0x3d3da8fc	0.046303734
1	0x3dcf0081	0.10107518
2	0x3ca35ab4	0.019940712
3	0x3e000092	0.12500218
4	0x3e25b850	0.16183591
5	0x3d955080	0.07290745
6	0xbd36b95a	-0.04461036
7	0xbc21a102	-0.009865047
8	0x3e3b2594	0.18276054
9	0x3d507b50	0.05089885
10	0xbe216b2c	-0.15763539
11	0xbe465c82	-0.19371226
12	0x3c5476b9	0.012967759
13	0xbdc906ad	-0.098157264
14	0xbd5944f7	-0.053044286
15	0x3e5a02fb	0.212902
16	0x3ea4e829	0.32208374
17	0x3d8a7f6c	0.06762585
18	0x3e5a60a1	0.21325924
19	0xbe1ff4b4	-0.1562069
20	0xbe0e9e77	-0.13927637
21	0xbd8a2a00	-0.06746292
22	0x3e5ae06e	0.21374676
23	0xbe1cb5f1	-0.1530378
24	0xbe44dcb8	-0.19224823
25	0xbd8c6a0c	-0.06856164
26	0xbce09971	-0.027416917
27	0xbdfe2f4d	-0.12411366
28	0x3d59cb63	0.05317248
29	0xbd161d5e	-0.0366491
30	0x3dd580b6	0.1042494
31	0xbdc3eaae	-0.09566246
32	0x3dd7f949	0.10545594
33	0x3df32884	0.11872962
34	0x381a747b	3.6824942e-05
35	0x3d8fab1b	0.07015058
36	0xbc67cfea	-0.014148692
37	0xbdf62c95	-0.12020222
38	0xbc00aeb7	-0.007854155
39	0xbdbc681e	-0.09199546
40	0x3e00101a	0.12506142
41	0x3d6360b1	0.055512134
42	0xbd5772a3	-0.05259956
43	0x3dfab0c4	0.122407466
44	0x3df45853	0.11930909
45	0xbdc2eb59	-0.09517545
46	0x3cfbdc45	0.030744681
47	0x3c90668c	0.017627023
48	0xbd9576d3	-0.072980545
49	0xbdd07e68	-0.1018036
50	0xbda4dac9	-0.080495425
51	0x3d290f0e	0.041274123
52	0xbe0351c0	-0.12824154
53	0xbd2d492b	-0.042306107
54	0x3d9e290f	0.07722675
55	0x3dc7d173	0.09756746
56	0x3c3727fc	0.011178967
57	0xbdf951d6	-0.12173812
58	0x3d8af079	0.06784148
59	0xbe0f3b10	-0.13987374
60	0xbbc5bcee	-0.006034485
61	0xbda05d1a	-0.07830258
62	0x3d9554ab	0.0729154
63	0xbdd988b2	-0.10621776
64	0x3da5eac3	0.08101418
65	0x3e749a36	0.23886952
66	0xbcba0326	-0.02270658
67	0x3d141f18	0.036162466
68	0x3e1c0843	0.15237527
69	0x3d95a89e	0.07307552
70	0x3d38c7b8	0.04511234
71	0xbd4d4a03	-0.05011941
72	0xbd0c705c	-0.03428684
73	0xbc4953bb	-0.012288029
74	0x3e3f872e	0.1870391
75	0x3a3301a4	0.00068285526
76	0xbd762f3b	-0.060103636
77	0x3e2b6da5	0.16741045
78	0xbd4bc449	-0.04974774
79	0x3e385dc8	0.18004525
80	0x3a40d8cb	0.00073565234
81	0x3b89b9b9	0.004203048
82	0x3e48c77b	0.19607346
83	0x3ea31abd	0.31856337
84	0xbbf71002	-0.00753975
85	0xbd1f53b5	-0.03889819
86	0x3ce952e4	0.028481908
87	0x3e99e971	0.30060914
88	0x3de5d86e	0.11222921
89	0xbd9567e4	-0.07295206
90	0x3b7d54a8	0.0038655195
91	0x3ddc106d	0.107453205
92	0xbd4858f1	-0.048912946
93	0x3daf4d0e	0.08559619
94	0x3e03b446	0.12861738
95	0x3d0cbbf3	0.03435893
96	0xbd326553	-0.04355366
97	0xbd289fbc	-0.04116796
98	0x3e57fd62	0.21092752
99	0xbd32bad7	-0.043635216
100	0x3d553e85	0.052061576
101	0xbd69c445	-0.057071943
102	0xbdf004fe	-0.11719702
103	0xbdc7d0aa	-0.097565964
104	0xbe11275b	-0.14175169
105	0xbe179b61	-0.14805366
106	0x3d9ce872	0.07661523
107	0x3e20fa58	0.15720499
108	0x3d5265a2	0.051366456
109	0xbcba7be7	-0.02276416
110	0xbe7b9edb	-0.24572317
111	0x3e503217	0.20331608
112	0xbdd01446	-0.10160117
113	0x3ccb7067	0.024833871
114	0x3d6f3c0e	0.058406882
115	0xbdde7e94	-0.108639866
116	0x3c9cf574	0.01916001
117	0x3e3a02e9	0.18165173
118	0x3dcf756e	0.1012982
119	0xbd4b1deb	-0.04958908
120	0x3e1992a8	0.14997351
121	0xbe11f3d7	-0.14253174
122	0x3dbd67ee	0.09248339
123	0x3e1c687b	0.15274231
124	0x3e10b720	0.14132357
125	0x3dd5d543	0.10441067
126	0x3cde6102	0.027145866
127	0x3d0ffdba	0.035154082
128	0x3e560815	0.2090152
129	0xbe0bbbd2	-0.13645867
130	0x3d7fe1d1	0.062471215
131	0xbe2c2ca2	-0.16813901
132	0xbdb946f4	-0.09046736
133	0x3c8250d7	0.015907688
134	0x3efe1cfd	0.4963149
135	0x3e61c914	0.22049361
136	0x3e237c32	0.15965346
137	0xbdbc2ad5	-0.09187857
138	0x3e976d28	0.29575467
139	0xbdf0bb0a	-0.11754425
140	0xbbf4c9f5	-0.007470364
141	0x3d7afe26	0.06127753
142	0x3e2023af	0.15638612
143	0x3d7f0b4f	0.062266644
144	0x3d7a840d	0.06116109
145	0x3de782a4	0.113042146
146	0x3d23eb19	0.04001913
147	0xbe509f36	-0.20373234
148	0x3d266e85	0.040632743
149	0xbd92f8e1	-0.07176376
150	0xbd896e25	-0.067104615
151	0x3d8689f9	0.06569285
152	0x3e183abb	0.14866154
153	0xbb8cadf0	-0.004293196
154	0x3e1195b3	0.14217262
155	0xbbccb693	-0.0062473505
156	0x3c2bcf5c	0.01048645
157	0x3c942cf7	0.018087847
158	0xbe367d30	-0.17821193
159	0x3d71a352	0.058993645
160	0x3db0007b	0.08593842
161	0xbd66e4e7	-0.056370642
162	0xbe364422	-0.17799428
163	0xbcccec56	-0.025015038
164	0xbdaf9eb2	-0.085751906
165	0x3d7f16ee	0.062277727
166	0x3e1bdcf5	0.15221007
167	0xbe2e7a6c	-0.17038888
168	0xbc00bfe7	-0.007858253
169	0x3e473fe4	0.19457966
170	0x3d45f139	0.04832575
171	0x3e162fc5	0.1466666
172	0x3dc42c53	0.09578767
173	0xbd3266e4	-0.043555155
174	0x3d51c840	0.051216364
175	0x3db03ba3	0.08605125
176	0xbd63056d	-0.055425096
177	0xbda76fee	-0.08175646
178	0x3da6b6a0	0.08140302
179	0x3b84fa17	0.0040581333
180	0x3dc7e014	0.097595364
181	0xbc4508fa	-0.012026066
182	0xbd36e7e2	-0.044654734
183	0xbe3a01b7	-0.18164717
184	0x3dacc65d	0.08436272
185	0x3d953191	0.07284845
186	0xbdaccdb7	-0.084376745
187	0xbe0575c7	-0.1303321
188	0xbdb00c05	-0.085960425
189	0x3e88fe92	0.26756722
190	0x3c89d29b	0.016824057
191	0xbd914645	-0.07093481
192	0xbe361bb2	-0.17784002
193	0x3dd899fb	0.105762444
194	0xbbe21723	-0.006899731
195	0xbdf664de	-0.12030958
196	0x3c5d049c	0.0134898685
197	0x3cb9b180	0.022667646
198	0x3c67efd6	0.014156302
199	0x3e29f4ba	0.16597262
200	0xbd97e96a	-0.07417567
201	0x3e9a00be	0.3007869
202	0x3d98f299	0.07468147
203	0x3e09f47c	0.1347217
204	0xbd8421ce	-0.0645176
205	0xbc54e9bb	-0.012995179
206	0xbc2604c6	-0.010132974
207	0x3e227672	0.15865496
208	0x3e21c39e	0.15797278
209	0x3d861df8	0.06548685
210	0x3e52ee75	0.20598777
211	0xbd1400db	-0.03613363
212	0xbe8bcd3b	-0.27305016
213	0x3d9967f3	0.0749053
214	0xbce33f23	-0.027740067
215	0xbd4cc815	-0.0499955
216	0xbd71dae0	-0.059046626
217	0xbd8aea83	-0.06783011
218	0x3c10eb17	0.008845112
219	0x3ce34664	0.027743526
220	0x3e177f13	0.14794569
221	0x3e08acdd	0.13347192
222	0xbde076fa	-0.10960193
223	0x3dbf379e	0.0933678
224	0x3c9c88f9	0.019108282
225	0x3cee6969	0.029102998
226	0x3da94b41	0.08266307
227	0xbd602038	-0.054718226
228	0xbcf74948	-0.03018631
229	0x3e1442c7	0.14478599
230	0xbdcb5c22	-0.09929682
231	0x3e2cdd01	0.16881181
232	0xbd7deef7	-0.061995473
233	0x3e8af402	0.27139288
234	0x3a5bb91c	0.00083817705
235	0x3d5b4c00	0.053539276
236	0xbe03c97e	-0.12869832
237	0x3e8cdfff	0.27514645
238	0xbe6ae570	-0.22939086
239	0x3ce954aa	0.028482754
240	0x3e33fc67	0.17576753
241	0x3d4d1a18	0.050073713
242	0xbdd26bfa	-0.10274501
243	0x3e263132	0.16229704
244	0x3d62a861	0.05533636
245	0xbda422ac	-0.08014426
246	0xbe0be512	-0.13661602
247	0x3df37bb9	0.118888326
248	0x3e8bae42	0.27281386
249	0x3bf0cbe8	0.0073485263
250	0x3d8ac115	0.06775109
251	0x3dcf730b	0.101293646
252	0x3ddf8ab2	0.10915126
253	0x3cf0b6d3	0.029384052
254	0x3d8c59b5	0.06853048
255	0x3d807ffd	0.06274412
